output/clip/FD004/exp_202411021537_bilstm_clip_ep-0026.pth (torch, 288916 bytes, 66 tensors)

module.bi_lstm1.weight_ih_l0 f4 [64, 14]
00000000: 8ed8 973c 10c3 a73c 8380 393c a77b afbb
00000010: fa37 cd3a 25c8 c93b f35c dd3c cf9f 3c3b
00000020: 8bd3 b1ba ebe9 80ba 73af dd3b d7fe 8a3c
00000030: dbf4 13bd 6d67 a5bc de6b 2abb bd70 a4bb
00000040: 0cc2 03bc ef42 87bb fddd 6abb be3f 30bb
00000050: b40b e7bb ee2e 05bb bead 53bb 192e 37bb
00000060: 21ae 3cba b08c b5bb 3e4d e2ba f486 d5ba
00000070: b31a 04bd 14cc b93c 42bb 44bd 56ab 5e3e
00000080: 5a0b 503c c5de e43d b593 7ebd df2f 693e
00000090: 51b6 efbb 3b46 1f3e e9b6 e3bd 93e0 39bd
000000a0: 3345 563e 07ab 303e e4b6 8d3d 9e96 553d
000000b0: fb1b 4b3d b706 0bbd 9e69 0e3d 78c9 8e3a
000000c0: fcb7 913d dbc7 d4bc ddc2 f13c a33c 23bc
000000d0: 311f b23d 3aeb 3c3d 41f0 29bc 1870 f839
000000e0: aa14 493d 1264 2a3d 3614 873c f80a 44bd
000000f0: 040e 643d 3dd8 36bc 6a66 163d 738a 61bd
00000100: 4194 7d3d 2f82 9ebc ae15 f33d 986c 4f3d
00000110: fc61 fbbc 06c3 23bc c656 713d 508a 633d
00000120: 2e26 aa3c c553 ae3d 26eb 403d 92e3 233d
00000130: 185a 3e3d 9a3d d03d 0395 a23d dd4c 7b3d
00000140: 8b56 993d c400 5e3d 9470 213d cccb 073b
00000150: a4ec e43c c4e4 233d a95a c53c d7ce 163e
00000160: 243b 893d 12c8 f13d be63 5b3c a9bc 163e
00000170: cba8 723d 9221 0d3e 0f28 23bd 7199 db3c
00000180: f9d6 fe3d 79d9 d33d c3b0 cc3b 6724 9d3b
00000190: 007f e13b 8e60 5dbc 5cc7 01bc fa8a e33b
000001a0: e5c5 423c 5dff 27bc 50a2 22bc 190f 8c3b
000001b0: 4147 133c 2cf0 683c fec9 fcbc f555 bbbc
000001c0: b852 0bbc 56d9 513d 2ff9 35bc c295 a53d
000001d0: 76f3 b63c e28e 7d3d b253 983b fc3e a63d
000001e0: e99e 533c 4baa ac3d ff30 4bbc 82e8 a3bc
000001f0: 55da 7c3d c293 0a3d 7a0d 3a3d f227 783d
00000200: 016b 3f3d 0914 c93d f944 ba3d 08b0 ab3d
00000210: bea8 a03d e054 663d e8f9 8a3d bf7f 0a3e
00000220: 0f77 783d 2afa 293d fff8 133e 9400 a8bb
00000230: f19c 723d d30b 243d 207f be3d 4c39 c63d
00000240: f6cd 903d 4c33 5d3d 44d9 3c3d e574 0b3e
00000250: ec2d 7f3d 18a1 433d fc23 ba3d 983a 943d
00000260: 6792 a13a 8424 803d dcd6 783b af79 9d3b
00000270: da86 833d 712e f53b b50b 613c fc5b 0f3d
00000280: 5ddd 14bd a4fc b0bb 70a5 333d eae8 843c
00000290: 1412 e03c 7770 aebd e887 9c3c 6e3f 343b
000002a0: 75c6 813d 58cc 643d 58cd 533d bab1 af3d
000002b0: 517c 373d 518f 9b3d 230a 4f3d 3d14 b73d
000002c0: f2ce 253d e430 c63d f4bc be3d 70ba 473d
000002d0: 8ef5 c73d f53b 8d3d b3bd 95bc fe6b 83bc
000002e0: 0d92 33bd 9b88 a2bc ced6 1dbb f8e9 3bbd
000002f0: 5074 debc 61e0 9ebc 7260 91ba d495 43bd
00000300: 6bb4 c23c 6901 debc c08a ac3b 076b 113c
00000310: de2f a53d c8e3 feba 8023 b7bb 95f0 37be
00000320: 88d5 5c3d b033 82bd a51e 763d 9967 56be
00000330: 7436 9b3d 2cda c2bd 8a53 383e 4ea1 1f3d
00000340: 0f50 2dbe 5d57 d4bd a39f 553d 3668 003d
00000350: 0739 2b3d 910c 89bd 774a 9f3c 0be3 0b3c
00000360: 069c 323d 7549 85bd e88e ad3c 6702 f2bb
00000370: 21ff ef3d ce44 273d 0cf3 90bd 011b 79bd
00000380: 8d85 04bb 52ba f63b 59ec 873b add9 2a3c
00000390: 5d8a a4bb f411 da3b 9d05 d03b e06c 693c
000003a0: 1e2e 56bb 923c b23b ac1f 01bc 75d9 723b
000003b0: a76c 99bb c0ff 163c f943 07bb 3b39 7fbb
000003c0: 3e53 eabb cecf 90bb 38a3 7cbb fb91 ecba
000003d0: 927a dcbb 96dd 3dbb 124a 65bb 8964 10bb
000003e0: 5893 3dbb b3e2 98bb b237 84bb 285d 7ebb
000003f0: c3ff 28bd e5da 36bb 9469 9cbd e956 513e
0.018535879 0.020478755 0.0113221435 -0.0053553167 0.0015656941 0.0061578923 0.02702186 0.0028781777
-0.0013567073 -0.0009835338 0.0067653 0.01696722 -0.036122184 -0.020190919 -0.0026004235 -0.0050183223
-0.00804187 -0.004127852 -0.0035837882 -0.0026893462 -0.0070509557 -0.0020322162 -0.0032299603 -0.002795106
-0.0007197578 -0.005540453 -0.0017265452 -0.001629083 -0.032252025 0.02268032 -0.048030145 0.21745047
0.012698019 0.111753024 -0.062152583 0.22772168 -0.007315435 0.15554135 -0.11118872 -0.045380186
0.20924835 0.17252742 0.06919649 0.052145593 0.04958723 -0.03394195 0.034768693 0.0010893783
0.0711517 -0.025974205 0.029511863 -0.009963187 0.086973555 0.046122767 -0.010372222 0.00047385762
0.049091972 0.04159934 0.01648913 -0.047862023 0.05567743 -0.011159954 0.036718763 -0.055063676
0.061908964 -0.019349186 0.118693694 0.050640672 -0.030686371 -0.009995228 0.058920644 0.055551827
0.020770159 0.085120715 0.047099255 0.04001195 0.04647264 0.101679996 0.07938578 0.0613526
0.0748721 0.05419995 0.039414003 0.0020720838 0.02794487 0.04001309 0.024091082 0.1472734
0.06700733 0.118057385 0.01339048 0.14720406 0.059243005 0.13782337 -0.039833125 0.026806565
0.124433465 0.10344214 0.0062466576 0.0047955993 0.0068815947 -0.01351179 -0.007921066 0.0069440575
0.011888002 -0.010253754 -0.009926394 0.0042742607 0.008989156 0.014217418 -0.030858036 -0.022868136
-0.008503608 0.05123266 -0.011106773 0.08085205 0.022332888 0.06190384 0.004648649 0.08117482
0.012916305 0.08430918 -0.012401818 -0.02000833 0.061731655 0.03383232 0.04542301 0.06058497
0.046732906 0.098182745 0.09095187 0.08383185 0.07844685 0.056233287 0.06785947 0.13525294
0.060660418 0.04149834 0.14450453 -0.005127022 0.059231702 0.04005034 0.09301591 0.09678897
0.07070534 0.054004 0.04610564 0.1361881 0.062299654 0.047761053 0.09088895 0.07237738
0.0012326956 0.06256965 0.0037969863 0.0048057656 0.06422205 0.007482343 0.013735701 0.034999833
-0.03634392 -0.005401211 0.043858945 0.016224343 0.02735237 -0.08517545 0.019107774 0.0027503627
0.06336681 0.05585894 0.051709503 0.085788205 0.04479629 0.07595695 0.050546777 0.08939407
0.04048056 0.09677294 0.09313384 0.048761785 0.09763633 0.068962015 -0.018278932 -0.016042706
-0.043840457 -0.01984053 -0.0024084332 -0.045877427 -0.027155071 -0.019394102 -0.0011091365 -0.04775031
0.02376767 -0.027100282 0.0052655637 0.008875615 0.080657706 -0.0019446546 -0.0055889487 -0.17962869
0.053914577 -0.06357515 0.06008782 -0.20937957 0.075787455 -0.09514269 0.18000618 0.03897219
-0.16925071 -0.10368226 0.052154195 0.031349383 0.041802432 -0.0669185 0.019444687 0.008538018
0.043605827 -0.065081514 0.021186307 -0.0073855403 0.11718584 0.0408371 -0.070776075 -0.06081677
-0.0020221204 0.0075295353 0.004148048 0.0104278745 -0.005021377 0.006654972 0.0063483254 0.014247149
-0.0032681297 0.0054393495 -0.007881086 0.0037055884 -0.004682142 0.009216249 -0.002063988 -0.0038944024
-0.0071510365 -0.0044193035 -0.0038549434 -0.0018048877 -0.0067284787 -0.0028971187 -0.0034986776 -0.002203258
-0.0028926935 -0.0046656965 -0.0040349597 -0.003881285 -0.04125954 -0.0027901467 -0.07637325 0.2044331

module.bi_lstm1.weight_hh_l0 f4 [64, 16]
00000000: 75e8 ba3a 9306 27bb 8915 1cbc 6507 253b
00000010: d057 d03b fac9 53bc b48b 7e3c 7bb2 253a
00000020: 67d6 043b 3ad8 703c 9f1d f13a aea2 adba
00000030: 5193 36bc 6064 ccbb 7e9e 193b 603a d63a
00000040: c65c d639 ae15 fc3a 078b d73a 652b 86ba
00000050: 451c 4abb 0ceb 37bb 3afe 4bba fa95 bb3a
00000060: 51ac 733a db96 e33a 098d 53bb 6d26 84ba
00000070: d56e 423b 9682 353b 6c7a 2ebb 3000 dbba
00000080: d229 e23b 7b67 c9bb 5347 d8bd 8e16 9e3c
00000090: 7537 7dbc 04ee 873d d73b da3d 24a5 94bb
000000a0: 820e 393d 402d a4bd 343c 203a 5998 e8bc
000000b0: 8ee2 fbbc ab7b 683c 3f4b debc 5cd4 2bbd
000000c0: df15 34bb c5d9 893a 3870 973c ee3c 49bb
000000d0: b0bc 5c3b ca16 9c3b f295 b8bc 01cc 3f3a
000000e0: d826 c2bb 7c88 29bc 53be 623c 6357 c6ba
000000f0: b5ed f23a b56b 7d3b 2567 fd3b e1c5 0f3c
00000100: 0513 bd3b 65e4 cc3b 2b38 c33c b58d 2fbc
00000110: 051c 023c a31b 5dbc 5a7f 9dbc 8d29 263c
00000120: f384 aeba 54f1 843c e552 af3b 0201 c2b8
00000130: 984f f63b 305e 6eba 8a96 fe3b c666 3d3c
00000140: 1876 aabb 6cad a0bc 0e7b 49bd b78a 8b3b
00000150: 3e7d b73c 6918 2d3d abfa 403d cdae 6fbc
00000160: 4237 af3c 71be 08bd 7034 963d 38be 9f3c
00000170: 2223 43bd 0c0b f8bb 97fb d03c bc9b 7c3c
00000180: f9f2 0d3b 0edd 03bc b199 54bd d800 153b
00000190: 9365 1b3b 1d90 023d b466 153d d435 6bba
000001a0: 7571 963c 1922 12bd 90a1 893c a437 7cbc
000001b0: db83 06bd 5ea4 d73b 5d22 e43a 63b0 b1ba
000001c0: 2bdb 543a 90c0 e3ba 1634 52bb 60b0 6a3b
000001d0: 5d35 8e3b a390 c4bc b135 34bb f9f0 39bb
000001e0: f587 4b3b 09e9 c33c d75a 83bc 517d bf3b
000001f0: 03c4 2b3b 12a4 c7bb c592 593b e7a3 17b8
00000200: 9838 9a3b 7f6d 53bb 36bb 17bd a9e7 d3bb
00000210: defe 093b 0d96 b63c 8ac2 e13c cf12 223b
00000220: 9637 523c b432 15bd 52e3 68bb ef4d 4dbc
00000230: bd09 8cbc 09f4 793b f5f2 023b e84a a6bb
00000240: d54f adbb dc75 d23a 7954 c4bb e996 e3bb
00000250: eef7 a5bb dac9 cb3b 5f61 103d 4852 b6bb
00000260: a028 643c b073 d4bc 4f4f 263d ec07 0b3b
00000270: 39a2 ccbc 79a7 8b3c 877e a23a 3dca 6c3a
00000280: 1617 9bb9 df31 58bc 045a d9bd 95ad 9c3a
00000290: 0236 783d 369a 9f3d c92d 6d3d 2672 4c3b
000002a0: 9613 1a3d 0540 8ebd ac01 933d f27c 28bd
000002b0: 74f1 b7bd 0478 d93a ba8e 233d a441 c73c
000002c0: 970c dbba a735 ecb9 c651 bd3b 3d92 083b
000002d0: 6d55 97bc 949e 9abd 81da 3ebc 2c01 4cbc
000002e0: ec77 053b 094e 9d3d 8ed2 75bd 6862 953c
000002f0: 8222 243d 866e d8ba f68d 18bc e75c 8ebc
00000300: 92f7 c53a eb73 07b9 115b d0bc 8337 943a
00000310: 3922 313b 5a91 133c 1676 dc3b b049 083a
00000320: fc7c 3b3c 1099 c5bc b7ba 74bb c12e cfbb
00000330: e63a fcbb 1a9c 8c3b 53d1 dd3b daf3 d539
00000340: e601 ca3b 360a 043c 219c 983c 7988 663b
00000350: b45c 57bc e4c5 0abd b8ac c4bb 08f2 003c
00000360: 613b f5ba 2b4e 093d 40e7 d2bc a4bd 9b3b
00000370: 62bb e23c 7cde dcbb 60ea 86bc f534 a6bb
00000380: 4672 1d3b fb75 b5bb fc37 683d e643 85bb
00000390: db8b a33c ee58 83bd af8a 44bd d17c 9c3a
000003a0: 2f2c 8bbc a82a a53d 12e7 d63c d928 063d
000003b0: d7c7 933c c4e8 13bd fc34 dc3c d3e0 cd3c
000003c0: 7ac5 c73a 9654 863b a21e 893c cdd1 42bb
000003d0: fbe1 f73b 4b17 f7bc f6ef d9bc eda7 103a
000003e0: 6583 6ebb df01 d33c 1795 62bc 1f07 ae3b
000003f0: e5a9 333c a89a 64bb b755 163c 65cf b43b
0.0014259951 -0.0025486096 -0.009526619 0.002518141 0.0063581243 -0.012926573 0.0155362375 0.0006320846
0.0020269395 0.01469999 0.0018395669 -0.0013247335 -0.011143521 -0.0062375516 0.0023440416 0.0016344301
0.00040886382 0.0019232535 0.0016444632 -0.0010236321 -0.0030839604 -0.0028063683 -0.0007781718 0.0014311664
0.00092953915 0.0017363684 -0.0032280108 -0.0010082253 0.0029668112 0.0027696243 -0.0026623262 -0.001670843
0.006901958 -0.006146369 -0.10560479 0.019297864 -0.0154551165 0.06637195 0.10655945 -0.004536288
0.04517985 -0.08016443 0.00061124866 -0.028392958 -0.030747678 0.014189641 -0.02713549 -0.04195057
-0.0027478857 0.0010517171 0.018486127 -0.0030706483 0.0033681802 0.004763459 -0.022532437 0.0007316471
-0.0059250407 -0.010347482 0.013839322 -0.0015132244 0.0018533977 0.0038668935 0.007733243 0.008775205
0.0057700896 0.0062528127 0.023830494 -0.010714938 0.007941251 -0.013495359 -0.019225765 0.010141742
-0.0013314768 0.016228355 0.005350458 -9.2508286e-05 0.0075168125 -0.00090930145 0.0077694105 0.011560148
-0.005202066 -0.019613944 -0.04918962 0.0042584795 0.022398587 0.042259607 0.047114056 -0.014629078
0.021388654 -0.033384744 0.073342204 0.019499883 -0.047640927 -0.0075696763 0.025510592 0.015417989
0.0021659716 -0.008048309 -0.051904384 0.0022736099 0.0023711666 0.03187572 0.0364749 -0.00089725596
0.018364647 -0.03567705 0.016800672 -0.015394125 -0.03284059 0.0065808734 0.0017405261 -0.0013556596
0.0008119817 -0.0017376114 -0.0032074503 0.0035810694 0.0043398575 -0.02399475 -0.0027497823 -0.002837239
0.0031056379 0.02391483 -0.016034527 0.0058437963 0.0026209361 -0.0060925568 0.0033199054 -3.615385e-05
0.0047064535 -0.003226131 -0.037043773 -0.006466825 0.0021056454 0.022288347 0.027558584 0.002473045
0.0128306355 -0.036425307 -0.0035535884 -0.012530788 -0.017094487 0.003813984 0.001998124 -0.0050748475
-0.0052890577 0.0016056853 -0.0059915152 -0.00694548 -0.005064956 0.006219131 0.03524911 -0.005564008
0.013925701 -0.02593407 0.04060298 0.0021214439 -0.024979698 0.01704763 0.0012397327 0.00090328214
-0.00029581104 -0.013195484 -0.10612872 0.0011953587 0.06059838 0.07793085 0.057904992 0.0031195967
0.037616335 -0.069458045 0.07178053 -0.041134782 -0.089816004 0.0016591554 0.039931037 0.024323292
-0.0016712126 -0.00045053402 0.0057775704 0.0020839118 -0.018473351 -0.075497776 -0.011648775 -0.012451451
0.0020365668 0.076809 -0.060015254 0.0182354 0.04007197 -0.0016512431 -0.00931119 -0.017378284
0.0015103689 -0.00012917786 -0.025434049 0.0011308048 0.0027028455 0.0090068225 0.006727944 0.00051989686
0.011443373 -0.024120837 -0.0037342736 -0.006322712 -0.007697451 0.0042910697 0.006769338 0.0004080821
0.006164777 0.008059075 0.018629136 0.003517656 -0.013144661 -0.03388013 -0.006002035 0.007870205
-0.0018709713 0.033521812 -0.025745034 0.0047528315 0.027677242 -0.0067403894 -0.01646918 -0.005072231
0.002402441 -0.005537746 0.056694016 -0.004066932 0.01996415 -0.06413446 -0.04798382 0.0011939054
-0.016988842 0.08064777 0.02623323 0.0327538 0.018039627 -0.036110654 0.026880734 0.025131619
0.0015241348 0.004099439 0.01673824 -0.0029727102 0.007564781 -0.030162474 -0.02660368 0.0005518187
-0.0036394235 0.025757728 -0.013829491 0.0053109075 0.010965799 -0.0034882221 0.009175709 0.0055178874

module.bi_lstm1.bias_ih_l0 f4 [64]
00000000: 1b2e 58bd aea5 1bba 525e d73d 486c e63c
00000010: 4e84 bc3d ce3c 493d 59cd 523d a043 99bc
00000020: 7f63 3b3d 11b7 2f3e daa1 16bc b9ec 54bc
00000030: bc3e d53d 38ee 813c b9c7 14bc 03eb d23b
00000040: 0fa7 fabc 08e0 babb b309 043d 4d96 653d
00000050: 83fd e0bc 07cc 1e3e 18ae e6bc 9cbf f1bc
00000060: 428b 84bc ffad 143e 3112 e83c 707a dcbc
00000070: f8ed 2dbd 3b09 8fbc 9b55 a0bd 833b edbc
00000080: 69e1 703d 280c f33c f221 223e 5bc9 a8bd
00000090: aa61 27be 0988 26bc c529 143c e9ef be3d
000000a0: 9e48 4d3d ef4a 443b ff50 d83d 5f54 19bc
000000b0: 9276 193e e4be 873d 829f 00bd dade d0bd
000000c0: f1ce 19bd 6af5 23ba a074 013e adfc 323c
000000d0: e057 463c 4efc f83d efd4 5f3d a347 b7bc
000000e0: ad79 c23b ede6 863d 4af3 0d3c c6c4 143d
000000f0: f443 c93d 438e ac3b c1dd 03bb 18a3 7b3c
-0.052778345 -0.0005937469 0.10516037 0.028127804 0.092049226 0.049130253 0.051465366 -0.018709004
0.045749184 0.17159678 -0.009193862 -0.012995892 0.10412356 0.015860662 -0.009080821 0.006436707
-0.030597238 -0.005702976 0.032235812 0.05605154 -0.027464634 0.15507518 -0.028159186 -0.029510312
-0.016179685 0.14519499 0.028328987 -0.026913851 -0.042463273 -0.017460456 -0.07828828 -0.028959041
0.058808718 0.029668882 0.15833262 -0.082415305 -0.1634585 -0.010164269 0.009043162 0.09323103
0.05011808 0.002995189 0.10562324 -0.009358495 0.14986637 0.06628206 -0.03140212 -0.101987556
-0.03755087 -0.0006254526 0.12642145 0.0109245 0.012105912 0.12157498 0.05464643 -0.022373026
0.005934915 0.06587014 0.008663962 0.03632047 0.09827414 0.0052659824 -0.002012119 0.015358709

module.bi_lstm1.bias_hh_l0 f4 [64]
00000000: db4c f2bc 0b2f 2fba 752c 1a3e c1f7 663d
00000010: 046b 6c3d 48cf 58bd 2ac4 533d e37b b0bc
00000020: 80f2 2b3d 0e16 1e3e e875 4a3c 1d1b 353d
00000030: 8153 c73d be0b 803c 9e7a 66bb 7685 173c
00000040: a8bf b7bc 73cf bbbb a10f 4e3d 5db8 003d
00000050: fd27 7bbb c854 273e 7f2b e5bc fe54 f3bc
00000060: 66b4 08bc 3810 503d 61eb d73d e95e c1bb
00000070: 0e80 4abc 4bce 97bc e345 d1bc ba99 07bd
00000080: 59d8 6b3d 3aff fc3d a5df 053e 929e 843d
00000090: ba69 33be 7b12 873d b2c8 babc c170 ae3a
000000a0: 242b b7bd 671a b7bd 58ac 96bd 9805 a3bd
000000b0: 77ff 213e f135 ad3d 5b21 4ebe 6a0e 95bd
000000c0: ff88 debc 0bc6 52ba b119 183e a315 733d
000000d0: d8f3 c9bc dcb6 583d 54b0 5b3d e936 a6bc
000000e0: ec0c 1dbd cd3e 903d 02ce 2bbd 955a 17bb
000000f0: 2cbe d83d 5883 ed3b a095 bf3c 1519 7c3c
-0.029577663 -0.000668273 0.15056022 0.05638862 0.057719246 -0.052932054 0.05170075 -0.021543449
0.041979313 0.154381 0.012357213 0.04421531 0.09732724 0.0156306 -0.00351683 0.009248128
-0.022430256 -0.005731517 0.050307874 0.031425823 -0.0038323395 0.16340935 -0.027974842 -0.029703613
-0.008343792 0.050796717 0.10542942 -0.0059012068 -0.012359632 -0.018530985 -0.02554602 -0.03310559
0.057579372 0.12353368 0.13073595 0.064755574 -0.175208 0.06595322 -0.022800777 0.001330875
-0.08943775 -0.08940583 -0.07357091 -0.07960051 0.15820108 0.08457554 -0.20129912 -0.0727814
-0.027164934 -0.0008040375 0.1485355 0.059346806 -0.024652407 0.052908763 0.053634956 -0.020289855
-0.0383424 0.07043228 -0.04194451 -0.0023094763 0.105831474 0.0072483234 0.023386776 0.015386839

module.bi_lstm1.weight_ih_l0_reverse f4 [64, 14]
00000000: a346 133d 78ef a8bc fdcf e13c 7f2a 3fbd
00000010: 2cde 383d 6177 63bd 6cd8 37bc 17d1 2fbd
00000020: cb09 1e3d 158b 3cbd 9a75 093e ab2b a13c
00000030: 08f1 813c 7f1a 573d 3345 0f3c 95d8 703c
00000040: 9767 593c 8cae 043c 5049 383c e912 d43b
00000050: ce1d 3c3c 68ff 833b 836c 323c 946e a43b
00000060: 1e7c 843b 87a3 1e3c 4729 46bb a842 56bb
00000070: ac11 d53d 4358 993d f273 ea3d 6d13 04bd
00000080: ee2d b13d 354a 993c 33ad ad3d 4519 24bd
00000090: 5324 a93d ec99 22bc c758 37bc 5510 8c3d
000000a0: 3428 92bd 75a9 1dbb d4e3 303c 7067 723d
000000b0: 115c a4bd 9bc3 8b3e 3051 473d d8fb 5f3e
000000c0: f380 f63b a819 113e 34be 153d d887 503e
000000d0: 70c2 15be f52c df3d b7cb 263e 2b6c b53d
000000e0: f651 a63d dad7 6d3d deb2 bd3d 4fd3 0c3d
000000f0: c06d ae3d 2dbb d43b 731f b3bc 6423 77bc
00000100: 29a5 be3d 669f 5fbc 0c72 133d 6d3e a33d
00000110: 88c8 89bc 316f 1f3d 79b9 533e 7e9c 7e3d
00000120: 55d4 a23c 7ab7 35bc c784 f1bd 71ef 81be
00000130: 10cf 173e c90f 80bd a3aa 26be 218e 8bbe
00000140: 55b7 5e3e f22e 873c 9b4f c93d db8e c73d
00000150: d320 873e fa7e 2d3e b16d 8e3e 0598 b4be
00000160: 7e75 f93d f566 abbe 404e 963e b8c8 cdbe
00000170: eb85 113e 57a0 cdbe 0701 db3e eaf1 5e3e
00000180: 16c8 8dbe 8313 b1bd 3333 8a3c 4683 203d
00000190: a1c7 ea3c 4e46 ff3c 7876 4f3c 7890 b2bb
000001a0: 15b7 46b7 6528 193d 4272 eb3c e23f fd38
000001b0: a5d1 903c 164e 853d fcb0 ae3c 2e2d 3f3d
000001c0: d355 953d 56c7 a13d b7db c93d 9836 33bd
000001d0: 5bd8 a03d 3629 06bc 8b95 1e3d ad32 85bd
000001e0: b301 a53d de26 58bc e4f1 fc3d 76dc 4f3d
000001f0: 4c66 303c a675 df3b 5832 103d 4dba d33c
00000200: 0dda e93c a1e1 633d 57de 6f3c 327e bf3d
00000210: d097 bc3c c1e3 183e caa8 cb3d fc67 083e
00000220: 2520 acbd 9d1c a13c 4d0c 07bd 4045 88bd
00000230: 6e6b 68bd 835b 593d 17aa 54bd 61f4 92bd
00000240: edfd 02bc 8028 fbbd d04d debd b105 aebd
00000250: b810 2a3d 99e6 c3bd a98d 10be 8e81 d0bc
00000260: 8946 86bc bc32 b5bd 0133 773d 93ab 103e
00000270: 6cb3 d33d 3218 d83d 3706 b13d 3dad 0abe
00000280: f307 143e 19da ad3d 0ddc b93d 3e6b d7bd
00000290: 72d8 61bc 1688 083e 22d4 3cbd f8c0 413d
000002a0: b868 e53d 204a f03d 7cd2 ac3d b514 88bd
000002b0: 2361 db3d 5cdf 74bd bc3e 163e 95a2 f3bd
000002c0: 3733 023e 6a53 eebd 8be9 a63d dd4f b33d
000002d0: 69d9 8bbd 439f 16bd f6b1 6fbd d015 f8bc
000002e0: 1eb8 74bd 7f02 933b 2e3c 24bd aa59 8b3c
000002f0: 282d 4dbd 8e96 013b 0ef8 31bd b3b2 fd3c
00000300: a7da c6bd d297 86bd 7895 12bd 1e14 87bd
00000310: 2126 b03d 013e 8c3d 4cad a63d b8e3 a03b
00000320: 6210 9e3c 1558 a7bc 245e ae3d 48b1 003c
00000330: 8846 4f3c c009 b5bc 3a56 d23d 434d 543d
00000340: 2238 a53d 2684 463d e12f 5d3b 6683 cc3b
00000350: 6b74 ee3d ed6a e53d 75cb 8b3d 5c11 bc3d
00000360: 51a3 5fbc d3f3 ca3d 6293 7b3d 85be ac3d
00000370: e5df 5cbc 639e b63d 58c2 a43d 0c8a dfbc
00000380: 0665 7e3d 493c 433c ea41 4d3d 8ff1 f8bc
00000390: 6bc8 c03c d011 0bbd a157 323d 1b20 02bd
000003a0: a5ed 3ebc d6f5 3cbd 7bb9 4b3d a232 8b3d
000003b0: a55a 8b3d 5ca3 db3c 8512 303c 801a 833c
000003c0: 24a6 513c 93ec d43b 8ce9 523c f6d7 d83b
000003d0: a912 793c 1314 753b 77e8 453c 3936 c33b
000003e0: c2bb 4a3b f4ee 1e3c 42b8 993a e1c1 ee3a
000003f0: 73cc 123d 9ad4 413d 1504 a53d 6d13 1ebd
0.035956036 -0.020622 0.027564997 -0.046671387 0.045133755 -0.05553377 -0.011221033 -0.042924013
0.038583558 -0.046031076 0.13423768 0.019674143 0.015862003 0.052515503 0.008744526 0.014700075
0.013269327 0.008098256 0.011247948 0.006471981 0.011481715 0.0040282495 0.010890129 0.0050180648
0.0040431162 0.009682543 -0.0030237006 -0.0032693539 0.10403761 0.07487538 0.11447896 -0.03224509
0.086513385 0.018712142 0.08480301 -0.04006316 0.082588814 -0.009924393 -0.0111906 0.068390526
-0.071365744 -0.0024057303 0.010796506 0.059180677 -0.08025373 0.27297673 0.04866141 0.21873415
0.007522696 0.14169943 0.036558345 0.2036432 -0.14624953 0.10897247 0.16288649 0.08858522
0.081211016 0.05806718 0.09262632 0.034381207 0.08517027 0.0064920397 -0.021865582 -0.015084121
0.093088455 -0.013648843 0.035997435 0.07970891 -0.016819254 0.0389244 0.20676221 0.06216096
0.019876638 -0.0110911075 -0.117929034 -0.25377992 0.14825082 -0.06253011 -0.1627603 -0.27256873
0.21749623 0.016501877 0.09829637 0.097440444 0.2639223 0.16942969 0.27818063 -0.35272232
0.12180613 -0.33476987 0.29356575 -0.401922 0.14211242 -0.40161392 0.4277422 0.2177197
-0.27691716 -0.086463 0.016870117 0.039187692 0.028659644 0.031161454 0.0126625225 -0.005449351
-1.1844347e-05 0.03739204 0.028741006 0.00012075879 0.017678091 0.06509034 0.021324627 0.046673946
0.0729176 0.078993484 0.098563604 -0.043753237 0.078537665 -0.008188536 0.038716834 -0.06503806
0.08056965 -0.01319286 0.123508245 0.050747357 0.010766577 0.0068194447 0.03520426 0.025845671
0.028546358 0.0556351 0.014640412 0.09350242 0.023021609 0.14930631 0.09944303 0.13320917
-0.084045686 0.019666964 -0.032970715 -0.066538334 -0.056743078 0.053065788 -0.051920023 -0.07175518
-0.007995111 -0.12263584 -0.10854685 -0.08497179 0.04151985 -0.095654674 -0.14116539 -0.025452401
-0.016391056 -0.088475674 0.060351375 0.1412795 0.103369564 0.1055149 0.086437635 -0.13542648
0.14456157 0.084888645 0.090751745 -0.10518502 -0.013784515 0.13333163 -0.046100743 0.04730317
0.11201614 0.11732888 0.08438584 -0.066445746 0.10711887 -0.059783325 0.14672369 -0.118962444
0.1271485 -0.11637004 0.081500135 0.08755467 -0.06828577 -0.036772978 -0.058519326 -0.030283839
-0.0597459 0.0044863815 -0.040096454 0.017010529 -0.050091892 0.0019773575 -0.043449454 0.030969
-0.097096734 -0.06571926 -0.035787076 -0.06595634 0.086010225 0.06847764 0.081385225 0.0049099587
0.019294921 -0.020427743 0.0851405 0.007854767 0.012651093 -0.022099376 0.10270353 0.051831495
0.08067347 0.04846587 0.0033750462 0.00624125 0.11643299 0.11202035 0.06825916 0.091829985
-0.0136497775 0.09909787 0.061419852 0.08434776 -0.013481115 0.089169286 0.08044881 -0.027287506
0.062108062 0.011916229 0.05011169 -0.030388622 0.023533067 -0.033952534 0.0435406 -0.0317689
-0.011653339 -0.046132885 0.049737435 0.06796767 0.068043984 0.026811294 0.010746603 0.016003847
0.012795959 0.0064979284 0.012873065 0.0066175414 0.015202203 0.0037395998 0.01207935 0.0059573916
0.0030934666 0.009700526 0.0011727887 0.0018215739 0.03583951 0.047321893 0.08057419 -0.038592745

module.bi_lstm1.weight_hh_l0_reverse f4 [64, 16]
00000000: b96e 92bc f312 e4bb e861 1cb9 82cb 513d
00000010: 0a00 74bb c255 80bc b778 853d 8090 a43b
00000020: f67f f7bb 9e6f ecbb 51cf 63bc 4280 4fbd
00000030: 48bf 593c 4e55 61bd 35cb f0bc 5e88 363c
00000040: 59c4 5d3c b865 35ba cda8 29bc 02ae 11bc
00000050: bac0 693c 4139 fa3c 8190 b73a 682b 2f3c
00000060: ab39 413c bf05 1abd 50c3 d0bb cdc9 fcbc
00000070: 7f76 37bc 6546 df3a de29 e33b 2701 9e3c
00000080: 036d 073d 1ce3 8d3b f071 44bd 1b2f 5f3d
00000090: 0686 d13c 84f3 c6bc 5223 243e f964 803c
000000a0: e66f 7e3d 31d4 95bc 6dd6 08bc f370 fcbc
000000b0: d588 75bc d053 7abd b829 283d fd4a 443c
000000c0: a207 04be 3410 9e3c 1403 d63d 1faf c3bd
000000d0: 6190 47bd 4124 253e 9bcd c8bd 8a88 b4bc
000000e0: b476 afbd f958 a2be f6f4 023e 8f99 c4bd
000000f0: 7843 90bb 49c9 003e dc11 94bd 2730 5f3c
00000100: e222 f43b 3cf2 f6b9 c656 70bc 91fb 76ba
00000110: a46c 893a d89a 7abc 6491 6f3d 4a17 053c
00000120: b1ae c63c 90c6 d5bc f305 ab39 fc64 1ebd
00000130: 82be aeba 3003 3abd 663d 113c 9a9a ae3c
00000140: e8be dc3c bfa8 153d 89c0 b6bb f3dd be3d
00000150: f494 463d fce5 0a3d dded 2cbd 93ef ac3d
00000160: e2be 62bc bcc3 5c3d 352a b4bd f6ed c93c
00000170: 9389 57ba cbf4 ee3d b862 8f3d 17bd 8cbb
00000180: 2dee bbbc e034 9b3d e84e 5ebd 1cf7 c83e
00000190: d94b 16bd 281a 8d3d 01b5 e63e 8464 f63c
000001a0: 1ff5 1c3d 82e8 9e3d e38e d93c 8435 b13d
000001b0: 4d21 40bd 942a 5d3d ab07 4f3d e720 20be
000001c0: df3f 25bc 83ce 9439 13f0 263c 6e40 31bb
000001d0: d26e a6bb 3f8a d7bb 287a dbbc b325 8d3a
000001e0: fad4 3fbc 7856 cdbc 0978 84bc 3b05 f4ba
000001f0: 6b3e 5e3b 3928 47ba 5b56 76bb 5c83 843b
00000200: b8fa 183d c928 a93b 44d1 75bd 2784 283d
00000210: 3af1 1d3d ab6a b2bc a99e f73d 0ef6 dd3c
00000220: 1737 763d 5891 533c fa7b 50bc 9cb4 38bd
00000230: 40e8 89bc c19d 3dbd 2aac 063d 823e e43c
00000240: c1d4 90bd 5b0a 353d 4808 d2bc 5ff7 683d
00000250: dde6 a03b 381e f43b a5c0 c7bd 0bbb 513d
00000260: e823 88bd b467 733c 8f55 b9bc 0984 d83d
00000270: a4c1 593d 8ff6 8a3d e369 42bb 9d9c 7ebd
00000280: c06b 723d d714 733c 0325 5ebd 8982 283d
00000290: 88ad 0a3e 5a70 a73b 42bb b7bc 062f 663d
000002a0: aa42 473d e8ff 3fbb 5898 16bd 0063 a0bc
000002b0: 079d 283c 7626 b43c 5a8b b33d ae8b 493d
000002c0: 8581 bc3d 343c f73c 39e6 94bd b063 08be
000002d0: fab1 a23d 8657 423e 300d 1f3d 8202 8d3d
000002e0: c5d6 c83d a65b 38be 8fd7 da3d e73d 69bd
000002f0: f190 e8bd 4d8b a03d daca ed3d d4ed 923d
00000300: eda7 cf3c 1e62 dd3c de89 93bc 9ac7 253c
00000310: d980 0d3d 9fd2 f73d 7ce2 db3c a848 4e3d
00000320: 4ea8 173d 62fa 20be 0385 6b3d 020e 8bbd
00000330: d324 95bd ccf4 6a3d 19b7 4a3d 2eca fe3c
00000340: 399d 0a3e 45e7 903b 6755 05be 8d6e 04be
00000350: 70a3 073e 52da 573e 7656 d63d 8ea0 cd3d
00000360: a3eb 1a3e 6773 64be afe6 963c 414a 73be
00000370: 2692 05be 0177 943d 6ab7 743d 73b2 363e
00000380: e5af 0ebd 0759 f7ba 146c 043b 317d dc3b
00000390: a213 d8bc 437e c9bc 43e1 cb3d 78cf 6e3b
000003a0: 7fdc f73b 7d10 89b9 0b99 133d e537 fc3a
000003b0: d40c 29bb 8601 21bd 7eea 8dbc b1e8 76bc
000003c0: 7797 633d b3fb 4e3b 8e88 84bd d616 94bd
000003d0: 1330 843d fbfe 143d a84a 7c3d 8c8a e03c
000003e0: 295c a73d 31a1 abbd 8086 cf3b 5851 c1bd
000003f0: daad 52bd 3719 cebb 5b0c 713d d8cf a63d
-0.017875062 -0.0069602667 -0.00014913792 0.05121947 -0.0037231469 -0.015665893 0.06517165 0.0050221086
-0.007553096 -0.0072154542 -0.013904409 -0.050659426 0.013290234 -0.055012994 -0.029393772 0.011140911
0.013535582 -0.00069197593 -0.010355187 -0.008891584 0.014267141 0.030544879 0.0014004858 0.010691501
0.011793534 -0.037603136 -0.0063709393 -0.030857945 -0.011197685 0.0017034529 0.006932481 0.019287659
0.033062946 0.004330052 -0.04796022 0.054488283 0.025576603 -0.02428604 0.16029099 0.015673148
0.062118433 -0.018289657 -0.008351904 -0.030815577 -0.014986237 -0.061115086 0.04105541 0.011980769
-0.12893537 0.019294836 0.10449806 -0.09554886 -0.048721675 0.16127111 -0.09804841 -0.022037763
-0.08567563 -0.31708506 0.12788758 -0.095996015 -0.004402574 0.12576784 -0.07229969 0.01362232
0.0074504474 -0.00047101255 -0.014669126 -0.00094216416 0.0010484648 -0.015295707 0.058488265 0.008123228
0.024253221 -0.026095659 0.00032620094 -0.038670525 -0.0013331922 -0.045413196 0.008864736 0.021313954
0.0269465 0.036537882 -0.005577151 0.09319677 0.048481897 0.033910736 -0.04221903 0.08444133
-0.013839455 0.053897604 -0.08797113 0.024649601 -0.0008222099 0.11667784 0.07001251 -0.004295002
-0.02294072 0.075784445 -0.05427447 0.3925103 -0.036693428 0.068897545 0.4505997 0.030077226
0.038319703 0.07759191 0.026557392 0.086527854 -0.046906758 0.053995684 0.050544422 -0.15637551
-0.010086029 0.00028382623 0.010189074 -0.002704646 -0.005079129 -0.0065777595 -0.026791647 0.0010768682
-0.011708492 -0.025065646 -0.016170518 -0.0018617281 0.0033911716 -0.0007597241 -0.0037588093 0.0040439796
0.03734848 0.0051623327 -0.060014024 0.041141655 0.03856013 -0.021779379 0.12090809 0.027094867
0.06011113 0.012913071 -0.012724871 -0.045094118 -0.016834378 -0.046293024 0.032879032 0.027861837
-0.070718296 0.04419933 -0.025638714 0.056876536 0.0049103335 0.0074498914 -0.09753541 0.05120377
-0.066474736 0.014856268 -0.022623805 0.10572059 0.053163186 0.067853086 -0.0029665164 -0.062161077
0.05918479 0.014836512 -0.054234516 0.041140113 0.1354276 0.005109829 -0.022428159 0.05619719
0.04864756 -0.002929682 -0.03676638 -0.019578457 0.0102913445 0.021990996 0.087668136 0.049205475
0.092043914 0.030180074 -0.07270474 -0.13319278 0.079441026 0.189787 0.038830936 0.06885244
0.09806589 -0.18003711 0.10685646 -0.0569438 -0.113557704 0.078390695 0.116109565 0.07174268
0.025348628 0.027024325 -0.018010076 0.0101183895 0.034546707 0.1210072 0.026841395 0.05036226
0.037025742 -0.15720513 0.057499897 -0.06789781 -0.07282414 0.057362363 0.04949102 0.031102266
0.13536538 0.0044221007 -0.1302086 -0.12932797 0.1324594 0.21079376 0.1046571 0.10040389
0.15128951 -0.22309648 0.018420545 -0.23758794 -0.13044032 0.07249261 0.05974523 0.1784151
-0.034835715 -0.0018871137 0.002020602 0.006728791 -0.02637655 -0.02459634 0.09955075 0.003643958
0.007564127 -0.0002614296 0.036034625 0.0019242732 -0.0025795 -0.039308093 -0.017323729 -0.015070126
0.05556437 0.003158313 -0.06471358 -0.07230918 0.06454482 0.03637598 0.061594635 0.027409814
0.08171875 -0.08380354 0.0063331723 -0.09439343 -0.05143533 -0.006289627 0.058849674 0.08145112

module.bi_lstm1.bias_ih_l0_reverse f4 [64]
00000000: 08f0 d63d 5b0a 14bc 096a 6d3d 9d83 f8bb
00000010: 891b 733d 45cf fe3d 1639 083e 54dc d93c
00000020: 3560 1e3d f8c1 a33d c91e c23d e480 9e3d
00000030: 3fcd 9a3d 3fe0 46bd 4e7e f63d ab25 903d
00000040: c335 0f3e 3157 a73b 7f95 98bd 39b6 0e3e
00000050: d4e7 233d 78f6 5a3e c421 8f3d 29fd e2bc
00000060: 2583 d73b c0d8 6c3e cc63 91bd 5a62 57bd
00000070: 3522 08bd 690b c03d 677e f5bc 017b 183e
00000080: 0dba 21be bd12 9a3d e320 d63d bf7e 1c3e
00000090: b9e7 24bd 8e6d 2abe 2ee4 fabd 1325 ae3d
000000a0: df97 92be e2f1 fa3d f90f 92be 4091 c53b
000000b0: b2b6 473e 1084 a93c b360 5bbe f7e0 513d
000000c0: f746 e93d b30d 6fbc 2d7f da3d 7488 603e
000000d0: c704 da3d f89e 2b3d 7846 d23d eae9 48bd
000000e0: e96b 243d c26f 9e3d b0ac 063e 9ea0 633d
000000f0: aeb6 6f3d 1dd2 693b e6ea 193e 6b00 673d
0.10495001 -0.009035672 0.05796245 -0.007584049 0.05935243 0.12441877 0.13303027 0.026594318
0.03866597 0.07995981 0.09478528 0.07739428 0.07558679 -0.0485537 0.120358095 0.070384346
0.13985352 0.0051068296 -0.07450389 0.139367 0.04001601 0.21383083 0.06988862 -0.027708607
0.006576913 0.23129559 -0.07099113 -0.05258403 -0.033235747 0.09377176 -0.0299675 0.14890672
-0.15793629 0.07523105 0.104554914 0.15282725 -0.04026005 -0.16643354 -0.12250553 0.08503165
-0.28631493 0.12253167 -0.2852781 0.006029278 0.19503286 0.020692855 -0.21423607 0.051239934
0.113904886 -0.0145906685 0.10668788 0.21927053 0.106454425 0.04189965 0.10267347 -0.049051203
0.040141974 0.0773616 0.13151813 0.0555731 0.058523826 0.0035678216 0.15031013 0.056396883

module.bi_lstm1.bias_hh_l0_reverse f4 [64]
00000000: 6037 f33d b708 05bc 849f 053d 080d 14bd
00000010: ea42 193d 0345 f73d 5dc4 c13d 6d77 283d
00000020: 3eef fe3d 772c b73d a365 143d db67 2d3d
00000030: 6088 683d 497c 35bd 1679 183e 5a32 5abd
00000040: 8ab3 253e e5d7 33bc 8a99 09bd 5fae 383e
00000050: e904 86bc a3cd 363e c351 8f3d cb61 8fbc
00000060: 33d3 5a3d 9577 963e 526b 083e 5550 18bc
00000070: d6cd 08bd d118 c03d e2d7 803d 3e65 1f3b
00000080: de70 cebd 125f 05be dc22 603d e8e0 b53d
00000090: 1d93 9d3d 5205 b9bd 6908 f3bc 9e88 c83d
000000a0: 5f24 33bb 7a05 5f3e be96 82be b20e 643d
000000b0: 5c6f 093e 7c14 a9bc bae4 b0bd 58a2 4abe
000000c0: 5363 e93d 6794 20bc 64d1 803d 8c15 c83d
000000d0: 3c66 793d ae6f 393e 5580 b03d 9f73 9f3d
000000e0: 621d 403c 6427 0bbc 893e b3bd 75ae 063d
000000f0: fe69 d83d cffa 8f3b 0f4f e53c 52c9 e13c
0.11875796 -0.008119754 0.03262283 -0.03614524 0.03741733 0.1207371 0.094612814 0.04112952
0.124479756 0.08944028 0.03622974 0.042335372 0.056770682 -0.04430798 0.1488994 -0.053270675
0.1618177 -0.010976766 -0.033593692 0.18035267 -0.016359763 0.17851882 0.06998017 -0.017502686
0.05342407 0.2938811 0.1332219 -0.009296496 -0.033399425 0.09379733 0.062911764 0.002432182
-0.100801215 -0.13024548 0.054720744 0.08880788 0.07694075 -0.09034218 -0.029667096 0.09791683
-0.0027334911 0.21779433 -0.25505632 0.055678077 0.13421386 -0.02063965 -0.08637376 -0.19788492
0.11395898 -0.009801007 0.06289938 0.09769735 0.060888514 0.18109009 0.086182274 0.07785725
0.011725755 -0.008493278 -0.08752162 0.03288122 0.105670914 0.0043939124 0.0279918 0.027561817

module.bi_lstm2.weight_ih_l0 f4 [128, 16]
00000000: 3f5f c9bc da6f eaba 65be ca3c 2267 9c3c
00000010: af35 84bc bfff bbbc bd38 c8bb bf77 eebb
00000020: bb3a 42bc f6a9 573b 287d 9d3b 6583 433c
00000030: 5384 563c f44d 4fbc 35fa e2bb 475b c4bc
00000040: 5520 b3ba ad13 dfb9 00c0 db3a 7865 9b3a
00000050: 620c e1ba 6bf0 aeba bc82 0bba 0f0d 1a38
00000060: 274b f2ba 3e38 d13a 98e4 703a d9e5 b33a
00000070: 95d8 df3a 673d 00bb 79a1 bcb9 868b 41bb
00000080: 607d c6bc 189f 04bb 168a cd3c 8d55 a53c
00000090: 2feb ccbc 0fb1 02bd 0713 8cbb 1919 2cbc
000000a0: 4700 57bc 376b a13c f058 55ba 9e95 a73c
000000b0: f541 913c f8f4 19bc 6243 07bc 308f dabc
000000c0: c3cb a1bc 90c1 0dbb 0a59 833c 9288 3e3c
000000d0: f29b 80bc f7e4 e1bc 35f4 ddbc 822b 64bc
000000e0: 81ca 36ba b6d9 49bc 9a36 dfbb 053e 113c
000000f0: ea90 313c 4bd9 34bc 5ead 49bc a332 c4bc
00000100: e847 c5bb 0600 9539 e85b f9ba e193 443a
00000110: 554a 21bc 9f4d 863b 6e86 1abc 4c6b 8ebb
00000120: dce6 faba 7a99 503b 56d9 813a 4d48 76bb
00000130: a549 053c f619 093c 1dbc 32bc a73a eabb
00000140: a019 6dbc 8dfe c5ba 6e36 7a3c 0ff3 9e3c
00000150: 8231 18bc 63ba ddbc 0d7a 86bb acd5 c137
00000160: 0e74 0fbc b63e 32bc 3108 0cbb a376 a53a
00000170: be8d ac3b aabf fdbb 48d4 67bb 966f 6abc
00000180: 1313 6cbb fa1f b73a c3b3 b43b 3f8b c7bb
00000190: 384c aabb 7a30 053c 6d6d 21bc fdf3 8abb
000001a0: dda3 9bba c1dd f3ba 530a aa3a 46b0 56b8
000001b0: 2e1e c33b 8131 4e3b f7cb 1bbc f7f4 b0bb
000001c0: 2c4a 34bc 4419 6cba 1687 2b3c 4cfd f53a
000001d0: 876c 1bbc 9f56 1cbc affb 05bc 394a 84bb
000001e0: 837a cebb 1370 07bc 3ce5 55ba f36d 153a
000001f0: cf77 d93b 100b 2ebb 4a7c 6abb 17e3 a7bb
00000200: cb8a c239 f38c a637 c15e 2c3a 0036 9a3a
00000210: 6404 2ebb a69d 0d3b 5301 4db7 e2a0 183b
00000220: fc01 eb3a 1111 573b 2c8e 8cba ce04 673b
00000230: 9fd8 a03b e68b 6db8 4be7 60bb 27f9 e0bb
00000240: 49af cfbc 8791 91ba 9238 b63c 4d7c 853c
00000250: e1c4 9dbc 38d1 93bc b28d 99bc 030a 11bc
00000260: 8b59 96bc 755c 2b3b d042 fbbb c2f7 da3b
00000270: 8955 633c 9541 dd3a c1df 8bbc fc73 b0bc
00000280: c008 beba 40f2 403a cfb0 363b 4c5b 42ba
00000290: 9e03 5cbb bd52 1c3b 4021 8ebb 0792 25ba
000002a0: 8a58 0039 3a76 48ba fbba 623a ed33 ea3a
000002b0: 8aff 1c3b bd31 1a3b f7f5 6dbb 6817 84bb
000002c0: d58d 523b 6b9a 4cb9 b990 b2bb 727f 9a39
000002d0: 1a6e d1bb 74c5 9ebc 8c70 2cbb 55f0 a5bb
000002e0: 7fd5 873b 2abf 5a3c d0d4 71bc 416e 163c
000002f0: 5471 6a3c 5e96 72ba ef37 17bc dcf1 59bc
00000300: 3c92 50bc 0e08 0b3b 0bcf 903b 87ac cd39
00000310: 0302 3fbc 2d70 13bc 5f0c 54bc 0c30 1ebc
00000320: a3a3 21bc 0777 06bb a22e 1bbb ee9f 033c
00000330: d22c 713c 959b b23b afb5 8fbc dedb 83bc
00000340: d63b 83bc d8bd 9bb9 690b 683c a01a 033b
00000350: 84ab 02bc 1cda 17bc 91c4 133b 7dd1 373b
00000360: 7f93 55bc 348e 0b3c b289 393b 7887 2b3b
00000370: 0955 39ba 565c 0ebb 22da b73b 95b5 b6bb
00000380: 6f73 21bc 6f58 77b9 51df 013c 15a4 633b
00000390: 0cc6 20bc e685 0aba ccb9 46bc 4a32 91bb
000003a0: 270d cfbb 84d1 fdbb 2ca9 e43a 32d6 af38
000003b0: b0fa ee3b 892c a93a cb0f f4bb 222e c7bb
000003c0: 295d 93bb 513e ccba 0751 323c 69af 9d3b
000003d0: dfbe c2bb a530 aebc 80d8 913b eb87 9c38
000003e0: 051b ddbb 670b fd3c 0a95 233b bc8a cd3c
000003f0: a67b 123c b866 97bc 8028 bc3b 6ef9 e7ba
-0.02458155 -0.0017886118 0.02474899 0.019092146 -0.01613888 -0.022949098 -0.0061102794 -0.0072774584
-0.011854823 0.00329077 0.0048061796 0.011933182 0.013093072 -0.012652863 -0.0069267997 -0.023969306
-0.0013666252 -0.00042548534 0.0016765594 0.0011855802 -0.0017169828 -0.0013346797 -0.000532191 3.6728623e-05
-0.0018485532 0.0015962196 0.00091893366 0.0013725116 0.0017078096 -0.0019567849 -0.0003597846 -0.0029532625
-0.024229705 -0.0020236429 0.025090259 0.020182395 -0.025014488 -0.031907137 -0.004274729 -0.010504031
-0.013122625 0.019704444 -0.0008138558 0.020457085 0.017731646 -0.009396784 -0.008255811 -0.026679605
-0.019750481 -0.0021630265 0.016033668 0.011629241 -0.01569936 -0.027575 -0.027093986 -0.013926389
-0.00069729245 -0.012319973 -0.006811929 0.008864884 0.010837773 -0.011038135 -0.0123094 -0.023949927
-0.006020535 0.00028419512 -0.0019024583 0.00074988423 -0.009844382 0.0040986086 -0.009431465 -0.004346287
-0.0019142288 0.003182976 0.000990669 -0.0037579716 0.008135234 0.008368006 -0.0109091075 -0.007148105
-0.0144714415 -0.0015105769 0.015271766 0.019403009 -0.009289147 -0.027066415 -0.004103905 2.3106892e-05
-0.008755697 -0.010879209 -0.0021367187 0.0012623857 0.0052659204 -0.0077437954 -0.0035374332 -0.014308831
-0.0036022111 0.0013971322 0.0055145933 -0.0060895975 -0.0051970743 0.0081292335 -0.009852749 -0.0042405115
-0.0011874397 -0.0018605517 0.0012973048 -5.1185743e-05 0.0059545254 0.0031462612 -0.009509078 -0.005400296
-0.011004012 -0.00090064504 0.010469219 0.0018767505 -0.009486324 -0.009542136 -0.008177682 -0.0040371683
-0.0063012256 -0.008266467 -0.0008159464 0.00057002826 0.0066365968 -0.0026556887 -0.0035779648 -0.0051235068
0.00037105972 1.9854377e-05 0.0006575399 0.0011765361 -0.002655291 0.0021608858 -1.22192605e-05 0.0023289253
0.0017929669 0.003281657 -0.0010723523 0.0035250667 0.0049086357 -5.6635494e-05 -0.003431755 -0.006865639
-0.025352137 -0.0011105993 0.022243772 0.016294623 -0.019258918 -0.0180441 -0.018744323 -0.008852485
-0.018353244 0.0026147638 -0.007667877 0.006682367 0.013875374 0.0016880507 -0.017074468 -0.02153968
-0.0014498457 0.0007360317 0.0027876382 -0.0007414117 -0.0033571492 0.0023853027 -0.00433746 -0.000631601
0.00012240015 -0.00076470117 0.0008649078 0.0017868258 0.0023956024 0.0023528181 -0.0036309937 -0.0040311106
0.0032127996 -0.00019512481 -0.005449381 0.00029468123 -0.006391299 -0.019381262 -0.00263122 -0.00506405
0.0041453238 0.013351241 -0.014760211 0.00918156 0.014309246 -0.0009253974 -0.009229644 -0.013302293
-0.0127301775 0.0021214518 0.0044192127 0.0003922919 -0.0116581945 -0.008998913 -0.012942403 -0.00965501
-0.009865674 -0.0020517723 -0.0023678918 0.008033736 0.014720159 0.0054506757 -0.017542688 -0.016096052
-0.016019743 -0.00029705348 0.014162877 0.0020004883 -0.007975463 -0.00926831 0.0022547583 0.0028048449
-0.013035654 0.008517791 0.0028310833 0.0026173275 -0.0007069861 -0.0021722517 0.0056107203 -0.0055758455
-0.009854182 -0.000235887 0.007926778 0.0034735252 -0.009812843 -0.00052842346 -0.012129258 -0.0044310438
-0.0063187066 -0.0077459235 0.0017445437 8.384547e-05 0.007293068 0.0012906949 -0.0074481717 -0.0060784975
-0.0044971895 -0.0015582537 0.010883576 0.0048121703 -0.0059431638 -0.02126343 0.0044508576 7.463976e-05
-0.0067476057 0.030889226 0.002496066 0.025090568 0.008940613 -0.018481597 0.0057421327 -0.0017698237

module.bi_lstm2.weight_hh_l0 f4 [128, 32]
00000000: 4c89 0080 e08a 0080 f789 0000 f08a 0000
00000010: 658b 0080 3d8b 0080 b08e 0080 988a 0000
00000020: 0d89 0080 c189 0080 6490 0000 0089 0080
00000030: 56ad 0080 128b 0080 0f8a 0000 bca0 0080
00000040: 839e 0000 32a4 0080 a78a 0080 88a7 0000
00000050: 838b 0080 3b89 0000 cf8b 0080 e288 0080
00000060: 7d8c 0000 7289 0000 6a99 0000 518b 0080
00000070: d089 0000 ea8a 0000 398c 0000 318a 0080
00000080: 1291 0000 628a 0000 1d93 0000 ec8a 0080
00000090: 088e 0000 f18a 0000 848a 0000 9145 0100
000000a0: 2595 0000 1494 0000 d38c 0000 568e 0080
000000b0: 75a8 0000 9a8d 0080 29ad 0000 e888 0080
000000c0: 5989 0080 c189 0000 fd89 0000 168d 0000
000000d0: 908c 0000 6f8a 0000 c58a 0000 8e8a 0080
000000e0: 328b 0080 0844 0080 5ca1 0080 4c8b 0000
000000f0: 598c 0080 908a 0000 e08d 0080 ab89 0000
00000100: 028e 0080 ad89 0000 3593 0080 df8b 0000
00000110: 89ab 0080 f893 0000 1ba5 0000 e188 0080
00000120: 539e 0000 ab94 0000 b897 0000 628a 0000
00000130: 548a 0080 948b 0000 e988 0080 8e94 0000
00000140: e99d 0000 148c 0000 f28a 0000 bf9a 0080
00000150: 0d8d 0080 8e8b 0080 9b8d 0000 e38a 0080
00000160: f18b 0000 0d8b 0080 ba8a 0080 e48a 0000
00000170: 048a 0000 c68a 0000 c288 0080 f38b 0000
00000180: 568b 0080 6f8a 0000 3fa8 0080 6489 0000
00000190: de8d 0000 be88 0080 008b 0000 1d8b 0080
000001a0: fb8f 0080 c889 0080 cb8c 0000 a98a 0000
000001b0: bb8b 0080 d2a0 0080 6b89 0080 128a 0000
000001c0: 748b 0000 d789 0000 428a 0000 ae89 0000
000001d0: a18a 0000 448d 0000 598a 0080 078c 0080
000001e0: cd8c 0000 4e89 0000 7399 0080 3a8b 0080
000001f0: 3c89 0000 2a9d 0080 b68e 0000 c68a 0000
00000200: c78a 0080 348a 0080 1b89 0080 238b 0080
00000210: 4f89 0080 8b89 0080 90b7 0200 b18c 0080
00000220: e18a 0080 eb89 0080 ce90 0000 9289 0080
00000230: c38d 0000 d995 0080 158c 0080 a98b 0080
00000240: 8a89 0000 958c 0080 0c8a 0080 4e93 0000
00000250: 078c 0000 528b 0080 7789 0080 cc89 0000
00000260: ee88 0000 4f89 0000 608d 0080 2789 0000
00000270: a18a 0000 9489 0080 5e8d 0080 3d8a 0080
00000280: a98b 0080 678a 0080 508c 0000 9f8a 0080
00000290: 098c 0000 218a 0000 5e89 0080 5789 0000
000002a0: 5a8b 0080 db65 0000 148a 0080 6f8b 0080
000002b0: 2e8b 0000 618e 0080 ea88 0000 c4a6 0080
000002c0: 488d 0000 ad90 0080 c794 0080 d48b 0000
000002d0: bf89 0080 328c 0000 198e 0000 db8d 0000
000002e0: f288 0080 ed91 0080 128e 0080 c889 0080
000002f0: a68c 0080 b68c 0080 ae8a 0080 4b8b 0080
00000300: 188e 0000 228a 0000 4b8b 0000 7f1d 0000
00000310: 22a8 0000 42a5 0080 328b 0000 8490 0080
00000320: 0c9a 0000 308b 0000 848a 0080 a2d5 0100
00000330: f189 0000 da94 0000 c089 0000 228b 0080
00000340: 0d9c 0080 d489 0000 908a 0000 548a 0080
00000350: 438f 0080 cb8f 0080 df94 0000 4d8a 0080
00000360: 8289 0080 8b8f 0080 1c8b 0080 5290 0080
00000370: 4089 0000 bb8f 0080 8c90 0000 bc8b 0080
00000380: 2e89 0000 ea8a 0080 e189 0000 2a8a 0000
00000390: 868d 0080 7293 0000 a99d 0000 008c 0080
000003a0: d58c 0000 a689 0080 5b89 0080 92a2 0080
000003b0: 0396 0000 628b 0000 ee89 0000 9896 0080
000003c0: c389 0000 3b93 0000 b18b 0000 fd94 0080
000003d0: 508a 0080 9a8a 0000 76a3 0000 329c 0080
000003e0: 0693 0000 ea89 0000 2b89 0000 138a 0000
000003f0: 7f8a 0000 cf8c 0000 cc8e 0000 748a 0000
-4.9253e-41 -4.9819e-41 4.9492e-41 4.9841e-41 -5.0005e-41 -4.9949e-41 -5.1187e-41 4.9718e-41
-4.9165e-41 -4.9417e-41 5.1798e-41 -4.9146e-41 -6.2181e-41 -4.9889e-41 4.9526e-41 -5.766e-41
5.6863e-41 -5.8902e-41 -4.9739e-41 6.0099e-41 -5.0047e-41 4.9229e-41 -5.0154e-41 -4.9104e-41
5.0398e-41 4.9306e-41 5.5035e-41 -4.9977e-41 4.9438e-41 4.9833e-41 5.0302e-41 -4.9574e-41
5.2041e-41 4.9642e-41 5.2774e-41 -4.9836e-41 5.0951e-41 4.9843e-41 4.969e-41 1.16791e-40
5.3503e-41 5.312e-41 5.0518e-41 -5.106e-41 6.0431e-41 -5.0797e-41 6.2118e-41 -4.9113e-41
-4.9271e-41 4.9417e-41 4.9501e-41 5.0612e-41 5.0424e-41 4.966e-41 4.9781e-41 -4.9704e-41
-4.9934e-41 -2.4405e-41 -5.7885e-41 4.997e-41 -5.0347e-41 4.9707e-41 -5.0895e-41 4.9386e-41
-5.0943e-41 4.9389e-41 -5.2808e-41 5.0176e-41 -6.1535e-41 5.3081e-41 5.9229e-41 -4.9103e-41
5.6796e-41 5.3332e-41 5.4426e-41 4.9642e-41 -4.9623e-41 5.0071e-41 -4.9114e-41 5.3291e-41
5.6647e-41 5.025e-41 4.9844e-41 -5.5512e-41 -5.06e-41 -5.0063e-41 5.0798e-41 -4.9823e-41
5.0202e-41 -4.9882e-41 -4.9766e-41 4.9825e-41 4.951e-41 4.9783e-41 -4.906e-41 5.0204e-41
-4.9984e-41 4.966e-41 -6.0355e-41 4.9286e-41 5.0892e-41 -4.9054e-41 4.9864e-41 -4.9904e-41
-5.165e-41 -4.9427e-41 5.0507e-41 4.9742e-41 -5.0126e-41 -5.7691e-41 -4.9296e-41 4.953e-41
5.0026e-41 4.9448e-41 4.9598e-41 4.939e-41 4.973e-41 5.0677e-41 -4.963e-41 -5.0232e-41
5.051e-41 4.9256e-41 -5.5047e-41 -4.9945e-41 4.923e-41 -5.638e-41 5.1195e-41 4.9783e-41
-4.9784e-41 -4.9578e-41 -4.9184e-41 -4.9913e-41 -4.9257e-41 -4.9341e-41 2.49521e-40 -5.047e-41
-4.982e-41 -4.9476e-41 5.1946e-41 -4.9351e-41 5.0855e-41 -5.3755e-41 -5.0252e-41 -5.01e-41
4.934e-41 -5.0431e-41 -4.9522e-41 5.2843e-41 5.0232e-41 -4.9979e-41 -4.9313e-41 4.9432e-41
4.9121e-41 4.9257e-41 -5.0716e-41 4.9201e-41 4.973e-41 -4.9354e-41 -5.0713e-41 -4.959e-41
-5.01e-41 -4.965e-41 5.0335e-41 -4.9728e-41 5.0235e-41 4.9551e-41 -4.9278e-41 4.9268e-41
-4.999e-41 3.6539e-41 -4.9533e-41 -5.002e-41 4.9928e-41 -5.1076e-41 4.9116e-41 -5.9824e-41
5.0682e-41 -5.19e-41 -5.3371e-41 5.0161e-41 -4.9414e-41 5.0293e-41 5.0975e-41 5.0888e-41
-4.9127e-41 -5.2348e-41 -5.0965e-41 -4.9427e-41 -5.0455e-41 -5.0478e-41 -4.9749e-41 -4.9969e-41
5.0974e-41 4.9553e-41 4.9969e-41 1.0581e-41 6.0315e-41 -5.9283e-41 4.9934e-41 -5.1842e-41
5.5262e-41 4.9931e-41 -4.969e-41 1.68473e-40 4.9484e-41 5.3398e-41 4.9415e-41 -4.9911e-41
-5.598e-41 4.9443e-41 4.9707e-41 -4.9623e-41 -5.1393e-41 -5.1583e-41 5.3405e-41 -4.9613e-41
-4.9329e-41 -5.1494e-41 -4.9903e-41 -5.1772e-41 4.9236e-41 -5.1561e-41 5.1854e-41 -5.0127e-41
4.9211e-41 -4.9833e-41 4.9462e-41 4.9564e-41 -5.0769e-41 5.2893e-41 5.6558e-41 -5.0223e-41
5.0521e-41 -4.9379e-41 -4.9274e-41 -5.8319e-41 5.3814e-41 5.0001e-41 4.948e-41 -5.4023e-41
4.942e-41 5.2816e-41 5.0112e-41 -5.3447e-41 -4.9617e-41 4.9721e-41 5.8639e-41 -5.6032e-41
5.2742e-41 4.9474e-41 4.9207e-41 4.9532e-41 4.9683e-41 5.0513e-41 5.1226e-41 4.9668e-41

module.bi_lstm2.bias_ih_l0 f4 [128]
00000000: 68fe 253a cdf9 afbb 8765 823b 09dd 0f3d
00000010: 7ccc 253d 5040 973a e1b7 bdbb b72c 12bc
00000020: d0fa 1cbb b258 093d a6ad dabb 82a1 793d
00000030: e928 873c 554c ac3c 6ca9 bdbb 88e6 263d
00000040: ea6d 443c ab31 e63b b82c 743c 0459 d83a
00000050: 646e 7c3d ce95 c73b f6fc e13b ccba 973c
00000060: 949c 7e3c 3323 c8bb d1f2 4dba a028 b93b
00000070: ee84 ed3b be48 b2bb 545e 4cbb fe32 413c
00000080: ef8a 0080 2889 0000 04a8 0080 0489 0000
00000090: f389 0000 d78a 0000 148a 0080 b98e 0080
000000a0: c390 0080 d289 0080 6ea4 0080 1c8d 0000
000000b0: 5789 0080 fd88 0080 e388 0000 bd88 0080
000000c0: a789 0080 1e89 0000 9a8b 0080 8289 0000
000000d0: bc89 0080 158b 0000 a08b 0080 008a 0000
000000e0: e997 0000 c68e 0080 d091 0080 978c 0080
000000f0: 3b8a 0080 6897 0000 9897 0080 e988 0000
00000100: 106f c3bc fd29 7abc b957 47bc c702 353d
00000110: 937b 35be c83a 08bd 938e 2cbb 1c08 a0bc
00000120: d3aa 8cbc b2d1 d53c df76 b0bc 9c6f 2c3e
00000130: af19 eabd fdd8 06bd 5131 b5bb 6993 8c3b
00000140: 3940 c6bd aff5 193c a230 b7bd 1fb5 6f3d
00000150: 3117 dfbc 6199 8bbd 5286 8cbd 57da 4eba
00000160: 5132 82bd 4aab ee3c 5ee6 4cbd 763f 92bd
00000170: 9a25 5f3c 3127 82bc f6d1 fa3a fb18 80bd
00000180: 0da3 ecb8 1253 b0bb 2d2a 393b eaab 0c3d
00000190: a623 293d d165 e839 5b4c bebb 04a9 13bc
000001a0: f843 1dbb d264 083d 4335 dbbb 0541 7e3d
000001b0: 6f4e 873c 1959 a93c cebc bdbb a4f8 193d
000001c0: fafc 443c 86da 9f3b 3937 763c 8795 d53a
000001d0: 1a7e 7b3d c9b7 933b 58f0 fa3b a62f 933c
000001e0: 4a08 7e3c 562b c8bb 1265 53ba 6b09 b93b
000001f0: 0852 ec3b 1354 b2bb 20bc 4dbb 8505 423c
0.000633216 -0.0053703547 0.003979388 0.035122905 0.040478215 0.0011539552 -0.0057897423 -0.008921794
-0.0023953207 0.033531852 -0.0066735325 0.06094504 0.016499 0.021032492 -0.005788019 0.040747195
0.011989096 0.007024964 0.01490324 0.0016506021 0.061628714 0.006090856 0.0068966104 0.018521689
0.015540261 -0.0061077117 -0.0007856312 0.005650595 0.0072485125 -0.0054408005 -0.0031184154 0.011791943
-4.984e-41 4.9202e-41 -6.0273e-41 4.9152e-41 4.9487e-41 4.9806e-41 -4.9533e-41 -5.1199e-41
-5.1931e-41 -4.944e-41 -5.8986e-41 5.062e-41 -4.9268e-41 -4.9142e-41 4.9106e-41 -4.9052e-41
-4.938e-41 4.9188e-41 -5.008e-41 4.9329e-41 -4.941e-41 4.9893e-41 -5.0088e-41 4.9505e-41
5.4495e-41 -5.1217e-41 -5.2308e-41 -5.0434e-41 -4.9588e-41 5.4314e-41 -5.4382e-41 4.9114e-41
-0.02385667 -0.0152688 -0.012166911 0.0441921 -0.17722921 -0.033259183 -0.0026330098 -0.019535117
-0.0171713 0.026100967 -0.021541057 0.1683945 -0.1143068 -0.03292178 -0.0055295606 0.0042900336
-0.09680218 0.009396954 -0.08944823 0.05852234 -0.027232738 -0.06816364 -0.06861557 -0.00078908115
-0.06357253 0.029134411 -0.050024383 -0.071410105 0.013619805 -0.015887829 0.001913606 -0.06254765
-0.000112837275 -0.0053809965 0.0028253898 0.034343638 0.041293763 0.00044326347 -0.005807442 -0.009012464
-0.0023996811 0.033299275 -0.006689699 0.062073726 0.016516892 0.020672368 -0.0057903295 0.037590638
0.012023205 0.004878345 0.015027815 0.0016295173 0.061399557 0.004507993 0.0076580457 0.017967056
0.015504906 -0.0061086817 -0.0008064072 0.0056468747 0.0072119273 -0.0054421513 -0.0031392649 0.011842136
