output/clip/FD004/exp_202411021254_bilstm_clip_ep-0053.pth (torch, 288916 bytes, 66 tensors)

module.bi_lstm1.weight_ih_l0 f4 [64, 14]
-0.0027060043 0.013322054 -0.0067484304 -0.007569325 -0.006665445 7.507445e-05 0.009941711 -0.004844999
-0.0072038374 -0.006445798 -0.003927885 0.004529972 -0.016518112 -0.0141245155 0.0044578337 0.0050108894
-0.00040456283 -0.0075466475 0.0060920683 0.0033332377 -0.006777626 0.0001976897 0.0048809494 0.004277744
0.015786646 -0.003953843 0.008376306 0.013799479 -0.10239541 -0.011031388 -0.131068 0.22229256
-0.019230345 0.0032368351 -0.13119397 0.20608717 -0.041199416 0.08712228 -0.24602741 -0.124339454
0.24535564 0.19418354 0.091569155 0.06827139 0.06370675 0.0050739273 0.05312497 0.025274983
0.084158905 0.014082686 0.056735583 0.012604517 0.13627309 0.060010374 0.021847544 0.030237304
0.037293088 0.057019293 0.008009294 -0.046301227 0.041086297 0.00031552569 0.051468212 -0.040019657
0.041095145 -0.014078236 0.10903842 0.022840258 -0.020540817 0.008730948 0.023878766 0.03384098
0.012669377 0.08634119 0.092814274 0.030577298 0.038557597 0.05010009 0.12140025 0.072957374
0.09686998 0.011073764 0.056303736 0.014094808 0.02439573 0.015087466 0.012472571 0.13949312
0.076014616 0.07756673 0.005796954 0.13319227 0.05034998 0.10928468 -0.08158951 0.015667355
0.123441815 0.071319275 0.009776923 0.015031137 0.006312288 -0.018149761 0.00067928573 0.0001688911
0.0188801 -0.015745943 -0.0003066646 -0.007766265 0.030403737 0.009816756 -0.018919742 -0.0143143395
-0.0620915 0.017461808 -0.05407103 0.05066676 -0.015471442 -0.008802975 -0.04039436 0.04021025
-0.031889725 0.0125285275 -0.09087039 -0.040582232 0.022271447 0.00687141 0.029469164 0.06261439
0.043884113 0.10528837 0.111316875 0.049674984 0.085044704 0.05166277 0.104312025 0.09323807
0.100529164 0.0382154 0.12888415 0.050027154 0.048253328 0.0453292 0.06512275 0.06999216
0.018317118 0.046869177 0.053494807 0.11376434 0.03083823 0.05041556 0.047055442 0.06861985
-0.01937966 0.035532 -0.0066516637 -0.0036691558 0.02326081 -0.0051607653 0.032148607 0.010915099
-0.009285808 -0.019804627 0.038170174 0.020781366 0.03013919 -0.043330908 0.008569156 -0.0020216512
0.041860387 0.054162033 0.03359705 0.014006644 0.033100717 0.028230354 0.040260207 0.029393766
0.02794621 0.02745601 0.06340622 0.03798112 0.034514 0.045400646 -0.006698133 -0.018304663
-0.035704058 0.017834451 0.014345231 -0.014109384 -0.019362634 0.006567694 0.018883357 0.002493098
0.042520117 -0.025859663 0.04842191 0.034503307 0.08761206 0.06279348 0.03508037 -0.10303908
0.056484964 0.0026519755 0.084773906 -0.087917954 0.06574141 -0.032453585 0.18456829 0.052858405
-0.046565726 -0.025379108 0.039484456 0.022218319 0.018091056 -0.04631155 0.01685296 -0.0028556755
0.03489406 -0.041859325 0.016732331 -0.021079175 0.09121413 0.0145654725 -0.03863 -0.023111062
-0.0021368382 0.013060883 -0.00031539597 0.002809924 -0.0068875104 0.00019304728 0.0076491735 0.0054609547
-0.0059561157 -0.0029794064 0.0011295818 0.007070491 -0.003824999 0.004142529 -0.00067786983 -0.0011547594
-0.0027675866 -0.0017248509 0.005178157 0.0040239794 -0.010521779 0.0029566572 0.0046205637 0.007517198
0.011059342 -0.0043456065 0.017127162 0.017984435 0.026825907 0.0045167715 -0.084990956 0.27575347
00000000: 3857 31bb bf44 5a3c f021 ddbb 1a08 f8bb
00000010: ce69 dabb 4a71 9d38 8fe2 223c ccc2 9ebb
00000020: 2b0e ecbb 4637 d3bb 7db5 80bb 2970 943b
00000030: fe50 87bc 836a 67bc 0513 923b 6332 a43b
00000040: 811b d4b9 de49 f7bb f99f c73b 7372 5a3b
00000050: d916 debb ed4a 4f39 5ff0 9f3b 512c 8c3b
00000060: ff52 813c 3d8f 81bb c63c 093c 3617 623c
00000070: afb4 d1bd ffbc 34bc b136 06be a9a0 633e
00000080: f588 9dbc 1521 543b b657 06be 8408 533e
00000090: b8c0 28bd 2a6d b23d 9cee 7bbe afa5 febd
000000a0: 823e 7b3e 0dd8 463e 9c88 bb3d dfd1 8b3d
000000b0: af78 823d 3043 a63b 9299 593d 7b0d cf3c
000000c0: 815b ac3d 11bb 663c 9263 683d 2d83 4e3c
000000d0: 2c8b 0b3e 70cd 753d 9ff9 b23c 39b4 f73c
000000e0: a3c0 183d 108d 693d 6a39 033c 5ba6 3dbd
000000f0: 1b4a 283d 246d a539 55d0 523d a7eb 23bd
00000100: 6253 283d 67a8 66bc 894f df3d 7e1b bb3c
00000110: 3745 a8bc 400c 0f3c 679d c33c d79c 0a3d
00000120: 3893 4f3c a6d3 b03d 6915 be3d 3e7d fa3c
00000130: 92ee 1d3d c135 4d3d b2a0 f83d ad6a 953d
00000140: c563 c63d bc6e 353c bf9e 663d e9ed 663c
00000150: 8ed9 c73c 6b31 773c c159 4c3c 49d7 0e3e
00000160: 8dad 9b3d 4edb 9e3d 60f4 bd3b 8e63 083e
00000170: c83b 4e3d a5d0 df3d 6718 a7bd d358 803c
00000180: 10cf fc3d d70f 923d 632f 203c 2845 763c
00000190: 4fd7 ce3b cfae 94bc 1812 323a 5c18 3139
000001a0: 71aa 9a3c a3fd 80bc d3c7 a0b9 277c febb
000001b0: 4211 f93c 75d6 203c 93fd 9abc b186 6abc
000001c0: a853 7ebd 110c 8f3c 9679 5dbd f387 4f3d
000001d0: ee7b 7dbc 5a3a 10bc 8e74 25bd 81b3 243d
000001e0: cd9e 02bd 7444 4d3c 411a babd 8e39 26bd
000001f0: 9c72 b63c 9129 e13b 5169 f13c f93b 803d
00000200: d4bf 333d 6ea1 d73d 1afa e33d ff77 4b3d
00000210: eb2b ae3d 579c 533d 8ba1 d53d 9af3 be3d
00000220: 3ce2 cd3d c087 1c3d 35fa 033e 46e9 4c3d
00000230: 48a5 453d 1cab 393d 145f 853d 0d58 8f3d
00000240: c80d 963c e5f9 3f3d 5f1d 5b3d 47fd e83d
00000250: 75a0 fc3c 8c80 4e3d 35bd 403d 9088 8c3d
00000260: 18c2 9ebc 018a 113d 33f6 d9bb 3876 70bb
00000270: 748d be3c a31b a9bb 42ae 033d 3ed5 323c
00000280: 8023 18bc 503d a2bc 5458 1c3d af3d aa3c
00000290: 76e6 f63c c07b 31bd a565 0c3c ae7d 04bb
000002a0: cc75 2b3d 02d9 5d3d 0f9d 093d 1f7c 653c
000002b0: 9e94 073d 5843 e73c e3e7 243d 32cb f03c
000002c0: 73ef e43c 6deb e03c 1fdb 813d 1792 1b3d
000002d0: 8d5e 0d3d 07f6 393d 037c dbbb a9f3 95bc
000002e0: 6b3e 12bd 8e19 923c 4208 6b3c 0c2b 67bc
000002f0: 639e 9ebc cf35 d73b 45b1 9a3c 3e63 233b
00000300: 9329 2e3d a5d7 d3bc 0d56 463d 5753 0d3d
00000310: f46d b33d de99 803d 6fb0 0f3d 2706 d3bd
00000320: c75c 673d c4cc 2d3b f19d ad3d 540e b4bd
00000330: 6fa3 863d 0dee 04bd 78ff 3c3e 0e82 583d
00000340: b4bb 3ebd d9e7 cfbc 74ba 213d 3103 b63c
00000350: b233 943c 2eb1 3dbd 380f 8a3c 4926 3bbb
00000360: 13ed 0e3d af74 2bbd 3e12 893c 3cae acbc
00000370: 79ce ba3d 05a4 6e3c 7e3a 1ebd 6953 bdbc
00000380: 320a 0cbb 50fd 553c bb5b a5b9 b426 383b
00000390: a0b0 e1bb bc6c 4a39 eba5 fa3b cff1 b23b
000003a0: 852b c3bb 2542 43bb 7a0e 943a 94af e73b
000003b0: d6ac 7abb 0dbe 873b 13b3 31ba 4c5b 97ba
000003c0: 6660 35bb 6414 e2ba 87ad a93b 96db 833b
000003d0: 8a63 2cbc 7ac4 413b 1968 973b d452 f63b
000003e0: 3e32 353c 9765 8ebb 434e 8c3c 1854 933c
000003f0: 01c2 db3c 6d01 943b bd0f aebd 8f2f 8d3e

module.bi_lstm1.weight_hh_l0 f4 [64, 16]
-0.0021179954 0.0018896273 0.00605204 -0.0036013194 -0.0019688585 -0.0017971257 -0.0032820397 -0.0010136556
-0.0047032284 0.006107193 0.013802426 0.0016657424 0.0003609539 -0.004141804 0.0007885859 -0.0015369467
0.00020925337 0.0020462917 -0.0051201177 0.0013193744 -0.001984063 -0.004290424 -0.0017604592 0.00087722373
0.00046875258 -0.0027926671 -0.033686895 -0.0018126337 0.008730855 0.008359967 -0.0011916513 -7.810517e-05
-0.005544426 0.0018335971 -0.1799984 0.0897803 -0.058441747 0.064038366 0.16848081 -0.020745674
0.042601556 -0.08275407 -0.0021828173 -0.027711412 0.013222661 0.0105503965 -0.11135125 -0.084381804
0.003281293 0.009682662 0.009862064 -0.009100406 -0.0019597758 0.016534217 -0.014060009 -0.0020436626
0.002819185 -0.024525588 -0.033899732 -0.01413841 0.012678751 0.023492996 0.0041543636 -0.00048316407
0.0016643845 0.017655311 0.029255416 -0.007945823 -0.0094925035 -0.024462374 -0.047860462 0.001301041
-0.009264015 0.016520249 -0.050707713 0.0040165144 0.032198627 0.012764435 0.006326723 -0.0014268229
6.886058e-05 -0.010338641 -0.016954483 0.028326174 -0.007886514 0.02814381 0.065661326 -0.0068675424
0.021470536 -0.021420417 0.096532606 0.012613225 -0.028324157 -0.016553586 -0.013277125 -0.002113141
-0.0008792668 -0.017725445 -0.10410516 0.04147646 -0.0012009734 0.026331088 0.07410422 -0.007295717
0.025793264 -0.028546097 0.032693233 -0.004355793 -0.028573634 -0.008150169 -0.024490813 -0.0078049623
-0.00096585223 0.0049895626 -0.0008544385 0.0054114917 -0.005027161 -0.019564467 -0.011504477 -0.0025609545
-0.00026989394 0.01931761 -0.030628152 0.0058183228 0.01000897 0.0008581699 4.164462e-06 -0.0036953222
-0.0076362304 -0.0031197623 -0.047919758 0.019691681 -0.011366422 0.03318011 0.039922036 -0.0060469448
0.0009837876 -0.032172583 0.02802666 -0.0054612043 -0.0022949753 -0.0049506235 -0.01953773 -0.017093508
0.0005775697 -0.005799737 -0.013929266 0.008676 -0.00066767377 0.033454582 0.038415577 -0.003301864
0.01567032 -0.046872593 0.04694327 -0.013575137 -0.017429087 0.016036997 0.00015556226 0.0014067645
0.0155531615 0.013965595 -0.023592943 -0.024830101 0.016253632 0.06700788 0.07370563 0.009976682
0.010092366 -0.06320285 0.05402767 -0.031119047 0.0016810512 0.0034522587 0.012937933 -0.009299344
0.008493934 0.003670147 0.023224141 -0.00485429 0.00031444308 -0.05725124 -0.036835134 -0.00059467315
0.0036050833 0.054414 -0.04807231 0.022448748 0.008955071 0.0014652782 0.0160671 0.015073768
0.008310491 0.0215716 -0.014177749 0.004879008 -0.011242171 -0.00017575285 -0.013735748 -7.144456e-05
0.008444326 -0.017831009 -0.07790728 -0.00508712 0.03689698 0.020732887 -0.006920672 -0.013400554
0.0021610372 0.009630984 -0.0035347445 0.036382042 -0.022324594 -0.03112026 -0.0021034507 -0.006494561
0.008831077 0.029660119 -0.051839095 0.009218463 0.026575407 0.0011216161 -0.026789622 -0.020741658
5.869551e-05 0.022652738 0.076341964 -0.024108121 -0.005249095 -0.06535104 -0.08996878 0.0051581664
-0.025341693 0.073365174 -0.017894158 0.02530711 0.0327473 -0.007697792 0.019233558 0.0072758207
-0.0001727729 0.015271062 0.023344105 0.0022159324 -0.008813927 -0.036376685 -0.041591134 -0.00090971915
-0.0065476 0.0321222 -0.05832084 0.012948574 0.026782228 0.0032465667 0.0025684554 -0.0031149464
00000000: 11ce 0abb 5fad f73a 3150 c63b 1d04 6cbb
00000010: f707 01bb 888d ebba 7d17 57bb a3dc 84ba
00000020: 8a1d 9abb d91e c83b 9223 623c 0a55 da3a
00000030: 6a3e bd39 f8b7 87bb 1bb9 4e3a 6073 c9ba
00000040: 066b 5b39 141b 063b a9c6 a7bb dcee ac3a
00000050: 0e07 02bb af96 8cbb 35bf e6ba 7df5 653a
00000060: e8c2 f539 2e05 37bb 45fb 09bd e595 edba
00000070: dc0b 0f3c 3ef8 083c 2f31 9cba 65cc a3b8
00000080: 04ae b5bb 4f55 f03a 8051 38be bcde b73d
00000090: 9d60 6fbd 8c26 833d 3c86 2c3e d5f2 a9bc
000000a0: f87e 2e3d f77a a9bd 990d 0fbb 0b03 e3bc
000000b0: dca3 583c 92db 2c3c 200c e4bd 5ed0 acbd
000000c0: f60a 573b 07a4 1e3c 7f94 213c df19 15bc
000000d0: 956f 00bb c472 873c f45b 66bc f8ee 05bb
000000e0: 13c2 383b e3e9 c8bc 72da 0abd caa4 67bc
000000f0: 89ba 4f3c 6274 c03c 5421 883b 2f51 fdb9
00000100: 7a27 da3a dfa1 903c 0ea9 ef3c 322f 02bc
00000110: 7286 1bbc 5165 c8bc 5509 44bd b187 aa3a
00000120: 18c8 17bc 7955 873c e4b2 4fbd f79c 833b
00000130: b5e2 033d ec21 513c 6650 cf3b 3b04 bbba
00000140: 3e69 9038 6763 29bc 21e4 8abc 4b0c e83c
00000150: 7036 01bc d98d e63c 7279 863d 1f09 e1bb
00000160: fae2 af3c df79 afbc e3b2 c53d b3a7 4e3c
00000170: 1008 e8bc 639b 87bc 4c88 59bc 9f7c 0abb
00000180: 997e 66ba f434 91bc 1635 d5bd 38e3 293d
00000190: fb69 9dba 4bb4 d73c f4c3 973d e910 efbb
000001a0: 654c d33c 81d9 e9bc 57e9 053d 0abb 8ebb
000001b0: 4113 eabc 4988 05bc f5a0 c8bc c5c0 ffbb
000001c0: 3f31 7dba 7c7f a33b 66fc 5fba e252 b13b
000001d0: e2ba a4bb a945 a0bc 467d 3cbc b0d5 27bb
000001e0: 8d80 8db9 f73f 9e3c e4e7 fabc a1a7 be3b
000001f0: aafc 233c cff6 603a 75bc 8b36 382d 72bb
00000200: 5839 fabb ed74 4cbb 8247 44bd 7350 a13c
00000210: 3b3a 3abc dee7 073d 4a85 233d 7325 c6bb
00000220: 6ff2 803a 66c7 03bd 2b98 e53c e7f3 b2bb
00000230: 4c67 16bb d738 a2bb 970d a0bc af07 8cbc
00000240: 0c68 173a b80b bebb 9337 64bc c825 0e3c
00000250: d406 2fba ac07 093d a759 1d3d 1664 58bb
00000260: 0b5f 803c 7afd 3fbd 9647 403d 406a 5ebc
00000270: 72c7 8ebc 0560 833c 6d1e 2339 2f63 b83a
00000280: b0d2 7e3c f3cf 643c fd45 c1bc 7f68 cbbc
00000290: 5626 853c 6d3b 893d faf2 963d 3d75 233c
000002a0: 735a 253c 7f70 81bd 1e4c 5d3d 5fed febc
000002b0: b856 dc3a 4a3f 623b a0f9 533c 475c 18bc
000002c0: 242a 0b3c d986 703b 8e40 be3c bc10 9fbb
000002d0: d6db a439 4780 6abd 70e0 16bd d7e3 1bba
000002e0: 4343 6c3b 37e1 5e3d 78e7 44bd 70e6 b73c
000002f0: 4ab8 123c 940e c03a 279f 833c f7f7 763c
00000300: ba28 083c edb6 b03c ca49 68bc 16e0 9f3b
00000310: 1531 38bc 4c4a 38b9 e70b 61bc 82d4 95b8
00000320: 125a 0a3c 5612 92bc da8d 9fbd dbb1 a6bb
00000330: 4a21 173d 04d8 a93c cec6 e2bb ff8d 5bbc
00000340: 30a0 0d3b 46cb 1d3c 2ca7 67bb 5605 153d
00000350: 11e2 b6bc eaef febc 0cda 09bb 54d0 d4bb
00000360: 39b0 103c c7f9 f23c 3b55 54bd 0909 173c
00000370: abb4 d93c 3103 933a e975 dbbc 69ea a9bc
00000380: d32f 7638 3c92 b93c 2d59 9c3d 657e c5bc
00000390: 9a00 acbb c4d6 85bd 8d41 b8bd d605 a93b
000003a0: 6299 cfbc 7b40 963d c596 92bc db50 cf3c
000003b0: 0822 063d c23d fcbb b28f 9d3c 026a ee3b
000003c0: 5f2a 35b9 7a33 7a3c 233c bf3c 2d39 113b
000003d0: 4a68 10bc b8ff 14bd 775b 2abd 387a 6eba
000003e0: 408d d6bb 9192 033d d5e1 6ebd 4126 543c
000003f0: 6766 db3c 5ac4 543b 8853 283b 2124 4cbb

module.bi_lstm1.bias_ih_l0 f4 [64]
-0.029186347 0.026789218 0.13730022 0.087619446 0.06791189 0.056072757 0.108224764 -0.00078300363
-0.0029385458 0.18473117 -0.013715951 0.008381609 0.105255775 0.065520495 0.023286868 0.017731791
-0.008580051 0.024801698 0.16981488 0.11091755 0.03924443 0.15464391 -0.013989198 -0.011681851
0.036544453 0.1621986 0.14876842 -0.02959676 0.074373335 -0.022783305 0.04635198 0.031378075
0.05272409 0.0715662 0.16230783 -0.05826165 -0.17628334 0.019356046 -0.0035096142 0.036251962
0.040436316 -0.068947434 0.05281789 -0.053350646 0.18200716 0.14464653 -0.048309736 -0.12980914
-0.02664634 0.02622437 0.15253612 0.08607849 0.051265508 0.11432435 0.12656504 6.7264514e-06
-0.019451842 0.08712824 0.0400852 0.03329385 0.106266774 0.06028139 0.034010798 0.022757242
00000000: 3518 efbc 1075 db3c 6e98 0c3e d371 b33d
00000010: 6415 8b3d 8cac 653d f2a4 dd3d 7c42 4dba
00000020: 9e94 40bb 2b2a 3d3e deb8 60bc 0453 093c
00000030: 5790 d73d 9c2f 863d 1ac4 be3c 4342 913c
00000040: 5893 0cbc ee2c cb3c f4e3 2d3e be28 e33d
00000050: c4be 203d f95a 1e3e f332 65bc 3c65 3fbc
00000060: a3af 153d 6417 263e c056 183e e874 f2bc
00000070: 0c51 983d 0ea4 babc 93db 3d3d 4c86 003d
00000080: 37f5 573d 4d91 923d 0634 263e c5a3 6ebd
00000090: 9f83 34be 9290 9e3c 8e01 66bb f07c 143d
000000a0: 8da0 253d 5034 8dbd 9257 583d 3586 5abd
000000b0: 1660 3a3e 381e 143e 6ee0 45bd b0ec 04be
000000c0: 6d49 dabc 7dd4 d63c 6e32 1c3e eb49 b03d
000000d0: c8fb 513d e322 ea3d 449a 013e c7b3 e136
000000e0: 7859 9fbc 4a70 b23d 6130 243d 225f 083d
000000f0: 65a2 d93d 9ee9 763d e84e 0b3d 656d ba3c

module.bi_lstm1.bias_hh_l0 f4 [64]
-0.025718732 0.026789218 0.16066718 0.093949944 0.058873642 -0.030363452 0.10828628 -0.0008396339
-0.0045332815 0.17229018 0.0012488107 0.046649937 0.10377352 0.06545708 0.02412474 0.017848238
-0.0077659492 0.024801698 0.18079548 0.10569264 0.04431385 0.1620882 -0.01391959 -0.011682039
0.03880258 0.08403815 0.21421605 -0.016595535 0.078063324 -0.022923077 0.05226683 0.03133515
0.051678136 0.14003459 0.13584425 0.08179521 -0.18680805 0.09206913 -0.03280573 -0.03536241
-0.08418567 -0.14910482 -0.12272263 -0.11619622 0.18969275 0.15825438 -0.20516823 -0.10483031
-0.025083616 0.02622436 0.16384904 0.097273804 0.040567104 0.052625865 0.12629618 4.9343656e-05
-0.03888076 0.09117337 0.0034333821 0.0062742517 0.107938915 0.060896758 0.037757494 0.022758376
00000000: 17b0 d2bc 1075 db3c f085 243e d468 c03d
00000010: 7d25 713d c6bc f8bc 32c5 dd3d e11a 5cba
00000020: ec8b 94bb d66c 303e 22af a33a 0114 3f3d
00000030: 3687 d43d 5d0e 863d 3fa1 c53c 7836 923c
00000040: 8179 febb ee2c cb3c 7322 393e 6275 d83d
00000050: 7182 353d 73fa 253e fe0e 64bc 0666 3fbc
00000060: 74ef 1e3d 321c ac3d 745b 5b3e 5cf3 87bc
00000070: aadf 9f3d 2dc9 bbbc be15 563d 4959 003d
00000080: 74ac 533d 3a65 0f3e c11a 0b3e 3f84 a73d
00000090: 9c4a 3fbe bd8e bc3d 4d5f 06bd 2dd8 10bd
000000a0: 8969 acbd efae 18be 0156 fbbd 49f8 edbd
000000b0: d13e 423e 700d 223e 9f17 52be 46b1 d6bd
000000c0: 287c cdbc 78d4 d63c 0bc8 273e 7d37 c73d
000000d0: b129 263d 388e 573d c953 013e 59f6 4e38
000000e0: 6f41 1fbd 1bb9 ba3d 9802 613b 3d98 cd3b
000000f0: 140f dd3d e16e 793d 9aa7 1a3d c66f ba3c

module.bi_lstm1.weight_ih_l0_reverse f4 [64, 14]
-0.10672787 -0.102381185 -0.14023435 -0.010934407 -0.060126778 -0.05095314 -0.13741188 -0.01864262
-0.04896941 0.006806402 0.042582452 -0.13757817 -0.016561095 0.04823287 0.02175405 -0.010628291
0.0240101 -0.017903183 -0.012223934 -0.015563224 0.016970953 -0.024497196 -0.009919793 -0.017490113
0.037175577 -0.0016067028 -0.017327607 -0.029211517 0.11708021 0.12269353 0.09993281 -0.032075327
0.076392815 0.039906073 0.12697579 -0.027022257 0.09594159 0.022745209 0.16906552 0.08374599
0.005352332 0.048260685 -0.0616645 0.010284389 -0.1493456 0.35643283 6.521453e-05 0.11137356
-0.10133378 0.28202885 -0.0382266 0.1391363 -0.29452094 -0.017820193 0.20543842 0.17751987
0.012887293 -0.016414354 -0.016066412 0.013980764 0.004662701 -0.0073583876 -0.029933559 0.012099588
0.0061745723 0.0157893 0.041370206 -0.024038 0.013877833 0.042369593 0.2013709 0.08878403
0.031221455 -0.00091865484 -0.11663384 -0.21188295 0.13543993 -0.034227695 -0.1611141 -0.24145295
0.14076687 0.06251967 0.08791311 0.11627196 0.28425 0.24126194 0.27953148 -0.3454217
0.1845099 -0.35862374 0.39542454 -0.4677933 0.27426225 -0.53815985 0.54682183 0.22477232
-0.28531945 -0.04607318 0.006878235 -0.0060113403 -0.026184112 -0.0018586104 0.0015225082 -0.0422579
-0.023949066 0.010249899 -0.0016456535 -0.028450457 -0.007012261 -0.009464446 0.014038472 0.05907607
0.091901354 0.1302757 0.08093798 -0.004846258 0.06378004 0.057741683 0.08220904 -0.011506972
0.08372236 0.058849577 0.19954342 0.040303946 0.047313333 0.0530254 -2.6803918e-06 -0.0038425128
0.013445856 -0.007480858 -0.009816365 0.046801154 0.0063294177 0.10797347 0.04207193 0.068035774
-0.11684635 0.013965242 -0.052191146 -0.079586715 -0.09113434 0.006681915 -0.077748924 -0.10055031
-0.02257578 -0.09676971 -0.09615443 -0.074511655 -0.0051877233 -0.09976983 -0.14232783 -0.04614918
-0.05787535 -0.06180661 0.05451259 0.15826613 0.08579841 0.05836315 0.075951 -0.034086745
0.113500185 0.06287396 0.08233424 -0.05257338 -0.030383917 0.09529237 -0.025478594 0.02910444
0.15717278 0.15850313 0.104363605 -0.036777996 0.17026919 0.05149243 0.15824568 -0.08952272
0.18904062 0.0114813605 0.12400585 0.09634745 -0.04125231 -0.03178329 -0.009735052 0.0022564912
0.0009289029 0.017856676 -0.03971122 0.08987642 -0.03418776 0.027432412 -0.049080703 0.11306737
-0.01644651 -0.031003352 -0.027693568 -0.04916423 0.041832916 0.094863586 0.039853606 0.061283667
0.0036969727 0.010922169 0.06386163 0.04438056 0.008540975 0.015786823 0.09797529 0.0041431244
0.07915872 0.07524263 0.01036239 0.015653882 0.054361913 0.08662144 0.054989647 0.09388649
0.0032712356 0.06470434 0.058181476 0.11718399 0.04495621 0.031296164 0.0784518 -0.0005931429
0.16016485 0.10824628 0.13518806 0.117156625 0.13694555 0.09814287 0.119304314 0.089188665
0.12527499 0.12561834 0.24818859 0.12555307 0.1967953 0.19508995 0.053902946 0.031467758
0.048605725 -0.008125453 0.02212168 -0.008073049 0.05414605 -0.015416363 0.022432823 -0.011029934
0.071261235 0.031383857 0.011342982 0.0009872642 0.048220973 0.057018206 0.05507637 -0.07575562
00000000: 2494 dabd 3aad d1bd 9899 0fbe 3a26 33bc
00000010: 7f47 76bd 3db4 50bd b3b5 0cbe 68b8 98bc
00000020: 2694 48bd 3d08 df3b f06a 2e3d 4be1 0cbe
00000030: 22ab 87bc d48f 453d 8d35 b23c 4922 2ebc
00000040: d4b0 c43c b2a9 92bc e546 48bc e5fc 7ebc
00000050: ab06 8b3c 58ae c8bc a186 22bc 6d47 8fbc
00000060: 6b45 183d 0098 d2ba a0f2 8dbc fe4c efbc
00000070: c0c7 ef3d bf46 fb3d 93a9 cc3d 6b61 03bd
00000080: d673 9c3d 8d74 233d f105 023e c85d ddbc
00000090: 067d c43d 2954 ba3c 831f 2d3e 0583 ab3d
000000a0: 9d62 af3b ffac 453d ea93 7cbd db7f 283c
000000b0: 0eee 18be 5d7e b63e c9c3 8838 d217 e43d
000000c0: 1688 cfbd 1666 903e 7f93 1cbd bf79 0e3e
000000d0: 73cb 96be a7fb 91bc 735e 523e c5c7 353e
000000e0: 3925 533c 6577 86bc b59d 83bc 930f 653c
000000f0: 92c9 983b a11e f1bb 3937 f5bc 5a3d 463c
00000100: 1154 ca3b 9058 813c ce73 293d 57eb c4bc
00000110: da5f 633c bd8b 2d3d 2c34 4e3e 67d4 b53d
00000120: 23c4 ff3c e2d1 70ba b9dd eebd d8f7 58be
00000130: c4b0 0a3e 5732 0cbd 18fb 24be 713f 77be
00000140: 3125 103e 500a 803d ca0b b43d fe1f ee3d
00000150: 3789 913e 5f0d 773e c01e 8f3e 1ddb b0be
00000160: 2af0 3c3e 889d b7be 1675 ca3e 9a82 efbe
00000170: 1a6c 8c3e d8c4 09bf 84fc 0b3f b72a 663e
00000180: 6415 92be 3bb7 3cbd d162 e13b c7fa c4bb
00000190: 1080 d6bc 9e9c f3ba e68e c73a 9f16 2dbd
000001a0: d530 c4bc 31ef 273c f8b2 d7ba ef10 e9bc
000001b0: 1cc7 e5bb c410 1bbc 9f01 663c c0f9 713d
000001c0: c736 bc3d fe66 053e d0c2 a53d 5ccd 9ebb
000001d0: 1c9f 823d 8b82 6c3d 375d a83d bd87 3cbc
000001e0: a176 ab3d 410c 713d 1c55 4c3e c015 253d
000001f0: a0cb 413d 2931 593d c8e0 33b6 abd2 7bbb
00000200: 024c 5c3c fc21 f5bb d2d4 20bc 91b2 3f3d
00000210: 0167 cf3b 3221 dd3d 9e53 2c3d 5756 8b3d
00000220: 244d efbd 78ce 643c 62c6 55bd 5cfe a2bd
00000230: a4a4 babd f7f3 da3b d43a 9fbd 52ed cdbd
00000240: d8f0 b8bc 332f c6bd 9dec c4bd 9199 98bd
00000250: c7fd a9bb 2054 ccbd 63be 11be ec06 3dbd
00000260: b40e 6dbd ee28 7dbd 9848 5f3d 8410 223e
00000270: 14b7 af3d 330e 6f3d 338c 9b3d 8b9e 0bbd
00000280: c972 e83d 10c4 803d db9e a83d 2f57 57bd
00000290: b1e7 f8bc a528 c33d 7cb8 d0bc 6f6c ee3c
000002a0: e7f1 203e a54e 223e 96bc d53d 86a4 16bd
000002b0: 0c5b 2e3e bae9 523d 280b 223e b057 b7bd
000002c0: dd93 413e 511c 3c3c c7f6 fd3d d051 c53d
000002d0: 2ff8 28bd 322f 02bd c47f 1fbc a4e1 133b
000002e0: 9e81 733a 2a48 923c 3ba8 22bd 2111 b83d
000002f0: 7708 0cbd f0b9 e03c d908 49bd de8f e73d
00000300: d5ba 86bc befa fdbc 9fdd e2bc 6e60 49bd
00000310: fe58 2b3d d747 c23d 893d 233d 9504 7b3d
00000320: e948 723b e6f2 323c e3c9 823d 64c8 353d
00000330: 72ef 0b3c 5e53 813c 45a7 c83d 0cc3 873b
00000340: f81d a23d cf18 9a3d 04c7 293c 923c 803c
00000350: 99aa 5e3d 9566 b13d d33c 613d 8f47 c03d
00000360: 3a62 563b b683 843d b34f 6e3d 29fe ef3d
00000370: 0124 383d 6830 003d 56ab a03d 257d 1bba
00000380: 4102 243e 3ab0 dd3d bd6e 0a3e d0ef ef3d
00000390: 743b 0c3e 21ff c83d d255 f43d 8ca8 b63d
000003a0: 1648 003e 18a2 003e 2625 7e3e fc90 003e
000003b0: b584 493e a9c5 473e 56c9 5c3d 56e4 003d
000003c0: cc16 473d 9f20 05bc 8738 b53c d244 04bc
000003d0: 40c8 5d3d ea94 7cbc 0ac5 b73c e5b6 34bc
000003e0: 69f1 913d 5c8c 003d ead7 393c 1767 813a
000003f0: 5b83 453d ec8b 693d c297 613d c325 9bbd

module.bi_lstm1.weight_hh_l0_reverse f4 [64, 16]
-0.06798288 -0.014789304 0.050212033 -0.1540338 0.03593489 0.12593514 -0.10250547 0.028348003
-0.026751315 -0.13766345 -0.012165809 -0.23377118 -0.012168306 -0.0047356472 -0.017226402 0.08880405
0.03563422 -0.02695896 -0.041393377 0.02052917 0.034142718 0.109823875 0.043482434 0.030777553
0.047064874 -0.04965999 -0.012267726 -0.08403632 -0.006518065 0.019366926 -0.0080661625 0.04049603
-0.0023707522 0.010318449 -0.036597442 0.044945203 -0.011524653 0.011489705 0.057817075 0.0124455225
0.017056212 0.025490535 -0.032096684 -0.006009872 -0.01388886 -0.038508575 -0.023146737 0.0023331842
-0.21363084 -0.06477237 0.2419139 -0.06273315 -0.06361434 0.32541835 -0.10141412 -0.027077984
-0.21762653 -0.49728376 0.16488725 -0.24897458 0.10390979 0.23248105 -0.13928097 -0.06431309
-0.027635977 -0.008741934 -0.018985495 -0.05324804 0.024169931 0.11317211 0.005306008 0.018014533
0.028924048 -0.07040652 -0.02060864 -0.08612577 -0.031072583 0.016964683 -0.007455492 0.040132064
-0.0047239354 0.066343084 0.06502274 -0.009982051 -0.011876347 -0.050236274 -0.038033113 0.013431307
-0.075965494 0.05753138 -0.029815607 0.14418037 0.012355783 0.10264186 0.07520208 -0.051289376
-0.055187557 0.06705298 0.011858211 0.4352142 -0.104378544 0.20705979 0.2544713 0.012505035
-0.1082074 0.005840785 0.09083114 0.039037652 0.03903208 0.15129767 -0.020030888 -0.17349115
-3.299356e-06 -0.017307024 -0.025780201 -0.018284284 0.029535638 0.028613416 0.011344503 0.023852656
0.03218676 -0.0017032719 -0.031362433 -0.05630236 -0.0040831096 -0.00034844398 0.0048463233 0.03950723
-0.017709091 0.0092591075 -0.0172945 0.03144307 -0.0128432335 0.032107074 -0.005512876 0.009433507
-0.001954107 -0.018298987 -0.02362005 -0.039602112 -0.0020723252 -0.026840104 -0.046354312 0.0076720235
-0.16713335 0.16574192 0.06980902 -0.05284859 -0.07931898 0.00072901475 -0.1025237 -0.05372442
-0.15853694 -0.0023230046 0.029573549 0.2665163 0.036952976 0.13252157 -0.040003337 -0.15262339
0.103819706 -0.017547987 -0.031669624 0.062893204 0.072870746 0.046731226 -0.0548867 0.054200597
0.029218143 -0.04598661 -0.0037692536 -0.0670299 0.0052092075 0.03342489 0.02546859 0.05685204
-0.039651517 0.071435645 -0.025737522 -0.10313007 0.0009693786 0.28500292 0.0554697 0.018687572
0.061207596 -0.23058052 0.11641353 0.011778015 -0.14776362 0.11545065 0.06091511 0.017665222
0.0041872277 -0.00981654 0.009679472 0.06335363 -0.01592695 0.042439774 -0.04116068 -0.00503396
-0.02165894 -0.14836977 0.045407057 -0.031767935 0.016900789 0.024169236 -0.027604368 -0.02607261
0.1228189 -0.01800855 -0.11726408 -0.10900359 0.11555845 0.21361049 0.13908637 0.09381819
0.15998606 -0.2271108 0.010432578 -0.21669714 -0.11120417 0.10067744 0.04204807 0.16112746
-0.01832768 -0.009668867 0.016857598 -0.009386474 0.0068789707 0.04874864 -0.027371183 0.0073506692
-0.026682265 -0.08282133 -0.006226127 -0.066760495 0.016148787 0.015216657 -0.020920178 0.0033918282
-0.023537645 0.014366582 -0.009882903 -0.08783693 0.0026735158 0.08536736 -0.0051712384 -0.00095474126
0.020038841 -0.09352418 -0.0028105895 -0.044010803 -0.03378784 -0.002367548 -0.021925427 0.026089935
00000000: 9c3a 8bbd d64e 72bc 22ab 4d3d 09bb 1dbe
00000010: 7730 133d 24f5 003e 63ee d1bd 123a e83c
00000020: 9325 dbbc a6f7 0cbe 1a53 47bc b661 6fbe
00000030: 935d 47bc 7d2d 9bbb 621e 8dbc e6de b53d
00000040: 30f5 113d 09d9 dcbc 1a8c 29bd ca2c a83c
00000050: 3cd9 0b3d 57eb e03d a31a 323d 3521 fc3c
00000060: 19c7 403d 4668 4bbd 92fe 48bc 3c1b acbd
00000070: 7e95 d5bb 63a7 9e3c f027 04bc 2adf 253d
00000080: 9f5e 1bbb b60e 293c 33e7 15bd 7618 383d
00000090: e6d1 3cbc 513f 3c3c 99d1 6c3d 4ee8 4b3c
000000a0: 78b9 8b3c 87d1 d03c d077 03bd 76ee c4bb
000000b0: 1a8e 63bc 2bbb 1dbd 3a9e bdbc 56e8 183b
000000c0: 0bc2 5abe 60a7 84bd 47b8 773e 3d7a 80bd
000000d0: 3c48 82bd 3c9d a63e 35b2 cfbd a6d2 ddbc
000000e0: 7dd9 5ebe fa9b febe 34d8 283e 31f3 7ebe
000000f0: a8ce d43d 830f 6e3e ac9f 0ebe 95b6 83bd
00000100: d864 e2bc 543a 0fbc 7887 9bbc 9e1a 5abd
00000110: 0500 c63c c7c6 e73d 05de ad3b 3793 933c
00000120: 20f2 ec3c 4b31 90bd 73d3 a8bc b562 b0bd
00000130: ee8b febc 85f9 8a3c 334d f4bb 8561 243d
00000140: 3ecb 9abb e2de 873d a42a 853d c28b 23bc
00000150: 0295 42bc 8dc4 4dbd 9cc8 1bbd fc0e 5c3c
00000160: cc93 9bbd 06a6 6b3d dc3f f4bc 05a4 133e
00000170: e96f 4a3c e535 d23d 8c03 9a3d cf14 52bd
00000180: 590c 62bd 1353 893d f148 423c 65d4 de3e
00000190: 6bc4 d5bd 7b07 543e 104a 823e ebe1 4c3c
000001a0: d79b ddbd 0e64 bf3b ad05 ba3d f2e5 1f3d
000001b0: 1ae0 1f3d c7ed 1a3e d117 a4bc aaa7 31be
000001c0: 816a 5db6 76c7 8dbc 0031 d3bc ecc8 95bc
000001d0: b9f4 f13c af66 ea3c 4bde 393c a566 c33c
000001e0: 44d6 033d 5240 dfba e575 00bd 4e9d 66bd
000001f0: 9bcb 85bb 5caf b6b9 e8cd 9e3b 55d2 213d
00000200: a812 91bc 83b3 173c 32ad 8dbc 73ca 003d
00000210: 6d6c 52bc b582 033d 5ba5 b4bb ff8e 1a3c
00000220: 7a10 00bb c2e7 95bc d67e c1bc d335 22bd
00000230: d9cf 07bb c7df dbbc 05de 3dbd 9965 fb3b
00000240: 0125 2bbe 40b8 293e 08f8 8e3d c377 58bd
00000250: fd71 a2bd 5a1b 3f3a f2f7 d1bd 230e 5cbd
00000260: 8257 22be 8d3d 18bb 3a44 f23c d374 883e
00000270: 015c 173d bcb3 073e 8ada 23bd 4e49 1cbe
00000280: 6d9f d43d ccc0 8fbc 02b8 01bd 27ce 803d
00000290: 423d 953d 3e69 3f3d e0d0 60bd 7201 5e3d
000002a0: e35a ef3c 755c 3cbd 9505 77bb f946 89bd
000002b0: 00b2 aa3b 8ae8 083d 81a3 d03c afdd 683d
000002c0: a169 22bd da4c 923d 7fd7 d2bc dc35 d3bd
000002d0: e61d 7e3a e7eb 913e 3234 633d ae16 993c
000002e0: d1b4 7a3d 4d1d 6cbe 386a ee3d 93f8 403c
000002f0: 594f 17be 6471 ec3d 1f82 793d a8b6 903c
00000300: 0335 893b 8ed5 20bc a696 1e3c 8cbf 813d
00000310: 3c79 82bc 54d5 2d3d 1a98 28bd ebf3 a4bb
00000320: 176e b1bc 3fee 17be c0fc 393d 181f 02bd
00000330: 8673 8a3c 90fe c53c 8e22 e2bc 3a96 d5bc
00000340: 7a88 fb3d ab86 93bc 2628 f0bd 463d dfbd
00000350: e9a9 ec3d b5bc 5a3e a86c 0e3e c023 c03d
00000360: 63d3 233e bc8f 68be 67ed 2a3c dbe5 5dbe
00000370: 03bf e3bd f92f ce3d 993a 2c3d 99fe 243e
00000380: ee23 96bc 2b6a 1ebc f218 8a3c bac9 19bc
00000390: fd68 e13b a7ac 473d 8839 e0bc e2dd f03b
000003a0: c494 dabc 3b9e a9bd 8a04 ccbb bab9 88bd
000003b0: 764a 843c 494f 793c cb60 abbc 6f49 5e3b
000003c0: 05d2 c0bc d061 6b3c e6eb 21bc d9e3 b3bd
000003d0: 2736 2f3b 15d5 ae3d 7e73 a9bb 9a47 7aba
000003e0: 7f28 a43c 9b89 bfbd de31 38bb ac44 34bd
000003f0: 1e65 0abd dd28 1bbb f49c b3bc 8fba d53c

module.bi_lstm1.bias_ih_l0_reverse f4 [64]
0.08330891 0.009648572 0.10633994 0.05545378 0.08903586 0.11764288 0.09501797 0.050081067
0.0981899 0.06787255 0.061116774 0.005184964 0.07488647 -0.047359217 0.13286878 0.09306924
0.3107311 0.056990713 -0.04596067 0.28802997 0.093540624 0.21183363 0.045271777 0.067148745
0.07543876 0.2763416 -0.050209407 0.028300703 -0.007579185 0.0845979 0.0552434 0.17392203
-0.1412755 0.04766896 0.118655786 0.17524266 -0.029087963 -0.17962927 -0.23005347 0.07085851
-0.3024905 0.15077613 -0.26097125 0.017849075 0.22370335 0.007598195 -0.2454202 0.04751803
0.18389863 0.018515887 0.13466303 0.3252951 0.13100146 0.028848024 0.075537644 0.045778517
0.11846045 0.10127188 0.096535265 0.04745523 0.076437496 -0.0072153043 0.16925067 0.10625151
00000000: dd9d aa3d 0b15 1e3c c1c8 d93d 8123 633d
00000010: 6f58 b63d c0ee f03d c898 c23d ce21 4d3d
00000020: c917 c93d c300 8b3d 9555 7a3d a1e6 a93b
00000030: 145e 993d bdfb 41bd c10e 083e 169b be3d
00000040: 2618 9f3e 186f 693d 4141 3cbd aa78 933e
00000050: 3a92 bf3d eaea 583e e66e 393d 4885 893d
00000060: a37f 9a3d a57c 8d3e 61a8 4dbd e0d6 e73c
00000070: d05a f8bb aa41 ad3d e746 623d 9e18 323e
00000080: 86aa 10be 8740 433d ce01 f33d d072 333e
00000090: e149 eebc bcf0 37be 2393 6bbe 441e 913d
000000a0: 09e0 9abe 0f65 1a3e 069e 85be 3938 923c
000000b0: 7e12 653e 48fa f83b 6f4f 7bbe 44a2 423d
000000c0: ec4f 3c3e a1ae 973c 1be5 093e 148d a63e
000000d0: 3f25 063e b152 ec3c 7bb3 9a3d 4182 3b3d
000000e0: 649b f23d a267 cf3d 48b4 c53d 6a60 423d
000000f0: 438b 9c3d 5c6e ecbb 0c50 2d3e 649a d93d

module.bi_lstm1.bias_hh_l0_reverse f4 [64]
0.09049066 0.009692816 0.0926851 0.03248645 0.08161909 0.11445068 0.06418261 0.055153195
0.1525893 0.07654234 0.016687403 -0.021751927 0.060747147 -0.044902463 0.14609385 0.0055831335
0.3273731 0.055551093 -0.018369202 0.32313848 0.0657643 0.18115416 0.045353733 0.06884057
0.112011366 0.3298297 0.09180452 0.06373398 -0.0077134822 0.08461294 0.105550416 0.053543862
-0.08587171 -0.12425152 0.07278661 0.11275888 0.080170475 -0.104166806 -0.13982543 0.08230322
-0.036748953 0.2453945 -0.2375616 0.067074284 0.16428022 -0.031197185 -0.12479795 -0.19160442
0.18392703 0.018756127 0.110153705 0.23711425 0.1158338 0.1565935 0.061880857 0.090992235
0.0994827 0.020999424 -0.08570113 0.029581342 0.111210726 -0.0067254934 0.10997474 0.08564413
00000000: 2b53 b93d 9ece 1e3c b0d1 bd3d 8310 053d
00000010: e927 a73d 1e65 ea3d 2c72 833d 51e8 613d
00000020: 5f40 1c3e 3bc2 9c3d 05b4 883c 1931 b2bc
00000030: 00d2 783d a5eb 37bd a099 153e b8f2 b63b
00000040: 729d a73e 8b89 633d 027b 96bc 6872 a53e
00000050: 6faf 863d 7a80 393e d6c4 393d 49fc 8c3d
00000060: 3766 e53d 70df a83e 0204 bc3d f686 823d
00000070: 61c1 fcbb 8d49 ad3d d12a d83d cf50 5b3d
00000080: 82dd afbd 9577 febd 2511 953d 21ee e63d
00000090: 6b30 a43d 6855 d5bd 662e 0fbe 978e a83d
000000a0: 1286 16bd b248 7b3e 5943 73be 3e5e 893d
000000b0: 1339 283e 3d91 ffbc 1196 ffbd f333 44be
000000c0: 5e57 3c3e 73a6 993c 4498 e13d 14ce 723e
000000d0: 453a ed3d 0c5a 203e c876 7d3d 235a ba3d
000000e0: 96bd cb3d fc06 ac3c 1384 afbd 9254 f23c
000000f0: 73c2 e33d 8761 dcbb 703a e13d 3166 af3d

module.bi_lstm2.weight_ih_l0 f4 [128, 16]
-0.00045620915 0.003818072 0.004417695 0.005322818 -0.0047924174 -0.021226363 0.0061916523 -0.003721092
-0.006116438 0.013696588 -0.008769002 0.008163161 -0.00023032712 -0.0056235944 -0.00030709335 -0.0081467405
-0.004995113 0.0078257555 0.017777149 -0.009772277 -0.0102165 -0.01850465 -0.019093176 -0.010820987
-0.011683638 0.003340239 -0.0076344195 0.012750144 0.00807603 -0.0019757068 -0.012508574 -0.018599972
-0.0047737733 0.0065241144 -0.0014816883 0.0047932277 -0.005450523 -0.026208824 0.010027258 -0.0066858702
-0.0062468634 0.030903757 -0.0128391525 0.01948889 -0.0048196 -0.011142957 -0.0038245788 -0.01067555
-0.0061753523 0.006483761 0.014975554 -0.0040154234 -0.011444464 -0.033044644 -0.006769789 -0.010875249
-0.0077547044 0.023184098 -0.00652428 0.02342921 0.0041678604 -0.006647076 -0.014255953 -0.016877154
-0.010468147 -0.0016142105 -0.0015422812 0.0013139099 -0.002062828 0.0033368762 -0.0024891389 -0.0038204212
-0.0044664955 -0.008864102 0.0028243188 -0.00460006 -0.00074570224 0.0007165977 -0.00429665 -0.0049937167
-0.0046348316 0.0032830203 0.010268913 0.0115021495 -0.006404008 -0.023711568 0.007168229 -0.0026106387
-0.0074553145 0.017677985 -0.011715317 0.020920305 0.004601167 -0.007501347 -0.009859411 -0.010377383
-0.011755374 0.0071505895 0.013985993 0.006360268 -0.0042612446 -0.0068314318 0.0015209805 -0.00932022
-0.007984748 0.009134934 3.6403667e-06 0.0031268373 0.0065938737 0.0036611804 -0.008361447 -0.017870115
-0.0034940029 -0.0040822295 0.0062973252 0.008835934 -0.0029830132 -0.008117848 0.0075788503 0.003906973
0.0007790281 0.01570998 -0.004457155 0.0021509335 0.004962102 0.002782462 -0.0018124925 -0.0013168391
-0.012378712 0.0026105018 0.019167693 -0.006895692 -0.012200991 -0.008489092 -0.019750258 -0.0071861995
-0.015804326 0.0041973316 -0.009012592 0.001911229 0.010436089 0.00049949304 -0.012658976 -0.022231525
-0.02512809 0.0061565824 0.019511305 0.0003235728 -0.011729727 -0.020078437 -0.002876141 -0.0073705744
-0.018429376 0.008317725 -0.0068694497 0.014366936 0.011709248 -0.0039557717 -0.015283949 -0.010125066
-0.0005480358 -0.004840081 0.0020281987 -4.1508563e-05 -0.0014251977 -0.002134043 -0.0059196907 -0.0051579773
-1.1691812e-05 -0.0025088035 -0.0015139757 -0.0027992742 0.0042860648 0.0047011776 -0.00014763323 -0.0069854995
-0.015114367 0.00401659 0.010453387 0.016999532 -0.0066066845 -0.036194146 -0.0005909144 -0.0046795215
-0.015697656 0.047164112 -0.008967553 0.038122054 0.013813916 -0.021952968 -0.0070884675 -0.016900098
-0.013842866 0.0026958915 0.014173741 -0.003008426 -0.007944784 -0.0003859108 -0.018723138 -0.012134316
-0.012883659 -0.0029347506 -0.0014460649 0.0040106154 0.010571039 0.0033447375 -0.007782887 -0.016218426
0.001647576 -0.0032616444 -0.010575774 3.343074e-05 0.0034250412 -0.028107738 0.021445237 0.0054954416
0.018097557 0.017365862 -0.019182306 0.019299783 -0.007627959 -0.0051353206 0.006075294 0.006673726
0.0037354736 0.0034466216 0.009454452 0.0027088493 -0.00689535 -0.001969707 -0.012438018 -0.010229406
-0.0077681066 0.0023316538 -0.0018527417 0.0067941686 0.0027293935 -0.0033229156 -0.004743931 -0.012543056
-0.0043098377 -0.0026123293 0.0025719148 -0.0050715306 0.00095966936 -0.011680371 0.004953959 0.004487624
0.00024658281 0.022766655 -0.005346578 0.006158386 -0.006708484 -0.0016445345 -0.00047880207 0.008225185
00000000: 5b2f efb9 9e38 7a3b 50c2 903b 096b ae3b
00000010: b609 9dbb e9e2 adbc 58e3 ca3b 90dd 73bb
00000020: 676c c8bb a767 603c dcab 0fbc c7be 053c
00000030: f783 71b9 2146 b8bb 5f01 a1b9 e879 05bc
00000040: 0bae a3bb 9937 003c 62a1 913c e71b 20bc
00000050: 1b63 27bc 1097 97bc 4b69 9cbc 824a 31bc
00000060: bb6c 3fbc e9e7 5a3b 272a fabb fbe5 503c
00000070: 5351 043c dc7a 01bb c3f0 4cbc f85e 98bc
00000080: 506d 9cbb 3dc8 d53b 3635 c2ba 8210 9d3b
00000090: 4d9a b2bb e3b3 d6bc 5e49 243c 2515 dbbb
000000a0: 7db2 ccbb e029 fd3c 4f5b 52bc 2aa7 9f3c
000000b0: bced 9dbb f390 36bc c9a5 7abb 81e8 2ebc
000000c0: 9c5a cabb bb75 d43b 075c 753c d093 83bb
000000d0: 9081 3bbc d259 07bd 1bd5 ddbb 1a2e 32bc
000000e0: 2d1b febb 94ec bd3c a1c9 d5bb 9dee bf3c
000000f0: 8c92 883b b7cf d9bb cd91 69bc f541 8abc
00000100: 9782 2bbc eb93 d3ba 5f26 caba 8037 ac3a
00000110: 8330 07bb 7eaf 5a3b d220 23bb 0860 7abb
00000120: ae5b 92bb bd3a 11bc 3518 393b 1abc 96bb
00000130: 3b7b 43ba 0fda 3b3a eaca 8cbb 55a2 a3bb
00000140: c9df 97bb f127 573b f13e 283c 8373 3c3c
00000150: b6d8 d1bb c33e c2bc 77e3 ea3b 4017 2bbb
00000160: b64b f4bb 6cd1 903c 9af1 3fbc 0f61 ab3c
00000170: 63c5 963b dccd f5bb 5e89 21bc e605 2abc
00000180: 9d99 40bc 7e4f ea3b 8225 653c cc69 d03b
00000190: e9a1 8bbb 34da dfbb a35b c73a d6b3 18bc
000001a0: 76d2 02bc b1aa 153c 064d 7436 a0eb 4c3b
000001b0: 6c11 d83b 6af0 6f3b 73fe 08bc 5964 92bc
000001c0: a4fb 64bb 39c4 85bb cb59 ce3b 98c4 103c
000001d0: a87e 43bb b900 05bc 0158 f83b 1106 803b
000001e0: b137 4c3a 37b2 803c 530d 92bb adf6 0c3b
000001f0: 2199 a23b f759 363b 2891 edba ca99 acba
00000200: 15d0 4abc f414 2b3b 9105 9d3c 42f5 e1bb
00000210: aae6 47bc d515 0bbc 4bcb a1bc 367a ebbb
00000220: 1378 81bc c589 893b 8da9 13bc 3482 fa3a
00000230: 21fc 2a3c 69f0 023a 9867 4fbc e31e b6bc
00000240: 6dd9 cdbc 28bd c93b 2cd6 9f3c 35a5 a939
00000250: 0a2e 40bc 897b a4bc a47d 3cbb dc84 f1bb
00000260: 34f9 96bc 1147 083c 1f19 e1bb 4c63 6b3c
00000270: 25d8 3f3c 6b9f 81bb 8769 7abc 9be3 25bc
00000280: 0faa 0fba 8b99 9ebb 87eb 043b 7b19 2eb8
00000290: b3cd baba 4ddb 0bbb f7f9 c1bb 4004 a9bb
000002a0: f327 44b7 bd6a 24bb 9870 c6ba 0774 37bb
000002b0: 1e72 8c3b 560c 9a3b fecd 1ab9 9ee6 e4bb
000002c0: 40a2 77bc 999d 833b af44 2b3c 9a42 8b3c
000002d0: e37c d8bb 5040 14bd 98e7 1aba ac56 99bb
000002e0: 5f98 80bc 282f 413d a5ec 12bc df25 1c3d
000002f0: c353 623c b6d6 b3bc 6046 e8bb 1372 8abc
00000300: 30cd 62bc 8ead 303b fb38 683c 0329 45bb
00000310: d72a 02bc 1254 cab9 4461 99bc 03cf 46bc
00000320: fc15 53bc f254 40bb e389 bdba 7b6b 833b
00000330: 2732 2d3c 6233 5b3b 9707 ffbb 81dc 84bc
00000340: 7af3 d73a 50c1 55bb 0346 2dbc fc37 0c38
00000350: a876 603b 3342 e6bc ecad af3c 1b13 b43b
00000360: 5441 943c da42 8e3c 3624 9dbc 941a 9e3c
00000370: f5f3 f9bb 3146 a8bb 4313 c73b 45af da3b
00000380: d9ce 743b b7e0 613b d9e6 1a3c f386 313b
00000390: 63f2 e1bb 3316 01bb d4c8 4bbc 3d99 27bc
000003a0: 9a8b febb a9ce 183b b2d7 f2ba 9ea1 de3b
000003b0: a0df 323b 46c5 59bb fa72 9bbb 6481 4dbc
000003c0: 8a39 8dbb 9d33 2bbb 928d 283b 152f a6bb
000003d0: 5292 7b3a 075f 3fbc d254 a23b eb0c 933b
000003e0: c947 8139 2381 ba3c 5932 afbb 49cc c93b
000003f0: d8d2 dbbb 6c8d d7ba ba07 fbb9 edc2 063c

module.bi_lstm2.weight_hh_l0 f4 [128, 32]
-4.9253e-41 -4.9819e-41 4.9492e-41 4.9841e-41 -5.0005e-41 -4.9949e-41 -5.1187e-41 4.9718e-41
-4.9165e-41 -4.9417e-41 5.1798e-41 -4.9146e-41 -6.2181e-41 -4.9889e-41 4.9526e-41 -5.766e-41
5.6863e-41 -5.8902e-41 -4.9739e-41 6.0099e-41 -5.0047e-41 4.9229e-41 -5.0154e-41 -4.9104e-41
5.0398e-41 4.9306e-41 5.5035e-41 -4.9977e-41 4.9438e-41 4.9833e-41 5.0302e-41 -4.9574e-41
5.2041e-41 4.9642e-41 5.2774e-41 -4.9836e-41 5.0951e-41 4.9843e-41 4.969e-41 1.18057e-40
5.3503e-41 5.312e-41 5.0518e-41 -5.106e-41 6.0431e-41 -5.0797e-41 6.2118e-41 -4.9113e-41
-4.9271e-41 4.9417e-41 4.9501e-41 5.0612e-41 5.0424e-41 4.966e-41 4.9781e-41 -4.9704e-41
-4.9934e-41 -2.4376e-41 -5.7885e-41 4.997e-41 -5.0347e-41 4.9707e-41 -5.0895e-41 4.9386e-41
-5.0943e-41 4.9389e-41 -5.2808e-41 5.0176e-41 -6.1535e-41 5.3081e-41 5.9229e-41 -4.9103e-41
5.6796e-41 5.3332e-41 5.4426e-41 4.9642e-41 -4.9623e-41 5.0071e-41 -4.9114e-41 5.3291e-41
5.6647e-41 5.025e-41 4.9844e-41 -5.5512e-41 -5.06e-41 -5.0063e-41 5.0798e-41 -4.9823e-41
5.0202e-41 -4.9882e-41 -4.9766e-41 4.9825e-41 4.951e-41 4.9783e-41 -4.906e-41 5.0204e-41
-4.9984e-41 4.966e-41 -6.0355e-41 4.9286e-41 5.0892e-41 -4.9054e-41 4.9864e-41 -4.9904e-41
-5.165e-41 -4.9427e-41 5.0507e-41 4.9742e-41 -5.0126e-41 -5.7691e-41 -4.9296e-41 4.953e-41
5.0026e-41 4.9448e-41 4.9598e-41 4.939e-41 4.973e-41 5.0677e-41 -4.963e-41 -5.0232e-41
5.051e-41 4.9256e-41 -5.5047e-41 -4.9945e-41 4.923e-41 -5.638e-41 5.1195e-41 4.9783e-41
-4.9784e-41 -4.9578e-41 -4.9184e-41 -4.9913e-41 -4.9257e-41 -4.9341e-41 2.50814e-40 -5.047e-41
-4.982e-41 -4.9476e-41 5.1946e-41 -4.9351e-41 5.0855e-41 -5.3755e-41 -5.0252e-41 -5.01e-41
4.934e-41 -5.0431e-41 -4.9522e-41 5.2843e-41 5.0232e-41 -4.9979e-41 -4.9313e-41 4.9432e-41
4.9121e-41 4.9257e-41 -5.0716e-41 4.9201e-41 4.973e-41 -4.9354e-41 -5.0713e-41 -4.959e-41
-5.01e-41 -4.965e-41 5.0335e-41 -4.9728e-41 5.0235e-41 4.9551e-41 -4.9278e-41 4.9268e-41
-4.999e-41 3.6522e-41 -4.9533e-41 -5.002e-41 4.9928e-41 -5.1076e-41 4.9116e-41 -5.9824e-41
5.0682e-41 -5.19e-41 -5.3371e-41 5.0161e-41 -4.9414e-41 5.0293e-41 5.0975e-41 5.0888e-41
-4.9127e-41 -5.2348e-41 -5.0965e-41 -4.9427e-41 -5.0455e-41 -5.0478e-41 -4.9749e-41 -4.9969e-41
5.0974e-41 4.9553e-41 4.9969e-41 1.0577e-41 6.0315e-41 -5.9283e-41 4.9934e-41 -5.1842e-41
5.5262e-41 4.9931e-41 -4.969e-41 1.69106e-40 4.9484e-41 5.3398e-41 4.9415e-41 -4.9911e-41
-5.598e-41 4.9443e-41 4.9707e-41 -4.9623e-41 -5.1393e-41 -5.1583e-41 5.3405e-41 -4.9613e-41
-4.9329e-41 -5.1494e-41 -4.9903e-41 -5.1772e-41 4.9236e-41 -5.1561e-41 5.1854e-41 -5.0127e-41
4.9211e-41 -4.9833e-41 4.9462e-41 4.9564e-41 -5.0769e-41 5.2893e-41 5.6558e-41 -5.0223e-41
5.0521e-41 -4.9379e-41 -4.9274e-41 -5.8319e-41 5.3814e-41 5.0001e-41 4.948e-41 -5.4023e-41
4.942e-41 5.2816e-41 5.0112e-41 -5.3447e-41 -4.9617e-41 4.9721e-41 5.8639e-41 -5.6032e-41
5.2742e-41 4.9474e-41 4.9207e-41 4.9532e-41 4.9683e-41 5.0513e-41 5.1226e-41 4.9668e-41
00000000: 4c89 0080 e08a 0080 f789 0000 f08a 0000
00000010: 658b 0080 3d8b 0080 b08e 0080 988a 0000
00000020: 0d89 0080 c189 0080 6490 0000 0089 0080
00000030: 56ad 0080 128b 0080 0f8a 0000 bca0 0080
00000040: 839e 0000 32a4 0080 a78a 0080 88a7 0000
00000050: 838b 0080 3b89 0000 cf8b 0080 e288 0080
00000060: 7d8c 0000 7289 0000 6a99 0000 518b 0080
00000070: d089 0000 ea8a 0000 398c 0000 318a 0080
00000080: 1291 0000 628a 0000 1d93 0000 ec8a 0080
00000090: 088e 0000 f18a 0000 848a 0000 1849 0100
000000a0: 2595 0000 1494 0000 d38c 0000 568e 0080
000000b0: 75a8 0000 9a8d 0080 29ad 0000 e888 0080
000000c0: 5989 0080 c189 0000 fd89 0000 168d 0000
000000d0: 908c 0000 6f8a 0000 c58a 0000 8e8a 0080
000000e0: 328b 0080 f343 0080 5ca1 0080 4c8b 0000
000000f0: 598c 0080 908a 0000 e08d 0080 ab89 0000
00000100: 028e 0080 ad89 0000 3593 0080 df8b 0000
00000110: 89ab 0080 f893 0000 1ba5 0000 e188 0080
00000120: 539e 0000 ab94 0000 b897 0000 628a 0000
00000130: 548a 0080 948b 0000 e988 0080 8e94 0000
00000140: e99d 0000 148c 0000 f28a 0000 bf9a 0080
00000150: 0d8d 0080 8e8b 0080 9b8d 0000 e38a 0080
00000160: f18b 0000 0d8b 0080 ba8a 0080 e48a 0000
00000170: 048a 0000 c68a 0000 c288 0080 f38b 0000
00000180: 568b 0080 6f8a 0000 3fa8 0080 6489 0000
00000190: de8d 0000 be88 0080 008b 0000 1d8b 0080
000001a0: fb8f 0080 c889 0080 cb8c 0000 a98a 0000
000001b0: bb8b 0080 d2a0 0080 6b89 0080 128a 0000
000001c0: 748b 0000 d789 0000 428a 0000 ae89 0000
000001d0: a18a 0000 448d 0000 598a 0080 078c 0080
000001e0: cd8c 0000 4e89 0000 7399 0080 3a8b 0080
000001f0: 3c89 0000 2a9d 0080 b68e 0000 c68a 0000
00000200: c78a 0080 348a 0080 1b89 0080 238b 0080
00000210: 4f89 0080 8b89 0080 2bbb 0200 b18c 0080
00000220: e18a 0080 eb89 0080 ce90 0000 9289 0080
00000230: c38d 0000 d995 0080 158c 0080 a98b 0080
00000240: 8a89 0000 958c 0080 0c8a 0080 4e93 0000
00000250: 078c 0000 528b 0080 7789 0080 cc89 0000
00000260: ee88 0000 4f89 0000 608d 0080 2789 0000
00000270: a18a 0000 9489 0080 5e8d 0080 3d8a 0080
00000280: a98b 0080 678a 0080 508c 0000 9f8a 0080
00000290: 098c 0000 218a 0000 5e89 0080 5789 0000
000002a0: 5a8b 0080 cf65 0000 148a 0080 6f8b 0080
000002b0: 2e8b 0000 618e 0080 ea88 0000 c4a6 0080
000002c0: 488d 0000 ad90 0080 c794 0080 d48b 0000
000002d0: bf89 0080 328c 0000 198e 0000 db8d 0000
000002e0: f288 0080 ed91 0080 128e 0080 c889 0080
000002f0: a68c 0080 b68c 0080 ae8a 0080 4b8b 0080
00000300: 188e 0000 228a 0000 4b8b 0000 7c1d 0000
00000310: 22a8 0000 42a5 0080 328b 0000 8490 0080
00000320: 0c9a 0000 308b 0000 848a 0080 66d7 0100
00000330: f189 0000 da94 0000 c089 0000 228b 0080
00000340: 0d9c 0080 d489 0000 908a 0000 548a 0080
00000350: 438f 0080 cb8f 0080 df94 0000 4d8a 0080
00000360: 8289 0080 8b8f 0080 1c8b 0080 5290 0080
00000370: 4089 0000 bb8f 0080 8c90 0000 bc8b 0080
00000380: 2e89 0000 ea8a 0080 e189 0000 2a8a 0000
00000390: 868d 0080 7293 0000 a99d 0000 008c 0080
000003a0: d58c 0000 a689 0080 5b89 0080 92a2 0080
000003b0: 0396 0000 628b 0000 ee89 0000 9896 0080
000003c0: c389 0000 3b93 0000 b18b 0000 fd94 0080
000003d0: 508a 0080 9a8a 0000 76a3 0000 329c 0080
000003e0: 0693 0000 ea89 0000 2b89 0000 138a 0000
000003f0: 7f8a 0000 cf8c 0000 cc8e 0000 748a 0000

module.bi_lstm2.bias_ih_l0 f4 [128]
0.021501873 0.011826761 0.048137892 0.040151354 -0.0061092107 0.04442513 0.010641377 0.029753476
0.013671151 0.058035243 0.0016092114 0.091769405 0.0038267423 0.048262008 0.007893093 0.029354094
0.006987154 0.021136131 0.026556097 0.003917743 0.023933413 0.022740848 0.00088420574 0.02794256
0.022950415 -0.001907465 -0.0055536097 -0.007351667 -3.9755112e-05 -0.007474881 0.013551411 0.0400517
-4.984e-41 4.9202e-41 -6.0273e-41 4.9152e-41 4.9487e-41 4.9806e-41 -4.9533e-41 -5.1199e-41
-5.1931e-41 -4.944e-41 -5.8986e-41 5.062e-41 -4.9268e-41 -4.9142e-41 4.9106e-41 -4.9052e-41
-4.938e-41 4.9188e-41 -5.008e-41 4.9329e-41 -4.941e-41 4.9893e-41 -5.0088e-41 4.9505e-41
5.4495e-41 -5.1217e-41 -5.2308e-41 -5.0434e-41 -4.9588e-41 5.4314e-41 -5.4382e-41 4.9114e-41
-0.031807724 0.040517393 -0.01987109 0.03394583 -0.0984544 -0.05747703 0.013756184 -0.009730241
-0.07050735 -0.010472016 -0.020411724 0.23231278 -0.084675185 -0.09521541 -0.02632886 -0.0333784
-0.08681045 0.0025174438 -0.13824905 -0.055448398 -0.051392913 -0.054698806 -0.05998392 0.028502738
-0.047253754 0.031984232 -0.051968634 -0.010158302 0.03908937 -0.01920205 0.017827103 -0.17011142
0.02145756 0.011956981 0.04796003 0.039833236 -0.006111494 0.04438603 0.010451874 0.029846089
0.013853945 0.05852919 0.0015967141 0.094187215 0.0038701517 0.04846326 0.007914726 0.029501373
0.007037755 0.020862456 0.02690934 0.0039077196 0.024165003 0.022374565 0.0009106151 0.027902832
0.022702836 -0.0019289936 -0.00555314 -0.007350877 -4.1956668e-05 -0.0074835527 0.013613523 0.04081384
00000000: b224 b03c 08c5 413c 3d2c 453d bf75 243d
00000010: c62f c8bb 20f7 353d 2c59 2e3c 90bd f33c
00000020: f7fc 5f3c 5db6 6d3d 2dec d23a 99f1 bb3d
00000030: 15ca 7a3b 62ae 453d 0852 013c ff77 f03c
00000040: 7ff4 e43b ae25 ad3c 2c8c d93c 6960 803b
00000050: 0110 c43c 044b ba3c 0bca 673a cce7 e43c
00000060: 8202 bc3c e803 faba 0efb b5bb 41e6 f0bb
00000070: babe 26b8 d9ef f4bb bd06 5e3c 400d 243d
00000080: ef8a 0080 2889 0000 04a8 0080 0489 0000
00000090: f389 0000 d78a 0000 148a 0080 b98e 0080
000000a0: c390 0080 d289 0080 6ea4 0080 1c8d 0000
000000b0: 5789 0080 fd88 0080 e388 0000 bd88 0080
000000c0: a789 0080 1e89 0000 9a8b 0080 8289 0000
000000d0: bc89 0080 158b 0000 a08b 0080 008a 0000
000000e0: e997 0000 c68e 0080 d091 0080 978c 0080
000000f0: 3b8a 0080 6897 0000 9897 0080 e988 0000
00000100: d148 02bd 91f5 253d b2c8 a2bc c80a 0b3d
00000110: 76a2 c9bd 096d 6bbd 9e61 613c 976b 1fbc
00000120: 2866 90bd d292 2bbc 7d36 a7bc 67e3 6d3e
00000130: 2f6a adbd 4c00 c3bd 9faf d7bc cab7 08bd
00000140: adc9 b1bd b3fb 243b 2991 0dbe dc1d 63bd
00000150: 6081 52bd db0b 60bd b3b1 75bd 937e e93c
00000160: 278d 41bd e601 033d 10dd 54bd 026f 26bc
00000170: 2d1c 203d 9e4d 9dbc 250a 923c b031 2ebe
00000180: c4c7 af3c 37e7 433c bd71 443d 2d28 233d
00000190: ed42 c8bb 20ce 353d 563e 2b3c c97f f43c
000001a0: a8fb 623c 4ebc 6f3d d648 d13a 3ae5 c03d
000001b0: 5fa2 7d3b 6981 463d c4ac 013c ddac f13c
000001c0: f89c e63b bee7 aa3c fa70 dc3c 540c 803b
000001d0: aff5 c53c dd4a b73c 58b6 6e3a 7b94 e43c
000001e0: 4cfb b93c 49d6 fcba 1df7 b5bb a0df f0bb
000001f0: a1fa 2fb8 9738 f5bb 410b 5f3c 6a2c 273d
