output/clip/FD004/exp_202411022146_bilstm_clip_ep-0142.pth (torch, 288916 bytes, 66 tensors)

module.bi_lstm1.weight_ih_l0 f4 [64, 14]
00000000: 631a 0b3c 5326 59bb ceb8 423b 31b6 b33b
00000010: 2b99 d9bb 2124 233b 5032 3a3b 5989 923b
00000020: 53d8 7ebb fa53 1b3a f907 1d3c a6c7 fcba
00000030: 4146 5d3c 8d65 dc3b f9cb af3a d9ca 4e3c
00000040: 6ef1 1c3c 720c 523c 4869 cc3c 585c fa3b
00000050: 95ba 433b ea9c c73c 8a0d 9d3c ac36 023c
00000060: 4abb 4f3c ac57 1f3a 73e0 013d 0fb2 133c
00000070: 7fb6 d1bd 5b36 2a3d 71d2 33be 4436 3a3e
00000080: 1823 72bd c313 42bd dc7d 31be 5233 653e
00000090: 1c41 a5bd aba1 343d 42c7 6abe 4cf2 e4bd
000000a0: feb2 a23e 8490 5c3e db3e 9f3d a2da de3c
000000b0: 08c1 f13c de45 1d3d 268b 053d b9c6 dc3c
000000c0: 8c09 ad3c 835d 3b3d 17e0 0b3d ac38 dd3c
000000d0: 32c0 ef3d 1684 8f3c fce9 a73d 62d2 be3d
000000e0: 44de 693c e66e 0e3d f703 c8ba 1024 18bd
000000f0: 19f1 b13c 0772 afbb d50a a93c 94be 99bc
00000100: 50fa 883c 4eb5 a5bc 98d0 9e3d 0f3e bcbc
00000110: 9c7b 463c 5b80 96bb 937b f83b 683f 0e3d
00000120: fdcb de3c 391b 5c3d 3f98 363d dba9 a63c
00000130: 5f50 0f3d 046c fb3c 4460 383d 2087 1c3d
00000140: b5f1 843d 666e ae3c ddc3 983d 483d 903d
00000150: 4532 f63c c222 523d 8b91 1b3c f135 f53d
00000160: 0c5e 253d 4075 093d bea3 c43c 1778 043e
00000170: f3af e03c e721 633d 3cc8 87bc 7062 543d
00000180: 6289 113e 3ae6 d03d 835e 0e3b 763c 033c
00000190: eda2 fe3b 5d9b 753b 2161 2a3c 7b14 123c
000001a0: 6e5a 883c 3d3a 103b 97cf f43b 6cea e83b
000001b0: 967e ba3c d521 e8bb ee0a 1c3b 6e29 543c
000001c0: bbb8 66bc c775 3d3b 7aa4 56bc f896 2b3c
000001d0: 0df6 09bc 69e6 7ebb 2517 a0bc b2cd b03c
000001e0: 3090 7abc 87b3 663b 8412 01bd 4b58 cbbb
000001f0: fbce 7a3c f800 633c aadd 8c3c 7f80 4f3d
00000200: 4c9e 663d 98e8 993d 1ab0 8c3d 297e 293d
00000210: 0cf9 963d deb5 673d 1cf0 793d aa33 5a3d
00000220: 2a63 963d d076 7e3d bea9 913d 68d5 b43d
00000230: 166a dcbd 37c4 c2ba f440 39bd 6423 dcbd
00000240: afb3 0bbe b30f d7bc 7cfb c839 cc4c eebc
00000250: fd8d cdbd d1a6 06bd 06b6 c33b 90c3 7b3c
00000260: 59fc 32be 8e32 ddbd 910b f9bc 55b3 1abb
00000270: 0413 e0bb e92b 993b f89e cb3c a269 f73a
00000280: e3af da3c 66e4 15bc 821a 273c 9c1c 2b3c
00000290: 989e 4fbc b26f 473a ae69 00bc 98c4 83bc
000002a0: f0f6 803d 9439 c53c 8517 2c3d 291e 3dbb
000002b0: 4aed 953c 7fb0 ce3c 31e4 a23c 6b02 0d3d
000002c0: f7cd 3c3c cfd4 2f3c ac1c ac3d 916b 2f3d
000002d0: a033 9c3d b415 f33c 169f 843c 781f 493c
000002e0: 353e f33c ef26 263d a5d5 e23c 7ed2 013c
000002f0: f774 4f3c b029 113d c687 ea3c 2aa8 c83c
00000300: d718 483d d359 913c 27c3 2e3d e459 403d
00000310: 90f5 0d3e d6c1 b73d 05c4 7d3d f66b a6bd
00000320: c7d0 b0bb d2c9 f3ba 6004 be3d a56e 85bd
00000330: c67e fd3b 86d4 edbc ef86 8c3e 9192 353c
00000340: f80e 093d c579 35bc 6857 3e3d 6359 c73c
00000350: d78b df3c 1e21 8cbc 78a2 d23c 57c4 153c
00000360: c855 223d d3c8 5fbc e8ad d53c 7348 94bb
00000370: 57d9 b73d 1399 00bc 61a3 63bb 506b 063c
00000380: 54f9 153c 336f 69b9 e062 0c3b 2b23 a53b
00000390: 9a1d 0cbc d67f eb3a 7b05 863b 2afd 753b
000003a0: 7c58 c0bb 1c22 8439 0853 353c a464 a03a
000003b0: 804f 523c c346 c93b b3c8 07bc 96b0 5abb
000003c0: b531 2b3c f4c5 c73c 7fd0 8b3c b28e f73b
000003d0: bfb2 b7bb b21f 023d 30e6 4b3c ec79 4d3c
000003e0: a12c d3bb 8e60 ae3c 9d4c 2f3d dcb9 703c
000003f0: 22c4 e63d 7a7e 87bc 99b5 62bd 2969 643e
0.008490178 -0.0033134415 0.0029712203 0.0054843654 -0.0066405735 0.002489336 0.0028411336 0.0044719395
-0.0038886264 0.0005925294 0.00958442 -0.0019285574 0.013505519 0.006725973 0.0013412229 0.012621605
0.009579046 0.01282035 0.024952546 0.0076404028 0.002986585 0.024366815 0.019171495 0.007947605
0.012678931 0.0006078433 0.031708192 0.00901462 -0.102398865 0.041555744 -0.17560746 0.18184763
-0.0591155 -0.047382127 -0.17333168 0.22382858 -0.08069059 0.04409949 -0.22927573 -0.11179027
0.31777185 0.21539503 0.077756606 0.027203862 0.02951099 0.03839671 0.032603405 0.026950227
0.021122716 0.045743477 0.034149256 0.027004562 0.1170658 0.017519038 0.08198926 0.09317471
0.014274184 0.03477373 -0.0015259971 -0.037143767 0.02172141 -0.0053541693 0.020635048 -0.018767633
0.01672092 -0.020228054 0.0775463 -0.02297881 0.012114432 -0.004592938 0.0075830906 0.034728438
0.027196879 0.0537369 0.044578787 0.020344665 0.034988757 0.030691154 0.04501368 0.038214803
0.064914145 0.021292876 0.07459233 0.070429385 0.030053267 0.05130268 0.009495149 0.11973179
0.040372893 0.033559084 0.02400386 0.12936436 0.02742765 0.055452254 -0.016574971 0.05185169
0.14212564 0.10200162 0.0021723814 0.0080100205 0.007770887 0.0037476637 0.010399134 0.008916016
0.016644683 0.002200737 0.0074710357 0.0071080234 0.022765439 -0.007084111 0.0023810226 0.012949331
-0.014082129 0.0028909312 -0.013100738 0.0104730055 -0.0084204795 -0.003889466 -0.019542286 0.021582458
-0.015293166 0.0035202221 -0.0315118 -0.0062055937 0.015308137 0.013855211 0.017195541 0.050659653
0.056303307 0.07515067 0.06869526 0.04138008 0.07371721 0.056569926 0.06102 0.053271927
0.07343133 0.062125027 0.07112454 0.088297665 -0.10762422 -0.0014859502 -0.04522796 -0.10748938
-0.13642763 -0.026252603 0.00038334343 -0.029089354 -0.10036848 -0.032873932 0.0059726266 0.01536645
-0.17479075 -0.10800658 -0.030401023 -0.0023605425 -0.0068382043 0.004674424 0.024856076 0.0018876086
0.026695197 -0.009148693 0.010199191 0.010443833 -0.012672089 0.00076078915 -0.007837696 -0.016084954
0.062970996 0.024075307 0.042014617 -0.0028857088 0.018301625 0.025230644 0.0198842 0.034426134
0.011523715 0.01073189 0.08403906 0.042827193 0.07627034 0.029673435 0.01618914 0.012275569
0.029692749 0.040564474 0.027689764 0.00792372 0.012662164 0.035440147 0.028629195 0.02449425
0.048851814 0.017743027 0.04266658 0.046960726 0.13863206 0.08972518 0.061954517 -0.08126061
-0.005395982 -0.0018599576 0.09278178 -0.065152444 0.00773606 -0.029032003 0.27446696 0.011082307
0.03346154 -0.011076395 0.046470076 0.024334615 0.02728836 -0.017105635 0.025712237 0.009141049
0.03963259 -0.01365872 0.026083902 -0.004525238 0.08977001 -0.007848996 -0.0034734833 0.008204296
0.009153683 -0.00022262037 0.0021421239 0.0050395927 -0.008551979 0.0017967175 0.004090009 0.003753493
-0.005869923 0.00025202415 0.0110671595 0.0012237024 0.012836337 0.0061424687 -0.0082875965 -0.0033369414
0.010448863 0.024386384 0.017067192 0.0075548524 -0.005606025 0.03176851 0.012445018 0.0125412755
-0.006444529 0.021286275 0.042797673 0.01469275 0.11267878 -0.0165398 -0.055348966 0.2230574

module.bi_lstm1.weight_hh_l0 f4 [64, 16]
00000000: 96e9 efba f4c2 3a3b 95aa 4dbb 648b 203c
00000010: d7f5 4dbb 2b1e 673b 5373 a73b 8b81 45bb
00000020: c614 383b c97e 39bb 98b5 1bbc b957 91ba
00000030: 4f16 953b 451d b13b bee0 e5bb 804d 8fbb
00000040: d4a9 f5bb e0a5 67bb 435c 23bd 633d 6d3c
00000050: 92db 6cbb c955 663c 96d0 033d 1a7a 1cbb
00000060: c829 c43b b107 59bc 3ae8 8a3c 9f15 86bb
00000070: 94cd 32bb cbee 033c 4b25 88bc 6fd6 83bb
00000080: 1ac7 dcbc dd3a 07bc f962 6bbe df77 903d
00000090: 4ae2 58bc 55eb 8b3d 3c42 133e 4294 54bc
000000a0: cddc 163d 869a c1bd 14a4 01be 43eb 00bd
000000b0: 4639 9cbc 43da 6a3d 7dd7 7cbd 11ae f8bc
000000c0: b891 edbc 9817 8b3b 1de3 5dbd e487 1c3d
000000d0: 182c 73bb fffa 843d 28c5 0b3d 842d c8bb
000000e0: 2936 3c3c 5678 a4bd 94ab c5bc 1ae1 f5bc
000000f0: 69de b73c 6d61 7d3d 3bb0 45bd 5cdc 24bc
00000100: 418f 2f3b 1cf3 2c3c bc26 14bd 28f8 1a3d
00000110: 375f 68bc b3da 90bc 3aa0 25bc a1cf f0bb
00000120: 0295 463b 6c7d d63c 7fb7 88bc 8cca 643c
00000130: d612 023d 156e 073b bed5 513b fbbd cabb
00000140: 866c 12bc 63e7 ac3b da76 20bd 77d7 c83c
00000150: e9de 96bb c98d 493c d857 923c c2ec 8abb
00000160: fcaf e33b 2fe5 96bc 93e6 98b8 bb18 d4bb
00000170: 4117 1d3c 7a04 853c 5dc4 87bc 0bf0 a7bb
00000180: 9e9c 03bc 7531 66bc c159 5fbd 397c cbbc
00000190: 4f36 0a3b 30fa 2f3d e91d 583d 63b2 923b
000001a0: 2a77 b43b d140 66bd aa96 363d a0d8 8bbc
000001b0: 341d 08bd 1056 393c c2f8 c0bb 45d6 a63a
000001c0: ca5a 7bbb 2f95 7e3b 1253 93bc cc3b b73c
000001d0: 81b9 b8bb ce02 f43a 05a3 243c 9782 64bb
000001e0: 61f7 513b 3fc4 2d3b cd9a 84bb d888 bab9
000001f0: 56c4 763c e1f8 f73b cc06 2bbc efcf 93bb
00000200: 13fb 8cbb 2b3f 02bc 9f48 27bc 5d49 d3bc
00000210: 6730 133c 7c50 253c 8b4b 3e3c ad97 553b
00000220: 258b 353b d85a 30bc f762 0c3c 21e5 02bc
00000230: 37ae b7bc 34d3 783b 0ae1 6a3c 255b 8a3b
00000240: 89fc 3ebc 69ca 523b 960b 03bd a23e 773c
00000250: 8daf 873b 0724 2d3d 5585 9b3c 8c1c 15bb
00000260: bf3f 283c 5b42 71bd f434 bcbc 18df 9abc
00000270: 21e3 913b 8bf1 023d aa2a 633c 4aad 3cb8
00000280: 5a15 8c3d 4a3f 8a3c a43d 803e 6f9b 21be
00000290: 023c d2bb b547 c5bd 5684 34be d5b3 e43c
000002a0: 06f6 27bd 6f48 9d3d 2000 ddbd 3c39 ff3c
000002b0: 8a85 b93d 0d9f 79bd 8d87 213e 96d0 b73c
000002c0: 6762 643b f408 523c c5b1 31bc c5fa cc3b
000002d0: a6f2 e9bb f651 01bd 75aa c1bc d772 bdbb
000002e0: 0115 b63b cb5b 293d 1052 41bd 6680 8b3c
000002f0: a04a d83c 7817 2c3a b119 cf3c e1a7 c5ba
00000300: c011 6cbb 84e4 99bb a721 01bd 425a f9bb
00000310: 5edc 533b 61e2 0f3d 1201 923b 3cb3 493a
00000320: 2928 613a 233b 4fbd 1d5d a9bc 2c88 61bc
00000330: 6d3e 8dbb 37fb f53c be02 bc3c cde4 963b
00000340: d85e cabb 64cf 393c addc 10bc 1feb f63c
00000350: 16e2 dfbb 5c41 603c 349b 1d3b ca62 cfbb
00000360: 95a4 d73b e9ff 56bc 6c73 3cbd b383 0fbc
00000370: 6230 e43c b8db 943c 2f0f d33a 7fa5 12bc
00000380: 4c7f 793b ae21 aa3d 3b22 123c b5b4 e03d
00000390: 8242 42bd 5728 5fbc cc7d 06be ef0d 31bd
000003a0: 9b6c a73c 36ca 393c 20f5 37be 3ba5 503b
000003b0: d9d9 153e 019b 673d 9db2 bc3d e147 e7bc
000003c0: 538f cc3a b39e 4b3c 0dfb 89bb 998e f73c
000003d0: d10f 3abc 8c59 75bc 3c9e 78bc 953d b2bb
000003e0: 207e 1bbb f14e d93c acc2 88bc 2f17 d83b
000003f0: ece4 103d fc85 8e3b 8769 353a 82c8 b7bb
-0.0018303867 0.0028497549 -0.0031382192 0.009798858 -0.003142705 0.0035265784 0.0051101833 -0.0030137028
0.0028088554 -0.002830433 -0.009503745 -0.0011088765 0.0045497785 0.0054051005 -0.0070153167 -0.0043732524
-0.0074970517 -0.0035346672 -0.03988291 0.014479968 -0.0036141616 0.014058539 0.032181345 -0.002387649
0.005986426 -0.013246463 0.016956437 -0.004091933 -0.0027283179 0.008052538 -0.016619345 -0.004023365
-0.026950408 -0.00825378 -0.22986974 0.070541136 -0.013237545 0.068319954 0.14380735 -0.012974801
0.036831666 -0.09453301 -0.12660247 -0.031474363 -0.019070279 0.057337057 -0.061728943 -0.030356439
-0.029000148 0.004244756 -0.05417167 0.038215533 -0.003710514 0.06493186 0.03412357 -0.0061089415
0.011487522 -0.08030765 -0.024129666 -0.030014563 0.02244492 0.06186049 -0.04826377 -0.010062303
0.0026788267 0.010556009 -0.036169752 0.037834316 -0.014182857 -0.017682409 -0.010109002 -0.00734897
0.0030301218 0.026182853 -0.01668906 0.013964307 0.031756245 0.002066498 0.003201827 -0.006187198
-0.008937007 0.005276607 -0.039175846 0.024516804 -0.0046042097 0.012301871 0.017864153 -0.0042396495
0.006948469 -0.01841983 -7.2908726e-05 -0.0064726747 0.009588064 0.016237486 -0.016573125 -0.005125051
-0.008032946 -0.014049877 -0.054528955 -0.024839507 0.00210895 0.042963207 0.0527629 0.0044768318
0.0055073695 -0.056214157 0.04457728 -0.017071068 -0.033230975 0.011312023 -0.0058890292 0.0012728652
-0.0038353675 0.0038846245 -0.017983947 0.02236738 -0.005637348 0.0018616559 0.0100486325 -0.0034867877
0.0032038318 0.0026514677 -0.004046774 -0.0003557864 0.015061459 0.0075675105 -0.010438632 -0.0045108716
-0.0043023913 -0.007949631 -0.010210185 -0.025791818 0.008983708 0.01008999 0.011614691 0.0032591627
0.0027701345 -0.010763846 0.008568517 -0.007989199 -0.02242194 0.0037967684 0.01433588 0.004222291
-0.011656889 0.0032164103 -0.03199347 0.015090616 0.0041408003 0.042270686 0.018984476 -0.002275261
0.0102691045 -0.058901172 -0.022974469 -0.018905208 0.0044521247 0.031968635 0.013865152 -4.498408e-05
0.0684001 0.016875882 0.25047028 -0.1578195 -0.006415845 -0.09632818 -0.17628607 0.027917782
-0.04100611 0.07679831 -0.107910395 0.031155221 0.09058674 -0.0609427 0.15774365 0.022438329
0.0034848691 0.012819517 -0.010845606 0.00625548 -0.0071395217 -0.031572305 -0.02364085 -0.0057815122
0.005556703 0.041347306 -0.0471974 0.017028999 0.026402771 0.00065647764 0.025280805 -0.0015079939
-0.0036021322 -0.0046964306 -0.031526234 -0.0076096365 0.0032327394 0.035128 0.004455694 0.00076942495
0.0008589053 -0.050593507 -0.020674283 -0.013765376 -0.0043104202 0.030027015 0.022950526 0.004604912
-0.006175857 0.01134095 -0.008841676 0.030141411 -0.0068323715 0.013687458 0.0024048807 -0.0063289152
0.006580899 -0.013122537 -0.046008512 -0.008759427 0.027855102 0.018171176 0.0016102548 -0.00895059
0.003807026 0.08307205 0.008919294 0.10971967 -0.047426708 -0.013620458 -0.13133925 -0.04322618
0.02043753 0.011339715 -0.17964602 0.0031836766 0.14633884 0.056544308 0.09213755 -0.028232517
0.0015606679 0.012427974 -0.004210836 0.030219363 -0.01135631 -0.014974963 -0.015174445 -0.00543947
-0.00237263 0.0265269 -0.01669439 0.0065945606 0.035374567 0.0043494683 0.0006920327 -0.005608619

module.bi_lstm1.bias_ih_l0 f4 [64]
00000000: 271a 943b 6e9b 283d b2ac 703e de04 0a3e
00000010: ad43 623d 7a83 c33d 6736 213e 099a 293c
00000020: 1061 68bc 9027 343e 10dc f1bd 01a1 823c
00000030: ec7d fe3d b3c1 cc3d 66f5 0d3e 297b 013d
00000040: 4fa2 063b a164 093d 13b3 7d3e 102f 433e
00000050: 70a9 553d 70b5 b03d ac5f 7a3d b012 a1ba
00000060: eae6 643c a51f 283e bf5d 9e3e dbf5 36bd
00000070: 8286 393e f92c b33c ade6 563e ee93 973c
00000080: 5a24 91bc 90c5 a13d 5d6f 0a3e b7e2 e9ba
00000090: e5f4 23be 334e de3d ce76 48bc bf08 e0bb
000000a0: c380 b03c 40e0 51be f072 a53c 677f d2bd
000000b0: 1ec1 543e ce3f 433e e811 82bd d82f 07be
000000c0: 56ee 843b c51b 263d 81dc 483e cca2 e53d
000000d0: adf3 543d 19f3 c73d e5a7 423e 9e39 213c
000000e0: d4e6 77bc 90d2 223e 4a86 fa3d ca97 843b
000000f0: 50ee 033e 5f0b de3d 2614 1e3e 1762 133d
0.004519719 0.041163854 0.23503378 0.13478419 0.055240322 0.095465615 0.15743409 0.010351666
-0.014183298 0.17593217 -0.11809552 0.015945913 0.124263614 0.09997883 0.13863143 0.031611595
0.002054352 0.033543233 0.24775343 0.19060922 0.05216354 0.086283565 0.061126396 -0.0012288895
0.01397107 0.16418321 0.30930898 -0.04466806 0.18117717 0.02187203 0.20986433 0.018503156
-0.01771753 0.0789901 0.13519044 -0.0017844056 -0.16011389 0.10854759 -0.0122353565 -0.00683698
0.021545773 -0.20495701 0.020196408 -0.10278206 0.20776793 0.19067308 -0.063510716 -0.13201845
0.004056732 0.040553827 0.19615366 0.11212692 0.0519902 0.09763164 0.19009359 0.009840397
-0.015130717 0.15900636 0.12232645 0.004046415 0.12883878 0.108420126 0.15437374 0.035982218

module.bi_lstm1.bias_hh_l0 f4 [64]
00000000: 1c1b 943b 6e9b 283d 6eeb 7e3e 2c33 0a3e
00000010: 6557 5e3d c8cb 853d a837 213e 049a 293c
00000020: b08b 69bc ca26 323e cb39 e0bd eaeb c93c
00000030: 05dd fd3d f8bf cc3d 6d0c 0e3e 877e 013d
00000040: 80a2 063b a164 093d 6820 833e 62f5 423e
00000050: 7af1 563d 7094 b73d 706d 7a3d b012 a1ba
00000060: 9193 653c ee90 143e 1e66 b53e 2f63 2cbd
00000070: 966c 3a3e 5926 b33c 9369 573e b993 973c
00000080: 57c0 95bc 6c99 023e 68de e13d e23f f43d
00000090: ea08 2dbe 1def 1e3e 948a 17bd 2b9c 4cbd
000000a0: 532c a2bd dcab 6dbe a8c4 17be 3970 09be
000000b0: 51e7 5b3e fcf1 4a3e 5fa4 53be 797d e2bd
000000c0: e3ee 843b c51b 263d f5d4 4f3e 8461 e63d
000000d0: 4224 503d fae6 803d 59a2 423e a939 213c
000000e0: c486 83bc 0d02 253e 6799 d33d bd48 96bb
000000f0: c44c 043e d620 de3d 4f78 1e3e 1d62 133d
0.0045198333 0.041163854 0.24894497 0.13496083 0.054282565 0.06533009 0.15743887 0.010351662
-0.0142544955 0.1739761 -0.10948523 0.024648625 0.12395672 0.09997553 0.13871928 0.031614807
0.0020543635 0.033543233 0.25610662 0.19038919 0.052476384 0.08963859 0.061139524 -0.0012288895
0.014012233 0.14508411 0.35429472 -0.042086776 0.18205485 0.021868872 0.21036367 0.018503057
-0.018280191 0.12753838 0.11028749 0.11926247 -0.16897932 0.15520902 -0.036997393 -0.04995362
-0.079186104 -0.2321009 -0.14821112 -0.13421716 0.21474959 0.19818872 -0.20668171 -0.11059088
0.004056798 0.040553827 0.2029608 0.112490684 0.05081583 0.06294055 0.19007243 0.009840407
-0.016055472 0.16114064 0.103319936 -0.004586308 0.12919909 0.10846107 0.15475582 0.03598224

module.bi_lstm1.weight_ih_l0_reverse f4 [64, 14]
00000000: 26f0 8ebe b3ee 4ebe d6fc 6bbe af55 b1bd
00000010: 4201 02be 7a29 bfbd 887d 47be ac6f 00be
00000020: c590 abbd 92e4 e83b 4ac2 2d3d a7d3 99be
00000030: 508c 3cbe e579 5dbd 07de 193d 5e97 1a3d
00000040: 2d12 5d3d cc80 443d 3b7d e53c 8056 b33c
00000050: dcb1 8a3d 69da e73c 5c32 313d 702e a13c
00000060: b3dd 763d 6b25 103d 1965 123d 9585 723c
00000070: 5733 8b3d b5dd 253e 2872 9b3d ddba c43c
00000080: e326 be3d 3d8c 5e3d fb45 153e fe75 c43c
00000090: 9cc5 e83d aed9 693d cc0f 493e cc2f a73d
000000a0: 7b75 923d 8019 893d aae9 27be 4f05 293d
000000b0: 30ce 55be 0652 9c3e 940a c43b 0309 d83b
000000c0: e77b e1bd df9e 8e3e f540 82bd fc07 d03d
000000d0: d211 9fbe b935 d6bd 4a68 373e 685c 793e
000000e0: d23a 323c 3730 2d3d ba76 8c3b cb11 993d
000000f0: d9f0 d43c 6f13 3b3b 4822 d13c 7a6a 823d
00000100: 3259 323d e3f0 e73c 64cb b53c 02c3 15bb
00000110: e1c9 ad3c 347b 5c3d cf57 713e 4fe5 bd3d
00000120: c4a9 7c3d 6de5 e83c f08e 8cbd cf9d b1bd
00000130: a5a6 b93d bd5f b2bc db0c d4bd 69f2 e2bd
00000140: 15ff 043d 6281 b23d 8c85 563d 9af4 bd3d
00000150: 3072 763e 80c4 7e3e b3c6 2e3e a893 88be
00000160: b57a 393e 2fa1 82be 77bd 9a3e 84b2 dabe
00000170: b417 a73e 7bf3 f4be 05f9 073f 9fa7 e43d
00000180: 68fd 41be 8685 7abc d6b0 173d a1d9 473d
00000190: 3da8 cd3c 1c54 033d 4ff5 033d 5036 9a3c
000001a0: ee62 ea3c ff26 e13c e845 1d3d 427a bc3c
000001b0: 39ca 2e3c d63e 223c 28d3 4f3c 96b0 fb3c
000001c0: d82a d1bb 7499 1f3e 3e43 f63b af5b 1fbc
000001d0: 1afb 753d 16a9 603d c781 b93d 6426 8cbc
000001e0: f2a9 bf3d 3199 953d 0b98 523e b842 e13a
000001f0: 9b2f 4e3d bcd4 1d3d e112 27bd 69ec 98bd
00000200: 6904 33bb 7da0 93bd 2c83 1f3c 76d4 893d
00000210: 1473 55bb b8f6 f33c 305c c63c 71fc 8d3d
00000220: e42f c6bd 39f4 7a3c a459 7dbd 704c c9bd
00000230: d7e8 99bd 297e 31bd 341e 97bd 7e7f 02bd
00000240: 01df d6bc a443 0dbd f9f0 83bd 8f9d c9bc
00000250: 34a4 a9bc 27a8 fdbc 9e9b 86bd ba36 8dbd
00000260: 7289 fbbc 46e6 dbbc 7e19 353c e9bc 5f3e
00000270: eb30 573d 89d2 3f3d 1553 cc3d bbc9 dc3d
00000280: fc10 313b 574d e03d b7ed 023e 4cbf 9e3d
00000290: 3ca9 76bd f521 133d 814b 46b9 df22 1a3d
000002a0: 2dad 273e 9a7e 303e 12da 983d 1012 d6bd
000002b0: cda4 893e 90d7 d23d 5d29 eb3d c9ae 2fbe
000002c0: 2863 883e 9664 b33d f67c 103e 857b 6c3c
000002d0: aaeb 0cbd 1255 a7bd daf4 1e3a beb6 9a3c
000002e0: f57d cc3c 3a21 be3c 6362 cc3c 4368 c63c
000002f0: 08a3 fe3c 7df1 593d 4072 4b3c f3c3 583d
00000300: 85ee 9f3c 9546 a13c ea47 c3bb 8f81 89bc
00000310: 6f17 7ebb 24f7 c83d 8a06 eebb 853e 473d
00000320: 81d7 613d e46b 7b3c ffe8 5f3d b34e d53c
00000330: 34f4 833d 5a08 f73c 118c 623d 95dc 5ebc
00000340: af8c 8a3d f679 a63d e9de 79bd 083f 153d
00000350: 83dc cfbc be47 923d 7763 aa3c 1406 843c
00000360: 22ca 2c3d df6e 273d 8da1 353d 7c03 8d3d
00000370: 2605 8e3d 1d82 1ebc b726 6e3d fbd6 d83c
00000380: cdf5 513e 6276 db3d 6417 573e 3a11 4a3e
00000390: d6cc 2d3e 7f20 e43d 7a7c 5e3e c497 053e
000003a0: c074 253e 4422 2f3e f3f1 c93e bf2e 1a3e
000003b0: bfcd 8f3e dfb7 7e3e e2c6 673d 6305 873d
000003c0: bfba 8e3d 1971 493d f729 853d 366b 0e3c
000003d0: 2c90 b93d c9d8 d03c 22f6 9a3d 205f c33b
000003e0: bf8e a43d 9e05 333d 4efd 4f3d 4bcf f43c
000003f0: f4b3 87bc b3b7 7e3d 21d1 093c bff6 36bd
-0.27917594 -0.20208244 -0.23045668 -0.08658921 -0.12695792 -0.09334083 -0.1948148 -0.125426
-0.08377222 0.007107326 0.042421617 -0.3004429 -0.184129 -0.054071326 0.037565257 0.03774201
0.053972412 0.047974393 0.028013816 0.021891832 0.06772205 0.028302388 0.043260917 0.019675463
0.060270023 0.035191935 0.035740945 0.014802356 0.06796902 0.16197856 0.07590133 0.024014885
0.09284761 0.05433296 0.14577477 0.023982044 0.11365816 0.05709236 0.19634932 0.081634134
0.07151314 0.06694317 -0.1639773 0.04126483 -0.20879436 0.3053133 0.0059827063 0.006592871
-0.110099606 0.27855584 -0.06360046 0.10157773 -0.31068283 -0.104594655 0.17910877 0.24351656
0.010878282 0.04228231 0.0042866142 0.07474097 0.025993751 0.002854552 0.025529042 0.06367965
0.043542095 0.028313106 0.02219171 -0.002285183 0.021214427 0.053828433 0.23568653 0.09272253
0.06168534 0.028429711 -0.06863201 -0.08672678 0.09064988 -0.021774167 -0.103540145 -0.11081392
0.032469828 0.08716084 0.052373454 0.0927517 0.24066997 0.24879646 0.17067985 -0.26675153
0.18113215 -0.25513598 0.30222675 -0.42714322 0.32635272 -0.4784201 0.5311435 0.11164784
-0.18944323 -0.0152906235 0.03703388 0.04879153 0.025104636 0.032062635 0.032216366 0.018824726
0.028611626 0.027484415 0.038396746 0.023007516 0.010668331 0.009902677 0.012684621 0.030723851
-0.006383281 0.15585881 0.00751534 -0.009726449 0.060053922 0.054848753 0.09057956 -0.01710815
0.09358586 0.073046096 0.20565812 0.0017186021 0.05033837 0.038532957 -0.04078949 -0.07466967
-0.002731586 -0.07208345 0.009735864 0.06729977 -0.0032569813 0.02978073 0.02421388 0.06932915
-0.09677103 0.015317016 -0.061853066 -0.098290324 -0.07515114 -0.043333206 -0.07378808 -0.031859867
-0.026229383 -0.034488335 -0.06442446 -0.024611263 -0.020708181 -0.03096397 -0.065726504 -0.06895204
-0.030705187 -0.026843201 0.011053441 0.21849407 0.052536886 0.04683164 0.09976784 0.107806645
0.002701818 0.109522514 0.12785994 0.07751331 -0.06021999 0.035921056 -0.00018910879 0.037630912
0.16374655 0.17235795 0.074634686 -0.10452664 0.26883546 0.102950215 0.11482499 -0.17156519
0.2663815 0.087594196 0.14110169 0.014433746 -0.034404434 -0.08170523 0.00060637074 0.018885966
0.024962405 0.023209203 0.024949258 0.024219638 0.031083599 0.053208817 0.012417376 0.052921247
0.019522915 0.019686976 -0.0059595006 -0.016785411 -0.0038771292 0.09812763 -0.007263963 0.048643608
0.05513716 0.015345547 0.05466556 0.026038503 0.064430624 0.03015535 0.05530936 -0.013602396
0.067651145 0.08128731 -0.0610036 0.036437064 -0.025373703 0.0714259 0.020799382 0.01611618
0.042184956 0.04087722 0.04434352 0.0688543 0.06934576 -0.009674576 0.05814239 0.026469698
0.20503922 0.10715939 0.21005017 0.19733134 0.1697267 0.11139011 0.21727172 0.13046175
0.16157818 0.17102915 0.39442405 0.15056895 0.2808666 0.24874829 0.056586154 0.06592824
0.06969213 0.049180124 0.06502145 0.008692553 0.09060702 0.025493996 0.07566477 0.0059622675
0.08035039 0.04370653 0.05077868 0.029884001 -0.0165653 0.062186908 0.008411677 -0.04466891

module.bi_lstm1.weight_hh_l0_reverse f4 [64, 16]
00000000: 686a 70be 46da 523d 83a5 833b 3c60 4bbc
00000010: 7ea3 9d3c d109 ad3e 94d5 3a3d a926 903c
00000020: 0eea 35bd 1dbf 9dbe 5d4d 15bc 5866 0bbf
00000030: 9b73 9fbd 7073 5c3c e3a7 11be 61c4 5e3d
00000040: 0186 653c 088b 9e3b fb3c a5bc b53c 8c3c
00000050: 33a4 7fba 176a 6d3d 04ad e4bb 3d44 623b
00000060: e6a2 d43b 727c 8abc 789d 46bc e008 56bd
00000070: 1db1 e73c fa3c 75bb 6c16 55bc 478d a73b
00000080: c88d ea3c 7923 d13c 6f44 ecbc d5b8 473d
00000090: 7940 08bc e72d 923c 69bf 8f3b c433 7d3a
000000a0: 15c9 aa3b 7f3f 923c be32 a5bc 036b 97bc
000000b0: 32bb d53a 3acf 15bd 4113 8fbc d224 383c
000000c0: ebd8 95be e933 1bbe 3dc3 923e 5eea 75bd
000000d0: dc69 fa3c 45c4 aa3e 105f 3bbd 0aae 43bb
000000e0: 4a82 59be 86f6 06bf 8c6f f73d 16f8 87be
000000f0: c16f 523e 7cec 4f3e 3259 18bd a319 11bd
00000100: a895 bfbc 4365 9ebb 8720 7cbc 0792 02bd
00000110: 76f7 c73c 7b9d e43d 11dd 12bd 2c3c aa3c
00000120: 4fec 003c 9f2f 5dbd ce2f 2fbc f5b8 80bd
00000130: 329f ee3b 7a7c 12bb 5485 8c3a 925b cf3c
00000140: 3ed5 833b ccc3 b23b ec1a 2a3d 1da8 29bd
00000150: 12d2 b13a c834 80bd 7a07 143d 299d 293a
00000160: ce29 3ebd bcac 4e3c 4f62 233c 3189 e83d
00000170: d797 87bc 39cc a53d 5571 1f3d c604 4bbc
00000180: 8f60 abbd d743 ce3c d212 e43d a441 cd3e
00000190: 8d2d fbbd 8936 533e c4d4 c33d c19f 05bd
000001a0: 1bd5 50be 4aef c5bb 1e66 9f3c 875e 613d
000001b0: 3bc8 1e3e 363d 053e 9faa 93bd c4fb 2bbe
000001c0: 77df b63c 664e 6bba 5988 a3bc 2c0d 603a
000001d0: b30a 513c 694b f93b 705a 51bc 38c8 4a3c
000001e0: c0e8 0d3c e226 833c 8c3e 34bc 0bec a5bc
000001f0: eb35 8c3b a151 9ebc 2071 803b ecf3 6a3c
00000200: 80a2 c2bd 89ff da3c 607b 77bc 5fdd 883b
00000210: 8b0f 66bc ae2f a33d 5665 f6ba e784 8cbb
00000220: c62c 563c 9541 8cbd 1925 85bc 76a0 57bd
00000230: fdf3 31bd 5545 08bc a1c4 1ebd cbdd 1d3c
00000240: 6b72 64be 98e8 4e3e c5f1 013e db1f d9bd
00000250: 20ba 0fbe 076f 1ebe 9b24 2dbe a55f c6bd
00000260: 5d0a 67be 65e9 ccbc 9055 023d 49f9 a03e
00000270: d73d 55bd 6579 023e 7f26 03be f7ec 3ebe
00000280: 25b8 9ebb dfbe 133c 33bf 413c 0236 573c
00000290: baab f5bb ca0c 163d ab93 813b c008 5aba
000002a0: b581 72bc 5b54 1dbd 570c 2bbb e774 02bd
000002b0: 499f d03b 882f 113c c83b 7bbc e7ed 6cbc
000002c0: 0b81 24be f83a 253d d206 9bbb 9f40 68be
000002d0: 1cc9 0f3d bc80 bb3e e214 d5bd 2eb2 073c
000002e0: 02ed 843d 784b 94be cc0f 253d 973f a33d
000002f0: 8f45 7fbe 1d90 fa3d 21ca 903d f8f3 763d
00000300: 743a 8b3d eb34 b4bc 1d96 ae3c 8de1 fa3d
00000310: 8bc3 28b9 974e c3bc 07be 46bd c4e0 99bb
00000320: 5856 6f3c f025 17be a5a3 cd3c 632d babd
00000330: bf5c d63c e486 2b3d cc5a e1bc 1d56 3e3c
00000340: 79a5 b83c 00e2 7b39 c381 d6bd c231 7abd
00000350: 65bf 7b3d ff6e 4a3e 8bc2 e93d 4b76 513d
00000360: 76d7 c03d 906e 48be b412 73bc bac6 43be
00000370: c658 49bd b656 da3d dbdb a6bb cef1 933d
00000380: f9e5 e6bc 0740 20bc 33bd 8d3c 5433 af3c
00000390: 5731 2c3c 0db8 db3c 398a 4fbd bbf8 283c
000003a0: 9642 aebc e8c1 21bd 5a5f 56bc a07e 3fbd
000003b0: 0e50 083d b778 e1bb 29d3 bebc 63d0 fc3b
000003c0: bef3 f1bd 82df d93c 1c0b 8e3c 5b7d aebd
000003d0: 9625 2ebc 2fcb ec3d 07ac f2bc 3ab0 eabb
000003e0: cf6a a7bc 853f afbd ce5b 3cbc bd8c 94bc
000003f0: 0325 e7bc 9d80 243c ac58 c3bc 5a51 a0bb
-0.23478091 0.051477693 0.0040175333 -0.012413081 0.019242998 0.33796552 0.04561384 0.01759656
-0.044412665 -0.3080987 -0.009112683 -0.5445304 -0.07785722 0.013455257 -0.142242 0.0543865
0.014009 0.004838351 -0.02017068 0.017118791 -0.00097519456 0.057962503 -0.006978633 0.0034525536
0.0064891456 -0.016905043 -0.012122504 -0.052254558 0.028282696 -0.0037420378 -0.013005834 0.005113277
0.02863206 0.02552961 -0.028841225 0.048760254 -0.008316153 0.017844154 0.0043868315 0.0009658898
0.005211959 0.017852543 -0.020165797 -0.018483644 0.0016306399 -0.03657458 -0.017465236 0.011239247
-0.29267058 -0.15156521 0.2866458 -0.060037963 0.030568056 0.33352867 -0.045744956 -0.0029858374
-0.21241108 -0.52719915 0.12081823 -0.26556462 0.20550443 0.20305055 -0.03719444 -0.03542484
-0.023386791 -0.0048338487 -0.0153886145 -0.031877544 0.02440999 0.111628495 -0.035855357 0.020780645
0.00786884 -0.054000493 -0.01069255 -0.06285278 0.007282161 -0.0022352026 0.0010720887 0.025312219
0.004023223 0.0054554697 0.04152958 -0.04142009 0.0013566634 -0.06260067 0.036139943 0.0006470257
-0.046426587 0.012614425 0.009972169 0.11354292 -0.016551895 0.08095593 0.03892644 -0.012391275
-0.083680265 0.025178833 0.11136402 0.40089142 -0.122645475 0.20626272 0.09562066 -0.032623056
-0.20393793 -0.0060404884 0.019457873 0.05502179 0.1550607 0.13011631 -0.07210278 -0.1679526
0.022323353 -0.0008976221 -0.019962477 0.00085468846 0.012758899 0.0076078665 -0.01277791 0.012376837
0.008661449 0.016009752 -0.01100124 -0.020254156 0.0042788885 -0.019326033 0.0039197356 0.014340382
-0.09503651 0.026733177 -0.0151050985 0.00417678 -0.014041792 0.079680786 -0.0018798511 -0.004288304
0.013072198 -0.06848446 -0.016253041 -0.05264326 -0.043445576 -0.008317311 -0.03876174 0.009635399
-0.22309272 0.20205915 0.12689884 -0.10601779 -0.14035845 -0.15472041 -0.16908495 -0.096862115
-0.22562547 -0.025013635 0.03181988 0.3144019 -0.05206093 0.12741621 -0.12807654 -0.18645082
-0.004843729 0.009017675 0.011825371 0.013135435 -0.007497278 0.03663329 0.003954371 -0.0008317344
-0.014801432 -0.038410526 -0.0026099884 -0.031849768 0.0063666445 0.00886143 -0.015334077 -0.014461017
-0.16064851 0.04033944 -0.0047310377 -0.22680901 0.035103902 0.36621654 -0.10404374 0.008282227
0.06490518 -0.28963828 0.04029827 0.07971113 -0.24928878 0.12234519 0.07069803 0.06029126
0.067982584 -0.02199789 0.021311814 0.12250052 -0.00016094574 -0.023841185 -0.048521068 -0.0046959836
0.014607988 -0.14760566 0.025102446 -0.09090688 0.026167272 0.04187669 -0.027509116 0.011617211
0.022539841 0.00024021417 -0.10473969 -0.06108261 0.061461825 0.19768904 0.11414059 0.051138204
0.09416096 -0.19573426 -0.014836002 -0.19118777 -0.049156927 0.1066107 -0.005092127 0.07223855
-0.028185831 -0.00978089 0.017302131 0.02138678 0.01050981 0.02682116 -0.05066893 0.010313208
-0.021271985 -0.039491564 -0.013084257 -0.04675162 0.03327947 -0.0068808454 -0.023294048 0.0077152713
-0.11814068 0.026595835 0.017339282 -0.085200034 -0.010629078 0.11562192 -0.029623045 -0.007162121
-0.020436672 -0.08557037 -0.011496497 -0.018133515 -0.02821589 0.010040429 -0.023845993 -0.0048925104

module.bi_lstm1.bias_ih_l0_reverse f4 [64]
00000000: 152b 083d 28ed 683d 58c9 2f3e 30a3 993d
00000010: 5a5d d83d f819 963d 1947 9a3d 23e7 373d
00000020: 8d79 f03d 45ed 853d 76bf 12bc e856 2bbd
00000030: 970c 413d f76a b8bc 0d7d fc3d c580 f33d
00000040: edff e63e 3c69 d13d 37e2 78bc 2b10 bc3e
00000050: 3194 e03d f6a3 593e af05 9c3d f662 c03c
00000060: a6e7 233e 1146 aa3e 76bf f9bc 43f7 143e
00000070: 8a7f 0e3d 914e 043e d408 f03d 48a5 453e
00000080: 6f0a f5bd c5e5 323c bacc 033e 6b01 633e
00000090: 31e5 d0b8 48e9 4bbe 820a 98be b487 553d
000000a0: 0b3f 98be 241a 4e3e abca 3fbe 2dd4 893c
000000b0: ad39 963e 305c 02bc c6d4 81be 8c19 2c3d
000000c0: 22a6 933e bfca 8b3d 56eb 423e ff55 b83e
000000d0: 55a6 053e fb9e 453c 7b4c 563d 7445 5a3d
000000e0: 5f0e 373e 4466 eb3d 064b a4ba f0e7 673d
000000f0: a541 d03d 55eb 81bb 3715 323e 0a58 293e
0.03324421 0.056866795 0.1716665 0.07501829 0.105646804 0.07329172 0.07533092 0.044898164
0.11741934 0.06539396 -0.008956781 -0.041830927 0.047131147 -0.022511942 0.12328539 0.11889795
0.4511713 0.1022515 -0.015190653 0.36731085 0.10965765 0.21253952 0.076182716 0.023484688
0.16006336 0.3325658 -0.030486804 0.14547448 0.0347896 0.12920596 0.11720434 0.19301331
-0.11964881 0.010919039 0.12871066 0.2216851 -9.960903e-05 -0.19913208 -0.29695517 0.05213137
-0.29735598 0.2012716 -0.18729655 0.016824806 0.29340878 -0.0079565495 -0.25357646 0.04201655
0.28837687 0.0682578 0.19035086 0.3600311 0.13051732 0.01206183 0.05231903 0.053288892
0.17876576 0.11494115 -0.0012534566 0.056617677 0.10168771 -0.0039648213 0.17390905 0.1653749

module.bi_lstm1.bias_hh_l0_reverse f4 [64]
00000000: 4716 1f3d e1f0 683d 00b7 2c3e 8ac3 5e3d
00000010: d877 d43d afcd 913d 2100 523d 95d1 383d
00000020: 79c1 153e ec4c 943d b8c4 bbbc 2370 7abd
00000030: 2be9 1d3d 1730 aebc 8a39 033e 5eed 9e3d
00000040: 3737 ee3e c2cf d03d dcd0 feba 2259 cc3e
00000050: 0a10 d13d 83c9 443e 5e2a 9c3d c377 c03c
00000060: b50a 3e3e 9281 bb3e 0ec8 75bc 92aa 2e3e
00000070: 7611 0e3d 9550 043e c111 123e e6b0 ea3d
00000080: 8345 86bd 3f51 f9bd 76b4 b63d d300 263e
00000090: a232 bf3d b92c 00be e597 57be ae56 763d
000000a0: bb53 5fbd 1494 963e bffd 33be 2e27 853d
000000b0: 0f7c 733e a202 31bd 487b 17be 3ae5 2cbe
000000c0: caa8 933e 8cd5 8b3d 0781 3c3e 844a 943e
000000d0: 1fe4 013e 0181 e33d aaac 293d f702 623d
000000e0: 9fac 2c3e 837c 433d ebb1 90bd 6455 313d
000000f0: 31be f83d 4075 70bb 2ef5 1c3e 20a9 1f3e
0.038839605 0.056870345 0.16866684 0.0543857 0.10374421 0.07119309 0.051269654 0.045121748
0.14624585 0.07241234 -0.022920951 -0.0611421 0.038552444 -0.021263165 0.12814918 0.07760118
0.465265 0.10195877 -0.0019440907 0.39911753 0.10208137 0.19217496 0.076252684 0.023494607
0.18558772 0.36622292 -0.01500131 0.17057255 0.03468462 0.12921365 0.14264585 0.11459522
-0.06556227 -0.121736996 0.08921139 0.16211252 0.09335829 -0.1251706 -0.21054037 0.060141258
-0.05452321 0.2940985 -0.17577265 0.065016136 0.23777793 -0.0432154 -0.14793122 -0.16884318
0.28839713 0.0682784 0.18408595 0.289631 0.12684678 0.1110859 0.04142443 0.05517861
0.16862725 0.047726166 -0.07065185 0.043294325 0.12145651 -0.003669098 0.15327904 0.1559186

module.bi_lstm2.weight_ih_l0 f4 [128, 16]
00000000: 8f76 203b 8eb1 4a3b 1063 4c3b f06b 023b
00000010: 53a6 f8ba 19b3 efbb 2dd8 193a 42a9 43bb
00000020: b739 b739 5249 093c 4bbf 9eb9 0607 173c
00000030: 2369 b7bb 42fa 17bb bef8 213b 74da eeb8
00000040: 83a7 20bb c048 063b 6675 583a 51c7 0bba
00000050: cfc7 88ba 6ab4 4439 00bd 3139 956c 42ba
00000060: efac b63a 632e fc3a 89b4 8bb9 0c87 353b
00000070: fb92 06bb e8e4 f7b7 427d 4b3a c9d8 99b9
00000080: f889 19bb 7c0a 833a fee0 093b d5ab 5ab9
00000090: faf3 bcba adef 833a 085c c2b5 73e8 4fba
000000a0: 3bde 7dba c79d a939 7bb2 6539 5f02 5d3a
000000b0: e912 843a 1ba8 6839 d660 b9ba b86e 98ba
000000c0: ce10 403b 7ce4 753b 9ccd ac3a fba5 513a
000000d0: 56e6 38bb 8f5c 36bc 525f 1b3b 5106 39bb
000000e0: 6f03 5b3a a1f4 4d3c 901b 163a 34af 3c3c
000000f0: 37dc e4bb 42de 2bbb ce9d 573b 1fb2 90ba
00000100: 78f4 a53b b13f 15bb 951f 8dbc 3bd4 483b
00000110: 7b5e 2b3b 5050 16bc 6359 823c 2bae a83b
00000120: 4368 543c 69cf 0c3c d2d1 58bb d167 c23b
00000130: c0b5 b0b8 c356 77bb 8926 ed3a 3317 fd3b
00000140: e219 ed3b b9ac 4f3b a2b0 6f3a c77d bc3b
00000150: 2b10 9dba c7b2 22bc 729b 553b 726b baba
00000160: bd18 4d3b db7b 303c 647b 87ba ad13 433c
00000170: dfa2 8cbb 243b 64bb 7e3e 1b3b 159f 96b9
00000180: 2a29 eb3a 6c85 6b3b 133c cc3a 9a94 8d3b
00000190: 360f 6dbb b7d2 a3ba 47ca ff3a 25be 57ba
000001a0: 3359 6e3a 3f6f 583b d1e9 38bb 4d6d 613b
000001b0: 70dc 40bb 9854 94ba 5675 35ba a885 3fbb
000001c0: d19e 843b e79b d43a de2c 81bb 5263 6e3b
000001d0: aa5b 00bb 3e56 0fba 37b1 d93b c205 773b
000001e0: 5e69 d93b fbcf a7ba bebc 5dbb da3a b33b
000001f0: b33a 20ba d0bc 30bb e509 48ba 2532 d23a
00000200: 39a6 70b9 6b2d b43a 2ce2 213a 4d50 3dba
00000210: 56ae 38ba fb61 c0b9 d04d 083b c8a4 4eb9
00000220: ebe4 c9b9 4ff7 5eba cd40 9539 1d84 5d3a
00000230: 1cf7 513b 98bf deba cc0b 21bb 7153 e4ba
00000240: 225d 37bb fd09 d63a 1ddb c13b 1925 dfba
00000250: 80e6 1cbb eb00 32bb a550 3bbb 5fe5 14bb
00000260: b572 9abb b12e 0c3c c9a6 893a 520a ed3b
00000270: a8e8 07bb 60a1 b939 570f b2b9 b1cd 22bb
00000280: 73b5 4fb9 87ef 8c3a 74d5 1b3b 4ef0 953a
00000290: 65ac e4ba 08ca ea39 af33 2eba 390d 78ba
000002a0: 3db2 abba c646 7f38 edeb 0aba 65b9 533a
000002b0: d602 9139 34f1 b739 2793 b2ba dc98 efba
000002c0: 0f8c 293d 79c9 1abb 43dd 85bc f72f dc3b
000002d0: 3c32 073a cd59 c1bc 411f 013c 3405 0c3c
000002e0: 0c62 643c 8cdf 2e3d 8f33 0cbc 1f50 593d
000002f0: 894c df3b 7352 81bc 7775 533a 406f 7b3b
00000300: 368b 14ba 344b 283b d369 383b 0bb2 163b
00000310: beb9 29bb e1fa 17bb 4393 813a 0514 ceba
00000320: 130a 8739 1dab 483b 2786 a6b9 e9c8 dc3a
00000330: a20e c1ba 04d9 7c3a 0e20 acba d63d 38bb
00000340: fb02 b13c a0a3 203c 766f 593c b3be f63b
00000350: d7e7 a3bb 16f3 dbbc bff4 7dbc 24c5 46ba
00000360: 1d23 15bc 8ede b33c d3f5 f9bb 8528 a63c
00000370: e4fc 6ebb d488 c1bb 56ba 3ebb c631 f9bb
00000380: d4d7 d2b9 2669 393b e10e d03a 81f1 333b
00000390: 09ce 0bbb 145c 33ba 418d c93a a098 88ba
000003a0: 00e7 fe3a ab0d 353b 78a5 83ba 0c1f 243b
000003b0: 8407 40bb c593 c739 7f5b 9839 7c15 9cba
000003c0: f081 21bb 6811 be3a cdf3 a13b 02eb 923a
000003d0: 2fc3 47bb bb85 0d3a 08bd 58bb 5f07 4fbb
000003e0: f6bf 6cbb 9113 5e3b 777e 423a c748 763b
000003f0: a35f 2e3a 5191 8ab7 0541 0cbb 4156 4abb
0.002448473 0.0030928585 0.0031186976 0.0019900762 -0.0018970467 -0.0073150513 0.00058686995 -0.0029855524
0.0003494748 0.008379297 -0.00030278633 0.009217983 -0.00559725 -0.0023189937 0.0024714912 -0.000113894144
-0.0024513907 0.002049014 0.000825724 -0.00053321297 -0.0010435524 0.00018759226 0.00016950443 -0.00074166927
0.0013937036 0.0019239899 -0.00026646655 0.0027698902 -0.0020534385 -2.9551287e-05 0.00077625003 -0.00029343952
-0.0023428183 0.0009997631 0.0021038647 -0.00020854113 -0.0014415972 0.0010065936 -1.4480911e-06 -0.0007931061
-0.0009684299 0.00032351745 0.00021905631 0.0008430834 0.0010076436 0.00022187868 -0.0014143239 -0.0011629676
0.0029306891 0.003752022 0.0013183835 0.00079974503 -0.0028213463 -0.011130466 0.0023707938 -0.0028232525
0.00083546987 0.012570531 0.0005726153 0.011516381 -0.0069842595 -0.0026225005 0.0032900455 -0.0011039412
0.0050645433 -0.0022773559 -0.017226974 0.0030644077 0.0026148844 -0.009174421 0.015911764 0.0051477156
0.012964311 0.008594372 -0.0033084047 0.005932786 -8.4261876e-05 -0.0037740923 0.0018093149 0.007723713
0.0072357515 0.0031688644 0.0009143447 0.0057522985 -0.0011982968 -0.009930319 0.0032593873 -0.0014222695
0.0031295263 0.010771717 -0.0010336456 0.011906547 -0.0042918767 -0.003482529 0.0023688371 -0.00028728755
0.0017941345 0.003593768 0.0015581868 0.004320693 -0.0036172397 -0.0012498711 0.0019515239 -0.0008229933
0.0009092271 0.0033025292 -0.0028215537 0.0034397424 -0.0029428266 -0.0011316715 -0.00069220865 -0.0029223952
0.0040472527 0.0016220779 -0.003942116 0.0036375117 -0.0019585886 -0.0005467868 0.00664344 0.003769264
0.006634875 -0.0012803072 -0.0033834423 0.005469662 -0.00061122625 -0.002696801 -0.0007630869 0.0016036673
-0.00022950106 0.0013746446 0.0006175365 -0.00072217436 -0.0007045021 -0.00036694095 0.0020798333 -0.00019707077
-0.00038508265 -0.000850548 0.00028467775 0.00084501674 0.0032038158 -0.0016994355 -0.0024573682 -0.0017419887
-0.0027979095 0.0016329881 0.005916013 -0.0017024606 -0.00239411 -0.0027161192 -0.0028582003 -0.0022719724
-0.004713381 0.008556054 0.0010501976 0.0072338963 -0.002073804 0.00035406183 -0.00033962235 -0.002484184
-0.00019808653 0.0010752537 0.002377835 0.0011439414 -0.0017446397 0.00044782483 -0.00066452747 -0.00094624195
-0.0013099384 6.086265e-05 -0.0005299438 0.0008076637 0.00027658668 0.0003508419 -0.0013624177 -0.0018279809
0.041393336 -0.0023618622 -0.016340857 0.006719585 0.0005157327 -0.02360239 0.007880987 0.008546162
0.013939392 0.04269366 -0.008557214 0.053054925 0.0068145436 -0.015786385 0.0008066515 0.003836587
-0.0005666496 0.002567959 0.0028139248 0.0022994305 -0.0025898064 -0.0023190307 0.0009885806 -0.0015722519
0.00025756712 0.003061957 -0.0003176194 0.0016844544 -0.0014729092 0.0009645375 -0.0013132112 -0.002811303
0.021607867 0.009804636 0.013271203 0.0075300573 -0.0050020027 -0.02684931 -0.015500247 -0.0007582477
-0.00910261 0.021956708 -0.0076281815 0.020282993 -0.0036466653 -0.0059062038 -0.0029102764 -0.0076048104
-0.00040215126 0.0028291433 0.0015873575 0.002745718 -0.0021332523 -0.0006842029 0.001537718 -0.0010421462
0.0019447505 0.0027626555 -0.001004382 0.002504292 -0.0029301355 0.00038066335 0.0002905987 -0.0011908258
-0.00246441 0.0014501037 0.0049423934 0.0011208954 -0.0030481329 0.00053986505 -0.0033071656 -0.0031590087
-0.003612516 0.0033886174 0.00074193574 0.003758 0.0006651824 -1.651855e-05 -0.002140106 -0.0030874165

module.bi_lstm2.weight_hh_l0 f4 [128, 32]
00000000: 4c89 0080 e08a 0080 f789 0000 f08a 0000
00000010: 658b 0080 3d8b 0080 b08e 0080 988a 0000
00000020: 0d89 0080 c189 0080 6490 0000 0089 0080
00000030: 56ad 0080 128b 0080 0f8a 0000 bca0 0080
00000040: 839e 0000 32a4 0080 a78a 0080 88a7 0000
00000050: 838b 0080 3b89 0000 cf8b 0080 e288 0080
00000060: 7d8c 0000 7289 0000 6a99 0000 518b 0080
00000070: d089 0000 ea8a 0000 398c 0000 318a 0080
00000080: 1291 0000 628a 0000 1d93 0000 ec8a 0080
00000090: 088e 0000 f18a 0000 848a 0000 e1ac 0000
000000a0: 2595 0000 1494 0000 d38c 0000 568e 0080
000000b0: 75a8 0000 9a8d 0080 29ad 0000 e888 0080
000000c0: 5989 0080 c189 0000 fd89 0000 168d 0000
000000d0: 908c 0000 6f8a 0000 c58a 0000 8e8a 0080
000000e0: 328b 0080 71a6 0000 5ca1 0080 4c8b 0000
000000f0: 598c 0080 908a 0000 e08d 0080 ab89 0000
00000100: 028e 0080 ad89 0000 3593 0080 df8b 0000
00000110: 89ab 0080 f893 0000 1ba5 0000 e188 0080
00000120: 539e 0000 ab94 0000 b897 0000 628a 0000
00000130: 548a 0080 948b 0000 e988 0080 8e94 0000
00000140: e99d 0000 148c 0000 f28a 0000 bf9a 0080
00000150: 0d8d 0080 8e8b 0080 9b8d 0000 e38a 0080
00000160: f18b 0000 0d8b 0080 ba8a 0080 e48a 0000
00000170: 048a 0000 c68a 0000 c288 0080 f38b 0000
00000180: 568b 0080 6f8a 0000 3fa8 0080 6489 0000
00000190: de8d 0000 be88 0080 008b 0000 1d8b 0080
000001a0: fb8f 0080 c889 0080 cb8c 0000 a98a 0000
000001b0: bb8b 0080 d2a0 0080 6b89 0080 128a 0000
000001c0: 748b 0000 d789 0000 428a 0000 ae89 0000
000001d0: a18a 0000 448d 0000 598a 0080 078c 0080
000001e0: cd8c 0000 4e89 0000 7399 0080 3a8b 0080
000001f0: 3c89 0000 2a9d 0080 b68e 0000 c68a 0000
00000200: c78a 0080 348a 0080 1b89 0080 238b 0080
00000210: 4f89 0080 8b89 0080 5898 0000 b18c 0080
00000220: e18a 0080 eb89 0080 ce90 0000 9289 0080
00000230: c38d 0000 d995 0080 158c 0080 a98b 0080
00000240: 8a89 0000 958c 0080 0c8a 0080 4e93 0000
00000250: 078c 0000 528b 0080 7789 0080 cc89 0000
00000260: ee88 0000 4f89 0000 608d 0080 2789 0000
00000270: a18a 0000 9489 0080 5e8d 0080 3d8a 0080
00000280: a98b 0080 678a 0080 508c 0000 9f8a 0080
00000290: 098c 0000 218a 0000 5e89 0080 5789 0000
000002a0: 5a8b 0080 a1ab 0080 148a 0080 6f8b 0080
000002b0: 2e8b 0000 618e 0080 ea88 0000 c4a6 0080
000002c0: 488d 0000 ad90 0080 c794 0080 d48b 0000
000002d0: bf89 0080 328c 0000 198e 0000 db8d 0000
000002e0: f288 0080 ed91 0080 128e 0080 c889 0080
000002f0: a68c 0080 b68c 0080 ae8a 0080 4b8b 0080
00000300: 188e 0000 228a 0000 4b8b 0000 ab92 0000
00000310: 22a8 0000 42a5 0080 328b 0000 8490 0080
00000320: 0c9a 0000 308b 0000 848a 0080 ea9e 0000
00000330: f189 0000 da94 0000 c089 0000 228b 0080
00000340: 0d9c 0080 d489 0000 908a 0000 548a 0080
00000350: 438f 0080 cb8f 0080 df94 0000 4d8a 0080
00000360: 8289 0080 8b8f 0080 1c8b 0080 5290 0080
00000370: 4089 0000 bb8f 0080 8c90 0000 bc8b 0080
00000380: 2e89 0000 ea8a 0080 e189 0000 2a8a 0000
00000390: 868d 0080 7293 0000 a99d 0000 008c 0080
000003a0: d58c 0000 a689 0080 5b89 0080 92a2 0080
000003b0: 0396 0000 628b 0000 ee89 0000 9896 0080
000003c0: c389 0000 3b93 0000 b18b 0000 fd94 0080
000003d0: 508a 0080 9a8a 0000 76a3 0000 329c 0080
000003e0: 0693 0000 ea89 0000 2b89 0000 138a 0000
000003f0: 7f8a 0000 cf8c 0000 cc8e 0000 748a 0000
-4.9253e-41 -4.9819e-41 4.9492e-41 4.9841e-41 -5.0005e-41 -4.9949e-41 -5.1187e-41 4.9718e-41
-4.9165e-41 -4.9417e-41 5.1798e-41 -4.9146e-41 -6.2181e-41 -4.9889e-41 4.9526e-41 -5.766e-41
5.6863e-41 -5.8902e-41 -4.9739e-41 6.0099e-41 -5.0047e-41 4.9229e-41 -5.0154e-41 -4.9104e-41
5.0398e-41 4.9306e-41 5.5035e-41 -4.9977e-41 4.9438e-41 4.9833e-41 5.0302e-41 -4.9574e-41
5.2041e-41 4.9642e-41 5.2774e-41 -4.9836e-41 5.0951e-41 4.9843e-41 4.969e-41 6.2017e-41
5.3503e-41 5.312e-41 5.0518e-41 -5.106e-41 6.0431e-41 -5.0797e-41 6.2118e-41 -4.9113e-41
-4.9271e-41 4.9417e-41 4.9501e-41 5.0612e-41 5.0424e-41 4.966e-41 4.9781e-41 -4.9704e-41
-4.9934e-41 5.9708e-41 -5.7885e-41 4.997e-41 -5.0347e-41 4.9707e-41 -5.0895e-41 4.9386e-41
-5.0943e-41 4.9389e-41 -5.2808e-41 5.0176e-41 -6.1535e-41 5.3081e-41 5.9229e-41 -4.9103e-41
5.6796e-41 5.3332e-41 5.4426e-41 4.9642e-41 -4.9623e-41 5.0071e-41 -4.9114e-41 5.3291e-41
5.6647e-41 5.025e-41 4.9844e-41 -5.5512e-41 -5.06e-41 -5.0063e-41 5.0798e-41 -4.9823e-41
5.0202e-41 -4.9882e-41 -4.9766e-41 4.9825e-41 4.951e-41 4.9783e-41 -4.906e-41 5.0204e-41
-4.9984e-41 4.966e-41 -6.0355e-41 4.9286e-41 5.0892e-41 -4.9054e-41 4.9864e-41 -4.9904e-41
-5.165e-41 -4.9427e-41 5.0507e-41 4.9742e-41 -5.0126e-41 -5.7691e-41 -4.9296e-41 4.953e-41
5.0026e-41 4.9448e-41 4.9598e-41 4.939e-41 4.973e-41 5.0677e-41 -4.963e-41 -5.0232e-41
5.051e-41 4.9256e-41 -5.5047e-41 -4.9945e-41 4.923e-41 -5.638e-41 5.1195e-41 4.9783e-41
-4.9784e-41 -4.9578e-41 -4.9184e-41 -4.9913e-41 -4.9257e-41 -4.9341e-41 5.465e-41 -5.047e-41
-4.982e-41 -4.9476e-41 5.1946e-41 -4.9351e-41 5.0855e-41 -5.3755e-41 -5.0252e-41 -5.01e-41
4.934e-41 -5.0431e-41 -4.9522e-41 5.2843e-41 5.0232e-41 -4.9979e-41 -4.9313e-41 4.9432e-41
4.9121e-41 4.9257e-41 -5.0716e-41 4.9201e-41 4.973e-41 -4.9354e-41 -5.0713e-41 -4.959e-41
-5.01e-41 -4.965e-41 5.0335e-41 -4.9728e-41 5.0235e-41 4.9551e-41 -4.9278e-41 4.9268e-41
-4.999e-41 -6.1569e-41 -4.9533e-41 -5.002e-41 4.9928e-41 -5.1076e-41 4.9116e-41 -5.9824e-41
5.0682e-41 -5.19e-41 -5.3371e-41 5.0161e-41 -4.9414e-41 5.0293e-41 5.0975e-41 5.0888e-41
-4.9127e-41 -5.2348e-41 -5.0965e-41 -4.9427e-41 -5.0455e-41 -5.0478e-41 -4.9749e-41 -4.9969e-41
5.0974e-41 4.9553e-41 4.9969e-41 5.2615e-41 6.0315e-41 -5.9283e-41 4.9934e-41 -5.1842e-41
5.5262e-41 4.9931e-41 -4.969e-41 5.7008e-41 4.9484e-41 5.3398e-41 4.9415e-41 -4.9911e-41
-5.598e-41 4.9443e-41 4.9707e-41 -4.9623e-41 -5.1393e-41 -5.1583e-41 5.3405e-41 -4.9613e-41
-4.9329e-41 -5.1494e-41 -4.9903e-41 -5.1772e-41 4.9236e-41 -5.1561e-41 5.1854e-41 -5.0127e-41
4.9211e-41 -4.9833e-41 4.9462e-41 4.9564e-41 -5.0769e-41 5.2893e-41 5.6558e-41 -5.0223e-41
5.0521e-41 -4.9379e-41 -4.9274e-41 -5.8319e-41 5.3814e-41 5.0001e-41 4.948e-41 -5.4023e-41
4.942e-41 5.2816e-41 5.0112e-41 -5.3447e-41 -4.9617e-41 4.9721e-41 5.8639e-41 -5.6032e-41
5.2742e-41 4.9474e-41 4.9207e-41 4.9532e-41 4.9683e-41 5.0513e-41 5.1226e-41 4.9668e-41

module.bi_lstm2.bias_ih_l0 f4 [128]
00000000: 6bee 643c 5d37 8f3a 870b 52bb 1693 923c
00000010: 05a2 a43c e938 a13c ec3f 81b7 8b32 a83c
00000020: a6e1 8cbb abde 3c3c fcda f0ba 9b5d ed3d
00000030: bc25 aa3a c44e 9e3d 93cc 603b 1e47 fe3b
00000040: ddba feba 960f 763b cd9d 973c 8bd4 b83b
00000050: eb73 3e3c a2eb e43a 9c05 ac3c cc6d d4b8
00000060: a262 503b dc83 ed3b d74a 3cba 0202 853c
00000070: 45dd 19bb 1db8 513b 62f1 1a3a a592 b23c
00000080: ef8a 0080 2889 0000 04a8 0080 0489 0000
00000090: f389 0000 d78a 0000 148a 0080 b98e 0080
000000a0: c390 0080 d289 0080 6ea4 0080 1c8d 0000
000000b0: 5789 0080 fd88 0080 e388 0000 bd88 0080
000000c0: a789 0080 1e89 0000 9a8b 0080 8289 0000
000000d0: bc89 0080 158b 0000 a08b 0080 008a 0000
000000e0: e997 0000 c68e 0080 d091 0080 978c 0080
000000f0: 3b8a 0080 6897 0000 9897 0080 e988 0000
00000100: 72b7 9cbc 6ee1 b93b 839c 47bc 8469 9a3c
00000110: 4ed3 d4bd fb66 eebc 71da bd3c bacd 63bd
00000120: b4ab a3bc 5366 253c 5456 1aba e571 913e
00000130: 340e debc f828 69be 6fb6 9a3b 89e9 d1bc
00000140: 0641 ecbc 5539 b2bb d678 ebbd c8c8 edbc
00000150: bea6 d6bc b10c 09bd 965a a8bd 9a03 c33c
00000160: d092 c2bc 710a 563b b23f 80bd c9a4 98bd
00000170: be62 0dbb a641 b23c faab bebc e885 21be
00000180: 1f0b 653c 5c69 8e3a 8c38 52bb 55f2 923c
00000190: 2925 a63c 516f a13c fb43 0eb8 bae9 a83c
000001a0: 4776 8dbb eafe 3b3c 6e05 f1ba 8a1b f73d
000001b0: 0105 a83a 3b1e a43d 6f0e 603b 91c4 fd3b
000001c0: 42dd ffba 8fc0 763b f097 993c 7936 b93b
000001d0: 5793 3e3c 75bb e43a 6b15 ad3c d7a2 deb8
000001e0: 8be3 4f3b d145 ed3b f1f7 4cba 8aec 853c
000001f0: e3f1 19bb 4ae4 513b 24da 183a 9327 b93c
0.013972859 0.0010926534 -0.0032050328 0.017892402 0.020096788 0.019680457 -1.5407764e-05 0.020531913
-0.0042993603 0.011527698 -0.0018375809 0.115901195 0.0012981216 0.07729867 0.0034301623 0.0077599427
-0.0019434352 0.003754591 0.018507862 0.0056405715 0.011624317 0.0017465244 0.020998769 -0.00010129399
0.003179707 0.007248385 -0.0007182783 0.016236309 -0.0023477834 0.003200061 0.00059106026 0.021798441
-4.984e-41 4.9202e-41 -6.0273e-41 4.9152e-41 4.9487e-41 4.9806e-41 -4.9533e-41 -5.1199e-41
-5.1931e-41 -4.944e-41 -5.8986e-41 5.062e-41 -4.9268e-41 -4.9142e-41 4.9106e-41 -4.9052e-41
-4.938e-41 4.9188e-41 -5.008e-41 4.9329e-41 -4.941e-41 4.9893e-41 -5.0088e-41 4.9505e-41
5.4495e-41 -5.1217e-41 -5.2308e-41 -5.0434e-41 -4.9588e-41 5.4314e-41 -5.4382e-41 4.9114e-41
-0.019130442 0.0056726253 -0.012183311 0.018849142 -0.10391866 -0.02910184 0.02317545 -0.055616118
-0.019979335 0.010095197 -0.00058874977 0.28407207 -0.027106382 -0.22769535 0.004721455 -0.025624054
-0.0288396 -0.0054389634 -0.11497657 -0.029026404 -0.026202556 -0.03345937 -0.08220403 0.023805428
-0.023751646 0.0032660032 -0.06262149 -0.07453305 -0.0021573748 0.02175982 -0.023275364 -0.15773737
0.013979702 0.001086514 -0.0032077162 0.017937819 0.020281391 0.0197064 -3.391875e-05 0.020619262
-0.0043170783 0.0114743505 -0.0018388459 0.120657995 0.0012818874 0.080135785 0.003418829 0.00774438
-0.0019520896 0.0037651395 0.018749207 0.0056522456 0.011631808 0.0017450886 0.021128377 -0.00010616116
0.003172132 0.007240989 -0.00078189286 0.016348142 -0.0023490123 0.003202694 0.00058308453 0.022601878
