output/clip/FD004/exp_202411021545_bilstm_clip_ep-0001.pth (torch, 288916 bytes, 66 tensors)

module.bi_lstm1.weight_ih_l0 f4 [64, 14]
0.0055992263 0.018709071 0.0052281534 -0.06242489 -0.023751844 -0.018992553 0.07294151 0.0044241305
-0.00816856 0.07224867 0.051211067 -0.0040339306 -0.05097543 0.008395166 -0.025190983 -0.077409364
0.015349886 -0.01256403 0.02390791 -0.011896338 -0.02126031 -0.012381404 -0.010952404 0.048772454
-0.056045767 -0.05586428 -0.06759298 0.02569638 0.023334397 0.024973676 0.028648434 -0.07301944
0.14167619 0.09359812 0.0464773 0.041708145 -0.010433493 0.03699609 0.009675972 0.116821416
0.021252898 0.0764785 0.08457806 0.14941664 -0.06722892 0.044465154 0.13084607 0.067156434
0.0645811 -0.09517978 -0.010639526 0.055720195 -0.042286962 0.10510718 0.06924932 0.13782609
-0.0014797272 -0.08835073 -0.030948382 -0.006876071 -0.04409982 -0.0057140216 -0.047558635 0.079571165
0.0067441533 0.044192065 0.0439917 0.12630108 0.14102352 0.028796142 0.08585255 0.03675049
0.037558287 -0.047282428 -0.027435994 -0.030254884 0.0016507717 0.06740091 0.014622171 0.012914044
-0.10528282 0.09463306 -0.05541358 -0.119488664 0.02543043 -0.016608745 -0.032464992 -0.084981136
-0.06444889 -0.0210685 -0.012291788 -0.019473229 -0.019206546 -0.07760871 -0.012883607 -0.017701535
-0.024349932 0.03150897 -0.079871245 -0.12052295 -0.038348846 -0.06800094 -0.13274594 0.04767574
0.025769794 0.022067497 0.009795639 -0.040252965 -0.012187057 0.12969936 -0.008445239 0.001427307
0.07545539 0.010828105 -0.010159696 0.118300974 -0.024201332 -0.0773121 0.07760375 0.035535287
0.0124190375 -0.00042245135 -0.018193077 -0.056085266 -0.02675925 -0.016740784 0.054492064 0.054515086
0.06939693 0.08752016 0.041309573 0.0041672867 0.07077884 0.047228765 -0.02022446 0.114614375
-0.022304086 0.062204424 0.13025741 -0.1216748 -0.04218316 -0.08240329 0.076712415 -0.02659215
-0.013692259 -0.01911611 -0.07406831 0.03707515 -0.094140835 -0.020823767 0.034264997 -0.06782924
-0.03265772 0.055746593 0.059782963 0.06905568 0.17993325 0.04624249 -0.009838383 -0.049073335
-0.002377107 0.0357687 0.04301025 -0.10322475 0.099778675 -0.05167828 -0.012726447 0.008838401
-0.015709285 -0.037652913 -0.14245357 0.048819613 -0.00049972784 0.08122126 -0.056250975 0.017607547
-0.003826954 0.03742409 0.031136 -0.12376246 0.084529504 0.0438336 -0.07016574 0.062139485
-0.046829116 -0.07899976 -0.009942571 -0.037967138 0.0023519832 -0.008405823 -0.05900877 -0.015544299
0.0365208 -0.06578495 -0.020201785 -0.008152435 0.08022836 -0.13704021 -0.16051687 -0.081049375
-0.048962053 -0.027417155 -0.029084055 -0.10812182 -0.020898348 -0.020238927 0.027413668 -0.016813727
-0.10770248 0.009350691 0.11723933 0.1259158 -0.02180504 -0.120111585 0.03597733 -0.1365302
0.024169102 -0.033449218 -0.005676589 -0.12512995 0.036557432 -0.031853646 -0.023902664 -0.1067289
0.0025646633 -0.043311544 -0.088813834 -0.0022968529 -0.10443119 -0.06604861 0.014715392 -0.07615236
0.03472183 -0.036068235 -0.010177173 -0.059379205 -0.07321352 -0.013782937 0.06597842 -0.05236293
0.027052587 -0.08311008 -0.009058505 -0.06505481 0.080503054 0.07317783 -0.012496564 -0.008969682
-0.091908276 -0.07034399 0.036752142 -0.0086569125 0.030166486 0.0011017367 0.027952943 0.028757194
00000000: b779 b73b c443 993c ee50 ab3b 3eb1 7fbd
00000010: 3a93 c2bc 4596 9bbc 5c62 953d 4cf8 903b
00000020: 6dd5 05bc 1cf7 933d b2c2 513d 102f 84bb
00000030: 9dcb 50bd e18b 093c 525d cebc cd88 9ebd
00000040: 177e 7b3c 5cd9 4dbc 85da c33c dce8 42bc
00000050: 1a2a aebc 5fdb 4abc b671 33bc a0c5 473d
00000060: 3f90 65bd f1d1 64bd 306e 8abd 3781 d23c
00000070: c727 bf3c 9895 cc3c 1fb0 ea3c 378b 95bd
00000080: 9013 113e 5fb0 bf3d fb5e 3e3d 29d6 2a3d
00000090: 3ef1 2abc 3689 173d f887 1e3c 1140 ef3d
000000a0: 8f1a ae3c c3a0 9c3d 4337 ad3d ad00 193e
000000b0: 51af 89bd 1821 363d 83fc 053e 5089 893d
000000c0: 1943 843d 9eed c2bd 6851 2ebc dc3a 643d
000000d0: 1835 2dbd 6f42 d73d 96d2 8d3d 4822 0d3e
000000e0: 68f3 c1ba 3af1 b4bd 7687 fdbc aa50 e1bb
000000f0: 03a2 34bd b03c bbbb d8cc 42bd 35f6 a23d
00000100: 0ffe dc3b bd02 353d a430 343d 1255 013e
00000110: 7868 103e e3e5 eb3c 76d3 af3d af87 163d
00000120: b8d6 193d 38ab 41bd 73c1 e0bc 17d9 f7bc
00000130: b55e d83a 7d09 8a3d d591 6f3c 6d95 533c
00000140: 859e d7bd face c13d 5af9 62bd 79b6 f4bd
00000150: 7a53 d03c 100f 88bc 03fa 04bd 970a aebd
00000160: c8fd 83bd d997 acbc 7f63 49bc 5286 9fbc
00000170: 0c57 9dbc 51f1 9ebd c415 53bc cf02 91bc
00000180: 8279 c7bc 8d0f 013d 8993 a3bd bdd4 f6bd
00000190: ae13 1dbd 1444 8bbd 8dee 07be a347 433d
000001a0: 2d1b d33c e5c6 b43c e37d 203c 4be0 24bd
000001b0: 39ac 47bc e9cf 043e e65d 0abc 7a14 bb3a
000001c0: 5b88 9a3d 5d68 313c db74 26bc c847 f23d
000001d0: df41 c6bc ce55 9ebd b7ee 9e3d 738d 113d
000001e0: 3879 4b3c 767c ddb9 a609 95bc aab9 65bd
000001f0: 3736 dbbc f823 89bc 1233 5f3d 364b 5f3d
00000200: fa1f 8e3d c53d b33d 3a34 293d bc8d 883b
00000210: 7ff4 903d f372 413d c4ad a5bc f1ba ea3d
00000220: 0fb7 b6bc 11ca 7e3d 3362 053e a330 f9bd
00000230: 40c8 2cbd 0ec3 a8bd 661b 9d3d c8d7 d9bc
00000240: 7f55 60bc 6399 9cbc 20b1 97bd 1ddc 173d
00000250: e9cc c0bd 9b96 aabc 7459 0c3d 0eea 8abd
00000260: 1ac4 05bd 8a56 643d fbde 743d 106d 8d3d
00000270: 6c40 383e c468 3d3d 2b31 21bc 1f01 49bd
00000280: 3dc9 1bbb 3382 123d 842b 303d 7f67 d3bd
00000290: c358 cc3d 9bac 53bd 9682 50bc f1ce 103c
000002a0: c2b0 80bc f139 1abd 59df 11be 13f7 473d
000002b0: 2b00 03ba 5557 a63d 6c67 66bd b43d 903c
000002c0: a2cd 7abb 014a 193d ed10 ff3c 2c77 fdbd
000002d0: ce1d ad3d dc8a 333d 0eb3 8fbd f985 7e3d
000002e0: e3cf 3fbd a0ca a1bd 2ae6 22bc 6e83 1bbd
000002f0: bb23 1a3b 94b8 09bc 2eb3 71bd 84ad 7ebc
00000300: d696 153d 43ba 86bd 377e a5bc ca91 05bc
00000310: c44e a43d 4554 0cbe 895e 24be 37fd a5bd
00000320: 6f8c 48bd f199 e0bc af41 eebc f96e ddbd
00000330: 0333 abbc 1bcc a5bc a192 e03c f1bc 89bc
00000340: 1e93 dcbd a433 193c 2d1b f03d 12f0 003e
00000350: 7ca0 b2bc 10fd f5bd f75c 133d 93ce 0bbe
00000360: 48fe c53c 0c02 09bd ae02 babb 1122 00be
00000370: 3fbd 153d f878 02bd 85cf c3bc ae94 dabd
00000380: e913 283b 7267 31bd 07e4 b5bd cc86 16bb
00000390: 05e0 d5bd 7e44 87bd d418 713c c5f5 9bbd
000003a0: 7a38 0e3d 49bc 13bd 28be 26bc 9c37 73bd
000003b0: f8f0 95bd d4d1 61bc b21f 873d 837a 56bd
000003c0: 639d dd3c 9e35 aabd 206a 14bc 753b 85bd
000003d0: c9de a43d 42de 953d 63be 4cbc 93f5 12bc
000003e0: 683a bcbd 8310 90bd 6a89 163d b9d5 0dbc
000003f0: b51f f73c 2668 903a 92fd e43c 3594 eb3c

module.bi_lstm1.weight_hh_l0 f4 [64, 16]
-0.0046691666 0.032453027 0.02222303 0.013949039 -0.043602824 0.0006549487 0.00017349307 -0.0030848233
-0.0064595444 0.010439056 -0.00037249704 -0.069167495 0.00033203326 0.01891789 0.055734716 -0.0185983
0.021590903 -0.011171937 -0.0074560232 0.02425449 0.0017970738 -0.011293048 0.015115694 0.019743893
-0.02102929 0.03233654 -0.00027381434 -0.027450576 -0.0015997807 0.005309159 -0.00020536045 -0.033295996
-0.06896803 -0.027924776 0.11962598 -0.0069412705 0.022304837 -0.06336914 -0.10389953 0.0057768924
-0.1188105 -0.09125169 -0.08383312 -0.03660088 -0.001151173 -0.0028904905 -0.06620761 -0.07343048
-0.030715156 0.01685343 -0.011715621 -0.015959198 0.057768766 0.011226387 -0.050574105 -0.047897417
0.10659865 -0.07123229 0.03456381 -0.018868618 -0.06757411 -0.014782221 0.029839523 -0.003320249
0.0125353085 0.09671194 0.002509988 -0.021534633 -0.024609102 -0.0007574428 0.016537001 0.04162207
-0.056747455 0.08261669 0.0038894808 0.1188607 0.020225888 0.08551993 0.06479696 -0.045320123
-0.0036025986 0.018852325 -0.026570614 -0.010521086 0.0034808605 0.0075734025 0.004854173 0.003894372
0.0016980435 -0.0068616024 -0.009715865 0.00070780824 0.0025571825 0.06696288 -0.005094027 -0.0039253
-0.0029462848 -0.0022789084 0.044862293 0.0011373218 0.00909343 -0.0011786524 -0.0035032684 -0.0026924682
-0.0070854505 0.0072871884 -0.0008363187 0.0061978847 -0.0010399002 0.003742066 -0.0039599496 -0.02351932
-0.009982762 -0.0007797967 0.078410566 -0.002771733 0.0044896025 -0.0007470855 0.00230621 0.068737134
-0.0007139122 -0.0005381344 -0.005929354 -0.003913535 -0.002115794 -9.1864764e-05 -0.0554928 -0.0015432553
-0.07710868 0.00020247951 0.005037654 0.018027062 -0.039604444 -0.010415342 -0.0043305596 -0.036715105
-0.041050486 -0.054449633 -0.01547197 0.09898972 -0.0067708357 -0.057062726 -0.05594212 -0.010998335
0.013082182 -0.00030463224 -0.0072184866 -0.10522879 -0.0694191 0.011870297 0.007512689 0.0065777097
0.0035303924 -0.019104254 0.01700627 -0.018129777 -0.038592473 0.037497416 -0.0042390623 0.01755939
-0.0026172535 -0.005471264 0.010370016 0.0021965073 -0.04490283 -0.0033707495 -0.002632189 -0.038056284
-0.057013 0.01760377 0.010532742 -0.05938235 -0.0032867626 0.006979501 0.0046548834 -0.0065505165
-0.08671355 0.13012503 0.1314474 -0.07821481 0.025487183 0.014437511 0.020494461 0.01655146
-0.0260868 0.0409299 -0.008564494 -0.102487825 0.07518046 -0.008406128 0.1256958 0.029209819
0.006770176 0.0077514737 0.0035232755 0.02806426 -0.0045730215 -0.022395488 0.04775334 -0.0006793955
0.029875048 -0.121124685 0.05142743 0.044676866 -0.0020649107 -0.002019636 0.046364404 0.0013571775
0.016568178 -0.0021724533 0.0059677637 0.0013180034 -0.0073033622 0.027589174 -0.0052490616 -0.029409563
-0.010147608 0.009820372 -0.001353646 -0.026075073 -0.0014952089 0.0041604512 0.03383583 -0.0021544516
-0.045376457 -0.007916207 0.013577522 0.057020772 -0.0062066377 -0.007920154 0.005081816 -0.07494343
-0.11724769 0.010231215 -0.019644056 0.012869712 0.00054750807 0.09371655 -0.006030013 0.0281424
-0.02006799 0.0022995227 -0.045799382 0.0032495463 0.010078777 -0.0061539034 -0.011883297 -0.07384997
0.031820435 0.008863762 0.02244327 0.06219279 -0.020457989 0.034704894 0.040480822 -0.033927448
00000000: cfff 98bb 77ed 043d 120d b63c 838a 643c
00000010: e098 32bd ddb0 2b3a b1eb 3539 bf2a 4abb
00000020: 96aa d3bb 9308 2b3c b54b c3b9 b0a7 8dbd
00000030: c014 ae39 b1f9 9a3c 164a 643d 765b 98bc
00000040: 68df b03c 800a 37bc a851 f4bb 5ab1 c63c
00000050: ca8b eb3a 7a06 39bc d1a7 773c f2bd a13c
00000060: 9e45 acbc 5273 043d bd8e 8fb9 08e0 e0bc
00000070: bcaf d1ba 74f8 ad3b 0756 57b9 6261 08bd
00000080: 1c3f 8dbd 80c2 e4bc 77fe f43d 9973 e3bb
00000090: a2b8 b63c aec7 81bd 47c9 d4bd 164c bd3b
000000a0: eb52 f3bd 2be2 babd b3b0 abbd ceea 15bd
000000b0: f5e2 96ba 626e 3dbb db97 87bd b862 96bd
000000c0: 5a9e fbbc 3410 8a3c e0f2 3fbc ddbc 82bc
000000d0: f19e 6c3d e1ee 373c cb26 4fbd 1530 44bd
000000e0: 6550 da3d 3ce2 91bd c892 0d3d 5c92 9abc
000000f0: 4c64 8abd 2131 72bc 0472 f43c 8998 59bb
00000100: e560 4d3c e910 c63d 9c7e 243b 6669 b0bc
00000110: 0799 c9bc 208f 46ba 9b78 873c e77b 2a3d
00000120: 0570 68bd f032 a93d a9e6 7e3b 3d6d f33d
00000130: c3b0 a53c 1325 af3d 45b4 843d 98a1 39bd
00000140: 9319 6cbb 3170 9a3c 9eaa d9bc a260 2cbc
00000150: 261f 643b 4e2a f83b c10f 9f3b b838 7f3b
00000160: e390 de3a 4bd7 e0bb 4b2f 1fbc 358c 393a
00000170: 6796 273b d623 893d cceb a6bb ce9f 80bb
00000180: 7516 41bb bd59 15bb 86c1 373d 3012 953a
00000190: 9cfc 143c 037d 9aba 1797 65bb 1f74 30bb
000001a0: 112d e8bb 5ec9 ee3b 663c 5bba a017 cb3b
000001b0: 434d 88ba 733d 753b 77c2 81bb 97ab c0bc
000001c0: bd8e 23bc 456b 4cba b895 a03d f7a5 35bb
000001d0: 841d 933b 0fd8 43ba c923 173b 0ec6 8c3d
000001e0: d625 3bba 9711 0dba 074b c2bb 1c3d 80bb
000001f0: 22a9 0abb 85a7 c0b8 6b4c 63bd 0e47 caba
00000200: 28eb 9dbd ae50 5439 e812 a53b 7dad 933c
00000210: 4538 22bd 1ca5 2abc 5ee7 8dbb 9462 16bd
00000220: 8e24 28bd 9406 5fbd 257e 7dbc 1fbb ca3d
00000230: e3dd ddbb 9bba 69bd 9023 65bd 5c32 34bc
00000240: a656 563c 0cb7 9fb9 0e89 ecbb 3182 d7bd
00000250: 9a2b 8ebd a27b 423c 012d f63b d489 d73b
00000260: 285e 673b 8680 9cbc bc50 8b3c e684 94bc
00000270: 2413 1ebd e496 193d d5e7 8abb b6d8 8f3c
00000280: 3a86 2bbb 4a48 b3bb 00e7 293c 47f3 0f3b
00000290: 08ec 37bd cbe7 5cbb ce80 2cbb e8e0 1bbd
000002a0: 7786 69bd c835 903c 8691 2c3c e83a 73bd
000002b0: ba66 57bb 4cb4 e43b fe87 983b b7a5 d6bb
000002c0: e096 b1bd 7f3f 053e 269a 063e 162f a0bd
000002d0: 7fca d03c 4f8b 6c3c 00e4 a73c ed96 873c
000002e0: fcb3 d5bc 1ca6 273d 1752 0cbc 23e5 d1bd
000002f0: 37f8 993d dbb9 09bc 66b6 003e 6e49 ef3c
00000300: 5ad8 dd3b 1300 fe3b c1e6 663b 05e7 e53c
00000310: 49d9 95bb be76 b7bc 0299 433d 7619 32ba
00000320: 84bc f43c 3810 f8bd 92a5 523d 17ff 363d
00000330: 7453 07bb df5b 04bb 9ae8 3d3d 52e3 b13a
00000340: fdb9 873c b85f 0ebb 3b8d c33b dbc0 ac3a
00000350: 0b51 efbb b102 e23c 5200 acbb 53ec f0bc
00000360: 2742 26bc a0e5 203c d36c b1ba 649b d5bc
00000370: e3fa c3ba 6554 883b 7097 0a3d b331 0dbb
00000380: aadc 39bd fbb2 01bc 4174 5e3c 9d8e 693d
00000390: 0d61 cbbb 89c3 01bc 5d85 a63b f17b 99bd
000003a0: 8f1f f0bd d3a0 273c 92ec a0bc 7cdb 523c
000003b0: a586 0f3a 76ee bf3d 6a97 c5bb e48a e63c
000003c0: a065 a4bc 97b3 163b 2298 3bbd 57f6 543b
000003d0: 7421 253c afa6 c9bb 29b2 42bc a73e 97bd
000003e0: 2556 023d 5039 113c f3da b73c debd 7e3d
000003f0: 8397 a7bc b826 0e3d 38cf 253d 82f7 0abd

module.bi_lstm1.bias_ih_l0 f4 [64]
-0.11422742 0.02439242 -0.05841973 -0.062129367 0.1281045 0.0027765802 -0.031798497 0.060884565
0.11582472 0.15084359 -0.035324574 -0.019171571 0.024084281 -0.023123713 0.0009301333 0.014080446
-0.060184114 -0.059416063 -0.042601086 0.13359989 -0.029688988 0.09799629 -0.019898104 0.016282436
-0.051400363 0.13315342 -0.04617711 0.01975112 -0.09573986 0.086806245 -0.108165726 0.0033893217
0.07663979 0.0033150364 0.12513031 -0.07380852 -0.16314577 -0.055076096 0.09319855 0.073628984
0.1365648 0.08362847 0.16020854 0.032327358 0.1359362 -0.08767177 -0.010591485 -0.08827444
-0.056846928 0.04035635 0.035662595 -0.11489646 -0.05869167 0.1050559 0.069791175 -0.108534895
-0.017240984 0.02453186 -0.03648798 0.051823784 0.0035589663 -0.08209544 0.026661359 0.05962691
00000000: 11f0 e9bd 9dd2 c73c 8749 6fbd 5d7b 7ebd
00000010: d32d 033e 49f7 353b 243f 02bd 1862 793d
00000020: 8335 ed3d be76 1a3e 80b0 10bd b30d 9dbc
00000030: 664c c53c f16d bdbc 30d4 733a acb1 663c
00000040: 9e83 76bd 425e 73bd 7a7e 2ebd 69ce 083e
00000050: 5236 f3bc 47b2 c83d 5901 a3bc be62 853c
00000060: 3089 52bd 5f59 083e 3624 3dbd 1acd a13c
00000070: 4213 c4bd 79c7 b13d fe85 ddbd 621f 5e3b
00000080: 52f5 9c3d 1541 593b 2922 003e ec28 97bd
00000090: af0f 27be 7997 61bd e2de be3d cbca 963d
000000a0: a5d7 0b3e 6745 ab3d b50d 243e b169 043d
000000b0: dc32 0b3e 428d b3bd e887 2dbc 3bc9 b4bd
000000c0: 53d8 68bd b34c 253d f112 123d d64e ebbd
000000d0: ad66 70bd 8c27 d73d adee 8e3d 8b47 debd
000000e0: f73c 8dbc 0af7 c83c 6c74 15bd 2d45 543d
000000f0: 8c3d 693b a721 a8bd ec68 da3c 593b 743d

module.bi_lstm1.bias_hh_l0 f4 [64]
-0.025317311 0.00090518425 0.0801007 0.039483417 0.0359701 -0.135792 0.0012737487 -0.058993544
0.10246404 0.1279843 0.007950489 0.05294704 -0.0001585514 -0.03427484 0.012371908 0.041396737
-0.012598765 -0.079720415 0.0060109445 0.027535435 0.025222866 0.108752355 0.04192266 0.009136416
-0.012675258 0.018812614 0.101529524 0.046965785 0.009580135 -0.015080521 0.014114536 -0.06490265
0.075291984 0.13652363 0.09608206 0.07960136 -0.17603098 0.024356406 0.054303374 -0.026010312
-0.027621586 -0.0149008455 -0.027329445 -0.039896794 0.14488178 -0.061836384 -0.1904512 -0.055514652
-0.01872085 -0.013652573 0.103509255 0.048653252 -0.13721998 0.013388293 -0.07263095 -0.023603566
-0.15278725 0.030023186 -0.13527398 0.0035067094 0.029132634 0.002521553 0.08225422 0.0599126
00000000: 4066 cfbc e349 6d3a d60b a43d 5db9 213d
00000010: 6255 133d 0f0d 0bbe eaf3 a63a 37a3 71bd
00000020: abd8 d13d 510e 033e c542 023c ffde 583d
00000030: d140 26b9 c663 0cbd 8bb3 4a3c a08f 293d
00000040: 0d6b 4ebc 7544 a3bd 75f7 c43b fe91 e13c
00000050: 2fa0 ce3c 8eb9 de3d 18b7 2b3d e8b0 153c
00000060: e3ab 4fbc e91c 9a3c b6ee cf3d 325f 403d
00000070: 00f6 1c3c 4a14 77bc a840 673c aeeb 84bd
00000080: af32 9a3d dacc 0b3e acc6 c43d 0a06 a33d
00000090: 7741 34be 1687 c73c 376d 5e3d 9413 d5bc
000000a0: aa46 e2bc ad22 74bc 00e2 dfbc d26a 23bd
000000b0: e45b 143e 2648 7dbd a405 43be 5563 63bd
000000c0: 785c 99bc 0baf 5fbc a9fc d33d a248 473d
000000d0: 6583 0cbe 925a 5b3c 89bf 94bd 445c c1bc
000000e0: 4374 1cbe 2ff3 f53c 4385 0abe d2d0 653b
000000f0: 90a7 ee3c a440 253b e774 a83d ea66 753d

module.bi_lstm1.weight_ih_l0_reverse f4 [64, 14]
-0.05145531 -0.083396785 0.010232593 -0.035676695 0.0966357 -0.04003153 -0.08749101 0.046664007
0.042305235 0.030436104 0.03965689 -0.017774062 0.07227225 0.1363143 -0.015908672 -0.009517935
0.054333117 -0.04120833 0.0036022142 -0.061651323 -0.04582866 -0.004326499 0.04187108 0.0118738655
0.071670905 0.028685885 -0.09405008 -0.08861333 0.064025216 0.06345722 0.10120083 0.047129158
0.080125734 0.040299024 0.035153795 0.05579757 0.054498266 0.020552006 -0.12675121 0.016375845
-0.09806261 0.004501991 0.08534594 0.14538127 -0.041184515 0.14651681 0.06637689 0.07121367
0.12829164 -0.024447676 0.06050852 0.07348562 0.039233413 0.15540603 0.116899125 0.066435024
0.064283215 0.0719539 0.11288987 0.058206655 0.07424569 -0.086194605 -0.095239855 -0.05008579
0.0875376 -0.11517871 0.031855635 0.07436437 -0.08287153 0.029713882 0.15184946 -0.031521387
-0.111335605 0.004691862 0.006866737 -0.007445846 0.05528657 -0.07907908 -0.04130972 -0.06257207
0.12385362 -0.05639174 0.1293426 0.074699566 0.01690561 0.080420285 0.0540268 -0.010831924
0.060193364 -0.11153629 -0.08235067 -0.008215108 -0.0020496 -0.026381858 0.09075545 0.014644688
-0.071093254 0.029526899 -0.03923897 0.08777262 0.058906395 0.03423823 -0.100474946 0.006480351
-0.07235353 0.07868731 0.008643135 -0.0037659146 -0.015507137 0.14597999 -0.010894021 0.019617587
-0.037741553 0.071046725 0.13033055 0.091746986 0.051716812 -0.05692353 -0.09803621 0.042614877
0.024365544 -0.018479904 0.06579538 -0.030601088 0.08231318 0.003831193 0.048560992 0.016709296
0.037796505 0.03572762 -0.08945462 0.0909115 0.047179252 0.13142008 0.05108566 0.1298145
-0.08907985 0.036658425 -0.062934995 -0.1020763 -0.034011137 0.09794213 -0.015863713 -0.016495772
-0.01188371 -0.078395836 -0.1483934 -0.0132475775 0.09652287 -0.05352001 -0.08384613 0.047077708
0.028487777 -0.087943204 0.0748986 0.07093375 0.10543138 0.0674018 0.06953781 -0.104087345
0.12844832 0.02689617 0.06774861 0.0084387995 0.05287911 0.11197223 -0.10097438 -0.046274986
0.06122337 0.08634719 0.06451672 0.09759222 0.0073424033 0.1446364 0.12627546 0.050690413
0.056735292 -0.011574276 0.075308755 0.043184686 0.14499477 0.051141456 -0.022122977 -0.021892246
-0.017489685 -0.007287193 -0.011191186 -0.0064774523 -0.031463984 -0.0071147894 -0.024972418 0.0091060065
-0.030120438 -0.0055177086 -0.03998938 0.022405338 0.06895793 0.073594995 0.04885312 0.05922895
0.059292115 -0.09073961 0.07716038 0.05511014 0.03153145 -0.019741155 0.038163863 0.056012604
0.15637703 0.051658325 -0.042695977 -0.0271087 0.14164406 0.11401245 0.059629742 0.08396344
-0.077525 0.13916895 0.04657683 0.07511585 -0.0033478397 0.06114242 0.0623677 -0.10516437
0.057272285 -0.00016665342 0.065368906 0.04654513 0.04287355 0.05301317 0.06441225 0.10183601
-0.08007103 -0.022446308 -0.08413717 0.109951854 0.13860811 -0.007854936 0.03365733 0.08940558
-0.0137131475 -0.0011863414 0.110871196 0.009579961 -0.0062537077 -0.065159544 0.026707733 0.014573505
0.042995654 0.061869506 -0.06492132 0.044590812 0.0065407874 0.066138454 0.090703696 0.06877916
00000000: cec2 52bd efcb aabd 9ba6 273c ba21 12bd
00000010: f0e8 c53d 1af8 23bd 7d2e b3bd c222 3f3d
00000020: 4148 2d3d 2355 f93c 436f 223d e99a 91bc
00000030: 7903 943d fa95 0b3e e752 82bc 1df1 1bbc
00000040: 678c 5e3d 11ca 28bd 2013 6c3b 1986 7cbd
00000050: d5b6 3bbd 4ec5 8dbb 0281 2b3d 9a8a 423c
00000060: 32c8 923d a9fe ea3c 549d c0bd e87a b5bd
00000070: a71f 833d dcf5 813d 6142 cf3d 810a 413d
00000080: f618 a43d 9710 253d 6dfd 0f3d fe8b 643d
00000090: 9339 5f3d ae5c a83c 12cb 01be a326 863c
000000a0: 0dd5 c8bd 7085 933b dac9 ae3d d4de 143e
000000b0: 18b1 28bd 8108 163e 9bf0 873d 79d8 913d
000000c0: e25e 033e 7e46 c8bc c8d7 773d a17f 963d
000000d0: 37b3 203d c222 1f3e cf68 ef3d 160f 883d
000000e0: eba6 833d 915c 933d ce32 e73d 1a6a 6e3d
000000f0: 200e 983d cc86 b0bd 1d0d c3bd c226 4dbd
00000100: ea46 b33d d1e2 ebbd 0e7b 023d 594c 983d
00000110: 8cb8 a9bd 876a f33c 6d7e 1b3e 921c 01bd
00000120: ec03 e4bd 31be 993b 5d02 e13b 49fc f3bb
00000130: 2c74 623d 36f4 a1bd 6234 29bd c925 80bd
00000140: f7a6 fd3d 06fb 66bd 6372 043e 16fc 983d
00000150: a27d 8a3c 64b3 a43d 354b 5d3d 6278 31bc
00000160: 518d 763d 236d e4bd 78a7 a8bd a998 06bc
00000170: 9552 06bb c41e d8bc fedd b93d 46f0 6f3c
00000180: 5799 91bd 65e2 f13c 0bb9 20bd 22c2 b33d
00000190: d547 713d 633d 0c3d cfc5 cdbd 2059 d43b
000001a0: 162e 94bd d026 a13d f09b 0d3c 90cd 76bb
000001b0: a611 7ebc c77b 153e d67c 32bc 10b5 a03c
000001c0: e396 1abd f280 913d 5f75 053e d8e5 bb3d
000001d0: 02d5 533d a628 69bd 35c7 c8bd f08c 2e3d
000001e0: 409a c73c 2b63 97bc babf 863d 22af fabc
000001f0: d093 a83d c114 7b3b e4e7 463d efe1 883c
00000200: 82d0 1a3d 2057 123d fc33 b7bd cf2f ba3d
00000210: 083f 413d fc92 063e 323f 513d 18ee 043e
00000220: 7f6f b6bd 2527 163d 10e4 80bd 610d d1bd
00000230: 434f 0bbd e295 c83d 9ef4 81bc 2422 87bc
00000240: e4b3 42bc ff8d a0bd 70f4 17be 5e0c 59bc
00000250: c8ad c53d cc37 5bbd 85b7 abbd 8ed4 403d
00000260: 335f e93c 911b b4bd 7064 993d b745 913d
00000270: 68ec d73d f409 8a3d d769 8e3d bf2b d5bd
00000280: f587 033e 5b55 dc3c c9bf 8a3d e442 0a3c
00000290: c497 583d b251 e53d a8cb cebd d78a 3dbd
000002a0: 5bc5 7a3d ccd6 b03d 5821 843d 6ede c73d
000002b0: 8b98 f03b 901b 143e 5b4e 013e c0a0 4f3d
000002c0: 4463 683d 08a2 3dbc 7a3b 9a3d 6de2 303d
000002d0: 8279 143e b479 513d 3f3b b5bc 5e57 b3bc
000002e0: 8746 8fbc 68c9 eebb 3c5b 37bc cf40 d4bb
000002f0: 61e0 00bd 2e23 e9bb f592 ccbc 5c31 153c
00000300: 23bf f6bc e5cd b4bb e7cb 23bd 668b b73c
00000310: d139 8d3d f9b8 963d 361a 483d 0e9a 723d
00000320: 4adc 723d b0d5 b9bd 4306 9e3d 2cbb 613d
00000330: 1f27 013d 34b8 a1bc b651 1c3d 796d 653d
00000340: 4d21 203e ae97 533d fae1 2ebd 1013 debc
00000350: 240b 113e 5c7f e93d 513e 743d 06f5 ab3d
00000360: 6dc5 9ebd 4e82 0e3e 59c7 3e3d 57d6 993d
00000370: 6e67 5bbb 7970 7a3d 4675 7f3d 6b60 d7bd
00000380: 5896 6a3d b0bf 2eb9 22e0 853d 1ba6 3e3d
00000390: 2d9c 2f3d 5624 593d 92ea 833d 668f d03d
000003a0: 48fc a3bd 52e1 b7bc 1c50 acbd 702e e13d
000003b0: 49ef 0d3e fdb1 00bc 45dc 093d 461a b73d
000003c0: 1cad 60bc 037f 9bba 7010 e33d 45f5 1c3c
000003d0: e7eb ccbb 5e72 85bd 2dca da3c b6c5 6e3c
000003e0: 361c 303d e16a 7d3d 78f5 84bd dba4 363d
000003f0: 1a54 d63b 9973 873d dcc2 b93d 17dc 8c3d

module.bi_lstm1.weight_hh_l0_reverse f4 [64, 16]
0.02324973 -0.0007184781 -0.06294658 -0.062815815 0.027451452 -0.023750903 -0.041449655 0.021345053
0.06286344 -0.0027410174 0.08149681 -0.057875074 -0.042421207 0.03908487 -0.048514444 -0.056296587
-0.056658886 -0.04584865 0.0122023085 0.014689114 -0.0061580115 -0.029875241 -0.05037606 0.00046181897
-0.095805205 -0.008314696 -0.09893224 0.0778401 0.09241753 -0.009157387 -0.014367938 -0.047267113
0.045386814 -0.0904451 0.050144125 -0.13073689 0.09612407 -0.015196875 -0.09608903 0.033770937
0.023535984 -0.1011885 -0.07718324 -0.06341529 0.100972936 0.05664521 0.12585644 0.15386331
-0.079223655 -0.020990789 0.04523535 -0.060606997 0.10885554 0.026107129 -0.095146425 0.06131113
-0.026605686 -0.051622294 -0.044223603 0.053676467 0.0056099836 0.011157595 0.12738681 0.14869416
0.04307334 -0.0085245 0.07094461 0.07524448 -0.10523887 -0.025988275 0.08204504 0.15278268
0.004913258 -0.049622696 -0.014771532 -0.058568712 -0.09978817 -0.016780391 0.0062429956 0.016534863
0.046190303 0.03456203 -0.072352774 0.05102342 -0.015214722 0.052248813 -0.010574692 0.032897405
0.10435399 -0.03573525 -0.07418603 -0.040735725 0.033951215 0.043945763 0.035407 -0.020422287
-0.029504256 0.026161473 -0.026177468 0.04960195 0.012636247 -0.016745843 0.0039492124 -0.003920103
0.0033423896 -0.023269389 -0.0042257006 -0.09776551 0.020491691 0.002270812 -0.00576479 0.06950226
0.07163455 0.0048970934 -0.1372526 -0.03935624 -0.11519714 0.027505632 -0.025029985 -0.009690754
-0.030208632 -0.044891533 -0.05591438 0.007235887 -0.10495712 -0.00062379986 -0.08069328 0.03999033
-0.06294588 0.011615341 0.005093415 -0.0033506313 0.0821215 0.09474627 0.02407102 0.018010939
0.06317949 -0.071527645 -0.008415669 -0.15262844 -0.015112833 0.009328205 0.029598074 0.028749442
-0.035755232 0.048324227 -0.14653727 -0.06679957 0.036390632 0.03476543 -0.08242136 0.11328182
0.06457343 -0.031781144 -0.043441325 -0.08358971 -0.020402694 -0.010381024 0.03199502 -0.060371228
-0.10963729 -0.0025864958 0.01651994 0.049258284 0.11993557 0.026391184 -0.02297173 0.0046190694
0.0094418125 -0.022007015 -0.087681875 0.055433217 0.060806338 0.013460156 0.056267973 -0.029657574
0.0525722 -0.047067005 -0.15004651 -0.08009208 0.1464234 0.14843594 0.15621696 0.16433796
0.0583261 0.07624468 -0.029494898 0.018737292 -0.06965348 -0.045013275 0.067945 0.047094956
0.04622764 0.032278758 0.08306137 -0.103258245 0.0024364055 -0.067546174 0.11327375 0.15267166
0.032807264 -0.014072937 -0.040241357 -0.054984145 -0.018591804 0.05895401 0.15331939 0.043352563
-0.005743739 -0.00065596413 0.0028758913 -0.014442403 0.022681719 -0.0006153873 0.0039542634 -0.0023422525
-0.024244664 0.0007250154 0.025595281 -0.0076222536 -0.00034995223 -0.0014876769 0.006145063 -0.0030292429
0.051204752 -0.01963887 -0.0025668915 -0.0503092 -0.054893 -0.008543328 0.061308492 0.09277127
-0.005835268 0.045793578 0.0013023708 0.102124706 -0.063896015 0.0016578301 0.048601676 -0.05159381
0.012297983 -0.019222528 -0.05217025 -0.06335986 0.09188373 -0.044949666 -0.033551324 -0.08824094
0.058119252 -0.039584916 -0.057161976 0.040161245 -0.12457724 0.015235915 0.047714584 0.16320021
00000000: 3876 be3c 4058 3cba 23ea 80bd 94a5 80bd
00000010: dee1 e03c 4191 c2bc 1dc7 29bd d2db ae3c
00000020: 8cbe 803d a4a2 33bb cde7 a63d 6a0e 6dbd
00000030: dcc1 2dbd 7517 203d 15b7 46bd 4097 66bd
00000040: 2613 68bd cbcb 3bbd 31ec 473c 9caa 703c
00000050: 25c9 c9bb ecbc f4bc 2157 4ebd 4b20 f239
00000060: 8535 c4bd 5d3a 08bc fc9c cabd a16a 9f3d
00000070: 6745 bd3d dd08 16bc 8067 6bbc 299b 41bd
00000080: 86e7 393d 483b b9bd ed63 4d3d e4df 05be
00000090: b2dc c43d 50fc 78bc 53ca c4bd 6553 0a3d
000000a0: 89ce c03c eb3b cfbd 3f12 9ebd e0df 81bd
000000b0: e6ca ce3d cf04 683d 83e0 003e 588e 1d3e
000000c0: 0340 a2bd e0f4 abbc b448 393d 0b3f 78bd
000000d0: a7ef de3d 9ede d53c 21dc c2bd 6121 7b3d
000000e0: 2bf4 d9bc e671 53bd cf23 35bd dbdb 5b3d
000000f0: f4d3 b73b 58ce 363c b071 023e 4843 183e
00000100: ac6d 303d 58aa 0bbc 684b 913d c719 9a3d
00000110: 7a87 d7bd 5de5 d4bc 3b07 a83d 1073 1c3e
00000120: 65ff a03b 2b41 4bbd 4c04 72bc bfe5 6fbd
00000130: bd5d ccbd 0877 89bc 0b92 cc3b 1f74 873c
00000140: 0b32 3d3d ea90 0d3d b12d 94bd effd 503d
00000150: 2b47 79bc da02 563d 7941 2dbc 6ebf 063d
00000160: 8bb7 d53d 205f 12bd d8ee 97bd 81da 26bd
00000170: 6e10 0b3d 7900 343d ee06 113d a44c a7bc
00000180: e9b2 f1bc 9650 d63c 2172 d6bc 6a2b 4b3d
00000190: 4308 4f3c 942e 89bc 6568 813b 3574 80bb
000001a0: fe0b 5b3b 729f bebc bf77 8abb 4939 c8bd
000001b0: 31de a73c e7d1 143b 90e6 bcbb 3357 8e3d
000001c0: 23b5 923d cc77 a03b f28b 0cbe 0234 21bd
000001d0: 7aec ebbd 7e53 e13c af0b cdbc f8c5 1ebc
000001e0: 1878 f7bc 2fe0 37bd 7a06 65bd 051b ed3b
000001f0: c2f3 d6bd 8086 23ba 8542 a5bd e6cc 233d
00000200: c5e9 80bd 454e 3e3c a9e6 a63b 4496 5bbb
00000210: 512f a83d 550a c23d 9630 c53c ad8b 933c
00000220: 4064 813d 167d 92bd e0e1 09bc a14a 1cbe
00000230: d19b 77bc 54d5 183c a977 f23c f383 eb3c
00000240: 1474 12bd a0ef 453d de0d 16be 37ce 88bd
00000250: 580e 153d 3266 0e3d 88cc a8bd 4d00 e83d
00000260: 133f 843d f22c 02bd 88ef 31bd 1531 abbd
00000270: 8d23 a7bc 2c15 2abc 360d 033d d247 77bd
00000280: 8489 e0bd 3382 29bb d354 873c 0ec3 493d
00000290: c8a0 f53d 5332 d83c 362f bcbc 905b 973b
000002a0: d5b1 1a3c 0e48 b4bc 8e92 b3bd f10d 633d
000002b0: 1110 793d fc87 5c3c 3f79 663d 71f4 f2bc
000002c0: f255 573d 55c9 40bd cba5 19be 5107 a4bd
000002d0: 04f0 153e 97ff 173e 57f7 1f3e 3648 283e
000002e0: 59e7 6e3d 2c26 9c3d 499f f1bc f37e 993c
000002f0: 7ca6 8ebd d75f 38bd c026 8b3d a4e6 403d
00000300: 3259 3d3d bb36 043d 141c aa3d 0f79 d3bd
00000310: 1aac 1f3b a655 8abd 11fc e73d f655 1c3e
00000320: e960 063d 2d92 66bc 1fd4 24bd 0e37 61bd
00000330: d74d 98bc c379 713d c2ff 1c3e 7592 313d
00000340: fa35 bcbb 02f5 2bba 7379 3c3b d49f 6cbc
00000350: 03cf b93c f151 21ba c492 813b 7a80 19bb
00000360: bf9c c6bc f60e 3e3a 32ad d13c 19c4 f9bb
00000370: cb79 b7b9 27fe c2ba 865c c93b 4386 46bb
00000380: 13bc 513d b2e1 a0bc 4b39 28bb 0511 4ebd
00000390: 7bd7 60bd 51f9 0bbc 9d1e 7b3d ddfe bd3d
000003a0: c735 bfbb 0c92 3b3d 50b4 aa3a c226 d13d
000003b0: eadb 82bd 8c4b d93a 8d12 473d 0854 53bd
000003c0: 7b7d 493c 9078 9dbc 79b0 55bd d0c2 81bd
000003d0: 892d bc3d 241d 38bd 1d6d 09bd aab7 b4bd
000003e0: 740e 6e3d cb23 22bd ad22 6abd 1e80 243d
000003f0: 5a22 ffbd 0fa0 793c 5e70 433d f51d 273e

module.bi_lstm1.bias_ih_l0_reverse f4 [64]
0.042563736 -0.05144668 0.039459985 -0.023948887 0.041758787 0.03627517 0.049179602 0.020124765
-0.06202806 0.06797586 0.08151081 0.15224387 0.100207105 -0.06846315 0.102210686 0.05359625
0.10530311 0.0138096735 -0.10383402 0.106589876 0.04274955 0.038206402 -0.0028109134 -0.1427401
-0.056357 0.06877149 -0.116874866 -0.11572836 -0.047784314 -0.025950555 0.020288067 0.14347655
-0.1304003 0.08844499 0.060314447 0.1302633 0.0056455135 -0.14586926 -0.0016976194 0.09969414
-0.20670941 0.08511292 -0.19316882 -0.013168911 0.16993251 0.06898277 -0.16620673 0.063453756
0.040183943 -0.08251064 0.102497764 0.18698142 0.10472037 -0.019353865 -0.0154341925 -0.16437906
-0.06520282 0.059626687 0.13998653 0.10242383 0.04398982 -0.024539717 0.13166566 0.018795542
00000000: 5057 2e3d c1b9 52bd cba0 213d 7530 c4bc
00000010: 430b 2b3d 4695 143d 8d70 493d b1dc a43c
00000020: 2311 7ebd ed36 8b3d 24ef a63d d1e5 1b3e
00000030: 6239 cd3d 6836 8cbd d653 d13d be87 5b3d
00000040: 28a9 d73d f841 623c eea6 d4bd cb4b da3d
00000050: 271a 2f3d 517e 1c3d 4d37 38bb 762a 12be
00000060: 99d6 66bd 11d8 8c3d 175c efbd fe02 edbd
00000070: 7cb9 43bd 4296 d4bc 2933 a63c 84eb 123e
00000080: a887 05be a622 b53d 480c 773d be63 053e
00000090: 00fe b83b c05e 15be a882 deba 712c cc3d
000000a0: a2ab 53be af4f ae3d 0cce 45be 6bc2 57bc
000000b0: ca02 2e3e d746 8d3d 1932 2abe 0bf4 813d
000000c0: eb97 243d 57fb a8bd 59ea d13d 0f78 3f3e
000000d0: a277 d63d ff8b 9ebc b2df 7cbc fc52 28be
000000e0: 0e89 85bd 1d3b 743d a158 0f3e 96c3 d13d
000000f0: ab2e 343d 8407 c9bc 5dd3 063e 1cf9 993c

module.bi_lstm1.bias_hh_l0_reverse f4 [64]
0.06687095 -0.0453814 0.005569335 -0.059051733 0.012032177 0.03193742 -0.032067366 0.054280125
0.09796173 0.078879274 0.0094412975 0.10798702 0.07336207 -0.029173752 0.14490013 -0.104434304
0.13872078 -0.09056872 -0.049732566 0.15421748 -0.030987754 -0.0033362089 -0.0026416965 -0.11478086
0.020851098 0.14273705 0.13049902 -0.064794876 -0.04799465 -0.025536511 0.14600308 -0.033591338
-0.0709371 -0.13417947 0.007756055 0.065575436 0.12759735 -0.0692839 0.09719222 0.11311617
0.10609774 0.18089731 -0.15943386 0.036773752 0.108390555 0.024497803 -0.03548749 -0.19017597
0.040280513 -0.052529834 0.042420983 0.032095876 0.041019592 0.14361027 -0.047910288 0.1307859
-0.11666067 -0.03834983 -0.11275922 0.074379385 0.11131704 -0.013953088 -0.0378563 -0.018488863
00000000: a3f3 883d d9e1 39bd f87e b63b 3be0 71bd
00000010: 9c22 453c d0d0 023d 1259 03bd d654 5e3d
00000020: 29a0 c83d 758b a13d acaf 1a3c 4c28 dd3d
00000030: da3e 963d cbfd eebc b360 143e a7e1 d5bd
00000040: d20c 0e3e 187c b9bd 60b4 4bbd 30eb 1d3e
00000050: 08da fdbc 4ca4 5abb 5020 2dbb 3a12 ebbd
00000060: eccf aa3c a929 123e 89a1 053e 2db3 84bd
00000070: 0a96 44bd f231 d1bc d581 153e 1297 09bd
00000080: 7847 91bd 5866 09be 8126 fe3b 6a4c 863d
00000090: e1a8 023e b8e4 8dbd b70c c73d 73a9 e73d
000000a0: c649 d93d 253d 393e a142 23be 13a0 163d
000000b0: defb dd3d 9eaf c83c 555b 11bd 7dbd 42be
000000c0: 2efd 243d 8629 57bd a0c1 2d3d f776 033d
000000d0: 2904 283d 920e 133e 943d 44bd bdec 053e
000000e0: caeb eebd b614 1dbd 4eee e6bd 3854 983d
000000f0: 30fa e33d 7e9b 64bc 350f 1bbd f575 97bc

module.bi_lstm2.weight_ih_l0 f4 [128, 16]
0.004031185 0.00040212175 -0.0022646808 -0.0025248602 0.002966433 0.0011512245 -0.0028456247 0.0018156954
0.0009682857 -0.008516643 -0.002147898 -0.018580956 -0.0059258123 -4.4351855e-05 -0.002963238 0.0053316327
0.000891053 -0.0057377927 0.008723907 -0.006649644 0.0008864209 -0.004459883 0.0014724988 0.002301352
-0.011924483 -0.0006129715 -0.026200239 -0.03757819 0.01069466 0.0034385393 0.010775604 0.018354861
-0.0004119089 0.00069107645 0.00041446218 0.00051852927 -3.1923697e-05 -0.0016996192 0.002779055 0.00052351755
0.0014452365 0.0029130671 0.00027734094 -0.00039404616 0.0009812606 0.00019129018 0.001338689 -0.00036868124
0.0044886423 0.0024236012 -0.0055063777 -0.0071917176 0.0077120126 0.00895256 0.0060456195 -0.0029846397
-0.0019419222 -0.018352395 0.0076339296 -0.006683798 -0.024275351 0.0004974978 0.011763592 0.009143308
-0.0059377425 0.0042910576 0.007397457 0.012431875 -0.007914559 -0.0059527797 -0.00059779576 -0.004161501
-0.005212874 0.015341648 -0.0053994698 0.012492731 0.011179783 -0.00046527522 -0.011214306 -0.011353177
-0.0006335008 0.00019140913 0.0016244805 0.002999196 -9.0397196e-05 -0.001189637 0.0018556082 -0.0016395289
-0.0050057475 0.001126947 0.00062254065 0.0011388321 0.0012360489 0.00017361152 -0.00357612 -0.0020694935
0.0004219711 7.360566e-07 0.0028784978 -0.0038573528 0.0009441847 8.441533e-05 0.00027487957 0.0033497484
-0.0044083246 -0.0013762199 0.00063613936 -0.003855673 0.0012332216 0.00010845528 0.0014470757 -0.004963391
-0.0013766276 0.0001400268 -0.001464857 -0.00012059579 3.66504e-05 0.005585245 -0.0021873175 -0.00706681
0.0034876354 -0.0052707973 0.0007696022 -0.0036526392 -0.0043968908 0.0008152648 0.00026068863 0.0023062674
0.002101514 0.00031071933 -0.0025925394 -0.0037583364 0.0026480078 0.0028793886 0.0010900622 0.0034821609
0.0014124892 -0.005173259 -0.0007137007 -0.003495913 -0.002208473 -4.7571233e-05 0.0028370186 0.004738372
-0.003948679 -0.0008988964 0.0033252959 0.0042625377 -0.0032461137 -0.0022480928 0.0064869416 0.0039125113
-0.00018562253 0.0031500661 -0.0055151926 0.0038089026 0.004774691 -0.0009304953 0.0017028911 -5.1482337e-05
0.006364039 -6.33495e-05 -0.006501967 -0.01309907 0.004918465 0.0051429328 0.0050591878 -0.011570709
0.005105279 -0.009975795 -0.0012767633 -0.005689018 -0.016493129 0.00014714761 0.008146853 0.0030884054
0.0005483446 0.00038815194 -0.011130016 0.011823478 0.0089496 0.001614386 -0.013782621 0.011960338
0.011127416 -0.012586833 0.0006400471 1.4320044e-05 -0.009118712 0.00016218156 -0.0023985389 0.0034457953
0.002627831 0.0013466935 -0.0025846849 -0.0020284874 0.006463625 0.0026681663 -0.00043527907 0.00017656096
-0.009656291 -0.0049089007 0.0026664184 0.0027553593 -0.00622749 0.0009005031 0.0030657453 0.009009021
-3.949022e-05 -0.0005661058 2.9653402e-05 -0.0034560468 -0.0017723477 -0.000985024 0.00013760528 0.00541836
0.0012115971 -0.0054232273 -0.0034770346 -0.0015309383 -0.00069938984 -0.0006715986 -0.0017104965 -0.0003598159
-0.0034594454 0.00034064704 0.0061302776 0.0044220746 -0.0035412677 -0.006146945 -0.0007357197 -0.0039387965
-0.0018695629 0.0066325697 0.0035208114 0.006148661 0.006237651 -0.002836684 0.0015408186 -0.0042585335
-0.0014970818 0.00027211814 0.006476229 0.008078357 -0.002964622 -0.0019299586 -0.0012441402 0.0032709485
-0.0026475245 0.006134598 -0.0015751834 0.008510756 0.006852084 0.0019800542 -0.004153408 -0.0075099343
00000000: 0818 843b ded3 d239 0a6b 14bb 2078 25bb
00000010: 7d68 423b afe4 963a a97d 3abb a1fc ed3a
00000020: 8ed4 7d3a 6489 0bbc c0c3 0cbb 1737 98bc
00000030: 512d c2bb 7106 3ab8 e232 42bb fab4 ae3b
00000040: 8e95 693a 1804 bcbb b8ee 0e3c 42e5 d9bb
00000050: b35e 683a 3624 92bb dc00 c13a 48d2 163b
00000060: e85e 43bc d2af 20ba e2a1 d6bc 97eb 19bd
00000070: a838 2f3c 1e59 613b 298c 303c ef5c 963c
00000080: 7af5 d7b9 5b29 353a 2c4c d939 e9ed 073a
00000090: cfe5 05b8 c2c5 deba ce20 363b ab3c 093a
000000a0: 176e bd3a 28e9 3e3b 1268 9139 fb97 ceb9
000000b0: a49d 803a 1195 4839 f376 af3a 8f4b c1b9
000000c0: 7615 933b 48d5 1e3b d86e b4bb 80a8 ebbb
000000d0: 0db5 fc3b c2ad 123c 551a c63b f299 43bb
000000e0: 1988 feba c357 96bc 0b26 fa3b c303 dbbb
000000f0: 1add c6bc 836a 023a 15bc 403c d0cd 153c
00000100: 6591 c2bb 009c 8c3b 5e66 f23b 10af 4b3c
00000110: 11ac 01bc 890f c3bb 65b5 1cba 335d 88bb
00000120: c2d0 aabb 895b 7b3c 09ee b0bb 50ae 4c3c
00000130: 692b 373c 2ff0 f3b9 35bc 37bc ad02 3abc
00000140: 8511 26ba ffb4 4839 85ec d43a 298e 443b
00000150: a093 bdb8 98ed 9bba e137 f33a 76e5 d6ba
00000160: 4107 a4bb 11b6 933a ff31 233a dd44 953a
00000170: eb02 a23a 7d0b 3639 565d 6abb 57a0 07bb
00000180: 013c dd39 6d95 4535 2ea5 3c3b a4cb 7cbb
00000190: 2a83 773a 2308 b138 b61d 9039 7487 5b3b
000001a0: b573 90bb 4762 b4ba 97c2 263a 75af 7cbb
000001b0: 0da4 a13a 7c72 e338 ceab bd3a f1a3 a2bb
000001c0: f56f b4ba 28d4 1239 7200 c0ba 5fe8 fcb8
000001d0: 11b9 1938 6e04 b73b 1959 0fbb b390 e7bb
000001e0: d090 643b a7b6 acbb 21bf 493a 1e61 6fbb
000001f0: cb13 90bb 7fb7 553a 09ad 8839 bf24 173b
00000200: 8eb9 093b 0be8 a239 98e7 29bb 6c4e 76bb
00000210: 338a 2d3b 20b4 3c3b 6be0 8e3a f734 643b
00000220: 4623 b93a 7184 a9bb a517 3bba b01b 65bb
00000230: 07bc 10bb 3987 47b8 46ed 393b 5844 9b3b
00000240: ec63 81bb eba3 6bba 35ed 593b c2ac 8b3b
00000250: c0bc 54bb bd54 13bb 6990 d43b 8634 803b
00000260: aba3 42b9 5771 4e3b cab8 b4bb c89e 793b
00000270: 0375 9c3b 7cec 73ba 8b33 df3a bdee 57b8
00000280: 6e89 d03b 81da 84b8 740e d5bb 7b9d 56bc
00000290: 132b a13b 0c86 a83b 8bc7 a53b 1293 3dbc
000002a0: 2f4a a73b 8471 23bc 1159 a7ba f16a babb
000002b0: 991c 87bc a34b 1a39 617a 053c d866 4a3b
000002c0: c8be 0f3a df80 cb39 ac5a 36bc 43b7 413c
000002d0: 58a1 123c ce99 d33a 81d0 61bc 4bf5 433c
000002e0: c44f 363c 0139 4ebc d5c8 273a 1f40 7037
000002f0: a666 15bc 480f 2a39 ce30 1dbb dad2 613b
00000300: b037 2c3b 8983 b03a d163 29bb 5ff0 04bb
00000310: d1cc d33b 67dc 2e3b 2b36 e4b9 3923 3939
00000320: 6c35 1ebc d8da a0bb 14bf 2e3b 4293 343b
00000330: f90f ccbb bd0f 6c3a acea 483b 939a 133c
00000340: 4da2 25b8 b866 14ba 32c0 f837 d87e 62bb
00000350: 1f4e e8ba ec1b 81ba 234a 1039 7f8c b13b
00000360: 74ce 9e3a 54b5 b1bb f6de 63bb c4a9 c8ba
00000370: 4257 37ba 380e 30ba bd32 e0ba aca5 bcb9
00000380: ddb7 62bb df98 b239 7fe0 c83b 0de7 903b
00000390: 9d14 68bb 506c c9bb 50dd 40ba 0511 81bb
000003a0: 1f0c f5ba 0756 d93b 6abd 663b b57a c93b
000003b0: 3665 cc3b a9e7 39bb 4bf5 c93a 2b8b 8bbb
000003c0: bb39 c4ba 14ab 8e39 8c36 d43b 165b 043c
000003d0: 1b4a 42bb aaf6 fcba 6b12 a3ba 695d 563b
000003e0: 1782 2dbb bd04 c93b 6276 ceba b370 0b3c
000003f0: 7287 e03b ccc3 013b 5019 88bb e515 f6bb

module.bi_lstm2.weight_hh_l0 f4 [128, 32]
-0.00016972458 -0.003798112 -8.859273e-09 1.1982789e-08 -3.4305006e-10 5.3505666e-08 2.323571e-09 -0.003401894
7.3831123e-09 -0.0036839978 -5.2299377e-08 8.593451e-05 -2.162307e-11 -1.9144934e-06 2.7540648e-07 -2.725679e-08
-7.0334766e-11 3.4451944e-10 -1.7639552e-05 1.9055442e-09 -0.000516491 0.0044076014 -0.0004369494 -5.461033e-12
5.3232376e-05 -8.334265e-06 4.4819268e-10 0.00022440989 -0.0033382014 -0.00012936206 4.9256798e-08 3.482962e-07
-1.8420689e-09 0.002037497 -6.185274e-10 -6.142492e-08 -1.2398801e-09 0.0043570865 0.0047864253 -4.5579105e-12
1.052937e-09 2.0159875e-10 -8.077626e-09 -1.077394e-08 9.044326e-11 6.5817545e-08 -4.2773e-10 1.7284087e-09
-2.0213594e-05 0.0008005513 7.6937926e-05 6.185644e-08 5.036036e-07 -8.222695e-09 -0.0033534523 0.00012915797
0.002943007 5.312711e-12 4.683582e-07 -0.0026224775 -6.399364e-08 -0.0024464342 2.6403737e-11 -0.0034253548
-2.3351603e-09 4.846721e-07 7.347476e-10 1.3866522e-05 3.3646963e-10 6.0775794e-11 -2.8523453e-10 -8.879699e-11
2.0545753e-10 1.3660091e-09 -7.2160244e-10 -7.6814786e-08 0.0005650099 0.00042006987 -0.0021548602 3.538282e-11
-6.407117e-10 -5.433674e-10 0.003480375 9.568276e-10 -1.3195101e-09 -5.0109537e-07 -3.8045744e-09 0.00030609829
4.4813033e-09 0.00059141335 -0.0045071864 0.003937825 0.00017784366 -0.0026664725 0.0030088113 0.00021744028
0.0002910501 -0.004951162 6.108404e-10 -0.00011536887 1.0920732e-09 0.00022417902 -0.00012381472 -1.3826291e-08
-1.3764834e-09 0.00057953753 6.2827475e-08 6.700066e-05 0.0007360388 -2.4922502e-11 -2.576608e-09 0.0036200655
-0.0013708601 0.0010645854 -0.00012017081 0.00020023003 -0.00059128506 -1.4246074e-08 -0.00045658794 -4.058006e-06
-2.8344918e-09 0.00050273247 -1.7382258e-10 0.002456042 -2.8098893e-05 -2.7893124e-10 2.1164388e-09 2.0999081e-05
0.00029071537 0.0013339766 5.537157e-06 -5.023364e-07 -0.003801332 -0.0008897112 8.847886e-12 8.501913e-08
3.0939795e-08 9.481175e-05 -3.158901e-11 0.00011332462 4.4383874e-09 -1.3620029e-10 5.1472273e-07 0.00010245904
-4.6546285e-07 -1.6803609e-06 0.00012617612 -7.0597445e-10 3.402902e-08 8.0362595e-05 -0.00042224085 -0.0027325826
2.6974467e-06 -8.601397e-08 -1.5954448e-08 1.0738183e-10 5.5320783e-08 0.0052644494 1.6874706e-08 0.0033022566
9.325613e-05 1.1856924e-08 4.18734e-11 -0.0022523943 -4.2810714e-07 1.2505674e-05 4.3619904e-05 -0.0007010476
-0.0018324121 5.9738655e-12 -0.0044977623 3.1202632e-07 -1.9000986e-07 1.6779099e-08 1.4678866e-10 -2.2605355e-10
-1.6484824e-08 -6.3173916e-10 -1.3741016e-09 -0.00032250618 -3.1401262e-06 -3.671344e-05 9.9024136e-11 8.8465846e-10
6.2453836e-08 1.8735717e-09 3.1794095e-10 6.98482e-06 -2.4286065e-10 4.231418e-07 0.0005311613 -1.8019888e-05
7.025695e-10 -4.1070658e-07 -0.0030387063 -6.5572305e-12 -2.7842575e-10 0.004812733 -1.5648891e-09 -3.6390777e-10
4.113433e-10 4.6013367e-05 -2.5231466e-09 6.605542e-12 6.5466716e-09 -8.2246915e-10 0.0034904177 -0.0005212187
-2.5466665e-10 1.5574671e-05 -0.00030896283 0.0013231949 5.6343583e-09 -8.347388e-10 4.9933053e-09 4.053875e-07
7.347198e-07 1.4341679e-10 -0.0022433794 -3.0329965e-09 2.26397e-09 -1.0306227e-09 -6.7681536e-09 3.8927796e-05
-0.0005337821 -1.5246698e-09 -0.00010681708 -0.0016840646 3.264956e-09 -1.732825e-11 -5.1394994e-10 1.442352e-11
-4.9046993e-09 4.961355e-08 0.0031696928 -1.0169211e-10 -5.6189196e-11 0.0020882704 -0.0027920017 1.2232938e-09
0.0023122572 2.1822551e-10 -0.00031399864 -1.3605047e-11 0.0002200754 0.0044739833 -4.1051584e-10 3.1010125e-10
-4.5056917e-10 2.7411502e-07 1.5570278e-10 0.004582999 4.978962e-08 -9.808301e-10 -5.099073e-09 -0.0053161816
00000000: 18f8 31b9 bfe9 78bb 7f33 18b2 dddc 4d32
00000010: 0198 bcaf 1ace 6533 b1ac 1f31 4ff2 5ebb
00000020: 8bae fd31 3a6f 71bb c69f 60b3 bd37 b438
00000030: d332 bead bf7a 00b6 94db 9334 5122 eab2
00000040: f4aa 9aae cd66 bd2f a6f8 93b7 b0f2 0231
00000050: 2065 07ba a46d 903b 5b16 e5b9 9d24 c0ac
00000060: d445 5f38 65d3 0bb7 8365 f62f 924f 6b39
00000070: bac5 5abb 5da5 07b9 6c8e 5333 77fd ba34
00000080: 0a2c fdb0 8787 053b ff04 2ab0 b5e8 83b3
00000090: 6768 aab0 e4c5 8e3b 72d7 9c3b 025e a0ac
000000a0: edb6 9030 01a9 5d2f c6c5 0ab2 4a18 39b2
000000b0: 07e3 c62e 9457 8d33 a525 ebaf fa8c ed30
000000c0: 5d90 a9b7 17dc 513a bc59 a138 f0d5 8433
000000d0: 602f 0735 cc43 0db2 98c5 5bbb 946e 0739
000000e0: 77df 403b a6ec ba2c a972 fb34 dfdd 2bbb
000000f0: e06c 89b3 5b54 20bb ee3f e82d eb7b 60bb
00000100: 9378 20b1 6a1a 0235 44f7 4930 42a4 6837
00000110: e4f9 b82f bba5 852e 31cf 9caf 4344 c3ae
00000120: 27e7 612f 2cbe bb30 425a 46b0 60f5 a4b3
00000130: 2c1d 143a d33c dc39 8e38 0dbb 849d 1b2e
00000140: 141e 30b0 155c 15b0 0117 643b 6181 8330
00000150: 225a b5b0 0383 06b5 64b9 82b1 d17b a039
00000160: f6f9 9931 1409 1b3a 05b1 93bb df08 813b
00000170: 8b7b 3a39 fcbf 2ebb 7a2f 453b ae00 6439
00000180: 1598 9839 5b3d a2bb 12e8 2730 31f2 f1b8
00000190: e917 9630 9911 6b39 43d4 01b9 ac88 6db2
000001a0: b42e bdb0 1bec 173a c5eb 8633 b582 8c38
000001b0: baf2 403a 7c38 dbad 2b10 31b1 9f3e 6d3b
000001c0: 6fae b3ba 8f89 8b3a 3604 fcb8 d7f4 5139
000001d0: 7800 1bba e5be 74b2 3262 efb9 022a 88b6
000001e0: e8c8 42b1 cec9 033a b51e 3faf 8cf5 203b
000001f0: eab5 ebb7 1558 99af c970 1131 2f27 b037
00000200: 286b 9839 d4d8 ae3a d1cb b936 4bd8 06b5
00000210: c51f 79bb 823b 69ba 56a7 1b2d c393 b633
00000220: aae2 0433 acd5 c638 10ee 0aae b1a8 ed38
00000230: 7880 9831 f9c0 15af 7a2b 0a35 47df d638
00000240: bae4 f9b4 c388 e1b5 254e 0439 890e 42b0
00000250: 4e27 1233 5788 a838 3560 ddb9 2115 33bb
00000260: c805 3536 aeb6 b8b3 340c 89b2 9922 ec2e
00000270: d899 6d33 6781 ac3b dff3 9032 ac6a 583b
00000280: 8192 c338 4eb3 4b32 4229 382e e89c 13bb
00000290: 99d6 e5b4 76cf 5137 84f4 3638 82c6 37ba
000002a0: 8c2d f0ba cc2f d22c f761 93bb 9284 a734
000002b0: 8305 4cb4 a121 9032 5665 212f 6b8c 78af
000002c0: 839a 8db2 b1a6 2db0 e7da bcb0 0c16 a9b9
000002d0: f5ba 52b6 c2fc 19b8 a2c1 d92e 4e2c 7330
000002e0: 5c1e 8633 39c0 0031 36ca ae2f 265f ea36
000002f0: 9983 85af 2b2c e334 a23d 0b3a 6a29 97b7
00000300: ef1e 4130 157f dcb4 0825 47bb 48b6 e6ac
00000310: f110 99af 21b4 9d3b a413 d7b0 770f c8af
00000320: 6c23 e22f 7afe 4038 aa63 2db1 6f69 e82c
00000330: 22f1 e031 1f14 62b0 7ebf 643b 65a2 08ba
00000340: 2501 8caf 5aa6 8237 4afc a1b9 0e6f ad3a
00000350: 5798 c131 8573 65b0 9491 ab31 09a4 d934
00000360: 8f39 4535 3db0 1d2f a905 13bb 0a6d 50b1
00000370: 2e94 1b31 d0a5 8db0 4f8d e8b1 6746 2338
00000380: 83ed 0bba 8d8c d1b0 fc02 e0b8 d5bb dcba
00000390: b75d 6031 c06b 98ad 0346 0db0 c2bd 7d2d
000003a0: 3186 a8b1 ad16 5533 9fba 4f3b 929f dfae
000003b0: 691f 77ae 5ddb 083b 04fa 36bb d320 a830
000003c0: 3d89 173b 05f1 6f2f 2fa0 a4b9 af57 6fad
000003d0: 0ac4 6639 7e9a 923b f8ae e1af df7a aa2f
000003e0: f9b3 f7af 152a 9334 7032 2b2f fb2c 963b
000003f0: 44d8 5533 e4cd 86b0 ec33 afb1 5d33 aebb

module.bi_lstm2.bias_ih_l0 f4 [128]
-0.0014167557 0.0071097673 0.0014902783 0.0020212582 0.007429238 -0.00084901147 -0.0039820657 0.008372252
0.0028323282 0.010726139 0.018321836 -0.0011264771 0.01886914 0.010465194 -0.005542668 0.004451124
-7.300851e-05 0.014958805 0.013043018 0.011912523 0.05275017 0.019013153 0.007885417 -0.005545209
-0.004851758 -0.005290781 -0.026174104 -0.0014366483 0.017211074 0.025230605 0.0062137777 -0.0076760775
-0.00081154803 -3.184356e-05 2.2000364e-10 4.152276e-06 -0.00011601867 -2.413845e-08 3.7625e-07 -8.682245e-10
1.6064235e-09 0.00032003399 -2.096063e-10 -3.3791267e-08 -0.0037751088 0.0033314785 8.4267454e-11 0.00023322618
0.0012248331 -1.7820462e-08 -0.00016594023 0.004187987 0.0006034957 0.0044118846 -1.1784723e-05 0.00036061957
-7.6291723e-10 8.6418034e-10 -2.265471e-09 -5.2950494e-08 0.003366942 4.7485713e-11 -1.3902754e-10 0.0008009774
-0.060632024 -0.15072484 -0.048606798 0.062295638 -0.07189068 -0.05794446 0.094994165 -0.037087522
0.093486294 0.08996289 0.038689412 0.018329423 -0.0877014 -0.006329597 0.06582281 -0.022371529
-0.021108186 0.027090644 -0.035604052 0.053265985 0.059541147 -0.10307331 -0.07053999 -0.00042107457
-0.07500971 0.12604879 0.11104467 -0.043898817 -0.10730799 -0.10244459 -0.15788516 0.08296607
-0.0029165337 0.04582054 0.0015507016 0.0006119795 0.0064556957 -0.0043595666 -0.0036144431 -0.029894732
0.012712162 -0.0069158897 0.017639335 0.02913816 -0.043919913 0.005258656 -0.005581844 0.004703064
0.0062863277 0.009926546 0.0066438066 -0.011676219 0.026861792 0.018693505 0.02018284 0.0032819211
0.00328327 -0.026600234 -0.03627383 0.0055090724 0.0005365204 0.024145868 0.0063979505 -0.0074709747
00000000: 6fb2 b9ba 0df9 e83b 7155 c33a 1677 043b
00000010: f770 f33b 3290 5eba fd7b 82bb c52b 093c
00000020: 959e 393b b0bc 2f3c ad17 963c 4da6 93ba
00000030: 7493 9a3c 3476 2b3c 459f b5bb bcda 913b
00000040: 251c 99b8 c715 753c 62b2 553c be2c 433c
00000050: 9010 583d 79c1 9b3c d631 013c 96b4 b5bb
00000060: 7ffb 9ebb 4a5e adbb 136b d6bc eb4d bcba
00000070: 3dfe 8c3c 6ab0 ce3c f29c cb3b 9b87 fbbb
00000080: 11be 54ba c38f 05b8 85e5 712f c753 8b36
00000090: 0d4f f3b8 0359 cfb2 68ff c934 dea7 6eb0
000000a0: 01c9 dc30 3cca a739 ee76 66af e421 11b3
000000b0: d167 77bb ef54 5a3b 5c4e b92e 2d8e 7439
000000c0: 948a a03a 9c13 99b2 3e00 2eb9 623b 893b
000000d0: e933 1e3a 9291 903b 00b7 45b7 8a11 bd39
000000e0: 87b5 51b0 498b 6d30 96ae 1bb1 af6b 63b3
000000f0: eaa7 5c3b 29d8 502e c6dc 18af aff8 513a
00000100: 4959 78bd 9d57 1abe ec17 47bd b629 7f3d
00000110: 6c3b 93bd 2c57 6dbd 4d8c c23d 16e9 17bd
00000120: be75 bf3d 773e b83d ca78 1e3d 9627 963c
00000130: cb9c b3bd 8268 cfbb 1cce 863d 7f44 b7bc
00000140: 13eb acbc 33ed dd3c 8ed5 11bd 6f2d 5a3d
00000150: 6be1 733d 1918 d3bd 4577 90bd acc3 dcb9
00000160: b19e 99bd ef12 013e 636b e33d 3fcf 33bd
00000170: 4bc4 dbbd 78ce d1bd a6ac 21be 1dea a93d
00000180: 5123 3fbb 52ae 3b3d e940 cb3a 406d 203a
00000190: 4d8a d33b b2da 8ebb 4be0 6cbb cce5 f4bc
000001a0: ac46 503c b09e e2bb 5e80 903c 27b3 ee3c
000001b0: 5ee5 33bd ce50 ac3b e7e7 b6bb 291c 9a3b
000001c0: 8afd cd3b f4a2 223c 4ab4 d93b 9d4d 3fbc
000001d0: 430d dc3c 1f23 993c 7c56 a53c 8015 573b
000001e0: 212c 573b bce8 d9bc de93 14bd 7385 b43b
000001f0: 46a5 0c3a 8ecd c53c e6a5 d13b 14cf f4bb
