output/clip/FD004/exp_202411022104_bilstm_clip_ep-0065.pth (torch, 288916 bytes, 66 tensors)

module.bi_lstm1.weight_ih_l0 f4 [64, 14]
000000 58 ea cd bb 0b 4d 83 ba 59 e6 05 bc 68 5b 5e bc
       -0.0062840395 -0.0010017467 -0.008172595 -0.013571598
000010 49 20 1b bc 57 6c 9a bb 9b 42 75 3a 1a da 50 bc
       -0.009468147 -0.004712622 0.0009355933 -0.012747312
000020 05 c2 f9 bb 9f b2 1e bc 4e 3f 06 3b ef 8f dc bb
       -0.007622006 -0.009686141 0.002048451 -0.0067310254
000030 be 2d 57 bc a3 bf 57 bc 73 5f 89 3c 8c 86 66 3c
       -0.013133464 -0.013168248 0.016769147 0.014070164
000040 a6 7c 82 3c e5 c5 3a bb 68 6c 7c 3c d5 7a 63 3c
       0.015928578 -0.0028499302 0.015406705 0.013884266
000050 14 47 23 3c a5 bc 09 3c f8 6b 55 3c d0 e0 3d 3c
       0.009965677 0.008406793 0.01302623 0.011589244
000060 5b 88 e7 3c f7 e0 25 3c e7 8f 20 3c 54 27 90 3c
       0.028263262 0.010124437 0.009799934 0.017596878
000070 6f 08 e1 bd 20 0c 40 bc f1 1c 25 be dc 5a 60 3e
       -0.10987937 -0.011721641 -0.16124322 0.2190966
000080 4f 7b ba bc 30 70 a9 bc d6 5c 24 be ce 84 4f 3e
       -0.022763876 -0.020683378 -0.16051039 0.20265505
000090 73 93 31 bd 37 2c 8e 3d 3d 30 89 be bf aa 02 be
       -0.04335351 0.06942027 -0.26794615 -0.12760447
0000a0 3e 5d 8c 3e 8f df 50 3e 73 2d 59 3d 32 58 a3 3c
       0.27414888 0.20397781 0.05302186 0.019939516
0000b0 aa d3 bf 3c 1d 19 83 3b 7a ea 15 3d be 89 7c 3c
       0.023416359 0.0040007965 0.036600567 0.0154137
0000c0 a5 ec be 3c b2 0a 93 39 d3 ed 23 3d d8 fd 1f 3c
       0.0233062 0.00028045994 0.04002173 0.009765111
0000d0 f4 5e c0 3d 0e fe e6 3c e2 03 f5 3c cb 8c d4 3c
       0.09393111 0.028197315 0.029909078 0.025946042
0000e0 d7 24 0c 3d 0e 48 37 3d f8 f4 00 3c c4 74 62 bd
       0.03421482 0.04474645 0.007870905 -0.055287138
0000f0 39 74 f6 3c b3 a5 c9 bb a8 a5 2a 3d 49 ec 29 bd
       0.030084716 -0.006153786 0.04166189 -0.041485105
000100 af 52 f6 3c a6 74 b4 bc 7f 73 ce 3d e3 a1 68 3c
       0.030068723 -0.022028279 0.10080623 0.014198753
000110 2d b4 96 bc 24 35 db 3b f2 3c 9c 3c 8a ee 07 3d
       -0.018396461 0.0066896845 0.01907203 0.033186473
000120 cc 0d ad 3c b5 8b a4 3d 85 f5 c8 3d 03 bb a6 3c
       0.021124743 0.080344595 0.09812454 0.020352846
000130 3f d1 27 3d 55 c9 1a 3d 08 16 ee 3d b8 38 80 3d
       0.040971037 0.03778966 0.11625296 0.06260818
000140 f1 cd c2 3d 1c 8e 8c 3b 61 3c 92 3d c0 5d 24 3d
       0.095119365 0.0042894017 0.071404226 0.04012847
000150 f8 d5 be 3c d7 f9 57 3b e8 2d 62 3c 02 99 fc 3d
       0.023295388 0.0032955313 0.01380489 0.123338714
000160 44 ca 86 3d cb b6 80 3d 27 17 99 ba 0c b5 00 3e
       0.06581548 0.06284865 -0.0011679874 0.12569064
000170 e2 8c 21 3d 45 71 c1 3d 5c c0 98 bd ed d9 94 3c
       0.039440997 0.094454326 -0.07458565 0.018170321
000180 20 0e 07 3e 1f 28 9e 3d 66 d0 d4 3b 1e cb 13 3c
       0.13188982 0.07722496 0.0064945696 0.009020595
000190 60 b0 a8 3b 7c a0 a0 bc aa 89 b5 3a fc 38 66 3a
       0.0051479787 -0.019607775 0.0013850231 0.0008782295
0001a0 c5 6b 96 3c 9e dc 97 bc 9a bf a6 3a 16 cf be bb
       0.018361935 -0.018537816 0.0012721897 -0.0058230264
0001b0 86 9e e0 3c 76 f4 4e 3b 3c 0e a2 bc 95 14 27 bc
       0.02741934 0.0031578816 -0.019782178 -0.010197778
0001c0 cb 90 62 bd 2b 19 9f 3b 59 0d 6d bd 82 9e 06 3d
       -0.055313867 0.004855295 -0.057874057 0.03286601
0001d0 a6 a6 a3 bc df b7 45 bc 2d eb 31 bd 68 0c ed 3c
       -0.019976925 -0.012067764 -0.04343717 0.02893658
0001e0 22 7a 02 bd 71 4b 04 b9 e1 89 ba bd bb b2 0e bd
       -0.031854756 -0.00012616605 -0.091083296 -0.03483842
0001f0 17 f4 94 3c ce 5d ad 3b 90 89 0f 3d 12 11 95 3d
       0.018182797 0.0052907234 0.0350433 0.072786465
000200 6e b8 55 3d 40 9d cc 3d 6a 5f cf 3d 37 53 3c 3d
       0.05217784 0.099909306 0.10125621 0.045977797
000210 8e 22 bc 3d c3 df 86 3d 68 53 c3 3d 47 73 8e 3d
       0.09186278 0.06585648 0.09537393 0.06955581
000220 2f f5 d3 3d 40 0b 5e 3d d6 bb f3 3d c6 2d a0 3d
       0.103494994 0.054209948 0.11901061 0.078212306
000230 0d e0 ea 3b d3 32 c3 3c da fe cd 3c 7d 5e c7 bb
       0.007167822 0.023827946 0.025145937 -0.006084262
000240 52 8c 27 bd 54 1d b9 3c d1 0b 00 3d 81 3c 4c 3d
       -0.040905304 0.022596993 0.03126127 0.04986239
000250 fd 48 c8 bc 1c e9 c5 3c fd fb 4f 3d 5f f9 42 3d
       -0.024448866 0.024159007 0.050777424 0.0476011
000260 d1 67 a6 bd 96 37 ef bb b3 fd 2c bb bc 37 c6 39
       -0.0812527 -0.0073003275 -0.0026396334 0.00037807028
000270 3f 73 22 3c d3 c6 93 bb 98 6c 05 3d fd e5 89 bb
       0.009915172 -0.0045097857 0.032574266 -0.004208325
000280 51 7b 39 3c 0e 1a 8f bc 09 5a ec 3c 86 af 99 3b
       0.011320905 -0.017468479 0.028851526 0.0046901135
000290 5a 8a cf 3c 8c 0f c4 bc ce 90 9a 3b 4f 5c bb bb
       0.025334526 -0.023933195 0.004716969 -0.005717791
0002a0 e5 8c 16 3d 5d 78 2c 3d cd ff 0c 3d 3d cf 2b bc
       0.03675546 0.042106975 0.034423638 -0.010486421
0002b0 d2 04 69 3c 85 27 d8 3c 9b b4 df 3c 7c af 1b 3c
       0.014222341 0.026386032 0.0273078 0.009502288
0002c0 ea 9b 35 3c 83 26 95 3c 0b 8d 9b 3d 5c 55 ff 3c
       0.011084536 0.01820684 0.07595261 0.031168632
0002d0 a1 eb b7 3c 04 fe 28 3d dd 88 72 bc 4d d3 7d bc
       0.022451224 0.041257873 -0.014803139 -0.015492273
0002e0 7f 3d 10 bd d7 e6 d7 3c ac 5c 53 3c b2 6e 86 bc
       -0.035214897 0.02635519 0.012900513 -0.016410206
0002f0 5a 7f 78 bc 6c 57 85 3c 7b 42 81 3c ac 26 c2 3a
       -0.015167082 0.016277038 0.01577877 0.001481255
000300 53 5b c4 3c 37 b8 83 bc 77 4b 1e 3d 77 08 d2 3c
       0.023969328 -0.016079051 0.038646188 0.025638802
000310 50 72 d7 3d b6 ae 8a 3d 91 7a 46 3d 1e 0f ad bd
       0.1051985 0.06771605 0.048456732 -0.08450149
000320 57 53 59 3d 59 ab 14 3c 9d d5 b3 3d 28 4c 93 bd
       0.053057995 0.009074056 0.08780978 -0.0719226
000330 80 41 71 3d ff d0 bf bc 98 0c 3a 3e 7f 2e 7f 3d
       0.058900356 -0.023415087 0.18168867 0.0623002
000340 87 3e b2 bc d1 47 14 bc 44 2d 43 3d cb 6c c4 3c
       -0.021758331 -0.0090503255 0.04765059 0.023977658
000350 64 7b f4 3c fe 8a 61 bd 44 3f af 3c 8f 00 1b b8
       0.029843993 -0.055064194 0.021392472 -3.69554e-05
000360 31 ec 3b 3d 88 3f 44 bd db f6 ab 3c 9c 70 b0 bc
       0.045879547 -0.04791215 0.020991733 -0.021538071
000370 3f a3 c7 3d 39 93 ae 3c fa 75 2d bd df aa ac bc
       0.097479336 0.021310436 -0.04234884 -0.021077571
000380 3a 9c 4d bb 8a f4 a4 3b 18 1d be ba 05 c5 57 bb
       -0.0031373636 0.005034034 -0.001450452 -0.003292383
000390 33 0c 00 bc 87 77 11 bb 23 ca 7d 3b e7 2a cb ba
       -0.0078154085 -0.0022196488 0.003872522 -0.0015500457
0003a0 a5 82 c0 bb 65 46 a3 bb b8 48 fb 3b f4 8a 47 3a
       -0.005874949 -0.004982757 0.007668581 0.0007611953
0003b0 78 ee ad bb ad a9 ed ba 7e 62 18 3b 55 d3 0e 3b
       -0.0053079687 -0.0018132232 0.0023252065 0.0021793444
0003c0 7a 0a e7 3b 72 e1 db 38 9f 98 e1 3b 88 0a e4 3b
       0.0070508095 0.00010484726 0.006884649 0.0069592632
0003d0 4c 9f fe ba 03 27 df 3b f4 2d 9e 3b 43 fa 29 3c
       -0.0019426136 0.0068100705 0.0048272554 0.010374608
0003e0 41 f4 50 3c 6a 82 8a 3b db 99 98 3c 60 9a 91 3c
       0.012753547 0.0042269723 0.018628052 0.017773807
0003f0 2d 2b 55 3d c5 fd 68 bc 3a 7b bc bd 7a 45 85 3e
       0.05204313 -0.01422066 -0.09203191 0.2602957

module.bi_lstm1.weight_hh_l0 f4 [64, 16]
000000 99 10 33 b9 ad f3 63 3b e9 31 2e 3c 03 0a 28 ba
       -0.00017076953 0.0034782693 0.010632017 -0.0006410183
000010 4a e9 9f bb 58 4d ed bb c8 78 16 bc 7d 0e bb ba
       -0.004880105 -0.007241886 -0.00918407 -0.0014271286
000020 04 21 ae bb b6 e4 1e 3c dd 48 2f 3b 57 df 8e 3b
       -0.0053139944 0.009698084 0.002674631 0.0043601203
000030 1b 90 bf 3b 53 2b 8e bb 0c bd fc ba 94 8d 23 bb
       0.005846036 -0.0043386607 -0.0019282415 -0.0024956213
000040 ce d0 ae 38 53 7e 8a 3a 50 e7 46 bc 7d 26 b4 3b
       8.3358595e-05 0.0010566212 -0.01214011 0.005497752
000050 8a b5 b4 3a 9c 0e de 3b 83 56 ca 3b 02 c2 a8 3a
       0.0013787013 0.006776644 0.006174864 0.0012875202
000060 bc c2 33 3b c0 7b 31 bc 49 cb 4e bc cc a1 8e bb
       0.0027429303 -0.010832727 -0.012621709 -0.004352784
000070 fa b9 34 3a b3 13 13 3c e4 ad 78 3b 4e cf 78 3b
       0.0006894168 0.008976865 0.0037945444 0.003796536
000080 a9 69 d4 bc 79 6f 83 3c 0e 6b 60 be 9c 8a 04 3e
       -0.025929289 0.016044365 -0.21915838 0.129435
000090 6f 3b 88 bd 44 bc 65 3d d3 33 32 3e 10 1d 23 bd
       -0.06651961 0.056087747 0.17402582 -0.039822638
0000a0 70 04 42 3d db 17 9e bd 34 c2 9c bd 56 14 d0 bc
       0.047367513 -0.07719394 -0.07654229 -0.025400322
0000b0 0f d6 e7 3c 0c 1f eb 3c 1c 23 0e be b9 7f ca bd
       0.028300313 0.028701328 -0.1388058 -0.098876424
0000c0 75 e1 13 3b fd cc 18 3c a1 06 6b 3b 3b 88 f1 3b
       0.0022564803 0.009326217 0.0035862105 0.0073709763
0000d0 8d 6a b4 bb 77 aa 7b 3c c4 f4 26 bc 70 7e 25 bb
       -0.005505866 0.015360466 -0.010190193 -0.0025252365
0000e0 69 d9 14 3a 23 7f d6 bc a7 d3 2f bd 94 7a e7 bb
       0.00056781486 -0.02618367 -0.042926457 -0.007064173
0000f0 5f bc 8f 3c 4f 6b 5e 3c 85 1e dd ba 08 f5 69 bb
       0.017545877 0.013575389 -0.0016870057 -0.0035699029
000100 43 cc 10 3b 84 1c 94 3c c4 5d 88 3c 06 c7 e4 3b
       0.0022094406 0.018080004 0.016646273 0.0069817333
000110 48 17 3f bc 92 3c 13 bd ce 04 3f bd 57 00 61 bb
       -0.0116632655 -0.035946436 -0.04663544 -0.0034332478
000120 ad 51 cf bb 98 55 04 3d 7a ea 6b bd 5b 89 51 3c
       -0.006326875 0.03230819 -0.05759666 0.012789096
000130 60 89 16 3d 27 06 17 3a ec 45 d2 3b f2 9b ce ba
       0.036752105 0.00057611096 0.0064170267 -0.0015763028
000140 6f b8 2d 3b d6 39 9c bb 67 27 fb bc df 41 81 3c
       0.0026507636 -0.004767637 -0.030658437 0.01577848
000150 2f 2b 31 bb fe de a7 3c b7 33 3d 3d c3 2f 78 bb
       -0.0027033796 0.020492073 0.046191897 -0.0037870265
000160 96 db 43 3c 1f 82 9c bc 8c cf 8b 3d 26 89 bc 3b
       0.011954209 -0.019105015 0.06826696 0.005753654
000170 a7 ac ad bc f9 db b7 bb 9b 46 4d bc 73 4f 85 bb
       -0.021200491 -0.0056109396 -0.012529041 -0.004068309
000180 80 94 2a bc 41 2e 72 bc 3b 5b d2 bd 74 36 dc 3c
       -0.010411382 -0.014781536 -0.10271307 0.026881434
000190 c7 ca d8 ba a6 52 e3 3c 27 40 89 3d 2c 6e 01 bc
       -0.0016539925 0.02774937 0.06701689 -0.007899802
0001a0 17 e4 9d 3c 29 b9 db bc 66 08 fc 3c 68 0a 16 bb
       0.0192738 -0.02682169 0.030765723 -0.0022894386
0001b0 5f 84 da bc eb bc 0b 3a bb b5 96 bc fc b4 a7 bb
       -0.026674448 0.000533058 -0.018397203 -0.0051180106
0001c0 d2 ae 23 ba c7 8d 97 3b 9a ad d5 3b e8 c7 6a 3a
       -0.0006244007 0.0046250555 0.006520939 0.000895618
0001d0 96 5a dd ba 1a 1b a5 bc 8b 2d 3c bc ae 27 c0 ba
       -0.0016887959 -0.020154525 -0.011485468 -0.0014660263
0001e0 31 d5 23 bb ab 7a aa 3c a0 9e d9 bc 3a 41 c9 3b
       -0.0024998898 0.020810446 -0.026564896 0.006141809
0001f0 0b 16 f2 3b 87 7e 21 bb 9a 71 7a 3b 41 c9 5a 3a
       0.0073878816 -0.0024642067 0.0038214684 0.0008346029
000200 f5 95 2d bc ec 97 6f bb f6 5d 1c bd ba 31 83 3c
       -0.010594835 -0.0036559058 -0.038175546 0.016014922
000210 9b c5 e1 bb ea 14 bd 3c 8b 5b 00 3d 6c 61 bf bb
       -0.0068900115 0.023081262 0.031337302 -0.005840471
000220 f7 1e cc 3b 50 c0 a3 bc 38 50 6d 3c 24 b5 c1 bb
       0.0062292772 -0.019989163 0.014484458 -0.005911486
000230 60 6a be bb 5d 79 4f 3b bf 48 71 bc 35 1e 51 bc
       -0.0058110207 0.0031658032 -0.014726817 -0.01276355
000240 c0 01 f8 b8 85 54 90 bb 80 35 8d bb 5c ba 87 ba
       -0.000118258875 -0.0044046068 -0.004309356 -0.0010355222
000250 e8 1b 22 3b 36 7f 2b 3d a2 c4 cc 3c 1b 59 30 3b
       0.0024735872 0.041869365 0.024996106 0.002690858
000260 46 c3 c3 3b 7a dc 67 bd d3 b7 a7 3c 0f 6e a4 bc
       0.005974206 -0.056606747 0.020473396 -0.020072011
000270 79 11 4a bc 6c d5 9b 3c 6f d3 b2 38 43 cc 1d 3b
       -0.012333267 0.019022666 8.527084e-05 0.0024078048
000280 b7 b8 9a 3c 07 e1 2e 3d 36 1f ca 3d 3a 0d 1a bd
       0.018886907 0.04269507 0.09869234 -0.03761027
000290 2a 8c ab bb 52 cb b3 3c a5 27 af bc 49 3b 6c 3c
       -0.0052352147 0.021947537 -0.021381209 0.014418432
0002a0 82 d6 ce bc 78 25 e9 bc 01 ef 42 bd 84 11 33 bc
       -0.02524877 -0.02846025 -0.047591213 -0.010929469
0002b0 32 c0 99 3d 3f 59 a0 3b c4 45 af 3c 4b eb da bb
       0.075073615 0.0048934515 0.021395572 -0.006680881
0002c0 95 08 76 3c 35 f7 fa 3b ec 5d 09 3d 8e 58 c3 bc
       0.015016695 0.007658864 0.033536837 -0.023845937
0002d0 25 08 da 3a a2 8b 49 bd b4 ed 3f bd 7b 09 d9 3b
       0.0016634507 -0.04920543 -0.04685755 0.0066234446
0002e0 08 7d da ba f7 43 3e 3d 77 0b 3b bd a5 d1 a2 3c
       -0.0016669342 0.046451535 -0.04566523 0.019875357
0002f0 83 e1 4f 3c 0a 7e a5 bb c3 76 d2 3c 5f 90 98 3c
       0.0126880435 -0.0050504254 0.025691396 0.018623529
000300 8d 4e ef b9 ab bb 8e 3c c3 47 c8 3b ba e4 13 3c
       -0.00045644157 0.017423471 0.0061120703 0.009026701
000310 3d 26 5d bc 5d ef 3a 3c cd c8 91 bc bd f9 92 bb
       -0.013497886 0.011409608 -0.017795945 -0.0044853375
000320 47 35 df 3a 85 61 f8 bc 2f 8d 9a bd 2a 2f 6e bc
       0.0017029428 -0.030319938 -0.0754646 -0.014537612
000330 0a 2e 1f 3d 70 e7 f7 3c e9 07 c3 ba 2b 18 ff bb
       0.038862266 0.030261725 -0.0014879677 -0.0077848635
000340 8f 3b 45 38 7a 18 67 3c 11 0b 6a 3c 54 07 74 3c
       4.702393e-05 0.014104957 0.014284865 0.014894325
000350 b9 96 84 bc 5f 15 9b bc e7 e9 28 bc 41 a7 04 bc
       -0.016185151 -0.018931089 -0.010309673 -0.008096517
000360 19 95 cc ba e3 98 a5 3c b3 c4 1f bd aa f1 f0 3b
       -0.0015608399 0.020214504 -0.039005946 0.0073530274
000370 32 3c e0 3c d3 de bb bb 2d a0 ab bc fa f9 6a bc
       0.027372453 -0.00573335 -0.020950401 -0.014341826
000380 36 fb d5 3b f0 bf b9 3c 11 b0 85 3d 04 e3 6c bc
       0.006530191 0.02267453 0.065277226 -0.014458422
000390 f1 07 ea bb b6 e7 40 bd c3 21 a2 bd 5b 16 2b 3a
       -0.00714206 -0.047095977 -0.07916596 0.00065264635
0003a0 df 79 a2 bc 4c f4 66 3d c3 bb 8a bc a9 af 95 3c
       -0.019833503 0.056385323 -0.016935235 0.018272238
0003b0 37 d4 1b 3d 93 5c 23 bc 8a 38 cb 3c c0 32 fd 3b
       0.03804418 -0.009970802 0.024807233 0.007726997
0003c0 3e 88 a4 3a d3 e9 2f 3c f9 3c 0f 3d 6d 04 7e bb
       0.001255281 0.0107369 0.034970257 -0.0038759962
0003d0 06 6a 93 bb d6 a7 23 bd 3b ee 38 bd d4 be 2a 3a
       -0.004498723 -0.039954983 -0.04514907 0.0006513421
0003e0 e0 87 4e bc fa f6 2f 3d 81 86 dd bc 65 93 87 3c
       -0.012605637 0.042960145 -0.027041676 0.016549775
0003f0 05 b5 ba 3c c3 ee 2e bc 79 01 25 3c 6b f3 88 3b
       0.022791395 -0.010677042 0.010071152 0.0041794083

module.bi_lstm1.bias_ih_l0 f4 [64]
000000 a5 a6 bc bc 08 80 10 3d 6e b3 1d 3e 27 7a a9 3d
       -0.023028681 0.03527835 0.15400478 0.08275252
000010 d4 de 71 3d 59 14 8f 3d 2f cf ef 3d 54 51 08 bb
       0.059050396 0.06986303 0.11709439 -0.0020800428
000020 00 4b 86 bc a9 ae 46 3e 42 ec 13 bd 72 b8 9a 3c
       -0.016393185 0.19402565 -0.036113985 0.018886779
000030 11 ce d1 3d d2 8a 81 3d 56 32 49 3d 48 cf 91 3c
       0.10244382 0.06325306 0.04912027 0.017799035
000040 e9 36 d7 bb 71 cb e7 3c d6 ce 44 3e 13 0e ef 3d
       -0.006567825 0.02829525 0.19219527 0.11672606
000050 e8 e3 3c 3d a7 5a 13 3e 76 9f 03 3c 3e ca 52 bc
       0.046115786 0.1439005 0.008033624 -0.012865601
000060 e4 ad 07 3d 56 8b 2d 3e 5b e3 53 3e fe c4 f8 bc
       0.03312482 0.16947684 0.20692198 -0.03036737
000070 e4 a3 fa 3d 74 ec a8 bc ca 84 b9 3d 0f 7a aa 3c
       0.12238291 -0.020620562 0.09058531 0.020810155
000080 4f de 16 3d 4d 7f 97 3d 80 6a 24 3e 33 37 1f bd
       0.036833104 0.073973276 0.16056252 -0.038871
000090 d2 4e 3a be 2d 3f 29 3d 86 e3 46 3a de ac d8 3c
       -0.1819413 0.041320015 0.0007587004 0.026449617
0000a0 30 61 14 3d 4f d5 f6 bd 61 02 24 3d 28 1f 9e bd
       0.036225498 -0.12052404 0.04004133 -0.07720786
0000b0 f0 1f 40 3e c7 1f 22 3e 5f 7e 56 bd 8e 10 03 be
       0.18762183 0.15832435 -0.05236661 -0.12799284
0000c0 07 94 b7 bc 09 dd 0d 3d 53 4b 27 3e 49 4e a9 3d
       -0.022409452 0.034634624 0.16337328 0.08266885
0000d0 06 2e 56 3d 38 09 dd 3d 52 26 10 3e 54 ee 81 ba
       0.052289985 0.10792774 0.14077118 -0.0009912946
0000e0 5d 55 dc bc 0a 33 d8 3d 45 c3 61 3d a7 25 fe 3c
       -0.026896173 0.1055661 0.055117864 0.031023813
0000f0 10 36 d6 3d 8b 9e 77 3d 36 f7 7c 3d ae 7d c8 3c
       0.1045953 0.060453933 0.061759196 0.024473991

module.bi_lstm1.bias_hh_l0 f4 [64]
000000 7b 2d b7 bc 08 80 10 3d 3a 11 32 3e 2a 68 ae 3d
       -0.022360554 0.03527835 0.17389384 0.085159615
000010 3f 01 5d 3d 29 03 97 bb d6 e0 ef 3d 04 cc 08 bb
       0.053956266 -0.004608531 0.11712806 -0.0020873556
000020 85 81 8e bc f3 94 3d 3e 14 e7 c0 bc e7 a5 42 3d
       -0.017395744 0.18513851 -0.023547687 0.047521498
000030 bd 04 d0 3d 01 79 81 3d 28 fa 4a 3d c6 30 92 3c
       0.10157154 0.06321908 0.049554974 0.017845523
000040 56 12 d3 bb 71 cb e7 3c 5f fc 4e 3e cf 91 ea 3d
       -0.006441395 0.02829525 0.2021346 0.11453592
000050 a5 39 45 3d 76 3c 1a 3e d1 64 04 3c 43 ca 52 bc
       0.048150677 0.15062127 0.008080677 -0.012865606
000060 09 75 0c 3d a7 d1 d8 3d 7d 44 88 3e 0f 94 ac bc
       0.0342913 0.10586863 0.26614752 -0.021066694
000070 e8 c0 fe 3d 44 5e a9 bc fb 09 be 3d 32 69 aa 3c
       0.12439138 -0.020674832 0.092792474 0.020802114
000080 0c 0a 13 3d 58 61 0c 3e eb c8 09 3e be ed c5 3d
       0.035898253 0.13709009 0.1345555 0.09664486
000090 e4 af 44 be cf 3d e2 3d 8a f2 df bc 85 46 14 bd
       -0.19207722 0.11046945 -0.027337331 -0.036200065
0000a0 a4 81 a8 bd da 7f 3f be c0 eb 08 be 8a d5 07 be
       -0.08227852 -0.18701115 -0.13371181 -0.13265052
0000b0 8f ca 47 3e e5 50 2e 3e f2 3f 52 be 4b d2 d4 bd
       0.19510864 0.17023046 -0.20532206 -0.10391673
0000c0 c8 16 b5 bc 09 dd 0d 3d fa 1a 31 3e 52 46 b2 3d
       -0.02210559 0.034634624 0.17295447 0.08704819
0000d0 37 21 3d 3d 95 a8 51 3d a6 ff 0f 3e db 32 81 ba
       0.046174254 0.051186163 0.14062366 -0.0009857075
0000e0 67 f4 20 bd cc bc df 3d 3d cb c5 3c d8 3c 1e 3c
       -0.03929558 0.10924682 0.024144763 0.009658061
0000f0 d7 3e d8 3d 31 0b 79 3d 4b 6c 82 3d 95 7e c8 3c
       0.10558861 0.06080169 0.063683115 0.024474422

module.bi_lstm1.weight_ih_l0_reverse f4 [64, 14]
000000 34 7b 35 be 7a c6 16 be 8f e5 47 be a6 00 33 bd
       -0.1772278 -0.1472415 -0.19521163 -0.04370179
000010 5f 14 db bd 41 3d a3 bd 77 93 3c be 2c 61 7c bd
       -0.10697245 -0.07970668 -0.18415628 -0.061616108
000020 d6 31 b5 bd 16 b3 ac bb e3 0f c5 3c 47 64 51 be
       -0.08847396 -0.005270372 0.024055427 -0.20448409
000030 1d fa 7f bd 4b d3 93 3c f5 5d e1 3c cf c9 ef 3b
       -0.062494386 0.018045088 0.027510623 0.0073177586
000040 c1 ed 03 3d a4 ec ff bb de 8f 8e bb 23 9d 3b bc
       0.03220916 -0.007810192 -0.0043506464 -0.0114510385
000050 1e 5b fa 3c 5a 23 93 bc 6a 0b 2b 3b 14 c1 58 bc
       0.030561026 -0.017961193 0.0026099333 -0.013229627
000060 c1 c5 44 3d 85 ea 35 3c d3 9c d4 bb ca 66 dc bc
       0.048040155 0.011103277 -0.0064884215 -0.026904482
000070 51 42 d2 3d 43 52 0b 3e 3a f4 ae 3d 5e eb 63 bc
       0.10266555 0.13605599 0.08542676 -0.013911096
000080 7f 7d 72 3d 62 50 12 3d 7c c3 02 3e cd d0 19 bc
       0.059201714 0.03572119 0.12769884 -0.009388161
000090 af ad a2 3d 4c 52 fc 3c 4d d8 48 3e 20 e3 a9 3d
       0.07943284 0.030800961 0.19613762 0.08295274
0000a0 f7 32 e6 3c 64 3c 80 3d 36 cc b9 bd fd a4 8b 3c
       0.028100474 0.062615186 -0.09072153 0.017046446
0000b0 41 3c 2e be 01 91 b1 3e b2 04 f9 3b d0 95 b3 3d
       -0.17015173 0.34680942 0.0075994367 0.08768809
0000c0 9a f3 d7 bd 3b 59 93 3e f1 84 1b bd 46 7a 05 3e
       -0.1054451 0.28779015 -0.03796858 0.13034925
0000d0 da b2 9c be 0f ad 3a bd 64 65 4c 3e a0 02 4b 3e
       -0.30605203 -0.045575198 0.19960552 0.1982522
0000e0 aa 53 37 3b 80 10 25 bc db 0f 93 bc f8 c7 b7 3c
       0.0027973452 -0.010074735 -0.017951896 0.02243422
0000f0 5c 97 c8 bb 5d 74 46 bc b4 b3 cf bc d1 1c b1 3c
       -0.006121559 -0.012112704 -0.025354244 0.021620186
000100 9e c9 fd ba dd a5 8a 3c f1 50 22 3d 3d 87 07 bd
       -0.0019362455 0.016924793 0.039627973 -0.033087958
000110 65 16 65 3c ad d0 44 3d c3 7f 52 3e 9e e5 bb 3d
       0.01398239 0.04805057 0.2055655 0.091746554
000120 27 ed 06 3d 09 21 0e 3c 4f 1b e1 bd 47 b7 37 be
       0.03294101 0.008674868 -0.10991537 -0.17941009
000130 41 61 f7 3d ab 5e e7 bc 62 54 19 be 3e d5 52 be
       0.120790966 -0.028243383 -0.14973596 -0.20589158
000140 29 9d cf 3d 87 db 93 3d 8f 4c a6 3d 11 72 ec 3d
       0.10137398 0.07219606 0.08120071 0.11545194
000150 47 6c 8f 3e 07 0a 7f 3e a7 3e 82 3e 6d 26 a5 be
       0.28012297 0.24906169 0.25438425 -0.3225588
000160 04 30 45 3e 64 34 ab be c2 2d c5 3e 1e 44 ee be
       0.19256598 -0.33438408 0.38511473 -0.46536344
000170 1b c8 97 3e 67 4e 06 bf 68 6e 0e 3f 66 66 54 3e
       0.29644856 -0.5246338 0.55637217 0.20742187
000180 22 97 88 be 25 fa 2c bd f1 90 2b 3c 4e a7 15 ba
       -0.26677805 -0.042230744 0.010471568 -0.0005708829
000190 79 c3 d1 bc 53 ba 98 bb a5 10 71 bb 96 51 0f bd
       -0.025605904 -0.0046608835 -0.0036783603 -0.034989916
0001a0 1d 0b e0 bc 9f 0a f3 3b 0e 53 b9 bb 89 19 c3 bc
       -0.02734905 0.0074170376 -0.005655653 -0.023815887
0001b0 0d af 19 bc e4 7d a5 bc cd 9a c4 3b 86 aa 62 3d
       -0.009380114 -0.02020163 0.005999899 0.055338405
0001c0 8b ca 71 3d 12 b8 06 3e c9 d8 55 3d c6 61 25 bc
       0.05903105 0.13156155 0.052208696 -0.010094112
0001d0 b5 a9 4f 3d 3d b9 4a 3d f7 e4 9b 3d f4 4e 91 bc
       0.050698955 0.049493063 0.07612031 -0.017737843
0001e0 02 4d 96 3d ce 39 7d 3d 34 51 51 3e 94 73 bc 3c
       0.07338907 0.061822705 0.20441133 0.02300433
0001f0 19 70 44 3d fd 4e 46 3d 98 ea 20 bc 27 30 9d bc
       0.047958467 0.048415173 -0.0098215565 -0.019188
000200 6c e6 17 3c bf 1e f6 bc 1e cc 16 bc 60 83 65 3d
       0.009271245 -0.030043958 -0.009203939 0.056033492
000210 e9 a1 bf 3b 27 4a af 3d 0b 0c ff 3c 6f 7b 8d 3d
       0.0058481586 0.08559065 0.031133672 0.06908309
000220 e6 8a e8 bd 16 a7 7f 3c 24 cf 58 bd ba 16 b0 bd
       -0.11354618 0.015603801 -0.05293192 -0.08598085
000230 05 ee d5 bd 39 e4 94 bc 5d 7f bf bd 0f 19 be bd
       -0.10445789 -0.018175231 -0.093504645 -0.09282123
000240 27 0e 00 bd 11 25 ad bd 22 5a d6 bd 19 5d 8c bd
       -0.031263497 -0.084543355 -0.1046641 -0.068536945
000250 e0 a9 9e bc 4a f2 ad bd ff 71 06 be 94 90 8c bd
       -0.019368112 -0.084934786 -0.13129424 -0.068635136
000260 35 ab 6f bd 34 f6 56 bd 27 92 38 3d 61 d0 30 3e
       -0.058512885 -0.05248089 0.045061257 0.1726699
000270 83 1d 9a 3d 94 a0 5c 3d 26 3e 9a 3d 7e 81 88 3c
       0.0752516 0.053864077 0.07531385 0.01666331
000280 4c 2b b8 3d d5 6d 8d 3d 93 05 af 3d f5 59 ef bb
       0.08992633 0.069057144 0.08545985 -0.007304425
000290 14 e9 0c bd 51 84 aa 3d e3 d1 9c bc ea 77 a8 3c
       -0.034401968 0.083260186 -0.01914305 0.020564992
0002a0 42 8b 22 3e 3a 3b 29 3e d8 5a d1 3d 4d d0 12 bd
       0.15873435 0.165265 0.10222405 -0.035843182
0002b0 60 21 49 3e bb 82 96 3d 3d fb 1d 3e a7 07 bc bd
       0.19641638 0.073491536 0.15427871 -0.09181147
0002c0 1a f4 58 3e e3 33 2d 3d 39 33 08 3e 83 b3 b3 3d
       0.21186867 0.04228581 0.1330079 0.087744735
0002d0 f5 51 ee bc 89 c5 15 bd 1d 2e d5 bb 05 e0 30 ba
       -0.029091815 -0.036565337 -0.0065057413 -0.00067472487
0002e0 ba 15 d9 3b df d0 11 3c c4 3b 01 bd 68 bb 92 3d
       0.0066249045 0.008899896 -0.031551138 0.07164651
0002f0 d2 b3 cb bc 2b b6 e7 3c 5d 54 30 bd 49 a7 b7 3d
       -0.024866018 0.028285107 -0.043049205 0.08967454
000300 61 0d 8c 3b 60 18 d0 bc bb a3 ba bc 21 51 2e bd
       0.004274056 -0.025402248 -0.02278315 -0.04255784
000310 92 75 9c 3c a5 d4 bf 3d 36 fe 9e 3c 4a c3 6e 3d
       0.01909903 0.093667306 0.019408327 0.05829171
000320 e8 81 62 3c 40 0c 05 3c e6 9e 66 3d 7a 36 1c 3d
       0.013824917 0.008120596 0.05630388 0.03813789
000330 c0 7d a2 3c f7 3f a4 3c 95 b0 9b 3d 8a 5e 6c bc
       0.019835353 0.020050032 0.0760204 -0.014426837
000340 5e db a9 3d 55 f0 a1 3d 60 4c 93 bc 0f 14 92 3c
       0.08293794 0.07907168 -0.017980754 0.01783183
000350 fc 54 98 3c 41 b4 93 3d da 3c f6 3c a1 88 83 3d
       0.018595211 0.07212115 0.030058313 0.06422544
000360 b3 8c 42 3b 1f 27 45 3d 65 d7 1a 3d 00 8b d5 3d
       0.0029685914 0.048133012 0.037803072 0.10426903
000370 77 21 7c 3d 19 5a 9e 3b 0b 59 8e 3d ed f0 1a 3c
       0.061555352 0.004832518 0.06950577 0.009456855
000380 27 9b 30 3e c3 4c e5 3d d9 2d 1c 3e 69 4b 10 3e
       0.17246686 0.11196282 0.15251864 0.14091267
000390 b0 60 1b 3e 4d bf e1 3d 4c 89 0e 3e d9 d5 d1 3d
       0.15173602 0.11022816 0.13919562 0.10245866
0003a0 f1 ce 11 3e d1 a0 1a 3e dd 53 99 3e 3e e8 04 3e
       0.14239098 0.15100409 0.29946795 0.12979218
0003b0 85 de 68 3e 40 20 62 3e 19 e2 81 3d 92 9a 42 3d
       0.22741134 0.22082615 0.06341953 0.04751069
0003c0 c1 a7 7a 3d 2e c8 50 3b 50 0f 06 3d f3 00 4d bc
       0.06119514 0.0031857598 0.032729447 -0.012512433
0003d0 16 48 8f 3d 17 ed 0c bc 78 dc 0e 3d c2 86 6e bc
       0.06996171 -0.0086014485 0.034878224 -0.014558496
0003e0 be 74 af 3d 32 96 2c 3d 65 01 a4 3c 1f 06 f3 3b
       0.08567189 0.042135425 0.020020196 0.007416501
0003f0 77 ee 16 3d 74 6b 7e 3d 36 ec 1d 3d dc 8c 99 bd
       0.03684851 0.062114194 0.038555346 -0.0749757

module.bi_lstm1.weight_hh_l0_reverse f4 [64, 16]
000000 93 81 01 be b8 da 46 bc 3d 7e 32 3d e4 c5 3a be
       -0.12647085 -0.012137108 0.04357742 -0.18239552
000010 ba 16 3f 3d 16 46 53 3e b0 2b 8a bd d6 fa 20 3d
       0.046652533 0.20632204 -0.06746614 0.039301716
000020 2b c4 24 bd a9 15 4e be 42 17 12 3b 51 d3 b1 be
       -0.040226143 -0.2012545 0.0022291695 -0.34731534
000030 17 29 ed bc 57 58 77 3c f2 4b 6b bd 86 aa b2 3d
       -0.028950257 0.015096745 -0.057445474 0.08723931
000040 9a 73 f7 3c d4 dc d0 bc e7 29 16 bd 7f e0 eb 3c
       0.03020649 -0.025495924 -0.036661055 0.028793572
000050 03 d6 cb 3c ce 74 d1 3d 43 2e 0e 3d d0 c4 cd 3c
       0.024882322 0.10227357 0.034712087 0.025118262
000060 38 b7 0e 3d 2d c0 33 bd 64 a1 59 bc 9f aa 90 bd
       0.0348427 -0.043884445 -0.013283107 -0.070637934
000070 2a 45 79 3c 18 8f bf 3c 07 ea 21 bc 6b c7 e2 3c
       0.015214244 0.023383662 -0.009882457 0.02768298
000080 4e 78 fc bb 29 5d 4d 3c 44 39 e9 bc e6 20 5e 3d
       -0.007704771 0.012534418 -0.02846969 0.054230593
000090 7a 48 25 bc b1 ef eb 3c b2 46 31 3d bd 00 40 3c
       -0.010088081 0.028800817 0.04328031 0.011718926
0000a0 93 63 bc 3a e6 e6 78 3c 68 73 11 bd 36 0b 5d bc
       0.0014372937 0.015191769 -0.03551045 -0.013491442
0000b0 72 f9 e5 3b 27 ea f6 bc 69 cf 12 bd 51 3a 4f bb
       0.0070182616 -0.03014095 -0.035842333 -0.0031620453
0000c0 c4 79 61 be f9 9c bf bd 7e 56 80 3e dd d4 91 bd
       -0.22019106 -0.09356112 0.25065988 -0.071206786
0000d0 c0 36 15 bd 03 e0 ac 3e 5c cf bc bd e6 f8 73 bc
       -0.036429167 0.33764657 -0.09219238 -0.014890885
0000e0 f5 3a 5b be 09 bd 04 bf 0c c1 26 3e 8f b0 8e be
       -0.21409209 -0.51850945 0.16284579 -0.2786908
0000f0 ca 21 0b 3e 14 68 6a 3e 8d 60 eb bd 33 0a 56 bd
       0.13587108 0.22891265 -0.11493025 -0.05225582
000100 51 d9 2e bd 3b fd 93 bb 99 e3 08 bc b7 4d 77 bd
       -0.042687718 -0.0045162714 -0.008355045 -0.06037685
000110 25 6f 92 3c b5 5a ee 3d 13 76 e9 bb c3 d7 28 3c
       0.017875263 0.11638395 -0.0071246712 0.010305348
000120 bc b0 7d 3c b1 71 8a bd 3c 26 a0 bc f2 8a 73 bd
       0.015484031 -0.06759966 -0.019549482 -0.05945868
000130 96 43 91 bc 0c b7 b1 3c 87 ad 50 bc cc 0c d0 3c
       -0.017732423 0.021693729 -0.012736685 0.025396727
000140 c2 8b b9 bb bb 58 03 3d fe e9 90 3d b8 4e 4c bd
       -0.0056624124 0.03206704 0.070758805 -0.04987976
000150 b3 1b 42 bc 04 92 91 bd e0 52 97 bc 97 c7 84 ba
       -0.011847424 -0.071079284 -0.018472135 -0.0010130283
000160 75 e1 9b bd ba 87 27 3d 2f dd ab bb 3b ef 17 3e
       -0.07611362 0.040900923 -0.005244873 0.14837353
000170 04 39 98 3b 72 28 d3 3d 0d 9c 96 3d 76 b5 36 bd
       0.0046454687 0.10310449 0.07353983 -0.04460665
000180 e0 1c 89 bd 24 d7 4e 3d c7 8b 1e 3d 10 1b df 3e
       -0.066949606 0.050498143 0.03870752 0.43575335
000190 8b 19 f7 bd 11 2a 6d 3e ff 49 4e 3e 2b 4e 5d bb
       -0.12065419 0.23160578 0.20145415 -0.0033768516
0001a0 61 f0 0e be e4 1e ff bb 8b 5b a2 3d bd ed 00 3d
       -0.13958885 -0.007785665 0.07927617 0.031476725
0001b0 ff bf 8f 3d 73 fa 14 3e aa 50 5a bd 17 bd 33 be
       0.07019042 0.14548664 -0.053299583 -0.17552601
0001c0 1c b3 f5 ba c6 4d 55 bc 20 e3 a6 bc 68 bf 82 bc
       -0.0018745395 -0.013019031 -0.020371974 -0.01596041
0001d0 33 85 b9 3c bc 8a a8 3c 93 e4 1d 3c 8e ad 75 3c
       0.022646522 0.020573966 0.009637016 0.014994992
0001e0 0b b8 97 3c 73 8c 84 3b 8a a3 cf bc 48 66 14 bd
       0.018520376 0.004045063 -0.025346536 -0.036230356
0001f0 ea 99 c4 3b eb 7a db 3b 19 83 8e ba 3c 44 db 3c
       0.0059997933 0.0066980026 -0.001087281 0.026765935
000200 39 0e 74 bd ec 70 6d 3c c5 f1 be bb 49 ba 40 3c
       -0.059583876 0.014492255 -0.005827161 0.011763164
000210 2b 75 c7 bc 17 bf 8c 3d f1 f7 97 3b 3a e7 75 bb
       -0.024347862 0.06872385 0.004637711 -0.0037521855
000220 5a e4 8f bc fb 47 36 bd f8 0e a1 bc 28 d8 45 bd
       -0.017564941 -0.04450224 -0.019660458 -0.048301846
000230 11 2f 2c bb 10 55 63 bc b9 06 89 bd 85 d0 21 bc
       -0.002627317 -0.013875261 -0.06690735 -0.009876375
000240 0d 67 3f be 8f 1d 3b 3e 65 30 c0 3d f5 1b 8d bd
       -0.18691655 0.18272994 0.093842305 -0.06890098
000250 70 cf cc bd a5 f6 35 bd 55 e1 07 be 57 00 97 bd
       -0.10000503 -0.04442467 -0.13269551 -0.07373112
000260 f6 59 3e be 1c f6 b0 bc d9 d8 2c 3d ee 59 93 3e
       -0.18589005 -0.02160173 0.04219899 0.28779548
000270 56 7f 81 3c 00 c5 0f 3e c3 b7 8c bd 5b 79 29 be
       0.015807789 0.14039993 -0.06870987 -0.165502
000280 27 77 b5 3d 30 de 1b bc 2b 50 94 bc 71 73 2c 3d
       0.08860617 -0.009513423 -0.018104633 0.04210228
000290 11 d6 2a 3d 4c f6 6c 3d 48 0a 3e bd a8 3d f8 3c
       0.041708056 0.057852075 -0.046396524 0.030302837
0002a0 d6 36 a0 3c 0e 53 6a bd be 50 2e 3c be 90 9b bd
       0.019557398 -0.057208113 0.010639368 -0.07595967
0002b0 e2 7d 28 3c 62 c9 e1 3c b3 95 45 3c 58 9d 2a 3d
       0.010283919 0.027561847 0.012059617 0.04165396
0002c0 1b a1 a6 bd 73 d3 a4 3d dd db a7 bb d9 93 08 be
       -0.08136197 0.08048143 -0.0051226453 -0.1333765
0002d0 e4 b2 48 bc 02 3a 9d 3e db ce 13 3b 48 f1 ee 3a
       -0.012249682 0.3070832 0.0022553715 0.0018229866
0002e0 9d 1a 67 3d 12 1d 7b be f5 1d d7 3d 59 cd 49 3d
       0.056421865 -0.24522808 0.10503761 0.0492681
0002f0 9a 99 31 be 67 55 fe 3d 68 3a 70 3d a6 0a b5 3c
       -0.1734375 0.12418633 0.05864945 0.022099804
000300 8c 70 7f 3c 05 3a 9d bc 6b 67 a4 3c 06 a4 b5 3d
       0.015590798 -0.019192705 0.020068845 0.088691756
000310 9f 2a 6e bc 42 86 81 3c a6 8c 69 bd 4b db 11 bc
       -0.014536529 0.01581109 -0.0570189 -0.008902381
000320 aa bf 10 bd ef 6b 15 be 84 a7 06 3d 63 e9 4d bd
       -0.035339035 -0.14591955 0.0328746 -0.050271403
000330 92 72 31 3d bc 1a e4 3c 81 1b 58 bd 18 b6 01 bd
       0.043322153 0.02784478 -0.052760605 -0.0316678
000340 6e 15 ba 3d 94 f3 1b b8 85 2f c5 bd db 7b bf bd
       0.09086119 -3.718173e-05 -0.09628204 -0.093497954
000350 51 2f c0 3d 54 2a 58 3e 70 bd 0d 3e f8 71 a5 3d
       0.09384025 0.21109897 0.13841796 0.080783784
000360 41 f6 fd 3d 95 6e 5f be 85 75 02 3c a0 d4 50 be
       0.12400485 -0.21819527 0.007962589 -0.2039361
000370 ba 58 b6 bd e4 f7 f0 3d 57 25 86 3c 6e b2 00 3e
       -0.08903642 0.117660314 0.016375227 0.12568066
000380 2c db 25 bd 6e 6e d0 bb 1d aa 13 3d cd 91 09 bc
       -0.04049222 -0.0063608205 0.036050905 -0.008396578
000390 d8 22 82 3b 72 66 75 3d 62 f1 55 bd ab ac b5 3b
       0.003971439 0.059912153 -0.052232154 0.0055442653
0003a0 34 94 65 bd 05 1e b4 bd 6a b8 48 bc f3 9c aa bd
       -0.05604954 -0.08794788 -0.012250999 -0.08330717
0003b0 3f 3c 24 3d a0 d8 57 3c f5 8b 2f bd 44 a6 12 bc
       0.040096518 0.013174206 -0.042858083 -0.008950774
0003c0 85 bd 88 bd d7 62 9b 3c 81 63 24 3c ee aa ca bd
       -0.06676773 0.018968029 0.010033489 -0.098958835
0003d0 81 40 76 bc 58 97 e5 3d ed ea 5c bc 21 86 40 bc
       -0.015030027 0.11210507 -0.013483745 -0.011750729
0003e0 2d 71 04 bc cd 32 cf bd c8 df ea bb c5 9c 00 bd
       -0.008083624 -0.10117111 -0.00716779 -0.031399507
0003f0 5d 16 8e bc 4e 1a 2c 3c e4 0d 37 bd ce 33 1b 3a
       -0.017344648 0.010504318 -0.04469098 0.00059205

module.bi_lstm1.bias_ih_l0_reverse f4 [64]
000000 b5 40 7c 3d 14 6a a8 3c 5d 0a 04 3e 0a 1a 81 3d
       0.061585147 0.020558394 0.12894578 0.06303795
000010 43 08 c5 3d a9 59 d5 3d 81 c1 b1 3d 1a e8 42 3d
       0.096207164 0.10417492 0.08679486 0.04758463
000020 16 37 d7 3d fb 54 87 3d 40 d7 35 3d 6c 9d 36 bc
       0.10508554 0.066080056 0.04439473 -0.011145931
000030 c3 31 97 3d 0a a9 3f bd bd f5 04 3e 46 66 d4 3d
       0.07382538 -0.046792068 0.12984367 0.103710696
000040 b0 91 b7 3e fa f3 99 3d 74 75 0f bd 06 c0 a0 3e
       0.35853338 0.07517238 -0.03502412 0.31396502
000050 f5 4d dc 3d 72 2e 5b 3e 5b e9 4c 3d 1a bd 72 3d
       0.107570566 0.21404436 0.050027233 0.059262373
000060 90 11 ce 3d 82 da 99 3e d1 3b 4a bd d2 5a 88 3d
       0.100619435 0.3004952 -0.04937345 0.066579476
000070 47 7d 0b 3c 11 61 c4 3d da dd a5 3d 85 40 39 3e
       0.008513755 0.095888264 0.080989555 0.18091018
000080 92 49 08 be d4 fa 11 3d bf 09 f4 3d 8d 62 3e 3e
       -0.13309315 0.0356396 0.119159214 0.18592282
000090 71 a7 c1 bc de 44 3f be fc cb 82 be 87 8a 90 3d
       -0.023639413 -0.18678614 -0.25546253 0.07057672
0000a0 15 58 9b be a4 c6 28 3e f2 99 80 be 14 2e 85 3c
       -0.3034064 0.16482025 -0.2511745 0.016257323
0000b0 ac fb 78 3e c6 d5 1c 3b 0a 16 81 be 41 c2 58 3d
       0.24314755 0.002393113 -0.25212127 0.05291963
0000c0 7f 05 5d 3e 5d 03 02 3d 38 e0 1e 3e c6 c2 ae 3e
       0.21584128 0.03174149 0.1551522 0.34132975
0000d0 21 ce 0c 3e 46 97 c6 3c e6 7a 8d 3d 7e c4 62 3d
       0.13750507 0.024242055 0.06908207 0.05536317
0000e0 da 02 11 3e 04 93 db 3d 4d 15 98 3d 03 3d 41 3d
       0.14161244 0.107214004 0.07425938 0.047177326
0000f0 cd 77 b4 3d a9 3c d3 bb d4 d4 2f 3e 1e 3c 03 3e
       0.08811913 -0.0064464402 0.17171031 0.12815902

module.bi_lstm1.bias_hh_l0_reverse f4 [64]
000000 67 ae 8b 3d a9 94 a8 3c c2 ca f4 3d 49 fb 26 3d
       0.06820374 0.0205787 0.119527355 0.040766988
000010 d9 6e ba 3d 5a 62 cf 3d f2 49 6d 3d 47 88 50 3d
       0.09103174 0.10126181 0.057931848 0.050911214
000020 9e 63 1a 3e 97 38 98 3d 4d 25 e1 3b 0c 11 13 bd
       0.15077063 0.07432669 0.0068709017 -0.03590493
000030 8f d2 7a 3d 76 2b 37 bd 2d 53 0f 3e b3 e2 01 3d
       0.06123596 -0.044719182 0.13996573 0.031710338
000040 f1 b4 bf 3e 4b 15 98 3d ed df 41 bc 00 3e b2 3e
       0.37442735 0.07425936 -0.011833173 0.34812927
000050 ea 3b b3 3d db 6c 3e 3e 19 3c 4d 3d f9 ba 75 3d
       0.08751662 0.18596213 0.05010614 0.059992764
000060 e6 7d 09 3e 1c a8 b2 3e 06 45 6f 3d c2 e0 ca 3d
       0.13426933 0.34893882 0.058415435 0.099061504
000070 20 6c 09 3c a3 67 c4 3d 5c 70 fc 3d cd ac 91 3d
       0.008387595 0.0959008 0.12326118 0.07113037
000080 46 dc 9f bd 58 37 00 be e4 77 99 3d bd 34 fe 3d
       -0.07805686 -0.12521112 0.074935704 0.12412403
000090 84 f6 a7 3d b8 ab e4 bd fe 37 2a be ff 76 a6 3d
       0.08201316 -0.11165565 -0.16622922 0.081281655
0000a0 e6 8b 31 bd 69 a6 84 3e b2 75 6c be 66 a4 85 3d
       -0.04334631 0.2590821 -0.23091772 0.06525497
0000b0 b1 0b 3d 3e 25 a8 11 bd 25 42 0a be 05 ef 38 be
       0.18461491 -0.035560746 -0.13501795 -0.18059929
0000c0 46 0c 5d 3e f2 78 02 3d 6a b9 0c 3e bf 52 84 3e
       0.21586713 0.031853624 0.13742605 0.2584438
0000d0 7f 29 02 3e 93 7e 14 3e 89 4b 66 3d 6d 04 ad 3d
       0.12711142 0.14501409 0.05622438 0.0844811
0000e0 fe 71 00 3e 63 61 f5 3c 89 02 b2 bd 0d cd fa 3c
       0.12543485 0.029953664 -0.0869189 0.030615354
0000f0 3a 43 f3 3d e6 2b c5 bb b1 84 01 3e d5 7f e3 3d
       0.11878057 -0.006017196 0.12648274 0.111083664

module.bi_lstm2.weight_ih_l0 f4 [128, 16]
000000 36 24 7c 3c 09 35 ab 38 87 03 b8 3a ae 65 a8 3c
       0.015389493 8.163794e-05 0.0014039137 0.020556297
000010 7a 7c 4f bb cf 07 cf bc 74 2a 35 3c b7 8c 4b bb
       -0.0031659887 -0.025272278 0.011057485 -0.0031059214
000020 6d bb 27 bb 1a 72 96 3c 64 55 25 bc e4 01 97 3c
       -0.0025593892 0.018364955 -0.0100911595 0.018433519
000030 d9 a3 36 3b 6b 53 3e bc f6 53 03 ba f4 c0 3c bb
       0.0027868657 -0.011616568 -0.00050097646 -0.0028801532
000040 71 9a 3a 3b 7f 64 0b 3a b7 fb f8 3b 03 8c 2c 3c
       0.0028473402 0.0005317404 0.007598366 0.010531428
000050 45 b3 05 bc 32 61 ae bb cb ea 66 b9 8f cd d4 bb
       -0.008160417 -0.005321645 -0.00022021976 -0.006494231
000060 32 2b f0 bb 42 df 0d 3b cd 5f b8 3a 85 de 83 3b
       -0.007329368 0.0021647965 0.0014066637 0.004024329
000070 48 92 0d 3c f8 7a dd 39 02 b9 d4 bb 36 e5 3d bc
       0.008640833 0.00042244024 -0.006491781 -0.011590293
000080 0c f6 82 3b 36 98 d8 3b 21 93 e3 39 f3 5f 86 3c
       0.003996616 0.006609942 0.00043406434 0.016403174
000090 3e 04 0c bc 92 ab 38 bc dd 72 58 3c 4e ff 3b bb
       -0.008545933 -0.011271374 0.013210979 -0.002868611
0000a0 95 e7 5e bb de ac 53 3c 55 62 05 bc 55 76 99 3c
       -0.0034012545 0.012919633 -0.00814112 0.018733183
0000b0 34 09 c2 ba 40 7f 0c bc 45 b9 3d bb fa 2f ee bb
       -0.0014803768 -0.008575261 -0.002894954 -0.007268903
0000c0 ea cf 47 3c 50 41 be b8 d0 38 93 3c e8 80 19 3c
       0.012195567 -9.0720714e-05 0.017971426 0.009369113
0000d0 1f 51 48 bc 48 f8 f9 bc 2a 52 38 3b 13 7f 62 bc
       -0.012226372 -0.030513898 0.0028125145 -0.013824242
0000e0 e3 13 de bb 16 c9 d4 3c cd b7 fe bb 0e 69 e6 3c
       -0.006777273 0.025974791 -0.0077733756 0.028126266
0000f0 65 d6 d8 3b 57 c7 6d bc 1f 48 91 bb 97 d8 67 bc
       0.0066173547 -0.014512858 -0.0044336463 -0.01415076
000100 da 13 4f 3c db ed 0c bb de 50 23 bc e4 1c bc 3b
       0.01263901 -0.0021504078 -0.009968011 0.0057407487
000110 07 49 8e 3b a1 f1 bd bb 46 5e 8d bb 52 1a 1f 3b
       0.0043422016 -0.0057966267 -0.004314217 0.0024277163
000120 8b df 80 3b 48 fe 63 3b b2 8c 14 3b 04 8c b5 3b
       0.0039328984 0.0034789015 0.0022666869 0.005540373
000130 2e 65 35 bb 3a e3 88 3b 66 c5 3c 3b 0d 41 c8 3b
       -0.0027678716 0.004177478 0.0028804182 0.0061112703
000140 99 c5 ff 3a df 5b ef b8 cf 27 5a 3c e9 83 07 3c
       0.0019513845 -0.000114135204 0.013315155 0.008271196
000150 aa 29 15 bc fa 84 ae bc a9 ae b6 3b f2 54 0c bc
       -0.009104172 -0.021303643 0.0055750203 -0.008565174
000160 b9 31 88 bc 11 10 d8 3b c8 34 40 bb df c5 c8 3b
       -0.016625272 0.006593712 -0.0029328335 0.0061271037
000170 20 44 c8 3b 55 8a 0f bc 06 25 c0 bb 47 7d ce bb
       0.0061116368 -0.008761008 -0.0058637885 -0.0063015553
000180 90 49 7e bb 48 9b c2 3b 10 f6 f9 3b 23 6d 41 3c
       -0.003880117 0.005938921 0.00762821 0.011805805
000190 b6 88 04 bc 71 89 8a bb 41 87 bb 3b 4a 9c ad bb
       -0.008089235 -0.00422781 0.0057229106 -0.005298172
0001a0 3a 19 0e bc ae 9c 71 b8 3a c9 2c bb e3 fd bc 3b
       -0.008673007 -5.7604797e-05 -0.0026365058 0.0057675703
0001b0 5e 6b b2 3b 5a 3b a9 ba 8a 85 05 bc e5 e1 44 bc
       0.005444928 -0.0012911365 -0.008149514 -0.012016748
0001c0 ec 2a 32 3b 34 03 28 3b 8f 1a 44 ba a4 9b 1d 3c
       0.0027186228 0.0025636675 -0.0007480764 0.009619627
0001d0 ff fe ec b9 33 35 78 bc 2d 9b 0a 3c 96 fa 3c b9
       -0.00045203415 -0.015149402 0.008459848 -0.00018022428
0001e0 d8 91 35 bc 4f 2c b7 3c bb 99 4b bc c7 c9 43 3c
       -0.011082135 0.022359995 -0.012426789 0.011949963
0001f0 a4 0f 81 bb c5 22 40 bb 11 3e 34 bb 26 89 97 bb
       -0.003938632 -0.00293176 -0.0027502815 -0.0046245037
000200 79 bf 97 3a 6f e2 ff ba 78 b7 3e 3c a2 5b d1 3a
       0.0011577449 -0.0019522439 0.011640422 0.0015972743
000210 9c 1b 33 bc 9a 11 65 3b 73 57 50 bc d7 35 05 bc
       -0.010931876 0.0034953118 -0.012716162 -0.008130512
000220 b1 2a 1f bc a8 85 37 bc 66 11 25 3b 6f 6b 5b bb
       -0.009714768 -0.0112013 0.0025187372 -0.0033480783
000230 7b 27 88 3c 6e 89 ce 3b 35 be 3b bc 07 d1 45 bc
       0.016620388 0.006303004 -0.011458923 -0.012073762
000240 de b4 83 bc 12 65 af 3b e2 17 90 3c ba 83 41 bc
       -0.016077455 0.0053526247 0.017589513 -0.011811191
000250 e5 eb 45 bc 36 26 94 bc d4 fc 13 3a 70 d3 70 bc
       -0.012080167 -0.018084627 0.00056452793 -0.014698848
000260 22 2b 9e bc d3 19 96 3c 91 56 20 bc ef 2b 71 3c
       -0.019307677 0.01832286 -0.009786264 0.014719947
000270 1c 7a 88 3b 44 ef fc bb 76 0b 0a bc 85 00 e5 bb
       0.004164947 -0.0077189524 -0.008425584 -0.0069885873
000280 2e 4e b0 3a ca 0c 30 3a cc df 85 3b 29 46 24 3b
       0.0013451034 0.0006715773 0.0040855166 0.0025066233
000290 e5 cd 52 bb ed 68 4e 3b a0 24 6d bb 9d b1 a1 ba
       -0.003216618 0.0031495646 -0.003618516 -0.0012336258
0002a0 13 92 87 bb 73 e1 a1 bb 54 43 83 3a 78 96 bb ba
       -0.0041372865 -0.0049402057 0.0010014572 -0.0014311811
0002b0 5e 41 9a 3b f8 e4 60 3a a2 13 c0 bb 36 45 a7 bb
       0.0047074994 0.0008579041 -0.0058617154 -0.005104686
0002c0 9f a1 4f 3c 86 b6 cb 3a 8a 2d 5c 3c 93 77 48 3c
       0.012672811 0.0015542067 0.013438592 0.01223554
0002d0 b5 64 8a bc 5a bd bc bc 99 44 21 bc 4c 42 0d bc
       -0.016893724 -0.023039509 -0.009843015 -0.008621763
0002e0 c2 56 a2 bc b0 37 eb 3c 13 bd 44 bc 89 6d 02 3d
       -0.01981676 0.028713077 -0.012007969 0.031842742
0002f0 51 e9 88 3c aa 38 95 3b a1 72 68 bc 26 90 00 bd
       0.016712816 0.004553874 -0.014187486 -0.03138747
000300 99 48 07 ba fa af fe 3b ee a0 6b 3c 41 c5 7b bb
       -0.0005160659 0.007772443 0.01438163 -0.0038417133
000310 ab ff 66 bc d1 d8 71 3b 35 25 22 bc d7 26 3a bc
       -0.014099042 0.0036902914 -0.009896566 -0.011361799
000320 f2 1c 74 bc 4a 3c 5e bb 91 cc 11 3a 84 32 99 ba
       -0.014899479 -0.0033910447 0.0005561794 -0.0011688028
000330 0c 8e 60 3c c9 f8 28 3a fb c4 1c bc f9 3f 48 bc
       0.013705742 0.0006445763 -0.009568448 -0.0122222835
000340 ce b3 ea ba 4c 09 8f bb e5 b6 21 3b 1e f8 56 3b
       -0.0017906369 -0.004365122 0.0024675664 0.0032801698
000350 64 4b 05 3c df f7 3f bc e9 23 8f 3b 65 52 fd 3b
       0.00813565 -0.011716812 0.0043682945 0.0077307695
000360 bd a2 1c bc a6 b2 47 3c 94 be 2f bc 1f ea 29 3c
       -0.009560284 0.012188589 -0.01072659 0.01037076
000370 91 15 98 3a b1 61 88 3a 31 7a 93 b9 ac 96 8d bb
       0.0011603107 0.0010405091 -0.00028129065 -0.00432094
000380 ba c2 de b7 db 53 d2 3b 5c f7 90 3c 1e 1e 04 3a
       -2.6555139e-05 0.0064186878 0.017696075 0.0005039888
000390 a3 a0 2c bc 9c d5 b2 bb db 9e 40 bb c8 ee 5e bc
       -0.010536346 -0.005457593 -0.002939156 -0.013606735
0003a0 25 bd 25 bc 3c f6 c7 b9 a6 c9 39 bb 3a 0a eb 3b
       -0.010115896 -0.00038139697 -0.0028348952 0.00717285
0003b0 f5 f8 5c 3c ed e8 b6 ba 71 15 ec bb 49 12 6a bc
       0.01348709 -0.0013954915 -0.0072047045 -0.014286586
0003c0 ff 66 6e bb 53 f4 dd 3a b7 77 3b 3b 78 ab 74 3a
       -0.0036377308 0.0016933776 0.002860529 0.0009333412
0003d0 fc 13 c0 3a 7a 75 33 3b 37 dd 01 bb eb 84 92 3a
       0.0014654393 0.0027383254 -0.0019815692 0.0011178529
0003e0 13 97 3b bc c4 6e b0 3b 7b 00 9e bb 86 99 37 ba
       -0.011449593 0.005384298 -0.0048218346 -0.0007003773
0003f0 05 94 ae 37 b4 b7 8a 3b 63 84 ea ba d7 d0 4b bb
       2.0811343e-05 0.004233325 -0.0017892238 -0.003109982

module.bi_lstm2.weight_hh_l0 f4 [128, 32]
000000 4c 89 00 80 e0 8a 00 80 f7 89 00 00 f0 8a 00 00
       -4.9253e-41 -4.9819e-41 4.9492e-41 4.9841e-41
000010 65 8b 00 80 3d 8b 00 80 b0 8e 00 80 98 8a 00 00
       -5.0005e-41 -4.9949e-41 -5.1187e-41 4.9718e-41
000020 0d 89 00 80 c1 89 00 80 64 90 00 00 00 89 00 80
       -4.9165e-41 -4.9417e-41 5.1798e-41 -4.9146e-41
000030 56 ad 00 80 12 8b 00 80 0f 8a 00 00 bc a0 00 80
       -6.2181e-41 -4.9889e-41 4.9526e-41 -5.766e-41
000040 83 9e 00 00 32 a4 00 80 a7 8a 00 80 88 a7 00 00
       5.6863e-41 -5.8902e-41 -4.9739e-41 6.0099e-41
000050 83 8b 00 80 3b 89 00 00 cf 8b 00 80 e2 88 00 80
       -5.0047e-41 4.9229e-41 -5.0154e-41 -4.9104e-41
000060 7d 8c 00 00 72 89 00 00 6a 99 00 00 51 8b 00 80
       5.0398e-41 4.9306e-41 5.5035e-41 -4.9977e-41
000070 d0 89 00 00 ea 8a 00 00 39 8c 00 00 31 8a 00 80
       4.9438e-41 4.9833e-41 5.0302e-41 -4.9574e-41
000080 12 91 00 00 62 8a 00 00 1d 93 00 00 ec 8a 00 80
       5.2041e-41 4.9642e-41 5.2774e-41 -4.9836e-41
000090 08 8e 00 00 f1 8a 00 00 84 8a 00 00 1e 49 01 00
       5.0951e-41 4.9843e-41 4.969e-41 1.18065e-40
0000a0 25 95 00 00 14 94 00 00 d3 8c 00 00 56 8e 00 80
       5.3503e-41 5.312e-41 5.0518e-41 -5.106e-41
0000b0 75 a8 00 00 9a 8d 00 80 29 ad 00 00 e8 88 00 80
       6.0431e-41 -5.0797e-41 6.2118e-41 -4.9113e-41
0000c0 59 89 00 80 c1 89 00 00 fd 89 00 00 16 8d 00 00
       -4.9271e-41 4.9417e-41 4.9501e-41 5.0612e-41
0000d0 90 8c 00 00 6f 8a 00 00 c5 8a 00 00 8e 8a 00 80
       5.0424e-41 4.966e-41 4.9781e-41 -4.9704e-41
0000e0 32 8b 00 80 f0 43 00 80 5c a1 00 80 4c 8b 00 00
       -4.9934e-41 -2.4371e-41 -5.7885e-41 4.997e-41
0000f0 59 8c 00 80 90 8a 00 00 e0 8d 00 80 ab 89 00 00
       -5.0347e-41 4.9707e-41 -5.0895e-41 4.9386e-41
000100 02 8e 00 80 ad 89 00 00 35 93 00 80 df 8b 00 00
       -5.0943e-41 4.9389e-41 -5.2808e-41 5.0176e-41
000110 89 ab 00 80 f8 93 00 00 1b a5 00 00 e1 88 00 80
       -6.1535e-41 5.3081e-41 5.9229e-41 -4.9103e-41
000120 53 9e 00 00 ab 94 00 00 b8 97 00 00 62 8a 00 00
       5.6796e-41 5.3332e-41 5.4426e-41 4.9642e-41
000130 54 8a 00 80 94 8b 00 00 e9 88 00 80 8e 94 00 00
       -4.9623e-41 5.0071e-41 -4.9114e-41 5.3291e-41
000140 e9 9d 00 00 14 8c 00 00 f2 8a 00 00 bf 9a 00 80
       5.6647e-41 5.025e-41 4.9844e-41 -5.5512e-41
000150 0d 8d 00 80 8e 8b 00 80 9b 8d 00 00 e3 8a 00 80
       -5.06e-41 -5.0063e-41 5.0798e-41 -4.9823e-41
000160 f1 8b 00 00 0d 8b 00 80 ba 8a 00 80 e4 8a 00 00
       5.0202e-41 -4.9882e-41 -4.9766e-41 4.9825e-41
000170 04 8a 00 00 c6 8a 00 00 c2 88 00 80 f3 8b 00 00
       4.951e-41 4.9783e-41 -4.906e-41 5.0204e-41
000180 56 8b 00 80 6f 8a 00 00 3f a8 00 80 64 89 00 00
       -4.9984e-41 4.966e-41 -6.0355e-41 4.9286e-41
000190 de 8d 00 00 be 88 00 80 00 8b 00 00 1d 8b 00 80
       5.0892e-41 -4.9054e-41 4.9864e-41 -4.9904e-41
0001a0 fb 8f 00 80 c8 89 00 80 cb 8c 00 00 a9 8a 00 00
       -5.165e-41 -4.9427e-41 5.0507e-41 4.9742e-41
0001b0 bb 8b 00 80 d2 a0 00 80 6b 89 00 80 12 8a 00 00
       -5.0126e-41 -5.7691e-41 -4.9296e-41 4.953e-41
0001c0 74 8b 00 00 d7 89 00 00 42 8a 00 00 ae 89 00 00
       5.0026e-41 4.9448e-41 4.9598e-41 4.939e-41
0001d0 a1 8a 00 00 44 8d 00 00 59 8a 00 80 07 8c 00 80
       4.973e-41 5.0677e-41 -4.963e-41 -5.0232e-41
0001e0 cd 8c 00 00 4e 89 00 00 73 99 00 80 3a 8b 00 80
       5.051e-41 4.9256e-41 -5.5047e-41 -4.9945e-41
0001f0 3c 89 00 00 2a 9d 00 80 b6 8e 00 00 c6 8a 00 00
       4.923e-41 -5.638e-41 5.1195e-41 4.9783e-41
000200 c7 8a 00 80 34 8a 00 80 1b 89 00 80 23 8b 00 80
       -4.9784e-41 -4.9578e-41 -4.9184e-41 -4.9913e-41
000210 4f 89 00 80 8b 89 00 80 36 bb 02 00 b1 8c 00 80
       -4.9257e-41 -4.9341e-41 2.5083e-40 -5.047e-41
000220 e1 8a 00 80 eb 89 00 80 ce 90 00 00 92 89 00 80
       -4.982e-41 -4.9476e-41 5.1946e-41 -4.9351e-41
000230 c3 8d 00 00 d9 95 00 80 15 8c 00 80 a9 8b 00 80
       5.0855e-41 -5.3755e-41 -5.0252e-41 -5.01e-41
000240 8a 89 00 00 95 8c 00 80 0c 8a 00 80 4e 93 00 00
       4.934e-41 -5.0431e-41 -4.9522e-41 5.2843e-41
000250 07 8c 00 00 52 8b 00 80 77 89 00 80 cc 89 00 00
       5.0232e-41 -4.9979e-41 -4.9313e-41 4.9432e-41
000260 ee 88 00 00 4f 89 00 00 60 8d 00 80 27 89 00 00
       4.9121e-41 4.9257e-41 -5.0716e-41 4.9201e-41
000270 a1 8a 00 00 94 89 00 80 5e 8d 00 80 3d 8a 00 80
       4.973e-41 -4.9354e-41 -5.0713e-41 -4.959e-41
000280 a9 8b 00 80 67 8a 00 80 50 8c 00 00 9f 8a 00 80
       -5.01e-41 -4.965e-41 5.0335e-41 -4.9728e-41
000290 09 8c 00 00 21 8a 00 00 5e 89 00 80 57 89 00 00
       5.0235e-41 4.9551e-41 -4.9278e-41 4.9268e-41
0002a0 5a 8b 00 80 cf 65 00 00 14 8a 00 80 6f 8b 00 80
       -4.999e-41 3.6522e-41 -4.9533e-41 -5.002e-41
0002b0 2e 8b 00 00 61 8e 00 80 ea 88 00 00 c4 a6 00 80
       4.9928e-41 -5.1076e-41 4.9116e-41 -5.9824e-41
0002c0 48 8d 00 00 ad 90 00 80 c7 94 00 80 d4 8b 00 00
       5.0682e-41 -5.19e-41 -5.3371e-41 5.0161e-41
0002d0 bf 89 00 80 32 8c 00 00 19 8e 00 00 db 8d 00 00
       -4.9414e-41 5.0293e-41 5.0975e-41 5.0888e-41
0002e0 f2 88 00 80 ed 91 00 80 12 8e 00 80 c8 89 00 80
       -4.9127e-41 -5.2348e-41 -5.0965e-41 -4.9427e-41
0002f0 a6 8c 00 80 b6 8c 00 80 ae 8a 00 80 4b 8b 00 80
       -5.0455e-41 -5.0478e-41 -4.9749e-41 -4.9969e-41
000300 18 8e 00 00 22 8a 00 00 4b 8b 00 00 7c 1d 00 00
       5.0974e-41 4.9553e-41 4.9969e-41 1.0577e-41
000310 22 a8 00 00 42 a5 00 80 32 8b 00 00 84 90 00 80
       6.0315e-41 -5.9283e-41 4.9934e-41 -5.1842e-41
000320 0c 9a 00 00 30 8b 00 00 84 8a 00 80 6b d7 01 00
       5.5262e-41 4.9931e-41 -4.969e-41 1.69113e-40
000330 f1 89 00 00 da 94 00 00 c0 89 00 00 22 8b 00 80
       4.9484e-41 5.3398e-41 4.9415e-41 -4.9911e-41
000340 0d 9c 00 80 d4 89 00 00 90 8a 00 00 54 8a 00 80
       -5.598e-41 4.9443e-41 4.9707e-41 -4.9623e-41
000350 43 8f 00 80 cb 8f 00 80 df 94 00 00 4d 8a 00 80
       -5.1393e-41 -5.1583e-41 5.3405e-41 -4.9613e-41
000360 82 89 00 80 8b 8f 00 80 1c 8b 00 80 52 90 00 80
       -4.9329e-41 -5.1494e-41 -4.9903e-41 -5.1772e-41
000370 40 89 00 00 bb 8f 00 80 8c 90 00 00 bc 8b 00 80
       4.9236e-41 -5.1561e-41 5.1854e-41 -5.0127e-41
000380 2e 89 00 00 ea 8a 00 80 e1 89 00 00 2a 8a 00 00
       4.9211e-41 -4.9833e-41 4.9462e-41 4.9564e-41
000390 86 8d 00 80 72 93 00 00 a9 9d 00 00 00 8c 00 80
       -5.0769e-41 5.2893e-41 5.6558e-41 -5.0223e-41
0003a0 d5 8c 00 00 a6 89 00 80 5b 89 00 80 92 a2 00 80
       5.0521e-41 -4.9379e-41 -4.9274e-41 -5.8319e-41
0003b0 03 96 00 00 62 8b 00 00 ee 89 00 00 98 96 00 80
       5.3814e-41 5.0001e-41 4.948e-41 -5.4023e-41
0003c0 c3 89 00 00 3b 93 00 00 b1 8b 00 00 fd 94 00 80
       4.942e-41 5.2816e-41 5.0112e-41 -5.3447e-41
0003d0 50 8a 00 80 9a 8a 00 00 76 a3 00 00 32 9c 00 80
       -4.9617e-41 4.9721e-41 5.8639e-41 -5.6032e-41
0003e0 06 93 00 00 ea 89 00 00 2b 89 00 00 13 8a 00 00
       5.2742e-41 4.9474e-41 4.9207e-41 4.9532e-41
0003f0 7f 8a 00 00 cf 8c 00 00 cc 8e 00 00 74 8a 00 00
       4.9683e-41 5.0513e-41 5.1226e-41 4.9668e-41
