output/clip/FD004/exp_202411021254_bilstm_clip_ep-0057.pth (torch, 288916 bytes, 66 tensors)

module.bi_lstm1.weight_ih_l0 f4 [64, 14]
0	0xb96cd50b	-0.00022586079
1	0x3c4bbe18	0.012435459
2	0xbbd2df33	-0.006435299
3	0xbc320ce8	-0.010867335
4	0xbbdee247	-0.0068018767
5	0xbaafb714	-0.0013406002
6	0x3c319b2f	0.010840221
7	0xbc03c800	-0.008043289
8	0xbbe07a98	-0.006850552
9	0xbc01d5e6	-0.0079245325
10	0x3a9a0826	0.0011751696
11	0x3b96eaea	0.0046056407
12	0xbc74c944	-0.014940564
13	0xbc59c5ea	-0.013291815
14	0x3c64b445	0.013958995
15	0x3c5bf1fd	0.013424394
16	0x3c1ab2b5	0.009442021
17	0xbbbe428c	-0.005806273
18	0x3c8cf3b2	0.017206047
19	0x3c52db85	0.01286972
20	0x3bf161b1	0.007366382
21	0x3b6a6387	0.003576489
22	0x3c89afb8	0.016807422
23	0x3c4c656c	0.012475353
24	0x3cebbad2	0.028775606
25	0x3c111c84	0.008856896
26	0x3c3f3fb5	0.011672904
27	0x3c8cfc92	0.017210279
28	0xbde0fa67	-0.109852605
29	0xbc4d822f	-0.012543245
30	0xbe105705	-0.14095695
31	0x3e6388eb	0.22220199
32	0xbcbd3541	-0.023096683
33	0xbbe35d90	-0.0069386438
34	0xbe10c93c	-0.14139265
35	0x3e5152ab	0.20441692
36	0xbd39a4d2	-0.0453232
37	0x3d9fe98e	0.07808219
38	0xbe83b701	-0.25725558
39	0xbe044719	-0.12917747
40	0x3e82ff0f	0.2558522
41	0x3e4b0cd6	0.19829115
42	0x3da0a12d	0.07843242
43	0x3d4b70a2	0.049667962
44	0x3d36485e	0.04450261
45	0x3a5f1d42	0.00085111347
46	0x3d3e3f22	0.046446927
47	0x3c97879e	0.018497285
48	0x3d6c44d4	0.057682827
49	0x3bf9b2ff	0.007620215
50	0x3d5100a2	0.051025994
51	0x3c23fc00	0.010008812
52	0x3df586a6	0.11988573
53	0x3d376e37	0.044782843
54	0x3cc1d5db	0.023661545
55	0x3ce18d92	0.027533326
56	0x3d2402d5	0.040041763
57	0x3d6338d3	0.055474114
58	0x3c03bcec	0.008040648
59	0xbd5ce4de	-0.053929202
60	0x3d273c24	0.04082884
61	0xba6063fc	-0.00085598207
62	0x3d56c804	0.052436844
63	0xbd28dd55	-0.041226704
64	0x3d293dd9	0.04131875
65	0xbc89be1f	-0.01681429
66	0x3ddfa82e	0.109207496
67	0x3cb442ba	0.022004474
68	0xbca78f4c	-0.020454071
69	0x3bf74596	0.007546137
70	0x3caa09ff	0.02075672
71	0x3d0f2453	0.03494675
72	0x3c7ca3f9	0.0154199535
73	0x3daf030a	0.085455015
74	0x3dc3965d	0.09550164
75	0x3cd17596	0.025568765
76	0x3d25b330	0.04045409
77	0x3d387787	0.045035865
78	0x3df7f3da	0.12107058
79	0x3d8f586a	0.069992855
80	0x3dc88c6f	0.097924106
81	0x3c10fdab	0.008849542
82	0x3d7dc0f2	0.061951585
83	0x3cc68472	0.024233077
84	0x3cab20d5	0.020889679
85	0x3bad87d8	0.005295735
86	0x3c764e64	0.015033338
87	0x3e091308	0.13386166
88	0x3d959b3b	0.073049985
89	0x3d9af2b8	0.07565826
90	0x3b97cb32	0.004632377
91	0x3e030734	0.12795717
92	0x3d3d679a	0.04624138
93	0x3dd78ffc	0.1052551
94	0xbda2fe28	-0.07958633
95	0x3c89f06c	0.016838275
96	0x3e00cefd	0.1257896
97	0x3d938241	0.07202578
98	0x3c8772d1	0.01653424
99	0x3ca7d00d	0.020484949
100	0x3c48265b	0.012216176
101	0xbc8dc2e3	-0.017304843
102	0x3badb8ad	0.005301556
103	0x3b9532a9	0.0045531583
104	0x3cde48b9	0.027134286
105	0xbc75a565	-0.014993046
106	0x3bab45f8	0.005226847
107	0xbb8db543	-0.0043245866
108	0x3d1227a1	0.035682324
109	0x3c85ea2e	0.016347017
110	0xbc8d99f0	-0.017285317
111	0xbc5bca46	-0.013414925
112	0xbd81f894	-0.06346241
113	0x3c0f96e6	0.008764004
114	0xbd6ed921	-0.05831254
115	0x3d2c0662	0.041998275
116	0xbcaf645a	-0.021410156
117	0xbc831974	-0.016003348
118	0xbd3c8ea2	-0.046034463
119	0x3d06c9d4	0.032907322
120	0xbd17bc3f	-0.03704476
121	0x3b13f681	0.0022577348
122	0xbdc646a0	-0.096814394
123	0xbd3329eb	-0.043741148
124	0x3c996c8c	0.018728517
125	0x3afb076f	0.0019151996
126	0x3cf68595	0.030092994
127	0x3d88e372	0.06684007
128	0x3d4286d1	0.047491852
129	0x3dd6c951	0.10487617
130	0x3ddcc227	0.10779219
131	0x3d33bcc1	0.04388118
132	0x3db56c6b	0.0885857
133	0x3d65bcf6	0.05608841
134	0x3dcf0b2e	0.10109554
135	0x3da8d17a	0.082430795
136	0x3dd4d098	0.103913486
137	0x3d2f91dd	0.042863715
138	0x3e018086	0.12646684
139	0x3d7c01ec	0.06152527
140	0x3d063f02	0.032774933
141	0x3d0ab259	0.03386149
142	0x3d4b8285	0.04968502
143	0x3d25c1ac	0.040467903
144	0xbbf28523	-0.007401125
145	0x3d0e84ab	0.03479449
146	0x3d2c9c3c	0.042141184
147	0x3db66c8b	0.08907422
148	0x3bcb1e00	0.0061986446
149	0x3d1d0845	0.038337965
150	0x3d375c69	0.044765864
151	0x3d6b92ca	0.057513036
152	0xbd356309	-0.0442839
153	0x3c8dcfea	0.017311055
154	0xbc08084f	-0.008302762
155	0xbc033128	-0.008007325
156	0x3c8b6c33	0.017019367
157	0xbbbaa329	-0.0056957197
158	0x3cf01ef7	0.02931164
159	0x3b157e6a	0.0022810944
160	0xbbb60276	-0.0055544926
161	0xbc9e245d	-0.019304449
162	0x3d026fe3	0.031844985
163	0x3c70a197	0.0146869635
164	0x3cdc4882	0.026890043
165	0xbd1e2c5c	-0.038616523
166	0x3c02bad5	0.007979115
167	0xbb8d19ef	-0.00430607
168	0x3d2d810e	0.042359404
169	0x3d5de251	0.05417091
170	0x3d0da360	0.034579635
171	0x3b372723	0.0027946911
172	0x3cf067f5	0.029346446
173	0x3ce5549f	0.027994452
174	0x3d199489	0.03749517
175	0x3cb904b5	0.022585252
176	0x3cd4981d	0.02595144
177	0x3cd222a2	0.02565128
178	0x3d918164	0.071047574
179	0x3d20b109	0.039231334
180	0x3d06086a	0.032722868
181	0x3d3d4abb	0.046213847
182	0xbbeb870f	-0.007187731
183	0xbc8063a4	-0.015672512
184	0xbcef49b6	-0.029209953
185	0x3cef5ecd	0.02922001
186	0x3c9140c7	0.017731084
187	0xbc36fc54	-0.011168558
188	0xbc6f4bc2	-0.014605464
189	0x3c9e785d	0.019344503
190	0x3cab9769	0.020946221
191	0x3ba1648a	0.0049253153
192	0x3d252e6c	0.040327474
193	0xbc9012cf	-0.017587094
194	0x3d490d0e	0.049084716
195	0x3d083f0b	0.033263247
196	0x3dc6589a	0.09684868
197	0x3d843498	0.06455344
198	0x3d178686	0.036993526
199	0xbdc318f0	-0.09526241
200	0x3d83603c	0.064148396
201	0x3c24b47e	0.010052798
202	0x3dac7e9e	0.08422588
203	0xbda0f641	-0.07859469
204	0x3d955735	0.07292024
205	0xbcb3135e	-0.021859821
206	0x3e39d099	0.1814598
207	0x3d6b0888	0.057381183
208	0xbd1cb993	-0.038262915
209	0xbc9ed9e7	-0.019391013
210	0x3d5a2d7d	0.053266037
211	0x3cfe1b36	0.031018835
212	0x3cf0139b	0.029306224
213	0xbd3685af	-0.044561084
214	0x3d05d348	0.032672197
215	0x3be5b22c	0.007009765
216	0x3d41d8a1	0.047325734
217	0xbd1a4896	-0.03766688
218	0x3d07c7e6	0.033149622
219	0xbc4cee03	-0.012507918
220	0x3dd10bef	0.10207354
221	0x3cf2375d	0.029567415
222	0xbd01da95	-0.031702597
223	0xbc98fbbd	-0.018674726
224	0xba36e893	-0.0006977405
225	0x3c4f610c	0.012657415
226	0xba9ddd98	-0.001204419
227	0xbadf90d7	-0.0017056715
228	0xbbd4b787	-0.0064916047
229	0xbb30be24	-0.0026968801
230	0x3c03a64a	0.008035252
231	0x3a75240c	0.00093513797
232	0xbbb56af3	-0.005536431
233	0xbbc2627e	-0.0059321513
234	0x3ba3496e	0.0049831187
235	0x3bcf39b9	0.0063240197
236	0xbbb7e963	-0.0056125387
237	0x3b287d6b	0.002570952
238	0xbb55d618	-0.003262883
239	0xbb63138a	-0.0034649097
240	0xbb200667	-0.0024417879
241	0xbc0aa3a3	-0.008461866
242	0x3b8a952a	0.0042292075
243	0x3b866858	0.004101794
244	0xbbf52084	-0.007480683
245	0xbb2e8ce0	-0.002663426
246	0x3b87fcb8	0.0041499995
247	0x3bf3f703	0.0074452176
248	0x3c64c6cb	0.013963412
249	0xbb20b14e	-0.0024519744
250	0x3c399ab4	0.011328388
251	0x3c54500d	0.012958539
252	0x3d122910	0.03568369
253	0xba459985	-0.000753783
254	0xbdaf9b31	-0.08574522
255	0x3e8b09e6	0.2715599

module.bi_lstm1.weight_hh_l0 f4 [64, 16]
0	0x3ab96db1	0.001414707
1	0x3b7ebe0e	0.0038870606
2	0x3b8dc156	0.004326026
3	0xbb2af140	-0.0026083738
4	0xba6b2546	-0.0008970093
5	0xbba3a524	-0.0049940515
6	0xbbdbbdbf	-0.006705969
7	0x3aa8ceee	0.0012879053
8	0xbb8bde74	-0.004268462
9	0x3bfd0e05	0.0077226185
10	0x3bf4f83b	0.0074758804
11	0x3b2dbb6d	0.002650942
12	0x3b0ff435	0.0021965627
13	0xbb76aa17	-0.0037638003
14	0x3b983089	0.0046444577
15	0x3aad887f	0.0013239532
16	0x3a6d71c0	0.00090577826
17	0x3bbe175a	0.0058011236
18	0xbbad3d05	-0.005286815
19	0x3c0e45cc	0.008683633
20	0xbba34323	-0.0049823686
21	0xbb1e3e84	-0.002414615
22	0xbb2a0857	-0.0025944912
23	0x3ada03aa	0.0016633172
24	0x3b3b207a	0.0028553293
25	0xbb9156d5	-0.0044354
26	0xbd16773b	-0.0367348
27	0xbb3b2827	-0.0028557868
28	0x3c4c13aa	0.01245586
29	0x3c15e83d	0.009149608
30	0xba2cdf6d	-0.00065945723
31	0xbaf1a88c	-0.0018437072
32	0xbbbd59fc	-0.0057785492
33	0x3bd39324	0.0064567495
34	0xbe4ee2c4	-0.20203692
35	0x3ddd98fc	0.10820195
36	0xbd76b64f	-0.060232457
37	0x3d6c74e0	0.05772865
38	0x3e2cf056	0.16888556
39	0xbceb2dae	-0.028708305
40	0x3d454733	0.048163604
41	0xbd9d6f3a	-0.076872304
42	0xbce0a735	-0.02742348
43	0xbcc1c98a	-0.023655672
44	0x3ca9207c	0.020645373
45	0x3c6d9278	0.014500253
46	0xbdee9056	-0.11648624
47	0xbdb4c345	-0.08826307
48	0x3b2ae520	0.002607651
49	0x3c1f541a	0.009724641
50	0x3c0c7cd9	0.008574688
51	0x3b1cf3a1	0.0023948925
52	0xbb98dbe0	-0.004664883
53	0x3c14eaf2	0.009089218
54	0xbc7938ff	-0.015211343
55	0xba7db8c3	-0.0009678716
56	0x3ad780ca	0.001644158
57	0xbca39429	-0.01996811
58	0xbd49afe2	-0.04924
59	0xbc07f99f	-0.00829926
60	0x3c8d01c4	0.017212756
61	0x3c822c9e	0.015890416
62	0x3b49e4ef	0.003080662
63	0xbabc1fe2	-0.0014352764
64	0x3b5ef08d	0.003401789
65	0x3c8e1cce	0.01734772
66	0x3cc0d2eb	0.023538074
67	0xbb9e2033	-0.004825616
68	0xbc13624e	-0.008995606
69	0xbd0b2006	-0.033966087
70	0xbd585d19	-0.05282316
71	0x3b856742	0.004071147
72	0xbc29dfb1	-0.010368274
73	0x3cc8eac2	0.024526004
74	0xbd85c7ac	-0.06532225
75	0x3c0207c7	0.007936425
76	0x3d10d052	0.03535492
77	0x3bf492a1	0.0074637686
78	0x3c51a181	0.012794853
79	0x3b6725c1	0.0035270306
80	0x3b9ca1da	0.0047800364
81	0xbc01b20a	-0.007915983
82	0xbca3f2ba	-0.020013202
83	0x3cb323fd	0.021867746
84	0xbbd1823f	-0.0063937004
85	0x3cd5e95a	0.026112247
86	0x3d6cdf48	0.057830125
87	0xbb40c896	-0.0029416434
88	0x3ca2e420	0.01988417
89	0xbcaeffbb	-0.021362176
90	0x3db05475	0.08609859
91	0x3c1220b4	0.00891893
92	0xbccd88fc	-0.025089733
93	0xbc4694b9	-0.012120419
94	0xbc61dc9c	-0.0137855075
95	0xbb8438b3	-0.0040350794
96	0xbbe65e4e	-0.007030285
97	0xbcb6979c	-0.02228909
98	0xbdbf5859	-0.09343023
99	0x3cc84c08	0.024450317
100	0x3a900444	0.0010987599
101	0x3ce6e2c6	0.028184306
102	0x3d8f020e	0.06982814
103	0xbbf7414a	-0.007545625
104	0x3cb2b9d6	0.02181713
105	0xbcee73fd	-0.029108042
106	0x3d0757b9	0.033042643
107	0xbbd50b4d	-0.0065015913
108	0xbcf0afaa	-0.029380638
109	0xbaca4497	-0.0015431818
110	0xbc657748	-0.01400549
111	0xbbb603ad	-0.0055546374
112	0x3b150fcf	0.0022745018
113	0xba8c6a21	-0.0010712781
114	0x3b9cbbcb	0.004783129
115	0xb8a0da4e	-7.670057e-05
116	0x3b5dcd38	0.0033844244
117	0xbccd0292	-0.02502564
118	0xbc27e3b2	-0.010247158
119	0x3b8452b7	0.0040381807
120	0xba31f3c2	-0.0006788337
121	0x3ccc388b	0.024929306
122	0xbd0f7667	-0.035025027
123	0x3b991c30	0.0046725497
124	0x3b2120f3	0.002458629
125	0x3a1f57b5	0.0006078438
126	0x3b98db95	0.004664848
127	0x3bad278d	0.005284256
128	0xbc11b055	-0.0088921385
129	0xbb5bbe38	-0.0033530127
130	0xbd2fe92e	-0.042946987
131	0x3c355886	0.011068469
132	0xbc02ab71	-0.007975445
133	0x3cc3692a	0.023853857
134	0x3cfec549	0.031099932
135	0xbbe93723	-0.0071171685
136	0xbadd38b6	-0.0016877863
137	0xbcb9183e	-0.022594567
138	0x3cc4c4fd	0.024019713
139	0xba95227d	-0.0011378076
140	0xbb8e2c89	-0.004338805
141	0xbbd3c10d	-0.0064622224
142	0xbc814d4f	-0.015783934
143	0xbc432447	-0.011910505
144	0x386cf8a1	5.649834e-05
145	0xbbb27a99	-0.0054467437
146	0xbc2bd71d	-0.010488299
147	0x3b865545	0.0040995204
148	0x3a47d26c	0.0007622603
149	0x3d1ccdc5	0.038282175
150	0x3d04d5b7	0.032430377
151	0xbaeee533	-0.0018226266
152	0x3c4fe9b8	0.01269
153	0xbd547396	-0.051868044
154	0x3d1b8125	0.03796496
155	0xbc909e50	-0.017653614
156	0xbc7d5f64	-0.015464637
157	0x3c9a3e80	0.01882863
158	0xbaa27753	-0.001239518
159	0xb9a59e37	-0.00031589132
160	0x3ca523c8	0.020158663
161	0x3ce1f2e7	0.027581645
162	0x3c40cb73	0.011767256
163	0xbcd09a21	-0.02546412
164	0x3bc2bff3	0.0059432923
165	0x3d52e9bb	0.051492434
166	0x3d225141	0.03962827
167	0x3c335f33	0.01094799
168	0xb9e03f46	-0.00042771752
169	0xbd51368f	-0.05107742
170	0x3c555b66	0.013022279
171	0xbcb2ef4e	-0.021842625
172	0x3cff0e16	0.031134646
173	0x3b91a669	0.0044448865
174	0x3c652cdf	0.013987749
175	0xbc11810c	-0.008880865
176	0x3bdbefe1	0.0067119454
177	0x3c1fe49e	0.009759096
178	0x3c9b46c0	0.018954635
179	0xbada57d0	-0.001665825
180	0xbc0a6f94	-0.008449454
181	0xbd5fb15c	-0.054612502
182	0xbd17ffb9	-0.03710911
183	0xbbc04ba9	-0.0058683944
184	0x3b308433	0.0026934266
185	0x3d539690	0.05165726
186	0xbd4e8834	-0.050422862
187	0x3cb97be5	0.022642085
188	0x3c74e827	0.014947928
189	0x3aa02a99	0.0012219726
190	0x3c3c1f99	0.011482143
191	0x3bdbdb38	0.0067094825
192	0x3b783a58	0.0037876572
193	0x3ccadfc9	0.024764912
194	0xbbb26819	-0.0054445383
195	0x3c71758f	0.014737501
196	0xbc93c290	-0.01803711
197	0x3c3f6571	0.0116819
198	0xbc529b75	-0.012854447
199	0xbbd47e66	-0.0064847944
200	0x3be46e81	0.006971181
201	0xbcf9d525	-0.030497143
202	0xbdb6413d	-0.08899162
203	0xbc812650	-0.01576534
204	0x3d333f18	0.043761343
205	0x3d0792d2	0.033099003
206	0xbbdf616f	-0.006817035
207	0xbc8055f9	-0.015665995
208	0x3b273b52	0.0025517535
209	0x3b8f16b9	0.0043667224
210	0x3c50dadd	0.012747494
211	0x3c8883c1	0.016664388
212	0xbc51b2a4	-0.012798939
213	0xbc9a1bb7	-0.018812044
214	0xbb42accf	-0.0029705053
215	0xbb1fd3b6	-0.0024387664
216	0x3bb9589e	0.005656316
217	0x3c98f6c6	0.018672358
218	0xbd0d4024	-0.034484997
219	0x3a331937	0.00068320654
220	0x3c8de0d7	0.017319126
221	0x3b8741a2	0.004127697
222	0xbc9a476f	-0.01883289
223	0xbc3a89d7	-0.011385403
224	0x3ac2e24a	0.0014868465
225	0x3c9d7ab6	0.019223552
226	0x3d8397f9	0.06425471
227	0xbc9de0c3	-0.019272214
228	0xbb83d234	-0.004022861
229	0xbd826c09	-0.06368262
230	0xbda205d0	-0.07911265
231	0x3bf79417	0.0075554955
232	0xbcc81e07	-0.02442838
233	0x3d90e606	0.070751235
234	0xbcc50788	-0.024051443
235	0x3cbb7d69	0.022886949
236	0x3cf2bd7e	0.029631373
237	0xbc3e1a2d	-0.0116029205
238	0x3ca6e967	0.020374967
239	0x3c357ebd	0.01107758
240	0x3b883eeb	0.004157891
241	0x3c251066	0.0100747105
242	0x3d197136	0.037461482
243	0xbc1610e7	-0.009159303
244	0xbb1742a3	-0.002308049
245	0xbcde5dbb	-0.027144304
246	0xbd2f9181	-0.042863373
247	0x3bf23a4f	0.007392205
248	0xbc2305c9	-0.00995011
249	0x3cc69099	0.024238871
250	0xbd3574e0	-0.044300914
251	0x3b7f877d	0.003899067
252	0x3cb6cc2b	0.022314152
253	0x3baacac3	0.0052121594
254	0x3c69a65a	0.014260853
255	0x3c1878e1	0.0093061635

module.bi_lstm1.bias_ih_l0 f4 [64]
0	0xbccffd83	-0.025389438
1	0x3d140a36	0.03614255
2	0x3e103729	0.14083542
3	0x3db218c0	0.08696127
4	0x3d8731b0	0.06601274
5	0x3d79dbae	0.06100052
6	0x3de52b9d	0.11189959
7	0x3ba6c7b7	0.005089726
8	0xbc3e2c9f	-0.011607318
9	0x3e4107fb	0.188507
10	0xbcb90bfa	-0.022588719
11	0x3c3904f0	0.011292681
12	0x3ddcb4be	0.10776661
13	0x3d902a6c	0.07039341
14	0x3d034840	0.032051325
15	0x3cddefd9	0.027091907
16	0xbbebd639	-0.007197168
17	0x3cc8de43	0.024520045
18	0x3e384ab9	0.17997254
19	0x3ddd7f05	0.10815243
20	0x3d34835c	0.044070587
21	0x3e1c3c74	0.15257436
22	0xbbdb158c	-0.006685918
23	0xbc65f669	-0.0140358
24	0x3d09e8fe	0.033669464
25	0x3e2a7b72	0.16648653
26	0x3e2de4fd	0.16981883
27	0xbcf44aab	-0.02982076
28	0x3dd508e1	0.10402084
29	0xbc6fd063	-0.014637086
30	0x3d527f09	0.05139068
31	0x3d1a9833	0.037742805
32	0x3d529b3c	0.051417574
33	0x3d8f42c8	0.069951594
34	0x3e26bef0	0.16283774
35	0xbd509b5e	-0.05092942
36	0xbe3553bf	-0.17707728
37	0x3cdf6e6e	0.027274337
38	0xbbbae103	-0.005703093
39	0x3d00c3e9	0.031436834
40	0x3d225976	0.039636098
41	0xbdaf8841	-0.0857091
42	0x3d4531a0	0.04814303
43	0xbd808b6f	-0.06276595
44	0x3e3d0f4e	0.1846287
45	0x3e20a3ed	0.15687533
46	0xbd55467b	-0.05206917
47	0xbe019df3	-0.12657909
48	0xbcc19c29	-0.023634033
49	0x3d1043f8	0.03522107
50	0x3e1f1443	0.15535073
51	0x3dae9970	0.0852536
52	0x3d5c1760	0.05373323
53	0x3de5763e	0.112041935
54	0x3e06fbfc	0.13182062
55	0x3bc67835	0.0060568103
56	0xbcd3e153	-0.025864279
57	0x3dbd89ac	0.092547745
58	0x3d2ba96e	0.041909628
59	0x3d01d6c6	0.031698965
60	0x3ddf9cd1	0.10918582
61	0x3d8768f2	0.066118136
62	0x3d324f0d	0.04353242
63	0x3d051666	0.032492064

module.bi_lstm1.bias_hh_l0 f4 [64]
0	0xbcbd5d34	-0.023115732
1	0x3d140a36	0.03614255
2	0x3e26c87b	0.16287415
3	0x3dbba0cf	0.09161531
4	0x3d6fe832	0.058571048
5	0xbcb41841	-0.021984221
6	0x3de54624	0.11195019
7	0x3ba5ce59	0.005059999
8	0xbc54ec34	-0.012995768
9	0x3e3567d7	0.17715393
10	0xbc0c4440	-0.008561194
11	0x3d3df1f8	0.046373338
12	0x3dda357b	0.10654732
13	0x3d900f52	0.07034172
14	0x3d0602d3	0.032717537
15	0x3cde9cfb	0.027174463
16	0xbbdc14d1	-0.0067163487
17	0x3cc8de43	0.024520045
18	0x3e431d74	0.19054204
19	0x3dd571cf	0.10422098
20	0x3d43d41f	0.047809716
21	0x3e23a616	0.15981326
22	0xbbd91113	-0.00662435
23	0xbc65f6a9	-0.014035859
24	0x3d118216	0.03552445
25	0x3dbd4cac	0.092431396
26	0x3e6eb5dd	0.23311563
27	0xbc9412fa	-0.018075455
28	0x3ddb0518	0.10694331
29	0xbc717698	-0.014737748
30	0x3d635ad9	0.05550656
31	0x3d1a7ff5	0.037719686
32	0x3d4e7801	0.050407413
33	0x3e0bc141	0.1364794
34	0x3e0bd01c	0.13653606
35	0x3db3beb2	0.087766066
36	0xbe3ff7b0	-0.18746829
37	0x3dcae4b7	0.09906905
38	0xbd0dd09f	-0.034622785
39	0xbd17958e	-0.03700786
40	0xbda9c2da	-0.08289118
41	0xbe2602ac	-0.16211957
42	0xbe01d51e	-0.12678954
43	0xbdfcef1e	-0.123502955
44	0x3e44db10	0.1922419
45	0x3e2e0094	0.16992408
46	0xbe5482ef	-0.20753072
47	0xbdd0c14c	-0.101931185
48	0xbcb933f9	-0.02260779
49	0x3d1043f7	0.035221066
50	0x3e29fc6f	0.16600202
51	0x3dbf9cc8	0.093560755
52	0x3d37ce52	0.044874497
53	0x3d544672	0.051824994
54	0x3e06c1ec	0.13159913
55	0x3bc734c0	0.0060792863
56	0xbd2f8f5f	-0.04286134
57	0x3dc599c9	0.09648473
58	0x3bf131c3	0.0073606684
59	0x3bd6f43d	0.006559877
60	0x3de26fe5	0.110564984
61	0x3d8874d4	0.06662908
62	0x3d3e787d	0.046501625
63	0x3d05173e	0.03249287

module.bi_lstm1.weight_ih_l0_reverse f4 [64, 14]
0	0xbe0553e8	-0.13020289
1	0xbdec7cf9	-0.11547274
2	0xbe251447	-0.16121016
3	0xbca7f0e3	-0.020500606
4	0xbda718e3	-0.08159044
5	0xbd841403	-0.064491294
6	0xbe1bb3d7	-0.15205322
7	0xbd0175b0	-0.031606376
8	0xbd8a0f5c	-0.06741211
9	0x3a81a73a	0.0009891756
10	0x3d14459b	0.036199193
11	0xbe2223d3	-0.15833978
12	0xbcfc8523	-0.030825203
13	0x3d25766c	0.04039614
14	0x3ca20aaf	0.019780485
15	0xbc4617d9	-0.012090647
16	0x3ca08a21	0.019597115
17	0xbc874932	-0.016514394
18	0xbc92cd16	-0.017920058
19	0xbca6f1aa	-0.020378906
20	0x3c82e33e	0.015977498
21	0xbccccfa8	-0.025001362
22	0xbc76afac	-0.015056532
23	0xbcb7ef10	-0.022452861
24	0x3d0a8d15	0.033825953
25	0xbaa51ca6	-0.0012597039
26	0xbca44cb8	-0.020056114
27	0xbd055ec0	-0.032561064
28	0x3de02cfc	0.1094608
29	0x3e013ceb	0.12620895
30	0x3db7c662	0.089733854
31	0xbd014f6c	-0.031569883
32	0x3d8341f5	0.06409065
33	0x3d0541df	0.032533523
34	0x3e0036c3	0.1252089
35	0xbcc86bc0	-0.024465442
36	0x3dae9e87	0.085263304
37	0x3ca96561	0.020678224
38	0x3e3680e8	0.17822611
39	0x3da74701	0.0816784
40	0x3bf51e78	0.007480439
41	0x3d56fb82	0.05248595
42	0xbd930ad4	-0.071798
43	0x3c38302d	0.011241955
44	0xbe1fd2d5	-0.1560777
45	0x3eb57d23	0.35447034
46	0x3b90b5c9	0.0044162017
47	0x3dce880b	0.10084542
48	0xbdd2ac73	-0.10286798
49	0x3e91520c	0.2838291
50	0xbd15b47d	-0.03654908
51	0x3e08ea24	0.13370568
52	0xbe9a4564	-0.30131066
53	0xbcea61c4	-0.028611071
54	0x3e4f64a7	0.2025324
55	0x3e3b3eb1	0.18285634
56	0x3c233fc6	0.009963935
57	0xbc47546a	-0.012166122
58	0xbc903351	-0.017602595
59	0x3c594ca2	0.0132629
60	0xbb62ac7b	-0.003458767
61	0xbc4ce832	-0.012506532
62	0xbcdbf151	-0.026848467
63	0x3c608d15	0.013705512
64	0xb92fafcf	-0.00016754794
65	0x3c65d287	0.014027244
66	0x3d2eea62	0.042703994
67	0xbcda8347	-0.026673926
68	0x3c62f1f0	0.013851628
69	0x3d3db938	0.046319216
70	0x3e4fdd07	0.20299159
71	0x3dbd4d4c	0.09243259
72	0x3d01d472	0.031696744
73	0x3b703c4d	0.0036657036
74	0xbde94063	-0.11389234
75	0xbe4c7e01	-0.19969942
76	0x3e05eff3	0.13079815
77	0xbcfa81aa	-0.030579407
78	0xbe205bd4	-0.1566003
79	0xbe6a0c55	-0.22856267
80	0x3e03cba6	0.12870654
81	0x3d8c0d55	0.068384804
82	0x3db19bc0	0.08672285
83	0x3dee1e18	0.11626834
84	0x3e91e6c8	0.28496385
85	0x3e7e8a16	0.24857363
86	0x3e8b28af	0.27179477
87	0xbeac17ca	-0.336119
88	0x3e4351fe	0.19074246
89	0xbeb25669	-0.3483155
90	0x3ec9d610	0.3942113
91	0xbeed3a79	-0.46333674
92	0x3e92b25c	0.28651702
93	0xbf086966	-0.53285825
94	0x3f0d7b75	0.55266505
95	0x3e625457	0.22102486
96	0xbe8f5cec	-0.2800058
97	0xbd33be68	-0.043882757
98	0x3c1d601c	0.009605434
99	0xbb87c572	-0.0041434104
100	0xbce64b91	-0.028112205
101	0xbc23fc97	-0.010008953
102	0xba9f7ddd	-0.0012168247
103	0xbd3836e4	-0.044974223
104	0xbcd07ce4	-0.025450177
105	0x3b85140e	0.0040612286
106	0xbb769bb2	-0.0037629423
107	0xbcfeae3f	-0.031088946
108	0xbc07fdc2	-0.008300247
109	0xbc5ffea6	-0.013671553
110	0x3c1a0128	0.00939969
111	0x3d6276f8	0.05528924
112	0x3d9f5a1f	0.07780861
113	0x3e03b31a	0.1286129
114	0x3d8b5ac1	0.06804419
115	0xbc004767	-0.007829524
116	0x3d654c5c	0.055981025
117	0x3d56d031	0.05244464
118	0x3da07691	0.07835115
119	0xbc644260	-0.013931841
120	0x3d9ea6b2	0.07746638
121	0x3d6aefe5	0.057357688
122	0x3e4b660e	0.1986315
123	0x3d02b5e2	0.03191174
124	0x3d33df2b	0.043914
125	0x3d4d398e	0.050103717
126	0xba26678e	-0.00063478283
127	0xbb9ec9a9	-0.004845817
128	0x3c746305	0.014916186
129	0xbc444b1e	-0.0119808
130	0xbba031dc	-0.004888756
131	0x3d5ae221	0.05343831
132	0x3c08f20f	0.0083584925
133	0x3dd51798	0.10404891
134	0x3d314289	0.043276343
135	0x3d936eee	0.071988925
136	0xbdea8e00	-0.114528656
137	0x3c8a8aab	0.016911825
138	0xbd400c3a	-0.04688666
139	0xbda13747	-0.078718714
140	0xbdc494f8	-0.09598726
141	0xbaf1bb95	-0.0018442745
142	0xbdaaeb3e	-0.0834565
143	0xbdcb97ed	-0.09941087
144	0xbcccbcc0	-0.024992347
145	0xbdbc94cf	-0.092080705
146	0xbdcbe152	-0.09955086
147	0xbd9407d1	-0.07228053
148	0xbc12c49d	-0.008958009
149	0xbdc073c7	-0.09397083
150	0xbe0e9052	-0.13922241
151	0xbd5c6fc9	-0.053817544
152	0xbd66bdca	-0.05633334
153	0xbd772621	-0.060339097
154	0x3d5fb019	0.0546113
155	0x3e297f06	0.16552362
156	0x3daec22c	0.08533129
157	0x3d5afc06	0.053463005
158	0x3da0904a	0.07840021
159	0xbc8556f5	-0.016276816
160	0x3dded93d	0.10881279
161	0x3d7d5237	0.061845984
162	0x3daf1556	0.085489914
163	0xbd2041ba	-0.03912518
164	0xbcebffe1	-0.028808536
165	0x3dbc7996	0.09202878
166	0xbce1574d	-0.027507449
167	0x3cd11196	0.025521081
168	0x3e21441e	0.15748641
169	0x3e2471d2	0.16059044
170	0x3dd5cdce	0.10439645
171	0xbd023036	-0.03178426
172	0x3e366d16	0.1781505
173	0x3d7201ef	0.059083875
174	0x3e20e7eb	0.1571347
175	0xbdb18543	-0.08667996
176	0x3e4871a1	0.19574596
177	0x3cb4a769	0.022052484
178	0x3e0194c2	0.12654403
179	0x3dc1b6fc	0.094587296
180	0xbd184e02	-0.03718377
181	0xbd057a3e	-0.032587282
182	0xbbe5383b	-0.0069952286
183	0x3a6be0b6	0.0008998023
184	0x3ace1eed	0.0015725769
185	0x3c1a3124	0.00941113
186	0xbd178f6d	-0.037002016
187	0x3daa0e8a	0.08303554
188	0xbd00e6c3	-0.03147007
189	0x3cb0c6a8	0.021579102
190	0xbd4607c2	-0.048347242
191	0x3dda6250	0.10663283
192	0xbb90e21d	-0.004421486
193	0xbcee783e	-0.02911007
194	0xbcce457a	-0.025179613
195	0xbd3830b5	-0.044968326
196	0x3d07a56e	0.03311675
197	0x3dc60841	0.09669543
198	0x3d08ca8f	0.0333963
199	0x3d88f86b	0.06688007
200	0x3c0c141e	0.008549718
201	0x3c3f8fe2	0.011692019
202	0x3d80bc9f	0.062859766
203	0x3d4186d2	0.047247715
204	0x3c5eac3e	0.01359087
205	0x3c94c63e	0.018160935
206	0x3db5a2d5	0.08868948
207	0xba65ec4c	-0.0008770868
208	0x3da78a86	0.08180718
209	0x3da3a35d	0.079901434
210	0xba93c949	-0.0011275198
211	0x3c776503	0.015099767
212	0x3d23e197	0.04001006
213	0x3da67d29	0.08129341
214	0x3d2c7bd9	0.042110298
215	0x3da7f093	0.08200183
216	0x3b183762	0.002322637
217	0x3d70b36e	0.058764867
218	0x3d410375	0.047122438
219	0x3de41ba5	0.11138085
220	0x3d4a3f8a	0.049377
221	0x3c9fa6ae	0.019488659
222	0x3d97290a	0.073808745
223	0x3b80fc33	0.0039363145
224	0x3e26fbff	0.16307066
225	0x3ddff549	0.10935456
226	0x3e0eb0db	0.13934653
227	0x3e01740a	0.12641922
228	0x3e0eab92	0.13932636
229	0x3dced3d3	0.10098996
230	0x3e00cef0	0.1257894
231	0x3dc1fd10	0.09472096
232	0x3e03ea05	0.1288224
233	0x3e09b13b	0.13446514
234	0x3e884df5	0.26621976
235	0x3e02ac0c	0.12760943
236	0x3e5582e8	0.20850718
237	0x3e528809	0.20559706
238	0x3d6be4ab	0.05759112
239	0x3d11ff81	0.03564406
240	0x3d54fb67	0.05199757
241	0xbbb66d33	-0.005567217
242	0x3caf6664	0.021411128
243	0xbc63bf52	-0.013900595
244	0x3d70c94b	0.058785718
245	0xbc685cc2	-0.014182271
246	0x3cb3f9e8	0.02196975
247	0xbc86daa7	-0.016461683
248	0x3d9c3072	0.07626428
249	0x3d0c0e32	0.034193225
250	0x3c380f93	0.011234182
251	0x3a080f7b	0.0005190295
252	0x3d2b9134	0.041886523
253	0x3d65f7a8	0.056144387
254	0x3d39767c	0.04527901
255	0xbda47de1	-0.08031822

module.bi_lstm1.weight_hh_l0_reverse f4 [64, 16]
0	0xbdb095c9	-0.08622319
1	0xbc76aeab	-0.0150562925
2	0x3d41f0d7	0.047348823
3	0xbe2a4c4c	-0.16630667
4	0x3d2bde83	0.04196025
5	0x3e1e3804	0.15451056
6	0xbdb6dcae	-0.0892881
7	0x3d04d36a	0.032428183
8	0xbd01d638	-0.031698436
9	0xbe23ceaf	-0.15996812
10	0xbbdccbf0	-0.0067381784
11	0xbe8b5879	-0.27215937
12	0xbc8ff6e5	-0.017573783
13	0x3b5a7e27	0.0033339353
14	0xbcd212ac	-0.02564367
15	0x3db927bd	0.090407826
16	0x3cf6b3bd	0.030115003
17	0xbcc1bf24	-0.023650713
18	0xbce2ddc6	-0.02769364
19	0x3cbebe75	0.023284176
20	0x3cd3f8c9	0.025875466
21	0x3dd1d4ff	0.10245704
22	0x3d0ea907	0.034829166
23	0x3cbe0781	0.023196938
24	0x3d0840a9	0.03326479
25	0xbd52ec3e	-0.05149483
26	0xbc2429a6	-0.010019695
27	0xbd9dcc69	-0.07705004
28	0x3bcaa3f8	0.0061840974
29	0x3cf286af	0.029605238
30	0xbc518766	-0.012788629
31	0x3cf0013d	0.029297465
32	0xbc0e3e07	-0.008681781
33	0x3c149be7	0.009070373
34	0xbd0ab3ed	-0.033862997
35	0x3d44e9e5	0.04807462
36	0xbc3c8846	-0.0115070995
37	0x3cda38e8	0.026638463
38	0x3d7368d4	0.059426144
39	0x3c361887	0.011114246
40	0x3c365cba	0.011130506
41	0x3c79ceb6	0.015247038
42	0xbcfc14d7	-0.030771656
43	0xbc24ef74	-0.010066856
44	0xbbf6466a	-0.007515718
45	0xbcef0e87	-0.029181732
46	0xbcf85d67	-0.030317975
47	0xba819bca	-0.0009888348
48	0xbe57bed5	-0.2106889
49	0xbd9922df	-0.07477354
50	0x3e79d0e5	0.24396093
51	0xbd7a03fc	-0.061038956
52	0xbd55e333	-0.052218627
53	0x3ea8eabe	0.32991594
54	0xbdcaef13	-0.09908881
55	0xbcaf8a2a	-0.021428186
56	0xbe5d4acd	-0.21610565
57	0xbf0215d4	-0.5081456
58	0x3e2a7b72	0.16648653
59	0xbe86eb15	-0.26351228
60	0x3deb3743	0.1148515
61	0x3e6ddbf9	0.23228444
62	0xbe049998	-0.12949216
63	0xbd7968dc	-0.060891017
64	0xbd17a3b9	-0.037021372
65	0xbc013c86	-0.007887965
66	0xbc838cf4	-0.016058423
67	0xbd6602dd	-0.056155074
68	0x3ca0c7d0	0.019626528
69	0x3de58b55	0.11208216
70	0x3b1b6bbb	0.0023715335
71	0x3c529106	0.012851959
72	0x3cc6a444	0.02424825
73	0xbd896cd6	-0.06710212
74	0xbcab4f80	-0.020911932
75	0xbd923fa8	-0.07141048
76	0xbccbe8f8	-0.024891362
77	0x3cbcd077	0.023048623
78	0xbc3d43b8	-0.01155179
79	0x3d0de1cc	0.034639165
80	0xbbb8bddf	-0.005637869
81	0x3d6d4e54	0.057936028
82	0x3d8d634a	0.069037035
83	0xbcdae073	-0.026718354
84	0xbc6e1f2b	-0.014533798
85	0xbd726708	-0.05918029
86	0xbcfc81cb	-0.030823609
87	0x3be41315	0.0069602826
88	0xbd9f1f51	-0.07769645
89	0x3d58a447	0.052891042
90	0xbca9bfa0	-0.020721257
91	0x3e1b5368	0.15168536
92	0x3c46b688	0.01212848
93	0x3dd8ee42	0.10592319
94	0x3d9ac416	0.07556932
95	0xbd51f8ec	-0.05126278
96	0xbd7a87b7	-0.061164584
97	0x3d78dc70	0.0607571
98	0x3cbf1511	0.023325475
99	0x3ede3d56	0.4340617
100	0xbde2f349	-0.11081559
101	0x3e5a377f	0.21310233
102	0x3e6e0404	0.2324372
103	0x3bb08238	0.005386617
104	0xbdf6a416	-0.12043016
105	0x3ba68cdd	0.00508271
106	0x3db07451	0.086159356
107	0x3d1c1395	0.038104612
108	0x3d561d69	0.05227414
109	0x3e1659e0	0.14682722
110	0xbd017d76	-0.03161379
111	0xbe32202c	-0.17395085
112	0xbb087d6b	-0.0020826708
113	0xbc633d51	-0.013869599
114	0xbc9344f3	-0.017977213
115	0xbc70162b	-0.014653723
116	0x3ca70343	0.020387297
117	0x3c9b5a77	0.018964035
118	0x3c510d07	0.012759454
119	0x3c8d3e8a	0.017241735
120	0x3c9852d4	0.018594183
121	0x3b0d7ab0	0.002158802
122	0xbce0d550	-0.027445465
123	0xbd3a828c	-0.045534655
124	0x3b805bb2	0.003917181
125	0x3c3a823f	0.011383592
126	0xbb68ad78	-0.0035503786
127	0x3cda767c	0.026667826
128	0xbd047ecf	-0.032347497
129	0x3c1fdceb	0.009757261
130	0xbc46462d	-0.012101692
131	0x3ce1487a	0.02750038
132	0xbc878bef	-0.016546218
133	0x3d6ae621	0.057348374
134	0xb924db9b	-0.00015722068
135	0x3b9ed10b	0.004846697
136	0xbc0a93a1	-0.008458049
137	0xbd12e2ef	-0.035860952
138	0xbca35de1	-0.019942226
139	0xbd352a4c	-0.04422979
140	0xba63482b	-0.00086701167
141	0xbc858885	-0.01630045
142	0xbd5df822	-0.054191716
143	0x3a3c9e33	0.00071952044
144	0xbe3095be	-0.17244622
145	0x3e2efe74	0.17089254
146	0x3d9cf179	0.07663245
147	0xbd7aec7f	-0.061260697
148	0xbdabf578	-0.08396429
149	0xbc128b0b	-0.008944283
150	0xbde683d3	-0.11255612
151	0xbd700cd8	-0.058606
152	0xbe2b34a6	-0.16719303
153	0xbc2fdd3e	-0.010733901
154	0x3d06d569	0.032918368
155	0x3e8b24e5	0.27176586
156	0x3cdc0a27	0.02686031
157	0x3e0cdd61	0.13756324
158	0xbd386edc	-0.0450276
159	0xbe1e5089	-0.15460409
160	0x3dd1aa15	0.10237519
161	0xbc5186d2	-0.012788491
162	0xbcd74aca	-0.02628078
163	0x3d5fa2bd	0.05459856
164	0x3d7e9f95	0.062163908
165	0x3d4e801a	0.050415136
166	0xbd5f1f4c	-0.054473206
167	0x3d3f227f	0.046663757
168	0x3cd289fb	0.02570056
169	0xbd4ba936	-0.04972192
170	0x3b2dd08f	0.0026522016
171	0xbd90f251	-0.07077468
172	0x3bd76660	0.0065734833
173	0x3cf136dd	0.029445106
174	0x3cba3657	0.02273099
175	0x3d56ac4a	0.0524104
176	0xbd548f52	-0.051894493
177	0x3d877c59	0.06615514
178	0xbcd6c16c	-0.026215278
179	0xbdd9faed	-0.106435634
180	0xbb098d8c	-0.002098891
181	0x3e9506aa	0.29106647
182	0x3d3e2042	0.046417482
183	0x3c89be37	0.016814334
184	0x3d856e7e	0.06515215
185	0xbe6d8d9a	-0.23198548
186	0x3de3da1a	0.11125584
187	0x3cd36a28	0.025807455
188	0xbe1db879	-0.15402402
189	0x3dee5367	0.116370015
190	0x3d5c7c96	0.053829752
191	0x3ca1e594	0.019762792
192	0x3be0410f	0.006843693
193	0xbbcfebde	-0.006345256
194	0x3c8399ad	0.01606449
195	0x3d906954	0.0705134
196	0xbc8752ee	-0.016519036
197	0x3d000fc1	0.031265024
198	0xbd4caf1f	-0.049971696
199	0xbc17ab74	-0.009257186
200	0xbcf32fb0	-0.029685825
201	0xbe160628	-0.14650786
202	0x3d28d45c	0.041218147
203	0xbd0b3546	-0.033986352
204	0x3cea718f	0.028618602
205	0x3ce22df9	0.027609812
206	0xbd139565	-0.036031146
207	0xbcfe253a	-0.03102361
208	0x3de55746	0.11198287
209	0xbc53e4ff	-0.012933015
210	0xbde41d32	-0.11138381
211	0xbdcb8c92	-0.09938921
212	0x3ddd510c	0.10806474
213	0x3e5e86e8	0.2173115
214	0x3e134e85	0.14385422
215	0x3db86ddc	0.09005329
216	0x3e169aba	0.14707461
217	0xbe686e07	-0.22698222
218	0x3c19e15c	0.009392109
219	0xbe5bc73d	-0.21462722
220	0xbdd0b69f	-0.10191082
221	0x3de80730	0.11329496
222	0x3cc00578	0.023440108
223	0x3e18c457	0.14918648
224	0xbc99360b	-0.018702528
225	0xbc3a81e1	-0.011383505
226	0x3cabf15d	0.020989114
227	0xbc3e497e	-0.011614202
228	0x3c5b2bbd	0.013377127
229	0x3d6739a6	0.056451462
230	0xbd1f13c1	-0.0388372
231	0x3c47b95d	0.01219019
232	0xbcfd5aef	-0.03092715
233	0xbdb37170	-0.08761871
234	0xbc1b5b38	-0.009482197
235	0xbd98281b	-0.074295245
236	0x3cc5ace9	0.024130302
237	0x3c939756	0.018016499
238	0xbc97ccd3	-0.018530285
239	0x3bd56db2	0.006513321
240	0xbd1e8b0b	-0.03870682
241	0x3c5bd7ad	0.01341812
242	0xbaaa188d	-0.0012977287
243	0xbdb21f32	-0.08697356
244	0xbb401c58	-0.002931377
245	0x3dd2bd24	0.10289982
246	0xbc18f7c4	-0.009336416
247	0xbb866d89	-0.004102413
248	0x3bfc821f	0.0077059413
249	0xbdd0db35	-0.101980604
250	0xbb6cba23	-0.0036121688
251	0xbd3c0b70	-0.045909345
252	0xbcbd4740	-0.023105264
253	0x3be5ef84	0.007017078
254	0xbd02bbae	-0.031917267
255	0x3c8fa3a4	0.017534085

module.bi_lstm1.bias_ih_l0_reverse f4 [64]
0	0x3d9cd29a	0.076573566
1	0x3c09654d	0.008385968
2	0x3de210bd	0.11038349
3	0x3d69ccc5	0.05708005
4	0x3dbe33c1	0.09287215
5	0x3de9b2b6	0.114110395
6	0x3dc06760	0.09394717
7	0x3d46ffe7	0.04858389
8	0x3dc87e0d	0.09789667
9	0x3d8eabf8	0.06966394
10	0x3d613071	0.054977838
11	0x39ccec96	0.00039086182
12	0x3d995619	0.07487125
13	0xbd3d2471	-0.04617733
14	0x3e0746a1	0.13210537
15	0x3dc2e9c6	0.09517245
16	0x3ea79f61	0.32738784
17	0x3d7fc70d	0.06244569
18	0xbd3af6c7	-0.0456455
19	0x3e96d508	0.29459405
20	0x3dcf4ba9	0.10121853
21	0x3e590b8f	0.21195816
22	0x3d42ae32	0.047529407
23	0x3d7a07dd	0.061042655
24	0x3da75a18	0.08171481
25	0x3e92e8d1	0.2869325
26	0xbd4cca8d	-0.049997855
27	0x3d3d0dd2	0.04615576
28	0xbafaefc9	-0.0019144948
29	0x3dbb6dea	0.09151824
30	0x3d8761be	0.0661044
31	0x3e33ec4f	0.17570613
32	0xbe0c9f64	-0.13732678
33	0x3d1e092c	0.038582966
34	0x3df26c12	0.11837019
35	0x3e37c686	0.17946824
36	0xbcd16e1b	-0.025565198
37	0xbe3a9c2f	-0.18223642
38	0xbe7419e6	-0.23838004
39	0x3d98698a	0.07442005
40	0xbe9b4851	-0.3032861
41	0x3e1fa215	0.15589173
42	0xbe82ee9b	-0.25572667
43	0x3c973c75	0.018461445
44	0x3e6c5df1	0.23082711
45	0x3b38e8e9	0.0028214997
46	0xbe7d2c1e	-0.2472386
47	0x3d523a56	0.051325165
48	0x3e470ee0	0.19439268
49	0x3c9826a1	0.018573107
50	0x3e0e0807	0.1387025
51	0x3ea8c97c	0.3296622
52	0x3e0a50d3	0.13507394
53	0x3ce13da5	0.027495215
54	0x3d9b5c91	0.07586015
55	0x3d4ab401	0.04948807
56	0x3dfefd23	0.12450626
57	0x3dd5de2d	0.10442767
58	0x3db5f90e	0.08885394
59	0x3d4b6776	0.049659215
60	0x3da46988	0.08027941
61	0xbbfe17dd	-0.0077543096
62	0x3e2e0dc4	0.16997439
63	0x3de5506c	0.1119698

module.bi_lstm1.bias_hh_l0_reverse f4 [64]
0	0x3dab18bd	0.08354328
1	0x3c09f28d	0.008419645
2	0x3dc950f2	0.09829892
3	0x3d0cc0d8	0.034363598
4	0x3db0d495	0.08634297
5	0x3de359cf	0.11101114
6	0x3d82aa52	0.06380142
7	0x3d593043	0.05302454
8	0x3e18abe4	0.14909321
9	0x3da02369	0.07819254
10	0x3c520478	0.012818448
11	0xbcd3643b	-0.02580463
12	0x3d7b0166	0.06128063
13	0xbd33a692	-0.043860026
14	0x3e1397d5	0.14413388
15	0x3c55fcf7	0.0130608
16	0x3eb00164	0.3437606
17	0x3d7ac4d4	0.061222866
18	0xbca0b9db	-0.019619873
19	0x3ea8a339	0.3293703
20	0x3d9c4e0c	0.07632074
21	0x3e3a7c79	0.18211545
22	0x3d430300	0.047610283
23	0x3d7f6251	0.06234962
24	0x3df02443	0.117256664
25	0x3ead744e	0.33877796
26	0x3da452c7	0.08023601
27	0x3da50321	0.080572374
28	0xbb061424	-0.0020458782
29	0x3dbb754e	0.091532335
30	0x3de858bd	0.113450505
31	0x3d712eb3	0.058882426
32	0xbda80ae5	-0.08205203
33	0xbe04a351	-0.12952925
34	0x3d959eb8	0.07305664
35	0x3df00e23	0.11721446
36	0x3da8def4	0.0824565
37	0xbddae5e9	-0.10688383
38	0xbe180d2d	-0.14848776
39	0x3daf5d1a	0.085626796
40	0xbd21880b	-0.03943638
41	0x3e8033b9	0.2503946
42	0xbe6ef8c3	-0.23337083
43	0x3d8a786a	0.067612484
44	0x3e2fcdd1	0.17168356
45	0xbd12316e	-0.03569167
46	0xbe02dbf0	-0.12779212
47	0xbe3e86d6	-0.18606123
48	0x3e471617	0.1944202
49	0x3c99a87a	0.018757094
50	0x3deeecf8	0.11666292
51	0x3e793405	0.2433625
52	0x3df9734b	0.121801935
53	0x3e1cb659	0.15303935
54	0x3d7feb50	0.06248027
55	0x3db603e6	0.08887462
56	0x3dda2b4f	0.10652792
57	0x3ccdccb0	0.025122017
58	0xbdb1a5f3	-0.086742304
59	0x3d04085d	0.03223454
60	0x3de8a6d0	0.11359942
61	0xbbeec3c0	-0.007286519
62	0x3dedba90	0.116078496
63	0x3dbd91b3	0.092563055

module.bi_lstm2.weight_ih_l0 f4 [128, 16]
0	0xbbecc5b9	-0.007225719
1	0xba8035e8	-0.000978169
2	0x3b9a1422	0.004702107
3	0x3c2f5b1b	0.010702874
4	0xbb8e6721	-0.00434579
5	0xbc5fc82d	-0.0136585655
6	0xba923af2	-0.0011156483
7	0xbae3f7b3	-0.0017392546
8	0xbc35c45f	-0.011094182
9	0x3c2548e6	0.010088181
10	0xbb8c0c3a	-0.0042739185
11	0x3c73dff1	0.014884935
12	0x3b9cf2af	0.0047896723
13	0x3a68b1d8	0.00088765984
14	0xbc04dac8	-0.008108802
15	0xbc13c641	-0.009019435
16	0xbb122e94	-0.0022305595
17	0x391a4a7f	0.00014714336
18	0x3c23f3aa	0.0100068245
19	0x3a0ecb0a	0.00054471253
20	0xbbba79fe	-0.005690812
21	0xbc16053c	-0.009156521
22	0xbc49f8e0	-0.012327403
23	0xbb2ab485	-0.002604754
24	0xbbb38ce6	-0.005479443
25	0x3c32c6a6	0.010911619
26	0xba43e3f7	-0.0007472629
27	0x3c1fb6f8	0.009748213
28	0x3c080af5	0.008303394
29	0xb7e8af37	-2.7738146e-05
30	0xbc1ee4a5	-0.009698068
31	0xbc2828a6	-0.010263598
32	0xbc192fb4	-0.009349752
33	0xbb48c443	-0.003063456
34	0x3b9e8bdc	0.00483845
35	0x3c06f9a6	0.008238232
36	0xbb62c430	-0.00346018
37	0xbc8564a4	-0.01628334
38	0x3a12feb0	0.00056074094
39	0x3a054ed5	0.0005085294
40	0xbc02104e	-0.007938458
41	0x3c18ba33	0.009321737
42	0xbb7256ed	-0.0036978081
43	0x3ca9d54c	0.02073159
44	0x39e797a0	0.00044172723
45	0x3898fd0b	7.295058e-05
46	0xbc0650a6	-0.008197939
47	0xbbc408c6	-0.005982491
48	0xbc64f043	-0.0139732985
49	0x3b896774	0.004193241
50	0x3c9929c8	0.01869668
51	0xbc0bb382	-0.008526685
52	0xbca6a5fa	-0.020342816
53	0xbd2cd03f	-0.042190786
54	0xbc180aa4	-0.009279881
55	0xbc91619b	-0.017746737
56	0xbbaacbb7	-0.005212273
57	0x3d000d34	0.03126259
58	0xbc0b8399	-0.008515262
59	0x3d06c62c	0.032903835
60	0x3c2ee64f	0.010675027
61	0xbbc53d82	-0.006019295
62	0xbc2e608d	-0.010643137
63	0xbca5120f	-0.020150213
64	0x3c0faff5	0.008769979
65	0xbc016e32	-0.007899808
66	0xbc0bffeb	-0.008544902
67	0x3b6ca32c	0.0036108
68	0x3ba7e241	0.005123407
69	0xbbd5a601	-0.0065200333
70	0x3bdbb599	0.0067049977
71	0x3b7d6c72	0.0038669375
72	0x3c3dd37e	0.011586068
73	0x3c832a39	0.016011344
74	0xbbcad376	-0.006189759
75	0x3c24c6db	0.010057176
76	0xbb320631	-0.0027164335
77	0xbb1d41dd	-0.0023995556
78	0x3b80cb95	0.003930519
79	0x3a1ea748	0.00060521485
80	0xbb16843e	-0.0022967006
81	0xba22e571	-0.0006213999
82	0x3bbcb3d5	0.0057587423
83	0x3a424ce9	0.0007411973
84	0x3aded92a	0.0017001976
85	0xbcc14646	-0.02359308
86	0x3b78c3f1	0.0037958587
87	0xbb418911	-0.002953116
88	0xbc009972	-0.007849084
89	0x3cac0bb3	0.021001672
90	0xbb628d21	-0.0034568983
91	0x3cb1efd5	0.021720806
92	0x39861e70	0.0002558115
93	0xbb280567	-0.0025637986
94	0xbb229411	-0.0024807493
95	0xbbbdd6ec	-0.005793443
96	0xbc5ed0b0	-0.01359956
97	0x3be1d3ba	0.006891695
98	0x3c3bc600	0.011460781
99	0x3be24ca0	0.006906107
100	0xbc35772b	-0.011075775
101	0x3c0959f8	0.008383267
102	0xbbef2407	-0.007297996
103	0xbbbe2996	-0.0058032973
104	0xbc56a237	-0.0131001985
105	0xbbb6bc8d	-0.005576676
106	0x3a8d58f8	0.0010783961
107	0xbb425c33	-0.0029657006
108	0x3bd3bb59	0.0064615426
109	0x3bb6c7e8	0.00557803
110	0xbc153d41	-0.009108842
111	0xbc517527	-0.012784279
112	0xba7c9440	-0.0009635128
113	0x3b58f3f1	0.0033104385
114	0x3a690cbd	0.0008890143
115	0x3b5d08bd	0.0033727132
116	0xbab5afda	-0.0013861612
117	0xbbdf4142	-0.0068131993
118	0x3bd0c9cf	0.0063717137
119	0x3b1969a6	0.0023408919
120	0xbbcc8c1b	-0.006242288
121	0x3bd48c74	0.00648647
122	0xbbd56a0a	-0.006512885
123	0x3c0fe9c9	0.008783766
124	0xb90c9f3c	-0.0001341076
125	0xbab52f0e	-0.0013823227
126	0xbbd28ca0	-0.006425455
127	0x3a08da6a	0.00052205345
128	0xbb92c028	-0.004478473
129	0x3b9389cb	0.00450251
130	0x3b9e9bd8	0.0048403554
131	0xbb0a9271	-0.0021144415
132	0xbb9cead5	-0.0047887363
133	0xbae85093	-0.0017724208
134	0xbc0121fc	-0.007881638
135	0xbacd7788	-0.0015675882
136	0xbb213d14	-0.0024603056
137	0x3c231529	0.009953775
138	0x3ac317bb	0.0014884392
139	0x3b282fbd	0.002566322
140	0x39b14126	0.0003380861
141	0x3b71da85	0.003690393
142	0x3a069454	0.0005133797
143	0xbc161ffd	-0.0091629
144	0xbc7b4a9d	-0.015337613
145	0x3b25f2d5	0.002532174
146	0x3ba8c379	0.0051502553
147	0xbc6ad609	-0.0143332565
148	0x3bd865bd	0.006603925
149	0xbc6d1397	-0.014470003
150	0xba9ad0e6	-0.0011811524
151	0xbbe7bd04	-0.007072093
152	0xbbb6ad48	-0.005574856
153	0x3c259ac7	0.010107703
154	0xb9810aff	-0.0002461299
155	0x3c9cc268	0.019135669
156	0x3af284d6	0.0018502723
157	0xba8f54a5	-0.001093526
158	0x3b99877f	0.004685342
159	0xbac46f1d	-0.0014986728
160	0x3bc1912a	0.0059071975
161	0x3b302ea5	0.002688327
162	0x3b343cd2	0.0027502072
163	0x3b078796	0.002068018
164	0xbb38a042	-0.0028171693
165	0xbc3af545	-0.011411016
166	0xbbcea243	-0.006305964
167	0x3b344cc4	0.0027511576
168	0x3b04d1d9	0.002026668
169	0x3c03d54b	0.0080464585
170	0xbb9a731f	-0.0047134305
171	0x3885128b	6.345388e-05
172	0x3afe0d82	0.0019382688
173	0x3b00a055	0.0019626815
174	0xbb49fa50	-0.0030819364
175	0xbbe9ac20	-0.0071311146
176	0x3cba9e26	0.02278049
177	0xbb88d4bf	-0.004175752
178	0xb95c4839	-0.0002100774
179	0x3befe150	0.0073205605
180	0xbc095f80	-0.008384585
181	0xbd07c095	-0.033142645
182	0xba6d065f	-0.0009041782
183	0xbc6cd061	-0.014453978
184	0x3c28d464	0.010304544
185	0x3d2dd41d	0.042438615
186	0xbc3da6e1	-0.011575432
187	0x3d0616e2	0.032736667
188	0x3cc858f4	0.024456479
189	0xbc1e4a40	-0.009661257
190	0xbc95eca0	-0.018301308
191	0xbc8773d5	-0.016534725
192	0xbc170df6	-0.009219637
193	0x3bcf25e9	0.006321658
194	0x3c6650c7	0.014057345
195	0xba14071b	-0.0005646811
196	0xbc43c871	-0.011949644
197	0x3bbd7415	0.0057816603
198	0xbc874bc3	-0.016515618
199	0xbc267b3f	-0.01016122
200	0xbc14fe05	-0.009093766
201	0xbb835308	-0.004007701
202	0x3a45be6a	0.00075433275
203	0xbb2a7ed6	-0.0026015542
204	0x3c203ae8	0.009779669
205	0x3bda5baa	0.0066637592
206	0xbbc55f8a	-0.006023352
207	0xbc6d0077	-0.014465443
208	0xbc1435d4	-0.009046037
209	0xbc04cb8f	-0.008105173
210	0xbbcdc2b6	-0.006279315
211	0x3bbe469b	0.0058067567
212	0x3b130cca	0.0022438043
213	0xbc896260	-0.016770542
214	0x3b327321	0.0027229267
215	0x3c340d95	0.010989566
216	0x3c056a6d	0.00814305
217	0x3c205554	0.009785969
218	0xbc28c6a9	-0.0103012705
219	0x3c9621a0	0.01832658
220	0xbbeeb97e	-0.007285296
221	0xbba3d7ab	-0.005000075
222	0x3b491137	0.0030680427
223	0x3c3e43bc	0.011612829
224	0xbc69ef0b	-0.014278184
225	0x3c1bcc06	0.009509092
226	0x3c9864f6	0.01860283
227	0xbb35a3e0	-0.0027716085
228	0xbc6dcb1e	-0.014513759
229	0x3b9f7eab	0.004867395
230	0xbc5c7b2a	-0.013457099
231	0xbc89941d	-0.016794259
232	0xbc8d40e0	-0.017242849
233	0xbb915eda	-0.004436356
234	0x3ab42668	0.0013744356
235	0xbad48836	-0.001621491
236	0x3c5bcac7	0.013415045
237	0x3c15a0e0	0.009132594
238	0xbc45668b	-0.012048374
239	0xbc9b6cbd	-0.018972749
240	0x3bca5ab7	0.006175365
241	0xbbfb1702	-0.007662655
242	0xbc80b5c4	-0.015711673
243	0xbc3dcf8b	-0.011585127
244	0x3c89f73b	0.016841521
245	0xbc7d1d85	-0.015448933
246	0x3bef3d9d	0.007301046
247	0x3c792b8e	0.015208138
248	0x3b80ed49	0.0039345366
249	0x3b6e6aca	0.003637957
250	0x3b30f767	0.0027002932
251	0x3c12650d	0.008935225
252	0xbbd0ab0a	-0.0063680457
253	0xbbeb9006	-0.0071888
254	0x3c00bd23	0.007857594
255	0x3ca2d962	0.019879047

module.bi_lstm2.weight_hh_l0 f4 [128, 32]
0	0x8000894c	-4.9253e-41
1	0x80008ae0	-4.9819e-41
2	0x000089f7	4.9492e-41
3	0x00008af0	4.9841e-41
4	0x80008b65	-5.0005e-41
5	0x80008b3d	-4.9949e-41
6	0x80008eb0	-5.1187e-41
7	0x00008a98	4.9718e-41
8	0x8000890d	-4.9165e-41
9	0x800089c1	-4.9417e-41
10	0x00009064	5.1798e-41
11	0x80008900	-4.9146e-41
12	0x8000ad56	-6.2181e-41
13	0x80008b12	-4.9889e-41
14	0x00008a0f	4.9526e-41
15	0x8000a0bc	-5.766e-41
16	0x00009e83	5.6863e-41
17	0x8000a432	-5.8902e-41
18	0x80008aa7	-4.9739e-41
19	0x0000a788	6.0099e-41
20	0x80008b83	-5.0047e-41
21	0x0000893b	4.9229e-41
22	0x80008bcf	-5.0154e-41
23	0x800088e2	-4.9104e-41
24	0x00008c7d	5.0398e-41
25	0x00008972	4.9306e-41
26	0x0000996a	5.5035e-41
27	0x80008b51	-4.9977e-41
28	0x000089d0	4.9438e-41
29	0x00008aea	4.9833e-41
30	0x00008c39	5.0302e-41
31	0x80008a31	-4.9574e-41
32	0x00009112	5.2041e-41
33	0x00008a62	4.9642e-41
34	0x0000931d	5.2774e-41
35	0x80008aec	-4.9836e-41
36	0x00008e08	5.0951e-41
37	0x00008af1	4.9843e-41
38	0x00008a84	4.969e-41
39	0x0001491a	1.1806e-40
40	0x00009525	5.3503e-41
41	0x00009414	5.312e-41
42	0x00008cd3	5.0518e-41
43	0x80008e56	-5.106e-41
44	0x0000a875	6.0431e-41
45	0x80008d9a	-5.0797e-41
46	0x0000ad29	6.2118e-41
47	0x800088e8	-4.9113e-41
48	0x80008959	-4.9271e-41
49	0x000089c1	4.9417e-41
50	0x000089fd	4.9501e-41
51	0x00008d16	5.0612e-41
52	0x00008c90	5.0424e-41
53	0x00008a6f	4.966e-41
54	0x00008ac5	4.9781e-41
55	0x80008a8e	-4.9704e-41
56	0x80008b32	-4.9934e-41
57	0x8003512f	-3.0463e-40
58	0x8000a15c	-5.7885e-41
59	0x00008b4c	4.997e-41
60	0x80008c59	-5.0347e-41
61	0x00008a90	4.9707e-41
62	0x80008de0	-5.0895e-41
63	0x000089ab	4.9386e-41
64	0x80008e02	-5.0943e-41
65	0x000089ad	4.9389e-41
66	0x80009335	-5.2808e-41
67	0x00008bdf	5.0176e-41
68	0x8000ab89	-6.1535e-41
69	0x000093f8	5.3081e-41
70	0x0000a51b	5.9229e-41
71	0x800088e1	-4.9103e-41
72	0x00009e53	5.6796e-41
73	0x000094ab	5.3332e-41
74	0x000097b8	5.4426e-41
75	0x00008a62	4.9642e-41
76	0x80008a54	-4.9623e-41
77	0x00008b94	5.0071e-41
78	0x800088e9	-4.9114e-41
79	0x0000948e	5.3291e-41
80	0x00009de9	5.6647e-41
81	0x00008c14	5.025e-41
82	0x00008af2	4.9844e-41
83	0x80009abf	-5.5512e-41
84	0x80008d0d	-5.06e-41
85	0x80008b8e	-5.0063e-41
86	0x00008d9b	5.0798e-41
87	0x80008ae3	-4.9823e-41
88	0x00008bf1	5.0202e-41
89	0x80008b0d	-4.9882e-41
90	0x80008aba	-4.9766e-41
91	0x00008ae4	4.9825e-41
92	0x00008a04	4.951e-41
93	0x00008ac6	4.9783e-41
94	0x800088c2	-4.906e-41
95	0x00008bf3	5.0204e-41
96	0x80008b56	-4.9984e-41
97	0x00008a6f	4.966e-41
98	0x8000a83f	-6.0355e-41
99	0x00008964	4.9286e-41
100	0x00008dde	5.0892e-41
101	0x800088be	-4.9054e-41
102	0x00008b00	4.9864e-41
103	0x80008b1d	-4.9904e-41
104	0x80008ffb	-5.165e-41
105	0x800089c8	-4.9427e-41
106	0x00008ccb	5.0507e-41
107	0x00008aa9	4.9742e-41
108	0x80008bbb	-5.0126e-41
109	0x8000a0d2	-5.7691e-41
110	0x8000896b	-4.9296e-41
111	0x00008a12	4.953e-41
112	0x00008b74	5.0026e-41
113	0x000089d7	4.9448e-41
114	0x00008a42	4.9598e-41
115	0x000089ae	4.939e-41
116	0x00008aa1	4.973e-41
117	0x00008d44	5.0677e-41
118	0x80008a59	-4.963e-41
119	0x80008c07	-5.0232e-41
120	0x00008ccd	5.051e-41
121	0x0000894e	4.9256e-41
122	0x80009973	-5.5047e-41
123	0x80008b3a	-4.9945e-41
124	0x0000893c	4.923e-41
125	0x80009d2a	-5.638e-41
126	0x00008eb6	5.1195e-41
127	0x00008ac6	4.9783e-41
128	0x80008ac7	-4.9784e-41
129	0x80008a34	-4.9578e-41
130	0x8000891b	-4.9184e-41
131	0x80008b23	-4.9913e-41
132	0x8000894f	-4.9257e-41
133	0x8000898b	-4.9341e-41
134	0x80035f47	-3.09686e-40
135	0x80008cb1	-5.047e-41
136	0x80008ae1	-4.982e-41
137	0x800089eb	-4.9476e-41
138	0x000090ce	5.1946e-41
139	0x80008992	-4.9351e-41
140	0x00008dc3	5.0855e-41
141	0x800095d9	-5.3755e-41
142	0x80008c15	-5.0252e-41
143	0x80008ba9	-5.01e-41
144	0x0000898a	4.934e-41
145	0x80008c95	-5.0431e-41
146	0x80008a0c	-4.9522e-41
147	0x0000934e	5.2843e-41
148	0x00008c07	5.0232e-41
149	0x80008b52	-4.9979e-41
150	0x80008977	-4.9313e-41
151	0x000089cc	4.9432e-41
152	0x000088ee	4.9121e-41
153	0x0000894f	4.9257e-41
154	0x80008d60	-5.0716e-41
155	0x00008927	4.9201e-41
156	0x00008aa1	4.973e-41
157	0x80008994	-4.9354e-41
158	0x80008d5e	-5.0713e-41
159	0x80008a3d	-4.959e-41
160	0x80008ba9	-5.01e-41
161	0x80008a67	-4.965e-41
162	0x00008c50	5.0335e-41
163	0x80008a9f	-4.9728e-41
164	0x00008c09	5.0235e-41
165	0x00008a21	4.9551e-41
166	0x8000895e	-4.9278e-41
167	0x00008957	4.9268e-41
168	0x80008b5a	-4.999e-41
169	0x0001ec6c	1.76648e-40
170	0x80008a14	-4.9533e-41
171	0x80008b6f	-5.002e-41
172	0x00008b2e	4.9928e-41
173	0x80008e61	-5.1076e-41
174	0x000088ea	4.9116e-41
175	0x8000a6c4	-5.9824e-41
176	0x00008d48	5.0682e-41
177	0x800090ad	-5.19e-41
178	0x800094c7	-5.3371e-41
179	0x00008bd4	5.0161e-41
180	0x800089bf	-4.9414e-41
181	0x00008c32	5.0293e-41
182	0x00008e19	5.0975e-41
183	0x00008ddb	5.0888e-41
184	0x800088f2	-4.9127e-41
185	0x800091ed	-5.2348e-41
186	0x80008e12	-5.0965e-41
187	0x800089c8	-4.9427e-41
188	0x80008ca6	-5.0455e-41
189	0x80008cb6	-5.0478e-41
190	0x80008aae	-4.9749e-41
191	0x80008b4b	-4.9969e-41
192	0x00008e18	5.0974e-41
193	0x00008a22	4.9553e-41
194	0x00008b4b	4.9969e-41
195	0x8004765f	-4.09806e-40
196	0x0000a822	6.0315e-41
197	0x8000a542	-5.9283e-41
198	0x00008b32	4.9934e-41
199	0x80009084	-5.1842e-41
200	0x00009a0c	5.5262e-41
201	0x00008b30	4.9931e-41
202	0x80008a84	-4.969e-41
203	0x8002bc70	-2.5127e-40
204	0x000089f1	4.9484e-41
205	0x000094da	5.3398e-41
206	0x000089c0	4.9415e-41
207	0x80008b22	-4.9911e-41
208	0x80009c0d	-5.598e-41
209	0x000089d4	4.9443e-41
210	0x00008a90	4.9707e-41
211	0x80008a54	-4.9623e-41
212	0x80008f43	-5.1393e-41
213	0x80008fcb	-5.1583e-41
214	0x000094df	5.3405e-41
215	0x80008a4d	-4.9613e-41
216	0x80008982	-4.9329e-41
217	0x80008f8b	-5.1494e-41
218	0x80008b1c	-4.9903e-41
219	0x80009052	-5.1772e-41
220	0x00008940	4.9236e-41
221	0x80008fbb	-5.1561e-41
222	0x0000908c	5.1854e-41
223	0x80008bbc	-5.0127e-41
224	0x0000892e	4.9211e-41
225	0x80008aea	-4.9833e-41
226	0x000089e1	4.9462e-41
227	0x00008a2a	4.9564e-41
228	0x80008d86	-5.0769e-41
229	0x00009372	5.2893e-41
230	0x00009da9	5.6558e-41
231	0x80008c00	-5.0223e-41
232	0x00008cd5	5.0521e-41
233	0x800089a6	-4.9379e-41
234	0x8000895b	-4.9274e-41
235	0x8000a292	-5.8319e-41
236	0x00009603	5.3814e-41
237	0x00008b62	5.0001e-41
238	0x000089ee	4.948e-41
239	0x80009698	-5.4023e-41
240	0x000089c3	4.942e-41
241	0x0000933b	5.2816e-41
242	0x00008bb1	5.0112e-41
243	0x800094fd	-5.3447e-41
244	0x80008a50	-4.9617e-41
245	0x00008a9a	4.9721e-41
246	0x0000a376	5.8639e-41
247	0x80009c32	-5.6032e-41
248	0x00009306	5.2742e-41
249	0x000089ea	4.9474e-41
250	0x0000892b	4.9207e-41
251	0x00008a13	4.9532e-41
252	0x00008a7f	4.9683e-41
253	0x00008ccf	5.0513e-41
254	0x00008ecc	5.1226e-41
255	0x00008a74	4.9668e-41
