output/clip/FD004/exp_202411021602_bilstm_clip_ep-0066.pth (torch, 289762 bytes, 66 tensors)

module.bi_lstm1.weight_ih_l0 f4 [64, 14]
00000000: 947e 443d 0c45 5f3d ba71 ca3c b3cc 7f3d
00000010: 0582 213d b15a c03c 05fc c93c 5a7b 893d
00000020: ee77 1c3d 3614 063d 0336 ef3c c2e3 573d
00000030: 8d2a a73d d17d 9b3d f5d4 863d 3251 163d
00000040: d3ac 633d 6c2b 8e3b cd7c 753d 09e4 2f3d
00000050: 0c25 7e3d c893 0d3d 88f3 313d 0866 233c
00000060: ec38 2b3d 01fd a53d ab75 193d a115 c93d
00000070: a11a bcbc 7e6b fb3c 5bab 47bd a22d 553e
00000080: c9ec 903d e6e7 813d b81a aebd 89f6 4b3e
00000090: a398 a13d a223 a93d 9989 b4bd 6cb4 25bc
000000a0: 2f63 443e e8fe 2a3e b07e f73a 94cf 76bb
000000b0: 9d47 afbc 083f dc3b 4530 793c 2a48 243c
000000c0: 8315 433a 3540 a53c 88b2 723c e327 043c
000000d0: 613e 31bd 928c 0c3b 621a 97bb b365 d83b
000000e0: a859 1c3e bea9 ce3d 59bc be3d 23aa 7ebd
000000f0: 6a08 953d a0ee c1bc aede 313e 6e6e 9cbd
00000100: a282 bb3d 1220 0cbd 113b 503e c3d2 cb3d
00000110: 0afe 81bc c996 7abc 5143 69bb 0614 b2ba
00000120: 07a4 17bc d13c 213d 25d2 1e3c ae60 2e3c
00000130: 2278 99bc c2a2 4d3d 661c 723c eaa6 743a
00000140: e931 35bd 865a 4f3c f903 583c 7f10 a53c
00000150: ab06 a1bc 2def 32bd 2d34 c6bc 1d46 d4bc
00000160: bff2 7dbc 143e 0fbc 4674 59bd b95d bebc
00000170: 475f d5bc e2e5 f1ba b6b7 fb3c 720a 11bd
00000180: a6d6 6abb c6fe bdbc 46c5 383d 139a d03c
00000190: cfe8 ea3a a7b8 c6bb f733 893c f1c3 15bc
000001a0: ccd4 9a3c 80a3 0abc 304c d13c f76e a7bc
000001b0: 4281 023d 2358 c43c 3b56 36bc 958c 89bc
000001c0: 7633 483e cfc6 df3d efa0 ee3d c6f9 e9bc
000001d0: 47ff f73d 1aa9 fa3c 9bce 0e3e 782e 823b
000001e0: 0e65 cf3d b440 263c 93b4 813e 501b d73d
000001f0: 327c b23d 766b ca3d c918 613d e49d 783d
00000200: 8969 5d3d 7ae6 b63b 81aa e43c a773 2cbc
00000210: cc43 633d 7fb1 2ebc cae7 ba3c 7321 44bc
00000220: f51b e03c c76a 783d 28df 8ebc 5a3e 61bc
00000230: 09ff d83d 13a5 ae3d e3e1 023e a2ba 29bd
00000240: 325b fd3a 59d0 403c 84dd c63d 2866 35bd
00000250: 3b80 4ebc 88ce 5dbc 0e0b e43d d8c5 e83d
00000260: cba9 fcbc 3cd3 ac3a e2b8 b4bc 80ba 04bd
00000270: 5510 23bd fabf 3abd b0d4 c2bc c5d6 bdbc
00000280: abd0 d6bc 7325 37bd 27be 6fbc 25ef e6bc
00000290: 7d42 98bc 4220 fabc c60c eabc 4c77 bbbc
000002a0: 83e2 793c 767a 9e3b 5790 5a3b 2512 8b3c
000002b0: 5a39 bb3b a339 143c 72e6 3bbc 1ace 963c
000002c0: 57b8 7f3b 6223 153b e587 bfbc 0c6d 883c
000002d0: c4a7 2dbc 8553 4bbb 8154 603d ff60 423d
000002e0: 28fe 1f3d 3437 113d 7d0d 5b3d 5751 e13c
000002f0: 1dc9 133d 41bc 143d 90e4 403d 9017 c03c
00000300: 6d43 113d 6f1b 0a3d 505f d23c de1b 093d
00000310: 0a57 063e ae1e 453c 6963 203d f5c3 c8bd
00000320: fc7f ea3c 9c41 83bd 8105 b53d 764f e8bd
00000330: f5d9 413d 8d14 82bd 7c79 373e e791 023d
00000340: 8a69 31bd cec5 5ebd b608 1c3d 7698 c8bb
00000350: fd5d cc3c e2ec adbd 4226 013c 1bbd 74bd
00000360: f93d db3c 8163 9dbd e663 cc3c 5db0 76bd
00000370: 99ed 683d 2d63 d4bc 2d61 25bd 15fe 0fbd
00000380: 3ca1 233d d1ec 113d d00c 213c 9cfc 2e3d
00000390: dda8 1e3d 013a 943c a722 503c b460 473d
000003a0: b71c 193d ce2a ca3c 3fb6 8f3c f259 2a3d
000003b0: bf02 713d 48dd 5e3d c20f 133e 9dd9 0a3e
000003c0: 1863 d73d fd09 fc3d 3d17 0b3e b797 0b3e
000003d0: 1937 183e e24f 423e 5f97 e83d c586 013e
000003e0: 8e0a 0d3e 73fe 6e3e 8191 493e 639c 8e3e
000003f0: 9ec4 c33b bc61 193d 71d0 a5bc 91d8 553e
0.047972277 0.054509208 0.024712432 0.062451076 0.039430637 0.023480745 0.024656305 0.067129806
0.03820031 0.03273412 0.02920056 0.05270744 0.08162413 0.07592357 0.06583587 0.036698528
0.05558474 0.0043386724 0.059933472 0.04294208 0.06204705 0.034564763 0.04344514 0.009973057
0.04180233 0.08104897 0.037465733 0.098185785 -0.022961916 0.030690905 -0.0487474 0.20818189
0.07076413 0.06343059 -0.0850119 0.19918264 0.07890441 0.082587495 -0.08815307 -0.010113817
0.1917846 0.16698802 0.001888236 -0.0037660347 -0.021396453 0.006721381 0.015209262 0.010026971
0.0007441865 0.020172218 0.014813073 0.00806615 -0.04327238 0.002144609 -0.0046112994 0.0066039204
0.15268576 0.100909695 0.09313268 -0.062173974 0.072769955 -0.023673356 0.17370102 -0.0763825
0.091557756 -0.034210272 0.20335032 0.09952309 -0.015868206 -0.015294739 -0.0035593102 -0.001358629
-0.009255416 0.03936464 0.009693657 0.010643167 -0.018734042 0.050204046 0.0147772785 0.00093327335
-0.04423705 0.01265586 0.013184541 0.020149468 -0.0196565 -0.043685127 -0.024194801 -0.025912339
-0.01549977 -0.008742828 -0.053089403 -0.02323805 -0.026046408 -0.0018455351 0.030727249 -0.035410352
-0.0035833507 -0.023192775 0.04511001 0.025464093 0.0017922166 -0.0060644927 0.016748412 -0.009140954
0.018900298 -0.008461833 0.025549024 -0.020438654 0.03186155 0.023967808 -0.011128957 -0.016790668
0.19550881 0.109265916 0.116517894 -0.028561484 0.12109237 0.030598212 0.13946001 0.0039728247
0.101266965 0.010147262 0.2533308 0.10503256 0.087150946 0.09883778 0.054955278 0.06069745
0.054055724 0.005581674 0.027913334 -0.010525621 0.055484578 -0.010662436 0.022815604 -0.011970866
0.027357081 0.060648706 -0.017440394 -0.013747776 0.10595519 0.08527579 0.12781481 -0.041437753
0.0019329546 0.011768424 0.097102195 -0.044286877 -0.012603815 -0.01353801 0.11134921 0.11365861
-0.030842682 0.0013185511 -0.022060815 -0.032404423 -0.039810497 -0.04559324 -0.023783058 -0.0231737
-0.026222548 -0.04471345 -0.014632738 -0.028190205 -0.018586392 -0.03053296 -0.028570544 -0.022884034
0.0152517585 0.004836376 0.0033350193 0.016976425 0.005713624 0.009046945 -0.011468517 0.018408824
0.0039019787 0.0022756686 -0.02338023 0.01665356 -0.0105990805 -0.0031025123 0.05476809 0.047455784
0.03906074 0.035453036 0.05347966 0.027504606 0.03608047 0.036312345 0.047092974 0.023448735
0.035464693 0.03371757 0.025680214 0.03347384 0.1311914 0.01203124 0.039157305 -0.09803001
0.02862548 -0.06408998 0.088389404 -0.11343281 0.047327 -0.06351576 0.17917436 0.031877425
-0.04331354 -0.05438786 0.038094245 -0.0061216904 0.02494716 -0.084924474 0.0078826565 -0.059750658
0.02676295 -0.076849945 0.024949979 -0.060226787 0.056867216 -0.025926197 -0.040375877 -0.03515442
0.039948687 0.035626236 0.009829715 0.042721376 0.03873526 0.018094065 0.012703574 0.048676208
0.0373809 0.024678614 0.017542956 0.041589685 0.05884051 0.05441025 0.1436148 0.13559575
0.105169475 0.123065926 0.13583083 0.13632093 0.14864768 0.18975785 0.11356997 0.12649067
0.13773558 0.23339252 0.19684412 0.2785369 0.0059743663 0.037446722 -0.020240994 0.20883395

module.bi_lstm1.weight_hh_l0 f4 [64, 16]
00000000: a09c 98bb 112d 5d3d 5801 a7bc e871 05bc
00000010: a442 d9bc 6330 afbb def2 61bc 60ea a0bc
00000020: 140a 2b3c 6256 993c 2849 a13c 4b86 663c
00000030: d770 333c fe01 b6bb a063 aebc 3356 d8bc
00000040: f91e 3dbd 02af 613e a474 80bc 53e4 3bbd
00000050: 88b8 de3d e09e 1a3d 64bf 393d 4051 f93c
00000060: 4bfa 8f3d a94b 1ebd 5aef 9bbd e39c 90bd
00000070: b8c1 0fbd 6735 0bbd 8589 053e 91af b83d
00000080: a0d0 563d ef47 de3d 2b52 f0bd 3acf c1bc
00000090: df5e cebd 5300 923c a6c5 20bd 9cf9 e7bc
000000a0: e58a 673c b54c 1f3d 8885 7c3a cf60 af3c
000000b0: 044f 993c d822 35bc 3f64 b2bd 42d4 86bd
000000c0: 9e04 ed3b 15b3 ad3c d4c8 94bc c2e0 bf3b
000000d0: 7fa8 98bc fc11 78ba 4e03 27bc 428d 8abb
000000e0: 2a44 ffbb 95d6 033c e504 7c3b 2efe e93b
000000f0: 06c2 663b b2d8 893b 0427 87bc 89bb 29bc
00000100: 06e5 37bd 79b6 213d 970f 9f3d ea14 3abb
00000110: 8b11 613d 6ab7 92bc 1497 743c 9f1f 743b
00000120: 210e 9abc 5e7c 0abc d6bb 183d 4fba 81ba
00000130: bd8f 9c3b 9f37 cd3a 8130 4d3d 25af 473c
00000140: 0806 893c 9495 d6b9 2d3b 6fbc e9b0 8cba
00000150: b955 53bc 843e bc3b 2e4f 01bb 6bbd e33b
00000160: b711 d63b 1038 d9ba 3587 a8bb 101e fdb9
00000170: cdd6 37bb a687 d63b a109 28bc 5794 78bb
00000180: ae45 3bbc 26aa 8e3d 66db 11bb 01fe ef3a
00000190: 0f18 21bc fab2 15bc df41 c7bb c1b1 9bbc
000001a0: ab39 e53c 7c51 263c a96b 2739 0b97 fb3b
000001b0: 3ada 473c 54b5 23bc c8ef ccba 62d2 edbb
000001c0: 2b58 90bc 5a22 983d 14fe 983c a409 4abc
000001d0: 8025 d83b 27d2 5abb a208 933b 673a 8fbb
000001e0: bbd9 fb3c f2bd 5a3b f4bb 783b 6fa3 72b9
000001f0: dc7f 8a3b 18cf 8abb 1202 963c 5058 bd3a
00000200: b8ef 64bd 9d64 a13e 5a85 64bd 74d1 05bd
00000210: 0c5b 883d 9104 a03b cad2 1e3c ac97 b4bc
00000220: 44d1 b13d 49ff 9f3b 09f4 a0bc a0af 5ebc
00000230: 896e cb3b a529 0abd 0f66 b63d a475 053d
00000240: 6090 f3bb abcb dd3c c7ee ca3c 6027 00bc
00000250: f1f2 613d c292 b2ba 3abc b33b 340b 4c3c
00000260: 992d 17bd 5d3d 4cbc 664b c13b 754e aabb
00000270: 92a8 c5bb adac 383c 1b2f 363d 92ad 7d3c
00000280: 0810 2cbd ff8f 313d 7389 013c 9d83 07bc
00000290: d78c 9c3d 2a25 31bb 62f8 503c 20ec 8f3b
000002a0: 4f94 00bd ca2c 6ebc 46a1 adbb f7aa 3fbc
000002b0: d52b 1dbb dab9 6e3a d1a3 853d 858f 043d
000002c0: 51bb c6bb 10f0 a23b 89bc 7c3c c4f3 e53a
000002d0: 336f b4ba 2731 31bb 6f7f fe3a a850 dd3a
000002e0: 489d c53c 460c a5ba c009 13bc 1191 46bb
000002f0: dfef 02ba 3e85 64bb 5051 3a3b 30a4 db3b
00000300: 725d 6f3a a60a 943c ef1c bf3b ea9a b9ba
00000310: c0d4 5e3c 167d 053b a8cd 71b9 1601 153c
00000320: c202 ae38 ffe0 2abc d8dc a03b 9c91 77b8
00000330: edc0 81bb 2f37 cb3b 7a99 473c 5d4f 883a
00000340: f07f e339 9528 6c3c d861 8fbc dc78 aeba
00000350: 8ddc f63b 91af 9fba 8d73 1bbc d176 9abb
00000360: f922 9abc b0ec 3b3b 611f 923c e515 2c3c
00000370: 3b65 0c3b f18f bb3b f1aa e03b 85b8 21bc
00000380: fa75 f0bc e212 8bbd a9e2 a63d 5953 1c3c
00000390: f568 1d3d 0442 d5bc ee13 173c 0bd5 1dbb
000003a0: 3c41 19bd 87bb b4ba 847e 653d a476 c03b
000003b0: 8677 4f3c e7e6 5b3c fc3f b33c 9c1f 203b
000003c0: 81dc 23bc 656f cabc ed06 e13c acc8 873a
000003d0: 8a3c a63b 0dee 943b f5e3 46ba fbee b23b
000003e0: f27c 073d a4fe 22bc 9555 0bbb 90f4 5abc
000003f0: aed2 d2bb cb53 0fbb 875c f53b 7a24 8e3c
-0.004657343 0.053998057 -0.020386383 -0.008144833 -0.026521035 -0.0053463443 -0.013790814 -0.019643009
0.0104394145 0.018717948 0.019688204 0.014070104 0.010952196 -0.0055544367 -0.02128774 -0.02640829
-0.046172116 0.22039416 -0.015680619 -0.045872044 0.1087504 0.03774917 0.04534854 0.03043425
0.070301615 -0.038646374 -0.07614012 -0.07061174 -0.035096854 -0.033986475 0.13040741 0.09017862
0.052445054 0.10853564 -0.11734422 -0.023658384 -0.10076689 0.01782242 -0.039250992 -0.028317265
0.014132236 0.038891513 0.0009632935 0.021408467 0.018714435 -0.011055671 -0.08710527 -0.06583454
0.0072332164 0.021203557 -0.018162169 0.0058556506 -0.018635033 -0.0009463129 -0.010193659 -0.004228265
-0.007790108 0.008046766 0.0038455066 0.0071408963 0.0035210862 0.0042067403 -0.016498096 -0.010359653
-0.04489615 0.03948066 0.077666454 -0.0028393813 0.05494837 -0.017909724 0.014928598 0.0037250293
-0.018805565 -0.008452503 0.03728851 -0.0009897443 0.004777877 0.0015656835 0.050095085 0.012187754
0.016726509 -0.00040928705 -0.014601511 -0.0010733876 -0.012898856 0.005744757 -0.0019731033 0.0069500706
0.0065328735 -0.0016572494 -0.005143071 -0.0004827832 -0.0028051615 0.0065469323 -0.010256202 -0.0037930214
-0.011430187 0.06966047 -0.0022256016 0.0018309952 -0.009832396 -0.00913691 -0.0060808505 -0.019005658
0.0279816 0.010151263 0.00015966468 0.007677918 0.012198025 -0.009991962 -0.0015635425 -0.0072577456
-0.017620167 0.07428427 0.018675841 -0.0123314 0.006596267 -0.003338942 0.004487113 -0.004370976
0.03074347 0.0033377376 0.0037953826 -0.00023139802 0.004226668 -0.0042361133 0.018311534 0.0014445875
-0.055892676 0.31522074 -0.055791236 -0.032670453 0.06657991 0.004883357 0.009693811 -0.022044979
0.086824924 0.0048827273 -0.019647615 -0.013591677 0.006208245 -0.03373112 0.08906185 0.032582894
-0.0074329823 0.027074656 0.024772061 -0.007821888 0.055163328 -0.001362406 0.005485085 0.012453843
-0.03690872 -0.012465802 0.005898881 -0.005197341 -0.006032058 0.011271638 0.044478517 0.015483277
-0.042007476 0.043350216 0.007906306 -0.008271125 0.076440506 -0.0027030208 0.012754532 0.004392162
-0.031391438 -0.014537046 -0.0052987663 -0.011698476 -0.0023982425 0.00091066735 0.06525386 0.032363433
-0.0060648103 0.0049724653 0.01542581 0.0017543961 -0.001376605 -0.0027037354 0.001941664 0.0016884999
0.02412285 -0.0012592159 -0.008974493 -0.0030298869 -0.000499485 -0.0034869458 0.0028429814 0.0067029223
0.0009131051 0.018071484 0.0058323066 -0.0014160548 0.013600528 0.0020368746 -0.00023060164 0.009094497
8.29748e-05 -0.01042962 0.004909139 -5.9025e-05 -0.003959766 0.0062016468 0.012182588 0.0010399629
0.00043392135 0.014413972 -0.01750271 -0.0013311165 0.007533616 -0.001218306 -0.009487999 -0.004713871
-0.018815504 0.0028675012 0.017837228 0.010503267 0.0021422643 0.0057239463 0.0068563153 -0.009870653
-0.02935313 -0.06790711 0.08148701 0.009541356 0.038430173 -0.026032455 0.00922106 -0.0024083282
-0.037415728 -0.0013788798 0.056028858 0.005873518 0.012662774 0.013421751 0.021881096 0.0024432903
-0.010001303 -0.02471132 0.027469123 0.0010359487 0.005073135 0.0045449794 -0.0007587069 0.0054606176
0.03307814 -0.009948406 -0.0021260728 -0.013363972 -0.0064338064 -0.0021870013 0.0074878368 0.017351378

module.bi_lstm1.bias_ih_l0 f4 [64]
00000000: 0e86 b23d ac47 133e 007a 2b3e 2827 37bb
00000010: 508e 103e a0e6 a73c 09f0 c9bb 9f9f d23c
00000020: 03ec 753e 5fec 1cbc d1c8 ba3b c19c d7bc
00000030: 162e 0bbc 0486 e93c efe5 5e3d 552d 053d
00000040: 84e8 773d e741 883e 3c4e 293e d3bb 423d
00000050: 2ffa 643d aaea b2bc ecbd 223c 644d 3abb
00000060: f814 333e 1f41 9dbd 46ea 80bd 6ef9 1abd
00000070: 2783 5dbd bf7d b1bb 890a b73d ca63 38bc
00000080: 6a96 413c c952 ac3d 428e 483e a891 ddbd
00000090: 123d 4abe 59d6 2fbe 297b 683c f900 39bd
000000a0: 633c 723e 870c 4a3e 96b1 5a3e 0309 f73d
000000b0: 109e 2b3e 38f6 e8bd 4c58 2dbc 36a1 4fbe
000000c0: fd1c af3d c09d 543e 0397 0b3e 63e7 cdbb
000000d0: f45c 043e 2be1 9c3c 0d2e 0ebc 466e c53c
000000e0: 1e08 853e f613 9dbc 29fc 7f3b c3a3 eabc
000000f0: 90c2 1bbc 03b7 e83c f422 3c3d c53a 083c
0.08716975 0.1438281 0.16745758 -0.0027946923 0.14116788 0.020495713 -0.0061626476 0.025710879
0.24015813 -0.00957784 0.0057002087 -0.026319863 -0.008494874 0.028506286 0.0544185 0.032513935
0.06052448 0.2661278 0.1653375 0.047542404 0.055902656 -0.021840412 0.009932976 -0.0028427476
0.17488468 -0.076784365 -0.06294684 -0.03783553 -0.054080155 -0.0054166014 0.08937556 -0.01125426
0.011815647 0.084142275 0.19585517 -0.10818797 -0.19749859 -0.17171611 0.01418952 -0.045166943
0.23655848 0.19731341 0.21356806 0.12062266 0.16759515 -0.113750875 -0.010580134 -0.20276341
0.08550451 0.20763302 0.13631825 -0.006283687 0.12926084 0.019150337 -0.008677972 0.024100434
0.25982755 -0.019174557 0.0039060211 -0.02864254 -0.0095068365 0.02840758 0.04593177 0.008314793

module.bi_lstm1.bias_hh_l0 f4 [64]
00000000: b839 b33d 475b 113e f5c8 2f3e 0317 0fbb
00000010: 34d0 0d3e c822 a43c fbd9 c7bb b30a ba3c
00000020: ecac 753e 00c1 36bc cd88 c33b 4450 cbbc
00000030: 1332 19bc 6335 e93c 0338 8d3d cef6 0b3d
00000040: 952f 783d 1596 873e 40af 2a3e b8a4 413d
00000050: 8d00 683d fdd1 b2bc cd06 233c 6cc6 3dbb
00000060: c4a4 333e 5fe9 a7bd 3b57 80bd 4f6e 1abd
00000070: e6ee 5bbd a9c0 b3bb 4ec0 ef3d 3a53 a8bc
00000080: dd73 363c 0cc9 7f3e 03fd 303e 0230 c03d
00000090: 7f43 56be eced 89bd 74e6 cabb db70 27be
000000a0: c369 ad3d 846e 8a3d 98a3 903d 2ced 863d
000000b0: 722d 323e 59d3 cdbd bef7 58be 89a3 29be
000000c0: ac80 af3d 7972 4f3e b532 0e3e 65ee a4bb
000000d0: fcfe 003e aeef 9a3c da76 15bc 9404 d33c
000000e0: ade8 823e f925 8ebc ee44 443b 6e32 f6bc
000000f0: ac39 05bc 3b1b eb3c 806c 863d cad6 083c
0.08751243 0.14194976 0.17166503 -0.0021833784 0.13848954 0.020036116 -0.0060989833 0.02271018
0.23991746 -0.011154413 0.0059672357 -0.024818547 -0.0093503175 0.02846784 0.06895449 0.03417092
0.060592253 0.2648169 0.16668415 0.04727623 0.05664115 -0.021828646 0.009950352 -0.002895738
0.17543322 -0.08198809 -0.06266638 -0.037702855 -0.05369463 -0.0054856134 0.11706601 -0.020547498
0.011136022 0.24979037 0.17284016 0.09384157 -0.20924185 -0.06734833 -0.006192023 -0.16351645
0.08467438 0.067593604 0.07062453 0.06588206 0.17400149 -0.10050077 -0.21188256 -0.1656629
0.08569464 0.20258512 0.1388653 -0.0050333017 0.12597269 0.018913116 -0.009122575 0.025759019
0.25568143 -0.017352091 0.0029948312 -0.030053344 -0.008131426 0.028699508 0.065636635 0.008351991

module.bi_lstm1.weight_ih_l0_reverse f4 [64, 14]
00000000: a10d 79bc d575 b13c 6a5c 123d 2b03 15be
00000010: 178b 0d3d fd27 77bd e6de 363d 3bfc 09be
00000020: 88f0 7c3d daea bdbd 5275 123e d9ef b13c
00000030: b9f0 04be eaab 7dbd 152b 5d3e a0d0 2c3e
00000040: bcb6 573e 1476 73bd 5de3 153e 7127 6bbe
00000050: 7766 a13e 8323 cebd 3a7d 2d3e dd22 97be
00000060: cb36 1c3e 85e6 043e 0ba8 16bd 25ec 2abd
00000070: 2b01 54bd f2dd 30bc f808 08bc 5def 0bbd
00000080: 8620 b13d 6acd 823d f137 763d 49b0 2dbd
00000090: 5f68 f33d 4a69 c0bb e8d8 75bd bc90 183b
000000a0: f469 30be b9b3 aebd efac 2bbd 76b6 92bd
000000b0: 6967 3bbe b7ad 923e 5cd3 303c 1eb3 bb3e
000000c0: e42d 22be 0a64 453e 9607 2ebc f165 b03e
000000d0: 968c 70be 1dfb 78ba 3758 91bc 59aa 46bd
000000e0: 4db2 333e b0db 133d 9244 313e 503a 84bd
000000f0: 9bc3 c1bd c85e 72be 31c2 233e 0176 a8bc
00000100: 8a0a 98bd 7f72 3fbe 1b9f 683e d8f5 a13d
00000110: 08e2 c6bd 1397 c73c 09d2 20ba 1f0c 0e3e
00000120: ea6e 92bd c54f 5bbe 87b9 07be b014 8cbe
00000130: 0cfa 8b3d 995f 92be 90d2 08be 11c3 95be
00000140: 0a1c 603e bac4 5bbc 8a23 93bd a4cd 023b
00000150: 6734 b93d 902e 953d d228 0b3e b7e9 fd38
00000160: db19 053e 8640 2b3d 495f db3d f860 a1bc
00000170: c2b8 0e3e 84d6 ea3c a420 243e 6f21 623d
00000180: 6e12 813d dbfa 633d 2fee 3ebc bf87 4ebd
00000190: 46e6 a4bc c779 98bd adca d13c f9a3 c03b
000001a0: 2265 21bd 921c 53bd 9754 6d3d 3bfe 1abd
000001b0: 15e2 a0bd fd5f 8b3d 3e60 94bd 0e0e 08bd
000001c0: 4583 513d 9a57 f53d 4545 b73d 5693 b13d
000001d0: 1042 1a3d 2153 8abc 5c2d fa3d 45ea bc3d
000001e0: 764a 823d 304f 83bc eaa2 8a3d 404d 7f3d
000001f0: 24b2 533d d96e 0c3d 3e2b 033d 36a0 223c
00000200: 1f59 903d 54be 813d 0055 2d3d 38f5 b93d
00000210: 8633 c83c ebba d43d 5412 5b3d 9900 d83d
00000220: e8fd dabc d5bc bcbc 2be9 4b3d 71a9 9c3c
00000230: ba5f aebd ac3b 1c3e 6f34 8dbd f207 f53e
00000240: 1e8f 633d 4b61 c53d d4bf 3fbe 87a3 ef3e
00000250: 8ad3 473d ce01 2c3e 67d9 8abe dbef 0a3e
00000260: bbfe 9a3e 66a2 a03e 27d5 74bd ea89 2c3e
00000270: 1ad0 79bc dda4 883d d18e 5ebd 978f 05be
00000280: e802 183d b597 983d 2869 10bd 3ee1 fabd
00000290: cf72 04bd b0dd 553d a8e3 4fbc 7fcc df3d
000002a0: 0388 203d db10 c03d 6623 e33d 957d c7bd
000002b0: eacf 8b3c a34f 4dbe b07b 143e 78c0 d4bd
000002c0: 958c 5a3c f561 42be e45f f23d b21a 06bd
000002d0: 1e64 35bd 2341 02bc 1670 f5bc 2b4b 8e3d
000002e0: 267a 043b fd5a 93bd da92 2fbe b870 76be
000002f0: 0fed 6a3d 3797 97bd 1a9d 17be 12b7 6ebe
00000300: edc9 f43c a2e9 02bd cc5e 68bd a469 52bc
00000310: c084 693e c628 4b3e c251 443e fc85 673c
00000320: 4d82 923e 1d62 1f3e 3008 113e 0ce8 86bc
00000330: 630e 863e 58e7 dd3d 8056 1c3e d86e d73d
00000340: cea5 78bd ddd9 9fbd 8397 543d 323e 2b3e
00000350: de24 c03d 8f6b e63d ced6 013d 40ad e93d
00000360: c236 173d a23b dc3d 48a1 493c 25dc cd3d
00000370: 2cc9 d73c 87fd 1b3e dacc 2b3d 1a39 fe3c
00000380: 425f 943d a0c1 113e 6a20 f83d 66ee f03b
00000390: 902d 253d 34b8 ed3c d838 2f3e a0c5 af3c
000003a0: 1a67 783d 82f9 32bb f572 763e 8638 1b3e
000003b0: 6018 8a3d 5b57 f13d 46ee 353e a754 663e
000003c0: bbab 783e 9162 1a3e 3dc0 d63c 9b70 c0bd
000003d0: df4f 9d3e 99c6 e93d cfcf ef3c 3710 d6bd
000003e0: 619a 363e bd7a 623e 6576 e93d 765a f23d
000003f0: 6a06 6f3e 34af 703e 8b53 613e 875e b33e
-0.015201003 0.021662632 0.035732664 -0.1455199 0.034556475 -0.06034087 0.044646166 -0.13475125
0.061752826 -0.0927331 0.14302567 0.021720814 -0.12982453 -0.06193153 0.21598466 0.16876459
0.21065801 -0.05943878 0.14637513 -0.22964264 0.31523487 -0.10065367 0.16942301 -0.29518786
0.15255277 0.12978561 -0.036781352 -0.04172911 -0.051758926 -0.010795103 -0.00830292 -0.03416382
0.086487815 0.06386836 0.060111944 -0.042404447 0.118851416 -0.0058719264 -0.06002131 0.0023279628
-0.17227918 -0.08530373 -0.04191297 -0.07163708 -0.18301167 0.2864816 0.0107925795 0.36660093
-0.15837818 0.19276443 -0.010621926 0.34452775 -0.2349113 -0.0009497868 -0.01774226 -0.0485023
0.17548485 0.036098182 0.17311314 -0.06456435 -0.09461137 -0.23668969 0.15992047 -0.020564081
-0.07423885 -0.1869602 0.22716944 0.07908219 -0.09711081 0.02436403 -0.00061348133 0.13871811
-0.071500614 -0.21417148 -0.13254367 -0.27359533 0.06834802 -0.2858856 -0.13361573 -0.29250386
0.21885696 -0.0134136025 -0.07184513 0.0019958997 0.09043198 0.07284272 0.1358979 0.00012107513
0.12998144 0.04180958 0.107115336 -0.019699559 0.13937667 0.028666742 0.16028076 0.055207666
0.06302343 0.055659156 -0.011653467 -0.050422426 -0.020129334 -0.07445102 0.025609339 0.005878922
-0.03940309 -0.05154092 0.057942 -0.03784011 -0.07855622 0.06805418 -0.07244919 -0.03321653
0.05115058 0.11979599 0.08948759 0.0867068 0.03766066 -0.016885342 0.12215683 0.09224371
0.063618585 -0.01602897 0.06769355 0.06232953 0.05168356 0.0342854 0.03202366 0.009925893
0.070482485 0.0633513 0.04231739 0.09079975 0.02443863 0.10387214 0.053484276 0.10546989
-0.0267324 -0.02303926 0.049782913 0.019123765 -0.08514352 0.15257138 -0.068947665 0.47857624
0.05555641 0.09637698 -0.1872552 0.4680445 0.048785724 0.16797563 -0.2711899 0.1356806
0.3027247 0.313739 -0.05977359 0.16849485 -0.015247369 0.0667207 -0.05433542 -0.13043056
0.037112147 0.07450811 -0.035256535 -0.12249993 -0.032336053 0.05221337 -0.012688555 0.109276764
0.03919221 0.09378215 0.11090736 -0.0974075 0.017066915 -0.2004991 0.14500308 -0.10388273
0.013339181 -0.1898268 0.11834696 -0.032740302 -0.044284932 -0.0079501 -0.029960673 0.06947931
0.0020214408 -0.07195089 -0.17145863 -0.24066436 0.057354983 -0.07401889 -0.14806023 -0.23312023
0.029881442 -0.03196109 -0.05673103 -0.0128425695 0.22804546 0.19839773 0.19171813 0.014131065
0.28615037 0.15564771 0.1416328 -0.01646807 0.2618285 0.10835141 0.15267372 0.10519189
-0.060705 -0.07805226 0.051902305 0.16722944 0.09382032 0.11250984 0.031698994 0.11409998
0.036917455 0.107535616 0.012306519 0.10051755 0.026341043 0.15233432 0.04194341 0.031033088
0.072447315 0.14234018 0.121155575 0.007352638 0.040326655 0.029018499 0.17111528 0.02145654
0.0606452 -0.0027309363 0.2406729 0.1515828 0.067429304 0.1178424 0.17766675 0.2249323
0.2428426 0.15076663 0.026214713 -0.09396478 0.30725 0.114148326 0.029273896 -0.104523115
0.17832328 0.22117133 0.11399535 0.1183366 0.2334229 0.23504335 0.22004525 0.35033056

module.bi_lstm1.weight_hh_l0_reverse f4 [64, 16]
00000000: fd3b 64bd 6251 3dbe 77bd 673e 41cd c43e
00000010: 5d61 09be fc35 803c 08b7 373d b7d9 31bd
00000020: b08f e6bd c030 29bd 5a77 18be fec7 aa3c
00000030: 7135 8ebd 8a29 143b 4963 7f3c a1e6 833b
00000040: 1bf7 5c3d 1ed5 0abe 1276 11be 369e 14bd
00000050: 1cae 55be 8afb df3c 4f00 2b3d d4e0 193d
00000060: 6008 113d 06d1 b1bd e9e0 5ebe 5c36 7abd
00000070: bfa7 10bd 6577 163c 81d4 563e 2fde bc3d
00000080: 8329 9bbc 5f8b b5be 3db5 ae3d bc76 363e
00000090: e662 d63d b7b3 893e a854 383d d252 963d
000000a0: 4d7a d1be 169e 68be 1d2b 623c 9f57 66be
000000b0: 5e05 87be 39f3 293d 4875 29bd 06dc b83e
000000c0: be98 1abc fa7d e2bd 5cc7 e0bb 6328 86bd
000000d0: d999 713b 7bcf af3c 442f 453d 07aa 91bd
000000e0: 3c34 0bbe 7af3 04be cc84 4b3e 5fa6 b0bd
000000f0: 1300 e1bc 79dd 2ebb 6212 933d ff94 1a3e
00000100: 9ac5 0abc 55d4 d8bb fcd6 52bc 9ee9 db3d
00000110: a3b9 95bd 05e9 a7bd f399 84bd 58b1 0dbd
00000120: 6dcb 153d e4cb 343d b8a9 21be 4d2b 3c3c
00000130: af39 a73c 4471 5a3d d748 0fbe 65fa 27be
00000140: 9734 063d a4f2 13be cfa9 093e 5dae 483e
00000150: 1f52 5dbc 0b25 7b3d d06a a13c afb8 cb3b
00000160: c73e 0bbe 0340 1dbd 48ed e9bd 041d 353d
00000170: 8dfa 0bbe 347f 813d b3fb c73d 8f6d 3bbd
00000180: d93f 64bc 90d1 24bd f197 c93d ee16 1f3e
00000190: facd f2bd 1de5 54bd b11f 643c a851 cabc
000001a0: a223 6dbc 9892 f7b9 aa9c cfbd 2d3d 4e3d
000001b0: b0f6 9a3d f273 46bc d828 813d 50dc b2bc
000001c0: 7616 f7bc 70c8 4dbe 7ebe ba3d 89a1 0c3e
000001d0: b1a9 443d 9869 d3bb d258 533d 09be d83c
000001e0: 31d6 36be 1061 1ebd 334c ee3d 3470 cc3b
000001f0: 66b3 25bd d7d7 ee3c fa29 c13d 4c7d 47bd
00000200: 9149 bf3c 33ac dfbd 88b2 d23b a5ff 003d
00000210: 4456 8c3d 0ca9 2cbd e243 91bc 3c73 533d
00000220: 9b4f 2abe dcc6 013d 959d 95bd 4cd2 67bd
00000230: 82f7 28bc ca94 a43b 6946 4f3b 26e1 983b
00000240: 13ab 19bb 6193 853d 0d7f 98bd 447d 95bc
00000250: e164 a13d 1845 0f3d 3793 9bbd 6ec6 6d3d
00000260: 2693 563c ef77 eebc e7ed b63c 482e 3fbd
00000270: 92d0 68bd b233 81bd 8052 a83c 29d2 343e
00000280: 1fa9 f7bd f29e 073e 21ab b93d b51f 1dbd
00000290: 831e 973e dd8e 1abd 9e6d 5cbe 8bb3 05bd
000002a0: 4e3c 26bd b0c8 46bc 4ad0 a23b cbc9 01bd
000002b0: f591 7f3c b66a 63bd af64 40be 5adc 4e3d
000002c0: 5015 1cbd 4e2d 39be 65b0 233e f1e2 ab3c
000002d0: fd21 f23c b1b1 87bc 0973 dabc 8983 213c
000002e0: db70 07be 1354 b8bc 52e0 df3d 03ee 833b
000002f0: 3dbd bfbd c89c 323d b153 9f3d 0662 063c
00000300: a715 7bbd 25cd 85be e1e7 5a3e c41a 693e
00000310: 7897 1d3b cbcb 0cbe 35f1 e1bc a9ec 84bc
00000320: 832c fdbd 0c15 f03c 77e9 0a3d b736 953a
00000330: 530c 62bd 15f3 2e3d 8166 3d3e 8f3a fdbc
00000340: 5ea9 a13c 1199 14be 7141 583d bb18 2a3e
00000350: 0175 4abe fcd0 c13d a5c2 8e3b 757d c7bc
00000360: f7c8 07bd 1945 c03c 1455 7abe 65fd 41bd
00000370: 97c5 f8bd cda7 593d 8bae ecbd aa23 ba3c
00000380: f715 c9bc 099a 3b3c 5eaa 4fbc 16c3 953c
00000390: 7416 ccbd 64dd 87bd e3c6 163d bf73 a2bc
000003a0: f420 0d3e 387c 54bd d4be 68bd 87c4 d73c
000003b0: bbc7 3bbd c5d6 8ebd cc99 293d c317 8e3d
000003c0: 03d8 ee3c 2dde 9bbd dd84 853c 8b89 363c
000003d0: 9892 e0bc eed0 913d f8ef 923c e29a 343c
000003e0: 6cc8 8abd 1726 2cbd ffaf 2abd 3e21 21bd
000003f0: 0f98 abbd 3237 053d d4e3 dd3c 7d7f 0c3d
-0.05572127 -0.18488076 0.22630869 0.38437846 -0.13416047 0.015650742 0.044852287 -0.04342052
-0.11257875 -0.041306257 -0.14889279 0.020847317 -0.06943787 0.0022607767 0.015587636 0.004025296
0.053946596 -0.1355786 -0.14205196 -0.036283694 -0.20867199 0.027341623 0.04174834 0.03756793
0.035408378 -0.08682446 -0.21765484 -0.061086997 -0.035316225 0.009183739 0.20979501 0.09222066
-0.018940693 -0.35457894 0.08530662 0.17818731 0.10468082 0.26894924 0.04500261 0.073400155
-0.4091362 -0.22716555 0.013804224 -0.22494362 -0.26371282 0.04149172 -0.041371614 0.36105365
-0.009435831 -0.11059184 -0.006859703 -0.06550672 0.0036865382 0.02146124 0.04814078 -0.07112508
-0.13594145 -0.12983504 0.19874877 -0.08625483 -0.027465856 -0.00266823 0.071812406 0.150959
-0.008469963 -0.006617109 -0.012868639 0.10737918 -0.07310798 -0.08198742 -0.06474676 -0.034592956
0.036570955 0.044139758 -0.15787399 0.011484933 0.020413248 0.053330675 -0.1399263 -0.16404112
0.032764997 -0.14448029 0.13443683 0.19597764 -0.013508349 0.061314624 0.019704252 0.0062170844
-0.13598166 -0.038391124 -0.11422211 0.044217125 -0.13669796 0.0632309 0.09764805 -0.04575878
-0.013931238 -0.040238917 0.09843434 0.1553609 -0.11855693 -0.051976312 0.013923571 -0.02469714
-0.014473828 -0.00047220732 -0.10137303 0.05035131 0.07566583 -0.012112604 0.063066185 -0.021833569
-0.030162077 -0.20095992 0.09118365 0.13733496 0.048013393 -0.0064517967 0.051598378 0.026457803
-0.17855145 -0.038666785 0.116356276 0.0062389616 -0.04045429 0.029155655 0.094318345 -0.048703477
0.023350509 -0.10921516 0.006429974 0.0314938 0.06852391 -0.042153403 -0.017732564 0.051623568
-0.1663193 0.031683788 -0.07305447 -0.05659704 -0.010312917 0.00502262 0.003162766 0.0046655117
-0.0023447915 0.06522251 -0.07446108 -0.018248208 0.07880569 0.034978002 -0.075964384 0.058050565
0.013096606 -0.029109923 0.022330238 -0.046674997 -0.056839533 -0.06308688 0.020547152 0.17658295
-0.12092804 0.13244227 0.090658434 -0.038360316 0.29515466 -0.0377339 -0.2152619 -0.03264193
-0.040584855 -0.012132809 0.0049686776 -0.031686585 0.015598764 -0.05552169 -0.18788408 0.050503112
-0.038106263 -0.18083689 0.15985258 0.020982238 0.029557223 -0.016564222 -0.026666181 0.009858021
-0.13226645 -0.022501027 0.109314576 0.004026176 -0.09362266 0.04360655 0.07779635 0.008202082
-0.061299946 -0.26133075 0.21377517 0.22764117 0.0024046581 -0.13749616 -0.027580837 -0.01622613
-0.123620056 0.029306911 0.033914056 0.0011384104 -0.055187535 0.04271229 0.18496133 -0.030911712
0.01973408 -0.14511515 0.052796785 0.16610996 -0.19771196 0.09463689 0.0043566995 -0.024351815
-0.03315064 0.023470448 -0.24446517 -0.047360796 -0.12147062 0.053138543 -0.11556729 0.022722084
-0.024546606 0.011450299 -0.012674896 0.0182815 -0.0996522 -0.06634024 0.036810767 -0.019830583
0.13782102 -0.051876277 -0.056822613 0.026338829 -0.045844775 -0.06974558 0.041406438 0.06938126
0.029155737 -0.07610736 0.016298706 0.011141191 -0.027413651 0.07119928 0.017936692 0.011023255
-0.06776509 -0.042028513 -0.04167175 -0.039338343 -0.08378612 0.03252334 0.027086176 0.03430127

module.bi_lstm1.bias_ih_l0_reverse f4 [64]
00000000: 898c 40bd 3f1c ca3d 87ce 44bd 72d5 12be
00000010: 34ea 1a3e 9541 aebc 2cb6 af3d f356 d7bc
00000020: c2c6 fb3d 3fe7 053e cdf0 763e 319f 023d
00000030: 5401 9f3d 9efd 33bd 632a 093e 38cf 103d
00000040: d63c 383e f4af 203e 66d9 923e 7fb9 623e
00000050: edc7 463e df73 a13e a943 8f3d ac3f 04bd
00000060: 88b6 183e 14c4 8b3d 03b1 9b3c 2a8c 98bc
00000070: 17b5 403e 27b8 5f3d 9f6c 8e3d 1bde 663e
00000080: 7bae 0cbe 7013 973e 9d6f bb3d a7c3 263e
00000090: 400c c73d 7177 58be e802 febc eccd 9d3d
000000a0: b4e5 febd b6b2 4b3e 5aa4 7cbe 43a2 a8bc
000000b0: bcb0 7d3e c31b a43d f8a0 a8be c006 373c
000000c0: 09e3 9c3c 7fe2 4c3e e391 263e 2252 f73d
000000d0: 97f3 e73d cac7 c73d 6924 5e3d 2e5b ebbd
000000e0: ef64 273e ed65 a73d 0b3f 663e 0115 353d
000000f0: 4881 423d 8436 9e3c 07e8 633e 9875 553a
-0.047009025 0.09868669 -0.048048522 -0.14339235 0.15128404 -0.021271506 0.085796684 -0.026286578
0.122937694 0.13076495 0.24115296 0.031890098 0.07763925 -0.04394304 0.13395076 0.03535387
0.17991957 0.15692121 0.28681487 0.22141074 0.19412203 0.31533715 0.06995327 -0.032287285
0.1491338 0.06824508 0.019005304 -0.018621523 0.1881908 0.05461898 0.069543116 0.22545664
-0.13738434 0.29507017 0.09152148 0.16285573 0.097191334 -0.21139313 -0.031007245 0.07705292
-0.12446156 0.19892392 -0.2467207 -0.020585185 0.2477445 0.08013108 -0.3293531 0.011171043
0.019151228 0.20008276 0.16266589 0.120762125 0.11325758 0.097549036 0.054233942 -0.114920005
0.16347097 0.08173738 0.22484986 0.044209484 0.047486573 0.019313104 0.2225648 0.0008142828

module.bi_lstm1.bias_hh_l0_reverse f4 [64]
00000000: 924d 20bd 9d98 cb3d 83c8 94bd 5c72 25be
00000010: 6634 1a3e 7b27 6abc adfe 8a3d 23ca 5aba
00000020: 5c8b 1d3e 970e 0b3e 65a5 2e3e b05a f73b
00000030: 5573 7a3d 1391 efbc 2e9e 1e3e 4d17 11bd
00000040: c7ab 423e 045e 083e db01 a23e 86e2 783e
00000050: 461b 463e 5272 933e 49fe 903d cf91 87bc
00000060: c916 243e 71dd ee3d 94fb 3a3e 9ad6 983b
00000070: faa1 403e f4ae 633d bd15 4f3e 5dc7 1e3e
00000080: 89f2 86bd ad87 7bbc c8f1 9fbb 8680 b23d
00000090: 2888 5e3e ba5f 01be 1fcf 8f3d 7e93 bd3d
000000a0: e38c 4a3e 9cb7 993e b07a 56be 9a28 0f3d
000000b0: c641 3b3e 7476 e53c d56a 1ebe 4bd4 9bbe
000000c0: ce1a c33c 5b9a 503e 2e72 003e 4b21 1a3d
000000d0: f9d3 e63d 58be 353e 8591 3c3d 9f44 cb3d
000000e0: 6418 213e 4645 213d efa7 9a3c 89f1 043c
000000f0: 006f b03d 3e58 ae3c 72ae 7e3d 9474 47bc
-0.039136477 0.09941218 -0.07264807 -0.16156906 0.15059051 -0.014291639 0.06786857 -0.0008346161
0.15385193 0.13579784 0.1705528 0.0075486526 0.061145145 -0.029243981 0.15490028 -0.035422612
0.1901084 0.13317114 0.3164204 0.24305162 0.19346341 0.28798157 0.07079751 -0.01654902
0.16024317 0.1166333 0.18260032 0.0046642544 0.18811789 0.05558677 0.20223136 0.15505739
-0.06589229 -0.015352172 -0.0048811175 0.0871592 0.21731627 -0.12634173 0.07021927 0.092566475
0.19780307 0.30022895 -0.20945239 0.03495083 0.1828681 0.028010584 -0.1547044 -0.30435404
0.023816492 0.20371382 0.12543556 0.037629407 0.11270899 0.17748392 0.046037216 0.09925198
0.1573196 0.039372705 0.018878905 0.008114227 0.086149216 0.021282312 0.062178083 -0.0121737905

module.bi_lstm2.weight_ih_l0 f4 [128, 16]
00000000: fb38 17b7 c6e2 b0bb fdfd 4ab9 4ff6 ad3c
00000010: b808 01bd ac28 ef3c 80f9 c93b d0fa a8bc
00000020: c97b f73c cf07 8cbc 682b 21bd 333e 7c3b
00000030: d7c9 14bc d899 b139 ab19 c8bc 2844 f3b8
00000040: 1623 2fbb 7312 1c3d 9d02 f73a 8921 c93c
00000050: b59d 82bc 4887 20bd 5cbd 573c e3c5 9abc
00000060: afbf 153d ce3e 353d 1d8f e1bc ac6e 0a3d
00000070: 85f2 333d 4695 12bc 02cd 05bd 7338 38bd
00000080: f1cf 17bb 9b1c 1bbc 6bc8 8c3b b27a 143a
00000090: 029a 8dbb f5eb 30bc b954 f03b 6f43 843b
000000a0: ba0a fb3b 9c02 b23a 6601 ee3b 40fa e03b
000000b0: e841 823b 783f 9eba 47c1 bb3c 3110 2fbc
000000c0: 52eb c9bb b16c 0e3d 3c65 5abc b5a7 b73c
000000d0: faaf 55bd 99da 0d3d ec76 083c 017e 16bd
000000e0: 9c3e af3d f3cd 113c 7e89 7ebd f0ad ce3c
000000f0: b81d 5d3c 2ea4 83bc 0310 32bd 46c7 743b
00000100: 51a8 ad3a b012 7c3b dec7 51bb 0ac7 f639
00000110: 7b6a 963a 3a8e b8bc c0ba b13a 2f49 8cbb
00000120: 9f4f 993b 0461 663c 3fa4 d4bb 4991 e23b
00000130: 1ee6 883c 6d1e daba 07cf 8dbb 7a23 5fbc
00000140: 992b 5dbb fc66 a2bb 4c61 d13b 369e b43c
00000150: af1b 04bd 398c b93c 7f36 e53b 9e0d 29bc
00000160: b8ca eb3c 42b1 ce3b 3762 87bc 430c 3d3c
00000170: bb85 f33b 1757 d9ba cd9b a23b feaf 173c
00000180: 1047 adbb 6d30 9c3c 990c 12bc 76ee c5bb
00000190: 8b04 1bbc 3572 053c c4c6 15bb f83e 31bc
000001a0: cfc5 d13c 65e8 e43a 0f88 62bc 7294 053c
000001b0: 1c2b 403c 7045 d1bb 4711 81bc 5143 a03b
000001c0: c670 2dbb 4dd5 283c 91b8 e23c 41c7 8e3c
000001d0: aa92 49bc 00fd d8bb 8d08 58b9 3ea2 22bc
000001e0: 43c8 923c 1f4d 1b3c aca5 3dbc c0fc 293c
000001f0: d75c f03b ef9a cdbb 6f3f acbb ce13 41bc
00000200: 8dbc 8f3c 2aca dabd 2e08 7ebc 81a0 4cbd
00000210: c4c4 093d 921f 1e3d 18d7 a03a 8f65 673d
00000220: 26e1 c3bd 6eaf 04bd ffb0 ab3d b289 2cbd
00000230: a646 52bd 2885 a53c 46f7 d63d c654 313d
00000240: 9e98 a6bb 0385 893b 2064 0a3c c5b9 fdbb
00000250: a333 d63a 61ca 33bc 3baa ceba 437f 49bb
00000260: 4c94 96ba 5d2e a23c da87 573b 4f04 153c
00000270: 53e5 893c 12df e0bb 7d39 fbbb c9c3 6ebc
00000280: c7f9 d7bb 0513 d13c 00ce 9e3b de22 403d
00000290: 1d61 0abd 6909 033b bb48 e33b 4f55 d1bc
000002a0: 097d e23c cd48 943c 9362 3abd d9f3 983c
000002b0: acfc f83c e11e fcbb 706a 37bd be3b 98bc
000002c0: 9d8e 3d3c 6cb0 84bd a14c ddbc f3a0 a2bc
000002d0: a06a 8b3b d156 133c defa 81bb e820 2b3d
000002e0: 3c1e 7abd d650 7dbc 7174 613d 387f b3bc
000002f0: a539 533c d6e2 c13c 53bb 713d 5b1b 0c3d
00000300: 16d6 c6ba 69ba b63a 3770 753c 1d6d c23c
00000310: 67ad a6bc 7e75 f33b a2a7 833b dfe8 82bb
00000320: 38fd 753c 5ffc 843b 3209 8fbc c26f 3c3c
00000330: d9e2 f93b 3822 4a3b c77a d0bb 1fcc cb3b
00000340: 1a5f 0cbb b579 0b3c 6e08 fe3b a416 413b
00000350: 0c20 073c f56c f7bc 6c60 153a be06 fabb
00000360: d4b9 f33b 5197 cf3c d43b 1dbb 7037 1d3c
00000370: c067 bb3c ab07 e2bb 6731 b0ba d3bd c0bc
00000380: e9c7 be3a ecc1 0b3c 4313 b8bc 8b61 f9bb
00000390: 09e8 69bb e864 1b3c 370c 2639 991b 7cbb
000003a0: e0ac c13b f113 93b9 2129 47bc aa15 da3a
000003b0: 4fb4 523c d2d5 07bb cb94 8dbc 604f 7a3c
000003c0: eeaf c83d 9df0 a2bd 85a6 0dbd 3c8c aabd
000003d0: 212f a2bc f9cb a4bb e2fd 8f3d cb77 883d
000003e0: 315e d6bd f521 c8bc 14a9 273d 0172 a0bc
000003f0: b964 463a 50cd 123d 76b4 a33d 69e8 a5bc
-9.013568e-06 -0.0053981273 -0.00019358839 0.021235613 -0.031502455 0.029194199 0.006163776 -0.02062741
0.030210393 -0.017093567 -0.039348036 0.0038489222 -0.0090813255 0.00033874693 -0.024426302 -0.00011599838
-0.0026723794 0.038103532 0.0018845383 0.024552124 -0.015944341 -0.039191514 0.013167705 -0.018893188
0.036559757 0.04424935 -0.027534062 0.03379695 0.043932457 -0.008946722 -0.032666214 -0.04497571
-0.0023164714 -0.009467269 0.0042963526 0.0005664035 -0.0043213377 -0.010798444 0.0073343185 0.004036359
0.007661191 0.00135811 0.0072633503 0.0068657696 0.003975142 -0.0012073359 0.02291931 -0.010685013
-0.0061620856 0.034771625 -0.0133298 0.022418836 -0.052169777 0.0346323 0.008329134 -0.03674126
0.08556864 0.0088992 -0.06214284 0.025229424 0.013495855 -0.016069498 -0.0434723 0.0037350222
0.0013249015 0.0038463287 -0.003201 0.00047069072 0.0011475825 -0.022528756 0.0013559684 -0.004281185
0.004678681 0.014061216 -0.006489306 0.006914292 0.01671129 -0.0016641148 -0.004327658 -0.013619298
-0.003374791 -0.0049561244 0.0063897725 0.022048097 -0.032252964 0.022649871 0.006995022 -0.010318188
0.028783187 0.006307752 -0.016526325 0.011538568 0.0074317134 -0.0016581741 0.0049624206 0.009258268
-0.0052880123 0.01906606 -0.008914136 -0.0060403896 -0.009461532 0.008144905 -0.002285407 -0.010818236
0.025607018 0.0017464278 -0.013826384 0.008153068 0.011729028 -0.0063864514 -0.015755309 0.0048908372
-0.0026464923 0.010304761 0.027675899 0.017428996 -0.012303034 -0.006621957 -0.0002060255 -0.009926377
0.017917758 0.009478836 -0.011575144 0.010375202 0.007335286 -0.006274573 -0.0052565853 -0.011784507
0.017545963 -0.10683091 -0.01550488 -0.049957756 0.033634916 0.038604327 0.0012271134 0.05649334
-0.09564428 -0.032393865 0.08383369 -0.042123504 -0.051336907 0.020205095 0.104963824 0.043293737
-0.0050841114 0.0041967644 0.008446723 -0.0077430927 0.0016342293 -0.010973544 -0.0015767285 -0.003074602
-0.0011488288 0.019797498 0.003288737 0.0090952655 0.016832983 -0.0068625296 -0.0076667652 -0.014573046
-0.006591055 0.025521765 0.0048463345 0.046908252 -0.03378402 0.0019994623 0.0069361604 -0.025553374
0.027647512 0.01810112 -0.045504164 0.018670963 0.03039392 -0.0076941107 -0.04477924 -0.018583175
0.011569646 -0.06478962 -0.027014079 -0.019852137 0.004254654 0.008992867 -0.0039666733 0.04177943
-0.06106399 -0.015461167 0.055042688 -0.021911249 0.0128921615 0.023667734 0.059016537 0.034205776
-0.0015170004 0.0013941053 0.014980367 0.02373367 -0.020346357 0.0074297776 0.004017786 -0.0039950456
0.015013985 0.0040584053 -0.01746044 0.0115012545 0.0076259193 0.003084315 -0.0063622924 0.0062194015
-0.002141899 0.008512904 0.0077524697 0.0029462958 0.008247387 -0.030203322 0.0005698267 -0.0076301983
0.007437924 0.025340708 -0.002399196 0.009595737 0.02287662 -0.0068978867 -0.0013442457 -0.023528015
0.0014555427 0.008530121 -0.022470122 -0.007610505 -0.0035691282 0.009484507 0.00015835544 -0.0038468598
0.005910501 -0.00028052882 -0.012155802 0.0016638536 0.012860372 -0.0020726812 -0.017282864 0.015277714
0.09799181 -0.079560496 -0.034582634 -0.08327529 -0.019797863 -0.0050291982 0.07030846 0.06663474
-0.10467184 -0.024430254 0.04093273 -0.019585611 0.00075681094 0.035840333 0.079934046 -0.020252423

module.bi_lstm2.weight_hh_l0 f4 [128, 32]
00000000: 4c89 0080 e08a 0080 f789 0000 f08a 0000
00000010: 658b 0080 3d8b 0080 b08e 0080 988a 0000
00000020: 0d89 0080 c189 0080 6490 0000 0089 0080
00000030: 56ad 0080 128b 0080 0f8a 0000 bca0 0080
00000040: 839e 0000 32a4 0080 a78a 0080 88a7 0000
00000050: 838b 0080 3b89 0000 cf8b 0080 e288 0080
00000060: 7d8c 0000 7289 0000 6a99 0000 518b 0080
00000070: d089 0000 ea8a 0000 398c 0000 318a 0080
00000080: 1291 0000 628a 0000 1d93 0000 ec8a 0080
00000090: 088e 0000 f18a 0000 848a 0000 d2ac 0000
000000a0: 2595 0000 1494 0000 d38c 0000 568e 0080
000000b0: 75a8 0000 9a8d 0080 29ad 0000 e888 0080
000000c0: 5989 0080 c189 0000 fd89 0000 168d 0000
000000d0: 908c 0000 6f8a 0000 c58a 0000 8e8a 0080
000000e0: 328b 0080 0d92 0080 5ca1 0080 4c8b 0000
000000f0: 598c 0080 908a 0000 e08d 0080 ab89 0000
00000100: 028e 0080 ad89 0000 3593 0080 df8b 0000
00000110: 89ab 0080 f893 0000 1ba5 0000 e188 0080
00000120: 539e 0000 ab94 0000 b897 0000 628a 0000
00000130: 548a 0080 948b 0000 e988 0080 8e94 0000
00000140: e99d 0000 148c 0000 f28a 0000 bf9a 0080
00000150: 0d8d 0080 8e8b 0080 9b8d 0000 e38a 0080
00000160: f18b 0000 0d8b 0080 ba8a 0080 e48a 0000
00000170: 048a 0000 c68a 0000 c288 0080 f38b 0000
00000180: 568b 0080 6f8a 0000 3fa8 0080 6489 0000
00000190: de8d 0000 be88 0080 008b 0000 1d8b 0080
000001a0: fb8f 0080 c889 0080 cb8c 0000 a98a 0000
000001b0: bb8b 0080 d2a0 0080 6b89 0080 128a 0000
000001c0: 748b 0000 d789 0000 428a 0000 ae89 0000
000001d0: a18a 0000 448d 0000 598a 0080 078c 0080
000001e0: cd8c 0000 4e89 0000 7399 0080 3a8b 0080
000001f0: 3c89 0000 2a9d 0080 b68e 0000 c68a 0000
00000200: c78a 0080 348a 0080 1b89 0080 238b 0080
00000210: 4f89 0080 8b89 0080 5098 0000 b18c 0080
00000220: e18a 0080 eb89 0080 ce90 0000 9289 0080
00000230: c38d 0000 d995 0080 158c 0080 a98b 0080
00000240: 8a89 0000 958c 0080 0c8a 0080 4e93 0000
00000250: 078c 0000 528b 0080 7789 0080 cc89 0000
00000260: ee88 0000 4f89 0000 608d 0080 2789 0000
00000270: a18a 0000 9489 0080 5e8d 0080 3d8a 0080
00000280: a98b 0080 678a 0080 508c 0000 9f8a 0080
00000290: 098c 0000 218a 0000 5e89 0080 5789 0000
000002a0: 5a8b 0080 98ab 0080 148a 0080 6f8b 0080
000002b0: 2e8b 0000 618e 0080 ea88 0000 c4a6 0080
000002c0: 488d 0000 ad90 0080 c794 0080 d48b 0000
000002d0: bf89 0080 328c 0000 198e 0000 db8d 0000
000002e0: f288 0080 ed91 0080 128e 0080 c889 0080
000002f0: a68c 0080 b68c 0080 ae8a 0080 4b8b 0080
00000300: 188e 0000 228a 0000 4b8b 0000 a692 0000
00000310: 22a8 0000 42a5 0080 328b 0000 8490 0080
00000320: 0c9a 0000 308b 0000 848a 0080 e69e 0000
00000330: f189 0000 da94 0000 c089 0000 228b 0080
00000340: 0d9c 0080 d489 0000 908a 0000 548a 0080
00000350: 438f 0080 cb8f 0080 df94 0000 4d8a 0080
00000360: 8289 0080 8b8f 0080 1c8b 0080 5290 0080
00000370: 4089 0000 bb8f 0080 8c90 0000 bc8b 0080
00000380: 2e89 0000 ea8a 0080 e189 0000 2a8a 0000
00000390: 868d 0080 7293 0000 a99d 0000 008c 0080
000003a0: d58c 0000 a689 0080 5b89 0080 92a2 0080
000003b0: 0396 0000 628b 0000 ee89 0000 9896 0080
000003c0: c389 0000 3b93 0000 b18b 0000 fd94 0080
000003d0: 508a 0080 9a8a 0000 76a3 0000 329c 0080
000003e0: 0693 0000 ea89 0000 2b89 0000 138a 0000
000003f0: 7f8a 0000 cf8c 0000 cc8e 0000 748a 0000
-4.9253e-41 -4.9819e-41 4.9492e-41 4.9841e-41 -5.0005e-41 -4.9949e-41 -5.1187e-41 4.9718e-41
-4.9165e-41 -4.9417e-41 5.1798e-41 -4.9146e-41 -6.2181e-41 -4.9889e-41 4.9526e-41 -5.766e-41
5.6863e-41 -5.8902e-41 -4.9739e-41 6.0099e-41 -5.0047e-41 4.9229e-41 -5.0154e-41 -4.9104e-41
5.0398e-41 4.9306e-41 5.5035e-41 -4.9977e-41 4.9438e-41 4.9833e-41 5.0302e-41 -4.9574e-41
5.2041e-41 4.9642e-41 5.2774e-41 -4.9836e-41 5.0951e-41 4.9843e-41 4.969e-41 6.1996e-41
5.3503e-41 5.312e-41 5.0518e-41 -5.106e-41 6.0431e-41 -5.0797e-41 6.2118e-41 -4.9113e-41
-4.9271e-41 4.9417e-41 4.9501e-41 5.0612e-41 5.0424e-41 4.966e-41 4.9781e-41 -4.9704e-41
-4.9934e-41 -5.2393e-41 -5.7885e-41 4.997e-41 -5.0347e-41 4.9707e-41 -5.0895e-41 4.9386e-41
-5.0943e-41 4.9389e-41 -5.2808e-41 5.0176e-41 -6.1535e-41 5.3081e-41 5.9229e-41 -4.9103e-41
5.6796e-41 5.3332e-41 5.4426e-41 4.9642e-41 -4.9623e-41 5.0071e-41 -4.9114e-41 5.3291e-41
5.6647e-41 5.025e-41 4.9844e-41 -5.5512e-41 -5.06e-41 -5.0063e-41 5.0798e-41 -4.9823e-41
5.0202e-41 -4.9882e-41 -4.9766e-41 4.9825e-41 4.951e-41 4.9783e-41 -4.906e-41 5.0204e-41
-4.9984e-41 4.966e-41 -6.0355e-41 4.9286e-41 5.0892e-41 -4.9054e-41 4.9864e-41 -4.9904e-41
-5.165e-41 -4.9427e-41 5.0507e-41 4.9742e-41 -5.0126e-41 -5.7691e-41 -4.9296e-41 4.953e-41
5.0026e-41 4.9448e-41 4.9598e-41 4.939e-41 4.973e-41 5.0677e-41 -4.963e-41 -5.0232e-41
5.051e-41 4.9256e-41 -5.5047e-41 -4.9945e-41 4.923e-41 -5.638e-41 5.1195e-41 4.9783e-41
-4.9784e-41 -4.9578e-41 -4.9184e-41 -4.9913e-41 -4.9257e-41 -4.9341e-41 5.464e-41 -5.047e-41
-4.982e-41 -4.9476e-41 5.1946e-41 -4.9351e-41 5.0855e-41 -5.3755e-41 -5.0252e-41 -5.01e-41
4.934e-41 -5.0431e-41 -4.9522e-41 5.2843e-41 5.0232e-41 -4.9979e-41 -4.9313e-41 4.9432e-41
4.9121e-41 4.9257e-41 -5.0716e-41 4.9201e-41 4.973e-41 -4.9354e-41 -5.0713e-41 -4.959e-41
-5.01e-41 -4.965e-41 5.0335e-41 -4.9728e-41 5.0235e-41 4.9551e-41 -4.9278e-41 4.9268e-41
-4.999e-41 -6.1556e-41 -4.9533e-41 -5.002e-41 4.9928e-41 -5.1076e-41 4.9116e-41 -5.9824e-41
5.0682e-41 -5.19e-41 -5.3371e-41 5.0161e-41 -4.9414e-41 5.0293e-41 5.0975e-41 5.0888e-41
-4.9127e-41 -5.2348e-41 -5.0965e-41 -4.9427e-41 -5.0455e-41 -5.0478e-41 -4.9749e-41 -4.9969e-41
5.0974e-41 4.9553e-41 4.9969e-41 5.2608e-41 6.0315e-41 -5.9283e-41 4.9934e-41 -5.1842e-41
5.5262e-41 4.9931e-41 -4.969e-41 5.7002e-41 4.9484e-41 5.3398e-41 4.9415e-41 -4.9911e-41
-5.598e-41 4.9443e-41 4.9707e-41 -4.9623e-41 -5.1393e-41 -5.1583e-41 5.3405e-41 -4.9613e-41
-4.9329e-41 -5.1494e-41 -4.9903e-41 -5.1772e-41 4.9236e-41 -5.1561e-41 5.1854e-41 -5.0127e-41
4.9211e-41 -4.9833e-41 4.9462e-41 4.9564e-41 -5.0769e-41 5.2893e-41 5.6558e-41 -5.0223e-41
5.0521e-41 -4.9379e-41 -4.9274e-41 -5.8319e-41 5.3814e-41 5.0001e-41 4.948e-41 -5.4023e-41
4.942e-41 5.2816e-41 5.0112e-41 -5.3447e-41 -4.9617e-41 4.9721e-41 5.8639e-41 -5.6032e-41
5.2742e-41 4.9474e-41 4.9207e-41 4.9532e-41 4.9683e-41 5.0513e-41 5.1226e-41 4.9668e-41

module.bi_lstm2.bias_ih_l0 f4 [128]
00000000: b571 2a3b 58e2 4a3b 3fa0 01bd 472a 9d3c
00000010: 08fb 003d e717 f8b8 b576 82ba 9285 e4bc
00000020: be54 fb3c f0ec 053d bbf6 8dbc 0011 c83d
00000030: f6d2 11bc d0bd 09bb fcad 413d 91cd 773d
00000040: 6e88 213c 191f b1bc 008c db3c d6b4 a83c
00000050: 0a0e 89ba 5ce0 703c d927 e83a 88ba cf3d
00000060: 2a8b 1dba 79e7 95bc 87e5 093b b456 ec3b
00000070: d2fd 993c abd9 8abc 67c1 82bc 7e2f e43c
00000080: ef8a 0080 2889 0000 04a8 0080 0489 0000
00000090: f389 0000 d78a 0000 148a 0080 b98e 0080
000000a0: c390 0080 d289 0080 6ea4 0080 1c8d 0000
000000b0: 5789 0080 fd88 0080 e388 0000 bd88 0080
000000c0: a789 0080 1e89 0000 9a8b 0080 8289 0000
000000d0: bc89 0080 158b 0000 a08b 0080 008a 0000
000000e0: e997 0000 c68e 0080 d091 0080 978c 0080
000000f0: 3b8a 0080 6897 0000 9897 0080 e988 0000
00000100: 694b f8bc 5e15 75bd 92a2 b33c 0dc5 e93a
00000110: 3f9e 64bd 73de 983c 4dc2 0b3d db42 66bc
00000120: 6f94 503d 94af 333e 5af4 653d b5d7 813d
00000130: 4992 953c bbed 0f3d 08a3 433d 6f43 24be
00000140: 3022 533d faa0 a1bb 96dd 97bb 7089 533d
00000150: 9459 af3d 9569 b4bc bc06 f2bd f05b 6fbe
00000160: ebc7 01bd b752 583d 2d13 0f3d 8e2d 38bd
00000170: 56fc 003e b8f3 4fbd 9bcc 9fbd abc5 02be
00000180: 7e13 9f39 7b3b 643b 574a 02bd 450d 543c
00000190: 1cd0 043d 0206 52ba e868 fcba 2f78 e5bc
000001a0: c25d 0d3d ce56 083d f76c 95bc a7b4 cf3d
000001b0: 487e 17bc 93ac 12bb 0ced 443d eff1 733d
000001c0: 9d0f 123c 87fa b2bc 4835 ca3c fddc 9a3c
000001d0: adeb 8fba 8016 753c c134 f33a 8373 db3d
000001e0: bcf7 7fbb 8ad7 97bc 18a5 103b 153d db3b
000001f0: 2bec 9e3c f398 8cbc 8280 83bc b0dc e33c
0.0026007716 0.0030957665 -0.031646963 0.019185198 0.031489402 -0.00011830014 -0.000995359 -0.027895723
0.030680057 0.032696664 -0.017329564 0.097688675 -0.008900395 -0.0021017678 0.047285065 0.060498778
0.0098591875 -0.021621274 0.026800156 0.020594042 -0.0010456454 0.014701929 0.0017712071 0.10143
-0.0006009812 -0.018298851 0.002104135 0.0072124843 0.018797789 -0.016949495 -0.015961362 0.027854677
-4.984e-41 4.9202e-41 -6.0273e-41 4.9152e-41 4.9487e-41 4.9806e-41 -4.9533e-41 -5.1199e-41
-5.1931e-41 -4.944e-41 -5.8986e-41 5.062e-41 -4.9268e-41 -4.9142e-41 4.9106e-41 -4.9052e-41
-4.938e-41 4.9188e-41 -5.008e-41 4.9329e-41 -4.941e-41 4.9893e-41 -5.0088e-41 4.9505e-41
5.4495e-41 -5.1217e-41 -5.2308e-41 -5.0434e-41 -4.9588e-41 5.4314e-41 -5.4382e-41 4.9114e-41
-0.030309396 -0.05983483 0.021928106 0.0017835215 -0.055814978 0.01866076 0.034120847 -0.0140540255
0.050922807 0.17547446 0.056141235 0.06339971 0.01825823 0.035138827 0.0477629 -0.16041349
0.051546276 -0.00493252 -0.0046345694 0.051644742 0.085620075 -0.022023002 -0.11817691 -0.23374915
-0.031684797 0.052813258 0.034930397 -0.04496532 0.12596259 -0.050769538 -0.07802697 -0.12770717
0.00030341366 0.0034825492 -0.031809177 0.012942617 0.03242503 -0.00080117595 -0.0019257339 -0.02801141
0.034513243 0.03328591 -0.018240435 0.101418786 -0.009246416 -0.0022380694 0.048077628 0.059556898
0.008914855 -0.021847976 0.02468361 0.018904204 -0.0010980271 0.014958978 0.0018555151 0.107153915
-0.0039057573 -0.018535394 0.002207106 0.006690631 0.019399723 -0.017162776 -0.016052488 0.027815193
