output/clip/FD004/exp_202411021319_bilstm_clip_ep-0140.pth (torch, 289762 bytes, 66 tensors)

module.bi_lstm1.weight_ih_l0 f4 [64, 14]
0	0x3d7d2627	0.061803963
1	0xbd1ea2a1	-0.038729314
2	0xbd8414fa	-0.064493135
3	0x3e14cef6	0.14532074
4	0x3e049911	0.12949015
5	0x3d7239da	0.059137203
6	0x3cb04565	0.021517465
7	0x3e1ccbcf	0.15312122
8	0x3dfdd000	0.123931885
9	0x3d78b516	0.060719572
10	0xbd8f0057	-0.06982487
11	0xbcdfe5a2	-0.027331177
12	0x3dfc45ca	0.12317999
13	0x3e1ce967	0.15323411
14	0x3ce313f9	0.027719485
15	0xbdaf6bae	-0.0856546
16	0xbda6de08	-0.08147818
17	0xbd19c3fc	-0.03754042
18	0x3daf437f	0.08557796
19	0x3cfa23a4	0.030534573
20	0xbd03432b	-0.03204648
21	0xbc99a698	-0.018756196
22	0x3dc6c894	0.09706226
23	0xbd062774	-0.03275247
24	0xbc7ab12c	-0.01530103
25	0xbda2ac55	-0.07943026
26	0xbd68d278	-0.056841344
27	0xbc94b779	-0.018153893
28	0xbd04048d	-0.032230902
29	0x3db0d557	0.08634441
30	0xbd5a0487	-0.053226974
31	0x3e4effbe	0.20214745
32	0x3d3cd24b	0.04609899
33	0xbe076b29	-0.13224472
34	0xbe743cbf	-0.23851298
35	0x3e9fe651	0.31230405
36	0xbbb68637	-0.005570199
37	0xbd87b973	-0.066271685
38	0xbea3896a	-0.31940776
39	0xbcb3c290	-0.02194336
40	0x3e75ce95	0.24004586
41	0x3e8290f0	0.25501204
42	0x3cfdbc7a	0.030973662
43	0x3d9da1dd	0.076968886
44	0x3d1a05da	0.037603237
45	0x3cf3a7c8	0.02974309
46	0x3d8cbfd2	0.06872524
47	0x3db8a68c	0.09016141
48	0x3dc4f568	0.0961712
49	0x3d3f2638	0.046667308
50	0x3d986317	0.07440775
51	0x3db2bfbf	0.08727979
52	0x3d32f6bd	0.04369234
53	0x3d37cb64	0.044871703
54	0x3d2ec601	0.0426693
55	0x3d0ab914	0.03386791
56	0x3e70668f	0.23476623
57	0xbdd9ada0	-0.106288195
58	0xbce3d85a	-0.027813125
59	0xbdc664fd	-0.09687231
60	0x3e8ac5cf	0.2710404
61	0x3dc59132	0.096468344
62	0x3da58305	0.080816306
63	0xbe07391f	-0.13205384
64	0x3e96e8fa	0.29474622
65	0xbcba0285	-0.02270628
66	0x3e418c93	0.18901281
67	0x3cbe3ddb	0.023222854
68	0xbcdf9227	-0.02729137
69	0xbd084e72	-0.033277936
70	0xbc46a50e	-0.012124313
71	0x3dd84c35	0.1056141
72	0x3d865e96	0.065610096
73	0x3c36bd7b	0.011153574
74	0x3dd7c51e	0.10535644
75	0x3deafe68	0.114743054
76	0x3e318c8a	0.17338768
77	0x3cdfd13b	0.027321449
78	0x3db6298b	0.088946424
79	0x3dd4c13d	0.1038842
80	0x3dfee83c	0.12446639
81	0x3dc15f14	0.09441963
82	0xbd01f04a	-0.031723298
83	0xbca1ea7c	-0.019765131
84	0x3d94afd1	0.07260097
85	0x3d801a23	0.06254985
86	0x3d2a92a9	0.041643772
87	0x3d5465ee	0.05185502
88	0x3c7a2efd	0.015269992
89	0x3d8849cb	0.066547
90	0x3dc97d38	0.09838337
91	0x3d67c6dd	0.056586135
92	0x3d0fa260	0.035066962
93	0x3d494dce	0.049146466
94	0x3e10a38a	0.14124885
95	0x3d35eae1	0.04441345
96	0x3d092dcb	0.033490937
97	0x3d17d5da	0.03706918
98	0x3d91e047	0.07122856
99	0xbb42f0c3	-0.0029745556
100	0x3c880eb8	0.016608581
101	0x3d887bc3	0.06664231
102	0x3dbb0e13	0.09133544
103	0x3d0c67dc	0.034278736
104	0x3d5555fd	0.052083958
105	0x3ddbea54	0.10738054
106	0x3db268bd	0.087113835
107	0x3cc46d3b	0.023977866
108	0xbc2206b8	-0.009889297
109	0xbca170d7	-0.019707127
110	0x3d0de1a2	0.03463901
111	0x3dd27303	0.10275843
112	0xbd20a797	-0.039222326
113	0xbd25f449	-0.04051617
114	0xbd1ee10c	-0.03878884
115	0xbceb9bcb	-0.028760811
116	0xbd0d28eb	-0.03446285
117	0xbca90b08	-0.020635143
118	0xbd25f42b	-0.04051606
119	0xbce7d01c	-0.028297476
120	0xbd11c1bf	-0.03558516
121	0xbcae6baa	-0.021291573
122	0xbd2578cd	-0.040398408
123	0xbd240c98	-0.040051073
124	0xbd0ae8e4	-0.033913508
125	0xbd15624c	-0.036470696
126	0xbecf3d36	-0.40476388
127	0xbded135b	-0.115759574
128	0xbe961330	-0.29311514
129	0xbe625667	-0.22103272
130	0xbe9e3d80	-0.30906296
131	0xbe2b6f02	-0.16741565
132	0xbe8bf156	-0.27332562
133	0xbda640d9	-0.081178375
134	0xbe8a5b8a	-0.27022964
135	0xbe4ac493	-0.1980155
136	0xbe4b2d3e	-0.19841477
137	0xbde992ec	-0.11404976
138	0xbea8613a	-0.32886678
139	0xbd941ed7	-0.07232445
140	0x3d3050ab	0.04304568
141	0x3de4c3d9	0.111701675
142	0x3d1fbf41	0.039000753
143	0x3df0d1bb	0.11758753
144	0x3d476f8d	0.048690367
145	0xbbbf7e03	-0.005843879
146	0x3da41526	0.08011846
147	0x3e3b935d	0.18317933
148	0x3ce938a7	0.028469397
149	0x3c232243	0.009956899
150	0x3d418886	0.04724934
151	0x3c6d7dec	0.014495354
152	0x3dc5d638	0.096599996
153	0x3d592d37	0.053021636
154	0x3d34ebe3	0.04417027
155	0x3d5c5e7a	0.053801037
156	0x3cf756f2	0.030192826
157	0x3dcd1f9d	0.100157954
158	0x3d22cd62	0.03974665
159	0x3d53cb9d	0.051707853
160	0x3d9d7534	0.0768837
161	0x3e048e28	0.12944853
162	0x3d2ade23	0.041715752
163	0x3d378d6f	0.044812616
164	0x3c9ca324	0.01912076
165	0x3cdbc787	0.02682854
166	0x3d8a7d3d	0.067621686
167	0x3dccc8df	0.099992506
168	0x3dddf938	0.1083855
169	0xbbdd12e1	-0.0067466353
170	0xbc5ab7f7	-0.013349525
171	0x3d457dde	0.04821574
172	0x3da74a67	0.08168488
173	0x3db81b59	0.08989591
174	0x3dc66dc5	0.096889056
175	0x3d885863	0.066574834
176	0x3db58f03	0.08865168
177	0x3e094c91	0.13408114
178	0x3cde3dca	0.027129073
179	0x3dff4540	0.1246438
180	0x3e4e9f85	0.2017804
181	0x3db99329	0.09061272
182	0x3cbcf724	0.023067065
183	0xbd8bf4bf	-0.06833791
184	0xbd38d5b7	-0.04512569
185	0xbd349f3e	-0.044097178
186	0x3a33da46	0.00068608334
187	0xbc8b7b99	-0.01702671
188	0x3ac32df1	0.0014891011
189	0xbcd42049	-0.025894301
190	0xbbccca34	-0.0062496904
191	0xbcaeb751	-0.021327646
192	0x3bd4dc65	0.0064959996
193	0xbd48e258	-0.049043983
194	0xbd2524f2	-0.040318437
195	0xbd56cbb1	-0.05244035
196	0x3ec86632	0.3914047
197	0x3e2f0bac	0.17094296
198	0x3e5b9497	0.21443401
199	0x3dbad249	0.0912214
200	0x3e56819c	0.2094788
201	0xbbceddfd	-0.006313084
202	0x3e80e81d	0.25177088
203	0x3cb05c16	0.021528285
204	0x3e80d5b1	0.25163034
205	0xbe134c9e	-0.14384696
206	0x3ec9b0ce	0.39392704
207	0x3e0873eb	0.13325469
208	0x3dadaf6e	0.08480726
209	0x3d21cf23	0.03950418
210	0x3da29bb9	0.07939858
211	0x39f7cf20	0.0004726583
212	0x3d3c6363	0.04599322
213	0xbbf967c8	-0.0076112486
214	0x3b99b467	0.004690695
215	0x3ccda3cf	0.025102524
216	0x3d007ca7	0.031368878
217	0x3c1a00c8	0.0093996
218	0x3c1e6d52	0.009669619
219	0xbc8d78b4	-0.01726947
220	0x3da71947	0.08159118
221	0xbcd1d640	-0.025614858
222	0xbd393185	-0.04521324
223	0xbd251925	-0.040307183
224	0x3db969a6	0.09053354
225	0xbb7aac23	-0.0038249574
226	0xbdaef99a	-0.085437015
227	0x3df81d64	0.12114981
228	0x3b38d864	0.002820515
229	0xbaa3a419	-0.0012484818
230	0x3cf13710	0.029445201
231	0x3e1a06a4	0.15041596
232	0xbc3c9a97	-0.0115114665
233	0x3c0de774	0.00866114
234	0xbbf6eab0	-0.007535301
235	0xbcbe95d9	-0.023264812
236	0x3da22c0d	0.07918558
237	0x3db30be8	0.08742505
238	0x3d86f25c	0.06589195
239	0x3d07dece	0.033171467
240	0xbce754f2	-0.028238747
241	0x3c96a2df	0.01838821
242	0x3cb4d9fa	0.022076596
243	0x3d5278f5	0.051384885
244	0x3d6fc3a1	0.058536176
245	0x3cadaf21	0.021201672
246	0x3d36b5ba	0.0446069
247	0x3bd66af3	0.006543511
248	0x3df21029	0.118194886
249	0x3c63e14d	0.013908696
250	0xbc867570	-0.01641342
251	0x3c053738	0.008130841
252	0x3e2b12fa	0.16706458
253	0x3cda6a15	0.026661912
254	0x3d8359ee	0.06413637
255	0x3ea02ccd	0.3128418

module.bi_lstm1.weight_hh_l0 f4 [64, 16]
0	0x3dc3acba	0.09554429
1	0xbcea537d	-0.028604263
2	0xbe09486e	-0.13406536
3	0xbc0fd56c	-0.008778911
4	0x3cf6c4b0	0.030123085
5	0xbd419dff	-0.047269817
6	0xbcfecb0d	-0.031102682
7	0x3d86c9f1	0.06581486
8	0xb9e79c01	-0.00044175985
9	0xbda7fab8	-0.08202118
10	0xbe454dfb	-0.19268028
11	0xbdc0a422	-0.09406306
12	0xbe3153f0	-0.17317176
13	0xbc5b0f4a	-0.013370344
14	0xbdb033fb	-0.086036645
15	0x3cf0b952	0.029385243
16	0x3c1e6bd1	0.00966926
17	0xbd08b43e	-0.033375017
18	0xbc9cd3b8	-0.019143924
19	0x3cae4b50	0.021276146
20	0x3d6e00e2	0.05810631
21	0xbd85da39	-0.06535763
22	0xbd54328a	-0.05180601
23	0x3cc9815b	0.024597814
24	0xbc024530	-0.007951066
25	0xbd8355bb	-0.06412836
26	0xbd8bcacc	-0.0682579
27	0xbc901bf1	-0.017591449
28	0x3c6f6252	0.014610844
29	0xbc9f86aa	-0.019473393
30	0x3dd59d51	0.10430396
31	0x3d51ea1e	0.051248662
32	0x3d843f27	0.06457358
33	0x3d2d40c8	0.04229811
34	0xbe7a1b8e	-0.24424574
35	0x3e6e9a21	0.23300983
36	0xbc8397f8	-0.016063675
37	0xbe93ad5e	-0.28843206
38	0x3e927480	0.28604507
39	0xbca383ac	-0.019960247
40	0x3be09171	0.0068532755
41	0x3f02125f	0.5080928
42	0xbd4cf7a4	-0.050040856
43	0x3da8840f	0.08228313
44	0x3dc633fb	0.09677883
45	0x3c471426	0.0121508
46	0xbd444922	-0.047921307
47	0xbddd482a	-0.1080478
48	0x3c97d70e	0.018535163
49	0xbba34ae6	-0.004983294
50	0xbd324bb8	-0.043529242
51	0xbbb8851f	-0.0056311036
52	0x3c30de3b	0.010795171
53	0x3b4822c4	0.00305383
54	0xbba0f23c	-0.004911689
55	0x3c204ab3	0.009783435
56	0x3c158d1d	0.009127882
57	0xbd59d3ad	-0.053180385
58	0xbd68b792	-0.05681569
59	0xbc322766	-0.010873651
60	0xbda3a482	-0.07990362
61	0xbc07d0aa	-0.0082894955
62	0xbd746379	-0.059665177
63	0x3b116e8e	0.002219114
64	0x3bafe888	0.005368296
65	0xbcc95d27	-0.024580551
66	0x3caa9ddf	0.020827232
67	0x3d6b37c4	0.05742623
68	0x3da29246	0.07938056
69	0xbdc8ec84	-0.09810737
70	0x3d4a1e0d	0.049345065
71	0x3cad791d	0.021175915
72	0xbb7df3c2	-0.0038750027
73	0x3db0e28f	0.086369626
74	0xbdb6907f	-0.08914279
75	0x3c57fdff	0.013183116
76	0xbb58205a	-0.0032978267
77	0xbc216984	-0.009851817
78	0x3e01c181	0.12671472
79	0x3d0c4494	0.03424509
80	0x3d1ac165	0.03778209
81	0xbd316ee1	-0.043318633
82	0xbd4c64f3	-0.04990096
83	0x3ad775cc	0.0016438304
84	0x3d81f899	0.06346244
85	0x3d132020	0.03591931
86	0x3cc35c23	0.023847645
87	0x3d224765	0.03961887
88	0x3b94ee78	0.0045450293
89	0x3d6baee9	0.057539854
90	0xbd8c8944	-0.06862119
91	0xbcbf0c77	-0.023321373
92	0xbd9f95d9	-0.07792253
93	0xbc8d4b71	-0.017247887
94	0xba9e5345	-0.001207926
95	0x3d0a5370	0.03377098
96	0x3c806cee	0.015676942
97	0xbbb5d1e4	-0.0055487026
98	0xbd293529	-0.041310463
99	0xbb7783cd	-0.0037767768
100	0x3ce13cc0	0.027494788
101	0x3c6c4315	0.0144202905
102	0xbd2583b0	-0.04040879
103	0x3c6891e7	0.014194942
104	0x3aaf0b47	0.0013354801
105	0xbe0c1a14	-0.13681823
106	0x3cd21467	0.025644494
107	0xbc98b4cb	-0.018640896
108	0xbc9eb7f7	-0.01937483
109	0xbc69899b	-0.014253999
110	0x3d4553bb	0.048175555
111	0x3b747535	0.0037301306
112	0x3d614618	0.054998487
113	0xbcb80281	-0.022462131
114	0xbd7e5984	-0.062097088
115	0x3abcbe6c	0.0014400012
116	0x3d3391cd	0.04384022
117	0xbce1e59f	-0.027575312
118	0xbd16c300	-0.03680706
119	0x3d2093ea	0.03920356
120	0x3b57d2c3	0.003293202
121	0xbd9d6c08	-0.07686621
122	0xbddfb9da	-0.1092412
123	0xbd57679e	-0.05258905
124	0xbdd3cf8b	-0.1034232
125	0xbc0b7640	-0.00851208
126	0xbcfc09ec	-0.03076645
127	0x3ce2c4f6	0.027681809
128	0xbc1bbf74	-0.009506095
129	0x3bd46bc4	0.006482573
130	0xbb27bd18	-0.0025594886
131	0x3cd611f8	0.026131615
132	0xbc5a3314	-0.013317842
133	0xbd109762	-0.03530062
134	0x3c7c2c61	0.01539144
135	0xbc4c8811	-0.012483613
136	0xb88680a8	-6.413582e-05
137	0x3c40b235	0.011761238
138	0x3c598baa	0.013277927
139	0x3c86d705	0.016459951
140	0x3c8eac1b	0.01741605
141	0x3b28c1e9	0.0025750345
142	0xbc0749dc	-0.008257356
143	0xbc2af668	-0.010434724
144	0x3eb48b01	0.35262302
145	0xbe8b04f3	-0.27152213
146	0x3e58d155	0.21173604
147	0x3d54cb0a	0.051951446
148	0xbdc63092	-0.09677233
149	0xbd0f0b2d	-0.034922767
150	0xbea0d286	-0.31410617
151	0x3e97aaef	0.296226
152	0x3bc543dd	0.006020053
153	0x3cbf887f	0.023380516
154	0xbcc17e8d	-0.023619914
155	0xbe57146b	-0.21003883
156	0x3ed7ce7e	0.4214973
157	0xbe3a15c9	-0.18172373
158	0x3f3bfb71	0.73430544
159	0x3db9d7ab	0.090743385
160	0x3bbfcd40	0.005853325
161	0xbc723efc	-0.014785524
162	0xbd581093	-0.05275018
163	0x3bc11b76	0.005893166
164	0x3d10bbc7	0.03533533
165	0xbd9bd3a1	-0.076087244
166	0xbc0675bc	-0.008206781
167	0x3c581529	0.013188639
168	0x3bf52c54	0.007482091
169	0x3d48569a	0.048910715
170	0xbad98769	-0.0016596142
171	0x3ba8212f	0.005130909
172	0x3cc0cd6f	0.023535458
173	0xbc92fdc8	-0.017943278
174	0x3d7be4d8	0.06149754
175	0x3cb7807c	0.022400133
176	0x3d85a163	0.06524923
177	0xbcbb6187	-0.022873653
178	0xbd9a0f44	-0.07522443
179	0xbc8b25e2	-0.016985837
180	0x3d12f4a2	0.03587783
181	0x3a2d4927	0.0006610327
182	0xbce6b8b8	-0.028164253
183	0x3d3765ed	0.04477494
184	0x3b3797c8	0.0028014053
185	0xbd5d5587	-0.054036643
186	0xbddd54e6	-0.10807209
187	0xbd59da75	-0.053186852
188	0xbe00f07a	-0.12591735
189	0xbc33770e	-0.010953678
190	0xbd24e186	-0.04025414
191	0x3caff610	0.021479636
192	0x3dcfb5e3	0.10142114
193	0xbde69954	-0.11259714
194	0xbc1f7ea7	-0.009734786
195	0x3bfa2008	0.007633213
196	0x3e0a91f4	0.13532239
197	0xbda05113	-0.07827964
198	0xbd68181c	-0.056663617
199	0x3e1d5e03	0.15367894
200	0x3b1201f0	0.0022278987
201	0x3e0372cb	0.12836759
202	0xbdb799f4	-0.08964911
203	0xbdda72ba	-0.106664136
204	0x3d833f0b	0.06408509
205	0xbd6fdda2	-0.058560975
206	0x3e837f00	0.2568283
207	0x3e229010	0.15875268
208	0xbba9bfe6	-0.005180347
209	0xbab29f71	-0.001362784
210	0x3b2176b9	0.0024637415
211	0x3caaf35d	0.020867998
212	0x3c7839cc	0.015150499
213	0xbd226ce9	-0.039654646
214	0xbaf9e46e	-0.001906527
215	0xbb0865a0	-0.0020812526
216	0xbb47bb7b	-0.0030476737
217	0xbd25f8fd	-0.040520657
218	0xbb234649	-0.002491372
219	0x3b1886e1	0.0023273753
220	0xb9c81b74	-0.00038167427
221	0xbbd02292	-0.0063517774
222	0x3ccda54f	0.02510324
223	0x3ad0445b	0.0015889512
224	0xbc40b408	-0.011761673
225	0x3cf4cade	0.02988189
226	0x3bd9daa3	0.006648378
227	0x3d99a0f6	0.07501404
228	0x3cc78845	0.02435697
229	0xbdecf015	-0.115692295
230	0x3de15c69	0.11003954
231	0x3be3dbf2	0.0069537098
232	0xbb97fd09	-0.0046383184
233	0xba930370	-0.0011216234
234	0x3d660b74	0.056163266
235	0x3d0bcb33	0.034129333
236	0x3e0676b7	0.13131224
237	0xbbe61a44	-0.007022174
238	0x3e43901d	0.19097944
239	0xbd106313	-0.035250735
240	0x3d0493ef	0.032367643
241	0xbd23cf40	-0.03999257
242	0x3ad8690c	0.0016510799
243	0xbb6ad9fc	-0.0035835495
244	0x3d979842	0.07402088
245	0x3b9e181d	0.004824652
246	0xbd244569	-0.040105257
247	0x3d3651bf	0.044511553
248	0x3982ac57	0.00024923935
249	0xbd519a9b	-0.051172834
250	0xbd767b84	-0.060176387
251	0xbd07e4b5	-0.033177096
252	0xbc3253e6	-0.010884261
253	0xbc963d86	-0.018339884
254	0x3d940794	0.07228008
255	0x3d600c09	0.054698978

module.bi_lstm1.bias_ih_l0 f4 [64]
0	0x3d2fed23	0.04295076
1	0x3a8490ed	0.0010113992
2	0x3e3e1d3c	0.1856584
3	0x3db7bb2b	0.08971246
4	0x3c87f879	0.016597973
5	0x3da54a9e	0.08070873
6	0x3dfa7ee9	0.122312374
7	0x3d6aa6cb	0.057287972
8	0xbd982707	-0.07429319
9	0xbe4a7375	-0.19770606
10	0x3e7e50ef	0.24835561
11	0x3d90f372	0.070776835
12	0x3ce56b57	0.028005285
13	0xbd84976b	-0.06474193
14	0x3e7674ca	0.24067989
15	0x3c1a9281	0.009434343
16	0x3cb6eadd	0.022328788
17	0x3dba97f0	0.09111011
18	0x3e7549ea	0.23953977
19	0x3da716c0	0.08158636
20	0x3d9cd962	0.0765865
21	0x3e718605	0.2358628
22	0x3dd4c684	0.10389426
23	0xbb2251f9	-0.0024768098
24	0xbd321d49	-0.04348496
25	0x3f0aad21	0.54170424
26	0x3e4c2b4c	0.19938391
27	0xba4a0b31	-0.0007707356
28	0x3e8f49eb	0.27986082
29	0xbd128fc3	-0.035781633
30	0x3df1d69b	0.11808511
31	0x3db95aa9	0.09050495
32	0xbdb809a1	-0.089862116
33	0x3dd8c79f	0.1058495
34	0x3e153f91	0.1457503
35	0xbd77410f	-0.06036478
36	0xbe743982	-0.23850062
37	0xbdacf832	-0.08445777
38	0xbd7327e7	-0.059364226
39	0xbcebf2e7	-0.028802348
40	0x3d612136	0.054963313
41	0x3e1617da	0.14657536
42	0x3e7303b1	0.23731877
43	0x3d9e1f54	0.07720819
44	0x3e4a1472	0.19734362
45	0x3dad17b1	0.084517844
46	0xbe111d95	-0.14171441
47	0xbdfd7ce1	-0.123773344
48	0x3bba5880	0.0056868196
49	0x3ce3ab72	0.027791712
50	0x3e2be116	0.16785082
51	0x3d9264c3	0.07148125
52	0x3db5436e	0.08850752
53	0x3e17744e	0.1479046
54	0x3e191106	0.149479
55	0x3d8a7ee6	0.06762485
56	0xbd99c5b2	-0.075084105
57	0x3e406200	0.18787384
58	0x3e57d40a	0.2107698
59	0x3d90d612	0.07072081
60	0x3ccd72df	0.025079189
61	0xbd7b5b40	-0.06136632
62	0x3df72400	0.12067413
63	0x3d4a4d77	0.049390282

module.bi_lstm1.bias_hh_l0 f4 [64]
0	0x3d319e97	0.043364134
1	0x3a8443bb	0.0010090986
2	0x3e406dbe	0.18791863
3	0x3db8963e	0.090130314
4	0x3c85d1ac	0.01633533
5	0x3d9c1ec4	0.076230556
6	0x3dfa7ee9	0.122312374
7	0x3d677560	0.056508422
8	0xbd982707	-0.07429319
9	0xbe4c2ad5	-0.19938214
10	0x3e7e7c72	0.2485216
11	0x3d9359a6	0.071948335
12	0x3ce4e046	0.027938973
13	0xbd8497de	-0.06474279
14	0x3e775d9c	0.24156803
15	0x3c1ad73c	0.00945073
16	0x3cb754dc	0.022379331
17	0x3dba97b6	0.09110968
18	0x3e75ffe1	0.24023391
19	0x3da664b2	0.08124675
20	0x3d9d0177	0.07666295
21	0x3e72116f	0.23639463
22	0x3dd4c684	0.10389426
23	0xbb239695	-0.002496158
24	0xbd321d49	-0.04348496
25	0x3f095e35	0.53659374
26	0x3e4d0221	0.20020343
27	0xb89e5834	-7.550456e-05
28	0x3e8f5490	0.27994204
29	0xbd129294	-0.03578432
30	0x3df8fcec	0.12157616
31	0x3db93281	0.09042836
32	0xbdb92dbb	-0.090419255
33	0x3e5d3727	0.2160307
34	0x3e00711f	0.12543152
35	0x3d460d52	0.048352547
36	0xbe7f4f77	-0.24932657
37	0xbc95eb4a	-0.018300671
38	0xbd89104f	-0.06692564
39	0xbdeee98f	-0.116656415
40	0x3bd7442e	0.006569407
41	0x3d10666d	0.03525393
42	0x3dcfbeec	0.10143837
43	0x3d2af925	0.04174151
44	0x3e4ff46a	0.2030808
45	0x3dc92dd9	0.09823198
46	0xbea472d7	-0.32118866
47	0xbdce0b53	-0.10060754
48	0x3bc1a21e	0.0059092185
49	0x3ce39fb4	0.027786113
50	0x3e2d1efe	0.16906354
51	0x3d962bf9	0.07332606
52	0x3db48f0d	0.08816347
53	0x3e1419c7	0.14462958
54	0x3e191106	0.149479
55	0x3d8b760e	0.068096265
56	0xbd99c5b2	-0.075084105
57	0x3e416ee4	0.18889958
58	0x3e56d3f5	0.20979293
59	0x3d8d650e	0.0690404
60	0x3cce6853	0.02519623
61	0xbd7b53df	-0.061359283
62	0x3dfb8059	0.1228034
63	0x3d4a4df5	0.049390752

module.bi_lstm1.weight_ih_l0_reverse f4 [64, 14]
0	0xbce71503	-0.028208261
1	0x3d9c5eaf	0.07635247
2	0xbd53f3b9	-0.051746104
3	0xbdc5669c	-0.09638712
4	0x3bdaccc6	0.006677243
5	0xbe0111a3	-0.12604384
6	0xbd4de20f	-0.050264414
7	0xbd8a49c5	-0.06752352
8	0x3c40598b	0.011740099
9	0xbe301c76	-0.17198357
10	0xbd0e925e	-0.034807555
11	0x3bbffa6a	0.005858709
12	0xbd57ed7f	-0.05271673
13	0x3bdc82fb	0.0067294813
14	0xbdbdf731	-0.09275664
15	0x3d20d406	0.0392647
16	0xbe3181a2	-0.17334607
17	0xbda70aa0	-0.081563234
18	0x3e33f276	0.1757296
19	0x3d079b03	0.033106815
20	0xbe169755	-0.14706166
21	0x3d3e28fa	0.046425797
22	0x3e0d9d6a	0.1382958
23	0x3d403485	0.046925087
24	0xbe163371	-0.14668061
25	0xbe4a40cc	-0.1975128
26	0x3dc2f284	0.095189124
27	0x3c6ae774	0.014337409
28	0xbc1b37fe	-0.009473799
29	0x3d9b6c93	0.07589068
30	0xbd0f581e	-0.034996144
31	0xbdcd38f2	-0.10020627
32	0x3e2d0a06	0.16898355
33	0x3e5767e2	0.21035722
34	0xbe05511b	-0.1301922
35	0x3da10c42	0.07863666
36	0x3e51e381	0.20496942
37	0x3e848eb8	0.25890136
38	0xbdb335cc	-0.08750495
39	0xbdacaf4e	-0.08431874
40	0xbd217df0	-0.039426744
41	0xbd36b353	-0.04460461
42	0xbbdf9213	-0.0068228333
43	0xbd89e999	-0.06734008
44	0x3da3fe01	0.08007432
45	0x3e8775df	0.26457116
46	0x3e50aae7	0.20377694
47	0x3e455d51	0.19273879
48	0xbbafba51	-0.005362787
49	0x3e44d480	0.19221687
50	0x3e36cd37	0.17851721
51	0x3e014bd8	0.12626588
52	0xbe6661eb	-0.2249829
53	0xbbf18929	-0.007371087
54	0xbd3a0cc5	-0.045422334
55	0xbc10b90f	-0.008833184
56	0x3d0ed190	0.034867823
57	0x3d2327f6	0.03983303
58	0xbca2ecdb	-0.019888332
59	0x3c1478b5	0.009061982
60	0x3dfdb4c0	0.12387991
61	0x3d3d427f	0.046205994
62	0xbcb9a3c6	-0.022661101
63	0x3d875bc0	0.06609297
64	0x3df43ef4	0.1192607
65	0x3dad46ef	0.08460795
66	0xbdbe1708	-0.092817366
67	0x3b48abb8	0.003061993
68	0x3dc2cdd5	0.095119156
69	0x3da9eef2	0.08297528
70	0x3e25a117	0.16174732
71	0xbc8aa90f	-0.016926317
72	0x3c5307f3	0.012880313
73	0xbcb71272	-0.022347663
74	0xbe0d1624	-0.13777977
75	0xbeb4a06a	-0.35278636
76	0x3d76343e	0.060108416
77	0xbe1fae79	-0.155939
78	0xbe0a05e4	-0.1347881
79	0xbeaaea2d	-0.33381787
80	0x3dffeee7	0.12496739
81	0xbdc6748d	-0.09690199
82	0xbe256f4a	-0.16155735
83	0x3dc2738c	0.09494695
84	0x3d60cb48	0.054881364
85	0x3dbd20f6	0.092348024
86	0x3d67567b	0.05647896
87	0x3e5b36c5	0.21407612
88	0x3e1b9aa1	0.15195705
89	0xbd62dfad	-0.055389095
90	0x3df566af	0.11982476
91	0x3ea11a32	0.31465298
92	0x3e08c95a	0.1335806
93	0xbc0284cf	-0.007966234
94	0xbdb71513	-0.089395665
95	0x3e6bfffe	0.23046872
96	0x3e2bb88e	0.16769621
97	0x3ea3c96c	0.3198961
98	0xbd42792d	-0.047478843
99	0x3daba4ab	0.08381017
100	0xbd73c623	-0.05951513
101	0xbc8a192a	-0.016857702
102	0x3e0ed81e	0.1394963
103	0x3cb3705c	0.021904163
104	0xbdf302f1	-0.118657954
105	0x3cc8ea01	0.024525644
106	0x3e33fc6f	0.17576765
107	0x3c7614b0	0.015019581
108	0xbe2fc07f	-0.17163275
109	0x3c9f6dde	0.019461568
110	0x3b810f70	0.003938608
111	0x3d98aee6	0.07455234
112	0x3e20bb83	0.1569653
113	0x3e243e21	0.16039325
114	0x3e0b6fa9	0.13616814
115	0xbd704acb	-0.058665078
116	0x3e486e7f	0.19573401
117	0x3eadc238	0.3393724
118	0x3c2bc6f6	0.010484448
119	0xbd953b93	-0.072867535
120	0x3e0e612d	0.13904257
121	0x3ea97cd0	0.33103037
122	0x3d66cdfc	0.056348786
123	0xbdb829e5	-0.08992366
124	0xbc64b79b	-0.013959791
125	0x3ceb15a3	0.02869684
126	0xbd8fc358	-0.07019681
127	0xbdbee42c	-0.09320864
128	0xbd9116e1	-0.07084442
129	0xbd78498f	-0.060617026
130	0xbd24f2d3	-0.040270638
131	0xbd863ada	-0.06554194
132	0xbdc5770d	-0.09641848
133	0xbd84f821	-0.06492639
134	0xbd42a47c	-0.047520146
135	0xbd9dadc8	-0.07699162
136	0xbda50514	-0.08057609
137	0xbdb3bc62	-0.087761655
138	0xbd8ddba3	-0.06926658
139	0xbda216c7	-0.07914501
140	0xbe2aae4a	-0.16668049
141	0x3e225ace	0.15854952
142	0x3d8a7047	0.067596965
143	0x3b66299c	0.0035120016
144	0x3b3b6174	0.0028592022
145	0x3db2aff7	0.08724969
146	0xbd125b0c	-0.03573136
147	0x3e06683e	0.13125703
148	0x3dd79790	0.10526955
149	0x3d891290	0.06692994
150	0xbea6d7f6	-0.3258664
151	0x3c1323f7	0.008980743
152	0xbde1a1d5	-0.11017195
153	0xbd0725c3	-0.032994997
154	0xbe015478	-0.12629879
155	0x3e282857	0.16421638
156	0xbe040135	-0.12891085
157	0x3dbd45e7	0.092418484
158	0x3db3fca4	0.08788422
159	0xbe02eb5c	-0.12785095
160	0xbe275d9d	-0.16344304
161	0x3de48c37	0.11159556
162	0x3d9cd4f7	0.07657807
163	0xbe5a5a48	-0.21323502
164	0xbeb252c0	-0.34828758
165	0x3d40e9a5	0.04709782
166	0x3e3022a8	0.1720072
167	0x3e402d83	0.18767361
168	0x3edfa323	0.4367915
169	0x3e4c1885	0.19931228
170	0x3e9af0e1	0.302619
171	0xbdef6917	-0.11689966
172	0x3dfd5eaf	0.12371575
173	0xbeff2bd7	-0.49838135
174	0x3e6261af	0.22107576
175	0xbe84a326	-0.25905722
176	0x3e5cf1ec	0.21576661
177	0xbefd94cf	-0.49527594
178	0x3eba84f7	0.3642957
179	0x3e038543	0.12843804
180	0xbe7bc82a	-0.24588075
181	0x3e244587	0.16042148
182	0x3e07a752	0.13247421
183	0xbcb23cd0	-0.021757513
184	0x3de2781e	0.11058067
185	0x3cc9cf22	0.024634901
186	0x3e9d8566	0.30765837
187	0x3e1578e9	0.14596905
188	0x3d34f93e	0.04418301
189	0x3d8d29fd	0.06892774
190	0x3e7ed909	0.2488748
191	0x3c461ed4	0.012092311
192	0xbdbef70b	-0.093244635
193	0x3db2300a	0.08700569
194	0x3c7409a2	0.014894875
195	0x3df15fde	0.11785863
196	0x3ca4ce2d	0.020117844
197	0x3e049bba	0.1295003
198	0x3e20e914	0.15713912
199	0x3e6beff0	0.23040748
200	0x3dd3d564	0.103434354
201	0x3e797599	0.24361266
202	0x3da6c3b6	0.08142798
203	0x3e83bf1c	0.25731742
204	0x3dd1ef46	0.10250716
205	0x3e10a0ec	0.14123887
206	0xbea8a4a2	-0.32938105
207	0xbdf556a9	-0.1197942
208	0xbe98f819	-0.29876783
209	0xbe57ec6a	-0.21086279
210	0xbd4fdae5	-0.050745863
211	0x3dfc4e27	0.12319594
212	0xbe0b029b	-0.13575213
213	0xbd85a746	-0.065260455
214	0x3e40221a	0.18763009
215	0x3e1398ca	0.14413753
216	0xbe1064be	-0.1410093
217	0xbd84f6bc	-0.06492373
218	0x3e29b56d	0.16573115
219	0x3e028005	0.12744148
220	0xbd3cd953	-0.046105694
221	0xbda98b8c	-0.082785696
222	0x3de3b61b	0.11118718
223	0x3d969c03	0.073539756
224	0xbced2364	-0.02894754
225	0x3dc2265a	0.09479971
226	0x3c5c05bb	0.013429101
227	0x3caa7323	0.020806855
228	0xbe06f6d2	-0.13180092
229	0xbdf9f4ad	-0.12204871
230	0x3d1528a3	0.036415707
231	0x3cb5d6dd	0.022197181
232	0xbdf8a008	-0.121398985
233	0xbdf20a93	-0.11818423
234	0x3ca0a62d	0.019610489
235	0x3d257aa8	0.040400177
236	0x3c95d5b4	0.018290378
237	0x3d89df7a	0.06732078
238	0x3d4bee0d	0.04978757
239	0x3d632400	0.055454254
240	0x3db97ee8	0.090574086
241	0x3e208111	0.15674235
242	0xbd783573	-0.06059785
243	0x3cf5206f	0.029922692
244	0x3e2854fb	0.16438667
245	0x3e421b23	0.18955664
246	0xbda61b60	-0.0811069
247	0x3da3af29	0.079923935
248	0x3e160579	0.14650525
249	0x3da4ba64	0.08043364
250	0x3e3d703d	0.18499847
251	0x3dadbf7f	0.084837906
252	0x3eae91d4	0.34095633
253	0x3eb1a940	0.3469944
254	0x3e9a4fbc	0.30138958
255	0x3e956605	0.29179397

module.bi_lstm1.weight_hh_l0_reverse f4 [64, 16]
0	0xbc8da8bc	-0.017292373
1	0x3e116da7	0.14201985
2	0x3dcf6025	0.1012576
3	0x3d82e7d4	0.06391874
4	0xbdd856cc	-0.1056343
5	0xbd9b80d8	-0.07592934
6	0x3e1b2c31	0.15153576
7	0x3b87ada4	0.0041405726
8	0xbe5c96d8	-0.21541917
9	0x3c87cbc8	0.016576663
10	0xbd01d9d4	-0.031701878
11	0xbb3c3cd1	-0.0028722773
12	0xbd4937d5	-0.04912551
13	0x3e30dd44	0.17271906
14	0xbda9898f	-0.0827819
15	0xbd526d14	-0.051373556
16	0xbe06b814	-0.13156158
17	0x3d1fb767	0.038993265
18	0xbe20e19c	-0.15711063
19	0x3cbeb8e5	0.023281524
20	0xbdd13560	-0.102152586
21	0xbd89223a	-0.06695981
22	0xbdd7f3ee	-0.10544573
23	0x3a989aa7	0.001164277
24	0x3ddb6795	0.10713116
25	0x3c746fe4	0.014919255
26	0xbc10b702	-0.008832695
27	0x3dba78d0	0.091050744
28	0x3e40a3d1	0.18812491
29	0x3e255c78	0.16148555
30	0xbd99941e	-0.07498954
31	0xbd1dfc17	-0.03857049
32	0x3da8a862	0.082352415
33	0xbe3549cd	-0.17703934
34	0xbb923a26	-0.0044624982
35	0xbee05835	-0.43817297
36	0x3dcc37ee	0.09971605
37	0x3e9c552a	0.30533725
38	0xbe914e4f	-0.28380057
39	0x3e8a4092	0.27002388
40	0x3ed1c08e	0.4096722
41	0xbd88cce3	-0.06679704
42	0x3e9e619b	0.30933842
43	0xbe3b2b22	-0.18278173
44	0xbc83045f	-0.015993295
45	0xbe66878f	-0.22512649
46	0x3edd0f88	0.43175912
47	0x3e328695	0.17434151
48	0x3d3f117c	0.046647534
49	0x3d547e23	0.051878106
50	0x3d208d6a	0.039197363
51	0xbc1e5740	-0.009664357
52	0x3d7afed7	0.06127819
53	0x3e3a940e	0.18220541
54	0xbd6e4104	-0.058167472
55	0xbe05bf05	-0.1306115
56	0xbe538894	-0.20657569
57	0xbda1ab57	-0.078940086
58	0x3d63c39b	0.055606466
59	0x3cf166cb	0.02946796
60	0xbe278ad3	-0.16361551
61	0xbc3764e4	-0.011193488
62	0xbdf11034	-0.117706686
63	0xbd9b2982	-0.07576276
64	0xbd072b3a	-0.03300021
65	0xbd14b0af	-0.03630131
66	0xbdee98d9	-0.11650247
67	0x3d76a863	0.06021918
68	0xbcc4f9f1	-0.024044963
69	0xbdda3fe1	-0.10656715
70	0x3ae887ee	0.0017740706
71	0x3ca1259e	0.019671258
72	0xbd751a01	-0.059839252
73	0x3cc810d4	0.024422087
74	0xbd98720d	-0.074436285
75	0x3d15254d	0.036412526
76	0x3ddcc73c	0.107801884
77	0x3ddc0c56	0.107445404
78	0xbd89b141	-0.067232616
79	0x3cbf33e9	0.023340182
80	0x3cf3358c	0.02968862
81	0xbc66f8a4	-0.0140973665
82	0xbc09884c	-0.008394312
83	0x3ce1e7a3	0.027576273
84	0x3dc79a0b	0.09746178
85	0x3d949cdd	0.07256482
86	0xbdf4883e	-0.11940049
87	0x3c86d542	0.016459111
88	0xbe887b6a	-0.26656657
89	0xbc1b1e11	-0.009467618
90	0xbe126866	-0.14297637
91	0xbdbc2b06	-0.091878936
92	0x3d5e6b2e	0.054301433
93	0xb86826ff	-5.534943e-05
94	0xbe40f337	-0.18842779
95	0xbd50e9bd	-0.05100416
96	0xba993aa6	-0.0011690452
97	0x3ab1d849	0.0013568486
98	0x3d7ec0d6	0.06219562
99	0x3ca7b2f7	0.02047108
100	0x3d0310c0	0.031998396
101	0xbd0a8043	-0.033813726
102	0x3e17e3fb	0.14833061
103	0xbc85d060	-0.016334713
104	0xbe09dae5	-0.13462408
105	0xbc50ecc7	-0.012751765
106	0xbde712f6	-0.112829134
107	0x3d565c39	0.052334044
108	0x3d5ce096	0.05392512
109	0xbcfa95d3	-0.03058902
110	0xbd783f06	-0.06060698
111	0xbd94ab7c	-0.072592705
112	0xbd04fb75	-0.03246637
113	0x3bcea173	0.0063058673
114	0x3c33053f	0.010926544
115	0xbe0db43b	-0.13838284
116	0xbc17918a	-0.009251008
117	0x3ddcc289	0.10779292
118	0xbe0dbe39	-0.13842095
119	0x3cf79e5d	0.03022688
120	0x3c785b41	0.015158475
121	0xbc4da79a	-0.012552166
122	0x3ca978b1	0.020687433
123	0xbccb3bbc	-0.024808757
124	0xbb5bd9c8	-0.0033546556
125	0xbae9ab09	-0.0017827462
126	0x3d4dd83e	0.050255053
127	0xbd4e2e73	-0.050337266
128	0xbda0f29b	-0.07858773
129	0x3b3ada32	0.0028511402
130	0xbe0c2754	-0.13686877
131	0x3ae74de5	0.0017647116
132	0xbda56dd2	-0.08077587
133	0xbc3750f3	-0.011188733
134	0x3c5d32d2	0.013500886
135	0xbca059e2	-0.01957411
136	0xb89a9780	-7.371511e-05
137	0x3c89f89f	0.016842185
138	0xbdad16fd	-0.0845165
139	0xbd01425d	-0.03155743
140	0x3e638b0e	0.22221014
141	0xbc9d2a08	-0.019185081
142	0xbda2ab7e	-0.07942866
143	0x3c2c923e	0.010532914
144	0xbaeb9fa5	-0.0017976655
145	0x3ca5d516	0.020243209
146	0xbd548765	-0.051886935
147	0x3c290b2e	0.010317607
148	0xbc82c463	-0.015962785
149	0xbca66df4	-0.020316102
150	0x3a73e3c3	0.00093036535
151	0xbc87f915	-0.016598264
152	0xbcbc9643	-0.02302087
153	0xbc2e29d0	-0.010630086
154	0xbc8fd5b8	-0.017557964
155	0xbb7d5775	-0.0038656865
156	0x3c9f3212	0.019433055
157	0x3d3cd17f	0.04609823
158	0xbcf8dc1d	-0.030378396
159	0xb91f1d82	-0.00015174414
160	0x3e1cc804	0.15310675
161	0xbe3b3468	-0.1828171
162	0xbdfacdfe	-0.12246321
163	0xbea5208a	-0.32251388
164	0x3dbe58cd	0.09294281
165	0x3e97de6e	0.29661888
166	0xbe3e1b5b	-0.18565123
167	0x3ebf6dae	0.37388366
168	0x3d999bb3	0.075004004
169	0xbd93ec01	-0.072227485
170	0xbc25453d	-0.0100873085
171	0xbead7853	-0.33880863
172	0xbdf1cf53	-0.11807122
173	0xbe23e1ee	-0.16004154
174	0x3e37988a	0.17929283
175	0x3ec0fa09	0.37690762
176	0x3dd969d0	0.10615885
177	0xbe080097	-0.13281475
178	0x3d5e3152	0.054246254
179	0xbe259661	-0.16170646
180	0x3e1228ae	0.1427333
181	0x3de88a46	0.113544986
182	0xbe3ebf6b	-0.18627708
183	0x3db2f15a	0.087374404
184	0xbdd7d9cd	-0.10539589
185	0xbd015e4d	-0.031584073
186	0xba07f750	-0.0005186694
187	0xbd54de39	-0.05196974
188	0xbe5eeafc	-0.21769327
189	0xbd6f8b73	-0.0584826
190	0x3e206852	0.15664795
191	0xbce61a2f	-0.028088657
192	0xba707d57	-0.00091739505
193	0x3de060e1	0.10955978
194	0x3e2cb27e	0.16864964
195	0x3d4abbd0	0.04949552
196	0x3d0bb276	0.03410574
197	0x3ac62fbc	0.0015120427
198	0x3e8aebb5	0.27132955
199	0xbd8406f4	-0.06446639
200	0xbe412d2b	-0.18864886
201	0xbca30543	-0.01989997
202	0xba9bea11	-0.0011895319
203	0xbd0a145c	-0.033710822
204	0x3d9f9fba	0.07794137
205	0x3db05e11	0.08611692
206	0xbddd6ca9	-0.10811741
207	0xbe05bba9	-0.13059868
208	0xbac33c1b	-0.0014895232
209	0xbdcc3fe8	-0.09973127
210	0xbe4c9fa6	-0.19982776
211	0xbd2dbdb9	-0.04241726
212	0x3d3f40e1	0.046692733
213	0xbda64af6	-0.081197664
214	0xbd810da6	-0.06301431
215	0xbdc27f36	-0.0949692
216	0xbe19d9a9	-0.15024437
217	0x3ca641cc	0.020295046
218	0xbec8ad0c	-0.39194524
219	0x3e40b756	0.18819937
220	0xbe27d290	-0.16388917
221	0xbd5ef1e6	-0.05442991
222	0xbe98f32f	-0.29873034
223	0x392f9981	0.00016746485
224	0x3e02bfc2	0.12768462
225	0xbe53de0f	-0.20690177
226	0xbe33a1e9	-0.17542233
227	0xbe231b17	-0.15928303
228	0x3e880853	0.2656885
229	0x3e557c7d	0.2084827
230	0xbeb0aece	-0.34508365
231	0x3de94008	0.11389166
232	0xbddca880	-0.10774326
233	0xbdf0f5b1	-0.11765612
234	0xbe0f1878	-0.13974178
235	0xbe15c701	-0.14626695
236	0xbe1e0c15	-0.15434296
237	0xbe4cd70d	-0.2000391
238	0xbdab163f	-0.083538525
239	0x3e4d24f4	0.20033628
240	0x3cc278b6	0.0237392
241	0xbdc304b2	-0.0952238
242	0x3dc35ad8	0.095388114
243	0xbe638701	-0.22219469
244	0x3d385dab	0.045011204
245	0x3e489e3f	0.19591616
246	0xbe25a256	-0.16175207
247	0x3deead44	0.116541415
248	0x3e4615de	0.19344279
249	0xbcd29e87	-0.025710357
250	0x3e05e449	0.13075365
251	0xbcdc634d	-0.026902819
252	0xbdeadc4b	-0.11467799
253	0xbd26fb8d	-0.04076724
254	0x3e2547d3	0.1614068
255	0xbc6ca0ce	-0.014442636

module.bi_lstm1.bias_ih_l0_reverse f4 [64]
0	0x3bb3bdb6	0.005485262
1	0x3db7a1a1	0.08966375
2	0x3b0f57db	0.0021872434
3	0xbd801dff	-0.06255721
4	0x3d413542	0.04716993
5	0x3cd601d3	0.026123917
6	0x3e7f2bf5	0.24919112
7	0xbc0eb5d0	-0.00871034
8	0x3d7bb1ab	0.061448734
9	0xbd268c65	-0.040661234
10	0xbb9aa7a5	-0.004719692
11	0xbdf7b43f	-0.12094926
12	0x3e540993	0.20706777
13	0xbd8bba71	-0.0682267
14	0xbdf294c7	-0.11844783
15	0x3d31ab2e	0.04337614
16	0x3d578e32	0.052625842
17	0x3e0a3f88	0.13500798
18	0x3e77a4b1	0.24183919
19	0x3e18a191	0.14905383
20	0x3d1d677d	0.038428772
21	0x3e581362	0.21101144
22	0x3dc55018	0.09634417
23	0x3de61b4e	0.11235677
24	0x3e0971c3	0.13422303
25	0xbc36a90e	-0.011148704
26	0x3e40becd	0.18822785
27	0x3db558aa	0.08854802
28	0x3db3e02e	0.08782993
29	0x3e1a4b50	0.15067792
30	0x3e9ab130	0.30213308
31	0x3e7f386a	0.24923864
32	0xbe129351	-0.14314009
33	0x3e5682a8	0.20948279
34	0x3e13ab9c	0.14420933
35	0x3e7cb716	0.24679217
36	0xbcd3a306	-0.025834572
37	0xbe92fe10	-0.2870946
38	0xbdaed24f	-0.08536207
39	0x3ddcb3ba	0.107764676
40	0xbeabf992	-0.33588845
41	0x3e069fb7	0.13146864
42	0xbe399b75	-0.18125708
43	0xbd351495	-0.04420908
44	0x3e96aeda	0.29430276
45	0x3ecf3f16	0.40477818
46	0xbeb280fb	-0.3486403
47	0x3da8f190	0.082491994
48	0x3cdd1780	0.026988745
49	0x3e247d93	0.16063528
50	0x3e63ef07	0.2225915
51	0x3db83934	0.08995286
52	0x3d969327	0.07352286
53	0x3d9f0317	0.07764261
54	0x3e1b00e9	0.15137066
55	0xbd25fe3d	-0.040525664
56	0x3dbc27be	0.09187268
57	0xbddbb7ff	-0.10728454
58	0x3e79f224	0.24408776
59	0x39a9e698	0.00032405998
60	0x3e0dcf41	0.13848592
61	0x3da2bc71	0.079460986
62	0x3e4d12a6	0.20026645
63	0x3e00b150	0.1256764

module.bi_lstm1.bias_hh_l0_reverse f4 [64]
0	0x3bc94659	0.0061424193
1	0x3db7ad6e	0.08968626
2	0xbc113c7f	-0.008864521
3	0xbd9cb212	-0.07651152
4	0x3d413546	0.047169946
5	0x3cd6099f	0.026127635
6	0x3e7f1157	0.24908958
7	0x3bf88d45	0.0075852
8	0x3d7bb6f6	0.061453782
9	0xbd24ed81	-0.040265564
10	0xbd789e44	-0.06069781
11	0xbe051098	-0.12994611
12	0x3e4d4741	0.20046712
13	0xbd88174f	-0.06645071
14	0xbddbcf9f	-0.1073296
15	0x3bf0e439	0.007351425
16	0x3d67b2c1	0.056566957
17	0x3e08ef68	0.13372576
18	0x3e8a3f97	0.2700164
19	0x3e276d22	0.16350225
20	0x3d1d6752	0.038428612
21	0x3e4433e7	0.19160424
22	0x3dc552b8	0.09634918
23	0x3df15203	0.117832206
24	0x3e09722e	0.13422462
25	0xb986381d	-0.0002560028
26	0x3eb1cf10	0.3472829
27	0x3dd286c0	0.10279608
28	0x3db3cac3	0.08778908
29	0x3e1a5db6	0.1507481
30	0x3eca24d2	0.39481217
31	0x3e3e4c70	0.18583846
32	0xbdbdb2de	-0.09262632
33	0x3a81d6a5	0.0009905888
34	0x3d6f74e5	0.05846109
35	0x3e3251f5	0.17414077
36	0x3d38623c	0.04501556
37	0xbe52355e	-0.2052817
38	0xbc7423c3	-0.014901104
39	0x3df840a4	0.12121704
40	0xbda31c79	-0.07964415
41	0x3e379aa7	0.17930089
42	0xbe183140	-0.14862537
43	0x3c077005	0.008266454
44	0x3e75836f	0.23975919
45	0x3eb833cd	0.3597702
46	0xbe409a5c	-0.18808883
47	0xbe4d1670	-0.2002809
48	0x3cdf3f16	0.027251761
49	0x3e24a754	0.16079456
50	0x3e4fc462	0.20289758
51	0x3d21f181	0.039536957
52	0x3d969371	0.07352341
53	0x3dfac60a	0.12244804
54	0x3e1aedd5	0.15129788
55	0x3dbf0114	0.093263775
56	0x3dbc26ea	0.0918711
57	0xbdeb7c9e	-0.11498378
58	0x3dbab685	0.09116844
59	0xbc361015	-0.011112233
60	0x3e1d8882	0.15384105
61	0x3da31226	0.07962446
62	0x3de4876d	0.11158643
63	0x3df24489	0.11829478

module.bi_lstm2.weight_ih_l0 f4 [128, 16]
0	0xbb92ddbc	-0.004481999
1	0x3b4e64b6	0.0031493134
2	0x3b24ce8f	0.0025147533
3	0xbc34dd26	-0.011039054
4	0x3b40ce10	0.0029419698
5	0x3beee910	0.007290967
6	0x3bba2779	0.005680975
7	0xbbae4baa	-0.0053190785
8	0xbc09b1f8	-0.008404247
9	0xbba9975f	-0.0051755155
10	0xbb9aab72	-0.004720145
11	0x3b9843e8	0.004646767
12	0xbabc7102	-0.0014376941
13	0x3bb02a0f	0.0053761075
14	0xbbc4cf86	-0.006006184
15	0xbb8403ab	-0.0040287576
16	0xbbb4b5f8	-0.0055148564
17	0x3bbfd640	0.005854398
18	0xbc295b9e	-0.010336785
19	0xbc31908f	-0.010837688
20	0xbbcb8cee	-0.0062118685
21	0x3bc23ef5	0.005927915
22	0x3c299c37	0.010352186
23	0x3b6933ae	0.0035583782
24	0xbc63f017	-0.013912222
25	0x3a1e58ef	0.0006040474
26	0xbc5b9006	-0.013401037
27	0xbbe83668	-0.007086564
28	0x3b11a7f0	0.0022225343
29	0x3c63c682	0.013902308
30	0xbb66f641	-0.0035241994
31	0x3bde4180	0.0067827106
32	0xbb111397	-0.002213692
33	0x3c70d4e0	0.014699191
34	0xbc076ad1	-0.008265213
35	0xbb8e633a	-0.004345325
36	0xbc6397ee	-0.013891203
37	0x3c349301	0.011021377
38	0xbaab9ef2	-0.0013093634
39	0x3a070f43	0.00051521155
40	0xbc373c91	-0.011183874
41	0x3bc07e54	0.0058744345
42	0xba32e08e	-0.00068236224
43	0x3a8f5df4	0.0010938034
44	0x3c005e24	0.007834945
45	0x3c23ec1d	0.010005024
46	0xbb94c3a3	-0.0045399233
47	0x3be932f2	0.007116669
48	0x391fad0e	0.0001522789
49	0xbbb0e749	-0.005398665
50	0xbc0301c7	-0.007996029
51	0x3c756661	0.014978022
52	0x3b971fa2	0.004611925
53	0xbca4d8ae	-0.020122852
54	0xbbd388fb	-0.0064555383
55	0xbcbcf817	-0.023067517
56	0xbbba3a8a	-0.005683248
57	0x3a9fb7f5	0.0012185561
58	0xbc3cc34c	-0.011521172
59	0x3c05d151	0.008167581
60	0x3cd3ea56	0.025868576
61	0x3b5cabf1	0.003367182
62	0x3a9f16c4	0.0012137522
63	0xbc82d5ab	-0.015971025
64	0xbb3a3f8b	-0.0028419222
65	0x3b637a64	0.0034710402
66	0x3d3e2cd6	0.046429478
67	0xba521b83	-0.0008014964
68	0xbc8951ab	-0.016762575
69	0xbcbae120	-0.022812426
70	0x3c7eb542	0.015546145
71	0xbb7fa898	-0.0039010402
72	0x3c700e53	0.014651853
73	0xb9b222bf	-0.00033976694
74	0x3d1c0bef	0.03809732
75	0x3c42c9a7	0.011888898
76	0xbcd6fd77	-0.026243908
77	0xbbefebe3	-0.007321821
78	0x3c04b70d	0.008100283
79	0xbcc0d846	-0.023540627
80	0xbc0d1ac1	-0.008612336
81	0x3c0445fd	0.008073327
82	0xbb6755f6	-0.003529904
83	0xbb9ef7e3	-0.0048513277
84	0xbc2579f8	-0.01009988
85	0x3c06196d	0.008184773
86	0x3b46003d	0.0030212544
87	0xba9bb5ff	-0.0011879801
88	0xbb1911e8	-0.002335662
89	0x3b0113d2	0.0019695652
90	0xbba2bb8c	-0.004966205
91	0xbb2b196d	-0.0026107684
92	0xbaaa5b8b	-0.0012997253
93	0x3bc14df4	0.0058991853
94	0x3bfde473	0.0077481805
95	0xbbe5de89	-0.0070150536
96	0xba801bc0	-0.0009773895
97	0x3c27c79b	0.010240461
98	0xbcefd34b	-0.029275557
99	0xbc1cc03c	-0.009567317
100	0x3b0995bc	0.002099379
101	0x3c8beb0d	0.017079854
102	0xbc7dea54	-0.015497763
103	0x389fa1cc	7.611848e-05
104	0x3b80cc81	0.0039306288
105	0xb8a326ce	-7.7796736e-05
106	0x3c440338	0.011963658
107	0x3af8eaa0	0.0018990822
108	0x3c7e3bcd	0.015517187
109	0x3c8ebc35	0.017423728
110	0x3c176f78	0.009242885
111	0x3ba8bbeb	0.0051493547
112	0xbaa1a19c	-0.0012331489
113	0x3ccc13b5	0.02491174
114	0x3ab23ac8	0.001359784
115	0x3c383859	0.011243903
116	0xbcf24e53	-0.029578364
117	0xbba624c7	-0.005070302
118	0x3ccb17b5	0.024791578
119	0x3ba4ac76	0.0050254418
120	0xbcbac4d1	-0.022798928
121	0x3c26d128	0.010181703
122	0xbc2c1255	-0.010502418
123	0xbbf19331	-0.007372283
124	0x3c90f5c8	0.017695323
125	0x3c9c8080	0.019104242
126	0xbb63793e	-0.0034709717
127	0x3b4b0424	0.003097781
128	0xbb29ea09	-0.002592685
129	0x3c4e58f8	0.012594454
130	0xbbdba447	-0.006702933
131	0xbb2e38b0	-0.0026584081
132	0xbbcce2d8	-0.006252628
133	0xbbfb0b92	-0.0076612914
134	0xbcff7bfd	-0.031187052
135	0x3ca2a21b	0.019852689
136	0x3b51020a	0.0031892085
137	0xbb86db85	-0.0041155242
138	0xbc34cd12	-0.011035221
139	0x3c096c72	0.008387672
140	0xbbc2e79d	-0.0059480206
141	0xbb3315b4	-0.0027326168
142	0xbd074455	-0.03302415
143	0xbc5d227b	-0.01349699
144	0x3b892dc8	0.0041863658
145	0xbc05b3e0	-0.008160561
146	0x3ca0c8a4	0.019626923
147	0xbcaa23de	-0.020769056
148	0xbc08c003	-0.00834656
149	0x3b168eb9	0.0022973253
150	0x3c33e073	0.010978806
151	0x3c3c018e	0.01147498
152	0x3c71a23a	0.0147481505
153	0xbb73b263	-0.0037185184
154	0x3bce99e4	0.0063049663
155	0xbc037bbe	-0.008025108
156	0xbc85693c	-0.016285531
157	0x3c0d10fc	0.008610006
158	0x3d07040d	0.032962848
159	0x3c0704e2	0.00824091
160	0xbc82472b	-0.015903076
161	0x3c9e43e5	0.019319484
162	0xbbbf4c40	-0.005837947
163	0xbc6392ff	-0.013890027
164	0xbcb8e28d	-0.022568965
165	0x3c8863da	0.016649175
166	0x3c5ebd02	0.013594868
167	0xbb3b90a8	-0.0028620157
168	0xbbec8761	-0.007218287
169	0x3b5c6ccc	0.0033634184
170	0xba5b0154	-0.0008354385
171	0xbbade4c3	-0.0053068115
172	0x3b742732	0.0037254808
173	0x3cd4c62f	0.025973408
174	0x3abea8bb	0.0014546135
175	0x3b11d747	0.002225356
176	0xbd5a7ab7	-0.053339686
177	0x3d7c5fef	0.061614927
178	0x3cbd2047	0.02308668
179	0x3c85e77c	0.016345732
180	0xbd9777c1	-0.07395888
181	0xbc201be6	-0.0097722765
182	0x3d001958	0.03127417
183	0xbc4d4d3b	-0.01253062
184	0xbb509a1e	-0.0031830142
185	0x3c518be0	0.012789696
186	0x3bf6c99b	0.0075313575
187	0x3c6b7ddb	0.014373268
188	0x3caa3fd8	0.020782396
189	0x3d2b2b9c	0.041789636
190	0x3bb73ec3	0.0055921986
191	0xbcc254cb	-0.023722073
192	0xbc8e174d	-0.017345095
193	0x3d1c456d	0.038152147
194	0xbb0435cc	-0.0020173667
195	0xbba55259	-0.005045217
196	0xbd47ddcf	-0.048795518
197	0xbc306367	-0.010765887
198	0x39150c96	0.00014214436
199	0x3b8bea72	0.0042698914
200	0xbca8403e	-0.020538446
201	0xba2b35b3	-0.0006531134
202	0xbc15b684	-0.009137753
203	0xba0f6ba3	-0.0005471056
204	0xbbf884d1	-0.0075841923
205	0x3d1cf75b	0.038321834
206	0xbc3e6983	-0.011621836
207	0xbbdc230e	-0.006718046
208	0xbb10e048	-0.0022106338
209	0xbb6edf98	-0.003644919
210	0x3bbebfa6	0.005821186
211	0xbbd1897e	-0.006394564
212	0xbbb00996	-0.0053722365
213	0xbc8a072f	-0.016849129
214	0x3b9ea826	0.004841822
215	0x3a65e7f4	0.00087702204
216	0x3bfa9abb	0.00764784
217	0x3b96f230	0.0046065077
218	0x3c2e6a65	0.010645484
219	0x3be99a1b	0.0071289665
220	0x3c63f4d4	0.013913352
221	0x3bcef27a	0.0063155266
222	0x3bf764ba	0.0075498493
223	0xbb34bcdc	-0.002757839
224	0xbbe9ac34	-0.007131124
225	0x3cf057c8	0.029338732
226	0x3c80d41d	0.015726143
227	0x3b84241a	0.004032624
228	0xbcb2a01c	-0.021804862
229	0x3c084f7f	0.008319735
230	0x3cd6ac9e	0.026205357
231	0x3a9564e9	0.0011397871
232	0xbbc381f6	-0.0059664203
233	0xbb9d209e	-0.004795148
234	0x3b74c51b	0.003734893
235	0x3a9d0f9a	0.0011982799
236	0xbc1ebde5	-0.009688829
237	0x3c8803be	0.016603347
238	0x3afd9ed6	0.0019349705
239	0x3bc6a8ba	0.0060625942
240	0xbc183273	-0.009289372
241	0x3b840007	0.0040283236
242	0x3a4f0a0c	0.00078979204
243	0xbc103f13	-0.008804101
244	0xbcb856fc	-0.022502415
245	0x38a64e56	7.930088e-05
246	0x3d09e100	0.033661842
247	0x3bb58bf3	0.005540365
248	0x3c341f6b	0.010993819
249	0x3b34e088	0.0027599651
250	0x3b0b89f2	0.0021291939
251	0xbb8b7472	-0.0042558247
252	0xbcffd892	-0.031231198
253	0x3ba09083	0.0049000396
254	0x3d1d85b0	0.038457572
255	0xb9bc1696	-0.00035874982

module.bi_lstm2.weight_hh_l0 f4 [128, 32]
0	0x8000894c	-4.9253e-41
1	0x80008ae0	-4.9819e-41
2	0x000089f7	4.9492e-41
3	0x00008af0	4.9841e-41
4	0x80008b65	-5.0005e-41
5	0x80008b3d	-4.9949e-41
6	0x80008eb0	-5.1187e-41
7	0x00008a98	4.9718e-41
8	0x8000890d	-4.9165e-41
9	0x800089c1	-4.9417e-41
10	0x00009064	5.1798e-41
11	0x80008900	-4.9146e-41
12	0x8000ad56	-6.2181e-41
13	0x80008b12	-4.9889e-41
14	0x00008a0f	4.9526e-41
15	0x8000a0bc	-5.766e-41
16	0x00009e83	5.6863e-41
17	0x8000a432	-5.8902e-41
18	0x80008aa7	-4.9739e-41
19	0x0000a788	6.0099e-41
20	0x80008b83	-5.0047e-41
21	0x0000893b	4.9229e-41
22	0x80008bcf	-5.0154e-41
23	0x800088e2	-4.9104e-41
24	0x00008c7d	5.0398e-41
25	0x00008972	4.9306e-41
26	0x0000996a	5.5035e-41
27	0x80008b51	-4.9977e-41
28	0x000089d0	4.9438e-41
29	0x00008aea	4.9833e-41
30	0x00008c39	5.0302e-41
31	0x80008a31	-4.9574e-41
32	0x00009112	5.2041e-41
33	0x00008a62	4.9642e-41
34	0x0000931d	5.2774e-41
35	0x80008aec	-4.9836e-41
36	0x00008e08	5.0951e-41
37	0x00008af1	4.9843e-41
38	0x00008a84	4.969e-41
39	0x00014921	1.18069e-40
40	0x00009525	5.3503e-41
41	0x00009414	5.312e-41
42	0x00008cd3	5.0518e-41
43	0x80008e56	-5.106e-41
44	0x0000a875	6.0431e-41
45	0x80008d9a	-5.0797e-41
46	0x0000ad29	6.2118e-41
47	0x800088e8	-4.9113e-41
48	0x80008959	-4.9271e-41
49	0x000089c1	4.9417e-41
50	0x000089fd	4.9501e-41
51	0x00008d16	5.0612e-41
52	0x00008c90	5.0424e-41
53	0x00008a6f	4.966e-41
54	0x00008ac5	4.9781e-41
55	0x80008a8e	-4.9704e-41
56	0x80008b32	-4.9934e-41
57	0x800043ef	-2.437e-41
58	0x8000a15c	-5.7885e-41
59	0x00008b4c	4.997e-41
60	0x80008c59	-5.0347e-41
61	0x00008a90	4.9707e-41
62	0x80008de0	-5.0895e-41
63	0x000089ab	4.9386e-41
64	0x80008e02	-5.0943e-41
65	0x000089ad	4.9389e-41
66	0x80009335	-5.2808e-41
67	0x00008bdf	5.0176e-41
68	0x8000ab89	-6.1535e-41
69	0x000093f8	5.3081e-41
70	0x0000a51b	5.9229e-41
71	0x800088e1	-4.9103e-41
72	0x00009e53	5.6796e-41
73	0x000094ab	5.3332e-41
74	0x000097b8	5.4426e-41
75	0x00008a62	4.9642e-41
76	0x80008a54	-4.9623e-41
77	0x00008b94	5.0071e-41
78	0x800088e9	-4.9114e-41
79	0x0000948e	5.3291e-41
80	0x00009de9	5.6647e-41
81	0x00008c14	5.025e-41
82	0x00008af2	4.9844e-41
83	0x80009abf	-5.5512e-41
84	0x80008d0d	-5.06e-41
85	0x80008b8e	-5.0063e-41
86	0x00008d9b	5.0798e-41
87	0x80008ae3	-4.9823e-41
88	0x00008bf1	5.0202e-41
89	0x80008b0d	-4.9882e-41
90	0x80008aba	-4.9766e-41
91	0x00008ae4	4.9825e-41
92	0x00008a04	4.951e-41
93	0x00008ac6	4.9783e-41
94	0x800088c2	-4.906e-41
95	0x00008bf3	5.0204e-41
96	0x80008b56	-4.9984e-41
97	0x00008a6f	4.966e-41
98	0x8000a83f	-6.0355e-41
99	0x00008964	4.9286e-41
100	0x00008dde	5.0892e-41
101	0x800088be	-4.9054e-41
102	0x00008b00	4.9864e-41
103	0x80008b1d	-4.9904e-41
104	0x80008ffb	-5.165e-41
105	0x800089c8	-4.9427e-41
106	0x00008ccb	5.0507e-41
107	0x00008aa9	4.9742e-41
108	0x80008bbb	-5.0126e-41
109	0x8000a0d2	-5.7691e-41
110	0x8000896b	-4.9296e-41
111	0x00008a12	4.953e-41
112	0x00008b74	5.0026e-41
113	0x000089d7	4.9448e-41
114	0x00008a42	4.9598e-41
115	0x000089ae	4.939e-41
116	0x00008aa1	4.973e-41
117	0x00008d44	5.0677e-41
118	0x80008a59	-4.963e-41
119	0x80008c07	-5.0232e-41
120	0x00008ccd	5.051e-41
121	0x0000894e	4.9256e-41
122	0x80009973	-5.5047e-41
123	0x80008b3a	-4.9945e-41
124	0x0000893c	4.923e-41
125	0x80009d2a	-5.638e-41
126	0x00008eb6	5.1195e-41
127	0x00008ac6	4.9783e-41
128	0x80008ac7	-4.9784e-41
129	0x80008a34	-4.9578e-41
130	0x8000891b	-4.9184e-41
131	0x80008b23	-4.9913e-41
132	0x8000894f	-4.9257e-41
133	0x8000898b	-4.9341e-41
134	0x0002bb38	2.50832e-40
135	0x80008cb1	-5.047e-41
136	0x80008ae1	-4.982e-41
137	0x800089eb	-4.9476e-41
138	0x000090ce	5.1946e-41
139	0x80008992	-4.9351e-41
140	0x00008dc3	5.0855e-41
141	0x800095d9	-5.3755e-41
142	0x80008c15	-5.0252e-41
143	0x80008ba9	-5.01e-41
144	0x0000898a	4.934e-41
145	0x80008c95	-5.0431e-41
146	0x80008a0c	-4.9522e-41
147	0x0000934e	5.2843e-41
148	0x00008c07	5.0232e-41
149	0x80008b52	-4.9979e-41
150	0x80008977	-4.9313e-41
151	0x000089cc	4.9432e-41
152	0x000088ee	4.9121e-41
153	0x0000894f	4.9257e-41
154	0x80008d60	-5.0716e-41
155	0x00008927	4.9201e-41
156	0x00008aa1	4.973e-41
157	0x80008994	-4.9354e-41
158	0x80008d5e	-5.0713e-41
159	0x80008a3d	-4.959e-41
160	0x80008ba9	-5.01e-41
161	0x80008a67	-4.965e-41
162	0x00008c50	5.0335e-41
163	0x80008a9f	-4.9728e-41
164	0x00008c09	5.0235e-41
165	0x00008a21	4.9551e-41
166	0x8000895e	-4.9278e-41
167	0x00008957	4.9268e-41
168	0x80008b5a	-4.999e-41
169	0x000065cf	3.6522e-41
170	0x80008a14	-4.9533e-41
171	0x80008b6f	-5.002e-41
172	0x00008b2e	4.9928e-41
173	0x80008e61	-5.1076e-41
174	0x000088ea	4.9116e-41
175	0x8000a6c4	-5.9824e-41
176	0x00008d48	5.0682e-41
177	0x800090ad	-5.19e-41
178	0x800094c7	-5.3371e-41
179	0x00008bd4	5.0161e-41
180	0x800089bf	-4.9414e-41
181	0x00008c32	5.0293e-41
182	0x00008e19	5.0975e-41
183	0x00008ddb	5.0888e-41
184	0x800088f2	-4.9127e-41
185	0x800091ed	-5.2348e-41
186	0x80008e12	-5.0965e-41
187	0x800089c8	-4.9427e-41
188	0x80008ca6	-5.0455e-41
189	0x80008cb6	-5.0478e-41
190	0x80008aae	-4.9749e-41
191	0x80008b4b	-4.9969e-41
192	0x00008e18	5.0974e-41
193	0x00008a22	4.9553e-41
194	0x00008b4b	4.9969e-41
195	0x00001d7b	1.0576e-41
196	0x0000a822	6.0315e-41
197	0x8000a542	-5.9283e-41
198	0x00008b32	4.9934e-41
199	0x80009084	-5.1842e-41
200	0x00009a0c	5.5262e-41
201	0x00008b30	4.9931e-41
202	0x80008a84	-4.969e-41
203	0x0001d76a	1.69112e-40
204	0x000089f1	4.9484e-41
205	0x000094da	5.3398e-41
206	0x000089c0	4.9415e-41
207	0x80008b22	-4.9911e-41
208	0x80009c0d	-5.598e-41
209	0x000089d4	4.9443e-41
210	0x00008a90	4.9707e-41
211	0x80008a54	-4.9623e-41
212	0x80008f43	-5.1393e-41
213	0x80008fcb	-5.1583e-41
214	0x000094df	5.3405e-41
215	0x80008a4d	-4.9613e-41
216	0x80008982	-4.9329e-41
217	0x80008f8b	-5.1494e-41
218	0x80008b1c	-4.9903e-41
219	0x80009052	-5.1772e-41
220	0x00008940	4.9236e-41
221	0x80008fbb	-5.1561e-41
222	0x0000908c	5.1854e-41
223	0x80008bbc	-5.0127e-41
224	0x0000892e	4.9211e-41
225	0x80008aea	-4.9833e-41
226	0x000089e1	4.9462e-41
227	0x00008a2a	4.9564e-41
228	0x80008d86	-5.0769e-41
229	0x00009372	5.2893e-41
230	0x00009da9	5.6558e-41
231	0x80008c00	-5.0223e-41
232	0x00008cd5	5.0521e-41
233	0x800089a6	-4.9379e-41
234	0x8000895b	-4.9274e-41
235	0x8000a292	-5.8319e-41
236	0x00009603	5.3814e-41
237	0x00008b62	5.0001e-41
238	0x000089ee	4.948e-41
239	0x80009698	-5.4023e-41
240	0x000089c3	4.942e-41
241	0x0000933b	5.2816e-41
242	0x00008bb1	5.0112e-41
243	0x800094fd	-5.3447e-41
244	0x80008a50	-4.9617e-41
245	0x00008a9a	4.9721e-41
246	0x0000a376	5.8639e-41
247	0x80009c32	-5.6032e-41
248	0x00009306	5.2742e-41
249	0x000089ea	4.9474e-41
250	0x0000892b	4.9207e-41
251	0x00008a13	4.9532e-41
252	0x00008a7f	4.9683e-41
253	0x00008ccf	5.0513e-41
254	0x00008ecc	5.1226e-41
255	0x00008a74	4.9668e-41
