output/clip/FD004/exp_202411021254_bilstm_clip_ep-0010.pth (torch, 288916 bytes, 66 tensors)

module.bi_lstm1.weight_ih_l0 f4 [64, 14]
0	0x3c91d854	0.017803349
1	0x3c850a9e	0.016240414
2	0x3c984ab9	0.018590318
3	0xbc6ea0e8	-0.01456473
4	0xbcaad9a3	-0.02085573
5	0x3c801f7e	0.015640017
6	0x3d67275c	0.05643402
7	0x3bf376f2	0.007429951
8	0xbc8b4286	-0.016999494
9	0x3cb05538	0.02152501
10	0x3975ce15	0.00023441792
11	0x39807840	0.00024503656
12	0xbc47bf37	-0.012191585
13	0xbb98857e	-0.0046545854
14	0xbc882cfe	-0.016623016
15	0xbc89b2d6	-0.016808908
16	0xbc9f8899	-0.019474315
17	0x3be2c043	0.006919892
18	0xbc185c36	-0.009299329
19	0xbbe751a8	-0.0070592947
20	0xbcaeaa0e	-0.021321323
21	0x3bc7c117	0.006096016
22	0xbc190d77	-0.009341589
23	0xbbbfff7d	-0.005859314
24	0xbc55a550	-0.013039902
25	0xbc513a9a	-0.012770319
26	0xbc23d044	-0.009998385
27	0x3b5b04e5	0.0033419665
28	0x3cb65449	0.022256987
29	0x3ce05a9c	0.027386956
30	0x3ceb9e01	0.028761866
31	0x3cb43c3f	0.022001384
32	0x3db9a1c0	0.090640545
33	0x3dad614a	0.08465822
34	0x3d1e0431	0.038578216
35	0x3d8b5474	0.068032175
36	0x3cf80730	0.030276865
37	0x3d8eb5f9	0.06968302
38	0xbbc58c58	-0.006028693
39	0x3d91b37f	0.07114314
40	0x3d6e202d	0.058136154
41	0x3d9d50a9	0.076814
42	0x3d671384	0.056415096
43	0x3da63795	0.0811607
44	0xbd2ed416	-0.04268273
45	0xbcf0793b	-0.029354682
46	0x3d69e73f	0.0571053
47	0x3c74580d	0.014913571
48	0x3d23d885	0.04000141
49	0xbdb88bb5	-0.09011022
50	0xbc77ffa3	-0.015136632
51	0x3c13ce16	0.009021303
52	0xbd43e0a0	-0.04782164
53	0x3d5dea17	0.054178324
54	0x3cf03242	0.02932084
55	0x3d3e056c	0.04639189
56	0xbb858b15	-0.0040754178
57	0xbd3915db	-0.04518686
58	0xbca20194	-0.019776143
59	0xbc3077f4	-0.010770787
60	0xbc897223	-0.016778057
61	0xbd1c39f8	-0.03814122
62	0xbd0c940c	-0.034320876
63	0x3c8ed739	0.01743661
64	0x3bf09d4c	0.00734297
65	0xbc8ad01e	-0.016944941
66	0x3d74140f	0.059589442
67	0x3d9d5958	0.076830566
68	0x3d43ed0d	0.04783349
69	0x3bd6a1b6	0.006550039
70	0x3dd954ce	0.10611878
71	0x3da95138	0.08267444
72	0x3d859c7c	0.06523988
73	0x3dc5a57f	0.096507065
74	0x3b972278	0.0046122633
75	0xbbcbecb0	-0.0062232837
76	0x3d8c0a34	0.068378836
77	0x3e213db0	0.15746188
78	0x3d0d589a	0.034508325
79	0x3c8b02e0	0.016969144
80	0x3cb4d380	0.022073507
81	0x3dead060	0.114655256
82	0x3d438f96	0.047744356
83	0x3c4a7e94	0.01235928
84	0xbc992703	-0.01869536
85	0xbcc397e4	-0.023876138
86	0xbc9c70d5	-0.019096771
87	0xbced9f67	-0.029006673
88	0xbd021d13	-0.03176601
89	0xbd0f6007	-0.03500369
90	0xbc4caa90	-0.012491837
91	0xbcdc796b	-0.026913365
92	0xbcfdf2e7	-0.030999614
93	0xbd20e9a3	-0.039285313
94	0xbbccc341	-0.006248862
95	0xbcbb0992	-0.022831712
96	0xbd1c9c06	-0.038234733
97	0xbcdf0dc0	-0.027228236
98	0xbd41219d	-0.047151197
99	0xbd7ddd42	-0.061978586
100	0xbd1ec6e1	-0.038763884
101	0xbc585c62	-0.0132056195
102	0xbd35eb05	-0.044413585
103	0x3c3651db	0.011127914
104	0xbc31d4ab	-0.010853927
105	0x3b6461af	0.0034848263
106	0xbbd3262b	-0.006443759
107	0x3a134cd8	0.00056190556
108	0xbd1baef0	-0.03800863
109	0x3ce0b052	0.027427826
110	0xbb8e1e4d	-0.004337108
111	0xbb95b995	-0.0045692422
112	0x3cfa570b	0.030559083
113	0x3bdf6683	0.0068176403
114	0xbb7d1dc8	-0.0038622487
115	0x3ce063f4	0.027391411
116	0xbd0395d8	-0.032125324
117	0x3a04405c	0.00050449907
118	0x3d3ce3c3	0.046115648
119	0x3cc4dfd9	0.02403252
120	0xbcaf4778	-0.021396384
121	0x3b08bf01	0.00208658
122	0xbc870717	-0.016482873
123	0xbd27dd68	-0.040982634
124	0xbbfbab6f	-0.0076803486
125	0xbc827a04	-0.015927322
126	0x3d55dc12	0.05221183
127	0x3d555c61	0.052090053
128	0x3d6e56b4	0.058188155
129	0x3db05294	0.086095005
130	0x3d45c213	0.048280787
131	0x3d2d45bd	0.042302836
132	0x3d9659b0	0.07341325
133	0x3d5a9f6e	0.0533747
134	0x3ba5d14d	0.005060351
135	0x3de355c2	0.111003414
136	0xbc75df0b	-0.015006791
137	0x3d5dbe73	0.054136705
138	0x3e13ecfc	0.14445871
139	0xbd776b9b	-0.060405355
140	0x3d724c47	0.059154775
141	0x3d0a7cbf	0.033810373
142	0x3dcc3e98	0.09972876
143	0x3daa2d4a	0.083094195
144	0x3d788f72	0.060683675
145	0x3d5064ff	0.050877567
146	0x3d268c55	0.040661175
147	0x3dec7555	0.11545817
148	0x3d2f40e1	0.042786483
149	0x3d351023	0.044204842
150	0x3dabf331	0.083959945
151	0x3d80b42b	0.06284364
152	0x3b8d1da5	0.0043065124
153	0x3d759b54	0.059962586
154	0x3cccb87b	0.02499031
155	0x3cfd7f84	0.030944593
156	0x3deb4008	0.11486822
157	0x3c2a8710	0.010408178
158	0xbbadfe80	-0.00530988
159	0xbc22f4b8	-0.009946041
160	0xbcf9a5b6	-0.030474525
161	0xb8035ab8	-3.1317322e-05
162	0x3d1aa8be	0.03775858
163	0xbd4cf8a5	-0.050041813
164	0x3d2d1d46	0.042264245
165	0xbda4d9d1	-0.08049358
166	0x3b9dd50b	0.0048166565
167	0x3b52732d	0.0032112107
168	0x3d1be22a	0.038057484
169	0x3c67e031	0.0141525725
170	0xbcea885b	-0.028629472
171	0x3d851e3e	0.06499909
172	0x3ce397dd	0.027782375
173	0x3db26c79	0.08712096
174	0x3c966228	0.018357351
175	0x3d886a9c	0.06660959
176	0x3cdc4e08	0.026892677
177	0x3d9088d7	0.0705735
178	0x3d4f3bbd	0.05059408
179	0xbcc63264	-0.02419395
180	0x3d9f07f9	0.077651925
181	0x3d62dc99	0.05538616
182	0xbca209c5	-0.01978005
183	0xbc608a50	-0.013704851
184	0xbce49af9	-0.027905928
185	0xbb9672d9	-0.0045913276
186	0xbc8af2f5	-0.016961554
187	0xbc60d070	-0.01372157
188	0xbcb0e1c2	-0.021592025
189	0xbc0b67b0	-0.008508608
190	0xbc8b01f7	-0.01696871
191	0xbc2b6fb4	-0.010463644
192	0xbb14856c	-0.0022662533
193	0xbc7cd009	-0.015430459
194	0xbb9865a8	-0.0046507902
195	0xba1a039d	-0.0005875172
196	0x3d8c0f32	0.06838836
197	0xbda22f73	-0.079192065
198	0xbddaf0de	-0.10690473
199	0xbdae0c47	-0.084984355
200	0x3b6a125e	0.0035716514
201	0xbd697774	-0.056998685
202	0xbc878e52	-0.016547356
203	0xbdfcf3c6	-0.123511836
204	0x3cbc3893	0.022976195
205	0xbd2cce94	-0.042189196
206	0x3daa1c25	0.083061494
207	0x3c8178c3	0.015804654
208	0xbdc0324b	-0.093845926
209	0x3a41a53d	0.0007386988
210	0x3d0fd895	0.035118658
211	0x3cc0f96e	0.023556437
212	0xbca2a8df	-0.019855915
213	0xbd833156	-0.064058945
214	0xbceca957	-0.028889341
215	0xbd4a9470	-0.049457967
216	0x3b8f6458	0.0043759756
217	0xbd387e45	-0.045042295
218	0xbd248df3	-0.040174436
219	0xbd7ddac2	-0.0619762
220	0xba2cfe7b	-0.00065992
221	0xbcea5904	-0.0286069
222	0xbd52d5c0	-0.05147338
223	0xbd9c379d	-0.07627795
224	0xbce29e69	-0.027663426
225	0xbd333436	-0.043750964
226	0xbd772dc3	-0.060346376
227	0xbcceee6f	-0.025260178
228	0xbd60662d	-0.054784942
229	0xbc5d443f	-0.013505041
230	0xbc5e69b6	-0.013575008
231	0xbd13be1f	-0.036069985
232	0xbc950a71	-0.018193455
233	0xbc7b1850	-0.015325621
234	0xbd83095d	-0.0639827
235	0xbd5e5469	-0.05427972
236	0xbcef29e7	-0.029194785
237	0xbcc29cd0	-0.023756415
238	0xbc5aab30	-0.013346478
239	0xbc70af65	-0.014690255
240	0xbc94c97e	-0.018162485
241	0x3af31df3	0.0018548354
242	0xbc1d4db6	-0.009601047
243	0xbc054ab7	-0.008135489
244	0xbc7525a6	-0.014962589
245	0x3af9ad10	0.0019048769
246	0xbc14e133	-0.009086895
247	0xbbf87c58	-0.0075831823
248	0xbc6f8acd	-0.014620495
249	0xbc6ac3e8	-0.014328934
250	0xbbe6bbdf	-0.007041439
251	0xbacba285	-0.0015536105
252	0xbb990345	-0.004669579
253	0xbc680b73	-0.014162886
254	0xbb970d2c	-0.0046097245
255	0x3c94ce0c	0.018164657

module.bi_lstm1.weight_hh_l0 f4 [64, 16]
0	0xbbbebe2d	-0.0058210106
1	0xbc1453f3	-0.009053218
2	0xb9692c47	-0.00022237106
3	0x3bb0e0d5	0.005397896
4	0x3ba3c06b	0.0049973032
5	0xbd432286	-0.047640346
6	0xbb76c5e7	-0.003765458
7	0x3a06e5e0	0.00051459484
8	0xbc5a8676	-0.013337722
9	0x3d283e64	0.041075125
10	0xbd12e237	-0.035860267
11	0x3c362608	0.011117466
12	0x3c80b40f	0.015710859
13	0xbc1339e0	-0.008985966
14	0x3bc9b898	0.0061560385
15	0xbbbda0c6	-0.005786988
16	0xbad022bd	-0.0015879493
17	0xbb385331	-0.0028125758
18	0xbaf1fad4	-0.0018461593
19	0x3a922ffd	0.0011153218
20	0x3aad2bea	0.001321194
21	0xbc0de63b	-0.008660848
22	0xb91a8762	-0.00014737019
23	0xbac37c24	-0.0014914316
24	0xbb0cb2f5	-0.0021468971
25	0x3c134f71	0.008991108
26	0xbc1726f7	-0.009225599
27	0x3b4c7b04	0.0031201253
28	0x3b86e4f1	0.0041166474
29	0xbb154e1c	-0.0022782153
30	0x3a526fab	0.0008027504
31	0xbb093c0a	-0.0020940327
32	0x3a8bc1fb	0.0010662669
33	0x3ab22eb2	0.0013594239
34	0xbc37fe46	-0.011230057
35	0xbc02fc53	-0.007994729
36	0xbaa98c4f	-0.0012935492
37	0xbc4f2508	-0.012643106
38	0xbbb1f833	-0.005431199
39	0x3b17669a	0.0023101927
40	0xbc2f714c	-0.010708164
41	0xbcc0f006	-0.023551952
42	0xbaaab0b7	-0.0013022636
43	0xbc4bf9f6	-0.012449732
44	0xbcbc650c	-0.022997402
45	0x3c5c2e25	0.013438736
46	0xbc3ead79	-0.011638039
47	0xbbac6d97	-0.0052620876
48	0xbb969fc3	-0.004596682
49	0xbba02c30	-0.00488808
50	0x3c8ae760	0.016956031
51	0x3c88c7dd	0.016696865
52	0xbbd25a48	-0.006419454
53	0xbd7da9f4	-0.061929658
54	0xbad2ff5a	-0.0016097829
55	0xb92012ce	-0.00015265794
56	0x3babf537	0.0052477377
57	0x3cfd317f	0.03090739
58	0xbcf59779	-0.029979454
59	0x3cd7f6a0	0.026362717
60	0x3d26f102	0.040757187
61	0xbc9c82fd	-0.019105429
62	0x3898261a	7.255022e-05
63	0xbc6cc6d8	-0.014451705
64	0x3b229a31	0.0024811144
65	0x3b391f91	0.0028247575
66	0x3b888606	0.0041663675
67	0xbb97b7bd	-0.0046300576
68	0x3bb505fe	0.005524396
69	0x3b24a61c	0.0025123423
70	0x3c164d9e	0.009173779
71	0x3a995ba2	0.0011700282
72	0xbbf5cba2	-0.0075010816
73	0x3cd2eb55	0.02574698
74	0x3c1c23e5	0.009530042
75	0x3c0053c4	0.007832471
76	0xbbd9066f	-0.0066230814
77	0xba8db79e	-0.0010812168
78	0x3bc99094	0.0061512683
79	0x3c006adf	0.00783798
80	0xbb86c252	-0.0041125203
81	0xbba3f3dc	-0.0050034355
82	0xbd3b5ac3	-0.045740854
83	0x3c6f6f39	0.01461392
84	0x3a0a092c	0.0005265649
85	0x3d67046d	0.056400705
86	0xbccefd2c	-0.025267206
87	0xbc8be084	-0.01707483
88	0x3cc4f66a	0.02404328
89	0xbd32df83	-0.04367019
90	0x3d34f74a	0.044181146
91	0xbbd565e2	-0.0065123895
92	0xbc71f43a	-0.014767701
93	0x3c5fc0ab	0.0136567755
94	0xbc009196	-0.00784721
95	0xbbae905a	-0.0053272666
96	0xbae2b159	-0.0017295285
97	0xbbb16a7e	-0.005414306
98	0x3acc811b	0.0015602441
99	0x3b914423	0.0044331714
100	0x3bcab7c9	0.0061864597
101	0xbd02f48e	-0.031971507
102	0x391e5ff7	0.00015103804
103	0xba3b14d8	-0.000713659
104	0xbbaa9825	-0.0052061253
105	0x3cf10415	0.029420892
106	0xbcb7e718	-0.022449061
107	0x3c0ae767	0.008478022
108	0x3c45cc27	0.0120725995
109	0xbc04d235	-0.008106758
110	0x3bf88770	0.007584505
111	0xbb062b8f	-0.002047274
112	0xbb0aca00	-0.002117753
113	0xbb31b20f	-0.0027114188
114	0xba3b87bc	-0.000715371
115	0x3ad844a6	0.0016499951
116	0xba439b07	-0.00074617605
117	0xbcc3aa09	-0.02388479
118	0xbb0b8375	-0.0021288071
119	0xba886cee	-0.001040844
120	0xbb9888c6	-0.0046549765
121	0x3c941830	0.01807794
122	0xbc9802a8	-0.018555954
123	0x3b822310	0.003971465
124	0x3b0871db	0.0020819816
125	0x3a632241	0.0008664467
126	0xbb029f44	-0.0019931355
127	0xbb60a3c3	-0.0034277297
128	0xbb732a2e	-0.0037103998
129	0xbc482768	-0.012216426
130	0xbb92c2e2	-0.0044787982
131	0x3bf53425	0.0074830228
132	0x3c05166d	0.0081230225
133	0xbd601b3e	-0.05471348
134	0xbbace74d	-0.0052765966
135	0x3a32f2e9	0.00068263576
136	0xbc660628	-0.014039554
137	0x3cf4cb58	0.029882118
138	0xbd19b33a	-0.03752444
139	0x3c562e68	0.013072588
140	0x3c777283	0.015102985
141	0xbc0ea9eb	-0.008707504
142	0x3c2a6f35	0.01040249
143	0xbb723a5f	-0.0036961061
144	0xbb955aab	-0.0045579276
145	0x3a42af04	0.0007426592
146	0xbb043efa	-0.0020179139
147	0x3c5034f7	0.01270794
148	0xbd19d28f	-0.03755432
149	0xbccd197f	-0.025036572
150	0xbc6b6830	-0.014368102
151	0xbc44ea35	-0.01201873
152	0xb875b35b	-5.857959e-05
153	0x3aefc259	0.0018292173
154	0x3b0d29b2	0.0021539745
155	0x3bd821e3	0.0065958365
156	0x3c70b5f9	0.014691823
157	0x3c2605e6	0.010133242
158	0xbca95961	-0.020672502
159	0xbcd2d5b4	-0.025736667
160	0x3c93e047	0.01805128
161	0x3c3d1df4	0.011542786
162	0xbd847b17	-0.0646879
163	0xbd160e2d	-0.036634613
164	0x3d5bb6e4	0.053641215
165	0x3da1b7b8	0.0789637
166	0xbb3a60b1	-0.002843898
167	0x3c744170	0.01490818
168	0x3ccf105e	0.02527636
169	0xbd95ac45	-0.073082484
170	0x3d70fc7a	0.05883453
171	0xbd71f3b9	-0.059070323
172	0xbd9ca34a	-0.076483324
173	0x3d021625	0.0317594
174	0x3d0b5613	0.034017634
175	0x3d647f32	0.055785365
176	0xbd2b94ed	-0.041890074
177	0x3bdaf4d6	0.0066820187
178	0x3d70b693	0.058767866
179	0x3d0943f7	0.033512082
180	0xbcc83610	-0.024439842
181	0xbd931948	-0.071825564
182	0xbcae72ab	-0.021294912
183	0xbc441692	-0.011968272
184	0xbd1132be	-0.035448782
185	0x3da9db50	0.08293784
186	0xbd5ae3e6	-0.053439997
187	0xbb675a24	-0.003530153
188	0x3d979f88	0.07403475
189	0xbc7eeb32	-0.015559005
190	0x3c4ff8d9	0.012693607
191	0xbd6d9846	-0.058006547
192	0xbb71092a	-0.0036779144
193	0xbc41ad1c	-0.011821058
194	0xbcc90a6f	-0.024541108
195	0x3ba4b67e	0.0050266376
196	0x3c657d0c	0.014006864
197	0xbc918d53	-0.017767584
198	0xbc73fb32	-0.014891433
199	0x391c855c	0.00014927
200	0xba5bd6e6	-0.00083862094
201	0xbca5714f	-0.020195631
202	0xbc192a40	-0.009348452
203	0xba849080	-0.0010113865
204	0x3a41b8cf	0.00073899043
205	0xbb1a33c5	-0.0023529392
206	0x3c773ec8	0.015090652
207	0xbbe59d05	-0.0070072436
208	0xbb250955	-0.0025182564
209	0xba5d04cd	-0.00084311963
210	0xb9085258	-0.00013000646
211	0x3acc5fc8	0.001559251
212	0xbb0db1f6	-0.0021620966
213	0xbc3b4e2f	-0.011432215
214	0x3ab0beec	0.0013484634
215	0xbb703947	-0.0036655234
216	0xbaaad11f	-0.0013032294
217	0x3c35cd83	0.011096361
218	0xbb78f7d8	-0.0037989523
219	0x3b8bbadc	0.0042642187
220	0x3bb809f9	0.005616423
221	0xbb4b0e90	-0.0030984022
222	0xbb140d89	-0.0022591075
223	0xbb41e726	-0.0029587238
224	0xbb39d323	-0.0028354607
225	0xb9a1f2d6	-0.0003088924
226	0x3c2a7015	0.010402699
227	0x3bb67477	0.005568083
228	0x3bcc788d	0.0062399567
229	0x3b704780	0.003666371
230	0x3c3f4398	0.01167383
231	0xbc087f93	-0.008331197
232	0xbd04eae2	-0.032450564
233	0x3c5543fa	0.013016695
234	0x3d1e9f2e	0.038726024
235	0x3c6bec2f	0.014399572
236	0x3c18b975	0.00932156
237	0xbc281e4b	-0.010261129
238	0x3cb7e951	0.022450121
239	0x3c549740	0.012975514
240	0xbbae9738	-0.0053280853
241	0xbc64fb5c	-0.013975944
242	0x3b5c3c31	0.0033605213
243	0x3c3dee9d	0.011592534
244	0x3c26da77	0.010183922
245	0xbd7e8262	-0.06213606
246	0xbb85b503	-0.004080416
247	0xba5cd004	-0.0008423331
248	0xbc725219	-0.014790081
249	0x3d6e1cd3	0.058132958
250	0xbd208f06	-0.039198898
251	0x3cb14c13	0.02164272
252	0x3cd6f44d	0.026239539
253	0xbc91f047	-0.017814768
254	0x3c88ef4f	0.016715674
255	0xbbd69684	-0.0065487046

module.bi_lstm1.bias_ih_l0 f4 [64]
0	0xbd9a6f41	-0.07540751
1	0xbc5afdf9	-0.013366216
2	0xbc3e3bb4	-0.011610914
3	0xbd3ab224	-0.045580044
4	0x3db161df	0.086612456
5	0x3d822dfa	0.063564256
6	0xbd3a0615	-0.045415957
7	0x3c9ee486	0.019396078
8	0x3d5e63ea	0.054294504
9	0x3e212174	0.15735418
10	0x3b635da8	0.0034693275
11	0xbcafc422	-0.021455828
12	0x3d3ecbb5	0.04658099
13	0xbc16f5a8	-0.009213842
14	0x3cb63763	0.022243207
15	0xbd2bfb8e	-0.041987948
16	0xbd838e6d	-0.0642365
17	0xbd0385c5	-0.032109994
18	0xbd3f77c3	-0.046745073
19	0x3d530d29	0.051526222
20	0xbd79f431	-0.061023895
21	0x3e1ac6e5	0.15114935
22	0xbd3aa44e	-0.04556685
23	0xbc8e30f3	-0.017357325
24	0xbd7fc3b6	-0.062442504
25	0x3dfe4782	0.12415983
26	0x3c9dc502	0.01925898
27	0xbca48a85	-0.020085583
28	0xbdb8e67f	-0.09028339
29	0xbad0ac89	-0.001592056
30	0xbdd3e2b3	-0.10345974
31	0xbda379f4	-0.07982245
32	0x3da0ca39	0.07851071
33	0x3b9b112d	0.004732272
34	0x3e132263	0.14368586
35	0xbdc9b690	-0.09849274
36	0xbe0db73d	-0.13839431
37	0xbcab64f3	-0.02092216
38	0x3d8cf5b1	0.068827994
39	0x3db34bf5	0.08754722
40	0x3de4d333	0.111730956
41	0x3d28dd5c	0.04122673
42	0x3e07f578	0.13277233
43	0x3c54a6ad	0.012979192
44	0x3de0f8c8	0.10984951
45	0xbd2fbf85	-0.042907257
46	0xbc9bd166	-0.019020747
47	0xbd90b2fe	-0.0706539
48	0xbd27a3ab	-0.04092757
49	0xbc288c7b	-0.010287399
50	0x3d52f4ae	0.051502876
51	0xbdb62cd9	-0.08895273
52	0xbd7924b5	-0.060826022
53	0x3e0ff588	0.14058506
54	0xbcedc8e1	-0.02902645
55	0xbda256f3	-0.079267405
56	0xbcefbec6	-0.029265773
57	0x3d1fbbef	0.038997587
58	0x3c2fbd89	0.010726341
59	0x3d229301	0.039690975
60	0x3d03fddc	0.03222452
61	0xbc8abf92	-0.016937051
62	0x3d35e96b	0.044412058
63	0xbc862d6f	-0.016379086

module.bi_lstm1.bias_hh_l0 f4 [64]
0	0xbc938916	-0.018009704
1	0xbc9f4baa	-0.01944526
2	0x3dab2248	0.08356148
3	0x3d02dfd3	0.031951737
4	0x3c937983	0.018002277
5	0xbd4ab4cd	-0.04948883
6	0xbd250414	-0.040287092
7	0xbd4d8645	-0.050176878
8	0x3d3ce6b1	0.046118442
9	0x3e0c7d52	0.13719681
10	0x3cdc984d	0.026928091
11	0x3d366d37	0.04453775
12	0x3cf904a8	0.030397728
13	0xbc2892ce	-0.010288907
14	0x3d01b491	0.031666342
15	0xbcdbb72d	-0.026820743
16	0xbd11b28c	-0.035570666
17	0xbd151311	-0.036395136
18	0xbc580591	-0.013184921
19	0xbcf5b0e9	-0.029991584
20	0xbcaf40a7	-0.021393133
21	0x3e23ecbb	0.16008274
22	0xbd185059	-0.037186
23	0xbcae6f2b	-0.021293243
24	0xbd1a7844	-0.03771235
25	0x3ca0fe61	0.019652547
26	0x3dce461a	0.100719646
27	0x3b9f7f68	0.004867483
28	0xbcac0c02	-0.02100182
29	0xbc1367ea	-0.008996943
30	0xbc1e9e4d	-0.009681297
31	0xbde9f4cf	-0.11423647
32	0x3d9e2574	0.07721987
33	0x3e02684d	0.127351
34	0x3dec2cd1	0.115319856
35	0x3d5aea29	0.05344597
36	0xbe1a8df8	-0.1509322
37	0x3d6931eb	0.05693237
38	0x3d05c99e	0.03266298
39	0xbc11103d	-0.008853969
40	0xbd2883d2	-0.04114134
41	0xbd62f9ee	-0.055414133
42	0xbd44385e	-0.04790532
43	0xbd701a3c	-0.05861877
44	0x3df2d5a5	0.11857156
45	0xbca743d7	-0.02041809
46	0xbe47c2f6	-0.19507965
47	0xbd1f16b8	-0.038840026
48	0xbc7fd47b	-0.015614624
49	0xbcc668ba	-0.02421986
50	0x3dc96d66	0.09835319
51	0x3d1d8e47	0.038465764
52	0xbdfe5ccd	-0.12420044
53	0x3d885b33	0.0665802
54	0xbd5025b7	-0.050817218
55	0xbcf28837	-0.029605968
56	0xbdf39728	-0.11894065
57	0x3d342c86	0.043987773
58	0xbd32e5bc	-0.043676123
59	0xbb985403	-0.004648687
60	0x3d4c0089	0.049805198
61	0xbc084abd	-0.0083186
62	0x3db5f33b	0.08884283
63	0xbc84e7b4	-0.016223766

module.bi_lstm1.weight_ih_l0_reverse f4 [64, 14]
0	0x3c77ca45	0.015123908
1	0xbccb99dd	-0.024853641
2	0x3d1ac13f	0.03778195
3	0xbc8fec8a	-0.017568845
4	0x3dc9cc69	0.09853441
5	0xbd691319	-0.05690298
6	0xbcc1acf8	-0.023642048
7	0x3a98a0cf	0.0011644604
8	0x3d8e502e	0.06948887
9	0xbccba3ff	-0.024858473
10	0x3dbcaf04	0.09213069
11	0x3d24c2ae	0.040224724
12	0x3d6f1634	0.058370784
13	0x3dc5f197	0.0966522
14	0xbd219bf6	-0.039455377
15	0xbcff4ba2	-0.031163994
16	0xba2e2bdd	-0.00066441094
17	0xbd4710da	-0.048600055
18	0xbb9308f3	-0.004487151
19	0xbd2cff5e	-0.042235725
20	0xbd44af67	-0.04801884
21	0xbd4ae43a	-0.04953406
22	0x3c17274a	0.009225676
23	0xbca9cf2c	-0.02072867
24	0x3d050aed	0.032481123
25	0xbca1acde	-0.01973575
26	0xbd77b204	-0.060472503
27	0xbd898dff	-0.06716537
28	0x3da22872	0.079178706
29	0x3d960dd3	0.073268555
30	0x3dda774f	0.106672876
31	0x3d3a9437	0.045551505
32	0x3dcf048a	0.10108288
33	0x3d41c946	0.04731109
34	0x3d5527f5	0.05204006
35	0x3d404634	0.04694195
36	0x3da7b98a	0.08189686
37	0x3d056808	0.032569915
38	0xbdd967cb	-0.106155
39	0x3d43a0e4	0.04776086
40	0xbd714961	-0.05890787
41	0x3cc01572	0.023447726
42	0x3d603b86	0.054744266
43	0x3dd95ca1	0.10613371
44	0xbd7958f9	-0.060875867
45	0x3e3007ad	0.17190428
46	0x3e0e0f47	0.13873015
47	0x3e39c11b	0.1814007
48	0x3da4e54b	0.08051547
49	0x3c7a98a4	0.015295181
50	0x3e07de75	0.13268454
51	0x3e326355	0.17420705
52	0xbd3a0331	-0.0454132
53	0x3e2b1f07	0.16711055
54	0x3dca5cb1	0.09880961
55	0x3d6cec95	0.05784281
56	0x3dac27bc	0.08406016
57	0x3dad90b6	0.08474867
58	0x3dfd2954	0.12361398
59	0x3d885ff4	0.066589266
60	0x3dcc0b31	0.09963072
61	0xbd1da63b	-0.038488608
62	0xbd58fab5	-0.052973468
63	0xbca0149a	-0.019541074
64	0x3de263a7	0.110541634
65	0xbd857b9b	-0.065177165
66	0x3c998d47	0.018744124
67	0x3dcf33ad	0.10117278
68	0xbd3f8a40	-0.046762705
69	0x3d407d42	0.046994455
70	0x3e5402fd	0.20704265
71	0x3d2d01b1	0.04223794
72	0x3c3e594b	0.011617969
73	0xbc7b4c39	-0.015337997
74	0xbde276c2	-0.110578075
75	0xbe58a2a7	-0.21155797
76	0x3e1b7508	0.15181363
77	0xbda45366	-0.080237195
78	0xbe1c11c2	-0.15241149
79	0xbe773573	-0.24141483
80	0x3e8226f4	0.25420344
81	0x3baf65ab	0.005352696
82	0x3df006fa	0.11720081
83	0x3db05048	0.086090624
84	0x3de4ea1e	0.11177467
85	0x3dbded73	0.092738055
86	0x3dfc81d3	0.123294495
87	0xbdcb0c12	-0.099144116
88	0x3d20484e	0.039131455
89	0xbdf8d9a5	-0.121508874
90	0x3d991d7d	0.074763276
91	0xbdeb6d1a	-0.11495419
92	0x3cdbee2a	0.026846964
93	0xbdf18bc0	-0.11794233
94	0x3e2c15dd	0.16805215
95	0x3dbc89ec	0.09205994
96	0xbd89d672	-0.06730355
97	0xbb8cdeb3	-0.0042990088
98	0xbc08a872	-0.008340942
99	0x3db19978	0.0867185
100	0x3d920681	0.07130147
101	0x3d1e723a	0.038683154
102	0xbd4c664e	-0.049902253
103	0xbcc8a3f9	-0.02449225
104	0xbcef53db	-0.02921479
105	0x3d906b38	0.070517
106	0x3ce6b50e	0.028162505
107	0xbd0f68f0	-0.035012186
108	0xbcaea7fa	-0.021320332
109	0x3e16a62e	0.1471183
110	0xbcb6bf34	-0.02230797
111	0x3c93849d	0.01800757
112	0x3bab9d2a	0.0052372413
113	0x3d439f3c	0.04775928
114	0x3d91187f	0.070847504
115	0xba4755f2	-0.00076040544
116	0x3d8c2230	0.06842458
117	0xbccdf1e3	-0.025139755
118	0xbd2e07ab	-0.04248778
119	0xbd01c3eb	-0.031680983
120	0x3d6b8f06	0.057509445
121	0xbbe12b83	-0.006871642
122	0x3d8563f6	0.06513207
123	0x3c26443f	0.010148107
124	0x3d43b2ad	0.04777782
125	0x3c580f84	0.013187293
126	0x3d2b4cbc	0.041821226
127	0x3cce55d7	0.025187416
128	0x3d0848c2	0.033272512
129	0x3d93f56f	0.07224547
130	0x3ced018d	0.028931404
131	0x3e3fc9a8	0.1872927
132	0x3cf23d07	0.029570116
133	0x3e20c4ec	0.1570012
134	0x3e09b6e5	0.13448675
135	0x3e5ff90b	0.21872346
136	0xbd72f869	-0.059318934
137	0x3d05d465	0.03267326
138	0xbcb3cfd8	-0.021949694
139	0xbd5e20c4	-0.054230466
140	0xbd891714	-0.06693855
141	0x3d59b26a	0.053148665
142	0xbd6fc928	-0.058541447
143	0xbd4333fc	-0.047656998
144	0xbc101ce2	-0.008795949
145	0xbd8f9dbb	-0.070125066
146	0xbe24adb9	-0.16081895
147	0xbd82494a	-0.06361635
148	0x3d936a9d	0.07198069
149	0xbd1eed71	-0.03880066
150	0xbdb5e34e	-0.088812456
151	0xbc274fd5	-0.0102119045
152	0x3d1636cb	0.03667335
153	0xbd91a735	-0.0711197
154	0x3da0c1d9	0.078494735
155	0x3dd64f89	0.10464389
156	0x3dedce8b	0.116116606
157	0x3dbfe7dd	0.09370396
158	0x3d889e4d	0.066708185
159	0xbe3d5d89	-0.18492712
160	0x3e12db33	0.1434143
161	0x3d7c5b76	0.06161066
162	0x3d87cf7c	0.066313714
163	0xbdb8f991	-0.09031976
164	0x3d654933	0.05597801
165	0x3e0df892	0.13864353
166	0xbd9cbab7	-0.076528005
167	0xbbc7b580	-0.0060946345
168	0x3d8241ba	0.063601926
169	0x3da83def	0.08214938
170	0x3d819ba6	0.06328516
171	0x3ab8cda8	0.0014099376
172	0x3d4b8c99	0.04969463
173	0xbd0b2267	-0.033968356
174	0x3de9be36	0.11413233
175	0xbd255e7a	-0.040373303
176	0x3da13012	0.07870497
177	0xbdea021b	-0.11426183
178	0x3d9bba7a	0.07603927
179	0x3d7e43e4	0.062076464
180	0x3d062e72	0.032759137
181	0x3ba41c0a	0.0050082253
182	0xbd8ba864	-0.06819227
183	0xbd5065c4	-0.0508783
184	0xbd89b9c8	-0.06724888
185	0xbd42fe1e	-0.047605626
186	0xbd41b5a0	-0.04729235
187	0xbda2ef19	-0.079557605
188	0xbd3286a0	-0.04358542
189	0xbd8cea70	-0.06880653
190	0xbd453172	-0.048142858
191	0xbd91dcfb	-0.07122227
192	0xbccc89f5	-0.024968127
193	0xbd8a5c87	-0.067559294
194	0xbc6a85ff	-0.014314174
195	0xbca709f1	-0.020390483
196	0x3e017598	0.12642515
197	0x3de93e19	0.11388797
198	0x3de6fc79	0.11278624
199	0x3d81c1bb	0.06335779
200	0x3db6cc45	0.0892568
201	0xbd3e2c08	-0.04642871
202	0x3e04bd8b	0.1296293
203	0x3d8a6ad9	0.06758661
204	0x3d8bb665	0.06821898
205	0xbc4dbb67	-0.012556887
206	0x3d8d205e	0.06890939
207	0x3de30513	0.11084952
208	0x3e12d576	0.14339241
209	0x3da19bc0	0.07891035
210	0xbc6f2b5f	-0.014597743
211	0xbafe80fd	-0.0019417104
212	0x3e10280e	0.1407778
213	0x3dda48c1	0.10658408
214	0x3da22a4e	0.07918225
215	0x3d93e2c4	0.072209865
216	0xbd31a9de	-0.04337489
217	0x3deb2512	0.1148168
218	0x3d8a71be	0.06759976
219	0x3d8c0c27	0.068382554
220	0xbbb78236	-0.005600239
221	0x3dbffec6	0.09374766
222	0x3d8a3d38	0.06749958
223	0xbd841e00	-0.064510345
224	0x3d24ed96	0.040265642
225	0x3a1998c1	0.0005859249
226	0x3d0ea6a8	0.034826905
227	0xbc4e4566	-0.012589788
228	0x3ce6317e	0.028099772
229	0xbd4bbbda	-0.049739696
230	0x3d1e84c4	0.038700834
231	0xbb965b5b	-0.004588527
232	0xbd20c241	-0.039247755
233	0xbd89376b	-0.06700023
234	0xbcb86b9c	-0.02251225
235	0x3da2c946	0.07948546
236	0x3dce413b	0.100710355
237	0x3c2be7c5	0.01049227
238	0x3c0286c4	0.007966701
239	0x3ce1c880	0.027561426
240	0xbc3cab50	-0.011515453
241	0xbcc2d8a0	-0.023784935
242	0x3d474623	0.048650872
243	0xbbaae358	-0.00521509
244	0xbb8e294c	-0.004338419
245	0xbd58ba40	-0.052911997
246	0x3cab869e	0.020938214
247	0xbb220ca6	-0.0024726777
248	0x3caa5802	0.020793919
249	0x3c971ee1	0.018447341
250	0xbd0ffb1d	-0.03515159
251	0xbbf5ad84	-0.0074974913
252	0x3c9f9295	0.019479075
253	0x3d890370	0.06690109
254	0x3dad49f4	0.08461371
255	0x3d641dbe	0.055692427

module.bi_lstm1.weight_hh_l0_reverse f4 [64, 16]
0	0xbca86a04	-0.020558365
1	0xbc84131c	-0.016122393
2	0x3bd4a4fe	0.006489395
3	0x3d9afff0	0.075683475
4	0xbc5d718c	-0.013515841
5	0xbc6a9bb9	-0.014319354
6	0x3d5b07ac	0.053474113
7	0x3be6b701	0.0070408587
8	0xbb2079bb	-0.002448662
9	0x3c8ba123	0.01704461
10	0xbc0d9667	-0.008641816
11	0x3b045161	0.0020190107
12	0x3ce6c235	0.028168777
13	0xbd084e87	-0.033278015
14	0xbd48d77f	-0.049033638
15	0xbd22823a	-0.039674975
16	0x3d403c48	0.04693249
17	0x3cf57141	0.02996123
18	0xbd06ccdd	-0.032910217
19	0xbcc1d528	-0.023661211
20	0x3d1fc6d2	0.03900797
21	0x3d823888	0.06358439
22	0x3cde96f0	0.027171582
23	0x3d10f480	0.035389423
24	0x3d1eefe8	0.03880301
25	0xbd7fa361	-0.06241167
26	0x3c351a92	0.011053698
27	0xbd6f8463	-0.058475863
28	0xbd5a8f93	-0.05335958
29	0x3d4a882d	0.049446274
30	0x3ca4b537	0.020105941
31	0x3d55d71d	0.0522071
32	0xbc7e4bbb	-0.015520985
33	0xbd0096c7	-0.031393792
34	0x3cf945b1	0.03042874
35	0xbceecd38	-0.02915059
36	0x3d004190	0.031312525
37	0xbccc0119	-0.024902867
38	0xbbe13af2	-0.006873482
39	0xba28b9b7	-0.0006436365
40	0xbadac066	-0.0016689419
41	0xbcc0a450	-0.02351585
42	0xbd435f15	-0.0476981
43	0xbb535594	-0.0032247053
44	0x3d56b7f4	0.052421525
45	0xbcea53f9	-0.028604494
46	0x3d71195b	0.05886207
47	0x3c6eaa73	0.014567005
48	0xbd864345	-0.065557994
49	0x3d37adcd	0.044843484
50	0x3d43b6df	0.04778182
51	0xbda9c07f	-0.08288669
52	0x3cff2fe3	0.031150764
53	0x3d07af87	0.03312638
54	0xbe087612	-0.1332629
55	0x3c767e85	0.015044813
56	0xbc3d8f94	-0.011569876
57	0xbe5e359a	-0.21700135
58	0x3d15a953	0.036538433
59	0xbcdfe77b	-0.027332058
60	0xbcca494d	-0.024693156
61	0x3d436c59	0.04771075
62	0xbbc8d8a0	-0.0061293393
63	0x3da9c495	0.08289448
64	0xbbafddd8	-0.005367022
65	0xbc458c3d	-0.012057361
66	0x3d262523	0.04056276
67	0x3ceb0248	0.028687611
68	0xbd704004	-0.0586548
69	0xba68b989	-0.00088777445
70	0x3d02758f	0.031850394
71	0x3d72f53b	0.0593159
72	0x3b226437	0.002477897
73	0xbd046480	-0.032322407
74	0xbbc0d47b	-0.0058847046
75	0xbca7a89e	-0.020466145
76	0xbc58a3c7	-0.013222641
77	0xbca8004b	-0.020507952
78	0x3c744ff0	0.014911637
79	0xbc26fa1a	-0.010191465
80	0x3da053e9	0.078285046
81	0x3c73fbfb	0.01489162
82	0xbd8d5a9d	-0.06902049
83	0x3dfa39de	0.122180685
84	0x3d8be94f	0.068316095
85	0x3e0ebb05	0.1393853
86	0x3e016b9b	0.12638704
87	0x3dc27c9b	0.09496423
88	0x3d612e2f	0.054975685
89	0x3dc004f7	0.09375947
90	0xbdd511ae	-0.10403763
91	0xbd631f04	-0.0554495
92	0xbd77efe5	-0.060531516
93	0x3db8d48a	0.090249136
94	0x3db6b3fc	0.08921048
95	0x3cec0475	0.028810719
96	0x3c3a2e38	0.0113635585
97	0x3b67896c	0.0035329713
98	0x3b8d5873	0.0043135225
99	0x3df560b0	0.11981332
100	0xbb53c3cd	-0.0032312751
101	0x3c775208	0.015095241
102	0x3dc1bcfb	0.09459873
103	0x3cb967e4	0.022632547
104	0x3c9416f1	0.018077346
105	0x3cbbe386	0.02293564
106	0xbbd8cda6	-0.006616312
107	0x3b6a34a8	0.0035736952
108	0xbc6fcda5	-0.014636432
109	0x3aa06f7a	0.0012240254
110	0xbaa2237f	-0.0012370198
111	0xbd1e7749	-0.038687978
112	0x3b6a5775	0.0035757695
113	0x3c8abc8a	0.016935606
114	0xbd134cd9	-0.03596196
115	0xbd336309	-0.04379562
116	0xbd2fe8f4	-0.04294677
117	0x3d8c60c9	0.06854398
118	0x3b365ee7	0.0027827562
119	0x3af54a65	0.0018714188
120	0xbb2bbd2a	-0.002620528
121	0xbd849268	-0.06473237
122	0x3abc83ec	0.0014382578
123	0xbc87d60d	-0.01658156
124	0xbd579fbf	-0.05264258
125	0x3ccd06b8	0.025027618
126	0xbd119b54	-0.035548523
127	0x3c7486b8	0.014924698
128	0xbc0ad340	-0.0084732175
129	0xbc455e17	-0.012046359
130	0xba90dacd	-0.0011051536
131	0x3d622a10	0.055215895
132	0x3c3cb14c	0.01151688
133	0xbc74a911	-0.014932887
134	0x3d2fbc64	0.042904273
135	0x3c213883	0.009840134
136	0x3acf79cb	0.0015829144
137	0x3c9bcef5	0.019019583
138	0xbcd8d062	-0.026466552
139	0xbc8ba833	-0.017047977
140	0x3ca77613	0.020442044
141	0xbc5f4df1	-0.0136294225
142	0xbc182ac4	-0.00928754
143	0xbc88122f	-0.016610233
144	0xbd1e7b02	-0.03869153
145	0xbb46b18f	-0.0030318236
146	0xbdb7f56b	-0.08982357
147	0xbd7241f6	-0.059144937
148	0x3d1e0489	0.038578544
149	0xbdb85cb6	-0.09002058
150	0xbe0d1790	-0.1377852
151	0x3d4cb2db	0.049975257
152	0xbca97f49	-0.020690577
153	0xbd091d16	-0.033475004
154	0xbcef0848	-0.029178753
155	0x3d7a017d	0.061036576
156	0x3d3fd975	0.046838243
157	0xbd534893	-0.051582884
158	0x3d40aabb	0.04703782
159	0xbc4074a5	-0.01174656
160	0x3bea2bc1	0.007146329
161	0x3bf5629f	0.007488563
162	0xbc91e660	-0.017810047
163	0x3d2369f3	0.039895963
164	0x3dd354c5	0.10318903
165	0xbb998391	-0.0046848734
166	0x3c2d3fc2	0.010574283
167	0x3cb6d183	0.0223167
168	0x3d0911c2	0.0334642
169	0x3c167d8a	0.009185204
170	0xbd5fc898	-0.05463466
171	0x3c8da4b0	0.017290443
172	0x3d054b37	0.032542434
173	0x3bb4ffbc	0.00552365
174	0x3da2f9c8	0.07957798
175	0x3c92133f	0.017831443
176	0x3d8abc93	0.06774249
177	0x3d39c9fb	0.04535864
178	0xbdc4ae50	-0.0960356
179	0xbdc86a88	-0.09785944
180	0x3dbded4b	0.09273776
181	0x3e4658f1	0.19369866
182	0x3de47166	0.111544415
183	0x3e04dc7b	0.12974732
184	0x3d87b1bc	0.06625697
185	0xbd8e9676	-0.06962292
186	0x3cd588c6	0.026066195
187	0xbcfb062b	-0.03064259
188	0xbdeda956	-0.11604564
189	0x3da87e86	0.082272574
190	0x3d842a95	0.064534344
191	0x3d3f245a	0.046665527
192	0x3bb9b33f	0.0056671198
193	0x3d565bf9	0.052333806
194	0x3d5d61c4	0.054048315
195	0xbcea4608	-0.028597847
196	0xbc062744	-0.008188073
197	0x3e0244b1	0.12721516
198	0x3d68563c	0.056722865
199	0x3d95f6b9	0.07322449
200	0x3c734733	0.014848518
201	0xbe02472c	-0.12722462
202	0x3d017f30	0.031615436
203	0xbd80ef7c	-0.06295678
204	0xbd870e0a	-0.065944746
205	0x3d971782	0.07377531
206	0x3ca7efdc	0.020500116
207	0x3cc110a1	0.0235675
208	0x3d6f5845	0.05843379
209	0x3d80d645	0.06290869
210	0xbd714fc2	-0.058913954
211	0xbd8c6e9d	-0.06857035
212	0x3d937e18	0.07201785
213	0x3e274c96	0.16337809
214	0x3d1d64b8	0.03842613
215	0x3d9fa56e	0.07795225
216	0x3d89670b	0.06709107
217	0xbe120c8f	-0.14262603
218	0x3d0c5204	0.034257904
219	0xbe076d4c	-0.13225287
220	0xbdf22193	-0.1182281
221	0x3ddbe590	0.10737145
222	0xbc21b193	-0.009868997
223	0x3dc7b36e	0.0975102
224	0xbe074c03	-0.1321259
225	0xbd48bd5b	-0.04900871
226	0x3d873636	0.06602137
227	0x3de69321	0.11258531
228	0xbdbef092	-0.09323229
229	0xbe2f5fc9	-0.17126383
230	0x3cc7205b	0.02430742
231	0x3bf77e45	0.0075528943
232	0xbd9cba81	-0.0765276
233	0x3e740bbc	0.23832601
234	0xbce38b5f	-0.027776418
235	0x3e310cd4	0.1729005
236	0x3dd8fe4a	0.10595377
237	0xbdd2ed34	-0.10299149
238	0xbc717dcd	-0.014739466
239	0xbe08cab1	-0.1335857
240	0x3c9912cf	0.018685726
241	0x3b4d6054	0.0031337934
242	0xbd0048a8	-0.03131929
243	0xbd2dd33f	-0.042437788
244	0x3d5b23d6	0.053500973
245	0x3c5e2a49	0.013559886
246	0x3c963361	0.018335046
247	0xbce2d3a7	-0.027688814
248	0x3d1bd565	0.038045306
249	0xbd7c8314	-0.061648443
250	0xbcbec0d8	-0.023285314
251	0xbb6fa8ea	-0.0036569186
252	0xbd6ac215	-0.057313997
253	0x3c41d0d7	0.011829576
254	0x3d3185bb	0.043340426
255	0x3d9bd0ef	0.0760821

module.bi_lstm1.bias_ih_l0_reverse f4 [64]
0	0x3db9f74d	0.09080372
1	0xbd411566	-0.047139548
2	0x3d6e0db2	0.05811853
3	0xbcec2585	-0.028826484
4	0x3d6ad813	0.05733497
5	0x3ddecb18	0.10878581
6	0x3dd5a650	0.10432112
7	0x3c3dab96	0.011576554
8	0x3ac1b330	0.0014778133
9	0x3d9653bf	0.07340192
10	0x3db51151	0.088411935
11	0x3e13feec	0.14452714
12	0x3dab9f4b	0.08379992
13	0x3aa6091c	0.001266751
14	0x3e149376	0.14509377
15	0x3d908136	0.07055895
16	0x3dff17b0	0.1245569
17	0x3c5b36a4	0.013379727
18	0xbd90166a	-0.07035525
19	0x3df8dae0	0.12151122
20	0x3d5b30be	0.05351328
21	0x3e5a791f	0.21335267
22	0x3d43fc0f	0.047847804
23	0xbdff21e1	-0.12457634
24	0xbc4ee052	-0.012626724
25	0x3e4212ab	0.18952434
26	0xbdb3fd4f	-0.08788549
27	0xbda5ddea	-0.080989674
28	0xbcb6ee8d	-0.022330547
29	0x3d86b4fe	0.0657749
30	0x3c141c79	0.009039992
31	0x3e1809e6	0.14847526
32	0xbe118455	-0.14210637
33	0x3db0f658	0.08640736
34	0x3d93b7af	0.07212769
35	0x3e044c16	0.1291965
36	0xba24e04c	-0.00062895264
37	0xbe1f2b83	-0.15543942
38	0xbc172b4e	-0.009226633
39	0x3da43e43	0.08019688
40	0xbe70f4f6	-0.23530945
41	0x3dd58228	0.10425216
42	0xbe689d3c	-0.2271623
43	0xbb9d3eeb	-0.00479876
44	0x3e3309a5	0.17484148
45	0x3d25ccc2	0.040478475
46	0xbe4a23a2	-0.19740155
47	0x3d6d15fe	0.0578823
48	0x3dbde318	0.0927183
49	0xbd912274	-0.070866495
50	0x3def3df6	0.1168174
51	0x3e455a63	0.19272761
52	0x3def2fc8	0.116790354
53	0x3d464cec	0.048413202
54	0x3d91d893	0.071213864
55	0xbe150037	-0.14550863
56	0x3b946884	0.004529061
57	0x3d88b7ef	0.066757075
58	0x3e0938fb	0.13400643
59	0x3dd7c6f7	0.105359964
60	0x3d5cb5bc	0.053884253
61	0x3d181c5b	0.037136417
62	0x3e2ebcf8	0.17064273
63	0x3d3b10d8	0.04567036

module.bi_lstm1.bias_hh_l0_reverse f4 [64]
0	0x3ddfa1de	0.109195456
1	0xbd303a18	-0.043024153
2	0x3ce2ea2e	0.027699556
3	0xbd7b5e0a	-0.06136898
4	0x3cf6b7b9	0.030116903
5	0x3dd6ccb8	0.10488266
6	0x3d6a25c3	0.05716492
7	0x3d26f958	0.040765136
8	0x3de0c4e8	0.10975057
9	0x3daaa8a7	0.08332949
10	0x3cbc764e	0.02300563
11	0x3dd3471b	0.10316297
12	0x3d7a1908	0.061059028
13	0x3c174a4d	0.009234023
14	0x3e3a9463	0.18220668
15	0xbd946ea8	-0.072476685
16	0x3e1a9445	0.15095623
17	0xbd562237	-0.052278724
18	0xbcb4cb84	-0.0220697
19	0x3e2a8260	0.16651297
20	0xbc6a0ccb	-0.014285277
21	0x3e33b724	0.17550331
22	0x3d446de3	0.04795636
23	0xbdcf73b4	-0.101294905
24	0x3d305bcb	0.04305629
25	0x3e839649	0.25700596
26	0x3e0a5072	0.1350725
27	0xbd054a29	-0.032541428
28	0xbcb877ba	-0.022518028
29	0x3d86d034	0.0658268
30	0x3dfdc641	0.123913296
31	0xbc69aab3	-0.014261889
32	0xbdaabcb3	-0.08336773
33	0xbe0649c0	-0.13114071
34	0x3ca53abe	0.020169612
35	0x3d846cc0	0.06466055
36	0x3df67923	0.12034824
37	0xbda200d0	-0.07910311
38	0x3db096a1	0.0862248
39	0x3dbf5b4c	0.09343585
40	0x3d8889c8	0.06666905
41	0x3e4c97cf	0.19979785
42	0xbe4723d8	-0.19447267
43	0x3d387209	0.045030627
44	0x3de87b02	0.11351587
45	0xbb17990c	-0.0023131995
46	0xbd8a788a	-0.06761272
47	0xbe4708e0	-0.1943698
48	0x3dbe093c	0.09279105
49	0xbd4e06eb	-0.050299566
50	0x3d81d16c	0.06338772
51	0x3d4c3e08	0.049863845
52	0x3d725416	0.05916222
53	0x3e46f628	0.19429839
54	0x3d522c3d	0.05131172
55	0x3ddb94fe	0.107217774
56	0xbcfd6dc4	-0.03093613
57	0xbcb9faf9	-0.02270268
58	0xbdcecb7e	-0.10097407
59	0x3da1bc9d	0.07897303
60	0x3de30712	0.11085333
61	0x3d1ec16e	0.038758688
62	0x3c965f4c	0.018355988
63	0x3c45c514	0.012070913

module.bi_lstm2.weight_ih_l0 f4 [128, 16]
0	0xba95e6fe	-0.0011436639
1	0xbc21049a	-0.009827757
2	0x3bfaccb7	0.0076537984
3	0x3d165004	0.036697403
4	0xbae51c8c	-0.0017479821
5	0xbcb70991	-0.022343429
6	0x3ce13dd4	0.027495302
7	0xbb0c9a6f	-0.0021454354
8	0x3b866ce3	0.004102336
9	0x3c6d9e75	0.014503111
10	0xbc23c4f5	-0.009995689
11	0x3b508a03	0.0031820543
12	0x3bf280ce	0.0074006086
13	0xbcbe8f04	-0.023261555
14	0xbcdfe38e	-0.027330186
15	0xbbb4d921	-0.005519048
16	0x3b87ce5f	0.0041444744
17	0xbbd32b55	-0.0064443746
18	0xbbd94fd0	-0.006631829
19	0xb9c3cb4f	-0.00037344775
20	0xbb338526	-0.0027392595
21	0xbc040b0c	-0.008059274
22	0xbb00fa1e	-0.0019680331
23	0xbbaf01dc	-0.005340798
24	0xb9596c19	-0.00020735002
25	0x3a0b9fae	0.00053262233
26	0xbb1a9851	-0.0023589323
27	0x3b2fac0e	0.0026805433
28	0x3c06ba6e	0.008223159
29	0xbc339095	-0.010959764
30	0x39630640	0.00021650735
31	0x3ae459dd	0.0017421801
32	0xbcbec0f9	-0.023285376
33	0xbc6f03fb	-0.014588351
34	0x3d1c3cf5	0.03814407
35	0x3d22baa9	0.039728794
36	0xbd186443	-0.037204992
37	0xbd84fb32	-0.06493224
38	0xbc188f12	-0.009311454
39	0xbcbda934	-0.023151971
40	0xbcf07038	-0.029350385
41	0x3d198ce5	0.037487883
42	0x3bd2ef4d	0.0064372183
43	0x3cf85dab	0.030318102
44	0x3d3e1d4b	0.046414655
45	0xbd3b6145	-0.04574706
46	0xbc81c415	-0.01584057
47	0xbd0f556c	-0.034993574
48	0x3acd65d9	0.0015670612
49	0xbbb87c2a	-0.005630036
50	0xba377dfb	-0.00069996685
51	0x3c0999f3	0.008398521
52	0xbbaf3e4e	-0.0053480035
53	0xbcfb591b	-0.030682137
54	0x3baf3eef	0.0053480784
55	0xbb91f3c3	-0.0044541075
56	0x3adbf66d	0.0016781815
57	0x3c86d778	0.016460165
58	0xbab619af	-0.0013893152
59	0xb9b8ca98	-0.0003524616
60	0x3c267cb1	0.010161565
61	0xbc747ae1	-0.014921875
62	0x3c3d4c9c	0.01155391
63	0xbaaf11ef	-0.0013356785
64	0xbbf930c9	-0.0076046926
65	0x3afbbfee	0.001920698
66	0x3bd0ca76	0.0063717915
67	0x3a74ff89	0.0009345939
68	0x39e64ea7	0.0004392762
69	0xbc3770ad	-0.011196298
70	0xbb3b3e0f	-0.0028570925
71	0x3a1baa90	0.00059381966
72	0xbbf13acd	-0.007361746
73	0x3bfbcd51	0.0076843877
74	0xba93cfe0	-0.0011277162
75	0xbb6fa3d2	-0.003656615
76	0xba979a1e	-0.0011566316
77	0x3b282d65	0.0025661823
78	0xbbbb1077	-0.00570875
79	0xbb273121	-0.002551146
80	0xbc0c31f3	-0.008556831
81	0xbbe1370b	-0.0068730167
82	0x3c4f75e1	0.012662382
83	0x3cb7f21b	0.022454312
84	0xbc8b845b	-0.017030885
85	0xbc98a7df	-0.018634735
86	0x3c5a35e8	0.013318516
87	0xbbbdc133	-0.0057908534
88	0xbbcb1693	-0.0061977594
89	0x3c82430d	0.015901113
90	0xbbdbcc53	-0.006707707
91	0x3c514cc9	0.012774655
92	0x3c3aa71d	0.011392382
93	0xbc5a7666	-0.013333892
94	0xbca2620a	-0.01982214
95	0xbbde2719	-0.006779563
96	0xbb8a3d85	-0.0042187595
97	0xba6283b7	-0.0008640843
98	0x3b917063	0.0044384464
99	0x3bcc15f3	0.0062282025
100	0xbb8d74e3	-0.0043169125
101	0xbba0e328	-0.0049098916
102	0xba305e9d	-0.00067279657
103	0xbb8b1215	-0.004244099
104	0xbb565063	-0.0032701723
105	0x3be40303	0.006958367
106	0xba83b3ff	-0.001004815
107	0x3b5c6e71	0.0033635164
108	0x3bcaeecb	0.006193017
109	0xbb595d88	-0.0033167321
110	0xbb39d422	-0.00283552
111	0xbb995aa5	-0.004679995
112	0xbcc7d172	-0.024391863
113	0xbb0c4429	-0.0021402931
114	0x3cd12a4b	0.025532862
115	0x3d5b8405	0.0535927
116	0xbcb1f499	-0.021723079
117	0x3cdce4be	0.026964542
118	0x3ca999e2	0.02070326
119	0x3b934c20	0.004495159
120	0xbc87a49a	-0.01655798
121	0xbc1c995f	-0.009558051
122	0x3858388a	5.155107e-05
123	0x3ca02091	0.019546779
124	0x3bc21fb8	0.0059241913
125	0xbb09adca	-0.0021008127
126	0xbd733f92	-0.059386797
127	0xbc566e70	-0.013087854
128	0xbbc766ed	-0.0060852678
129	0xbba55222	-0.0050451914
130	0x3b9588c1	0.0045634215
131	0x3c055795	0.008138557
132	0xbbf581eb	-0.007492294
133	0xbc98d3a9	-0.018655615
134	0xbb4c769a	-0.0031198622
135	0xbc0fc8ee	-0.008775933
136	0xbbd32553	-0.0064436584
137	0x3ca16d8d	0.019705558
138	0xbb07317f	-0.0020628867
139	0x3bcf635d	0.0063289837
140	0x3c3b63ce	0.0114373695
141	0xbc1ebaac	-0.009688061
142	0xbb524a4a	-0.0032087737
143	0xbc10e70b	-0.008844147
144	0xbcc6f864	-0.024288364
145	0xbb779591	-0.0037778358
146	0x3ce55f3a	0.02799951
147	0x3d3c0604	0.045904174
148	0xbcc0f73c	-0.02355539
149	0xbcc6dada	-0.024274278
150	0x3c75a99f	0.014994054
151	0xbbaf45ca	-0.0053488957
152	0xbca1de0b	-0.019759199
153	0x3cdf5f4f	0.027267126
154	0xbc551c31	-0.01300721
155	0x3ce4dd58	0.027937576
156	0x3c630cff	0.013858079
157	0xbc6a74f2	-0.0143101085
158	0xbd457209	-0.048204456
159	0xbc7aeb5b	-0.015314902
160	0xbbe40dfe	-0.006959676
161	0xbb68cfd8	-0.0035524275
162	0x3be6794c	0.0070335027
163	0x3c029ce8	0.00797198
164	0xbc00db48	-0.007864781
165	0xbc87f7c4	-0.016597636
166	0xbb5babc6	-0.0033519133
167	0xbc275458	-0.01021298
168	0xbbee3f40	-0.0072707236
169	0x3c9f7bf4	0.019468285
170	0x38a2442d	7.737461e-05
171	0x3c146b3f	0.009058773
172	0x3c3dbf4b	0.011581252
173	0xbbd158bc	-0.006388752
174	0xbaea6ea1	-0.0017885753
175	0xbc1c0481	-0.009522558
176	0xbc1056ce	-0.008809758
177	0xba139a46	-0.00056305935
178	0x3c24e50b	0.010064374
179	0x3bb7b37d	0.0056061135
180	0xbb9ac84a	-0.0047235833
181	0xbce8c020	-0.028411925
182	0xbbd3fa76	-0.0064690663
183	0xbbdb1f79	-0.0066871014
184	0xbc123b6d	-0.008925301
185	0x3ce2125b	0.027596643
186	0xbbb18332	-0.005417251
187	0x3c013e9e	0.007888464
188	0x3c1204a7	0.008912242
189	0xbc2e770e	-0.010648502
190	0xba106003	-0.0005507471
191	0xbc3303ad	-0.010926169
192	0xbbdceb07	-0.0067418846
193	0x3ae27a87	0.0017278948
194	0x3c091095	0.00836577
195	0x3bdb3a3c	0.0066902917
196	0xbbd9d674	-0.0066478793
197	0xbc789ab0	-0.015173599
198	0xbb35aab3	-0.0027720153
199	0xbb238ba8	-0.0024955068
200	0xbbd3c9a1	-0.006463245
201	0x3c249077	0.010044209
202	0x3c448648	0.011994906
203	0xbb7dfe2e	-0.003875624
204	0x3addc3c8	0.0016919309
205	0xbad493d0	-0.0016218368
206	0xba869c2c	-0.0010269932
207	0xbb83d7a9	-0.0040235114
208	0xbbb13d10	-0.0054088905
209	0xbbca1a54	-0.0061676893
210	0x3a77a2ab	0.00094465417
211	0x3cb78c57	0.022405786
212	0xbc1c19e4	-0.009527657
213	0xbb1926e4	-0.0023369128
214	0x3c4c2aa7	0.012461341
215	0xbb6a8eb9	-0.0035790636
216	0xbb8d474a	-0.004311477
217	0x3c5e2f1e	0.013561038
218	0xbca00417	-0.0195332
219	0x3cdf3170	0.027245253
220	0x3c2932d4	0.01032706
221	0xbaed12aa	-0.0018087227
222	0xbd039d3e	-0.03213238
223	0xbbcaea5a	-0.0061924877
224	0xbc4ff2ce	-0.0126921665
225	0xbbad4f1e	-0.0052889725
226	0x3c47eee9	0.012202957
227	0x3c83c549	0.016085284
228	0xbc6348af	-0.01387231
229	0xbca17aee	-0.019711938
230	0xbba73ea4	-0.005103903
231	0xbc171e91	-0.009223596
232	0xbc50d971	-0.012747155
233	0x3cabd379	0.020974861
234	0x39fa18f2	0.00047702302
235	0x3c0cca81	0.008593203
236	0x3c299d77	0.010352484
237	0xbc310274	-0.0108038075
238	0xbc3e63d6	-0.011620482
239	0xbc33c2ad	-0.010971707
240	0xbd0f6282	-0.035006054
241	0xbbbdf9af	-0.005797587
242	0x3d130d35	0.035901267
243	0x3df8247b	0.12116333
244	0xbd1492c9	-0.036272798
245	0xbd799c70	-0.060940206
246	0x3d42c48f	0.047550734
247	0xbb25f3a3	-0.002532222
248	0xbcb4486c	-0.02200719
249	0x3d91d0d1	0.07119907
250	0xbc7003a7	-0.014649308
251	0x3d913a93	0.0709125
252	0x3d505ed6	0.050871693
253	0xbcdb607f	-0.026779411
254	0xbd91ad18	-0.07113093
255	0xbd341414	-0.04396446

module.bi_lstm2.weight_hh_l0 f4 [128, 32]
0	0x8000894c	-4.9253e-41
1	0x80008ae0	-4.9819e-41
2	0x000089f7	4.9492e-41
3	0x00008af0	4.9841e-41
4	0x80008b65	-5.0005e-41
5	0x80008b3d	-4.9949e-41
6	0x80008eb0	-5.1187e-41
7	0x00008a98	4.9718e-41
8	0x8000890d	-4.9165e-41
9	0x800089c1	-4.9417e-41
10	0x00009064	5.1798e-41
11	0x80008900	-4.9146e-41
12	0x8000ad56	-6.2181e-41
13	0x80008b12	-4.9889e-41
14	0x00008a0f	4.9526e-41
15	0x8000a0bc	-5.766e-41
16	0x00009e83	5.6863e-41
17	0x8000a432	-5.8902e-41
18	0x80008aa7	-4.9739e-41
19	0x0000a788	6.0099e-41
20	0x80008b83	-5.0047e-41
21	0x0000893b	4.9229e-41
22	0x80008bcf	-5.0154e-41
23	0x00007c14	4.4511e-41
24	0x00008c7d	5.0398e-41
25	0x00008972	4.9306e-41
26	0x0000996a	5.5035e-41
27	0x80008b51	-4.9977e-41
28	0x000089d0	4.9438e-41
29	0x00008aea	4.9833e-41
30	0x00008c39	5.0302e-41
31	0x80008a31	-4.9574e-41
32	0x00009112	5.2041e-41
33	0x00008a62	4.9642e-41
34	0x0000931d	5.2774e-41
35	0x80008aec	-4.9836e-41
36	0x00008e08	5.0951e-41
37	0x00008af1	4.9843e-41
38	0x00008a84	4.969e-41
39	0x8002e863	-2.67036e-40
40	0x00009525	5.3503e-41
41	0x00009414	5.312e-41
42	0x00008cd3	5.0518e-41
43	0x80008e56	-5.106e-41
44	0x0000a875	6.0431e-41
45	0x80008d9a	-5.0797e-41
46	0x0000ad29	6.2118e-41
47	0x800088e8	-4.9113e-41
48	0x80008959	-4.9271e-41
49	0x000089c1	4.9417e-41
50	0x000089fd	4.9501e-41
51	0x00008d16	5.0612e-41
52	0x00008c90	5.0424e-41
53	0x00008a6f	4.966e-41
54	0x00008ac5	4.9781e-41
55	0x80008a8e	-4.9704e-41
56	0x80008b32	-4.9934e-41
57	0x00029df4	2.40334e-40
58	0x8000a15c	-5.7885e-41
59	0x00008b4c	4.997e-41
60	0x80008c59	-5.0347e-41
61	0x00008a90	4.9707e-41
62	0x80008de0	-5.0895e-41
63	0x000089ab	4.9386e-41
64	0x80008e02	-5.0943e-41
65	0x000089ad	4.9389e-41
66	0x80009335	-5.2808e-41
67	0x00008bdf	5.0176e-41
68	0x8000ab89	-6.1535e-41
69	0x000093f8	5.3081e-41
70	0x0000a51b	5.9229e-41
71	0x00005f7b	3.4252e-41
72	0x00009e53	5.6796e-41
73	0x000094ab	5.3332e-41
74	0x000097b8	5.4426e-41
75	0x00008a62	4.9642e-41
76	0x80008a54	-4.9623e-41
77	0x00008b94	5.0071e-41
78	0x800088e9	-4.9114e-41
79	0x0000948e	5.3291e-41
80	0x00009de9	5.6647e-41
81	0x00008c14	5.025e-41
82	0x00008af2	4.9844e-41
83	0x80009abf	-5.5512e-41
84	0x80008d0d	-5.06e-41
85	0x80008b8e	-5.0063e-41
86	0x00008d9b	5.0798e-41
87	0x80008ae3	-4.9823e-41
88	0x00008bf1	5.0202e-41
89	0x80008b0d	-4.9882e-41
90	0x80008aba	-4.9766e-41
91	0x00008ae4	4.9825e-41
92	0x00008a04	4.951e-41
93	0x00008ac6	4.9783e-41
94	0x800088c2	-4.906e-41
95	0x00008bf3	5.0204e-41
96	0x80008b56	-4.9984e-41
97	0x00008a6f	4.966e-41
98	0x8000a83f	-6.0355e-41
99	0x00008964	4.9286e-41
100	0x00008dde	5.0892e-41
101	0x800088be	-4.9054e-41
102	0x00008b00	4.9864e-41
103	0x80008b1d	-4.9904e-41
104	0x80008ffb	-5.165e-41
105	0x800089c8	-4.9427e-41
106	0x00008ccb	5.0507e-41
107	0x00008aa9	4.9742e-41
108	0x80008bbb	-5.0126e-41
109	0x8000a0d2	-5.7691e-41
110	0x8000896b	-4.9296e-41
111	0x00008a12	4.953e-41
112	0x00008b74	5.0026e-41
113	0x000089d7	4.9448e-41
114	0x00008a42	4.9598e-41
115	0x000089ae	4.939e-41
116	0x00008aa1	4.973e-41
117	0x00008d44	5.0677e-41
118	0x80008a59	-4.963e-41
119	0x80008c07	-5.0232e-41
120	0x00008ccd	5.051e-41
121	0x0000894e	4.9256e-41
122	0x80009973	-5.5047e-41
123	0x80008b3a	-4.9945e-41
124	0x0000893c	4.923e-41
125	0x80009d2a	-5.638e-41
126	0x00008eb6	5.1195e-41
127	0x00008ac6	4.9783e-41
128	0x80008ac7	-4.9784e-41
129	0x80008a34	-4.9578e-41
130	0x8000891b	-4.9184e-41
131	0x80008b23	-4.9913e-41
132	0x8000894f	-4.9257e-41
133	0x8000898b	-4.9341e-41
134	0x80005210	-2.9438e-41
135	0x80008cb1	-5.047e-41
136	0x80008ae1	-4.982e-41
137	0x800089eb	-4.9476e-41
138	0x000090ce	5.1946e-41
139	0x80008992	-4.9351e-41
140	0x00008dc3	5.0855e-41
141	0x800095d9	-5.3755e-41
142	0x80008c15	-5.0252e-41
143	0x80008ba9	-5.01e-41
144	0x0000898a	4.934e-41
145	0x80008c95	-5.0431e-41
146	0x80008a0c	-4.9522e-41
147	0x0000934e	5.2843e-41
148	0x00008c07	5.0232e-41
149	0x80008b52	-4.9979e-41
150	0x80008977	-4.9313e-41
151	0x000089cc	4.9432e-41
152	0x000088ee	4.9121e-41
153	0x0000894f	4.9257e-41
154	0x80008d60	-5.0716e-41
155	0x00008927	4.9201e-41
156	0x00008aa1	4.973e-41
157	0x80008994	-4.9354e-41
158	0x80008d5e	-5.0713e-41
159	0x80008a3d	-4.959e-41
160	0x80008ba9	-5.01e-41
161	0x80008a67	-4.965e-41
162	0x00008c50	5.0335e-41
163	0x80008a9f	-4.9728e-41
164	0x00008c09	5.0235e-41
165	0x00008a21	4.9551e-41
166	0x8000895e	-4.9278e-41
167	0x00008957	4.9268e-41
168	0x80008b5a	-4.999e-41
169	0x80010e7a	-9.7029e-41
170	0x80008a14	-4.9533e-41
171	0x80008b6f	-5.002e-41
172	0x00008b2e	4.9928e-41
173	0x80008e61	-5.1076e-41
174	0x000088ea	4.9116e-41
175	0x8000a6c4	-5.9824e-41
176	0x00008d48	5.0682e-41
177	0x800090ad	-5.19e-41
178	0x800094c7	-5.3371e-41
179	0x00008bd4	5.0161e-41
180	0x800089bf	-4.9414e-41
181	0x00008c32	5.0293e-41
182	0x00008e19	5.0975e-41
183	0x00008ddb	5.0888e-41
184	0x800088f2	-4.9127e-41
185	0x800091ed	-5.2348e-41
186	0x80008e12	-5.0965e-41
187	0x800089c8	-4.9427e-41
188	0x80008ca6	-5.0455e-41
189	0x80008cb6	-5.0478e-41
190	0x80008aae	-4.9749e-41
191	0x80008b4b	-4.9969e-41
192	0x00008e18	5.0974e-41
193	0x00008a22	4.9553e-41
194	0x00008b4b	4.9969e-41
195	0x00047a5e	4.11239e-40
196	0x0000a822	6.0315e-41
197	0x8000a542	-5.9283e-41
198	0x00008b32	4.9934e-41
199	0x80009084	-5.1842e-41
200	0x00009a0c	5.5262e-41
201	0x00008b30	4.9931e-41
202	0x80008a84	-4.969e-41
203	0x0001be17	1.60027e-40
204	0x000089f1	4.9484e-41
205	0x000094da	5.3398e-41
206	0x000089c0	4.9415e-41
207	0x80008b22	-4.9911e-41
208	0x80009c0d	-5.598e-41
209	0x000089d4	4.9443e-41
210	0x00008a90	4.9707e-41
211	0x80008a54	-4.9623e-41
212	0x80008f43	-5.1393e-41
213	0x80008fcb	-5.1583e-41
214	0x000094df	5.3405e-41
215	0x80008a4d	-4.9613e-41
216	0x80008982	-4.9329e-41
217	0x80008f8b	-5.1494e-41
218	0x80008b1c	-4.9903e-41
219	0x80009052	-5.1772e-41
220	0x00008940	4.9236e-41
221	0x80008fbb	-5.1561e-41
222	0x0000908c	5.1854e-41
223	0x80008bbc	-5.0127e-41
224	0x0000892e	4.9211e-41
225	0x80008aea	-4.9833e-41
226	0x000089e1	4.9462e-41
227	0x00008a2a	4.9564e-41
228	0x80008d86	-5.0769e-41
229	0x00009372	5.2893e-41
230	0x00009da9	5.6558e-41
231	0x80008c00	-5.0223e-41
232	0x00008cd5	5.0521e-41
233	0x800089a6	-4.9379e-41
234	0x8000895b	-4.9274e-41
235	0x8000a292	-5.8319e-41
236	0x00009603	5.3814e-41
237	0x00008b62	5.0001e-41
238	0x000089ee	4.948e-41
239	0x80009698	-5.4023e-41
240	0x000089c3	4.942e-41
241	0x0000933b	5.2816e-41
242	0x00008bb1	5.0112e-41
243	0x800094fd	-5.3447e-41
244	0x80008a50	-4.9617e-41
245	0x00008a9a	4.9721e-41
246	0x0000a376	5.8639e-41
247	0x80009c32	-5.6032e-41
248	0x00009306	5.2742e-41
249	0x000089ea	4.9474e-41
250	0x0000892b	4.9207e-41
251	0x00008a13	4.9532e-41
252	0x00008a7f	4.9683e-41
253	0x00008ccf	5.0513e-41
254	0x00008ecc	5.1226e-41
255	0x00008a74	4.9668e-41
