output/clip/FD004/exp_202411021344_bilstm_clip_ep-0154.pth (torch, 288916 bytes, 66 tensors)

module.bi_lstm1.weight_ih_l0 f4 [64, 14]
0	0xbb237de5	-0.0024946865
1	0xbc2e0d16	-0.010623237
2	0xbc02f103	-0.007992032
3	0xba2fe278	-0.00067094667
4	0xbbf9d74c	-0.0076245423
5	0xbac32b19	-0.0014890163
6	0xbc00eec5	-0.007869427
7	0x39a50525	0.00031475085
8	0xbbc35eff	-0.005962252
9	0xbb62f6ba	-0.0034631924
10	0xbb265a4e	-0.0025383416
11	0xbba63982	-0.0050727734
12	0xba6e6fd9	-0.0009095646
13	0xbbe87a44	-0.0070946533
14	0x3a9b2ea8	0.0011839466
15	0x3c8c3f1b	0.017119935
16	0x3b538caf	0.00322799
17	0x3c340bf8	0.010989182
18	0x3c658d92	0.014010804
19	0x3b8c2ad1	0.004277565
20	0xbb02afd3	-0.0019941225
21	0x3c854298	0.016267106
22	0x3c58d742	0.013234915
23	0x3bd7d266	0.0065863607
24	0x3aceef26	0.0015787825
25	0x3ab639ba	0.0013902702
26	0x3caf7ac9	0.021420853
27	0x3c2860a4	0.010276947
28	0xbdd26b78	-0.10274404
29	0x3d7a53c0	0.061115026
30	0xbdfdd133	-0.12393417
31	0x3dde9f65	0.10870246
32	0xbcb4a48c	-0.022051118
33	0xbcf38402	-0.029726032
34	0xbe196cef	-0.14982961
35	0x3e4f0265	0.20215757
36	0xbd4f504d	-0.05061369
37	0x3d0a26e2	0.033728488
38	0xbe12d960	-0.14340734
39	0xbdb7e65c	-0.089794844
40	0x3e95a9ce	0.29231113
41	0x3e5aa5ed	0.21352358
42	0x3df9f798	0.12205428
43	0x3d869608	0.06571585
44	0x3dbe7288	0.09299189
45	0x3d844c2e	0.064598426
46	0x3d911fd2	0.07086147
47	0x3d300e28	0.04298225
48	0x3d9e6269	0.07733614
49	0x3db6e22d	0.08929858
50	0x3d82737a	0.06369682
51	0x3d52268f	0.051306304
52	0x3e0bf1d9	0.13666476
53	0x3d7d79a0	0.06188357
54	0x3dd1c90d	0.102434255
55	0x3dec468a	0.11536892
56	0x3cd540d7	0.026031895
57	0x3d24f1f2	0.0402698
58	0x3c567262	0.013088794
59	0xbc938abf	-0.018010495
60	0x3d0e21b3	0.034700107
61	0x3bbc78e9	0.0057517183
62	0x3cc80b68	0.024419501
63	0xbb7002cb	-0.0036622758
64	0x3d06dd4f	0.0329259
65	0xbb433fd7	-0.002979269
66	0x3d6b0923	0.05738176
67	0xbc20a8c9	-0.0098058665
68	0x3b20b9e1	0.0024524855
69	0xbb4bb3fc	-0.003108262
70	0x3cf3f364	0.029779144
71	0x3d10764d	0.03526907
72	0x3d256c6f	0.040386613
73	0x3d0f4299	0.03497562
74	0x3cd810d3	0.02637521
75	0x3cb49556	0.022043865
76	0x3d109304	0.035296455
77	0x3d20bc9f	0.039242383
78	0x3cb23d6d	0.021757806
79	0x3d005442	0.031330355
80	0x3d7aa450	0.061191857
81	0x3d4335f2	0.047658868
82	0x3d67dcfa	0.056607224
83	0x3d162d85	0.036664505
84	0x3ce66971	0.02812645
85	0x3dc2f34d	0.09519062
86	0x3d0945c8	0.033513814
87	0x3deb50e4	0.11490038
88	0x3d6f1186	0.05836632
89	0x3d2ee7dd	0.04270159
90	0x3d440096	0.04785212
91	0x3e04fdf8	0.12987506
92	0x3d5a8fcf	0.053359803
93	0x3d7a9657	0.06117853
94	0x3cf01b11	0.029309781
95	0x3db20ba3	0.08693626
96	0x3e1d6406	0.15370187
97	0x3e077717	0.13229023
98	0xbbc1b031	-0.005910896
99	0xbb2eb936	-0.0026660687
100	0xbae8cdcc	-0.0017761528
101	0xbbea0db6	-0.0071427478
102	0x3b208605	0.0024493944
103	0xbb3ba769	-0.002863372
104	0xba5990b0	-0.0008299453
105	0xbbf87774	-0.0075825993
106	0x3ab8a24a	0.0014086452
107	0xbb852cc0	-0.0040641725
108	0xbb52b3fa	-0.0032150731
109	0xbc101c37	-0.008795789
110	0xbbdf71c6	-0.006818983
111	0xbc087eff	-0.0083310595
112	0xbd1e7a53	-0.038690876
113	0xbcf7062f	-0.030154316
114	0xbd219833	-0.03945179
115	0xbc995d12	-0.018721137
116	0xbcd4bbbc	-0.025968425
117	0xbca5242b	-0.020158848
118	0xbd20b21a	-0.03923235
119	0xbc872f60	-0.016502082
120	0xbcd4c0e3	-0.025970882
121	0xbca4c13f	-0.020111678
122	0xbd45c610	-0.04828459
123	0xbd0af553	-0.033925366
124	0xbcb6215c	-0.022232704
125	0xbcb6df90	-0.0223234
126	0x3d427477	0.04747435
127	0x3d81bc0b	0.063346945
128	0x3d9382bc	0.0720267
129	0x3d8a3aa3	0.06749465
130	0x3d844480	0.06458378
131	0x3d327b16	0.043574415
132	0x3d9b0f92	0.07571329
133	0x3d877d4f	0.066156976
134	0x3d513359	0.05107436
135	0x3d588c18	0.05286798
136	0x3da7dd49	0.08196504
137	0x3dbb3693	0.091412686
138	0x3d9ead89	0.07747943
139	0x3d65539d	0.055987943
140	0xbe3a9461	-0.18220665
141	0xbcdff08c	-0.027336381
142	0xbd917956	-0.07103221
143	0xbe0a2672	-0.13491228
144	0xbe183268	-0.14862978
145	0xbd923d56	-0.07140605
146	0xbd3cafa0	-0.046065927
147	0xbd4eb92c	-0.050469562
148	0xbdd2e5b9	-0.10297722
149	0xbd8b2bb0	-0.06795442
150	0xbcf69f07	-0.030105127
151	0x3d256a6a	0.040384687
152	0xbe1e86dc	-0.15481132
153	0xbe14653a	-0.1449174
154	0xbcfe1484	-0.031015642
155	0xbb4bf98a	-0.0031124079
156	0xbc4ed58e	-0.012624158
157	0xbc3a7bd2	-0.01138206
158	0xbb684814	-0.0035443353
159	0xbad13c4c	-0.0015963404
160	0x3ccba1a2	0.024857346
161	0xbcb268b1	-0.021778436
162	0xbc43d6ac	-0.011953037
163	0xbaef7e6e	-0.0018271932
164	0xbc3f824c	-0.01168878
165	0x3b8c6f62	0.004285739
166	0xbc9cf11f	-0.019157944
167	0xbd05a36a	-0.032626547
168	0x3d595c1c	0.053066358
169	0x3c17ad05	0.00925756
170	0x3cf5603b	0.029953113
171	0xbc2b9487	-0.010472423
172	0x3c0dda1d	0.008657959
173	0x3c03f2cb	0.008053492
174	0xbc265560	-0.010152191
175	0x3d3a15d1	0.045430962
176	0x387a2d55	5.9646864e-05
177	0x3b895131	0.004190587
178	0x3d82d017	0.06387346
179	0x3d0163a7	0.031589177
180	0x3d883d9d	0.06652377
181	0x3cde923b	0.027169337
182	0x3ca52856	0.020160835
183	0x3c230d8e	0.009951962
184	0x3ca0957d	0.019602532
185	0x3c98d2a8	0.018655136
186	0x3c71b954	0.014753658
187	0x3c41044e	0.0117808115
188	0xbb22c37b	-0.0024835754
189	0x3c79efdc	0.015254941
190	0x3c5fcc30	0.013659522
191	0x3c82b227	0.01595409
192	0x3d246999	0.04013977
193	0x3c1ac794	0.009446997
194	0x3d25ee27	0.040510323
195	0x3cb4e8fe	0.022083756
196	0x3e369448	0.17830002
197	0x3d92d4f3	0.07169523
198	0x3d9799b9	0.07402367
199	0xbd9cfc39	-0.07665295
200	0x3c5fed0f	0.013667359
201	0x3c6c9ccd	0.014441681
202	0x3e0f69eb	0.14005248
203	0xbd96eaca	-0.07369001
204	0x3d3bdd52	0.045865364
205	0xbca9e6fb	-0.020740023
206	0x3ea308a5	0.31842533
207	0xbca97486	-0.020685446
208	0xbca08055	-0.019592443
209	0xbda2573b	-0.07926794
210	0x3d20241b	0.039096933
211	0x3ca0f2c2	0.019647006
212	0x3ca0c389	0.019624488
213	0xbca87742	-0.020564679
214	0x3cf744e3	0.030184215
215	0x3bd8e7ca	0.0066194283
216	0x3d0956d1	0.03353006
217	0xbca20b74	-0.019780852
218	0x3d01982f	0.031639274
219	0xbbc80e20	-0.0061051995
220	0x3d620a90	0.055185854
221	0xbc4fc6bd	-0.01268166
222	0xbc9392b0	-0.018014282
223	0xbbff7c2b	-0.0077967844
224	0xbc2c0b76	-0.010500779
225	0xbc8837f2	-0.01662824
226	0xbc921a4d	-0.017834807
227	0xbbf5e79c	-0.0075044166
228	0xbc554da5	-0.013019
229	0xbbbd18c7	-0.005770776
230	0xbc78f4e9	-0.01519511
231	0xbbe5db40	-0.007014662
232	0xbc3c7824	-0.011503253
233	0xbbf3e77c	-0.0074433666
234	0xbc3c28da	-0.011484349
235	0xbc5a9efa	-0.013343567
236	0xbc16d11d	-0.00920513
237	0xbc66f903	-0.014097455
238	0xbc822669	-0.015887456
239	0xbaab1411	-0.0013052245
240	0xbc01023d	-0.007874069
241	0x3b702508	0.0036643166
242	0xbaf755bf	-0.0018870159
243	0xbb35ce61	-0.002774142
244	0xbc81086e	-0.01575109
245	0x3c1b6f7c	0.009487029
246	0xbb2a9ed8	-0.002603462
247	0xba2ee4fd	-0.0006671695
248	0xbcbef82d	-0.023311699
249	0xb97c9c2c	-0.00024090771
250	0x3be18db8	0.0068833493
251	0xbbb82976	-0.005620177
252	0x3df54273	0.11975565
253	0xbd07c885	-0.033150215
254	0xbbf99744	-0.007616909
255	0x3e274190	0.16333604

module.bi_lstm1.weight_hh_l0 f4 [64, 16]
0	0x3bca99f0	0.0061829016
1	0x3a1d44b7	0.0005999314
2	0xbc19bb19	-0.009382986
3	0x3c44e1b8	0.012016706
4	0xbb6f4610	-0.0036510266
5	0xbc3f5628	-0.011678256
6	0x3b7dc1c7	0.0038720237
7	0xbb82a020	-0.0039863735
8	0xb9c06f81	-0.0003670417
9	0x3c7606d2	0.0150162745
10	0xbc1eae1a	-0.009685064
11	0x3b8590ec	0.004076114
12	0x3bd3da0e	0.006465203
13	0xbbce1dd7	-0.0062901783
14	0xbc0a4600	-0.008439541
15	0xbb94df9a	-0.004543257
16	0xb993c629	-0.00028185666
17	0xbb48a363	-0.0030614964
18	0xbc5c0135	-0.013428022
19	0xbbe4dde6	-0.00698446
20	0xbacc4df4	-0.0015587197
21	0x3c1da939	0.009622865
22	0x3c9b1c4e	0.018934395
23	0x3aa15318	0.0012308089
24	0x3afa8a7b	0.0019114757
25	0xbc32ea7a	-0.010920161
26	0x3cac1989	0.02100827
27	0xbaa0ed99	-0.0012277841
28	0xbc149bf3	-0.009070384
29	0x3b135236	0.0022479421
30	0xbca78b4c	-0.020452164
31	0xba51691f	-0.00079883815
32	0xbc3b6645	-0.011437957
33	0xba82937a	-0.0009962164
34	0xbe259bc7	-0.16172706
35	0xbbd881a5	-0.0066072517
36	0xbc98bd24	-0.018644877
37	0x3d3c7619	0.046011064
38	0x3dd3b90c	0.10338029
39	0xbc6e161e	-0.01453164
40	0x3bf7b8e9	0.007559885
41	0xbd848730	-0.064710975
42	0xbe0ed7e9	-0.1394955
43	0xbc14f5b1	-0.0090917805
44	0xbd02c7f2	-0.031928964
45	0x3cbaed39	0.022818195
46	0xbb22bd05	-0.0024831903
47	0xbcbbe9c5	-0.022938618
48	0xbc9b648b	-0.018968841
49	0x3a1fd4c1	0.00060970715
50	0xbc8a84d2	-0.016909037
51	0xbd24f982	-0.04027701
52	0x3aa43d06	0.0012530393
53	0x3da6af5e	0.081389174
54	0x3cfd1b8e	0.030896928
55	0x3c015b11	0.007895247
56	0x3a1ea0e5	0.0006051197
57	0xbddff4a5	-0.10935334
58	0xbb4ba6da	-0.0031074793
59	0xbce9e173	-0.028549885
60	0xbc69188c	-0.014227044
61	0x3d4658b4	0.048424438
62	0xbb12b402	-0.0022385125
63	0x3b87c6eb	0.004143586
64	0x3a510538	0.0007973495
65	0x3adf11de	0.0017018875
66	0x3bc8336c	0.0061096456
67	0x3c3569fc	0.011072632
68	0xba8001ac	-0.0009766123
69	0xbc584cc7	-0.013201899
70	0xbc5d8a77	-0.013521782
71	0xb8f7edfc	-0.00011822206
72	0xbb1c74d8	-0.0023873355
73	0x3cda37a4	0.02663786
74	0x3d052e8c	0.032515094
75	0x3b59e666	0.00332489
76	0x3c0a4750	0.008439854
77	0xbb46a89b	-0.00303129
78	0x3c081800	0.008306503
79	0x3b6e3133	0.0036345243
80	0xbb3bc722	-0.0028652628
81	0x3b44bbf9	0.0030019267
82	0xbcb749c6	-0.022374045
83	0x3c381560	0.011235565
84	0x3b30aeed	0.0026959733
85	0x3b83c364	0.004021095
86	0x3b97c1ca	0.0046312558
87	0xb9774454	-0.0002358121
88	0x39d2a0b8	0.00040174066
89	0xbc116b98	-0.00887575
90	0xbc91c26d	-0.017792905
91	0xbb1cb6a2	-0.0023912569
92	0xba62f109	-0.0008657133
93	0x3c075132	0.008259105
94	0x3c659dd3	0.014014679
95	0x3b507b99	0.0031811951
96	0xbbd9b2a0	-0.006643608
97	0xbc35ff1a	-0.011108184
98	0xbd184685	-0.037176628
99	0xbd9203cd	-0.07129631
100	0x3ac816bc	0.0015265564
101	0x3d0d995a	0.034570076
102	0x3d4e9f53	0.050444912
103	0x3bcd4728	0.006264586
104	0x3bb5ae8c	0.0055444892
105	0xbd6571af	-0.05601662
106	0x3d1655f6	0.036703072
107	0xbc2eef97	-0.01067724
108	0xbd37d2b3	-0.044878673
109	0x3c0c79ee	0.008573992
110	0xbcd57b88	-0.02605988
111	0x395df321	0.00021166775
112	0x3b46a537	0.0030310878
113	0xbb33ed30	-0.0027454607
114	0xbb873fb2	-0.004127466
115	0xbc0a2a76	-0.008432975
116	0x3af4f332	0.00186882
117	0xbb8976c5	-0.0041950666
118	0xbbdbb2f1	-0.006704681
119	0xbb3591ea	-0.002770538
120	0xba9babb0	-0.0011876728
121	0x3b8ae03b	0.004238156
122	0x3c001791	0.007818119
123	0x3b895480	0.0041909814
124	0xba54c232	-0.00081160956
125	0xbba9a6c6	-0.0051773516
126	0x3c53b3d8	0.012921296
127	0x3b650801	0.0034947398
128	0x3becc55a	0.0072256746
129	0x3b35dd14	0.002775018
130	0xbc092d22	-0.008372577
131	0x3c04fb13	0.008116501
132	0xbbc4497d	-0.005990206
133	0xbc91a184	-0.017777212
134	0xbbead1e9	-0.0071661365
135	0xbbc6244f	-0.006046809
136	0xbb34b35e	-0.0027572731
137	0x3cbe48c7	0.023228062
138	0x3a3b20df	0.0007138382
139	0x3bf2299c	0.007390214
140	0x3c1c3fef	0.009536727
141	0xbc3cd6a2	-0.011525782
142	0x3a93aea1	0.0011267253
143	0xbb9454cc	-0.00452671
144	0xbbf1b58a	-0.0073763775
145	0xba7ef170	-0.0009725308
146	0xbcaec1db	-0.021332672
147	0x3b1786c5	0.00231211
148	0x3c077982	0.008268716
149	0x3cf2dc10	0.02964595
150	0x3c8c58cf	0.017132191
151	0x3b30fb2e	0.0027005184
152	0x3b0671f3	0.0020514696
153	0xbd32b387	-0.043628242
154	0xbcee66e3	-0.029101795
155	0xbba23671	-0.0049503376
156	0xbc4d76f4	-0.012540568
157	0x3c97a23b	0.018509975
158	0x3cfad771	0.030620309
159	0x3bfa9f21	0.007648364
160	0x3cc9653d	0.024584407
161	0xbcd6bfa8	-0.026214436
162	0x3e2871de	0.16449687
163	0xbe23ee26	-0.16008815
164	0x3c133d9f	0.00898686
165	0xbe02be1d	-0.12767835
166	0xbddfef03	-0.1093426
167	0x3b8a61b2	0.004223072
168	0x3c4bb687	0.012433655
169	0x3e0a08bc	0.13479894
170	0xbdaf2cd3	-0.085534714
171	0x3cb73f7e	0.022369143
172	0x3d5141c2	0.051088102
173	0xbda06722	-0.07832171
174	0x3e83d0de	0.2574529
175	0x3ca117a0	0.019664586
176	0xb9feec7f	-0.0004862286
177	0x3b8aba03	0.0042336
178	0xbca1a624	-0.019732542
179	0x3cffaa3a	0.0312091
180	0x3b1a444a	0.0023539239
181	0xbd0f9283	-0.035051834
182	0xbcb26e3d	-0.021781081
183	0xbb496b1a	-0.0030734004
184	0xba579619	-0.00082239654
185	0x3d5dbca3	0.054134976
186	0xbc85b197	-0.016320033
187	0x3ca25ce6	0.019819688
188	0x3c919cee	0.017775025
189	0xbbfd89b7	-0.007737364
190	0x3d153a98	0.036432832
191	0x3bc1b490	0.0059114173
192	0xbb466cda	-0.0030277283
193	0xbb413847	-0.0029483007
194	0xbd8576c0	-0.065167904
195	0x3c83ccad	0.016088808
196	0xbbbf5081	-0.0058384542
197	0x3cb7de4e	0.02244487
198	0x3c99ca2d	0.018773163
199	0xbba37c3a	-0.004989174
200	0x3bbc06ff	0.0057381387
201	0xbce8d4fa	-0.028421868
202	0xbc841d6c	-0.01612731
203	0xba157b1b	-0.0005702243
204	0x3c0d45b7	0.008622578
205	0x3c676522	0.014123233
206	0x3c8fe1ed	0.017563784
207	0xbb97d838	-0.0046339296
208	0x3b7eacfb	0.0038860429
209	0x3b6ea2c5	0.0036412936
210	0x3c5a2f9b	0.013317014
211	0x3d17e690	0.037085116
212	0xbb2ab840	-0.0026049763
213	0x3b3c7726	0.0028757541
214	0xb8c47438	-9.367656e-05
215	0xb9246fad	-0.00015681861
216	0xbac97443	-0.0015369732
217	0xbb394ed1	-0.0028275738
218	0xbcc79c7c	-0.02436661
219	0x3a8fd7c5	0.0010974339
220	0x3c5d677e	0.013513444
221	0xba9b8f6f	-0.0011868308
222	0xbc63997f	-0.013891577
223	0xbb0ea8ca	-0.0021768087
224	0x3b9bf60b	0.004759555
225	0x3d06cc93	0.03290994
226	0x3e0b3e18	0.13597906
227	0x3dbb01ce	0.091312036
228	0xbc5bbea8	-0.013412155
229	0xbd3df32d	-0.04637449
230	0xbe1e71a3	-0.15473036
231	0xbc899538	-0.016794786
232	0xbc81c2c9	-0.015839951
233	0x3d4d3265	0.050096888
234	0xbda0cab5	-0.07851163
235	0x3c5c856f	0.013459547
236	0x3ddc7efe	0.10766409
237	0x3c41b770	0.01182352
238	0x3e176559	0.14784755
239	0x3aeaafc2	0.0017905163
240	0x3bfe7189	0.0077649993
241	0x3b8b5291	0.004251786
242	0x3c3a49c2	0.011370124
243	0x3c2788df	0.010225504
244	0xbb4ab6d2	-0.0030931723
245	0xbca84a20	-0.020543158
246	0xbcddc66e	-0.027072158
247	0xbb8a61e5	-0.0042230957
248	0xbba13499	-0.0049196
249	0x3cf70711	0.030154737
250	0x3cacfe61	0.021117391
251	0x3c1cbd0c	0.009566557
252	0x3c4d70a0	0.012539059
253	0xbc34c567	-0.0110333925
254	0x3c980629	0.018557625
255	0x39f1e112	0.00046134793

module.bi_lstm1.bias_ih_l0 f4 [64]
0	0xbc694840	-0.014238417
1	0x3cf26489	0.029588955
2	0x3e965a76	0.2936589
3	0x3e5a0d84	0.21294218
4	0x3d3811d9	0.044938896
5	0x3db0aacc	0.08626327
6	0x3e425ef5	0.18981536
7	0xbc1d67a7	-0.009607232
8	0xbd7385ee	-0.059453897
9	0x3e1ffcf8	0.15623844
10	0xbe27f49a	-0.16401902
11	0xbc983391	-0.018579276
12	0x3e02f73f	0.1278963
13	0x3d88eead	0.06686149
14	0x3e0a6724	0.13515908
15	0x3c734f3d	0.014850435
16	0xbccc1f85	-0.024917373
17	0xbc0abedd	-0.008468357
18	0x3e8f91e4	0.28040993
19	0x3e5c48fc	0.21512216
20	0x3c10a9f2	0.008829581
21	0x3c80a1c4	0.015702136
22	0x3d8c2906	0.06843762
23	0xbc469ba0	-0.012122065
24	0xbd07b374	-0.033130124
25	0x3e01851a	0.1264843
26	0x3ecf6ad5	0.40511194
27	0xbd90d38d	-0.070716
28	0x3e4751ed	0.19464846
29	0xbbca6ab1	-0.0061772694
30	0x3e5530d5	0.20819409
31	0xbc51a705	-0.012796168
32	0xbd0134fe	-0.031544678
33	0x3da4e627	0.080517106
34	0x3e05a776	0.13052163
35	0x3cdcfd44	0.026976235
36	0xbe20d80e	-0.15707418
37	0x3e332588	0.17494786
38	0xbd186357	-0.037204113
39	0xbc3f54f4	-0.011677969
40	0xbb0f4833	-0.0021863102
41	0xbe61e660	-0.22060537
42	0xbc49f3f2	-0.0123262275
43	0xbd9ceec5	-0.07662729
44	0x3e6b69c1	0.2298956
45	0x3e365762	0.17806771
46	0xbd9d31ad	-0.076754905
47	0xbe05805e	-0.1303725
48	0xbc82e255	-0.015977064
49	0x3ce39fff	0.027786253
50	0x3e449220	0.19196367
51	0x3dd74e2d	0.10512958
52	0x3d2e32eb	0.042529028
53	0x3da7a522	0.081857935
54	0x3e5e4db6	0.21709332
55	0xbc22835e	-0.009919016
56	0xbd740b15	-0.05958088
57	0x3e2f3de7	0.17113458
58	0x3e12a9ca	0.14322582
59	0xbd0a4217	-0.033754434
60	0x3e0b3f75	0.13598426
61	0x3d8ac7ef	0.067764156
62	0x3e1b1be4	0.15147358
63	0x3c93ece3	0.018057292

module.bi_lstm1.bias_hh_l0 f4 [64]
0	0xbc694840	-0.014238417
1	0x3cf26489	0.029588955
2	0x3e9b8a53	0.3037897
3	0x3e5a1833	0.21298294
4	0x3d375ebb	0.044768076
5	0x3dad0576	0.08448307
6	0x3e425f26	0.18981609
7	0xbc1d67a7	-0.009607232
8	0xbd7385f7	-0.05945393
9	0x3e1fce43	0.15606026
10	0xbe21d4be	-0.15803811
11	0xbc8b3cb7	-0.016996725
12	0x3e02cb9d	0.12772985
13	0x3d88ee9d	0.06686137
14	0x3e0a6f32	0.1351898
15	0x3c734fa1	0.014850528
16	0xbccc1f85	-0.024917373
17	0xbc0abedd	-0.008468357
18	0x3e935191	0.28773168
19	0x3e5c3174	0.2150324
20	0x3c11a965	0.008890484
21	0x3c81f868	0.01586552
22	0x3d8c2b73	0.06844225
23	0xbc469ba0	-0.012122065
24	0xbd07b374	-0.033130124
25	0x3df7fb1e	0.12108444
26	0x3ee020a6	0.4377491
27	0xbd902ae9	-0.070394345
28	0x3e47eeea	0.19524732
29	0xbbca6bb2	-0.006177389
30	0x3e5578dc	0.20846885
31	0xbc51a705	-0.012796168
32	0xbd020ce3	-0.03175057
33	0x3de3aec5	0.11117319
34	0x3dda79bc	0.1066775
35	0x3e0daa94	0.13834602
36	0xbe2859e6	-0.16440544
37	0x3e407938	0.18796241
38	0xbd72e0a6	-0.059296273
39	0xbd17ae3d	-0.0370314
40	0xbda8b0f6	-0.082368776
41	0xbe6967d4	-0.22793514
42	0xbe32d320	-0.1746335
43	0xbdc179c8	-0.09447056
44	0x3e721196	0.23639521
45	0x3e39f0d0	0.18158269
46	0xbe5ab30f	-0.21357368
47	0xbde591e8	-0.1120947
48	0xbc82e255	-0.015977064
49	0x3ce39fff	0.027786253
50	0x3e4a2152	0.19739273
51	0x3dd79741	0.10526896
52	0x3d2d5248	0.042314798
53	0x3d9e1137	0.07718127
54	0x3e5e4ce2	0.21709016
55	0xbc22835e	-0.009919016
56	0xbd740b53	-0.059581112
57	0x3e2fff84	0.17187315
58	0x3e07f42e	0.13276741
59	0xbd12aa81	-0.035807136
60	0x3e0b7356	0.13618216
61	0x3d8ac8a4	0.067765504
62	0x3e1b4060	0.15161276
63	0x3c93ece3	0.018057292

module.bi_lstm1.weight_ih_l0_reverse f4 [64, 14]
0	0xbeb70f33	-0.35753784
1	0xbe4fc332	-0.20289305
2	0xbe89144e	-0.26773304
3	0xbdbe12f7	-0.09280961
4	0xbd8f23c9	-0.06989247
5	0xbd2c50a6	-0.0420691
6	0xbe51efad	-0.20501585
7	0xbe1355ac	-0.1438815
8	0x3c371833	0.011175203
9	0x3d64e6cc	0.055884168
10	0x3c9fcea2	0.01950771
11	0xbebcfe0a	-0.36912566
12	0xbe88572a	-0.26629
13	0xbdde3d92	-0.10851587
14	0x3c96ecb0	0.018423408
15	0x3cc24dcd	0.023718739
16	0x3ca46e9e	0.020072278
17	0x3ccd61ed	0.025071109
18	0x3cd19070	0.025581568
19	0x3c0aca7d	0.0084711285
20	0x3c9ee187	0.01939465
21	0x3c55fd8d	0.0130609395
22	0x3d0be090	0.034149706
23	0x3c5abc91	0.013350622
24	0x3cd4e92b	0.02599009
25	0x3c46cc7b	0.012133713
26	0x3cb4d3e7	0.0220737
27	0x3c46c0fe	0.012130974
28	0x3d89ee13	0.06734862
29	0x3e3bc0b0	0.18335223
30	0x3d9814fb	0.07425877
31	0x3d053ea5	0.032530446
32	0x3df6c70f	0.12049686
33	0x3d821b9f	0.063529246
34	0x3e1374df	0.14400052
35	0x3d038a09	0.032114062
36	0x3e0ee012	0.13952664
37	0x3d7a9531	0.061177436
38	0x3e1fa039	0.15588464
39	0x3db1950d	0.08671007
40	0x3db0fb8a	0.08641727
41	0x3d60cf7d	0.054885376
42	0xbe5e870e	-0.21731207
43	0x3d105d6a	0.035245337
44	0xbe7350b1	-0.2376125
45	0x3e9f85d1	0.3115678
46	0x3c74f169	0.014950135
47	0xbd515506	-0.051106475
48	0xbdda2edb	-0.10653468
49	0x3ea50695	0.32231584
50	0xbda5ab88	-0.080893576
51	0x3dabacee	0.08382593
52	0xbea374b4	-0.31924975
53	0xbe163af1	-0.14670922
54	0x3e3feca3	0.18742613
55	0x3ea28180	0.31739426
56	0x3bc1355c	0.0058962535
57	0x3d427cfe	0.047482483
58	0xbc23f0fd	-0.010006187
59	0x3d6b0069	0.057373438
60	0x3ad20275	0.0016022461
61	0x39c84eeb	0.0003820577
62	0x3c3511a2	0.011051567
63	0x3d3e52ea	0.04646579
64	0x3caa1c84	0.02076555
65	0x3c76a9ba	0.015055114
66	0xbbd008b6	-0.0063486947
67	0x3b2eb988	0.0026660878
68	0x3ced68d7	0.028980656
69	0x3ceeef65	0.029166887
70	0x3e4bf067	0.19915925
71	0x3dac4628	0.08411819
72	0x3de527e1	0.11189247
73	0x3d412fa7	0.047164585
74	0xbcfb529f	-0.030679045
75	0xbcc5cfef	-0.024147002
76	0x3dc552df	0.09634947
77	0x3baa531e	0.0051978966
78	0xbd6a13e7	-0.057147887
79	0xbd28d968	-0.04122296
80	0x3cfb90c6	0.030708682
81	0x3dd5d5cc	0.10441169
82	0x3d08edde	0.033429973
83	0x3d98d32e	0.07462154
84	0x3e63b170	0.22235656
85	0x3e6e9f60	0.23302984
86	0x3dc84b25	0.09779958
87	0xbe3b483d	-0.18289275
88	0x3e338b6f	0.17533658
89	0xbe89e698	-0.26933742
90	0x3e4bc36e	0.1989877
91	0xbeb6a25f	-0.35670754
92	0x3eb3bb6d	0.35103932
93	0xbee85a4f	-0.453814
94	0x3ef4d487	0.47818395
95	0x3d8f5551	0.06998695
96	0xbde28f01	-0.11062432
97	0x3c46decf	0.012138083
98	0xbc625f37	-0.013816646
99	0xbc103a22	-0.008802922
100	0xbc6fc724	-0.014634881
101	0xbc2049d1	-0.009783224
102	0xbc743bf8	-0.014906876
103	0xbbfd995a	-0.007739228
104	0xbc54f55c	-0.012997951
105	0xbc3e4ae5	-0.011614536
106	0xbc569301	-0.013096572
107	0xbc1badb9	-0.009501868
108	0xbc5a53aa	-0.013325611
109	0xbc91c4ac	-0.017793976
110	0xbc5e71a3	-0.013576898
111	0xbc621f83	-0.013801458
112	0xbbc3bd91	-0.005973526
113	0x3e2bf2d8	0.16791856
114	0xbbfd67dd	-0.0077333287
115	0x3a11ce88	0.00055620866
116	0x3da004c1	0.07813407
117	0x3d5a3b8a	0.053279437
118	0x3dc6e234	0.097111136
119	0xbc00f77e	-0.007871507
120	0x3df5afb2	0.11996402
121	0x3d868a24	0.06569317
122	0x3e30e3da	0.17274418
123	0x3b527c2a	0.0032117465
124	0x3d833139	0.06405873
125	0x3cb54f47	0.022132529
126	0xbd843a1d	-0.06456397
127	0xbdd2c744	-0.10291913
128	0x3b0604c6	0.0020449623
129	0xbd930248	-0.071781695
130	0x3d2e0382	0.042483814
131	0x3db0f6e5	0.086408414
132	0x3bd3d481	0.0064645414
133	0x3c930b0a	0.0179496
134	0x3d1750a2	0.03694213
135	0x3da8639d	0.08222125
136	0xbd893de7	-0.0670126
137	0x3ccd20e8	0.025040105
138	0xbcd68dd5	-0.026190678
139	0xbd570729	-0.052497063
140	0xbc386e36	-0.011256745
141	0xbc0d7f3b	-0.008636291
142	0xbc670868	-0.014101125
143	0xbc379578	-0.01120507
144	0xbc6f0f62	-0.01459107
145	0xbc3fb974	-0.01170193
146	0xbc0aea69	-0.008478739
147	0xbc362621	-0.011117489
148	0xbc5ac2fb	-0.013352151
149	0xbc3b690a	-0.0114386175
150	0xbc0ba01a	-0.008522058
151	0xbc55e26e	-0.013054473
152	0xbbe43e6c	-0.006965449
153	0xbc0bd7cc	-0.008535337
154	0x3b274f4d	0.0025529445
155	0x3e72ff7f	0.23730277
156	0x3d350f09	0.04420379
157	0x3d4cf632	0.050039478
158	0x3e1df213	0.15424375
159	0x3e025f84	0.12731749
160	0xbdc8b1cd	-0.09799538
161	0x3e1161c3	0.1419745
162	0x3e48d9d5	0.19614346
163	0x3db2efad	0.08737121
164	0xbdcdffa6	-0.10058527
165	0xbc5f8e4a	-0.013644764
166	0x3c388a90	0.011263505
167	0x3d289991	0.041162077
168	0x3e55b34d	0.20869179
169	0x3e4f519d	0.20245977
170	0x3da426d3	0.08015218
171	0xbe3b4a30	-0.18290019
172	0x3ec2e69b	0.38066563
173	0x3e00273c	0.12514967
174	0x3daaee7a	0.08346267
175	0xbe836470	-0.25662565
176	0x3eb6bc45	0.35690513
177	0x3dffb847	0.1248632
178	0x3e0c550a	0.13704315
179	0xbd6b781d	-0.057487596
180	0xbd9cf7f9	-0.076644845
181	0xbe193f13	-0.14965467
182	0xbc639bbf	-0.013892113
183	0x3c353379	0.011059635
184	0x3c1f4b78	0.009722583
185	0x3c29383d	0.01032835
186	0x3d017d46	0.03161361
187	0xbb5ded65	-0.0033863422
188	0x3d8cddb9	0.06878228
189	0x3d21a195	0.039460737
190	0x3c8939c2	0.016751174
191	0x3c7efdc9	0.015563437
192	0xbc7c4345	-0.015396898
193	0x3d0c5ceb	0.0342683
194	0xbcb67d48	-0.022276536
195	0xbce86cd7	-0.028372211
196	0xbad23c65	-0.0016039727
197	0x3dbf7019	0.09347553
198	0x3bbdfddb	0.005798084
199	0x3d1db8d9	0.038506363
200	0x3d668a57	0.056284275
201	0x3cde000d	0.027099634
202	0x3d5cf953	0.05394871
203	0x3cfecb45	0.031102786
204	0x3d833b0c	0.06407747
205	0x3d0aad0e	0.033856444
206	0x3d3ea996	0.04654845
207	0x3cbabb77	0.022794468
208	0x3d9f6cc9	0.07784421
209	0x3d81c82e	0.06337009
210	0xbcd1ed03	-0.025625711
211	0x3d79482f	0.060859855
212	0xbc9491a9	-0.018135862
213	0x3d92ba12	0.07164396
214	0x3be1d1f7	0.006891485
215	0x3a0faf31	0.00054811226
216	0x3d4ecc66	0.0504879
217	0x3d5a4afa	0.05329416
218	0x3d065261	0.032793406
219	0x3d06553f	0.03279614
220	0x3d3c03af	0.04590195
221	0x3c4666d0	0.012109473
222	0x3d9f5f99	0.07781906
223	0x3d15e5e5	0.036596198
224	0x3e709955	0.23495992
225	0x3df76d02	0.120813385
226	0x3e830821	0.2559214
227	0x3e8d6872	0.27618748
228	0x3e54bfe5	0.20776327
229	0x3e0cae1d	0.13738294
230	0x3e9e9213	0.3097082
231	0x3e415fdf	0.18884228
232	0x3e4d1832	0.20028761
233	0x3e4b5255	0.19855626
234	0x3ee497ee	0.44647163
235	0x3e3dd6f3	0.18539028
236	0x3eb1401b	0.3461922
237	0x3e935a7a	0.28779966
238	0x3cc4f0c7	0.024040593
239	0x3d46421c	0.04840289
240	0x3d2b1f5d	0.041777957
241	0x3d4c7fe7	0.049926665
242	0x3cef5cf3	0.029219126
243	0x3c462f18	0.012096189
244	0x3d1bbde9	0.03802291
245	0x3d03e5b9	0.032201502
246	0x3d182f8e	0.037154727
247	0x3c8d7b32	0.017270658
248	0x3d33558b	0.043782752
249	0x3cf443e3	0.029817527
250	0x3d281e37	0.04104444
251	0x3d0f12fd	0.034930218
252	0xbcfc99b2	-0.030835006
253	0x3da505e6	0.08057766
254	0x3b36b2b7	0.0027877518
255	0xbcd95440	-0.026529431

module.bi_lstm1.weight_hh_l0_reverse f4 [64, 16]
0	0xbe90d91e	-0.28290647
1	0x3dc3d761	0.09562565
2	0xbc9368fa	-0.017994393
3	0x3d99aaef	0.07503306
4	0x3cebfcf3	0.028807139
5	0x3edeafec	0.43493593
6	0x3d1f5f2a	0.038909115
7	0x3bbf7a76	0.005843456
8	0xbc7e861d	-0.015534905
9	0xbecbe046	-0.39819545
10	0x3c48dc19	0.012259507
11	0xbf40cd1e	-0.75312984
12	0xbde638ed	-0.112413265
13	0x3ceb68fb	0.028736582
14	0xbe29003b	-0.16503994
15	0x3d916988	0.071002066
16	0xbca3cd61	-0.019995393
17	0x3994bc0c	0.00028368866
18	0x3ca41ddd	0.020033771
19	0xbc334207	-0.010941035
20	0xbbb10eb6	-0.005403365
21	0x3b95e4c8	0.004574392
22	0xbc4f8469	-0.012665846
23	0xbab0006b	-0.0013427859
24	0xbcacbd33	-0.021086311
25	0x3c6fd655	0.014638503
26	0xbaa707c4	-0.0012743403
27	0x3cb3a581	0.021929504
28	0x3c06729c	0.008206036
29	0x3a74f3af	0.0009344173
30	0xbc2b1a06	-0.010443216
31	0xbc29fac0	-0.010374725
32	0x3d546c8d	0.051861335
33	0x3cac9bbf	0.02107036
34	0xbd10b5f7	-0.035329785
35	0x3cf25cb2	0.029585216
36	0xbb77ccb7	-0.0037811229
37	0xbcd93536	-0.02651463
38	0xbc533764	-0.012891624
39	0xbb0358cf	-0.0020041948
40	0x3c6ddd62	0.014518114
41	0x3d241a82	0.040064342
42	0x3ae4ed97	0.0017465827
43	0xbc4ac138	-0.0123751685
44	0xbc7b83f3	-0.015351283
45	0xbd15a249	-0.03653172
46	0xbbcc9a59	-0.0062439856
47	0x3c1c2f54	0.009532768
48	0xbe988084	-0.2978555
49	0xbe5a5a22	-0.21323445
50	0x3ea47896	0.3212325
51	0xbd86509c	-0.06558344
52	0x3dc9d114	0.098543316
53	0x3e917f86	0.28417605
54	0xbd82ac28	-0.063804924
55	0x3ca5a058	0.02021806
56	0xbe422d2f	-0.18962549
57	0xbf019980	-0.5062485
58	0x3c47891c	0.0121786855
59	0xbe60c288	-0.21949208
60	0x3e8af130	0.27137136
61	0x3e0aaae4	0.13541752
62	0x3d257ed6	0.040404163
63	0xbab9756f	-0.0014149378
64	0xbc931111	-0.017952474
65	0xbc264303	-0.010147813
66	0x3b524428	0.0032084081
67	0xbc97a782	-0.018512491
68	0x3c68387a	0.014173621
69	0x3dcad007	0.09902959
70	0xbd3eced2	-0.046583958
71	0x3bce9292	0.0063040936
72	0xbbdb989b	-0.0067015416
73	0xbd4d8e8b	-0.050184768
74	0x3b6d04f4	0.0036166282
75	0xbd8d3af8	-0.06896013
76	0x3ccaac6f	0.024740426
77	0x3c26ad2d	0.010173124
78	0xbb4cb91d	-0.0031238266
79	0x3c847b4b	0.016172072
80	0x3c01acfa	0.007914776
81	0xbaae796c	-0.0013311333
82	0xbce0fe67	-0.027465058
83	0xbcde8c00	-0.027166367
84	0x3bf80a7b	0.0075696087
85	0xbca0347a	-0.019556273
86	0x3daf5c00	0.085624695
87	0x3b8d5c61	0.004313991
88	0x3c4bfc9f	0.012450366
89	0x3c84734b	0.016168257
90	0x3b90ed4e	0.00442282
91	0x3d6a98e9	0.057274733
92	0xbd2716f1	-0.040793363
93	0x3d2b5ce6	0.04183664
94	0x3cc88ad0	0.024480253
95	0x3c8690c1	0.016426446
96	0xbd8039cb	-0.06261023
97	0xbcbe7bd5	-0.023252407
98	0x3e05d942	0.13071159
99	0x3ebcfb26	0.3691036
100	0xbda0f0fc	-0.07858464
101	0x3de008cf	0.1093918
102	0x3dbcaf2d	0.092131
103	0xbc82241f	-0.015886365
104	0xbe5ff3f8	-0.2187041
105	0xbbbda6a5	-0.005787688
106	0xbc713273	-0.014721501
107	0x3db0760b	0.08616265
108	0x3e5596bb	0.2085828
109	0x3dbd67cb	0.092483126
110	0xbd741cba	-0.05959771
111	0xbe1a391d	-0.1506085
112	0xbbb33bbe	-0.0054697683
113	0x398b85af	0.00026611748
114	0x3b67db5e	0.0035378556
115	0x3add3434	0.001687652
116	0x3a05e955	0.00051083165
117	0x3c920a50	0.017827183
118	0x3b76d6eb	0.0037664722
119	0x3987cb04	0.00025900465
120	0xbb1535ee	-0.002276774
121	0xbc4d8d34	-0.0125458725
122	0xba4b6009	-0.0007758146
123	0xbc09c313	-0.008408326
124	0x3ab3d88b	0.0013721151
125	0x3bf410fd	0.007448314
126	0xbb5da210	-0.003381852
127	0x39bd83ab	0.0003614699
128	0xbda6bc28	-0.08141357
129	0x3d1ab31a	0.03776846
130	0xbb1b42a4	-0.0023690844
131	0x3b37977d	0.0028013878
132	0xbc123c51	-0.008925513
133	0x3d20d971	0.03926987
134	0xbccdc0f6	-0.025116425
135	0xbb2d29e2	-0.002642267
136	0x3ce5e440	0.02806294
137	0xbd868116	-0.0656759
138	0xbaed43d2	-0.0018101877
139	0xbc92379c	-0.017848782
140	0xbd74df5d	-0.05978333
141	0xbbeb7d83	-0.007186593
142	0xbca5bda5	-0.020232031
143	0x3c80db8e	0.015729692
144	0xbe7a553b	-0.24446575
145	0x3de49f88	0.11163241
146	0x3df4162f	0.11918294
147	0xbe0293e3	-0.12751727
148	0xbe030d52	-0.1279805
149	0xbe037fd4	-0.12841731
150	0xbd9dc963	-0.07704427
151	0xbd18db1b	-0.03731833
152	0xbe646d3b	-0.22307293
153	0x3d291496	0.041279398
154	0xbc3a430b	-0.011368523
155	0x3e96accd	0.29428712
156	0xbe100f26	-0.14068279
157	0x3db1672e	0.08662258
158	0xbde735f3	-0.11289587
159	0xbe1e0b82	-0.15434077
160	0xbc4ac7d7	-0.012376747
161	0xbb183e92	-0.0023230654
162	0x3b0938a5	0.0020938304
163	0xbbe915ea	-0.007113208
164	0xba0bbdb4	-0.0005330697
165	0x3c326dde	0.010890452
166	0x3c15880d	0.009126675
167	0xbadd965d	-0.0016905774
168	0xbb708e8e	-0.0036706063
169	0xbc1ffa4d	-0.009764266
170	0x3bad5db1	0.00529071
171	0x3be9f173	0.0071393787
172	0xbbf40883	-0.0074473037
173	0x3bfa5fb7	0.0076408046
174	0x3b9d7b3a	0.0048059495
175	0xb9ddc6e6	-0.00042300596
176	0xbe87b579	-0.2650564
177	0x3c949eb7	0.018142087
178	0xbd83cabc	-0.06435153
179	0xbea516ec	-0.3224405
180	0x3dc0d850	0.09416258
181	0x3ee2c8be	0.4429378
182	0xbdfc9189	-0.12332446
183	0x3cced13c	0.025246255
184	0x3dca4bcc	0.09877738
185	0xbebcb43e	-0.36856264
186	0x3c663eeb	0.014053087
187	0x3daa97fd	0.08329771
188	0xbeba9bce	-0.36446995
189	0x3e138b6c	0.14408654
190	0x3e15e9f0	0.14640021
191	0x3defdef2	0.11712445
192	0x3e09713a	0.13422099
193	0x3bb08c43	0.0053878142
194	0x3d8010e4	0.06253222
195	0x3e0d672f	0.13808893
196	0xbc950035	-0.018188575
197	0xbccfa7eb	-0.025348624
198	0xbd55d99d	-0.052209485
199	0xbc204014	-0.009780902
200	0x3c9a75d3	0.018855011
201	0xbe15e312	-0.14637402
202	0x3ce02e6a	0.027365882
203	0xbdd92169	-0.106020756
204	0x3d46d4b1	0.048542682
205	0x3d46ad0e	0.04850488
206	0xbd6daf45	-0.05802848
207	0x3c9047e5	0.017612407
208	0xbcacc62d	-0.021090591
209	0x3b5bac11	0.0033519308
210	0xbdf9cdcc	-0.12197456
211	0xbcb1f645	-0.021723876
212	0x3d297c35	0.04137822
213	0x3e35d458	0.17756784
214	0x3dd56b9e	0.10420917
215	0x3c6118eb	0.013738851
216	0x3d99a473	0.07502069
217	0xbe2333f1	-0.15937783
218	0x3ab2909e	0.0013623422
219	0xbe444529	-0.19167008
220	0xbca64407	-0.02029611
221	0x3d8acd00	0.06777382
222	0xbc79df3b	-0.015250976
223	0x3d0cf901	0.034417156
224	0x3bfc282a	0.0076952176
225	0xbc41717b	-0.011806841
226	0xbc021d9c	-0.00794163
227	0x3d62f469	0.05540887
228	0x3c244d46	0.010028189
229	0x3d16869c	0.036749467
230	0xbd1834f0	-0.03715986
231	0xbaaa694a	-0.0013001349
232	0x3c879130	0.016548723
233	0xbcaa99c4	-0.020825274
234	0x395cd922	0.00021061723
235	0xbdaa7a7a	-0.08324142
236	0x3d65afbc	0.056075796
237	0xbc07e64b	-0.008294652
238	0xbd325992	-0.043542452
239	0x3c7a985d	0.015295115
240	0xbdd471ce	-0.10373269
241	0x3bccfc75	0.006255681
242	0x3c9fbc1b	0.019498875
243	0xbd6d7853	-0.05797608
244	0xba5edb96	-0.0008501349
245	0x3dd78b7d	0.10524652
246	0xbd299020	-0.041397214
247	0x3b03fb7f	0.0020138917
248	0xbca2ebfa	-0.019887913
249	0xbd93128b	-0.07181271
250	0xbb469c53	-0.003030558
251	0xbc2b9057	-0.010471425
252	0xbc7eabce	-0.015543891
253	0x3c02bcdf	0.007979601
254	0x3a196fab	0.00058531266
255	0x3b8d5312	0.0043128813

module.bi_lstm1.bias_ih_l0_reverse f4 [64]
0	0xbc3ad2b9	-0.011402779
1	0x3d4e606f	0.050384935
2	0x3e37e9d3	0.1796029
3	0x3dc9942a	0.09842713
4	0x3d97f39a	0.0741951
5	0x3d8c44f8	0.06849092
6	0x3d9a8302	0.07544519
7	0xbcb3633b	-0.021897903
8	0x3de06524	0.10956791
9	0x3dc1455b	0.09437057
10	0xbca93a9c	-0.02065783
11	0xbd9e6893	-0.0773479
12	0x3c89bec6	0.0168146
13	0xbc9dc7b6	-0.019260269
14	0x3e018ef5	0.1265219
15	0x3ddddae3	0.10832765
16	0x3f0a6dd7	0.5407385
17	0x3db2c66c	0.08729252
18	0xbc487248	-0.012234278
19	0x3eccf8fb	0.40033707
20	0x3da65cac	0.081231445
21	0x3e6e8038	0.23291099
22	0x3de1ab47	0.11018997
23	0xbcc7d762	-0.024394695
24	0x3e3c1da8	0.18370688
25	0x3ec396c1	0.38200954
26	0xbcc24784	-0.023715742
27	0x3e6bc691	0.23024966
28	0x3d98e645	0.074657954
29	0x3e147a55	0.14499791
30	0x3e030593	0.12795095
31	0x3e2755c2	0.16341308
32	0xbdee3a7f	-0.11632251
33	0xbc80ce0e	-0.015723255
34	0x3e131da5	0.14366777
35	0x3e9064ed	0.28202
36	0x3c9bf17e	0.01903605
37	0xbe5a4593	-0.21315603
38	0xbea942c7	-0.3305876
39	0x3cf8907a	0.03034233
40	0xbe92c707	-0.2866747
41	0x3e7731b8	0.2414006
42	0xbdd8d3a4	-0.10587242
43	0x3cc84cfc	0.024450772
44	0x3eaedd36	0.34153146
45	0xbc32200e	-0.0108719
46	0xbe7f8095	-0.24951394
47	0x3c99ee79	0.01879047
48	0x3ea85307	0.32875845
49	0x3d55420c	0.05206494
50	0x3e455368	0.19270098
51	0x3ebe8bd6	0.3721606
52	0x3da3edad	0.080043174
53	0x3c35cbc9	0.011095949
54	0x3d2d9426	0.042377613
55	0xbcb6e5a3	-0.022326296
56	0x3e2f5964	0.17123944
57	0x3df17a30	0.117908835
58	0xbcab7099	-0.020927714
59	0x3dad4ce3	0.084619306
60	0x3e020958	0.12698877
61	0xbd2cff6d	-0.04223578
62	0x3e20e123	0.15710883
63	0x3e142b02	0.14469531

module.bi_lstm1.bias_hh_l0_reverse f4 [64]
0	0xbbd6bf87	-0.0065535936
1	0x3d4e60a2	0.050385125
2	0x3e373d04	0.1789437
3	0x3da2fb39	0.07958073
4	0x3d96ea9c	0.07368967
5	0x3d89c74e	0.067274675
6	0x3d6444d1	0.05572969
7	0xbcb3628f	-0.021897582
8	0x3e0157d7	0.12631164
9	0x3dccc1b8	0.099978864
10	0xbca942ee	-0.020661797
11	0xbdbd8135	-0.0925316
12	0x3c3b9990	0.011450186
13	0xbc98b389	-0.018640297
14	0x3e0301d6	0.12793669
15	0x3db60ed5	0.08889548
16	0x3f0d97b3	0.553096
17	0x3db2bbca	0.08727224
18	0xbbb04e03	-0.0053803935
19	0x3edbef91	0.42956212
20	0x3da25d55	0.07927958
21	0x3e618c03	0.22026066
22	0x3de1cae9	0.1102503
23	0xbcc7d762	-0.024394695
24	0x3e4eb665	0.20186765
25	0x3eccfa27	0.400346
26	0xbcc24768	-0.02371569
27	0x3e7f3465	0.2492233
28	0x3d98b8aa	0.07457097
29	0x3e147b77	0.14500223
30	0x3e104efc	0.1409263
31	0x3df28431	0.1184162
32	0xbd813574	-0.063090235
33	0xbdef3f13	-0.11681952
34	0x3dde2559	0.10846967
35	0x3e66c932	0.22537687
36	0x3dc051e3	0.09390619
37	0xbe104a89	-0.14090933
38	0xbe7d0b6a	-0.24711385
39	0x3d0e3039	0.034713957
40	0xbd840739	-0.0644669
41	0x3ea9f2c4	0.33193028
42	0xbdcd6815	-0.10029618
43	0x3d92b5d3	0.071635865
44	0x3e93f0db	0.28894696
45	0xbd2f8650	-0.0428527
46	0xbe240551	-0.16017653
47	0xbe20b427	-0.15693723
48	0x3ea854fd	0.3287734
49	0x3d55433a	0.052066065
50	0x3e43ab5e	0.1910834
51	0x3ea0c669	0.31401375
52	0x3da1e6f7	0.07905381
53	0x3dadddb4	0.08489552
54	0x3d0854f7	0.033284154
55	0xbcb6dfb4	-0.022323467
56	0x3e295fb1	0.1654041
57	0x3d7c16fd	0.06154536
58	0xbcaba21f	-0.020951329
59	0x3d97287c	0.07380769
60	0x3e0d56ce	0.13802645
61	0xbd2c408f	-0.042053755
62	0x3e1b32e7	0.15156136
63	0x3e0fe35a	0.14051571

module.bi_lstm2.weight_ih_l0 f4 [128, 16]
0	0xbbb5791c	-0.005538119
1	0xbba66973	-0.0050784885
2	0x3bbfaf82	0.0058497796
3	0xbbb406c6	-0.0054939715
4	0xb8b8c025	-8.8095934e-05
5	0x3bbfc16c	0.005851915
6	0xbb8e8f18	-0.004350554
7	0xbc098530	-0.008393571
8	0x3af2ddec	0.0018529273
9	0x3ab7ba0b	0.0014017237
10	0x3aefe57c	0.0018302645
11	0xbc430f8f	-0.011905565
12	0x38fadc9a	0.00011962019
13	0x3ac04468	0.0014668824
14	0x3b7e415e	0.0038796286
15	0x3b4d3b36	0.003131581
16	0xbb3b1069	-0.0028543717
17	0x38c7fad1	9.535778e-05
18	0x3b98f76a	0.004668166
19	0x38be5892	9.0764035e-05
20	0xbb150e82	-0.0022744243
21	0x3bf5d399	0.007502031
22	0xbbd844d4	-0.006600002
23	0xbb0c5589	-0.0021413288
24	0xba84d432	-0.001013404
25	0xb9dcd107	-0.00042117407
26	0xba3beb44	-0.0007168541
27	0xbc09d75a	-0.00841316
28	0x3aa8c27d	0.0012875345
29	0x3b375012	0.002797131
30	0xbaf1629a	-0.0018416226
31	0xb75846ec	-1.2891116e-05
32	0xbb470295	-0.003036653
33	0x3b4dd9d9	0.0031410365
34	0x3bbd621b	0.0057795173
35	0x3bb3b905	0.0054847025
36	0xbb9bd0b9	-0.0047551063
37	0x3ba2f9ac	0.004973611
38	0xbb669597	-0.0035184377
39	0xbaca88c1	-0.0015452133
40	0xbb1140b4	-0.002216381
41	0xbb5bf9c2	-0.0033565615
42	0xbb02761e	-0.001990683
43	0x391658cb	0.00014338193
44	0x3b2013a8	0.0024425779
45	0x3b460d9b	0.0030220512
46	0xbb1a2004	-0.0023517618
47	0xbbcb1ed3	-0.006198743
48	0x3bed9d79	0.007251438
49	0xbbe979d9	-0.007125121
50	0x3903f0b3	0.00012582801
51	0xbb2ce1c3	-0.0026379682
52	0x3bb6eadf	0.005582198
53	0x3b459ea2	0.0030154367
54	0x3ac688c2	0.0015146958
55	0x39f63521	0.0004696036
56	0x3ba7f3b6	0.005125488
57	0xb9c7248e	-0.00037983473
58	0x3b071228	0.0020610187
59	0xbc16508f	-0.00917448
60	0xbc0ab53f	-0.008466064
61	0x3a564816	0.0008174194
62	0x3c0d2e5e	0.008617012
63	0x3c36e506	0.011163002
64	0x3c92b5c5	0.01790894
65	0xbba79f14	-0.005115399
66	0xbd1ed4dd	-0.03877722
67	0xbbd4a17c	-0.006488977
68	0x3c8b7738	0.017024621
69	0xbc9ad31d	-0.018899495
70	0x3c49af79	0.012309902
71	0x3c2dd402	0.010609629
72	0x3d062f6f	0.03276008
73	0xbab0debc	-0.0013494114
74	0xba269732	-0.00063549273
75	0xbca847ec	-0.020542108
76	0xbc9dfa80	-0.019284487
77	0x3b248aca	0.0025107139
78	0x3cb9266c	0.022601329
79	0x3ca97c24	0.020689078
80	0x38dd006b	0.00010538179
81	0xbb062629	-0.0020469523
82	0xbb92b9d0	-0.004477717
83	0x3bdb4698	0.006691765
84	0x3b3def07	0.0028981583
85	0x3b9c5267	0.0047705653
86	0x3b58f705	0.003310622
87	0x395834c6	0.00020619025
88	0x3baf092e	0.0053416705
89	0x3b4f13fc	0.0031597605
90	0x3ac59877	0.0015075345
91	0xbc47291c	-0.012155797
92	0xbc154bf2	-0.009112345
93	0x3b14e1fa	0.00227177
94	0x3bd96368	0.0066341646
95	0x3b924d31	0.0044647683
96	0xbb8c8129	-0.004287858
97	0x3b3d7353	0.002890785
98	0x3b49bea8	0.0030783806
99	0x3c02702e	0.007961316
100	0xbb475434	-0.003041518
101	0x3a3f6a2c	0.00073018926
102	0x3aaa5def	0.0012997965
103	0x396e96bc	0.00022753602
104	0x3b692cce	0.0035579684
105	0xbbd1808d	-0.0063934983
106	0xb9fb5550	-0.00047938013
107	0xb903c5ca	-0.00012566816
108	0xbb511ca4	-0.003190794
109	0x3ada9d64	0.0016678986
110	0xbac0be2e	-0.0014705115
111	0xbb44ce88	-0.0030030329
112	0xbc44b38d	-0.012005699
113	0x39919a2c	0.00027771422
114	0x3b67f075	0.0035391126
115	0x3b99255c	0.004673643
116	0x3aae9ce7	0.0013321907
117	0x3c785094	0.01515593
118	0xbc029b4f	-0.007971599
119	0x39ed6ea4	0.00045286596
120	0xbbfe27ab	-0.0077561936
121	0xbbe39987	-0.006945792
122	0xb98896aa	-0.00026052195
123	0xbb782580	-0.0037864149
124	0x3ba4acaa	0.005025466
125	0x3bd55c9c	0.006511284
126	0xbc2c48bd	-0.010515389
127	0xbab4bf45	-0.0013789913
128	0x3a72786a	0.00092495105
129	0xbb367361	-0.0027839767
130	0xb906cb55	-0.00012854983
131	0x3c4398ae	0.011938257
132	0x393ca46f	0.00017990333
133	0x3a7a7118	0.00095535954
134	0x3b8883e7	0.0041661146
135	0xb8a5b355	-7.901216e-05
136	0x3bad452b	0.0052877865
137	0x3b291bef	0.0025804003
138	0xb9ee7a35	-0.0004548595
139	0x3ba90e00	0.0051591396
140	0x39e95a53	0.0004450852
141	0xbb53ab0f	-0.0032298004
142	0x3ba8a8b2	0.005147063
143	0x37338a51	1.0701436e-05
144	0xbc73e62d	-0.014886421
145	0x3ad066b3	0.0015899747
146	0x3bdff32d	0.0068344087
147	0xbb903de2	-0.0044019083
148	0xba0ec687	-0.0005446453
149	0x3c3c12f7	0.011479131
150	0xbbf39e18	-0.0074346177
151	0xbc0515cc	-0.008122873
152	0xbbdf9195	-0.0068227747
153	0xbbe436ce	-0.006964541
154	0x3b287c4e	0.0025708857
155	0xbc5633b1	-0.013073848
156	0xbb00337b	-0.0019561935
157	0x3b0ad27a	0.0021182583
158	0x3b2b8a28	0.0026174877
159	0x3a4f4df1	0.00079080375
160	0xbc2faa97	-0.010721824
161	0x388612ed	6.393143e-05
162	0x3b728c24	0.00370098
163	0x3baefdb9	0.0053403047
164	0xbae086e7	-0.0017130048
165	0x3c10e4ae	0.008843584
166	0xbbb09695	-0.0053890445
167	0xbb57223b	-0.00328268
168	0xbbb726e5	-0.0055893534
169	0xbba7d3ad	-0.0051216693
170	0x3b14715c	0.0022650575
171	0xbc12f459	-0.00896939
172	0x3bc16303	0.0059016957
173	0x3ba1fab7	0.0049432176
174	0xbbe2886b	-0.006913235
175	0xbb4fed39	-0.003172709
176	0x3d819406	0.06327061
177	0x3c8a6a4b	0.016896388
178	0x3bfe982c	0.007769605
179	0x3d40fd34	0.047116473
180	0xbc4aa27d	-0.012367842
181	0xbcf6b751	-0.030116709
182	0xbcbc219c	-0.022965245
183	0xbc313d44	-0.0108178295
184	0xbbc1062c	-0.0058906283
185	0x3d271766	0.0407938
186	0xbabb8d2c	-0.001430904
187	0x3d81ef07	0.06344419
188	0x3ced9926	0.02900369
189	0xb90f1eb4	-0.0001364898
190	0xbca9bca6	-0.020719837
191	0xbc1e69aa	-0.009668747
192	0x3beb897c	0.0071880203
193	0xb92c0ed3	-0.0001640872
194	0xba4b1f1b	-0.00077484705
195	0x3b5a5a5a	0.0033318014
196	0x3aaef89e	0.001334924
197	0xbb1c319b	-0.0023833278
198	0x3b4c0019	0.0031127988
199	0x3a618141	0.0008602329
200	0x3c1a1ae8	0.009405829
201	0x3b0ced8d	0.0021503896
202	0xb9000ad8	-0.00012211071
203	0x3af2bf3a	0.0018520125
204	0xbc0c41a8	-0.008560576
205	0xbad5816f	-0.0016289185
206	0x3bcc9b33	0.006244087
207	0xb663b379	-3.3930103e-06
208	0x3ca355dd	0.019938404
209	0x3c040fae	0.008060379
210	0x3ce09ab7	0.027417524
211	0x3c3be916	0.011469146
212	0xbc4eec3c	-0.012629565
213	0xbcc5aef8	-0.024131283
214	0xbcbbbf5c	-0.022918396
215	0x3c11bb08	0.008894689
216	0xbc5f9438	-0.013646178
217	0x3ce43a9b	0.027859977
218	0x3ad61ec9	0.0016336079
219	0x3d12726a	0.035753645
220	0xbb102bda	-0.0021998794
221	0xbb47358b	-0.0030396904
222	0xbc1e4264	-0.009659383
223	0xbc7d869f	-0.015473991
224	0xbbeb654e	-0.0071837073
225	0x3a9a33fe	0.0011764762
226	0x3bd7b598	0.006582927
227	0x3b63dfe2	0.0034770896
228	0xbb1cc934	-0.0023923637
229	0x3ba8684c	0.0051393863
230	0xbb9202dc	-0.0044559073
231	0xba1844cc	-0.00058085914
232	0xb90777ec	-0.00012919278
233	0x3aeb5f37	0.0017957453
234	0xb840e4df	-4.598952e-05
235	0x3b32385f	0.0027194244
236	0x3aa0544a	0.0012232151
237	0x3903a47b	0.00012554407
238	0xba8f46ee	-0.0010931173
239	0xbb4b01ef	-0.0030976494
240	0xbc0dafe3	-0.008647892
241	0x39e1f120	0.00043094996
242	0x3c1e825b	0.009674634
243	0xbb12b247	-0.0022384094
244	0xbaf4ad28	-0.0018667327
245	0x3c8990be	0.016792651
246	0x3a717d40	0.0009212084
247	0xbc056810	-0.008142486
248	0xbc22badc	-0.009932246
249	0x3b9aafb7	0.004720654
250	0x3a3ade1f	0.00071284355
251	0xbc3a6233	-0.011375952
252	0xbb0657f4	-0.0020499201
253	0xbaa9c2c7	-0.0012951725
254	0xb9db26c5	-0.0004179982
255	0xbb0969a1	-0.00209675

module.bi_lstm2.weight_hh_l0 f4 [128, 32]
0	0x8000894c	-4.9253e-41
1	0x80008ae0	-4.9819e-41
2	0x000089f7	4.9492e-41
3	0x00008af0	4.9841e-41
4	0x80008b65	-5.0005e-41
5	0x80008b3d	-4.9949e-41
6	0x80008eb0	-5.1187e-41
7	0x00008a98	4.9718e-41
8	0x8000890d	-4.9165e-41
9	0x800089c1	-4.9417e-41
10	0x00009064	5.1798e-41
11	0x80008900	-4.9146e-41
12	0x8000ad56	-6.2181e-41
13	0x80008b12	-4.9889e-41
14	0x00008a0f	4.9526e-41
15	0x8000a0bc	-5.766e-41
16	0x00009e83	5.6863e-41
17	0x8000a432	-5.8902e-41
18	0x80008aa7	-4.9739e-41
19	0x0000a788	6.0099e-41
20	0x80008b83	-5.0047e-41
21	0x0000893b	4.9229e-41
22	0x80008bcf	-5.0154e-41
23	0x800088e2	-4.9104e-41
24	0x00008c7d	5.0398e-41
25	0x00008972	4.9306e-41
26	0x0000996a	5.5035e-41
27	0x80008b51	-4.9977e-41
28	0x000089d0	4.9438e-41
29	0x00008aea	4.9833e-41
30	0x00008c39	5.0302e-41
31	0x80008a31	-4.9574e-41
32	0x00009112	5.2041e-41
33	0x00008a62	4.9642e-41
34	0x0000931d	5.2774e-41
35	0x80008aec	-4.9836e-41
36	0x00008e08	5.0951e-41
37	0x00008af1	4.9843e-41
38	0x00008a84	4.969e-41
39	0x80034abf	-3.0232e-40
40	0x00009525	5.3503e-41
41	0x00009414	5.312e-41
42	0x00008cd3	5.0518e-41
43	0x80008e56	-5.106e-41
44	0x0000a875	6.0431e-41
45	0x80008d9a	-5.0797e-41
46	0x0000ad29	6.2118e-41
47	0x800088e8	-4.9113e-41
48	0x80008959	-4.9271e-41
49	0x000089c1	4.9417e-41
50	0x000089fd	4.9501e-41
51	0x00008d16	5.0612e-41
52	0x00008c90	5.0424e-41
53	0x00008a6f	4.966e-41
54	0x00008ac5	4.9781e-41
55	0x80008a8e	-4.9704e-41
56	0x80008b32	-4.9934e-41
57	0x0002c951	2.5589e-40
58	0x8000a15c	-5.7885e-41
59	0x00008b4c	4.997e-41
60	0x80008c59	-5.0347e-41
61	0x00008a90	4.9707e-41
62	0x80008de0	-5.0895e-41
63	0x000089ab	4.9386e-41
64	0x80008e02	-5.0943e-41
65	0x000089ad	4.9389e-41
66	0x80009335	-5.2808e-41
67	0x00008bdf	5.0176e-41
68	0x8000ab89	-6.1535e-41
69	0x000093f8	5.3081e-41
70	0x0000a51b	5.9229e-41
71	0x800088e1	-4.9103e-41
72	0x00009e53	5.6796e-41
73	0x000094ab	5.3332e-41
74	0x000097b8	5.4426e-41
75	0x00008a62	4.9642e-41
76	0x80008a54	-4.9623e-41
77	0x00008b94	5.0071e-41
78	0x800088e9	-4.9114e-41
79	0x0000948e	5.3291e-41
80	0x00009de9	5.6647e-41
81	0x00008c14	5.025e-41
82	0x00008af2	4.9844e-41
83	0x80009abf	-5.5512e-41
84	0x80008d0d	-5.06e-41
85	0x80008b8e	-5.0063e-41
86	0x00008d9b	5.0798e-41
87	0x80008ae3	-4.9823e-41
88	0x00008bf1	5.0202e-41
89	0x80008b0d	-4.9882e-41
90	0x80008aba	-4.9766e-41
91	0x00008ae4	4.9825e-41
92	0x00008a04	4.951e-41
93	0x00008ac6	4.9783e-41
94	0x800088c2	-4.906e-41
95	0x00008bf3	5.0204e-41
96	0x80008b56	-4.9984e-41
97	0x00008a6f	4.966e-41
98	0x8000a83f	-6.0355e-41
99	0x00008964	4.9286e-41
100	0x00008dde	5.0892e-41
101	0x800088be	-4.9054e-41
102	0x00008b00	4.9864e-41
103	0x80008b1d	-4.9904e-41
104	0x80008ffb	-5.165e-41
105	0x800089c8	-4.9427e-41
106	0x00008ccb	5.0507e-41
107	0x00008aa9	4.9742e-41
108	0x80008bbb	-5.0126e-41
109	0x8000a0d2	-5.7691e-41
110	0x8000896b	-4.9296e-41
111	0x00008a12	4.953e-41
112	0x00008b74	5.0026e-41
113	0x000089d7	4.9448e-41
114	0x00008a42	4.9598e-41
115	0x000089ae	4.939e-41
116	0x00008aa1	4.973e-41
117	0x00008d44	5.0677e-41
118	0x80008a59	-4.963e-41
119	0x80008c07	-5.0232e-41
120	0x00008ccd	5.051e-41
121	0x0000894e	4.9256e-41
122	0x80009973	-5.5047e-41
123	0x80008b3a	-4.9945e-41
124	0x0000893c	4.923e-41
125	0x80009d2a	-5.638e-41
126	0x00008eb6	5.1195e-41
127	0x00008ac6	4.9783e-41
128	0x80008ac7	-4.9784e-41
129	0x80008a34	-4.9578e-41
130	0x8000891b	-4.9184e-41
131	0x80008b23	-4.9913e-41
132	0x8000894f	-4.9257e-41
133	0x8000898b	-4.9341e-41
134	0x80005208	-2.9427e-41
135	0x80008cb1	-5.047e-41
136	0x80008ae1	-4.982e-41
137	0x800089eb	-4.9476e-41
138	0x000090ce	5.1946e-41
139	0x80008992	-4.9351e-41
140	0x00008dc3	5.0855e-41
141	0x800095d9	-5.3755e-41
142	0x80008c15	-5.0252e-41
143	0x80008ba9	-5.01e-41
144	0x0000898a	4.934e-41
145	0x80008c95	-5.0431e-41
146	0x80008a0c	-4.9522e-41
147	0x0000934e	5.2843e-41
148	0x00008c07	5.0232e-41
149	0x80008b52	-4.9979e-41
150	0x80008977	-4.9313e-41
151	0x000089cc	4.9432e-41
152	0x000088ee	4.9121e-41
153	0x0000894f	4.9257e-41
154	0x80008d60	-5.0716e-41
155	0x00008927	4.9201e-41
156	0x00008aa1	4.973e-41
157	0x80008994	-4.9354e-41
158	0x80008d5e	-5.0713e-41
159	0x80008a3d	-4.959e-41
160	0x80008ba9	-5.01e-41
161	0x80008a67	-4.965e-41
162	0x00008c50	5.0335e-41
163	0x80008a9f	-4.9728e-41
164	0x00008c09	5.0235e-41
165	0x00008a21	4.9551e-41
166	0x8000895e	-4.9278e-41
167	0x00008957	4.9268e-41
168	0x80008b5a	-4.999e-41
169	0x800120d1	-1.03608e-40
170	0x80008a14	-4.9533e-41
171	0x80008b6f	-5.002e-41
172	0x00008b2e	4.9928e-41
173	0x80008e61	-5.1076e-41
174	0x000088ea	4.9116e-41
175	0x8000a6c4	-5.9824e-41
176	0x00008d48	5.0682e-41
177	0x800090ad	-5.19e-41
178	0x800094c7	-5.3371e-41
179	0x00008bd4	5.0161e-41
180	0x800089bf	-4.9414e-41
181	0x00008c32	5.0293e-41
182	0x00008e19	5.0975e-41
183	0x00008ddb	5.0888e-41
184	0x800088f2	-4.9127e-41
185	0x800091ed	-5.2348e-41
186	0x80008e12	-5.0965e-41
187	0x800089c8	-4.9427e-41
188	0x80008ca6	-5.0455e-41
189	0x80008cb6	-5.0478e-41
190	0x80008aae	-4.9749e-41
191	0x80008b4b	-4.9969e-41
192	0x00008e18	5.0974e-41
193	0x00008a22	4.9553e-41
194	0x00008b4b	4.9969e-41
195	0x0004b15b	4.30965e-40
196	0x0000a822	6.0315e-41
197	0x8000a542	-5.9283e-41
198	0x00008b32	4.9934e-41
199	0x80009084	-5.1842e-41
200	0x00009a0c	5.5262e-41
201	0x00008b30	4.9931e-41
202	0x80008a84	-4.969e-41
203	0x0001d76a	1.69112e-40
204	0x000089f1	4.9484e-41
205	0x000094da	5.3398e-41
206	0x000089c0	4.9415e-41
207	0x80008b22	-4.9911e-41
208	0x80009c0d	-5.598e-41
209	0x000089d4	4.9443e-41
210	0x00008a90	4.9707e-41
211	0x80008a54	-4.9623e-41
212	0x80008f43	-5.1393e-41
213	0x80008fcb	-5.1583e-41
214	0x000094df	5.3405e-41
215	0x80008a4d	-4.9613e-41
216	0x80008982	-4.9329e-41
217	0x80008f8b	-5.1494e-41
218	0x80008b1c	-4.9903e-41
219	0x80009052	-5.1772e-41
220	0x00008940	4.9236e-41
221	0x80008fbb	-5.1561e-41
222	0x0000908c	5.1854e-41
223	0x80008bbc	-5.0127e-41
224	0x0000892e	4.9211e-41
225	0x80008aea	-4.9833e-41
226	0x000089e1	4.9462e-41
227	0x00008a2a	4.9564e-41
228	0x80008d86	-5.0769e-41
229	0x00009372	5.2893e-41
230	0x00009da9	5.6558e-41
231	0x80008c00	-5.0223e-41
232	0x00008cd5	5.0521e-41
233	0x800089a6	-4.9379e-41
234	0x8000895b	-4.9274e-41
235	0x8000a292	-5.8319e-41
236	0x00009603	5.3814e-41
237	0x00008b62	5.0001e-41
238	0x000089ee	4.948e-41
239	0x80009698	-5.4023e-41
240	0x000089c3	4.942e-41
241	0x0000933b	5.2816e-41
242	0x00008bb1	5.0112e-41
243	0x800094fd	-5.3447e-41
244	0x80008a50	-4.9617e-41
245	0x00008a9a	4.9721e-41
246	0x0000a376	5.8639e-41
247	0x80009c32	-5.6032e-41
248	0x00009306	5.2742e-41
249	0x000089ea	4.9474e-41
250	0x0000892b	4.9207e-41
251	0x00008a13	4.9532e-41
252	0x00008a7f	4.9683e-41
253	0x00008ccf	5.0513e-41
254	0x00008ecc	5.1226e-41
255	0x00008a74	4.9668e-41
