output/clip/FD004/exp_202411021344_bilstm_clip_ep-0040.pth (torch, 288916 bytes, 66 tensors)

module.bi_lstm1.weight_ih_l0 f4 [64, 14]
0	0xba86563d	-0.001024909
1	0x3c7833e7	0.015149093
2	0xbb583586	-0.0032990887
3	0x3bddcebb	0.006769029
4	0xbb9d9f83	-0.004810275
5	0x3a4eb494	0.00078851846
6	0x3c6bc9dc	0.014391389
7	0x3c114a70	0.008867845
8	0xbbc73170	-0.0060788915
9	0xbb74b3da	-0.0037338645
10	0xbbdc6725	-0.006726163
11	0x3bbb9b0f	0.0057252715
12	0xbc97504a	-0.018470902
13	0xbc086d38	-0.008326821
14	0x3c13aabb	0.009012873
15	0x3b9ad2b9	0.004724827
16	0x3be52d0f	0.006993897
17	0x3c063165	0.0081904875
18	0x3c7ec4b9	0.015549832
19	0x3c9454ad	0.018106783
20	0x3aa8ed3b	0.0012888083
21	0x3c4b224e	0.012398316
22	0x3c6f0b12	0.014590042
23	0x3caf929d	0.021432215
24	0x3c50d668	0.012746431
25	0xb9284710	-0.00016048201
26	0x3c23dff6	0.010002127
27	0x3c2ea12d	0.0106585445
28	0xbd86f972	-0.06590547
29	0x3b326b79	0.0027224703
30	0xbdbed11d	-0.09317229
31	0x3e63b42d	0.222367
32	0x3b4d46e9	0.0031322783
33	0x3d5f1654	0.054464653
34	0xbdcbf63c	-0.09959075
35	0x3e63a97f	0.22232626
36	0xbca59f4c	-0.02021756
37	0x3e04a45b	0.12953322
38	0xbe39d1eb	-0.18146484
39	0xbdba2a92	-0.09090151
40	0x3e6360f7	0.22204958
41	0x3e396ed6	0.18108687
42	0x3db4e092	0.08831896
43	0x3d8925ff	0.066967
44	0x3d964353	0.0733706
45	0xbd4cb084	-0.049973026
46	0x3d38e2c8	0.04513815
47	0x3b6da3b2	0.00362609
48	0x3ddf7d73	0.109125994
49	0xbd06559c	-0.032796487
50	0x3d478af0	0.048716486
51	0xbcbd882d	-0.023136223
52	0x3e141afc	0.14463419
53	0x3d5e22c3	0.05423237
54	0xbcde34be	-0.027124759
55	0xbbb72f7d	-0.005590378
56	0x3d038219	0.032106493
57	0x3d406fd0	0.046981633
58	0x3b4904d3	0.0030673041
59	0xbd4cc7b9	-0.049995158
60	0x3d495565	0.049153704
61	0x3b8cf259	0.004301351
62	0x3d370dc4	0.044690862
63	0xbd5a68b7	-0.05332252
64	0x3d58f0ad	0.0529639
65	0xbc00e735	-0.007867624
66	0x3debdaa3	0.11516311
67	0x3cadfb03	0.021237856
68	0xbd1053e5	-0.035236258
69	0xbc1ee017	-0.009696982
70	0x3d1bd6d1	0.03804666
71	0x3d2bfbed	0.041988302
72	0x3c2c2e16	0.010509035
73	0x3daa4cad	0.08315406
74	0x3d8dc273	0.06921854
75	0x3d00979d	0.03139459
76	0x3d24b797	0.040214147
77	0x3d8c9be6	0.06865673
78	0x3dd0c725	0.10194234
79	0x3d85f5b3	0.06541004
80	0x3db8897e	0.090105996
81	0x3ccc63f6	0.024950009
82	0x3d1f04f5	0.038823087
83	0xbb30f6be	-0.0027002539
84	0x3d68251d	0.05667602
85	0x3d74ad15	0.059735376
86	0x3d3bea68	0.045877844
87	0x3e39ac8a	0.18132225
88	0x3dad2fcb	0.084563814
89	0x3e02357b	0.12715714
90	0x3cbbc139	0.022919284
91	0x3e343d5a	0.17601529
92	0x3d83dbc5	0.06438402
93	0x3e29ecb7	0.16594206
94	0xbd36f319	-0.04466543
95	0x3d21107b	0.039322358
96	0x3e07f71b	0.13277857
97	0x3dbc0201	0.0918007
98	0x3c04147b	0.008061524
99	0x3c491019	0.012271904
100	0x3c0a6c4b	0.008448671
101	0xbbe48d91	-0.006974884
102	0xbb6a8569	-0.0035785085
103	0x3b40823c	0.00293745
104	0x3c9197a9	0.017772513
105	0xbbc4ab0d	-0.006001836
106	0xbba0816c	-0.004898241
107	0xbb31a9a3	-0.0027109168
108	0x3c8c033b	0.017091384
109	0x3c2df412	0.010617273
110	0xbcab28d3	-0.02089349
111	0xbc73522a	-0.014851132
112	0xbd28c009	-0.041198764
113	0x3d0a43ae	0.03375595
114	0xbd171a5a	-0.036890365
115	0x3d907d3f	0.07055139
116	0x3a85382e	0.0010163838
117	0x3c91347e	0.017725226
118	0xbccd2dd4	-0.025046267
119	0x3d82566f	0.06364142
120	0xbc729598	-0.014806174
121	0x3d4b0901	0.049569134
122	0xbd743439	-0.059620116
123	0xbd05357c	-0.03252171
124	0x3d1b47a0	0.037910104
125	0x3c9c3743	0.01906932
126	0x3d0d8646	0.03455188
127	0x3d6e78a8	0.058220536
128	0x3d2577ea	0.040397562
129	0x3dd1ee4f	0.10250532
130	0x3dd6c010	0.10485852
131	0x3d843ff5	0.06457511
132	0x3d9fbc60	0.077996016
133	0x3d45ea53	0.048319172
134	0x3dbcfeba	0.09228273
135	0x3df22b69	0.11824686
136	0x3daf669e	0.085644946
137	0x3d030b7e	0.03199338
138	0x3e086418	0.13319433
139	0x3c94fe45	0.018187651
140	0x3d74afdf	0.059738036
141	0x3d48ccd1	0.049023453
142	0x3da8992f	0.082323425
143	0x3deba730	0.11506498
144	0x3d752c3b	0.059856635
145	0x3d5bf1e4	0.05369748
146	0x3d6d45ad	0.057927776
147	0x3e19a42f	0.15004037
148	0x3d8505fb	0.06495281
149	0x3d55c800	0.052192688
150	0x3d7d06d3	0.061774086
151	0x3d968fed	0.073516704
152	0x3bd47f49	0.0064849
153	0x3d8303d8	0.063972175
154	0x39a9b70f	0.0003237058
155	0x3a15f9e3	0.0005721135
156	0x3d34e7cc	0.04416637
157	0x3b405846	0.002934949
158	0x3cd1f116	0.025627654
159	0x3d0a68c3	0.033791315
160	0xbccd21c5	-0.025040517
161	0xbc417975	-0.011808743
162	0x3d31a8ae	0.043373756
163	0x3d12ba4e	0.035822205
164	0x3cef5d98	0.029219434
165	0xbd823f4e	-0.06359731
166	0x3c813005	0.015769968
167	0x3a940ee3	0.001129594
168	0x3d472552	0.048619576
169	0x3d76cb80	0.060252666
170	0x3d23ee1b	0.040021997
171	0x3d3b75fb	0.04576681
172	0x3d320ebf	0.043471094
173	0x3d338989	0.043832336
174	0x3d572080	0.05252123
175	0x3d512ce0	0.051068187
176	0x3d1ea769	0.038733874
177	0x3d52b969	0.051446352
178	0x3d906f89	0.07052524
179	0x3d31ea1f	0.043436166
180	0x3d47fdcb	0.04882602
181	0x3d542a43	0.051798116
182	0xbc41f169	-0.011837342
183	0xbcb6961f	-0.02228838
184	0xbd3bf00d	-0.045883227
185	0xbc966261	-0.018357458
186	0x3c512ecd	0.012767506
187	0xbd0504fd	-0.03247546
188	0xbcfab685	-0.03060461
189	0xbca2a782	-0.019855265
190	0x3c926624	0.01787097
191	0xbcd053d5	-0.0254306
192	0x3d294cef	0.041333135
193	0xbd114313	-0.035464358
194	0x3cfc7a0e	0.030819919
195	0x3c647b3f	0.0139454
196	0x3d911137	0.070833616
197	0x3d2e08dd	0.04248892
198	0x3cbb1cdc	0.02284091
199	0xbe0bb639	-0.13643731
200	0x3d91e631	0.07123984
201	0x3c330866	0.010927295
202	0x3da89eec	0.08233437
203	0xbe06a8ec	-0.13150376
204	0x3db5857b	0.0886335
205	0xbce045c5	-0.027377019
206	0x3e480edc	0.19536918
207	0x3d1ecf86	0.03877213
208	0xbdb5ca20	-0.08876443
209	0xbd83ab4a	-0.06429155
210	0x3d15e6b5	0.036596972
211	0x3d01ed32	0.031720348
212	0x3cee12db	0.029061725
213	0xbd33852e	-0.043828182
214	0x3cdad693	0.026713645
215	0x3b73431e	0.0037118862
216	0x3d332a74	0.04374166
217	0xbd3e930c	-0.046526954
218	0x3cf5a3a3	0.029985255
219	0xbc5f9b71	-0.0136479
220	0x3dcc5788	0.09977633
221	0x3c96958c	0.018381856
222	0xbd227228	-0.03965965
223	0xbce76c94	-0.028250016
224	0xbbad5d6b	-0.0052906773
225	0x3c258868	0.010103323
226	0x3ac106f4	0.0014726804
227	0x3c7c787e	0.015409587
228	0xbc281fd4	-0.010261495
229	0x3a4262eb	0.00074152526
230	0x3befeb23	0.0073217317
231	0x3c9115e9	0.017710643
232	0xbc218c6a	-0.0098601375
233	0xb7fec4f1	-3.0370868e-05
234	0xbbe2eed6	-0.006925444
235	0x3a92589b	0.0011165323
236	0xba83a658	-0.0010044081
237	0x3c62d355	0.013844331
238	0x3b236018	0.0024929103
239	0xbb87866f	-0.004135899
240	0xbb093bd2	-0.0020940197
241	0x3bb4443d	0.0055012987
242	0x3c3b2743	0.011422935
243	0x3c48be85	0.012252455
244	0xbbc6f8b7	-0.0060721296
245	0x3c07d236	0.008289864
246	0x3c32c93d	0.010912237
247	0x3c82af42	0.01595271
248	0x3b99127e	0.004671394
249	0xbb9d3742	-0.004797847
250	0x3c3550d4	0.011066634
251	0x3be48d46	0.006974849
252	0xbc585414	-0.01320364
253	0xbbc6bbc3	-0.0060648634
254	0xbdc406a1	-0.09571577
255	0x3e7a6157	0.24451195

module.bi_lstm1.weight_hh_l0 f4 [64, 16]
0	0xbb066231	-0.0020505304
1	0xbaa01cee	-0.0012215653
2	0xbbb5ca27	-0.00554778
3	0x3be424c7	0.006962392
4	0xbb0951b6	-0.0020953245
5	0x3baaf522	0.0052172104
6	0x3c3af932	0.011411952
7	0xbabc6efd	-0.0014376339
8	0xb9d83ffb	-0.000412464
9	0x39d80c7a	0.00041208026
10	0x3c8ebb95	0.01742343
11	0x3943e085	0.00018680289
12	0xbad9e0fb	-0.0016622836
13	0xbbb2d72d	-0.00545778
14	0xbb0a36ac	-0.0021089716
15	0xbb32eb93	-0.0027301058
16	0x3ad85d5b	0.0016507314
17	0x380bba32	3.331359e-05
18	0xbc4fc502	-0.012681248
19	0x3c06330a	0.00819088
20	0xbb883a0f	-0.0041573117
21	0x3c3dd17b	0.011585589
22	0x3c76118f	0.015018835
23	0xba9d52ea	-0.001200286
24	0x3ba54fa8	0.005044896
25	0xbc6a1cff	-0.01428914
26	0x3a493830	0.0007675914
27	0xbbdd5630	-0.006754659
28	0xbb0b19e3	-0.0021225146
29	0x3b9a73f3	0.0047135293
30	0xbc006b59	-0.007838094
31	0x38b7921e	8.7533364e-05
32	0x3c89d954	0.016827263
33	0xbc4a3a95	-0.012343069
34	0xbe05c1e8	-0.1306225
35	0x3d499167	0.049210932
36	0xbcb1ef41	-0.02172053
37	0x3d865359	0.06558866
38	0x3e11691c	0.14200252
39	0x3a92a698	0.0011188565
40	0x3d49d9bc	0.049279913
41	0xbdad410b	-0.084596716
42	0xbb82c56f	-0.003990821
43	0xbd054c28	-0.03254333
44	0xbc1e7296	-0.009670874
45	0x3c1e433c	0.009659585
46	0xbd5bfb9a	-0.053706743
47	0xbd46cdc9	-0.048536096
48	0xbbd8d585	-0.0066172504
49	0x3afc58ca	0.0019252535
50	0x3d1da435	0.03848668
51	0xbc85bc7a	-0.016325224
52	0x3b7cd7f2	0.0038580862
53	0xbc19eef1	-0.009395347
54	0xbd4738d0	-0.048638165
55	0x3a158e6f	0.0005705123
56	0xbc83b0bf	-0.01607549
57	0x3bdef942	0.006804616
58	0x3b5ecf95	0.003399824
59	0x3b28fff0	0.0025787316
60	0x3bf1476e	0.0073632514
61	0x3b3a7380	0.002845019
62	0x3c4d2720	0.012521535
63	0x3bc14fdf	0.005899414
64	0xbb5ae151	-0.003339846
65	0x3bc9ac0d	0.0061545433
66	0x3cc5523e	0.024087068
67	0xbba9a81d	-0.0051775114
68	0xbb5e035e	-0.0033876519
69	0xbc97919d	-0.018502051
70	0xbceb0207	-0.02868749
71	0x3b31b944	0.0027118484
72	0xbc20998f	-0.009802236
73	0x3c9359e5	0.017987201
74	0xbc25e165	-0.010124539
75	0x3bb96514	0.0056578014
76	0x3c6907da	0.014223063
77	0x3b1de9e8	0.0024095718
78	0x3c29e674	0.010369886
79	0x3b91f55c	0.004454298
80	0x3b7c9cbd	0.0038545572
81	0xbcb598c2	-0.022167567
82	0xba75efd8	-0.0009381748
83	0x3bdd81bb	0.00675985
84	0x3c3b9fe8	0.011451699
85	0x3d033e9c	0.03204213
86	0x3d75bb0e	0.059992842
87	0xb9e72e9b	-0.00044094477
88	0x3c511516	0.012761375
89	0xbcba30af	-0.022728292
90	0x3dc3313b	0.09530874
91	0x3cb17310	0.021661311
92	0xbd34d00f	-0.044143733
93	0xbcaf89fc	-0.0214281
94	0x3c788879	0.015169256
95	0x3c865ff6	0.01640318
96	0x3b7b267d	0.0038322501
97	0xbd026e93	-0.031843733
98	0xbd9a6d1a	-0.07540341
99	0x3cad32ee	0.02114245
100	0x3c5934bf	0.013257205
101	0x3d2fbda6	0.042905472
102	0x3d9ace24	0.075588495
103	0x3b5e29ad	0.0033899352
104	0x3cdf0c93	0.027227676
105	0xbd420da7	-0.0473763
106	0x3d0d3994	0.03447874
107	0xbcc97c98	-0.024595544
108	0xbd3b4311	-0.045718256
109	0xba113122	-0.00055386324
110	0xbb06039c	-0.0020448929
111	0x3b5d444f	0.003376264
112	0x3a886b78	0.0010408005
113	0x3b228919	0.0024800955
114	0x399b0be4	0.00029572763
115	0xba863a7c	-0.0010240818
116	0x3b7f5cb0	0.0038965158
117	0xbc70a3bb	-0.014687474
118	0xbb0d37d9	-0.002154818
119	0x3ae98f34	0.0017819167
120	0xb9b9ad3a	-0.00035415014
121	0x3c8a3157	0.01686923
122	0xbbe2d3d2	-0.0069222236
123	0x3b3bfcd6	0.0028684638
124	0xba82c5da	-0.0009977177
125	0xbb43499d	-0.0029798516
126	0x3b7f4205	0.0038949263
127	0x3b453a0d	0.0030094415
128	0x3b4148bb	0.0029492814
129	0xbc2c3091	-0.010509626
130	0xbd3d1e39	-0.0461714
131	0x3b9290d6	0.004472832
132	0x3a9cbd82	0.0011958333
133	0x3d1bb7e6	0.038017176
134	0x3d3e6ed4	0.046492413
135	0x3a89b85c	0.0010507214
136	0x3c2567ae	0.01009552
137	0xbd3795ce	-0.0448206
138	0x3c99efcf	0.018791107
139	0xbc9b655f	-0.018969236
140	0xbc739193	-0.014866251
141	0x3b850173	0.0040590107
142	0xbb7d29a6	-0.003862956
143	0xbc0645af	-0.008195325
144	0x3be82826	0.007084864
145	0xbc01d938	-0.007925324
146	0xbb99f578	-0.0046984516
147	0x3b07f956	0.002074798
148	0xba8bf1c4	-0.001067691
149	0x3c720622	0.01477197
150	0x3d26a44a	0.040684022
151	0xb925454a	-0.00015761438
152	0x3c8fbbed	0.017545665
153	0xbcfb1997	-0.03065185
154	0x3d4d403e	0.050110094
155	0x39578382	0.00020552988
156	0xbcce8876	-0.025211554
157	0x3c293728	0.010328092
158	0x3aab4fe6	0.0013070076
159	0x3b355887	0.0027671175
160	0xbc24bdc9	-0.010055014
161	0xbcf8f92c	-0.030392252
162	0xbd729484	-0.059223667
163	0x3ad2091f	0.0016024447
164	0x3cd0b2c0	0.02547586
165	0x3da2798c	0.079333395
166	0x3de3f72a	0.11131127
167	0x3a5071ab	0.0007951508
168	0x3c6b80dd	0.014373985
169	0xbd8abbd0	-0.06774104
170	0x3de0a89c	0.1096966
171	0xbd0edc46	-0.034878038
172	0xbda0b6d6	-0.07847373
173	0xbc75ee1e	-0.015010385
174	0x3c0262e6	0.00795815
175	0x3bc078c4	0.0058737714
176	0x3bf6e01d	0.0075340406
177	0xbb8d554b	-0.004313146
178	0x3b5fc0df	0.003414206
179	0x3adad7c0	0.0016696379
180	0x3b320e53	0.0027169182
181	0xbd88fd90	-0.06688988
182	0xbc50e14b	-0.0127490265
183	0xbaab9418	-0.00130904
184	0x3c081808	0.008306511
185	0x3d85b0f7	0.06527894
186	0xbd549fa9	-0.051910076
187	0x3cb16dd6	0.02165882
188	0x3c0c3bab	0.008559148
189	0xba143013	-0.00056529156
190	0x3b9253a7	0.0044655385
191	0x3c55ee2e	0.013057275
192	0xba1fcd9e	-0.0006096008
193	0xbc20a67a	-0.009805316
194	0xbc81c71a	-0.01584201
195	0x3abd886d	0.0014460214
196	0xbb451165	-0.0030070182
197	0x3c867239	0.016411887
198	0x3c5e791b	0.0135786785
199	0x39c93a86	0.0003838131
200	0x3b74a6d0	0.0037330873
201	0xbcbb8e0a	-0.022894878
202	0xbb3716ce	-0.0027937177
203	0xbc23bcec	-0.009993773
204	0x3aecaf87	0.0018057682
205	0x3c27cc2e	0.010241551
206	0x3b06dfdc	0.0020580208
207	0xbb86a26a	-0.0041087167
208	0x3b9df6fe	0.0048207035
209	0x3b5c5b64	0.003362381
210	0x3cea5d1e	0.028608855
211	0x3b83ad85	0.004018488
212	0xbcaac17b	-0.020844212
213	0xbd53de6b	-0.051725786
214	0xbcd5a46e	-0.026079383
215	0x3b8805a0	0.004151061
216	0xbb5def0c	-0.0033864407
217	0x3d3ef60b	0.046621364
218	0xbd442bed	-0.047893453
219	0x3c0acb01	0.008471251
220	0x3d081a61	0.033228282
221	0xbb02b909	-0.0019946715
222	0xbc560979	-0.013063782
223	0xbc51ce01	-0.012805463
224	0xbc1cc218	-0.00956776
225	0x3af273ec	0.0018497682
226	0x3d924533	0.07142105
227	0xbcb3ea4f	-0.021962313
228	0x3c18b9ba	0.009321624
229	0xbd85a418	-0.06525439
230	0xbd915d50	-0.07097876
231	0x3bc15209	0.005899672
232	0xbcc56b64	-0.02409906
233	0x3d9bd484	0.076088935
234	0x3af57ad9	0.0018728628
235	0x3c8351f3	0.016030287
236	0x3bf227b4	0.007389987
237	0xbaef34f6	-0.0018250037
238	0x3cd6f230	0.02623853
239	0x3c9771e9	0.018486934
240	0xbb8fd3c8	-0.00438926
241	0xbb85124c	-0.004061019
242	0x3cc6c569	0.024264054
243	0xbb3a06ae	-0.002838533
244	0xbb33a09a	-0.0027408958
245	0xbc2458c7	-0.010030932
246	0xbcbfcf0c	-0.023414157
247	0x388067e3	6.122866e-05
248	0xbbc83928	-0.006110329
249	0x3c5d13bc	0.013493475
250	0xbc36a4c2	-0.01114768
251	0x3b0c03b3	0.002136451
252	0x3bf31ec9	0.0074194414
253	0x3bbe178d	0.0058011473
254	0x3ad67f30	0.0016364809
255	0xbb656031	-0.0034999961

module.bi_lstm1.bias_ih_l0 f4 [64]
0	0xbd14ff6a	-0.036376394
1	0x3c99bd14	0.018766917
2	0x3e05b70d	0.1305811
3	0x3d560fa6	0.052261017
4	0x3d8f2ac4	0.06990579
5	0x3d3e10d9	0.046402786
6	0x3ded7b5c	0.115957946
7	0xbc2fb167	-0.010723448
8	0x3caa1978	0.020764098
9	0x3e3344fa	0.17506781
10	0xbc477987	-0.0121749705
11	0xbb06fdaf	-0.0020597985
12	0x3de094df	0.10965895
13	0x3d3830d2	0.044968434
14	0xbbd6e810	-0.0065584257
15	0x3c7a43ce	0.015274955
16	0xbc73738b	-0.014859091
17	0x3c146310	0.009056821
18	0x3dcae2ef	0.099065654
19	0x3d8c0b10	0.068380475
20	0xb9851eed	-0.00025390778
21	0x3e1f14e4	0.15535313
22	0xbcd151a0	-0.025551617
23	0xbce4f4db	-0.027948787
24	0x3c8a4902	0.016880516
25	0x3e17b9bc	0.14816946
26	0x3d906e7b	0.070523225
27	0xbcf035aa	-0.029322464
28	0x3c8b4dbb	0.017004838
29	0xbd025692	-0.03182084
30	0xbc76e91a	-0.015070224
31	0x3c738ab1	0.01486461
32	0x3d5a5112	0.05329997
33	0x3d397087	0.04527333
34	0x3e25b3ed	0.16181917
35	0xbd9877c3	-0.07444718
36	0xbe2a1115	-0.16608079
37	0x3ad2acbe	0.001607321
38	0xbbcdb495	-0.0062776306
39	0x3d9755ce	0.07389413
40	0x3d26978a	0.040671863
41	0xbcea2008	-0.028579727
42	0x3da388d4	0.07985082
43	0xbceab883	-0.028652435
44	0x3e2a6e5c	0.16643661
45	0x3df6f098	0.12057608
46	0xbd1137b7	-0.035453524
47	0xbdffb927	-0.12486487
48	0xbcf19901	-0.029491903
49	0x3c9af359	0.018914865
50	0x3e154c62	0.14579919
51	0x3d417463	0.047230136
52	0x3d000ca9	0.031262074
53	0x3deb3c90	0.11486161
54	0x3dffe5d6	0.124950096
55	0xbc2ba6ad	-0.01047675
56	0xbba8501f	-0.0051365043
57	0x3d904e41	0.07046176
58	0x3cabd789	0.020976799
59	0x3d139a29	0.03603569
60	0x3ddd5b93	0.10808482
61	0x3d0e6455	0.034763653
62	0x399f0330	0.00030329218
63	0x3ca03d4d	0.01956048

module.bi_lstm1.bias_hh_l0 f4 [64]
0	0xbcd5a853	-0.02608124
1	0x3c99bcdb	0.018766811
2	0x3e250db3	0.16118507
3	0x3d85d63e	0.06535004
4	0x3d562fa2	0.05229152
5	0xbd4652f1	-0.048418943
6	0x3dedb793	0.1160728
7	0xbc34c4fd	-0.011033294
8	0x3c963300	0.018334866
9	0x3e23d2f5	0.15998442
10	0x3bd9294a	0.0066272365
11	0x3d3cd797	0.04610404
12	0x3dda5146	0.10660033
13	0x3d37b750	0.044852555
14	0xbb922c0d	-0.0044608177
15	0x3c810e4d	0.01575389
16	0xbc42e3e9	-0.011895158
17	0x3c1462ec	0.009056788
18	0x3de650a2	0.11245848
19	0x3d6ce54b	0.05783586
20	0x3c432436	0.011910489
21	0x3e2734c1	0.16328718
22	0xbcd0794f	-0.02544847
23	0xbce4fba5	-0.027952025
24	0x3cac7b65	0.021054933
25	0x3d790957	0.060799923
26	0x3e120d02	0.14262775
27	0xbc49978b	-0.012304197
28	0x3cdeae54	0.027182736
29	0xbd03f68e	-0.032217555
30	0x3b9ccfb2	0.0047855014
31	0x3c6cc5a8	0.014451422
32	0x3d559edb	0.05215345
33	0x3df99d9c	0.12188265
34	0x3e0a0a94	0.13480598
35	0x3d8dce00	0.06924057
36	0xbe3565be	-0.17714593
37	0x3d9c34db	0.07627269
38	0xbd164a2f	-0.03669184
39	0xbc1ab3f9	-0.009442323
40	0xbdbae0f8	-0.09124941
41	0xbdee5688	-0.11637598
42	0xbdc7fb86	-0.09764771
43	0xbdc53e55	-0.096310295
44	0x3e329c63	0.1744247
45	0x3e0b68c4	0.13614184
46	0xbe4add0e	-0.19810888
47	0xbdc991c2	-0.09842254
48	0xbccbc20b	-0.0248728
49	0x3c9af2c6	0.018914592
50	0x3e248a5a	0.16068402
51	0x3d8f43c9	0.06995351
52	0x3c350b7c	0.011050101
53	0x3d4a7cd7	0.049435463
54	0x3dfee1bb	0.124453984
55	0xbc27ddfa	-0.010245794
56	0xbd0c49ac	-0.034249946
57	0x3d9925e1	0.07477928
58	0xbcc3bc80	-0.023893595
59	0x3b49b68e	0.0030778977
60	0x3de45eef	0.1115092
61	0x3d12c263	0.035829913
62	0x3c205c01	0.00978756
63	0x3ca04767	0.019565297

module.bi_lstm1.weight_ih_l0_reverse f4 [64, 14]
0	0xbcc19f75	-0.023635605
1	0xbd75887d	-0.05994462
2	0xbd5195fe	-0.051168434
3	0xbcfc750f	-0.030817537
4	0xbcd74c52	-0.02628151
5	0xbd8eb9ea	-0.06969054
6	0xbdaeb587	-0.08530717
7	0xbce580a7	-0.028015448
8	0xbcb1cee3	-0.021705097
9	0xbd1d919c	-0.038468942
10	0x3db1991f	0.08671784
11	0xbd8b6ba1	-0.06807638
12	0xbc4bb350	-0.012432888
13	0x3d33fe3a	0.04394362
14	0x3c589961	0.013220162
15	0xbb60c86e	-0.0034299153
16	0x3c7b5880	0.015340924
17	0xbc612a21	-0.0137429545
18	0x3b3bb5e8	0.002864236
19	0xbbfc3a31	-0.0076973666
20	0x3bd29412	0.0064263428
21	0xbc95691d	-0.018238598
22	0x3b256bfa	0.002524136
23	0xbbfe7a33	-0.007766032
24	0x3cb8c5f0	0.022555321
25	0x3add24db	0.0016871946
26	0xbc04dd30	-0.008109376
27	0xbc3b4638	-0.011430316
28	0x3df250dc	0.11831829
29	0x3dcaec2a	0.09908326
30	0x3de81baf	0.11333405
31	0xbd4545a0	-0.048162103
32	0x3dab4e97	0.08364599
33	0x3cea4852	0.028598938
34	0x3de1fe78	0.11034864
35	0xbd5fb916	-0.05461987
36	0x3dca8be6	0.09889965
37	0xbad43dc1	-0.001619272
38	0x3db62322	0.0889342
39	0x3da0b1c4	0.07846406
40	0xbd18fb64	-0.03734912
41	0x3c2d9bc0	0.010596216
42	0xbcfc9bcb	-0.030836007
43	0x3cca1fd8	0.024673387
44	0xbdf3928f	-0.11893188
45	0x3eaf5d90	0.3425107
46	0xbbd320be	-0.006443112
47	0x3e27bf38	0.16381538
48	0xbd98ad9c	-0.07454988
49	0x3e7fc416	0.24977145
50	0xbd069e82	-0.03286601
51	0x3e2c5798	0.1683029
52	0xbe82d055	-0.2554957
53	0x3ce4a8aa	0.027912457
54	0x3e50ce1f	0.20391129
55	0x3e0e31a2	0.13886121
56	0x3d27054f	0.040776547
57	0x3c17b51c	0.009259488
58	0x3c9f6d1d	0.019461209
59	0x3c99b03e	0.018760797
60	0x3d16158a	0.036641635
61	0xb959ffa9	-0.00020789973
62	0xbce47778	-0.027888998
63	0x3bcb2912	0.0061999643
64	0x3d21da91	0.03951508
65	0x3c17616e	0.009239538
66	0x3d42a0c4	0.0475166
67	0x3c246365	0.010033463
68	0x3c609e5b	0.01370963
69	0x3d1489dd	0.03626429
70	0x3e463f10	0.19359994
71	0x3d8745b6	0.06605093
72	0x3c9d1962	0.019177143
73	0xbc6bd689	-0.014394411
74	0xbe03cfcb	-0.12872235
75	0xbe816d3a	-0.25278646
76	0x3e0c22c3	0.13685136
77	0xbd4dfc34	-0.050289348
78	0xbe34ef19	-0.17669334
79	0xbe8f1418	-0.27945018
80	0x3e2d8599	0.16945495
81	0x3d022846	0.03177669
82	0x3db1aa5c	0.086750716
83	0x3dd8498f	0.10560905
84	0x3e91d5be	0.28483385
85	0x3e5893d4	0.21150142
86	0x3e9950af	0.2994437
87	0xbebff399	-0.37490538
88	0x3e25f57c	0.16206926
89	0xbec190bd	-0.3780574
90	0x3ec409cd	0.38288727
91	0xbef1db33	-0.47237548
92	0x3e67e545	0.22646053
93	0xbf0707ea	-0.5274645
94	0x3f06339e	0.5242251
95	0x3e702943	0.2345324
96	0xbe9aad36	-0.30210274
97	0xbd908304	-0.07056239
98	0x3c3b35ef	0.011426433
99	0x3c305e8c	0.010764729
100	0xba67441d	-0.00088221004
101	0x3cc0d748	0.023540154
102	0x3c413075	0.011791338
103	0xbcd5e4dd	-0.026110107
104	0xbc2b96af	-0.0104729375
105	0x3d08cad2	0.03339655
106	0x3c4410f6	0.011966934
107	0xbc639e6a	-0.013892749
108	0x3c05ebfa	0.008173937
109	0x3c8ffb00	0.01757574
110	0x3d05a4c9	0.032627854
111	0x3d8506ca	0.064954355
112	0x3dbfe409	0.09369666
113	0x3dd1e7b8	0.10249275
114	0x3dc0d2c5	0.09415201
115	0xbce553ab	-0.027993998
116	0x3d837a2b	0.06419786
117	0x3cf742fe	0.030183312
118	0x3d828321	0.06372667
119	0xbd1316f7	-0.035910573
120	0x3da1f060	0.07907176
121	0x3ca56f4f	0.020194678
122	0x3e24441e	0.1604161
123	0x3d4a1bc7	0.049342897
124	0x3cbc1603	0.022959715
125	0x3cb455d0	0.022013575
126	0x3c9a8430	0.01886186
127	0x3c58a1f3	0.013222205
128	0x3ca64afd	0.02029943
129	0x3cd7cbbb	0.026342263
130	0xba20dd20	-0.0006136466
131	0x3d58fd60	0.052976012
132	0x3c5ac82a	0.013353387
133	0x3e0b6077	0.13611017
134	0x3d84afb0	0.06478822
135	0x3dabac30	0.083824515
136	0xbdd75e07	-0.10515981
137	0x3c81f888	0.01586558
138	0xbd37b5a2	-0.044850953
139	0xbd829c4a	-0.06377466
140	0xbd94dd59	-0.07268781
141	0x3d000482	0.0312543
142	0xbd67e5fd	-0.05661582
143	0xbdd17817	-0.102279834
144	0xbc63f148	-0.013912506
145	0xbdeaaee8	-0.11459142
146	0xbdc34a6d	-0.0953568
147	0xbdac2354	-0.08405176
148	0x3c557dfc	0.013030525
149	0xbde998c0	-0.11406088
150	0xbe186ba2	-0.14884809
151	0xbcdbd93b	-0.026836982
152	0xbd5cf1d3	-0.05394156
153	0xbd9c3e32	-0.0762905
154	0x3d6dd020	0.05805981
155	0x3e1b0ff8	0.1514281
156	0x3dc08b12	0.094015256
157	0x3dc70717	0.09718149
158	0x3dae5718	0.085127056
159	0xbd996ed6	-0.074918434
160	0x3e0d8545	0.1382037
161	0x3db2ca17	0.08729952
162	0x3dbadf4c	0.09124622
163	0xbda2e54a	-0.0795389
164	0xbce0d232	-0.027443979
165	0x3deb83b1	0.114997275
166	0xbc46f05d	-0.012142268
167	0x3d551ddc	0.05203043
168	0x3e11350d	0.14180394
169	0x3e112050	0.14172482
170	0x3dc93da9	0.09826214
171	0xbd652664	-0.055944815
172	0x3e15f1b8	0.1464299
173	0x3bfcaeca	0.007711266
174	0x3e229208	0.15876019
175	0xbdd78be3	-0.10524728
176	0x3e2baf09	0.1676599
177	0xbd2e8fcb	-0.0426176
178	0x3ddc9f1f	0.107725374
179	0x3dc6113d	0.09671257
180	0xbd693c61	-0.056942347
181	0xbd161663	-0.036642443
182	0xbcc26ae1	-0.023732604
183	0xbc502cad	-0.012705964
184	0xbcabe905	-0.020985136
185	0x3ccc8e85	0.024970302
186	0xbd4ab269	-0.04948655
187	0x3d950660	0.072766066
188	0xbd376190	-0.044770777
189	0x3cfb5fcc	0.030685328
190	0xbd62c909	-0.055367503
191	0x3dcff1a8	0.10153514
192	0xbd89c109	-0.06726272
193	0xbd2cf444	-0.042225137
194	0xbce8da44	-0.02842439
195	0xbd5f66d6	-0.05454143
196	0x3d891f56	0.0669543
197	0x3da4624a	0.0802656
198	0x3d693033	0.056930732
199	0x3d262d47	0.040570524
200	0xb933428c	-0.00017095561
201	0x3bcbe919	0.0062228558
202	0x3d824e5f	0.06362604
203	0x3ced1dde	0.028944906
204	0x3b84e39d	0.004055454
205	0x3bb57de2	0.005538688
206	0x3de87fec	0.11352524
207	0x3ca9819e	0.02069169
208	0x3d94b1eb	0.07260498
209	0x3d709e0f	0.058744486
210	0x3c90c95d	0.017674142
211	0x3c0ffe1a	0.00878861
212	0x3db77a9e	0.08958934
213	0x3dc2b020	0.095062494
214	0x3d815bbf	0.06316327
215	0x3dc55a5d	0.09636376
216	0xbbadfc81	-0.005309642
217	0x3d9ef920	0.077623606
218	0x3d8082b8	0.062749326
219	0x3dcc17a5	0.09965447
220	0x3bfa9139	0.0076467064
221	0x3d80ea19	0.062946506
222	0x3d9b5395	0.075843014
223	0xbcbf73f4	-0.02337072
224	0x3e0fff5f	0.1406226
225	0x3dafd44a	0.08585413
226	0x3df33f2c	0.118772835
227	0x3d40d9b0	0.047082603
228	0x3dc1fb07	0.09471708
229	0x3d1552b7	0.036455836
230	0x3dbb0267	0.091313176
231	0x3d05ee5c	0.03269802
232	0x3d9f72de	0.07785581
233	0x3d3de1ec	0.046358034
234	0x3e372a52	0.17887238
235	0x3ddcacc7	0.10775142
236	0x3df9a5f4	0.12189856
237	0x3dff374c	0.12461719
238	0x3d098819	0.03357706
239	0x3cc0d0c9	0.023537057
240	0x3d0228c1	0.031777147
241	0xbb68a7e5	-0.0035500464
242	0x3c9d5b5b	0.0192086
243	0x3b915ac3	0.0044358685
244	0x3d018e08	0.031629592
245	0xbbeefad3	-0.007293084
246	0x3c995abd	0.018720025
247	0x3b10e581	0.0022109451
248	0x3d2f391f	0.042779084
249	0x3cbafb9e	0.022825059
250	0x3c0321c9	0.0080036605
251	0x3bd56bc0	0.006513089
252	0x3d552416	0.052036367
253	0x3d573bc0	0.052547216
254	0x3d9aad8d	0.075526334
255	0xbd893294	-0.066991

module.bi_lstm1.weight_hh_l0_reverse f4 [64, 16]
0	0xbd0fc427	-0.035099175
1	0xbbcdfe36	-0.006286408
2	0x3cbf21e2	0.023331586
3	0xbcbcad35	-0.02303181
4	0xba8afa2e	-0.0010603124
5	0x3d354f17	0.04426488
6	0xbd1a6a70	-0.037699163
7	0x3cbb7e19	0.022887276
8	0xbcbd0294	-0.023072518
9	0xbd910c2e	-0.07082401
10	0xbcb6ee4e	-0.02233043
11	0xbdf6de46	-0.12054114
12	0x3b8c2383	0.0042766943
13	0xbc97b2b7	-0.018517835
14	0xbd0166dd	-0.03159224
15	0x3d264e94	0.04060228
16	0x3c9746a0	0.018466294
17	0xbc478cf7	-0.012179605
18	0xbc8bf526	-0.01708467
19	0x3bae749f	0.005323961
20	0x3c602ab4	0.013682056
21	0x3d5a0b20	0.053233266
22	0x3c435a1b	0.011923338
23	0x3c404abf	0.011736571
24	0x3cb992a4	0.022652932
25	0xbc867712	-0.016414199
26	0xbb946b69	-0.004529406
27	0xbd4c078d	-0.04981189
28	0xbb9ee158	-0.0048486404
29	0xba8aeebd	-0.0010599714
30	0xbb93e5b7	-0.004513468
31	0x3cccce11	0.025000604
32	0x3c89383a	0.016750444
33	0x3ba64aa5	0.0050748163
34	0xbd38b258	-0.045091957
35	0x3d8491b9	0.06473107
36	0x3a3867e4	0.0007034524
37	0xbc8af89e	-0.016964253
38	0x3d9e1f22	0.07720782
39	0x3cc65376	0.02420972
40	0x3d0a19cc	0.033716008
41	0x3b3c8a2d	0.0028768883
42	0xbc878af5	-0.016545752
43	0xbcaef510	-0.02135709
44	0xbca576fc	-0.020198338
45	0xbd65fcc5	-0.056149263
46	0xbb5263ce	-0.0032102945
47	0x3c636232	0.013878392
48	0xbe3d68a2	-0.18496946
49	0xbcaebe99	-0.021331118
50	0x3e44088c	0.19143885
51	0xbd53f1c5	-0.05174424
52	0xbdab0c77	-0.08351987
53	0x3e8a512e	0.2701506
54	0xbdc53c8c	-0.09630689
55	0xbd2dd5ed	-0.042440344
56	0xbe35da49	-0.1775905
57	0xbed912aa	-0.42397052
58	0x3e2a32dc	0.16620964
59	0xbe23974b	-0.15975682
60	0x3d719270	0.058977544
61	0x3e3d88f1	0.1850927
62	0xbdea5a9b	-0.11443063
63	0xbd5b6934	-0.053567126
64	0xbcb11310	-0.021615535
65	0xbc089e86	-0.008338576
66	0xbb8a884d	-0.004227674
67	0x39c94c0c	0.00038394367
68	0x3b9aee1e	0.004728093
69	0x3d0e9ba4	0.0348164
70	0xbb8eabb0	-0.004353963
71	0x3c42dc7f	0.011893391
72	0x3b58cab0	0.0033079796
73	0xbd27d83c	-0.0409777
74	0xbc84b964	-0.016201682
75	0xbda43d92	-0.08019556
76	0xbc0d5fd7	-0.008628807
77	0xbcb42510	-0.021990329
78	0xbc968d5a	-0.018377949
79	0x3ce146c4	0.027499564
80	0x39882788	0.00025969394
81	0x3d5f789f	0.054558393
82	0x3d450b98	0.04810676
83	0x3d33fca2	0.0439421
84	0x3c220a41	0.00989014
85	0xbb2aa037	-0.0026035437
86	0xbd850192	-0.0649444
87	0x3d2a41b6	0.041566573
88	0xbd7b1459	-0.061298702
89	0x3d7494dd	0.05971228
90	0xbd7003eb	-0.058597486
91	0x3dc155fb	0.094402276
92	0x3d1d0218	0.038332075
93	0x3df24ba8	0.118308365
94	0x3d6fe783	0.058570396
95	0xbd1aab2e	-0.037760906
96	0xbd447ab2	-0.047968574
97	0x3daa7587	0.08323198
98	0xbd245e94	-0.04012926
99	0x3ed41bab	0.4142736
100	0xbd8e4e1e	-0.069484934
101	0x3e1d2086	0.15344438
102	0x3eaf4cbf	0.3423824
103	0x3ce7ac7d	0.028280491
104	0xbcfaae93	-0.030600822
105	0x3d0bc276	0.034121
106	0x3d9fea7a	0.07808395
107	0x3d4d3197	0.05009612
108	0xbd118dad	-0.035535503
109	0x3e0f0ff9	0.13970937
110	0x3cee6428	0.029100493
111	0xbe1b6854	-0.15176517
112	0xbaac9192	-0.0013165942
113	0xbc44f979	-0.01202237
114	0x3c23bd69	0.009993889
115	0x3c366b57	0.01113399
116	0x3b918d5d	0.0044419006
117	0xbc97d85e	-0.01853579
118	0xbcfc8231	-0.030823799
119	0x3bed90c6	0.0072499244
120	0xbc31e904	-0.010858778
121	0x3c2c16a9	0.0105034495
122	0xbd0c7345	-0.034289617
123	0xbd224a65	-0.03962173
124	0x3c5069a4	0.012720499
125	0xbcb1725d	-0.021660978
126	0xbc459219	-0.012058758
127	0x3c9c5aad	0.019086206
128	0x3c8e2e4c	0.01735606
129	0x3b1a9ce8	0.0023592059
130	0xbd25b255	-0.040453274
131	0x3d1ac6d3	0.03778727
132	0x3c56d6d0	0.013112739
133	0x39254f50	0.00015765172
134	0x3d01b8ef	0.031670507
135	0x3d03d7e6	0.03218832
136	0x3d12721b	0.03575335
137	0xbc3e84cc	-0.011628341
138	0xbc421820	-0.011846572
139	0xbd7ce83d	-0.061744917
140	0xbccb5a3b	-0.024823299
141	0xbd2d902e	-0.04237383
142	0x3aa7d52c	0.0012804619
143	0x3d0c7d2d	0.034299064
144	0xbe04fbe8	-0.1298672
145	0x3dfe17d1	0.12406886
146	0x3d0d5f76	0.034514867
147	0x3b93b196	0.004507254
148	0xbd3d169d	-0.046164144
149	0x3d03b5ed	0.03215592
150	0xbdc7f70e	-0.09763919
151	0xbc62ad08	-0.013835199
152	0xbdf6c22c	-0.12048754
153	0x3c95e4b0	0.018297523
154	0x3a34669e	0.0006881746
155	0x3e660f86	0.22466859
156	0x3da132f3	0.07871046
157	0x3de64d12	0.11245169
158	0xbce754a6	-0.028238606
159	0xbdfc0401	-0.12305451
160	0x3da62433	0.08112373
161	0xbbad1b10	-0.005282767
162	0xbd40e20b	-0.04709057
163	0x3d6d907b	0.057999115
164	0x3dd655bb	0.104655705
165	0x3cc9c9de	0.02463239
166	0xbd411c22	-0.04714597
167	0x3d885ffb	0.06658932
168	0x3d23ed6e	0.040021352
169	0xbccfaf7c	-0.025352232
170	0xbc6fef77	-0.014644495
171	0xbd46ae6e	-0.048506193
172	0xbb9a788f	-0.0047140787
173	0x3d10b6a4	0.03533043
174	0x3d5a81c5	0.053346414
175	0x3d7797af	0.06044739
176	0x3d07026d	0.032961298
177	0x3d3d2867	0.04618111
178	0xbd5aeed0	-0.053450406
179	0xbdc85ae1	-0.09782959
180	0x3d48bedc	0.049010143
181	0x3e7aa91e	0.24478576
182	0x3d558a58	0.052133888
183	0x3d62dadb	0.055384498
184	0x3dae4c65	0.08510665
185	0xbe5e3817	-0.21701084
186	0x3de76bd9	0.11299867
187	0xbd564075	-0.052307565
188	0xbdf9edcf	-0.122035615
189	0x3db516d8	0.08842248
190	0x3dc1fa63	0.094715856
191	0x3d4f44d8	0.050602764
192	0xba9d2197	-0.001198816
193	0x3c818bce	0.015813734
194	0xbc1d69a2	-0.009607704
195	0x3d0771ca	0.033067502
196	0xba80ee1f	-0.0009836591
197	0x3dabfeda	0.083982185
198	0xbb524bd4	-0.0032088654
199	0x3c928042	0.017883424
200	0x3bbbcd3a	0.005731252
201	0xbe1d4b21	-0.1536069
202	0x3d6c55ee	0.057699136
203	0xbd15fadd	-0.036616195
204	0xbd07d93f	-0.033166166
205	0x3c9a13c4	0.018808253
206	0x3caec2b9	0.021333085
207	0xbb77cde5	-0.0037811932
208	0x3e118783	0.1421185
209	0xbc95bfc2	-0.018279914
210	0xbe01df82	-0.12682918
211	0xbe0b0bfc	-0.1357879
212	0x3e0229c0	0.12711239
213	0x3e579fb8	0.21057022
214	0x3e024cff	0.12724684
215	0x3dcbb261	0.099461325
216	0x3e319321	0.17341281
217	0xbe6dc9c5	-0.232215
218	0x3c9adc07	0.018903745
219	0xbe6cd00c	-0.23126239
220	0xbe0446c5	-0.12917621
221	0x3d81a80f	0.06330883
222	0x3d937b92	0.072013035
223	0x3e3694ea	0.17830244
224	0xbccecb52	-0.025243435
225	0xbc2d60a6	-0.010582125
226	0x3af09bc4	0.0018356969
227	0x3a889b93	0.0010422341
228	0xbbbeca51	-0.005822458
229	0x3c18544b	0.009297441
230	0x3c8ed12b	0.017433723
231	0x3b198d84	0.0023430297
232	0xbb8915c3	-0.0041835024
233	0xbd777627	-0.060415413
234	0x3bd30e08	0.0064408816
235	0xbd34d78a	-0.044150867
236	0xbb5f66e4	-0.0034088427
237	0xbc98179a	-0.018565942
238	0xbc7cda0f	-0.015432849
239	0x3b1f569d	0.00243131
240	0x3c8e169f	0.017344771
241	0x3a175e0a	0.0005774206
242	0xbd3fdf10	-0.04684359
243	0xbd65dea1	-0.05612052
244	0x3d10176e	0.035178594
245	0x3d74fbaa	0.059810318
246	0x3d1bf659	0.038076732
247	0x3ce82875	0.028339604
248	0x3d7c164e	0.06154471
249	0xbdc03234	-0.093845755
250	0x3bd3689f	0.006451681
251	0xbdb2e271	-0.087345965
252	0xbd4c20da	-0.049836017
253	0xbc0f9243	-0.008762899
254	0x3c6d042d	0.014466328
255	0x3d6c270a	0.057654418

module.bi_lstm1.bias_ih_l0_reverse f4 [64]
0	0x3dc4727d	0.095921494
1	0x3c24b6db	0.010053362
2	0x3d97feeb	0.074216686
3	0x3d1a4946	0.037667535
4	0x3da5830c	0.08081636
5	0x3df205b7	0.11817496
6	0x3de5cea3	0.112210535
7	0x3d596282	0.05307246
8	0x3d84424a	0.06457956
9	0x3d9ed4b7	0.07755416
10	0x3da1044c	0.07862148
11	0x3d11488a	0.03546957
12	0x3d971066	0.07376175
13	0xbd58085f	-0.05274236
14	0x3e047321	0.12934543
15	0x3d960c57	0.073265724
16	0x3e73a096	0.23791727
17	0x3d194b70	0.03742546
18	0xbd803ae6	-0.06261234
19	0x3e6c422a	0.23072115
20	0x3d8f61f8	0.07001108
21	0x3e5c90b6	0.21539578
22	0x3d59ac3e	0.05314278
23	0x3d78946b	0.060688417
24	0x3d0b7ed9	0.03405652
25	0x3e841501	0.25797275
26	0xbd82d7c9	-0.06388814
27	0xbca09fe0	-0.019607484
28	0xbce92184	-0.028458364
29	0x3da34adb	0.07973262
30	0x3c17b052	0.009258347
31	0x3e229718	0.1587795
32	0xbe1a4c8e	-0.15068266
33	0x3d7572fd	0.059924114
34	0x3df58bff	0.11989593
35	0x3e276491	0.16346957
36	0xbd1be152	-0.03805668
37	0xbe340fc8	-0.17584145
38	0xbe400c62	-0.18754724
39	0x3d9e4645	0.077282466
40	0xbe9bb5a4	-0.30412018
41	0x3e0db06c	0.13836831
42	0xbe8f3fbf	-0.27978322
43	0x3c836c6c	0.01604291
44	0x3e56aa06	0.20963296
45	0x3c48b02c	0.012249034
46	0xbe6dd29c	-0.23224872
47	0x3d3ef903	0.046624195
48	0x3e16eb6c	0.14738244
49	0x3c487964	0.012235973
50	0x3ddf7f4a	0.1091295
51	0x3e8ee327	0.27907678
52	0x3debc603	0.11512377
53	0x3d1c998a	0.038232364
54	0x3dac54db	0.084146224
55	0x3c996955	0.018726984
56	0x3d91dbb5	0.07121984
57	0x3dbdec1a	0.092735484
58	0x3de83f6a	0.1134022
59	0x3d465288	0.04841855
60	0x3d82d6bc	0.063886136
61	0xbc158883	-0.009126785
62	0x3e258ba1	0.16166545
63	0x3d995cc3	0.07488396

module.bi_lstm1.bias_hh_l0_reverse f4 [64]
0	0x3dd5fc3a	0.10448499
1	0x3c269992	0.01016845
2	0x3d603a52	0.05474312
3	0x3c5a4de8	0.013324238
4	0x3d8b5764	0.06803778
5	0x3deaf198	0.114718616
6	0x3da0b3b2	0.07846774
7	0x3d795a0e	0.0608769
8	0x3e07cc22	0.13261464
9	0x3db17119	0.0866415
10	0x3cdf8227	0.027283741
11	0x3bb2a3de	0.0054516634
12	0x3d6bd32b	0.057574432
13	0xbd4b5eb1	-0.04965085
14	0x3e182a8d	0.14859982
15	0xbd031d46	-0.03201034
16	0x3e82fb8e	0.25582546
17	0x3d0d9af5	0.034571607
18	0xbcee56b3	-0.029094076
19	0x3e88e7ee	0.26739448
20	0x3cf665b2	0.030077789
21	0x3e3a9ff8	0.18225086
22	0x3d5a0613	0.05322845
23	0x3d845ac8	0.06462628
24	0x3d993f73	0.07482805
25	0x3ea1e953	0.31623325
26	0x3de915ef	0.113811366
27	0x3c9f33df	0.019433914
28	0xbcea53d9	-0.028604435
29	0x3da354d0	0.07975161
30	0x3d97cb98	0.07411879
31	0x3cdb6ac2	0.026784305
32	0xbdc1f68e	-0.09470855
33	0xbe014f6b	-0.12627952
34	0x3d93ba35	0.072132505
35	0x3dcd499d	0.10023806
36	0x3d9a0ab9	0.075215764
37	0xbdcce54c	-0.100046724
38	0xbdc4dd47	-0.09612518
39	0x3db74232	0.08948173
40	0xbcfef31b	-0.031121781
41	0x3e6eed48	0.23332703
42	0xbe818cd0	-0.25302744
43	0x3d861d20	0.06548524
44	0x3e190a05	0.14945228
45	0xbce2745a	-0.027643371
46	0xbddcf0b6	-0.107880995
47	0xbe4a776c	-0.19772118
48	0x3e16f439	0.14741601
49	0x3c528ff7	0.012851707
50	0x3d9ac24a	0.07556589
51	0x3e39f012	0.18157986
52	0x3db5f717	0.08885019
53	0x3e30391d	0.17209287
54	0x3d8e169c	0.06937906
55	0x3db499d2	0.088184014
56	0x3d45607a	0.04818771
57	0x3c1e2913	0.009653348
58	0xbdb37046	-0.08761649
59	0x3ceabbae	0.028653946
60	0x3dd52ad3	0.10408559
61	0xbc0bc2db	-0.008530344
62	0x3d9c3625	0.07627515
63	0x3d4e451d	0.05035888

module.bi_lstm2.weight_ih_l0 f4 [128, 16]
0	0xbbae4914	-0.00531877
1	0xba6851ec	-0.0008862305
2	0x3c34b1b9	0.0110287005
3	0x3c676a99	0.014124536
4	0xbbf79369	-0.0075554145
5	0xbc049c94	-0.008093972
6	0xbbf14e94	-0.0073641036
7	0xbaa51730	-0.0012595411
8	0xbc189224	-0.009312186
9	0x3be922d7	0.007114749
10	0x3c57b49c	0.013165619
11	0x3bdc9109	0.0067311567
12	0xba99b4fe	-0.0011726914
13	0xbc1b3992	-0.009474175
14	0xbbbe86f8	-0.0058144294
15	0xbc3833a8	-0.011242785
16	0x3b4ddf8a	0.0031413757
17	0xbb988275	-0.0046542236
18	0x3ba7227b	0.005100546
19	0x3b61a5f5	0.0034431193
20	0xbafb916c	-0.0019193119
21	0xbbfb8331	-0.0076755513
22	0xbbce20d3	-0.006290534
23	0xbafc1a81	-0.0019233973
24	0xbb235a9d	-0.0024925836
25	0x391ab06b	0.00014752305
26	0xba928208	-0.0011177668
27	0x3ba140ab	0.004921039
28	0x3b2febca	0.0026843422
29	0xbb53f0ea	-0.003233964
30	0xbb62e468	-0.0034621004
31	0xbb561a63	-0.0032669536
32	0xbc4700f0	-0.01214622
33	0xb9d94117	-0.0004143796
34	0x3c49426b	0.012283902
35	0x3c3946e3	0.011308405
36	0xbc0ab04c	-0.008464884
37	0xbc7073e7	-0.014676071
38	0xbc018243	-0.007904592
39	0xbc379de5	-0.011207079
40	0xbc1237b0	-0.00892441
41	0x3cdd72b1	0.027032228
42	0x3b88a4e4	0.004170047
43	0x3c83ded5	0.016097466
44	0x3b97082a	0.0046091275
45	0xbc183773	-0.009290564
46	0xbbd4624b	-0.006481444
47	0xbc835dee	-0.016036
48	0x3b9b2515	0.004734645
49	0xbc2b70bf	-0.0104638925
50	0x3c42e68f	0.01189579
51	0x3c9f5420	0.019449294
52	0xbbf1b9c4	-0.0073768813
53	0xbd0ef535	-0.034901816
54	0xbc8596d2	-0.016307268
55	0xbc1097c7	-0.008825249
56	0xbc8b5ad3	-0.017011082
57	0x3cfe9963	0.031079
58	0xba43365c	-0.000744676
59	0x3c7862f3	0.01516031
60	0x3be955ea	0.0071208375
61	0xbc5ef1cc	-0.013607454
62	0xbb8a5ace	-0.0042222505
63	0xbc36d4d3	-0.01115914
64	0x3bbc3462	0.005743549
65	0xbbcdbb2b	-0.0062784157
66	0xbc46e65c	-0.012139883
67	0x3bdaa5de	0.006672605
68	0x3ba4be16	0.005027543
69	0xbbc1b655	-0.0059116283
70	0x3c1f4167	0.009720183
71	0xb92e8baa	-0.00016645962
72	0x3bb02ecc	0.0053766724
73	0xbb00befa	-0.001964508
74	0x3b6dc731	0.0036282057
75	0xb88c993c	-6.704262e-05
76	0x3a61e6ba	0.000861745
77	0xbbadf473	-0.0053086816
78	0x3bf75928	0.00754847
79	0x3c496365	0.012291764
80	0xbbb92fb9	-0.005651441
81	0xbbae1623	-0.0053126975
82	0x3ba68b4b	0.005082523
83	0x3bebd07e	0.007196485
84	0xbbb8cc18	-0.0056395642
85	0xbc0410d3	-0.008060652
86	0xbc107eee	-0.008819325
87	0xbbda3dcf	-0.0066602
88	0xbb85f9cd	-0.0040886165
89	0x3c990aa3	0.01868183
90	0x3c152849	0.009103843
91	0x3c2179da	0.009855712
92	0x3b02ef9f	0.001997925
93	0xbbd50fba	-0.006502119
94	0xbc27e238	-0.010246806
95	0xbb9ec262	-0.0048449496
96	0xbc4c1697	-0.012456558
97	0x3be50f64	0.00699036
98	0x3c57aa36	0.01316314
99	0x3c15574c	0.0091150515
100	0xbc384859	-0.011247718
101	0x3a16b5fc	0.00057491637
102	0xbbfa7e09	-0.007644419
103	0xbb086512	-0.0020812196
104	0xbc2f0e27	-0.0106845265
105	0xbbbab636	-0.005697991
106	0x3af6153a	0.0018774637
107	0x3b52ae53	0.0032147362
108	0x3b7c9029	0.0038538075
109	0xb9e9a69c	-0.00044565357
110	0xbc38c3d5	-0.011277159
111	0xbc67843f	-0.014130651
112	0xbb3f991d	-0.002923555
113	0x3a84b957	0.0010126036
114	0x3b1f2823	0.0024285398
115	0xb945f9b9	-0.00018880413
116	0xba4574ad	-0.00075323397
117	0x3ab6fcca	0.0013960835
118	0xbbb96208	-0.005657438
119	0xbacea8c7	-0.0015766852
120	0xbac4e468	-0.0015021684
121	0x3bc64a8f	0.0060513685
122	0x3b00ed82	0.0019672816
123	0x3a726548	0.00092466595
124	0x3a6f2c39	0.0009123716
125	0xba82efc5	-0.000998967
126	0xbbb6b3cd	-0.005575633
127	0x3ab4f2fa	0.0013805323
128	0xbb82c57d	-0.0039908276
129	0xbbd4e6a2	-0.00649722
130	0x3a53b40c	0.00080758403
131	0x3be9ad6e	0.00713127
132	0xba4e6c0f	-0.00078743784
133	0xbc463bf5	-0.012099256
134	0x3aec8ea7	0.0018047885
135	0xbb69112d	-0.0035563216
136	0xbb73fa7f	-0.0037228165
137	0xbbb766af	-0.0055969576
138	0x3b20f7bb	0.0024561721
139	0x3bad437a	0.005287585
140	0x3b98cea8	0.004663307
141	0x3741c613	1.1549814e-05
142	0xbb8921ad	-0.0041849227
143	0xbb28029b	-0.0025636319
144	0xbccc7ff0	-0.02496335
145	0x3bfaa3c5	0.0076489174
146	0x3c8e0164	0.017334647
147	0x3c684d47	0.014178581
148	0xbc965f20	-0.018355906
149	0xbc00c7bd	-0.007860121
150	0xbc992e14	-0.01869873
151	0xbc4b69a4	-0.012415323
152	0xbc86c5a8	-0.016451672
153	0x3b4b46bd	0.0031017505
154	0x3acbfdea	0.0015563343
155	0x3c685441	0.014180244
156	0x3b60419d	0.0034218796
157	0x3b6a246d	0.0035727278
158	0xbc902ae5	-0.017598579
159	0xbc861f17	-0.016372247
160	0x3c0a6c38	0.008448653
161	0xbbfb9ca9	-0.0076785875
162	0xbbb1cb2f	-0.0054258327
163	0x3be07687	0.006850067
164	0x3b14acb3	0.0022685945
165	0xbb5faf00	-0.0034131408
166	0x3b55b07c	0.0032606414
167	0x3bab79d4	0.005233029
168	0x3b956aab	0.004559835
169	0xbb5ccd86	-0.0033691837
170	0xbb88b6f7	-0.0041722017
171	0x3b56058a	0.003265711
172	0x3b721623	0.0036939464
173	0xbbf8d938	-0.007594254
174	0x3b19dcc5	0.0023477536
175	0x3b080805	0.0020756733
176	0x3afe499b	0.0019400598
177	0xbc99e6db	-0.018786838
178	0xbbb66ea1	-0.005567387
179	0x3c0395c5	0.008031313
180	0xbc63328c	-0.013867032
181	0xbd51d035	-0.051223952
182	0x3b609ace	0.0034271958
183	0xbc382d3a	-0.011241252
184	0xbb3ccabf	-0.002880737
185	0x3cb4fb98	0.022092625
186	0xbb2c988e	-0.0026336047
187	0x3c8aa98b	0.016926548
188	0x3ca7cacb	0.020482441
189	0xbc8b43f4	-0.017000176
190	0xbc1d98e6	-0.009618973
191	0xbc177437	-0.009244016
192	0xbc238ea3	-0.009982738
193	0xbb8da53d	-0.0043226765
194	0x3b76dcaf	0.0037668159
195	0x3bc02455	0.005863706
196	0xbba000f8	-0.004882928
197	0xbb4cb4ca	-0.0031235688
198	0xbc71ff33	-0.014770317
199	0xbbe74d13	-0.0070587485
200	0xbbe2e248	-0.0069239475
201	0xbbac7e42	-0.0052640745
202	0x3ba5eff7	0.0050640064
203	0x3bf7af73	0.007558757
204	0x3b639510	0.00347263
205	0xbaca046b	-0.0015412694
206	0xbbf806ba	-0.0075691612
207	0x396cf56f	0.00022598145
208	0x3c10782c	0.008817714
209	0x3bbe411c	0.0058061015
210	0xbb6437c3	-0.0034823276
211	0x3bfec7e6	0.0077752946
212	0x3bf3b480	0.0074372888
213	0xbb9c4612	-0.004769095
214	0x3cb3b955	0.02193896
215	0x3c48d677	0.012258164
216	0x3c4b40d5	0.012405594
217	0x3cdca8e8	0.02693601
218	0xbc81b564	-0.015833564
219	0x3c44e346	0.012017077
220	0xbb806f6a	-0.0039195316
221	0x3b85d716	0.004084478
222	0x3b38f972	0.0028224853
223	0xbaa14cea	-0.0012306247
224	0xbc69a50a	-0.01426054
225	0x3bcf7178	0.006330665
226	0x3c93e1bc	0.018051974
227	0x3c5fa943	0.013651195
228	0xbc7743cb	-0.015091847
229	0x3a94431b	0.0011311503
230	0xbc6a4613	-0.014298934
231	0xbc39c399	-0.011338138
232	0xbc5647b3	-0.013078618
233	0xbbbaa43e	-0.0056958487
234	0x3c0c0a59	0.008547389
235	0x3bab765f	0.005232617
236	0x3bc6bfd9	0.0060653505
237	0x3ad9dcd8	0.0016621603
238	0xbc8a771d	-0.0169025
239	0xbc6a376d	-0.014295441
240	0xbba9983b	-0.005175618
241	0xbaf5f7fa	-0.0018765919
242	0xba992961	-0.0011685306
243	0xbb6c06c1	-0.0036014768
244	0x3ba0ee7c	0.004911242
245	0xbc47842a	-0.012177506
246	0x3bd7da34	0.006587291
247	0x3b0c3009	0.0021390936
248	0xbb9ae1bb	-0.004726616
249	0x3c21072a	0.009828368
250	0xba6bc05b	-0.0008993202
251	0xb9b1e5c5	-0.00033931262
252	0xba91eb7a	-0.00111328
253	0xbb8abf6e	-0.004234246
254	0x39251cf7	0.00015746416
255	0x3b23f685	0.0025018763

module.bi_lstm2.weight_hh_l0 f4 [128, 32]
0	0x8000894c	-4.9253e-41
1	0x80008ae0	-4.9819e-41
2	0x000089f7	4.9492e-41
3	0x00008af0	4.9841e-41
4	0x80008b65	-5.0005e-41
5	0x80008b3d	-4.9949e-41
6	0x80008eb0	-5.1187e-41
7	0x00008a98	4.9718e-41
8	0x8000890d	-4.9165e-41
9	0x800089c1	-4.9417e-41
10	0x00009064	5.1798e-41
11	0x80008900	-4.9146e-41
12	0x8000ad56	-6.2181e-41
13	0x80008b12	-4.9889e-41
14	0x00008a0f	4.9526e-41
15	0x8000a0bc	-5.766e-41
16	0x00009e83	5.6863e-41
17	0x8000a432	-5.8902e-41
18	0x80008aa7	-4.9739e-41
19	0x0000a788	6.0099e-41
20	0x80008b83	-5.0047e-41
21	0x0000893b	4.9229e-41
22	0x80008bcf	-5.0154e-41
23	0x800088e2	-4.9104e-41
24	0x00008c7d	5.0398e-41
25	0x00008972	4.9306e-41
26	0x0000996a	5.5035e-41
27	0x80008b51	-4.9977e-41
28	0x000089d0	4.9438e-41
29	0x00008aea	4.9833e-41
30	0x00008c39	5.0302e-41
31	0x80008a31	-4.9574e-41
32	0x00009112	5.2041e-41
33	0x00008a62	4.9642e-41
34	0x0000931d	5.2774e-41
35	0x80008aec	-4.9836e-41
36	0x00008e08	5.0951e-41
37	0x00008af1	4.9843e-41
38	0x00008a84	4.969e-41
39	0x80034a0d	-3.02071e-40
40	0x00009525	5.3503e-41
41	0x00009414	5.312e-41
42	0x00008cd3	5.0518e-41
43	0x80008e56	-5.106e-41
44	0x0000a875	6.0431e-41
45	0x80008d9a	-5.0797e-41
46	0x0000ad29	6.2118e-41
47	0x800088e8	-4.9113e-41
48	0x80008959	-4.9271e-41
49	0x000089c1	4.9417e-41
50	0x000089fd	4.9501e-41
51	0x00008d16	5.0612e-41
52	0x00008c90	5.0424e-41
53	0x00008a6f	4.966e-41
54	0x00008ac5	4.9781e-41
55	0x80008a8e	-4.9704e-41
56	0x80008b32	-4.9934e-41
57	0x0002c909	2.55789e-40
58	0x8000a15c	-5.7885e-41
59	0x00008b4c	4.997e-41
60	0x80008c59	-5.0347e-41
61	0x00008a90	4.9707e-41
62	0x80008de0	-5.0895e-41
63	0x000089ab	4.9386e-41
64	0x80008e02	-5.0943e-41
65	0x000089ad	4.9389e-41
66	0x80009335	-5.2808e-41
67	0x00008bdf	5.0176e-41
68	0x8000ab89	-6.1535e-41
69	0x000093f8	5.3081e-41
70	0x0000a51b	5.9229e-41
71	0x800088e1	-4.9103e-41
72	0x00009e53	5.6796e-41
73	0x000094ab	5.3332e-41
74	0x000097b8	5.4426e-41
75	0x00008a62	4.9642e-41
76	0x80008a54	-4.9623e-41
77	0x00008b94	5.0071e-41
78	0x800088e9	-4.9114e-41
79	0x0000948e	5.3291e-41
80	0x00009de9	5.6647e-41
81	0x00008c14	5.025e-41
82	0x00008af2	4.9844e-41
83	0x80009abf	-5.5512e-41
84	0x80008d0d	-5.06e-41
85	0x80008b8e	-5.0063e-41
86	0x00008d9b	5.0798e-41
87	0x80008ae3	-4.9823e-41
88	0x00008bf1	5.0202e-41
89	0x80008b0d	-4.9882e-41
90	0x80008aba	-4.9766e-41
91	0x00008ae4	4.9825e-41
92	0x00008a04	4.951e-41
93	0x00008ac6	4.9783e-41
94	0x800088c2	-4.906e-41
95	0x00008bf3	5.0204e-41
96	0x80008b56	-4.9984e-41
97	0x00008a6f	4.966e-41
98	0x8000a83f	-6.0355e-41
99	0x00008964	4.9286e-41
100	0x00008dde	5.0892e-41
101	0x800088be	-4.9054e-41
102	0x00008b00	4.9864e-41
103	0x80008b1d	-4.9904e-41
104	0x80008ffb	-5.165e-41
105	0x800089c8	-4.9427e-41
106	0x00008ccb	5.0507e-41
107	0x00008aa9	4.9742e-41
108	0x80008bbb	-5.0126e-41
109	0x8000a0d2	-5.7691e-41
110	0x8000896b	-4.9296e-41
111	0x00008a12	4.953e-41
112	0x00008b74	5.0026e-41
113	0x000089d7	4.9448e-41
114	0x00008a42	4.9598e-41
115	0x000089ae	4.939e-41
116	0x00008aa1	4.973e-41
117	0x00008d44	5.0677e-41
118	0x80008a59	-4.963e-41
119	0x80008c07	-5.0232e-41
120	0x00008ccd	5.051e-41
121	0x0000894e	4.9256e-41
122	0x80009973	-5.5047e-41
123	0x80008b3a	-4.9945e-41
124	0x0000893c	4.923e-41
125	0x80009d2a	-5.638e-41
126	0x00008eb6	5.1195e-41
127	0x00008ac6	4.9783e-41
128	0x80008ac7	-4.9784e-41
129	0x80008a34	-4.9578e-41
130	0x8000891b	-4.9184e-41
131	0x80008b23	-4.9913e-41
132	0x8000894f	-4.9257e-41
133	0x8000898b	-4.9341e-41
134	0x80005214	-2.9444e-41
135	0x80008cb1	-5.047e-41
136	0x80008ae1	-4.982e-41
137	0x800089eb	-4.9476e-41
138	0x000090ce	5.1946e-41
139	0x80008992	-4.9351e-41
140	0x00008dc3	5.0855e-41
141	0x800095d9	-5.3755e-41
142	0x80008c15	-5.0252e-41
143	0x80008ba9	-5.01e-41
144	0x0000898a	4.934e-41
145	0x80008c95	-5.0431e-41
146	0x80008a0c	-4.9522e-41
147	0x0000934e	5.2843e-41
148	0x00008c07	5.0232e-41
149	0x80008b52	-4.9979e-41
150	0x80008977	-4.9313e-41
151	0x000089cc	4.9432e-41
152	0x000088ee	4.9121e-41
153	0x0000894f	4.9257e-41
154	0x80008d60	-5.0716e-41
155	0x00008927	4.9201e-41
156	0x00008aa1	4.973e-41
157	0x80008994	-4.9354e-41
158	0x80008d5e	-5.0713e-41
159	0x80008a3d	-4.959e-41
160	0x80008ba9	-5.01e-41
161	0x80008a67	-4.965e-41
162	0x00008c50	5.0335e-41
163	0x80008a9f	-4.9728e-41
164	0x00008c09	5.0235e-41
165	0x00008a21	4.9551e-41
166	0x8000895e	-4.9278e-41
167	0x00008957	4.9268e-41
168	0x80008b5a	-4.999e-41
169	0x800120af	-1.0356e-40
170	0x80008a14	-4.9533e-41
171	0x80008b6f	-5.002e-41
172	0x00008b2e	4.9928e-41
173	0x80008e61	-5.1076e-41
174	0x000088ea	4.9116e-41
175	0x8000a6c4	-5.9824e-41
176	0x00008d48	5.0682e-41
177	0x800090ad	-5.19e-41
178	0x800094c7	-5.3371e-41
179	0x00008bd4	5.0161e-41
180	0x800089bf	-4.9414e-41
181	0x00008c32	5.0293e-41
182	0x00008e19	5.0975e-41
183	0x00008ddb	5.0888e-41
184	0x800088f2	-4.9127e-41
185	0x800091ed	-5.2348e-41
186	0x80008e12	-5.0965e-41
187	0x800089c8	-4.9427e-41
188	0x80008ca6	-5.0455e-41
189	0x80008cb6	-5.0478e-41
190	0x80008aae	-4.9749e-41
191	0x80008b4b	-4.9969e-41
192	0x00008e18	5.0974e-41
193	0x00008a22	4.9553e-41
194	0x00008b4b	4.9969e-41
195	0x0004b0f7	4.30825e-40
196	0x0000a822	6.0315e-41
197	0x8000a542	-5.9283e-41
198	0x00008b32	4.9934e-41
199	0x80009084	-5.1842e-41
200	0x00009a0c	5.5262e-41
201	0x00008b30	4.9931e-41
202	0x80008a84	-4.969e-41
203	0x0001d73d	1.69048e-40
204	0x000089f1	4.9484e-41
205	0x000094da	5.3398e-41
206	0x000089c0	4.9415e-41
207	0x80008b22	-4.9911e-41
208	0x80009c0d	-5.598e-41
209	0x000089d4	4.9443e-41
210	0x00008a90	4.9707e-41
211	0x80008a54	-4.9623e-41
212	0x80008f43	-5.1393e-41
213	0x80008fcb	-5.1583e-41
214	0x000094df	5.3405e-41
215	0x80008a4d	-4.9613e-41
216	0x80008982	-4.9329e-41
217	0x80008f8b	-5.1494e-41
218	0x80008b1c	-4.9903e-41
219	0x80009052	-5.1772e-41
220	0x00008940	4.9236e-41
221	0x80008fbb	-5.1561e-41
222	0x0000908c	5.1854e-41
223	0x80008bbc	-5.0127e-41
224	0x0000892e	4.9211e-41
225	0x80008aea	-4.9833e-41
226	0x000089e1	4.9462e-41
227	0x00008a2a	4.9564e-41
228	0x80008d86	-5.0769e-41
229	0x00009372	5.2893e-41
230	0x00009da9	5.6558e-41
231	0x80008c00	-5.0223e-41
232	0x00008cd5	5.0521e-41
233	0x800089a6	-4.9379e-41
234	0x8000895b	-4.9274e-41
235	0x8000a292	-5.8319e-41
236	0x00009603	5.3814e-41
237	0x00008b62	5.0001e-41
238	0x000089ee	4.948e-41
239	0x80009698	-5.4023e-41
240	0x000089c3	4.942e-41
241	0x0000933b	5.2816e-41
242	0x00008bb1	5.0112e-41
243	0x800094fd	-5.3447e-41
244	0x80008a50	-4.9617e-41
245	0x00008a9a	4.9721e-41
246	0x0000a376	5.8639e-41
247	0x80009c32	-5.6032e-41
248	0x00009306	5.2742e-41
249	0x000089ea	4.9474e-41
250	0x0000892b	4.9207e-41
251	0x00008a13	4.9532e-41
252	0x00008a7f	4.9683e-41
253	0x00008ccf	5.0513e-41
254	0x00008ecc	5.1226e-41
255	0x00008a74	4.9668e-41
