output/clip/FD004/exp_202411021602_bilstm_clip_ep-0104.pth (torch, 289762 bytes, 66 tensors)

module.bi_lstm1.weight_ih_l0 f4 [64, 14]
000000 61 d8 8c 3d c9 9a 96 3d 25 ae 12 3d 58 75 8a 3d
       0.068772085 0.07353742 0.03581061 0.06760663
000010 44 65 5c 3d d3 0f f1 3c 9e ce 22 3d 89 1b 97 3d
       0.053807512 0.02942649 0.039747827 0.07378299
000020 5d 97 59 3d ca 94 23 3d d6 8a 4f 3d ac 82 8c 3d
       0.053122867 0.03993682 0.050669514 0.06860861
000030 d0 e4 c3 3d a6 d5 b6 3d e4 84 75 3d e3 f6 e9 3c
       0.09565127 0.08927469 0.059941188 0.028560108
000040 a9 db 2e 3d 95 d8 48 bc 28 9a 75 3d 67 25 25 3d
       0.042689953 -0.012258668 0.059961468 0.040318873
000050 99 8e 5b 3d b4 24 c0 3c 3c 65 33 3d b4 77 75 3b
       0.05360279 0.023455001 0.043797716 0.0037455382
000060 6c b9 01 3d b8 96 98 3d 8e ba a2 3c b4 9a b2 3d
       0.031670973 0.07450622 0.019864347 0.087209135
000070 02 35 aa bc 82 61 1f 3d b6 94 4c bd 98 d1 65 3e
       -0.02077723 0.03891135 -0.04994651 0.22443235
000080 a3 09 88 3d 15 cd 8e 3d 1e 04 aa bd 66 a5 5b 3e
       0.06642463 0.0697271 -0.083015665 0.21449813
000090 e2 ba 9b 3d 2a 4a b3 3d 29 be b3 bd d1 c7 06 bc
       0.076040044 0.0875438 -0.087765045 -0.008226351
0000a0 1e 99 50 3e 83 d0 30 3e 5c 80 9e 3c 71 e6 60 3c
       0.2037091 0.17267041 0.019348316 0.0137268165
0000b0 cc 20 e4 bb 22 1c 88 3c 3b 77 0b 3d ab 52 dd 3c
       -0.0069619175 0.016614977 0.034049254 0.027016958
0000c0 33 86 9e 3c f6 de f3 3c c9 1d 10 3d 21 2c dd 3c
       0.0193511 0.029769402 0.035184655 0.026998581
0000d0 ce 22 8d bc 8f ca a3 3c f9 2b 4f 3c 0e f2 c0 3c
       -0.01722851 0.019994048 0.012644761 0.02355292
0000e0 b6 5a 26 3e 25 86 d0 3d 73 54 b7 3d d2 c7 69 bd
       0.16245541 0.10181836 0.08951654 -0.05707533
0000f0 ed 0b a3 3d f4 c2 5d bc 5c 37 36 3e 9b 93 95 bd
       0.07961259 -0.01353525 0.17794555 -0.07303544
000100 45 47 cf 3d 31 0d d4 bc b5 13 5a 3e 16 69 ca 3d
       0.101210155 -0.025885196 0.2129658 0.09883325
000110 6e c3 d7 bb d8 7a 84 bb d1 dc ca 3b 32 c5 d5 3b
       -0.0065845763 -0.0040429644 0.006190874 0.0065237517
000120 e4 d3 e0 39 af ca 31 3d 05 41 52 3c 26 29 65 3c
       0.0004288248 0.043406185 0.012832885 0.013986861
000130 43 44 13 bc 82 8a 67 3d 86 ca 8e 3c e8 a7 2c 3b
       -0.008988443 0.056528576 0.017430555 0.0026345197
000140 a0 4a 0d bd 90 0b a5 3c 0f ce 9f 3c c8 97 e2 3c
       -0.034494996 0.020147115 0.019507436 0.027660266
000150 f2 fa 90 bc 8e 53 2a bd a5 3a 9d bc f5 ae 6b bc
       -0.017697785 -0.04158359 -0.019193003 -0.014384975
000160 7e 8f 51 bc ae 67 bc bb b6 88 46 bd d3 e4 5c bc
       -0.012790559 -0.0057496643 -0.04847022 -0.01348229
000170 b9 49 f6 bc 79 ff d9 3b 1f a6 63 3d 34 68 f6 bc
       -0.03006445 0.006652769 0.055578347 -0.030078985
000180 20 72 64 3c c5 c8 ba bc 13 9b 69 3d 00 05 1c 3d
       0.013943225 -0.022800812 0.057032656 0.038090706
000190 15 2d e5 3b 6c 75 85 3c 91 d0 1a 3d 40 72 a2 3b
       0.0069938996 0.016291343 0.03779656 0.0049574673
0001a0 81 7e ef 3c bf 68 6b 3c d6 5b 3e 3d 9d b7 03 bc
       0.029235126 0.014368235 0.0464743 -0.008039382
0001b0 c5 b6 10 3d 81 07 13 3d 73 ef 9b 3b b0 79 0c ba
       0.035330553 0.03589583 0.004758769 -0.0005358709
0001c0 6e 15 47 3e 53 c5 d8 3d 34 47 e1 3d bc bc 06 bd
       0.19441769 0.105845116 0.10999909 -0.032894835
0001d0 9b 9e 04 3e 2a b9 12 3d 63 3a 0a 3e 7c a9 34 3b
       0.12951128 0.035821117 0.13498835 0.002756684
0001e0 61 42 db 3d a5 52 62 3c fd 86 7e 3e 06 63 c7 3d
       0.1070602 0.013813649 0.24856181 0.09735684
0001f0 5a 07 b4 3d a6 76 c6 3d 8d 01 6d 3d 32 6f 7f 3d
       0.08790465 0.09690599 0.057862807 0.062361903
000200 d1 a0 5b 3d 78 e9 a2 3c d0 65 11 3d 07 c8 44 bc
       0.053620163 0.019886717 0.035497487 -0.012010581
000210 f4 68 69 3d 33 fa 0f 3b c1 57 01 3d 81 24 41 bc
       0.056984857 0.0021969199 0.03157783 -0.011788488
000220 30 ff d4 3c 17 fa 72 3d f8 54 1b bc 53 ac 5e bb
       0.02600059 0.059320536 -0.009480707 -0.0033977225
000230 55 be ed 3d 5a ad bf 3d 6e a3 0d 3e f7 4c 36 bd
       0.116085686 0.09359236 0.13831875 -0.044506993
000240 12 ea 72 3c 26 31 97 3c c9 c9 d3 3d 2d 98 42 bd
       0.0148263145 0.018456053 0.10341222 -0.047508407
000250 b1 97 fc b9 80 b1 18 bc b2 9d 09 3e f4 7f fa 3d
       -0.00048178204 -0.009319663 0.13439062 0.12231436
000260 eb a6 f8 bc 1f 7a 05 3c 78 1d 6e bc fb 05 dd bc
       -0.03035303 0.008146792 -0.014533393 -0.02698039
000270 e9 82 0e bd 64 45 26 bd 7d 31 88 bc 30 91 2d bc
       -0.034792814 -0.04059352 -0.01662516 -0.010593697
000280 09 20 8b bc 53 e8 1e bd ab 3a f6 bb d6 71 91 bc
       -0.016983049 -0.03879578 -0.007514318 -0.017754477
000290 63 e0 07 bc bd 8a b7 bc 51 fb aa bc 7e f0 5c bc
       -0.008293244 -0.022405023 -0.02087179 -0.013485072
0002a0 e4 d9 e0 3c 0d 8f 83 3c 5d ec 86 3c dd ec db 3c
       0.027447648 0.016059423 0.016470129 0.026846344
0002b0 df f0 8b 3c 09 ee 75 3c 22 9c fa ba 46 25 ed 3c
       0.01708263 0.015010365 -0.0019120018 0.028948437
0002c0 a2 5e 62 3c d5 ee 0b 3c 38 b1 4f bc 2b e9 eb 3c
       0.0138165075 0.008540829 -0.01267653 0.028797707
0002d0 a7 96 43 bb 42 00 cf 3b c8 46 9a 3d 70 21 86 3d
       -0.0029844434 0.0063171694 0.07533032 0.065493464
0002e0 23 68 5d 3d 35 f0 49 3d c3 5c a8 3d 56 8f 3c 3d
       0.05405439 0.049301345 0.08220818 0.046035133
0002f0 81 60 47 3d 0e 71 50 3d 4d 7c 9b 3d 6b 01 2f 3d
       0.048676018 0.050889067 0.07592068 0.04272596
000300 aa 29 64 3d 62 6c 38 3d 8a 3c 3c 3d 5e a7 64 3d
       0.055703796 0.045025237 0.045956172 0.055823676
000310 d7 cb 24 3e dc 08 e9 3c d5 05 74 3d 4a 80 b3 bd
       0.16093384 0.028446607 0.059575874 -0.087647036
000320 e7 c8 27 3d 93 03 3d bd 66 cf e8 3d e0 c8 d8 bd
       0.04096308 -0.046145987 0.11367683 -0.10585189
000330 7d aa 76 3d c5 15 4a bd 44 1e 64 3e 6a 0b 5c 3d
       0.060221184 -0.049337167 0.2227717 0.053721823
000340 bb 93 fe bc f0 09 3e bd e0 c4 37 3d 16 ec 83 bb
       -0.031076303 -0.046396196 0.04486549 -0.0040259464
000350 1a e6 d7 3c 3c 10 a6 bd 8c 8f 09 3c 8c f0 3c bd
       0.026354838 -0.08108565 0.008396041 -0.04612784
000360 c6 8a fd 3c 16 87 9c bd d9 e4 e6 3c be 5e 4a bd
       0.030949961 -0.07642953 0.028185295 -0.04940676
000370 59 0c 7e 3d 7f 77 b5 bc 00 19 1c bd e9 39 ec bc
       0.062023494 -0.022151707 -0.03810978 -0.028836207
000380 d2 0f 85 3d d6 0c 6b 3d f3 97 a7 3c 69 f1 57 3d
       0.06497158 0.05738529 0.020458197 0.05272046
000390 79 5e 74 3d 4c 52 e4 3c 31 77 f8 3c 8c e2 7a 3d
       0.05966041 0.027871273 0.030330272 0.06125121
0003a0 5c 6e 71 3d 78 5b 13 3d 6b c1 1f 3d 54 b9 79 3d
       0.058943138 0.035975903 0.039002817 0.06096776
0003b0 02 41 9d 3d 2e e6 94 3d 9b 3c 14 3e 45 ce 09 3e
       0.07678415 0.07270466 0.14476244 0.13457592
0003c0 5f 95 c2 3d 06 fe ee 3d da ad 0c 3e bc a9 0d 3e
       0.095011465 0.11669545 0.13738194 0.1383428
0003d0 cd 8a 14 3e 7b cc 42 3e e5 7a eb 3d 28 25 01 3e
       0.14506073 0.19023316 0.1149805 0.1261183
0003e0 6b e3 0e 3e 7a 9d 75 3e 6d 6c 46 3e ee a6 8f 3e
       0.1395394 0.23985854 0.19377299 0.28057045
0003f0 73 97 3f 3c 75 3e 2e 3d 43 19 90 bc 2f 67 6b 3e
       0.011693823 0.042540032 -0.01759017 0.2298858

module.bi_lstm1.weight_hh_l0 f4 [64, 16]
000000 1d b5 aa bc af b5 80 3d 1f 71 91 bb e7 cb 64 bc
       -0.020838315 0.062846534 -0.004438534 -0.01396463
000010 69 42 d3 bc e4 30 21 bc 99 31 a2 bc 51 03 f6 bc
       -0.025788503 -0.009838317 -0.01979904 -0.030030878
000020 37 fd 91 3c 7c ea bd 3c de aa f3 3c 83 4b 9c 3c
       0.017820938 0.0231831 0.029744562 0.019078976
000030 00 20 83 3c 46 98 85 bc 18 50 8c bc db 2b fd bc
       0.01600647 -0.016307961 -0.017128035 -0.030904701
000040 77 1e 57 bd 0b ab 62 3e f2 d3 c6 ba 58 41 74 bd
       -0.052519288 0.2213556 -0.0015169366 -0.05963263
000050 2b 2e 02 3e a4 6c 0a 3d 3a 68 7a 3d 02 14 17 3d
       0.12712924 0.033795014 0.061134554 0.036884315
000060 86 aa 93 3d 13 a0 35 bd be f4 a2 bd 6b 36 9d bd
       0.07210259 -0.04434211 -0.07956837 -0.07676395
000070 75 1b 12 bd 24 a8 e2 bc b3 4a 29 3e 74 99 ca 3d
       -0.035670716 -0.027668066 0.16532402 0.0989255
000080 9e 07 88 3d 00 e9 d2 3d 4a b2 15 be 56 c7 2a bd
       0.06642078 0.102983475 -0.14618793 -0.041694008
000090 50 6e dc bd 9b 9d d1 3c 7a 3c 3f bd 01 14 f6 bc
       -0.10763228 0.025587847 -0.046688534 -0.030038835
0000a0 2c d5 ad bb 33 a2 1c 3d 5f bb 59 3b 6f ba bc 3c
       -0.005304953 0.038240623 0.0033223254 0.023038117
0000b0 75 fe 8a 3c 02 42 83 bb c3 58 be bd 36 f3 8f bd
       0.016967038 -0.0040056715 -0.09294274 -0.07028811
0000c0 77 c9 e0 3b c1 4b 90 3c e7 89 9c bc 8c 87 6a 3c
       0.006859954 0.017614247 -0.019108726 0.014314543
0000d0 2c c1 13 bd c5 65 14 bb fa c4 b4 bc 21 d3 6b bc
       -0.036072895 -0.0022643667 -0.022066582 -0.014393599
0000e0 89 60 b9 bb 81 54 95 3c 50 96 64 3c a0 9d 8e 3c
       -0.00565726 0.018228771 0.013951853 0.017409146
0000f0 85 4d 05 3c 7f 15 81 3b 7f 72 fc bc e7 b8 c9 bc
       0.008136158 0.00393933 -0.030816315 -0.024624301
000100 c3 42 83 bd 6c c7 59 3d ef 15 a9 3d bc 99 02 bc
       -0.06409218 0.0531687 0.082561366 -0.007971223
000110 18 1f 70 3d 42 3e a7 bc 38 d7 7e 3c 82 a4 2b bb
       0.058623403 -0.020415429 0.015554242 -0.0026190584
000120 1e 8c 93 bc 04 69 ae bb 7f d9 32 3d 72 60 15 ba
       -0.018011149 -0.0053225774 0.04366445 -0.00056982704
000130 80 1d ec 3b 6a 09 7a bb fe ad 63 3d e8 08 01 3c
       0.007205665 -0.0038152584 0.055585854 0.007875659
000140 dc 5f 8d 3c 93 08 3f bc 8d 0f 67 bc e4 01 81 bb
       0.017257623 -0.011659759 -0.014102829 -0.003936993
000150 e1 5d 51 bc 71 1e 55 3b 39 a6 c2 ba 9f 67 54 3b
       -0.01277873 0.0032519365 -0.0014850564 0.0032410396
000160 77 d7 84 bb 3c db f9 39 e9 bb 68 ba 16 7c 0b 3a
       -0.0040540057 0.00047656323 -0.00088780985 0.00053209194
000170 20 31 7e 3a e3 87 d4 3b 05 12 05 bc 34 37 a3 bb
       0.0009696651 0.0064859255 -0.008121972 -0.004980946
000180 44 d5 90 bc 7a 23 83 3d 9f 95 95 bb 99 40 5c 3b
       -0.017679818 0.06403251 -0.0045649554 0.003360784
000190 42 6e 6f bc d7 9e 2b bc ba 12 5c bc a9 cb e8 bc
       -0.01461369 -0.010474882 -0.013432199 -0.028417425
0001a0 0a d3 01 3d 4e ff 40 3c cf 13 e9 3b e2 d9 35 3c
       0.031695403 0.011779619 0.007112957 0.011099311
0001b0 3b cb 8e 3c 84 6d 8d bc 9a e6 ea bb 73 34 50 bc
       0.017430892 -0.017264135 -0.007168603 -0.012707817
0001c0 7e 4a 87 bc 66 70 7e 3d e7 47 60 3c 2e 50 5b bc
       -0.016515013 0.06211891 0.013689018 -0.013385816
0001d0 e2 30 ca 3b d7 bb 1f ba e8 68 3d 3b 5f fe 63 bb
       0.006170378 -0.0006093359 0.002890164 -0.0034789068
0001e0 a4 11 88 3c cb 7f c7 39 df f5 16 3c c5 7f 60 3a
       0.016609974 0.0003805145 0.009213894 0.0008563961
0001f0 d4 53 7e 3a 46 06 6e 3b e3 11 8d 3c 35 e9 0e bb
       0.00097018224 0.0036319657 0.017220443 -0.0021806483
000200 05 79 1d bd 05 4c 96 3e 6d d9 8a bd fc d4 07 bd
       -0.03844549 0.29354873 -0.06779752 -0.033162102
000210 14 af 94 3d a5 e8 06 3c 32 00 75 3c 2f 7b 2f bc
       0.07259956 0.008234178 0.01495366 -0.010710522
000220 4f 63 9f 3d 7e 57 2b bb 17 f1 a2 bc 70 bf 89 bc
       0.077826135 -0.0026144679 -0.019890351 -0.016814917
000230 1e 97 ad 3a 86 f4 9e bc 66 b7 c9 3d 22 35 12 3d
       0.0013243889 -0.019403707 0.098494336 0.035695203
000240 c9 74 3e bb b7 e8 c3 3c f2 ee 49 3c 5a 51 77 bc
       -0.0029061309 0.023914678 0.012325035 -0.015095079
000250 00 d5 4e 3d b3 60 b0 3b 08 18 a7 3b 7a 86 61 3c
       0.0504961 0.005382621 0.0050993003 0.013764972
000260 c6 0e 26 bd b1 0f 62 bc ca 6a 0f 3c fa e5 b3 bb
       -0.040541433 -0.013797686 0.008753488 -0.005490062
000270 db a4 1e bc 5b f0 95 3c 33 7e 31 3d 57 12 4f 3c
       -0.009682859 0.018303087 0.043333244 0.01263865
000280 44 65 41 bd b3 13 4f 3d 85 be 3c 3a c5 f7 1f bc
       -0.047215715 0.050555896 0.00072000205 -0.009763663
000290 46 f1 ab 3d 51 d0 9f bb a2 8c 11 3c 1f a5 3e 39
       0.08395629 -0.004877128 0.008883627 0.00018181324
0002a0 98 83 28 bd 45 cc 4a bc 63 a6 f0 3b 96 f5 f6 bb
       -0.041141123 -0.012377803 0.0073440536 -0.0075366003
0002b0 2a 21 a1 3a ca 87 74 3b d2 79 94 3d 47 d9 e8 3c
       0.0012293209 0.0037312382 0.07249798 0.028423918
0002c0 48 98 68 ba 99 82 0a b9 16 ff 54 3c 38 d1 91 3b
       -0.00088727893 -0.00013209357 0.01300027 0.0044499896
0002d0 6e 9c 07 bc c4 09 14 bb d0 de db b9 cf 5d 0a b9
       -0.008277042 -0.0022588829 -0.00041936943 -0.00013195652
0002e0 fb 52 51 3c e6 e6 33 3b eb 62 98 bb 15 65 46 ba
       0.012776132 0.0027450859 -0.004650464 -0.0007568163
0002f0 a3 21 73 3a aa 19 c1 ba 49 f4 86 bb 9d fb 8e 3a
       0.00092747266 -0.001473238 -0.0041184765 0.0010908727
000300 b2 60 02 3b e5 84 f3 3b f0 89 ac 3b d3 20 c6 bb
       0.001989406 0.0074316137 0.005265467 -0.0060463934
000310 e7 dc 94 3c 8f 79 30 ba 16 f6 bc 39 9d 32 22 3c
       0.01817174 -0.0006731981 0.00036041503 0.009899762
000320 3f 10 39 bc 5e 7d 32 bc 6b 7d 5d 3c 4b b3 f0 b9
       -0.011295377 -0.010894148 0.0135186715 -0.0004590995
000330 88 b5 14 bb a7 a9 35 3c bf be 75 3c dd 04 af 38
       -0.002269121 0.011087812 0.014999091 8.345556e-05
000340 9c b0 aa 3a 3a 1d ed 3b e2 0d 9b bc e3 68 28 3b
       0.0013022604 0.00723615 -0.018927518 0.0025697283
000350 5e 11 9b 3b bb b8 a8 bb d8 6d 88 bc e3 2d 00 bc
       0.004732295 -0.0051489747 -0.01665394 -0.00782344
000360 38 7c dc bc 5d 90 10 3b f3 46 ec 3c 0f 96 76 3c
       -0.0269147 0.0022058703 0.028842425 0.015050425
000370 f1 eb bb 3b 6f 5d 38 3c 3b 84 47 3b 8c 4d 89 bc
       0.0057349135 0.011252745 0.0030443806 -0.01676061
000380 d0 15 8c bd 5c 71 ec bc 13 aa c6 3d 85 84 af 3a
       -0.06840098 -0.028862648 0.09700408 0.0013390934
000390 29 af 2c 3d 1a 34 11 bd b5 ee 05 3c 5f aa aa bc
       0.042159233 -0.03545008 0.008174588 -0.020833192
0003a0 bb fa cc bc 35 6a b6 3b fe 2f 80 3d 9a a3 03 3c
       -0.025021901 0.00556686 0.06259154 0.008034611
0003b0 e9 6b d9 3c 28 a7 a6 bb ec 2e e4 3c 39 23 43 bb
       0.026540713 -0.0050858445 0.027854405 -0.0029775633
0003c0 a9 38 34 bc 15 3a 9e bc 81 85 04 3d e1 aa 6b ba
       -0.010999837 -0.019314805 0.03235388 -0.00089900015
0003d0 bb 1d d7 3b 04 2f c8 bb 4b b0 8e 3a 25 00 82 3b
       0.0065648234 -0.0061091203 0.001088628 0.0039673024
0003e0 cf 96 c7 3c 85 81 44 bb 0d b5 39 3b 08 3b 05 bc
       0.024363903 -0.0029984426 0.0028336674 -0.00813175
0003f0 6c 30 99 3a e2 32 32 bb 6d da cd 3b 6c 86 36 3c
       0.0011687404 -0.0027190973 0.006282142 0.011140447

module.bi_lstm1.bias_ih_l0 f4 [64]
000000 a3 85 e3 3d 0f 8a 06 3e 21 1d 38 3e 61 a5 ae 3c
       0.111094736 0.13138603 0.17979862 0.021319093
000010 80 3f 18 3e fc 01 ec 3c f9 a4 25 3c 4a b9 17 3d
       0.14867973 0.02880954 0.010110133 0.03704194
000020 ba 6a 73 3e a3 1c d8 bb 93 40 80 3c 08 d1 92 bc
       0.23771182 -0.0065952106 0.015655791 -0.01792194
000030 2a 2c 57 3b 0b eb 61 3d 03 4e a1 3d 4e 55 1b 3d
       0.003283272 0.055155795 0.07876208 0.03792315
000040 35 82 ac 3d ad 5f 89 3e c4 89 35 3e 4c 29 9b 3d
       0.084232725 0.26830807 0.17728335 0.07576236
000050 2a 2e 7f 3d 4d 28 5b bc dd 33 04 3d 14 8b a8 3b
       0.062299885 -0.013376308 0.032276023 0.0051435325
000060 41 2e 3a 3e 00 7d 92 bd 50 47 62 bd 0b 6c e3 bc
       0.18181707 -0.07152748 -0.05524379 -0.02776148
000070 ad 94 31 bd 2b 2c a1 3c 37 eb d8 3d a8 6c 0c bc
       -0.04335468 0.019674381 0.10591739 -0.008570828
000080 a2 17 2a 3c 1e 78 a8 3d 89 cc 48 3e c1 d7 d8 bd
       0.010381611 0.082260355 0.19609274 -0.10588027
000090 9a 06 4b be f4 37 2e be dd 23 67 bb 55 7b 3d bd
       -0.19826737 -0.17013532 -0.003526918 -0.046260197
0000a0 a4 1c 75 3e d7 b2 4a 3e 74 8b 54 3e fc 21 00 3e
       0.23936707 0.19794784 0.20756322 0.12512964
0000b0 05 f3 2e 3e f7 1d ee bd af 43 25 bc 05 d3 53 be
       0.17084892 -0.11626809 -0.010086938 -0.20685966
0000c0 68 c8 e1 3d 8e b6 58 3e 65 53 12 3e 68 b5 97 3c
       0.110245526 0.21163389 0.14289625 0.018519118
0000d0 d4 6e 0b 3e df d2 e1 3c b2 7e f2 3b fc 12 13 3d
       0.13616496 0.027566371 0.007400357 0.035906777
0000e0 6c f7 84 3e 71 59 7c bc d0 6e 88 3c 41 d3 a7 bc
       0.25970018 -0.015402184 0.016654402 -0.020486476
0000f0 6f bd 16 3b fe 87 63 3d 42 e8 65 3d a7 19 61 3c
       0.0023001095 0.055549614 0.0561297 0.013739026

module.bi_lstm1.bias_hh_l0 f4 [64]
000000 0e 1d e4 3d c2 a6 04 3e ee 2f 3c 3e 4b fd b2 3c
       0.11138354 0.12954238 0.18377659 0.021849295
000010 ba c7 15 3e 06 0b e9 3c e3 84 26 3c de 07 0d 3d
       0.14626971 0.02844764 0.010163519 0.03443133
000020 59 2d 73 3e 55 a7 03 bc af 51 82 3c c2 82 88 bc
       0.23747768 -0.0080355005 0.01590809 -0.016663913
000030 40 68 27 3b 36 c7 61 3d f8 4d bd 3d 80 a0 21 3d
       0.0025544316 0.055121623 0.09243387 0.039459705
000040 c1 a1 ac 3d cc b5 88 3e cc e0 36 3e ca ae 9a 3d
       0.084292896 0.267012 0.1785919 0.075528696
000050 9e 00 81 3d 3a 02 5b bc fa 42 04 3d 36 09 a7 3b
       0.06298946 -0.01336723 0.032290436 0.0050975336
000060 86 bb 3a 3e 3b 28 9c bd a6 31 61 bd 81 89 e2 bc
       0.18235597 -0.07624861 -0.05497899 -0.027653458
000070 f0 48 30 bd 3b ae a0 3c cc 52 07 3e d2 bd 8b bc
       -0.04303831 0.01961433 0.13215178 -0.017058287
000080 50 13 1f 3c ec af 7d 3e 36 53 31 3e dc c4 c2 3d
       0.009709194 0.2477414 0.17316899 0.09510204
000090 10 ff 56 be db a4 8a bd d8 14 c0 bc dc 53 27 be
       -0.20995736 -0.06769725 -0.02344744 -0.16340584
0000a0 88 a2 b3 3d 20 70 8d 3d 7b f2 87 3d 3d e0 92 3d
       0.08771235 0.06906152 0.06638046 0.07171676
0000b0 32 73 35 3e 0f 23 d3 bd 84 94 57 be 6b 3c 2e be
       0.17719725 -0.10309421 -0.21052748 -0.17015235
0000c0 bc 1c e2 3d 63 a6 53 3e 52 ce 14 3e e1 a6 a0 3c
       0.11040637 0.2066894 0.1453183 0.019610824
0000d0 f3 63 08 3e 1b 4a e0 3c 63 26 e6 3b 96 01 19 3d
       0.13319378 0.027379086 0.007023619 0.037355028
0000e0 bb e6 82 3e ec 09 61 bc a5 56 81 3c d4 98 b1 bc
       0.25566658 -0.013735276 0.015788386 -0.02167932
0000f0 49 6f 63 3b 19 98 64 3d da 9b 99 3d bf ac 61 3c
       0.0034703782 0.055809114 0.075004295 0.013774096

module.bi_lstm1.weight_ih_l0_reverse f4 [64, 14]
000000 75 5c af bb 0e 55 c4 3c ce 42 3a 3d 30 07 1f be
       -0.005351598 0.023966338 0.045473866 -0.15530086
000010 93 10 49 3d 13 1b 31 bd c4 e7 4d 3d ff 24 0f be
       0.049088072 -0.04323871 0.050269857 -0.13978957
000020 9e 01 9f 3d ed bb 9d bd 69 aa 1b 3e 9e 18 de 3c
       0.0776398 -0.077018596 0.15201725 0.027111348
000030 73 e2 ed bd 47 cc 69 bd 2d cf 60 3e e1 2d 28 3e
       -0.116154574 -0.05707958 0.21954031 0.16423751
000040 12 dd 55 3e ca 06 8a bd 5a fa 20 3e 1c b8 5b be
       0.20885113 -0.06739576 0.15720502 -0.21456951
000050 a8 b3 9f 3e 4d 27 eb bd 4a 46 3b 3e 27 e0 90 be
       0.31191754 -0.114821054 0.18288532 -0.28296015
000060 43 e3 0c 3e 40 48 f8 3d 5d c3 f1 bc 1f e8 80 bd
       0.13758568 0.121231556 -0.029512102 -0.062942736
000070 4d cc 83 bd c3 a7 a9 bc 80 27 57 bc b7 1f 23 bd
       -0.06435452 -0.020709878 -0.013131976 -0.039825168
000080 82 8a c3 3d ae 25 8f 3d f5 92 72 3d 6c 82 49 bd
       0.09547903 0.06989609 0.05922218 -0.049196646
000090 57 84 08 3e 2d ca d7 39 10 81 81 bd 36 ba 23 3a
       0.13331734 0.00041158628 -0.06323445 0.0006245704
0000a0 18 59 38 be b5 d1 af bd 8b 8b 06 bd 4b 23 9b bd
       -0.18002737 -0.0858492 -0.032847922 -0.07575091
0000b0 b4 68 36 be f5 a3 93 3e 9a 61 19 3c 29 0f b6 3e
       -0.17813379 0.28836027 0.009361649 0.3555844
0000c0 b8 dd 20 be 67 26 45 3e 40 35 6c bc 3d b3 ad 3e
       -0.15709579 0.1925293 -0.014416993 0.3392581
0000d0 ee a2 5f be 56 e2 06 bb 3b e3 87 bc 01 ad 45 bd
       -0.21839496 -0.0020581684 -0.016587844 -0.048260693
0000e0 ff ef 36 3e 96 fa 0c 3d f4 be 2d 3e 2f 91 47 bd
       0.17864989 0.034418665 0.16967374 -0.048722442
0000f0 ac e0 cc bd b1 70 72 be 58 85 22 3e c2 b4 ac 3b
       -0.1000379 -0.23675801 0.15871179 0.0052705714
000100 75 cc 9e bd 92 9c 3e be 5c 85 64 3e 35 3a a2 3d
       -0.07753841 -0.18614414 0.22316498 0.07921258
000110 12 76 cc bd 4f e8 0f 3d 90 8f 94 bb f0 f8 18 3e
       -0.099834576 0.035133656 -0.0045337155 0.14938712
000120 b1 77 98 bd 27 02 5a be 0a 48 f5 bd 9a 4e 86 be
       -0.07444704 -0.21289884 -0.11976631 -0.26231843
000130 12 13 92 3d a2 a2 91 be 49 0e f0 bd 45 21 90 be
       0.071325436 -0.2844439 -0.11721475 -0.28150383
000140 ed bd 5b 3e 71 cb 0f bc fb dd 86 bd d8 77 cd 3b
       0.2145917 -0.008776532 -0.06585308 0.00627039
000150 b8 e7 cc 3d 7d 70 aa 3d 70 2a 15 3e 13 ff 07 3b
       0.10005134 0.08322237 0.1456697 0.0020751401
000160 85 23 25 3e 4b 29 7d 3d 32 0f ec 3d e0 3b 91 bc
       0.16126831 0.06180696 0.11526336 -0.017728746
000170 bb 4b 30 3e 7c 8b 32 3d 57 e2 2d 3e fc 0f 7f 3d
       0.17216389 0.043590054 0.16980873 0.062271103
000180 ef fa aa 3d 9f 84 8b 3d 8a 9a 3d 39 a8 4d 51 bd
       0.08348643 0.06812405 0.00018082015 -0.05109945
000190 3e 06 93 bc c3 8e 9f bd cd 85 df 3c d1 c9 ae 3b
       -0.017947312 -0.077909015 0.02728548 0.005334117
0001a0 02 08 06 bd 7c b9 60 bd 3e e9 60 3d 44 b3 18 bd
       -0.03272248 -0.05486439 0.054909937 -0.037280336
0001b0 93 97 84 bd 59 1d 91 3d bc d2 8a bd 68 0c 02 bd
       -0.06474223 0.07085676 -0.06778476 -0.031750113
0001c0 97 35 42 3d b0 9d fb 3d 07 8d ae 3d 06 b9 c0 3d
       0.04741439 0.12285936 0.085229926 0.094102904
0001d0 07 03 15 3d 84 49 2c bc 07 b7 00 3e 04 79 cc 3d
       0.03637984 -0.010515574 0.1256982 0.099840194
0001e0 8b d8 87 3d 38 5a 1e bc 15 e8 6e 3d 7a 28 61 3d
       0.06633099 -0.0096650645 0.0583268 0.054970242
0001f0 98 a1 50 3d e4 ec df 3c 46 67 28 3d 75 e7 56 3c
       0.050935358 0.027334638 0.041114114 0.013116707
000200 21 40 ad 3d dc b2 98 3d a7 af 03 3d 2a 15 bd 3d
       0.08459497 0.0745599 0.032149937 0.09232552
000210 d7 de 25 3d 3a e7 f3 3d b7 e8 20 3d fe 4b cf 3d
       0.04049572 0.11909337 0.039284434 0.10121916
000220 c2 cb a4 bc 19 da bd bc 5e c1 62 3d 0a fa c7 3c
       -0.02011669 -0.023175286 0.05536019 0.02441122
000230 76 39 b5 bd 95 5f 1d 3e ed 14 88 bd ed 91 f3 3e
       -0.088488504 0.15368493 -0.06644616 0.4757227
000240 5a 93 5d 3d ba 9c 91 3d d8 3e 3a be 46 78 f1 3e
       0.054095604 0.07109971 -0.18188035 0.47162074
000250 2d 8d 3e 3d ee f1 16 3e ea 37 90 be bb c3 0f 3e
       0.046521354 0.14740726 -0.2816766 0.14039509
000260 f2 43 98 3e 54 ba 9f 3e 29 8f 74 bd b2 72 37 3e
       0.29739338 0.31196845 -0.05970684 0.17914847
000270 c8 cc 7b bc 78 ed 93 3d fb b8 35 bd 31 31 f3 bd
       -0.015368648 0.07223028 -0.044365864 -0.11874617
000280 56 0f 30 3d cd 14 9e 3d 3a c4 c9 bc aa b2 e1 bd
       0.042983375 0.07718811 -0.0246297 -0.110204056
000290 41 3e 0c bd 36 72 6b 3d a9 42 bd bb f5 e0 ee 3d
       -0.034239057 0.057481967 -0.005775769 0.11664001
0002a0 14 ce 3b 3d 45 97 b2 3d 74 d1 dd 3d 89 2a c5 bd
       0.04585083 0.087202586 0.10830966 -0.096272536
0002b0 58 76 bb 3c 1e 9d 3c be 84 82 19 3e 73 91 ce bd
       0.02288358 -0.1841931 0.14991194 -0.10086336
0002c0 c5 37 9a 3c b5 8a 34 be 38 34 e4 3d 60 cc 2e bd
       0.018825421 -0.17631038 0.111427724 -0.042675376
0002d0 5b e6 3e bd eb c0 44 bc 2c ed b2 bc d3 7c aa 3d
       -0.046606403 -0.012008886 -0.021841608 0.083245896
0002e0 0f 28 f9 3b 01 e0 88 bd d4 d5 16 be 17 29 5e be
       0.0076036523 -0.0668335 -0.14730006 -0.21695362
0002f0 0e a1 8c 3d 43 ba 88 bd ea 7c f7 bd e4 8e 56 be
       0.06866656 -0.066761516 -0.12084372 -0.20952946
000300 ca 90 07 3d a7 b9 c3 bc c5 cf 5b bd 2d e5 3e bc
       0.033097066 -0.023892237 -0.05366494 -0.011651319
000310 8a bd 6a 3e 9f 16 51 3e 8e 89 45 3e a6 13 a4 ba
       0.22923866 0.20418786 0.19290754 -0.0012518063
000320 97 a9 97 3e ba 8e 20 3e 06 fa 06 3e 80 36 08 bd
       0.29621574 0.15679446 0.13181314 -0.0332551
000330 9e cd 89 3e a9 02 db 3d 2e 7b 11 3e f6 60 bb 3d
       0.26914686 0.10693867 0.14207146 0.09149353
000340 59 99 89 bd d8 68 c7 bd 70 86 38 3d 23 1c 2d 3e
       -0.06718702 -0.09736794 0.045050085 0.16905265
000350 c6 d5 b3 3d d2 0a d5 3d e7 31 a0 3c 6a db c7 3d
       0.087810084 0.104024544 0.019555045 0.09758647
000360 c8 c5 19 3d 6b e5 c8 3d 93 98 52 bb 82 71 ab 3d
       0.037542135 0.09809383 -0.0032134398 0.08371259
000370 09 58 02 3d df d9 19 3e 4a 19 39 3d 0a ad e7 3c
       0.031822238 0.15024517 0.045190133 0.028280754
000380 e2 08 93 3d e8 dc 0d 3e 96 6a fa 3d c8 1d 17 bc
       0.07179429 0.138538 0.12227361 -0.009223409
000390 f6 e0 3a 3d 94 18 12 3d 2a df 2e 3e e5 a4 1f 3c
       0.045624696 0.03566797 0.17077318 0.009743904
0003a0 00 28 87 3d 61 8f e7 3a 1f 67 80 3e cf 1a 1d 3e
       0.06599426 0.0017666632 0.25078675 0.15342258
0003b0 5d ca 90 3d 8b 4b fc 3d 46 a7 31 3e c5 d8 66 3e
       0.07069848 0.12319096 0.17348966 0.22543629
0003c0 42 67 79 3e b8 09 21 3e 4f 93 bc 3c 39 80 c1 bd
       0.24355796 0.15726364 0.023019461 -0.09448285
0003d0 31 7a 9e 3e c8 70 e4 3d ee 91 e3 3c 12 3c d5 bd
       0.309526 0.11154324 0.027779546 -0.10411848
0003e0 fd a2 36 3e 38 b3 65 3e 2c 51 ff 3d 86 33 f7 3d
       0.17835613 0.22431648 0.12466654 0.12070374
0003f0 e3 8c 6f 3e bf 6b 69 3e 5c 74 62 3e eb 20 b2 3e
       0.23393588 0.22795008 0.221147 0.3479074

module.bi_lstm1.weight_hh_l0_reverse f4 [64, 16]
000000 c4 48 6e bd 76 c5 27 be 9e 33 6d 3e e7 4c c6 3e
       -0.058174863 -0.16383919 0.23164222 0.38730547
000010 b7 0b 1d be e1 62 9d 3b 04 b9 2b 3d 9b 8e 40 bd
       -0.153365 0.004803047 0.04192449 -0.047011
000020 75 55 c4 bd d3 13 ea bc e7 a4 25 be 32 2f 23 3d
       -0.09586612 -0.028573906 -0.16176187 0.03983993
000030 b5 dc 5b bd 99 40 1a bc 8e fc 64 3c 60 14 40 bc
       -0.05367728 -0.009414815 0.013976229 -0.011723608
000040 a6 ae 50 3d d5 1e 0c be 5a 65 0b be a3 f1 9f bc
       0.050947808 -0.13683636 -0.13612881 -0.019524401
000050 7f 70 45 be 14 2d 10 3d 92 88 19 3d 77 da 0f 3d
       -0.19281195 0.03519924 0.03748376 0.035120454
000060 3c 06 93 3c 27 6c c4 bd 37 fe 5b be 48 3e 9c bd
       0.017947309 -0.09590941 -0.21483694 -0.07629067
000070 48 cc 1d bd 69 bb 6f 3c 5b 1f 56 3e 97 ad dc 3d
       -0.038524896 0.014632084 0.20910399 0.10775297
000080 77 d7 0e bd b9 e6 b3 be a4 50 a9 3d 67 5c 35 3e
       -0.034873452 -0.35136965 0.08267334 0.1771103
000090 6f 69 cf 3d 0f 9a 8b 3e 55 7b 1c 3d e8 e9 99 3d
       0.10127532 0.27265975 0.038203556 0.07515317
0000a0 05 a8 d1 be d0 4c 6b be 61 b3 e1 3c 8c 39 68 be
       -0.409485 -0.2297852 0.027551355 -0.22678202
0000b0 88 53 88 be 3a 04 c9 3c 5d 35 fc bc f8 a1 ba 3e
       -0.2662623 0.024538148 -0.030787164 0.36451697
0000c0 6a 15 58 3a 61 b4 f2 bd 02 04 04 bc 12 34 80 bd
       0.0008242937 -0.11850811 -0.008057596 -0.062599316
0000d0 05 53 2b 3b 6e 00 ad 3c 74 34 80 3d 10 d0 82 bd
       0.0026142013 0.021118369 0.06260005 -0.06387341
0000e0 9a 6b 07 be 00 31 fe bd 02 ff 43 3e 85 92 a5 bd
       -0.1322464 -0.1241169 0.19140247 -0.08084587
0000f0 ee 55 c6 bc a0 e4 9c 39 b6 71 9e 3d 68 8d 11 3e
       -0.024210896 0.00029924978 0.077365324 0.14214098
000100 79 ff d1 bc 56 e7 63 3c ca 54 e6 bb 51 fe ce 3d
       -0.025634514 0.013910135 -0.0070291506 0.10107101
000110 a2 20 9e bd d0 79 b9 bd d2 1b c6 bd 21 a1 50 bd
       -0.07721068 -0.09056437 -0.09673275 -0.050934914
000120 1a 43 48 3d 74 d4 30 3d 91 ca 1d be e4 8d ec 3c
       0.048892118 0.04317136 -0.15409304 0.028876252
000130 81 0a 1e 3d 7d 0c 18 3d a4 a0 0d be b4 d1 31 be
       0.038584236 0.037121285 -0.13830811 -0.17365152
000140 bb 6d fe 3c 0c e1 08 be c4 d0 09 3e e6 d1 47 3e
       0.031058183 -0.13367099 0.13458544 0.19513664
000150 f7 21 87 bc 96 b2 79 3d 31 3d f7 3b d1 8e 83 3b
       -0.016495688 0.06096133 0.0075451364 0.004014828
000160 bd 8f 03 be aa 9b 12 bd 5a 8f f6 bd 0d f5 40 3d
       -0.128478 -0.035792984 -0.12039061 0.0471087
000170 c3 ed 0b be 97 32 4e 3d ac 9a a1 3d e7 51 33 bd
       -0.13664918 0.050341215 0.078908294 -0.04377928
000180 98 13 68 bc a1 f4 10 bd f3 01 d9 3d 0c 10 28 3e
       -0.014164828 -0.035389546 0.10596075 0.16412371
000190 6a fb 04 be ee 41 fa bc fa 1b 19 3c bd f3 b4 bc
       -0.12986532 -0.030549016 0.009345049 -0.02208888
0001a0 4d 01 82 bc 74 3d b2 3b ab f9 dc bd ff f8 53 3d
       -0.01586976 0.0054394547 -0.10789808 0.051751133
0001b0 f4 19 ac 3d 0c e5 a1 bc b6 c8 68 3d 6e 99 1e bc
       0.08403388 -0.019762538 0.056832038 -0.009680135
0001c0 d6 c8 b6 bc 30 7d 4b be e8 b5 b7 3d ce 48 0f 3e
       -0.022312563 -0.19871974 0.08970243 0.13992617
0001d0 86 4e be 3c 37 c5 19 bc cb b4 5f 3d 5b f5 e4 3c
       0.023230802 -0.009385399 0.054615777 0.027949026
0001e0 69 45 32 be 31 5f 04 bd a1 81 eb 3d ab 6e 85 3b
       -0.1740929 -0.032317344 0.11499334 0.0040720305
0001f0 f5 a0 18 bd e4 94 06 3d 95 21 c0 3d df e8 52 bd
       -0.037262876 0.032856837 0.09381405 -0.051491614
000200 fe 11 a7 3c d9 8c e4 bd 3a 01 82 3b 8a ee dc 3c
       0.020394322 -0.11159677 0.0039674314 0.026969213
000210 f5 39 a4 3d 8e 71 d9 bc 95 f0 8e bc d4 61 62 3d
       0.08018867 -0.026543405 -0.017448703 0.055269077
000220 c7 31 2f be 41 c6 e1 3c 88 80 89 bd 62 b4 79 bd
       -0.17108832 0.027560355 -0.067139685 -0.060963042
000230 cd 8a 34 bc e5 1f 17 bc b0 fc a5 bb 2d ee 41 3c
       -0.011019421 -0.009223913 -0.005065523 0.011836571
000240 eb 44 03 bc e3 5d 66 3d b4 7a 6a bd 1e 53 87 bb
       -0.008012037 0.05624188 -0.057245925 -0.0041297814
000250 ee ce 72 3d 65 83 12 3d 61 8c a3 bd 2c b7 45 3d
       0.059279375 0.03576984 -0.079857595 0.04827039
000260 6f 53 18 3c 54 a0 21 bd ae 8e 14 3d 64 e1 47 bd
       0.009297236 -0.03945954 0.036268882 -0.048798934
000270 dc 48 87 bd 7b c8 70 bd ed 11 8b 3c d6 a0 30 3e
       -0.06605694 -0.058784943 0.016976321 0.17248854
000280 6e 28 f6 bd 1d b5 04 3e f3 46 bf 3d c0 1e fe bc
       -0.1201943 0.12959714 0.09339704 -0.031020522
000290 9c 58 94 3e a8 cd 1b bd 02 df 60 be b6 43 db bc
       0.28973854 -0.038037926 -0.2196007 -0.026765686
0002a0 c9 f5 39 bd e1 c6 59 bc 60 87 06 bc cd 09 e8 bc
       -0.045400415 -0.013292045 -0.008210987 -0.028324986
0002b0 9c 2e 70 3c a8 d9 52 bd 83 5d 43 be 91 17 4b 3d
       0.01465955 -0.051477104 -0.1907864 0.04958302
0002c0 d4 c6 11 bd 95 40 30 be 5f 49 1e 3e 73 47 57 3c
       -0.035590008 -0.17212136 0.15457676 0.013139593
0002d0 29 f2 15 3d a5 b4 78 bc 56 bd 09 bd 9a 12 85 3c
       0.036607895 -0.015179788 -0.03362783 0.016244221
0002e0 7e cf 04 be 26 92 ae bc 94 84 e3 3d be 46 93 3b
       -0.12969777 -0.021309923 0.11109272 0.004494517
0002f0 d4 4d b7 bd 0d d3 0f 3d b3 f4 99 3d bd 35 2f 3c
       -0.089503914 0.035113383 0.07517376 0.010693965
000300 15 02 7c bd 52 30 82 be 11 66 5c 3e a3 c5 67 3e
       -0.061525423 -0.2542749 0.2152331 0.22633986
000310 f7 fe 48 3c a1 35 08 be ab 32 ff bc 99 2a 6a bc
       0.01226782 -0.13301708 -0.03115209 -0.014292383
000320 06 6d 00 be 7e f4 de 3c af 0a 23 3d 97 c0 c6 3b
       -0.12541589 0.027216192 0.03980511 0.006065439
000330 d5 6d 67 bd 52 21 23 3d 23 2d 32 3e c8 87 f9 bc
       -0.05650123 0.0398267 0.17400031 -0.030460253
000340 5e 26 8e 3c f6 00 d7 bd 7b f5 d0 3c 22 35 1b 3e
       0.01735228 -0.1049823 0.02550768 0.15156987
000350 e6 b3 3e be 88 c2 e0 3d 9f 13 6b bc 61 2e 9a bc
       -0.18623313 0.10974604 -0.01434794 -0.018820943
000360 e0 7a 4b bc 1f 1b 0a 3d 05 e9 87 be 1a 0a 58 bd
       -0.012419432 0.03371727 -0.26544967 -0.05274401
000370 1a d3 e6 bd 37 aa fd 3c 75 cc 1a be 67 d9 11 3d
       -0.11270733 0.030964954 -0.15117057 0.03560772
000380 5e bb de bc cb 0e 4a 3c 42 06 95 bb 1e 2a bc 3c
       -0.027188953 0.0123326285 -0.004547865 0.022969302
000390 97 b9 d7 bd 41 e1 6e bd 8c 40 16 3d cd a7 cd bc
       -0.10533445 -0.058320288 0.03668265 -0.025104428
0003a0 4f d1 18 3e 19 3b 65 bd ff 55 75 bd 1f 51 27 3d
       0.14923595 -0.055964563 -0.059896465 0.040848847
0003b0 96 3b 31 bd cd 7f a4 bd 18 81 2e 3d 01 19 a0 3d
       -0.043269716 -0.080321886 0.042603582 0.07817269
0003c0 51 10 08 3d ac a6 a3 bd 6c 88 a2 3c 6c 75 d1 3c
       0.033218686 -0.079907745 0.019840442 0.025568686
0003d0 14 bb 34 bd c7 90 a0 3d 0c 98 46 3c a4 b3 cd 3b
       -0.044123724 0.07840114 0.012121212 0.0062775183
0003e0 57 4a 8c bd 90 14 29 bd b9 a2 64 bd 40 62 12 bd
       -0.06850117 -0.041279376 -0.055819247 -0.03573823
0003f0 75 36 a6 bd a7 8c 0d 3d a0 ab 81 3c ed aa f7 3c
       -0.081158556 0.034557965 0.015828907 0.030232871

module.bi_lstm1.bias_ih_l0_reverse f4 [64]
000000 11 1e 23 bd 11 06 b7 3d c9 39 4a bd 64 0b 0f be
       -0.039823595 0.08936704 -0.049371514 -0.13969189
000010 0d 69 1e 3e 23 f9 b1 bc f6 62 c6 3d e0 c3 97 bc
       0.15469761 -0.021725243 0.09686844 -0.018526018
000020 5a 83 f6 3d 39 bf 0c 3e 78 a7 79 3e d4 c8 0a 3d
       0.12036772 0.1374482 0.2438029 0.03388293
000030 e8 d3 9d 3d bc e1 14 bd 45 a4 02 3e 6e 32 06 3d
       0.077064335 -0.03634809 0.12757976 0.032762937
000040 7e f9 3e 3e 8b 12 22 3e f8 b9 96 3e e8 0d 63 3e
       0.18649861 0.15827386 0.29438758 0.22173274
000050 aa 17 4c 3e 2c c4 9f 3e d1 ad a3 3d 65 49 c8 bc
       0.19930902 0.31204355 0.07992137 -0.02444906
000060 86 54 18 3e 37 70 90 3d 7f fd c2 3c b7 5a 35 bc
       0.14875993 0.07052653 0.023802517 -0.011068991
000070 d6 f1 41 3e e1 1a 71 3d 03 28 8f 3d 0f 07 69 3e
       0.1893991 0.058863524 0.069900535 0.22756599
000080 60 1e 0a be 47 1e 94 3e 85 41 bb 3d 71 89 26 3e
       -0.1348815 0.2892935 0.09143356 0.16263367
000090 83 eb c9 3d f1 fd 58 be b1 75 06 bd 4b c3 a2 3d
       0.098593734 -0.21190621 -0.032827083 0.079474054
0000a0 b9 24 01 be b1 b3 51 3e 64 81 7a be 30 96 8f bc
       -0.12611665 0.20478703 -0.24463421 -0.01752767
0000b0 54 8b 80 3e ce ea 96 3d 1c a4 a8 be ff 0e f0 3b
       0.251063 0.07369004 -0.32937706 0.0073260064
0000c0 79 34 da 3c bf 0d 3d 3e da c1 2a 3e ef ac fc 3d
       0.026636349 0.18462275 0.16675511 0.12337672
0000d0 03 a5 ed 3d b6 82 c8 3d 50 58 84 3d ba fa cc bd
       0.11603739 0.09790556 0.06462157 -0.1000876
0000e0 f1 48 23 3e 7f 8c bb 3d 8a de 65 3e 83 19 46 3d
       0.15945794 0.09157657 0.22448173 0.048364174
0000f0 4d 96 53 3d ff e3 cd 3c 65 df 5c 3e 14 12 f6 3b
       0.05165701 0.025133131 0.21569593 0.0075094793

module.bi_lstm1.bias_hh_l0_reverse f4 [64]
000000 20 fc 03 bd 91 78 b8 3d e9 11 97 bd b3 77 21 be
       -0.032222867 0.09007371 -0.07376463 -0.15768318
000010 4d b5 1d 3e 56 6c 72 bc c3 44 a3 3d 95 73 ad 3b
       0.15401192 -0.014796337 0.079721 0.0052933195
000020 6c 74 1a 3e b2 b9 11 3e 58 41 32 3e 14 9f 23 3c
       0.15083474 0.14230993 0.17407739 0.009986658
000030 48 9b 79 3d 8a 6e b7 bc 08 cc 17 3e 08 18 12 bd
       0.060939103 -0.022391576 0.14823925 -0.03566745
000040 15 15 49 3e 6c e0 09 3e 8e c4 a5 3e d7 d9 78 3e
       0.19636948 0.13464516 0.32376522 0.2430185
000050 3a 6c 4b 3e 61 e7 91 3e 8d 56 a5 3d 03 71 25 bc
       0.19865504 0.2849684 0.08073149 -0.010097745
000060 9f 8c 23 3e fc e8 f0 3d bb a6 3e 3e 86 9e 41 3c
       0.15971611 0.11763188 0.1861829 0.01181758
000070 28 df 41 3e a6 e8 74 3d 1f ae 4e 3e 45 70 23 3e
       0.18932784 0.059792183 0.2018361 0.15960796
000080 34 35 82 bd 4f 2f a8 bc 83 b5 a0 bb 8c 41 b2 3d
       -0.06357804 -0.020530371 -0.0049044504 0.08703908
000090 40 ca 5f 3e b9 f4 01 be 5d 1d 8b 3d 25 59 c2 3d
       0.21854496 -0.1269101 0.0679271 0.09489659
0000a0 91 ea 47 3e 8f 96 9c 3e 76 6a 54 be 0f 26 1b 3d
       0.19523074 0.30583617 -0.20743737 0.037878092
0000b0 92 bb 3e 3e e0 d4 b3 3c 2b 9c 1e be 7e 9b 9d be
       0.1862624 0.021952093 -0.15489261 -0.30782694
0000c0 ca f9 fe 3c ea a7 40 3e c8 03 05 3e 61 5e 29 3d
       0.031124968 0.18814054 0.12989724 0.041349772
0000d0 a1 87 ec 3d 48 6b 35 3e 15 31 68 3d cd 28 d0 3d
       0.11549307 0.17716706 0.056687433 0.10164032
0000e0 55 14 1d 3e 4a a4 4e 3d 97 07 a4 3c 8e b3 52 3c
       0.15339787 0.050449647 0.02002315 0.012860192
0000f0 88 9d b7 3d a4 1b dd 3c eb b2 6c 3d 2a 46 aa bb
       0.089655936 0.02699072 0.057787817 -0.0051963525

module.bi_lstm2.weight_ih_l0 f4 [128, 16]
000000 0e 3a 53 3b 7e 03 64 bc f8 38 bb 3b 7d dd 71 3b
       0.0032230648 -0.013916848 0.0057135783 0.00369057
000010 7e 2f ae bc cc d6 e5 3c 37 51 88 3b 09 b5 04 bc
       -0.02126288 0.028056525 0.004160072 -0.008099803
000020 20 e8 81 3c 36 ff 3b bc bc 26 96 bc 7c c7 99 3b
       0.015857756 -0.011474421 -0.018329017 0.00469297
000030 51 66 25 bc 0c 0d 58 ba 1a ea 9e bc c9 ad fa b9
       -0.010095195 -0.000824169 -0.019398738 -0.00047813196
000040 37 b2 d1 ba 2f 79 2b 3d 78 d5 d0 3a 57 79 00 3d
       -0.0015998547 0.041863617 0.0015932759 0.03136572
000050 8d a5 a5 bc 96 14 3b bd a3 27 48 3c 3a 0b ca bc
       -0.020220542 -0.04567393 0.012216481 -0.024663556
000060 95 73 40 3d d4 8c 30 3d c1 cb 06 bd 3e 27 03 3d
       0.046985228 0.043103054 -0.03290916 0.032019846
000070 30 aa 4a 3d 7b be 82 bb cf 27 10 bd dc 4c 3c bd
       0.04947871 -0.003989992 -0.035194214 -0.045971736
000080 1d c5 6e bb 36 13 82 bc 53 82 3c 3b 32 84 a4 ba
       -0.0036433407 -0.015878301 0.0028764203 -0.0012551604
000090 ba ae c7 bb 23 c4 19 bc 68 8b 1b 3c a1 5f bd 3b
       -0.006093827 -0.009385142 0.009493686 0.005779222
0000a0 b9 c1 67 bb 48 17 bd 3a 2d a2 cb 3b a5 06 28 ba
       -0.003536327 0.0014426494 0.006214401 -0.00064096815
0000b0 39 60 14 3c ed dd 41 3a 90 93 ea 3c 13 69 0e bc
       0.009056144 0.0007395435 0.028634816 -0.008692044
0000c0 d7 1d c0 ba d4 3d 9a 3c 24 27 9f 3a a2 85 85 3c
       -0.001465733 0.01882831 0.0012142402 0.016299073
0000d0 2d 73 46 bd 41 ef 00 3d 17 43 4b 3c e7 01 eb bc
       -0.048449684 0.03147817 0.012406132 -0.02868743
0000e0 3c 59 83 3d 05 0c 4e bb 43 0e 61 bd ef 9e b6 3c
       0.064135045 -0.003144027 -0.05494524 0.022292582
0000f0 9e a9 8e 3c 95 b0 7b bc f1 62 13 bd 21 c1 27 b9
       0.017414864 -0.015361925 -0.03598303 -0.00015998307
000100 73 30 f4 3a 62 ae 8a 3b b6 04 fc bb 72 74 12 bb
       0.0018630162 0.004232214 -0.0076909913 -0.002234724
000110 68 ec 15 ba 37 36 3a bc c7 95 0a 3b 9e 24 cb b9
       -0.0005719126 -0.011365465 0.0021146403 -0.0003874646
000120 44 40 5c 3a 98 a0 01 3c fe a9 91 bb da d8 43 3b
       0.00084019103 0.007911824 -0.0044453135 0.0029883892
000130 d4 f1 1c 3c 1a f8 87 38 f5 44 c4 bb 11 11 18 bc
       0.009579141 6.483514e-05 -0.0059896656 -0.009281413
000140 40 30 2b 39 d9 8e 31 bb 9f ef cb 3b 35 13 d2 3b
       0.00016325805 -0.00270932 0.0062236334 0.006410981
000150 35 0e 9e bc 9c b4 68 3c 6e c6 9f 3b c6 a3 2b bb
       -0.019293884 0.014203217 0.0048759496 -0.0026190146
000160 1f c9 c1 3c a7 2f e1 3b 29 12 3e bc d3 67 03 3c
       0.023655472 0.0068721357 -0.011601009 0.008020359
000170 77 5f 14 3c c7 c2 ec ba b9 e5 fb 3b ef 9e 9a 3b
       0.009055964 -0.0018063419 0.007687297 0.0047186534
000180 71 46 c0 ba dc bf 42 3c ad 16 18 bc 9b bc 44 bc
       -0.0014669431 0.011886563 -0.00928275 -0.012007858
000190 ca 2a d3 bb 8b 0c a7 3b f3 5d 13 ba f9 5c f6 bb
       -0.00644431 0.005097931 -0.00056216045 -0.0075184074
0001a0 b5 25 a7 3c d6 d9 60 3b b8 dc 2e bc 20 b8 fe 3b
       0.020403722 0.0034309528 -0.010672741 0.0077734143
0001b0 87 85 69 3c 16 52 08 bc 39 ed 48 bc d5 c3 9b 3b
       0.014253027 -0.008320352 -0.01226359 0.0047535696
0001c0 38 51 26 bb ae f5 d2 3b 8e 97 80 3c 59 cf 02 3c
       -0.0025378 0.0064379787 0.015697267 0.007984006
0001d0 c8 76 26 bc 9c 76 88 b9 d9 92 87 3a 6a dc 86 bb
       -0.010160156 -0.00026028312 0.0010343447 -0.004115631
0001e0 a4 95 22 3c ec 35 fe 3b ec 03 27 bc 21 7c d0 3b
       0.009923372 0.007757893 -0.010193806 0.0063624536
0001f0 5f ee 2d 3c 6c a6 03 bb 89 c7 98 ba ad ea 23 bb
       0.010615914 -0.002008821 -0.0011656146 -0.0025011704
000200 f4 a4 3f 3b 23 f2 bc bd 9f 65 4c bc c0 c0 26 bd
       0.0029242607 -0.092258714 -0.0124754 -0.040711164
000210 04 34 e5 3c 44 2e 0d 3d 74 b8 89 bb b7 bf 43 3d
       0.027978905 0.03446795 -0.0042028967 0.047790255
000220 bc af a7 bd e1 a3 d2 bc 42 44 a5 3d fe 9c 20 bd
       -0.081878155 -0.02571291 0.0806966 -0.03921222
000230 93 58 49 bd d4 a4 c3 3c 87 6d e3 3d 9c 25 38 3d
       -0.049156737 0.023882307 0.11104875 0.044957742
000240 4d 9e 32 bc 7a 92 52 3c 4d cb 51 3c 03 d9 77 bb
       -0.010902 0.012852306 0.012804818 -0.0037818558
000250 59 1c a0 3a cd 8a 78 bc 72 fe c6 bb 6e 97 d0 ba
       0.001221548 -0.015169811 -0.0060728127 -0.001591427
000260 3f a8 48 3c ce fc 8e 3c 6b cd c1 bb 41 ed 6f 3c
       0.012247144 0.017454531 -0.0059143803 0.014643968
000270 d2 6e b4 3c 69 4e ee bb 9b 53 f8 bb 76 8c 07 bc
       0.0220255 -0.007272531 -0.007578326 -0.008273235
000280 d5 8d f1 3b a2 69 a7 3c bf 82 57 3b e3 d9 2d 3d
       0.007371644 0.020436112 0.0032884327 0.04244412
000290 35 e8 00 bd 32 d8 d4 3b c7 4e 20 3c 65 26 a1 bc
       -0.03147145 0.006495499 0.009784407 -0.019671628
0002a0 ed 57 bc 3c bc 23 6a 3c 6a 1d 2a bd ae 67 87 3c
       0.022991145 0.014290746 -0.041531958 0.01652893
0002b0 5b cb e2 3c 7f 8c 65 bb 9c ac 44 bd da a2 25 bc
       0.027684858 -0.003502637 -0.048016176 -0.010109628
0002c0 13 a0 cb 3b 22 f8 3d bd 3e 57 1b bd ae b3 f0 bc
       0.0062141507 -0.046379216 -0.037924998 -0.029382553
0002d0 20 3f 82 3b 59 71 a1 3b 8b a7 f1 bb 15 4d 2b 3d
       0.0039748102 0.004926842 -0.007374709 0.041821558
0002e0 5a f4 4d bd b0 f8 c3 38 2d 09 40 3d 5e e9 99 bc
       -0.05028186 9.344646e-05 0.04688375 -0.018788036
0002f0 f4 0c 04 3c dd 90 b7 3c aa b3 6c 3d 0c 3c ce 3c
       0.008059729 0.022407943 0.05778853 0.025175117
000300 df 71 9c b9 62 25 61 bb 55 72 c8 3b 81 18 dc 3b
       -0.0002983948 -0.0034354557 0.006117145 0.0067167883
000310 42 e2 56 bc b0 b7 7e 3c 4d ba 6a 3b ce 70 18 3a
       -0.0131154675 0.015546724 0.003581661 0.0005815149
000320 58 f4 16 3c 90 0b 9b 39 e5 fb 28 bc 93 da 51 3b
       0.0092135295 0.00029572519 -0.010313963 0.003202115
000330 27 25 a7 3b 03 03 d6 b9 b7 cf 4a 3b e0 83 ff 3b
       0.0051008645 -0.00040819505 0.0030946562 0.007797703
000340 44 00 52 ba 85 94 a1 3c a4 a8 13 3c 00 ee a3 bb
       -0.0008010904 0.01972414 0.009012375 -0.005002737
000350 7e 2d 22 3c 80 d5 29 bd 57 16 40 3b 10 69 d9 bb
       0.0098985415 -0.041463375 0.002931019 -0.006634839
000360 36 4e 1e 3c 70 1c 00 3d 36 2f 05 bc 89 a6 a3 3c
       0.009662202 0.03127712 -0.008128932 0.019976871
000370 1e 95 09 3d 58 c1 e0 bb aa e6 1b bb c8 86 07 bd
       0.033589475 -0.006858986 -0.002378861 -0.03308752
000380 f8 6d 12 3c f7 52 b2 bb 6f 59 b5 bc ec 47 06 bc
       0.008937351 -0.005442019 -0.022137372 -0.008195858
000390 95 86 06 bc 6a 70 8d 3c 2c cf f8 3b c6 58 a1 3b
       -0.008210798 0.017265517 0.007593056 0.0049239127
0003a0 ca 3f 6d bb d1 d5 ea b9 02 f6 72 bc 57 6f d4 ba
       -0.0036201351 -0.00044791264 -0.014829161 -0.0016207498
0003b0 28 96 7d 3b 91 13 1f 39 1c 78 5d bc fe c3 7b 3c
       0.0038694236 0.0001517071 -0.013517406 0.015366552
0003c0 d3 3a a7 3d c2 d1 c1 bd 37 07 2e bd 27 20 91 bd
       0.08165517 -0.09463836 -0.04248735 -0.07086211
0003d0 8c 4f fd bc 80 10 5d 3c 73 6b 6d 3d eb 39 54 3d
       -0.03092172 0.013492703 0.0579638 0.051813047
0003e0 96 6b da bd d4 10 d7 bc 84 5f 50 3d 00 1a 18 bd
       -0.10665052 -0.026253141 0.05087234 -0.03713417
0003f0 b5 89 b2 bb ae 5f 23 3d af e6 a5 3d 24 4e 8b bc
       -0.005448545 0.03988617 0.0810064 -0.017005034

module.bi_lstm2.weight_hh_l0 f4 [128, 32]
000000 4c 89 00 80 e0 8a 00 80 f7 89 00 00 f0 8a 00 00
       -4.9253e-41 -4.9819e-41 4.9492e-41 4.9841e-41
000010 65 8b 00 80 3d 8b 00 80 b0 8e 00 80 98 8a 00 00
       -5.0005e-41 -4.9949e-41 -5.1187e-41 4.9718e-41
000020 0d 89 00 80 c1 89 00 80 64 90 00 00 00 89 00 80
       -4.9165e-41 -4.9417e-41 5.1798e-41 -4.9146e-41
000030 56 ad 00 80 12 8b 00 80 0f 8a 00 00 bc a0 00 80
       -6.2181e-41 -4.9889e-41 4.9526e-41 -5.766e-41
000040 83 9e 00 00 32 a4 00 80 a7 8a 00 80 88 a7 00 00
       5.6863e-41 -5.8902e-41 -4.9739e-41 6.0099e-41
000050 83 8b 00 80 3b 89 00 00 cf 8b 00 80 e2 88 00 80
       -5.0047e-41 4.9229e-41 -5.0154e-41 -4.9104e-41
000060 7d 8c 00 00 72 89 00 00 6a 99 00 00 51 8b 00 80
       5.0398e-41 4.9306e-41 5.5035e-41 -4.9977e-41
000070 d0 89 00 00 ea 8a 00 00 39 8c 00 00 31 8a 00 80
       4.9438e-41 4.9833e-41 5.0302e-41 -4.9574e-41
000080 12 91 00 00 62 8a 00 00 1d 93 00 00 ec 8a 00 80
       5.2041e-41 4.9642e-41 5.2774e-41 -4.9836e-41
000090 08 8e 00 00 f1 8a 00 00 84 8a 00 00 d2 ac 00 00
       5.0951e-41 4.9843e-41 4.969e-41 6.1996e-41
0000a0 25 95 00 00 14 94 00 00 d3 8c 00 00 56 8e 00 80
       5.3503e-41 5.312e-41 5.0518e-41 -5.106e-41
0000b0 75 a8 00 00 9a 8d 00 80 29 ad 00 00 e8 88 00 80
       6.0431e-41 -5.0797e-41 6.2118e-41 -4.9113e-41
0000c0 59 89 00 80 c1 89 00 00 fd 89 00 00 16 8d 00 00
       -4.9271e-41 4.9417e-41 4.9501e-41 5.0612e-41
0000d0 90 8c 00 00 6f 8a 00 00 c5 8a 00 00 8e 8a 00 80
       5.0424e-41 4.966e-41 4.9781e-41 -4.9704e-41
0000e0 32 8b 00 80 0d 92 00 80 5c a1 00 80 4c 8b 00 00
       -4.9934e-41 -5.2393e-41 -5.7885e-41 4.997e-41
0000f0 59 8c 00 80 90 8a 00 00 e0 8d 00 80 ab 89 00 00
       -5.0347e-41 4.9707e-41 -5.0895e-41 4.9386e-41
000100 02 8e 00 80 ad 89 00 00 35 93 00 80 df 8b 00 00
       -5.0943e-41 4.9389e-41 -5.2808e-41 5.0176e-41
000110 89 ab 00 80 f8 93 00 00 1b a5 00 00 e1 88 00 80
       -6.1535e-41 5.3081e-41 5.9229e-41 -4.9103e-41
000120 53 9e 00 00 ab 94 00 00 b8 97 00 00 62 8a 00 00
       5.6796e-41 5.3332e-41 5.4426e-41 4.9642e-41
000130 54 8a 00 80 94 8b 00 00 e9 88 00 80 8e 94 00 00
       -4.9623e-41 5.0071e-41 -4.9114e-41 5.3291e-41
000140 e9 9d 00 00 14 8c 00 00 f2 8a 00 00 bf 9a 00 80
       5.6647e-41 5.025e-41 4.9844e-41 -5.5512e-41
000150 0d 8d 00 80 8e 8b 00 80 9b 8d 00 00 e3 8a 00 80
       -5.06e-41 -5.0063e-41 5.0798e-41 -4.9823e-41
000160 f1 8b 00 00 0d 8b 00 80 ba 8a 00 80 e4 8a 00 00
       5.0202e-41 -4.9882e-41 -4.9766e-41 4.9825e-41
000170 04 8a 00 00 c6 8a 00 00 c2 88 00 80 f3 8b 00 00
       4.951e-41 4.9783e-41 -4.906e-41 5.0204e-41
000180 56 8b 00 80 6f 8a 00 00 3f a8 00 80 64 89 00 00
       -4.9984e-41 4.966e-41 -6.0355e-41 4.9286e-41
000190 de 8d 00 00 be 88 00 80 00 8b 00 00 1d 8b 00 80
       5.0892e-41 -4.9054e-41 4.9864e-41 -4.9904e-41
0001a0 fb 8f 00 80 c8 89 00 80 cb 8c 00 00 a9 8a 00 00
       -5.165e-41 -4.9427e-41 5.0507e-41 4.9742e-41
0001b0 bb 8b 00 80 d2 a0 00 80 6b 89 00 80 12 8a 00 00
       -5.0126e-41 -5.7691e-41 -4.9296e-41 4.953e-41
0001c0 74 8b 00 00 d7 89 00 00 42 8a 00 00 ae 89 00 00
       5.0026e-41 4.9448e-41 4.9598e-41 4.939e-41
0001d0 a1 8a 00 00 44 8d 00 00 59 8a 00 80 07 8c 00 80
       4.973e-41 5.0677e-41 -4.963e-41 -5.0232e-41
0001e0 cd 8c 00 00 4e 89 00 00 73 99 00 80 3a 8b 00 80
       5.051e-41 4.9256e-41 -5.5047e-41 -4.9945e-41
0001f0 3c 89 00 00 2a 9d 00 80 b6 8e 00 00 c6 8a 00 00
       4.923e-41 -5.638e-41 5.1195e-41 4.9783e-41
000200 c7 8a 00 80 34 8a 00 80 1b 89 00 80 23 8b 00 80
       -4.9784e-41 -4.9578e-41 -4.9184e-41 -4.9913e-41
000210 4f 89 00 80 8b 89 00 80 50 98 00 00 b1 8c 00 80
       -4.9257e-41 -4.9341e-41 5.464e-41 -5.047e-41
000220 e1 8a 00 80 eb 89 00 80 ce 90 00 00 92 89 00 80
       -4.982e-41 -4.9476e-41 5.1946e-41 -4.9351e-41
000230 c3 8d 00 00 d9 95 00 80 15 8c 00 80 a9 8b 00 80
       5.0855e-41 -5.3755e-41 -5.0252e-41 -5.01e-41
000240 8a 89 00 00 95 8c 00 80 0c 8a 00 80 4e 93 00 00
       4.934e-41 -5.0431e-41 -4.9522e-41 5.2843e-41
000250 07 8c 00 00 52 8b 00 80 77 89 00 80 cc 89 00 00
       5.0232e-41 -4.9979e-41 -4.9313e-41 4.9432e-41
000260 ee 88 00 00 4f 89 00 00 60 8d 00 80 27 89 00 00
       4.9121e-41 4.9257e-41 -5.0716e-41 4.9201e-41
000270 a1 8a 00 00 94 89 00 80 5e 8d 00 80 3d 8a 00 80
       4.973e-41 -4.9354e-41 -5.0713e-41 -4.959e-41
000280 a9 8b 00 80 67 8a 00 80 50 8c 00 00 9f 8a 00 80
       -5.01e-41 -4.965e-41 5.0335e-41 -4.9728e-41
000290 09 8c 00 00 21 8a 00 00 5e 89 00 80 57 89 00 00
       5.0235e-41 4.9551e-41 -4.9278e-41 4.9268e-41
0002a0 5a 8b 00 80 98 ab 00 80 14 8a 00 80 6f 8b 00 80
       -4.999e-41 -6.1556e-41 -4.9533e-41 -5.002e-41
0002b0 2e 8b 00 00 61 8e 00 80 ea 88 00 00 c4 a6 00 80
       4.9928e-41 -5.1076e-41 4.9116e-41 -5.9824e-41
0002c0 48 8d 00 00 ad 90 00 80 c7 94 00 80 d4 8b 00 00
       5.0682e-41 -5.19e-41 -5.3371e-41 5.0161e-41
0002d0 bf 89 00 80 32 8c 00 00 19 8e 00 00 db 8d 00 00
       -4.9414e-41 5.0293e-41 5.0975e-41 5.0888e-41
0002e0 f2 88 00 80 ed 91 00 80 12 8e 00 80 c8 89 00 80
       -4.9127e-41 -5.2348e-41 -5.0965e-41 -4.9427e-41
0002f0 a6 8c 00 80 b6 8c 00 80 ae 8a 00 80 4b 8b 00 80
       -5.0455e-41 -5.0478e-41 -4.9749e-41 -4.9969e-41
000300 18 8e 00 00 22 8a 00 00 4b 8b 00 00 a6 92 00 00
       5.0974e-41 4.9553e-41 4.9969e-41 5.2608e-41
000310 22 a8 00 00 42 a5 00 80 32 8b 00 00 84 90 00 80
       6.0315e-41 -5.9283e-41 4.9934e-41 -5.1842e-41
000320 0c 9a 00 00 30 8b 00 00 84 8a 00 80 e6 9e 00 00
       5.5262e-41 4.9931e-41 -4.969e-41 5.7002e-41
000330 f1 89 00 00 da 94 00 00 c0 89 00 00 22 8b 00 80
       4.9484e-41 5.3398e-41 4.9415e-41 -4.9911e-41
000340 0d 9c 00 80 d4 89 00 00 90 8a 00 00 54 8a 00 80
       -5.598e-41 4.9443e-41 4.9707e-41 -4.9623e-41
000350 43 8f 00 80 cb 8f 00 80 df 94 00 00 4d 8a 00 80
       -5.1393e-41 -5.1583e-41 5.3405e-41 -4.9613e-41
000360 82 89 00 80 8b 8f 00 80 1c 8b 00 80 52 90 00 80
       -4.9329e-41 -5.1494e-41 -4.9903e-41 -5.1772e-41
000370 40 89 00 00 bb 8f 00 80 8c 90 00 00 bc 8b 00 80
       4.9236e-41 -5.1561e-41 5.1854e-41 -5.0127e-41
000380 2e 89 00 00 ea 8a 00 80 e1 89 00 00 2a 8a 00 00
       4.9211e-41 -4.9833e-41 4.9462e-41 4.9564e-41
000390 86 8d 00 80 72 93 00 00 a9 9d 00 00 00 8c 00 80
       -5.0769e-41 5.2893e-41 5.6558e-41 -5.0223e-41
0003a0 d5 8c 00 00 a6 89 00 80 5b 89 00 80 92 a2 00 80
       5.0521e-41 -4.9379e-41 -4.9274e-41 -5.8319e-41
0003b0 03 96 00 00 62 8b 00 00 ee 89 00 00 98 96 00 80
       5.3814e-41 5.0001e-41 4.948e-41 -5.4023e-41
0003c0 c3 89 00 00 3b 93 00 00 b1 8b 00 00 fd 94 00 80
       4.942e-41 5.2816e-41 5.0112e-41 -5.3447e-41
0003d0 50 8a 00 80 9a 8a 00 00 76 a3 00 00 32 9c 00 80
       -4.9617e-41 4.9721e-41 5.8639e-41 -5.6032e-41
0003e0 06 93 00 00 ea 89 00 00 2b 89 00 00 13 8a 00 00
       5.2742e-41 4.9474e-41 4.9207e-41 4.9532e-41
0003f0 7f 8a 00 00 cf 8c 00 00 cc 8e 00 00 74 8a 00 00
       4.9683e-41 5.0513e-41 5.1226e-41 4.9668e-41
