output/clip/FD004/exp_202411022104_bilstm_clip_ep-0109.pth (torch, 288916 bytes, 66 tensors)

module.bi_lstm1.weight_ih_l0 f4 [64, 14]
0	0x3bf12712	0.007359394
1	0xbb1d227e	-0.0023976858
2	0x3b68a1fd	0.0035496943
3	0x3baba7c8	0.005238507
4	0xb8715d1e	-5.75456e-05
5	0x3bca4348	0.0061725713
6	0x3b8170d6	0.0039502187
7	0x3b34741b	0.0027535025
8	0x3b25474f	0.0025219505
9	0x3b85a9c4	0.0040790755
10	0x3c304b62	0.01076016
11	0xbb443709	-0.002994003
12	0x3c0ccede	0.008594243
13	0x3be31777	0.0069302875
14	0x3bb38678	0.0054786764
15	0x3c2d6ae9	0.010584571
16	0x3bf7682e	0.007550261
17	0x3bb4a3fc	0.0055127125
18	0x3ca6e124	0.020371027
19	0x3be308c9	0.0069285375
20	0x3b524956	0.0032087169
21	0x3c80f508	0.01574184
22	0x3c82b4d1	0.01595536
23	0x3be62ea3	0.0070246025
24	0x3c20185b	0.009771432
25	0x3b12b3fa	0.0022385106
26	0x3cd9e6b7	0.026599271
27	0x3b61149e	0.0034344564
28	0xbddb8a35	-0.1071972
29	0x3d223945	0.039605398
30	0xbe3a5f35	-0.18200381
31	0x3e3eede0	0.1864543
32	0xbd908211	-0.07056058
33	0xbd4959f4	-0.04915805
34	0xbe36a0a1	-0.17834713
35	0x3e5e48cf	0.21707462
36	0xbdb7c7f8	-0.08973688
37	0x3d32c9fe	0.043649666
38	0xbe6fb47b	-0.23408692
39	0xbde84c9f	-0.11342739
40	0x3ea063db	0.31326184
41	0x3e5a0ac9	0.21293177
42	0x3d843c94	0.06456867
43	0x3c999bc7	0.018751038
44	0x3caad055	0.020851294
45	0x3ca24f55	0.01981322
46	0x3ccb2c32	0.024801347
47	0x3c6e7155	0.014553388
48	0x3c748b9f	0.014925866
49	0x3cc964cb	0.024584195
50	0x3cdad8aa	0.026714642
51	0x3c6f952a	0.014622966
52	0x3de86931	0.11348189
53	0x3c31a62f	0.010842844
54	0x3d8b9dbc	0.06817195
55	0x3d9a5006	0.075347945
56	0x3c9446da	0.01810019
57	0x3d147579	0.036244843
58	0x38a2f942	7.77119e-05
59	0xbd35233c	-0.044223055
60	0x3cb2666f	0.02177736
61	0xbc0070ec	-0.007839423
62	0x3cc6f89d	0.02428847
63	0xbce5df53	-0.02806059
64	0x3c94edc5	0.018179784
65	0xbcb30a51	-0.021855505
66	0x3d9c54d9	0.07633371
67	0xbc82364c	-0.015895031
68	0x3c2abafc	0.010420557
69	0xbbe7129f	-0.0070517804
70	0x3c3ef014	0.011653919
71	0x3d1e19d4	0.03859885
72	0x3ce736a0	0.02822429
73	0x3d7a8efa	0.06117151
74	0x3d626475	0.055271585
75	0x3cbdf663	0.023188775
76	0x3d1bf92b	0.038079422
77	0x3d170c03	0.03687669
78	0x3d643318	0.05571279
79	0x3d2d2cf0	0.042279184
80	0x3d8f6f03	0.07003596
81	0x3c6ddebc	0.014518436
82	0x3da16a80	0.078816414
83	0x3d9812e3	0.07425477
84	0x3d21905d	0.039444316
85	0x3d410b8f	0.047130164
86	0x3c9dc1d5	0.019257465
87	0x3e024951	0.1272328
88	0x3d146724	0.036231175
89	0x3d41d51b	0.047322374
90	0x3cc91d94	0.024550237
91	0x3e0b643b	0.13612454
92	0x3cb06944	0.02153457
93	0x3d8edc70	0.06975639
94	0xbca09fdb	-0.019607475
95	0x3d682805	0.05667879
96	0x3e14b1c3	0.14520936
97	0x3dc79d74	0.09746829
98	0xbb59f9ef	-0.0033260544
99	0x3a22c122	0.00062085886
100	0xba86f155	-0.0010295311
101	0xbc262bb9	-0.01014226
102	0x3b812c06	0.0039420156
103	0x3b40e155	0.0029431183
104	0x3c0760cf	0.008262827
105	0xbc1bbe24	-0.009505782
106	0x3b36a10a	0.0027866983
107	0xba8f4c00	-0.0010932684
108	0x3c33779e	0.010953812
109	0xbc639463	-0.013890359
110	0xbc1e4349	-0.009659597
111	0xba3f82b7	-0.000730555
112	0xbd0e0c4c	-0.034679696
113	0xbbdbf27f	-0.0067122574
114	0xbd053068	-0.032516867
115	0x3ac3893e	0.0014918221
116	0xbcd05759	-0.025432276
117	0xbc3b212a	-0.011421481
118	0xbd0d405f	-0.034485217
119	0x3c05c6b9	0.008165055
120	0xbcf6bcf5	-0.030119399
121	0xbbc0af5a	-0.0058802785
122	0xbd58181b	-0.052757364
123	0xbcad4135	-0.021149257
124	0xba108bbc	-0.0005513986
125	0xbb52401d	-0.0032081672
126	0x3ca6b07e	0.02034783
127	0x3d84dbc8	0.064872324
128	0x3d72680b	0.059181254
129	0x3db251dd	0.087070204
130	0x3da0566c	0.07828984
131	0x3d3ee29a	0.046602823
132	0x3da4d13d	0.080477215
133	0x3d8abf75	0.06774799
134	0x3d91c5d6	0.07117812
135	0x3d6873b4	0.056750968
136	0x3d9ff8e8	0.07811147
137	0x3d82e10a	0.06390579
138	0x3da3bf2d	0.07995448
139	0x3dc427a2	0.09577872
140	0xbdb21746	-0.08695845
141	0x3be51bf8	0.0069918595
142	0xbd0aa603	-0.033849727
143	0xbdc914d1	-0.098184235
144	0xbdfc8344	-0.123297244
145	0xbc4dd0ac	-0.012561958
146	0x3c4430c6	0.011974519
147	0xbcb11c5f	-0.021619974
148	0xbdb616a9	-0.08891041
149	0xbc9ef786	-0.019405138
150	0x3c609c3d	0.013709125
151	0x3caeb665	0.021327207
152	0xbe30dfb6	-0.17272839
153	0xbdc610ab	-0.09671148
154	0xbccb430a	-0.02481224
155	0x3c12e379	0.0089653665
156	0xbb32fa94	-0.002731
157	0x3c243212	0.010021703
158	0x3cfb607c	0.030685656
159	0x3b3d7989	0.0028911552
160	0x3d028ebb	0.0318744
161	0xbb9abc9b	-0.0047221906
162	0x3c8b059f	0.016970454
163	0x3c29b6b0	0.0103584975
164	0xbc2bc1d4	-0.010483224
165	0x3ba345d3	0.004982689
166	0xbb2f4252	-0.002674241
167	0xbc57d736	-0.013173869
168	0x3d8179e4	0.06322077
169	0x3cdbbab6	0.02682243
170	0x3d37dada	0.044886447
171	0xbaf808e7	-0.0018923552
172	0x3c749b4c	0.014929604
173	0x3cea651d	0.028612668
174	0x3cc055c3	0.023478394
175	0x3cfe078a	0.031009454
176	0x3c152759	0.0091036195
177	0x3c808b78	0.015691504
178	0x3da8f5de	0.082500204
179	0x3d3fd171	0.0468306
180	0x3d992b20	0.074789286
181	0x3cf6a5bc	0.030108325
182	0x3a66e81c	0.00088083907
183	0x3ca3fa14	0.020016707
184	0x3c63d925	0.013906752
185	0x3d11d9a0	0.035607934
186	0x3ceb8ea0	0.028754532
187	0x3b2ab2d0	0.0026046522
188	0x3c100eb2	0.008792566
189	0x3ce4b601	0.027918817
190	0x3cfe9ae0	0.03107971
191	0x3c7d388d	0.015455377
192	0x3d333203	0.043748867
193	0x3c09c24a	0.0084081385
194	0x3d138274	0.03601308
195	0x3d3a8dfe	0.04554557
196	0x3e081b0f	0.13291572
197	0x3daf6f16	0.0856611
198	0x3d67d14a	0.056596078
199	0xbdc78017	-0.09741228
200	0x3bf8d16d	0.007593325
201	0xba85afbe	-0.001019947
202	0x3dbfbd0f	0.09362232
203	0xbda0214d	-0.078188516
204	0x3ca66ed6	0.020316523
205	0xbcf02b01	-0.02931738
206	0x3e83e691	0.25761846
207	0x3cc704c9	0.024294274
208	0x3cb97d78	0.022642836
209	0xbc6601d0	-0.014038518
210	0x3d1c61ae	0.038179092
211	0x3c8695e3	0.016428893
212	0x3c9da280	0.019242525
213	0xbd11d98e	-0.035607867
214	0x3caa6338	0.020799264
215	0x38f372bf	0.00011608516
216	0x3d0a3690	0.03374344
217	0xbcfa49bc	-0.030552737
218	0x3cb201d3	0.021729385
219	0xbc664e32	-0.014056729
220	0x3da40668	0.080090344
221	0xbc1ba934	-0.00950079
222	0xbc6f4b9b	-0.014605428
223	0xbc0d6d7f	-0.008632063
224	0x3b9df7ad	0.004820785
225	0xbaa9430e	-0.0012913661
226	0x39ca067a	0.00038533268
227	0x3b500f0d	0.0031747252
228	0xbb230094	-0.002487217
229	0x3b9e2c22	0.0048270384
230	0x3b449704	0.002999724
231	0x3a63f1fe	0.00086954224
232	0xb924958e	-0.00015695972
233	0x3b3bd573	0.0028661161
234	0x3c100020	0.008789092
235	0xbaa5c198	-0.0012646196
236	0x3babc19d	0.0052415864
237	0x3b89e3e3	0.0042080744
238	0xbb9e6665	-0.0048339837
239	0xbb443bc3	-0.0029942847
240	0x3bfd448e	0.0077291196
241	0x3c945eab	0.018111547
242	0x3c69b56c	0.014264446
243	0x3bf22311	0.007389434
244	0xbbbf25e0	-0.0058333725
245	0x3cc649ec	0.02420517
246	0x3c31fccb	0.010863493
247	0x3c443227	0.011974848
248	0xbc1a3043	-0.009410921
249	0x3ca277e8	0.019832566
250	0x3d1ff405	0.039051075
251	0x3c2c1c2c	0.010504764
252	0x3dd60fa1	0.104522
253	0xbc87b2d0	-0.016564757
254	0xbd82b390	-0.06381905
255	0x3e616cec	0.22014207

module.bi_lstm1.weight_hh_l0 f4 [64, 16]
0	0xbb8d0f95	-0.004304836
1	0x3ad5619b	0.0016279699
2	0xbbd301ba	-0.006439415
3	0x3c3a254c	0.011361431
4	0xba0bbb97	-0.0005330382
5	0x3a7a76ee	0.0009554465
6	0x3ba600b9	0.005066004
7	0xbaf10a57	-0.0018389922
8	0x3b4854fb	0.003056823
9	0x3b0e5229	0.0021716452
10	0xbc287b12	-0.0102832485
11	0xbb63c86d	-0.0034756914
12	0x3b44f011	0.0030050317
13	0x3bd3b844	0.006461175
14	0xbbbffd6d	-0.005859068
15	0xbad8b5c4	-0.0016533663
16	0xbb8531a6	-0.0040647564
17	0x385d1105	5.2706357e-05
18	0xbc9c7131	-0.019096943
19	0x3c60fc93	0.013732093
20	0xbbdc631a	-0.006725681
21	0x3c271283	0.010197285
22	0x3cb7fb6f	0.02245876
23	0xbb2041da	-0.0024453313
24	0x3a815310	0.0009866673
25	0xbc13c1f8	-0.009018414
26	0x3cae1bf9	0.021253573
27	0x396207a9	0.00021555893
28	0x3b0298cf	0.0019927507
29	0x3b96f4a2	0.004606799
30	0xbc95b48d	-0.01827457
31	0xbb50a828	-0.003183851
32	0xbce2d839	-0.027690994
33	0x3c9b4a0f	0.018956212
34	0xbe62bced	-0.22142382
35	0x3dc0202c	0.09381136
36	0xbd208c75	-0.03919645
37	0x3d8dab49	0.06917436
38	0x3e0628d0	0.13101506
39	0xbcdc403f	-0.026886104
40	0x3cf84ecc	0.03031101
41	0xbdc35a0d	-0.0953866
42	0xbe114675	-0.14187033
43	0xbd0a999a	-0.033837892
44	0x3c67a1fd	0.014137742
45	0x3d77b0c1	0.0604713
46	0xbda9c9e1	-0.082904585
47	0xbd5e739d	-0.054309476
48	0xbca69e70	-0.02033922
49	0x3c92cb9c	0.017919354
50	0xbd5639b3	-0.05230112
51	0x3d4a27dc	0.04935442
52	0xbc459d8b	-0.012061487
53	0x3d59bf34	0.05316086
54	0x3bd848dc	0.0066004824
55	0xbc2a2ba5	-0.010386382
56	0x3c3d4ef9	0.011554473
57	0xbd8bfaa7	-0.068349175
58	0xbd80b3e0	-0.062843084
59	0xbcd2b2b0	-0.02571997
60	0x3d399eb9	0.045317385
61	0x3d6b6da1	0.057477597
62	0xbcbf6a30	-0.023366064
63	0xbc29c024	-0.010360751
64	0x3b903cb2	0.0044017667
65	0x3c939a38	0.018017873
66	0xbc745a8a	-0.014914164
67	0x3cf4fc8e	0.029905584
68	0xbc969016	-0.018379252
69	0xbc920926	-0.017826628
70	0xbcf7e908	-0.030262485
71	0xbc230363	-0.009949538
72	0x3a78b60d	0.0009487577
73	0x3ccf3423	0.025293415
74	0xbcd58aa5	-0.026067087
75	0x3c778edd	0.015109745
76	0x3d1af269	0.037828837
77	0x3b78ef99	0.0037984608
78	0x3be4aa04	0.0069782753
79	0xbbadd234	-0.005304599
80	0xbbc98650	-0.0061500445
81	0x3bb0ef8b	0.0053996495
82	0xbd28f07f	-0.04124498
83	0x3cb21400	0.021738052
84	0xbb796b0a	-0.0038058185
85	0x3bcbc976	0.0062190844
86	0x3ca40656	0.020022552
87	0xbb8d4d22	-0.0043121735
88	0x3be5fcc2	0.0070186565
89	0xbc57ecac	-0.013178986
90	0x390e3f7b	0.00013565824
91	0xbb32bbc0	-0.0027272552
92	0x3b72f758	0.0037073698
93	0x3c4c2ba0	0.012461573
94	0xbc21d8b6	-0.009878328
95	0xbb631f6d	-0.0034656182
96	0xbc68879f	-0.014192491
97	0xbc0e3f2f	-0.008682056
98	0xbd4a8484	-0.049442783
99	0xbbd81256	-0.0065939827
100	0xbb89e349	-0.0042080027
101	0x3d489439	0.04896948
102	0x3d7a285e	0.061073653
103	0xbb9788ff	-0.0046244855
104	0x3bd88b6e	0.006608418
105	0xbd753b18	-0.05987081
106	0x3d6fbe92	0.05853135
107	0xbcb35b7f	-0.021894215
108	0xbd024cca	-0.031811513
109	0x3c578847	0.01315505
110	0xbcfb81c7	-0.030701531
111	0xbbe822ca	-0.0070842253
112	0xbad380f6	-0.0016136456
113	0x3be8dff2	0.0071067745
114	0xbc2adeb2	-0.010429071
115	0x3ca2b82d	0.019863212
116	0xbc14c403	-0.009079936
117	0xbc071450	-0.008244589
118	0x3b0607a1	0.0020451325
119	0xbba0d572	-0.004908257
120	0x3ad6c0d9	0.0016384377
121	0x3c5e9c35	0.013587047
122	0xbc3a8736	-0.011384776
123	0x3bbf087b	0.0058298684
124	0x3c9993da	0.018747259
125	0x3b6e68ce	0.0036378386
126	0xbc09f128	-0.008419313
127	0xbbb2c461	-0.005455539
128	0xbb233e73	-0.0024909049
129	0xbbb7b678	-0.0056064688
130	0xbc163265	-0.009167288
131	0xbc85312c	-0.016258799
132	0x3bc065ec	0.005871525
133	0x3a958dbf	0.0011410041
134	0x3ba5d3c2	0.005060644
135	0x3b485258	0.0030566659
136	0x3b04efb3	0.0020284473
137	0x39f183fa	0.00046065432
138	0x3c1d69ca	0.009607742
139	0xbb86d9b2	-0.004115307
140	0xbc67a03f	-0.014137327
141	0xbb3b67f1	-0.002859589
142	0x3c0e4e04	0.008685593
143	0x3b67aec0	0.0035351962
144	0xbc13543b	-0.00899225
145	0x3b75ee20	0.0037525967
146	0xbcdc029a	-0.02685671
147	0x3c5e511b	0.013569142
148	0x3b09dfe3	0.0021037988
149	0x3d258ce3	0.040417563
150	0x3ca627c7	0.02028264
151	0xbb689d8b	-0.0035494294
152	0x3c1a445a	0.00941571
153	0xbd67319f	-0.056443807
154	0xbccadb63	-0.024762815
155	0xbc8aa452	-0.016924057
156	0x3b1d477c	0.0023998907
157	0x3ce81479	0.028330075
158	0x3c328c5c	0.010897722
159	0xb9e0371c	-0.0004276567
160	0x3d7b230d	0.061312724
161	0x3cb81ac9	0.02247371
162	0x3e82be8b	0.25535998
163	0xbe151c76	-0.14561638
164	0xbb9b4daf	-0.004739485
165	0xbdb0bf8c	-0.08630285
166	0xbe310713	-0.17287855
167	0x3cde15fa	0.027110089
168	0xbd2e04c3	-0.04248501
169	0x3d8799d6	0.06621139
170	0xbdd78aee	-0.105245456
171	0x3cc65fdf	0.024215637
172	0x3dcd06ac	0.10011038
173	0xbd518423	-0.051151406
174	0x3e073b42	0.13206199
175	0x3c8eb07d	0.01741814
176	0x3b1d73af	0.0024025252
177	0x3c3d0c0a	0.011538515
178	0x3a962459	0.0011454924
179	0xbbbb8858	-0.0057230406
180	0xbbb6f184	-0.00558299
181	0xbd0ca936	-0.03434106
182	0xbce4a47f	-0.02791047
183	0xbb366309	-0.0027830026
184	0x3ba2ee3c	0.0049722474
185	0x3d318c3a	0.04334662
186	0xbd516d4b	-0.05112962
187	0x3cb573a5	0.02214987
188	0x3cb30866	0.02185459
189	0x3a0d1743	0.00053821894
190	0x3cea574a	0.028606076
191	0x3b9306ae	0.0044868803
192	0xbb957064	-0.004560517
193	0x3b64fa8d	0.003493938
194	0xbc98ed21	-0.01866776
195	0x3acd36fe	0.0015656648
196	0xbb69ad6f	-0.0035656353
197	0x3d1eaf34	0.038741305
198	0xbadf6858	-0.0017044647
199	0xbab1ba6b	-0.0013559585
200	0x3abe0790	0.0014498103
201	0xbd5de46e	-0.054172926
202	0xbcbd63a4	-0.023118801
203	0xbc875ff3	-0.016525244
204	0x3c49ed12	0.012324588
205	0x3d0c4888	0.03424886
206	0x3bf3c4cd	0.007439232
207	0x3adf5071	0.0017037523
208	0xbbd4e31e	-0.006496801
209	0x3c20c984	0.00981367
210	0xbbbf2e78	-0.005834397
211	0x3cf72ca0	0.030172646
212	0xbbe1854c	-0.0068823453
213	0x3c0f7def	0.008758052
214	0x37bde9ac	2.2639368e-05
215	0xbbabfcb1	-0.005248629
216	0x3bb36bfb	0.0054755188
217	0xbbc79e08	-0.006091837
218	0xbd3b67c4	-0.045753255
219	0xbbe0b358	-0.006857317
220	0x3ce11b96	0.027478974
221	0x3c4658d1	0.012106136
222	0xbaf88498	-0.0018960414
223	0xbbe41c3c	-0.0069613736
224	0x3be23955	0.006903807
225	0x3d8b837c	0.06812188
226	0x3d03e57a	0.032201268
227	0x3d8cfa92	0.0688373
228	0xbd047b8a	-0.03234438
229	0xbc98c5b7	-0.018648965
230	0xbe09fb0b	-0.13474672
231	0xbcf53a3c	-0.029934995
232	0x3c435169	0.011921265
233	0x3c852afe	0.016255852
234	0xbe238499	-0.1596855
235	0x3b306a99	0.0026919006
236	0x3dfb5e1d	0.1227381
237	0x3d3cf423	0.046131264
238	0x3daf1c89	0.085503645
239	0xbc4e6a97	-0.012598655
240	0x3ad55e5f	0.0016278735
241	0x3c754e62	0.014972301
242	0x3bcb3754	0.006201664
243	0x3ccad0b6	0.024757724
244	0xbc576816	-0.013147375
245	0xbcc922e7	-0.024552776
246	0xbce80ecc	-0.028327368
247	0xbbd849d9	-0.0066006
248	0xba36a56d	-0.00069673994
249	0x3d189323	0.037249696
250	0xbcdb022f	-0.02673444
251	0x3c35a219	0.01108601
252	0x3d1bd3b9	0.03804371
253	0x3aac3173	0.0013137296
254	0x3bbe4abf	0.0058072503
255	0xbbac0c51	-0.0052504917

module.bi_lstm1.bias_ih_l0 f4 [64]
0	0xba438908	-0.0007459079
1	0x3d17444c	0.036930367
2	0x3e6b1a39	0.22959222
3	0x3df99e77	0.12188428
4	0x3d5e8341	0.054324392
5	0x3dc5e4ca	0.09662779
6	0x3e1fd960	0.15610266
7	0xbbd75d1d	-0.0065723793
8	0xbd0d5d56	-0.03451284
9	0x3e3b49bc	0.18289846
10	0xbddcf634	-0.10789147
11	0x3ca777c8	0.020442858
12	0x3dfe1d65	0.1240795
13	0x3dbc59b4	0.09196797
14	0x3e0061e6	0.12537345
15	0x3c8d45c5	0.017245183
16	0xbbe1de38	-0.0068929456
17	0x3cfb0b51	0.030645045
18	0x3e7840e9	0.24243511
19	0x3e3a9304	0.18220145
20	0x3d5a1a58	0.05324778
21	0x3dae6ff4	0.08517447
22	0x3d84f35e	0.06491731
23	0xbc3664b9	-0.011132413
24	0x3b46017f	0.0030213294
25	0x3e249f21	0.16076328
26	0x3e9c52a2	0.30531794
27	0xbd429ca9	-0.047512684
28	0x3e36bac5	0.17844684
29	0x3c452ba8	0.012034334
30	0x3e46a0e0	0.19397306
31	0x3c032395	0.008004089
32	0xbc820259	-0.01587026
33	0x3da60ddc	0.08108112
34	0x3e0b2b2d	0.13590689
35	0xba058010	-0.000509263
36	0xbe2a0219	-0.16602363
37	0x3dd96f58	0.1061694
38	0xbc2ce7c9	-0.010553309
39	0xbc0287cc	-0.007966947
40	0x3c87f3a9	0.016595678
41	0xbe53f9b9	-0.2070073
42	0x3ca715a3	0.02039606
43	0xbdd9097e	-0.105975136
44	0x3e563a23	0.20920615
45	0x3e418d2f	0.18901514
46	0xbd8315c7	-0.06400638
47	0xbe07fb6b	-0.13279502
48	0xbaf2ed82	-0.0018533918
49	0x3d1236dd	0.035696853
50	0x3e4665af	0.19374727
51	0x3de1b35e	0.1102054
52	0x3d50a976	0.05094286
53	0x3dc3bbc1	0.095572956
54	0x3e3e4a4a	0.18583027
55	0xbbecd92c	-0.0072280373
56	0xbd1254f7	-0.03572556
57	0x3e19e824	0.15029961
58	0x3df39b2a	0.118948296
59	0x3bffec11	0.0078101237
60	0x3e00ab92	0.12565449
61	0x3dc8eb55	0.09810511
62	0x3e0df8b0	0.13864398
63	0x3cb55f22	0.02214009

module.bi_lstm1.bias_hh_l0 f4 [64]
0	0xba437bfc	-0.0007457135
1	0x3d17444c	0.036930367
2	0x3e799e95	0.243769
3	0x3dfa0653	0.122082375
4	0x3d5a3043	0.053268682
5	0x3d8174ea	0.06321128
6	0x3e1fdad3	0.15610819
7	0xbbd75d30	-0.006572388
8	0xbd0dbcd3	-0.034603905
9	0x3e3900a5	0.18066652
10	0xbdcaf09d	-0.099091746
11	0x3cf7520f	0.030190496
12	0x3dfd7572	0.123759165
13	0x3dbc579f	0.091964
14	0x3e007ab9	0.12546815
15	0x3c8d4e1f	0.017249165
16	0xbbe1de06	-0.0068929223
17	0x3cfb0b51	0.030645045
18	0x3e80702e	0.25085586
19	0x3e3a5526	0.18196544
20	0x3d5b81d7	0.05359062
21	0x3db5ff8b	0.088866316
22	0x3d84fad4	0.06493154
23	0xbc3664b9	-0.011132413
24	0x3b495a75	0.0030724083
25	0x3e0f10b6	0.13971218
26	0x3eb3c760	0.3511305
27	0xbd36a609	-0.044591937
28	0x3e37a708	0.17934811
29	0x3c451c70	0.012030706
30	0x3e4729d2	0.19449547
31	0x3c032313	0.008003968
32	0xbc86df26	-0.016463827
33	0x3e05dd6c	0.13072747
34	0x3de332bf	0.110936634
35	0x3df8339f	0.12119221
36	0xbe33316b	-0.1749932
37	0x3e1ec6cc	0.15505522
38	0xbd11606e	-0.035492353
39	0xbd55e332	-0.052218623
40	0xbdaf6fd2	-0.0856625
41	0xbe71c083	-0.23608594
42	0xbe17f031	-0.1483772
43	0xbe0e2c08	-0.13883984
44	0x3e5d67e9	0.2162167
45	0x3e498409	0.19679274
46	0xbe548d2b	-0.20756976
47	0xbde3a6b9	-0.11115784
48	0xbaf2e9f1	-0.0018532855
49	0x3d1236dd	0.035696853
50	0x3e4d7933	0.20065765
51	0x3de28475	0.110604204
52	0x3d4b5dc8	0.049649984
53	0x3d700bfb	0.058605175
54	0x3e3e4416	0.1858066
55	0xbbecd90f	-0.007228024
56	0xbd1727ca	-0.03690318
57	0x3e1c3e3a	0.15258113
58	0x3dcb3c8b	0.09923657
59	0xbad68aed	-0.0016368307
60	0x3e010e0e	0.12603018
61	0x3dc904bc	0.09815356
62	0x3e0e6431	0.13905407
63	0x3cb55f32	0.02214012

module.bi_lstm1.weight_ih_l0_reverse f4 [64, 14]
0	0xbe8f4749	-0.27984074
1	0xbe5454d4	-0.20735484
2	0xbe72a0c9	-0.23694147
3	0xbdb2f69b	-0.087384425
4	0xbe081853	-0.13290529
5	0xbdc2fae1	-0.095205076
6	0xbe53db74	-0.20689183
7	0xbdff9108	-0.124788344
8	0xbdbc23ed	-0.0918654
9	0x3b2c8d68	0.0026329402
10	0x3d1bd114	0.03804119
11	0xbe9cce37	-0.3062608
12	0xbe36fb00	-0.17869186
13	0xbd50d733	-0.05098648
14	0x3cc54bef	0.02408406
15	0x3cb5cb9c	0.022191815
16	0x3d310275	0.043215234
17	0x3cfdfffb	0.03100585
18	0x3c1335e6	0.008985018
19	0x3c15c53c	0.009141263
20	0x3d5f0a99	0.054453466
21	0x3c849fb3	0.016189432
22	0x3cb7c99b	0.022435
23	0x3b9dccb5	0.0048156627
24	0x3d565924	0.052331105
25	0x3cac2200	0.021012306
26	0x3c9d8238	0.019227132
27	0xbac3b302	-0.0014930668
28	0x3d91dcea	0.07122214
29	0x3e1f09ff	0.15531157
30	0x3d98e8ef	0.074663036
31	0x3c9cc606	0.019137394
32	0x3dbf1baa	0.093314484
33	0x3d54b33c	0.051928744
34	0x3e0fbbc5	0.14036472
35	0x3c9e708b	0.019340774
36	0x3de873e8	0.11350232
37	0x3d5ecd3e	0.054394953
38	0x3e4a4254	0.19751865
39	0x3d9d9b5f	0.0769565
40	0x3d89d6b6	0.06730406
41	0x3d855fbc	0.065124005
42	0xbe260a8b	-0.1621496
43	0x3d18c014	0.037292555
44	0xbe57ee9b	-0.21087115
45	0x3e9f202d	0.31079236
46	0x3bb07167	0.0053846124
47	0x3c8621e4	0.016373582
48	0xbdedd864	-0.11613539
49	0x3e90587d	0.2819251
50	0xbd7a77f1	-0.06114954
51	0x3dd84c42	0.1056142
52	0xbea0bac2	-0.31392485
53	0xbdd05fe1	-0.101745375
54	0x3e3b00bb	0.18261997
55	0x3e74d29c	0.23908466
56	0x3b80009e	0.0039063236
57	0x3cf1048e	0.029421117
58	0xbb40a111	-0.0029392878
59	0x3d8e7cac	0.06957373
60	0x3c8e1a4c	0.017346524
61	0xbac5d241	-0.0015092568
62	0x3c3c9785	0.011510734
63	0x3d78ed47	0.06077316
64	0x3d04bc96	0.032406412
65	0x3cc7bbfe	0.024381634
66	0x3cccce3e	0.025000688
67	0xbc7b561e	-0.015340356
68	0x3c9fe45f	0.019518076
69	0x3d5b820a	0.05359081
70	0x3e6b7c81	0.22996713
71	0x3dbe2a91	0.09285463
72	0x3d62c0aa	0.05535952
73	0x3ce18c03	0.027532583
74	0xbd94e7a9	-0.07270748
75	0xbdc22eb3	-0.094815634
76	0x3dbd499f	0.09242558
77	0xbca7f527	-0.02050264
78	0xbddac940	-0.10682917
79	0xbdf14d85	-0.11782364
80	0x3cfc362a	0.030787546
81	0x3dad2bde	0.084556326
82	0x3d533653	0.05156548
83	0x3dc152f4	0.0943965
84	0x3e79bea6	0.24389133
85	0x3e7c0543	0.24611382
86	0x3e35a351	0.17738082
87	0xbe8c8b7a	-0.27450162
88	0x3e389d7f	0.1802883
89	0xbe8cdbb3	-0.27511367
90	0x3e9eea56	0.3103816
91	0xbedf83d3	-0.4365526
92	0x3ea429eb	0.3206323
93	0xbefb4669	-0.49077156
94	0x3f09f06a	0.5388247
95	0x3de8e8d5	0.11372534
96	0xbe499eab	-0.19689433
97	0xbca5f8b3	-0.02026019
98	0x3cc5d0f3	0.024147486
99	0x3cf60a03	0.03003407
100	0x3bf88753	0.0075844913
101	0x3ca15f6e	0.019698825
102	0x3c94bcf8	0.018156514
103	0x3b9bc011	0.0047531207
104	0x3bac9631	0.0052669276
105	0x3c9656c4	0.01835192
106	0x3cc20fd8	0.023689196
107	0x3c0b5977	0.008505217
108	0x3b00daaa	0.0019661584
109	0xbc36064b	-0.011109899
110	0x3b0f7ba5	0.0021893766
111	0x3cc6fd44	0.024290688
112	0xbbb74fb2	-0.005594217
113	0x3e174714	0.14773208
114	0x3bd49b7e	0.0064882627
115	0xbc131599	-0.008977317
116	0x3d684a8b	0.056711715
117	0x3d4c0c59	0.049816463
118	0x3da91999	0.082568355
119	0xbc95efec	-0.01830288
120	0x3db4390c	0.08799943
121	0x3d8fc22f	0.070194595
122	0x3e5080c5	0.20361622
123	0xbb35fcf2	-0.0027769175
124	0x3d4f48d5	0.050606567
125	0x3d1b5cd7	0.037930336
126	0xbd1ef41a	-0.038807012
127	0xbd8fba83	-0.07017996
128	0xbb789224	-0.0037928903
129	0xbd981a97	-0.074269466
130	0x3c150b96	0.009097001
131	0x3d8c3792	0.06846537
132	0xbb6491ee	-0.003487702
133	0x3cea4a47	0.028599871
134	0x3cd1d2c0	0.025613189
135	0x3d92b895	0.071641125
136	0xbdc4fab6	-0.09618132
137	0x3c7423b9	0.014901095
138	0xbd81f48b	-0.06345471
139	0xbdc40d06	-0.095727965
140	0xbdbdbd39	-0.09264607
141	0xbd6b5465	-0.05745353
142	0xbdbd79ce	-0.09251748
143	0xbd4ff72e	-0.05077284
144	0xbd14b962	-0.036309607
145	0xbd3ea5ca	-0.046544828
146	0xbdb14f9c	-0.086577624
147	0xbd266dd9	-0.040632103
148	0xbcfc6212	-0.030808482
149	0xbd394a5f	-0.04523694
150	0xbda9f099	-0.082978435
151	0xbdb61b7a	-0.088919595
152	0xbd426e15	-0.047468264
153	0xbd20b276	-0.039232694
154	0x3c3c1551	0.011479692
155	0x3e55bf5a	0.20873776
156	0x3d541f9d	0.05178796
157	0x3d42a5dd	0.04752146
158	0x3dbaba52	0.09117569
159	0x3dd19289	0.102330275
160	0x3c0aa1ea	0.008461455
161	0x3dd6cd63	0.10488393
162	0x3dee274a	0.116285875
163	0x3d926944	0.07148984
164	0xbd80aa59	-0.06282491
165	0x3d21358c	0.039357707
166	0xbb01b075	-0.0019789014
167	0x3d057e54	0.03259118
168	0x3e27e222	0.16394857
169	0x3e32a46a	0.17445531
170	0x3da711da	0.08157702
171	0xbdc32095	-0.09527699
172	0x3e882577	0.26591083
173	0x3dd2cd5d	0.10293076
174	0x3dfea6f7	0.1243419
175	0xbe214acb	-0.15751188
176	0x3e885100	0.26624298
177	0x3db14252	0.08655228
178	0x3e1467c1	0.14492704
179	0x3cceb6c8	0.025233641
180	0xbcf269c6	-0.029591452
181	0xbd984953	-0.074358605
182	0xbaa9d044	-0.0012955745
183	0x3c5c1fd3	0.013435322
184	0x3caac281	0.0208447
185	0x3c9f70c2	0.019462947
186	0x3c642461	0.013924689
187	0x3cdb8257	0.02679555
188	0x3cdb8843	0.026798373
189	0x3d3cb7e8	0.046073824
190	0x3af4baf5	0.001867144
191	0x3d511dfd	0.05105399
192	0x3c6891d5	0.014194925
193	0x3c2aef71	0.010433064
194	0xbc2886d0	-0.010286048
195	0xbca4af99	-0.020103263
196	0xbbd8e949	-0.0066196066
197	0x3dbd985e	0.09257577
198	0xbc1b9d34	-0.009497929
199	0x3d5044df	0.05084693
200	0x3d4a14a5	0.049336094
201	0x3c5130fa	0.012768025
202	0x3d471a63	0.04860915
203	0x3ce3b50a	0.027796287
204	0x3d706bbf	0.058696505
205	0x3ceebbd1	0.029142292
206	0x3d645eeb	0.055754583
207	0xbcb67b38	-0.022275552
208	0x3d8e6509	0.06952865
209	0x3da8bef1	0.08239544
210	0xbd80bd39	-0.06286091
211	0x3cf33f77	0.029693348
212	0xbce403e2	-0.027833883
213	0x3d92f07f	0.07174777
214	0x3c92152a	0.017832357
215	0x3c8aedd8	0.016959116
216	0x3d057576	0.032582723
217	0x3d29287f	0.041298386
218	0x3d213941	0.039361242
219	0x3d8f143d	0.06986282
220	0x3d9082e6	0.07056217
221	0xbc8537d4	-0.016261972
222	0x3d731ab3	0.059351634
223	0x3cda3047	0.026634349
224	0x3e53d796	0.20687708
225	0x3de4e433	0.11176338
226	0x3e562c43	0.20915322
227	0x3e4829b8	0.19547164
228	0x3e2fb916	0.17160448
229	0x3def13da	0.11673708
230	0x3e59e8f0	0.21280265
231	0x3e0669ae	0.13126251
232	0x3e27dd33	0.16392975
233	0x3e335109	0.17511381
234	0x3eca595a	0.39521295
235	0x3e1a8225	0.15088709
236	0x3e8fbc30	0.28073263
237	0x3e80a41d	0.25125208
238	0x3d597de5	0.053098578
239	0x3d681bbd	0.05666708
240	0x3d8587b6	0.065200254
241	0x3d051227	0.032488015
242	0x3d4e1e9d	0.050322164
243	0xbbbd568c	-0.0057781395
244	0x3dac0fa0	0.08401418
245	0x3c630e4d	0.01385839
246	0x3d7307ca	0.0593336
247	0xbc0fa19a	-0.008766556
248	0x3da087f8	0.07838434
249	0x3d1ba337	0.03799745
250	0x3d1354e7	0.03596964
251	0x3c85ef80	0.016349554
252	0xbc47df82	-0.0121992845
253	0x3d6f06f1	0.05835623
254	0x3c054231	0.008133457
255	0xbd568407	-0.052372005

module.bi_lstm1.weight_hh_l0_reverse f4 [64, 16]
0	0xbe6b4507	-0.2297555
1	0x3ce23179	0.027611481
2	0x3acc2486	0.001557485
3	0xbd0a464b	-0.033758443
4	0x3d23d695	0.039999563
5	0x3eafbf19	0.34325483
6	0x3d26b6cb	0.04070167
7	0x3d05ba49	0.03264836
8	0xbd09db38	-0.03365633
9	0xbe9fd73f	-0.31218907
10	0xbb9b56e8	-0.0047405846
11	0xbf0f00c6	-0.55860555
12	0xbda542b8	-0.08069366
13	0x3c83e68e	0.016101148
14	0xbdf87c83	-0.12133124
15	0x3d9635a3	0.07334449
16	0x3c9004b4	0.017580368
17	0xbbdcbe78	-0.006736573
18	0xbcbee42a	-0.023302156
19	0x3c99d504	0.018778332
20	0x3c176db0	0.00924246
21	0x3d905fa6	0.070494935
22	0x3bb3f59e	0.0054919263
23	0x3c11d0dc	0.008899894
24	0x3c96c5fd	0.018404955
25	0xbd06c27e	-0.032900326
26	0xbbecb513	-0.007223734
27	0xbd7f7811	-0.062370364
28	0x3cc6f30e	0.02428582
29	0x3bd0d620	0.006373182
30	0xbb789d8d	-0.0037935704
31	0x3c82dc09	0.015974062
32	0x3ccc74b8	0.024958
33	0x3c97c046	0.0185243
34	0xbccd9b90	-0.025098592
35	0x3d46b67c	0.048513874
36	0xbaa75a3b	-0.001276798
37	0x3cc67eaf	0.02423033
38	0x3bba806e	0.0056915795
39	0x3b8a6ffe	0.0042247763
40	0x3be5b40d	0.007009989
41	0x3c565819	0.013082528
42	0xbc8e2fe8	-0.017356828
43	0xbc8d8b6a	-0.017278392
44	0xbbad76bf	-0.0052936967
45	0xbd038889	-0.032112632
46	0xbc396267	-0.011314965
47	0x3c6e22ca	0.014534662
48	0xbe989584	-0.2980157
49	0xbe1a8adf	-0.15092038
50	0x3e96af67	0.29430696
51	0xbd82ca7e	-0.063862786
52	0x3cda2edf	0.026633678
53	0x3eaca6b5	0.33720937
54	0xbd6426ff	-0.055701252
55	0xbbe45a1b	-0.006968749
56	0xbe5bdf44	-0.21471888
57	0xbf08120b	-0.5315253
58	0x3e020def	0.12700628
59	0xbe8d38cc	-0.27582395
60	0x3e52585f	0.20541523
61	0x3e533141	0.20624258
62	0xbd2edb13	-0.042689394
63	0xbd1afa25	-0.037836213
64	0xbd1a5f24	-0.03768839
65	0xbbdb0d66	-0.006684947
66	0xbc1f52f4	-0.009724367
67	0xbd4afc80	-0.04955721
68	0x3cd8ddc9	0.026472943
69	0x3de69a4f	0.11259901
70	0xbd1048fe	-0.03522586
71	0x3c819a72	0.015820716
72	0x3c0f729f	0.008755355
73	0xbd6dfd43	-0.058102857
74	0xbc14a5a0	-0.009072691
75	0xbd6ebc1a	-0.058284856
76	0xba57647e	-0.00082165736
77	0x39c3cd61	0.00037346318
78	0x3bb34f1b	0.0054720766
79	0x3ccf39fb	0.025296202
80	0x3922ba95	0.00015519031
81	0x3c8ddc2e	0.017316904
82	0x3d3ee536	0.04660531
83	0xbd6e99f5	-0.058252294
84	0x3ad34b58	0.0016120477
85	0xbd9322d1	-0.07184375
86	0x3cdc6cb4	0.026907302
87	0xbb2b934c	-0.0026180325
88	0xbd57d247	-0.05269077
89	0x3c06404a	0.008194039
90	0x3c3a6a82	0.0113779325
91	0x3df9c022	0.121948496
92	0xbcc54b97	-0.024083896
93	0x3dab0c1a	0.083519176
94	0x3d1e7a2f	0.038690742
95	0xbc753fc7	-0.014968819
96	0xbdad3775	-0.08457843
97	0x3bb99b7a	0.005664286
98	0x3ddfbfe2	0.109252706
99	0x3ed2bbd8	0.41158938
100	0xbdfce5b6	-0.123485014
101	0x3e60fbe2	0.21971086
102	0x3de7935c	0.113074034
103	0xbcfcdcd9	-0.030867027
104	0xbe51a012	-0.20471218
105	0xbc368fd2	-0.011142688
106	0x3cb7b7f8	0.02242659
107	0x3d405652	0.04695732
108	0x3e1bcc95	0.1521476
109	0x3e086915	0.13321336
110	0xbdb00ee1	-0.08596588
111	0xbe2e3a15	-0.17014344
112	0x3c08845f	0.008332341
113	0xbb71efe4	-0.0036916668
114	0xbc3a8a7c	-0.011385556
115	0xbb660f50	-0.0035104342
116	0x3c54ecb7	0.01299589
117	0x3c058da9	0.00815145
118	0xbc18611a	-0.009300495
119	0x3c21a417	0.009865782
120	0x3bca204b	0.0061684004
121	0x3c2ddfb9	0.010612422
122	0xbc073818	-0.00825312
123	0xbc81ed08	-0.015860096
124	0x3b59ccab	0.0033233564
125	0xbc463c5a	-0.01209935
126	0x3b4b7827	0.0031046958
127	0x3c46588b	0.012106071
128	0xbdd9f589	-0.10642535
129	0x3cb2b5f3	0.021815276
130	0xbbe26adb	-0.006909711
131	0xbc55bfc1	-0.013046206
132	0xbc4eca30	-0.012621447
133	0x3db5c2a7	0.088750176
134	0xba3bffb4	-0.00071715866
135	0xbbbc3f1a	-0.005744827
136	0x3bb203ff	0.0054326053
137	0xbd944d05	-0.07241253
138	0xbc855316	-0.01627497
139	0xbd47cf81	-0.048781876
140	0xbd4470dd	-0.047959197
141	0xbba9bf5c	-0.0051802825
142	0xbd11c0d8	-0.0355843
143	0x3b907500	0.0044084787
144	0xbe65ee35	-0.2245415
145	0x3e66a404	0.22523504
146	0x3e02ff1b	0.12792628
147	0xbdc92d22	-0.098230615
148	0xbe163892	-0.14670017
149	0xbe0f4305	-0.1399041
150	0xbe3715d2	-0.17879418
151	0xbdd0de3b	-0.10198637
152	0xbe6bf116	-0.23041186
153	0xbccf22fe	-0.02528524
154	0x3d08cb60	0.03339708
155	0x3ea41023	0.3204356
156	0xbd36f2d7	-0.044665184
157	0x3e069b69	0.13145222
158	0xbe102dc9	-0.14079966
159	0xbe44dc03	-0.19224553
160	0xbaa498a1	-0.0012557694
161	0x3ab33d63	0.0013674911
162	0x3c925fc7	0.017867936
163	0x3c448022	0.01199344
164	0xbc0d3ff0	-0.008621201
165	0x3d38486c	0.044990942
166	0xbb70a8d9	-0.0036721735
167	0xbb501928	-0.0031753276
168	0xbc8664a9	-0.01640542
169	0xbd53c57b	-0.051702004
170	0x3b80626c	0.003917983
171	0xbd33269e	-0.043738
172	0x3c0e2880	0.008676648
173	0x3c99520a	0.018715877
174	0xbc484dd4	-0.012225587
175	0xbc655015	-0.013996144
176	0xbe222285	-0.1583348
177	0x3d29fd12	0.041501112
178	0xbc11b6dc	-0.008893695
179	0xbe63feeb	-0.22265212
180	0x3d229d82	0.039700992
181	0x3ebe2a5a	0.37141687
182	0xbdbbefba	-0.091765836
183	0x3c9b6c0b	0.018972417
184	0x3d91eb3f	0.07124948
185	0xbe96f404	-0.29483044
186	0x3d3a97cf	0.045554932
187	0x3d9b2bd4	0.07576719
188	0xbe81afab	-0.25329337
189	0x3e01a944	0.12662226
190	0x3da299eb	0.07939514
191	0x3d7f6702	0.062354095
192	0x3d93fec6	0.072263286
193	0xbcbe501f	-0.023231564
194	0x3cc05c34	0.023481466
195	0x3e04f746	0.12984952
196	0x39b485d7	0.00034431994
197	0xbce33941	-0.027737262
198	0xbd5126ba	-0.051062323
199	0xbb25d161	-0.0025301802
200	0x3c1f95d7	0.009740314
201	0xbe144b30	-0.14481807
202	0x3cab1a9f	0.020886717
203	0xbdb9ecd5	-0.09078375
204	0x3ceb5e7c	0.028731577
205	0x3d1e6ff7	0.038680997
206	0xbcd2283e	-0.025653955
207	0x3c17afef	0.009258254
208	0x3cbef5f4	0.023310639
209	0xba2fd735	-0.00067077886
210	0xbdd82759	-0.1055438
211	0xbd83ed40	-0.06441736
212	0x3d8c1def	0.06841647
213	0x3e4f5888	0.20248616
214	0x3df6f244	0.12057927
215	0x3d61ef5e	0.05515992
216	0x3dc34e6c	0.09536442
217	0xbe4e3141	-0.20135976
218	0xbc19b553	-0.00938161
219	0xbe46bbc8	-0.1940757
220	0xbd51322a	-0.05107323
221	0x3df71001	0.120635994
222	0x3b7a9c3d	0.0038240098
223	0x3d9fc943	0.078020595
224	0xbd1abd49	-0.037778173
225	0xbb7d09f9	-0.003861068
226	0x3d040de1	0.0322398
227	0x3c879190	0.016548902
228	0x3c0688c5	0.008211319
229	0x3d0d7759	0.034537647
230	0xbd8122fb	-0.063055
231	0x3baa994d	0.005206263
232	0xbd01c9e6	-0.031686686
233	0xbd404410	-0.04693991
234	0xbc62e186	-0.013847714
235	0xbd3e19fb	-0.046411496
236	0x3d0d7f63	0.034545314
237	0xbb93c4bc	-0.0045095365
238	0xbcc2c2db	-0.023774555
239	0x3b07f8b2	0.00207476
240	0xbe0060d1	-0.12536933
241	0x3cb02754	0.021503128
242	0x3cb55aa6	0.022137951
243	0xbdd6162d	-0.104534484
244	0xbc132bf3	-0.008982646
245	0x3df55eea	0.11980994
246	0xbcf15e3b	-0.029463878
247	0xbbd53604	-0.0065066833
248	0xbca7d227	-0.02048595
249	0xbdb8437e	-0.08997248
250	0xbc552c05	-0.013010983
251	0xbc5e8bbf	-0.013583123
252	0xbd053eca	-0.032530583
253	0x3c3ee54a	0.011651346
254	0xbcaa21cb	-0.020768067
255	0xbbc4ae5c	-0.0060022306

module.bi_lstm1.bias_ih_l0_reverse f4 [64]
0	0x3cfed8f9	0.03110932
1	0x3d2a3ef6	0.04156395
2	0x3e2cef3a	0.16888133
3	0x3d97d75a	0.07414122
4	0x3dd51d09	0.10405929
5	0x3d94550c	0.07242784
6	0x3d9dec50	0.07711089
7	0x3d0c51c8	0.03425768
8	0x3ded3b65	0.11583594
9	0x3d863407	0.06552892
10	0xbc980d40	-0.018561006
11	0xbd33fc0c	-0.043941543
12	0x3d577e9a	0.05261097
13	0xbd0ac7f0	-0.03388208
14	0x3dfbad04	0.122888595
15	0x3df57378	0.119849145
16	0x3ee5fd92	0.4492002
17	0x3dbdf696	0.09275548
18	0xbc9741d7	-0.018464012
19	0x3ebaa92b	0.3645719
20	0x3de0c46e	0.10974966
21	0x3e5bc045	0.21460064
22	0x3d9c5d8d	0.07635031
23	0x3c6adca6	0.014334833
24	0x3e22d661	0.15902092
25	0x3eade97a	0.3396719
26	0xbd48fc5c	-0.049068794
27	0x3e13c0de	0.14429042
28	0x3d0c5790	0.034263194
29	0x3dfa2823	0.12214687
30	0x3dec6bac	0.11543974
31	0x3e4ad693	0.19808416
32	0xbdf5883b	-0.119888745
33	0x3c3fa59d	0.0116972
34	0x3e0457c0	0.12924099
35	0x3e680672	0.22658709
36	0xbb4bea88	-0.0031115133
37	0xbe4bf562	-0.19917825
38	0xbe987b7c	-0.2978171
39	0x3d4ed5c3	0.050496828
40	0xbe9a582b	-0.30145392
41	0x3e4dec71	0.20109726
42	0xbe3bc554	-0.18336993
43	0x3c8d32ca	0.017236132
44	0x3e96946e	0.29410118
45	0xbbdc47de	-0.0067224344
46	0xbe83310d	-0.2562336
47	0x3d30f39a	0.043201067
48	0x3e93e0a5	0.28882328
49	0x3d58b081	0.052902702
50	0x3e414736	0.18874821
51	0x3eb8b8c9	0.3607848
52	0x3e056d93	0.1303008
53	0x3c3fce9f	0.011706977
54	0x3d6564bf	0.056004282
55	0x3d2bd6b7	0.041952815
56	0x3e37556e	0.17903683
57	0x3deaca20	0.114643335
58	0xbc19915e	-0.009373037
59	0x3d59934e	0.053118996
60	0x3dd6103b	0.104523145
61	0xbc51c4cb	-0.012803267
62	0x3e33543b	0.175126
63	0x3e2ac8bf	0.16678141

module.bi_lstm1.bias_hh_l0_reverse f4 [64]
0	0x3d169b69	0.036769304
1	0x3d2a432f	0.041567978
2	0x3e2990eb	0.16559188
3	0x3d5a9bd0	0.05337125
4	0x3dd0e123	0.101991914
5	0x3d8fe735	0.07026521
6	0x3d57ebd8	0.052715153
7	0x3d0d969c	0.03456746
8	0x3e154264	0.14576107
9	0x3d94c7d4	0.07264677
10	0xbd0d4021	-0.034484986
11	0xbd825426	-0.06363706
12	0x3d331738	0.043723315
13	0xbd0576b5	-0.03258391
14	0x3e033309	0.12812437
15	0x3d9cbc60	0.07653117
16	0x3eed483b	0.4634417
17	0x3dbd4d77	0.09243291
18	0xbb951410	-0.004549511
19	0x3ecb0b84	0.39657223
20	0x3dd00181	0.10156537
21	0x3e4646e7	0.19362985
22	0x3d9c82a1	0.07642103
23	0x3c6b15a3	0.01434842
24	0x3e3dba4a	0.18528095
25	0x3ebfb5cb	0.37443385
26	0xbcf01227	-0.02930553
27	0x3e2dfb91	0.16990496
28	0x3d0be7a9	0.034156475
29	0x3dfa2c54	0.12215486
30	0x3e1188cb	0.14212339
31	0x3def0f61	0.11672855
32	0xbd869c80	-0.06572819
33	0xbdfadcb2	-0.122491255
34	0x3db71593	0.08939662
35	0x3e2ad5ac	0.16683072
36	0x3dbb0656	0.09132068
37	0xbe001aef	-0.12510274
38	0xbe5846c0	-0.21120739
39	0x3d706bf2	0.058696695
40	0xbd6b332b	-0.057421844
41	0x3e969152	0.29407746
42	0xbe2f6fd7	-0.17132507
43	0x3d86276b	0.06550487
44	0x3e73f34f	0.23823284
45	0xbd2cdda3	-0.042203557
46	0xbe19381b	-0.14962809
47	0xbe2dcf2e	-0.16973564
48	0x3e93e358	0.28884387
49	0x3d58c8c5	0.052925844
50	0x3e3a4d40	0.18193531
51	0x3e942a42	0.2893849
52	0x3e01575e	0.12630984
53	0x3de68818	0.112564266
54	0x3d383573	0.04497285
55	0x3d367f09	0.044554744
56	0x3e2c8a5d	0.16849656
57	0x3d3e92be	0.046526663
58	0xbdb31988	-0.08745104
59	0x3d22102d	0.039566208
60	0x3e0021bb	0.12512867
61	0xbc4ccb27	-0.012499607
62	0x3e1c7199	0.15277709
63	0x3e2092ad	0.15680952

module.bi_lstm2.weight_ih_l0 f4 [128, 16]
0	0x3bdede8b	0.0068014315
1	0xb8b8749c	-8.795524e-05
2	0xbb0992c9	-0.0020992032
3	0x3b8cfb59	0.004302424
4	0xba349fe0	-0.00068902783
5	0xbc444c27	-0.011981047
6	0x3ba52f66	0.0050410507
7	0x39ebbba0	0.00044962484
8	0x3b73802b	0.0037155251
9	0x3bbf166a	0.0058315294
10	0xb9a86d74	-0.00032125006
11	0x3bd9b095	0.0066433647
12	0xbc115709	-0.008870848
13	0xb92c0124	-0.00016403623
14	0x3b9cd44f	0.0047860513
15	0x3af60af4	0.0018771575
16	0xbaa8898f	-0.0012858378
17	0x39aa07e5	0.0003243081
18	0xbb03131b	-0.0020000401
19	0xb90744b0	-0.00012900191
20	0x3a1a8d31	0.0005895673
21	0xbbb340ab	-0.0054703555
22	0x3b64d6a1	0.0034917968
23	0xb98da67f	-0.00027017665
24	0x3bb3ef6a	0.005491187
25	0x3af8a939	0.0018971331
26	0xba2cb6f6	-0.00065885426
27	0x3a6a8890	0.0008946741
28	0xbbb719d7	-0.005587797
29	0xbaa418f3	-0.0012519642
30	0x3b562037	0.003267301
31	0x3aebb4e7	0.001798299
32	0xbb3943d3	-0.0028269186
33	0x3a8f9442	0.0010954218
34	0x3b065227	0.0020495744
35	0xb9d3fc1f	-0.000404329
36	0xbb0a21b3	-0.0021077215
37	0xbaf4b5b9	-0.001866988
38	0xb927dc47	-0.00016008421
39	0xbb24f1b7	-0.0025168487
40	0xba49a7dd	-0.0007692555
41	0x3abf9ba4	0.0014618528
42	0xbad13b4f	-0.001596311
43	0x3b42bc45	0.0029714268
44	0x3a510af7	0.0007974351
45	0xb91b6f6b	-0.00014823458
46	0xbad8dadc	-0.0016544717
47	0xbad933af	-0.0016571189
48	0x3ba9dff1	0.0051841666
49	0xba93021c	-0.0011215839
50	0xbaa0d7d7	-0.0012271357
51	0x3b9de9ce	0.0048191315
52	0xb865be35	-5.4775e-05
53	0xbc141b74	-0.009039748
54	0x3b57bed0	0.003292013
55	0x39aee62b	0.00033359355
56	0x3b5d5d4e	0.0033777538
57	0x3bd55a48	0.0065110065
58	0x39f0332a	0.00045814487
59	0x3bbb1604	0.0057094116
60	0xbc150f04	-0.009097818
61	0x3a2a2bce	0.0006491513
62	0x3b64f562	0.0034936299
63	0x3af21d1d	0.0018471811
64	0x3b029e9d	0.0019930967
65	0xbb1d7fbd	-0.0024032437
66	0xbc4b70c4	-0.012417022
67	0x3a471db5	0.0007595674
68	0x3b6e6d3e	0.0036381031
69	0x362c6730	2.569006e-06
70	0x3bb1da0f	0.005427606
71	0x3b0aaec7	0.0021161304
72	0x3c43463e	0.0119186025
73	0x3b6632f5	0.0035125588
74	0xbb3264e7	-0.0027220787
75	0x3ba38872	0.004990631
76	0xbaeb0160	-0.0017929487
77	0xbbb87e8c	-0.00563032
78	0x3b1bd9fd	0.0023781054
79	0x3bd9bd95	0.0066449144
80	0x3b3366b9	0.002737446
81	0xba3e7b4c	-0.00072662975
82	0xbb857a5f	-0.0040734257
83	0x3ace145b	0.0015722619
84	0x3a4654fb	0.00075657637
85	0xbc28c4f4	-0.0103008635
86	0x3bc4ed75	0.0060097524
87	0x3a246d61	0.0006272402
88	0x3bcbd1a8	0.0062200613
89	0x3be0e9e7	0.006863821
90	0x39e82ed3	0.00044285375
91	0x3c54346d	0.012951952
92	0xbc0e0037	-0.008667043
93	0x3929b623	0.00016184947
94	0x3baa82fd	0.0052036033
95	0x3b86052b	0.0040899715
96	0xbbc6d188	-0.0060674585
97	0x3af42dc2	0.001862936
98	0x3b83893a	0.0040141614
99	0xba19f5ad	-0.00058730954
100	0xbb646d5c	-0.0034855222
101	0x3b1a2fe9	0.0023527092
102	0x3b0dad74	0.0021618279
103	0xbab6f240	-0.0013957694
104	0xbae32ab4	-0.0017331452
105	0xbb540c72	-0.003235605
106	0xb99c85aa	-0.00029854226
107	0xba337f70	-0.0006847298
108	0xbab4cd13	-0.0013794027
109	0x3a37208a	0.00069857447
110	0xbaa24e33	-0.0012382924
111	0xbb1f3535	-0.0024293188
112	0x3af80d1c	0.0018924805
113	0x39c74d89	0.00038014006
114	0xbb4daf8c	-0.0031385152
115	0x3b07b0e6	0.0020704805
116	0x3a33af12	0.00068543956
117	0xbb1ed2bb	-0.0024234492
118	0x3bc3f51c	0.005980147
119	0x3af08c66	0.0018352389
120	0x3b41162e	0.0029462683
121	0x3c078340	0.0082710385
122	0x395e1220	0.00021178322
123	0x3b04757c	0.0020211628
124	0xbb454008	-0.003009798
125	0xba4f9e78	-0.0007920037
126	0x3b6beb2e	0.0035998332
127	0x3b1277e0	0.0022349283
128	0xbbaadad6	-0.0052140756
129	0x3a09af03	0.0005252214
130	0xba4cd36b	-0.0007813486
131	0xbb0f4560	-0.002186142
132	0xba232b89	-0.0006224444
133	0x3b0c5aea	0.0021416494
134	0xbb2f77a9	-0.0026774204
135	0xbb360a9c	-0.002777732
136	0xba9dcd8e	-0.001203941
137	0xbbc43629	-0.0059879017
138	0xbabdc176	-0.0014477212
139	0xba23e0c1	-0.00062514475
140	0x3ab835af	0.0014054085
141	0xba9d69eb	-0.0012009715
142	0xbb3cac36	-0.002878917
143	0xb9ac4695	-0.00032858984
144	0xbae6bf36	-0.0017604593
145	0xbaee1740	-0.0018164888
146	0x3b06aabf	0.002054855
147	0xbba9044b	-0.0051579825
148	0x3a82311a	0.0009932846
149	0xbb538da8	-0.0032280479
150	0xbb1f1b70	-0.0024277829
151	0x3961f88f	0.00021550267
152	0xba8482b6	-0.0010109756
153	0x3aaba71e	0.001309607
154	0xba10957c	-0.0005515439
155	0x3b03ad7c	0.0020092418
156	0xbb6ae706	-0.0035843267
157	0xb9bfc01f	-0.000365735
158	0x3abe04fd	0.0014497336
159	0x3a706814	0.0009170782
160	0xbaec13d6	-0.0018011283
161	0x3ac1ef13	0.0014795981
162	0x3adcf315	0.0016857112
163	0x3a90a4a9	0.0011035401
164	0xbad179d7	-0.0015981746
165	0xb962d37a	-0.0002163182
166	0xb993501c	-0.0002809771
167	0xbac03c8f	-0.0014666485
168	0xbaa11588	-0.0012289742
169	0xba486ddb	-0.0007645764
170	0xb9cd8bba	-0.0003920475
171	0x36f8ab31	7.4109053e-06
172	0x39c2d23a	0.00037159194
173	0x39536b0a	0.00020162403
174	0xbac9e1d5	-0.0015402386
175	0xbaa7fcc0	-0.0012816414
176	0x3d16f799	0.03685722
177	0x3b30399c	0.0026889807
178	0xbbc97bde	-0.0061487993
179	0x3c5ef879	0.013609045
180	0xbbc5897b	-0.006028352
181	0xbc453c06	-0.0120382365
182	0xbb6bc29f	-0.0035974158
183	0x3b094acd	0.0020949126
184	0x3bb74275	0.005592639
185	0x3d336803	0.043800365
186	0xbc5d053d	-0.013490018
187	0x3d776aa0	0.06040442
188	0x3c455113	0.012043255
189	0xbc7bf34a	-0.015377829
190	0xbc0ec03d	-0.008712825
191	0x3aafb83e	0.0013406349
192	0xbb72ab99	-0.003702855
193	0x3b074656	0.0020641289
194	0x3ae55f1c	0.0017499658
195	0xbad98eab	-0.0016598305
196	0xbb0f095a	-0.0021825642
197	0xbb7f3df0	-0.003894683
198	0x3aa0e79e	0.0012276059
199	0xbad7ac7d	-0.0016454604
200	0xbb05a847	-0.002039449
201	0x3a860b23	0.0010226708
202	0xbb0d7acb	-0.0021588083
203	0x3aed6668	0.0018112184
204	0xbb1fdb68	-0.002439225
205	0xbac0e420	-0.0014716424
206	0x3a0aa2ee	0.00052885606
207	0xbb1a9812	-0.0023589176
208	0x3c758fb6	0.014987877
209	0x3c04d383	0.008107069
210	0x3bf4cb1d	0.007470502
211	0x3c2ffcfc	0.0107414685
212	0xbb07e4e4	-0.0020735795
213	0xbcbd68a7	-0.023121191
214	0xbbd3b490	-0.0064607337
215	0xbaa7b64f	-0.0012795421
216	0xbbe11673	-0.0068691312
217	0x3cd75f74	0.026290633
218	0xbbeb8dbf	-0.0071885283
219	0x3c81cf65	0.015845964
220	0xba84d4b9	-0.0010134197
221	0xbbb33e8f	-0.005470104
222	0xb9a220be	-0.00030923443
223	0xbb0d8026	-0.0021591275
224	0x38b740fc	8.738224e-05
225	0x3a92e652	0.0011207557
226	0xba5737c1	-0.0008209907
227	0x398e8712	0.00027184986
228	0xb7fa69df	-2.9851622e-05
229	0xbb9a5125	-0.00470938
230	0x3b633ae1	0.0034672546
231	0x3996f130	0.00028789928
232	0x3b5158a9	0.0031943715
233	0x3b32b924	0.0027270997
234	0xbaa97072	-0.0012927188
235	0x3b5ba12b	0.0033512812
236	0xbbac6b53	-0.0052618175
237	0xbae71231	-0.0017629323
238	0x3b29dab2	0.0025917706
239	0x3a1a4d7c	0.000588618
240	0xb876659e	-5.874561e-05
241	0xba352c81	-0.00069112336
242	0xb98db418	-0.00027027796
243	0xbb63d21a	-0.0034762681
244	0xb98e0a42	-0.00027091993
245	0xba519f41	-0.0007996448
246	0x3afcaf62	0.0019278342
247	0x39ffe218	0.00048805843
248	0x38373077	4.3675736e-05
249	0x3a9f09f7	0.0012133707
250	0xba42d5ae	-0.00074323534
251	0xb8c6b742	-9.47551e-05
252	0xbb87379f	-0.0041265036
253	0xba562883	-0.0008169489
254	0x3ae30981	0.0017321558
255	0x3a15ce06	0.0005714599

module.bi_lstm2.weight_hh_l0 f4 [128, 32]
0	0x8000894c	-4.9253e-41
1	0x80008ae0	-4.9819e-41
2	0x000089f7	4.9492e-41
3	0x00008af0	4.9841e-41
4	0x80008b65	-5.0005e-41
5	0x80008b3d	-4.9949e-41
6	0x80008eb0	-5.1187e-41
7	0x00008a98	4.9718e-41
8	0x8000890d	-4.9165e-41
9	0x800089c1	-4.9417e-41
10	0x00009064	5.1798e-41
11	0x80008900	-4.9146e-41
12	0x8000ad56	-6.2181e-41
13	0x80008b12	-4.9889e-41
14	0x00008a0f	4.9526e-41
15	0x8000a0bc	-5.766e-41
16	0x00009e83	5.6863e-41
17	0x8000a432	-5.8902e-41
18	0x80008aa7	-4.9739e-41
19	0x0000a788	6.0099e-41
20	0x80008b83	-5.0047e-41
21	0x0000893b	4.9229e-41
22	0x80008bcf	-5.0154e-41
23	0x800088e2	-4.9104e-41
24	0x00008c7d	5.0398e-41
25	0x00008972	4.9306e-41
26	0x0000996a	5.5035e-41
27	0x80008b51	-4.9977e-41
28	0x000089d0	4.9438e-41
29	0x00008aea	4.9833e-41
30	0x00008c39	5.0302e-41
31	0x80008a31	-4.9574e-41
32	0x00009112	5.2041e-41
33	0x00008a62	4.9642e-41
34	0x0000931d	5.2774e-41
35	0x80008aec	-4.9836e-41
36	0x00008e08	5.0951e-41
37	0x00008af1	4.9843e-41
38	0x00008a84	4.969e-41
39	0x0000ace1	6.2017e-41
40	0x00009525	5.3503e-41
41	0x00009414	5.312e-41
42	0x00008cd3	5.0518e-41
43	0x80008e56	-5.106e-41
44	0x0000a875	6.0431e-41
45	0x80008d9a	-5.0797e-41
46	0x0000ad29	6.2118e-41
47	0x800088e8	-4.9113e-41
48	0x80008959	-4.9271e-41
49	0x000089c1	4.9417e-41
50	0x000089fd	4.9501e-41
51	0x00008d16	5.0612e-41
52	0x00008c90	5.0424e-41
53	0x00008a6f	4.966e-41
54	0x00008ac5	4.9781e-41
55	0x80008a8e	-4.9704e-41
56	0x80008b32	-4.9934e-41
57	0x0000a671	5.9708e-41
58	0x8000a15c	-5.7885e-41
59	0x00008b4c	4.997e-41
60	0x80008c59	-5.0347e-41
61	0x00008a90	4.9707e-41
62	0x80008de0	-5.0895e-41
63	0x000089ab	4.9386e-41
64	0x80008e02	-5.0943e-41
65	0x000089ad	4.9389e-41
66	0x80009335	-5.2808e-41
67	0x00008bdf	5.0176e-41
68	0x8000ab89	-6.1535e-41
69	0x000093f8	5.3081e-41
70	0x0000a51b	5.9229e-41
71	0x800088e1	-4.9103e-41
72	0x00009e53	5.6796e-41
73	0x000094ab	5.3332e-41
74	0x000097b8	5.4426e-41
75	0x00008a62	4.9642e-41
76	0x80008a54	-4.9623e-41
77	0x00008b94	5.0071e-41
78	0x800088e9	-4.9114e-41
79	0x0000948e	5.3291e-41
80	0x00009de9	5.6647e-41
81	0x00008c14	5.025e-41
82	0x00008af2	4.9844e-41
83	0x80009abf	-5.5512e-41
84	0x80008d0d	-5.06e-41
85	0x80008b8e	-5.0063e-41
86	0x00008d9b	5.0798e-41
87	0x80008ae3	-4.9823e-41
88	0x00008bf1	5.0202e-41
89	0x80008b0d	-4.9882e-41
90	0x80008aba	-4.9766e-41
91	0x00008ae4	4.9825e-41
92	0x00008a04	4.951e-41
93	0x00008ac6	4.9783e-41
94	0x800088c2	-4.906e-41
95	0x00008bf3	5.0204e-41
96	0x80008b56	-4.9984e-41
97	0x00008a6f	4.966e-41
98	0x8000a83f	-6.0355e-41
99	0x00008964	4.9286e-41
100	0x00008dde	5.0892e-41
101	0x800088be	-4.9054e-41
102	0x00008b00	4.9864e-41
103	0x80008b1d	-4.9904e-41
104	0x80008ffb	-5.165e-41
105	0x800089c8	-4.9427e-41
106	0x00008ccb	5.0507e-41
107	0x00008aa9	4.9742e-41
108	0x80008bbb	-5.0126e-41
109	0x8000a0d2	-5.7691e-41
110	0x8000896b	-4.9296e-41
111	0x00008a12	4.953e-41
112	0x00008b74	5.0026e-41
113	0x000089d7	4.9448e-41
114	0x00008a42	4.9598e-41
115	0x000089ae	4.939e-41
116	0x00008aa1	4.973e-41
117	0x00008d44	5.0677e-41
118	0x80008a59	-4.963e-41
119	0x80008c07	-5.0232e-41
120	0x00008ccd	5.051e-41
121	0x0000894e	4.9256e-41
122	0x80009973	-5.5047e-41
123	0x80008b3a	-4.9945e-41
124	0x0000893c	4.923e-41
125	0x80009d2a	-5.638e-41
126	0x00008eb6	5.1195e-41
127	0x00008ac6	4.9783e-41
128	0x80008ac7	-4.9784e-41
129	0x80008a34	-4.9578e-41
130	0x8000891b	-4.9184e-41
131	0x80008b23	-4.9913e-41
132	0x8000894f	-4.9257e-41
133	0x8000898b	-4.9341e-41
134	0x00009858	5.465e-41
135	0x80008cb1	-5.047e-41
136	0x80008ae1	-4.982e-41
137	0x800089eb	-4.9476e-41
138	0x000090ce	5.1946e-41
139	0x80008992	-4.9351e-41
140	0x00008dc3	5.0855e-41
141	0x800095d9	-5.3755e-41
142	0x80008c15	-5.0252e-41
143	0x80008ba9	-5.01e-41
144	0x0000898a	4.934e-41
145	0x80008c95	-5.0431e-41
146	0x80008a0c	-4.9522e-41
147	0x0000934e	5.2843e-41
148	0x00008c07	5.0232e-41
149	0x80008b52	-4.9979e-41
150	0x80008977	-4.9313e-41
151	0x000089cc	4.9432e-41
152	0x000088ee	4.9121e-41
153	0x0000894f	4.9257e-41
154	0x80008d60	-5.0716e-41
155	0x00008927	4.9201e-41
156	0x00008aa1	4.973e-41
157	0x80008994	-4.9354e-41
158	0x80008d5e	-5.0713e-41
159	0x80008a3d	-4.959e-41
160	0x80008ba9	-5.01e-41
161	0x80008a67	-4.965e-41
162	0x00008c50	5.0335e-41
163	0x80008a9f	-4.9728e-41
164	0x00008c09	5.0235e-41
165	0x00008a21	4.9551e-41
166	0x8000895e	-4.9278e-41
167	0x00008957	4.9268e-41
168	0x80008b5a	-4.999e-41
169	0x8000aba1	-6.1569e-41
170	0x80008a14	-4.9533e-41
171	0x80008b6f	-5.002e-41
172	0x00008b2e	4.9928e-41
173	0x80008e61	-5.1076e-41
174	0x000088ea	4.9116e-41
175	0x8000a6c4	-5.9824e-41
176	0x00008d48	5.0682e-41
177	0x800090ad	-5.19e-41
178	0x800094c7	-5.3371e-41
179	0x00008bd4	5.0161e-41
180	0x800089bf	-4.9414e-41
181	0x00008c32	5.0293e-41
182	0x00008e19	5.0975e-41
183	0x00008ddb	5.0888e-41
184	0x800088f2	-4.9127e-41
185	0x800091ed	-5.2348e-41
186	0x80008e12	-5.0965e-41
187	0x800089c8	-4.9427e-41
188	0x80008ca6	-5.0455e-41
189	0x80008cb6	-5.0478e-41
190	0x80008aae	-4.9749e-41
191	0x80008b4b	-4.9969e-41
192	0x00008e18	5.0974e-41
193	0x00008a22	4.9553e-41
194	0x00008b4b	4.9969e-41
195	0x000092ab	5.2615e-41
196	0x0000a822	6.0315e-41
197	0x8000a542	-5.9283e-41
198	0x00008b32	4.9934e-41
199	0x80009084	-5.1842e-41
200	0x00009a0c	5.5262e-41
201	0x00008b30	4.9931e-41
202	0x80008a84	-4.969e-41
203	0x00009eea	5.7008e-41
204	0x000089f1	4.9484e-41
205	0x000094da	5.3398e-41
206	0x000089c0	4.9415e-41
207	0x80008b22	-4.9911e-41
208	0x80009c0d	-5.598e-41
209	0x000089d4	4.9443e-41
210	0x00008a90	4.9707e-41
211	0x80008a54	-4.9623e-41
212	0x80008f43	-5.1393e-41
213	0x80008fcb	-5.1583e-41
214	0x000094df	5.3405e-41
215	0x80008a4d	-4.9613e-41
216	0x80008982	-4.9329e-41
217	0x80008f8b	-5.1494e-41
218	0x80008b1c	-4.9903e-41
219	0x80009052	-5.1772e-41
220	0x00008940	4.9236e-41
221	0x80008fbb	-5.1561e-41
222	0x0000908c	5.1854e-41
223	0x80008bbc	-5.0127e-41
224	0x0000892e	4.9211e-41
225	0x80008aea	-4.9833e-41
226	0x000089e1	4.9462e-41
227	0x00008a2a	4.9564e-41
228	0x80008d86	-5.0769e-41
229	0x00009372	5.2893e-41
230	0x00009da9	5.6558e-41
231	0x80008c00	-5.0223e-41
232	0x00008cd5	5.0521e-41
233	0x800089a6	-4.9379e-41
234	0x8000895b	-4.9274e-41
235	0x8000a292	-5.8319e-41
236	0x00009603	5.3814e-41
237	0x00008b62	5.0001e-41
238	0x000089ee	4.948e-41
239	0x80009698	-5.4023e-41
240	0x000089c3	4.942e-41
241	0x0000933b	5.2816e-41
242	0x00008bb1	5.0112e-41
243	0x800094fd	-5.3447e-41
244	0x80008a50	-4.9617e-41
245	0x00008a9a	4.9721e-41
246	0x0000a376	5.8639e-41
247	0x80009c32	-5.6032e-41
248	0x00009306	5.2742e-41
249	0x000089ea	4.9474e-41
250	0x0000892b	4.9207e-41
251	0x00008a13	4.9532e-41
252	0x00008a7f	4.9683e-41
253	0x00008ccf	5.0513e-41
254	0x00008ecc	5.1226e-41
255	0x00008a74	4.9668e-41
