output/clip/FD004/exp_202411021545_bilstm_clip_ep-0007.pth (torch, 288916 bytes, 66 tensors)

module.bi_lstm1.weight_ih_l0 f4 [64, 14]
000000 49 32 62 3b 1b 8c 33 3c 42 f1 e7 3b f1 3c bf bc
       0.0034514836 0.010958697 0.0070783207 -0.023344489
000010 aa b5 bc bc 64 d2 1d 3c 81 09 58 3d 80 9b e5 ba
       -0.023035843 0.009632681 0.05274344 -0.0017517656
000020 1b ff 83 bc 89 1e ea 3c ad e1 1c bb 12 b0 88 bb
       -0.016112855 0.028579013 -0.0023938224 -0.00417138
000030 b4 db 80 bc 52 44 7e 38 ed 22 38 bc 22 56 92 bc
       -0.015729763 6.0621947e-05 -0.011238796 -0.017863337
000040 22 2a 3d bc 17 48 81 3c cb 67 99 bb f3 08 37 bc
       -0.01154569 0.015781445 -0.0046815625 -0.011171567
000050 b4 b6 88 bc 5e 66 87 3c 23 7b cd bb 25 33 0e bc
       -0.016688682 0.016528305 -0.0062707826 -0.008679186
000060 fe 6a e5 bb 86 16 34 bc 81 e0 51 bc d4 ba 0f 3c
       -0.00700128 -0.010991698 -0.012809874 0.008772571
000070 e6 b2 90 bb 9a f5 14 bb e0 ce 9a ba e2 5c 78 bd
       -0.0044158576 -0.0022729398 -0.0011810921 -0.060635455
000080 6d 31 aa 3d db 89 76 3d 6e c2 88 3c c7 12 e8 3b
       0.083102085 0.060190063 0.016694274 0.0070823166
000090 9f c6 41 bc d3 82 f8 3c 3a 3c e2 bc bf 30 82 3d
       -0.01182714 0.03033582 -0.027616609 0.06356954
0000a0 95 9e d9 3b fd 61 0a 3d 05 8a 5f 3d b5 15 bb 3d
       0.006641219 0.033784855 0.054574985 0.09135
0000b0 fa 60 5c bd f7 8c c1 bc 45 ad 86 3d 3d 16 69 3c
       -0.05380342 -0.023626788 0.06576017 0.014226493
0000c0 e5 85 24 3d 49 26 d2 bd eb 89 95 bc 80 eb 15 3c
       0.040166754 -0.102612086 -0.018254241 0.009150386
0000d0 7e ec 60 bd fd 5a 7c 3d 17 db 00 3d a3 ad 69 3d
       -0.054913037 0.06161021 0.03145894 0.05705036
0000e0 79 59 a2 bc e7 64 a6 bd c2 1f 29 bd 40 46 cc bc
       -0.019818055 -0.08124714 -0.041290052 -0.024935842
0000f0 01 d0 54 bd a6 d9 43 bd 93 22 6d bd d9 12 ef 3c
       -0.05195618 -0.047814988 -0.0578943 0.029183792
000100 41 e8 a4 bc bf 05 ad bc d1 0d 14 3d e2 f3 90 3d
       -0.020130279 -0.021120904 0.03614599 0.07077767
000110 6a 8d 6e 3d 7e 95 05 bc 48 8b dd 3d ff 56 aa 3d
       0.05824033 -0.0081533175 0.108175814 0.083173744
000120 ee 9d 8d 3d 97 15 ab 3d 23 cb e8 ba 8d 58 f4 bc
       0.06914888 0.08353727 -0.0017760735 -0.02982738
000130 7b ea 88 3d 60 7b 18 3e ee 33 e0 3c 8a e7 a1 ba
       0.066853486 0.14890814 0.027368512 -0.0012352329
000140 dc 01 a9 ba 84 8c fa 3d 01 b2 25 3d ae a3 83 3b
       -0.0012894231 0.122338325 0.04045296 0.004017315
000150 ac eb 84 ba aa 05 80 bb 9e 5e 93 bb 95 33 65 bb
       -0.0010141036 -0.003906925 -0.004497363 -0.0034973372
000160 9d 7b cf bc fb 18 08 bd a5 e3 70 3b 9d cb 24 bb
       -0.025327498 -0.03322695 0.003675678 -0.0025145777
000170 cb 59 c4 bc c0 91 18 bd 99 95 9e 3c 02 bf 37 bb
       -0.023968598 -0.037248373 0.019358443 -0.0028037434
000180 83 5d b7 bc 19 f8 be ba 59 a4 86 bd cb 4f b0 bd
       -0.022383457 -0.0014569788 -0.065743156 -0.08608969
000190 4c 30 38 bd db 7b f1 bc 0b 90 98 bd 31 3d 8b 3c
       -0.044967934 -0.029478004 -0.07449349 0.016996952
0001a0 9e 89 48 bb d8 94 65 3b 09 0d b3 bb d6 22 24 bc
       -0.0030599604 0.0035031345 -0.0054642004 -0.010018071
0001b0 82 5e 1e bd 84 3b 61 3d 0b e0 e3 ba 69 e8 3e bb
       -0.03866435 0.0549884 -0.0017385496 -0.0029130226
0001c0 66 ec e7 3c 41 98 5c bb 6f 36 a7 bc 9d 23 33 3d
       0.028310966 -0.0033660086 -0.020411698 0.043735135
0001d0 c0 50 22 bd f9 a8 f6 bc c0 5d 27 3d c2 fc 09 3c
       -0.03962779 -0.03010987 0.04086089 0.008422079
0001e0 48 8b ba bc 09 48 2a bc e8 84 06 bd e6 64 54 bd
       -0.022771493 -0.010393151 -0.032841593 -0.051854037
0001f0 4e f7 2a bc 77 9e 05 bc 9f 1f 30 3d a1 e9 38 3d
       -0.010434939 -0.008155457 0.042998906 0.04514468
000200 7a 6d 59 3d 2c f0 9c 3d db 0a 22 3d 4e 41 ae 3c
       0.05308292 0.07662997 0.039561134 0.021271374
000210 8d 86 87 3d 62 bb 22 3d 03 ac 08 bc 9d 9b cb 3d
       0.066174604 0.039729483 -0.008341792 0.0994179
000220 ba 70 00 bd 0a 11 4c 3d a0 cf 06 3e d5 72 a9 bd
       -0.031357504 0.049820937 0.1316514 -0.082738556
000230 17 19 45 3d b6 9e c3 3c 1d 31 b3 3d cf a6 94 3d
       0.04811963 0.02387939 0.08749602 0.07258379
000240 53 4c 5a 3d e6 fc 2e 3d 5d cb ea 3c f0 6f cc 3d
       0.053295445 0.04272165 0.028661424 0.09982288
000250 12 40 06 3d f8 47 1f 3d ea 32 94 3d 3c 30 4e 3d
       0.032775946 0.038886994 0.072362736 0.05033897
000260 d6 ff 20 3c a6 89 7c 3d e3 29 f2 3c 6a 6b 20 3d
       0.009826621 0.06165471 0.029560989 0.039164938
000270 bd 3e 04 3e ba b6 81 3c 36 17 f4 bb 4b 06 c6 bc
       0.12914558 0.015834201 -0.007449056 -0.024172923
000280 da c1 d6 bc 0a 3c 4e 3b 3f b1 1e 3d 0e ee 88 bd
       -0.026215483 0.0031468892 0.038743254 -0.0668603
000290 13 bb 54 3d c9 d8 99 bd 4a 51 c2 ba fd cd 28 3b
       0.05193622 -0.075120516 -0.0014825251 0.0025757544
0002a0 37 ed 6f 3c 1e c3 4a bb 55 27 8d bd 3e bf 3b 3d
       0.014643959 -0.0030939053 -0.068922676 0.04583668
0002b0 69 8f 8c 3c d3 60 81 3d 09 f6 31 bc f1 0d ec 3c
       0.017158227 0.06317296 -0.010861882 0.028815242
0002c0 a8 82 77 3c a9 af 35 3d 29 c9 25 3d 1f ec 58 bd
       0.0151068345 0.044356976 0.040475044 -0.052959558
0002d0 bb 70 86 3d 6b 81 3c 3d 57 12 7e bc 7b 45 32 bc
       0.065644704 0.04602186 -0.015507302 -0.010880823
0002e0 c1 a5 af bc 55 ea 40 bc 5c 8f b1 bc ce 0e 5c bc
       -0.021441342 -0.011774619 -0.021674804 -0.013431264
0002f0 c4 da 8e bc 40 f8 68 bc 8f 62 b8 bc 5d f1 42 bc
       -0.0174383 -0.014219344 -0.022507934 -0.011898366
000300 25 65 8a 3b 69 54 8d bc 22 69 0b bc 5f 0a ac bb
       0.004223483 -0.017252164 -0.008508952 -0.00525026
000310 00 ee 85 3d c6 0d e7 bd b6 4d 0c be 61 12 a1 bd
       0.065395355 -0.11281924 -0.1370152 -0.078648336
000320 86 45 05 bd e0 27 31 bd f2 89 0b bd 48 48 d0 bd
       -0.032537006 -0.04325092 -0.0340671 -0.101700366
000330 27 74 37 bc a7 2f 06 bd da ca 3a 3d 23 fe 73 bc
       -0.0111971265 -0.03276029 0.04560361 -0.014892134
000340 99 19 c1 bd bb ff bc 3b 91 c1 18 3d ca 7d 10 3d
       -0.094287105 0.00576779 0.037293974 0.03527621
000350 6b 16 da bc a2 11 87 bd 3e 25 db bc d0 6a 9c bd
       -0.026622018 -0.0659516 -0.026751157 -0.0763756
000360 12 ad 6d 3b 48 4b 2f bd 3a c7 2c bd cc 10 b0 bd
       0.0036266488 -0.042796403 -0.042182185 -0.08596954
000370 43 31 fc bb fc 0b 06 bd d8 2c 53 bd db e2 a8 bd
       -0.007696302 -0.032726273 -0.05155644 -0.08246394
000380 e7 c1 f0 bc bb 4e 42 bd 4d d0 91 bd 9d 32 d6 bc
       -0.029389335 -0.047438364 -0.07119808 -0.026147181
000390 a0 4d 84 bd 31 c7 a2 bc 99 24 45 bc 89 0a 48 bd
       -0.06460118 -0.019870372 -0.012032651 -0.048838172
0003a0 de 14 57 bc 06 b5 94 bc f6 8d 7e bd 7a a3 71 bd
       -0.013127534 -0.018152725 -0.062147103 -0.058993794
0003b0 73 82 0c bd d0 d4 be bc e7 f2 a7 ba fd 5f 28 bc
       -0.034304094 -0.023294836 -0.0012813479 -0.010276792
0003c0 3d 4b 06 bc 64 47 34 3c 85 06 7e bb 48 b6 35 bc
       -0.008196649 0.011003349 -0.003876121 -0.0110908225
0003d0 87 d2 08 bb 7b b5 69 3c fd 70 80 bb 70 45 1a bc
       -0.0020877437 0.01426446 -0.0039197193 -0.009415969
0003e0 67 33 e5 bb 72 c7 3f bc 5d 17 f1 ba e4 30 c5 3b
       -0.006994653 -0.011705266 -0.0018393804 0.006017791
0003f0 84 bc a2 bc 31 36 21 bd d7 81 a8 bc dc 75 bf bc
       -0.019865282 -0.03935832 -0.020569725 -0.02337163

module.bi_lstm1.weight_hh_l0 f4 [64, 16]
000000 79 88 8a bc 61 cf 42 bc c0 2f 83 3c 53 74 8c 3c
       -0.016910778 -0.011890263 0.01601398 0.017145311
000010 1c 17 ad bb 67 61 3a bd 20 63 3a bc 7e 49 e4 bb
       -0.005282296 -0.045503046 -0.011376172 -0.0069667688
000020 8a ab a8 bc a3 c7 28 3d 27 38 fc bc 32 24 97 3c
       -0.020589609 0.041206013 -0.030788494 0.018449876
000030 59 63 d8 3c d5 5a 6e bc 36 c4 03 bb 45 1f e1 bc
       0.02641456 -0.014548023 -0.0020105965 -0.02748073
000040 fe 01 ee ba d5 79 80 bb 7f f5 48 ba b8 45 dc 3a
       -0.0018158553 -0.0039207735 -0.00076659763 0.0016805446
000050 55 72 f6 3a b4 09 bf 3b da 44 b4 ba 1d a0 89 ba
       0.0018802384 0.005830014 -0.001375343 -0.0010499988
000060 5e 10 a2 ba 6c 08 e8 ba b7 c4 b6 b9 b2 0e 0a 3b
       -0.0012364497 -0.0017702705 -0.0003486031 0.0021065888
000070 35 79 e5 3a 15 51 3a bb 3a 63 ea 3a e8 5d 2e b9
       0.0017507436 -0.0028429676 0.0017882355 -0.00016628916
000080 b0 c8 40 bc 41 1f 11 bc f9 8b 12 3d 39 12 be 3b
       -0.011766598 -0.008857549 0.03577802 0.005800512
000090 37 e3 0f 3b 60 56 9d bd 13 e5 35 bc fc 64 74 bb
       0.00219555 -0.0768249 -0.011101979 -0.0037291637
0000a0 c5 9f 67 bd 48 98 8f ba 2a ea ed bc ad 43 0b 3c
       -0.056548852 -0.0010955418 -0.029042322 0.008500022
0000b0 a5 7c da 3b 4d 78 8c bb ff a7 93 bb 27 76 0d bc
       0.006667691 -0.004286802 -0.0045061107 -0.008634127
0000c0 ed de 3d bc ff 03 4a bb 7f 08 25 3d a6 58 d9 3c
       -0.011588794 -0.0030825136 0.040291306 0.026531529
0000d0 05 a4 56 bc a0 b9 68 bd 45 f6 bc 3a 18 f3 05 bc
       -0.013100629 -0.05681765 0.0014416656 -0.008175634
0000e0 4c 49 53 3c 19 07 b3 3c 61 0a a7 bc 28 67 01 3d
       0.012895893 0.02185397 -0.020390691 0.031592518
0000f0 aa fc 38 3d e6 e0 bf bc be 54 4c bb 99 4c e3 bc
       0.045162834 -0.02342267 -0.003117844 -0.027746486
000100 72 12 b3 bb e8 26 ec bb a0 6a 44 bb 8b f0 3a 3a
       -0.0054648453 -0.0072067864 -0.002997078 0.00071311806
000110 9e 45 53 3c 80 62 1e bc 76 73 f2 39 93 4f 00 3a
       0.012895016 -0.009667039 0.00046243862 0.000489467
000120 2c a8 fc bc c8 8e 4b 3d 4f 63 20 bc 56 39 01 3d
       -0.03084191 0.049696714 -0.009789302 0.03154882
000130 39 e8 47 bb 5c 55 e3 3a 0a ca a0 3c 77 a9 06 3c
       -0.0030503406 0.0017344165 0.01962759 0.0082191145
000140 e1 cc ad 3b 5b 78 17 3c a5 00 1e bd 63 d1 5e 3b
       0.0053039645 0.009245004 -0.038574833 0.0033999316
000150 af e1 6c bc 84 dc 6f 3d de 9b f9 bb 0e 0b d2 bb
       -0.014458104 0.05855991 -0.007617458 -0.006410009
000160 e7 aa 16 3d 9b ed 22 bd 7d 34 1a 3d f4 4f 09 bc
       0.03678408 -0.03977738 0.037647713 -0.008380879
000170 9d 20 17 bc 41 ed 82 3c e2 3a 1e bd af 56 4a bc
       -0.009224084 0.015982272 -0.038630374 -0.012349769
000180 82 20 a1 bb e5 92 d7 bb 98 63 46 3b 91 33 b6 3b
       -0.0049172053 -0.0065787905 0.0030271765 0.0055603464
000190 d2 f9 b0 3b 29 7d 46 bc 45 e2 92 ba c9 83 1b ba
       0.0054008747 -0.012114801 -0.001120635 -0.0005932418
0001a0 fd 58 de bb fd d7 4f 3c 05 4a e4 bb 63 1b 07 3c
       -0.0067855106 0.012685773 -0.0069668316 0.008246276
0001b0 41 0a 14 3c 26 cf 12 bc 54 17 fe 3b bd f2 58 ba
       0.009035648 -0.008960521 0.007754246 -0.0008275917
0001c0 90 69 f0 bb 05 d4 ab bb 07 c1 8c 3b e5 c4 8e 3b
       -0.007336803 -0.0052437806 0.0042954716 0.0043569678
0001d0 e1 ac 2f bb b1 63 f1 bc 7a 39 a8 bb 75 1c 80 bb
       -0.0026805925 -0.029466482 -0.005133805 -0.0039096423
0001e0 56 6f 28 bc b4 01 ba 3c 54 42 8f bc f8 bb 28 3c
       -0.010280451 0.02270589 -0.017487682 0.0102987215
0001f0 62 8f b4 3a d6 f0 02 3a ca 1c a7 bb 35 1c 0f bc
       0.0013775642 0.0004994994 -0.0050998675 -0.008734752
000200 bc e4 66 bc e6 c5 82 bc d3 e0 39 3c 5a fe 8e 3c
       -0.01409262 -0.015963506 0.011345106 0.017455269
000210 7a 58 b0 b8 8f 0f 54 bd 75 55 34 bc cf 6b b9 bb
       -8.408814e-05 -0.05177265 -0.011006703 -0.0056586037
000220 18 64 b7 bc 1b 22 c2 3c be 15 03 bd 6f 21 f3 3c
       -0.022386596 0.023697903 -0.032003157 0.029679028
000230 3c 51 c3 3c fe 75 87 bc 57 35 8c 3a 63 5f 9e bc
       0.023842447 -0.016535755 0.0010697049 -0.019332593
000240 00 06 cc bb 87 12 97 ba 9e aa 9f 3c b7 19 7b 3c
       -0.006226301 -0.0011525907 0.019490536 0.015325955
000250 cd 9f 2c bd c3 3c 0c bd 57 82 fd bb 89 31 28 bc
       -0.042144585 -0.034237634 -0.007736485 -0.010265716
000260 fc 58 96 bb 98 e9 37 3c 68 30 fd bb 79 40 46 3c
       -0.0045882445 0.011225127 -0.0077267177 0.012100332
000270 1a 05 d5 3c 0c 2f f0 3b 3d 88 e5 bc bc 67 23 bd
       0.02600341 0.007329827 -0.028019065 -0.03989385
000280 3c c0 c9 3c 0c b5 a6 3c d2 cf 7d bd af 17 28 bd
       0.024627797 0.020350002 -0.06196577 -0.04103821
000290 47 f4 e1 3c 12 cc 9c 3d 48 4c 65 3b 20 02 5d 3c
       0.0275823 0.07656111 0.0034988094 0.013489276
0002a0 bc 01 04 3d a0 84 89 bd 55 d8 5e 3d 1c 53 67 bd
       0.032228217 -0.06714749 0.05440553 -0.056475744
0002b0 4d f4 8d bd 49 8a 0f 3d 30 60 58 3c 21 ef 57 3d
       -0.06931362 0.03504399 0.013206527 0.052718285
0002c0 11 61 68 bd 95 5d b9 3c 6b 10 d4 3d 57 9e ec 3c
       -0.056733195 0.022627631 0.10354694 0.028884096
0002d0 c9 c0 c1 bc e6 a8 7b bd 9b ab 36 bc 59 bb 44 bc
       -0.023651497 -0.06144037 -0.011149312 -0.012007558
0002e0 0d ad 1b bd 4f 9a 9c 3d 11 69 27 bd 07 07 ab bc
       -0.03800683 0.076466195 -0.040871684 -0.020877374
0002f0 06 39 8e 3d 6f 7a 14 bc 01 67 d0 3c 2f 63 7b bd
       0.0694447 -0.009062394 0.025439741 -0.061373886
000300 5f 14 fc 3a 36 21 16 38 97 d0 a3 39 13 5d 02 3a
       0.0019232145 3.5793717e-05 0.00031245194 0.00049729756
000310 c3 08 72 bb e7 9a 1d bc d4 f9 38 bb e2 30 7c 39
       -0.0036931492 -0.009619451 -0.002822508 0.00024050803
000320 bb 7b d0 3b 49 20 0d bd 0f 14 28 3b 8f 8f b4 3b
       0.006362406 -0.034454618 0.0025646721 0.0055102776
000330 a1 4b 62 3b 61 83 cc ba dd 1b 95 ba f7 46 fb bb
       0.0034529942 -0.0015603119 -0.0011376102 -0.007668372
000340 64 1a 2d bb e6 ae c1 bb 77 0a ee 3b 38 fe ce 3b
       -0.0026413435 -0.005910742 0.007264431 0.0063169263
000350 01 5f 31 ba d6 2a 8a bc 87 c0 1e bb bc 76 39 ba
       -0.0006766171 -0.016866129 -0.0024223642 -0.0007074883
000360 6e 2e a2 bb 78 be 6a 3c 10 da 3f bc fb 9c 18 3c
       -0.0049493825 0.014327638 -0.011709705 0.009314771
000370 bf 60 51 3c ed 29 19 bc 3b 33 14 3b 61 b9 82 bb
       0.012779414 -0.009348375 0.0022613544 -0.003989384
000380 7a 47 0e bc 49 a3 8a ba 52 6f 39 3b 98 7e 2c 3b
       -0.0086840335 -0.0010577227 0.0028295112 0.0026320573
000390 67 f6 b1 3b dc e8 fb 3a 53 7b c6 3b 9e 55 a7 bc
       0.005430985 0.0019219178 0.006057182 -0.020426568
0003a0 d4 65 84 bd 4c 9a 1b 3c ff 2c 0a 3b 28 61 09 3c
       -0.06464735 0.009497236 0.0021083949 0.00838498
0003b0 f8 f8 47 3b 4b 10 98 3c 6a 03 d8 3b be 7f 0d 3c
       0.0030513387 0.018562457 0.006592204 0.008636413
0003c0 03 35 98 bc 72 d2 88 bc 22 c2 4c 3c c3 fb 89 3c
       -0.018579965 -0.01670191 0.012497457 0.016843682
0003d0 6b 2c b2 3b 5c f1 53 bd e2 39 db bb 3d 9a d3 bb
       0.005437424 -0.05174385 -0.00669025 -0.0064575956
0003e0 b3 7d bf bc 8c 1f 5a 3d fb 14 f9 bc c1 43 f2 3c
       -0.023375368 0.05325274 -0.030405512 0.029573323
0003f0 d8 87 d2 3c 87 80 b3 bc c3 3f 41 3c 0c 06 78 bc
       0.025699541 -0.021911873 0.011794987 -0.01513816

module.bi_lstm1.bias_ih_l0 f4 [64]
000000 e6 24 ab bd f3 c2 d3 bb 40 df 7b bd 20 6e 54 bd
       -0.08356647 -0.0064624487 -0.061492205 -0.051862836
000010 93 f0 95 3d 7f 44 85 3d f5 6b ad bc 35 a5 12 3d
       0.073212765 0.06507205 -0.021169642 0.035802085
000020 86 5e 9f 3d 76 8e 19 3e f1 36 c8 3b f0 f6 ad bc
       0.07781701 0.14995751 0.006110065 -0.021235913
000030 c4 68 21 3d c8 ba 3d bc c5 b5 44 3b cc 07 14 bd
       0.039406553 -0.011580177 0.003001557 -0.03614025
000040 b4 5f 7d bd 86 d0 f4 bc e4 c6 97 bd 6a 40 82 3d
       -0.061858848 -0.029884588 -0.07410982 0.06359942
000050 3e 14 98 bd a0 59 19 3e c6 fb df bc 85 4f fc bb
       -0.07425736 0.14975595 -0.027341735 -0.007699909
000060 c6 e9 55 bd 39 b0 f1 3d 42 5b 96 3c a4 e2 41 bc
       -0.052224897 0.1180119 0.018354062 -0.0118338205
000070 37 fd b0 bd 26 cd 29 3b 3a ea e9 bd a3 37 8c bd
       -0.08642047 0.0025909632 -0.11421628 -0.06846549
000080 a6 8d b1 3d 95 52 c0 3b 4b 02 fc 3d c9 7e c6 bd
       0.086695954 0.0058692195 0.12305125 -0.09692151
000090 d4 e5 09 be 29 4d c0 bc 40 24 a1 3d c3 8a a7 3d
       -0.13466579 -0.023474293 0.07868242 0.081807636
0000a0 6b 86 0c 3e f1 94 56 3d 93 a4 13 3e fc 20 85 3c
       0.13723151 0.052388135 0.14418249 0.01625108
0000b0 4a 45 c9 3d f0 ed 5e bd f6 73 fc bb 79 76 8d bd
       0.09827669 -0.054426134 -0.0077042533 -0.069073625
0000c0 07 96 37 bd f5 ca d6 ba 45 33 82 3c 28 bd c7 bd
       -0.04482081 -0.001638739 0.015893588 -0.097528756
0000d0 a1 e1 b3 bd 60 a6 13 3e d1 9b 8b 3b 80 22 b9 bd
       -0.0878327 0.14418936 0.004260518 -0.090397835
0000e0 8d 45 b3 bc 20 54 e5 3c 09 27 1b 3c 6a d3 2c 3d
       -0.02188375 0.027994215 0.009469756 0.042193808
0000f0 19 da b4 3c 01 71 b6 bc 72 83 d6 3c 35 d2 d4 bb
       0.022076653 -0.022270681 0.026185725 -0.006494785

module.bi_lstm1.bias_hh_l0 f4 [64]
000000 ed 80 99 bc fa e4 76 bc 03 4e 58 3d 18 5e fc 3c
       -0.018738234 -0.015069241 0.052808773 0.030806586
000010 80 c1 7d bb de f0 52 bd 4c 0f 56 bc 2f 2f 5a bd
       -0.0038720071 -0.05149924 -0.0130651705 -0.053267654
000020 9e 3f 8b 3d 5f 35 04 3e 72 75 f6 3c 5b 3c 3e 3d
       0.067992434 0.12910984 0.0300853 0.04644428
000030 c9 72 aa 3c 98 0f 5a bc 2f 48 59 3c 55 dc 96 bc
       0.020806687 -0.013309382 0.013261839 -0.01841561
000040 88 f7 ef bc 2e 65 14 bd ff 10 0a bd 17 1c c3 bc
       -0.029292837 -0.036229305 -0.033707615 -0.023817105
000050 a2 ba ef bc ec b1 22 3e ff 08 5d bc 93 b0 52 bc
       -0.029263798 0.15888184 -0.013490914 -0.012859481
000060 90 36 bf bc ce 84 32 3c 97 05 cf 3d 30 16 62 3c
       -0.023341447 0.010895921 0.10108488 0.013799235
000070 c0 91 fa bb d7 cf 29 bc 1a 7f 02 bc 6c 40 e2 bd
       -0.0076467693 -0.010364494 -0.007964874 -0.11047444
000080 bd e2 ae 3d 5f fa 06 3e 43 58 c1 3d 9a 6d 63 3d
       0.08539341 0.13181446 0.09440663 0.055524446
000090 c1 e0 16 be 8d 61 60 3d a8 89 2b 3d 97 89 7a bc
       -0.14734174 0.05478053 0.041879326 -0.015291593
0000a0 81 bd 9d bc 43 ed 37 bd 75 47 17 bd 53 72 63 bd
       -0.019255402 -0.044904005 -0.03693338 -0.05552895
0000b0 f6 56 db 3d 00 8e fe bc cf a9 3d be 9f 3a 17 bd
       0.10709946 -0.03107357 -0.18521808 -0.03692114
0000c0 ce 39 86 bc e4 38 ae bc 2d 9e 93 3d bd da 1a 3d
       -0.016384985 -0.021267362 0.07207904 0.03780626
0000d0 04 b8 20 be 64 a8 8b 3d 35 9a f6 bc 86 0e dd bc
       -0.15695196 0.06819227 -0.030102829 -0.026984464
0000e0 48 f4 01 be 55 9c 07 3d 1a 25 3c bd cb 14 55 bb
       -0.12690842 0.033108074 -0.04593382 -0.0032513614
0000f0 34 53 2c 3d 5b 6d 0c bc 7d ed 99 3d b1 da ce bb
       0.042071536 -0.008570994 0.075160004 -0.006312691

module.bi_lstm1.weight_ih_l0_reverse f4 [64, 14]
000000 7e 0a 68 bb 4c d4 13 bd 63 c8 fb 3c 1c 5a 02 bb
       -0.0035406644 -0.036091134 0.0307352 -0.0019890135
000010 28 42 c8 3d 50 45 6e bd 87 a2 18 bd 6f 71 01 3d
       0.09778243 -0.05817157 -0.037264373 0.03160232
000020 e6 a8 83 3d 18 8e 8a bc 06 77 98 3d f9 bf d8 3c
       0.06428699 -0.016913459 0.07444577 0.026458727
000030 76 66 8d 3d 64 dd e2 3d 52 e4 be bc df 44 cb bc
       0.069043085 0.11077383 -0.023302231 -0.024813114
000040 9d 9d a7 3c 7e 2c 2a bd 94 24 5f 3b da 71 c9 bc
       0.020460898 -0.041546337 0.0034048902 -0.024590421
000050 e5 1c 44 bd 86 3f b2 bc e8 37 ba 3c 39 81 02 3c
       -0.04787912 -0.021758806 0.022731736 0.007965379
000060 df 5d 62 3d e4 fe e5 bb 74 1f 4f bd d7 2b 6f bd
       0.055265304 -0.0070189107 -0.050567105 -0.05839142
000070 32 98 76 3d 94 56 7f 3d d7 c4 c1 3d 3d 81 3c 3d
       0.06020374 0.062338427 0.09461372 0.04602169
000080 59 b5 b5 3d da 14 1f 3d f1 a6 1d 3d 92 37 4d 3d
       0.0887248 0.038838245 0.038489286 0.050101824
000090 21 04 8b 3d 7c a3 c4 3c 27 4b 04 be 07 90 e1 3c
       0.06787897 0.024003737 -0.12919293 0.027534498
0000a0 ff d9 99 bd 05 07 39 3c c8 31 96 3d cd f3 03 3e
       -0.075122826 0.0112931775 0.07333714 0.12885971
0000b0 69 7e 36 bd 93 ea 21 3e 98 98 10 3e 4b d9 23 3e
       -0.044554148 0.15812139 0.1412071 0.1600086
0000c0 5c 27 d7 3d 5d 46 91 3a 9c 2c 0b 3e d1 e0 20 3e
       0.10505554 0.0011083592 0.13591236 0.1571076
0000d0 20 9b ba bb 5f 9b 31 3e a2 a7 cd 3d 70 82 71 3d
       -0.005694762 0.17344426 0.10041739 0.058962286
0000e0 e5 1f 97 3d b8 ef ab 3d 21 a7 f6 3d d8 56 96 3d
       0.0737913 0.08395332 0.12043596 0.07340783
0000f0 26 6a be 3d 3b 7c 63 bd 9f 8e 84 bd 73 7e ae bc
       0.0929759 -0.055538397 -0.06472515 -0.02130053
000100 8b eb d6 3d 45 88 a5 bd bf bf 8d 3c a9 ed c1 3d
       0.10494145 -0.08082632 0.017303346 0.09469158
000110 f7 6c 55 bd 69 a8 40 3d c1 0c 60 3e 31 41 37 3d
       -0.05210587 0.04703561 0.21879865 0.044739906
000120 64 26 6f 3c 56 cf 5d bc 5b 91 d0 bd e4 00 4c be
       0.014596555 -0.013538202 -0.10183974 -0.19922215
000130 3c 4f 20 3e bd fd 9c bd c1 d1 12 be b8 7f 6e be
       0.15655226 -0.07665584 -0.14337827 -0.23290908
000140 ff 76 83 3e 0f 82 47 3c d8 89 f2 3d 3f db ac 3d
       0.25676724 0.0121770045 0.11842698 0.084402554
000150 09 d8 c7 3d 00 94 c8 3d 98 08 ec 3d 6c 91 4b bd
       0.09758002 0.09793854 0.11525077 -0.049699232
000160 7a 0f e6 3c f1 ba b6 bd de d4 60 3d 94 6a 7c bd
       0.028083552 -0.08922375 0.054890506 -0.06162508
000170 c2 a0 3a 3c ac b6 a3 bd f3 95 16 3e f5 35 a8 3d
       0.011390867 -0.07993826 0.14705639 0.082134165
000180 84 66 08 bd 8c db b2 3c 72 11 9b bc 7b 74 bb 3d
       -0.03330089 0.021833204 -0.018929217 0.09153076
000190 93 6b 91 3d d1 14 2f 3d bd 76 90 bd 10 04 bd bc
       0.07100596 0.04274446 -0.070538975 -0.023073226
0001a0 cc 15 1c bd aa eb 9d 3d c2 45 9c 3c 82 eb 06 bd
       -0.038106725 0.07710965 0.019076232 -0.03293944
0001b0 10 e9 c4 bc 13 e8 1b 3e b0 7c 40 bc 3b 12 b1 3c
       -0.024036914 0.15225248 -0.011748478 0.021615138
0001c0 21 6b 69 bc 09 83 28 3d 90 a4 8e 3d 8b 1d 3d 3c
       -0.014246733 0.04114059 0.069649816 0.011542688
0001d0 ee 32 6b 3d ee 72 e6 bc bb dd 80 bd 62 0e 7f bc
       0.057421617 -0.028130975 -0.06292292 -0.015567394
0001e0 44 6b 35 3d d2 f7 c8 bb 25 18 69 3d 03 e7 29 bc
       0.04429175 -0.006133058 0.05690779 -0.010370019
0001f0 bd 41 5a 3d a4 b8 17 3c fc 7b 44 3d 9a cc ca 3c
       0.05328535 0.00926033 0.047969803 0.024755765
000200 b5 c9 11 3d f8 74 8b 3d 13 c5 ec 3c 67 7d 49 3e
       0.035592753 0.068094194 0.028902566 0.19676743
000210 37 55 f9 3c 28 e6 20 3e 61 81 0d 3e 00 0d 67 3e
       0.030436141 0.15712798 0.13818885 0.22563553
000220 5f 40 7a bd 50 23 17 3d c9 3e da bc 31 1a 6c bd
       -0.061096545 0.03689891 -0.026641266 -0.057642166
000230 9f 90 4c bd 8e 65 85 3d 2d 81 20 bd ea 0a 18 bd
       -0.04994261 0.06513511 -0.03918569 -0.037119783
000240 59 d1 06 bc 8f 13 62 bd 5a e5 22 be d2 c0 10 bd
       -0.008228623 -0.055194434 -0.15907803 -0.035340138
000250 31 62 a6 3d 5e 4c ef bc 8c 31 9f bd 05 92 e3 3b
       0.08124197 -0.02921122 -0.07773122 0.006944897
000260 28 a2 05 3d 16 ba 99 bd 75 fe b8 3d a8 77 cf 3d
       0.032625347 -0.07506196 0.09032909 0.101302445
000270 1e 1a 00 3e b2 a0 cd 3d 3f de 80 3d 46 3b 2e be
       0.12509963 0.10040416 0.0629239 -0.17014799
000280 9e a6 1a 3e a0 3f 94 3d a9 9e 7c 3d 60 53 87 bd
       0.15102622 0.07238698 0.061674748 -0.066076994
000290 4c f7 8e 3d 5e 1e 0b 3e 49 0b 87 bd d7 fe ba bb
       0.06980762 0.13585803 -0.06593949 -0.005706649
0002a0 bf f1 72 3d 2c cc 9c 3d 2a b7 83 3d cf 0e f5 3c
       0.05931258 0.0765613 0.0643142 0.029914288
0002b0 7d b7 9f 3c b7 cb ec 3a a9 fe ed 3d 32 32 64 b9
       0.019496674 0.0018066083 0.11620838 -0.00021762474
0002c0 0b 7f 62 3d 2f 63 d0 bd d6 ce 97 3d 0f a2 41 3d
       0.05529694 -0.10175168 0.07412498 0.04727369
0002d0 5d cb 8e 3d 7c 70 83 3c bb e3 00 bd 57 03 01 bd
       0.06972382 0.016044848 -0.03146718 -0.031497326
0002e0 6c 5b 04 bd a5 c1 fe bc 14 e6 4f bd 07 0f 9d bd
       -0.03231375 -0.031098196 -0.05075653 -0.07668882
0002f0 23 16 b2 bc 93 1b 0a bd 83 7a 50 bd a1 4c 86 bd
       -0.021739071 -0.033717703 -0.050898086 -0.065575846
000300 1e 95 5d 3c 3c 0f 32 bd 66 2a 96 3c d2 b1 fe 3b
       0.013524322 -0.04347156 0.018330764 0.0077726627
000310 c6 63 f8 3d 18 ad fe 3d d3 2b e0 3d 67 65 d6 3d
       0.12128405 0.12435359 0.10945859 0.1046856
000320 c0 2b d8 3d 6d 16 0c bd f9 61 0a 3e 78 4f d0 3d
       0.1055522 -0.034201074 0.13513936 0.101714075
000330 03 2c aa 3d 0f 9e 7a 3c 35 f6 89 3d 72 f4 f1 3d
       0.08309176 0.015296473 0.067364134 0.11814202
000340 4b 26 38 3e f0 23 ce 3d f1 b8 be bc f1 29 02 bc
       0.17983358 0.10065448 -0.023281546 -0.00794457
000350 24 cd 13 3e 3a 5d e5 3d 0a 7f 91 3d 6f bc 91 3d
       0.14433724 0.11199422 0.07104309 0.07116019
000360 19 38 56 bd 91 e3 03 3e 18 c0 72 3d 63 7f 89 3d
       -0.052299593 0.12879778 0.059265226 0.0671375
000370 b1 d0 7f bb ae 0d aa 3d 7a a9 8d 3d d6 9f 9b bd
       -0.0039034302 0.083033904 0.06917091 -0.07598846
000380 6b 87 3f 3d 73 47 17 3c 97 33 3f 3d 2e f1 c5 3c
       0.046760004 0.009233343 0.04668006 0.024162855
000390 94 92 18 3d f4 db de bc b5 94 48 3d a4 5f 2c 3d
       0.037249163 -0.027204491 0.048969943 0.042083398
0003a0 67 bc 19 bd 68 03 47 bd 91 e7 db bc b2 0b b6 3d
       -0.03753319 -0.048587233 -0.026843818 0.088889495
0003b0 bb cc 00 3e 43 74 de 3c 01 71 ea 3c 09 82 46 3d
       0.12578098 0.027155047 0.028618338 0.048463855
0003c0 92 5e e1 b8 4f 5c 2f bc b1 1f 98 3d e5 86 ae 3c
       -0.00010746451 -0.01070316 0.0742792 0.021304557
0003d0 d7 05 3b ba d6 fb 11 bd 19 26 0d 3d da 86 cf 3c
       -0.0007134354 -0.03564056 0.03446016 0.025332857
0003e0 33 69 2c 3d 08 2c 11 3d 31 e3 b6 bc 29 3a 91 3c
       0.042092513 0.035442382 -0.02232513 0.017727928
0003f0 1e 46 35 3b 5a 8b 76 3d 24 ba 9e 3d 47 f8 81 3d
       0.0027660201 0.06019149 0.07750347 0.06346183

module.bi_lstm1.weight_hh_l0_reverse f4 [64, 16]
000000 ca 5a 56 bd 53 42 b7 bc 36 09 b4 3c e6 a9 61 3d
       -0.052332677 -0.022370493 0.021977048 0.05509367
000010 fb 10 de bc ab 29 22 bc 1a 3b 08 3b 11 8a 8b 39
       -0.027107706 -0.00989763 0.002078718 0.00026615013
000020 b9 37 d5 bc 56 55 bf 3c 7b da e0 bb e4 28 b2 3b
       -0.026027547 0.023356121 -0.0068619824 0.0054370034
000030 ad f9 f7 3c 36 38 09 bd df 66 9f bd 0f c3 52 bd
       0.030270422 -0.033500873 -0.07783293 -0.051455554
000040 92 39 bb 3c e0 9f c5 3c cd 81 2b bc d6 b4 35 bc
       0.0228546 0.024124086 -0.010467959 -0.011090478
000050 fb 05 93 3c cf 06 2f 3d a3 59 49 3c bf bd 89 3c
       0.017947188 0.042731103 0.012289437 0.01681411
000060 88 0f a5 3c f8 fc d6 bc ec 02 3e bc ee 39 d4 bc
       0.020149007 -0.026243672 -0.011597376 -0.02590653
000070 78 3c 04 bd a8 2b 13 3d b8 7c 86 bb 69 38 e8 3c
       -0.03228423 0.035930306 -0.004104223 0.028347211
000080 13 34 ae bb 9d 84 bf bc f3 2b 23 3d 17 34 ba bd
       -0.0053162663 -0.023378665 0.039836835 -0.090919666
000090 e6 e9 4d 3d 02 50 60 3c a9 3a 45 bd ea 87 83 3c
       0.05027189 0.01369095 -0.048151646 0.01605602
0000a0 ed 32 19 3b ae 87 80 bd f8 a9 38 bd bb d8 29 bd
       0.0023376301 -0.06275879 -0.04508397 -0.041466456
0000b0 d3 cc 1d 3d c7 00 ef 3b 7d ba 80 3d 20 6e 91 3d
       0.038525414 0.007293794 0.0628557 0.07101083
0000c0 2d 72 72 bd 28 a3 32 3d d8 b9 19 3d 7f e1 9f bd
       -0.059190918 0.04361263 0.03753075 -0.07806682
0000d0 1f d9 84 3d 94 9b 23 3c bd db cc bd fc 9b 29 3d
       0.06486725 0.009985823 -0.10002849 0.041408524
0000e0 cc ac 98 bb 5e 78 41 be 51 2f 30 3c 5e 63 bc bb
       -0.004659271 -0.18893573 0.010753469 -0.00574915
0000f0 84 cd 07 bd 91 9d 2d 3d eb 4a 87 3c 9c 8a d5 3d
       -0.03315498 0.042386595 0.016515216 0.10426828
000100 7a a8 f7 39 64 88 b9 bb d1 d9 51 3d 6c ee c9 3c
       0.00047237036 -0.005662011 0.051233117 0.024649821
000110 77 9a 8d bd 77 bb 8b 3c 2f 65 fd 3c 13 d1 ce 3d
       -0.069142275 0.017057164 0.030932037 0.100984715
000120 fe 8e 5c bb 9c c8 46 bd 04 84 29 bc 98 76 3c bd
       -0.0033654566 -0.04853116 -0.010346416 -0.046011537
000130 6a 1f 3a bd 43 19 09 ba 98 82 f4 3b f8 65 f8 3b
       -0.045440115 -0.00052298995 0.007461857 0.007580515
000140 99 a6 aa 3d ef 54 f4 3b d7 c5 93 bd 7c b9 03 3e
       0.08332557 0.007456414 -0.07215469 0.12863725
000150 0d c1 7f 3d 5c 86 29 3e c1 7c 22 3e 44 38 bc 3d
       0.062439967 0.1655516 0.15867902 0.09190419
000160 47 0f 85 3d 38 c8 d5 3d 6a 41 d7 bd b0 76 92 bd
       0.064970545 0.10438579 -0.105105236 -0.07151544
000170 32 6e 92 bd af d2 bf 3d 66 ed b8 3d e5 68 d7 3c
       -0.07149924 0.093663566 0.09029655 0.026295135
000180 20 d4 82 bc 31 ce 09 bc 92 19 98 3c a6 b7 d1 3d
       -0.01597029 -0.008410976 0.01856688 0.10240106
000190 e8 65 8f bb 3b a3 99 3c 4e e9 5a 3d 15 ca 78 3c
       -0.004376162 0.018754592 0.053445153 0.015184899
0001a0 1f a9 cc bb 8f 47 14 3d 2a c8 c4 bc ab 13 ca bb
       -0.0062457467 0.036201056 -0.024021227 -0.0061668954
0001b0 08 43 e3 bb 0d 48 8e ba 1a c0 ae bc e9 4d 03 bd
       -0.006935481 -0.0010855213 -0.021331836 -0.032056723
0001c0 c5 8e 67 3c e5 5f 7b 3c 9b 80 8a bd 68 88 2a bd
       0.01413316 0.015342687 -0.06762811 -0.041633993
0001d0 77 0b 81 bd 4d f1 9a 3d 7e a3 c1 3b 9e fe a5 bb
       -0.06301015 0.07565556 0.0059093824 -0.005065753
0001e0 17 8e 26 bc c5 7c 3d bd 20 0c 9c bc 5b 91 84 bc
       -0.010165713 -0.046261568 -0.01904875 -0.016182592
0001f0 76 ef 6c bd 4b 1b cd 3c 05 5e 33 bd 19 1d a5 3c
       -0.057845555 0.025037428 -0.043790836 0.020155476
000200 5c d9 fc bc e4 b7 88 bc 7c 61 cc 3c 47 ee 56 3d
       -0.030865364 -0.016689248 0.024948828 0.052473333
000210 b4 62 01 bc 5a 93 23 bc c7 6a 83 3c 5b 47 27 3b
       -0.007897068 -0.009983862 0.016042126 0.002552471
000220 67 d4 49 bc 65 c9 a2 3c 17 98 d7 bc 11 c9 a8 bc
       -0.012318707 0.019871423 -0.02631764 -0.020603688
000230 bf 71 ae 3c 7a 7c 87 bc 75 72 32 bd cc 38 ac bc
       0.021294473 -0.016538847 -0.043566186 -0.021023177
000240 b6 de 03 bd 41 6c 3d bc f7 87 d8 bd 93 0e af bd
       -0.032194816 -0.011561454 -0.10572808 -0.08547702
000250 bf 3e 25 3d 03 ea ce bd 2f 88 1b be 12 f7 51 3d
       0.040343042 -0.10103228 -0.15188669 0.051261015
000260 a2 f3 9c bb 99 4d 59 bd 72 6a c2 bc 0c 08 6c 3d
       -0.0047897855 -0.05305252 -0.023732398 0.05762486
000270 a4 bf d6 3c 27 45 9a bd 6d 13 6b 3d d8 ee 4a bc
       0.026214428 -0.07532721 0.057391573 -0.012386046
000280 38 ba d4 bc b5 eb 45 3b e2 4f c7 3b e7 29 27 3d
       -0.025967702 0.0030200307 0.006082521 0.040811446
000290 c9 3c aa 3d 61 b9 53 bc 09 2b 4a bc 11 ef 04 3c
       0.08312375 -0.012922616 -0.012339362 0.0081136385
0002a0 de 27 86 3c ac 6a a4 3c f3 60 78 bd b0 4d 1d 3d
       0.016376432 0.020070396 -0.060639333 0.038404167
0002b0 a9 98 20 3d 27 6f 6a bb ab b2 33 3d 4b a1 45 bb
       0.039208088 -0.0035771818 0.043871563 -0.0030155953
0002c0 7e ce 28 3d 07 ed 93 3c ee 33 d3 bd 64 be aa bd
       0.04121255 0.01805736 -0.10312639 -0.083370954
0002d0 99 27 d2 3d 38 54 39 3e cf 7a ef 3d e0 63 09 3e
       0.10261459 0.18098533 0.11693346 0.13417006
0002e0 b6 5e 35 3d 19 d0 98 bc 12 b6 bf bb b2 d9 89 bb
       0.044279777 -0.018653916 -0.005850562 -0.0042068595
0002f0 6f 6f cc bd 24 ac 76 3d eb 7b 59 3d 9f f9 0b 3d
       -0.09982192 0.06022276 0.053096693 0.034173604
000300 a2 1b 18 3b 84 ce 70 3d 33 95 99 3d dc e8 22 bd
       0.002320983 0.0587907 0.074991606 -0.039772853
000310 5d b6 9e bc d3 08 00 3e c7 dc 85 3d 01 eb a4 3d
       -0.019374067 0.12503366 0.065362506 0.08052636
000320 02 5c 4f 3c 8f 96 ce bd 67 14 a8 3c d5 ab 73 bd
       0.012656214 -0.100873105 0.020517541 -0.059490044
000330 52 32 82 bd c2 19 97 3d f2 5f 08 3d 4d 87 a1 3c
       -0.06357254 0.0737796 0.033294626 0.019717837
000340 4b d1 b1 3c 91 74 55 3d 0e 1b 8e bc f0 bd f6 bc
       0.021706244 0.05211312 -0.017346885 -0.030119866
000350 e6 f9 02 3d 07 2f 0d 3e d8 b9 12 3d 7e 88 34 3d
       0.031976603 0.13787471 0.035821766 0.04407548
000360 63 56 1f 3d e8 21 b5 bd 6e 1a 68 3c b4 a2 b5 bd
       0.038900744 -0.08844358 0.014166458 -0.08868924
000370 1f e9 a1 bd b1 29 9b 3d 9e 76 3c bd 30 6f 64 3d
       -0.079057924 0.075763114 -0.04601156 0.0557701
000380 70 6d 1a be e0 ea d7 bd 5c e1 4a 3d 31 1c c3 3d
       -0.1508081 -0.10542846 0.049531326 0.095268615
000390 df 46 a5 bd da 3f 50 be 60 96 e3 bc 3d d0 58 3c
       -0.08070158 -0.20336857 -0.027781665 0.013233242
0003a0 89 16 db bd 34 23 8e 3e b4 cf 83 bd 82 20 47 3e
       -0.106976576 0.27761233 -0.064361006 0.19445994
0003b0 0a d9 14 3e 2b 01 1d be ba 81 cb 3c db ca 14 be
       0.14535919 -0.15332477 0.024842132 -0.14530508
0003c0 b5 2d ba ba c0 f9 43 ba 7e 6a e9 bc 4f 97 48 bd
       -0.0014204296 -0.00074758753 -0.028493162 -0.048972424
0003d0 0e 16 74 3d 3a 90 79 3c 56 45 d5 bb c3 04 60 bd
       0.059591345 0.01523214 -0.0065085096 -0.05469204
0003e0 d2 ea f2 3c 08 e0 67 bd 87 f1 12 bd 8a 33 55 3c
       0.029652987 -0.056610137 -0.03587487 0.013012776
0003f0 97 56 a2 bd 78 c8 1b 3c 40 ef dd 3c 93 f5 c8 3d
       -0.07926672 0.009508245 0.027091622 0.098124646

module.bi_lstm1.bias_ih_l0_reverse f4 [64]
000000 26 1e a4 3d 95 52 27 bd 1d be 30 3d 82 96 b1 bc
       0.08013563 -0.04085024 0.043150056 -0.021678213
000010 8e 65 62 3d c1 22 d8 3d cd 1e da 3d 4a 09 a1 3c
       0.05527263 0.10553504 0.10650406 0.01965775
000020 30 39 8b bc e2 ab 8c 3d 53 05 a4 3d f9 17 24 3e
       -0.016995043 0.068687215 0.08008828 0.1602477
000030 33 50 a3 3d f1 30 c5 3c e2 35 1e 3e be 79 88 3d
       0.07974281 0.024071189 0.15450242 0.066638455
000040 13 47 07 3e 92 03 d5 3c 8a 7a b2 bd e9 91 07 3e
       0.13210706 0.026002679 -0.08714779 0.13239254
000050 cc 32 64 3d f2 94 52 3e 9e fb 6c 3d 0a 92 05 be
       0.055712506 0.2056463 0.05785715 -0.1304399
000060 54 3b a1 bc 86 97 2f 3e 90 ad c1 bd 9c 35 9b bd
       -0.01968161 0.17147645 -0.094569325 -0.075785846
000070 d5 f4 bc bc f8 94 94 3d 41 7c 67 3d 5f d3 1d 3e
       -0.023065964 0.07254976 0.056514982 0.15412663
000080 5b 9a 04 be 08 51 b6 3d e0 a2 83 3d 63 c8 02 3e
       -0.12949507 0.08902174 0.0642755 0.12771754
000090 ad 91 be 3b 45 55 1d be c2 1a bc 3a 39 07 a6 3d
       0.0058157058 -0.15364559 0.0014351236 0.08106846
0000a0 08 c1 5f be 07 04 ca 3d c2 20 50 be da 4f ca bb
       -0.2185098 0.098640494 -0.20324996 -0.00617407
0000b0 cf ca 2e 3e 70 6b 46 3d 18 d8 3d be 99 07 74 3d
       0.17069553 0.048442304 -0.18539464 0.05957756
0000c0 e3 7c a6 3d de fa 88 bd 3b d8 d4 3d e3 e2 47 3e
       0.08129289 -0.06688474 0.10392805 0.19520144
0000d0 6c 0c ee 3d fb 27 54 3d 4f 95 8f 3d b4 67 18 be
       0.11623463 0.05179594 0.070109 -0.1488331
0000e0 44 af 65 bc 0b 6f 8a 3d 6c 3c 07 3e d6 a8 f5 3d
       -0.014018837 0.06759461 0.13206643 0.119950935
0000f0 08 63 21 3d cb 12 61 3d 92 3b 3d 3e 2e 1f 21 3d
       0.039401084 0.054949563 0.18479756 0.039336376

module.bi_lstm1.bias_hh_l0_reverse f4 [64]
000000 87 ee cb 3d 78 37 14 bd db 08 3d 3c a5 57 61 bd
       0.09957605 -0.03618571 0.011537756 -0.055015225
000010 21 22 df 3c 44 0f d0 3d 49 e6 63 3d 0c 9b 50 3d
       0.027237954 0.10159162 0.05563954 0.050929114
000020 47 f7 ca 3d 2c 34 a1 3d 6b 73 53 3c 47 2c f1 3d
       0.09910446 0.07871279 0.012905936 0.11776023
000030 06 7b 63 3d d8 41 08 3d 1e 05 46 3e 09 c2 a6 bd
       0.055537246 0.03326592 0.1933789 -0.08142478
000040 0e 68 23 3e 8b d1 4c bd 11 e7 16 bd 97 77 36 3e
       0.15957662 -0.050004523 -0.036841456 0.17819057
000050 33 70 66 bc be 5c 2b 3e 3d 75 6d 3d 6d 50 d7 bd
       -0.014064836 0.16734597 0.057973135 -0.10513387
000060 7d 2e 21 3d 76 b1 75 3e ee ac 08 3e 42 9c d7 bc
       0.039350975 0.23993477 0.13347217 -0.026319627
000070 13 90 be bc 90 b4 94 3d f2 f0 31 3e 7f 8c 58 bc
       -0.02326206 0.07261002 0.1737707 -0.013217091
000080 21 55 90 bd 57 16 05 be 14 1c 46 3c d0 4d 81 3d
       -0.07047487 -0.12996803 0.012091655 0.0631367
000090 ac 34 02 3e 98 3c 9e bd 6c b4 c7 3d 3d 39 c1 3d
       0.12715405 -0.07726401 0.097512096 0.094347455
0000a0 8b 31 b3 3d cf e6 46 3e ee 49 2e be 8c ee 32 3d
       0.08749684 0.19423984 -0.1702039 0.043684527
0000b0 20 d6 df 3d 15 27 b2 3b 1a 10 63 bd a7 bd 45 be
       0.10929513 0.005436788 -0.055435278 -0.19310628
0000c0 48 a5 a6 3d 1a f0 32 bd b9 61 45 3d 07 91 46 3d
       0.08136994 -0.04368601 0.0481889 0.048478153
0000d0 8f 03 68 3d 1a de 4b 3e 53 c1 47 3d c0 a7 f9 3d
       0.05664402 0.19908944 0.048768353 0.12190199
0000e0 6d d0 54 bd f6 37 ba bc e1 b6 db bd a2 41 be 3d
       -0.051956583 -0.022731762 -0.10728241 0.09289862
0000f0 1b ca cc 3d 33 bb 68 3d ff 93 de 3c ff 60 93 3b
       0.09999486 0.056819152 0.02717018 0.004497647

module.bi_lstm2.weight_ih_l0 f4 [128, 16]
000000 9c 15 2e bc 4f 81 ac bb 02 9f da 3b 50 57 47 3d
       -0.010625269 -0.005264438 0.0066717872 0.048667252
000010 a8 5c 0e 3c 2c 4e 8a bd 8d 13 3a 3c 3a 88 91 bb
       0.008689083 -0.06753191 0.0113572 -0.0044412883
000020 4d a5 88 39 a4 55 25 3d d5 cc 8c bc 38 a0 79 3c
       0.000260631 0.040364876 -0.017187515 0.015235953
000030 7d 12 bd 3c a1 ef bb bc 2e 99 39 bc 49 82 13 bc
       0.023080105 -0.022941412 -0.011328025 -0.00900323
000040 75 e4 06 3b 15 de 5b bb 8d d7 ac bb 14 b2 b2 ba
       0.0020582948 -0.003354912 -0.005274719 -0.0013633394
000050 92 e8 c7 3b 89 ad dd bc aa c9 48 ba 95 61 38 3a
       0.0061007226 -0.027060287 -0.0007659445 0.0007033584
000060 3e 89 17 3b 22 b0 72 bb 5f 6f c9 3b bf 07 1a bb
       0.0023122574 -0.0037031253 0.0061473097 -0.0023503152
000070 ab 84 07 3a 90 fc 2e bc 30 53 01 3c e6 60 d2 3b
       0.00051696104 -0.010680333 0.007893369 0.0064202426
000080 f1 63 32 bd 1e ff 1e bd 7a 1f 29 3d 02 0a 73 3d
       -0.043552343 -0.038817517 0.041289784 0.059335716
000090 bb a8 21 bd 8c d9 c8 bd 81 da 3c bd 82 ad a5 bc
       -0.039467555 -0.09807119 -0.04610682 -0.020224337
0000a0 4f 2a 0a bd f7 c3 48 3d de 08 41 bd 4c c3 5e 3d
       -0.033731755 0.04901501 -0.047127597 0.05438547
0000b0 39 1e 58 3d 2d 5e 4b bd 1d ba 31 bd 5c 9e 00 bd
       0.052763198 -0.04965036 -0.043390382 -0.031401023
0000c0 7d 2d 73 bc c4 b3 9c bc 52 dc 85 3c f8 8b ab 3c
       -0.014842388 -0.019128688 0.016340408 0.020940766
0000d0 fa 89 96 bc e2 cd 81 bd f1 d4 8b bc f2 c1 35 bc
       -0.01837634 -0.06338097 -0.017069312 -0.011093603
0000e0 b5 10 24 bc b6 64 56 3c 2e e1 7a bc 87 11 cb 3c
       -0.010013749 0.013085535 -0.015312476 0.024788631
0000f0 23 5d cd 3c 33 4f f7 bc 0d 27 1f bc 10 19 07 bc
       0.025068825 -0.030189132 -0.0097139 -0.008245721
000100 35 21 5c bc b1 d4 ad bb a3 b5 8c 3c 57 e6 33 3c
       -0.013435652 -0.005304896 0.017176455 0.01098021
000110 d9 31 81 bc c1 67 fd bb c5 38 94 bc 66 06 19 bb
       -0.01577084 -0.0077333157 -0.018093476 -0.002334976
000120 75 b3 39 bc 39 60 25 3a b8 37 cc bc 67 41 16 3c
       -0.01133429 0.0006308589 -0.024928913 0.009170867
000130 04 da 23 b9 5d b0 08 bc 1b 8f 59 bd e4 7b 04 bb
       -0.00015626109 -0.0083428295 -0.05311499 -0.0020215446
000140 0b db ef bb 40 a9 69 bc 4d 8b 50 3c e9 0c e2 3c
       -0.007319813 -0.014261544 0.012728524 0.027594047
000150 cb 0a a6 bb f5 fe 49 bd 3b 6e 0e bc 8c 43 f5 bb
       -0.0050672046 -0.04931541 -0.008693273 -0.007484859
000160 64 54 b9 bb 8e 15 81 3c 69 68 4b bc a5 17 19 3b
       -0.005655812 0.015757348 -0.01241503 0.002336004
000170 66 03 c1 3c f3 19 d0 bc 00 d3 24 bc 63 ab b4 bb
       0.02356119 -0.025402999 -0.010060072 -0.005513595
000180 3e ed 7a bc 27 5b 22 bc 01 b7 80 3c 54 e8 a1 3c
       -0.015315352 -0.009909428 0.015712263 0.019764103
000190 90 ae 69 bc e2 b6 f4 bc 8a ba 1b bc 21 eb 18 bc
       -0.01426281 -0.029872362 -0.009504924 -0.009333403
0001a0 1c 18 38 bc 37 b0 83 3c a9 db 25 bc 2b 9e 90 3c
       -0.011236217 0.016075237 -0.010123172 0.017653545
0001b0 0d 49 88 3c 3d 12 81 bc e9 ff 64 bc f4 d3 47 bc
       0.016636396 -0.015755767 -0.013977029 -0.01219653
0001c0 23 12 82 bc 0c 18 b9 bb 2f 55 0f 3c 79 57 1c 3d
       -0.015877789 -0.0056486186 0.008748337 0.038169358
0001d0 43 62 10 38 c2 97 a2 bc f4 99 6a 3c 69 67 de bb
       3.442379e-05 -0.019847754 0.014318932 -0.00678723
0001e0 d4 1c 75 bb 19 65 3f 3d 63 87 d8 bc cb f1 56 3c
       -0.0037401216 0.046727274 -0.026431745 0.013119171
0001f0 0b 4d 40 3c 4b 23 ea bb 98 a7 12 bd c0 36 97 bb
       0.0117371185 -0.0071453205 -0.03580436 -0.004614681
000200 8c cb 2c bc 48 a3 32 bc fd 25 94 3c e7 c9 cc 3c
       -0.010546576 -0.010903187 0.01808452 0.024998618
000210 ad 96 57 bc ed fa 32 bd 79 6b 59 bc 35 76 26 bc
       -0.0131584825 -0.043696333 -0.013270252 -0.010160019
000220 bd af 51 bc f5 cc 89 3c 06 53 28 bc d1 99 8d 3c
       -0.012798247 0.016821364 -0.010273701 0.01728526
000230 48 29 8c 3c 0e 3f aa bc ca 20 b6 bb c7 87 52 bc
       0.017109528 -0.02078202 -0.005558108 -0.012849755
000240 5c df fa bc c5 de 9a bc ff 4b 07 3d 85 30 5e 3d
       -0.030624084 -0.018905053 0.03303146 0.05424549
000250 bb 87 c3 bc a7 23 6f bd 2a 19 58 bc fc 72 ad bb
       -0.023868432 -0.05838361 -0.013189593 -0.005293248
000260 65 da c8 bc cf 6a 41 3d 1e 73 22 bd 1c 7f 10 3d
       -0.024518201 0.047221 -0.039660566 0.03527747
000270 69 41 ce 3c f3 35 0e bd 6a f7 88 bd 61 b5 90 bc
       0.025177674 -0.03471942 -0.066878155 -0.017664613
000280 19 c9 24 bc de 45 94 bb 6d 75 05 3c 61 c7 4c 3c
       -0.010057711 -0.0045249304 0.008145672 0.0124987075
000290 1d 5f 1b bc 73 21 74 bc b1 1a ae bb 3b d4 57 bb
       -0.009483126 -0.014900553 -0.0053132405 -0.0032932896
0002a0 4e 1b bf bb d8 4b 48 3c e8 75 19 bc 70 ec 8e 3b
       -0.0058321124 0.012225114 -0.00936649 0.0043616816
0002b0 61 e0 c4 3b 82 f0 04 bc ea 0e 2e bc db ee c7 bb
       0.0060081934 -0.008113982 -0.010623673 -0.006101472
0002c0 3a b0 90 bc 4f ce 37 bc c2 c2 b5 3c fa c4 a4 3c
       -0.017662156 -0.011218621 0.022187594 0.020113457
0002d0 8a f9 c4 bc 56 12 0e bd 6f f7 8c bc 80 b7 06 bc
       -0.02404477 -0.034685455 -0.01720783 -0.008222461
0002e0 76 2f 56 bc b2 e7 d6 3c f0 f6 c4 bc 25 4d b4 3c
       -0.013072839 0.026233528 -0.02404353 0.022009442
0002f0 ed 90 8d 3c ef f1 86 bc 57 81 b7 bc 82 21 18 bc
       0.01728102 -0.016472785 -0.022400541 -0.009285333
000300 49 e5 aa bc 3d be 6a bc 3e 75 d0 3c 22 47 e6 3c
       -0.020861285 -0.014327583 0.02544653 0.02811009
000310 39 89 bd bc 56 bb 0b bd 8a 20 6f bc 93 a6 03 bc
       -0.023136722 -0.034114204 -0.01459516 -0.00803532
000320 5e f4 90 bc d7 b2 8c 3c 19 2a d9 bc db c7 98 3c
       -0.017694648 0.017175121 -0.026509332 0.018649986
000330 8f 6c 83 3c 2f 59 a6 bc e6 1b 11 bd 5c ed 48 bc
       0.016042976 -0.020306198 -0.035426997 -0.012263622
000340 6f 31 7d bc 71 e2 4f ba cc c0 48 3c fe 5d d7 3c
       -0.01545368 -0.0007930166 0.012252998 0.026289936
000350 e1 8e 2e bc 81 21 45 bc fb d5 23 bb 6c 4b 95 bb
       -0.010654182 -0.012031914 -0.0024999368 -0.00455611
000360 73 29 ee bb e7 49 4a 3c 17 49 41 bc 7d a6 1e 3c
       -0.0072681247 0.012346721 -0.011797211 0.009683249
000370 90 2c 25 3c bb b3 b1 bb f4 0c fd bc 87 4b 98 bb
       0.010081425 -0.005423037 -0.030889966 -0.0046476754
000380 fe 9e 2e bc 1d 84 41 bc 66 c0 4f 3c b5 88 bf 3c
       -0.010658024 -0.011811283 0.012680149 0.023380617
000390 d7 9e 16 bc 70 0c 08 bd 16 d3 0d bc 50 b3 0b bb
       -0.009193144 -0.033214986 -0.008656284 -0.0021316595
0003a0 94 b6 da bb ba 40 a7 3c c3 ed bd bc ae 79 45 3c
       -0.006674597 0.020416606 -0.023184663 0.0120529365
0003b0 52 4c f2 3b e3 e4 66 bc 86 7b 88 bc 14 b2 e2 ba
       0.007394352 -0.014092657 -0.016660463 -0.0017295503
0003c0 d9 ea 13 bd 3a dd d8 bc 05 31 c3 3c ad 7f e2 3d
       -0.03611264 -0.026472677 0.023827085 0.110595085
0003d0 cd 86 1f bc a1 b8 ee bd e5 01 90 3c d9 5b 6d bc
       -0.009736729 -0.11656309 0.017579028 -0.01448723
0003e0 23 76 8e bc 27 68 e9 3d 41 87 16 bd 96 d3 8e 3d
       -0.017390316 0.113968186 -0.036750082 0.069739506
0003f0 08 92 95 3d 9f e8 44 bd 90 70 e6 bb 17 71 3d bd
       0.07303244 -0.048073407 -0.0070324615 -0.04625043

module.bi_lstm2.weight_hh_l0 f4 [128, 32]
000000 4c 89 00 80 e0 8a 00 80 f7 89 00 00 f0 8a 00 00
       -4.9253e-41 -4.9819e-41 4.9492e-41 4.9841e-41
000010 65 8b 00 80 3d 8b 00 80 b0 8e 00 80 98 8a 00 00
       -5.0005e-41 -4.9949e-41 -5.1187e-41 4.9718e-41
000020 0d 89 00 80 c1 89 00 80 64 90 00 00 00 89 00 80
       -4.9165e-41 -4.9417e-41 5.1798e-41 -4.9146e-41
000030 56 ad 00 80 12 8b 00 80 0f 8a 00 00 bc a0 00 80
       -6.2181e-41 -4.9889e-41 4.9526e-41 -5.766e-41
000040 83 9e 00 00 32 a4 00 80 a7 8a 00 80 88 a7 00 00
       5.6863e-41 -5.8902e-41 -4.9739e-41 6.0099e-41
000050 83 8b 00 80 3b 89 00 00 cf 8b 00 80 7d 6d 00 80
       -5.0047e-41 4.9229e-41 -5.0154e-41 -3.9277e-41
000060 7d 8c 00 00 72 89 00 00 6a 99 00 00 51 8b 00 80
       5.0398e-41 4.9306e-41 5.5035e-41 -4.9977e-41
000070 d0 89 00 00 ea 8a 00 00 39 8c 00 00 31 8a 00 80
       4.9438e-41 4.9833e-41 5.0302e-41 -4.9574e-41
000080 12 91 00 00 62 8a 00 00 1d 93 00 00 ec 8a 00 80
       5.2041e-41 4.9642e-41 5.2774e-41 -4.9836e-41
000090 08 8e 00 00 f1 8a 00 00 84 8a 00 00 b8 af 02 80
       5.0951e-41 4.9843e-41 4.969e-41 -2.46707e-40
0000a0 25 95 00 00 14 94 00 00 d3 8c 00 00 56 8e 00 80
       5.3503e-41 5.312e-41 5.0518e-41 -5.106e-41
0000b0 75 a8 00 00 9a 8d 00 80 29 ad 00 00 e8 88 00 80
       6.0431e-41 -5.0797e-41 6.2118e-41 -4.9113e-41
0000c0 59 89 00 80 c1 89 00 00 fd 89 00 00 16 8d 00 00
       -4.9271e-41 4.9417e-41 4.9501e-41 5.0612e-41
0000d0 90 8c 00 00 6f 8a 00 00 c5 8a 00 00 8e 8a 00 80
       5.0424e-41 4.966e-41 4.9781e-41 -4.9704e-41
0000e0 32 8b 00 80 b9 81 02 00 5c a1 00 80 4c 8b 00 00
       -4.9934e-41 2.30207e-40 -5.7885e-41 4.997e-41
0000f0 59 8c 00 80 90 8a 00 00 e0 8d 00 80 ab 89 00 00
       -5.0347e-41 4.9707e-41 -5.0895e-41 4.9386e-41
000100 02 8e 00 80 ad 89 00 00 35 93 00 80 df 8b 00 00
       -5.0943e-41 4.9389e-41 -5.2808e-41 5.0176e-41
000110 89 ab 00 80 f8 93 00 00 1b a5 00 00 f0 63 00 80
       -6.1535e-41 5.3081e-41 5.9229e-41 -3.5851e-41
000120 53 9e 00 00 ab 94 00 00 b8 97 00 00 62 8a 00 00
       5.6796e-41 5.3332e-41 5.4426e-41 4.9642e-41
000130 54 8a 00 80 94 8b 00 00 e9 88 00 80 8e 94 00 00
       -4.9623e-41 5.0071e-41 -4.9114e-41 5.3291e-41
000140 e9 9d 00 00 14 8c 00 00 f2 8a 00 00 bf 9a 00 80
       5.6647e-41 5.025e-41 4.9844e-41 -5.5512e-41
000150 0d 8d 00 80 8e 8b 00 80 9b 8d 00 00 e3 8a 00 80
       -5.06e-41 -5.0063e-41 5.0798e-41 -4.9823e-41
000160 f1 8b 00 00 0d 8b 00 80 c6 6d 00 80 e4 8a 00 00
       5.0202e-41 -4.9882e-41 -3.9379e-41 4.9825e-41
000170 04 8a 00 00 c6 8a 00 00 c2 88 00 80 f3 8b 00 00
       4.951e-41 4.9783e-41 -4.906e-41 5.0204e-41
000180 56 8b 00 80 6f 8a 00 00 3f a8 00 80 64 89 00 00
       -4.9984e-41 4.966e-41 -6.0355e-41 4.9286e-41
000190 de 8d 00 00 be 88 00 80 00 8b 00 00 1d 8b 00 80
       5.0892e-41 -4.9054e-41 4.9864e-41 -4.9904e-41
0001a0 fb 8f 00 80 c8 89 00 80 cb 8c 00 00 a9 8a 00 00
       -5.165e-41 -4.9427e-41 5.0507e-41 4.9742e-41
0001b0 bb 8b 00 80 d2 a0 00 80 6b 89 00 80 12 8a 00 00
       -5.0126e-41 -5.7691e-41 -4.9296e-41 4.953e-41
0001c0 74 8b 00 00 d7 89 00 00 42 8a 00 00 ae 89 00 00
       5.0026e-41 4.9448e-41 4.9598e-41 4.939e-41
0001d0 a1 8a 00 00 44 8d 00 00 59 8a 00 80 07 8c 00 80
       4.973e-41 5.0677e-41 -4.963e-41 -5.0232e-41
0001e0 cd 8c 00 00 4e 89 00 00 73 99 00 80 3a 8b 00 80
       5.051e-41 4.9256e-41 -5.5047e-41 -4.9945e-41
0001f0 3c 89 00 00 2a 9d 00 80 b6 8e 00 00 c6 8a 00 00
       4.923e-41 -5.638e-41 5.1195e-41 4.9783e-41
000200 c7 8a 00 80 34 8a 00 80 1b 89 00 80 23 8b 00 80
       -4.9784e-41 -4.9578e-41 -4.9184e-41 -4.9913e-41
000210 4f 89 00 80 8b 89 00 80 1c 52 00 80 b1 8c 00 80
       -4.9257e-41 -4.9341e-41 -2.9455e-41 -5.047e-41
000220 e1 8a 00 80 eb 89 00 80 ce 90 00 00 92 89 00 80
       -4.982e-41 -4.9476e-41 5.1946e-41 -4.9351e-41
000230 c3 8d 00 00 d9 95 00 80 15 8c 00 80 a9 8b 00 80
       5.0855e-41 -5.3755e-41 -5.0252e-41 -5.01e-41
000240 8a 89 00 00 95 8c 00 80 0c 8a 00 80 4e 93 00 00
       4.934e-41 -5.0431e-41 -4.9522e-41 5.2843e-41
000250 07 8c 00 00 52 8b 00 80 77 89 00 80 cc 89 00 00
       5.0232e-41 -4.9979e-41 -4.9313e-41 4.9432e-41
000260 ee 88 00 00 4f 89 00 00 60 8d 00 80 27 89 00 00
       4.9121e-41 4.9257e-41 -5.0716e-41 4.9201e-41
000270 a1 8a 00 00 94 89 00 80 5e 8d 00 80 3d 8a 00 80
       4.973e-41 -4.9354e-41 -5.0713e-41 -4.959e-41
000280 a9 8b 00 80 67 8a 00 80 50 8c 00 00 9f 8a 00 80
       -5.01e-41 -4.965e-41 5.0335e-41 -4.9728e-41
000290 09 8c 00 00 21 8a 00 00 5e 89 00 80 57 89 00 00
       5.0235e-41 4.9551e-41 -4.9278e-41 4.9268e-41
0002a0 5a 8b 00 80 5e 02 01 80 14 8a 00 80 6f 8b 00 80
       -4.999e-41 -9.2685e-41 -4.9533e-41 -5.002e-41
0002b0 2e 8b 00 00 61 8e 00 80 ea 88 00 00 c4 a6 00 80
       4.9928e-41 -5.1076e-41 4.9116e-41 -5.9824e-41
0002c0 48 8d 00 00 ad 90 00 80 c7 94 00 80 d4 8b 00 00
       5.0682e-41 -5.19e-41 -5.3371e-41 5.0161e-41
0002d0 bf 89 00 80 32 8c 00 00 19 8e 00 00 db 8d 00 00
       -4.9414e-41 5.0293e-41 5.0975e-41 5.0888e-41
0002e0 f2 88 00 80 ed 91 00 80 12 8e 00 80 c8 89 00 80
       -4.9127e-41 -5.2348e-41 -5.0965e-41 -4.9427e-41
0002f0 a6 8c 00 80 b6 8c 00 80 ae 8a 00 80 4b 8b 00 80
       -5.0455e-41 -5.0478e-41 -4.9749e-41 -4.9969e-41
000300 18 8e 00 00 22 8a 00 00 4b 8b 00 00 ec 55 04 00
       5.0974e-41 4.9553e-41 4.9969e-41 3.98165e-40
000310 22 a8 00 00 42 a5 00 80 32 8b 00 00 84 90 00 80
       6.0315e-41 -5.9283e-41 4.9934e-41 -5.1842e-41
000320 0c 9a 00 00 30 8b 00 00 84 8a 00 80 db ad 01 00
       5.5262e-41 4.9931e-41 -4.969e-41 1.54203e-40
000330 f1 89 00 00 da 94 00 00 c0 89 00 00 22 8b 00 80
       4.9484e-41 5.3398e-41 4.9415e-41 -4.9911e-41
000340 0d 9c 00 80 d4 89 00 00 90 8a 00 00 54 8a 00 80
       -5.598e-41 4.9443e-41 4.9707e-41 -4.9623e-41
000350 43 8f 00 80 cb 8f 00 80 df 94 00 00 4d 8a 00 80
       -5.1393e-41 -5.1583e-41 5.3405e-41 -4.9613e-41
000360 82 89 00 80 8b 8f 00 80 1c 8b 00 80 52 90 00 80
       -4.9329e-41 -5.1494e-41 -4.9903e-41 -5.1772e-41
000370 40 89 00 00 bb 8f 00 80 8c 90 00 00 bc 8b 00 80
       4.9236e-41 -5.1561e-41 5.1854e-41 -5.0127e-41
000380 2e 89 00 00 ea 8a 00 80 e1 89 00 00 2a 8a 00 00
       4.9211e-41 -4.9833e-41 4.9462e-41 4.9564e-41
000390 86 8d 00 80 72 93 00 00 a9 9d 00 00 00 8c 00 80
       -5.0769e-41 5.2893e-41 5.6558e-41 -5.0223e-41
0003a0 d5 8c 00 00 a6 89 00 80 5b 89 00 80 92 a2 00 80
       5.0521e-41 -4.9379e-41 -4.9274e-41 -5.8319e-41
0003b0 03 96 00 00 62 8b 00 00 ee 89 00 00 98 96 00 80
       5.3814e-41 5.0001e-41 4.948e-41 -5.4023e-41
0003c0 c3 89 00 00 3b 93 00 00 b1 8b 00 00 fd 94 00 80
       4.942e-41 5.2816e-41 5.0112e-41 -5.3447e-41
0003d0 50 8a 00 80 9a 8a 00 00 76 a3 00 00 32 9c 00 80
       -4.9617e-41 4.9721e-41 5.8639e-41 -5.6032e-41
0003e0 06 93 00 00 ea 89 00 00 2b 89 00 00 13 8a 00 00
       5.2742e-41 4.9474e-41 4.9207e-41 4.9532e-41
0003f0 7f 8a 00 00 cf 8c 00 00 cc 8e 00 00 74 8a 00 00
       4.9683e-41 5.0513e-41 5.1226e-41 4.9668e-41
