output/clip/FD004/exp_202411021254_bilstm_clip_ep-0003.pth (torch, 288916 bytes, 66 tensors)

module.bi_lstm1.weight_ih_l0 f4 [64, 14]
0.00162024 0.013778315 0.005075453 -0.041604612 -0.025018392 -0.029214894 0.060823537 -0.008187841
-0.014011775 0.018255033 0.028127762 -0.005100517 -0.031055821 -0.0021957143 -0.025558408 -0.046643224
-0.012873863 -0.0070845406 -0.014147426 -0.017797532 -0.027222987 -0.0053425916 -0.021788334 -0.010312716
-0.03674804 -0.035371855 -0.036005963 -0.004877381 0.0009152322 0.0042745243 0.005814217 -0.08477461
0.11125648 0.062468916 0.026179219 0.014062463 -0.02257712 0.016068289 -0.01770176 0.08828551
0.005434628 0.04893625 0.06721616 0.12082251 -0.059745293 0.011748191 0.08521345 0.0040505365
0.054212324 -0.09737619 -0.02551869 -0.0012867156 -0.046301637 0.08351409 0.041538883 0.08800069
-0.011229905 -0.09194181 -0.03793007 -0.019749198 -0.05459212 -0.021802751 -0.055399437 0.05736891
-0.010119409 0.017886685 0.03572666 0.10479591 0.10288466 0.007345429 0.089021005 0.050041296
0.049109917 -0.010844872 -0.02076677 -0.052493878 0.025664732 0.0771922 0.013354251 -0.016907403
-0.07236554 0.09907321 -0.021083951 -0.07473255 0.013986639 -0.00070566975 0.00027380456 -0.02372623
-0.030730356 -0.043716364 0.007937159 -0.010803534 -0.022358466 -0.050584454 0.014561079 -0.0017834876
-0.01198526 0.006048658 -0.07408999 -0.10620246 -0.03969783 -0.05730222 -0.11179028 0.012465157
0.017884417 0.005344488 0.00039482766 -0.04502415 -0.019810058 0.10018678 -0.0066147484 -0.0032579366
0.05476496 0.0031638055 -0.015554643 0.07503951 -0.034348056 -0.08073259 0.060512576 0.0113591505
-0.006039671 -0.02673724 -0.022077365 -0.055237394 -0.018604824 -0.015755288 0.04664177 0.0485329
0.06175615 0.07596393 0.035693455 -0.009017863 0.067206234 0.036754254 -0.020774221 0.09115867
-0.030073516 0.054098796 0.124189794 -0.1159841 -0.029126894 -0.054363947 0.02836245 -0.01855983
-0.011574522 -0.0073270393 -0.050287712 0.013821705 -0.049123976 -0.009078933 0.0030059223 -0.042337395
-0.028618205 0.021941042 0.041875955 0.05318368 0.15737672 0.031524304 -0.0193326 -0.06521481
-0.014525015 0.020101085 0.031346433 -0.11338442 0.07673132 -0.06494629 -0.015798869 -0.0012179108
-0.023058316 -0.045872655 -0.1387537 0.022394946 -0.012509514 0.056914177 -0.06210417 -0.0038205907
-0.015908567 0.020181308 0.021758018 -0.121273205 0.050131906 0.018189667 -0.026297417 0.0050029126
-0.017245954 -0.023900911 -0.034319937 -0.037851535 -0.00043802394 -0.021514013 -0.039096605 -0.03941188
-1.7113012e-05 -0.024981154 -0.020207167 -0.020881338 0.06925004 -0.1391665 -0.16112119 -0.08236849
-0.058827262 -0.040270697 -0.0369458 -0.10590675 -0.03273337 -0.034609288 0.023539081 -0.02351474
-0.117344186 -0.0007188322 0.077540495 0.08181529 -0.019796805 -0.08981938 0.0010030682 -0.13786462
0.018196117 -0.036404856 -0.026936257 -0.13547891 0.018744512 -0.031274583 -0.04086275 -0.09614299
-0.008288415 -0.03579376 -0.06787676 -0.013905059 -0.07934423 -0.053676054 0.010108051 -0.05283049
0.0029412312 -0.042334665 -0.02656502 -0.04946724 -0.047176015 -0.021843692 0.006317735 -0.030922752
-0.00624208 -0.016025702 -0.01616543 -0.017557628 0.011775991 0.0060740304 -0.017338684 -0.013183975
-0.04323209 -0.035829984 -0.0069130994 -0.009892752 0.0029252162 -0.020939989 0.0031131913 0.002561188
00000000: 3c5e d43a 71be 613c fc4f a63b 9969 2abd
00000010: 5ff3 ccbc 1354 efbc 1a22 793d 4b26 06bc
00000020: a591 65bc 948b 953c 316c e63c 3d22 a7bb
00000030: c768 febc f9e5 0fbb de5f d1bc f70c 3fbd
00000040: e5ec 52bc 6f25 e8bb 9bca 67bc 21cc 91bc
00000050: be02 dfbc e810 afbb 737d b2bc aaf6 28bc
00000060: 1d85 16bd 14e2 10bd fd7a 13bd 70d2 9fbb
00000070: 31ec 6f3a 4f11 8c3b 3085 be3b 509e adbd
00000080: 70da e33d 68df 7f3d cd75 d63c 3f66 663c
00000090: a7f3 b8bc a5a1 833c 4803 91bc 09cf b43d
000000a0: f714 b23b 6171 483d a0a8 893d cb71 f73d
000000b0: 7bb7 74bd 7c7b 403c 6484 ae3d 5dba 843b
000000c0: be0d 5e3d 2b6d c7bd 920c d1bc 03a7 a8ba
000000d0: c9a6 3dbd 6f09 ab3d ad24 2a3d b539 b43d
000000e0: a3fd 37bc fd4b bcbd 905c 1bbd 12c9 a1bc
000000f0: fd9b 5fbd af9b b2bc 85ea 62bd aafb 6a3d
00000100: e1cb 25bc 1987 923c 1e56 123d 3d9f d63d
00000110: 31b5 d23d edb1 f03b a550 b63d 1af8 4c3d
00000120: 7b27 493d b1ae 31bc 131f aabc d203 57bd
00000130: d83e d23c f216 9e3d cacb 5a3c 6581 8abc
00000140: 6234 94bd e5e6 ca3d 40b8 acbc 610d 99bd
00000150: 3728 653c b2fc 38ba 6d8d 8f39 835d c2bc
00000160: 3abe fbbc ee0f 33bd dc0a 023c 4e01 31bc
00000170: 1a29 b7bc a531 4fbd 9891 6e3c eac3 e9ba
00000180: d35d 44bc d233 c63b 7ebc 97bd ad80 d9bd
00000190: 319a 22bd bcb5 6abd 4df2 e4bd a83a 4c3c
000001a0: 5782 923c d120 af3b df00 cf39 3e6b 38bd
000001b0: b448 a2bc ba2e cd3d 88c0 d8bb 1b83 55bb
000001c0: 3951 603d d957 4f3b e7d8 7ebc 51ae 993d
000001d0: 8cb0 0cbd 2157 a5bd 09dc 773d bb1b 3a3c
000001e0: 6fe8 c5bb 0e08 dbbc 97db b4bc 9b40 62bd
000001f0: 2569 98bc 3c11 81bc 710b 3f3d 6fca 463d
00000200: 04f4 7c3d fa92 9b3d 4d33 123d a9bf 13bc
00000210: 6ca3 893d a18b 163d b32e aabc 66b1 ba3d
00000220: bc5c f6bc b396 5d3d 3857 fe3d 1289 edbd
00000230: 869b eebc bbac 5ebd 5e58 e83c c90a 98bc
00000240: 10a3 3dbc a917 f0bb 7dfa 4dbd 6f74 623c
00000250: 3936 49bd cebf 14bc 02ff 443b fa69 2dbd
00000260: ba70 eabc b3bd b33c 1f86 2b3d 21d7 593d
00000270: 5d27 213e a11f 013d 675f 9ebc 588f 85bd
00000280: 54fa 6dbc 08ab a43c 1e65 003d 1736 e8bd
00000290: 4f25 9d3d 8f02 85bd a16c 81bc 4ea2 9fba
000002a0: cbe4 bcbc f7e4 3bbd 7315 0ebe 9b75 b73c
000002b0: b4f4 4cbc d71e 693d f160 7ebd e062 7abb
000002c0: af52 82bc 4553 a53c df3d b23c 165e f8bd
000002d0: 1d57 4d3d 7f02 953c ae6d d7bc 79ef a33b
000002e0: 6347 8dbc d8cb c3bc 1093 0cbd 360a 1bbd
000002f0: 94a6 e5b9 283e b0bc c323 20bd 5a6e 21bd
00000300: ea8d 8fb7 47a5 ccbc 8089 a5bc 570f abbc
00000310: f7d2 8d3d aa81 0ebe f4fc 24be d0b0 a8bd
00000320: dbf4 70bd e3f2 24bd 7b54 17bd a3e5 d8bd
00000330: 6d13 06bd 78c2 0dbd 08d5 c03c fca1 c0bc
00000340: 2652 f0bd 0370 3cba 8dcd 9e3d c68e a73d
00000350: e92c a2bc 39f3 b7bd 6279 833a 622c 0dbe
00000360: 0610 953c 421d 15bd 6da9 dcbc fcba 0abe
00000370: 178e 993c c719 00bd b35f 27bd 9ee6 c4bd
00000380: 22cc 07bc 7a9c 12bd f902 8bbd 0bd2 63bc
00000390: 3a7f a2bd 6cdb 5bbd 3d9c 253c c964 58bd
000003a0: acc1 403b 1d67 2dbd e39e d9bc 299e 4abd
000003b0: a33b 41bd 8bf1 b2bc 0105 cf3b b651 fdbc
000003c0: 5d8a ccbb 5548 83bc 5d6d 84bc 04d5 8fbc
000003d0: 16f0 403c a908 c73b db09 8ebc 9901 58bc
000003e0: 2214 31bd 76c2 12bd 4887 e2bb 3615 22bc
000003f0: fcb4 3f3b 578a abbc af06 4c3b 9bd9 273b

module.bi_lstm1.weight_hh_l0 f4 [64, 16]
-0.011714383 0.00358655 0.0315939 0.012725578 -0.010473637 -0.017548298 -0.00017601669 -0.011180678
-0.012710395 0.024473298 0.0011980956 -0.0044130934 0.006718764 0.011936264 0.0032307024 -0.013525519
-0.0032098035 -0.0045408043 -0.003575084 -0.00050065125 0.0046761516 -0.0008938846 -0.0032952065 -0.0031005174
-0.0071625747 0.009076653 -0.0056524384 0.003067441 -0.002070849 0.0003866255 0.0028844308 -0.0008957012
-0.049291544 -0.007783381 0.10828899 0.022196207 0.008336984 -0.059385806 -0.0475558 -0.013211684
-0.10460162 -0.04382294 -0.029903043 -0.0042156163 0.010585767 0.007932436 -0.038353622 -0.03573765
-0.015337897 0.012983864 0.024481261 0.007959254 0.014278329 -0.009729942 0.005360806 -0.024087708
0.05252543 -0.022688225 0.018522136 0.0065990756 0.0007921828 -0.003804638 0.012610919 0.00033215256
-0.0002921914 0.020991592 -0.00763054 -0.012317314 0.0109269535 0.0045016245 0.00846972 0.019593883
-0.049324896 0.067084074 -0.0001733059 0.08226934 -0.014002549 0.043384902 0.05809294 0.0071583632
0.015981298 0.0161109 -0.02054156 -0.013159063 -0.021613082 0.02860189 0.013901684 0.009606519
0.019681402 -0.0139366975 0.014628804 -0.0039302763 0.011525931 0.011287485 -0.026872614 0.00052841124
0.0044379504 0.0045106183 0.0015324996 -0.005035106 -0.00084532844 0.010443574 0.0072704726 0.0026082247
0.0036663734 0.0031732027 0.00625132 0.00033046535 0.0001508299 -0.0038730134 -0.00072146085 0.005466127
-0.008917921 0.0043757986 0.04624007 0.009581034 -0.008696756 -0.011026758 0.0034660262 0.014334048
-0.0064736004 0.015828507 0.002884692 0.010938474 0.009192652 0.0054299426 -0.02418741 -0.011691789
-0.020070314 0.0042432672 0.02246003 0.009460437 -0.01896238 -0.011820328 0.0038734053 -0.015961202
-0.025036264 -0.015682375 0.0031175623 0.053721964 0.009800688 -0.007727412 -0.022920879 -0.011275584
0.00039531317 0.005799596 0.01750682 -0.024625206 -0.05907219 -0.007349856 0.007343805 -0.0037740306
-0.002822677 -0.0021495481 0.010265592 -0.0021063746 -0.0018946792 0.032000136 -0.013343534 -0.01193665
-5.5742344e-06 -0.0037058878 0.0010767087 0.0003792921 0.0030571704 -0.004034171 -0.0030615611 -0.000780149
-0.010250711 0.0062403837 -0.0033824272 -0.004349674 -0.00072388543 -0.00036239196 0.0040032384 0.00058009726
-0.08097394 0.077206016 0.13457777 -0.015396702 0.00896001 -0.014262596 0.014559643 -0.0035012008
-0.03595218 0.060209483 -0.009393673 -0.06713664 0.058980875 0.0038959354 0.0911143 -0.0154633485
-0.004382031 -0.0016041208 0.0068893638 0.0065951957 0.012485337 -0.016294202 0.023838833 -0.004561369
0.012828591 -0.08328257 0.012990784 0.03432748 -0.0085434755 -0.0010482479 0.040481634 0.0072614755
-0.0068255933 -0.0010498974 0.009905735 0.003397717 0.004066345 -0.0057500917 0.0018321626 -0.0069271065
-0.008995255 0.01568418 0.00060849596 0.008831943 -0.0017094684 0.002496834 0.0037201613 -0.0017118555
-0.037032448 -0.013614036 0.0004621883 0.017196378 0.016042262 0.0034673484 0.0032638153 -0.059949342
-0.10716796 0.009625865 -0.012982524 0.011023807 -0.021697495 0.06997469 0.010490621 0.032844204
-0.011808013 0.004526353 0.005376739 0.0012922186 0.008783487 -0.00040581555 0.011802694 -0.021119526
0.00066131 0.024811793 0.008728567 0.030830065 -0.0031302208 0.0037403144 0.012405077 0.0026686434
00000000: afed 3fbc 530c 6b3b 9b68 013d f17e 503c
00000010: 9e99 2bbc 73c1 8fbc 1f91 38b9 2a2f 37bc
00000020: 433f 50bc 3a7c c83c 6b09 9d3a b69b 90bb
00000030: 1429 dc3b 5290 433c 31ba 533b 239a 5dbc
00000040: 915b 52bb 07cb 94bb f54b 6abb 233e 03ba
00000050: 673a 993b 9453 6aba 64f4 57bb 0d32 4bbb
00000060: 08b4 eabb 3eb6 143c 1738 b9bb 1f07 493b
00000070: 15b7 07bb ffb3 ca39 b808 3d3b 7dcd 6aba
00000080: eee5 49bd bb0b ffbb 9ec6 dd3d d2d4 b53c
00000090: d897 083c 883e 73bd dfc9 42bd d275 58bc
000000a0: 6039 d6bd af7f 33bd 3af7 f4bc 2723 8abb
000000b0: ed6f 2d3c 0cf7 013c b018 1dbd a461 12bd
000000c0: ce4b 7bbc 46ba 543c ed8c c83c 8867 023c
000000d0: a7ef 693c 566a 1fbc b3a9 af3b 9653 c5bc
000000e0: e824 573d a8dc b9bc bcbb 973c 0f3d d83b
000000f0: 7daa 4f3a 3c57 79bb 079e 4e3c c324 ae39
00000100: 4431 99b9 8ff6 ab3c 9c09 fabb 8fce 49bc
00000110: f706 333c 5d82 933b 95c4 0a3c 5a83 a03c
00000120: e708 4abd 6063 893d 73b9 35b9 d47c a83d
00000130: f36a 65bc 5eb4 313d ddf2 6d3d b490 ea3b
00000140: 36eb 823c 02fb 833c c646 a8bc 1c99 57bc
00000150: eb0d b1bc 834e ea3c e4c3 633c a964 1d3c
00000160: e43a a13c bf56 64bc a7ad 6f3c 8cc9 80bb
00000170: 42d7 3c3c 25ef 383c f523 dcbc 1485 0a3a
00000180: 3a6c 913b cfcd 933b 27de c83a 88fd a4bb
00000190: 0899 5dba 861b 2b3c 253d ee3b c0ee 2a3b
000001a0: 8a47 703b 82f5 4f3b dfd7 cc3b 4f42 ad39
000001b0: 1828 1e39 62d2 7dbb 6b20 3dba 321d b33b
000001c0: 791c 12bc dc62 8f3b 3a66 3d3d c5f9 1c3c
000001d0: d77c 0ebc 93a9 34bc 4526 633b 5bd9 6a3c
000001e0: 7f20 d4bb c9aa 813c 1a0d 3d3b 4937 333c
000001f0: c79c 163c a9ed b13b ad24 c6bc eb8e 3fbc
00000200: 806a a4bc 1b0b 8b3b 19fe b73c f3ff 1a3c
00000210: fe56 9bbc 0daa 41bc f5d8 7d3b 11c1 82bc
00000220: da18 cdbc 5378 80bc 0450 4c3b 900b 5c3d
00000230: 1193 203c 3b36 fdbb 91c4 bbbc 3abd 38bc
00000240: 0942 cf39 8a0a be3b 766a 8f3c cdba c9bc
00000250: aef5 71bd 10d7 f0bb 4da4 f03b ba55 77bb
00000260: a9fc 38bb 6fdf 0cbb 0331 283c 1a0b 0abb
00000270: e256 f8ba 9312 033d d79e 5abc f091 43bc
00000280: 4f0a bbb6 7bde 72bb 5920 8d3a b9db c639
00000290: cf5a 483b 1431 84bb 79a4 48bb ea82 4cba
000002a0: 99f2 27bc 227c cc3b b6ab 5dbb b687 8ebb
000002b0: 21c3 3dba 6dff bdb9 992d 833b ab11 183a
000002c0: aad5 a5bd 301e 9e3d c1ce 093e 7342 7cbc
000002d0: 01cd 123c aaad 69bc 928b 6e3c 6774 65bb
000002e0: 9842 13bd 389e 763d ece7 19bc ef7e 89bd
000002f0: ee95 713d f352 7f3b 229a ba3d fc59 7dbc
00000300: 2497 8fbb 5d41 d2ba 2cc0 e13b 831c d83b
00000310: 4d8f 4c3c 6b7b 85bc a849 c33c 8977 95bb
00000320: 032f 523c 0d90 aabd 4cd7 543c f99a 0c3d
00000330: eff9 0bbc 5d65 89ba 12d0 253d acf1 ed3b
00000340: 3aa9 dfbb b69c 89ba aa4b 223c 3bac 5e3b
00000350: f93e 853b 446b bcbb 2d25 f03a c8fc e2bb
00000360: d660 13bc 1c7c 803c 7983 1f3a dbb3 103c
00000370: 3e10 e0ba eca1 233b f3cd 733b 5760 e0ba
00000380: 56af 17bd 680d 5fbc dd51 f239 6bdf 8c3c
00000390: 106b 833c 743c 633b bce5 553b 718d 75bd
000003a0: e07a dbbd ceb5 1d3c a7b4 54bc 339d 343c
000003b0: f2be b1bc e44e 8f3d dbe0 2b3c a587 063d
000003c0: 6576 41bc cd51 943b 5b2f b03b a95f a93a
000003d0: 9de8 0f3c a4c3 d4b9 1660 413c db02 adbc
000003e0: c35b 2d3a 1a42 cb3c 4302 0f3c 558f fc3c
000003f0: 6424 4dbb 1020 753b aa3e 4b3c 68e4 2e3b

module.bi_lstm1.bias_ih_l0 f4 [64]
-0.095672056 -0.0075466707 -0.069273256 -0.0629476 0.10084806 0.027056083 -0.011511934 0.054197244
0.10649153 0.14747864 -0.038676746 -0.026462393 0.005803979 -0.025277326 -0.015014072 -0.010679058
-0.05536635 -0.047985017 -0.060391694 0.098797925 -0.051802363 0.1149966 -0.008013678 0.009119733
-0.043428946 0.12527421 -0.043164164 0.004457554 -0.110743575 0.02046088 -0.12279894 -0.023592781
0.0850163 0.002435693 0.11279711 -0.08405198 -0.15071166 -0.04075941 0.092674725 0.0851021
0.14893577 0.07068826 0.15063417 0.027414925 0.12340015 -0.0837417 0.0017975809 -0.077059336
-0.048863433 0.00074893667 0.019496761 -0.1121198 -0.078210995 0.11909898 0.03783502 -0.099766284
-0.013796278 0.02239142 -0.039930634 0.04278191 -0.013984231 -0.051877566 0.008786767 0.027708674
00000000: b6ef c3bd 104a f7bb 23df 8dbd acea 80bd
00000010: 6d89 ce3d b8a4 dd3c 8d9c 3cbc eefd 5d3d
00000020: 3b18 da3d a404 173e 826b 1ebd a9c7 d8bc
00000030: 4e2f be3b 6512 cfbc 95fd 75bc 37f7 2ebc
00000040: d3c7 62bd f08b 44bd 485d 77bd 9156 ca3d
00000050: b72e 54bd 5683 eb3d cd4b 03bc ef6a 153c
00000060: 8de2 31bd e247 003e e8cc 30bd ac10 923b
00000070: 87cd e2bd 939d a73c 037e fbbd a645 c1bc
00000080: 071d ae3d 26a0 1f3b 2c02 e73d 7223 acbd
00000090: 2854 1abe 57f3 26bd 3fcc bd3d 034a ae3d
000000a0: 9e82 183e 02c5 903d d83f 1a3e 4495 e03c
000000b0: 38b9 fc3d c580 abbd ce9c eb3a 49d1 9dbd
000000c0: 0625 48bd 4a54 443a acb7 9f3c 119f e5bd
000000d0: 162d a0bd 2bea f33d e5f8 1a3d 4452 ccbd
000000e0: c909 62bc 366e b73c 4e8e 23bd 163c 2f3d
000000f0: 1e1e 65bc 927d 54bd 5ff6 0f3c 4dfd e23c

module.bi_lstm1.bias_hh_l0 f4 [64]
-0.020304283 -0.020941777 0.062045664 0.029225681 0.01320761 -0.09935893 0.00446839 -0.05427984
0.09449166 0.12532324 -0.009308876 0.044095427 -0.017064419 -0.030196711 -0.0038459909 0.012086862
-0.016533291 -0.05862704 -0.014039761 0.0012681963 0.00026861308 0.12477178 0.021045439 0.002700806
-0.008589555 0.013431778 0.057643704 0.03114763 -0.011960789 -0.02210894 -0.00419752 -0.08010437
0.08369287 0.13179283 0.08386222 0.06901675 -0.16353397 0.03819588 0.054977033 -0.0134745
-0.012548642 -0.027479336 -0.032767974 -0.044646606 0.13231878 -0.05934332 -0.17747425 -0.044495672
-0.016094785 -0.02976029 0.08392564 0.03761208 -0.15405555 0.036410786 -0.030021142 -0.022755533
-0.13794203 0.027749898 -0.10707964 -0.004537418 0.010244009 -0.013487799 0.062826686 0.0279443
00000000: 2b55 a6bc 178e abbc 9823 7e3d b26a ef3c
00000010: bb64 583c b27c cbbd 926b 923b 8a54 5ebd
00000020: d884 c13d bc54 003e 4184 18bc 689d 343d
00000030: aeca 8bbc 185f f7bc 050d 7cbb f907 463c
00000040: d370 87bc e822 70bd 0707 66bc 9b39 a63a
00000050: a3d4 8c39 5988 ff3d 7c67 ac3c 0100 313b
00000060: 34bb 0cbc f610 5c3c ce1b 6c3d 5129 ff3c
00000070: 2ff7 43bc cf1d b5bc 5a8b 89bb c30d a4bd
00000080: 2b67 ab3d b3f4 063e f5bf ab3d a758 8d3d
00000090: 7375 27be 4873 1c3d 992f 613d 26c4 5cbc
000000a0: d298 4dbc 581c e1bc b637 06bd 5cdf 36bd
000000b0: 937e 073e fb11 73bd cfbb 35be 1841 36bd
000000c0: 36d9 83bc dacb f3bc 35e1 ab3d 200f 1a3d
000000d0: bdc0 1dbe 7a23 153d e6ee f5bc d069 babc
000000e0: ad40 0dbe c153 e33c 924c dbbd 9fae 94bb
000000f0: 7dd6 273c eefb 5cbc 47ab 803d 72eb e43c

module.bi_lstm1.weight_ih_l0_reverse f4 [64, 14]
-0.034195036 -0.06254148 0.02525134 -0.0151363285 0.09131882 -0.06145166 -0.05880027 0.052377194
0.044232145 -0.0046413816 0.03754673 1.4526019e-06 0.06576251 0.12003099 -0.0041203317 -0.004466994
0.049483314 -0.034200743 0.016064005 -0.017423443 -0.03733659 -0.004821267 0.044710856 0.029876107
0.080259494 0.026114663 -0.07092893 -0.063246526 0.054380227 0.057489444 0.09410031 0.043564394
0.07182643 0.020559506 0.0339308 0.05035319 0.047808226 0.003364993 -0.14013101 0.012001216
-0.095699124 -0.0015065195 0.07326748 0.13611434 -0.047128465 0.1485918 0.088699475 0.09679268
0.1194559 -0.017490942 0.083031245 0.097479135 0.004742656 0.15236764 0.11322489 0.0642922
0.06093916 0.0729145 0.11291617 0.062484708 0.06966024 -0.09405075 -0.08601566 -0.04219976
0.08276091 -0.12079533 0.018443542 0.074804746 -0.075630076 0.029768007 0.20801313 0.030213008
-0.018068919 -0.008297686 -0.06623321 -0.14810503 0.13344061 -0.07967858 -0.108820766 -0.18899448
0.2105302 0.0063874577 0.11482156 0.074108355 0.049249765 0.08575303 0.08152245 -0.016669473
0.001825627 -0.13000096 -0.006196406 -0.019784423 -0.031024726 -0.10230753 0.10418661 0.04224541
-0.045292653 0.01298151 -0.03554026 0.08918356 0.063559 0.03543001 -0.09956299 -0.02337129
-0.057825748 0.075677685 0.003295537 -0.03169668 -0.02379196 0.1450245 -0.010911799 0.015857061
-0.043769147 0.052643877 0.10405626 0.065787196 0.032425117 -0.06751351 -0.09238582 0.027422043
0.009673181 -0.03838765 0.040598262 -0.03638553 0.056492817 -0.008895502 0.03752891 0.011574424
0.02360832 0.051899344 -0.02477779 0.14668068 0.025972238 0.1414401 0.09473258 0.17529507
-0.09410403 0.030804684 -0.05333286 -0.08191279 -0.031310275 0.09205429 -0.018292377 -0.019967372
-0.004905323 -0.057218157 -0.14980061 -0.0155312065 0.09728836 -0.0349764 -0.07098575 0.04314569
0.024072828 -0.082048245 0.0773445 0.07835986 0.11241199 0.07515016 0.05066294 -0.13848001
0.1392138 0.036831804 0.04910426 -0.02815501 0.050046887 0.11625774 -0.09165968 -0.040155094
0.06705206 0.09393052 0.07600852 0.08799522 0.0022199056 0.081055045 0.13911198 0.047286004
0.047981143 -0.06034213 0.07403372 0.05194019 0.12576851 0.04265299 0.038340934 0.04270558
0.043750443 0.052127294 0.002519059 -0.013813283 0.0487947 0.052888766 0.0024707902 -0.009206972
0.037982363 0.041839316 0.055814166 0.06212889 0.06560819 0.072953485 0.050279487 0.05909545
0.058636706 -0.0916141 0.081045896 0.05385169 0.03303311 -0.02625372 0.026011162 0.05690824
0.15252492 0.049145937 -0.042811334 -0.024049012 0.14177461 0.11316975 0.047464795 0.061288163
-0.06793237 0.13624464 0.035045225 0.053807404 -0.014237365 0.06231995 0.060622253 -0.10360954
0.06676054 0.018547606 0.0778799 0.06165551 0.038110346 0.020271227 0.08157406 0.10678344
-0.068074755 -0.037891854 -0.06809644 0.117376216 0.14235869 0.009954834 0.04831451 0.08545373
0.00808546 0.0037225229 0.10490403 0.03962117 0.008802027 -0.037513595 0.043756716 0.040518314
0.0642418 0.06507478 -0.040679544 0.044031538 -0.00010446197 0.061082482 0.08359678 0.06743009
00000000: 1810 0cbd bf15 80bd e6db ce3c 5dfe 77bc
00000010: 5d05 bb3d bcb4 7bbd 8dd8 70bd 7889 563d
00000020: c42c 353d bb16 98bb 9aca 193d 05f7 c235
00000030: 7fae 863d cfd2 f53d d903 87bb dd5f 92bb
00000040: 04af 4a3d 1416 0cbd a998 833c 9cbb 8ebc
00000050: 41ee 18bd b8fb 9dbb bb22 373d bdbe f43c
00000060: 175f a43d 6bee d53c 3043 91bd 6587 81bd
00000070: cdbd 5e3d 0d7a 6b3d aab7 c03d 9470 323d
00000080: bc19 933d 696c a83c 06fb 0a3d 263f 4e3d
00000090: 8fd2 433d 3787 5c3b 817e 0fbe c0a0 443c
000000a0: e7fd c3bd 6876 c5ba 430d 963d 8f61 0b3e
000000b0: c709 41bd 7328 183e 12a8 b53d 3e3b c63d
000000c0: 4ba5 f43d 2a49 8fbc 490c aa3d 24a3 c73d
000000d0: 4868 9b3b 4306 1c3e 73e2 e73d a1ab 833d
000000e0: 579b 793d 3354 953d 9840 e73d f7ef 7f3d
000000f0: 07aa 8e3d ae9d c0bd fa28 b0bd a8d9 2cbd
00000100: 8d7e a93d 8b63 f7bd e916 973c 3b33 993d
00000110: f1e3 9abd 09dc f33c 6501 553e 4581 f73c
00000120: 4505 94bc 05f3 07bc 47a5 87bd d8a8 17be
00000130: a8a4 083e 862e a3bd 6cdd debd c587 41be
00000140: 3b95 573e e14d d13b 9127 eb3d 1fc6 973d
00000150: 1fba 493d 499f af3d 3ef5 a63d 6b8e 88bc
00000160: e149 ef3a f91e 05be 390b cbbb f112 a2bc
00000170: 9127 febc 9c86 d1bd ca5f d53d 8609 2d3d
00000180: ca84 39bd 66b0 543c aa92 11bd dfa5 b63d
00000190: 392b 823d 0f1f 113d aee7 cbbd 2675 bfbc
000001a0: b1da 6cbd e7fc 9a3d f0f9 573b 61d4 01bd
000001b0: 5be7 c2bc 4d81 143e 67c7 32bc abe6 813c
000001c0: 4747 33bd 1ba1 573d 731b d53d 70bb 863d
000001d0: 33d0 043d 8644 8abd c734 bdbd 31a4 e03c
000001e0: 437c 1e3c 5e3c 1dbd 5d4a 263d fe08 15bd
000001f0: 0365 673d 71be 11bc eab7 193d a7a2 3d3c
00000200: 3c66 c13c 6894 543d cbfa cabc 7633 163e
00000210: bbc3 d43c acd5 103e 2803 c23d 8d80 333e
00000220: 9db9 c0bd 1b5a fc3c 8f73 5abd e5c1 a7bd
00000230: 343f 00bd f686 bc3d e5d9 95bc 9d92 a3bc
00000240: d5bc a0bb 965d 6abd 5565 19be 9a76 7ebc
00000250: 1f3f c73d 6a43 0fbd fa60 91bd 89b9 303d
00000260: 6134 c53c e908 a8bd cb66 9e3d 227b a03d
00000270: 4238 e63d 54e8 993d f183 4f3d b4cd 0dbe
00000280: 108e 0e3e f2dc 163d 8c21 493d 56a5 e6bc
00000290: f7fd 4c3d 8a18 ee3d 12b8 bbbd ab79 24bd
000002a0: 9752 893d a55e c03d 5baa 9b3d d736 b43d
000002b0: d67b 113b 3000 a63d 5f73 0e3e f8ae 413d
000002c0: e087 443d 4f29 77bd fe9e 973d 3dbf 543d
000002d0: 76c9 003e e7b4 2e3d 620b 1d3d 0cec 2e3d
000002e0: aa33 333d 6e83 553d cc16 253b 1c51 62bc
000002f0: f4dc 473d e4a1 583d fbec 213b d7d8 16bc
00000300: 6593 1b3d b45f 2b3d 659d 643d dd7a 7e3d
00000310: 965d 863d a368 953d ddf1 4d3d 120e 723d
00000320: 0b2d 703d 2ca0 bbbd 64fb a53d 9793 5c3d
00000330: ba4d 073d 0b12 d7bc 5c15 d53c 9d18 693d
00000340: 7e2f 1c3e 404d 493d f05a 2fbd 6f02 c5bc
00000350: 5d2d 113e 8bc5 e73d 726a 423d 4c09 7b3d
00000360: 2020 8bbd b783 0b3e 958b 0f3d 2765 5c3d
00000370: d643 69bc 3443 7f3d 0a4f 783d 3d31 d4bd
00000380: c0b9 883d 26f1 973c 7f7f 9f3d 7d8a 7c3d
00000390: 9819 1c3d d80f a63c 4d10 a73d 47b1 da3d
000003a0: c76a 8bbd 7d34 1bbd 2576 8bbd f162 f03d
000003b0: 7ac6 113e 9a19 233c 70e5 453d 5d02 af3d
000003c0: e178 043c 92f5 733b edd7 d63d cf49 223d
000003d0: 6136 103c dba7 19bd 3e3a 333d 88f6 253d
000003e0: 3491 833d ed45 853d 989f 26bd 6a5a 343d
000003f0: 9812 dbb8 a031 7a3d ca34 ab3d c918 8a3d

module.bi_lstm1.weight_hh_l0_reverse f4 [64, 16]
0.026254706 0.012980433 -0.047019422 -0.060101014 0.027489841 0.066990055 -0.0007665617 0.020039381
0.04200022 -0.04246192 0.06132309 -0.07436558 -0.069543846 0.04669519 -0.018708024 -0.017326476
-0.0070157526 -0.008604051 -0.0006176689 0.019077305 0.0012756941 -0.010625045 -0.006942123 0.006631423
-0.023517204 0.016775722 -0.057735514 0.050248604 0.030370032 0.001710437 -0.007116806 -0.020284563
0.031681575 -0.044948097 0.052745756 -0.12622885 0.08089068 0.028628482 -0.07724831 0.024374675
0.0138789145 -0.08189923 -0.059096232 -0.06742936 0.06494454 0.045678865 0.1055302 0.13432184
-0.079663984 0.0042244513 0.04702283 -0.0715339 0.09251328 -0.017881734 -0.11059726 0.044551983
-0.028710008 -0.10543678 -0.022231875 0.049644344 0.0048863883 0.0045736856 0.107059956 0.13113303
0.038980193 0.005862762 0.06701879 0.04998173 -0.09297021 0.028992422 0.06876634 0.13795166
0.0018292632 -0.07171818 -0.0071981307 -0.07054141 -0.10729925 0.02903061 0.009922412 0.02350301
0.099606805 0.019996079 -0.078733005 0.094529256 0.042012908 0.22380613 0.12921703 0.080958515
0.09841208 0.017731065 -0.08749484 -0.12163178 -0.10588556 0.13378234 0.07024836 0.039836973
0.01432673 0.010537131 -0.0059941416 0.039302107 0.0152836675 0.07733642 0.052318342 0.01606111
0.0075036874 0.011672111 -0.006471845 -0.071073644 -0.03697235 0.033191055 0.0038640236 0.023871794
0.06058827 0.01862404 -0.11505611 -0.047015693 -0.09386335 0.09141914 -0.0029382128 -0.008133528
-0.024039228 -0.057014603 -0.040787537 -0.018596366 -0.11539234 0.0509861 -0.05971646 0.04480641
-0.016515428 0.01668417 0.011330802 -0.011999477 0.047686197 0.055963688 0.01125706 0.003940001
0.033466212 -0.046993803 0.010425381 -0.11716022 -0.03201595 0.025361141 0.013835522 0.0219562
0.012377406 0.011762099 -0.13072273 -0.14444968 0.042592745 -0.035118524 -0.1300755 0.07148945
0.06125794 -0.11581786 -0.0066860467 -0.07085668 -0.06753896 -0.038776267 0.061107498 0.011145423
-0.087084115 -0.008483957 0.015967108 0.06001555 0.09836345 -0.03179518 -0.026134148 0.002178763
0.0069555417 0.022764297 -0.079174764 0.068844244 0.07062215 -0.032516655 0.03849992 -0.035824843
0.05666813 -0.015958874 -0.13744448 -0.08568076 0.13970824 0.19596075 0.15389678 0.1562444
0.053066593 0.0009850027 -0.020151163 -0.0036068212 -0.101722695 0.041552395 0.07101264 0.053423293
0.050877415 0.05179498 0.0781033 -0.09511697 0.0052295555 0.07273577 0.1108165 0.13074544
0.030256798 -0.09084256 -0.016559033 -0.081358224 -0.076194264 0.08972377 0.1339508 0.054368388
0.018951163 0.008579314 -0.026756553 -0.036142737 0.0318386 0.04470591 0.015918087 0.028192438
0.01278756 -0.022697398 -0.026567023 -0.054171745 -0.04672199 0.037928864 0.02953057 0.03955121
0.028586613 -0.0020007812 0.0033285324 -0.050087523 -0.048111428 0.021655101 0.04776059 0.07772201
-0.010064782 0.007838808 0.0058764643 0.07824999 -0.054518342 0.020380752 0.03751845 -0.041634273
0.019135144 0.0065647443 -0.044541366 -0.071773775 0.085977286 0.038870227 -0.020215074 -0.08240107
0.051158074 -0.0993991 -0.041359123 0.014598969 -0.14414331 0.062854774 0.04687376 0.15658732
00000000: 1c14 d73c e2ab 543c 7097 40bd 7b2c 76bd
00000010: 6032 e13c 1532 893d 16f3 48ba a129 a43c
00000020: 6c08 2c3d 8dec 2dbd ec2d 7b3d fb4c 98bd
00000030: 016d 8ebd 7543 3f3d 9241 99bc 41f0 8dbc
00000040: 66e4 e5bb 01f8 0cbc 0feb 21ba 0248 9c3c
00000050: 3135 a73a ab14 2ebc c07a e3bb 684c d93b
00000060: 27a7 c0bc 3d6d 893c 137c 6cbd 7bd1 4d3d
00000070: 93ca f83c be30 e03a 1934 e9bb d02b a6bc
00000080: 8ac4 013d 7f1b 38bd ef0b 583d 2342 01be
00000090: 03aa a53d 4786 ea3c 5d34 9ebd 66ad c73c
000000a0: 6364 633c c9ba a7bd e40e 72bd 6718 8abd
000000b0: a501 853d c319 3b3d 3820 d83d aa8b 093e
000000c0: df26 a3bd 446d 8a3b 039b 403d 5e80 92bd
000000d0: 9a77 bd3d b77c 92bc d180 e2bd 247c 363d
000000e0: 4031 ebbc 3def d7bd 9f1f b6bc de57 4b3d
000000f0: ff1d a03b dbde 953b 4042 db3d bd47 063e
00000100: b2a9 1f3d 6a1c c03b 2641 893d a4b9 4c3d
00000110: 2a67 bebd 8481 ed3c 5ed5 8c3d 3343 0d3e
00000120: e3c3 ef3a fbe0 92bd 4cde ebbb 0478 90bd
00000130: b6bf dbbd 9ad1 ed3c 9d91 223c 6289 c03c
00000140: a7fe cb3d d1ce a33c c53e a1bd 8e98 c13d
00000150: ba15 2c3d 6f2d 653e 7851 043e 94cd a53d
00000160: 468c c93d bd40 913c 7f30 b3bd 151a f9bd
00000170: 87da d8bd 3dfe 083e 5fde 8f3d 182c 233d
00000180: a9ba 6a3c eea3 2c3c 816a c4bb 3ffb 203d
00000190: 5968 7a3c 8f62 9e3d c24b 563d 9792 833c
000001a0: 7ee1 f53b 623c 3f3c c511 d4bb 0f8f 91bd
000001b0: 5270 17bd 58f3 073d 8f3b 7d3b c88e c33c
000001c0: 682b 783d 7191 983c 8aa2 ebbd 8793 40bd
000001d0: 6e3b c0bd f539 bb3d 088f 40bb 7d42 05bc
000001e0: eaed c4bc 2588 69bd d510 27bd 6857 98bc
000001f0: d252 ecbd cdd6 503d 3f99 74bd ed86 373d
00000200: 5d4b 87bc 3ead 883c d4a4 393c 7499 44bc
00000210: 9a52 433d 2e3a 653d 886f 383c 201b 813b
00000220: de13 093d 937c 40bd 38cf 2a3c b3f1 efbd
00000230: 2823 03bd 2bc2 cf3c 63ae 623c 7ddd b33c
00000240: 9aca 4a3c d2b5 403c 2edc 05be 9eea 13be
00000250: bb75 2e3d 71d8 0fbd 8332 05be 1069 923d
00000260: 9be9 7a3d ea31 edbd a016 dbbb 4f1d 91bd
00000270: de51 8abd ddd3 1ebd db4b 7a3d 4b9b 363c
00000280: 2859 b2bd 4b00 0bbc 74cd 823c ded2 753d
00000290: c772 c93d aa3b 02bd 4817 d6bc 94c9 0e3b
000002a0: 50eb e33b 317c ba3c 6126 a2bd 36fe 8c3d
000002b0: 59a2 903d 2f30 05bd 18b2 1d3d 12bd 12bd
000002c0: d71c 683d 2fbc 82bc 3fbe 0cbe 6579 afbd
000002d0: ad0f 0f3e efa9 483e 1e97 1d3e 88fe 1f3e
000002e0: 5b5c 593d 351b 813a 0d14 a5bc 6b60 6cbb
000002f0: fd53 d0bd d832 2a3d 136f 913d 62d2 5a3d
00000300: d664 503d f926 543d 9ff4 9f3d b0cc c2bd
00000310: b15c ab3b 7ef6 943d c3f3 e23d 22e2 053e
00000320: 1bdd f73c aa0b babd cfa6 87bc 249f a6bd
00000330: bd0b 9cbd 19c1 b73d 662a 093e 63b1 5e3d
00000340: 783f 9b3c 4090 0c3c 8f30 dbbc 680a 14bd
00000350: 3169 023d 8b1d 373d a666 823c d4f3 e63c
00000360: ea82 513c e5ef b9bc 16a3 d9bc 31e3 5dbd
00000370: 8f5f 3fbd 4c5b 1b3d 18ea f13c 7300 223d
00000380: 792e ea3c 8a1f 03bb 8223 5a3b 9328 4dbd
00000390: 7d10 45bd 0a66 b13c 9ca0 433d b82c 9f3d
000003a0: c1e6 24bc 586e 003c 5b8f c03b 8841 a03d
000003b0: a04e 5fbd 89f5 a63c f2ac 193d b388 2abd
000003c0: 4ec1 9c3c 111d d73b 0271 36bd 21fe 92bd
000003d0: dc14 b03d 6336 1f3d 159a a5bc e4c1 a8bd
000003e0: 218b 513d c191 cbbd 2f68 29bd 8430 6f3c
000003f0: 4e9a 13be 01ba 803d b3fe 3f3d 6d58 203e

module.bi_lstm1.bias_ih_l0_reverse f4 [64]
0.046034332 -0.03974623 0.034035668 -0.02796165 0.041612566 0.08090485 0.06229101 0.019245138
-0.07144924 0.049074296 0.07967572 0.15328768 0.09531035 0.04698223 0.102359354 0.051113643
0.1168991 0.027680613 -0.1021789 0.122813776 0.04638832 0.1439577 0.027160786 -0.13974673
-0.058957852 0.106938824 -0.11182498 -0.09935582 -0.023301298 0.07596396 0.02825455 0.14869638
-0.12716188 0.08762216 0.0562734 0.13017538 0.0063480986 -0.14965677 0.0044810693 0.09463983
-0.20572093 0.08731682 -0.19010133 -0.0055774827 0.17234565 0.053317275 -0.15677175 0.060312383
0.044026796 -0.06697147 0.09737241 0.18849747 0.104723245 0.031238068 0.016387831 -0.1598654
-0.07195857 0.04608596 0.137798 0.110332966 0.046080004 0.07054037 0.13223647 0.019616133
00000000: 7f8e 3c3d f1cc 22bd fc68 0b3d d50f e5bc
00000010: f071 2a3d 71b1 a53d dc24 7f3d fba7 9d3c
00000020: fb53 92bd 2102 493d 062d a33d 72f7 1c3e
00000030: 1332 c33d 7070 403d c8a1 d13d 8a5c 513d
00000040: cc68 ef3d 74c2 e23c 2c43 d1bd ca85 fb3d
00000050: ae01 3e3d a669 133e 4c80 de3c c419 0fbe
00000060: ca7d 71bd be02 db3d 7f04 e5bd 107b cbbd
00000070: 5de2 bebc fe92 9b3d 1676 e73c dd43 183e
00000080: b936 02be 3f73 b33d f07e 663d b24c 053e
00000090: b603 d03b a03f 19be efd5 923b 87d2 c13d
000000a0: 82a8 52be 29d3 b23d eca9 42be 51c3 b6bb
000000b0: 617b 303e 3763 5a3d c688 20be 1e0a 773d
000000c0: 7155 343d 5728 89bd 306b c73d 7b05 413e
000000d0: 2479 d63d fae6 ff3c c63f 863c c1b3 23be
000000e0: 045f 93bd a2c4 3c3d eb1a 0d3e 40f6 e13d
000000f0: 63be 3c3d 7877 903d ff68 073e 03b2 a03c

module.bi_lstm1.bias_hh_l0_reverse f4 [64]
0.06881489 -0.034333643 0.0007863284 -0.0625145 0.012358401 0.07683771 -0.0014272707 0.052530907
0.076487295 0.05938102 0.009132651 0.10948625 0.06917062 0.059736174 0.14395356 -0.104430765
0.14845133 -0.06368751 -0.04907467 0.16991973 -0.026296124 0.10455674 0.027300974 -0.112529315
0.013394285 0.1775008 0.1295842 -0.048769444 -0.02350813 0.07604951 0.15147404 -0.025969483
-0.0678493 -0.13349003 0.0038433017 0.06552962 0.12809995 -0.0731825 0.10184761 0.10800292
0.10523331 0.18302567 -0.15658183 0.04433251 0.11084785 0.009966501 -0.02628846 -0.1929947
0.044117194 -0.04017079 0.03850277 0.03607118 0.04217306 0.18332994 -0.009892293 0.12810138
-0.11974264 -0.046650603 -0.11078789 0.082535066 0.11160776 0.07318514 -0.033847317 -0.017058784
00000000: d2ee 8c3d 6fa1 0cbd 9b21 4e3a 9a07 80bd
00000010: e47a 4a3c 175d 9d3d 4213 bbba a62a 573d
00000020: 5fa5 9c3d 8339 733d 1da1 153c 543a e03d
00000030: 53a9 8d3d ebad 743d 9068 133e ccdf d5bd
00000040: a003 183e 996e 82bd 8502 49bd 70ff 2d3e
00000050: f86a d7bc d821 d63d 4ba6 df3c c575 e6bd
00000060: b473 5b3c c5c2 353e b8b1 043e 78c2 47bd
00000070: 1f94 c0bc d8bf 9b3d 031c 1b3e f4bd d4bc
00000080: 93f4 8abd 9cb1 08be e7df 7b3b 6534 863d
00000090: a22c 033e b5e0 95bd 7b95 d03d a330 dd3d
000000a0: 9084 d73d 156b 3b3e fd56 20be 0296 353d
000000b0: 3304 e33d 894a 233c e55a d7bc 67a0 45be
000000c0: 3bb4 343d 208a 24bd 15b5 1d3d 60bf 133d
000000d0: a9bd 2c3d d8ba 3b3e 4913 22bc 022d 033e
000000e0: a13b f5bd b414 3fbd c3e4 e2bd 2508 a93d
000000f0: 9c92 e43d 17e2 953d 7ca3 0abd ddbe 8bbc

module.bi_lstm2.weight_ih_l0 f4 [128, 16]
-0.009327872 -0.0031920916 -1.49576435e-05 0.028862612 -0.017955534 -0.030000785 -0.0026820265 0.002098744
0.0024910162 0.033398982 -0.015002119 0.031187216 0.023749007 -0.021324689 -0.011449772 -0.01800503
0.015457404 -0.009921747 -0.02872614 -0.038076945 0.016543387 -0.00012807951 0.0030505944 0.020313848
0.03297129 -0.011131381 -0.004105649 -0.04626274 -0.020386644 -0.013290877 0.038572133 0.027596189
-0.0054325056 -0.0044476553 -0.0032229708 0.011644036 -0.003786158 -0.02777375 -0.0057135443 0.00740149
0.0066491826 0.023363123 -0.010027638 0.016498115 0.012412926 -0.027457952 -0.0011237876 -0.007974201
-0.0052775256 -0.00086304237 -0.0035189744 0.0028001762 -0.0026242025 -0.022858419 0.0026121703 0.004717077
0.003311973 0.016279122 -0.0041818856 0.008682395 -0.00037833676 -0.021327117 0.00013176046 -3.434058e-05
-0.0023709766 -0.0028322202 -0.004285892 0.0124174785 -0.00056337425 0.01683452 -0.0037897292 0.0076035205
0.0026194144 0.0006984213 -0.019193832 0.003910501 0.0046707937 0.010949915 -0.01765534 -0.0016144917
-6.8703426e-05 -7.160313e-05 -0.012230276 -0.01055811 0.0047784094 -0.009923245 -0.00027242786 0.013766131
0.008294004 0.0061391024 -0.01080308 -0.0043745544 -0.0091914525 -0.014989181 0.012118772 0.0029020084
-0.006246315 -0.0010361695 -0.0030497422 0.008968425 -0.0042709056 -0.006861678 0.0005101216 0.005702246
0.006292561 0.016296104 -0.009989985 0.0075191776 0.0028146005 -0.017701833 -0.007615593 -0.0039092298
0.008313153 0.002953626 -0.004210195 -0.007312942 0.012046975 0.012860502 0.003702501 0.009731106
0.008758367 -0.008628667 -0.0046702297 -0.012694983 -0.0110373935 0.009884665 0.0032467595 0.009114749
0.0027588012 -0.005076713 -0.017281542 0.0020688055 0.006314716 -0.021399645 -0.0032291221 0.0178351
0.017614327 0.010631569 -0.020004723 0.0062501538 0.0105492 -0.026373805 0.012528939 0.005827725
-0.012112007 -0.008779813 -0.00075120234 0.036511034 -0.016357522 -0.039090734 -0.0077530523 0.009349487
0.004062864 0.041581824 -0.022250066 0.029129025 0.03061771 -0.03340975 -0.009604907 -0.01953631
-0.007200741 -0.0010459397 0.0014224473 0.012965705 -0.0033844966 -0.0059061293 -0.0026489564 2.6633625e-05
-3.0392031e-05 0.01733113 -0.005172608 0.010582741 0.0054775346 -0.010603489 -0.008958291 -0.006582512
-0.01214908 -0.0020930255 0.010736844 0.024994155 -0.013603917 -0.010765469 -0.0061976095 -0.0024748186
-0.0057463925 0.018545527 -0.009850842 0.021352358 0.017098168 -0.006612311 -0.018616753 -0.013749572
-0.010707663 -0.0025141963 0.006738371 0.02115829 -0.0139559945 -0.018090352 -0.0064046714 -0.0039344323
-0.0048610875 0.020357866 -0.008442096 0.023043199 0.016173016 -0.01369487 -0.012012489 -0.01542985
-0.0063704816 -0.005214621 -0.0055838465 0.001931612 -0.0012363825 -0.021712607 -0.003136696 0.0049903486
0.0051322035 0.018685762 -0.010499273 0.012585157 0.01106923 -0.028643215 0.0007708499 -0.004118819
-0.012461302 -0.0055594216 0.005035486 0.017835606 -0.009747337 -0.018111225 -0.008933999 -0.0013350142
-0.0047726217 0.019288179 -0.010301986 0.020012477 0.014566787 -0.020253347 -0.006336309 -0.012584648
0.009730974 -0.015656289 -0.025258897 0.0032084163 0.010389148 -0.041168608 0.0060654585 0.024139278
0.026898103 0.012352765 -0.025953319 0.0014504705 0.008482548 -0.0491297 0.020119643 0.0045785788
00000000: eed3 18bc 6932 51bb 97f2 7ab7 4971 ec3c
00000010: 7c17 93bc 35c4 f5bc f0c4 2fbb 158b 093b
00000020: 5140 233b 5fcd 083d 73cb 75bc 557c ff3c
00000030: 478d c23c 1db1 aebc d397 3bbc 497f 93bc
00000040: 0d41 7d3c d38e 22bc 1553 ebbc 92f6 1bbd
00000050: ff85 873c 154d 06b9 7bec 473b 3a69 a63c
00000060: e70c 073d 6560 36bc ae88 86bb 007e 3dbd
00000070: e401 a7bc fbc1 59bc d0fd 1d3d 6711 e23c
00000080: 2903 b2bb a3bd 91bb 7a38 53bb a0c6 3e3c
00000090: 3121 78bb c685 e3bc af38 bbbb 3388 f23b
000000a0: 63e1 d93b 0564 bf3c f64a 24bc 0e27 873c
000000b0: 965f 4b3c 80ef e0bc 0e4c 93ba 39a6 02bc
000000c0: 18ef acbb cb3d 62ba 989e 66bb 2983 373b
000000d0: d0fa 2bbb 9441 bbbc f230 2b3b b691 9a3b
000000e0: b00d 593b cb5b 853c 3308 89bb 9b40 0e3c
000000f0: 805b c6b9 35b6 aebc 2e29 0a39 eb08 10b8
00000100: 6362 1bbb c59c 39bb ab70 8cbb ae72 4b3c
00000110: 68af 13ba 8ce8 893c 1b5d 78bb f426 f93b
00000120: 7baa 2b3b 4316 373a 623c 9dbc a923 803b
00000130: 750d 993b 4667 333c eea1 90bc 5a9d d3ba
00000140: df14 90b8 a329 96b8 7f61 48bc ecfb 2cbc
00000150: 3494 9c3b 1b95 22bc a6d4 8eb9 578b 613c
00000160: 93e3 073c 862a c93b 67ff 30bc 6c58 8fbb
00000170: bf97 16bc 2f95 75bc d08d 463c 9f2f 3e3b
00000180: e3ad ccbb 14d0 87ba 2fde 47bb 4df0 123c
00000190: f4f2 8bbb edd7 e0bb aeb9 053a e8d9 ba3b
000001a0: d431 ce3b 687f 853c 09ad 23bc 6f63 f63b
000001b0: 2975 383b 6f03 91bc 398c f9bb ff18 80bb
000001c0: e433 083c 9f91 413b adf5 89bb 67a1 efbb
000001d0: ad60 453c dbb4 523c a9a5 723b 386f 1f3c
000001e0: 417f 0f3c 415f 0dbc ba08 99bb 9efe 4fbc
000001f0: 2fd6 34bc 4af3 213c 96c7 543b 0756 153c
00000200: 01cd 343b 8e5a a6bb 0592 8dbc cc94 073b
00000210: adeb ce3b 4f4e afbc ae9f 53bb ea1a 923c
00000220: ec4b 903c 0830 2e3c f2e0 a3bc 17ce cc3b
00000230: 8dd6 2c3c e10d d8bc 2e46 4d3c 80f6 be3b
00000240: 7071 46bc 34d9 0fbc 56ec 44ba 988c 153d
00000250: 3600 86bc 9b1d 20bd 510d febb 972e 193c
00000260: c621 853b b451 2a3d c545 b6bc fe9f ee3c
00000270: fed1 fa3c a9d8 08bd e65d 1dbc 9d0a a0bc
00000280: 32f4 ebbb ea17 89ba 6971 ba3a 1c6e 543c
00000290: 6ece 5dbb 3488 c1bb 1d9a 2dbb 466b df37
000002a0: 64f2 feb7 04fa 8d3c fb7e a9bb 3c63 2d3c
000002b0: e47c b33b 42ba 2dbc ccc5 12bc 1db2 d7bb
000002c0: ef0c 47bc 242b 09bb 96e9 2f3c 8bc0 cc3c
000002d0: f7e2 5ebc a661 30bc 5115 cbbb 9130 22bb
000002e0: 3c4c bcbb caec 973c 6d65 21bc 24eb ae3c
000002f0: 7511 8c3c 16ac d8bb 2982 98bc e345 61bc
00000300: 326f 2fbc 37c5 24bb 8ecd dc3b 2654 ad3c
00000310: afa7 64bc 3832 94bc 47de d1bb 69ec 80bb
00000320: c249 9fbb 8ac5 a63c b850 0abc 17c5 bc3c
00000330: 467d 843c 7360 60bc 08d0 44bc 7bcd 7cbc
00000340: 79bf d0bb 69df aabb b3f8 b6bb 252e fd3a
00000350: 1d0e a2ba a3de b1bc 0791 4dbb 1486 a33b
00000360: 0b2c a83b e212 993c 2505 2cbc f931 4e3c
00000370: b75b 353c 2da5 eabc dc12 4a3a 28f7 86bb
00000380: 7d2a 4cbc cf2b b6bb b800 a53b fa1b 923c
00000390: 4bb3 1fbc fe5d 94bc e85f 12bc a5fb aeba
000003a0: a763 9cbb 3e02 9e3c a9c9 28bc 35f1 a33c
000003b0: 88a9 6e3c 59ea a5bc d0a0 cfbb d72f 4ebc
000003c0: aa6e 1f3c 9e41 80bc bfeb cebc 4b44 523b
000003d0: 3f37 2a3c 6aa0 28bd c1c0 c63b bcbf c53c
000003e0: 6959 dc3c 4063 4a3c 0e9c d4bc b71d be3a
000003f0: 63fa 0a3c 393c 49bd f3d1 a43c e707 963b

module.bi_lstm2.weight_hh_l0 f4 [128, 32]
-1.7389596e-19 -6.168031e-14 3.391779e-23 3.1025623e-24 1.1564235e-25 -3.6469083e-24 8.207878e-25 8.417022e-14
1.7123427e-24 1.25982675e-14 5.3935375e-24 -4.063201e-20 9.684889e-27 8.578474e-23 -1.6059059e-24 7.1540975e-24
-5.734116e-26 8.8187814e-26 3.669782e-21 4.921294e-25 -4.1565524e-18 1.4749243e-12 -3.187099e-19 -2.2638009e-26
6.373863e-21 -2.9830312e-22 -1.4816104e-25 7.999415e-20 8.63917e-14 -2.5087572e-20 -8.966632e-24 -1.8987483e-22
7.8310335e-25 1.2186715e-15 -2.4738091e-25 -1.3676306e-23 4.823933e-25 1.2579832e-12 4.097156e-12 4.7570423e-27
2.9473813e-25 -6.6543086e-26 -7.8793786e-24 -1.5601791e-24 -4.5730106e-26 -1.6499084e-23 -7.837334e-26 -3.195373e-23
3.0376465e-21 -1.1001038e-17 -2.9939427e-20 1.4789302e-23 -3.0448494e-23 -9.280299e-25 8.617068e-14 2.4350916e-20
-5.5712528e-14 1.8795312e-28 -2.2580367e-22 2.2628321e-14 -2.0453909e-23 1.0445272e-14 1.7521464e-26 8.2410295e-14
-8.851556e-25 5.705787e-23 4.9491417e-26 -3.0042998e-21 -1.0770027e-25 -1.1233714e-27 8.45059e-29 2.6328458e-26
-8.0070097e-26 1.8906102e-25 -2.6514185e-26 2.5187272e-23 6.7172215e-18 -2.1980417e-19 2.446242e-16 2.9985235e-26
-3.527986e-25 9.068817e-25 -7.5925906e-14 2.9253117e-25 -9.4699005e-26 1.048022e-23 3.2646535e-23 -8.2941033e-19
3.2900996e-24 7.78283e-18 -1.9808359e-12 2.0816806e-13 1.9096677e-19 2.6438851e-14 -6.321304e-14 1.2221362e-19
-6.497905e-19 -5.9765864e-12 1.9409262e-25 1.7961855e-20 -8.0315624e-26 8.1541145e-20 -6.0806027e-21 4.390193e-24
-1.3890141e-24 7.3485146e-18 1.7345215e-23 -1.3649616e-20 1.5820978e-18 -4.838877e-27 -1.2146227e-24 -4.0531292e-14
-1.7340773e-16 -9.078087e-17 5.0990862e-21 1.868604e-19 -7.778601e-18 -4.1725354e-24 -1.0938505e-18 -1.111004e-21
-5.555565e-26 3.396453e-18 1.3844774e-25 -1.0982948e-14 -2.7841088e-21 2.6764872e-25 1.2682441e-24 -2.6832301e-21
-6.455893e-19 9.834938e-17 1.31342e-21 1.9516419e-23 -6.430864e-14 3.8117998e-17 -1.5106487e-27 -3.1280787e-23
-3.047671e-23 -4.4155273e-20 3.9246958e-26 -2.272654e-20 2.5413815e-24 3.0995082e-25 -4.9771044e-22 -4.017937e-20
-9.367131e-23 2.2502862e-22 1.3904328e-20 -3.7022357e-25 -1.16817315e-23 -3.4679812e-20 1.5746522e-19 3.2697186e-14
4.191582e-22 3.1992784e-23 -6.0437494e-24 4.7694996e-26 -3.5573993e-25 1.136963e-11 3.9425233e-24 -8.623787e-14
-4.4138994e-20 5.8687713e-24 5.324186e-26 2.4598377e-15 -1.1569612e-22 -2.3379876e-21 1.177996e-20 -5.6154053e-18
-1.7091837e-15 1.8535017e-27 -1.928117e-12 3.4439603e-23 3.3695185e-22 4.4867426e-24 -4.9598187e-26 -1.5641546e-25
1.722996e-24 -1.7026553e-25 -2.0567587e-25 9.917895e-19 -6.8657945e-22 -9.878959e-21 8.048324e-25 -6.2537303e-25
1.561364e-23 -7.796297e-25 -1.02538187e-25 9.671587e-22 8.0639506e-26 1.1562588e-22 4.969371e-18 3.6306552e-21
1.2250335e-24 2.3135713e-22 6.653057e-14 -1.0493594e-27 5.4508705e-26 4.361009e-12 -1.0342027e-25 2.9825273e-25
1.6174887e-25 1.1314756e-20 -1.1613249e-24 7.2696007e-28 -2.0101046e-24 -2.0889577e-25 -7.435256e-14 -4.4192852e-18
8.7365187e-26 -3.5388863e-21 8.608646e-19 7.904032e-17 -5.9503694e-25 3.1813915e-25 2.568917e-24 -2.2906446e-22
-5.3161677e-22 -4.9035212e-26 2.2102817e-15 -8.404648e-25 4.3132814e-25 -6.167525e-26 7.964847e-25 1.097939e-20
-5.1130147e-18 1.5706553e-25 3.4823606e-20 -1.2589857e-15 4.6517224e-25 -9.2391026e-26 1.9545816e-25 8.554342e-25
-5.3882074e-25 -3.0876817e-24 -7.9309145e-14 -1.21408205e-26 -4.7587224e-26 7.2438554e-16 3.8809196e-14 -2.8100327e-25
-4.371098e-15 3.4789806e-25 9.132574e-19 1.2658278e-25 1.0732307e-19 1.7998583e-12 -1.6081309e-25 3.7275662e-26
1.5678138e-25 -2.8031316e-24 6.062175e-26 2.4445671e-12 -1.04908655e-23 9.709558e-26 -3.1277217e-24 -1.2545698e-11
00000000: d44c 4da0 47e4 8aa9 3104 241a 940c 7018
00000010: 8628 0f16 3b15 8d98 8205 7e17 d488 bd29
00000020: 717c 0418 41f3 6228 02a7 d018 16e1 3f9f
00000030: 39d4 3f14 2f6a cf1a 7d80 f897 6061 0a19
00000040: 47f8 8d95 ab57 da15 f4a3 8a1d 824e 1817
00000050: 8759 99a2 c093 cf2b 1422 bca0 2c32 e094
00000060: 38cc f01d 2c50 b49b 1c6a 3796 7fe1 bc1f
00000070: 6d89 c229 07f2 ec9e 9c70 2d99 6a8b 659b
00000080: d75b 7217 0ba1 af26 121f 9996 e544 8499
00000090: 234b 1517 9f0b b12b e727 902c 2472 bc13
000000a0: 1f6f b616 b1c0 a495 cb68 1899 106d f197
000000b0: cc71 6295 c191 9f99 010b c295 cd84 1a9a
000000c0: a184 651d efee 4aa3 8c62 0d9f 8a08 8f19
000000d0: 693d 139a 0d9b 8f97 040a c229 e7fc e51e
000000e0: 2ce8 7aa9 4642 6e11 6d7d 889b 5bd1 cb28
000000f0: 6dd1 c599 512a 3c28 3086 ad14 4d92 b929
00000100: a0f8 8897 1cf5 891a d311 7515 9cff 629d
00000110: 9453 0596 5c01 b292 773f d610 495f 0215
00000120: 743e c695 d40b 6a16 b94a 0395 aa98 f319
00000130: 5dd2 f722 debf 81a0 2904 8d25 cd7a 1415
00000140: 2b5f da96 4955 8c17 4ef8 aaa9 6a11 b516
00000150: a076 ea95 89b7 4a19 74de 1d1a 79cc 74a1
00000160: 238f 7e18 6091 0f23 9163 0bac 5c60 6a2a
00000170: 2a74 6120 d723 ee28 d657 8ea9 cd48 1020
00000180: c8c8 3fa1 4e48 d2ac 6846 7016 1aa5 a91e
00000190: 13da c695 9988 c01f fbb7 e59d 5ed6 a918
000001a0: 84f0 d697 618e 0723 acc0 a719 bfea 809e
000001b0: f779 e921 0bb0 bf93 2af4 bb97 6689 36a9
000001c0: eeec 47a5 9153 d1a4 56a3 c01d 179b 5c20
000001d0: 687d 0fa3 ca6a a198 816c a1a1 e3e3 a79c
000001e0: 948c 8995 2f9d 7a22 d763 2b16 e8d9 45a8
000001f0: 7f5c 529d a2aa a516 5340 c417 38bd 4a9d
00000200: 598b 3ea1 3ac7 e224 7a7a c61c 50c0 bc19
00000210: 68cf 90a9 cac9 2f24 315f ef92 bd43 179a
00000220: 5760 139a 7384 509f 6e57 4215 67a5 d69e
00000230: 3fa1 4418 abd9 bf16 7b6c 169c e1bd 3d9f
00000240: bc7b e29a 7e05 881b 9a52 831e 4428 e596
00000250: 22f5 6199 52c5 239f f1e6 3920 4a41 1329
00000260: 975d fd1b 26b5 1a1a 65ce e998 972c 6c15
00000270: 3e31 dc96 4304 482d dc84 9818 bf30 c2a9
00000280: c570 509f 7f09 e318 0ad2 8315 ff3f 3127
00000290: 37de 0b9b 42a7 309d 6484 5e1e 012c cfa2
000002a0: c051 f6a6 7bd9 1213 dead 07ac 2a8a 261a
000002b0: c6ac cb1b 8c92 ad18 2c99 7595 0aa2 4196
000002c0: 744f 0518 4dc7 5296 499d 7e96 bf5c 9221
000002d0: 8381 4f9c b79b 3a9e 6415 7917 288b 4197
000002e0: 8001 9719 a148 7197 4cdf fd95 2427 921c
000002f0: 5ca7 c715 7ac8 0b1b 6256 b722 8b29 891d
00000300: 9490 bd17 c8d8 8b1b 43d0 9529 1347 a692
00000310: fff4 8615 7a70 992c 3107 0096 089c b816
00000320: 433c 4816 cdba 551e d2b4 b397 0262 6612
00000330: 3986 1b98 db4c 8196 556d a7a9 f80a a3a2
00000340: 444e d815 02b2 859d 1715 7e21 2b41 b624
00000350: af27 3897 29eb c416 a5c2 4618 0276 8a9b
00000360: dbab 209c 84cf 7295 8044 1f27 3e0e 8297
00000370: 567d 0517 55b3 9895 0580 7617 1265 4f1e
00000380: 0fa3 bca2 0e70 4216 2873 241f 6070 b5a6
00000390: bef6 0f17 c5bf e495 2af7 7116 3d5f 8417
000003a0: c7c1 2697 d6e5 6e98 9c96 b2a9 4679 7094
000003b0: f9a3 6b95 38ca 5026 f5c7 2e29 bfee ad96
000003c0: 437c 9da7 a656 d716 e4c5 8621 afb3 1c16
000003d0: d168 fd1f bb4e fd2b b413 4796 8494 3815
000003e0: 0116 4216 bee1 5898 9917 9615 6805 2c2c
000003f0: 40ec 4a99 a365 f015 e9fe 7198 cdb4 5cad

module.bi_lstm2.bias_ih_l0 f4 [128]
0.03425582 0.028207747 0.018282698 0.015235923 0.08249582 0.026159443 0.039939035 0.022855893
0.055536028 0.077490106 0.02085538 0.014064168 0.03147998 0.019688806 0.035885848 0.052750427
0.037441283 0.035129998 0.034570172 0.024568405 0.03675917 0.054875083 0.0076708957 0.022485575
0.024835281 0.014600244 -0.0030820214 0.0002876046 0.037300892 0.011175968 0.0356414 0.1208221
1.3799807e-17 -6.2194466e-21 -4.4150548e-26 1.142274e-21 1.6353713e-20 3.337883e-23 9.432739e-23 -2.7069557e-25
3.5434564e-25 -9.7039e-19 5.813706e-26 -1.4268217e-22 -4.3846146e-14 -8.6433376e-14 2.6777467e-26 1.3890468e-20
-4.5432005e-17 -1.2191214e-24 -1.6334738e-19 6.940808e-13 8.1319315e-18 1.4944637e-12 1.9170747e-21 -1.1180625e-18
2.471557e-25 -1.2279069e-25 -3.3767176e-25 4.9798726e-24 -8.5820396e-14 1.9559775e-25 7.344577e-26 -1.1106457e-17
-0.05838068 -0.15891272 -0.03515596 0.014173152 -0.10956023 -0.008958169 0.065502785 -0.03007199
0.08968449 0.04753913 0.008818152 0.03821054 -0.08732803 0.014904931 0.029006956 -0.009337303
-0.030018117 0.052012905 0.046259534 0.10739592 -0.015054538 -0.10395263 -0.0809669 -0.024006387
-0.10003264 0.046090275 0.08583573 -0.07596575 -0.10872241 -0.09059726 -0.13829759 0.2119101
0.033543505 0.050782997 0.017893273 0.0147253405 0.08375007 0.026190555 0.039879017 0.019880101
0.05513076 0.075230435 0.020269375 0.026108587 0.02455478 0.01921308 0.035324827 0.05215129
0.037812967 0.03433643 0.03361084 0.024531841 0.03151275 0.054637223 0.007895296 0.022221971
0.025420463 0.013950403 -0.0076852664 0.00095071294 0.035127435 0.010989473 0.035235684 0.12252369
00000000: d54f 0c3d ef13 e73c 99c5 953c 18a0 793c
00000010: 92f3 a83d 544c d63c 1d97 233d 483c bb3c
00000020: bf79 633d 22b3 9e3d e7d8 aa3c 656d 663c
00000030: 27f1 003d 6b4a a13c 0afd 123d d510 583d
00000040: 085c 193d 79e4 0f3d 7499 0d3d ae43 c93c
00000050: c990 163d b2c4 603d 235c fb3b ab33 b83c
00000060: 5c73 cb3c dd35 6f3c bdfb 49bb a3c9 9639
00000070: d2c8 183d 681b 373c b7fc 113d 9471 f73d
00000080: bf8f 7e23 ccf6 ea9d 789f 5a95 969d ac1c
00000090: da74 9a1e fd68 211a d411 e41a 6d8d a796
000000a0: 4f54 db16 4c34 8fa1 bdf0 8f15 fe7d 2c9b
000000b0: 2a77 45a9 73a1 c2a9 7998 0415 1731 831e
000000c0: a584 51a4 60a6 bc97 b7d8 40a0 cb5d 432b
000000d0: f601 1623 bb53 d22b 9ed9 101d 35ff a4a1
000000e0: 62fb 9816 ec01 1896 3a02 d196 45a6 c018
000000f0: 1740 c1a9 6723 7216 cad7 b515 c3e0 4ca3
00000100: 9420 6fbd 04ba 22be b2ff 0fbd 8236 683c
00000110: 1d61 e0bd 49c5 12bc 5326 863d 8959 f6bc
00000120: 80ac b73d 64b8 423d 037a 103c a882 1c3d
00000130: 0ad9 b2bd d033 743c ff9f ed3c 7dfb 18bc
00000140: 8ee8 f5bc 7c0b 553d a37a 3d3d 64f2 db3d
00000150: 4fa7 76bc 1ee5 d4bd f9d1 a5bd 0ba9 c4bc
00000160: eadd ccbd 28c9 3c3d a5ca af3d ee93 9bbd
00000170: dba9 debd 0e8b b9bd e29d 0dbe f6fe 583e
00000180: ea64 093d d501 503d ea94 923c 8e42 713c
00000190: 2885 ab3d 938d d63c 2e58 233d 98db a23c
000001a0: cbd0 613d 6a12 9a3d f60b a63c ade1 d53c
000001b0: 1b27 c93c c064 9d3c c4b0 103d 979c 553d
000001c0: c5e1 1a3d 5ba4 0c3d 85ab 093d 00f7 c83c
000001d0: 8313 013d 48cb 5f3d 465b 013c da0a b63c
000001e0: 933e d03c 3b90 643c b0d4 fbbb 4439 793a
000001f0: c9e1 0f3d 310d 343c 4b53 103d b3ed fa3d
