output/clip/FD004/exp_202411021254_bilstm_clip_ep-0086.pth (torch, 288916 bytes, 66 tensors)

module.bi_lstm1.weight_ih_l0 f4 [64, 14]
-0.0044511505 -0.009228433 -0.0067901136 -0.0007563587 -0.010925941 -0.00028490293 -0.0051975558 -0.0035852098
-0.0070577664 -0.0025877184 0.008377156 -0.015908804 0.0006990051 0.003750951 0.017565561 0.01705935
0.012774887 -0.0016790204 0.031711463 0.011100658 0.014356515 0.008833539 0.02799363 0.010400241
0.017903151 0.0075593763 0.021858688 0.009544705 -0.101773895 0.020217976 -0.18341792 0.21500097
-0.055628426 -0.043332107 -0.17335293 0.20991836 -0.07285979 0.050694853 -0.24702258 -0.12500419
0.30334136 0.21632932 0.058102295 0.015475698 0.024577659 0.0066426187 0.035377093 0.0138659505
0.01946339 0.0061014234 0.037284393 0.011516074 0.10882494 0.021737197 0.047554404 0.05173404
0.025176214 0.039641656 0.0017972533 -0.054941583 0.030371817 -0.013266446 0.032252524 -0.038793724
0.029200155 -0.025457649 0.08846978 -0.0021413793 0.006409426 0.0025332407 0.012882358 0.037873253
0.027156603 0.07865143 0.0770164 0.022671442 0.040687267 0.04495962 0.08032149 0.052148633
0.0813986 0.0069599114 0.088222414 0.07427358 0.048587665 0.03830004 0.020685688 0.13607939
0.04700221 0.059732772 0.02648227 0.13631012 0.023906704 0.08144318 -0.039263282 0.04049416
0.1384948 0.09060697 -0.008512405 -0.00225744 -0.01010474 -0.019529346 0.0058578188 -0.00318389
0.0071390686 -0.017078532 0.005055736 -0.007012814 0.010038351 -0.013493796 -0.016549248 -0.008430035
-0.04845319 -0.008897971 -0.04878896 0.0031159243 -0.03978022 -0.0172083 -0.045476686 0.0038133143
-0.044470634 -0.011952735 -0.071832664 -0.030739788 -0.004268165 -0.008023041 0.027367506 0.07879581
0.06069798 0.094463885 0.086390026 0.05159734 0.088230416 0.076086424 0.078212306 0.061777484
0.08838875 0.07152136 0.09819728 0.10127641 -0.037960213 0.022207443 -0.008839269 -0.071272604
-0.08850805 0.0020763406 0.032175794 0.0039277277 -0.061948456 0.002805686 0.044307705 0.03602183
-0.1460026 -0.05180127 -0.0139219845 0.013412129 0.0029195133 0.00659754 0.03415995 -0.0028990135
0.029942244 -0.008121711 0.020928007 0.004288258 0.0024368027 0.0044002654 0.002942246 -0.00848089
0.057378303 0.037536062 0.042587116 -0.0063705393 0.025081009 0.03196876 0.029125733 0.02020977
0.021234462 0.020260377 0.080860235 0.037406206 0.051618114 0.042845108 -0.011707902 0.013626913
-0.012067378 0.038123522 0.015955891 -0.00026552533 -0.011930292 0.029079773 0.018345308 0.014165956
0.03065876 0.0017851383 0.043436598 0.04869417 0.11111288 0.06690479 0.046486016 -0.09026551
0.038783014 -0.00033836876 0.07902445 -0.070476204 0.0472028 -0.023061942 0.19774711 0.045099575
0.010371435 -0.007052428 0.042761028 0.020389186 0.027196445 -0.052342 0.03921968 0.0018459938
0.04467848 -0.042879812 0.039452076 -0.013862578 0.090802796 0.006400343 -0.020375295 -0.008351901
-0.009849116 -0.01000099 -0.009940523 -0.0041331085 -0.012697229 -0.0030503657 -0.007187745 -0.005747108
-0.009250643 -0.0055945045 0.0051246104 -0.014711216 -0.004792348 -0.0009969084 0.0053863907 0.005759472
0.012969826 0.01593919 0.021228999 0.012523246 0.0032707541 0.021127176 0.018454406 0.016831696
-0.0024875298 0.017370572 0.036941335 0.017635945 0.09101906 -0.019697707 -0.08135044 0.240684
00000000: f5da 91bb da32 17bc 9a7f debb 6046 46ba
00000010: b802 33bc 065f 95b9 4250 aabb d7f5 6abb
00000020: d644 e7bb b696 29bb 5740 093c 2e53 82bc
00000030: 703d 373a 84d2 753b a7e5 8f3c 0dc0 8b3c
00000040: c24d 513c 9312 dcba e1e3 013d 89df 353c
00000050: 9737 6b3c 8cba 103c e652 e53c c665 2a3c
00000060: a1a9 923c a5b4 f73b fe10 b33c 6561 1c3c
00000070: d56e d0bd 2ba0 a53c e8d1 3bbe 3729 5c3e
00000080: a2da 63bd 027d 31bd 6e83 31be d7f4 563e
00000090: 8337 95bd 68a5 4f3d 7df3 7cbe 1901 00be
000000a0: 8f4f 9b3e 6f85 5d3e acfc 6d3d c88d 7d3c
000000b0: 1657 c93c 53aa d93b 92e7 103d 032e 633c
000000c0: b071 9f3c 73ee c73b 85b7 183d eaad 3c3c
000000d0: 9cdf de3d 3512 b23c 68c8 423d 13e7 533d
000000e0: 593e ce3c 4a5f 223d d091 eb3a 6d0a 61bd
000000f0: 51ce f83c 825b 59bc 391b 043d 2be6 1ebd
00000100: 2a35 ef3c 8f8c d0bc a52f b53d 6256 0cbb
00000110: 2a06 d23b ba04 263b 8710 533c fc20 1b3d
00000120: 8677 de3c 0014 a13d c6ba 9d3d 76b9 b93c
00000130: b1a7 263d 9427 383d 987f a43d ce99 553d
00000140: 4fb4 a63d f80f e43b f4ad b43d bf1c 983d
00000150: dc03 473d 81e0 1c3d 0875 a93c 6558 0b3e
00000160: 6485 403d 5aaa 743d 58f1 d83c e194 0b3e
00000170: fed7 c33c afcb a63d 89d2 20bd 34dd 253d
00000180: 95d1 0d3e 2690 b93d 9d77 0bbc 8ff1 13bb
00000190: 5a8e 25bc 02fc 9fbc f2f2 bf3b cfa8 50bb
000001a0: d9ee e93b 47e8 8bbc 96aa a53b bfcb e5bb
000001b0: e577 243c 1515 5dbc 4a92 87bc 211e 0abc
000001c0: da76 46bd ccc8 11bc efd6 47bd 8934 4c3b
000001d0: 95f0 22bd 6cf8 8cbc c345 3abd cce8 793b
000001e0: d726 36bd 67d5 43bc 011d 93bd 02d2 fbbc
000001f0: f7db 8bbb 1373 03bc d231 e03c b35f a13d
00000200: 729e 783d 4876 c13d 41ed b03d bb57 533d
00000210: 26b2 b43d 33d3 9b3d c62d a03d 630a 7d3d
00000220: 2905 b53d ca79 923d a81b c93d 026a cf3d
00000230: 2b7c 1bbd 62ec b53c 95d2 10bc 5ff7 91bd
00000240: b543 b5bd 3713 083b c4ca 033d 2bb4 803b
00000250: aabd 7dbd 9adf 373b ff7b 353d a08b 133d
00000260: b581 15be 922d 54bd 0919 64bc 8cbe 5b3c
00000270: 4e55 3f3b 2d30 d83b 4eeb 0b3d 60fd 3dbb
00000280: 7049 f53c ed10 05bc 3671 ab3c 8484 8c3b
00000290: c4b2 1f3b 1a30 903b b2d2 403b 6ef3 0abc
000002a0: 8305 6b3d 6abf 193d d46f 2e3d f5bf d0bb
000002b0: b076 cd3c adf1 023d 1799 ee3c f68e a53c
000002c0: e5f3 ad3c 17f9 a53c 0d9a a53d 4037 193d
000002d0: 846d 533d 5a7e 2f3d 80d2 3fbc 6a43 5f3c
000002e0: 40b6 45bc 6927 1c3d eeb5 823c 3536 8bb9
000002f0: 4577 43bc b438 ee3c e648 963c 5318 683c
00000300: 1428 fb3c 4dfb e93a 93ea 313d 8a73 473d
00000310: 268f e33d 6105 893d 1f68 3e3d 20dd b8bd
00000320: f0da 1e3d 1667 b1b9 92d7 a13d d455 90bd
00000330: b957 413d 66ec bcbc 387e 4a3e 55ba 383d
00000340: f4ec 293c 0e18 e7bb 3026 2f3d 3907 a73c
00000350: 14cb de3c 9164 56bd d1a4 203d 46f5 f13a
00000360: c800 373d bea2 2fbd 8098 213d de1f 63bc
00000370: d1f6 b93d f8b9 d13b 17ea a6bc 69d6 08bc
00000380: 305e 21bc 31db 23bc 93dd 22bc 076f 87bb
00000390: 0a08 50bc a5e8 47bb 2d87 ebbb 3c52 bcbb
000003a0: 0290 17bc 1b52 b7bb 59ec a73b 5007 71bc
000003b0: 2109 9dbb b2aa 82ba 5280 b03b f4b9 bc3b
000003c0: 657f 543c e792 823c 70e8 ad3c 4d2e 4d3c
000003d0: 265a 563b e612 ad3c b22d 973c a0e2 893c
000003e0: d305 23bb bb4c 8e3c cc4f 173d 4279 903c
000003f0: 3368 ba3d 165d a1bc 0f9b a6bd de75 763e

module.bi_lstm1.weight_hh_l0 f4 [64, 16]
7.609468e-05 0.002939488 -0.002216993 0.015497745 -0.0064223865 -0.00758239 -0.0067985617 -0.004250248
0.002936883 0.008691965 -0.016715975 0.0032771428 0.01382293 0.0004879638 -0.007383173 -0.006672181
-0.004756562 -0.005203154 -0.01150392 0.012525477 -0.0018062842 0.011279527 0.01976428 0.0033179687
-0.0035970309 -0.01078347 0.01780046 -0.0013623307 -0.005041016 0.00517648 -0.0079480875 0.0048173363
-0.03184442 0.022237893 -0.20693882 0.11584067 -0.058194347 0.06993098 0.1392912 -0.02857166
0.028962884 -0.09450281 -0.13119131 -0.038471214 0.030378124 0.056580164 -0.11199109 -0.083236136
-0.0069015413 0.020192951 -0.010311302 0.03284758 -0.01606918 0.03780755 -0.014541435 -0.01129944
0.0069350544 -0.05406098 -0.06498054 -0.021148568 0.041335262 0.03895045 -0.0059423847 -0.010629397
0.0015901593 0.018377798 0.010228392 0.03135852 -0.023567894 -0.015275014 -0.038729433 -0.008633062
-0.0050875763 0.019956077 -0.04149307 0.010127789 0.04372742 0.007028092 -0.0020890043 -0.0075818514
-0.0048938766 -0.00026267252 -0.04430948 0.019133328 -0.009193967 0.010326477 0.034930978 -0.0056370716
0.0093079675 -0.016088836 0.026685126 -0.0016035454 -0.0066629066 0.00917623 -0.029676154 -0.009190872
-0.010428002 -0.013324165 -0.07798361 0.011632222 -0.0076041464 0.037006453 0.06342147 -0.00024622696
0.002952702 -0.040716443 0.056502722 -0.0051181833 -0.030919058 0.00029505507 -0.032048624 -0.004150622
-0.0030849078 0.0073143067 -0.0055553955 0.021126304 -0.010440198 -0.015553523 -0.0037633951 -0.0049497443
-0.0017150762 0.022731807 -0.019012166 0.0113202995 0.018305322 -0.0013851323 -0.0073362663 -0.0050919144
-0.0029518846 -0.0067061614 -0.005760293 -0.007027584 0.00064446765 7.006031e-05 0.007257111 0.00049299287
0.00025281365 0.0013671023 0.015441454 -0.0008083466 -0.007523419 -0.004612206 -0.007569332 -0.003281975
-0.0076079583 -0.0010830649 -0.010850576 0.0046352637 0.0005895807 0.045130316 0.025627103 -0.002557351
0.009045499 -0.06367734 -0.008095487 -0.0245342 -0.0060778353 0.028133089 -0.0023757804 -0.00084985705
0.04594834 0.048085403 0.23617885 -0.1043817 -0.008504512 -0.041503727 -0.13468759 0.034753095
-0.04617582 0.024348205 -0.10183492 0.0077111716 0.12186696 -0.021075757 0.06635424 0.009967452
0.00735651 0.006126441 0.016548386 -0.022914471 0.0015616354 -0.039330285 -0.033788938 0.00034824002
0.005204996 0.04198484 -0.05138883 0.022693692 0.010928475 -0.0069938004 0.022844274 0.009037627
-0.0017726053 0.011607746 0.008761115 0.014988598 -0.01394404 0.03316329 -0.013586916 -0.0015546752
-0.007659664 -0.05015107 -0.03901604 -0.02115035 0.03136699 0.034319345 -0.0034830067 -0.0043208674
-0.0005165087 0.017929189 5.775516e-05 0.03189772 -0.016879695 -0.0009731811 -0.004790958 -0.009330766
0.00719182 0.0034965342 -0.053498488 -0.001388125 0.036362667 0.0071852407 -0.011653624 -0.017396666
0.009322729 0.04051316 0.046168707 0.036889646 -0.026483178 -0.027111711 -0.09180999 -0.014445882
-0.0019765797 0.031929236 -0.093152314 0.00968471 0.08373002 0.01473421 0.025718123 -0.013266152
-0.0027696402 0.014147154 0.012902177 0.025279127 -0.017171763 -0.025549686 -0.030318657 -0.005808725
-0.0061323857 0.03699236 -0.023559548 0.015921269 0.03618807 -0.0010320677 -0.003495814 -0.006489478
00000000: 0595 9f38 6da4 403b f84a 11bb 41ea 7d3c
00000010: e272 d2bb b375 f8bb 78c6 debb aa45 8bbb
00000020: b878 403b be68 0e3c f1ef 88bc 55c5 563b
00000030: 9279 623c 65d5 ff39 8bee f1bb 50a2 dabb
00000040: efdc 9bbb 387f aabb f07a 3cbc a937 4d3c
00000050: d7c0 ecba c4cd 383c b3e8 a13c 4772 593b
00000060: 2abc 6bbb 27ad 30bc 45d2 913c 3c90 b2ba
00000070: 1b2f a5bb 769f a93b b238 02bc bfda 9d3b
00000080: 4b6f 02bd 3e2c b63c c5e7 53be e03d ed3d
00000090: 325d 6ebd f937 8f3d 5aa2 0e3e 1d0f eabc
000000a0: 9243 ed3c b08a c1bd 0457 06be fe93 1dbd
000000b0: 8bdb f83c 9ac0 673d 965b e5bd b577 aabd
000000c0: 5326 e2bb b06b a53c bcf0 28bc 2f8b 063d
000000d0: 83a3 83bc 17dc 1a3d 333f 6ebc 4921 39bc
000000e0: 743f e33b 0c6f 5dbd 8414 85bd c33f adbc
000000f0: 2a4f 293d 828a 1f3d 56b8 c2bb ec26 2ebc
00000100: e46c d03a 098d 963c fc94 273c cb71 003d
00000110: 7511 c1bc 0d44 7abc c1a2 1ebd b071 0dbc
00000120: afb5 a6bb ed7a a33c a3f4 29bd 07ef 253c
00000130: 861b 333d e94b e63b ade7 08bb 2e71 f8bb
00000140: d05c a0bb 4fb7 89b9 db7d 35bd 7fbd 9c3c
00000150: 4ba2 16bc 6230 293c c913 0f3d 2fb7 b8bb
00000160: 7280 183c bccc 83bc c49a da3c 0e2e d2ba
00000170: 8354 dabb e657 163c 681b f3bc 5095 16bc
00000180: 36da 2abc 994d 5abc dfb5 9fbd 1395 3e3c
00000190: 342c f9bb 1494 173d 1ee3 813d 0618 81b9
000001a0: 1f82 413b 49c6 26bd 666f 673d 6fb6 a7bb
000001b0: f749 fdbc 9fb1 9a39 6b45 03bd f101 88bb
000001c0: 2a2c 4abb daac ef3b 090a b6bb 1211 ad3c
000001d0: 5d0d 2bbc 34d4 7ebc 4ba3 76bb 7731 a2bb
000001e0: 68cc e0ba 0e38 ba3c 67bf 9bbc c778 393c
000001f0: 0bf5 953c 548d b5ba 1065 f0bb 13da a6bb
00000200: 6874 41bb 5cbf dbbb d7c0 bcbb a647 e6bb
00000210: 7ef1 283a 58ed 9238 0fcd ed3b 313c 013a
00000220: 138c 8439 5730 b33a 27fe 7c3c 39e7 53ba
00000230: 0387 f6bb fd21 97bb 2908 f8bb 6716 57bb
00000240: 2e4c f9bb a1f5 8dba 9dc6 31bc 69e3 973b
00000250: 178e 1a3a 91da 383d eeef d13c 3b99 27bb
00000260: 9333 143c 4469 82bd efa2 04bc f2fb c8bc
00000270: 9428 c7bb 5d77 e63c fbb2 1bbb f1c8 5eba
00000280: 5434 3c3d 33f5 443d ded8 713e 13c6 d5bd
00000290: 8256 0bbc d0ff 29bd 8beb 09be 4359 0e3d
000002a0: db22 3dbd e375 c73c d48e d0bd ffad fc3b
000002b0: 6295 f93d 11a7 acbc bbe4 873d 864e 233c
000002c0: e10e f13b 50c0 c83b 7b90 873c 21b7 bbbc
000002d0: caaf cc3a cb18 21bd 4566 0abd fc93 b639
000002e0: ac8e aa3b 4cf8 2b3d 187d 52bd 1fe8 b93c
000002f0: 590d 333c 402c e5bb ea23 bb3c 8e12 143c
00000300: c456 e8ba 6a2e 3e3c c88a 0f3c bd92 753c
00000310: 8b75 64bc 3bd6 073d a89b 5ebc 3ec6 cbba
00000320: ebfd fabb 356b 4dbd 48cf 1fbd 8043 adbc
00000330: ac7a 003d 7192 0c3d 2843 64bb 1096 8dbb
00000340: 5066 07ba 3ce0 923c 213e 7238 2fa7 023d
00000350: 4947 8abc 141d 7fba 78fd 9cbb 12e0 18bc
00000360: 5ca9 eb3b 1c26 653b 3b21 5bbd bff1 b5ba
00000370: 05f1 143d 2b72 eb3b d7ee 3ebc 7483 8ebc
00000380: 5cbe 183c 21f1 253d 661b 3d3d 9919 173d
00000390: 40f3 d8bc 6119 debc e006 bcbd 6cae 6cbc
000003a0: 8189 01bb 3bc8 023d a4c6 bebd 9eac 1e3c
000003b0: a57a ab3d c267 713c d0ae d23c 465a 59bc
000003c0: da82 35bb 77c9 673c a763 533c 2c16 cf3c
000003d0: ccab 8cbc 934d d1bc d55e f8bc 1e57 bebb
000003e0: 2ef2 c8bb 4d85 173d f4ff c0bc 526d 823c
000003f0: f139 143d 7246 87ba 071a 65bb b0a5 d4bb

module.bi_lstm1.bias_ih_l0 f4 [64]
-0.0040701013 0.03909483 0.19943756 0.105786666 0.058906406 0.092179365 0.13775182 -0.011330582
-0.039196447 0.19287795 -0.070792414 0.025607806 0.11351646 0.084224954 0.08668774 0.021664074
-0.008221631 0.031493858 0.22016765 0.15308923 0.059895612 0.11164443 0.046398576 -0.01343336
0.0066734883 0.17123058 0.2717352 -0.040710937 0.15358324 -0.0015136463 0.13904421 0.021460371
0.006459737 0.06988007 0.14880943 -0.013198659 -0.17387646 0.083287396 -0.009811107 0.005138974
0.021230333 -0.18913831 0.025579033 -0.0976448 0.20355774 0.18162395 -0.06109191 -0.13085116
-0.0053959913 0.038395133 0.18512246 0.109198645 0.05617562 0.099554315 0.16523308 -0.011360925
-0.042617664 0.13975328 0.09705659 0.019976735 0.114580035 0.086295575 0.10059104 0.027576976
00000000: 7c5e 85bb e721 203d 5c39 4c3e aea6 d83d
00000010: d847 713d 89c8 bc3d d00e 0d3e e8a3 39bc
00000020: 748c 20bd cc81 453e 9dfb 90bd 76c7 d13c
00000030: 517b e83d 227e ac3d 5889 b13d db78 b13c
00000040: 05b4 06bc b4ff 003d a173 613e 6cc3 1c3e
00000050: 1a55 753d d6a5 e43d 6f0c 3e3d 9817 5cbc
00000060: 47ad da3b 1257 2f3e e020 8b3e 83c0 26bd
00000070: ed44 1d3e 8b65 c6ba 9b61 0e3e a9cd af3c
00000080: 34ac d33b 481d 8f3d 8061 183e 303f 58bc
00000090: ac0c 32be 9592 aa3d c4be 20bc d764 a83b
000000a0: 3ceb ad3c 79ad 41be 1f8b d13c fff9 c7bd
000000b0: 7171 503e a1fb 393e 833b 7abd d9fd 05be
000000c0: dbd0 b0bb 3744 1d3d be90 3d3e 8aa3 df3d
000000d0: 6818 663d 22e3 cb3d dc32 293e 2c23 3abc
000000e0: dc8f 2ebd 7c1b 0f3e 9bc5 c63d 40a6 a33c
000000f0: f0a8 ea3d bcbb b03d ad02 ce3d 1ce9 e13c

module.bi_lstm1.bias_hh_l0 f4 [64]
-0.004067518 0.03909483 0.21539207 0.10623031 0.05701068 0.043405555 0.13776292 -0.011330737
-0.03949835 0.18894367 -0.060833488 0.041117728 0.113086164 0.08421526 0.086849384 0.021675104
-0.008221139 0.031493858 0.22903936 0.15259278 0.060477927 0.11662709 0.046420675 -0.01343336
0.006891484 0.13680124 0.3220498 -0.035928037 0.1546631 -0.0015240563 0.1398065 0.021459816
0.0057330667 0.12497076 0.123495586 0.11328403 -0.18332686 0.14141628 -0.03583245 -0.04562291
-0.08750615 -0.2298422 -0.14504838 -0.13825163 0.21073961 0.1907967 -0.20790069 -0.10821611
-0.0053947363 0.038395133 0.19280693 0.11004386 0.053869117 0.05399769 0.1651857 -0.011360792
-0.04645995 0.14261669 0.07344261 0.0065117315 0.11507958 0.086406566 0.10129339 0.027577087
00000000: d048 85bb e721 203d bd8f 5c3e 478f d93d
00000010: 0884 693d 06ca 313d b911 0d3e 8ea4 39bc
00000020: 06c9 21bd 737a 413e 892c 79bd 106b 283d
00000030: b899 e73d 0d79 ac3d 17de b13d fd8f b13c
00000040: f5b1 06bc b4ff 003d 4b89 6a3e 4841 1c3e
00000050: b4b7 773d 2fda ee3d 9b23 3e3d 9817 5cbc
00000060: f5d1 e13b a015 0c3e b6e3 a43e 4729 13bd
00000070: 0160 1e3e d8c2 c7ba 6f29 0f3e 7fcc af3c
00000080: 73dc bb3b abf0 ff3d 41eb fc3d 7501 e83d
00000090: 09ba 3bbe 6ecf 103e 0cc5 12bd 17df 3abd
000000a0: 6d36 b3bd c15b 6bbe 9087 14be d691 0dbe
000000b0: 20cc 573e 3660 433e ebe3 54be 68a0 ddbd
000000c0: 54c6 b0bb 3744 1d3d 2e6f 453e ad5e e13d
000000d0: dda5 5c3d af2c 5d3d 7126 293e 9e22 3abc
000000e0: ca4c 3ebd 1c0a 123e 1469 963d 5d60 d53b
000000f0: d8ae eb3d edf5 b03d e972 cf3d 58e9 e13c

module.bi_lstm1.weight_ih_l0_reverse f4 [64, 14]
-0.2556385 -0.19730404 -0.24014029 -0.07594386 -0.14540175 -0.10071119 -0.22118291 -0.10918354
-0.11489136 -0.007729848 0.026584677 -0.2775338 -0.13599761 -0.02835364 0.012528898 0.0039677406
0.030175433 0.011709209 -0.008086371 -0.0075134467 0.036585398 -0.00126283 0.0026619472 -0.010957282
0.04446687 0.010264563 0.0041287825 -0.0178359 0.0771556 0.13945928 0.07336896 0.0059712143
0.07542427 0.042845096 0.12740476 0.013485504 0.09378563 0.04736936 0.20367754 0.07866913
0.061927732 0.07045533 -0.13577662 0.024763143 -0.20534037 0.32160637 0.013681801 0.043860868
-0.11318056 0.282053 -0.044089638 0.11546994 -0.30927265 -0.08106673 0.1931551 0.22408858
-0.0071298764 0.0039649988 -0.020515624 0.049112804 -0.0029952584 -0.010842071 -0.0124164 0.040210176
0.0073931515 0.015736755 0.0318946 -0.03153347 0.011548186 0.045768674 0.21907368 0.08973574
0.041198354 0.020688597 -0.0883608 -0.12925608 0.10068117 -0.023472972 -0.123714514 -0.15270236
0.04571308 0.0768056 0.06529391 0.10773591 0.25344828 0.24362822 0.21047129 -0.2992114
0.18288155 -0.29788658 0.34089738 -0.45221835 0.30939466 -0.5021033 0.55150926 0.14865388
-0.2253431 -0.030080084 0.017534731 0.016545929 -0.00913001 0.015031058 0.013168883 -0.0068253693
-0.015836261 0.016454346 0.017054677 0.00022414305 -0.0034769687 -0.017421646 0.0013700405 0.038593873
0.010874968 0.13407221 0.015748374 -0.009134953 0.0452066 0.042836227 0.07074586 -0.017477099
0.07134311 0.06614483 0.20165408 0.0031853814 0.054024067 0.04357591 -0.027223751 -0.047565337
-0.0006213713 -0.061487123 -0.0031711755 0.06693438 -0.00091115123 0.043612245 0.021706447 0.07290721
-0.10193025 0.014988889 -0.0637784 -0.095620446 -0.10910366 -0.050492324 -0.106742285 -0.070067905
-0.038403783 -0.0636172 -0.10914612 -0.056200475 -0.03058154 -0.06070861 -0.10440584 -0.093066745
-0.05428775 -0.04448145 0.022672694 0.1925067 0.05893812 0.049592435 0.07387752 0.07542425
0.044923194 0.08930871 0.09213418 0.04613119 -0.05011012 0.056127787 -0.006640961 0.020489296
0.15675569 0.16365986 0.08920765 -0.067424275 0.23369387 0.091585405 0.13805528 -0.12220255
0.2413681 0.07044394 0.1392732 0.05122066 -0.01944471 -0.055112217 -0.007169878 0.011133325
0.014452085 0.01998955 -0.00905375 0.03479257 0.005927359 0.039549537 -0.023645453 0.054284498
0.00947496 -0.005464276 -0.017039282 -0.02701264 -0.0045881737 0.08273816 -0.010045934 0.047968682
0.027195541 0.003216294 0.044056613 0.026151415 0.034926806 0.020411633 0.059407495 -0.03419787
0.07309424 0.07932194 -0.054709427 0.021389827 -0.02080424 0.06990418 0.008589187 0.02611304
0.016026642 0.042270675 0.02396705 0.0790876 0.07657669 -0.013702343 0.06588402 0.024646
0.19066437 0.10986406 0.18468995 0.17084095 0.16177782 0.11479606 0.17530821 0.1155258
0.15460081 0.16921031 0.3632901 0.1388506 0.26061702 0.23881103 0.057356007 0.049257297
0.06538881 0.01726238 0.038973268 -0.020659674 0.08053329 -0.000950374 0.044855658 -0.023455227
0.084692635 0.040026773 0.030763851 0.009277109 0.0027956537 0.055686932 0.015488382 -0.06516737
00000000: 0de3 82be 120a 4abe 56e7 75be 7488 9bbd
00000010: 32e4 14be ab41 cebd c67d 62be 9f9b dfbd
00000020: 294c ebbd aa4a fdbb 1cc8 d93c e918 8ebe
00000030: f542 0bbe e545 e8bc 0246 4d3c d203 823b
00000040: 7832 f73c fbd7 3f3c b37c 04bc 5c33 f6bb
00000050: 92da 153d 8b85 a5ba 1074 2e3b 2c86 33bc
00000060: e522 363d b32c 283c bd4a 873b 981c 92bc
00000070: c103 9e3d 6ace 0e3e 7742 963d 2daa c33b
00000080: 0a78 9a3d 577e 2f3d 6576 023e 4ef2 5c3c
00000090: ae12 c03d 6006 423d d890 503e 481d a13d
000000a0: efa7 7d3d e24a 903d 0709 0bbe 13dc ca3c
000000b0: bf44 52be 97a9 a43e a229 603c 74a7 333d
000000c0: 36cb e7bd 4069 903e 5697 34bd 817b ec3d
000000d0: fc58 9ebe 5006 a6bd 73ca 453e 7a77 653e
000000e0: bda1 e9bb d2ec 813b 6210 a8bc 822a 493d
000000f0: 194c 44bb f1a2 31bc 286e 4bbc 6db3 243d
00000100: 4042 f23b 5eea 803c e9a3 023d 3d29 01bd
00000110: 9a34 3d3c ef77 3b3d da54 603e 5fc7 b73d
00000120: 9bbf 283d 227b a93c 82f6 b4bd b55b 04be
00000130: ee31 ce3d 644a c0bc 095e fdbd 025e 1cbe
00000140: a33d 3b3d 414c 9d3d d0b8 853d a5a4 dc3d
00000150: f9c3 813e ad79 793e c985 573e 3d32 99be
00000160: 4d45 3b3e 9784 98be 1a8a ae3e 2a89 e7be
00000170: fa68 9e3e d889 00bf b62f 0d3f b938 183e
00000180: 57c0 66be 826a f6bc ffa4 8f3c 548b 873c
00000190: 0a96 15bc d444 763c 4cc2 573c 59a7 dfbb
000001a0: 0cbb 81bc 44cb 863c 40b6 8b3c f107 6b39
000001b0: dbdd 63bb d7b7 8ebc ee92 b33a 9c14 1e3d
000001c0: ec2c 323c 3a4a 093e bc02 813c c5aa 15bc
000001d0: 8e2a 393d 0a75 2f3d 35e3 903d 222c 8fbc
000001e0: 561c 923d f176 873d 687e 4e3e d5c1 503b
000001f0: 5748 5d3d a77c 323d 5804 dfbc dfd3 42bd
00000200: 86e3 22ba ecd9 7bbd 7fd3 4fbb e414 893d
00000210: 53da 6eba c1a2 323d b8d1 b13c 6050 953d
00000220: cfc0 d0bd f593 753c 409e 82bd a7d4 c3bd
00000230: bd71 dfbd 0ad1 4ebd b39b dabd c37f 8fbd
00000240: 494d 1dbd bc49 82bd 0088 dfbd 7832 66bd
00000250: 2386 fabc 97a9 78bd bbd2 d5bd c799 bebd
00000260: d55c 5ebd 2e32 36bd 16bc b93c 7a20 453e
00000270: 1969 713d 7021 4b3d 194d 973d 0778 9a3d
00000280: 6201 383d 7ce7 b63d d8b0 bc3d 0ff4 3c3d
00000290: 4540 4dbd 40e6 653d 6b9c d9bb 2bd9 a73c
000002a0: 9084 203e 7396 273e 80b2 b63d bd15 8abd
000002b0: 724d 6f3e 2191 bb3d 5d5e 0d3e 5545 fabd
000002c0: 3329 773e ea44 903d a29d 0e3e c1cc 513d
000002d0: 834a 9fbc 59bd 61bd 4cf1 eabb 8d68 363c
000002e0: 70c8 6c3c 20c1 a33c 2e56 14bc a782 0e3d
000002f0: 4b3a c23b b2fe 213d 1cb4 c1bc 6c59 5e3d
00000300: dd3c 1b3c ab0d b3bb f795 8bbc 9d49 ddbc
00000310: 6458 96bb a072 a93d b397 24bc cf7a 443d
00000320: 2fc9 de3c 76c8 523b b574 343d 7e3b d63c
00000330: 690f 0f3d 4c36 a73c 4655 733d 1113 0cbd
00000340: 6fb2 953d 8b73 a23d fe16 60bd b839 af3c
00000350: a76d aabc ec29 8f3d a9b9 0c3c 04eb d53c
00000360: 4e4a 833c 0424 2d3d 8c56 c43c aef8 a13d
00000370: 3dd4 9c3d cb7f 60bc 33ee 863d 68e6 c93c
00000380: 853d 433e 6900 e13d 5d1f 3d3e eef0 2e3e
00000390: 16a9 253e 321a eb3d ff83 333e ca98 ec3d
000003a0: ad4f 1e3e 7845 2d3e 2901 ba3e da2e 0e3e
000003b0: 986f 853e e18a 743e 22ee 6a3d 05c2 493d
000003c0: 92ea 853d d669 8d3c 6fa2 1f3d 7a3e a9bc
000003d0: a3ee a43d 8522 79ba 91ba 373d 2d25 c0bc
000003e0: 5573 ad3d 1df3 233d 7904 fc3c 04ff 173c
000003f0: 4937 373b fb17 643d fcc2 7d3c 7876 85bd

module.bi_lstm1.weight_hh_l0_reverse f4 [64, 16]
-0.202842 0.00077810965 0.024393696 -0.11547122 0.04909946 0.30585504 0.00013894464 0.04010154
-0.03701568 -0.28235388 0.004228699 -0.49795815 -0.059234355 0.022688545 -0.09805331 0.08421635
0.022866232 -0.02454763 -0.02573494 0.025567735 0.024286315 0.091826774 0.017435182 0.01857788
0.029678771 -0.048214965 -0.006069592 -0.07781367 0.025604399 0.020410404 -0.0008236278 0.03063917
0.0051895836 0.008861642 -0.019017603 0.046587512 -0.0028288895 0.031880364 0.018980527 0.006948507
-3.907136e-05 0.011505032 -0.026069153 -0.014808414 0.01345675 -0.02577653 -0.02423687 0.0077788006
-0.2745573 -0.12768184 0.273515 -0.07710463 -0.0014036688 0.3448439 -0.071477346 -0.013568187
-0.20584823 -0.53264815 0.1476745 -0.28677034 0.17687757 0.21899343 -0.07177303 -0.038793072
-0.042491704 -0.009807799 -0.006657514 -0.043151774 0.023532381 0.119465396 -0.023051463 0.012422639
0.015781475 -0.069444336 -0.014018646 -0.06500086 -0.0057580294 0.009190324 -0.0054269186 0.027433068
0.0015055974 0.011352964 0.058206942 -0.060938716 0.006818175 -0.075521015 0.005615211 0.0024460254
-0.06153999 0.007224202 0.011966674 0.13061376 -0.018741867 0.0939155 0.061458416 -0.023297785
-0.07214127 0.0058868336 0.082850754 0.43198845 -0.13121465 0.23770145 0.15142275 -0.021918125
-0.17884754 -0.011708296 0.04237895 0.038659804 0.12690268 0.14018269 -0.09763888 -0.17356004
0.003740664 -0.010129091 -0.008765239 -0.0022571755 0.015283075 0.01802432 -0.012117871 0.008878778
0.005928517 -0.00018907536 -0.01477142 -0.03140395 0.011212716 -0.0027494817 -0.0058801114 0.014812851
-0.09974185 0.009505026 0.00053371355 -0.02222586 -0.016315497 0.087891966 0.00036892222 -0.008530505
-0.007166968 -0.063487664 -0.017937642 -0.049786054 -0.016724 -0.0051672813 -0.049281664 -0.0026831403
-0.21126294 0.22160025 0.117891945 -0.0794621 -0.13059036 -0.09634098 -0.17645591 -0.095132865
-0.21597792 -0.035452344 0.04434073 0.30783105 -0.015873926 0.1416981 -0.12432248 -0.18448734
0.02319416 0.0077012465 0.007917254 0.012583239 -0.0033167673 0.060730778 -0.020396244 -0.0044512344
-0.0029203515 -0.06434563 0.015159155 -0.06749406 0.010715279 0.025287036 -0.0071416358 0.0051345928
-0.12750769 0.06629614 -0.0008233812 -0.1814582 0.009902437 0.34843224 -0.057512414 0.010236065
0.05911189 -0.2740793 0.06533075 0.075966485 -0.21070535 0.12465406 0.057235338 0.038043343
0.04946077 -0.031605083 0.023310423 0.12216247 0.002721019 -0.0038410425 -0.06164432 -0.0009985116
-0.0056903213 -0.15139936 0.021912681 -0.088016205 0.03957474 0.039124943 -0.033035073 -0.0007072778
0.043754444 -0.0068676146 -0.09639908 -0.074903 0.08169596 0.20910221 0.13339607 0.07239761
0.0967621 -0.21144961 -0.0025008498 -0.19830793 -0.059263825 0.13611102 0.011590367 0.09382192
-0.051736936 -0.012212872 0.041476075 0.006965118 0.007784537 0.053847887 -0.062367916 0.00542474
-0.041625354 -0.0725794 -0.015643694 -0.06951944 0.04025805 0.0048630415 -0.031732522 -0.0004476659
-0.11513171 0.016445259 0.021542318 -0.11505365 -0.014180005 0.11909843 -0.024380734 -0.013745068
-0.0135922795 -0.09273209 -0.016468663 -0.016011454 -0.020510316 0.009770073 -0.033712182 -0.0042691054
00000000: d0b5 4fbe 0efa 4b3a 4ad5 c73c 2d7c ecbd
00000010: 841c 493d 0899 9c3e abb1 1139 8341 243d
00000020: c19d 17bd b090 90be e690 8a3b 5ff4 febe
00000030: b99f 72bd 54dd b93c 2cd0 c8bd 9f79 ac3d
00000040: f751 bb3c 1d18 c9bc 15d2 d2bc 6d73 d13c
00000050: 18f4 c63c ad0f bc3d 3ad4 8e3c a330 983c
00000060: e520 f33c 0e7d 45bd 6ee3 c6bb c65c 9fbd
00000070: 51c0 d13c b833 a73c bae8 57ba fffe fa3c
00000080: 620d aa3b 6c30 113c ceca 9bbc 8cd2 3e3d
00000090: e464 39bb fc94 023d 0d7d 9b3c 4db0 e33b
000000a0: 8ee0 23b8 9a7f 3c3c fa8e d5bc fd9e 72bc
000000b0: b379 5c3c 4d29 d3bc 678c c6bc 4fe5 fe3b
000000c0: c692 8cbe 07bf 02be 280a 8c3e 08e9 9dbd
000000d0: 4ffb b7ba 618f b03e b762 92bd 1a4d 5ebc
000000e0: e1c9 52be a15b 08bf fc37 173e 90d3 92be
000000f0: 651f 353e d03f 603e bdfd 92bd 7ce5 1ebd
00000100: c80b 2ebd e4b0 20bc 4627 dabb eabf 30bd
00000110: fbc6 c03c 46aa f43d 6cd6 bcbc 5388 4b3c
00000120: 2748 813c d538 8ebd 77ae 65bc 2c1f 85bd
00000130: daad bcbb 0393 163c 4bd4 b1bb 50bb e03c
00000140: 7757 c53a c801 3a3c 676a 6e3d e09a 79bd
00000150: ff6a df3b c3aa 9abd ceff b73b 7f4d 203b
00000160: 5b11 7cbd 00b9 ec3b de0f 443c 9dbf 053e
00000170: 8b88 99bc c556 c03d d2bb 7b3d ffda bebc
00000180: cdbe 93bd 57e6 c03b a8ad a93d 972d dd3e
00000190: 225d 06be 0268 733e 910e 1b3e a48d b3bc
000001a0: cf23 37be 27d4 3fbc 8d95 2d3d be59 1e3d
000001b0: c7f2 013e 0d8c 0f3e e5f6 c7bd b9b9 31be
000001c0: ee25 753b 7df4 25bc 149c 0fbc 1fed 13bb
000001d0: dd65 7a3c bda7 933c 098a 46bc 4b78 113c
000001e0: 0144 c23b 8842 46b9 d303 72bc 6ea1 00bd
000001f0: 8ab5 373c a630 34bb f3ad c0bb 9ab1 723c
00000200: 7445 ccbd f8ba 1b3c e9e8 0b3a 0213 b6bc
00000210: 14a8 85bc b400 b43d e76b c139 88c3 0bbc
00000220: e3d8 eabb d205 82bd f6f1 92bc 76ec 4bbd
00000230: c500 89bc 4c52 a9bb 92db 49bd a0d7 2fbb
00000240: 5055 58be 2deb 623e 5571 f13d 07bd a2bd
00000250: 7bb9 05be 6b4e c5bd dcb0 34be 05d5 c2bd
00000260: 5129 5dbe 7a36 11bd a09e 353d 089c 9d3e
00000270: 090a 82bc 4f19 113e c99c febd 40ea 3cbe
00000280: ae01 be3c bd5a fc3b 5fb7 013c ee29 4e3c
00000290: 1f5e 59bb d6c0 783d 0616 a7bc a9db 91bb
000002a0: 5e63 3fbb a4c7 83bd 1b5e 783c 533a 8abd
000002b0: 238f 2f3c c226 cf3c 6204 eabb 1640 a83b
000002c0: 6091 02be 45c6 873d 2dd8 57ba 2ed0 39be
000002d0: d53d 223c b665 b23e 2392 6bbd 2bb5 273c
000002e0: 4f1f 723d 1f54 8cbe 21cc 853d 5194 9b3d
000002f0: 25c3 57be a14a ff3d 9a6f 6a3d 56d3 1b3d
00000300: 6097 4a3d 5574 01bd 80f5 be3c 5130 fa3d
00000310: 2053 323b 00ba 7bbb c17e 7cbd 7de0 82ba
00000320: e075 babb 6f08 1bbe 3982 b33c d741 b4bd
00000330: 1f19 223d 7a41 203d c94f 07bd 9c68 39ba
00000340: dc37 333d ba09 e1bb e16c c5bd be66 99bd
00000350: 3650 a73d e41e 563e fb98 083e 3345 943d
00000360: 352b c63d 3f86 58be 4ce5 23bb 3c11 4bbe
00000370: a0be 72bd b060 0b3e 86e5 3d3c b525 c03d
00000380: 1cea 53bd 7f18 48bc d1e2 293d a53b e43b
00000390: 6e15 ff3b 9a8f 5c3d 8075 7fbd 04c2 b13b
000003a0: 597f 2abd 82a4 94bd 3427 80bc 3560 8ebd
000003b0: a0e5 243d 265a 9f3b f6f9 01bd b3b4 eab9
000003c0: 2dca ebbd 35b8 863c 8479 b03c 40a1 ebbd
000003d0: 4053 68bc e1e9 f33d 1bba c7bc fe32 61bc
000003e0: 27b2 5ebc 52ea bdbd 4ae9 86bc 742a 83bc
000003f0: 4005 a8bc a812 203c c915 0abd dae3 8bbb

module.bi_lstm1.bias_ih_l0_reverse f4 [64]
0.036707185 0.027292218 0.15884961 0.07036208 0.09731565 0.07942609 0.07956502 0.03904322
0.11314384 0.062259335 0.0075165117 -0.031938028 0.062406007 -0.043453418 0.121516764 0.120219745
0.41510433 0.08779397 -0.02274131 0.34936756 0.107250206 0.21349268 0.06708117 0.022166012
0.1413668 0.32345843 -0.056407087 0.11946966 0.022558529 0.109973975 0.10872556 0.1985108
-0.12278365 0.019341506 0.123216406 0.21187814 -0.012588143 -0.19380559 -0.2837964 0.061318554
-0.300774 0.18698153 -0.22087954 0.015921924 0.2767088 -0.00452587 -0.25866452 0.047162067
0.26715904 0.040713023 0.18312068 0.35773563 0.13075437 0.014985398 0.061489385 0.05027543
0.17123097 0.11021766 0.025191734 0.049973607 0.100457415 -0.01234573 0.17346978 0.16128595
00000000: 465a 163d ee93 df3c 79a9 223e ff19 903d
00000010: 6d4d c73d 25aa a23d fcf2 a23d c9eb 1f3d
00000020: f5b7 e73d a503 7f3d 124d f63b 73d1 02bd
00000030: 719d 7f3d 36fc 31bd c8dd f83d c535 f63d
00000040: 8e88 d43e 53cd b33d fc4b babc 4ee0 b23e
00000050: ffa5 db3d d39d 5a3e da61 893d 7f95 b53c
00000060: 75c2 103e 589c a53e 1e0b 67bd 82ac f43d
00000070: aacc b83c 093a e13d 82ab de3d 6a46 4b3e
00000080: ff75 fbbd 1472 9e3c e258 fc3d 95f6 583e
00000090: 803e 4ebc f974 46be c34d 91be 2a29 7b3d
000000a0: 0dff 99be 1678 3f3e 3f2e 62be b26e 823c
000000b0: c7ac 8d3e c04d 94bb ad6f 84be 032d 413d
000000c0: 12c9 883e b3c2 263d fd83 3b3e 2029 b73e
000000d0: 79e4 053e 5185 753c 4bdc 7b3d 9ced 4d3d
000000e0: 2c57 2f3e ccb9 e13d e55e ce3c 20b1 4c3d
000000f0: 9ebc cd3d bf45 4abc 10a2 313e 2528 253e

module.bi_lstm1.bias_hh_l0_reverse f4 [64]
0.042682204 0.02729962 0.15383902 0.04904238 0.09435277 0.07696587 0.053601284 0.040096402
0.14812474 0.0698145 -0.01737885 -0.053429306 0.05216587 -0.04189054 0.12834448 0.06781289
0.42995587 0.08729659 -0.0056326147 0.38215548 0.095679596 0.18979499 0.067154914 0.022250464
0.170407 0.36338645 -0.0059752217 0.14762107 0.02244458 0.10998352 0.14068586 0.10625318
-0.06830296 -0.12493108 0.08171262 0.1513027 0.0864909 -0.119283155 -0.19619164 0.07056793
-0.05067104 0.28052416 -0.20583743 0.06449276 0.21983196 -0.041012 -0.14767183 -0.17460802
0.2671815 0.040754944 0.1731145 0.2822203 0.124971025 0.12360602 0.049822256 0.059115678
0.15883446 0.038464025 -0.09034587 0.03535991 0.12476859 -0.011997903 0.14364827 0.14901042
00000000: 89d3 2e3d 74a3 df3c fa87 1d3e aae0 483d
00000010: 063c c13d 48a0 9d3d 058d 5b3d 203c 243d
00000020: 03ae 173e e8fa 8e3d 175e 8ebc b0d8 5abd
00000030: e1ab 553d 6a95 2bbd bc6c 033e 7ce1 8a3d
00000040: 2d23 dc3e 8ec8 b23d cc91 b8bb e2a9 c33e
00000050: aaf3 c33d 9e59 423e 8488 893d 9b46 b63c
00000060: 2c7f 2e3e ca0d ba3e cbcb c3bb fa29 173e
00000070: b2dd b73c 0a3f e13d f40f 103e 449b d93d
00000080: 6ce2 8bbd dedb ffbd f258 a73d 18ef 1a3e
00000090: 2422 b13d ba4a f4bd 76e6 48be eb85 903d
000000a0: 708c 4fbd dda0 8f3e 0cc7 52be c814 843d
000000b0: a11b 613e 33fc 27bd 4937 17be 72cc 32be
000000c0: 03cc 883e a8ee 263d ed44 313e 2e7f 903e
000000d0: cff0 ff3d 2725 fd3d 6c12 4c3d 4823 723d
000000e0: 80a5 223e 748c 1d3d 4107 b9bd 8ed5 103d
000000f0: ad86 ff3d da92 44bc 8818 133e 3096 183e

module.bi_lstm2.weight_ih_l0 f4 [128, 16]
0.009063861 0.0023446502 0.006316341 0.015445127 -0.0019605097 -0.0048952894 0.003940133 0.0009552888
-0.0056641693 0.0076046605 0.0023402034 0.007136278 0.004696547 0.004144482 -0.009377459 -0.0048278263
0.00058966695 0.001591911 0.008419804 0.008369137 -0.00024520568 0.00059993315 0.003597953 -0.00022041911
-0.008925923 0.0034855688 0.00302511 -0.004139588 0.007872659 0.0025477582 -0.0053197853 -0.006558194
-0.0010049582 0.0039604595 0.0073901466 -0.0022284014 -0.003674194 0.00028666953 -0.0016684291 -0.002151683
-0.008166979 0.0018251367 0.0017245734 -0.0020866813 0.005070077 0.004315439 -0.003939458 -0.007793434
0.0033235261 0.001799614 0.006683405 0.008870738 -0.0041675507 -0.009267466 0.0017317717 -0.0029482096
-0.0034934438 0.011427247 -0.00046689672 0.009722766 0.0059024626 0.0006741893 -0.008564834 -0.005589763
-0.0055037118 -0.005368755 0.0019268825 0.0009328527 0.0026441456 0.0034452754 0.004651812 -0.00275137
0.008289501 -0.010766958 -0.004230619 -0.013238216 0.00310132 -0.0055286516 -0.00031119658 0.0030357686
0.01256889 0.0033520816 0.0083791 0.014990579 -0.0041200933 -0.012217399 0.0073311543 0.0034195117
-0.004649485 0.0042394055 -0.0024544054 0.0011817227 0.009037782 -0.0023658532 -0.009831644 -0.004631997
0.0053812414 0.0014926229 0.0013858504 0.0060875947 -0.00426706 -0.0049303533 0.009995753 0.0014610225
-0.0037527762 0.0047512255 -0.004892227 0.010566305 -0.0018377319 0.00036071584 -0.0068672225 -0.0059135035
0.0058968016 2.91563e-05 0.0053222678 0.010615528 0.0014892372 -0.0069089397 0.011030723 0.007420098
-0.003335873 -0.0028162333 0.008792755 0.0015714797 0.00054205325 0.0017066479 -0.0025313895 -0.0018019724
-0.01118309 0.00076069066 0.00805329 -0.00057548494 -0.0017754085 0.004319192 0.004922952 -0.0047338223
-0.010564093 -0.0021958067 0.0038435576 -6.067961e-05 0.010464839 0.0010237276 -0.008606866 -0.0066147153
-0.0019867283 0.0021703544 -8.027255e-05 -0.0010804895 0.00097413163 -0.012636665 0.009782558 0.0057498757
-0.0044876295 0.017140433 0.0050089974 0.009218419 0.00096333807 0.003487778 -0.0009778835 0.0010854467
-0.0129133435 0.004918934 0.00793721 -0.008628254 -0.0023100947 0.010183151 -0.005480227 -0.0046977173
-0.00035758817 -0.0060195033 0.0042669363 -0.009510239 0.0039614844 0.0035171155 0.00013601419 -0.0035302422
0.042614833 -0.009518733 0.00318008 0.032788273 -0.003852767 -0.02264527 -0.006549346 -0.0016602658
-0.016991401 0.028153505 -0.0028568197 0.037878864 0.02894934 -0.0027031817 -0.015794804 -0.020184178
-0.0070110057 0.0036028745 0.008992026 -0.0046918625 -0.0050594816 0.009132586 -0.00037328282 -0.005072382
-0.008678259 0.0005954486 0.0005081605 -0.0013939202 0.0072491523 0.00014077291 -0.004493825 -0.0085997665
0.025828198 -0.00059613487 0.011538434 0.010950436 -0.0011080084 -0.023944035 -0.0035159064 0.0038309237
-0.013690949 0.011493321 -0.011686645 0.010737569 0.0011269501 -0.003241884 -0.002864043 -0.0086003225
-0.0016401116 0.0067995675 0.009671294 0.00018176313 -0.007125421 -0.0073505756 0.0017340918 -0.004377616
-0.013108484 0.0057500107 0.0014098226 0.0037255676 0.0072520175 0.0034556875 -0.008810826 -0.010739842
0.005661668 0.005913188 0.005909191 0.0007618837 6.454664e-05 -0.006589345 0.0044048983 8.827971e-05
-0.01151696 -0.0009354475 0.0046759164 -0.0021680396 -0.0011399863 0.005141851 -0.0031339969 -0.004550665
00000000: 9780 143c b4a8 193b 4ff9 ce3b 8f0d 7d3c
00000010: e57b 00bb aa68 a0bb 3b1c 813b 596c 7a3a
00000020: 7f9a b9bb 8430 f93b 195e 193b 70d7 e93b
00000030: 7ee5 993b 6fce 873b eaa3 19bc be32 9ebb
00000040: e193 1a3a aba7 d03a 38f3 093c b41e 093c
00000050: f38e 80b9 d544 1d3a a2cb 6b3b 4e20 67b9
00000060: 093e 12bc 246e 643b ed40 463b 62a5 87bb
00000070: 53fc 003c 4af8 263b 9851 aebb 1ee6 d6bb
00000080: cdb8 83ba bec6 813b 0b29 f23b 5f0a 12bb
00000090: bfca 70bb 224c 9639 31af daba 4003 0dbb
000000a0: cbce 05bc 6d39 ef3a 150b e23a b4c0 08bb
000000b0: e322 a63b 8768 8d3b 9216 81bb 1060 ffbb
000000c0: 84cf 593b 07e1 eb3a 7700 db3b 9256 113c
000000d0: f38f 88bb 92d6 17bc 9efc e23a c036 41bb
000000e0: 43f2 64bb 5939 3b3c d1c9 f4b9 3c4c 1f3c
000000f0: 7269 c13b 14bc 303a 8453 0cbc 552a b7bb
00000100: 7b58 b4bb 62ec afbb 738f fc3a af8a 743a
00000110: 6749 2d3b 21ca 613b 3a6e 983b 5450 34bb
00000120: b0d0 073c e567 30bc 01a1 8abb 1ae5 58bc
00000130: 843f 4b3b b129 b5bb 1928 a3b9 bff3 463b
00000140: bfed 4d3c 99ae 5b3b 7e48 093c 0c9b 753c
00000150: d901 87bb 7c2b 48bc 2e3a f03b e319 603b
00000160: b55a 98bb b6ea 8a3b 17da 20bb 09e4 9a3a
00000170: 3513 143c 6e0c 1bbb e714 21bc 02c8 97bb
00000180: 2055 b03b 1da4 c33a 6ca5 b53a 727a c73b
00000190: b2d2 8bbb cd8e a1bb 3ac5 233c c87f bf3a
000001a0: 23f1 75bb 2bb0 9b3b f94e a0bb 4c1e 2d3c
000001b0: 0de0 f0ba 761e bd39 7006 e1bb 10c6 c1bb
000001c0: f539 c13b ad94 f437 6b66 ae3b c0ec 2d3c
000001d0: 8232 c33a 6364 e2bb 35ba 343c 4b24 f33b
000001e0: a99e 5abb 8e90 38bb 7d0f 103c 1cfa cd3a
000001f0: 9418 0e3a 9ab1 df3a abe5 25bb 2930 ecba
00000200: 4739 37bc 1669 473a f2f1 033c 24dc 16ba
00000210: d3b4 e8ba 0288 8d3b b750 a13b 2e1e 9bbb
00000220: 0415 2dbc 86e7 0fbb 32e4 7b3b 3c82 7eb8
00000230: b774 2b3c 992e 863a d003 0dbc 41c0 d8bb
00000240: c533 02bb 813c 0e3b ff57 a8b8 369f 8dba
00000250: de5c 7f3a 040a 4fbc 0647 203c 7469 bc3b
00000260: f70c 93bb 186a 8c3c 8422 a43b da08 173c
00000270: 8688 7c3a 3493 643b 532c 80ba 8c45 8e3a
00000280: 7d92 53bc 022f a13b 120b 023c 855d 0dbc
00000290: f564 17bb 3bd7 263c 7a93 b3bb 4fef 99bb
000002a0: ac7a bbb9 413f c5bb a8d1 8b3b d5d0 1bbc
000002b0: 57cf 813b 687f 663b 089f 0e39 a35b 67bb
000002c0: e48c 2e3d 76f4 1bbc e468 503b ff4c 063d
000002d0: b47e 7cbb 9382 b9bc e59b d6bb 479d d9ba
000002e0: 8d31 8bbc 2ea2 e63c 7b39 3bbb de26 1b3d
000002f0: 2b27 ed3c dd27 31bb 1b64 81bc 4a59 a5bc
00000300: 94bc e5bb 341e 6c3b 4a53 133c 32be 99bb
00000310: 02ca a5bb d8a0 153c 2cb5 c3b9 3936 a6bb
00000320: 422f 0ebc e117 1c3a 1336 053a 33b4 b6ba
00000330: 4c8a ed3b 719c 1339 f040 93bb 09e6 0cbc
00000340: a895 d33c ef45 1cba b30b 3d3c 7569 333c
00000350: 983a 91ba 4826 c4bc 1f6b 66bb 3c10 7b3b
00000360: 0150 60bc 7b4e 3c3c 5879 3fbc a1ec 2f3c
00000370: 2cb6 933a ca75 54bb abb2 3bbb 5ee8 0cbc
00000380: 03f9 d6ba e8ce de3b 5974 1e3c ab97 3e39
00000390: 5d7c e9bb 19dd f0bb 774a e33a 1b72 8fbb
000003a0: f8c4 56bc 966a bc3b ccc9 b83a a728 743b
000003b0: 55a2 ed3b d178 623b 485b 10bc 2af6 2fbc
000003c0: 8385 b93b 6bc3 c13b e3a1 c13b 26b9 473a
000003d0: 375d 8738 6feb d7bb f756 903b cf22 b938
000003e0: a2b1 3cbc d238 75ba 6e38 993b ab15 0ebb
000003f0: 986b 95ba f97c a83b be63 4dbb bf1d 95bb

module.bi_lstm2.weight_hh_l0 f4 [128, 32]
-4.9253e-41 -4.9819e-41 4.9492e-41 4.9841e-41 -5.0005e-41 -4.9949e-41 -5.1187e-41 4.9718e-41
-4.9165e-41 -4.9417e-41 5.1798e-41 -4.9146e-41 -6.2181e-41 -4.9889e-41 4.9526e-41 -5.766e-41
5.6863e-41 -5.8902e-41 -4.9739e-41 6.0099e-41 -5.0047e-41 4.9229e-41 -5.0154e-41 -4.9104e-41
5.0398e-41 4.9306e-41 5.5035e-41 -4.9977e-41 4.9438e-41 4.9833e-41 5.0302e-41 -4.9574e-41
5.2041e-41 4.9642e-41 5.2774e-41 -4.9836e-41 5.0951e-41 4.9843e-41 4.969e-41 1.18069e-40
5.3503e-41 5.312e-41 5.0518e-41 -5.106e-41 6.0431e-41 -5.0797e-41 6.2118e-41 -4.9113e-41
-4.9271e-41 4.9417e-41 4.9501e-41 5.0612e-41 5.0424e-41 4.966e-41 4.9781e-41 -4.9704e-41
-4.9934e-41 -2.437e-41 -5.7885e-41 4.997e-41 -5.0347e-41 4.9707e-41 -5.0895e-41 4.9386e-41
-5.0943e-41 4.9389e-41 -5.2808e-41 5.0176e-41 -6.1535e-41 5.3081e-41 5.9229e-41 -4.9103e-41
5.6796e-41 5.3332e-41 5.4426e-41 4.9642e-41 -4.9623e-41 5.0071e-41 -4.9114e-41 5.3291e-41
5.6647e-41 5.025e-41 4.9844e-41 -5.5512e-41 -5.06e-41 -5.0063e-41 5.0798e-41 -4.9823e-41
5.0202e-41 -4.9882e-41 -4.9766e-41 4.9825e-41 4.951e-41 4.9783e-41 -4.906e-41 5.0204e-41
-4.9984e-41 4.966e-41 -6.0355e-41 4.9286e-41 5.0892e-41 -4.9054e-41 4.9864e-41 -4.9904e-41
-5.165e-41 -4.9427e-41 5.0507e-41 4.9742e-41 -5.0126e-41 -5.7691e-41 -4.9296e-41 4.953e-41
5.0026e-41 4.9448e-41 4.9598e-41 4.939e-41 4.973e-41 5.0677e-41 -4.963e-41 -5.0232e-41
5.051e-41 4.9256e-41 -5.5047e-41 -4.9945e-41 4.923e-41 -5.638e-41 5.1195e-41 4.9783e-41
-4.9784e-41 -4.9578e-41 -4.9184e-41 -4.9913e-41 -4.9257e-41 -4.9341e-41 2.50832e-40 -5.047e-41
-4.982e-41 -4.9476e-41 5.1946e-41 -4.9351e-41 5.0855e-41 -5.3755e-41 -5.0252e-41 -5.01e-41
4.934e-41 -5.0431e-41 -4.9522e-41 5.2843e-41 5.0232e-41 -4.9979e-41 -4.9313e-41 4.9432e-41
4.9121e-41 4.9257e-41 -5.0716e-41 4.9201e-41 4.973e-41 -4.9354e-41 -5.0713e-41 -4.959e-41
-5.01e-41 -4.965e-41 5.0335e-41 -4.9728e-41 5.0235e-41 4.9551e-41 -4.9278e-41 4.9268e-41
-4.999e-41 3.6522e-41 -4.9533e-41 -5.002e-41 4.9928e-41 -5.1076e-41 4.9116e-41 -5.9824e-41
5.0682e-41 -5.19e-41 -5.3371e-41 5.0161e-41 -4.9414e-41 5.0293e-41 5.0975e-41 5.0888e-41
-4.9127e-41 -5.2348e-41 -5.0965e-41 -4.9427e-41 -5.0455e-41 -5.0478e-41 -4.9749e-41 -4.9969e-41
5.0974e-41 4.9553e-41 4.9969e-41 1.0576e-41 6.0315e-41 -5.9283e-41 4.9934e-41 -5.1842e-41
5.5262e-41 4.9931e-41 -4.969e-41 1.69112e-40 4.9484e-41 5.3398e-41 4.9415e-41 -4.9911e-41
-5.598e-41 4.9443e-41 4.9707e-41 -4.9623e-41 -5.1393e-41 -5.1583e-41 5.3405e-41 -4.9613e-41
-4.9329e-41 -5.1494e-41 -4.9903e-41 -5.1772e-41 4.9236e-41 -5.1561e-41 5.1854e-41 -5.0127e-41
4.9211e-41 -4.9833e-41 4.9462e-41 4.9564e-41 -5.0769e-41 5.2893e-41 5.6558e-41 -5.0223e-41
5.0521e-41 -4.9379e-41 -4.9274e-41 -5.8319e-41 5.3814e-41 5.0001e-41 4.948e-41 -5.4023e-41
4.942e-41 5.2816e-41 5.0112e-41 -5.3447e-41 -4.9617e-41 4.9721e-41 5.8639e-41 -5.6032e-41
5.2742e-41 4.9474e-41 4.9207e-41 4.9532e-41 4.9683e-41 5.0513e-41 5.1226e-41 4.9668e-41
00000000: 4c89 0080 e08a 0080 f789 0000 f08a 0000
00000010: 658b 0080 3d8b 0080 b08e 0080 988a 0000
00000020: 0d89 0080 c189 0080 6490 0000 0089 0080
00000030: 56ad 0080 128b 0080 0f8a 0000 bca0 0080
00000040: 839e 0000 32a4 0080 a78a 0080 88a7 0000
00000050: 838b 0080 3b89 0000 cf8b 0080 e288 0080
00000060: 7d8c 0000 7289 0000 6a99 0000 518b 0080
00000070: d089 0000 ea8a 0000 398c 0000 318a 0080
00000080: 1291 0000 628a 0000 1d93 0000 ec8a 0080
00000090: 088e 0000 f18a 0000 848a 0000 2149 0100
000000a0: 2595 0000 1494 0000 d38c 0000 568e 0080
000000b0: 75a8 0000 9a8d 0080 29ad 0000 e888 0080
000000c0: 5989 0080 c189 0000 fd89 0000 168d 0000
000000d0: 908c 0000 6f8a 0000 c58a 0000 8e8a 0080
000000e0: 328b 0080 ef43 0080 5ca1 0080 4c8b 0000
000000f0: 598c 0080 908a 0000 e08d 0080 ab89 0000
00000100: 028e 0080 ad89 0000 3593 0080 df8b 0000
00000110: 89ab 0080 f893 0000 1ba5 0000 e188 0080
00000120: 539e 0000 ab94 0000 b897 0000 628a 0000
00000130: 548a 0080 948b 0000 e988 0080 8e94 0000
00000140: e99d 0000 148c 0000 f28a 0000 bf9a 0080
00000150: 0d8d 0080 8e8b 0080 9b8d 0000 e38a 0080
00000160: f18b 0000 0d8b 0080 ba8a 0080 e48a 0000
00000170: 048a 0000 c68a 0000 c288 0080 f38b 0000
00000180: 568b 0080 6f8a 0000 3fa8 0080 6489 0000
00000190: de8d 0000 be88 0080 008b 0000 1d8b 0080
000001a0: fb8f 0080 c889 0080 cb8c 0000 a98a 0000
000001b0: bb8b 0080 d2a0 0080 6b89 0080 128a 0000
000001c0: 748b 0000 d789 0000 428a 0000 ae89 0000
000001d0: a18a 0000 448d 0000 598a 0080 078c 0080
000001e0: cd8c 0000 4e89 0000 7399 0080 3a8b 0080
000001f0: 3c89 0000 2a9d 0080 b68e 0000 c68a 0000
00000200: c78a 0080 348a 0080 1b89 0080 238b 0080
00000210: 4f89 0080 8b89 0080 38bb 0200 b18c 0080
00000220: e18a 0080 eb89 0080 ce90 0000 9289 0080
00000230: c38d 0000 d995 0080 158c 0080 a98b 0080
00000240: 8a89 0000 958c 0080 0c8a 0080 4e93 0000
00000250: 078c 0000 528b 0080 7789 0080 cc89 0000
00000260: ee88 0000 4f89 0000 608d 0080 2789 0000
00000270: a18a 0000 9489 0080 5e8d 0080 3d8a 0080
00000280: a98b 0080 678a 0080 508c 0000 9f8a 0080
00000290: 098c 0000 218a 0000 5e89 0080 5789 0000
000002a0: 5a8b 0080 cf65 0000 148a 0080 6f8b 0080
000002b0: 2e8b 0000 618e 0080 ea88 0000 c4a6 0080
000002c0: 488d 0000 ad90 0080 c794 0080 d48b 0000
000002d0: bf89 0080 328c 0000 198e 0000 db8d 0000
000002e0: f288 0080 ed91 0080 128e 0080 c889 0080
000002f0: a68c 0080 b68c 0080 ae8a 0080 4b8b 0080
00000300: 188e 0000 228a 0000 4b8b 0000 7b1d 0000
00000310: 22a8 0000 42a5 0080 328b 0000 8490 0080
00000320: 0c9a 0000 308b 0000 848a 0080 6ad7 0100
00000330: f189 0000 da94 0000 c089 0000 228b 0080
00000340: 0d9c 0080 d489 0000 908a 0000 548a 0080
00000350: 438f 0080 cb8f 0080 df94 0000 4d8a 0080
00000360: 8289 0080 8b8f 0080 1c8b 0080 5290 0080
00000370: 4089 0000 bb8f 0080 8c90 0000 bc8b 0080
00000380: 2e89 0000 ea8a 0080 e189 0000 2a8a 0000
00000390: 868d 0080 7293 0000 a99d 0000 008c 0080
000003a0: d58c 0000 a689 0080 5b89 0080 92a2 0080
000003b0: 0396 0000 628b 0000 ee89 0000 9896 0080
000003c0: c389 0000 3b93 0000 b18b 0000 fd94 0080
000003d0: 508a 0080 9a8a 0000 76a3 0000 329c 0080
000003e0: 0693 0000 ea89 0000 2b89 0000 138a 0000
000003f0: 7f8a 0000 cf8c 0000 cc8e 0000 748a 0000

module.bi_lstm2.bias_ih_l0 f4 [128]
0.012275516 -0.0029093153 -0.01225468 0.011649493 0.0017681244 0.019545674 -0.005064179 0.018929126
-0.010270755 0.023274282 -0.017525047 0.09612892 -0.009277939 0.04986748 7.180497e-05 -0.00059486576
-0.009259085 -0.0014192833 0.022081094 0.0069879303 0.007777799 -0.0015136391 -0.012845332 0.00022119051
2.300823e-05 -0.002936319 -0.0032224245 -0.0029837072 -0.0110157905 0.008596847 -0.00922248 0.042064242
-4.984e-41 4.9202e-41 -6.0273e-41 4.9152e-41 4.9487e-41 4.9806e-41 -4.9533e-41 -5.1199e-41
-5.1931e-41 -4.944e-41 -5.8986e-41 5.062e-41 -4.9268e-41 -4.9142e-41 4.9106e-41 -4.9052e-41
-4.938e-41 4.9188e-41 -5.008e-41 4.9329e-41 -4.941e-41 4.9893e-41 -5.0088e-41 4.9505e-41
5.4495e-41 -5.1217e-41 -5.2308e-41 -5.0434e-41 -4.9588e-41 5.4314e-41 -5.4382e-41 4.9114e-41
-0.027483448 0.013207011 -0.013900103 0.027806567 -0.09162697 -0.03695046 0.030828064 -0.044471297
-0.040501762 0.0036617822 -0.00866676 0.2565957 -0.044878732 -0.17974721 -0.0054131304 -0.028210798
-0.048735455 -0.009572725 -0.1399323 -0.05139508 -0.029230472 -0.037966866 -0.04294269 0.035123195
-0.031350788 0.0031703124 -0.06744147 -0.063627504 0.0025340726 0.023694247 -0.008378149 -0.18864353
0.012333734 -0.002906141 -0.012293318 0.011714148 0.0018074939 0.019664897 -0.005104961 0.018996764
-0.010227565 0.023161642 -0.017536871 0.09989391 -0.009280506 0.050833624 2.6710948e-05 -0.0006047211
-0.009276372 -0.0014357901 0.022515837 0.006965543 0.0077874744 -0.0015288559 -0.01288944 0.00020303899
-4.471695e-05 -0.0029661166 -0.003300271 -0.0030064955 -0.011031565 0.008577677 -0.009247408 0.043521453
00000000: 3f1f 493c 36aa 3ebb dac7 48bc 84dd 3e3c
00000010: 69c0 e73a 401e a03c 6af1 a5bb 4111 9b3c
00000020: ab46 28bc b5a9 be3c b090 8fbc 3ddf c43d
00000030: 7f02 18bc d841 4c3d 0096 9638 c4f0 1bba
00000040: 6bb3 17bc 3f07 baba 69e3 b43c 02fb e43b
00000050: e8dc fe3b 4d65 c6ba 3a75 52bc 60ef 6739
00000060: cc01 c137 426f 40bb 502f 53bb 4d8a 43bb
00000070: 937b 34bc cad9 0c3c e219 17bc 8e4b 2c3d
00000080: ef8a 0080 2889 0000 04a8 0080 0489 0000
00000090: f389 0000 d78a 0000 148a 0080 b98e 0080
000000a0: c390 0080 d289 0080 6ea4 0080 1c8d 0000
000000b0: 5789 0080 fd88 0080 e388 0000 bd88 0080
000000c0: a789 0080 1e89 0000 9a8b 0080 8289 0000
000000d0: bc89 0080 158b 0000 a08b 0080 008a 0000
000000e0: e997 0000 c68e 0080 d091 0080 978c 0080
000000f0: 3b8a 0080 6897 0000 9897 0080 e988 0000
00000100: f824 e1bc 3862 583c 42bd 63bc 99ca e33c
00000110: eca6 bbbd 5e59 17bd 238b fc3c 8927 36bd
00000120: 2de5 25bd 83fa 6f3b 07ff 0dbc 8360 833e
00000130: c3d2 37bd a70f 38be a160 b1bb 551a e7bc
00000140: d49e 47bd ebd6 1cbc 6a4a 0fbe a683 52bd
00000150: be74 efbc 2583 1bbd ade4 2fbd 57dd 0f3d
00000160: af69 00bd 04c5 4f3b c11e 8abd 234f 82bd
00000170: af12 263b 701a c23c 8144 09bc c52b 41be
00000180: 6e13 4a3c f574 3ebb ea69 49bc b3ec 3f3c
00000190: 6ee9 ec3a 4718 a13c 8447 a7bb 1a9f 9b3c
000001a0: 8491 27bc 7cbd bd3c 7ca9 8fbc 2e95 cc3d
000001b0: 430d 18bc eb36 503d 5311 e037 2586 1eba
000001c0: edfb 17bc 1f31 bcba 2273 b83c 363f e43b
000001d0: 122e ff3b e463 c8ba 3b2e 53bc dde6 5439
000001e0: 768e 3bb8 2e63 42bb 5c49 58bb a008 45bb
000001f0: bdbd 34bc 6389 0c3c 7182 17bc 8d43 323d
