output/clip/FD004/exp_202411022032_bilstm_clip_ep-0041.pth (torch, 288916 bytes, 66 tensors)

module.bi_lstm1.weight_ih_l0 f4 [64, 14]
-0.003706566 0.012916901 -0.0059297453 0.0021980791 -0.009980651 -0.0023927363 0.011074231 0.00425187
-0.01131602 -0.0073054275 -0.010253291 0.0024488005 -0.021750275 -0.011315844 -0.00078374706 -0.0038977999
-0.0065549966 -0.00074231176 0.008321515 0.008505296 -0.010328165 0.0030449175 0.00726612 0.010636818
-0.0005916414 -0.009144906 0.0010769933 0.004853577 -0.07023768 -0.0022245832 -0.09782959 0.21913213
-0.0053612394 0.045537684 -0.10364206 0.21688229 -0.029319156 0.123048104 -0.18844108 -0.098161675
0.21774045 0.1779798 0.09456043 0.07358441 0.07892886 -0.0439295 0.050234493 0.0111210225
0.11398714 -0.026608547 0.05378219 -0.01559341 0.15050836 0.061888848 -0.021866523 -0.000662697
0.03173489 0.0482794 0.002645717 -0.05197347 0.04866676 0.0025361765 0.044734824 -0.053481318
0.051649354 -0.009039062 0.11328188 0.021202957 -0.03582415 -0.008447401 0.036022395 0.040684514
0.009299938 0.08239326 0.07034021 0.030800126 0.04014838 0.065459006 0.10294714 0.06548417
0.09049556 0.023581728 0.03820158 -0.0027996448 0.04533861 0.047906835 0.034151785 0.16783799
0.077559985 0.11434524 0.014930032 0.16163088 0.056108005 0.1536429 -0.05450324 0.029744709
0.1224885 0.08036871 0.0043288036 0.008878433 0.004377821 -0.01146998 -0.00919463 -0.00083435816
0.013497758 -0.00983953 -0.010820137 -0.0061516855 0.012307927 0.00628359 -0.023576789 -0.017918516
-0.042899735 0.032115787 -0.038059823 0.06624447 0.0005282188 0.013761195 -0.025591623 0.05970509
-0.016492786 0.046011012 -0.061618 -0.03311076 0.03577628 0.017578412 0.03255677 0.056763142
0.03867851 0.10246471 0.10436628 0.062271763 0.07729126 0.047197405 0.09224916 0.11659724
0.086747915 0.031041417 0.13255583 0.020639258 0.06142668 0.05190226 0.08320238 0.11489617
0.05998939 0.055822026 0.060234487 0.1496652 0.066422135 0.054176524 0.060919072 0.074902944
0.0059188674 0.06318279 -0.00015968485 -0.00048211604 0.04205228 0.0021044612 0.026197676 0.03194894
-0.023630586 -0.012629829 0.04296405 0.035895407 0.030948149 -0.061232273 0.016382976 0.0027133543
0.047006752 0.059393317 0.037313398 0.035306685 0.046760466 0.03638064 0.050605193 0.041460995
0.040837105 0.0445521 0.06907461 0.0420561 0.044132873 0.048270315 -0.013951368 -0.023741595
-0.046764035 -0.013972378 0.008968803 -0.032032404 -0.032073263 -0.016610548 0.014027768 -0.02334423
0.0404141 -0.03612917 0.030931707 0.014643949 0.07073872 0.046566695 0.023773253 -0.13479388
0.0706731 0.0075615463 0.08325318 -0.12642038 0.08719206 -0.0301214 0.19420664 0.043934252
-0.08310188 -0.056886595 0.046258636 0.03961731 0.037812293 -0.035073847 0.034073774 0.014589477
0.051488068 -0.036638655 0.037473906 -0.005005321 0.107045844 0.028358778 -0.028785298 -0.020336997
-0.0043230182 0.011577653 0.0021712387 0.01411464 -0.011805371 0.0006038023 0.0079664225 0.016070537
-0.011428001 -0.0007688069 -0.006171502 0.00130699 -0.0028067795 0.012922443 -0.0072171516 -0.011184449
-0.013009276 -0.0035313985 0.0042027677 0.00346254 -0.01669526 -0.0011362404 0.0037471612 0.0059493375
-0.007784378 -0.013385624 0.0009954943 -0.0008827998 -0.010094331 -0.0078122537 -0.09718169 0.24601148
00000000: dce9 72bb 69a1 533c 4f4e c2bb a60d 103b
00000010: e285 23bc 74cf 1cbb b170 353c 4553 8b3b
00000020: d466 39bc 5e62 efbb 6bfd 27bc 0e7c 203b
00000030: a22d b2bc 1766 39bc 6074 4dba 3b72 7fbb
00000040: 4ccb d6bb b397 42ba f756 083c cc59 0b3c
00000050: 7737 29bc 3d8d 473b a218 ee3b 0c46 2e3c
00000060: 6218 1bba 84d4 15bc e629 8d3a c10a 9f3b
00000070: c6d8 8fbd 50ca 11bb e15a c8bd 2c64 603e
00000080: 56ad afbb b985 3a3d 4a42 d4bd 6416 5e3e
00000090: ba2e f0bc a500 fc3d b3f6 40be fd08 c9bd
000000a0: 5af7 5e3e 5640 363e e6a8 c13d 6cb3 963d
000000b0: 74a5 a13d 6bef 33bd afc2 4d3d f334 363c
000000c0: 1772 e93d 2bfa d9bc b74a 5c3d 807b 7fbc
000000d0: dd1e 1a3e 297f 7d3d 6c21 b3bc d8b8 2dba
000000e0: 72fc 013d 9fc0 453d c463 2d3b 22e2 54bd
000000f0: cc56 473d fb35 263b dd3b 373d 3a0f 5bbd
00000100: 468e 533d 9318 14bc 5500 e83d d3b1 ad3c
00000110: 58bc 12bd f866 0abc 388c 133d cea4 263d
00000120: c45e 183c ccbd a83d 870e 903d 8c50 fc3c
00000130: a172 243d 5f0f 863d f3d5 d23d 911c 863d
00000140: bc55 b93d 782e c13c 4379 1c3d 3f7a 37bb
00000150: fab4 393d f539 443d bee2 0b3d b9dd 2b3e
00000160: c5d7 9e3d d62d ea3d 189d 743c 9182 253e
00000170: 82d1 653d 9054 1d3e ca3e 5fbd 2dab f33c
00000180: 40db fa3d 5a98 a43d a3d8 8d3b d976 113c
00000190: d373 8f3b 95ec 3bbc 13a5 16bc d4b8 5aba
000001a0: b325 5d3c fb35 21bc f246 31bc 1494 c9bb
000001b0: 30a7 493c 93e6 cd3b 1c24 c1bc dac9 92bc
000001c0: a2b7 2fbd d88b 033d 9ee4 1bbd 2eab 873d
000001d0: 2a78 0a3a a376 613c 86a5 d1bc 538d 743d
000001e0: e11b 87bc 0b76 3c3d 2863 7cbd 269f 07bd
000001f0: 268a 123d 9a00 903c 3f5a 053d 7880 683d
00000200: 5b6d 1e3d 05d9 d13d fdbd d53d ad10 7f3d
00000210: e14a 9e3d 1152 413d 21ed bc3d 89ca ee3d
00000220: e4a8 b13d 924a fe3c b7bc 073e a913 a93c
00000230: 8b9a 7b3d 7797 543d 0266 aa3d af4e eb3d
00000240: 6fb7 753d a3a5 643d 70b8 763d d641 193e
00000250: 5408 883d 34e8 5d3d 4786 793d b766 993d
00000260: 0ff3 c13b fb65 813d 1371 27b9 85c4 fcb9
00000270: 033f 2c3d 00eb 093b 829c d63c e4dc 023d
00000280: ee94 c1bc 58ed 4ebc 12fb 2f3d 1007 133d
00000290: f986 fd3c b1ce 7abd 9735 863c 88d2 313b
000002a0: 278a 403d 6846 733d efd5 183d be9d 103d
000002b0: e787 3f3d de03 153d 6447 4f3d 01d3 293d
000002c0: cf44 273d 437c 363d fd76 8d3d 0443 2c3d
000002d0: acc4 343d 18b7 453d 4794 64bc bc7d c2bc
000002e0: a58b 3fbd 67ec 64bc e3f1 123c 6934 03bd
000002f0: 415f 03bd d812 88bc b9d4 653c 663c bfbc
00000300: 4189 253d 2efc 13bd 7e64 fd3c 2ded 6f3c
00000310: 76df 903d b8bc 3e3d 20c0 c23c 6807 0abe
00000320: 0fbd 903d d9c6 f73b a580 aa3d 5874 01be
00000330: c091 b23d 27c1 f6bc 1bde 463e 67f4 333d
00000340: 5231 aabd eb01 69bd b279 3d3d c345 223d
00000350: 10e1 1a3d 98a9 0fbd f190 0b3d b408 6f3c
00000360: 27e5 523d 6a12 16bd 3d7e 193d ad03 a4bb
00000370: da3a db3d ab50 e83c 25cf ebbc c699 a6bc
00000380: 1ba8 8dbb 32b0 3d3c 574b 0e3b 1741 673c
00000390: 516b 41bc 7d48 1e3a 9985 023c 5ca6 833c
000003a0: 833c 3bbc c289 49ba 503a cabb 4f4f ab3a
000003b0: f2f1 37bb a8b8 533c db7d ecbb fb3e 37bc
000003c0: dc24 55bc 096f 67bb 5fb7 893b c8eb 623b
000003d0: 7fc4 88bc e7ed 94ba ef92 753b a9f2 c23b
000003e0: 1814 ffbb 604f 5bbc 3f7b 823a b16b 67ba
000003f0: b162 25bc effd ffbb 3207 c7bd 6fea 7b3e

module.bi_lstm1.weight_hh_l0 f4 [64, 16]
-0.0019062345 -0.0014055098 -0.0009960888 0.00012118845 -0.00037386274 0.0043963366 0.0069293296 -0.001001301
-0.0045039593 0.0017390597 0.020220026 0.0021203856 -0.0021170173 -0.00740808 0.0020565672 -0.00039292342
0.001027335 0.00076605636 -0.006527053 0.0011661559 -0.00089090405 0.0009516556 0.006898467 0.00078679086
0.0044374354 -0.0025581454 -0.0047599385 -0.0023818105 -0.0013268387 0.0027013586 -0.00390812 -0.0025559296
0.010739354 -0.0055316333 -0.1271994 0.04579527 -0.025760708 0.06616368 0.13793664 -0.0032493437
0.042563315 -0.08457433 0.0018871368 -0.031478 -0.005061051 0.00848361 -0.051577464 -0.052123968
-0.0025437481 -0.00013557584 0.04199159 -0.03059423 0.012881427 -0.0012802125 -0.043148056 0.0066558495
-0.01584443 -0.0011809965 0.010921236 -0.006040111 -0.0031872268 0.010405074 0.026856124 0.0189818
0.0025827228 0.010647072 0.024920536 -0.01677638 0.0031644853 -0.018098531 -0.031894777 0.0064036925
-0.008236161 0.015736738 -0.01685749 0.0024428098 0.011380912 0.006828538 0.016124222 0.009573835
0.008603906 -0.02369571 0.0008730462 0.008688568 0.011781228 0.03036199 0.05832052 0.0017330941
0.01400669 -0.021357145 0.09597878 0.022246089 -0.044304952 -0.02265254 0.015337613 0.01697732
0.0042019873 -0.018216573 -0.06949407 0.015675507 0.00520486 0.037827697 0.06774443 0.00125405
0.017250115 -0.04208906 0.02903531 -0.017819876 -0.03243074 -0.005593204 0.00026924495 0.0014883336
0.0011029288 0.004151344 0.0046827793 -0.003215456 0.0020316276 -0.018205984 -0.0074476823 0.0010296344
-0.0024484692 0.019815331 -0.011470589 0.0060070255 0.003315678 -0.0041764043 0.00443231 0.0028303687
-0.000927157 -0.0048843506 -0.03857876 0.00018938266 -0.002567389 0.045587182 0.044475306 -0.0007634967
0.0068846694 -0.05048588 0.024680782 -0.021538 -0.011023574 0.0077314945 -0.00054204214 -0.011688934
0.007464076 -0.0057229996 -0.0056239376 0.005854209 -0.004309999 0.015317534 0.040069934 -0.004987443
0.02175774 -0.031036204 0.049960166 3.3588505e-05 -0.02311194 0.010546637 -0.0016577402 -0.0022738862
-0.0115732495 -0.031429015 -0.052010786 -0.0058084344 0.029718118 0.0798355 0.11224936 0.005225368
0.01090406 -0.06824795 0.11229131 -0.03548376 -0.081761986 -0.014563971 0.014890761 0.009118708
0.010281625 -0.0005440553 0.0076814285 0.003095144 -0.003444966 -0.06536932 -0.014668382 -0.0063874214
0.01255208 0.063451976 -0.05267597 0.02066304 0.011258663 0.0014570673 0.0018555232 0.0049807476
0.0028333748 0.00366877 -0.011074315 -0.0008046202 0.00028794643 0.01130835 0.0037050385 0.0030666278
0.0023079417 -0.018765384 -0.009295768 -0.0065897685 0.006166665 0.0092817005 0.003613056 0.0007386584
0.0035341396 0.008507043 0.02385771 0.005423875 -0.018255232 -0.050233614 -0.023695031 0.00022322255
-0.0015189269 0.04554636 -0.045007885 0.009454091 0.02889418 -0.0029387036 -0.01342419 -0.009216073
-0.003175801 0.009589372 0.07061223 -0.02109555 0.010655877 -0.07093491 -0.079406284 0.0064968676
-0.025242832 0.08096444 -0.006997358 0.022637656 0.012031101 -0.0077053662 0.02604263 0.028637584
0.0014760633 0.008854449 0.02240767 -0.011385158 0.0023243101 -0.009231006 -0.024244292 0.0026863208
-0.0003640247 0.010892364 -0.012324597 -0.0019213267 0.006305924 0.011009038 0.006547506 0.004079388
00000000: 9eda f9ba 1539 b8ba 328f 82ba 8e26 fe38
00000010: 0203 c4b9 250f 903b 6e0f e33b 163e 83ba
00000020: f395 93bb 29f1 e33a 78a4 a53c 2bf6 0a3b
00000030: a8bd 0abb 7bbf f2bb 79c7 063b 4a01 ceb9
00000040: a4a7 863a 2cd1 483a e4e0 d5bb b3d9 983a
00000050: 8f8b 69ba 8778 793a 890c e23b a440 4e3a
00000060: e867 913b 8fa6 27bb 42f9 9bbb 2618 1cbb
00000070: 52e9 adba 4709 313b b00f 80bb 6281 27bb
00000080: 1ef4 2f3c b442 b5bb 8f40 02be d293 3b3d
00000090: 1f08 d3bc d380 873d 433f 0d3e f1f2 54bb
000000a0: df56 2e3d 4e35 adbd ce59 f73a 13ef 00bd
000000b0: 2cd7 a5bb d7fe 0a3c e442 53bd f17f 55bd
000000c0: 03b5 26bb 5d29 0eb9 60ff 2b3d c0a0 fabc
000000d0: 9f0c 533c cecc a7ba 04bc 30bd 5019 da3b
000000e0: 2ecc 81bc abcb 9aba fcee 323c 20ec c5bb
000000f0: cbe0 50bb 0b7a 2a3c 6001 dc3c b87f 9b3c
00000100: e642 293b 0f71 2e3c 2726 cc3c 9e6e 89bc
00000110: 4163 4f3b 5f43 94bc 19a4 02bd 11d6 d13b
00000120: f7f0 06bc 55ea 803c b818 8abc 8c17 203b
00000130: 0177 3a3c eec1 df3b f216 843c 93db 1c3c
00000140: 66f7 0c3c 811d c2bc 24dd 643a 7f5a 0e3c
00000150: 0d06 413c b5b9 f83c 7fe1 6e3d fd28 e33a
00000160: 517c 653c 2ef5 aebc 8690 c43d 6e3d b63c
00000170: 1c79 35bd d291 b9bc 9d4a 7b3c 0514 8b3c
00000180: d3b0 893b ec3a 95bc e852 8ebd ec69 803c
00000190: 888d aa3b 37f1 1a3d 97bd 8a3d ef5e a43a
000001a0: 1d50 8d3c 9465 2cbd 75db ed3c fdfa 91bc
000001b0: 18d6 04bd 3247 b7bb 7229 8d39 3014 c33a
000001c0: 2690 903a ff07 883b 0072 993b 66ba 52bb
000001d0: 0e25 053b b724 95bc b00b f4bb ccf4 863a
000001e0: 7f76 20bb c353 a23c 23ef 3bbc 95d6 c43b
000001f0: d94b 593b 38da 88bb e93c 913b b57d 393b
00000200: 740c 73ba e70c a0bb c304 1ebd 0595 4639
00000210: a441 28bb a0b9 3a3d bd2b 363d 6525 48ba
00000220: cb98 e13b 48ca 4ebd 5a2f ca3c 7670 b0bc
00000230: 389c 34bc 7a58 fd3b d517 0eba f182 3fbc
00000240: 3595 f43b 0088 bbbb 0249 b8bb aad4 bf3b
00000250: e43a 8dbb 65f6 7a3c 5f20 243d b46d a3bb
00000260: 4a3d b23c a33f febc 08a3 4c3d 62e1 0c38
00000270: 4055 bdbc cdcb 2c3c 8848 d9ba 7b05 15bb
00000280: ba9d 3dbc b6bb 00bd 4309 55bd ae54 bebb
00000290: 6973 f33c cb80 a33d fee2 e53d 9039 ab3b
000002a0: f1a6 323c 95c5 8bbd fdf8 e53d 6b57 11bd
000002b0: d472 a7bd b99d 6ebc 61f8 733c a266 153c
000002c0: 4374 283c ef9e 0eba 7eb4 fb3b e6d7 4a3b
000002d0: f0c4 61bb 5ae0 85bd a753 70bc 934d d1bb
000002e0: 3da7 4d3c 1cf3 813d c2c2 57bd 8945 a93c
000002f0: 4176 383c 11fb be3a 0735 f33a 8a35 a33b
00000300: 24b0 393b bf6f 703b 0b71 35bc 26ed 52ba
00000310: 84f7 9639 a846 393c 3bd0 723b 7af9 483b
00000320: d640 173b ddb9 99bc 474d 18bc fcee d7bb
00000330: bc11 ca3b 4612 183c 05c9 6c3b 87a2 413a
00000340: 069d 673b 2061 0b3c 3f71 c33c c3ba b13b
00000350: ff8b 95bc c3c1 4dbd 151c c2bc d910 6a39
00000360: bb16 c7ba d28e 3a3d 305a 38bd 55e5 1a3c
00000370: 7db3 ec3c 4497 40bb 22f1 5bbc 03ff 16bc
00000380: 1921 50bb be1c 1d3c 259d 903d 93d0 acbc
00000390: fd95 2e3c 5246 91bd c39f a2bd ade3 d43b
000003a0: 0eca cebc afd0 a53d 184a e5bb 9b72 b93c
000003b0: 181e 453c 4c7d fcbb 5b57 d53c 5e99 ea3c
000003c0: 7778 c13a 4012 113c 4a90 b73c d088 3abc
000003d0: 7453 183b a53d 17bc f79b c6bc fc0c 303b
000003e0: 91da beb9 e375 323c 1bed 49bc 07d5 fbba
000003f0: eda1 ce3b 415f 343c 768c d63b 63ac 853b

module.bi_lstm1.bias_ih_l0 f4 [64]
-0.03849398 0.0065775355 0.12802441 0.058394752 0.06799546 0.046018966 0.10748886 -0.01476615
0.019185424 0.1754346 -0.011358778 -5.4071923e-05 0.10768514 0.04567303 -0.005239189 0.025262848
-0.014256675 -0.0028495404 0.1028499 0.07738964 0.0031493064 0.15407382 -0.030879773 -0.027819378
0.0228395 0.14850605 0.07445532 -0.027793024 0.015958574 -0.031101307 -0.017495304 0.020709984
0.05140736 0.057576552 0.15903325 -0.07720216 -0.16961582 0.0021172385 -0.006770387 0.06604278
0.040674713 -0.032129474 0.07683112 -0.032387614 0.16565198 0.12282941 -0.036895435 -0.11985654
-0.032072827 0.006526428 0.14353938 0.054185364 0.031642385 0.11338947 0.11696508 -0.014486996
-0.0058254334 0.07010485 0.023878222 0.037037347 0.10630553 0.035706203 0.0021855203 0.029414931
00000000: ddab 1dbd 5e88 d73b d518 033e 562f 6f3d
00000010: 3441 8b3d 627e 3c3d 1f23 dc3d b9ed 71bc
00000020: c02a 9d3c 21a5 333e 2b1a 3abc 49cb 62b8
00000030: 078a dc3d a513 3b3d 81ad abbb 08f4 ce3c
00000040: d494 69bc 5bbf 3abb f8a2 d23d 767e 9e3d
00000050: 9864 4e3b 87c5 1d3e 94f7 fcbc 77e5 e3bc
00000060: e719 bb3c f811 183e 087c 983d 32ae e3bc
00000070: 8ebb 823c 2bc8 febc 5052 8fbc fca7 a93c
00000080: 8690 523d 64d5 6b3d 9dd9 223e 2b1c 9ebd
00000090: c5af 2dbe 5ec1 0a3b 1fda ddbb 7041 873d
000000a0: 879a 263d 329a 03bd a259 9d3d e0a8 04bd
000000b0: aca0 293e fc8d fb3d ab1f 17bd 5877 f5bd
000000c0: cc5e 03bd a5db d53b fdfb 123e 79f1 5d3d
000000d0: 729b 013d bd38 e83d 638b ef3d de5a 6dbc
000000e0: 47e3 bebb 2293 8f3d 439c c33c 79b4 173d
000000f0: b7b6 d93d ab40 123d f23a 0f3b 95f7 f03c

module.bi_lstm1.bias_hh_l0 f4 [64]
-0.028888233 0.0065774648 0.1578573 0.07090915 0.051234134 -0.048254907 0.10759828 -0.015039419
0.016833233 0.16051205 0.00717979 0.047413144 0.10479213 0.045561988 -0.003291104 0.025684675
-0.0115247825 -0.0028495656 0.11597258 0.06730589 0.014614852 0.16197647 -0.030780096 -0.027822003
0.02683046 0.06167699 0.14612032 -0.011070354 0.025341282 -0.031470265 0.0007283353 0.020357665
0.05026835 0.1333804 0.13206449 0.066240765 -0.18063176 0.07666419 -0.037099883 -0.016445845
-0.09066194 -0.119519025 -0.10052484 -0.09978321 0.17361468 0.13823724 -0.19901848 -0.093567565
-0.02776185 0.0065262327 0.15804565 0.0759312 0.012345839 0.048207223 0.11649204 -0.014283174
-0.034053165 0.07440506 -0.020430746 0.004506194 0.109546125 0.036732387 0.010987649 0.029419193
00000000: 04a7 ecbc c687 d73b 58a5 213e d138 913d
00000010: e2da 513d f0a6 45bd 7d5c dc3d e567 76bc
00000020: d9e5 893c 455d 243e 7244 eb3b 4934 423d
00000030: 429d d63d 359f 3a3d 90af 57bb ab68 d23c
00000040: 71d2 3cbc c7bf 3abb 0883 ed3d acd7 893d
00000050: 2273 6f3c 29dd 253e 8a26 fcbc f8ea e3bc
00000060: 8ecb db3c 03a1 7c3d 91a0 153e 6e60 35bc
00000070: 8598 cf3c f7e6 00bd c1ed 3e3a 1ec5 a63c
00000080: 2fe6 4d3d df94 083e ea3b 073e 3da9 873d
00000090: 88f7 38be 1d02 9d3d 0cf6 17bd 70b9 86bc
000000a0: f8ac b9bd 64c6 f4bd f8df cdbd 245b ccbd
000000b0: 0cc8 313e 108e 0d3e 80cb 4bbe 5aa0 bfbd
000000c0: d26c e3bc 02da d53b b8d6 213e d181 9b3d
000000d0: 3446 4a3c f074 453d 6193 ee3d f903 6abc
000000e0: 557b 0bbd ae61 983d 615e a7bc b2a8 933b
000000f0: b859 e03d b374 163d 8a05 343c 8500 f13c

module.bi_lstm1.weight_ih_l0_reverse f4 [64, 14]
-0.025326222 -0.05604674 -0.054815076 -0.021300903 -0.025983432 -0.06133247 -0.08202663 -0.018931253
-0.020762982 -0.027501328 0.086705714 -0.06672416 -0.006232051 0.05192346 0.016200988 -0.0026083016
0.014970731 -0.014260675 0.00072945934 -0.009129148 0.007914435 -0.019494433 0.00016768099 -0.008658766
0.023756342 0.00043274573 -0.010723836 -0.014807217 0.11914875 0.101654686 0.11388264 -0.046073873
0.082957715 0.029097505 0.11313832 -0.05079842 0.0994538 -0.0007135579 0.09633021 0.0813462
-0.032858 0.015027173 -0.035470977 0.01955817 -0.12423483 0.34309143 -0.008834306 0.15303959
-0.08037528 0.25205433 -0.03648119 0.15971342 -0.26458493 0.018733421 0.20189421 0.14043188
0.04565452 0.014787353 0.021394234 0.02701567 0.038838055 0.0043322966 -0.019021196 0.017007804
0.041496582 0.016071562 0.05436143 0.014557517 0.02276882 0.045562312 0.1941193 0.06728873
0.020542284 -0.013981786 -0.12847705 -0.249061 0.13675313 -0.0493318 -0.1763383 -0.2763909
0.16800725 0.034483057 0.08601838 0.10602152 0.28831476 0.21929812 0.30353576 -0.36723623
0.16805334 -0.3706803 0.38817373 -0.4675865 0.23589338 -0.52484244 0.53035676 0.23965384
-0.29816693 -0.06351273 0.010181037 0.008801927 -0.0050948313 0.020498224 0.008546431 -0.029837146
-0.011891342 0.030914867 0.008321607 -0.017508645 0.0045595453 0.0141807515 0.028992394 0.06346205
0.09276619 0.10348978 0.09333765 -0.024721626 0.061927527 0.03198629 0.064576715 -0.032692663
0.07782236 0.02281156 0.16147204 0.048346877 0.024592828 0.023895528 0.018386181 0.012762669
0.020156894 0.023193954 -0.0013504467 0.05117025 0.013132378 0.1338636 0.06297457 0.08081667
-0.10578631 0.015973637 -0.045560673 -0.06481693 -0.07349643 0.02957492 -0.05694012 -0.10202606
-0.015092285 -0.11173552 -0.094769776 -0.083064586 0.011157219 -0.11245921 -0.14862576 -0.027320277
-0.053915143 -0.07602131 0.057150472 0.15220825 0.09472764 0.0973364 0.083899215 -0.072571434
0.13616274 0.0884719 0.09011125 -0.07897076 -0.03035742 0.11323205 -0.011625118 0.051607672
0.14270279 0.14286694 0.09918895 -0.051590655 0.14815713 0.012201179 0.15876059 -0.10108334
0.16966447 -0.037387658 0.10787624 0.09637478 -0.056235682 -0.03542556 -0.022592489 -0.01186353
-0.020499764 0.021373378 -0.04802884 0.073440686 -0.04443756 0.028707072 -0.05476196 0.103242144
-0.062334348 -0.042196702 -0.026650932 -0.051839642 0.066896066 0.083472446 0.058906708 0.04664678
0.00023497833 0.0074548307 0.066256285 0.034453023 0.0049291635 0.008093153 0.11508364 0.022199007
0.074336775 0.061598767 0.020113997 0.012027233 0.08980325 0.09659897 0.06434227 0.098642
-0.0017757523 0.07927044 0.06417345 0.102994435 0.012861439 0.06306711 0.07859657 -0.019106373
0.14486647 0.09099014 0.12198285 0.057417534 0.100895785 0.04583563 0.09706277 0.041268174
0.08489208 0.057676855 0.18695553 0.11204958 0.13155651 0.13584916 0.036617592 0.026128186
0.033728767 -0.0022621006 0.019588204 0.0049377037 0.034199193 -0.007909109 0.019275459 0.0032420459
0.04606928 0.023901172 0.008652847 0.006822246 0.05285661 0.053465005 0.07519833 -0.06614243
00000000: f078 cfbc 4491 65bd c685 60bd 3b7f aebc
00000010: 35db d4bc c237 7bbd 94fd a7bd b715 9bbc
00000020: 2117 aabc 774a e1bc c492 b13d ada6 88bd
00000030: 3c36 ccbb b2ad 543d efb7 843c 0af0 2abb
00000040: cc47 753c 9ba5 69bc 3039 3f3a 6c92 15bc
00000050: 8cab 013c cab2 9fbc 86d3 2f39 7fdd 0dbc
00000060: a99c c23c 26e2 e239 07b3 2fbc f899 72bc
00000070: 4304 f43d 5530 d03d 4d3b e93d f5b7 3cbd
00000080: bce5 a93d e45d ee3c 10b5 e73d 0112 50bd
00000090: 6fae cb3d 0f0e 3bba c648 c53d d698 a63d
000000a0: 1c96 06bd 8834 763c 044a 11bd 7538 a03c
000000b0: d56e febd aea9 af3e c4bd 10bc 69b6 1c3e
000000c0: cb9b a4bd 440d 813e 4d6d 15bd ea8b 233e
000000d0: ad77 87be d576 993c 5bbd 4e3e 60cd 0f3e
000000e0: 3c00 3b3d a746 723c f642 af3c f74f dd3c
000000f0: a714 1f3d f0f5 8d3b 57d2 9bbc f353 8b3c
00000100: 52f8 293d 82a8 833c 17aa 5e3d a782 6e3c
00000110: ad85 ba3c 8c9f 3a3d 36c7 463e acce 893d
00000120: 4b48 a83c dc13 65bc 7d8f 03be d909 7fbe
00000130: 0309 0c3e 2410 4abd 0792 34be 1c83 8dbe
00000140: 180a 2c3e 1b3e 0d3d 682a b03d d021 d93d
00000150: fe9d 933e b08f 603e 0a69 9b3e 6306 bcbe
00000160: 2d16 2c3e cfc9 bdbe b5be c63e 7f67 efbe
00000170: 098e 713e 135c 06bf 76c5 073f d167 753e
00000180: 56a9 98be f612 82bd 5dce 263c f535 103c
00000190: 8bf2 a6bb e4eb a73c 5406 0c3c 086d f4bc
000001a0: e7d3 42bc 2d41 fd3c 5957 083c 4a6e 8fbc
000001b0: 3d68 953b 6256 683c 7581 ed3c 64f8 813d
000001c0: 33fc bd3d 73f2 d33d cf27 bf3d 0285 cabc
000001d0: b8a7 7d3d 0e04 033d cc40 843d bee8 05bd
000001e0: 5461 9f3d 4fdf ba3c ed58 253e 6007 463d
000001f0: e676 c93c 8ec0 c33c 9e9e 963c 831a 513c
00000200: 1220 a53c 3f01 be3c 7901 b1ba e597 513d
00000210: 3029 573c 8a13 093e d0f8 803d 3683 a53d
00000220: 7ea6 d8bd 25db 823c d49d 3abd bdbe 84bd
00000230: 4c85 96bd 1a47 f23c 0b3a 69bd 0af3 d0bd
00000240: a245 77bc 98d5 e4bd a816 c2bd c41d aabd
00000250: c5cc 363c 0451 e6bd 5a31 18be c6ce dfbc
00000260: 20d6 5cbd 10b1 9bbd 9d16 6a3d 7bdc 1b3e
00000270: 9100 c23d 4e58 c73d 5ad3 ab3d 55a0 94bd
00000280: 3f6e 0b3e c130 b53d 3f8c b83d 6cbb a1bd
00000290: 20b0 f8bc 34e6 e73d 4777 3ebc 9162 533d
000002a0: ae20 123e b64b 123e 9423 cb3d b950 53bd
000002b0: 81b6 173e 74e7 473c 2392 223e c804 cfbd
000002c0: 86bc 2d3e cd23 19bd 38ee dc3d 2460 c53d
000002d0: 6357 66bd 641a 11bd e213 b9bc 405f 42bc
000002e0: 1fef a7bc 3917 af3c e4b9 44bd 1268 963d
000002f0: 2904 36bd 182b eb3c 144e 60bd 9e70 d33d
00000300: 4d52 7fbd 73d6 2cbd 0e53 dabc ce55 54bd
00000310: ce00 893d 9af3 aa3d 2948 713d b210 3f3d
00000320: 8464 7639 a747 f43b 60b1 873d 9d1e 0d3d
00000330: d284 a13b 2599 043c f9b0 eb3d b1da b53c
00000340: e13d 983d fd4e 7c3d 1cc6 a43c df0d 453c
00000350: c4ea b73d aed5 c53d e1c5 833d d104 ca3d
00000360: 5cc0 e8ba 8a58 a23d 5f6d 833d bfee d23d
00000370: c9b8 523c 5429 813d 3df7 a03d f884 9cbc
00000380: e057 143e 0a59 ba3d 25d2 f93d a62e 6b3d
00000390: 73a2 ce3d 24be 3b3d d8c8 c63d d108 293d
000003a0: e6db ad3d 913e 6c3d 4571 3f3e 407a e53d
000003b0: c0b6 063e 0b1c 0b3e 54fc 153d c70a d63c
000003c0: 2d27 0a3d c03f 14bb 7177 a03c 76cc a13b
000003d0: 7414 0c3d 3595 01bc 91e7 9d3c 8178 543b
000003e0: 24b3 3c3d 64cc c33c acc4 0d3c 268d df3b
000003f0: 2c80 583d 1ffe 5a3d 9501 9a3d af75 87bd

module.bi_lstm1.weight_hh_l0_reverse f4 [64, 16]
-0.03160959 -0.0054716934 0.024050942 -0.036511067 0.0067199427 0.047807693 -0.049890716 0.029060885
-0.021106025 -0.07457782 -0.02586598 -0.12825549 0.0038315274 -0.019958012 -0.017450508 0.0491998
0.019009367 -0.012025898 -0.018027116 0.008644183 0.013544277 0.056203965 0.019918416 0.012175277
0.021508396 -0.016224988 -0.006384864 -0.047859862 -0.005938949 -0.002079762 -0.008242998 0.02397414
0.01654359 0.008039123 -0.04481858 0.06250164 -4.5043318e-05 -0.014840177 0.07832287 0.024018882
0.032493904 0.004517941 -0.018139338 -0.01840228 -0.021359798 -0.053751502 0.0009904804 0.0134921605
-0.18751843 -0.0245442 0.19481151 -0.052647885 -0.08172536 0.28207025 -0.09366144 -0.038997024
-0.1808716 -0.43759748 0.16900611 -0.17373244 0.05992712 0.19483824 -0.11898598 -0.05539894
-0.015873272 -0.008500056 -0.0066275094 -0.004431999 0.010636459 0.03622992 -0.007971966 0.016563186
0.0076198275 -0.038125005 -0.023995396 -0.080289245 -0.010044225 -0.023823788 -0.010217385 0.033520408
0.00024037676 0.056408543 0.048490815 0.045660138 0.008496438 -0.0072321 -0.062733375 0.039780486
-0.062003776 0.06100214 -0.057361893 0.09768082 0.036803745 0.11504887 0.05830271 -0.03854324
-0.050984144 0.08190756 -0.036070637 0.41237104 -0.07368241 0.15038998 0.33256742 0.024983438
-0.038016096 0.038144115 0.073902436 0.05192932 -0.02825455 0.13545056 0.027872717 -0.15424521
0.0063597215 -0.012259172 0.0027924941 0.007757512 0.012486911 -0.009946871 -0.024135292 0.01395573
-5.7492878e-05 0.0017705882 -0.03189316 -0.050387017 0.00566035 -0.01730715 -0.0056960667 0.026283478
0.015797906 0.007111101 -0.03548094 0.032084282 0.008997888 0.00094185345 0.023008667 0.028962309
0.030052876 -0.012704939 -0.010884552 -0.055220783 -0.021553189 -0.039014418 0.0016348397 0.031097574
-0.13133447 0.12254301 0.034601472 0.0042319526 -0.047395967 0.034580544 -0.09268747 -0.015192801
-0.12075703 0.017272038 0.002232886 0.2256682 0.073087804 0.113015674 -0.029049404 -0.12441966
0.0847937 -0.011153778 -0.046159044 0.06107043 0.102933094 0.02514361 -0.04960068 0.06687529
0.03941939 -0.025411902 -0.01541161 -0.05043418 -0.0035653198 0.03351213 0.051519055 0.061545607
0.0264688 0.04746199 -0.04789465 -0.09988362 0.043649387 0.24473901 0.05164455 0.04946935
0.078857094 -0.21511608 0.11351169 -0.042795654 -0.12034679 0.09163984 0.093780294 0.04531106
0.0010117614 0.008212815 -0.0076319114 0.03082413 0.000210724 0.080904685 -0.0078938 0.018113466
0.0040048826 -0.15385498 0.057167284 -0.037423305 -0.03214743 0.016506828 0.023190804 -0.0036227037
0.14039697 -0.015792469 -0.12550968 -0.12881772 0.12508596 0.21103565 0.12886412 0.09936834
0.17184515 -0.2343141 0.019446561 -0.23037024 -0.12732771 0.06704162 0.06901181 0.17617826
-0.015468842 -0.01268663 -0.0032542483 0.0037631348 0.0010251459 0.010360236 0.016473899 0.009162265
0.00059590564 -0.06305388 0.0030830938 -0.050032604 -0.008813358 -0.019904481 -0.0080292085 0.00723965
0.017273879 0.0016026801 -0.04365912 -0.0545983 0.03361217 0.057171084 0.03038432 0.02779669
0.057826273 -0.09157209 0.0032062002 -0.08174901 -0.04497424 -0.0102830315 0.014409948 0.056888103
00000000: 0f79 01bd e44b b3bb 7b06 c53c a18c 15bd
00000010: f732 dc3b 00d2 433d 355a 4cbd 1811 ee3c
00000020: 8be6 acbc 42bc 98bd e4e4 d3bc 6855 03be
00000030: 5d1a 7b3b fc7e a3bc 5ef4 8ebc bb85 493d
00000040: 88b9 9b3c 4608 45bc 9aad 93bc 55a0 0d3c
00000050: d1e8 5d3c 2136 663d f22b a33c d07a 473c
00000060: 6032 b03c 44ea 84bc 1f38 d1bb b408 44bd
00000070: 849b c2bb 9e4c 08bb a40d 07bc 6a65 c43c
00000080: 6c86 873c 87b6 033c b093 37bd dc00 803d
00000090: e5ec 3cb8 3724 73bc be67 a03d 3fc3 c43c
000000a0: 5418 053d 3c0b 943b f398 94bc 61c0 96bc
000000b0: befa aebc 892a 5cbd 02d3 813a 390e 5d3c
000000c0: d504 40be eb10 c9bc ab7c 473e 4fa5 57bd
000000d0: a05f a7bd 836b 903e 92d1 bfbd 58bb 1fbd
000000e0: 6836 39be c70c e0be f00f 2d3e ebe6 31be
000000f0: 2476 753d ad83 473e ecae f3bd 00ea 62bd
00000100: aa08 82bc d243 0bbc 942b d9bb 4d3a 91bb
00000110: 8b44 2e3c d365 143d d99c 02bc 85af 873c
00000120: bfaf f93b f728 1cbd fe91 c4bc b06e a4bd
00000130: 8890 24bc 1b2a c3bc d266 27bc b24c 093d
00000140: a50d 7c39 a50c 673d 4e9e 463d 2006 3b3d
00000150: a534 0b3c 40fb ecbb 5b7a 80bd ddf0 223d
00000160: acf7 7dbd 61dd 793d 4ef4 6abd e20c c83d
00000170: 86bf 163d be9e eb3d d3ce 6e3d 84df 1dbd
00000180: c0d4 50bd 27bf a73d cebe 13bd 4c22 d33e
00000190: cee6 96bd d5ff 193e 4746 aa3e 11aa cc3c
000001a0: c4b6 1bbd 013d 1c3d 295a 973d d7b3 543d
000001b0: 1676 e7bc 8db3 0a3e 5355 e43c 75f2 1dbe
000001c0: 3665 d03b b2da 48bc 4702 373b ba32 fe3b
000001d0: e795 4c3c 33f8 22bc 60b7 c5bc 93a6 643c
000001e0: 8224 71b8 1513 e83a 67a2 02bd 9e62 4ebd
000001f0: 757a b93b b9c7 8dbc 12a6 babb 7350 d73c
00000200: 9c6a 813c 3d04 e93b 7654 11bd cf6a 033d
00000210: e16b 133c b7e6 763a ac7c bc3c 5d42 ed3c
00000220: 7331 f63c 6028 50bc 1f55 32bc 302f 62bd
00000230: 5090 b0bc 95cd 1fbd 1e48 d63a 57c0 fe3c
00000240: 8b7c 06be d4f7 fa3d 46ba 0d3d 31ac 8a3b
00000250: 4622 42bd 54a4 0d3d eed2 bdbd 3aeb 78bc
00000260: 764f f7bd 177e 8d3c 9c55 123b 9115 673e
00000270: 0faf 953d c374 e73d 04f9 edbc bccf febd
00000280: 52a8 ad3d 56be 36bc 4411 3dbd fd24 7a3d
00000290: 96ce d23d f9f9 cd3c 152a 4bbd e9f5 883d
000002a0: 3a76 213d 9f2c d0bc fa80 7cbc 1294 4ebd
000002b0: 24a8 69bb 0444 093d a505 533d 3f17 7c3d
000002c0: 19d5 d83c 8167 423d 2e2d 44bd c98f ccbd
000002d0: b3c9 323d dd9c 7a3e 3c89 533d 60a0 4a3d
000002e0: d47f a13d 6447 5cbe d178 e83d 7f4a 2fbd
000002f0: 6178 f6bd abad bb3d e20f c03d 1798 393d
00000300: 149d 843a 0b8f 063c 1d15 fabb e382 fc3c
00000310: cbf5 5c39 5bb1 a53d ff54 01bc b162 943c
00000320: 643b 833b 298c 1dbe 3e28 6a3d 2e49 19bd
00000330: 06ad 03bd 5439 873c a4fa bd3c e26a 6dbb
00000340: 39c4 0f3e 355f 81bc 9c85 00be cbe8 03be
00000350: 8916 003e bb19 583e f5f4 033e a181 cb3d
00000360: 2df8 2f3e 09f0 6fbe 654e 9f3c 2de6 6bbe
00000370: 3262 02be 1e4d 893d 1056 8d3d 1368 343e
00000380: 0771 7dbc 95db 4fbc 3a45 55bb ed9e 763b
00000390: 305e 863a fbbd 293c 45f4 863c 531d 163c
000003a0: 8d36 1c3a 6522 81bd bb0d 4a3b fdee 4cbd
000003b0: e765 10bc b90e a3bc f18c 03bc 963a ed3b
000003c0: f381 8d3c 0511 d23a e8d3 32bd 78a2 5fbd
000003d0: eaac 093d 3a2c 6a3d 8ae8 f83c e2b5 e33c
000003e0: 3edb 6c3d 268a bbbd 1d1f 523b 066c a7bd
000003f0: e936 38bd 297a 28bc b417 6c3c 8003 693d

module.bi_lstm1.bias_ih_l0_reverse f4 [64]
0.099610515 0.010128193 0.07660179 0.037070043 0.089986764 0.118232936 0.11482668 0.05104567
0.06571532 0.07684263 0.07761406 0.03269922 0.073611796 -0.052220795 0.13140859 0.0767658
0.2463491 0.03994804 -0.060792677 0.23654737 0.07786154 0.21565156 0.05565225 0.06245385
0.035804905 0.2589744 -0.061113644 -0.016551197 -0.027576992 0.07630093 0.014481136 0.16236512
-0.14982866 0.06567495 0.11417084 0.16794077 -0.04023989 -0.17604503 -0.19021484 0.072171144
-0.30327886 0.13864966 -0.27798632 0.01623825 0.20972079 0.013050308 -0.23184283 0.050797835
0.15466127 0.012737072 0.110401355 0.28219184 0.12442862 0.03929184 0.086372755 0.020633526
0.07246507 0.09452621 0.11288374 0.048889797 0.06451039 -0.009802596 0.16409819 0.0789758
00000000: 9900 cc3d b8f0 253c 66e1 9c3d c2d6 173d
00000010: fb4a b83d 1c24 f23d 402a eb3d 4415 513d
00000020: c195 863d ab5f 9d3d 1ff4 9e3d 9eef 053d
00000030: c8c1 963d 79e5 55bd f98f 063e 6337 9d3d
00000040: f042 7c3e 8ea0 233d be01 79bd 7939 723e
00000050: df75 9f3d c3d3 5c3e 9df3 633d 9ccf 7f3d
00000060: 2aa8 123d 4b98 843e 4d52 7abd 6096 87bc
00000070: 25e9 e1bc a943 9c3d 4942 6d3c 0b43 263e
00000080: af6c 19be 9780 863d 67d2 e93d aaf8 2b3e
00000090: 95d2 24bd 2645 34be aec7 42be 77ce 933d
000000a0: 5e47 9bbe 2dfa 0d3e 3954 8ebe 1406 853c
000000b0: 0cc1 563e f6d0 553c 3568 6dbe 6411 503d
000000c0: 865f 1e3e 27af 503c 1b1a e23d 737b 903e
000000d0: 6fd4 fe3d 7bf0 203d 33e4 b03d a407 a93c
000000e0: 9168 943d f596 c13d 972f e73d ab40 483d
000000f0: 061e 843d 119b 20bc 5b09 283e 10be a13d

module.bi_lstm1.bias_hh_l0_reverse f4 [64]
0.10797411 0.010233893 0.057572216 0.012908028 0.07785751 0.11479413 0.08136386 0.058556996
0.13253707 0.08590131 0.026788978 0.0029821992 0.05759608 -0.049189497 0.1500455 -0.027123135
0.2641117 0.037276205 -0.027770761 0.27303398 0.039084878 0.18267886 0.055737607 0.06610857
0.07619078 0.3169079 0.1142018 0.022203933 -0.02772197 0.07631961 0.07776619 0.03135331
-0.09391671 -0.11929786 0.0665567 0.10476642 0.0727355 -0.10027369 -0.0988901 0.08431674
-0.030921806 0.23358433 -0.25148398 0.0656652 0.14959233 -0.026743455 -0.10775809 -0.19316421
0.15469402 0.013303259 0.0775611 0.18583584 0.09947107 0.17273894 0.071709156 0.08759228
0.0497893 0.011642648 -0.08679706 0.029305443 0.10425467 -0.009216929 0.0813118 0.054762688
00000000: 8821 dd3d 0fac 273c d8d0 6b3d 327c 533c
00000010: c273 9f3d 2f19 eb3d 18a2 a63d 76d9 6f3d
00000020: ccb7 073e 07ed af3d 8f74 db3c 0071 433b
00000030: dee9 6b3d ed7a 49bd 87a5 193e 5631 debc
00000040: a639 873e efae 183d 827f e3bc 1ccb 8b3e
00000050: 7717 203d 2b10 3b3e 1e4d 643d ee63 873d
00000060: e909 9c3d c141 a23e a2e2 e93d 06e5 b53c
00000070: 2f19 e3bc 754d 9c3d e143 9f3d 546c 003d
00000080: 6757 c0bd 7052 f4bd e14e 883d c78f d63d
00000090: 5af6 943d 4b5c cdbd e586 cabd 41ae ac3d
000000a0: ba4f fdbc bb30 6f3e 82c2 80be 7a7b 863d
000000b0: bb2e 193e 1715 dbbc 46b0 dcbd d7cc 45be
000000c0: 1c68 1e3e eaf5 593c 5bd8 9e3d c04b 3e3e
000000d0: 7db7 cb3d 7ae2 303e 40dc 923d 9563 b33d
000000e0: ddef 4b3d cec0 3e3c a8c2 b1bd f811 f03c
000000f0: 7983 d53d 9a02 17bc cd86 a63d d74e 603d

module.bi_lstm2.weight_ih_l0 f4 [128, 16]
-0.016544238 0.00838649 0.011726453 0.003362295 -0.017044196 -0.015782233 -0.009492734 -0.01123601
-0.012350386 0.013593952 0.0022779356 0.014414587 0.005996987 -0.009530054 -0.007090287 -0.013749022
0.003735003 0.0013316603 0.0050969417 0.0030019335 -0.005661727 0.0018872315 0.0018709111 -0.0019689966
-0.005529138 0.007182233 0.0030424912 0.00728571 0.002512531 0.0010155351 -0.0023433778 -0.010858423
-0.02455828 0.007261661 0.015655635 0.0010571001 -0.01821767 -0.01579027 -0.0037369474 -0.018868333
-0.01083321 0.029497204 0.0028899696 0.024736281 0.0061356556 -0.010173024 -0.010871348 -0.019327827
-0.0026172905 0.00019200977 0.020533225 0.015437839 -0.016218914 -0.035486676 -0.025138011 -0.017559728
-0.021526078 0.033578686 0.0066831834 0.02152803 0.014328605 -0.020334415 -0.006512904 -0.0215542
0.005655093 0.004899431 -0.00035623382 0.009912168 -0.0044389092 0.0031305978 0.01570254 -0.00079002633
-0.001003454 0.00044984938 -0.00054027775 0.0014949756 0.005194768 0.004919411 -0.0023870096 -0.005897382
-0.019367669 0.009698677 0.021530062 0.0033625101 -0.020344734 -0.015871655 -0.017492672 -0.018205548
-0.017652605 0.012895929 0.0026417172 0.009897388 0.013216249 -0.002685823 -0.014708752 -0.023390226
-0.0049830875 0.0012299145 0.004545994 0.00023028596 -0.002787063 0.0053913826 -0.0032960912 -0.0022791687
-0.0032008267 -0.00909524 0.004437845 -0.006305289 0.002512284 0.0017379252 -0.0034433533 -0.0040178723
0.0023430598 0.0004562962 0.0028305626 0.0017573176 -0.0039748102 -0.006727693 -0.0067432923 0.0004476783
-0.0017946287 0.0067283227 -0.00023701283 -0.0064587453 0.00249147 -0.00033380146 -0.0012512393 0.00061197585
0.0061364374 0.00504437 0.0019723815 0.009983414 -0.006973634 -0.010678585 0.0072109224 -0.004549494
-0.0059653902 0.015092227 -0.0026987665 0.014760076 0.005131393 0.0041112537 -0.008880605 -0.015082837
-0.017732644 0.0050464333 0.018124292 -0.0007159512 -0.018455587 -0.011764573 -0.022791112 -0.016836494
-0.0126554305 0.008083769 0.0062231896 0.008270351 0.005942952 0.00079407776 -0.011093064 -0.017509766
0.007982129 0.0016417918 -0.00012456706 0.0021443078 0.001191432 -0.0011878392 0.00585819 0.0021473845
0.0051129125 0.005190384 -0.005283343 0.0070906268 0.00042656576 -0.0005343093 -0.0004734721 0.003788932
0.007340201 0.0012265467 -0.0011199525 0.016822115 -0.011610223 -0.04171166 0.019495487 -0.009388212
-0.010110385 0.025439084 -0.00045229637 0.015135392 0.0142913675 -0.0072561894 0.0019664806 -0.021894144
0.004122719 0.006139576 0.0028440033 0.007830877 -0.010631088 -0.0027633233 -0.00084743364 -0.0066685765
-0.0022373395 0.0014062945 0.0013648844 0.004883026 0.008359177 0.001991315 -0.0041956753 -0.01251835
-0.0036781973 -0.0014039308 -0.0013549702 -0.007210791 0.0059900326 -0.01852821 0.010393651 -0.001811308
0.015436855 0.030973472 -0.01233625 0.016301941 -0.009916827 -0.007684321 0.0030812358 0.009109387
-0.009294249 0.007561649 0.014590726 0.0013168599 -0.015623256 -0.0007739552 -0.013165431 -0.010265579
-0.015093459 -0.00038049495 0.0057962337 0.005165887 0.009825409 0.006530308 -0.011587576 -0.017895183
-0.015845435 0.0012623684 0.0025443952 0.0015259419 -0.006383378 -0.015314377 -0.0026316852 -0.004557146
-0.009430001 0.0038383375 0.000552943 0.004309764 0.0022082848 -0.004604918 -0.0012102441 -0.001105764
00000000: c887 87bc 7d67 093c 4f20 403c f359 5c3b
00000010: 45a0 8bbc be49 81bc 6a87 1bbc 3e17 38bc
00000020: 4659 4abc 2bb9 5e3c 6b49 153b 292b 6c3c
00000030: 6082 c43b f223 1cbc a355 e8bb 9443 61bc
00000040: f4c6 743b 1b8b ae3a 3f04 a73b 16bc 443b
00000050: 0286 b9bb fb5c f73a 5c39 f53a 480a 01bb
00000060: c52d b5bb f058 eb3b 8864 473b f7bc ee3b
00000070: 46a9 243b b41b 853a 5b93 19bb 87e7 31bc
00000080: 722e c9bc 3af3 ed3b 3f40 803c 658e 8a3a
00000090: 393d 95bc 995a 81bc 93e7 74bb c391 9abc
000000a0: c77d 31bc 1fa4 f13c a565 3d3b bea3 ca3c
000000b0: 9c0d c93b c1ac 26bc bd1d 32bc 6455 9ebc
000000c0: d986 2bbb 3b56 4939 4b35 a83c fdee 7c3c
000000d0: 87dd 84bc 7a5a 11bd 3bee cdbc 6bd9 8fbc
000000e0: 7557 b0bc ce89 093d 9bfe da3b 8d5b b03c
000000f0: 86c2 6a3c 5c94 a6bc 336a d5bb 6f92 b0bc
00000100: 5c4e b93b 688b a03b e5c4 bab9 a566 223c
00000110: 4574 91bb b72a 4d3b 9da2 803c c519 4fba
00000120: 5486 83ba c3d9 eb39 6da1 0dba 0ff3 c33a
00000130: df38 aa3b 0333 a13b 606f 1cbb d33e c1bb
00000140: f2a8 9ebc 33e7 1e3c d05f b03c 8f5d 5c3b
00000150: 00aa a6bc 4605 82bc cb4c 8fbc cd23 95bc
00000160: 329c 90bc 7249 533c a920 2d3b a728 223c
00000170: f788 583c a204 30bb fafc 70bc dc9c bfbc
00000180: 2b49 a3bb 1535 a13a 90f6 943b eb78 7139
00000190: 28a7 36bb 32aa b03b 3c03 58bb 1b5e 15bb
000001a0: f6c4 51bb 3404 15bc 586b 913b 999c cebb
000001b0: 22a5 243b 18cb e33a e2a9 61bb 5ba8 83bb
000001c0: 058e 193b 0a3b ef39 f680 393b cb55 e63a
000001d0: 203f 82bb fb73 dcbb d6f6 dcbb 5db6 ea39
000001e0: bf39 ebba 4379 dc3b a686 78b9 e2a3 d3bb
000001f0: ee47 233b 1302 afb9 a000 a4ba 016d 203a
00000200: 2b14 c93b 3e4b a53b 1243 013b 7991 233c
00000210: 1583 e4bb 3bf5 2ebc 9a49 ec3b ec13 95bb
00000220: 5279 c3bb 6345 773c cadd 30bb 3fd4 713c
00000230: 3f25 a83b b2b7 863b f57f 11bc 011e 77bc
00000240: 0d44 91bc 8d5c a53b 6579 943c acae 3bba
00000250: 2c30 97bc 32c0 40bc 6db4 babc b0ec 89bc
00000260: b958 4fbc c971 043c e6eb cb3b 5e80 073c
00000270: 18bd c23b a829 503a afbf 35bc a470 8fbc
00000280: 7ac7 023c 6431 d73a 379e 02b9 8487 0c3b
00000290: d329 9c3a 45b1 9bba 0ff6 bf3b 22bb 0c3b
000002a0: 388a a73b 1914 aa3b e51f adbb 7d58 e83b
000002b0: b0a4 df39 e410 0cba 593c f8b9 bb4f 783b
000002c0: 1286 f03b 14c4 a03a 5fcb 92ba 88ce 893c
000002d0: ce38 3ebc d8d9 2abd 00b5 9f3c 04d1 19bc
000002e0: 07a6 25bc a065 d03c 3122 edb9 6ffa 773c
000002f0: 5726 6a3c 54c5 edbb 12e0 003b 595b b3bc
00000300: e017 873b 7f2e c93b 7562 3a3b 144d 003c
00000310: 042e 2ebc df18 35bb 4f26 5eba 1384 dabb
00000320: 54a0 12bb 6a53 b83a ece5 b23a ca01 a03b
00000330: eef4 083c b980 023b e07b 89bb c419 4dbc
00000340: e90d 71bb 1a04 b8ba 4199 b1ba 8048 ecbb
00000350: 0948 c43b 79c8 97bc 224a 2a3c 6969 edba
00000360: ddea 7c3c 14bc fd3c fc1d 4abc a68b 853c
00000370: 307a 22bc c2cc fbbb 8fee 493b 8a3f 153c
00000380: e846 18bc b6c7 f73b f10d 6f3c 7c9a ac3a
00000390: aff8 7fbc 41e3 4aba d2b3 57bc f630 28bc
000003a0: 8e4a 77bc 2b7d c7b9 55ee bd3b 9a46 a93b
000003b0: c1fa 203c 32fc d53b d1d9 3dbc eb98 92bc
000003c0: 49ce 81bc 0e76 a53a debf 263b 1d02 c83a
000003d0: a82b d1bb 27e9 7abc 5a78 2cbb 1d54 95bb
000003e0: 4a80 1abc 9e8c 7b3b 60f3 103a ec38 8d3b
000003f0: dfb8 103b dae4 96bb 0ea1 9eba 48ef 90ba

module.bi_lstm2.weight_hh_l0 f4 [128, 32]
-4.9253e-41 -4.9819e-41 4.9492e-41 4.9841e-41 -5.0005e-41 -4.9949e-41 -5.1187e-41 4.9718e-41
-4.9165e-41 -4.9417e-41 5.1798e-41 -4.9146e-41 -6.2181e-41 -4.9889e-41 4.9526e-41 -5.766e-41
5.6863e-41 -5.8902e-41 -4.9739e-41 6.0099e-41 -5.0047e-41 4.9229e-41 -5.0154e-41 -4.9104e-41
5.0398e-41 4.9306e-41 5.5035e-41 -4.9977e-41 4.9438e-41 4.9833e-41 5.0302e-41 -4.9574e-41
5.2041e-41 4.9642e-41 5.2774e-41 -4.9836e-41 5.0951e-41 4.9843e-41 4.969e-41 1.1797e-40
5.3503e-41 5.312e-41 5.0518e-41 -5.106e-41 6.0431e-41 -5.0797e-41 6.2118e-41 -4.9113e-41
-4.9271e-41 4.9417e-41 4.9501e-41 5.0612e-41 5.0424e-41 4.966e-41 4.9781e-41 -4.9704e-41
-4.9934e-41 -2.4376e-41 -5.7885e-41 4.997e-41 -5.0347e-41 4.9707e-41 -5.0895e-41 4.9386e-41
-5.0943e-41 4.9389e-41 -5.2808e-41 5.0176e-41 -6.1535e-41 5.3081e-41 5.9229e-41 -4.9103e-41
5.6796e-41 5.3332e-41 5.4426e-41 4.9642e-41 -4.9623e-41 5.0071e-41 -4.9114e-41 5.3291e-41
5.6647e-41 5.025e-41 4.9844e-41 -5.5512e-41 -5.06e-41 -5.0063e-41 5.0798e-41 -4.9823e-41
5.0202e-41 -4.9882e-41 -4.9766e-41 4.9825e-41 4.951e-41 4.9783e-41 -4.906e-41 5.0204e-41
-4.9984e-41 4.966e-41 -6.0355e-41 4.9286e-41 5.0892e-41 -4.9054e-41 4.9864e-41 -4.9904e-41
-5.165e-41 -4.9427e-41 5.0507e-41 4.9742e-41 -5.0126e-41 -5.7691e-41 -4.9296e-41 4.953e-41
5.0026e-41 4.9448e-41 4.9598e-41 4.939e-41 4.973e-41 5.0677e-41 -4.963e-41 -5.0232e-41
5.051e-41 4.9256e-41 -5.5047e-41 -4.9945e-41 4.923e-41 -5.638e-41 5.1195e-41 4.9783e-41
-4.9784e-41 -4.9578e-41 -4.9184e-41 -4.9913e-41 -4.9257e-41 -4.9341e-41 2.5072e-40 -5.047e-41
-4.982e-41 -4.9476e-41 5.1946e-41 -4.9351e-41 5.0855e-41 -5.3755e-41 -5.0252e-41 -5.01e-41
4.934e-41 -5.0431e-41 -4.9522e-41 5.2843e-41 5.0232e-41 -4.9979e-41 -4.9313e-41 4.9432e-41
4.9121e-41 4.9257e-41 -5.0716e-41 4.9201e-41 4.973e-41 -4.9354e-41 -5.0713e-41 -4.959e-41
-5.01e-41 -4.965e-41 5.0335e-41 -4.9728e-41 5.0235e-41 4.9551e-41 -4.9278e-41 4.9268e-41
-4.999e-41 3.6529e-41 -4.9533e-41 -5.002e-41 4.9928e-41 -5.1076e-41 4.9116e-41 -5.9824e-41
5.0682e-41 -5.19e-41 -5.3371e-41 5.0161e-41 -4.9414e-41 5.0293e-41 5.0975e-41 5.0888e-41
-4.9127e-41 -5.2348e-41 -5.0965e-41 -4.9427e-41 -5.0455e-41 -5.0478e-41 -4.9749e-41 -4.9969e-41
5.0974e-41 4.9553e-41 4.9969e-41 1.0564e-41 6.0315e-41 -5.9283e-41 4.9934e-41 -5.1842e-41
5.5262e-41 4.9931e-41 -4.969e-41 1.69057e-40 4.9484e-41 5.3398e-41 4.9415e-41 -4.9911e-41
-5.598e-41 4.9443e-41 4.9707e-41 -4.9623e-41 -5.1393e-41 -5.1583e-41 5.3405e-41 -4.9613e-41
-4.9329e-41 -5.1494e-41 -4.9903e-41 -5.1772e-41 4.9236e-41 -5.1561e-41 5.1854e-41 -5.0127e-41
4.9211e-41 -4.9833e-41 4.9462e-41 4.9564e-41 -5.0769e-41 5.2893e-41 5.6558e-41 -5.0223e-41
5.0521e-41 -4.9379e-41 -4.9274e-41 -5.8319e-41 5.3814e-41 5.0001e-41 4.948e-41 -5.4023e-41
4.942e-41 5.2816e-41 5.0112e-41 -5.3447e-41 -4.9617e-41 4.9721e-41 5.8639e-41 -5.6032e-41
5.2742e-41 4.9474e-41 4.9207e-41 4.9532e-41 4.9683e-41 5.0513e-41 5.1226e-41 4.9668e-41
00000000: 4c89 0080 e08a 0080 f789 0000 f08a 0000
00000010: 658b 0080 3d8b 0080 b08e 0080 988a 0000
00000020: 0d89 0080 c189 0080 6490 0000 0089 0080
00000030: 56ad 0080 128b 0080 0f8a 0000 bca0 0080
00000040: 839e 0000 32a4 0080 a78a 0080 88a7 0000
00000050: 838b 0080 3b89 0000 cf8b 0080 e288 0080
00000060: 7d8c 0000 7289 0000 6a99 0000 518b 0080
00000070: d089 0000 ea8a 0000 398c 0000 318a 0080
00000080: 1291 0000 628a 0000 1d93 0000 ec8a 0080
00000090: 088e 0000 f18a 0000 848a 0000 da48 0100
000000a0: 2595 0000 1494 0000 d38c 0000 568e 0080
000000b0: 75a8 0000 9a8d 0080 29ad 0000 e888 0080
000000c0: 5989 0080 c189 0000 fd89 0000 168d 0000
000000d0: 908c 0000 6f8a 0000 c58a 0000 8e8a 0080
000000e0: 328b 0080 f343 0080 5ca1 0080 4c8b 0000
000000f0: 598c 0080 908a 0000 e08d 0080 ab89 0000
00000100: 028e 0080 ad89 0000 3593 0080 df8b 0000
00000110: 89ab 0080 f893 0000 1ba5 0000 e188 0080
00000120: 539e 0000 ab94 0000 b897 0000 628a 0000
00000130: 548a 0080 948b 0000 e988 0080 8e94 0000
00000140: e99d 0000 148c 0000 f28a 0000 bf9a 0080
00000150: 0d8d 0080 8e8b 0080 9b8d 0000 e38a 0080
00000160: f18b 0000 0d8b 0080 ba8a 0080 e48a 0000
00000170: 048a 0000 c68a 0000 c288 0080 f38b 0000
00000180: 568b 0080 6f8a 0000 3fa8 0080 6489 0000
00000190: de8d 0000 be88 0080 008b 0000 1d8b 0080
000001a0: fb8f 0080 c889 0080 cb8c 0000 a98a 0000
000001b0: bb8b 0080 d2a0 0080 6b89 0080 128a 0000
000001c0: 748b 0000 d789 0000 428a 0000 ae89 0000
000001d0: a18a 0000 448d 0000 598a 0080 078c 0080
000001e0: cd8c 0000 4e89 0000 7399 0080 3a8b 0080
000001f0: 3c89 0000 2a9d 0080 b68e 0000 c68a 0000
00000200: c78a 0080 348a 0080 1b89 0080 238b 0080
00000210: 4f89 0080 8b89 0080 e8ba 0200 b18c 0080
00000220: e18a 0080 eb89 0080 ce90 0000 9289 0080
00000230: c38d 0000 d995 0080 158c 0080 a98b 0080
00000240: 8a89 0000 958c 0080 0c8a 0080 4e93 0000
00000250: 078c 0000 528b 0080 7789 0080 cc89 0000
00000260: ee88 0000 4f89 0000 608d 0080 2789 0000
00000270: a18a 0000 9489 0080 5e8d 0080 3d8a 0080
00000280: a98b 0080 678a 0080 508c 0000 9f8a 0080
00000290: 098c 0000 218a 0000 5e89 0080 5789 0000
000002a0: 5a8b 0080 d465 0000 148a 0080 6f8b 0080
000002b0: 2e8b 0000 618e 0080 ea88 0000 c4a6 0080
000002c0: 488d 0000 ad90 0080 c794 0080 d48b 0000
000002d0: bf89 0080 328c 0000 198e 0000 db8d 0000
000002e0: f288 0080 ed91 0080 128e 0080 c889 0080
000002f0: a68c 0080 b68c 0080 ae8a 0080 4b8b 0080
00000300: 188e 0000 228a 0000 4b8b 0000 731d 0000
00000310: 22a8 0000 42a5 0080 328b 0000 8490 0080
00000320: 0c9a 0000 308b 0000 848a 0080 43d7 0100
00000330: f189 0000 da94 0000 c089 0000 228b 0080
00000340: 0d9c 0080 d489 0000 908a 0000 548a 0080
00000350: 438f 0080 cb8f 0080 df94 0000 4d8a 0080
00000360: 8289 0080 8b8f 0080 1c8b 0080 5290 0080
00000370: 4089 0000 bb8f 0080 8c90 0000 bc8b 0080
00000380: 2e89 0000 ea8a 0080 e189 0000 2a8a 0000
00000390: 868d 0080 7293 0000 a99d 0000 008c 0080
000003a0: d58c 0000 a689 0080 5b89 0080 92a2 0080
000003b0: 0396 0000 628b 0000 ee89 0000 9896 0080
000003c0: c389 0000 3b93 0000 b18b 0000 fd94 0080
000003d0: 508a 0080 9a8a 0000 76a3 0000 329c 0080
000003e0: 0693 0000 ea89 0000 2b89 0000 138a 0000
000003f0: 7f8a 0000 cf8c 0000 cc8e 0000 748a 0000

module.bi_lstm2.bias_ih_l0 f4 [128]
0.011909378 0.00025286752 0.019572206 0.04247354 0.009041865 0.020028152 -0.0148664005 0.010288947
0.01754516 0.043197304 -0.00011918555 0.08435923 0.0011220876 0.03309934 0.0031345852 0.0028819097
0.009958626 0.017903674 0.01753105 -0.0036362275 0.0464962 0.018054474 -0.004869522 0.025303919
0.012786187 0.0021658542 -0.00022660948 -0.002373176 -0.0055255867 -0.0056965486 -0.00042962175 0.033317477
-4.984e-41 4.9202e-41 -6.0273e-41 4.9152e-41 4.9487e-41 4.9806e-41 -4.9533e-41 -5.1199e-41
-5.1931e-41 -4.944e-41 -5.8986e-41 5.062e-41 -4.9268e-41 -4.9142e-41 4.9106e-41 -4.9052e-41
-4.938e-41 4.9188e-41 -5.008e-41 4.9329e-41 -4.941e-41 4.9893e-41 -5.0088e-41 4.9505e-41
5.4495e-41 -5.1217e-41 -5.2308e-41 -5.0434e-41 -4.9588e-41 5.4314e-41 -5.4382e-41 4.9114e-41
-0.035663553 0.03562411 -0.016840497 0.043566413 -0.14648451 -0.053104877 0.012863754 0.0037900065
-0.06926248 -0.001366219 -0.022807525 0.21755034 -0.102850705 -0.05944774 -0.020033225 -0.02584109
-0.09213836 -0.006788392 -0.124271676 -0.0025053867 -0.059002176 -0.05683876 -0.07205254 0.02129827
-0.051293597 0.045957077 -0.06849165 -0.016640393 0.028810836 -0.0061314213 0.0139917 -0.13290986
0.011573777 0.00025666988 0.018822074 0.041308496 0.009332158 0.019580798 -0.014870552 0.010283878
0.017554983 0.043210812 -0.00012571664 0.08619935 0.0010830793 0.032986015 0.0031414751 0.002176987
0.009994966 0.016349819 0.017801952 -0.003637349 0.04651705 0.01695177 -0.004804264 0.024833815
0.012661375 0.0021557375 -0.00018994558 -0.0023778225 -0.005605175 -0.0056988564 -0.00044517504 0.03357084
00000000: 8d1f 433c 4e93 8439 e455 a03c bcf8 2d3d
00000010: 5524 143c 1412 a43c 3492 73bc f992 283c
00000020: deba 8f3c a8ef 303d 41f3 f9b8 88c4 ac3d
00000030: 0313 933a 2c93 073d 9d6d 4d3b 6cde 3c3b
00000040: 8129 233c baaa 923c 479d 8f3c c64d 6ebb
00000050: cd72 3e3d fae6 933c 8390 9fbb 2a4a cf3c
00000060: 287d 513c 01f1 0d3b 059e 6db9 4987 1bbb
00000070: fb0f b5bb 1daa babb db3e e1b9 e877 083d
00000080: ef8a 0080 2889 0000 04a8 0080 0489 0000
00000090: f389 0000 d78a 0000 148a 0080 b98e 0080
000000a0: c390 0080 d289 0080 6ea4 0080 1c8d 0000
000000b0: 5789 0080 fd88 0080 e388 0000 bd88 0080
000000c0: a789 0080 1e89 0000 9a8b 0080 8289 0000
000000d0: bc89 0080 158b 0000 a08b 0080 008a 0000
000000e0: e997 0000 c68e 0080 d091 0080 978c 0080
000000f0: 3b8a 0080 6897 0000 9897 0080 e988 0000
00000100: f213 12bd 96ea 113d 15f5 89bc b272 323d
00000110: 0900 16be 8084 59bd 7fc2 523c c261 783b
00000120: 7dd9 8dbd b412 b3ba d9d6 babc 84c5 5e3e
00000130: 64a3 d2bd 797f 73bd b81c a4bc b2b0 d3bc
00000140: 09b3 bcbd 2971 debb 2682 febd 6a31 24bb
00000150: 44ac 71bd c2cf 68bd 4890 93bd b679 ae3c
00000160: 3c19 52bd 7d3d 3c3d 5a45 8cbd 6f51 88bc
00000170: b404 ec3c 17ea c8bb 713d 653c 8619 08be
00000180: f09f 3d3c a691 8639 c030 9a3c 1933 293d
00000190: e8e5 183c e967 a03c 9ea3 73bc b67d 283c
000001a0: 78cf 8f3c d2fd 303d ced2 03b9 4989 b03d
000001b0: 1cf6 8d3a 581c 073d 35e1 4d3b c8ab 0e3b
000001c0: edc1 233c 0ef0 853c 66d5 913c 9760 6ebb
000001d0: aa88 3e3d 70de 8a3c 166d 9dbb 4970 cb3c
000001e0: a871 4f3c 4647 0d3b 212c 47b9 3ed5 1bbb
000001f0: 9eab b7bb 79bd babb 6266 e9b9 9481 093d
