output/clip/FD004/exp_202411021344_bilstm_clip_ep-0087.pth (torch, 288916 bytes, 66 tensors)

module.bi_lstm1.weight_ih_l0 f4 [64, 14]
-0.0037488637 -0.004011345 -0.0035489546 0.0019483846 -0.006323493 0.0037002636 -0.0009924234 -0.0005202691
-0.002717442 0.0017412647 0.012732968 -0.012754425 0.0050096386 0.011052015 0.021379497 0.016953927
0.014633132 -0.0010595173 0.035897356 0.01311654 0.016383272 0.009892048 0.03185211 0.011844414
0.020637844 0.01111027 0.023354726 0.008052777 -0.10107001 0.022286536 -0.1831325 0.21395156
-0.057392966 -0.04372207 -0.17330827 0.21198827 -0.07471389 0.05115964 -0.2467742 -0.12257051
0.3060388 0.21748476 0.055779923 0.012461728 0.01992143 0.0015858721 0.030012956 0.012402961
0.01507037 0.003487962 0.032165114 0.008395188 0.10408656 0.016871309 0.042516563 0.047761485
0.021287547 0.036846876 -0.0021856087 -0.05397079 0.027949525 -0.013044182 0.02898385 -0.037633285
0.02665248 -0.025825003 0.08422705 -0.005239247 0.0070077665 0.0009430846 0.010063276 0.033661157
0.022861477 0.07539981 0.071130335 0.017465224 0.03592458 0.04183667 0.07415234 0.046824917
0.0772507 0.0029797181 0.08472891 0.07174654 0.04829305 0.03214533 0.014005408 0.13165526
0.044626966 0.054319475 0.02275742 0.12967543 0.022858502 0.07609823 -0.03949504 0.03851079
0.13350965 0.08462819 -0.0062688016 0.0026618366 -0.0061338753 -0.013991781 0.007979449 0.0020186026
0.013731585 -0.011828299 0.0071474826 -0.0035367126 0.012832578 -0.009692102 -0.01278138 -0.004609947
-0.04994855 -0.010998309 -0.050415948 0.002343543 -0.043944202 -0.020360257 -0.04883419 0.0035002083
-0.048373662 -0.014631351 -0.07617315 -0.03368062 -0.006764213 -0.01080006 0.027039327 0.07882263
0.059133764 0.09472037 0.08271412 0.04881601 0.08596847 0.075666495 0.07485243 0.059174266
0.0859405 0.068940714 0.09468823 0.09821783 -0.04283048 0.019857775 -0.013733603 -0.07488033
-0.09286164 -0.0013911973 0.02946664 0.00034901933 -0.066026725 -0.0013434334 0.04110372 0.0335344
-0.14952826 -0.05644251 -0.013914948 0.013545568 0.0030914145 0.009603398 0.033421054 -0.0024103443
0.03028286 -0.0062178206 0.020284245 0.0051875403 0.0014619748 0.004960691 0.004123534 -0.009263661
0.05716972 0.034333263 0.03932215 -0.009402325 0.022942748 0.030947704 0.02608991 0.017603436
0.01899978 0.018702203 0.079581395 0.036566637 0.05170289 0.039858807 -0.01158136 0.01914628
-0.008438567 0.04388354 0.012729437 -2.0331174e-06 -0.012844818 0.03525796 0.014627889 0.015272352
0.027799943 0.0012346918 0.04731041 0.050092936 0.10869207 0.06506042 0.042464517 -0.092813455
0.033762537 -0.0031538522 0.07777131 -0.07199477 0.041965216 -0.025970979 0.196495 0.04150865
0.010016474 -0.007890569 0.043145064 0.021647533 0.024998967 -0.051341705 0.03458478 -0.00011099118
0.04492015 -0.041841023 0.034573454 -0.016652072 0.089103654 0.006424006 -0.020149799 -0.0092486255
-0.011854809 -0.007581274 -0.00854018 -0.0026699977 -0.009989334 -0.00028866794 -0.0048488723 -0.004327145
-0.00673258 -0.002794683 0.0071235513 -0.014412554 -0.0027264645 0.0042729597 0.008738138 0.0066595576
0.01541961 0.01902502 0.025412038 0.015042428 0.004410356 0.024127709 0.02236299 0.020037996
-9.3500385e-05 0.020637851 0.041067023 0.018915689 0.0916256 -0.019965976 -0.08132703 0.23730518
00000000: 7faf 75bb 9a71 83bb 9495 68bb f060 ff3a
00000010: 4e35 cfbb 1f80 723b 3414 82ba ab62 08ba
00000020: 1d17 32bb 263b e43a f09d 503c f0f7 50bc
00000030: e527 a43b 8313 353c 0e24 af3c f6e2 8a3c
00000040: cebf 6f3c 80df 8aba 1b09 133d c2e6 563c
00000050: 3636 863c 4212 223c 5c77 023d 130f 423c
00000060: b210 a93c da07 363c 6952 bf3c cbef 033c
00000070: cbfd cebd 4192 b63c 1687 3bbe 1e16 5b3e
00000080: e314 6bbd ea15 33bd b977 31be 7413 593e
00000090: 9903 99bd c58c 513d 60b2 7cbe 3f06 fbbd
000000a0: 1eb1 9c3e 53b4 5e3e 7d79 643d 472c 4c3c
000000b0: 4432 a33c 0add cf3a bbdd f53c ca35 4b3c
000000c0: b7e9 763c 4b96 643b 91bf 033d f88b 093c
000000d0: 562b d53d b335 8a3c d925 2e3d 8ca1 433d
000000e0: 3963 ae3c c0ec 163d 6e3c 0fbb 7a10 5dbd
000000f0: 67f6 e43c 44b7 55bc 8a6f ed3c 5c25 1abd
00000100: 4d56 da3c f58e d3bc 3b7f ac3d fdad abbb
00000110: 68a1 e53b 5639 773a 70e0 243c 48e0 093d
00000120: fe47 bb3c 376b 9a3d c8ac 913d 3b13 8f3c
00000130: a725 133d ee5c 2b3d 2fdd 973d 7ccb 3f3d
00000140: 9d35 9e3d 6047 433b 5a86 ad3d daef 923d
00000150: efce 453d d2aa 033d f076 653c a3d0 063e
00000160: c4ca 363d 197e 5e3d c56d ba3c a3c9 043e
00000170: c141 bb3c 64d9 9b3d 8dc5 21bd 7dbd 1d3d
00000180: c1b6 083e 8b51 ad3d 856a cdbb 3572 2e3b
00000190: adfe c8bb c83d 65bc 3cbc 023c 884a 043b
000001a0: 71fa 603c 7bcb 41bc 6e35 ea3b 31c8 67bb
000001b0: bc3f 523c 9fcb 1ebc fe68 51bc 0a0f 97bb
000001c0: da96 4cbd 4032 34bc f480 4ebd 2196 193b
000001d0: d6fe 33bd 8eca a6bc 5c06 48bd c063 653b
000001e0: 7623 46bd 56b8 6fbc ab00 9cbd b1f4 09bd
000001f0: 55a6 ddbb bcf2 30bc 9481 dd3c c26d a13d
00000200: 3f36 723d c1fc c13d 0566 a93d 4cf3 473d
00000210: 3d10 b03d 09f7 9a3d 3b4c 993d b760 723d
00000220: 9301 b03d ca30 8d3d e7eb c13d 6e26 c93d
00000230: 036f 2fbd c6ac a23c e802 61bc dc5a 99bd
00000240: 3e2e bebd d658 b6ba 0664 f13c 95fc b639
00000250: 0539 87bd 2516 b0ba 605c 283d 5e5b 093d
00000260: f01d 19be 4330 67bd 86fb 63bc 3bee 5d3c
00000270: 5499 4a3b 9257 1d3c 84e4 083d def6 1dbb
00000280: c313 f83c dcbe cbbb 252b a63c 3efc a93b
00000290: bc9f bf3a 4b8d a23b b61e 873b 9cc6 17bc
000002a0: cc2a 6a3d 09a1 0c3d 4310 213d 360c 1abc
000002b0: 6ef2 bb3c 0a86 fd3c 82ba d53c 1535 903c
000002c0: 6da5 9b3c 5d35 993c 92fb a23d e6c6 153d
000002d0: 69c6 533d fd42 233d bfbf 3dbc a9d8 9c3c
000002e0: ea41 0abc 3abf 333d 218f 503c b170 08b6
000002f0: 1273 52bc a76a 103d d0a9 6f3c e338 7a3c
00000300: b5bc e33c 62d5 a13a 8fc8 413d 402e 4d3d
00000310: f399 de3d 663e 853d 46ef 2d3d fb14 bebd
00000320: 964a 0a3d dcb0 4ebb 9146 9f3d fe71 93bd
00000330: b8e3 2b3d 17c1 d4bc fc35 493e f904 2a3d
00000340: 231c 243c 7247 01bc e1b8 303d 2b56 b13c
00000350: a2ca cc3c ae4b 52bd c5a8 0d3d f0c3 e8b8
00000360: 31fe 373d 7e61 2bbd e59c 0d3d ed69 88bc
00000370: fa7b b63d 7880 d23b 3111 a5bc 8c87 17bc
00000380: ac3a 42bc 566c f8bb 1cec 0bbc 21fb 2ebb
00000390: 4eaa 23bc 5b58 97b9 4ae3 9ebb b9ca 8dbb
000003a0: f99c dcbb 0027 37bb ae6c e93b a222 6cbc
000003b0: 7cae 32bb 2f04 8c3b 682a 0f3c 6b38 da3b
000003c0: 88a2 7c3c 5cda 9b3c e82c d03c 8474 763c
000003d0: bf84 903b 79a7 c53c 9732 b73c b926 a43c
000003e0: a315 c4b8 b610 a93c e535 283d 13f5 9a3c
000003f0: 34a6 bb3d b08f a3bc c98e a6bd 2100 733e

module.bi_lstm1.weight_hh_l0 f4 [64, 16]
0.001499886 0.0058447295 -0.0018153609 0.01767699 -0.0078113815 -0.0055229943 -0.0012937924 -0.0043995245
0.00022827413 0.006929385 -0.014261412 0.0030718083 0.01055938 0.001164679 -0.008996821 -0.007075473
-0.010375566 -0.005714969 -0.0107864 0.008837412 -0.004393323 0.013781907 0.018733734 -0.0017534714
0.0014431585 -0.013060326 0.0257645 -0.0025275324 -0.005448785 0.0060128933 -0.012256085 0.00036427303
-0.032892358 0.023428174 -0.21387504 0.11392687 -0.050244592 0.07025704 0.13810366 -0.029146966
0.03295498 -0.09537569 -0.13954964 -0.03921066 0.028666763 0.059405234 -0.103361055 -0.08447938
-0.0025876488 0.019154366 -0.011272013 0.031032937 -0.015861968 0.03184808 -0.016825676 -0.010678708
0.0038222808 -0.04796206 -0.058540463 -0.014757486 0.03826673 0.032647643 -0.0054552597 -0.011785108
-0.004579772 0.018376874 -0.0017948208 0.04058384 -0.026347693 -0.015279928 -0.027372124 -0.012151196
-0.0002626941 0.020946527 -0.03517686 0.012182706 0.042612188 0.0051242965 -0.012660192 -0.014219266
0.0007344453 0.0076990738 -0.045719575 0.021515476 -0.012164861 0.0054477514 0.030346978 -0.006208559
0.006290714 -0.01141935 0.02308808 0.002271487 -0.002326264 0.0057587055 -0.029122729 -0.01111245
-0.010983314 -0.00889668 -0.07597361 0.011914279 -0.009391376 0.035925735 0.057069227 -0.006102312
0.004451919 -0.040114477 0.053657215 -0.005247825 -0.025248777 0.0031876904 -0.027096208 -0.011059746
-0.0011441939 0.008367309 -0.0023243944 0.019663488 -0.009518797 -0.015227717 -0.00498405 -0.0046411664
-0.00013467821 0.022706026 -0.013565683 0.010965962 0.017502971 -0.0025636181 -0.0062874397 -0.004439056
-0.0022436401 -0.0036853687 -0.01013831 -0.010436453 0.0016409546 -0.00200716 0.0055038757 0.00033288603
-9.830386e-05 0.0031979631 0.01235327 0.0004828998 -0.0089689195 -0.006111006 -0.0035402055 -0.0033368801
-0.001899487 0.0019062334 -0.013977505 0.0025405784 0.0006798847 0.03982031 0.020860808 -0.0009283066
0.0064863143 -0.05874544 -0.011814569 -0.01982281 -0.0043468256 0.024879755 0.0022794136 -7.948971e-05
0.04709735 0.052415043 0.23377071 -0.09828394 -0.014358804 -0.045916058 -0.13825877 0.023575447
-0.04641028 0.028455826 -0.10410228 0.010302909 0.12494949 -0.022681454 0.06522534 0.0044800057
0.0054103727 0.008752342 0.016821055 -0.022256102 -0.00082687475 -0.038450625 -0.03383255 -0.0017248907
0.0041173315 0.04169297 -0.05042979 0.022804417 0.012725309 -0.0058550346 0.020829596 0.0071450705
-0.006963697 0.01422559 0.0022218407 0.020616747 -0.018926103 0.033563443 -0.013650526 -0.010201853
-0.00076928455 -0.050359856 -0.03733789 -0.019636698 0.03445595 0.034672443 -0.0061739525 -0.011155237
0.001110617 0.019442193 -0.0009455792 0.029307038 -0.014608065 -0.0014337411 -0.005515739 -0.0054377196
0.005944409 0.0037993535 -0.056646712 -0.0005209362 0.03657077 0.0070280433 -0.011641685 -0.014699005
0.010558497 0.043394458 0.041366156 0.045044776 -0.027147619 -0.02837318 -0.09137861 -0.013925671
-0.0032452515 0.033432797 -0.092754796 0.012323673 0.08463827 0.011951687 0.021695768 -0.013688517
0.00078159134 0.018827127 0.016326815 0.026952779 -0.018448055 -0.02686303 -0.033456944 -0.007211526
-0.0056686294 0.038369853 -0.020771768 0.017785808 0.040317718 -0.0043976125 -0.0049449317 -0.008130904
00000000: d397 c43a 2585 bf3b 67f1 edba 56cf 903c
00000010: 9ef6 ffbb 3cfa b4bb 7894 a9ba e329 90bb
00000020: df5c 6f39 e50f e33b b3a8 69bc 6450 493b
00000030: 4001 2d3c 24a8 983a 6767 13bc 5fd9 e7bb
00000040: 47fe 29bc a244 bbbb 71b9 30bc cbca 103c
00000050: ddf5 8fbb 82cd 613c 7d77 993c bdd4 e5ba
00000060: 5d28 bd3a fafa 55bc 1310 d33c f5a4 25bb
00000070: b98b b2bb ce07 c53b bfcd 48bc e6fb be39
00000080: 23ba 06bd 71ec bf3c 0f02 5bbe 7e52 e93d
00000090: 46cd 4dbd ece2 8f3d 0c6b 0d3e 9ec5 eebc
000000a0: cdfb 063d 5454 c3bd 1ae6 0ebe 5b9b 20bd
000000b0: 8fd6 ea3c e752 733d f6ae d3bd 8603 adbd
000000c0: 8b95 29bb 9ee9 9c3c 40ae 38bc c938 fe3c
000000d0: f5f0 81bc 2273 023d 00d6 89bc bff5 2ebc
000000e0: 3b7f 7a3b dd73 44bd 20c8 6fbd 62c9 71bc
000000f0: 93bd 1c3d 89b9 053d 09c2 b2bb 5316 41bc
00000100: e911 96bb 198b 963c 3140 ebba 3e3b 263d
00000110: 1ed7 d7bc aa58 7abc 813b e0bc cf15 47bc
00000120: 35ba 89b9 0d98 ab3c 9c15 10bd f999 473c
00000130: 1e8a 2e3d b7e9 a73b b26c 4fbc edf7 68bc
00000140: ca87 403a 8348 fc3b 7344 3bbd 3941 b03c
00000150: 204f 47bc 0d83 b23b 3a9a f83c 2b71 cbbb
00000160: 5522 ce3b 3a18 3bbc 3723 bd3c 3add 143b
00000170: 3c74 18bb 86b3 bc3b ca92 eebc fe10 36bc
00000180: 5cf3 33bc 61c3 11bc 0d98 9bbd 1c34 433c
00000190: 49de 19bc dd26 133d 6cc1 693d e7f5 c7bb
000001a0: 67e1 913b 144f 24bd abc7 5b3d f2f5 abbb
000001b0: 86d6 cebc 92e8 503b def8 ddbc f033 35bc
000001c0: c7f8 95ba 0a17 093c de54 18bb 5315 a13c
000001d0: baf4 1bbc ad7d 79bc 3e51 a3bb ed14 98bb
000001e0: 6838 0db9 fd01 ba3c 9942 5ebc 94aa 333c
000001f0: 6462 8f3c 6002 28bb de06 cebb 8075 91bb
00000200: 090a 13bb 3a86 71bb 271b 26bc a8fd 2abc
00000210: 4d15 d73a 8f8a 03bb db59 b43b 3587 ae39
00000220: 7c28 ceb8 eb94 513b 5f65 4a3c b72d fd39
00000230: 60f2 12bc d53e c8bb cb02 68bb 8faf 5abb
00000240: 35f8 f8ba 94da f93a e801 65bc d57f 263b
00000250: 4a3a 323a 9f1a 233d 49e4 aa3c 9a59 73ba
00000260: 268b d43b 0f9f 70bd e591 41bc 7263 a2bc
00000270: d16f 8ebb a1d0 cb3c 3762 153b b7b3 a6b8
00000280: 27e9 403d 28b1 563d 9761 6f3e 1749 c9bd
00000290: 3041 6bbc 7a12 3cbd b593 0dbe 4c21 c13c
000002a0: b518 3ebd 311c e93c 9433 d5bd 88cd 283c
000002b0: 85e5 ff3d 75ce b9bc dd94 853d 03cd 923b
000002c0: 7f49 b13b fc65 0f3c 4fcc 893c 6e52 b6bc
000002d0: a0c2 58ba 677e 1dbd 0094 0abd ba15 e2ba
000002e0: aeea 863b 3fc6 2a3d 788f 4ebd 54d0 ba3c
000002f0: d07d 503c 97db bfbb d4a2 aa3c 3221 ea3b
00000300: b92f e4bb 7312 693c 4d9c 113b 74e4 a83c
00000310: ea0a 9bbc d279 093d 75a6 5fbc ac25 27bc
00000320: d0a9 49ba 2346 4ebd 9eef 18bd 24dd a0bc
00000330: af21 0d3d b104 0e3d de4e cabb 75c4 36bc
00000340: 1f92 913a 3c45 9f3c bfe0 77ba 5015 f03c
00000350: aa56 6fbc 5eec bbba 5fbd b4bb e62e b2bb
00000360: 51c9 c23b 93fe 783b 6206 68bd 708f 08ba
00000370: 3bcb 153d 804b e63b c4bc 3ebc 18d4 70bc
00000380: 8cfd 2c3c 63be 313d 8f6f 293d df80 383d
00000390: af64 debc df6e e8bc b524 bbbd 7f28 64bc
000003a0: 49ae 54bb d4f0 083d 3af6 bdbd 3be9 493c
000003b0: d456 ad3d 02d1 433c 53bb b13c cd45 60bc
000003c0: b5e3 4c3a 593b 9a3c d0bf 853c 13cc dc3c
000003d0: 6020 97bc db0f dcbc 260a 09bd aa4e ecbb
000003e0: e9bf b9bb b529 1d3d 8e29 aabc 8bb3 913c
000003f0: 3124 253d d919 90bb 1809 a2bb 7c37 05bc

module.bi_lstm1.bias_ih_l0 f4 [64]
0.0010454963 0.04144647 0.20213279 0.10139172 0.05705394 0.089128345 0.13597482 -0.008340873
-0.04302866 0.19038694 -0.074696735 0.02614686 0.11278023 0.08422116 0.08704088 0.0216104
-0.006978623 0.035218425 0.22146313 0.15285414 0.05967875 0.10535273 0.04622759 -0.0144836055
0.003334645 0.16596125 0.2741845 -0.041058157 0.15746209 -0.0013953208 0.1445022 0.024379011
0.0033363467 0.06745106 0.14856769 -0.01031653 -0.1735947 0.0816898 -0.007885171 0.0027410754
0.021312544 -0.18896617 0.023817565 -0.09892005 0.2034923 0.18079303 -0.06076914 -0.13207062
-0.0003061474 0.040616337 0.18699381 0.1040343 0.054430313 0.09516574 0.1618105 -0.008366083
-0.046171453 0.13673928 0.09875438 0.019768951 0.113914624 0.086721525 0.10089678 0.02747548
00000000: 0909 893a c6c3 293d e6fb 4e3e 76a6 cf3d
00000010: 64b1 693d ec88 b63d fc3c 0b3e 28a8 08bc
00000020: d23e 30bd cbf4 423e 9afa 98bd f131 d63c
00000030: 52f9 e63d 257c ac3d 7d42 b23d 4b08 b13c
00000040: efac e4bb 3241 103d 3bc7 623e cc85 1c3e
00000050: b471 743d 2cc3 d73d 2459 3d3d a54c 6dbc
00000060: 0f8a 5a3b bff1 293e e961 8c3e 992c 28bd
00000070: be3d 213e 32e3 b6ba 62f8 133e 7eb6 c73c
00000080: 9ca6 5a3b c823 8a3d 2122 183e aa06 29bc
00000090: cfc2 31be fb4c a73d ce30 01bc 9da3 333b
000000a0: a597 ae3c 5980 41be 0e1d c33c 9896 cabd
000000b0: 4960 503e cf21 393e 10e9 78bd 853d 07be
000000c0: 6982 a0b9 515d 263d 4e7b 3f3e ef0f d53d
000000d0: 52f2 5e3d 41e6 c23d a7b1 253e e511 09bc
000000e0: 471e 3dbd 6205 0c3e bd3f ca3d 7ff2 a13c
000000f0: 124c e93d 0e9b b13d f9a2 ce3d 4214 e13c

module.bi_lstm1.bias_hh_l0 f4 [64]
0.0010476585 0.04144647 0.21794914 0.10180917 0.055237435 0.041398928 0.13598545 -0.008340999
-0.04330772 0.18659735 -0.064827956 0.041201513 0.112360194 0.08421199 0.08719583 0.021620756
-0.0069782133 0.035218425 0.23029914 0.15238579 0.060237523 0.11025581 0.04624903 -0.0144836055
0.0035323359 0.13268603 0.3241673 -0.03641734 0.15852475 -0.0014050308 0.14523885 0.024378497
0.002618119 0.12218315 0.12327937 0.11581599 -0.18301257 0.13926506 -0.03383169 -0.047544204
-0.08698321 -0.2287489 -0.14668076 -0.13892731 0.21066207 0.18985908 -0.20732205 -0.1095034
-0.0003050925 0.040616337 0.19461502 0.10483122 0.05221922 0.05013221 0.16176552 -0.008365969
-0.04972682 0.13956408 0.07542992 0.0065971618 0.11440281 0.086826965 0.10156982 0.02747558
00000000: 9651 893a c6c3 293d 0f2e 5f3e 5381 d03d
00000010: a640 623d ec91 293d c53f 0b3e afa8 08bc
00000020: 7063 31bd 6013 3f3e 85c4 84bd ebc2 283d
00000030: 1a1d e63d 5677 ac3d ba93 b23d 031e b13c
00000040: 7fa9 e4bb 3241 103d 8ad3 6b3e 050b 1c3e
00000050: 9fbb 763d cccd e13d 9f6f 3d3d a54c 6dbc
00000060: c37e 673b d9de 073e 42f9 a53e 592a 15bd
00000070: 5054 223e 0329 b8ba 7eb9 143e 6ab5 c73c
00000080: bf94 2b3b 293b fa3d e579 fc3d ef30 ed3d
00000090: a667 3bbe 809b 0e3e 1993 0abd b6bd 42bd
000000a0: 4124 b2bd 273d 6abe 7b33 16be f642 0ebe
000000b0: ccb7 573e 6b6a 423e 3b4c 54be 5243 e0bd
000000c0: d2f4 9fb9 515d 263d 2949 473e c0b1 d63d
000000d0: d2e3 553d 6f57 4d3d dca5 253e 6b11 09bc
000000e0: 5aae 4bbd e3e9 0e3e 007b 9a3d 012d d83b
000000f0: 054c ea3d 56d2 b13d d603 d03d 7814 e13c

module.bi_lstm1.weight_ih_l0_reverse f4 [64, 14]
-0.25498933 -0.19893913 -0.23931117 -0.0755721 -0.14312173 -0.10054004 -0.21933274 -0.11007572
-0.11229746 -0.0065402687 0.029247774 -0.27882805 -0.1379206 -0.029584344 0.014548358 0.0057575386
0.031750403 0.016560152 -0.0071055116 -0.005549226 0.03871911 0.0037478092 0.0037927548 -0.007238678
0.045650233 0.012404744 0.009067045 -0.013341048 0.077066325 0.14056301 0.07270075 0.010034345
0.07721993 0.04354989 0.12797154 0.016049897 0.09536023 0.04888006 0.20223488 0.077153005
0.064764544 0.071470864 -0.13576114 0.026055487 -0.2053411 0.32236284 0.013459473 0.041221812
-0.112998955 0.28319988 -0.04497693 0.113682464 -0.30894214 -0.081357405 0.193417 0.22663191
-0.0016438406 0.008703038 -0.01578715 0.054600704 0.0023596007 -0.008972661 -0.0063710324 0.04563533
0.01338476 0.018603679 0.034657147 -0.025581583 0.015267726 0.04981426 0.2236026 0.094181836
0.04508063 0.021871189 -0.084134884 -0.123918205 0.10374921 -0.023417074 -0.119162805 -0.14754355
0.048635636 0.08015822 0.06409294 0.10769931 0.251155 0.24516176 0.20812035 -0.29838675
0.18415673 -0.299806 0.340477 -0.45077646 0.31193578 -0.50367343 0.5511204 0.14588991
-0.22354949 -0.02946686 0.020479968 0.019228052 -0.0079391645 0.015347941 0.016954297 -0.0074963043
-0.012208222 0.016585253 0.021229384 0.00055717217 -0.0017087883 -0.014641407 0.0022696715 0.039590426
0.012443627 0.1380947 0.017524898 -0.0056861513 0.047245797 0.044623964 0.07416408 -0.014390007
0.07337448 0.06847941 0.20527138 0.0043038037 0.057903286 0.04620817 -0.027708212 -0.049186092
-0.00060001586 -0.06567969 -0.0015112478 0.06803652 -0.0010386213 0.039060157 0.022771697 0.07355828
-0.1003292 0.015282712 -0.06603311 -0.09828643 -0.10973039 -0.05243832 -0.106747165 -0.06913474
-0.03824758 -0.06340026 -0.10799467 -0.05540462 -0.030661028 -0.060862135 -0.104633555 -0.093122624
-0.053450566 -0.0459228 0.02109048 0.19497968 0.058581907 0.048584715 0.07410622 0.07565953
0.043171857 0.090871066 0.09244712 0.0465463 -0.050788768 0.054284114 -0.006843084 0.02098312
0.15691598 0.16509528 0.08856024 -0.068671554 0.23426595 0.09233362 0.13709453 -0.12406238
0.24135245 0.07144611 0.13996163 0.04863958 -0.018700473 -0.05583313 -0.004965231 0.01100209
0.016445126 0.020584073 -0.0069812643 0.036250576 0.0070504416 0.04068688 -0.021337047 0.056791525
0.010729686 -0.0032842562 -0.015157584 -0.02569512 -0.00271022 0.085015416 -0.008853732 0.050180897
0.029866695 0.004474548 0.045536432 0.027883975 0.037439767 0.021820918 0.06055509 -0.03269513
0.07477812 0.08162246 -0.05540737 0.022117198 -0.021651076 0.071643405 0.008086752 0.024680538
0.016899515 0.043354455 0.02350165 0.07818829 0.07618842 -0.014646143 0.06714144 0.025512254
0.19333963 0.109722875 0.1868757 0.1739994 0.16358088 0.11664042 0.17827344 0.11757684
0.15646307 0.1714962 0.3671301 0.14024785 0.26351196 0.24088122 0.05771923 0.04948641
0.064870656 0.01962496 0.039717153 -0.02014759 0.08075143 0.0016365673 0.04579239 -0.021872057
0.08468365 0.040362276 0.03363717 0.011890609 0.00063817506 0.05400926 0.012675078 -0.0639335
00000000: f68d 82be b3b6 4bbe fd0d 75be 8cc5 9abd
00000010: 818e 12be f0e7 cdbd c398 60be 616f e1bd
00000020: 36fc e5bd c04f d6bb 0799 ef3c 8dc2 8ebe
00000030: 0f3b 0dbe de5a f2bc 3c5c 6e3c bca9 bc3b
00000040: b60c 023d 28a9 873c 5ad5 e8bb 48d6 b5bb
00000050: ee97 1e3d ce9d 753b de8f 783b 6f32 edbb
00000060: bdfb 3a3d 443d 4b3c f18d 143c 6994 5abc
00000070: f3d4 9d3d c0ef 0f3e 21e4 943d 1867 243c
00000080: 7c25 9e3d 5f61 323d f90a 033e 137b 833c
00000090: 394c c33d 7536 483d a916 4f3e 6502 9e3d
000000a0: 46a3 843d 515f 923d f804 0bbe 5172 d53c
000000b0: f044 52be be0c a53e 1f85 5c3c 34d8 283d
000000c0: ff6b e7bd 93ff 903e bb39 38bd 5ad2 e83d
000000d0: aa2d 9ebe b69e a6bd 1b0f 463e 3212 683e
000000e0: 2376 d7ba 3097 0e3c 0e54 81bc fda4 5f3d
000000f0: 88a3 1a3b 1102 13bc 18c4 d0bb 1dec 3a3d
00000100: c14b 5b3c be66 983c a7f4 0d3d 7890 d1bc
00000110: 7c25 7a3c 0a0a 4c3d 14f8 643e 68e2 c03d
00000120: 77a6 383d 352b b33c e94e acbd d4c8 fdbd
00000130: 777a d43d 2ad5 bfbc a10b f4bd a815 17be
00000140: 2936 473d fe29 a43d 2943 833d 7591 dc3d
00000150: 6397 803e af0b 7b3e 801d 553e 26c6 98be
00000160: 9593 3c3e 2c80 99be 0053 ae3e 2ccc e6be
00000170: 0cb6 9f3e bef0 00bf 3a16 0d3f 2a64 153e
00000180: 28ea 64be 7c64 f1bc 9bc5 a73c 2684 9d3c
00000190: 4513 02bc ee75 7b3c bde3 8a3c 8fa3 f5bb
000001a0: ff04 48bc ccdd 873c 3fe9 ad3c 310f 123a
000001b0: 6cf9 dfba 83e2 6fbc c5be 143b 9229 223d
000001c0: 5be0 4b3c b268 0d3e 6090 8f3c e552 babb
000001d0: cf84 413d 9ec7 363d 56e3 973d 10c4 6bbc
000001e0: 5c45 963d ef3e 8c3d a932 523e ec06 8d3b
000001f0: ff2b 6d3d c744 3d3d 55fc e2bc 5b77 49bd
00000200: 624a 1dba 1383 86bd 1015 c6ba bb56 8b3d
00000210: 5922 88ba 8bfd 1f3d b68b ba3c b9a5 963d
00000220: 6579 cdbd 5764 7a3c 5e3c 87bd 654a c9bd
00000230: 54ba e0bd 90c9 56bd 429e dabd 8496 8dbd
00000240: 7fa9 1cbd ffd7 81bd 4f2c ddbd f4ef 62bd
00000250: d62c fbbc 934a 79bd 1e4a d6bd 13b7 bebd
00000260: fbee 5abd 8c19 3cbd f1c5 ac3c c1a8 473e
00000270: 95f3 6f3d c400 473d 00c5 973d 62f3 9a3d
00000280: f9d4 303d 9c1a ba3d ea54 bd3d 55a7 3e3d
00000290: e207 50bd 0559 5e3d f33b e0bb cbe4 ab3c
000002a0: 95ae 203e bd0e 293e 125f b53d aca3 8cbd
000002b0: 6ae3 6f3e 6919 bd3d 8262 0c3e 6b14 febd
000002c0: 1925 773e 5752 923d 1a52 0f3e 4c3a 473d
000002d0: bc31 99bc 48b1 64bd 60b3 a2bb 1c42 343c
000002e0: eeb7 863c ee9f a83c 17c3 e4bb 7c7b 143d
000002f0: 6407 e73b 49a7 263d 08cb aebc 3b9e 683d
00000300: 91cb 2f3c ad3c 57bb 8457 78bc 937e d2bc
00000310: f29d 31bb 901c ae3d 3e0f 11bc 7c8a 4d3d
00000320: 00ab f43c 3b9f 923b 6984 3a3d ef6c e43c
00000330: 715a 193d c8c1 b23c 9d08 783d 54eb 05bd
00000340: 4525 993d ad29 a73d d7f2 62bd 202f b53c
00000350: 995d b1bc c7b9 923d 4c7e 043c d72e ca3c
00000360: da70 8a3c 7194 313d 8886 c03c 2f21 a03d
00000370: ad08 9c3d 60f6 6fbc 7481 893d 13ff d03c
00000380: d3fa 453e 63b6 e03d 585c 3f3e e62c 323e
00000390: bf81 273e 2ce1 ee3d 508d 363e 20cc f03d
000003a0: db37 203e b39c 2f3e 7af8 bb3e 229d 0f3e
000003b0: 0aeb 863e 91a9 763e 006b 6c3d 43b2 4a3d
000003c0: e8da 843d 86c4 a03c 74ae 223d 8f0c a5bc
000003d0: 0161 a53d 1682 d63a cd90 3b3d 072d b3bc
000003e0: 9f6e ad3d ea52 253d 21c7 093d d4d0 423c
000003f0: 344b 273a d038 5d3d 21ab 4f3c 91ef 82bd

module.bi_lstm1.weight_hh_l0_reverse f4 [64, 16]
-0.20481671 0.003349568 0.021742998 -0.10562332 0.048768852 0.30763072 0.004854399 0.038825102
-0.036511905 -0.2840555 0.0026949877 -0.5015775 -0.060715 0.021104248 -0.10079955 0.083696
0.019637002 -0.020755064 -0.024286488 0.020475823 0.021302085 0.08553212 0.015428147 0.014175284
0.025886072 -0.044775292 -0.0070906132 -0.0745696 0.025750665 0.013843761 -0.001176139 0.02725351
0.0073261554 0.009045682 -0.01917448 0.042862672 -0.0015619249 0.030976785 0.016373046 0.0068198005
0.0010019485 0.011893448 -0.025388679 -0.01426405 0.009098336 -0.026924465 -0.019487357 0.008957712
-0.27704003 -0.13037214 0.27531597 -0.074888654 0.0023400504 0.34419137 -0.0688848 -0.012149521
-0.20613031 -0.53283334 0.14674358 -0.28727448 0.18008932 0.21805029 -0.06867518 -0.03958318
-0.03803853 -0.0121964505 -0.013347098 -0.037643284 0.02696049 0.11683293 -0.02095988 0.017671157
0.017588763 -0.067159995 -0.01685602 -0.066458255 -0.0042201765 0.0045718835 -0.0045213792 0.029500842
0.0022687162 0.018214462 0.055328712 -0.05560729 0.004716523 -0.07543197 0.008663828 0.0016862716
-0.06030006 0.00976536 0.009500934 0.13034646 -0.022442471 0.09052724 0.055870708 -0.023264252
-0.074035645 0.0099394685 0.08319717 0.42972732 -0.13188063 0.23427546 0.15236026 -0.023308381
-0.1796264 -0.009568574 0.04049477 0.040907275 0.12802026 0.13747957 -0.09675323 -0.17531285
0.0038189017 -0.009430567 -0.0091447085 -0.001615372 0.014135756 0.013725069 -0.009350228 0.009051074
0.005048225 0.003763601 -0.014141538 -0.029911395 0.012107724 -0.0068377717 -0.006752585 0.012796594
-0.09875679 0.010847874 -0.0018487821 -0.021872416 -0.015296591 0.086136855 -0.00039016953 -0.0086575085
-0.0053958595 -0.061606843 -0.020226436 -0.049183827 -0.018012922 -0.008072689 -0.048010517 -0.000852577
-0.2140782 0.23070215 0.11920309 -0.078354046 -0.13573699 -0.10042524 -0.1769221 -0.09957557
-0.21846615 -0.03444674 0.04395672 0.31160906 -0.022266483 0.1422793 -0.13126759 -0.18758033
0.022501573 0.0051440317 0.008780011 0.012030462 -0.0026090124 0.06067555 -0.019519394 -0.003743809
-0.0032804846 -0.064852655 0.01624446 -0.066639245 0.010741811 0.026427856 -0.004880737 0.0041219774
-0.12829925 0.056798894 -0.0053017503 -0.18365529 0.016340505 0.3509965 -0.05483361 0.017709153
0.064072706 -0.27558687 0.06347147 0.07436184 -0.21258132 0.12413116 0.061731383 0.043993074
0.049609195 -0.02569724 0.023138922 0.12014048 0.0027579402 -0.0037048908 -0.062596194 -0.0022767307
-0.0030463252 -0.15176997 0.02257485 -0.08838194 0.035052672 0.039367095 -0.028731488 0.0011418385
0.041858964 -0.005570368 -0.095636934 -0.07407336 0.07906461 0.20710093 0.13310885 0.070391335
0.093209416 -0.20995954 -0.00443818 -0.19663502 -0.057357833 0.13522944 0.007605236 0.09101757
-0.049795687 -0.011558198 0.038885586 0.007835872 0.009151024 0.051285002 -0.06220398 0.0053822803
-0.03904734 -0.07004431 -0.01650573 -0.06833562 0.038748417 0.0022964273 -0.030146651 0.0020622602
-0.11668667 0.01679688 0.020223657 -0.116307296 -0.011610899 0.120157935 -0.024276689 -0.012307518
-0.012991045 -0.09351267 -0.0164971 -0.017671244 -0.02249625 0.009213778 -0.030833157 -0.0022786974
00000000: 79bb 51be 6d84 5b3b 5f1e b23c 0a51 d8bd
00000010: d9c1 473d c681 9d3e a611 9f3b 1207 1f3d
00000020: 828d 15bd b96f 91be 649e 303b 6267 00bf
00000030: 4bb0 78bd d1e2 ac3c ff6f cebd cf68 ab3d
00000040: c7dd a03c 8606 aabc 75f4 c6bc eabc a73c
00000050: b681 ae3c 772b af3d 57c6 7c3c 733f 683c
00000060: 070f d43c 4c66 37bd 6058 e8bb f2b7 98bd
00000070: 0ff3 d23c f1d0 623c ad28 9aba c142 df3c
00000080: 3f10 f03b 5734 143c cd13 9dbc c590 2f3d
00000090: 81b9 ccba 07c3 fd3c c420 863c a278 df3b
000000a0: d053 833a bddc 423c ebfb cfbc c3b3 69bc
000000b0: 3011 153c b290 dcbc f3a3 9fbc 5ec3 123c
000000c0: 31d8 8dbe 4680 05be 37f6 8c3e 395f 99bd
000000d0: 885b 193b da39 b03e 7913 8dbd c90e 47bc
000000e0: d313 53be c467 08bf f343 163e a415 93be
000000f0: 5669 383e 9348 5f3e 93a5 8cbd f921 22bd
00000100: 4ace 1bbd 9fd3 47bc c9ad 5abc d82f 1abd
00000110: 3fdc dc3c 1a46 ef3d 0eb4 abbc 1ac3 903c
00000120: 4f16 903c 2e8b 89bd a315 8abc 441b 88bd
00000130: 6849 8abb bdcf 953b 1428 94bb c0ab f13c
00000140: beae 143b 7f36 953c 5ca0 623d 78c4 63bd
00000150: 108d 9a3b 147c 9abd baf2 0d3c e305 dd3a
00000160: 32fd 76bd e3fe 1f3c cea9 1b3c 8b79 053e
00000170: 46d9 b7bc 5866 b93d afd8 643d ac94 bebc
00000180: 00a0 97bd 27d9 223c 4763 aa3d 3805 dc3e
00000190: b70b 07be e8e5 6f3e 5404 1c3e 38f1 bebc
000001a0: fcef 37be 82c5 1cbc d8dd 253d 638e 273d
000001b0: be17 033e 72c7 0c3e 8f26 c6bd 3685 33be
000001c0: 8a46 7a3b aa82 1abc b0d3 15bc e4ba d3ba
000001d0: a899 673c 1ddf 603c b331 19bc f54a 143c
000001e0: 956b a53b bfa6 763b e9b1 67bc be08 f5bc
000001f0: 7a5f 463c 630f e0bb ca44 ddbb cea8 513c
00000200: 0041 cabd 48bb 313c d552 f2ba c82d b3bc
00000210: 8e9e 7abc 8568 b03d ab8f ccb9 39d8 0dbc
00000220: c0cf b0bb 7557 7cbd e9b1 a5bc fb74 49bd
00000230: d68f 93bc 5043 04bc ada6 44bd 797f 5fba
00000240: 5137 5bbe 2f3d 6c3e c020 f43d 1678 a0bd
00000250: a3fe 0abe c0ab cdbd 112b 35be 47ee cbbd
00000260: 97b5 5fbe 0618 0dbd f60b 343d 398b 9f3e
00000270: 3368 b6bc aab1 113e 036b 06be 0f15 40be
00000280: 3855 b83c 448f a83b 09da 0f3c 6a1b 453c
00000290: f7fb 2abb ed86 783d 23e7 9fbc b15a 75bb
000002a0: 66fd 56bb 78d1 84bd 1a13 853c 287a 88bd
000002b0: 6cfe 2f3c 3b7f d83c 97ee 9fbb a711 873b
000002c0: e160 03be f5a5 683d 4eba adbb 2210 3cbe
000002d0: 86dc 853c d0b5 b33e 3599 60bd c912 913c
000002e0: 8d38 833d b919 8dbe 54fd 813d 054b 983d
000002f0: ebae 59be 7a38 fe3d 0cda 7c3d 1532 343d
00000300: 0333 4b3d 0583 d2bc d68d bd3c 360c f63d
00000310: 8fbe 343b c1cd 72bb 6f32 80bd 3435 15bb
00000320: dba4 47bb 9669 1bbe e4ee b83c 9701 b5bd
00000330: 6493 0f3d 643f 213d 4c5e ebbc bea9 953a
00000340: 4e74 2b3d a287 b6bb 4cdd c3bd c6b3 97bd
00000350: a0ec a13d 4412 543e b04d 083e 5529 903d
00000360: 94e4 be3d a2ff 56be 276e 91bb b15a 49be
00000370: 0cf0 6abd 9679 0a3e 5835 f93b 6b67 ba3d
00000380: 90f6 4bbd 995e 3dbc 7e46 1f3d 0762 003c
00000390: 2dee 153c 3910 523d 9ac9 7ebd d75d b03b
000003a0: 1bf0 1fbd 6473 8fbd 0637 87bc 8cf3 8bbd
000003b0: a9b6 1e3d a87f 163b 1cf6 f6bc fc26 073b
000003c0: 6cf9 eebd 9c99 893c 15ac a53c 8532 eebd
000003d0: a43b 3ebc 5d15 f63d e8df c6bc 79a5 49bc
000003e0: 64d8 54bc 9283 bfbd ed24 87bc 49c3 90bc
000003f0: 0e4a b8bc 63f5 163c d195 fcbc 3356 15bb

module.bi_lstm1.bias_ih_l0_reverse f4 [64]
0.037158564 0.029907243 0.1592891 0.071167596 0.100484125 0.08178345 0.07938267 0.040367812
0.11626689 0.06235618 0.0048323134 -0.032943394 0.061538782 -0.041631337 0.12289848 0.120301336
0.4185838 0.08878618 -0.024099322 0.3502669 0.11054535 0.21648462 0.06937771 0.023922607
0.144274 0.3238977 -0.05806633 0.12160165 0.022384072 0.11198978 0.11061109 0.19963872
-0.122728504 0.016336799 0.12601876 0.21004495 -0.009885583 -0.19503604 -0.28511742 0.061377592
-0.30080488 0.18748003 -0.21688399 0.016433181 0.27696136 -0.0066301683 -0.2529797 0.04709096
0.27078792 0.043370098 0.18332724 0.35858318 0.13362956 0.015411588 0.060313523 0.051515765
0.1747899 0.111017995 0.021929814 0.05077428 0.100492045 -0.010959756 0.17528494 0.1625195
00000000: 9433 183d 0900 f53c af1c 233e 51c0 913d
00000010: 9fca cd3d 157e a73d 6293 a23d b858 253d
00000020: 561d ee3d 3269 7f3d 6258 9e3b a7ef 06bd
00000030: 1710 7c3d 9f85 2abd 33b2 fb3d 8c60 f63d
00000040: 9e50 d63e 87d5 b53d f16b c5bc 2f56 b33e
00000050: 9a65 e23d 25ae 5d3e e715 8e3d 58f9 c33c
00000060: 90bc 133e ebd5 a53e f6d6 6dbd 490a f93d
00000070: cd5e b73c e65a e53d 1188 e23d 186e 4c3e
00000080: 1559 fbbd c0d4 853c 100b 013e 0616 573e
00000090: 24f7 21bc 87b7 47be e9fa 91be 1267 7b3d
000000a0: 1903 9abe c4fa 3f3e d616 5ebe e19e 863c
000000b0: e1cd 8d3e e241 d9bb 8e86 81be 73e2 403d
000000c0: b7a4 8a3e d8a4 313d 23ba 3b3e 3798 b73e
000000d0: 30d6 083e e380 7c3c 500b 773d 3202 533d
000000e0: 20fc 323e 675d e33d 27a6 b33c b1f8 4f3d
000000f0: c6ce cd3d 8c90 33bc e57d 333e 836b 263e

module.bi_lstm1.bias_hh_l0_reverse f4 [64]
0.043110196 0.029914368 0.15441594 0.04988677 0.09759168 0.07934332 0.053531375 0.041348264
0.15086925 0.069880985 -0.019465774 -0.054303724 0.051395923 -0.04008795 0.12961257 0.06857043
0.4333925 0.088302016 -0.0072313338 0.38300005 0.09924391 0.1929796 0.069451205 0.023997724
0.17311549 0.36346522 -0.0100374445 0.1495696 0.022270638 0.11199923 0.14219572 0.10813524
-0.06827101 -0.12722778 0.08463314 0.14952362 0.0888887 -0.12054278 -0.1975811 0.07055872
-0.0511385 0.28098664 -0.20206419 0.064983904 0.22015616 -0.04304873 -0.14227472 -0.17412697
0.2708102 0.043410383 0.1735742 0.28336325 0.12798895 0.12350003 0.04869221 0.059736565
0.16253188 0.03951005 -0.09123857 0.036238864 0.12453715 -0.010615126 0.14599904 0.15041447
00000000: 5194 303d fa0e f53c 361f 1e3e 1256 4c3d
00000010: 26de c73d c07e a23d b743 5b3d cc5c 293d
00000020: 787d 1a3e c31d 8f3d b076 9fbc 956d 5ebd
00000030: 8884 523d 4333 24bd 28b9 043e a76e 8c3d
00000040: 9fe5 dd3e b0d7 b43d d3f4 ecbb 9518 c43e
00000050: 6440 cb3d 729c 453e 6f3c 8e3d e096 c43c
00000060: 3045 313e 1d18 ba3e 1874 24bc c628 193e
00000070: ea70 b63c da5f e53d c19b 113e 0276 dd3d
00000080: acd1 8bbd 0048 02be 2454 ad3d b81c 193e
00000090: 470b b63d 22df f6bd b352 4abe 1781 903d
000000a0: 9b76 51bd 7bdd 8f3e eae9 4ebe 4816 853d
000000b0: 9e70 613e dd53 30bd 77b0 11be 574e 32be
000000c0: a2a7 8a3e 16cf 313d 6fbd 313e fd14 913e
000000d0: 890f 033e 95ed fc3d 7c71 473d 54ae 743d
000000e0: c26e 263e 4ad5 213d 4adb babd 346f 143d
000000f0: 550d ff3d 11eb 2dbc c680 153e 4006 1a3e

module.bi_lstm2.weight_ih_l0 f4 [128, 16]
0.003365055 0.0007497473 0.0005755842 0.0007755331 0.0007711337 -0.00023226769 -0.0010012806 -0.0009982656
0.0023316124 0.004675087 0.0011437876 0.010479277 -0.005959425 -0.0026956345 0.004897036 -0.0014231126
-0.0011635012 0.0036297822 0.009069297 -0.0010727051 -0.0037558705 -0.0028738554 -0.0055886856 -0.0030134558
-0.009284022 0.0014629262 -0.0025286262 0.007291295 0.007754177 -0.0032382046 0.00015259706 -0.0059210714
-0.0066824057 0.003336147 0.013536042 -0.0022801752 -0.007683074 -0.0045521166 -0.005154977 -0.0070634913
-0.011405287 -0.0003364232 -0.003898238 0.007121381 0.012509689 -0.0030135196 -0.00676612 -0.006830896
0.0013320737 0.004699508 0.008756203 0.0035612094 -0.0045451834 -0.006808373 -0.0001494985 -0.0028812897
-0.0072681243 0.010545219 -0.0018144046 0.016230954 -0.0009232705 -0.001244096 -0.0010258724 -0.008288074
0.007064888 -0.010222726 -0.009045035 -0.008163007 0.013368049 -0.0035340777 0.009642019 0.00074594957
0.010952961 -0.0021816867 0.001070786 -0.0011825081 -0.008418204 -0.00079509156 0.010344985 0.017385865
0.015304175 7.013754e-05 0.003763342 0.009215344 0.004095897 -0.011401219 -0.0026095903 0.0020462621
-0.009077523 0.004444211 -0.0014745356 0.016374009 -0.0009605358 -0.0041305614 0.000906881 -0.0029912866
-0.00055098784 -0.00056281494 -0.0007958219 0.0063223005 -0.0014122708 -0.0009395439 0.0057708207 0.0035126407
0.0003913857 -0.0007330395 -0.0012118287 0.0044552255 -0.0026327942 -0.0033970047 0.003524828 -0.0009061198
0.0023523362 -0.0030881462 -0.0016106378 0.013031126 -0.00036804064 0.00079592457 0.011722938 0.00426571
0.0024257945 0.0010898913 -0.001961429 0.0023619274 0.0033330612 -0.00028147092 0.0007616106 0.0027798135
-0.0062696757 0.0047859163 0.011970344 -0.017279772 -0.00764323 0.001419879 -0.010043463 -0.010816924
-0.009276826 -0.0018012162 -0.0070269867 0.0010013971 0.012891829 -0.0005322815 -0.007846445 -0.004193548
-0.0009252313 0.0045581004 0.006808585 -0.006002236 0.0002316496 -0.005483516 -0.0053851157 -0.0030801042
-0.008896346 0.008637415 0.0037862377 0.008217679 0.0069526318 -9.807168e-05 0.004049772 -0.0032703893
-0.005139787 0.00011540947 0.0015767537 -0.0022933313 -0.0019735435 0.008602869 -0.0014575161 0.0007095539
-0.0015129306 -0.007662978 0.0015596768 -0.003913731 0.0033870917 0.0014346695 0.0013941325 5.384696e-05
0.037365343 0.005942535 0.018619215 0.017470304 -0.014072986 -0.016804963 -0.01091027 -0.027607702
-0.020295179 0.025298977 -0.012333357 0.041510932 0.033895094 -0.009416137 -0.023759909 -0.015641294
-0.008591032 0.0032248017 0.011869635 -0.0043910383 -0.0028611452 0.0055387462 -0.002819716 -0.0039981175
-0.0076300027 -0.006058106 0.0025211535 0.005978573 0.0053475467 0.0032979648 -0.0021173602 -0.00304573
0.018861916 0.0044127395 0.017356213 -0.00395661 -0.012373587 -0.020358153 -0.011758421 -0.0054141507
-0.02009508 0.023224996 -0.014336919 0.008869867 0.012381397 -0.0051790057 -0.010719411 -0.008234346
4.0677355e-06 0.0038459238 0.0102889985 -0.0031131275 -0.0072537283 -0.013830935 0.0016982914 -0.004875117
-0.008064451 0.009349725 -0.0043521877 0.022455828 0.008548156 0.0015241011 -0.0012494252 -0.008301972
-0.008282257 0.0060059824 0.00818546 0.00032757304 -0.0036363825 0.0092214355 -0.006268181 -0.0036277587
-0.0062541715 -0.0037469184 0.004757758 -0.0032979934 0.0109475395 0.0051000826 -0.0010941778 -0.0063874624
00000000: 4188 5c3b b18a 443a cde2 163a 254d 4b3a
00000010: e825 4a3a e28c 73b9 673d 83ba 3cd8 82ba
00000020: f7cd 183b 7931 993b 25eb 953a 46b1 2b3c
00000030: 4847 c3bb 3ea9 30bb 5177 a03b bc87 baba
00000040: 9f80 98ba a4e1 6d3b 6497 143c 039a 8cba
00000050: 0d25 76bb 4b57 3cbb 4b21 b7bb 667d 45bb
00000060: 031c 18bc a8bf bf3a 4fb7 25bb d1eb ee3b
00000070: c016 fe3b 0f38 54bb 7602 2039 8c05 c2bb
00000080: 15f8 dabb 42a3 5a3b 46c6 5d3c fe6e 15bb
00000090: 4cc2 fbbb ec29 95bb 15eb a8bb dc74 e7bb
000000a0: 3edd 3abc f561 b0b9 9579 7fbb 795a e93b
000000b0: 70f5 4c3c 787e 45bb 54b6 ddbb b5d5 dfbb
000000c0: fa98 ae3a 55fe 993b 2d76 0f3c 2e63 693b
000000d0: c3ef 94bb c618 dfbb b3c2 1cb9 05d4 3cbb
000000e0: 7229 eebb dbc5 2c3c 51d1 edba c7f6 843c
000000f0: a207 72ba ef10 a3ba 9176 86ba b4ca 07bc
00000100: 9380 e73b 387d 27bc a031 14bc 22be 05bc
00000110: a905 5b3c fc9b 67bb 8ff9 1d3c d48b 433a
00000120: 0c74 333c a1fa 0ebb 9e59 8c3a 63fe 9aba
00000130: 82ec 09bc b16d 50ba 037e 293c cd6c 8e3c
00000140: 5dbe 7a3c ce16 9338 67a2 763b f4fb 163c
00000150: e036 863b 2ecc 3abc a905 2bbb 951a 063b
00000160: e4b9 14bc bea0 913b 3445 c1ba c922 863c
00000170: 77cc 7bba a959 87bb c1bb 6d3a 7609 44bb
00000180: 2b70 10ba df89 13ba b49e 50ba 4d2b cf3b
00000190: f21b b9ba b94b 76ba 2719 bd3b 5534 663b
000001a0: e632 cd39 7329 40ba 39d6 9eba 24fd 913b
000001b0: f58a 2cbb 48a0 5ebb cd00 673b ac88 6dba
000001c0: a729 1a3b 7f62 4abb 091c d3ba 8180 553c
000001d0: 94f5 c0b9 98a5 503a 9111 403c 5ec7 8b3b
000001e0: 14fa 1e3b afda 8e3a 518b 00bb 91ca 1a3b
000001f0: 7d6f 5a3b 6392 93b9 d2a6 473a 882d 363b
00000200: da71 cdbb 2dd3 9c3b 431f 443c 4f8e 8dbc
00000210: 0f74 fabb 3c1b ba3a 568d 24bc 7839 31bc
00000220: d4fd 17bc c916 ecba a342 e6bb 5041 833a
00000230: 4038 533c cf88 0bba 608e 00bc 086a 89bb
00000240: 398b 72ba 1e5c 953b 8d1a df3b 68ae c4bb
00000250: f7e6 7239 11af b3bb a075 b0bb 93db 49bb
00000260: fbc1 11bc f283 0d3c 8722 783b 72a3 063c
00000270: e7d2 e33b d5ab cdb8 f3b3 843b 0754 56bb
00000280: a96b a8bb fd07 f238 13ab ce3a b74b 16bb
00000290: 9156 01bb 0cf3 0c3c 200a bfba 5b01 3a3a
000002a0: 874d c6ba b819 fbbb 126e cc3a c13e 80bb
000002b0: f8f9 5d3b 850b bc3a 53bb b63a bcd9 6138
000002c0: 670c 193d 99b9 c23b 5387 983c e21d 8f3c
000002d0: 6292 66bc 90aa 89bc fdc0 32bc 8c29 e2bc
000002e0: 1342 a6bc cd3f cf3c d911 4abc 5e07 2a3d
000002f0: 95d5 0a3d 2446 1abc 24a4 c2bc 2c22 80bc
00000300: 66c1 0cbc 3257 533b dc78 423c b3e2 8fbb
00000310: 0d82 3bbb 5f7e b53b fcca 38bb a402 83bb
00000320: 1a05 fabb 1483 c6bb f039 253b e8e7 c33b
00000330: 793a af3b ab22 583b 69c3 0abb df9a 47bb
00000340: 4e84 9a3c be98 903b 9e2e 8e3c 73a6 81bb
00000350: 96ba 4abc 24c6 a6bc 64a6 40bc 3069 b1bb
00000360: 709e a4bc 5942 be3c 66e5 6abc eb52 113c
00000370: 58db 4a3c a6b4 a9bb 78a0 2fbc 5ae9 06bc
00000380: 957d 8836 e50b 7c3b 3093 283c 9d05 4cbb
00000390: afb0 edbb 259b 62bc 3499 de3a 72bf 9fbb
000003a0: c220 04bc 972f 193c cc9c 8ebb 49f5 b73c
000003b0: 910d 0c3c 59c4 c73a c1c3 a3ba ff04 08bc
000003c0: 4eb2 07bc d5cd c43b 4f1c 063c 1cbe ab39
000003d0: 6050 6ebb 8115 173c 5065 cdbb b1bf 6dbb
000003e0: cbef ccbb dc8e 75bb f8e6 9b3b 2623 58bb
000003f0: 4f5d 333c 981e a73b 846a 8fba eb4d d1bb

module.bi_lstm2.weight_hh_l0 f4 [128, 32]
-4.9253e-41 -4.9819e-41 4.9492e-41 4.9841e-41 -5.0005e-41 -4.9949e-41 -5.1187e-41 4.9718e-41
-4.9165e-41 -4.9417e-41 5.1798e-41 -4.9146e-41 -6.2181e-41 -4.9889e-41 4.9526e-41 -5.766e-41
5.6863e-41 -5.8902e-41 -4.9739e-41 6.0099e-41 -5.0047e-41 4.9229e-41 -5.0154e-41 -4.9104e-41
5.0398e-41 4.9306e-41 5.5035e-41 -4.9977e-41 4.9438e-41 4.9833e-41 5.0302e-41 -4.9574e-41
5.2041e-41 4.9642e-41 5.2774e-41 -4.9836e-41 5.0951e-41 4.9843e-41 4.969e-41 1.18069e-40
5.3503e-41 5.312e-41 5.0518e-41 -5.106e-41 6.0431e-41 -5.0797e-41 6.2118e-41 -4.9113e-41
-4.9271e-41 4.9417e-41 4.9501e-41 5.0612e-41 5.0424e-41 4.966e-41 4.9781e-41 -4.9704e-41
-4.9934e-41 -3.0463e-40 -5.7885e-41 4.997e-41 -5.0347e-41 4.9707e-41 -5.0895e-41 4.9386e-41
-5.0943e-41 4.9389e-41 -5.2808e-41 5.0176e-41 -6.1535e-41 5.3081e-41 5.9229e-41 -4.9103e-41
5.6796e-41 5.3332e-41 5.4426e-41 4.9642e-41 -4.9623e-41 5.0071e-41 -4.9114e-41 5.3291e-41
5.6647e-41 5.025e-41 4.9844e-41 -5.5512e-41 -5.06e-41 -5.0063e-41 5.0798e-41 -4.9823e-41
5.0202e-41 -4.9882e-41 -4.9766e-41 4.9825e-41 4.951e-41 4.9783e-41 -4.906e-41 5.0204e-41
-4.9984e-41 4.966e-41 -6.0355e-41 4.9286e-41 5.0892e-41 -4.9054e-41 4.9864e-41 -4.9904e-41
-5.165e-41 -4.9427e-41 5.0507e-41 4.9742e-41 -5.0126e-41 -5.7691e-41 -4.9296e-41 4.953e-41
5.0026e-41 4.9448e-41 4.9598e-41 4.939e-41 4.973e-41 5.0677e-41 -4.963e-41 -5.0232e-41
5.051e-41 4.9256e-41 -5.5047e-41 -4.9945e-41 4.923e-41 -5.638e-41 5.1195e-41 4.9783e-41
-4.9784e-41 -4.9578e-41 -4.9184e-41 -4.9913e-41 -4.9257e-41 -4.9341e-41 -3.09687e-40 -5.047e-41
-4.982e-41 -4.9476e-41 5.1946e-41 -4.9351e-41 5.0855e-41 -5.3755e-41 -5.0252e-41 -5.01e-41
4.934e-41 -5.0431e-41 -4.9522e-41 5.2843e-41 5.0232e-41 -4.9979e-41 -4.9313e-41 4.9432e-41
4.9121e-41 4.9257e-41 -5.0716e-41 4.9201e-41 4.973e-41 -4.9354e-41 -5.0713e-41 -4.959e-41
-5.01e-41 -4.965e-41 5.0335e-41 -4.9728e-41 5.0235e-41 4.9551e-41 -4.9278e-41 4.9268e-41
-4.999e-41 1.76652e-40 -4.9533e-41 -5.002e-41 4.9928e-41 -5.1076e-41 4.9116e-41 -5.9824e-41
5.0682e-41 -5.19e-41 -5.3371e-41 5.0161e-41 -4.9414e-41 5.0293e-41 5.0975e-41 5.0888e-41
-4.9127e-41 -5.2348e-41 -5.0965e-41 -4.9427e-41 -5.0455e-41 -5.0478e-41 -4.9749e-41 -4.9969e-41
5.0974e-41 4.9553e-41 4.9969e-41 -4.09814e-40 6.0315e-41 -5.9283e-41 4.9934e-41 -5.1842e-41
5.5262e-41 4.9931e-41 -4.969e-41 -2.51278e-40 4.9484e-41 5.3398e-41 4.9415e-41 -4.9911e-41
-5.598e-41 4.9443e-41 4.9707e-41 -4.9623e-41 -5.1393e-41 -5.1583e-41 5.3405e-41 -4.9613e-41
-4.9329e-41 -5.1494e-41 -4.9903e-41 -5.1772e-41 4.9236e-41 -5.1561e-41 5.1854e-41 -5.0127e-41
4.9211e-41 -4.9833e-41 4.9462e-41 4.9564e-41 -5.0769e-41 5.2893e-41 5.6558e-41 -5.0223e-41
5.0521e-41 -4.9379e-41 -4.9274e-41 -5.8319e-41 5.3814e-41 5.0001e-41 4.948e-41 -5.4023e-41
4.942e-41 5.2816e-41 5.0112e-41 -5.3447e-41 -4.9617e-41 4.9721e-41 5.8639e-41 -5.6032e-41
5.2742e-41 4.9474e-41 4.9207e-41 4.9532e-41 4.9683e-41 5.0513e-41 5.1226e-41 4.9668e-41
00000000: 4c89 0080 e08a 0080 f789 0000 f08a 0000
00000010: 658b 0080 3d8b 0080 b08e 0080 988a 0000
00000020: 0d89 0080 c189 0080 6490 0000 0089 0080
00000030: 56ad 0080 128b 0080 0f8a 0000 bca0 0080
00000040: 839e 0000 32a4 0080 a78a 0080 88a7 0000
00000050: 838b 0080 3b89 0000 cf8b 0080 e288 0080
00000060: 7d8c 0000 7289 0000 6a99 0000 518b 0080
00000070: d089 0000 ea8a 0000 398c 0000 318a 0080
00000080: 1291 0000 628a 0000 1d93 0000 ec8a 0080
00000090: 088e 0000 f18a 0000 848a 0000 2149 0100
000000a0: 2595 0000 1494 0000 d38c 0000 568e 0080
000000b0: 75a8 0000 9a8d 0080 29ad 0000 e888 0080
000000c0: 5989 0080 c189 0000 fd89 0000 168d 0000
000000d0: 908c 0000 6f8a 0000 c58a 0000 8e8a 0080
000000e0: 328b 0080 2f51 0380 5ca1 0080 4c8b 0000
000000f0: 598c 0080 908a 0000 e08d 0080 ab89 0000
00000100: 028e 0080 ad89 0000 3593 0080 df8b 0000
00000110: 89ab 0080 f893 0000 1ba5 0000 e188 0080
00000120: 539e 0000 ab94 0000 b897 0000 628a 0000
00000130: 548a 0080 948b 0000 e988 0080 8e94 0000
00000140: e99d 0000 148c 0000 f28a 0000 bf9a 0080
00000150: 0d8d 0080 8e8b 0080 9b8d 0000 e38a 0080
00000160: f18b 0000 0d8b 0080 ba8a 0080 e48a 0000
00000170: 048a 0000 c68a 0000 c288 0080 f38b 0000
00000180: 568b 0080 6f8a 0000 3fa8 0080 6489 0000
00000190: de8d 0000 be88 0080 008b 0000 1d8b 0080
000001a0: fb8f 0080 c889 0080 cb8c 0000 a98a 0000
000001b0: bb8b 0080 d2a0 0080 6b89 0080 128a 0000
000001c0: 748b 0000 d789 0000 428a 0000 ae89 0000
000001d0: a18a 0000 448d 0000 598a 0080 078c 0080
000001e0: cd8c 0000 4e89 0000 7399 0080 3a8b 0080
000001f0: 3c89 0000 2a9d 0080 b68e 0000 c68a 0000
00000200: c78a 0080 348a 0080 1b89 0080 238b 0080
00000210: 4f89 0080 8b89 0080 485f 0380 b18c 0080
00000220: e18a 0080 eb89 0080 ce90 0000 9289 0080
00000230: c38d 0000 d995 0080 158c 0080 a98b 0080
00000240: 8a89 0000 958c 0080 0c8a 0080 4e93 0000
00000250: 078c 0000 528b 0080 7789 0080 cc89 0000
00000260: ee88 0000 4f89 0000 608d 0080 2789 0000
00000270: a18a 0000 9489 0080 5e8d 0080 3d8a 0080
00000280: a98b 0080 678a 0080 508c 0000 9f8a 0080
00000290: 098c 0000 218a 0000 5e89 0080 5789 0000
000002a0: 5a8b 0080 6fec 0100 148a 0080 6f8b 0080
000002b0: 2e8b 0000 618e 0080 ea88 0000 c4a6 0080
000002c0: 488d 0000 ad90 0080 c794 0080 d48b 0000
000002d0: bf89 0080 328c 0000 198e 0000 db8d 0000
000002e0: f288 0080 ed91 0080 128e 0080 c889 0080
000002f0: a68c 0080 b68c 0080 ae8a 0080 4b8b 0080
00000300: 188e 0000 228a 0000 4b8b 0000 6576 0480
00000310: 22a8 0000 42a5 0080 328b 0000 8490 0080
00000320: 0c9a 0000 308b 0000 848a 0080 76bc 0280
00000330: f189 0000 da94 0000 c089 0000 228b 0080
00000340: 0d9c 0080 d489 0000 908a 0000 548a 0080
00000350: 438f 0080 cb8f 0080 df94 0000 4d8a 0080
00000360: 8289 0080 8b8f 0080 1c8b 0080 5290 0080
00000370: 4089 0000 bb8f 0080 8c90 0000 bc8b 0080
00000380: 2e89 0000 ea8a 0080 e189 0000 2a8a 0000
00000390: 868d 0080 7293 0000 a99d 0000 008c 0080
000003a0: d58c 0000 a689 0080 5b89 0080 92a2 0080
000003b0: 0396 0000 628b 0000 ee89 0000 9896 0080
000003c0: c389 0000 3b93 0000 b18b 0000 fd94 0080
000003d0: 508a 0080 9a8a 0000 76a3 0000 329c 0080
000003e0: 0693 0000 ea89 0000 2b89 0000 138a 0000
000003f0: 7f8a 0000 cf8c 0000 cc8e 0000 748a 0000

module.bi_lstm2.bias_ih_l0 f4 [128]
0.010202392 0.0021071017 -0.0009340803 0.011136047 0.0049980236 0.022851989 -0.005069319 0.019037686
-0.01021599 0.021664258 -0.01948216 0.095120266 -0.008556651 0.059858955 0.014187413 -0.0059903907
-0.008123925 -0.002893412 0.0296987 0.004872964 0.0059792674 -0.0050137118 -0.0044697174 -0.0036795156
0.0013723923 0.0047796695 -0.005556107 0.014849749 -0.010209121 -0.010266691 0.004629221 0.037892204
-4.984e-41 4.9202e-41 -6.0273e-41 4.9152e-41 4.9487e-41 4.9806e-41 -4.9533e-41 -5.1199e-41
-5.1931e-41 -4.944e-41 -5.8986e-41 5.062e-41 -4.9268e-41 -4.9142e-41 4.9106e-41 -4.9052e-41
-4.938e-41 4.9188e-41 -5.008e-41 4.9329e-41 -4.941e-41 4.9893e-41 -5.0088e-41 4.9505e-41
5.4495e-41 -5.1217e-41 -5.2308e-41 -5.0434e-41 -4.9588e-41 5.4314e-41 -5.4382e-41 4.9114e-41
-0.026786128 0.011003215 -0.0068024774 0.02477657 -0.09328235 -0.04042629 0.025836991 -0.047416706
-0.040006634 0.0071536126 -0.0039943038 0.25618404 -0.045178205 -0.1923321 -0.00065298384 -0.034803744
-0.05005635 -0.0031291253 -0.1484395 -0.05314553 -0.02895064 -0.04248418 -0.049482968 0.032645714
-0.035512287 0.012744573 -0.066040926 -0.07938396 -0.00038501364 0.0145111615 -0.0033767035 -0.18466096
0.010247154 0.0020960579 -0.000966034 0.011197768 0.0050319284 0.022979131 -0.0051014256 0.019107899
-0.01018482 0.021575406 -0.01949404 0.09890405 -0.008571709 0.060837276 0.014116829 -0.006006197
-0.008147569 -0.0029142408 0.03012986 0.0048682108 0.0059967 -0.0050295535 -0.0045125764 -0.0036940065
0.0013052428 0.0047543934 -0.00564136 0.014848372 -0.010225812 -0.010282732 0.0045920336 0.039234634
00000000: ef27 273c 4d17 0a3b 11dd 74ba f773 363c
00000010: 76c6 a33b 1834 bb3c 881c a6bb ecf4 9b3c
00000020: f860 27bc 3e79 b13c 0d99 9fbc 6ace c23d
00000030: 3231 0cbc aa2e 753d 5372 683c 0a4b c4bb
00000040: 361a 05bc 669f 3dbb b04a f33c 63ad 9f3b
00000050: bbed c33b 104a a4bb b576 92bb 0724 71bb
00000060: d8e1 b33a c69e 9c3b 0110 b6bb 5d4c 733c
00000070: 2844 27bc a035 28bc b8b0 973b db34 1b3d
00000080: ef8a 0080 2889 0000 04a8 0080 0489 0000
00000090: f389 0000 d78a 0000 148a 0080 b98e 0080
000000a0: c390 0080 d289 0080 6ea4 0080 1c8d 0000
000000b0: 5789 0080 fd88 0080 e388 0000 bd88 0080
000000c0: a789 0080 1e89 0000 9a8b 0080 8289 0000
000000d0: bc89 0080 158b 0000 a08b 0080 008a 0000
000000e0: e997 0000 c68e 0080 d091 0080 978c 0080
000000f0: 3b8a 0080 6897 0000 9897 0080 e988 0000
00000100: 956e dbbc d446 343c 51e7 debb 3cf8 ca3c
00000110: d10a bfbd 0a96 25bd 19a8 d33c 0538 42bd
00000120: ffdd 23bd da68 ea3b a6e2 82bb 8e2a 833e
00000130: c80c 39bd b5f2 44be 012d 2bba 5f8e 0ebd
00000140: e307 4dbd 0312 4dbb 8600 18be 21af 59bd
00000150: e429 edbc e403 2ebd a7ae 4abd 83b7 053d
00000160: 5575 11bd 9dce 503c 7740 87bd 0f94 a2bd
00000170: a8db c9b9 39c0 6d3c af4b 5dbb c317 3dbe
00000180: aee3 273c 045e 093b 723d 7dba d876 373c
00000190: e0e2 a43b bb3e bc3c dc29 a7bb 2b88 9c3c
000001a0: 3bde 26bc e8be b03c f7b1 9fbc 358e ca3d
000001b0: 5a70 0cbc 8230 793d 464a 673c a2cf c4bb
000001c0: 627d 05bc d9fc 3ebb e5d2 f63c 8385 9f3b
000001d0: f77f c43b f4ce a4bb 3cde 93bb 2517 72bb
000001e0: ae14 ab3a beca 9b3b 28db b8bb 9646 733c
000001f0: 2a8a 27bc e778 28bc c578 963b 7fb4 203d
