output/clip/FD004/exp_202411012358_bilstm_clip_ep-0013.pth (torch, 288916 bytes, 66 tensors)

module.bi_lstm1.weight_ih_l0 f4 [64, 14]
0.021157768 0.0065615866 0.028030183 -0.013137135 -0.026228743 0.010037858 -0.07276356 0.0025045953
-0.013583518 0.024553766 -0.011332335 -0.030028256 0.022529189 0.03755004 0.15254055 0.121487446
0.17300858 0.016576832 0.10667629 -0.047735102 0.16393973 0.0019791494 0.10782782 -0.047278956
0.18037169 0.12728074 -0.00052882114 0.08443217 0.07219415 0.034670945 0.10033809 0.17091586
0.0395793 0.11627077 0.05049304 0.15428962 -0.008828761 0.013862868 -0.032437798 0.17266884
0.07614868 0.0047719013 0.022246081 0.03444548 0.030916033 0.051687926 -0.0017888704 0.00850703
0.0490904 0.072921656 -0.0069387555 0.0008472535 -0.012604346 0.047091134 0.043595254 0.042201806
0.10756015 0.13499047 0.08837704 0.045650188 0.050868325 0.02126762 0.16934952 0.06196774
0.09810677 0.020655625 0.10303591 0.10638762 0.009127377 0.08914467 0.002855385 -0.003483772
0.011170754 -0.008491244 0.00352808 -0.0073770136 0.012307259 -0.011082834 0.004112168 -0.008194768
-0.0065301657 0.0011925704 -0.007073482 -0.0047523687 -0.049610965 -0.026419878 -0.057317145 0.15770277
-0.03904088 0.06724507 0.034753863 0.15935701 0.062032294 0.09512484 0.14023422 -0.02477768
0.1559352 0.17971846 0.18594839 0.11364998 0.17110455 -0.092394404 0.13841078 -0.0701236
0.17608131 -0.098227106 0.13442284 -0.06886922 0.22026312 0.15690415 -0.03103125 0.01907841
-0.01198577 -0.021115208 0.001690132 -0.03195705 -0.026519997 -0.0182988 -0.017920839 -0.035166845
-0.027296605 -0.023387054 -0.0052814516 -0.027416691 -0.038141027 -0.025609754 0.09262836 0.13724346
0.120671906 0.17054334 0.0487404 0.08694832 0.17144506 0.19800049 0.034676947 0.06723336
0.022908509 0.1258213 0.10017265 0.11604786 -0.052323636 0.051988147 0.019977678 0.07881959
0.078366145 0.086528406 0.009800286 0.09906774 0.03896513 0.068664946 -0.012358753 0.090906896
-0.0010691931 0.0011487057 -0.034594376 0.13506927 -0.071231104 0.02888688 0.11678865 -0.014089436
-0.08263624 -0.12056842 -0.038275518 0.079150096 -0.0634824 0.070203945 -0.08515898 -0.0050097886
0.037212044 0.02895344 0.044995915 0.053919863 0.008984424 0.005121605 0.031138737 0.05397592
0.009148031 0.010738095 0.018336585 0.033040002 0.05090692 0.039136868 -0.032144614 0.05699716
0.03200082 0.118337944 0.061368875 0.054347772 0.072178096 0.11186013 0.047280613 0.058940466
0.05350787 -0.024021108 0.041976634 0.08223314 0.094721064 0.061936203 0.09953391 0.13983794
0.04011696 0.13995308 0.14784889 0.12278586 0.1006443 0.1252747 -0.053311657 0.10818276
0.15366939 0.15193507 -0.047194052 -0.035775434 -0.0022385481 -0.060423873 0.008173159 -0.005971083
-0.005771285 -0.071861915 0.012356155 -0.0059662424 -0.0840352 -0.030310016 -0.052342005 -0.00599327
-0.03191779 -0.0376817 -0.00224302 -0.01095929 0.0207106 0.015000962 -0.07050902 -0.008357456
0.026921447 0.023174236 0.02945992 -0.054630745 0.043269288 0.012622467 0.18213227 0.113213204
0.18420947 -0.034514047 0.10116983 -0.069605105 0.2037812 -0.022843441 0.09071519 -0.068785906
0.15894307 0.1740235 -0.0388378 0.030928887 0.12160457 0.078485996 0.13042606 0.18982549
00000000: 0e53 ad3c 9402 d73b 8e9f e53c 233d 57bc
00000010: a9dd d6bc d475 243c 1005 95bd 2324 243b
00000020: 678d 5ebc fb24 c93c 42ab 39bc d1fd f5bc
00000030: 228f b83c 12ce 193d 9733 1c3e 69ce f83d
00000040: 2929 313e 23cc 873c 1979 da3d e285 43bd
00000050: d1df 273e 9eb4 013b d5d4 dc3d 94a7 41bd
00000060: 5bb3 383e e255 023e 96a0 0aba c6ea ac3d
00000070: 87da 933d 1f03 0e3d 0e7e cd3d 9104 2f3e
00000080: e71d 223d 5f1f ee3d cad1 4e3d 19fe 1d3e
00000090: 82a6 10bc 1521 633c 7fdd 04bd 1ad0 303e
000000a0: d7f3 9b3d 9c5d 9c3b 6a3d b63c b416 0d3d
000000b0: 9f43 fd3c b8b6 533d 8878 eaba 1261 0b3c
000000c0: 0413 493d f357 953d 805e e3bb 381a 5e3a
000000d0: 7582 4ebc a2e2 403d f090 323d cddb 2c3d
000000e0: 7f48 dc3d f13a 0a3e 06ff b43d b1fb 3a3d
000000f0: 4e5b 503d 6f39 ae3c f669 2d3e e3d1 7d3d
00000100: 34ec c83d fc35 a93c 7e04 d33d c1e1 d93d
00000110: fe8a 153c 7b91 b63d 6921 3b3b ff4f 64bb
00000120: 8a05 373c dc1e 0bbc 5c37 673b e0ba f1bb
00000130: 63a4 493c c694 35bc 5ebf 863b 5943 06bc
00000140: 00fb d5bb 0650 9c3a abc8 e7bb c2b9 9bbb
00000150: de34 4bbd 806e d8bc 62c5 6abd d67c 213e
00000160: 54e9 1fbd c9b7 893d 115a 0e3d 7c2e 233e
00000170: 9315 7e3d d0d0 c23d 8f99 0f3e 90fa cabc
00000180: 7aad 1f3e 1e08 383e 4169 3e3e 52c1 e83d
00000190: 0836 2f3e 4739 bdbd 8ebb 0d3e f69c 8fbd
000001a0: a94e 343e 4b2b c9bd 24a6 093e 4e0b 8dbd
000001b0: a88c 613e 7bab 203e 3f35 febc 534a 9c3c
000001c0: f75f 44bc cdf9 acbc 6b87 dd3a 65e5 02bd
000001d0: 7740 d9bc 5de7 95bc b9ce 92bc 1c0b 10bd
000001e0: 219d dfbc 3596 bfbc 0710 adbb f898 e0bc
000001f0: c439 1cbd 8ccb d1bc f0b3 bd3d 8d89 0c3e
00000200: d522 f73d eaa2 2e3e 03a4 473d f611 b23d
00000210: 4b8f 2f3e a4c0 4a3e 6a09 0e3d a5b1 893d
00000220: a0aa bb3c 4dd7 003e 5127 cd3d 80aa ed3d
00000230: 4f51 56bd 86f1 543d 3aa8 a33c 2a6c a13d
00000240: 6e7e a03d ce35 b13d 6191 203c 07e4 ca3d
00000250: e699 1f3d 35a0 8c3d 5e7c 4abc 652d ba3d
00000260: 2b24 8cba 2b90 963a d5b2 0dbd 994f 0a3e
00000270: 9de1 91bd 2ea4 ec3c e32e ef3d 61d7 66bc
00000280: 303d a9bd 93ec f6bd cac6 1cbd 7219 a23d
00000290: 0f03 82bd 16c7 8f3d d567 aebd 2729 a4bb
000002a0: a86b 183d c42f ed3c a34d 383d 13db 5c3d
000002b0: 6833 133c 23d3 a73b aa16 ff3c db15 5d3d
000002c0: 9fe1 153c d6ee 2f3c 9b36 963c f454 073d
000002d0: c683 503d fb4d 203d 12aa 03bd db75 693d
000002e0: 4b13 033d 2a5b f23d ee5d 7b3d c59b 5e3d
000002f0: 1cd2 933d ed16 e53d 51a9 413d 8f6b 713d
00000300: 112b 5b3d eac7 c4bc b1ef 2b3d d969 a83d
00000310: 1efd c13d d1b0 7d3d 6fd8 cb3d ad31 0f3e
00000320: ae51 243d dc4f 0f3e b365 173e 2777 fb3d
00000330: 991e ce3d 0348 003e 535d 5abd ec8e dd3d
00000340: 825b 1d3e de94 1b3e 8d4e 41bd 4389 12bd
00000350: 9bb4 12bb 067f 77bd b7e8 053c 13a9 c3bb
00000360: 0c1d bdbb 572c 93bd 7871 4a3c 7880 c3bb
00000370: a61a acbd b64c f8bc 9264 56bd 3163 c4bb
00000380: 3bbc 02bd 2058 1abd a2ff 12bb 988e 33bc
00000390: 47a9 a93c 98c6 753c 0867 90bd b6ed 08bc
000003a0: 5e8a dc3c e5d7 bd3c ee55 f13c 7dc4 5fbd
000003b0: 233b 313d 77ce 4e3c e280 3a3e 53dc e73d
000003c0: 68a1 3c3e 9a5e 0dbd 2132 cf3d 1f8d 8ebd
000003d0: 05ac 503e 2b22 bbbc e3c8 b93d a0df 8cbd
000003e0: f9c1 223e 3733 323e 6314 1fbd 945e fd3c
000003f0: d10b f93d 44bd a03d 698e 053e 9d61 423e

module.bi_lstm1.weight_hh_l0 f4 [64, 16]
0.0027157557 -0.054640185 -0.016116682 -0.00060899334 0.01306545 0.015320818 -0.0007690334 0.059678294
0.01436591 -0.029312765 0.02006868 0.028255258 0.017261185 0.011123249 0.0033351765 -0.016784247
-0.019805513 0.16222745 0.029798646 -0.004228302 0.050078 -0.011569738 0.057287756 -0.2110275
0.00087985815 0.016585026 0.020645928 0.015564222 -0.059511095 0.020156551 0.011482451 0.03049354
0.021154288 0.09171058 0.04645101 -0.012094388 0.02968485 0.00014322657 -0.041444022 -0.07687174
-0.009183987 0.14030819 0.009520921 0.02431131 -0.0019139149 0.041228812 0.04506247 0.013842343
0.0023043172 -0.019646354 -0.0006076745 0.017658964 0.012699841 0.012109126 -0.00695037 0.010251257
-0.0040692626 -0.033745117 0.024931224 0.017057652 0.021661218 0.010037032 0.007418856 -0.006026018
0.010305022 0.07769941 0.04845915 -0.0071932334 -0.048424724 -0.016978655 -0.044216156 -0.07418384
-0.0038937954 0.15709576 -0.025245415 -0.025764052 -0.009797403 0.014982293 0.026909025 0.01898915
-0.005406051 0.0036973613 0.007601681 -0.0046896557 0.0071713594 -0.00030783884 -0.00361105 -0.005614122
0.0024989834 0.013541263 -0.011019958 0.0031306949 -0.008469615 0.006745837 -0.0118759535 -0.00030399775
0.006627404 -0.08565154 -0.016357934 0.072700575 -0.032168098 0.025728114 -0.04935948 0.103486545
-0.007037981 -0.038120426 0.009875539 0.06280909 0.05991732 0.053762317 0.005889707 -0.02645123
-0.04778116 0.15980533 0.0046161185 -0.0015488942 0.04074916 -0.0027156514 0.09160522 -0.20663476
-0.005915693 -0.08989712 -0.002688113 0.016475348 -0.103808254 -0.0067506623 -0.011923869 0.022691526
-0.005858362 -0.015692802 -0.04691406 -0.007157937 -0.03551156 0.006239518 0.025892887 0.011583168
-0.0014950356 -0.06578289 -0.007983028 -0.012889992 0.006771436 -0.032246668 -0.03291432 0.0030831376
0.026666556 -0.025944361 0.005727085 0.015613809 0.023545425 0.026829282 0.062140603 -0.020698817
0.005361247 -0.009414551 0.13908294 0.024341282 -0.008053788 0.011530217 0.027031522 -0.00048247597
0.01197765 -0.029381802 0.04674673 0.005043077 -0.026791207 0.01176485 -0.014590843 0.039719686
0.009279701 0.04469347 0.031339213 0.0037776488 0.019966431 0.017179549 0.044514887 -0.01402491
0.00064688106 -0.010534796 -0.021409877 0.044580545 0.09749126 -0.06424553 0.009106313 0.070607595
-0.013904075 -0.09187778 0.007403514 0.04228678 0.008603611 -0.002249092 -0.034692857 0.028201105
0.0119316 0.071338914 0.039187197 0.013270257 0.033984605 -0.008137393 -0.023648473 -0.0739138
0.0018937269 0.05857103 0.038654335 0.01567316 -0.026481126 0.027767645 0.04738355 -0.007081766
0.022518395 0.01903992 0.04341979 0.0070461947 0.013125273 -0.018227303 -0.0595986 -0.040197447
-0.0075016413 0.13263872 -0.0075987466 -0.0066408194 0.006558469 0.022033839 0.032097653 0.011410456
0.006884795 -0.02932398 0.05596884 0.048654173 0.049364097 0.027198214 -0.000500072 0.03718532
0.008888824 -0.026164776 0.054030206 0.04492819 0.03583351 0.027847096 0.019276394 -0.019409157
-0.005406678 0.071874276 -0.021781802 -0.0067141047 -0.041009754 -0.02682095 0.021433063 -0.060860384
-0.0007783651 0.009941894 -0.014495388 -0.028314715 -0.030978264 -0.035715543 0.014955222 0.018472094
00000000: d2fa 313b 63ce 5fbd 2207 84bc daa4 1fba
00000010: 7810 563c 2b04 7b3c f598 49ba 3a71 743d
00000020: fe5e 6b3c 5321 f0bc 1367 a43c 9277 e73c
00000030: 5467 8d3c 4a3e 363c fa92 5a3b 1e7f 89bc
00000040: 2c3f a2bc f41e 263e 4a1c f43c 918d 8abb
00000050: 971e 4d3d 008f 3dbc 91a6 6a3d 9817 58be
00000060: 48a6 663a 52dd 873c a621 a93c 1401 7f3c
00000070: e8c1 73bd 5a1f a53c e420 3c3c 97cd f93c
00000080: c24b ad3c c2d2 bb3d 6a43 3e3d 8a27 46bc
00000090: a42d f33c 172f 1639 35c1 29bd ee6e 9dbd
000000a0: 6f78 16bc f3ac 0f3e a3fd 1b3c 8328 c73c
000000b0: 54dc faba 8bdf 283d 6d93 383d ffca 623c
000000c0: 0704 173b 64f1 a0bc 584c 1fba 88a9 903c
000000d0: fe12 503c 5b65 463c eebf e3bb e3f4 273c
000000e0: 7357 85bb 5238 0abd 913c cc3c 7dbc 8b3c
000000f0: de72 b13c 5d72 243c e019 f33b e775 c5bb
00000100: 65d6 283c de20 9f3d 1a7d 463d 37b5 ebbb
00000110: 0159 46bd d216 8bbc 001c 35bd b2ed 97bd
00000120: 0c2f 7fbb b6dd 203e 79cf cebc 220f d3bc
00000130: 4985 20bc 4b78 753c 5170 dc3c 228f 9b3c
00000140: 3e25 b1bb 6e4f 723b 8617 f93b afab 99bb
00000150: b9fd ea3b 6e65 a1b9 5ea7 6cbb abf6 b7bb
00000160: fcc5 233b 2cdc 5d3c 0e8d 34bc 582c 4d3b
00000170: 24c4 0abc 2f0c dd3b 5c93 42bc e361 9fb9
00000180: b22a d93b 136a afbd 1301 86bc 0ae4 943d
00000190: b2c2 03bd c4c3 d23c 2b2d 4abd c1f0 d33d
000001a0: dd9e e6bb 2a24 1cbd 03cd 213c 0da2 803d
000001b0: dd6b 753d e035 5c3d 71fe c03b 40b0 d8bc
000001c0: 2db6 43bd 02a4 233e cf42 973b 4404 cbba
000001d0: 97e8 263d 12f9 31bb 859b bb3d 1098 53be
000001e0: 6ed8 c1bb fb1b b8bd 0d2b 30bb 4ff7 863c
000001f0: 6c99 d4bd a934 ddbb 555c 43bc 94e3 b93c
00000200: 81f7 bfbb 318e 80bc f528 40bd 218d eabb
00000210: 9274 11bd df74 cc3b 521d d43c 54c7 3d3c
00000220: 12f5 c3ba 2eb9 86bd 3fcb 02bc 8c30 53bc
00000230: ece2 dd3b 1515 04bd 2ad1 06bd 770e 4a3b
00000240: d273 da3c 4589 d4bc 45aa bb3b 10d1 7f3c
00000250: 56e2 c03c 15c9 db3c 2587 7e3d 9190 a9bc
00000260: 66ad af3b 7d3f 1abc c26b 0e3e 5e67 c73c
00000270: 09f4 03bc 3ce9 3c3c 3671 dd3c d4f4 fcb9
00000280: e83d 443c 1bb2 f0bc 8079 3f3d 6540 a53b
00000290: 3c79 dbbc 5bc1 403c 6e0e 6fbc 1cb1 223d
000002a0: e309 183c 8010 373d 8c5d 003d 6e92 773b
000002b0: a490 a33c 20bc 8c3c 3e55 363d bcc8 65bc
000002c0: 7493 293a 239a 2cbc c463 afbc 179a 363d
000002d0: 7fa9 c73d 2993 83bd a532 153c b79a 903d
000002e0: ebcd 63bc 6b2a bcbd 2d99 f23b e734 2d3d
000002f0: 29f6 0c3c 8165 13bb 191a 0ebd 0106 e73c
00000300: c27c 433c 231a 923d c182 203d 7e6b 593c
00000310: 7133 0b3d b352 05bc 71ba c1bc 1e60 97bd
00000320: ee36 f83a 2de8 6f3d 0254 1e3d 0065 803c
00000330: f2ee d8bc f978 e33c 4115 423d 290e e8bb
00000340: 7f78 b83c 9bf9 9b3c f3d8 313d c4e3 e63b
00000350: 630b 573c 6d51 95bc a91d 74bd 14a6 24bd
00000360: 54d0 f5bb 72d2 073e e8fe f8bb 3b9b d9bb
00000370: 6de8 d63b 4f80 b43c d478 033d ecf2 3a3c
00000380: d999 e13b d838 f0bc 953f 653d 9949 473d
00000390: 0232 4a3d cace de3c 4417 03ba a24f 183d
000003a0: 6ea2 113c 8357 d6bc c74e 5d3d 9f06 383d
000003b0: 29c6 123d 981f e43c 87e9 9d3c f4ff 9ebc
000003c0: 812a b1bb d232 933d c06f b2bc fe01 dcbb
000003d0: d8f9 27bd 9cb7 dbbc 6494 af3c bd48 79bd
000003e0: 330b 4cba 53e3 223c 107e 6dbc 43f4 e7bc
000003f0: 21c6 fdbc 764a 12bd bf06 753c ca52 973c

module.bi_lstm1.bias_ih_l0 f4 [64]
0.06646315 0.1481591 0.031369228 -0.020162325 -0.012284095 0.04400276 0.008176489 0.16277765
-0.033324838 0.05962275 0.10102608 -0.0078078904 0.055108406 0.07785772 0.15798648 -0.018068116
0.015616281 0.16373202 -0.02830495 0.023656454 0.039409705 0.01211166 0.09723228 0.14458257
-0.01475992 0.1414075 0.11423624 -0.08183774 0.07458936 -0.01849426 0.1152469 -0.013776039
0.012984791 -0.21242023 0.145684 0.02654933 0.15664536 0.16640663 0.08694615 0.061765872
0.13908319 0.0717281 -0.16826499 0.19351536 -0.041276224 0.104645945 0.06444112 -0.22187671
-0.046416078 0.12943105 -0.07751611 0.025439633 0.115580045 0.01021344 0.11500029 0.18600471
-0.034703683 0.17437291 0.017856998 0.03741292 0.059468534 -0.06600593 0.02970729 -0.04051681
00000000: d51d 883d 05b7 173e 057d 003d 762b a5bc
00000010: 3b43 49bc 3d3c 343d aef6 053c 2faf 263e
00000020: a07f 08bd fc36 743d c3e6 ce3d 55d9 ffbb
00000030: 5ab9 613d de73 9f3d 35c7 213e 9603 94bc
00000040: 6edb 7f3c 5ea9 273e c8df e7bc 2ecb c13c
00000050: 126c 213d fc6f 463c b821 c73d 740d 143e
00000060: 97d3 71bc 21cd 103e b1f4 e93d 8c9a a7bd
00000070: 4ec2 983d 4681 97bc 9106 ec3d e5b4 61bc
00000080: 29be 543c b084 59be 302e 153e fb7d d93c
00000090: a467 203e 8066 2a3e d310 b23d 36fe 7c3d
000000a0: d36b 0e3e 2fe6 923d a84d 2cbe e428 463e
000000b0: 4211 29bd 9d50 d63d b5f9 833d a633 63be
000000c0: c91e 3ebd 9389 043e c4c0 9ebd c766 d03c
000000d0: 3bb5 ec3d 4656 273c 4685 eb3d 0578 3e3e
000000e0: 7325 0ebd d08e 323e d748 923c 4a3e 193d
000000f0: 4795 733d 1e2e 87bd b45c f33c f4f4 25bd

module.bi_lstm1.bias_hh_l0 f4 [64]
-0.089701556 0.2028974 0.10301805 0.05611557 -0.030104589 0.020948723 0.09326873 0.14205378
-0.04148116 0.09940021 -0.0677772 0.030958343 0.056441925 0.0061669764 0.13835393 -0.01470071
-0.08704064 0.0761498 -0.103908636 -0.02156137 -0.103809364 -0.020821638 0.055945303 0.14946884
-0.013370323 0.16043119 0.05440922 0.11382038 0.07243697 0.04791136 -0.010834376 -0.076689176
-0.18112895 -0.0842631 -0.046758458 0.040865496 0.042815126 -0.0341749 0.16219845 0.19124496
0.10779909 -0.2575728 0.23559766 0.20368074 -0.20066315 -0.038733367 0.027622128 -0.119259246
-0.09890376 0.16169167 0.010871789 0.023742804 -0.03115846 6.7099936e-06 0.15429983 0.1843265
-0.042184446 0.08473848 0.16845284 -0.017016545 0.07831455 0.034647427 0.12848264 -0.118331514
00000000: 73b5 b7bd 56c4 4f3e 21fb d23d 71d9 653d
00000010: e69d f6bc a89c ab3c ad03 bf3d 8c76 113e
00000020: 26e8 29bd 5692 cb3d c6ce 8abd 5a9c fd3c
00000030: a62f 673d 5914 ca3b a7ac 0d3e 3fdb 70bc
00000040: 5d42 b2bd 6df4 9b3d 0dce d4bd 78a1 b0bc
00000050: 019a d4bd 2492 aabc e726 653d 5c0e 193e
00000060: 330f 5bbc 1348 243e 34dc 5e3d a91a e93d
00000070: d659 943d b43e 443d ab82 31bc 370f 9dbd
00000080: de79 39be 2292 acbd cc85 3fbd 9462 273d
00000090: ea5e 2f3d fbfa 0bbd 5a17 263e b8d5 433e
000000a0: c5c5 dc3d 95e0 83be 8340 713e af91 503e
000000b0: a47a 4dbe e1a6 1ebd cd47 e23c 313e f4bd
000000c0: 0e8e cabd 8092 253e 971f 323c 4580 c23c
000000d0: 0740 ffbc 6826 e136 c600 1e3e 16c0 3c3e
000000e0: 99c9 2cbd 5e8b ad3d e77e 2c3e 4866 8bbc
000000f0: 6163 a03d 76ea 0d3d f490 033e cb57 f2bd

module.bi_lstm1.weight_ih_l0_reverse f4 [64, 14]
0.07434761 -0.0629194 0.25281352 0.14954452 0.017350396 0.07068579 0.051305257 0.1354857
0.070587575 0.23553902 -0.11101441 0.11034362 -0.03051294 0.072543204 0.17675686 0.11406733
-0.082614325 -0.15182152 0.045731198 -0.07541307 -0.16809225 0.013239776 -0.0107194865 -0.07242819
0.090450406 0.08154321 0.09318954 0.06585032 0.033516582 -0.10383836 0.038126424 -0.08937531
-0.12535474 -0.09116632 -0.01854952 0.03625933 -0.1722708 0.09909068 -0.13853209 -0.13768068
0.10088616 0.052963108 -0.03705811 0.17863995 0.052854225 0.048558258 0.11865357 0.019741679
-0.21700138 -0.10978162 0.072582625 0.11790079 -0.030756177 -0.0690056 -0.11064849 -0.0690921
0.15609416 0.089324474 -0.03855625 -0.19769785 -0.106747776 -0.019946435 0.08403854 -0.04014366
0.12740213 -0.03789212 0.21299122 0.08737482 0.047731653 0.15112916 0.14194012 0.051519714
0.108423546 -0.05087253 0.061130628 0.027555713 0.0907066 0.013933964 -0.10979345 0.06742571
0.08631292 0.088216476 -0.071208626 -0.13434157 -0.12519506 0.043106787 0.07028404 0.15860902
0.23035254 0.11324538 0.20330392 0.030821102 0.24087171 0.18953654 0.08779345 0.04514478
0.029686844 -0.061226513 0.1547802 0.15062319 0.17819957 0.022952769 0.13194394 0.048327617
0.23733738 0.0037391346 0.13838783 0.010820215 0.22596367 0.1645649 0.098030835 0.112755656
0.17531826 -0.027204366 0.20865957 0.06269377 -0.0057338965 -0.10311201 0.18842179 -0.11482392
0.11323805 -0.13904881 0.06482393 -0.030556295 -0.10957578 -0.050382167 0.04638383 0.04061136
0.02991826 -0.018561374 0.052452683 -0.05421266 -0.004996304 -0.0368862 0.07648417 -0.0485344
0.012953072 0.03198127 -0.015052819 -0.021752357 0.027822975 0.16551699 0.2794598 0.11934162
0.11296121 0.14073604 0.025846528 0.091216 0.04637253 0.13849954 0.17759289 0.019061182
0.08563337 -0.12199449 -0.07165958 -0.08487909 0.12634373 0.1441267 0.123202085 0.13317935
-0.06326284 0.27256426 0.30516297 0.029547002 0.115958974 0.10547874 0.1501036 -0.010198554
0.06785888 -0.054367192 -0.10418674 -0.03012661 -0.012129342 -0.009347159 -0.170121 0.020450123
-0.041881207 0.0014940869 -0.03337003 -0.030405812 -0.04698366 -0.04483996 0.066089414 0.15844867
0.12740594 0.012606653 -0.035083793 0.0039545777 -0.15739916 -0.076250896 -0.05884617 -0.10170683
-0.06210142 0.06109996 -0.14541101 -0.10432979 -0.07457186 0.049009036 -0.14615577 -0.02534183
-0.11398633 -0.08183521 -0.15352307 -0.035171356 -0.07318064 -0.009748815 0.058010176 0.03472929
-0.044627078 0.08658995 0.1451011 -0.0048590032 0.11401233 0.035955813 -0.009922467 -0.09275321
0.0060471967 0.07536063 0.07643974 -0.06526986 0.25631282 0.051008344 -0.00015713267 0.15205501
0.0033465598 0.2158599 0.25319424 0.23582122 0.23082775 0.18868051 0.18913896 0.12678778
0.1834939 0.18606918 -0.043725174 0.3043859 -0.07648049 0.05652117 0.17810972 -0.06434444
-0.05636635 -0.0043415152 -0.03296924 -0.04879925 -0.14149888 -0.027644645 0.048232462 0.12375519
0.1738629 0.08526213 0.084871694 -0.015784172 0.20057611 0.14656156 0.15871556 0.10258667
00000000: 8f43 983d e3db 80bd c670 813e 3322 193e
00000010: 6b22 8e3c b6c3 903d 7625 523d c3bc 0a3e
00000020: 3890 903d 2431 713e 865b e3bd d6fb e13d
00000030: 46f6 f9bc 8891 943d c0ff 343e 229c e93d
00000040: b331 a9bd 1a77 1bbe a350 3b3d 2b72 9abd
00000050: 6020 2cbe a5eb 583c c9a0 2fbc 3b55 94bd
00000060: 103e b93d 2000 a73d 28da be3d 88dc 863d
00000070: af48 093d 35a9 d4bd 742a 1c3d 670a b7bd
00000080: fe5c 00be 68b5 babd 2af5 97bc aa84 143d
00000090: c267 30be 0ef0 ca3d 5bdb 0dbe 2afc 0cbe
000000a0: 679d ce3d d8ef 583d 3fca 17bd 64ed 363e
000000b0: ac7d 583d 06e5 463d a500 f33d 4db9 a13c
000000c0: 9c35 5ebe 30d5 e0bd 33a6 943d f875 f13d
000000d0: 61f4 fbbc cf52 8dbd ad9b e2bd 2980 8dbd
000000e0: 26d7 1f3e c0ef b63d 29ed 1dbd 4e71 4abe
000000f0: 949e dabd b566 a3bc 661c ac3d ae6d 24bd
00000100: b475 023e c534 1bbd 5f1a 5a3e 92f1 b23d
00000110: 4482 433d 9ac1 1a3e c058 113e 5606 533d
00000120: 2a0d de3d b75f 50bd 1c64 7a3d 85bc e13c
00000130: 62c4 b93d 484b 643c 63db e0bd 7e16 8a3d
00000140: d4c4 b03d d7aa b43d d4d5 91bd d690 09be
00000150: 2233 00be be90 303d 14f1 8f3d 676a 223e
00000160: 89e1 6b3e 32ed e73d e72e 503e 897c fc3c
00000170: 13a7 763e de15 423e 0dcd b33d bce9 383d
00000180: d331 f33c a7c8 7abd b37e 1e3e f73c 1a3e
00000190: f379 363e 7207 bc3c 501c 073e 2ef3 453d
000001a0: 9208 733e 450c 753b 8ab5 0d3e 4547 313c
000001b0: 0563 673e b383 283e 64c4 c83d 70ec e63d
000001c0: a186 333e b1db debc dbaa 553e 9765 803d
000001d0: 69e3 bbbb 642c d3bd a4f1 403e ce28 ebbd
000001e0: 5ae9 e73d d062 0ebe 69c2 843d 3251 fabc
000001f0: 4469 e0bd 885d 4ebd f9fc 3d3d 1958 263d
00000200: 2417 f53c 060e 98bc a0d8 563d 180e 5ebd
00000210: 09b8 a3bb fc15 17bd bca3 9c3d 02cc 46bd
00000220: 1f39 543c cbfe 023d 19a0 76bc 0032 b2bc
00000230: 02ed e33c 497d 293e 5b15 8f3e 6169 f43d
00000240: 3558 e73d 1c1d 103e 19bc d33c 74cf ba3d
00000250: 1ff1 3d3d d3d2 0d3e e9da 353e 3226 9c3c
00000260: 8c60 af3d 3fd8 f9bd 42c2 92bd 17d5 adbd
00000270: 4060 013e f395 133e 6051 fc3d 2b60 083e
00000280: f38f 81bd 8b8d 8b3e 523e 9c3e 8e0c f23c
00000290: e67b ed3d 3d05 d83d c2b4 193e d617 27bc
000002a0: 99f9 8a3d 22b0 5ebd dc5f d5bd 15cc f6bc
000002b0: 26ba 46bc d424 19bc 3334 2ebe 0487 a73c
000002c0: a18b 2bbd 3dd5 c33a 03af 08bd 9c15 f9bc
000002d0: f071 40bd 1baa 37bd e359 873d 5e40 223e
000002e0: b476 023e 238c 4e3c 06b4 0fbd 6795 813b
000002f0: 3f2d 21be 6e29 9cbd ae08 71bd ac4b d0bd
00000300: 0f5e 7ebd f443 7a3d a0e6 14be dbaa d5bd
00000310: 22b9 98bd b3bd 483d dca9 15be ab99 cfbc
00000320: aa71 e9bd 3899 a7bd 2735 1dbe d70f 10bd
00000330: bbdf 95bd 7eb9 1fbc 149c 6d3d 4d40 0e3d
00000340: e2ca 36bd 1256 b13d 6295 143e 4638 9fbb
00000350: 4c7f e93d 6746 133d d891 22bc 65f5 bdbd
00000360: 9027 c63b ad56 9a3d 708c 9c3d 34ac 85bd
00000370: 6f3b 833e 20ee 503d fbc3 24b9 4fb4 1b3e
00000380: f551 5b3b 610a 5d3e ada2 813e 1e7b 713e
00000390: 1c5e 6c3e 7735 413e a5ad 413e a8d4 013e
000003a0: d3e5 3b3e eb88 3e3e 2b19 33bd 78d8 9b3e
000003b0: cea1 9cbd be82 673d 6562 363e 05c7 83bd
000003c0: 67e0 66bd 4543 8ebb c10a 07bd b9e1 47bd
000003d0: 15e5 10be 0677 e2bc 678f 453d 5c73 fd3d
000003e0: 1e09 323e e99d ae3d 36d1 ad3d cf4d 81bc
000003f0: d363 4d3e 3c14 163e 5586 223e f618 d23d

module.bi_lstm1.weight_hh_l0_reverse f4 [64, 16]
0.0481005 -0.11942012 -0.023483094 -0.12892976 0.059404943 0.057700697 -0.13544549 -0.0591168
-0.051357567 0.056711208 0.11491736 0.10236474 -0.032232944 0.08018042 0.011167003 -0.051121637
-0.005374217 0.00791616 -0.13525882 -0.054980483 -0.01796289 0.06982103 0.057119682 -0.017634844
0.093510464 0.03267101 0.13864613 0.055435408 0.03297235 -0.07676509 0.024639824 -0.02634492
0.136387 -0.09198866 -0.01697959 -0.008725576 -0.17389432 0.07260434 0.16001213 0.053715583
-0.036103547 -0.0041238316 0.12378159 0.037680384 0.042362843 0.017289612 -0.012795625 -0.020188048
0.07358799 -0.076188274 -0.16859445 -0.058912814 -0.07853915 0.025234686 0.15456939 -0.02552368
0.08639029 0.005606771 0.12302924 0.029763767 0.11852198 -0.06949088 0.00035512843 -0.04173158
-0.0123683605 -0.14687039 -0.16714416 -0.14059323 0.0358448 -0.055803318 -0.098234 -0.09396751
0.16943252 0.004468634 0.24050018 -0.011834728 0.098789275 -0.001485496 -0.0039404794 -0.043457665
0.14885263 -0.06854244 -0.028030949 -0.017489659 0.010691385 0.054693885 -0.122319214 -0.05679758
0.057538982 0.064405724 0.040405445 0.12190515 0.051970895 0.01626236 0.02490862 -0.123740666
-0.08088136 0.06887653 0.087684244 0.08117462 0.14985096 0.06748213 0.06888912 0.1137991
-0.1797855 -0.01207892 0.11625459 0.034118928 -0.07211219 -0.08077211 0.022960925 0.08131308
-0.0654102 -0.06787228 -0.17242731 -0.17750403 -0.112122804 0.06917147 0.097072765 -0.17025976
0.0039301 -0.040730838 -0.046880946 -0.18656063 0.06480722 -0.19649236 -0.008132922 -0.0007297794
-0.009054929 0.07038838 -0.04212299 -0.030814666 0.09316186 -0.038148668 -0.081670456 -0.17961814
0.06941751 -0.004889971 -0.20105758 -0.0345841 -0.01966401 -0.041591596 0.009368398 -0.0965509
-0.051955562 -0.039268304 -0.062368236 -0.048269715 -0.07546485 0.03052683 0.106858075 0.13323341
-0.05171816 -0.053840894 0.06078191 -0.082965784 -0.0014883127 -0.061875187 -0.018691882 0.026742047
0.16104876 0.010596948 -0.04754373 -0.03125263 -0.00048215073 0.14286691 -0.18759486 -0.09982884
0.06438643 0.059762884 0.1471727 0.08725401 0.06285824 -0.055855837 0.0614576 -0.14846595
-0.05602086 0.037052497 0.13499857 0.11680046 0.032560594 -0.061783377 -0.12547742 0.093798585
-0.13488352 -0.020801507 0.23136757 -0.067848906 0.09483604 0.122995384 -0.05389562 0.021186277
0.118676305 -0.035911437 -0.070053086 -0.00883745 -0.0069603804 0.029248701 -0.15066645 -0.043817855
0.04806721 0.06083087 0.11921632 0.11131526 0.043210108 0.013043247 0.023702854 -0.08400262
0.03604723 -0.019766757 -0.03651791 -0.17998874 -0.1725528 0.07805422 0.1303161 -0.034518108
0.06826462 -0.063510396 0.002300345 -0.031290583 0.035185017 -0.16131394 0.0014602775 -0.045532502
-0.028878752 0.054667648 -0.0033257403 0.028655555 0.043637436 -0.015147228 0.0977687 0.021501973
0.026220703 -0.0041510453 -0.020593764 -0.056135166 0.004016705 0.061870884 -0.004223298 0.010234278
0.069455855 0.034680486 0.059023414 -0.0048130304 0.05305444 -0.03413716 -0.13345589 -0.10643451
0.09636779 -0.004524127 -0.21669446 0.023292892 0.054315813 -0.015581816 -0.0032621883 -0.061054386
00000000: 0805 453d 8992 f4bd 9e5f c0bc 2a06 04be
00000010: 9952 733d 9157 6c3d 39b2 0abe 7524 72bd
00000020: 505c 52bd 034a 683d cb59 eb3d 9ba4 d13d
00000030: b106 04bd a235 a43d cef5 363c ec64 51bd
00000040: 331a b0bb c8b2 013c 4a81 0abe 3733 61bd
00000050: e926 93bc 54fe 8e3d 54f6 693d f376 90bc
00000060: 6a82 bf3d 09d2 053d 40f9 0d3e 3d10 633d
00000070: 040e 073d 0437 9dbd 75d9 c93c 4dd1 d7bc
00000080: 09a9 0b3e 8d64 bcbd c818 8bbc b8f5 0ebc
00000090: 5a11 32be 96b1 943d 38da 233e df04 5c3d
000000a0: 50e1 13bd 3521 87bb 3481 fd3d bf56 1a3d
000000b0: a984 2d3d f2a2 8d3c bea4 51bc 6861 a5bc
000000c0: 4db5 963d 9908 9cbd 06a4 2cbe 904e 71bd
000000d0: 22d9 a0bd f9b8 ce3c 7047 1e3e 0917 d1bc
000000e0: 64ed b03d 01b9 b73b c1f6 fb3d 25d3 f33c
000000f0: a7bb f23d 3c51 8ebd 8830 ba39 bcee 2abd
00000100: aaa4 4abc 3165 16be d727 2bbe acf7 0fbe
00000110: ffd1 123d 0592 64bd e82e c9bd 0a72 c0bd
00000120: b87f 2d3e 9e6d 923b ae45 763e 72e6 41bc
00000130: 0852 ca3d f9b4 c2ba 231f 81bb aa00 32bd
00000140: d36c 183e fb5f 8cbd 29a1 e5bc 7946 8fbc
00000150: eb2a 2f3c b206 603d 7f82 fabd 94a4 68bd
00000160: ffad 6b3d 26e7 833d 2e80 253d 68a9 f93d
00000170: 6fdf 543d a438 853c 2a0d cc3c bf6b fdbd
00000180: 20a5 a5bd 230f 8d3d cc93 b33d e13e a63d
00000190: 8872 193e 1234 8a3d bd15 8d3d 810f e93d
000001a0: b119 38be aae6 45bc e316 ee3d 4ac0 0b3d
000001b0: 8eaf 93bd d96b a5bd 8d18 bc3c 7987 a63d
000001c0: c8f5 85bd 9f00 8bbd c990 30be 9ec3 35be
000001d0: a4a0 e5bd c6a9 8d3d 16ce c63d 9358 2ebe
000001e0: 11c8 803b 61d5 26bd 3c06 40bd c009 3fbe
000001f0: a6b9 843d 4b35 49be f33f 05bc ab4e 3fba
00000200: 205b 14bc c827 903d 2889 2cbd 0a6f fcbc
00000210: a5cb be3d c741 1cbd d742 a7bd d1ed 37be
00000220: c42a 8e3d 0d3c a0bb 0ae2 4dbe 0fa8 0dbd
00000230: 6b16 a1bc f35b 2abd e97d 193c 7abc c5bd
00000240: 5bcf 54bd cdd7 20bd d675 7fbd 77b6 45bd
00000250: 518d 9abd 6713 fa3c 68d8 da3d 576e 083e
00000260: 6cd6 53bd 4588 5cbd 74f6 783d f7e9 a9bd
00000270: 7d13 c3ba d670 7dbd b81f 99bc 2312 db3c
00000280: f7e9 243e d29e 2d3c 37bd 42bd c202 00bd
00000290: 2dc9 fcb9 b44b 123e de18 40be 1073 ccbd
000002a0: 08dd 833d edc9 743d 71b4 163e 3bb2 b23d
000002b0: d2bb 803d 17c9 64bd f7ba 7b3d 7507 18be
000002c0: 2176 65bd 5cc4 173d 113d 0a3e 1435 ef3d
000002d0: 425e 053d 9110 7dbd 277d 00be 7919 c03d
000002e0: e81e 0abe ec67 aabc 9feb 6c3e 5ef4 8abd
000002f0: 6639 c23d 01e5 fb3d a7c1 5cbd d88e ad3c
00000300: 900c f33d df17 13bd fe77 8fbd f4ca 10bc
00000310: e713 e4bb f99a ef3c 4e48 1abe 5a7a 33bd
00000320: 1fe2 443d ca29 793d b027 f43d 41f9 e33d
00000330: 15fd 303d 58b3 553c 7d2c c23c 9109 acbd
00000340: 43a6 133d e5ed a1bc ce93 15bd f84e 38be
00000350: aeb1 30be e4da 9f3d 9571 053e dc62 0dbd
00000360: 52ce 8b3d bd11 82bd 63c1 163b 8e2a 00bd
00000370: 2a1e 103d 7b2f 25be c866 bf3a 4a80 3abd
00000380: 2293 ecbc 2feb 5f3d aaf4 59bb 0ebf ea3c
00000390: 2bbd 323d 142c 78bc f53a c83d e824 b03c
000003a0: cdcc d63c 7e05 88bb 41b4 a8bc fded 65bd
000003b0: 909e 833b 536c 7d3d 9763 8abb acad 273c
000003c0: df3e 8e3d 200d 0e3d 89c2 713d a0b6 9dbb
000003d0: 9d4f 593d 68d3 0bbd a9a8 08be 56fa d9bd
000003e0: 7a5c c53d 213f 94bb 27e5 5dbe bcd0 be3c
000003f0: 427a 5e3d e04a 7fbc 70ca 55bb 2a14 7abd

module.bi_lstm1.bias_ih_l0_reverse f4 [64]
0.017564004 0.16294347 0.16164143 -0.081824236 -0.04443727 -0.022079406 0.19666201 0.18790336
0.16674238 0.039864562 0.18082143 0.03768036 0.095414914 0.023024818 -0.02749444 -0.064518444
0.20017745 -0.0048761345 0.18193913 0.10393263 0.27500856 0.11803404 -0.050486892 0.10359389
0.25351825 -0.0017116888 0.30762765 0.051138096 0.02546381 -0.09823659 0.12891793 0.16280705
0.041077472 -0.23528111 -0.20758556 -0.07132316 -0.007533145 -0.013030723 0.0816514 0.29292583
-0.081419274 -0.17247848 0.1560873 0.04150026 0.15842453 -0.22101115 -0.047190968 0.20974727
0.1339584 0.11020283 0.17111965 0.079991914 0.24307527 0.111612804 0.07560904 0.23374204
0.04335382 0.045612693 0.19527213 0.05811826 0.07421346 -0.062391426 -0.005836849 -0.037511725
00000000: 63e2 8f3c a7da 263e 5585 253e 7793 a7bd
00000010: db03 36bd dfdf b4bc c461 493e bd69 403e
00000020: 84be 2a3e 0649 233d 4129 393e b956 1a3d
00000030: e568 c33d 8b9e bc3c 053c e1bc 3f22 84bd
00000040: 51fb 4c3e fbc7 9fbb 404e 3a3e a1da d43d
00000050: eccd 8c3e d5bb f13d 58cb 4ebd 0929 d43d
00000060: 25cd 813e bf5a e0ba 5f81 9d3e 2e76 513d
00000070: 7b99 d03c 4430 c9bd 1003 043e e4b6 263e
00000080: da40 283d 88ed 70be 4f91 54be e011 92bd
00000090: 9ad8 f6bb d07e 55bc d938 a73d 60fa 953e
000000a0: 26bf a6bd 339e 30be 59d5 1f3e 2dfc 293d
000000b0: 0a3a 223e bf50 62be 514b 41bd fdc7 563e
000000c0: 642c 093e 05b2 e13d fd39 2f3e cdd2 a33d
000000d0: b9e8 783e 4195 e43d ead8 9a3d 135a 6f3e
000000e0: c693 313d 60d4 3a3d 6bf5 473e 6a0d 6e3d
000000f0: 3afd 973d 278e 7fbd 0a43 bfbb e5a5 19bd

module.bi_lstm1.bias_hh_l0_reverse f4 [64]
-0.008365575 -0.10686146 0.22759482 0.018301623 0.26489976 -0.0737566 -0.0146846445 0.1866393
0.10608657 0.012346656 -0.02671262 -0.11446257 -0.11504071 -0.10169132 -0.11391965 0.10430779
-0.00044951675 0.007833736 -0.046636038 0.07617745 0.25159752 0.2176673 0.3388866 0.16421472
0.05312668 -0.020680811 0.32010075 0.069021076 0.05271308 0.2427116 0.06420803 -0.04645567
-0.0025319264 0.037162744 -0.32386002 -0.19966713 -0.06471218 0.1074065 0.27624324 0.1427323
0.07170508 0.03849446 0.06722402 -0.06019706 0.07888376 0.20037043 -0.22008078 -0.09434469
-0.041087974 0.03649413 0.23735121 0.15998775 0.030910427 0.11492054 0.18382671 0.18077564
0.14118333 0.11041576 0.17103629 0.10901001 -0.114469014 -0.002782044 -0.06969637 -0.0051262
00000000: c40f 09bc 2eda dabd 9e0e 693e 49ed 953c
00000010: f1a0 873e b30d 97bd dd97 70bc 5f1e 3f3e
00000020: ea43 d93d a149 4a3c 6dd4 dabc 5a6b eabd
00000030: 779a ebbd 8a43 d0bd b54e e9bd 539f d53d
00000040: 1ead ebb9 1259 003c 6e05 3fbd ec02 9c3d
00000050: 64d1 803e 2de4 5e3e 8b82 ad3e e727 283e
00000060: 5d9b 593d ce6a a9bc 3fe4 a33e ec5a 8d3d
00000070: ace9 573d 6489 783e 807f 833d 4d48 3ebd
00000080: adee 25bb f637 183d fbd0 a5be 8a75 4cbe
00000090: d287 84bd f0f7 db3d c16f 8d3e 6b28 123e
000000a0: 1dda 923d 5eac 1d3d bfac 893d 3191 76bd
000000b0: cf8d a13d e82d 4d3e db5c 61be ca37 c1bd
000000c0: dd4b 28bd de7a 153d 320c 733e d4d3 233e
000000d0: dd37 fd3c 765b eb3d 123d 3c3e 401d 393e
000000e0: 5d92 103e a821 e23d 2324 2f3e a440 df3d
000000f0: bb6e eabd f452 36bb f8bc 8ebd aff9 a7bb

module.bi_lstm2.weight_ih_l0 f4 [128, 16]
-0.00069076347 -0.0036308423 -0.007840191 -0.0021022144 -0.0041988697 0.0013989524 0.014404069 0.01289213
-0.001179025 -0.0037795268 0.0014434666 -0.0026244782 0.001191522 -0.0033993546 -0.0065698833 -0.0014709115
-0.0006070216 -0.0011258352 0.001627838 0.0021558374 0.0015091697 -0.0043056756 -0.004081053 -0.003522859
0.0027653568 -0.002027637 -0.0081697265 -0.0015759101 0.0006207331 0.0007994233 -0.0024073902 -0.0017524328
-0.006277776 -0.0034510884 -0.01018099 -0.009264693 -0.0059679453 0.009673733 0.012765761 0.0063797045
-0.0049511157 -0.013367479 0.005600506 -0.0049582813 0.0004925237 -0.006625978 -0.0027408814 0.0023878443
0.0032725139 0.007819348 -0.010187015 -0.0007704676 0.023114996 -0.004681126 -0.0022177715 -0.028354416
0.02454002 0.0070626703 -0.0073449737 0.008566528 -0.00038406078 -0.003136217 0.006896176 -0.0025104408
-0.015675293 -0.012145509 -0.007922201 0.01275064 -0.0070174793 -0.016677188 0.016075274 0.008169995
-0.016161298 -0.012187511 -0.029634984 -0.010287578 -0.0007374346 -0.008308613 -0.008432798 0.010817948
-0.013669252 0.006696527 -0.03278927 -0.009602435 0.02760931 -0.037169367 0.0144789675 0.008938131
0.047174215 0.012066592 -0.026885532 0.020243192 -0.00070195185 -0.021269452 0.019917928 0.0066000544
0.006434725 0.0012925041 0.006624385 0.005993464 0.0055495724 0.002026244 -0.013240102 -0.0042335903
0.0041061603 0.0013543245 -0.0072265426 0.0057584336 -0.0017551027 0.006164381 -0.0034395268 -0.006222117
0.0024696293 -0.000967557 -0.009295559 -0.003487195 0.0068097734 0.00013252294 0.0013804607 -0.009212771
0.00943851 0.0044842036 -0.011965462 0.0050718905 0.00056334736 -0.002289572 0.0017306174 -0.002470036
-0.006681331 0.00067360344 -0.005299155 0.0029872665 0.01667728 -0.006927088 -0.008070196 -0.005685069
0.0107023 0.0010102054 -0.018563218 0.0060637565 -0.0027820147 -0.0007884784 -0.001572491 -0.0034180153
-0.012503775 -0.012864668 -0.012670412 -0.0063695544 -0.012033012 0.011608209 0.012991034 0.02860062
-0.010076845 -0.0101256715 0.00888039 -0.0056120264 0.0021626153 -0.009899765 -0.009106662 0.0017175106
-0.019168306 -0.006497151 -0.0027807194 -0.0021101574 0.00010328217 -0.008819093 0.023607008 -0.005213976
-0.012926275 -0.01232644 -0.019526746 -0.020989632 -0.0038439108 -0.011195753 -0.015218015 0.00967424
-0.0027130765 -0.0022480444 5.9428676e-05 -0.0019360065 -0.0040262444 0.002453044 0.001628079 0.008032965
-0.008334996 -0.00549507 0.0035601894 -0.0003697285 -0.0010911557 -0.000838059 -0.0036234995 0.00031947493
-0.008808305 0.013543561 -0.009232663 -0.008801187 -0.0023877227 -0.0025796702 0.019316839 -0.018958075
-0.0015092698 -0.0014497964 -0.026764266 -0.009119596 -0.0044430858 -0.008722336 -0.002853237 0.0061452966
0.0075509897 -0.0016695063 -0.0049951356 0.0027514042 0.010356127 -0.0008286163 -0.011026272 -0.0027907349
0.0011050552 -0.0034372145 0.0012199308 0.007892631 0.00022257752 0.0027030024 0.0013452163 -0.009658157
0.0051672645 -0.00879419 -0.010097968 0.00059804745 -0.006814842 0.009637008 0.004929902 0.026064465
-0.002470773 -0.0012822194 0.00048696622 0.01624002 -0.00023859659 -0.0068665496 -0.00157052 -0.009461398
-0.031246716 -0.01794259 -0.021578161 -0.005325481 -0.019851934 -0.0012888726 0.029359749 0.04261979
-0.023761656 -0.015709966 0.004280039 -0.017122878 -0.0026557753 -0.018697124 -0.0146912085 0.009345203
00000000: 5a14 35ba 6df3 6dbb 2574 00bc 4ec5 09bb
00000010: ac96 89bb 0e5d b73a 0bff 6b3c 8339 533c
00000020: 8489 9aba f0b1 77bb b432 bd3a 70ff 2bbb
00000030: d82c 9c3a b5c7 5ebb 2d48 d7bb 9acb c0ba
00000040: 8820 1fba c390 93ba 2e5d d53a f348 0d3b
00000050: 55cf c53a a016 8dbb 5bba 85bb c4df 66bb
00000060: fd3a 353b 1be2 04bb 51da 05bc c58e ceba
00000070: b1b8 223a 6490 513a 4ec5 1dbb e3b1 e5ba
00000080: cdb5 cdbb a82b 62bb 2bce 26bc f0ca 17bc
00000090: c18e c3bb 947e 1e3c 7c27 513c d70c d13b
000000a0: f83c a2bb 4503 5bbc 7384 b73b 1479 a2bb
000000b0: b51c 013a bb1e d9bb 5ca0 33bb 617d 1c3b
000000c0: ac77 563b b91c 003c 70e7 26bc 35f9 49ba
000000d0: a95b bd3c 2264 99bb 0858 11bb 8547 e8bc
000000e0: 2708 c93c f96d e73b 1bae f0bb 9f5a 0c3c
000000f0: c45b c9b9 fd88 4dbb 51f9 e13b 3586 24bb
00000100: 7969 80bc f5fd 46bc 1fcc 01bc 0fe8 503c
00000110: e2f2 e5bb 999e 88bc 4bb0 833c 71db 053c
00000120: b364 84bc 20ae 47bc 11c5 f2bc 3b8d 28bc
00000130: 6650 41ba d920 08bc b829 0abc c33d 313c
00000140: 00f5 5fbc 8a6e db3b 0b4e 06bd 8853 1dbc
00000150: eb2c e23c e83e 18bd 3139 6d3c 3d71 123c
00000160: c039 413d f5b2 453c 0c3f dcbc 0dd5 a53c
00000170: 3103 38ba 463d aebc ec2a a33c 4545 d83b
00000180: 63da d23b 3e69 a93a 5e11 d93b d264 c43b
00000190: 30d9 b53b bcca 043b 03ed 58bc eeb9 8abb
000001a0: f88c 863b 9783 b13a a2cc ecbb 3eb1 bc3b
000001b0: 790b e6ba 93fe c93b af69 61bb e7e2 cbbb
000001c0: 81d9 213b a7a3 7dba 664c 18bc 6c89 64bb
000001d0: 8524 df3b dbf5 0a39 93f0 b43a 2af1 16bc
000001e0: fba3 1a3c 3af0 923b c90a 44bc 1a32 a63b
000001f0: 9aad 133a a50c 16bb e2d5 e23a 54e0 21bb
00000200: 11ef dabb c394 303a 89a4 adbb 04c6 433b
00000210: cb9e 883c a0fc e2bb db38 04bc d149 babb
00000220: b358 2f3c de68 843a e411 98bc 7ab2 c63b
00000230: 7652 36bb e4b1 4eba 0b1c ceba c800 60bb
00000240: a2dc 4cbc 54c6 52bc 8f97 4fbc b2b7 d0bb
00000250: 1c26 45bc 5c30 3e3c 59d8 543c d94b ea3c
00000260: 5a19 25bc 25e6 25bc 0e7f 113c 17e5 b7bb
00000270: aaba 0d3b a032 22bc 1c34 15bc 181e e13a
00000280: da06 9dbc 0ee6 d4bb bb3c 36bb 914a 0abb
00000290: 3199 d838 f57d 10bc 7c63 c13c 00da aabb
000002a0: bac8 53bc d6f4 49bc 8ef6 9fbc 73f2 abbc
000002b0: 1fea 7bbb 646e 37bc fb54 79bc b480 1e3c
000002c0: dfcd 31bb ed53 13bb 0e43 7938 99c1 fdba
000002d0: 96ee 83bb 40c3 203b 4465 d53a b29c 033c
000002e0: 828f 08bc fd0f b4bb 1152 693b 1fd8 c1b9
000002f0: 1c05 8fba 30b1 5bba 3c78 6dbb 337f a739
00000300: b550 10bc d0e5 5d3c 9844 17bc db32 10bc
00000310: 577b 1cbb af0f 29bb 593e 9e3c f74d 9bbc
00000320: b1d2 c5ba 1807 beba bc40 dbbc 5c6a 15bc
00000330: 4e97 91bb 21e8 0ebc 60fd 3abb 7c5e c93b
00000340: 4b6e f73b 56d3 daba 3cae a3bb e750 343b
00000350: bfac 293c 8037 59ba 89a7 34bc c3e4 36bb
00000360: 80d7 903a e442 61bb 16e6 9f3a 1850 013c
00000370: b363 6939 db24 313b f851 b03a 3f3d 1ebc
00000380: 2852 a93b 8215 10bc f371 25bc 49c6 1c3a
00000390: 0a4f dfbb 8be4 1d3c 048b a13b 2585 d53c
000003a0: b1ec 21bb 2510 a8ba 804f ff39 ca09 853c
000003b0: c92f 7ab9 cb00 e1bb e8d9 cdba fb03 1bbc
000003c0: 1df9 ffbc 57fc 92bc afc4 b0bc 5f81 aebb
000003d0: 86a0 a2bc 63ef a8ba db83 f03c 1792 2e3d
000003e0: cea7 c2bc 30b2 80bc 923f 8c3b 4745 8cbc
000003f0: 840c 2ebb b62a 99bc 65b3 70bc 9f1c 193c

module.bi_lstm2.weight_hh_l0 f4 [128, 32]
-4.9286e-41 -5.0825e-41 -5.5706e-41 5.0001e-41 5.2637e-41 4.9179e-41 -5.0859e-41 -5.005e-41
5.5762e-41 -4.9972e-41 4.998e-41 4.953e-41 -4.9075e-41 5.0332e-41 -5.0136e-41 5.4295e-41
4.935e-41 4.917e-41 -4.9641e-41 -4.926e-41 -4.9214e-41 -5.1998e-41 5.0018e-41 -5.8388e-41
-4.9875e-41 -5.707e-41 -4.983e-41 5.3384e-41 4.9991e-41 -4.9564e-41 -5.0534e-41 4.9097e-41
-5.0595e-41 4.9392e-41 4.9118e-41 5.2263e-41 5.5503e-41 -4.9704e-41 -5.5199e-41 -5.3374e-41
5.024e-41 -4.9352e-41 5.0095e-41 4.986e-41 -5.2507e-41 4.9223e-41 4.983e-41 5.757e-41
-5.2041e-41 4.9812e-41 4.9882e-41 4.9787e-41 -4.92e-41 -5.0223e-41 -4.9075e-41 5.0393e-41
-5.327e-41 -5.624e-41 -4.9302e-41 -5.1047e-41 -4.9312e-41 6.1136e-41 4.933e-41 -4.9455e-41
-4.9076e-41 4.9826e-41 -4.9167e-41 4.9619e-41 -5.0409e-41 -4.9103e-41 -4.9314e-41 5.1666e-41
-4.918e-41 -2.33843e-40 4.9783e-41 6.0252e-41 4.9578e-41 -4.9666e-41 -5.189e-41 -5.8427e-41
-5.0064e-41 -4.9633e-41 5.7666e-41 -4.9892e-41 5.0199e-41 4.926e-41 4.9769e-41 4.9575e-41
4.9054e-41 5.0405e-41 4.9694e-41 -5.1044e-41 5.0102e-41 5.0538e-41 4.9946e-41 -4.9432e-41
-5.3769e-41 -5.8832e-41 5.8344e-41 -4.9969e-41 -5.646e-41 -4.9247e-41 5.0703e-41 4.963e-41
5.0206e-41 -5.8615e-41 4.9061e-41 -5.149e-41 4.995e-41 5.4886e-41 4.9955e-41 -4.9718e-41
4.9397e-41 -5.2099e-41 6.027e-41 -5.4013e-41 4.9428e-41 4.9153e-41 -4.9934e-41 -4.9825e-41
5.0127e-41 -5.0052e-41 -4.9386e-41 4.9603e-41 -5.0242e-41 -5.0269e-41 5.0231e-41 -4.9117e-41
4.9659e-41 5.2123e-41 4.9534e-41 4.909e-41 -4.9488e-41 4.933e-41 -4.9092e-41 4.9641e-41
-4.9756e-41 4.9512e-41 4.9815e-41 6.0034e-41 -5.0314e-41 -5.0094e-41 -5.3018e-41 5.9913e-41
-4.9055e-41 -5.3608e-41 -5.003e-41 4.963e-41 -4.9344e-41 5.7282e-41 4.951e-41 5.0274e-41
-4.9742e-41 -5.0035e-41 4.9822e-41 4.9708e-41 4.9815e-41 4.9432e-41 -4.9724e-41 5.015e-41
-4.9272e-41 5.0497e-41 -5.0001e-41 -4.9057e-41 4.9949e-41 4.9557e-41 4.9274e-41 -6.1457e-41
-4.9781e-41 -4.9534e-41 -4.9895e-41 -4.9124e-41 4.9916e-41 -6.0462e-41 4.9214e-41 -4.998e-41
5.7172e-41 -4.9847e-41 5.0312e-41 -4.9672e-41 -5.0105e-41 4.9729e-41 -4.9791e-41 -4.9305e-41
-5.078e-41 5.2243e-41 -4.9672e-41 -6.0008e-41 5.125e-41 -4.9806e-41 4.9058e-41 4.9442e-41
4.9051e-41 -4.9946e-41 5.0856e-41 4.9142e-41 -4.951e-41 -4.9959e-41 -5.607e-41 5.0452e-41
5.4799e-41 4.9145e-41 -4.992e-41 -5.05e-41 5.1882e-41 -5.3347e-41 5.0096e-41 -6.074e-41
-4.9949e-41 5.0273e-41 5.6926e-41 5.1091e-41 5.1558e-41 5.7003e-41 4.958e-41 -5.0038e-41
5.027e-41 -4.9202e-41 6.3043e-41 4.9508e-41 5.0154e-41 -4.9442e-41 5.0489e-41 5.746e-41
4.9802e-41 -5.1114e-41 5.8216e-41 5.0134e-41 4.9348e-41 4.9729e-41 -4.9167e-41 4.9812e-41
4.9655e-41 -5.6304e-41 4.9893e-41 -5.4398e-41 5.4778e-41 4.9215e-41 -4.9691e-41 -4.9787e-41
-4.9099e-41 4.9832e-41 -5.0196e-41 -4.9163e-41 5.4889e-41 -4.9466e-41 5.1016e-41 -1.20356e-40
5.2232e-41 4.9959e-41 5.124e-41 -5.0138e-41 5.0776e-41 -5.6371e-41 -5.007e-41 -4.9542e-41
00000000: 6489 0080 ae8d 0080 499b 0080 628b 0000
00000010: bb92 0000 1789 0000 c68d 0080 858b 0080
00000020: 719b 0000 4d8b 0080 538b 0000 128a 0000
00000030: cd88 0080 4e8c 0000 c28b 0080 5a97 0000
00000040: 9189 0000 1189 0000 618a 0080 5189 0080
00000050: 3089 0080 f390 0080 6e8b 0000 c3a2 0080
00000060: 088b 0080 179f 0080 e88a 0080 d094 0000
00000070: 5b8b 0000 2a8a 0080 de8c 0080 dd88 0000
00000080: 0a8d 0080 af89 0000 ec88 0000 b091 0000
00000090: b89a 0000 8e8a 0080 df99 0080 c994 0080
000000a0: 0c8c 0000 9389 0080 a58b 0000 fd8a 0000
000000b0: 5e92 0080 3789 0000 e88a 0000 7ba0 0000
000000c0: 1291 0080 db8a 0000 0d8b 0000 c98a 0000
000000d0: 2689 0080 008c 0080 cd88 0080 7a8c 0000
000000e0: 7f94 0080 c69c 0080 6f89 0080 4c8e 0080
000000f0: 7689 0080 6caa 0000 8389 0000 dc89 0080
00000100: ce88 0080 e58a 0000 0f89 0080 518a 0000
00000110: 858c 0080 e188 0080 7889 0080 0690 0000
00000120: 1889 0080 dc8b 0280 c68a 0000 f5a7 0000
00000130: 348a 0000 738a 0080 a690 0080 dfa2 0080
00000140: 8f8b 0080 5b8a 0080 c0a0 0000 148b 0080
00000150: ef8b 0000 5189 0000 bc8a 0000 328a 0000
00000160: be88 0000 828c 0000 878a 0000 4a8e 0080
00000170: aa8b 0000 e18c 0000 3b8b 0000 cc89 0080
00000180: e395 0080 00a4 0080 a4a2 0000 4b8b 0080
00000190: 639d 0080 4889 0080 578d 0000 598a 0000
000001a0: f48b 0000 65a3 0080 c388 0000 888f 0080
000001b0: 3e8b 0000 0099 0000 418b 0000 988a 0080
000001c0: b389 0000 3b91 0080 02a8 0000 9196 0080
000001d0: c989 0000 0589 0000 328b 0080 e48a 0080
000001e0: bc8b 0000 868b 0080 ab89 0080 468a 0000
000001f0: 0e8c 0080 218c 0080 068c 0000 eb88 0080
00000200: 6e8a 0000 4c91 0000 158a 0000 d888 0000
00000210: f489 0080 8389 0000 d988 0080 618a 0000
00000220: b38a 0080 058a 0000 dd8a 0000 5aa7 0000
00000230: 418c 0080 a48b 0080 cb93 0080 03a7 0000
00000240: bf88 0080 7095 0080 778b 0080 598a 0000
00000250: 8d89 0080 ae9f 0000 048a 0000 258c 0000
00000260: a98a 0080 7a8b 0080 e28a 0000 918a 0000
00000270: dd8a 0000 cc89 0000 9c8a 0080 cc8b 0000
00000280: 5a89 0080 c48c 0000 628b 0080 c088 0080
00000290: 3d8b 0000 258a 0000 5b89 0000 51ab 0080
000002a0: c58a 0080 158a 0080 168b 0080 f088 0080
000002b0: 258b 0000 8ba8 0080 3089 0000 538b 0080
000002c0: 5f9f 0000 f48a 0080 408c 0000 778a 0080
000002d0: ac8b 0080 a08a 0000 cc8a 0080 7189 0080
000002e0: 8e8d 0080 a291 0000 778a 0080 47a7 0080
000002f0: dd8e 0000 d78a 0080 c188 0000 d389 0000
00000300: bc88 0000 3b8b 0080 c48d 0000 fd88 0000
00000310: 048a 0080 448b 0080 4d9c 0080 a48c 0000
00000320: c298 0000 ff88 0000 288b 0080 c68c 0080
00000330: a090 0000 b694 0080 a68b 0000 52a9 0080
00000340: 3d8b 0080 248c 0000 b09e 0000 6c8e 0000
00000350: b98f 0000 e79e 0000 358a 0000 7c8b 0080
00000360: 228c 0000 2889 0080 bdaf 0000 028a 0000
00000370: cf8b 0000 d389 0080 be8c 0000 2da0 0000
00000380: d48a 0000 7c8e 0080 48a2 0000 c18b 0000
00000390: 9089 0000 a08a 0000 0f89 0080 db8a 0000
000003a0: 6b8a 0000 f49c 0080 158b 0000 a497 0080
000003b0: b398 0000 3189 0000 858a 0080 c98a 0080
000003c0: de88 0080 e98a 0000 ed8b 0080 0c89 0080
000003d0: 0299 0000 e489 0080 368e 0000 814f 0180
000003e0: 9a91 0000 448b 0000 d68e 0000 c48b 0080
000003f0: 8b8d 0000 249d 0080 938b 0080 1a8a 0080

module.bi_lstm2.bias_ih_l0 f4 [128]
0.019730354 0.0056711184 0.021255149 0.00685587 0.042388413 0.058888737 -0.007743562 0.021228401
0.022544136 0.019738136 0.043334536 -0.009644774 0.012421971 -0.0049494617 0.003040948 0.061689835
0.035450913 0.010301791 0.007197643 0.026248462 -0.007940165 -0.0001433796 0.07374937 -0.0035775278
-0.00459883 0.0051297387 0.01656832 0.032130014 -0.00084887794 -0.023899272 0.07176009 0.003687754
-4.9497e-41 4.9963e-41 -5.3998e-41 -4.9558e-41 6.2135e-41 -5.3158e-41 5.159e-41 -5.4166e-41
-5.0131e-41 -4.984e-41 -5.0077e-41 -4.934e-41 -4.9923e-41 -5.0358e-41 -4.9463e-41 -6.1584e-41
5.1006e-41 -4.9802e-41 -4.929e-41 -4.9104e-41 -5.031e-41 5.7941e-41 5.1292e-41 -4.9554e-41
-4.9941e-41 4.9163e-41 5.0639e-41 -4.9527e-41 5.1576e-41 -5.4366e-41 4.9631e-41 -5.2097e-41
-0.11541692 0.09692745 -0.020192813 -0.006529225 0.08468282 0.06081791 0.04696836 0.09157913
0.10212345 0.07477309 0.06477281 -0.0013945088 0.055023156 0.10313309 -0.0077668517 -0.023214936
-0.037179906 -0.05686568 0.13316558 0.060760308 -0.026683656 0.09070982 0.0849896 0.06870369
-0.06168716 -0.057380218 0.012188646 -0.020635482 0.02381376 -0.08771837 -0.02357786 0.0252158
0.020268947 0.0057132705 0.021341907 0.006686945 0.043502033 0.05952881 -0.007695308 0.021533918
0.022836072 0.019192258 0.05576597 -0.009550818 0.013050346 -0.004947486 0.0030447657 0.06310426
0.032501236 0.010353072 0.0071733277 0.026489541 -0.007966612 -0.00011738574 0.075735606 -0.004232578
-0.004576142 0.0052670366 0.016757147 0.0298414 -0.00028166128 -0.023951834 0.07443779 0.0037294
00000000: 8da1 a13c cad4 b93b 471f ae3c 35a7 e03b
00000010: 799f 2d3d 5135 713d b5bd fdbb 2fe7 ad3c
00000020: 7bae b83c dfb1 a13c 8e7f 313d 1d05 1ebc
00000030: 8685 4b3c 182f a2bb a44a 473b 7bae 7c3d
00000040: fa34 113d d8c8 283c 35da eb3b 0407 d73c
00000050: 7717 02bc 2b58 16b9 e909 973d f574 6abb
00000060: c8b1 96bb 5e17 a83b 49ba 873c c39a 033d
00000070: 3c87 5eba 68c8 c3bc f4f6 923d 3fae 713b
00000080: fa89 0080 478b 0000 8696 0080 268a 0080
00000090: 35ad 0000 2f94 0080 d08f 0000 fe96 0080
000000a0: bf8b 0080 ef8a 0080 988b 0080 8a89 0080
000000b0: 2a8b 0080 618c 0080 e289 0080 acab 0080
000000c0: 2f8e 0000 d48a 0080 6789 0080 e288 0080
000000d0: 3e8c 0080 84a1 0000 fb8e 0000 238a 0080
000000e0: 378b 0080 0c89 0000 298d 0000 108a 0080
000000f0: c68f 0000 8d97 0080 5a8a 0000 3a91 0080
00000100: b55f ecbd e681 c63d 666b a5bc 1cf3 d5bb
00000110: 306e ad3d 331c 793d e561 403d d78d bb3d
00000120: 1926 d13d a222 993d 9ba7 843d f3c7 b6ba
00000130: f65f 613d 7137 d33d 1381 febb 402d bebc
00000140: f549 18bd fdeb 68bd 8f5c 083e cddf 783d
00000150: af97 dabc 12c6 b93d 070f ae3d 85b4 8c3d
00000160: adab 7cbd 8507 6bbd e3b2 473c be0b a9bc
00000170: 1315 c33c b0a5 b3bd 5b26 c1bc 5e91 ce3c
00000180: 100b a63c 6336 bb3b 39d5 ae3c 291e db3b
00000190: 302f 323d 7bd4 733d ec28 fcbb e667 b03c
000001a0: b712 bb3c 1539 9d3c dc6a 643d 097b 1cbc
000001b0: 1ed1 553c 851e a2bb b18a 473b ce3c 813d
000001c0: 0420 053d ee9f 293c 3c0e eb3b 9800 d93c
000001d0: 6486 02bc fd2c f6b8 451b 9b3d 70b1 8abb
000001e0: 76f3 95bb 1b97 ac3b 4946 893c f475 f43c
000001f0: f0ab 93b9 a336 c4bc d772 983d f368 743b
