output/clip/FD004/exp_202411021509_bilstm_clip_ep-0047.pth (torch, 288916 bytes, 66 tensors)

module.bi_lstm1.weight_ih_l0 f4 [64, 14]
-0.0048193727 0.012313661 -0.0071568345 -0.0017472915 -0.007864898 0.0013198982 0.01013002 0.0009962177
-0.008877211 -0.005606586 -0.011709421 0.0018245416 -0.018104285 -0.011287954 0.009063476 0.006234221
0.0022580894 -0.0044943765 0.01126179 0.007783502 0.0016496385 0.0004994563 0.010459901 0.0077151028
0.015831953 0.00052093866 0.005384939 0.010069878 -0.088120304 -0.005190946 -0.112708256 0.22896701
-0.017519182 0.026343968 -0.11491376 0.21869718 -0.041045368 0.10716378 -0.22276764 -0.112180956
0.23363294 0.19136786 0.0904085 0.071774386 0.069137484 -0.027047526 0.052795015 0.021463564
0.10002783 -0.008469549 0.05670436 -0.0016772348 0.13860661 0.05880003 -0.013286574 0.0070106587
0.03226198 0.050456595 0.0015178475 -0.053473234 0.045177996 0.0006192958 0.04638856 -0.05136496
0.046826363 -0.012515427 0.10743089 0.017172663 -0.03345766 -0.001954661 0.029301275 0.0359085
0.008887802 0.08253377 0.082110554 0.029145462 0.037870426 0.053817064 0.113899514 0.068975925
0.0944152 0.014353242 0.044283982 0.0018602163 0.028502023 0.02334792 0.020379439 0.14557113
0.06734223 0.090281874 0.0055504325 0.13909528 0.04405042 0.12158513 -0.07176703 0.01668196
0.115752764 0.06815907 0.015558687 0.016294992 0.010575725 -0.013866391 -0.0011741326 0.0034812368
0.020521505 -0.011892413 -0.0019240545 -0.0037224416 0.024181988 0.010668075 -0.020773001 -0.015027329
-0.054980643 0.0229593 -0.046983194 0.05696343 -0.010267871 0.0016288564 -0.031876184 0.049172673
-0.027778354 0.027051518 -0.07939381 -0.0372238 0.028611423 0.011791858 0.03346274 0.061252613
0.042044 0.10692345 0.11135602 0.058537673 0.082910724 0.049623735 0.102201164 0.11009835
0.098168455 0.033291582 0.13476768 0.037287686 0.059559766 0.053293403 0.08026021 0.104350515
0.04427519 0.056065492 0.062269963 0.14139201 0.054867372 0.05709209 0.048369464 0.07665926
0.0007646553 0.054180108 -0.0044962126 -0.0028051469 0.03138809 -0.003358174 0.02965097 0.021942038
-0.017316071 -0.018989805 0.040994838 0.030178532 0.031997167 -0.052774142 0.011054623 -0.0016700446
0.042311855 0.05386985 0.032407112 0.022894382 0.03823598 0.028381523 0.045056038 0.03333185
0.032232244 0.030211905 0.057354275 0.03917415 0.034451835 0.04321064 -0.01531794 -0.024719879
-0.046432413 0.00024282644 0.010972201 -0.02079769 -0.03155387 -0.008249821 0.01658141 -0.006762664
0.0373884 -0.035720106 0.04447971 0.021184264 0.08188026 0.055263963 0.031645376 -0.113249145
0.077311285 0.009751119 0.08643823 -0.100937024 0.09215211 -0.024197888 0.19189474 0.046999093
-0.059528425 -0.03213311 0.04070687 0.028128002 0.025303496 -0.047729928 0.02807028 0.005628258
0.042112026 -0.043319784 0.029376173 -0.014417491 0.091460146 0.019477667 -0.045725543 -0.029610477
-0.0037779745 0.011429638 -0.0003592219 0.008646317 -0.0080235135 0.0013088564 0.007108827 0.0113769695
-0.007765713 -0.001143125 -0.005891188 0.0030595416 -0.002671539 0.009465606 -0.0015149415 -0.005182128
-0.0065730787 -0.0043153767 0.005072203 0.0036112748 -0.007319668 -0.0009828124 0.0048811655 0.005401457
0.0057897056 -0.007171697 0.00822771 0.007072949 0.016827997 0.010090791 -0.08205718 0.27950147
00000000: d4eb 9dbb 3dbf 493c e183 eabb 6005 e5ba
00000010: c6db 00bc 6f00 ad3a 62f8 253c 8593 823a
00000020: b971 11bc 74b7 b7bb dfd8 3fbc 7525 ef3a
00000030: 704f 94bc 1cf1 38bc f97e 143c 7048 cc3b
00000040: 74fc 133b 9045 93bb 5f83 383c bf0c ff3b
00000050: af38 d83a f2ed 023a 0160 2b3c f9ce fc3b
00000060: 03b2 813c 9a8f 083a 2474 b03b 21fc 243c
00000070: 6b78 b4bd d018 aabb 96d3 e6bd 5476 6a3e
00000080: 6384 8fbc 4ecf d73c e857 ebbd 27f2 5f3e
00000090: 301f 28bd af78 db3d 331d 64be 21bf e5bd
000000a0: 793d 6f3e f0f5 433e 1728 b93d 73fe 923d
000000b0: f497 8d3d c692 ddbc 963f 583d 5bd4 af3c
000000c0: 64db cc3d ddc3 0abc d542 683d a9d6 dbba
000000d0: e4ee 0d3e 4dd8 703d eeaf 59bc abb9 e53b
000000e0: 2325 043d 93ab 4e3d 83f2 c63a c006 5bbd
000000f0: 900c 393d 3d58 223a ee01 3e3d 1064 52bd
00000100: 00cd 3f3d 810d 4dbc ba04 dc3d afad 8c3c
00000110: e60a 09bd c519 00bb 3a09 f03c cb14 133d
00000120: 259e 113c 7707 a93d 9429 a83d 77c2 ee3c
00000130: 051e 1b3d 486f 5c3d 2644 e93d 4043 8d3d
00000140: c25c c13d dc29 6b3c 1f63 353d 80d2 f33a
00000150: 137d e93c 2344 bf3c c8f2 a63c 9910 153e
00000160: b9ea 893d b4e5 b83d 67e0 b53b fe6e 0e3e
00000170: 376e 343d a001 f93d 98fa 92bd 9ba8 883c
00000180: c90f ed3d fc96 8b3d dde9 7e3c 137d 853c
00000190: ce45 2d3c dc2f 63bc 5ae5 99ba 7625 643b
000001a0: b71c a83c 65d8 42bc 8e30 fcba 35f4 73bb
000001b0: 4e19 c63c 26c9 2e3c 242c aabc 3035 76bc
000001c0: 6233 61bd 2415 bc3c 7371 40bd 7c52 693d
000001d0: 933a 28bc 5a7f d53a 9a90 02bd 4969 493d
000001e0: 6e8f e3bc 259b dd3c 3999 a2bd fc77 18bd
000001f0: 8162 ea3c a332 413c 3a10 093d 05e4 7a3d
00000200: 5436 2c3d affa da3d a00e e43d 33c5 6f3d
00000210: 19cd a93d 4242 4b3d d84e d13d 3e7b e13d
00000220: 8b0c c93d c15c 083d 8a00 0a3e f9ba 183d
00000230: f1f4 733d 2f4a 5a3d 775f a43d b9b5 d53d
00000240: e759 353d eea4 653d ca0e 7f3d 11c9 103e
00000250: 9cbc 603d 65d9 693d 0f1f 463d 88ff 9c3d
00000260: 2673 483a f6eb 5d3d f754 93bb 8ed6 37bb
00000270: cc90 003d d014 5cbb 97e6 f23c cabf b33c
00000280: 6fda 8dbc 8290 9bbc 34ea 273d f838 f73c
00000290: 760f 033d b329 58bd 731e 353c 66e5 daba
000002a0: 324f 2d3d a2a6 5c3d 52bd 043d 008d bb3c
000002b0: 559d 1c3d 5e80 e83c ae8c 383d fa86 083d
000002c0: f505 043d f57e f73c 51ec 6a3d 1375 203d
000002d0: 5e1d 0d3d a4fd 303d 19f8 7abc 5881 cabc
000002e0: ea2f 3ebd 3a9f 7e39 bfc4 333c eb5f aabc
000002f0: a13e 01bd 422a 07bc bdd5 873c 5699 ddbb
00000300: 9424 193d 3f4f 12bd 5b30 363d 9f8a ad3c
00000310: d6b0 a73d 775c 623d 959e 013d 2bef e7bd
00000320: 6155 9e3d 28c3 1f3c 8706 b13d 12b8 cebd
00000330: 3fba bc3d a63a c6bc 0e80 443e 1f82 403d
00000340: 14d4 73bd 029e 03bd 3fbc 263d b26c e63c
00000350: 4749 cf3c 7580 43bd a5f3 e53c 406d b83b
00000360: a97d 2c3d 1670 31bd 4da6 f03c 5737 6cbc
00000370: 754f bb3d a18f 9f3c b54a 3bbd ac91 f2bc
00000380: e597 77bb 6043 3b3c f355 bcb9 48a9 0d3c
00000390: 0e75 03bc ef8d ab3a 2af1 e83b 7866 3a3c
000003a0: 8677 febb e9d4 95ba de0a c1bb 9782 483b
000003b0: fd14 2fbb a115 1b3c 0091 c6ba d7ce a9bb
000003c0: fb62 d7bb 0168 8dbb b934 a63b 23ab 6c3b
000003d0: d3d9 efbb b6d1 80ba 2ff2 9f3b b5fe b03b
000003e0: 92b7 bd3b 8e00 ebbb 84cd 063c 32c4 e73b
000003f0: deda 893c d853 253c 980d a8bd d11a 8f3e

module.bi_lstm1.weight_hh_l0 f4 [64, 16]
-0.0018455638 -0.0017537208 0.00039963538 -0.00021130519 -0.001087435 0.0037958063 0.005964755 -0.0009476904
-0.0026350464 0.0024868941 0.023077993 0.0012481072 -0.003945482 -0.0052782637 -0.0007395303 -0.0020864217
0.0015178937 0.0012995922 -0.0065876623 0.00506364 -0.002070216 0.0006636273 0.002826575 -0.00028326033
0.005743975 -0.006034083 -0.015634557 -0.0027901724 0.002447417 0.006396733 -0.005005232 -0.0037190577
-0.003153467 -0.0077118813 -0.15140015 0.059670355 -0.04977073 0.07117748 0.1665413 -0.016230114
0.03908607 -0.08876253 0.018759144 -0.03283546 -0.0038034278 0.00812304 -0.090191476 -0.07418417
-0.0011334666 0.0034395305 0.017488996 -0.011978262 0.006247823 0.0014709461 -0.01742163 0.0020023827
-0.0055397195 -0.0049033994 0.0018557558 -0.0048788157 -0.0013727229 0.0054712966 0.00889993 0.007629638
0.00010185473 0.016291164 0.028690357 0.0012385937 -0.01023913 -0.022740543 -0.040894885 0.0014007038
-0.011438881 0.01802444 -0.03835204 0.0073612225 0.029218886 0.004726326 0.0032321892 -0.0038242922
0.009091497 -0.016995672 0.006476974 0.018579863 0.0020842513 0.028379908 0.061200593 0.0025357453
0.014662885 -0.020094132 0.104174525 0.019052465 -0.03687998 -0.022766788 0.004093833 0.010532498
-0.00047821837 -0.021572009 -0.07771861 0.030128423 0.0024424165 0.030693784 0.067334235 -0.0045297258
0.021136753 -0.034659673 0.032960016 -0.00933821 -0.029505298 -0.010032643 -0.012025627 -0.00068457844
0.0018347452 0.002578302 0.0002908844 0.00051630393 0.0019736316 -0.020666728 -0.011775622 0.0026524116
-0.0017684686 0.021511419 -0.015316151 0.008064062 0.0052905013 -0.006569706 0.004098902 0.0026806383
-0.007812523 -0.009805424 -0.041211013 0.008530972 -0.007843549 0.04006595 0.04500252 -0.006163852
0.0023805653 -0.040608652 0.03624868 -0.012267867 -0.010173557 0.00032105486 -0.0144463135 -0.012196682
0.0032858108 -0.008908865 -0.005835383 0.01014922 -0.0036769982 0.026330434 0.04398538 -0.0011678756
0.019689448 -0.04060995 0.05567093 -0.008904681 -0.022882825 0.015144655 -0.000533783 -0.0003470675
-0.002012709 -0.02369126 -0.049857944 -0.014081345 0.027988367 0.07792364 0.11211526 0.007351466
0.011596437 -0.067873694 0.10834951 -0.034604933 -0.061697118 -0.010118227 0.0071002925 0.0020297894
0.011392247 0.0011031388 0.012017891 0.002961736 -0.0012172835 -0.061233595 -0.027658492 -0.0021560648
0.01263458 0.058584098 -0.050306417 0.022121483 0.00905123 -3.694258e-05 0.011236945 0.00941819
0.0023738386 0.010403453 -0.014310461 0.005910959 -0.008228097 0.0077706156 0.00015897339 -0.002596415
0.0041141286 -0.017268255 -0.025570229 -0.005569127 0.016491195 0.011499711 -0.007667327 -0.010047428
0.0016908697 0.012422137 0.009574635 0.021093836 -0.020613408 -0.031392172 -0.009558134 -0.0014382219
0.0050405343 0.027864924 -0.0368481 0.0045002364 0.02513834 0.0034350832 -0.021615062 -0.014944756
-0.0021217265 0.015737204 0.085443534 -0.0126959365 -0.0017355442 -0.06647771 -0.080610536 0.0070032575
-0.027284248 0.07688256 -0.012684346 0.022321898 0.02647945 -0.005096113 0.01944494 0.012224514
0.0013446095 0.0119678 0.02612488 -0.0036598183 -0.0049917814 -0.02424794 -0.035194602 0.0021581997
-0.0070852926 0.025647951 -0.030756328 0.0063133044 0.020107286 0.004930249 0.005225954 -0.0010062369
00000000: d8e6 f1ba 1bdd e5ba 2786 d139 ce91 5db9
00000010: 4488 8eba 10c3 783b fe73 c33b 6d6e 78ba
00000020: beb0 2cbb 29fb 223b 0f0e bd3c 8797 a33a
00000030: 1a49 81bb 49f5 acbb 0add 41ba 59bc 08bb
00000040: 10f4 c63a 1457 aa3a 51dd d7bb e4ec a53b
00000050: 76ac 07bb 46f7 2d3a 0f3e 393b 8f82 94b9
00000060: f437 bc3b 8fb9 c5bb 0b14 80bc 53db 36bb
00000070: d864 203b b09b d13b ee02 a4bb 6fbb 73bb
00000080: 66aa 4ebb f3b3 fcbb a408 1bbe e768 743d
00000090: 65dc 4bbd 80c5 913d cd89 2a3e 04f5 84bc
000000a0: b718 203d 21c9 b5bd c7ac 993c 7a7e 06bd
000000b0: ee42 79bb 8016 053c 4fb6 b8bd dfed 97bd
000000c0: d490 94ba bf69 613b 1545 8f3c 7940 44bc
000000d0: 8aba cc3b c3cc c03a ceb7 8ebc 683a 033b
000000e0: 8986 b5bb b2ac a0bb d53c f33a 79de 9fbb
000000f0: f0ec b3ba 9048 b33b 03d1 113c 0b02 fa3b
00000100: d79a d538 0c75 853c 0a08 eb3c 4f58 a23a
00000110: 06c2 27bc 604a babc 6581 27bd d297 b73a
00000120: 256a 3bbc fea7 933c 0717 1dbd 6936 f13b
00000130: 725c ef3c 4cdf 9a3b 23d3 533b faa0 7abb
00000140: 81f4 143c 823a 8bbc cc3c d43b cc34 983c
00000150: ef97 083b fb7c e83c 79ad 7a3d bf2e 263b
00000160: 993c 703c 739c a4bc 7459 d53d ea13 9c3c
00000170: 760f 17bd 6a81 babc 8f25 863b 8090 2c3c
00000180: 62b9 fab9 c8b7 b0bc ef2a 9fbd e2cf f63c
00000190: f310 203b 8871 fb3c 88e6 893d 186e 94bb
000001a0: fc26 ad3c 4df7 0dbd 1501 073d 4bff 18bc
000001b0: 18b5 f1bc f45f 24bc 2307 45bc 4875 33ba
000001c0: d57b f03a bbf8 283b d881 9839 9258 073a
000001d0: 0b58 013b 454d a9bc 8aee 40bc 15d4 2d3b
000001e0: f6cb e7ba b738 b03c 98f0 7abc 211f 043c
000001f0: f15b ad3b b046 d7bb 1550 863b a6ad 2f3b
00000200: 1900 00bc eea6 20bc e1cc 28bd 7dc5 0b3c
00000210: 3b82 00bc 321c 243d 9054 383d 23fa c9bb
00000220: 4203 1c3b 4255 26bd 7f79 143d 2aff 48bc
00000230: feae 26bc 4153 a839 3bb0 6cbc 98d4 47bc
00000240: c256 573b 7df6 11bc be36 bfbb ea48 263c
00000250: cbf9 70bb ecb2 d73c 042a 343d 6713 99ba
00000260: c44b a13c 9e56 26bd 3307 643d f0e4 11bc
00000270: c374 bbbc 4921 783c 92ed 0bba 9cf6 b5b9
00000280: a7e7 03bb 2c14 c2bc d837 4cbd 71b5 66bc
00000290: dc47 e53c 6e96 9f3d af9c e53d 91e4 f03b
000002a0: fbfe 3d3c 5d01 8bbd 59e6 dd3d e7bd 0dbd
000002b0: 1eb6 7cbd ecc6 25bc 92a9 e83b 3706 053b
000002c0: 8ca6 3a3c 3297 903a b0e6 443c af19 423b
000002d0: 428d 9fba 14d0 7abd 1094 e2bc c44c 0dbb
000002e0: 4501 4f3c e1f5 6f3d 1a0e 4ebd 1d38 b53c
000002f0: 9c4b 143c cbf2 1ab8 2a1b 383c c14e 1a3c
00000300: 6792 1b3b 3f73 2a3c 6c76 6abc b8b0 c13b
00000310: 24cf 06bc a6a0 fe3b 18b2 2639 9e28 2abb
00000320: d0cf 863b 2876 8dbc a878 d1bc 397d b6bb
00000330: 8b18 873c 4969 3c3c 333e fbbb f89d 24bc
00000340: 2ca0 dd3a 3886 4b3c eede 1c3c fbcc ac3c
00000350: 73dd a8bc 1495 00bd b899 1cbc b882 bcba
00000360: 112b a53b fb44 e43c 09ee 16bd b876 933b
00000370: ecee cd3c 221f 613b 1212 b1bc dada 74bc
00000380: aa0c 0bbb 4feb 803c 05fd ae3d 9e02 50bc
00000390: 337b e3ba 7725 88bd 2317 a5bd 957b e53b
000003a0: 3783 dfbc 9b74 9d3d 01d2 4fbc 6adc b63c
000003b0: 6eeb d83c 4bfd a6bb ff4a 9f3c 5449 483c
000003c0: 9c3d b03a 9714 443c d803 d63c 90d9 6fbb
000003d0: 1992 a3bb 9ea3 c6bc 3728 10bd 9570 0d3b
000003e0: be2b e8bb a71b d23c b2f4 fbbc d6df ce3b
000003f0: 09b8 a43c ed8d a13b 7b3e ab3b b5e3 83ba

module.bi_lstm1.bias_ih_l0 f4 [64]
-0.03408141 0.022183858 0.1327964 0.06396431 0.06443678 0.048546746 0.10505925 -0.0034083957
0.0067594117 0.18223926 -0.011833951 0.0039020292 0.10286242 0.051638223 0.014040896 0.015863692
-0.011148389 0.013002983 0.14716746 0.08371919 0.020717775 0.15392008 -0.023613961 -0.021893699
0.032683447 0.1571282 0.10717006 -0.028662872 0.043647695 -0.018329564 0.0126948925 0.020009061
0.053085353 0.0640036 0.16505942 -0.06906217 -0.17403136 0.008517406 -0.0021711104 0.056744676
0.042870704 -0.050941627 0.06089661 -0.04252215 0.17477079 0.13094547 -0.044925965 -0.12502179
-0.030011252 0.02198228 0.14787763 0.061660804 0.03962485 0.11330054 0.11771168 -0.0029798124
-0.013686607 0.0810164 0.030149657 0.035064146 0.10283668 0.04421085 0.02272908 0.02041349
00000000: f398 0bbd ecba b53c c8fb 073e b8ff 823d
00000010: 6ef7 833d f4d8 463d 4e29 d73d 645f 5fbb
00000020: 0e7e dd3b ee9c 3a3e 30e3 41bc 30b9 7f3b
00000030: 88a9 d23d 9a82 533d c90b 663c 93f4 813c
00000040: bca7 36bc 770a 553c 11b3 163e f774 ab3d
00000050: 53b8 a93c 3a9d 1d3e 1172 c1bc 6a5a b3bc
00000060: 14df 053d 37e6 203e fa7b db3d 66ce eabc
00000070: edc7 323d e227 96bc 3dfe 4f3c 0bea a33c
00000080: 0770 593d 5214 833d 5605 293e 7870 8dbd
00000090: 4735 32be 978c 0b3c 3049 0ebb 1b6d 683d
000000a0: 3199 2f3d 2ba8 50bd b96e 793d b52b 2ebd
000000b0: 1df7 323e 9216 063e 4a04 38bd b605 00be
000000c0: 28da f5bc 2f14 b43c 3c6d 173e 0a90 7c3d
000000d0: ab4d 223d 1d0a e83d d212 f13d f548 43bb
000000e0: ca3d 60bc edeb a53d 6afc f63c 6c9f 0f3d
000000f0: 0a9c d23d 7016 353d 5632 ba3c 313a a73c

module.bi_lstm1.bias_hh_l0 f4 [64]
-0.028141597 0.022183852 0.15882249 0.07324604 0.05213029 -0.042193115 0.105141275 -0.0035345242
0.0048248474 0.16838823 0.004916436 0.04694862 0.1008085 0.05155286 0.01529109 0.016071785
-0.009582183 0.013002978 0.15899949 0.076163866 0.028548185 0.1616175 -0.02353152 -0.021894474
0.03569368 0.073971674 0.175904 -0.01377068 0.04933639 -0.018562082 0.0231878 0.019887552
0.05199172 0.13569368 0.13834734 0.07281146 -0.18478078 0.082275346 -0.03199651 -0.020193636
-0.084912136 -0.13543001 -0.11556704 -0.10799166 0.18258406 0.14545083 -0.20416807 -0.09948361
-0.027340269 0.021982236 0.16050479 0.07790284 0.025222182 0.049702186 0.11735609 -0.0028853696
-0.037082464 0.08520299 -0.010322638 0.00520479 0.105145246 0.04501836 0.028347038 0.020415599
00000000: 3589 e6bc e9ba b53c 5da2 223e 0502 963d
00000010: 9286 553d b0d2 2cbd 4f54 d73d 7aa3 67bb
00000020: c119 9e3b f76d 2c3e 0e1a a13b 324d 403d
00000030: b074 ce3d 1729 533d 7b87 7a3c faa8 833c
00000040: 97fe 1cbc 710a 553c c3d0 223e cdfb 9b3d
00000050: e2dd e93c 0f7f 253e 2dc5 c0bc 0a5c b3bc
00000060: 8933 123d 767e 973d 2e20 343e 6b9e 61bc
00000070: f414 4a3d 820f 98bc 57f4 bd3c 38eb a23c
00000080: 45f5 543d 49f3 0a3e edaa 0d3e 2d1e 953d
00000090: 2c37 3dbe fa7f a83d c60e 03bd 206d a5bc
000000a0: 6ae6 adbd 2aae 0abe 6aae ecbd bb2a ddbd
000000b0: 51f7 3a3e 10f1 143e 6f11 51be 10be cbbd
000000c0: b3f8 dfbc 1714 b43c 5e5b 243e 868b 9f3d
000000d0: c09e ce3c 8594 4b3d 6458 f03d 7818 3dbb
000000e0: c8e3 17bd e87e ae3d 4820 29bc f18c aa3b
000000f0: 6456 d73d 2c65 383d 0c38 e83c 9d3e a73c

module.bi_lstm1.weight_ih_l0_reverse f4 [64, 14]
-0.06370322 -0.07094155 -0.09869221 -0.0056463433 -0.037933372 -0.051313255 -0.107525 -0.009779693
-0.030334294 -0.0016815143 0.06379297 -0.0973507 -0.0037237946 0.060592886 0.01090801 -0.016898409
0.007722674 -0.019843852 -0.013789874 -0.018298678 0.0035187209 -0.02675752 -0.012521532 -0.018921057
0.023147635 -0.009688922 -0.0206195 -0.02357041 0.11774027 0.11094616 0.10329079 -0.041578446
0.081289545 0.03225402 0.11852539 -0.04264492 0.099923 0.008559388 0.13140261 0.081631936
-0.016937405 0.0324423 -0.04712185 0.011804469 -0.13612084 0.355991 -0.00875368 0.12511492
-0.09605505 0.2752373 -0.042462565 0.14354667 -0.28645742 -0.0045614643 0.20854166 0.16348287
0.025559653 -0.0033046775 -0.005078324 0.021554995 0.015334124 -0.006064935 -0.02765048 0.01494765
0.018004516 0.015379264 0.043471746 -0.009021075 0.016716108 0.04470564 0.1981014 0.07805179
0.026173389 -0.0066409353 -0.12273273 -0.23154682 0.13757513 -0.039572 -0.16962487 -0.26078576
0.15566681 0.051289957 0.08901304 0.1129992 0.28508842 0.2312108 0.29115415 -0.35453847
0.17915154 -0.36771995 0.3966898 -0.46632063 0.25994962 -0.53714186 0.5396015 0.231294
-0.29411608 -0.052724212 0.007032546 -0.0010345656 -0.018821115 0.0090572955 0.00319323 -0.038595304
-0.019926703 0.019913271 0.0009690843 -0.024665171 -0.0054379296 0.0019459659 0.020980056 0.06236869
0.091960974 0.11726667 0.084527045 -0.010826943 0.060919598 0.04528387 0.07086307 -0.019709632
0.079233065 0.041240115 0.17616196 0.040661544 0.034281697 0.038830664 0.010332976 0.006419987
0.017927578 0.008825655 -0.0020562639 0.0510652 0.009967644 0.124505855 0.055835046 0.07703079
-0.11165469 0.016542029 -0.047072552 -0.0691024 -0.08004024 0.02073008 -0.06381656 -0.10021803
-0.016776174 -0.101639435 -0.0930496 -0.074576534 0.004895883 -0.10454985 -0.14576486 -0.033060875
-0.05384527 -0.06474075 0.055776678 0.15369187 0.09030081 0.07636799 0.07923072 -0.056360755
0.125559 0.074996635 0.08520617 -0.069945484 -0.03267337 0.102034844 -0.01883839 0.04068135
0.15094554 0.15221274 0.10239212 -0.040939264 0.1606959 0.03343106 0.15874153 -0.0926666
0.18108393 -0.0111425305 0.11528876 0.096712224 -0.047163308 -0.03302592 -0.010595998 0.00025610224
-0.00520961 0.017662633 -0.04419704 0.08589997 -0.034465946 0.024767015 -0.053443104 0.11300776
-0.030860249 -0.033172775 -0.030664233 -0.04903073 0.054609846 0.09113334 0.046310715 0.059040587
0.00093519146 0.007801758 0.06316201 0.04123812 0.0062297415 0.0109484615 0.10799697 0.013460968
0.07994679 0.07270685 0.018056871 0.01635291 0.07231843 0.09339649 0.061466444 0.09837395
0.00086460926 0.072257936 0.06284867 0.112253875 0.02828355 0.046634886 0.079691276 -0.00801676
0.15716559 0.108860925 0.13194671 0.09729493 0.1252125 0.07943926 0.11364946 0.07305031
0.11152048 0.10060989 0.22352953 0.12400567 0.17194939 0.17654835 0.03937052 0.02170751
0.033158686 -0.008273281 0.014132872 -0.005673722 0.038087107 -0.015334967 0.014736448 -0.008423921
0.052948512 0.021470593 0.004729797 0.0009164613 0.050284915 0.054975294 0.06309277 -0.07174618
00000000: d576 82bd ce49 91bd 241f cabd f604 b9bb
00000010: 0660 1bbd d92d 52bd 1136 dcbd 013b 20bc
00000020: a07f f8bc 4266 dcba e3a5 823d ce5f c7bd
00000030: e80a 74bb 3f30 783d 83b7 323c 886e 8abc
00000040: 7c0e fd3b 938f a2bc ecee 61bc 1ce7 95bc
00000050: 579a 663b 9632 dbbc 1d27 4dbc 5500 9bbc
00000060: 1ca0 bd3c 49be 1ebc 3aea a8bc bc16 c1bc
00000070: d021 f13d be37 e33d 1f8a d33d 294e 2abd
00000080: 227b a63d cb1c 043d 71bd f23d 71ac 2ebd
00000090: 6ea4 cc3d ad3c 0c3c 688e 063e a52e a73d
000000a0: 50c0 8abc 38e2 043d d702 41bd 8867 413c
000000b0: 4363 0bbe 7444 b63e 986b 0fbc 201e 003e
000000c0: 83b8 c4bd e7eb 8c3e 3aed 2dbd e6fd 123e
000000d0: 8caa 92be 5678 95bb f28b 553e 0e68 273e
000000e0: 7a62 d13c 4a93 58bb 1268 a6bb 1a94 b03c
000000f0: fa3b 7b3c 5dbc c6bb 4283 e2bc fde6 743c
00000100: 357e 933c 4ff9 7b3c 6e0f 323d 22cd 13bc
00000110: 38f0 883c 431d 373d 18db 4a3e 9ed9 9f3d
00000120: 9369 d63c 349c d9bb 4c5b fbbd 9c1a 6dbe
00000130: 7fe0 0c3e 4016 22bd 24b2 2dbe b685 85be
00000140: 1f67 1f3e 6b15 523d 784c b63d 206c e73d
00000150: 1cf7 913e 86c2 6c3e 2812 953e 1186 b5be
00000160: 8073 373e ca45 bcbe ed1a cb3e 94c1 eebe
00000170: 1e18 853e 2182 09bf 5323 0a3f 56d8 6c3e
00000180: 6296 96be 58f5 57bd 4671 e63b 439a 87ba
00000190: bd2e 9abc 0d65 143c 8245 513b 1c16 1ebd
000001a0: 533d a3bc 2821 a33c 260a 7e3a 9d0e cabc
000001b0: a930 b2bb c80f ff3a 5ede ab3c 5076 7f3d
000001c0: 0956 bc3d 8229 f03d 841c ad3d 7e63 31bc
000001d0: d486 793d 947b 393d a820 913d 1876 a1bc
000001e0: f244 a23d 65eb 283d cd63 343e b88c 263d
000001f0: f76a 0c3d e70c 1f3d a44b 293c c15e d23b
00000200: dbdc 923c 7b99 103c 62c2 06bb be29 513d
00000210: 544f 233c edfc fe3d 4ab3 643d 52c2 9d3d
00000220: 37ab e4bd 2683 873c 26cf 40bd 8f85 8dbd
00000230: 23ec a3bd 21d2 a93c 42b2 82bd 1c3f cdbd
00000240: 306e 89bc 5628 d0bd ca90 bebd 95bb 98bd
00000250: a56d a03b 3b1e d6bd 6243 15be d76a 07bd
00000260: dc8c 5cbd cc96 84bd 1676 643d 6761 1d3e
00000270: a2ef b83d d266 9c3d b743 a23d 89da 66bd
00000280: 8a92 003e d697 993d 9380 ae3d 943f 8fbd
00000290: 83d4 05bd a5f7 d03d f852 9abc 7da1 263d
000002a0: 7891 1a3e a8dd 1b3e f6b2 d13d eeaf 27bd
000002b0: 778d 243e 02ef 083d 248d 223e fdc7 bdbd
000002c0: 116e 393e 298f 36bc 831c ec3d 0f11 c63d
000002d0: 502e 41bd 3046 07bd d69a 2dbc 7645 8639
000002e0: 60b5 aabb 3ab1 903c f507 35bd 53ec af3d
000002f0: 2a2c 0dbd 32e4 ca3c 28e7 5abd 9d70 e73d
00000300: a2ce fcbc 2de0 07bd 8f33 fbbc 72d4 48bd
00000310: 93ae 5f3d 1ea4 ba3d 4eb0 3d3d 8bd4 713d
00000320: a327 753a e4a5 ff3b 155b 813d 4ee9 283d
00000330: dc22 cc3b 2d61 333c 842d dd3d 648b 5c3c
00000340: 25bb a33d 54e7 943d 01ec 933c 8af6 853c
00000350: af1b 943d a946 bf3d 3dc4 7b3d 4878 c93d
00000360: f2a6 623a f8fb 933d ceb6 803d 5ce5 e53d
00000370: e7b2 e73c 3904 3f3d 2e35 a33d bb58 03bc
00000380: 04f0 203e 7af2 de3d 0a1d 073e 9042 c73d
00000390: b537 003e 0db1 a23d 0cc1 e83d 679b 953d
000003a0: d964 e43d 8f0c ce3d ede4 643e aff6 fd3d
000003b0: 8013 303e 17c9 343e fb42 213d f3d3 b13c
000003c0: 67d1 073d a88c 07bc 908d 673c a1ea b9bb
000003d0: 3a01 1c3d 833f 7bbc 2571 713c 7c04 0abc
000003e0: 8ae0 583d 19e3 af3c 6afc 9a3b ad3e 703a
000003f0: 8ef7 4d3d c62d 613d c836 813d a9ef 92bd

module.bi_lstm1.weight_hh_l0_reverse f4 [64, 16]
-0.04831528 -0.005389971 0.04638321 -0.10214542 0.016476098 0.08188346 -0.08889677 0.023382835
-0.031377643 -0.102371514 -0.022594446 -0.1684634 0.0022725197 -0.014701685 -0.011709496 0.06671885
0.013120816 -0.014098071 -0.016547253 0.004709827 0.0184731 0.089245684 0.027475959 0.016650941
0.023731558 -0.043446153 -0.0017465655 -0.06842262 -0.0076116277 0.017932165 -0.009563071 0.025221808
0.005360931 0.008841023 -0.03521812 0.053956937 -0.010366271 -0.0010169792 0.053124297 0.016294235
0.018595623 0.015110484 -0.02488904 -0.0105587095 -0.0112292785 -0.04562185 -0.01759617 0.0043901782
-0.20007229 -0.04728519 0.22774729 -0.04814806 -0.07306132 0.31097203 -0.09783035 -0.034028385
-0.21048908 -0.47817993 0.16716932 -0.22155687 0.083608575 0.22525023 -0.12915812 -0.061402753
-0.025555732 -0.005457189 -0.0062625874 -0.033859357 0.015959924 0.08298129 -0.003936696 0.0155548975
0.012763893 -0.0610038 -0.021655733 -0.09251928 -0.02395218 0.0024584774 -0.008704073 0.03491673
-0.003477817 0.06840502 0.059488103 0.014881155 -0.0042725047 -0.030718086 -0.051343992 0.0252391
-0.07052494 0.064189434 -0.044520687 0.12677962 0.026862953 0.1062511 0.06793277 -0.048189703
-0.05468121 0.07283576 -0.00871513 0.42848426 -0.09016383 0.18149771 0.2853578 0.02016661
-0.08281081 0.019818194 0.08650429 0.04182637 0.008999496 0.14496294 0.0007066401 -0.1650305
0.0036044426 -0.01379411 -0.008912726 -0.0029673572 0.025628077 0.018149072 -0.005692284 0.023850158
0.011421771 -0.011705607 -0.032622434 -0.07130582 0.00063701166 -0.0028490748 -0.0018506536 0.035960563
0.0019413081 0.003650934 -0.018295757 0.041725796 -0.003977149 0.018351447 -0.010786214 0.018678257
0.0043558297 -0.020147722 -0.01614409 -0.049741592 -0.0020499197 -0.03254252 -0.025906341 0.017634867
-0.15070118 0.15077312 0.052238226 -0.035993043 -0.06262394 0.024413405 -0.09701233 -0.03543308
-0.13576892 0.0037418078 0.016123772 0.24881062 0.04491405 0.12320163 -0.028817108 -0.13844493
0.10012705 -0.016739177 -0.038962245 0.067325145 0.08946738 0.034923416 -0.05659901 0.06334652
0.032846775 -0.035426706 -0.011028096 -0.059095882 0.00046915695 0.036893945 0.03931324 0.06200185
-0.007725868 0.050988566 -0.036148004 -0.09537848 0.024404079 0.27013028 0.05783 0.035572194
0.070595354 -0.22459541 0.11587489 -0.02166387 -0.13035865 0.104359165 0.07437259 0.029651737
0.00024955184 0.001672437 0.0038772295 0.05108405 -0.01201679 0.062237773 -0.027702589 0.0040852595
-0.016960232 -0.15161821 0.05220661 -0.032773793 -0.0064325132 0.01849709 -0.0024423401 -0.01816066
0.12937343 -0.014216819 -0.12234017 -0.12162527 0.11750919 0.20973998 0.1422964 0.093549415
0.17242244 -0.22754142 0.013928228 -0.2177876 -0.12215695 0.08020817 0.056067593 0.16689582
-0.01614737 -0.012200793 0.008519464 -0.0047239168 0.004066238 0.036463495 -0.011743535 0.008335203
-0.014843383 -0.07744141 -0.004357578 -0.06789811 0.005636585 1.1861202e-07 -0.013617141 0.0074785887
-0.0048597464 0.007415524 -0.02181581 -0.068811245 0.01475194 0.06986303 0.001835358 0.011814718
0.032348722 -0.0925082 -0.0003291258 -0.06502579 -0.030903315 -0.008204599 -0.0070321336 0.03968489
00000000: 3ee6 45bd 5b9e b0bb 52fc 3d3d 9e31 d1bd
00000010: e2f8 863c 84b2 a73d 820f b6bd 5c8d bf3c
00000020: d885 00bd 28a8 d1bd fd17 b9bc ab81 2cbe
00000030: 8eee 143b 56df 70bc 30d9 3fbc e4a3 883d
00000040: b1f8 563c 98fb 66bc 1b8e 87bc e454 9a3b
00000050: e654 973c 71c6 b63d 4315 e13c 8e67 883c
00000060: af68 c23c 98f4 31bd 03ed e4ba 2921 8cbd
00000070: f66a f9bb 7ae6 923c 6dae 1cbc f79d ce3c
00000080: c0aa af3b f0d9 103c e040 10bd f301 5d3d
00000090: 4bd7 29bc 294c 85ba dd98 593d 7d7b 853c
000000a0: d955 983c f791 773c 1ae4 cbbc 70fe 2cbc
000000b0: 02fb 37bc fadd 3abd d825 90bc 7cdb 8f3b
000000c0: c0df 4cbe 1eae 41bd 9636 693e e636 45bd
000000d0: 2ca1 95bd ba37 9f3e 475b c8bd 5961 0bbd
000000e0: 738a 57be 00d4 f4be 6f2e 2b3e cedf 62be
000000f0: f93a ab3d ffa7 663e 0742 04be 7481 7bbd
00000100: 415a d1bc 38d2 b2bb 6436 cdbb 1cb0 0abd
00000110: 63be 823c 18f2 a93d 66ff 80bb f8d9 7e3c
00000120: a61f 513c 1fdf 79bd 5d67 b1bc c07a bdbd
00000130: 5d37 c4bc 681e 213b 879b 0ebc d804 0f3d
00000140: 16ec 63bb ee17 8c3d cca9 733d 17d0 733c
00000150: 5e00 8cbb 7fa4 fbbc 144e 52bd 3bc2 ce3c
00000160: 616f 90bd c075 833d 535b 36bd 84d2 013e
00000170: b20f dc3c 2d9a d93d 5620 8b3d 9162 45bd
00000180: 68f9 5fbd ea2a 953d e8c9 0ebc 4a62 db3e
00000190: d0a7 b8bd 89da 393e 6b1a 923e 7234 a53c
000001a0: b798 a9bd c459 a23c 2929 b13d 2152 2b3d
000001b0: 9f72 133c 2a71 143e d03d 393a c1fd 28be
000001c0: 8338 6c3b b100 62bc af06 12bc fe77 42bb
000001d0: f9f1 d13c 5dad 943c 5786 babb 6861 c33c
000001e0: 6122 3b3c e0c8 3fbc 1a9f 05bd c908 92bd
000001f0: 21fd 263a 8bb7 3abb a191 f2ba 624b 133d
00000200: 7e73 fe3a 8244 6f3b fce0 95bc abe8 2a3d
00000210: be52 82bb c655 963c a9b8 30bc 2503 993c
00000220: 59bb 8e3b d60c a5bc 9c40 84bc d7bd 4bbd
00000230: f257 06bb 4e4b 05bd 8939 d4bc ff76 903c
00000240: 6951 1abe 4564 1a3e c0f7 553d 716d 13bd
00000250: fb40 80bd 9ffe c73c 67ae c6bd 4722 11bd
00000260: 0207 0bbe 1e39 753b 0016 843c 36c8 7e3e
00000270: cbf7 373d 2351 fc3d db11 ecbc 82c4 0dbe
00000280: 690f cd3d 9920 89bc e096 1fbd c4e1 893d
00000290: ac3a b73d db0b 0f3d 5dd4 67bd d2bb 813d
000002a0: 578a 063d 981b 11bd 30af 34bc 860e 72bd
000002b0: 2ef9 f539 1b1e 173d ec06 213d a7f5 7d3d
000002c0: 4729 fdbb 63d9 503d ee0f 14bd cb55 c3bd
000002d0: 10eb c73c 844e 8a3e 26df 6c3d 26b4 113d
000002e0: 4c94 903d 57fc 65be d04f ed3d 6e78 b1bc
000002f0: bd7c 05be 42ba d53d a850 983d 33e8 f23c
00000300: 48d6 8239 ac35 db3a 1e19 7e3b 823d 513d
00000310: 12e2 44bc 09ed 7e3d 8af0 e2bc a4dd 853b
00000320: 2ff0 8abc ce41 1bbe 99d6 553d d03d 06bd
00000330: d5c7 d2bb 3687 973c ab0f 20bb aac5 94bc
00000340: 787a 043e a9ed 68bc 7c8d fabd ab16 f9bd
00000350: a9a8 f03d 14c6 563e 26b6 113e d696 bf3d
00000360: 828f 303e 9e00 69be 3933 643c b603 5fbe
00000370: 6c2d fabd 2e44 a43d 22a7 653d bde6 2a3e
00000380: 7d47 84bc d6e5 47bc 3995 0b3c 16cb 9abb
00000390: 143e 853b bf5a 153d f567 40bc 6090 083c
000003a0: a931 73bc 9a99 9ebd 03ca 8ebb 2a0e 8bbd
000003b0: 1ab3 b83b a6b7 fe33 6e1a 5fbc f30e f53b
000003c0: 823e 9fbb edfd f23b 12b7 b2bc e9ec 8cbd
000003d0: 1fb2 713c 5914 8f3d 6590 f03a 8592 413c
000003e0: 1880 043d f074 bdbd 848e acb9 3e2c 85bd
000003f0: f328 fdbc 956c 06bc d06d e6bb a08c 223d

module.bi_lstm1.bias_ih_l0_reverse f4 [64]
0.09583403 0.003926548 0.08772326 0.048234906 0.08978486 0.11977749 0.102999054 0.050047174
0.0792351 0.0739476 0.0715803 0.016677262 0.073663644 -0.045320775 0.13379674 0.08457137
0.2848219 0.04297343 -0.054922745 0.26773348 0.08695928 0.2148565 0.047748126 0.062047865
0.052723482 0.2680224 -0.0538248 0.007978262 -0.017484723 0.08003848 0.038497385 0.16831625
-0.14452553 0.055219255 0.11440444 0.1716785 -0.035141103 -0.17788836 -0.2112577 0.076983236
-0.30478686 0.14594787 -0.2710751 0.019356947 0.21758953 0.008949856 -0.23643039 0.0478202
0.169385 0.008969797 0.11746424 0.30973664 0.12862732 0.035291668 0.08042467 0.03436058
0.091657035 0.0961097 0.10720328 0.047713373 0.06936745 -0.007356321 0.1686323 0.093243964
00000000: a244 c43d 46aa 803b 41a8 b33d f791 453d
00000010: 20e1 b73d e74d f53d 2bf1 d23d 44fe 4c3d
00000020: 0346 a23d d771 973d b198 923d c19e 883c
00000030: f7dc 963d 47a2 39bd 0302 093e c133 ad3d
00000040: 2dd4 913e e804 303d acf6 60bd 5d14 893e
00000050: b517 b23d 5803 5c3e 8a93 433d e725 7e3d
00000060: 94f4 573d 3b3a 893e 6577 5cbd 42b7 023c
00000070: 1f3c 8fbc 37eb a33d 6faf 1d3d 185b 2c3e
00000080: 80fe 13be 962d 623d e04c ea3d 7dcc 2f3e
00000090: 1ef0 0fbd 5e28 36be f053 58be 63a9 9d3d
000000a0: 060d 9cbe 5c73 153e 5bca 8abe 7692 9e3c
000000b0: cacf 5e3e 6ba2 123c cf1a 72be 1ddf 433d
000000c0: 4373 2d3e 0ef6 123c 1791 f03d cd95 9e3e
000000d0: e1b6 033e ff8d 103d b0b5 a43d aebd 0c3d
000000e0: afb6 bb3d 2ad5 c43d 658d db3d 196f 433d
000000f0: 8610 8e3d 4b0d f1bb f2ad 2c3e b1f6 be3d

module.bi_lstm1.bias_hh_l0_reverse f4 [64]
0.10344199 0.0039935284 0.071422845 0.024811272 0.08056934 0.11645258 0.07098792 0.056171168
0.13925485 0.08282184 0.023865646 -0.011504022 0.058630317 -0.04260725 0.14930855 -0.011036773
0.3019326 0.041074138 -0.024742268 0.30341196 0.05409387 0.18297556 0.047831774 0.06451277
0.09101903 0.32384238 0.10590851 0.045041323 -0.017623914 0.080055095 0.09423016 0.042812083
-0.088904224 -0.122931115 0.067685455 0.108847834 0.0760131 -0.10226645 -0.12049991 0.088787414
-0.035920266 0.24073139 -0.2460942 0.068687014 0.15779036 -0.030299967 -0.1140775 -0.19377066
0.16941483 0.009330755 0.088902935 0.21826531 0.1096376 0.16608676 0.06630771 0.08915353
0.0709718 0.014469766 -0.084195405 0.029071452 0.10650844 -0.00682525 0.09926356 0.07085464
00000000: 65d9 d33d 25dc 823b 2446 923d 0241 cb3c
00000010: 8a01 a53d b17e ee3d 1d62 913d bd13 663d
00000020: d398 0e3e 7f9e a93d e381 c33c 5e7b 3cbc
00000030: 5826 703d f184 2ebd 57e4 183e 95d3 34bc
00000040: e996 9a3e 5b3d 283d 4cb0 cabc d058 9b3e
00000050: 8991 5d3d f25d 3b3e 40eb 433d 451f 843d
00000060: 2f68 ba3d abce a53e 90e6 d83d 407d 383d
00000070: 0760 90bc edf3 a33d befb c03d b95b 2f3d
00000080: 6b13 b6bd 4fc3 fbbd ac9e 8a3d 9deb de3d
00000090: c2ac 9b3d 1371 d1bd a8c8 f6bd 2dd6 b53d
000000a0: 2121 13bd 4a82 763e 1e00 7cbe c7ab 8c3d
000000b0: cc93 213e a337 f8bc 77a1 e9bd d16b 46be
000000c0: 157b 2d3e 06e0 183c be12 b63d f180 5f3e
000000d0: ae89 e03d a612 2a3e 56cc 873d 2096 b63d
000000e0: aa59 913d 9912 6d3c a46e acbd 4127 ee3c
000000f0: 1921 da3d 59a6 dfbb b14a cb3d 3d1c 913d

module.bi_lstm2.weight_ih_l0 f4 [128, 16]
-0.004757901 0.003038075 0.007836477 0.009798358 -0.006425802 -0.010333956 -0.003530762 -0.0039067767
-0.0056468137 0.013786008 -0.003598402 0.0039706775 0.002289515 0.0008022837 -0.008097941 -0.008264084
0.002967236 0.0029114946 0.0013838947 0.00631679 -0.0034032667 -0.005306469 -0.0033594538 0.0006760499
-0.0028636535 0.008358355 0.0009756274 0.0024051142 -0.00030630495 0.00077471486 -0.0040399167 -0.0061850897
-0.01651409 0.0036249026 0.007450584 0.006222485 -0.008520741 -0.02620256 -0.0005483671 -0.005815025
-0.010289214 0.032395795 -0.010137652 0.020524262 0.00020464706 -0.011023223 -0.0074048922 -0.013344437
-0.011219727 0.0073209903 0.01623934 0.010688141 -0.01754359 -0.03571314 -0.017224975 -0.013060078
-0.021675594 0.042076215 -0.013004593 0.028332863 0.0051111346 -0.0076779067 -0.015606437 -0.020462792
0.00010046688 0.00034161267 0.00038718956 0.0052912333 -0.0017935822 -0.0056998557 -0.00037815503 -0.003027845
0.000121767494 0.006501101 0.0012768232 0.01084904 0.00038881373 -0.002582723 -0.0035535884 -0.0019974783
-0.013765343 0.0047364687 0.009839936 0.0056494377 -0.0119783 -0.021494208 -0.0027379673 -0.004976523
-0.0076269913 0.019962763 -0.005314217 0.009199812 0.0038956036 -0.00051185384 -0.014689811 -0.009596565
-0.01219594 0.0023728933 0.009131713 0.004196566 -0.007425766 0.005952562 -0.008535475 -0.0073795076
-0.007780506 -0.0012568661 0.0028768375 -0.0063433694 0.004212472 0.002931611 -0.008906078 -0.0074233953
0.0035391357 -0.00080835936 -0.0051921457 0.0009442529 0.0025410124 -0.008333145 0.0062999246 0.0006673111
0.00869341 0.0021067145 -0.0029320687 0.0062960256 -0.005935494 0.0018134926 0.0016890507 0.006287608
0.008301157 0.004411038 -0.001231078 0.00854219 -0.009173872 -0.019430356 0.003198774 -0.004882115
-0.005484327 0.01210498 -0.011103591 0.016974619 0.0059898943 0.0008590084 -0.010135356 -0.012437951
-0.019677069 0.001292332 0.010788414 -0.010787378 -0.015790358 -0.019764472 -0.009355126 -0.008926751
-0.0044750413 0.023248281 -0.012221048 0.008113065 0.00059362256 0.0024630665 -0.014028418 -0.006376841
-4.1263113e-05 0.0027558298 0.0046005463 -0.000501245 -0.005641182 -0.00085447595 -0.004985152 -0.0049827434
-0.0009206753 -0.0024594683 0.006836579 0.0042087166 0.0039574937 0.0030857353 -0.0026166353 -0.0022575557
-0.0102102645 0.0012134331 -0.00436599 0.009561324 -0.017507775 -0.03629027 2.6108015e-05 -0.021680485
-0.0015198075 0.04685251 -0.004644916 0.042649392 0.013387803 -0.008367736 -0.019664817 -0.026061049
-0.015390995 0.0017002219 0.015082131 -0.0035075264 -0.010289224 0.007865944 -0.010161026 -0.011050859
-0.0076236813 -0.00029955563 0.009742239 -0.0014203985 0.010171309 0.003997819 -0.011904324 -0.008832645
-0.0014146 0.0011184525 -0.005340679 0.0029000286 0.004270434 -0.008473678 0.016158806 0.0104176905
0.0017807225 0.0072790137 -0.010275307 -0.004153892 -0.0055862386 -0.0032144669 0.0041056243 0.008793665
-0.008572305 0.004723319 0.008044077 0.0124387 -0.018422943 0.00085078843 -0.00804477 -0.011713745
-0.007337926 0.006823761 -0.004652915 0.007978401 0.006923399 0.0012085419 -0.015446026 -0.012933858
-0.008969923 0.0013091267 0.0011444436 -0.0066960687 0.0006319937 -0.020581588 -0.0007654804 -0.004488599
0.0045291064 0.0036182762 -0.002195024 0.004157439 0.0005554654 -0.0016673481 -0.00060244324 0.0024780883
00000000: 2be8 9bbb 711a 473b 9164 003c 4b89 203c
00000010: 898f d2bb c14f 29bc 5b64 67bb 6b04 80bb
00000020: e808 b9bb b5de 613c 2bd3 6bbb 751c 823b
00000030: b00b 163b 5950 523a 3aad 04bc 1566 07bc
00000040: f675 423b c6ce 3e3b cd63 b53a 13fd ce3b
00000050: 5709 5fbb e3e1 adbb 482a 5cbb f138 313a
00000060: 22ac 3bbb 7bf1 083c 3fc1 7f3a 1f9f 1d3b
00000070: 8e97 a0b9 3c16 4b3a 4761 84bb 4bac cabb
00000080: 8f48 87bc c68f 6d3b 0724 f43b fde5 cb3b
00000090: 949a 0bbc c0a6 d6bc 4bc0 0fba f78b bebb
000000a0: 1794 28bc 74b1 043d 6518 26bc 7f22 a83c
000000b0: 8796 5639 c09a 34bc bda4 f2bb a0a2 5abc
000000c0: f2d2 37bc ebe4 ef3b 5d08 853c 501d 2f3c
000000d0: 93b7 8fbc f147 12bd 641b 8dbc f0f9 55bc
000000e0: 0491 b1bc 1c58 2c3d 3711 55bc 521a e83c
000000f0: 4e7b a73b f396 fbbb 24b2 7fbc 96a1 a7bc
00000100: bfb1 d238 7a1a b339 b4ff ca39 1562 ad3b
00000110: a216 ebba dbc5 babb 1c43 c6b9 cf6e 46bb
00000120: 6d5d ff38 3007 d53b 145b a73a 2cc0 313c
00000130: b2d9 cb39 e742 29bb 52e3 68bb 20e8 02bb
00000140: 0988 61bc 6134 9b3b af37 213c eb1e b93b
00000150: a240 44bc 9f14 b0bc 786f 33bb 1a12 a3bb
00000160: d7eb f9bb f388 a33c e222 aebb cfba 163c
00000170: 624d 7f3b ee2d 06ba 88ad 70bc e93a 1dbc
00000180: 7bd1 47bc 8b82 1b3b 2e9d 153c 5983 893b
00000190: d753 f3bb b60d c33b 60d8 0bbc cccf f1bb
000001a0: 9df3 febb 6ebd a4ba 5389 3c3b 0adc cfbb
000001b0: c708 8a3b 4520 403b ccea 11bc f43f f3bb
000001c0: d8f0 673b 14e8 53ba e022 aabb bd87 773a
000001d0: 1d87 263b be87 08bc 996f ce3b 7dee 2e3a
000001e0: ce6e 0e3c ce10 0a3b f327 40bb e44e ce3b
000001f0: 887e c2bb b7b2 ed3a 2363 dd3a 4708 ce3b
00000200: 9301 083c 788a 903b 1f5c a1ba 8bf4 0b3c
00000210: 024e 16bc 692c 9fbc 86a2 513b 26fa 9fbb
00000220: dfb5 b3bb f753 463c d6eb 35bc 5b0e 8b3c
00000230: e046 c43b 142f 613a c40e 26bc 8cc8 4bbc
00000240: ce31 a1bc 7763 a93a e3c1 303c 8bbd 30bc
00000250: c85a 81bc 1ae9 a1bc 3e46 19bc 8241 12bc
00000260: 5ea3 92bb 2e73 be3c ca3a 48bc a9ec 043c
00000270: 569d 1b3a 666b 213b 73d7 65bc d2f4 d0bb
00000280: ee11 2db8 279b 343b 2ec0 963b fc65 03ba
00000290: aad9 b8bb e9fe 5fba 7c5a a3bb 4846 a3bb
000002a0: 7959 71ba 082f 21bb 6205 e03b 46e9 893b
000002b0: ddad 813b 0c3a 4a3b db7b 2bbb 80f3 13bb
000002c0: f448 27bc 0f0c 9f3a 9410 8fbb 19a7 1c3c
000002d0: 776c 8fbc 1ba5 14bd 8902 db37 469b b1bc
000002e0: 4734 c7ba 6be8 3f3d 6134 98bb 21b1 2e3d
000002f0: 8458 5b3c d418 09bc 1c18 a1bc fb7d d5bc
00000300: 832a 7cbc fbd9 de3a 0b1b 773c 87de 65bb
00000310: 2294 28bc 29e0 003c 6f7a 26bc a90e 35bc
00000320: 13d0 f9bb ad0d 9db9 e99d 1f3c aa2c baba
00000330: 90a5 263c 2300 833b 5b0a 43bc ccb6 10bc
00000340: 196a b9ba 0a99 923a dd00 afbb 680e 3e3b
00000350: ffee 8b3b 2ed5 0abc 795f 843c f6ae 2a3c
00000360: 2267 e93a cb84 ee3b c359 28bc 5f1d 88bb
00000370: c40c b7bb cea9 52bb 7988 863b 4e13 103c
00000380: da72 0cbc 12c6 9a3b 4ecb 033c b0cb 4b3c
00000390: b6eb 96bc 7207 5f3a 36ce 03bc 02eb 3fbc
000003a0: fc72 f0bb db99 df3b 7b77 98bb d7b7 023c
000003b0: aedd e23b f067 9e3a 5411 7dbc 88e8 53bc
000003c0: 95f6 12bc 0197 ab3a 2801 963a b26a dbbb
000003d0: 61ac 253a b89a a8bc 85aa 48ba 1915 93bb
000003e0: e668 943b 9a20 6d3b 64da 0fbb 203b 883b
000003f0: a79c 113a eb8a daba 48ed 1dba 6c67 223b

module.bi_lstm2.weight_hh_l0 f4 [128, 32]
-4.9253e-41 -4.9819e-41 4.9492e-41 4.9841e-41 -5.0005e-41 -4.9949e-41 -5.1187e-41 4.9718e-41
-4.9165e-41 -4.9417e-41 5.1798e-41 -4.9146e-41 -6.2181e-41 -4.9889e-41 4.9526e-41 -5.766e-41
5.6863e-41 -5.8902e-41 -4.9739e-41 6.0099e-41 -5.0047e-41 4.9229e-41 -5.0154e-41 -4.9104e-41
5.0398e-41 4.9306e-41 5.5035e-41 -4.9977e-41 4.9438e-41 4.9833e-41 5.0302e-41 -4.9574e-41
5.2041e-41 4.9642e-41 5.2774e-41 -4.9836e-41 5.0951e-41 4.9843e-41 4.969e-41 1.18034e-40
5.3503e-41 5.312e-41 5.0518e-41 -5.106e-41 6.0431e-41 -5.0797e-41 6.2118e-41 -4.9113e-41
-4.9271e-41 4.9417e-41 4.9501e-41 5.0612e-41 5.0424e-41 4.966e-41 4.9781e-41 -4.9704e-41
-4.9934e-41 -2.4374e-41 -5.7885e-41 4.997e-41 -5.0347e-41 4.9707e-41 -5.0895e-41 4.9386e-41
-5.0943e-41 4.9389e-41 -5.2808e-41 5.0176e-41 -6.1535e-41 5.3081e-41 5.9229e-41 -4.9103e-41
5.6796e-41 5.3332e-41 5.4426e-41 4.9642e-41 -4.9623e-41 5.0071e-41 -4.9114e-41 5.3291e-41
5.6647e-41 5.025e-41 4.9844e-41 -5.5512e-41 -5.06e-41 -5.0063e-41 5.0798e-41 -4.9823e-41
5.0202e-41 -4.9882e-41 -4.9766e-41 4.9825e-41 4.951e-41 4.9783e-41 -4.906e-41 5.0204e-41
-4.9984e-41 4.966e-41 -6.0355e-41 4.9286e-41 5.0892e-41 -4.9054e-41 4.9864e-41 -4.9904e-41
-5.165e-41 -4.9427e-41 5.0507e-41 4.9742e-41 -5.0126e-41 -5.7691e-41 -4.9296e-41 4.953e-41
5.0026e-41 4.9448e-41 4.9598e-41 4.939e-41 4.973e-41 5.0677e-41 -4.963e-41 -5.0232e-41
5.051e-41 4.9256e-41 -5.5047e-41 -4.9945e-41 4.923e-41 -5.638e-41 5.1195e-41 4.9783e-41
-4.9784e-41 -4.9578e-41 -4.9184e-41 -4.9913e-41 -4.9257e-41 -4.9341e-41 2.50792e-40 -5.047e-41
-4.982e-41 -4.9476e-41 5.1946e-41 -4.9351e-41 5.0855e-41 -5.3755e-41 -5.0252e-41 -5.01e-41
4.934e-41 -5.0431e-41 -4.9522e-41 5.2843e-41 5.0232e-41 -4.9979e-41 -4.9313e-41 4.9432e-41
4.9121e-41 4.9257e-41 -5.0716e-41 4.9201e-41 4.973e-41 -4.9354e-41 -5.0713e-41 -4.959e-41
-5.01e-41 -4.965e-41 5.0335e-41 -4.9728e-41 5.0235e-41 4.9551e-41 -4.9278e-41 4.9268e-41
-4.999e-41 3.6526e-41 -4.9533e-41 -5.002e-41 4.9928e-41 -5.1076e-41 4.9116e-41 -5.9824e-41
5.0682e-41 -5.19e-41 -5.3371e-41 5.0161e-41 -4.9414e-41 5.0293e-41 5.0975e-41 5.0888e-41
-4.9127e-41 -5.2348e-41 -5.0965e-41 -4.9427e-41 -5.0455e-41 -5.0478e-41 -4.9749e-41 -4.9969e-41
5.0974e-41 4.9553e-41 4.9969e-41 1.0581e-41 6.0315e-41 -5.9283e-41 4.9934e-41 -5.1842e-41
5.5262e-41 4.9931e-41 -4.969e-41 1.69092e-40 4.9484e-41 5.3398e-41 4.9415e-41 -4.9911e-41
-5.598e-41 4.9443e-41 4.9707e-41 -4.9623e-41 -5.1393e-41 -5.1583e-41 5.3405e-41 -4.9613e-41
-4.9329e-41 -5.1494e-41 -4.9903e-41 -5.1772e-41 4.9236e-41 -5.1561e-41 5.1854e-41 -5.0127e-41
4.9211e-41 -4.9833e-41 4.9462e-41 4.9564e-41 -5.0769e-41 5.2893e-41 5.6558e-41 -5.0223e-41
5.0521e-41 -4.9379e-41 -4.9274e-41 -5.8319e-41 5.3814e-41 5.0001e-41 4.948e-41 -5.4023e-41
4.942e-41 5.2816e-41 5.0112e-41 -5.3447e-41 -4.9617e-41 4.9721e-41 5.8639e-41 -5.6032e-41
5.2742e-41 4.9474e-41 4.9207e-41 4.9532e-41 4.9683e-41 5.0513e-41 5.1226e-41 4.9668e-41
00000000: 4c89 0080 e08a 0080 f789 0000 f08a 0000
00000010: 658b 0080 3d8b 0080 b08e 0080 988a 0000
00000020: 0d89 0080 c189 0080 6490 0000 0089 0080
00000030: 56ad 0080 128b 0080 0f8a 0000 bca0 0080
00000040: 839e 0000 32a4 0080 a78a 0080 88a7 0000
00000050: 838b 0080 3b89 0000 cf8b 0080 e288 0080
00000060: 7d8c 0000 7289 0000 6a99 0000 518b 0080
00000070: d089 0000 ea8a 0000 398c 0000 318a 0080
00000080: 1291 0000 628a 0000 1d93 0000 ec8a 0080
00000090: 088e 0000 f18a 0000 848a 0000 0849 0100
000000a0: 2595 0000 1494 0000 d38c 0000 568e 0080
000000b0: 75a8 0000 9a8d 0080 29ad 0000 e888 0080
000000c0: 5989 0080 c189 0000 fd89 0000 168d 0000
000000d0: 908c 0000 6f8a 0000 c58a 0000 8e8a 0080
000000e0: 328b 0080 f243 0080 5ca1 0080 4c8b 0000
000000f0: 598c 0080 908a 0000 e08d 0080 ab89 0000
00000100: 028e 0080 ad89 0000 3593 0080 df8b 0000
00000110: 89ab 0080 f893 0000 1ba5 0000 e188 0080
00000120: 539e 0000 ab94 0000 b897 0000 628a 0000
00000130: 548a 0080 948b 0000 e988 0080 8e94 0000
00000140: e99d 0000 148c 0000 f28a 0000 bf9a 0080
00000150: 0d8d 0080 8e8b 0080 9b8d 0000 e38a 0080
00000160: f18b 0000 0d8b 0080 ba8a 0080 e48a 0000
00000170: 048a 0000 c68a 0000 c288 0080 f38b 0000
00000180: 568b 0080 6f8a 0000 3fa8 0080 6489 0000
00000190: de8d 0000 be88 0080 008b 0000 1d8b 0080
000001a0: fb8f 0080 c889 0080 cb8c 0000 a98a 0000
000001b0: bb8b 0080 d2a0 0080 6b89 0080 128a 0000
000001c0: 748b 0000 d789 0000 428a 0000 ae89 0000
000001d0: a18a 0000 448d 0000 598a 0080 078c 0080
000001e0: cd8c 0000 4e89 0000 7399 0080 3a8b 0080
000001f0: 3c89 0000 2a9d 0080 b68e 0000 c68a 0000
00000200: c78a 0080 348a 0080 1b89 0080 238b 0080
00000210: 4f89 0080 8b89 0080 1bbb 0200 b18c 0080
00000220: e18a 0080 eb89 0080 ce90 0000 9289 0080
00000230: c38d 0000 d995 0080 158c 0080 a98b 0080
00000240: 8a89 0000 958c 0080 0c8a 0080 4e93 0000
00000250: 078c 0000 528b 0080 7789 0080 cc89 0000
00000260: ee88 0000 4f89 0000 608d 0080 2789 0000
00000270: a18a 0000 9489 0080 5e8d 0080 3d8a 0080
00000280: a98b 0080 678a 0080 508c 0000 9f8a 0080
00000290: 098c 0000 218a 0000 5e89 0080 5789 0000
000002a0: 5a8b 0080 d265 0000 148a 0080 6f8b 0080
000002b0: 2e8b 0000 618e 0080 ea88 0000 c4a6 0080
000002c0: 488d 0000 ad90 0080 c794 0080 d48b 0000
000002d0: bf89 0080 328c 0000 198e 0000 db8d 0000
000002e0: f288 0080 ed91 0080 128e 0080 c889 0080
000002f0: a68c 0080 b68c 0080 ae8a 0080 4b8b 0080
00000300: 188e 0000 228a 0000 4b8b 0000 7f1d 0000
00000310: 22a8 0000 42a5 0080 328b 0000 8490 0080
00000320: 0c9a 0000 308b 0000 848a 0080 5cd7 0100
00000330: f189 0000 da94 0000 c089 0000 228b 0080
00000340: 0d9c 0080 d489 0000 908a 0000 548a 0080
00000350: 438f 0080 cb8f 0080 df94 0000 4d8a 0080
00000360: 8289 0080 8b8f 0080 1c8b 0080 5290 0080
00000370: 4089 0000 bb8f 0080 8c90 0000 bc8b 0080
00000380: 2e89 0000 ea8a 0080 e189 0000 2a8a 0000
00000390: 868d 0080 7293 0000 a99d 0000 008c 0080
000003a0: d58c 0000 a689 0080 5b89 0080 92a2 0080
000003b0: 0396 0000 628b 0000 ee89 0000 9896 0080
000003c0: c389 0000 3b93 0000 b18b 0000 fd94 0080
000003d0: 508a 0080 9a8a 0000 76a3 0000 329c 0080
000003e0: 0693 0000 ea89 0000 2b89 0000 138a 0000
000003f0: 7f8a 0000 cf8c 0000 cc8e 0000 748a 0000

module.bi_lstm2.bias_ih_l0 f4 [128]
0.009426952 0.0049959263 0.040722508 0.044411305 0.0018483659 0.031090593 -0.0056940364 0.021244738
0.01686725 0.0566016 -0.0028223463 0.08425025 -0.009026288 0.029145341 0.0080082 0.0113647375
0.01347728 0.03519339 0.018666146 0.0027617922 0.041105635 0.033498805 0.0009127759 0.020084692
0.017053543 -0.0036883093 0.0048372312 -0.0009343408 0.0107676685 -0.00014781432 0.0021091278 0.038460657
-4.984e-41 4.9202e-41 -6.0273e-41 4.9152e-41 4.9487e-41 4.9806e-41 -4.9533e-41 -5.1199e-41
-5.1931e-41 -4.944e-41 -5.8986e-41 5.062e-41 -4.9268e-41 -4.9142e-41 4.9106e-41 -4.9052e-41
-4.938e-41 4.9188e-41 -5.008e-41 4.9329e-41 -4.941e-41 4.9893e-41 -5.0088e-41 4.9505e-41
5.4495e-41 -5.1217e-41 -5.2308e-41 -5.0434e-41 -4.9588e-41 5.4314e-41 -5.4382e-41 4.9114e-41
-0.038656946 0.04413209 -0.017947482 0.03778482 -0.11909478 -0.052663933 0.01261797 -0.008546856
-0.07288117 -0.016169572 -0.026968911 0.21979132 -0.08057629 -0.067540795 -0.030672196 -0.03293051
-0.090793386 0.0025883475 -0.12149443 -0.031818476 -0.060376775 -0.051124867 -0.07503458 0.01871162
-0.04669673 0.026620759 -0.068656825 -0.013958084 0.048638362 -0.017146619 0.010467977 -0.15775603
0.00928301 0.005065785 0.040215496 0.04352483 0.0019325612 0.030858422 -0.005715783 0.021273496
0.017015796 0.056787718 -0.002816895 0.086452216 -0.009008616 0.02905135 0.008051008 0.011164759
0.013589491 0.034268104 0.018884385 0.0027593449 0.041334394 0.032614343 0.000918815 0.019789
0.016827859 -0.0036994487 0.0049049635 -0.00093746756 0.0107302945 -0.00015442567 0.0021367453 0.039201964
00000000: 8173 1a3c deb4 a33b a5cc 263d a1e8 353d
00000010: de44 f23a b3b1 fe3c 0a95 babb 7209 ae3c
00000020: 302d 8a3c 14d7 673d 1df7 38bb 658b ac3d
00000030: ffe2 13bc 36c2 ee3c d334 033c 2a33 3a3c
00000040: cfcf 5c3c f226 103d bfe9 983c 2fff 343b
00000050: 625e 283d 0b36 093d 5b47 6f3a a788 a43c
00000060: dfb3 8b3c 90b7 71bb a381 9e3b 8dee 74ba
00000070: e06a 303c 9bfe 1ab9 4b39 0a3b ec88 1d3d
00000080: ef8a 0080 2889 0000 04a8 0080 0489 0000
00000090: f389 0000 d78a 0000 148a 0080 b98e 0080
000000a0: c390 0080 d289 0080 6ea4 0080 1c8d 0000
000000b0: 5789 0080 fd88 0080 e388 0000 bd88 0080
000000c0: a789 0080 1e89 0000 9a8b 0080 8289 0000
000000d0: bc89 0080 158b 0000 a08b 0080 008a 0000
000000e0: e997 0000 c68e 0080 d091 0080 978c 0080
000000f0: 3b8a 0080 6897 0000 9897 0080 e988 0000
00000100: bf56 1ebd dac3 343d 9906 93bc 41c4 1a3d
00000110: f7e7 f3bd 23b6 57bd 9abb 4e3c 1d08 0cbc
00000120: b942 95bd 0d76 84bc e8ed dcbc fa10 613e
00000130: 2f05 a5bd d452 8abd 4244 fbbc 24e2 06bd
00000140: e2f1 b9bd 44a1 293b 12d2 f8bd 1754 02bd
00000150: a34d 77bd 4f68 51bd bbab 99bd 1c49 993c
00000160: 1245 3fbd c713 da3c f39b 8cbd 73b0 64bc
00000170: 0539 473d 1177 8cbc e181 2b3c cc8a 21be
00000180: c417 183c e2fe a53b 01b9 243d 1847 323d
00000190: fe4d fd3a cdca fc3c 774b bbbb c145 ae3c
000001a0: b664 8b3c 3d9a 683d a89b 38bb dc0d b13d
000001b0: e098 13bc 19fd ed3c 60e8 033c 65ec 363c
000001c0: 75a6 5e3c b65c 0c3d 6db3 9a3c 20d6 343b
000001d0: 414e 293d 9e96 053d a2dc 703a 8a1c a23c
000001e0: 94da 893c 7372 72bb d1b9 a03b 62c0 75ba
000001f0: 1ece 2f3c 53ed 21b9 a308 0c3b 3d92 203d
