output/clip/FD001/exp_202411012252_bilstm_clip_ep-0137.pth (torch, 288916 bytes, 66 tensors)

module.bi_lstm1.weight_ih_l0 f4 [64, 14]
0.10564874 0.1021585 0.16124207 -0.0091633415 0.12685086 0.12714528 0.11821687 0.10918927
0.09590903 0.15078987 0.086059876 0.17050554 0.14297913 0.122251995 -0.07286496 0.016929682
0.0133611215 0.019176684 0.15474913 0.043574415 0.07513617 0.08273489 0.091453575 0.018282237
0.060898557 0.14034255 0.008876262 0.034661498 0.07768716 0.08640559 0.11609537 0.116357885
0.09421911 0.11701953 0.092588775 0.00040375142 0.067684874 0.07961614 0.039678793 0.1291319
0.101442754 -0.01976316 0.012265184 0.10928467 -0.018092278 0.014324998 0.12275104 -0.042152535
0.024872622 0.16711728 0.026547678 -0.05684723 0.028272301 0.02211619 0.05019361 0.17532231
0.10737215 0.12187465 0.08266453 0.002890237 0.06328316 0.038740944 0.13720709 -0.09424924
0.118788585 0.024090681 0.12894106 0.066859215 0.040927466 0.05264555 0.19868451 0.054311246
0.094266415 0.20066953 0.025558513 0.025740907 0.060927626 0.03128899 0.029558856 0.017286561
0.083318576 0.01902148 0.02391524 0.04063469 -0.053390566 0.019555919 -0.04023384 0.0115808295
0.036362153 -0.007743469 0.031655945 0.049095184 0.001540076 0.0022355393 0.038859867 -0.04228718
0.04398166 0.07905712 -0.017451474 0.08541124 0.044799037 -0.045285225 0.09356478 0.0003070169
0.12142882 -0.002286408 0.08680344 -0.004658486 0.02345784 0.11086026 -0.008207418 0.019716624
0.027511057 0.061654996 0.041957915 0.04407127 0.053289782 0.02262276 0.087712206 0.06482933
0.05772928 0.01872242 0.051129416 0.02689009 0.07667816 0.06539334 -0.013507444 0.030717423
0.01822068 -0.11352121 0.13795155 0.058573287 0.11794698 -0.076862514 0.06377104 0.03635491
0.10322891 0.1449324 -0.0033401223 -0.12975113 -0.00040942078 0.075773746 0.05534229 -0.057957396
0.053780556 0.015368942 0.070944555 -0.014099376 0.027108718 0.009486918 0.086832 0.05025001
-0.055510174 -0.033970512 0.058806248 0.03007788 0.025807632 0.019829819 0.00013955764 -0.0074653323
0.015687322 -0.0758359 0.033322737 -0.02282406 0.024485778 -0.02109921 -0.020744137 -0.016129507
-0.039644342 0.08507607 -0.041690204 0.047284458 0.081127025 -0.010639199 0.053616762 0.19535442
0.013272401 -0.0041244687 0.009751802 -0.014942359 0.09131868 0.1485109 0.004085029 -0.0024023345
-0.005278221 0.013364059 -0.009946769 0.019149933 -0.015364759 0.022729527 -0.018514914 0.020480907
-0.011735983 -0.0027146053 0.012509595 0.011783311 0.06183834 0.03771582 0.106163636 -0.059069954
0.034974966 0.03738613 0.1482609 0.0023433978 0.15380113 0.02554475 0.17933962 0.13354951
0.0011813912 -0.05268492 -0.019314526 0.004827747 0.09139213 -0.030973935 0.07833778 -0.009227771
0.05213313 0.053406347 0.04413151 0.015216863 0.20715362 0.12914108 -0.05814718 0.048941668
0.05133467 0.05614534 0.16773543 -0.048594356 0.1790164 0.138681 0.12888047 0.102708146
0.22324027 0.16797271 0.11329576 0.17179967 0.16675614 0.10157542 0.19691548 0.13242634
0.25602728 0.17325391 0.40089214 0.1205486 0.19282337 0.38034683 0.17088872 0.18816513
0.22247618 0.4885341 0.13248986 0.18996549 0.09104673 0.08161571 0.13028304 0.16628316
00000000: 5e5e d83d 7a38 d13d a41c 253e d721 16bc
00000010: 31e5 013e 5f32 023e b01b f23d a09e df3d
00000020: f46b c43d a968 1a3e 2940 b03d 0199 2e3e
00000030: 1f69 123e 415f fa3d 393a 95bd 1eb0 8a3c
00000040: 9be8 5a3c 6c18 9d3c 8e76 1e3e 167b 323d
00000050: fee0 993d e970 a93d 034c bb3d a1c4 953c
00000060: c470 793d f5b5 0f3e be6d 113c 37f9 0d3d
00000070: 721a 9f3d 6af5 b03d 69c3 ed3d 0b4d ee3d
00000080: f3f5 c03d efa7 ef3d 2f9f bd3d 99ae d339
00000090: 5e9e 8a3d c90d a33d 3b86 223d 273b 043e
000000a0: 38c1 cf3d 5ae6 a1bc e9f3 483c a4d0 df3d
000000b0: 4236 94bc 65b3 6a3c e664 fb3d 23a8 2cbd
000000c0: abc1 cb3c cb20 2b3e 847a d93c a4d8 68bd
000000d0: 509b e73c 032d b53c d197 4d3d b187 333e
000000e0: eee5 db3d 6b99 f93d 054c a93d 216a 3d3b
000000f0: 9a9a 813d d3ae 1e3d 0480 0c3e bf05 c1bd
00000100: 6e47 f33d d259 c53c 2009 043e 7ced 883d
00000110: 8fa3 273d dca2 573d f473 4b3e 7875 5e3d
00000120: c00e c13d 507c 4d3e 1660 d13c 98de d23c
00000130: 3f8f 793d e228 003d 6a25 f23c 8c9c 8d3c
00000140: eea2 aa3d efd2 9b3c e5e9 c33c 9070 263d
00000150: 11b0 5abd bc33 a03c 3dcc 24bd 85bd 3d3c
00000160: 7bf0 143d edbc fdbb aaa9 013d 0818 493d
00000170: 60dc c93a 2082 123b 862b 1f3d 5235 2dbd
00000180: 1d26 343d b3e8 a13d 65f6 8ebc 17ec ae3d
00000190: 327f 373d 007d 39bd e49e bf3d 1cf7 a039
000001a0: acaf f83d 90d7 15bb 00c6 b13d 37a6 98bb
000001b0: a82a c03c b40a e33d 6878 06bc c284 a13c
000001c0: de5e e13c f389 7c3d 10dc 2b3d 1384 343d
000001d0: 6346 5a3d 5e53 b93c 75a2 b33d 3dc5 843d
000001e0: 8a75 6c3d c35f 993c 146d 513d 9b48 dc3c
000001f0: 7009 9d3d f2ec 853d 544e 5dbc 1ba3 fb3c
00000200: 8943 953c cf7d e8bd 2c43 0d3e 8bea 6f3d
00000210: 308e f13d 186a 9dbd 649a 823d e3e8 143d
00000220: ae69 d33d 2969 143e f4e5 5abb 7bdd 04be
00000230: 87a7 d6b9 442f 9b3d 99ae 623d bc64 6dbd
00000240: 0049 5c3d 04ce 7b3c 614b 913d 1201 67bc
00000250: 1a13 de3c 056f 1b3c fad4 b13d f4d2 4d3d
00000260: a35e 63bd aa24 0bbd d2de 703d e365 f63c
00000270: 876a d33c 2572 a23c 3856 1239 bf9f f4bb
00000280: b382 803c da4f 9bbd 6c7d 083d 86f9 babc
00000290: 6696 c83c 40d8 acbc 9cef a9bc 0722 84bc
000002a0: 1b62 22bd 5d3c ae3d 59c3 2abd 59ad 413d
000002b0: ed25 a63d 0950 2ebc 409d 5b3d fd0a 483e
000002c0: 7c74 593c 8d26 87bb 06c6 1f3c ccd0 74bc
000002d0: 4a05 bb3d 3e13 183e b5db 853b 7c70 1dbb
000002e0: edf4 acbb edf4 5a3c c6f7 22bc 52e0 9c3c
000002f0: 78bc 7bbc 4633 ba3c 97ac 97bc 93c7 a73c
00000300: 4848 40bc 85e7 31bb 0bf5 4c3c ca0e 413c
00000310: 334a 7d3d e77b 1a3d 526c d93d 56f3 71bd
00000320: e941 0f3d 3322 193d b5d1 173e b193 193b
00000330: 0b7e 1d3e 3943 d13c cea4 373e 34c1 083e
00000340: e9d8 9a3a 25cc 57bd 7f39 9ebc 1432 9e3b
00000350: cc2b bb3d 0dbd fdbc 8f6f a03d 1430 17bc
00000360: 8d89 553d 9dc0 5a3d 3ec3 343d 2650 793c
00000370: 1420 543e 8f3d 043e bd2b 6ebd 0f77 483d
00000380: 4e44 523d a8f8 653d d6c2 2b3e e00a 47bd
00000390: 1350 373e 6402 0e3e 3ef9 033e a658 d23d
000003a0: 1999 643e 0a01 2c3e 9b07 e83d 41ec 2f3e
000003b0: 1fc2 2a3e c606 d03d 36a4 493e c59a 073e
000003c0: 0216 833e 7969 313e bc41 cd3e 2fe2 f63d
000003d0: 7d73 453e d2bc c23e 74fd 2e3e 5cae 403e
000003e0: ccd0 633e 2421 fa3e 6cab 073e 5086 423e
000003f0: b576 ba3d 2326 a73d eb68 053e 2246 2a3e

module.bi_lstm1.weight_hh_l0 f4 [64, 16]
-0.0189865 0.1333019 0.1048131 0.122908376 0.13474733 0.12225419 0.01858117 0.017183984
0.0017484379 -0.005293089 0.0745334 0.041604504 -0.06849099 -0.03403633 -0.01248779 -0.07446426
0.08795647 0.014242429 -0.06965895 0.26113564 -0.07479678 -0.10385867 0.078498535 0.13875139
-0.09883061 -0.0006521828 -0.01625771 -0.08021264 -0.1491385 -0.03750628 0.23540021 0.13551599
-0.05594111 -0.04950461 0.02897194 -0.071520135 0.002872577 -0.026878491 -0.0055570197 0.02240078
-0.0023403342 0.007955862 -0.010975368 0.0054419176 0.013473305 -0.0035583787 0.038429577 -0.02160064
-0.0030218065 -0.011356749 0.057752267 0.014895598 0.042635042 0.02859014 0.023390217 0.053369604
-0.017160455 0.017887982 -0.025379986 0.025694948 -0.040440373 -0.02193558 0.032035433 -0.0010385198
-0.084543 0.040690593 0.07808031 0.07322216 0.0032357045 -0.0069232937 0.026024444 0.023137186
-0.015829597 0.06991322 -0.0793903 -0.027750397 -0.051519223 -0.0041330275 0.09616155 0.05136083
-0.100780964 -0.026700191 0.086750165 -0.15711316 0.045407508 0.012867583 -0.06391893 -0.062214985
0.024930833 0.048185017 -0.017897518 0.02116506 0.107802324 0.042867564 -0.03075057 -0.011693364
-0.012222013 0.08232824 -0.010444343 0.038679827 -0.008505449 0.030159596 0.011841586 0.024070855
-0.0053461166 -0.019010039 0.0029192453 0.026898772 -0.022910679 -0.011670275 0.011692248 -0.01732425
-0.055293486 0.07584832 0.053424653 0.041129243 0.03145479 0.007210601 0.02223896 0.012687574
-0.010152614 0.03510764 -0.006105517 -0.00095575745 -0.010804112 -0.0072990204 0.06537688 0.015959376
-0.013110497 0.14607695 0.047835268 0.08000532 0.050509103 0.07252752 0.027910588 0.012474527
-0.004542477 0.016169108 0.0055062715 0.011797749 -0.037957005 -0.007137226 0.036069643 -0.018712247
-0.14317709 0.20057318 0.017550927 0.13987072 0.031248175 -0.018009754 0.060426157 -0.03474192
0.041043863 0.05746614 -0.015813341 -0.05056813 -0.051252626 -0.023427445 0.1452614 0.104647055
-0.11016509 0.112777054 0.05741331 0.021114698 0.03118449 -0.06400835 0.0070610777 -0.011382495
0.004978165 0.06507903 -0.038571157 -0.010197873 -0.011485029 0.010672388 0.09319691 0.07060399
0.007162326 -0.00542534 0.010493808 0.00023834666 -0.008319934 -0.068089515 0.0032437483 0.0028555251
-0.016923364 0.02065209 -0.018722173 -0.009711281 -0.0033426713 0.0072329934 0.023671404 0.04385168
-0.009976077 0.0108854 0.03865971 0.021985617 0.02931274 0.019600788 0.029824331 0.08839622
-0.01423345 0.012486912 -0.036916118 0.01590735 -0.04142505 -0.016733492 0.057576433 -0.017639507
-0.011884526 0.008309437 0.00059927587 0.016573092 0.0027860873 0.020204782 0.00095204695 -0.0016121336
0.008768481 -0.003257891 0.0047845896 -6.5560664e-05 -0.00894136 -0.0058575342 0.00064369687 -0.019287808
-0.14435822 0.13893442 0.071784906 0.06861898 0.049098708 -0.107252486 0.045443665 -0.08723183
0.06567035 0.11183744 -0.051928747 -0.06741258 -0.03281674 0.01620455 0.1479204 0.10075574
-0.109339215 -0.0915891 0.028064683 -0.06284694 0.019586332 -0.033207152 0.030764012 -0.10612289
0.048176058 0.04531521 0.0108433105 -0.021015655 0.025077643 0.02250897 0.1109935 -0.019682525
00000000: 9489 9bbc 4b80 083e 40a8 d63d 63b7 fb3d
00000010: 34fb 093e 6860 fa3d 8a37 983c 6dc5 8c3c
00000020: d72b e53a a671 adbb f8a4 983d 7c69 2a3d
00000030: 0145 8cbd ae69 0bbd 9699 4cbc b880 98bd
00000040: 8622 b43d 1459 693c 5aa9 8ebd 92b3 853e
00000050: 0e2f 99bd dbb3 d4bd d7c3 a03d d814 0e3e
00000060: b467 cabd 3ff7 2aba e42e 85bc 8646 a4bd
00000070: c3b7 18be 2fa0 19bd c10c 713e b4c4 0a3e
00000080: 8122 65bd 59c5 4abd 9056 ed3c 2679 92bd
00000090: d841 3c3b 4830 dcbc a917 b6bb d781 b73c
000000a0: 4b60 19bb 4e59 023c 08d2 33bc 1d52 b23b
000000b0: 23bf 5c3c b033 69bb 5568 1d3d d3f3 b0bc
000000c0: 8009 46bb a811 3abc a48d 6c3d ab0c 743c
000000d0: 15a2 2e3d df35 ea3c d79c bf3c 169a 5a3d
000000e0: 1594 8cbc d189 923c b0e9 cfbc 367e d23c
000000f0: cea4 25bd 3fb2 b3bc 9637 033d f11e 88ba
00000100: e124 adbd 2eab 263d 92e8 9f3d 80f5 953d
00000110: 1d0e 543b ccdc e2bb 3731 d53c 328a bd3c
00000120: 12ad 81bc aa2e 8f3d 6297 a2bd cd54 e3bc
00000130: d205 53bd 596e 87bb 59f0 c43d bc5f 523d
00000140: 4066 cebd 5cba dabc 12aa b13d 46e2 20be
00000150: 39fd 393d 8ed2 523c eee7 82bd 24d5 7ebd
00000160: bf3b cc3c a75d 453d d19d 92bc 5962 ad3c
00000170: 77c7 dc3d e695 2f3d 9fe8 fbbc 8695 3fbc
00000180: d73e 48bc b59b a83d c01e 2bbc bd6e 1e3d
00000190: 705a 0bbc 4211 f73c 3603 423c 3e30 c53c
000001a0: 7a2e afbb f1ba 9bbc cf50 3f3b d05a dc3c
000001b0: 2daf bbbc ae34 3fbc d890 3f3c 96eb 8dbc
000001c0: 6c7b 62bd 5d56 9b3d cfd3 5a3d 2377 283d
000001d0: bdd6 003d e846 ec3b 7b2e b63c 8bdf 4f3c
000001e0: 2657 26bc 07cd 0f3d ca10 c8bb cc8b 7aba
000001f0: bb03 31bc 9f2c efbb 50e4 853d 3dbd 823c
00000200: 69cd 56bc 3295 153e eaee 433d d4d9 a33d
00000210: a2e2 4e3d 4f89 943d bfa4 e43c f561 4c3c
00000220: 0fd9 94bb 1475 843c f46d b43b 594b 413c
00000230: ce78 1bbd 64df e9bb c3bd 133d 6d4a 99bc
00000240: 049d 12be 0e63 4d3e f6c6 8f3c 453a 0f3e
00000250: 2cfc ff3c 3189 93bc 6b81 773d 8b4d 0ebd
00000260: 9c1d 283d 9d61 6b3d fb8a 81bc 8720 4fbd
00000270: 46ee 51bd eaea bfbc 68bf 143e 3251 d63d
00000280: 3c9e e1bd a8f7 e63d 382a 6b3d bbf8 ac3c
00000290: 9e76 ff3c cf16 83bd 9d60 e73b a57d 3abc
000002a0: e01f a33b 2848 853d cafc 1dbd fb14 27bc
000002b0: b42b 3cbc 3ddb 2e3c 06de be3d d398 903d
000002c0: f2b1 ea3b 0dc7 b1bb 39ee 2b3c b2ec 7939
000002d0: 5550 08bc 8472 8bbd 1195 543b c323 3b3b
000002e0: dea2 8abc 922e a93c 3e5f 99bc 111c 1fbc
000002f0: b810 5bbb bf02 ed3b 88ea c13c d29d 333d
00000300: b372 23bc ad58 323c a559 1e3d 2e1b b43c
00000310: 4521 f03c d591 a03c 2852 f43c 1409 b53d
00000320: 6b33 69bc e895 4c3c 5b35 17bd 2250 823c
00000330: 50ad 29bd ad14 89bc 44d5 6b3d ba80 90bc
00000340: 51b7 42bc 4e24 083c b918 1d3a 4bc4 873c
00000350: ca96 363b 8084 a53c ca92 793a 3a4e d3ba
00000360: ada9 0f3c 5782 55bb 0cc8 9c3b 9d7d 89b8
00000370: c87e 12bc 8ff0 bfbb c4bd 283a 7701 9ebc
00000380: a4d2 13be d344 0e3e f703 933d 1c88 8c3d
00000390: ba1b 493d 31a7 dbbd 2323 3a3d 9aa6 b2bd
000003a0: 2d7e 863d 070b e53d 3db3 54bd 9b0f 8abd
000003b0: d96a 06bd 68bf 843c 7278 173e 0759 ce3d
000003c0: 3ded dfbd 1193 bbbd e8e7 e53c e5b5 80bd
000003d0: 8473 a03c 3904 08bd cf04 fc3c f556 d9bd
000003e0: 4254 453d 719c 393d 24a8 313c 0629 acbc
000003f0: a16f cd3c bb64 b83c 8f50 e33d 3f3d a1bc

module.bi_lstm1.bias_ih_l0 f4 [64]
0.24984479 0.11239312 0.09391782 0.09775364 -0.0064245258 0.1486547 0.018187858 0.075427845
0.13518608 0.009073459 0.05287564 -0.011679884 0.17138352 0.011742463 0.11222385 0.11272493
0.1760252 0.39280322 0.059948713 0.23420876 0.17207587 0.23587795 0.081558935 0.083292134
0.10651852 -0.0006976943 0.0875871 -0.009421006 0.15085405 -0.0021811808 0.18804865 0.2319538
0.04044964 -0.15929358 0.17226659 0.08197525 0.16167982 0.20284298 0.094076134 0.009094518
0.09349715 0.16124737 -0.1632708 0.104948364 -0.055590924 0.074521214 0.06898562 -0.22333851
0.14564651 0.069356315 -0.040342797 0.20075542 0.09645397 0.04718805 0.077787936 0.055782795
0.12579863 0.09661477 0.052315578 0.009742383 0.18187682 0.0101898275 0.026438607 0.06255324
00000000: 50d7 7f3e 5d2e e63d fc57 c03d 0f33 c83d
00000010: d484 d2bb f038 183e b4fe 943c ea79 9a3d
00000020: 386e 0a3e d8a8 143c 2194 583d fc5c 3fbc
00000030: 297f 2f3e 7663 403c 9ed5 e53d 54dc e63d
00000040: f33f 343e 811d c93e c88c 753d 6cd4 6f3e
00000050: a834 303e fd89 713e 5f08 a73d 1195 aa3d
00000060: 6226 da3d 79e5 36ba de60 b33d 905a 1abc
00000070: 7c79 1a3e 24f2 0ebb d38f 403e 4c85 6d3e
00000080: 86ae 253d db1d 23be a766 303e a4e2 a73d
00000090: 658f 253e 12b6 4f3e fdaa c03d 2c01 153c
000000a0: 6f7b bf3d 081e 253e 7630 27be 2bef d63d
000000b0: 4fb3 63bd 949e 983d 5548 8d3d dab2 64be
000000c0: 5c24 153e af0a 8e3d 7d3e 25bd d492 4d3e
000000d0: a989 c53d 4248 413d 484f 9f3d 807c 643d
000000e0: 5bd1 003e f7dd c53d dc48 563d 849e 1f3c
000000f0: eb3d 3a3e 3cf3 263c c795 d83c ea1b 803d

module.bi_lstm1.bias_hh_l0 f4 [64]
0.087265976 0.19739763 0.14903808 0.20028955 -0.023693917 0.11182376 0.06025842 0.028276984
0.1298588 0.063880526 -0.022426998 -0.00043252262 0.17351179 0.011644735 0.10185559 0.11869831
0.024934802 0.25958458 0.008587045 0.14943211 0.056166243 0.13804266 0.05813275 0.09522045
0.108296886 0.020254796 0.059254814 0.032548003 0.14818111 -0.0021727658 0.14073679 0.028087908
-0.15688315 -0.028309796 -0.015723966 0.09677018 0.047277182 -0.017307317 0.15837725 0.16540319
0.064212054 -0.17640755 0.18560854 0.113512404 -0.2229174 -0.020074528 0.03219916 -0.11557043
0.091290265 0.12383179 0.033479124 0.19792478 -0.064695336 0.028339684 0.09850544 0.051706918
0.12063751 -0.022555044 0.11784781 -0.008835403 0.217689 0.010366688 0.07117362 -0.08761116
00000000: 81b8 b23d 9b22 4a3e 709d 183e b418 4d3e
00000010: bf19 c2bc db03 e53d 88d1 763d 22a5 e73c
00000020: b5f9 043e cbd3 823d d3b8 b7bc 34c4 e2b9
00000030: 13ad 313e 8fc9 3e3c aa99 d03d 1918 f33d
00000040: 1244 cc3c 45e8 843e adb0 0c3c bb04 193e
00000050: 930e 663d 0e5b 0d3e 9b1c 6e3d f002 c33d
00000060: c2ca dd3d 63ed a53c 2db5 723d 0e51 053d
00000070: cabc 173e f664 0ebb 4e1d 103e 9d18 e63c
00000080: faa5 20be f2e9 e7bc 8ccf 80bc 722f c63d
00000090: b8a5 413d 13c8 8dbc a52d 223e 745f 293e
000000a0: 9c81 833d 2ea4 34be 2a10 3e3e 3179 e83d
000000b0: 7544 64be 5673 a4bc 44e3 033d 31b0 ecbd
000000c0: 64f6 ba3d 869b fd3d 6821 093d cbac 4a3e
000000d0: fd7e 84bd a028 e83c 38bd c93d a2ca 533d
000000e0: cd10 f73d 5bc5 b8bc 315a f13d 5ec2 10bc
000000f0: dde9 5e3e 0ad9 293c 7ac3 913d 7b6d b3bd

module.bi_lstm1.weight_ih_l0_reverse f4 [64, 14]
0.022213817 -0.1696215 0.14517677 0.04507954 -0.19423227 -0.19099058 -0.20801044 -0.003961704
-0.13788034 -0.061622746 -0.11747376 -0.08105539 -0.047269065 0.001138169 0.16632408 0.1751306
-0.002772397 -0.027144901 0.051971875 0.11127276 -0.05623166 0.2633902 -0.0029984915 0.10922796
0.109556 0.16497509 0.21941425 0.22126888 -0.057304356 -0.15909013 0.030751972 -0.099511944
-0.18074566 -0.13656174 -0.05497224 0.09261268 -0.2031316 -0.017889356 -0.15347283 -0.13731185
0.08065239 0.05629539 -0.03862192 0.11738339 0.05658336 0.3089187 -0.11667095 0.17287834
-0.13138342 0.059109554 -0.020045493 0.20481354 0.021000126 0.011580154 0.05595437 0.14689063
0.02653928 0.013813816 -0.033383913 -0.17191488 -0.12937953 0.06271621 0.090846196 0.07396325
0.0796011 0.024480587 0.104529426 0.075670645 0.08345484 0.15466352 0.1836827 0.11035664
0.18026184 -0.01696414 0.14311625 0.017115146 0.18395539 -0.05363234 0.0464043 -0.09229761
0.1310681 0.1373695 -0.049837902 -0.0818227 -0.15186031 0.123035215 -0.06882069 -0.16066408
0.022312202 0.28692967 0.09365744 -0.030438047 0.11335858 0.2777488 -0.0070399987 0.10419336
-0.13661194 -0.13806015 0.20711754 0.072303444 0.0036222942 -0.08476774 0.059364043 -0.16910638
-0.06722686 0.012849963 0.07857941 -0.19982317 -0.059877563 -0.09210938 0.24683486 -0.2580966
0.23964587 -0.10403607 0.15008514 0.08589532 0.09157479 0.05018746 0.23658061 -0.2648765
0.15892254 0.0024876252 0.13252509 -0.08131315 -0.09088942 0.06431041 0.14946021 0.13743381
0.12307271 0.11480002 0.03319028 0.0021952696 -0.054742172 0.052875277 0.05481196 -0.021283818
0.026599608 0.04688575 -0.0028584653 -0.0727144 0.006608413 0.11479968 0.21876332 0.14949949
0.14027749 -0.05726116 -0.031987056 0.034054596 0.035982903 -0.06476362 0.14168464 -0.018049046
0.15233624 -0.16699542 -0.060212992 -0.03900671 0.09019535 -0.08322308 0.0039838864 0.19089556
0.06538821 0.011657887 0.036732297 0.15447702 0.15570495 0.12055522 0.038756803 -0.011560005
0.06608111 -0.05789832 -0.025908716 0.016777584 -0.0035386595 -0.026971843 -0.14709678 0.07119813
-0.022289224 -0.042772725 0.05120242 0.05963058 -0.021869376 0.02036403 0.07395537 0.15794663
0.14706342 -0.092218846 0.08507161 0.09567029 0.089577235 -0.041386817 0.080259755 0.047663152
-0.0054238737 0.15008076 -0.18420337 -0.2086259 0.017575175 0.07174355 -0.025646852 0.06785784
-0.00998922 0.085787795 -0.026663061 0.10659841 0.016505195 0.11030593 0.0013638638 0.07026819
0.07693892 0.08116486 0.05842465 0.09092678 0.04571383 0.17230907 -0.047776636 0.08835975
0.0321685 0.02882661 0.039383754 0.11205973 -0.10358039 0.045782644 0.010686713 0.2107925
0.012310751 0.09793739 0.12224998 0.15838777 0.031802148 -0.05854696 -0.035165247 0.0059933434
0.0063209487 -0.063065015 0.014462605 0.026656577 -0.07705782 0.018419394 0.14828949 0.04396939
-0.027285663 0.268722 -0.056160398 0.059772182 -0.039234135 0.23358633 -0.019320745 0.18428268
0.1586363 0.0727943 0.13203435 0.1906563 0.08020043 0.076810904 0.07901615 0.07869875
00000000: c0f9 b53c 42b1 2dbe 38a9 143e 53a5 383d
00000010: d3e4 46be 0993 43be b000 55be 2fd1 81bb
00000020: 8130 0dbe 2268 7cbd 1596 f0bd 5e00 a6bd
00000030: 359d 41bd 9d2e 953a dc50 2a3e 7055 333e
00000040: 1ab1 35bb fc5e debc 76e0 543d f9e2 e33d
00000050: 2b53 66bd 15db 863e 5782 44bb e9b2 df3d
00000060: e55e e03d 3bef 283e 21ae 603e 4f94 623e
00000070: f9b7 6abd 86e8 22be 8feb fb3c ebcc cbbd
00000080: 6415 39be d7d6 0bbe 922a 61bd b7ab bd3d
00000090: bb01 50be b38c 92bc fb27 1dbe 7a9b 0cbe
000000a0: 152d a53d ff95 663d 0532 1ebd b466 f03d
000000b0: f4c3 673d 982a 9e3e 2ef1 eebd 0507 313e
000000c0: 6089 06be dc1c 723d 7236 a4bc a4ba 513e
000000d0: 7508 ac3c b0ba 3d3c 6930 653d 7f6a 163e
000000e0: e768 d93c 5853 623c 92bd 08bd 740a 30be
000000f0: 117c 04be 5b71 803d 920d ba3d 0b7a 973d
00000100: e705 a33d 838b c83c 8613 d63d 36f9 9a3d
00000110: 5fea aa3d 1d60 1e3e 5117 3c3e a902 e23d
00000120: 8f96 383e 61f8 8abc 118d 123e 1035 8c3c
00000130: cd5e 3c3e 96ad 5bbd 6f12 3e3d 8806 bdbd
00000140: b736 063e 97aa 0c3e d422 4cbd a992 a7bd
00000150: 4581 1bbe e3f9 fb3d ddf1 8cbd 2085 24be
00000160: 14c8 b63c 72e8 923e 79cf bf3d 3659 f9bc
00000170: 8b28 e83d 1735 8e3e caaf e6bb 5463 d53d
00000180: 00e4 0bbe a45f 0dbe 9f16 543e d413 943d
00000190: 0364 6d3b b59a adbd b627 733d 392a 2dbe
000001a0: 3cae 89bd a788 523c 3eee a03d 729e 4cbe
000001b0: 2d42 75bd d8a3 bcbd 47c2 7c3e 3d25 84be
000001c0: ba65 753e dd10 d5bd ebaf 193e e3e9 af3d
000001d0: 908b bb3d 5e91 4d3d 3042 723e e59d 87be
000001e0: 97bc 223e 6d07 233b a8b4 073e 8287 a6bd
000001f0: 3b24 babd 2db5 833d 190c 193e 73bb 0c3e
00000200: 8c0d fc3d 461c eb3d 88f2 073d 83de 0f3b
00000210: 5439 60bd bf93 583d 8182 603d 675b aebc
00000220: 6ce7 d93c 460b 403d 1755 3bbb 4aeb 94bd
00000230: 638b d83b 181c eb3d 7e03 603e 6516 193e
00000240: e7a4 0f3e ae8a 6abd dc04 03bd d57c 0b3d
00000250: cf62 133d caa2 84bd c715 113e 98db 93bc
00000260: 08fe 1b3e d900 2bbe e6a1 76bd 80c5 1fbd
00000270: 57b8 b83d dd70 aabd 438b 823b 207a 433e
00000280: 41ea 853d b900 3f3c 9b74 163d 392f 1e3e
00000290: 1e71 1f3e a8e5 f63d 74bf 1e3d 2d66 3dbc
000002a0: 8855 873d ca26 6dbd 843e d4bc 2571 893c
000002b0: dbe8 67bb 0ef4 dcbc 8aa0 16be 53d0 913d
000002c0: e497 b6bc 7432 2fbd a1b9 513d 323f 743d
000002d0: 6827 b3bc 77d2 a63c ea75 973d c3bc 213e
000002e0: cb97 163e 3cdd bcbd 063a ae3d c9ee c33d
000002f0: 4574 b73d 3985 29bd 3a5f a43d 703a 433d
00000300: c0ba b1bb c5ae 193e cf9f 3cbe 07a2 55be
00000310: d0f9 8f3c 48ee 923d 5919 d2bc 0df9 8a3d
00000320: d3a9 23bc 83b1 af3d 7e6c dabc 4450 da3d
00000330: e735 873c 13e8 e13d adc3 b23a c5e8 8f3d
00000340: 2792 9d3d c339 a63d b04e 6f3d d237 ba3d
00000350: 6d3e 3b3d ca71 303e 6fb1 43bd f5f5 b43d
00000360: 1ec3 033d c825 ec3c dc50 213d 927f e53d
00000370: f521 d4bd 9586 3b3d 5317 2f3c fdd9 573e
00000380: 08b3 493c 6693 c83d 335e fa3d 6730 223e
00000390: f842 023d f0ce 6fbd 6f09 10bd cf63 c43b
000003a0: f61f cf3b 3b28 81bd 90f4 6c3c e55e da3c
000003b0: 7ed0 9dbd 45e4 963c 33d9 173e 3f19 343d
000003c0: 2f86 dfbc ee95 893e 7208 66bd add3 743d
000003d0: f9b3 20bd 4131 6f3e 8a46 9ebc 99b4 3c3e
000003e0: 8e71 223e 2e15 953d 0334 073e 683b 433e
000003f0: 1f40 a43d 094f 9d3d 38d3 a13d cf2c a13d

module.bi_lstm1.weight_hh_l0_reverse f4 [64, 16]
-0.015210281 -0.106656544 0.004117145 -0.14625365 0.04897983 -0.04548114 0.06630708 0.0019527335
-0.1474022 0.041963696 0.09999193 -0.040236622 0.006745681 0.099410385 -0.01362302 -0.08531192
0.0704233 -0.023724264 -0.14499019 -0.091470875 -0.0935685 -0.053058267 -0.044088516 -0.020851383
0.11973727 -0.16537139 0.1724138 0.086829685 0.115400225 0.054820128 0.0036843605 -0.017309468
0.016357703 -0.079472736 0.012884766 -0.0021560336 -0.090280876 -0.047649726 0.09512705 0.008117854
-0.044075433 -0.07270816 0.08422 0.046151496 0.010794679 0.11950046 -0.050310183 -0.038836975
0.008459459 0.075294495 -0.032620877 0.12365622 0.062350966 0.04425867 -0.109597795 -0.047538728
0.265165 -0.027785547 0.122339875 0.26905313 0.09986122 0.1795457 -0.066100635 0.086242184
-0.09109626 -0.083925694 -0.030606722 -0.05977779 0.13898721 -0.01116015 -0.14237767 0.025658807
0.079209805 0.02007469 0.1501076 0.084097005 0.034159757 0.07968382 0.019414384 0.10646662
-0.105784 0.09139555 0.11748693 0.1127453 0.1252768 0.0054580756 0.07409558 0.05564398
-0.08090731 0.021739975 -0.17555046 -0.039358158 -0.097009785 -0.06319664 0.05729604 0.1355532
-0.27859613 0.24831766 0.23096536 0.33478034 0.36537352 0.35859454 0.15387432 -0.1331553
0.046098962 0.26054093 0.16200423 0.2183578 -0.124487214 -0.017196976 -0.049225133 0.2386621
-0.1451744 0.11060959 0.11523932 -0.027169295 0.26365036 0.18502326 0.23512068 -0.011633106
0.12723546 0.123446584 -0.074308865 -0.010767002 -0.08842694 -0.023459964 0.016237441 0.026859837
0.06219655 0.0668116 -0.039872795 -0.04220689 0.081403345 0.084336296 0.14669073 -0.0435536
-0.013712995 0.18596317 -0.15821004 -0.0067473496 -0.08757135 -0.16953772 0.053664703 -0.0056327567
0.02042089 0.06024478 -0.02269781 -0.0014533369 -0.06474779 -0.06080991 -0.11079345 0.019272028
-0.04481895 0.00259707 0.030600823 -0.00801926 0.015458335 -0.042090554 0.07608592 -0.13499555
-0.028216904 0.0076354533 -0.0071272566 -0.07186961 -0.0005089027 -0.072838046 -0.03628161 -0.023310453
-0.116338834 -0.058779173 0.039259415 -0.08332722 0.056167264 -0.018592596 -0.035417624 -0.06897023
-0.008346612 0.005737372 0.041497074 0.010540922 0.12343694 0.027602995 0.054711737 -0.024614695
-0.010810877 -0.0068176854 0.12526633 -0.092846155 0.064930744 -0.0023380578 -0.0177524 -0.09411745
0.012422064 0.0042654453 -0.020452088 0.017955372 -0.017143568 -0.053580906 -0.1098569 0.025776364
-0.030131863 -0.04044091 0.039966248 0.04860756 0.015051773 0.0030924717 -0.00920112 -0.014864071
0.017538477 -0.047951903 -0.0043506147 -0.13150999 -0.11230214 -0.016980438 0.04577404 -0.099634364
-0.045009892 -0.12541279 0.008525826 -0.032047853 0.023793546 -0.0747765 -0.07910736 -0.09709616
0.047158275 -0.04314485 -0.08571538 -0.112368405 -0.026912423 -0.011737109 -0.034053784 -0.048847694
0.030215584 -0.09593048 0.100099616 -0.031195028 0.07255077 0.023664538 -0.04793953 -0.096256465
0.07745772 0.0044919 -0.028604165 0.024678133 -0.10455825 -0.05677304 -0.14136614 -0.046233397
-0.0377518 -0.10995415 0.005993636 0.04461483 0.11833991 -0.01936691 -0.034881618 -0.020482842
00000000: 8b34 79bc bf6e dabd 1ee9 863b 84c3 15be
00000010: 139f 483d 6f4a 3abd 02cc 873d ddf2 ff3a
00000020: 9af0 16be 20e2 2b3d 92c8 cc3d 28cf 24bd
00000030: e00a dd3b ac97 cb3d 1633 5fbc 04b8 aebd
00000040: 173a 903d 6359 c2bc 4f78 14be 1555 bbbd
00000050: d7a0 bfbd a053 59bd 2996 34bd 85d0 aabc
00000060: d038 f53d 1e57 29be 3e8d 303e c3d3 b13d
00000070: f456 ec3d 128b 603d 5075 713b 96cc 8dbc
00000080: 9700 863c 9ac2 a2bd a01a 533c 3e4c 0dbb
00000090: 2ee5 b8bd 5c2c 43bd f9d1 c23d bf00 053c
000000a0: 7188 34bd 04e8 94bd 897b ac3d 5a09 3d3d
000000b0: 2adc 303c a8bc f43d 0d12 4ebd 8513 1fbd
000000c0: 8b99 0a3c 0034 9a3d 789d 05bd 793f fd3d
000000d0: ba63 7f3d 9448 353d cf74 e0bd f8b7 42bd
000000e0: b5c3 873e 849e e3bc 548d fa3d 55c1 893e
000000f0: 0a84 cc3d d4da 373e c55f 87bd be9f b03d
00000100: ad90 babd 3ce1 abbd f3ba fabc 8ed9 74bd
00000110: aa52 0e3e 10d9 36bc 74cb 11be 6b32 d23c
00000120: c038 a23d ad73 a43c cfb5 193e 0d3b ac3d
00000130: 1aeb 0b3d 4531 a33d ea0a 9f3c 2c0b da3d
00000140: 48a5 d8bd 972d bb3d fd9c f03d 02e7 e63d
00000150: 9048 003e a8d9 b23b 6cbf 973d f1ea 633d
00000160: bbb2 a5bd 0818 b23c 80c3 33be 0536 21bd
00000170: 11ad c6bd 3d6d 81bd 41af 6a3d 75ce 0a3e
00000180: 27a4 8ebe fc46 7e3e 2f82 6c3e 5468 ab3e
00000190: 3d12 bb3e b499 b73e 3b91 1d3e dd59 08be
000001a0: 44d2 3c3d 9f65 853e 70e4 253e 3099 5f3e
000001b0: 27f3 febd ace0 8cbc 4ba0 49bd d663 743e
000001c0: 99a8 14be 4887 e23d 9802 ec3d 2492 debc
000001d0: 2efd 863e bd76 3d3e 7ac3 703e c898 3ebc
000001e0: 034a 023e 90d1 fc3d 3f2f 98bd 1468 30bc
000001f0: 2f19 b5bd 1c2f c0bc 6204 853c 2909 dc3c
00000200: cfc1 7e3d 85d4 883d a851 23bd 22e1 2cbd
00000210: ccb6 a63d 82b8 ac3d 1836 163e 4265 32bd
00000220: 78ac 60bc 216d 3e3e d001 22be df18 ddbb
00000230: 9c58 b3bd 4c9b 2dbe 85cf 5b3d fd92 b8bb
00000240: b649 a73c 3bc3 763d c2f0 b9bc e57d beba
00000250: 7d9a 84bd d013 79bd ade7 e2bd 5fe0 9d3c
00000260: 1394 37bd 9b33 2a3b 94ae fa3c 3763 03bc
00000270: f544 7d3c 2567 2cbd efd2 9b3d 463c 0abe
00000280: 2327 e7bc d332 fa3b c38b e9bb 6030 93bd
00000290: e267 05ba 1d2c 95bd 079c 14bd 90f5 bebc
000002a0: 0e43 eebd 6ec2 70bd 7bce 203d 76a7 aabd
000002b0: a50f 663d 804f 98bc 1212 11bd 4440 8dbd
000002c0: 3ac0 08bc 9100 bc3b d6f8 293d d5b3 2c3c
000002d0: 82cc fc3d ad1f e23c 6a19 603d c2a4 c9bc
000002e0: 1b20 31bc e466 dfbb d145 003e 2026 bebd
000002f0: 69fa 843d 1a3a 19bb 7b6d 91bc a6c0 c0bd
00000300: ea85 4b3c 26c5 8b3b 238b a7bc 2517 933c
00000310: ab70 8cbc a777 5bbd a8fc e0bd f428 d33c
00000320: 19d7 f6bc 5ea5 25bd a6b3 233d b918 473d
00000330: b69b 763c 11ab 4a3b 4bc0 16bc 6f88 73bc
00000340: daac 8f3c 3769 44bd 9a8f 8ebb 8eaa 06be
00000350: aafe e5bd 8f1a 8bbc 8f7d 3b3d 1a0d ccbd
00000360: 4b5c 38bd 366c 00be e8af 0b3c 9c44 03bd
00000370: afea c23c 6c24 99bd 0a03 a2bd 5ada c6bd
00000380: 0929 413d a7b8 30bd 8c8b afbd 6821 e6bd
00000390: 7177 dcbc 014d 40bc fb7b 0bbd 8514 48bd
000003a0: ac86 f73c 3377 c4bd 0701 cd3d b78c ffbc
000003b0: 8095 943d 22dc c13c 3e5c 44bd 1c22 c5bd
000003c0: 27a2 9e3d ca30 933b 4853 eabc cc29 ca3c
000003d0: a322 d6bd d98a 68bd 49c2 10be 3b5f 3dbd
000003e0: a2a1 1abd a42f e1bd 4366 c43b 0abe 363d
000003f0: 325c f23d 5ba7 9ebc 07e0 0ebd a2cb a7bc

module.bi_lstm1.bias_ih_l0_reverse f4 [64]
-0.041997697 0.26842842 0.11637446 0.032904018 -0.084621824 -0.006492946 0.13211274 -0.008113236
0.15184961 0.05296323 0.16843316 0.030688783 0.13836259 0.019131795 0.084819056 -0.07475238
0.103055835 0.076366276 0.09473137 0.1421488 0.25835586 0.067694455 -0.024790965 0.002446344
0.3198995 0.0010856586 0.21324639 0.065064006 0.0575329 -0.010280001 0.18784182 0.14911513
0.094782144 -0.23201495 -0.16972741 -0.08732253 -0.008983727 -0.0820983 0.046614084 0.20346302
-0.06856295 -0.21325688 0.18682888 0.06772856 0.13233998 -0.06771026 -0.073072016 0.15781014
0.07468254 0.17442793 0.18029478 0.13374682 0.28665942 0.07760492 0.10705893 0.08218146
0.112971425 0.09482481 0.18416205 0.12495599 0.10949767 0.025751868 0.15622835 -0.033598803
00000000: c705 2cbd 736f 893e bc55 ee3d 5dc6 063d
00000010: 354e adbd c7c2 d4bb 9048 073e 61ed 04bc
00000020: 777e 1b3e f9ef 583d be79 2c3e 0b67 fb3c
00000030: ecae 0d3e 48ba 9c3c 9db5 ad3d c717 99bd
00000040: f00e d33d ec65 9c3d 8502 c23d 748f 113e
00000050: 3847 843e 64a3 8a3d 6c16 cbbc d752 203b
00000060: dec9 a33e a84c 8e3a 435d 5a3e 4740 853d
00000070: 9ea7 6b3d 736d 28bc 9b59 403e a3b1 183e
00000080: 241d c23d 5495 6dbe 06cd 2dbe 28d6 b2bd
00000090: 7b30 13bc 2723 a8bd 69ee 3e3d 9c58 503e
000000a0: bb6a 8cbd 0360 5abe 1250 3f3e 45b5 8a3d
000000b0: 2284 073e adab 8abd c8a6 95bd fb98 213e
000000c0: 29f3 983d 3c9d 323e 329f 383e edf4 083e
000000d0: 06c5 923e 54ef 9e3d b641 db3d c14e a83d
000000e0: 905d e73d 8333 c23d fa94 3c3e ede8 ff3d
000000f0: 5040 e03d 95f5 d23c 53fa 1f3e e69e 09bd

module.bi_lstm1.bias_hh_l0_reverse f4 [64]
-0.067889735 -0.036823817 0.17873676 0.1079969 0.24332987 -0.041079864 -0.052017562 -0.015517775
0.09979118 0.0042548543 -0.028049167 -0.042679355 -0.078526124 -0.065854065 0.036843 0.051384825
-0.0552559 0.09206069 -0.06741154 0.11825549 0.23884133 0.14732191 0.36978176 0.26903692
0.10147855 -0.044118196 0.224268 0.07898236 0.084431075 0.122961424 0.14029056 -0.071914405
0.052281853 0.056371927 -0.28760573 -0.21640374 -0.06679849 0.044464815 0.24125282 0.027402408
0.0858833 -0.0052653383 0.09756639 -0.033300836 0.043795805 0.32805908 -0.22544551 -0.12390659
-0.09713802 0.0939403 0.238922 0.18518558 0.056849025 0.07960376 0.20080036 -0.12817885
0.19167502 0.19015348 0.1629754 0.14635473 -0.062072087 0.06446801 0.13094202 -0.004075575
00000000: c609 8bbd 92d4 16bd c506 373e 7b2d dd3d
00000010: 772b 793e 5c43 28bd 5e10 55bd 443e 7ebc
00000020: 515f cc3d 4e6c 8b3b 5ec7 e5bc 8cd0 2ebd
00000030: 4ed2 a0bd 7fde 86bd b0e8 163d e578 523d
00000040: 0354 62bd 518a bc3d 100f 8abd ef2f f23d
00000050: d292 743e 8edb 163e 0954 bd3e 35bf 893e
00000060: fcd3 cf3d 48b5 34bd 83a6 653e 81c1 a13d
00000070: 33ea ac3d 33d3 fb3d 54a8 0f3e dc47 93bd
00000080: 7f25 563d 40e6 663d 0f41 93be f198 5dbe
00000090: a6cd 88bd bd20 363d fb0a 773e 047b e03c
000000a0: 95e3 af3d dc88 acbb e3d0 c73d 7566 08bd
000000b0: 3b63 333d 5cf7 a73e 30db 66be bdc2 fdbd
000000c0: 4cf0 c6bd c663 c03d f8a7 743e 4aa1 3d3e
000000d0: 86da 683d 4c07 a33d 9c9e 4d3e 5141 03be
000000e0: 7546 443e 98b7 423e 06e3 263e 04de 153e
000000f0: 4d3f 7ebd ce07 843d aa15 063e 678c 85bb

module.bi_lstm2.weight_ih_l0 f4 [128, 16]
-0.0037282233 0.0044239876 -0.008176884 0.011528393 0.0012735213 -0.0010519527 0.004533382 0.0039869095
-0.0025923017 0.0044957288 0.00047278363 -0.0008540205 -0.0058822064 0.0031235358 0.0012330571 0.008068412
0.001078422 -0.0006048968 0.0009349525 -0.00074384897 -0.0056212423 -0.0056416183 0.0018760654 0.0006265458
-0.0025160643 -0.006084674 0.007831177 -0.0051285285 -0.0018002718 -0.0025091122 0.00078137143 -0.0014475379
0.010322158 -0.025623523 -0.014441988 -0.020792387 -0.022138054 -0.010981009 -0.011536668 -0.0007670056
-0.02262839 -0.02357534 0.020037077 -0.015610331 0.016235938 -0.0024846394 -0.016392155 -0.02144292
0.006481027 -0.0043588886 -0.006934603 0.013435869 -0.007962189 0.008799111 -0.0060870955 0.010445328
0.0038974835 0.0029338899 -0.0046222596 0.005304439 0.00032460847 -0.0049870308 -0.0018372666 0.0050242096
-0.008267587 -0.0059601325 0.008236261 0.011128312 0.007839868 0.010942249 0.0061925137 3.259101e-05
0.015005598 0.014571971 -0.01128897 0.008451635 -0.00023884018 0.002511866 -0.0021436273 0.0062928633
6.156687e-05 0.0008593112 -0.0004451927 0.0032652593 0.002822456 -0.0009910648 0.008400703 0.0011445695
-0.004488887 0.0010266629 -0.004375537 0.00027331038 -0.0037143053 -0.0014052171 0.0033251345 0.0031399664
0.0010438954 0.005136405 -0.0016859279 0.002545266 0.00021862141 -0.0063673262 -0.006536261 0.002507383
-0.0059970333 0.0008010451 -0.00063889544 0.004933085 0.004445168 -0.0024752754 0.009750346 -0.005638004
-0.006058614 0.0005675946 0.0030041672 -0.0029525012 -0.0021050067 -0.007286642 -0.006465903 -0.0017713504
0.0013427151 -0.0035955536 -0.0013549101 -0.0013221641 0.010681875 -0.00058501115 -0.004720856 -0.003135208
0.0021884507 -0.003670117 -0.0047378927 -0.0027108984 -0.0022008177 -0.004608553 -0.0032404019 0.0012344236
-0.009941219 -0.0049668145 -0.003151318 -0.0005716685 -0.0017905631 -0.0040111826 0.0015439979 -0.007028395
-0.0074392254 -0.009424952 0.0032036977 -0.0026325267 0.00061003247 0.0054550394 -0.0058229375 -0.0036391912
0.014906521 0.003980682 0.00086825347 0.004017668 0.0056833145 0.0041070324 -0.0006695926 0.0043539484
-0.0050463118 -0.0084299715 0.0048922356 -0.00054954336 -0.0037436052 -0.015613956 -0.0066597364 -0.016550863
-0.0043402733 -0.009190477 0.010088157 0.0012299237 0.011683225 -0.0005243774 -0.006722221 -0.005995659
0.0010937687 -0.0007871139 -0.0013977654 -0.0044626324 0.0034542738 0.00036626175 -0.00012774154 -0.0042721294
-0.0021892262 -0.0012025707 -0.001852474 -0.0016644066 -0.00749963 0.001737409 0.0034188156 -0.0024037291
0.009822517 -0.019827051 -0.0006057787 -0.013619587 0.002207408 -0.010733415 0.01701565 -0.0009152459
-0.020640878 -0.00284744 -0.010636896 -0.014460836 -0.009937655 -0.0044219713 -0.0013844521 -0.0057377317
-0.0037604957 -0.0036857794 -0.0022355197 0.0020351713 -0.0028711057 0.0045107 0.0021368647 -0.0018656482
-0.005667199 -0.0022528523 0.0025402599 -0.0045225215 0.006008413 -0.0029435747 -0.0032954658 -0.0032355334
-0.0015701383 -0.00045793477 0.0005122845 -0.005302575 -0.00091959356 -0.00011462296 -0.0028628833 -0.0021672419
-0.002837291 -0.0019114118 -4.9968963e-05 -0.0038913998 0.0018758381 -0.00036819436 0.0018679192 -0.0031621568
-0.0049303835 0.0012676243 0.005697225 0.002289627 0.008285901 0.0053401818 0.0048515373 -0.0010747627
0.005525719 0.0066037285 -0.008339359 0.0057932013 -0.0045942497 0.0010313012 0.0019902082 0.0051637874
00000000: 3555 74bb 19f7 903b 56f8 05bc 96e1 3c3c
00000010: 49ec a63a ade1 89ba c48c 943b 9fa4 823b
00000020: 9be3 29bb e850 933b f2df f739 58e0 5fba
00000030: 86bf c0bb 3cb4 4c3b 889e a13a 5f31 043c
00000040: d659 8d3a f091 1eba 9a17 753a dcfe 42ba
00000050: 6632 b8bb 53dd b8bb 4fe6 f53a c73e 243a
00000060: 8ee4 24bb f261 c7bb 564e 003c 370d a8bb
00000070: 19f7 ebba eb6f 24bb f3d4 4c3a 50bb bdba
00000080: 451e 293c 6ce8 d1bc 179e 6cbc cc54 aabc
00000090: dd5a b5bc b1e9 33bc 4b04 3dbc e010 49ba
000000a0: 2c5f b9bc 1221 c1bc cc24 a43c 79c2 7fbc
000000b0: 3b01 853c 55d5 22bb d748 86bc 10a9 afbc
000000c0: cc5e d43b 02d5 8ebb ab3b e3bb 1e22 5c3c
000000d0: d773 02bc 252a 103c 4276 c7bb e222 2b3c
000000e0: ec6c 7f3b 8146 403b 5376 97bb dcd0 ad3b
000000f0: 3630 aa39 3f6a a3bb 70d0 f0ba 20a2 a43b
00000100: c674 07bc 374d c3bb 62f1 063c 8653 363c
00000110: ca72 003c 1e47 333c 92ea ca3b 55b2 0838
00000120: 0ada 753c 47bf 6e3c 5ff5 38bc ba78 0a3c
00000130: 2c71 7ab9 1e9e 243b 197c 0cbb 5d34 ce3b
00000140: 761d 8138 6643 613a c168 e9b9 f6fd 553b
00000150: f4f8 383b 9ee6 81ba 1aa3 093c 6105 963a
00000160: 8317 93bb 1791 863a aa60 8fbb 194b 8f39
00000170: b46b 73bb 432f b8ba 80ea 593b e5c7 4d3b
00000180: 51d3 883a 4a4f a83b 5afa dcba 7ace 263b
00000190: bd3d 6539 01a5 d0bb 222e d6bb e852 243b
000001a0: c382 c4bb 3afd 513a 8c7b 27ba b7a5 a13b
000001b0: c6a8 913b 3b38 22bb eabf 1f3c 01bf b8bb
000001c0: 5687 c6bb a1ca 143a 90e1 443b c07e 41bb
000001d0: 27f4 09bb c9c4 eebb eddf d3bb a82c e8ba
000001e0: 0bfe af3a 61a3 6bbb 3d97 b1ba 774c adba
000001f0: 0803 2f3c 6f5b 19ba 69b1 9abb 1078 4dbb
00000200: 1c6c 0f3b 5886 70bb 5340 9bbb 54a9 31bb
00000210: 983b 10bb 5803 97bb ec5c 54bb 62cc a13a
00000220: 7fe0 22bc a9c0 a2bb 5886 4ebb 06dc 15ba
00000230: 54b1 eaba 3d70 83bb f95f ca3a 734e e6bb
00000240: bfc4 f3bb 1d6b 1abc 21f5 513b 7886 2cbb
00000250: 96ea 1f3a 30c0 b23b 57ce bebb 7f7f 6ebb
00000260: 7b3a 743c 6270 823b 819b 633a a4a6 833b
00000270: 193b ba3b 4994 863b 9987 2fba 91ab 8e3b
00000280: 885b a5bb dd1d 0abc 0c4f a03b 3b0f 10ba
00000290: 4657 75bb aed1 7fbc eb39 dabb ad95 87bc
000002a0: da38 8ebb a893 16bc cc48 253c 6435 a13a
000002b0: ff6a 3f3c 5f76 09ba 1446 dcbb 3c77 c4bb
000002c0: ca5c 8f3a 5256 4eba 3935 b7ba 463b 92bb
000002d0: 1961 623b d206 c039 5cf2 05b9 38fd 8bbb
000002e0: 1f79 0fbb 949f 9dba b6ce f2ba 3828 daba
000002f0: 75bf f5bb c6b9 e33a 350e 603b e287 1dbb
00000300: 9fee 203c 576c a2bc 1fcd 1eba b024 5fbc
00000310: 29aa 103b 35db 2fbc 6864 8b3c 1ded 6fba
00000320: 0f17 a9bc 1e9c 3abb 6046 2ebc 24ed 6cbc
00000330: 8cd1 22bc 2fe6 90bb 8176 b5ba 9503 bcbb
00000340: a672 76bb 1e8d 71bb cc81 12bb 8260 053b
00000350: 2929 3cbb 7ece 933b a40a 0c3b c488 f4ba
00000360: e9b3 b9bb 97a4 13bb 7d7a 263b a931 94bb
00000370: 39e2 c43b fde8 40bb bef8 57bb 3e0b 54bb
00000380: 19cd cdba f716 f0b9 d54a 063a 39c1 adbb
00000390: e110 71ba bc61 f0b8 369f 3bbb 4908 0ebb
000003a0: d8f1 39bb 5688 faba c495 51b8 db06 7fbb
000003b0: afde f53a 360a c1b9 f8d4 f43a 303c 4fbb
000003c0: 0e8f a1bb 6a26 a63a caaf ba3b 910d 163b
000003d0: 96c1 073c b1fc ae3b a5f9 9e3b 0ddf 8cba
000003e0: 1711 b53b 1764 d83b cfa1 08bc e5d4 bd3b
000003f0: 5c8b 96bb ba2c 873a 276e 023b fd34 a93b

module.bi_lstm2.weight_hh_l0 f4 [128, 32]
-4.9286e-41 -5.0825e-41 -5.5706e-41 5.0001e-41 5.2637e-41 4.9179e-41 -5.0859e-41 -5.005e-41
5.5762e-41 -4.9972e-41 4.998e-41 4.953e-41 -4.9075e-41 5.0332e-41 -5.0136e-41 5.4295e-41
4.935e-41 4.917e-41 -4.9641e-41 -4.926e-41 -4.9214e-41 -5.1998e-41 5.0018e-41 -5.8388e-41
-4.9875e-41 -5.707e-41 -4.983e-41 5.3384e-41 4.9991e-41 -4.9564e-41 -5.0534e-41 4.9097e-41
-5.0595e-41 4.9392e-41 4.9118e-41 5.2263e-41 5.5503e-41 -4.9704e-41 -5.5199e-41 -5.3374e-41
5.024e-41 -4.9352e-41 5.0095e-41 4.986e-41 -5.2507e-41 4.9223e-41 4.983e-41 5.757e-41
-5.2041e-41 4.9812e-41 4.9882e-41 4.9787e-41 -4.92e-41 -5.0223e-41 -4.9075e-41 5.0393e-41
-5.327e-41 -5.624e-41 -4.9302e-41 -5.1047e-41 -4.9312e-41 6.1136e-41 4.933e-41 -4.9455e-41
-4.9076e-41 4.9826e-41 -4.9167e-41 4.9619e-41 -5.0409e-41 -4.9103e-41 -4.9314e-41 5.1666e-41
-4.918e-41 1.6496e-40 4.9783e-41 6.0252e-41 4.9578e-41 -4.9666e-41 -5.189e-41 -5.8427e-41
-5.0064e-41 -4.9633e-41 5.7666e-41 -4.9892e-41 5.0199e-41 4.926e-41 4.9769e-41 4.9575e-41
4.9054e-41 5.0405e-41 4.9694e-41 -5.1044e-41 5.0102e-41 5.0538e-41 4.9946e-41 -4.9432e-41
-5.3769e-41 -5.8832e-41 5.8344e-41 -4.9969e-41 -5.646e-41 -4.9247e-41 5.0703e-41 4.963e-41
5.0206e-41 -5.8615e-41 4.9061e-41 -5.149e-41 4.995e-41 5.4886e-41 4.9955e-41 -4.9718e-41
4.9397e-41 -5.2099e-41 6.027e-41 -5.4013e-41 4.9428e-41 4.9153e-41 -4.9934e-41 -4.9825e-41
5.0127e-41 -5.0052e-41 -4.9386e-41 4.9603e-41 -5.0242e-41 -5.0269e-41 5.0231e-41 -4.9117e-41
4.9659e-41 5.2123e-41 4.9534e-41 4.909e-41 -4.9488e-41 4.933e-41 -4.9092e-41 4.9641e-41
-4.9756e-41 4.9512e-41 4.9815e-41 6.0034e-41 -5.0314e-41 -5.0094e-41 -5.3018e-41 5.9913e-41
-4.9055e-41 -5.3608e-41 -5.003e-41 4.963e-41 -4.9344e-41 5.7282e-41 4.951e-41 5.0274e-41
-4.9742e-41 -5.0035e-41 4.9822e-41 4.9708e-41 4.9815e-41 4.9432e-41 -4.9724e-41 5.015e-41
-4.9272e-41 5.0497e-41 -5.0001e-41 -4.9057e-41 4.9949e-41 4.9557e-41 4.9274e-41 -6.1457e-41
-4.9781e-41 -4.9534e-41 -4.9895e-41 -4.9124e-41 4.9916e-41 -6.0462e-41 4.9214e-41 -4.998e-41
5.7172e-41 -4.9847e-41 5.0312e-41 -4.9672e-41 -5.0105e-41 4.9729e-41 -4.9791e-41 -4.9305e-41
-5.078e-41 5.2243e-41 -4.9672e-41 -6.0008e-41 5.125e-41 -4.9806e-41 4.9058e-41 4.9442e-41
4.9051e-41 -4.9946e-41 5.0856e-41 4.9142e-41 -4.951e-41 -4.9959e-41 -5.607e-41 5.0452e-41
5.4799e-41 4.9145e-41 -4.992e-41 -5.05e-41 5.1882e-41 -5.3347e-41 5.0096e-41 -6.074e-41
-4.9949e-41 5.0273e-41 5.6926e-41 5.1091e-41 5.1558e-41 5.7003e-41 4.958e-41 -5.0038e-41
5.027e-41 -4.9202e-41 6.3043e-41 4.9508e-41 5.0154e-41 -4.9442e-41 5.0489e-41 5.746e-41
4.9802e-41 -5.1114e-41 5.8216e-41 5.0134e-41 4.9348e-41 4.9729e-41 -4.9167e-41 4.9812e-41
4.9655e-41 -5.6304e-41 4.9893e-41 -5.4398e-41 5.4778e-41 4.9215e-41 -4.9691e-41 -4.9787e-41
-4.9099e-41 4.9832e-41 -5.0196e-41 -4.9163e-41 5.4889e-41 -4.9466e-41 5.1016e-41 -1.32777e-40
5.2232e-41 4.9959e-41 5.124e-41 -5.0138e-41 5.0776e-41 -5.6371e-41 -5.007e-41 -4.9542e-41
00000000: 6489 0080 ae8d 0080 499b 0080 628b 0000
00000010: bb92 0000 1789 0000 c68d 0080 858b 0080
00000020: 719b 0000 4d8b 0080 538b 0000 128a 0000
00000030: cd88 0080 4e8c 0000 c28b 0080 5a97 0000
00000040: 9189 0000 1189 0000 618a 0080 5189 0080
00000050: 3089 0080 f390 0080 6e8b 0000 c3a2 0080
00000060: 088b 0080 179f 0080 e88a 0080 d094 0000
00000070: 5b8b 0000 2a8a 0080 de8c 0080 dd88 0000
00000080: 0a8d 0080 af89 0000 ec88 0000 b091 0000
00000090: b89a 0000 8e8a 0080 df99 0080 c994 0080
000000a0: 0c8c 0000 9389 0080 a58b 0000 fd8a 0000
000000b0: 5e92 0080 3789 0000 e88a 0000 7ba0 0000
000000c0: 1291 0080 db8a 0000 0d8b 0000 c98a 0000
000000d0: 2689 0080 008c 0080 cd88 0080 7a8c 0000
000000e0: 7f94 0080 c69c 0080 6f89 0080 4c8e 0080
000000f0: 7689 0080 6caa 0000 8389 0000 dc89 0080
00000100: ce88 0080 e58a 0000 0f89 0080 518a 0000
00000110: 858c 0080 e188 0080 7889 0080 0690 0000
00000120: 1889 0080 d7cb 0100 c68a 0000 f5a7 0000
00000130: 348a 0000 738a 0080 a690 0080 dfa2 0080
00000140: 8f8b 0080 5b8a 0080 c0a0 0000 148b 0080
00000150: ef8b 0000 5189 0000 bc8a 0000 328a 0000
00000160: be88 0000 828c 0000 878a 0000 4a8e 0080
00000170: aa8b 0000 e18c 0000 3b8b 0000 cc89 0080
00000180: e395 0080 00a4 0080 a4a2 0000 4b8b 0080
00000190: 639d 0080 4889 0080 578d 0000 598a 0000
000001a0: f48b 0000 65a3 0080 c388 0000 888f 0080
000001b0: 3e8b 0000 0099 0000 418b 0000 988a 0080
000001c0: b389 0000 3b91 0080 02a8 0000 9196 0080
000001d0: c989 0000 0589 0000 328b 0080 e48a 0080
000001e0: bc8b 0000 868b 0080 ab89 0080 468a 0000
000001f0: 0e8c 0080 218c 0080 068c 0000 eb88 0080
00000200: 6e8a 0000 4c91 0000 158a 0000 d888 0000
00000210: f489 0080 8389 0000 d988 0080 618a 0000
00000220: b38a 0080 058a 0000 dd8a 0000 5aa7 0000
00000230: 418c 0080 a48b 0080 cb93 0080 03a7 0000
00000240: bf88 0080 7095 0080 778b 0080 598a 0000
00000250: 8d89 0080 ae9f 0000 048a 0000 258c 0000
00000260: a98a 0080 7a8b 0080 e28a 0000 918a 0000
00000270: dd8a 0000 cc89 0000 9c8a 0080 cc8b 0000
00000280: 5a89 0080 c48c 0000 628b 0080 c088 0080
00000290: 3d8b 0000 258a 0000 5b89 0000 51ab 0080
000002a0: c58a 0080 158a 0080 168b 0080 f088 0080
000002b0: 258b 0000 8ba8 0080 3089 0000 538b 0080
000002c0: 5f9f 0000 f48a 0080 408c 0000 778a 0080
000002d0: ac8b 0080 a08a 0000 cc8a 0080 7189 0080
000002e0: 8e8d 0080 a291 0000 778a 0080 47a7 0080
000002f0: dd8e 0000 d78a 0080 c188 0000 d389 0000
00000300: bc88 0000 3b8b 0080 c48d 0000 fd88 0000
00000310: 048a 0080 448b 0080 4d9c 0080 a48c 0000
00000320: c298 0000 ff88 0000 288b 0080 c68c 0080
00000330: a090 0000 b694 0080 a68b 0000 52a9 0080
00000340: 3d8b 0080 248c 0000 b09e 0000 6c8e 0000
00000350: b98f 0000 e79e 0000 358a 0000 7c8b 0080
00000360: 228c 0000 2889 0080 bdaf 0000 028a 0000
00000370: cf8b 0000 d389 0080 be8c 0000 2da0 0000
00000380: d48a 0000 7c8e 0080 48a2 0000 c18b 0000
00000390: 9089 0000 a08a 0000 0f89 0080 db8a 0000
000003a0: 6b8a 0000 f49c 0080 158b 0000 a497 0080
000003b0: b398 0000 3189 0000 858a 0080 c98a 0080
000003c0: de88 0080 e98a 0000 ed8b 0080 0c89 0080
000003d0: 0299 0000 e489 0080 368e 0000 2172 0180
000003e0: 9a91 0000 448b 0000 d68e 0000 c48b 0080
000003f0: 8b8d 0000 249d 0080 938b 0080 1a8a 0080

module.bi_lstm2.bias_ih_l0 f4 [128]
0.005414177 -0.007392925 0.012238368 0.014481208 -0.00223616 -0.0060339645 0.0016391972 -0.0066710706
-0.0038643712 -0.009279363 -0.010449996 0.005926791 0.0126592 0.003914642 -0.012115705 -0.011009445
0.0039214347 -0.0034708963 0.004650484 -0.010051371 -0.0017039485 -0.011099408 -0.0063329968 -0.0069436342
0.021975687 0.005146614 -0.0027301058 -0.0062352456 0.0022856286 -0.00850933 -0.008253529 0.010956448
-4.9497e-41 4.9963e-41 -5.3998e-41 -4.9558e-41 6.2135e-41 -5.3158e-41 5.159e-41 -5.4166e-41
-5.0131e-41 -4.984e-41 -5.0077e-41 -4.934e-41 -4.9923e-41 -5.0358e-41 -4.9463e-41 -6.1584e-41
5.1006e-41 -4.9802e-41 -4.929e-41 -4.9104e-41 -5.031e-41 5.7941e-41 5.1292e-41 -4.9554e-41
-4.9941e-41 4.9163e-41 5.0639e-41 -4.9527e-41 5.1576e-41 -5.4366e-41 4.9631e-41 -5.2097e-41
0.034350988 0.010334302 0.036229488 -0.056615375 0.052294865 -0.04169569 0.015737945 -0.021872973
0.06510006 0.06976139 -0.017070064 -0.027505845 0.061708897 0.09262302 0.024682919 0.0019339202
0.075353295 -0.073502205 0.060612667 -0.00811972 0.001457006 0.009406678 0.021285977 -0.010995051
-0.053281747 -0.03648697 0.030752873 -0.0016141296 -0.07514104 -0.0033415435 -0.0622973 0.01568766
0.0054088137 -0.0074001933 0.012795722 0.014542069 -0.002224754 -0.006041479 0.0016791947 -0.0067149596
-0.003920202 -0.009374128 -0.010449598 0.0059032426 0.012707323 0.003909773 -0.012121942 -0.011016658
0.0038786822 -0.0034759778 0.004640448 -0.010089675 -0.0018142094 -0.011119299 -0.006331475 -0.0069448515
0.022828177 0.0051312516 -0.0026910815 -0.0061453828 0.0022957763 -0.008526943 -0.008287309 0.011090464
00000000: 6969 b13b 5a40 f2bb 7083 483c 9742 6d3c
00000010: 8a8c 12bb 90b8 c5bb 55da d63a ff98 dabb
00000020: 6441 7dbb 7808 18bc 7636 2bbc 8735 c23b
00000030: 8868 4f3c 6646 803b f380 46bc f660 34bc
00000040: 617f 803b fa77 63bb 1663 983b 81ae 24bc
00000050: 0657 dfba 4bda 35bc 0785 cfbb 6d87 e3bb
00000060: 5b06 b43c eda4 a83b 93eb 32bb 0851 ccbb
00000070: 7cca 153b b86a 0bbc cf39 07bc ac82 333c
00000080: fa89 0080 478b 0000 8696 0080 268a 0080
00000090: 35ad 0000 2f94 0080 d08f 0000 fe96 0080
000000a0: bf8b 0080 ef8a 0080 988b 0080 8a89 0080
000000b0: 2a8b 0080 618c 0080 e289 0080 acab 0080
000000c0: 2f8e 0000 d48a 0080 6789 0080 e288 0080
000000d0: 3e8c 0080 84a1 0000 fb8e 0000 238a 0080
000000e0: 378b 0080 0c89 0000 298d 0000 108a 0080
000000f0: c68f 0000 8d97 0080 5a8a 0000 3a91 0080
00000100: 9fb3 0c3d 3451 293c 5f65 143d 86e5 67bd
00000110: 2433 563d 1ac9 2abd ddec 803c f32e b3bc
00000120: 2e53 853d 0fdf 8e3d 85d6 8bbc f053 e1bc
00000130: 78c2 7c3d 23b1 bd3d d533 ca3c 987b fd3a
00000140: d452 9a3d 5388 96bd fd44 783d 9308 05bc
00000150: 02f9 be3a 781e 1a3c ee5f ae3c 9624 34bc
00000160: f63d 5abd 5c73 15bd 73ed fb3c 3491 d3ba
00000170: 8ce3 99bd ccfd 5abb 742b 7fbd 6883 803c
00000180: 6b3c b13b 527d f2bb 26a5 513c dc41 6e3c
00000190: 2ecd 11bb 99f7 c5bb 6d18 dc3a 2a09 dcbb
000001a0: 0a75 80bb f195 19bc ca34 2bbc fd6f c13b
000001b0: 6032 503c 8e1d 803b 1c9b 46bc 367f 34bc
000001c0: 7d31 7e3b 3bcd 63bb e60e 983b 2a4f 25bc
000001d0: c4ca edba b82d 36bc 4378 cfbb a391 e3bb
000001e0: 2802 bb3c 0f24 a83b db5c 30bb 355f c9bb
000001f0: bc74 163b 97b4 0bbc 7ec7 07bc c7b4 353c
