output/clip/FD001/exp_202411012108_bilstm_clip_ep-0002.pth (torch, 289762 bytes, 66 tensors)

module.bi_lstm1.weight_ih_l0 f4 [64, 14]
000000 3c 76 13 3e 54 df 06 3e 6a 0a 4f 3e dd 03 2c be
       0.14400572 0.1317113 0.20218816 -0.16798349
000010 eb 22 11 be 86 f8 4a bd 27 a1 dd bc 6b 90 31 bd
       -0.14173476 -0.049553417 -0.027054382 -0.04335062
000020 4e 6b bf bd 46 1d e6 3b 9f ab 24 bd 83 e5 31 bd
       -0.093466386 0.0070225326 -0.040202733 -0.04343177
000030 c1 be 23 3d d3 af 8b 3d cf 31 3c be 6a e2 a6 bd
       0.03997684 0.06820645 -0.18378375 -0.08148654
000040 bf 83 ab bd a5 b4 23 3e 9c 7f ba bd d3 00 b3 bd
       -0.08374738 0.15986879 -0.09106371 -0.087403916
000050 e9 7e ea bd 0e 60 b7 bd 25 7f 36 3c d1 25 b3 3d
       -0.114499874 -0.08953868 0.011138712 0.08747447
000060 73 e6 03 bd b0 4b 39 be 1e ec ba bd d0 9c 2a 3e
       -0.032202195 -0.18095279 -0.09127067 0.16661382
000070 d2 09 8a 3c e4 3e 69 bd 40 c3 83 3d 96 95 3d 3e
       0.016850386 -0.056944743 0.06433725 0.18514094
000080 54 c5 14 3d 9d 70 01 3e 4a 22 80 bd 32 e6 c7 3d
       0.036321 0.12640615 -0.0625654 0.09760703
000090 ce a4 87 bd f5 72 b2 bd f0 29 1b be cc 4a 45 3e
       -0.06623231 -0.087133326 -0.15152717 0.19266814
0000a0 8d 3d 12 3e a1 fa 7b bd 49 8a cf bd bb 0b d0 bb
       0.14281292 -0.061518315 -0.10133798 -0.0063490546
0000b0 69 98 4d bd 52 ed e4 bd 73 9c 00 bc ad 46 36 3c
       -0.050194178 -0.11178078 -0.0078498 0.011125249
0000c0 c0 17 10 3d c3 c3 57 bd cc fa 34 bd 70 7e 4e bc
       0.0351789 -0.052676927 -0.04418449 -0.012603387
0000d0 34 ac a2 bd 15 20 9f 3d c2 d4 04 3e 41 e9 2c 3d
       -0.079430014 0.07769791 0.12971786 0.042214636
0000e0 7b f8 17 3e 01 b8 44 3e 11 2b 89 3d 77 50 ea bd
       0.14840882 0.19210817 0.066976674 -0.11441129
0000f0 81 79 33 3d 35 77 f8 bd 96 2a 2c 3e ab bd ab bd
       0.043817047 -0.12132112 0.1681312 -0.08385786
000100 21 2f 44 3e 8f 3c 5e bd 9a 50 48 3e 18 2b eb 3d
       0.19158603 -0.054256972 0.19561997 0.11482829
000110 10 7c 17 bd 41 6d 0a 3e 40 24 29 3d 33 ac 3d bd
       -0.03698355 0.1351824 0.041294336 -0.0463068
000120 66 7c c0 3d 8c 68 20 3e f6 8e d3 bd 11 13 ed 3d
       0.09398727 0.15664881 -0.10330002 0.11575902
000130 cc 80 fe 3d 66 a0 35 3e 12 3a 83 bd fa 99 f8 3c
       0.1242691 0.17736968 -0.064075604 0.03034686
000140 be fc f7 bc 9d 51 82 3c ab 4e c2 3d fc 60 e1 ba
       -0.030271884 0.015908057 0.09487661 -0.0017195041
000150 37 ec 5b be 5f 98 13 be 62 6f 45 be 25 53 bc 3d
       -0.21476828 -0.14413594 -0.1928077 0.09195546
000160 44 f0 4c be 54 18 2d be 84 4f 01 bb b4 89 ad 3c
       -0.20013529 -0.16903812 -0.0019731233 0.021183826
000170 4f 80 be 3d a5 5a 56 bd 91 88 35 3e 86 5c 26 be
       0.09301817 -0.05233254 0.17727877 -0.16246232
000180 8f e3 ce 3d 7d 82 1d 3e 92 ed 55 bd cf 3b 01 3d
       0.10101997 0.15381809 -0.052228518 0.03155118
000190 a6 85 f0 bd ad 3f 5f be 0c 0a 9e bb 86 34 53 be
       -0.117442414 -0.21801634 -0.004822975 -0.20625505
0001a0 c9 f9 50 be fd 6c 1e 3e 27 5e 71 be b5 96 9f bd
       -0.20407785 0.15471263 -0.23571073 -0.07792417
0001b0 51 83 7a be 44 6e 48 3e a9 5d 41 be da 98 21 be
       -0.24464156 0.19573313 -0.18883385 -0.15780964
0001c0 5d 89 ab bd 41 f8 c4 3d 89 81 cf 3d 33 76 bf 3d
       -0.08375809 0.09617663 0.10132129 0.093487166
0001d0 dc 3f d8 bc c8 5b 70 bc 4e 9a 98 bc 46 f3 9b bc
       -0.026397638 -0.01467032 -0.018628266 -0.0190369
0001e0 93 d3 a3 3c 15 7a 88 bc c8 2f 99 3d e4 46 a9 bd
       0.019998347 -0.016659776 0.07479817 -0.082654744
0001f0 e7 dc 4f bd b4 a4 77 3b 5d 33 cb 3c 7f e7 f7 3d
       -0.05074778 0.003778738 0.024804765 0.12104701
000200 36 23 f8 bd 59 7f cb 3d f0 55 ee 3c f5 60 13 3c
       -0.12116091 0.09936399 0.029093713 0.008995284
000210 4e f3 a5 3d 81 ca ec 3c fe 1e f4 bd 68 b0 04 be
       0.08103047 0.028905155 -0.11919974 -0.12957919
000220 53 c0 31 3d c1 2e ad 3c 22 1b 4f 3e 89 84 9e bd
       0.043396305 0.021140458 0.20225194 -0.07740123
000230 1f d8 1d be 79 2f 61 3d 46 51 6b 3c 40 92 99 bd
       -0.15414475 0.054976914 0.014362639 -0.07498598
000240 0a 1c 14 bc 36 43 de 3b e7 d4 95 3c 29 7b 22 bd
       -0.009039888 0.0067829145 0.018289996 -0.039668236
000250 ed 80 be bd 43 6f 2c bd 2a ef b7 3a 9e 5e 9d 3d
       -0.093019344 -0.042098295 0.0014033068 0.076840624
000260 94 af 16 be e5 7e 2c be ea aa 13 bb f2 4e 50 3e
       -0.14715415 -0.16845281 -0.0022532293 0.20342615
000270 a2 41 b2 bd ed ff d1 3d 42 88 39 3e 63 be 59 bc
       -0.08703925 0.10253892 0.18118384 -0.013290021
000280 27 02 11 be 25 23 11 be 82 f1 60 bd 0b d7 1c 3e
       -0.14160977 -0.14173563 -0.05491782 0.15316407
000290 98 0d f0 3c 8b 9a fa 3d dc 52 9f bd 61 6a 36 3d
       0.029303357 0.12236508 -0.07779476 0.044535045
0002a0 0b d7 05 be 41 f5 d1 3d f4 bb f2 3d f5 11 2f 3e
       -0.13070314 0.102518566 0.118522555 0.17096694
0002b0 68 25 f8 bd d3 15 c6 3d c6 cf 8c 3d 65 a5 0c bc
       -0.1211651 0.096721314 0.06875567 -0.008584355
0002c0 57 d3 dd 3d d4 81 b7 3d 84 b3 9c 3d 46 9b 3d 3e
       0.108313255 0.089603096 0.076514274 0.18516263
0002d0 32 70 9c 3d 0b d0 a2 bc b3 6f 19 be 5e 2b 20 3e
       0.07638587 -0.019874593 -0.14984016 0.15641543
0002e0 67 5a c7 3d f3 62 15 3e 69 a2 28 3e 70 2a b4 bd
       0.0973404 0.14588527 0.16468205 -0.08797157
0002f0 89 c8 18 bc a0 04 e3 3c 95 21 94 3d c7 f0 9e 3d
       -0.009325155 0.027712166 0.07232968 0.077607684
000300 29 8a ee 3d 2c 26 26 be 40 84 de 3c a6 28 1d 3e
       0.11647446 -0.16225499 0.027162671 0.15347537
000310 64 e3 4e 3d a0 06 d3 bc 00 61 b5 3c 04 2f 60 3d
       0.050509825 -0.025759995 0.02214098 0.054732338
000320 b5 c7 ac bd b4 6e da 3d 1f 1a a7 3d 11 d1 75 bd
       -0.084365286 0.10665646 0.08159279 -0.060013834
000330 48 97 5d 3c 43 a0 94 3d 5e e7 a9 bd 21 a7 ef 3c
       0.013524838 0.0725713 -0.08296083 0.029254498
000340 f2 1e a5 3d f3 3a 56 3d 13 6a 25 bd 71 46 5c bd
       0.08062543 0.052302312 -0.040384363 -0.053778116
000350 50 5f 83 3d 92 fe 4b 3d 70 60 9b bd 0d 91 24 3d
       0.06414664 0.049803324 -0.07586753 0.040177394
000360 b5 16 42 bd a5 f5 02 3d be 03 91 bd 19 1b 72 3c
       -0.047384936 0.031972546 -0.07080792 0.014776968
000370 13 6c 37 3d 08 c6 73 bd 1b d4 87 bd ad 8a 15 3e
       0.044780802 -0.05951503 -0.06632253 0.14603682
000380 de 45 9f bd 70 0c b4 bd b7 8c e9 3d 24 91 15 be
       -0.07776998 -0.08791435 0.11403792 -0.14606148
000390 d3 88 e5 3d 67 d9 16 3d 6c 2d 94 bd 27 43 08 bc
       0.11207738 0.036828425 -0.07235226 -0.008316792
0003a0 48 27 0b 3e 7c c1 ec 3c 79 4f b3 3d 1a 6a 1d be
       0.13589203 0.028900854 0.087553926 -0.15372506
0003b0 d4 06 25 3e 39 de b4 3c 5e bf eb 3d 19 3e 0e be
       0.16115886 0.02207862 0.1151111 -0.13890876
0003c0 8f a2 34 3d 43 5f 6f bb 9e 71 ed bc e5 e6 b2 bd
       0.04410034 -0.0036525286 -0.028984841 -0.08735446
0003d0 4d 2f 14 3e 68 e3 bb 3d a7 d5 20 bd 2f 94 5b bc
       0.14471169 0.09174234 -0.039266255 -0.013402029
0003e0 39 41 f8 bd 71 c6 06 3e c5 55 13 be 94 ca 03 be
       -0.12121815 0.13161637 -0.14388187 -0.12870246
0003f0 e3 21 e7 3d 00 b3 1f 3d 45 b6 f8 3d c8 83 0c 3e
       0.1128576 0.038989067 0.1214414 0.13722146

module.bi_lstm1.weight_hh_l0 f4 [64, 16]
000000 90 f1 d9 bd ee 8b db bd 37 79 35 3d 95 4d 10 bb
       -0.106417775 -0.10720049 0.044305053 -0.0022018899
000010 5f c0 96 3d 5f 2e 08 be 20 bc 46 3c 3b 69 dd bc
       0.073609106 -0.13298939 0.012129813 -0.027027717
000020 40 0f 81 bd da cc 01 bd d4 56 5c 3d ec 05 0b 3e
       -0.06301737 -0.031689502 0.053793743 0.13576478
000030 30 d6 5e 3c ef 22 07 3e ae fd 3a 3d ad d0 1e 3d
       0.013600871 0.1319692 0.045652084 0.038773227
000040 75 d1 db 3b 2c c5 68 bd b6 48 9d bd db 49 90 bd
       0.006708319 -0.056828663 -0.07679884 -0.07045337
000050 66 74 26 ba 1f 09 ba bc 6b 07 9a bb 45 8c a1 bb
       -0.0006349742 -0.022709427 -0.0047005913 -0.0049300515
000060 ff d6 78 bd 3f 11 0f bc 31 b9 c9 3b f9 a4 99 3d
       -0.06075191 -0.008732139 0.0061561097 0.07502169
000070 f9 1e b2 bb 13 53 b2 3d 6b d7 0e bd 6b 31 43 bd
       -0.005435821 0.087072514 -0.034873407 -0.04765455
000080 7f b9 da bc 2f 05 2e bd 47 5c 11 3d 94 1a 1d 3b
       -0.02669978 -0.042485412 0.035488393 0.002397214
000090 29 2c 1f 3c 02 d0 0e bd 03 bd d4 3c f2 15 a6 bc
       0.009715118 -0.03486634 0.025969034 -0.020274136
0000a0 d5 66 5f bb 95 eb 1b 3d 1e 0e 93 3b ff b9 6b 3d
       -0.0034088392 0.038066465 0.004487767 0.057550427
0000b0 dc 89 88 3c 8c 34 6e 3b 47 46 97 3c 20 0d f6 bc
       0.016667299 0.0036347238 0.018466128 -0.030035555
0000c0 d0 ce bc bb 37 f4 e0 bb c9 b5 84 3b 67 74 a6 3a
       -0.0057619587 -0.00686505 0.004049991 0.0012699486
0000d0 15 72 3d 3a 4a 50 b2 3b 22 27 81 ba f2 d8 33 bd
       0.00072267774 0.0054417 -0.0009853581 -0.043908067
0000e0 f0 80 66 bd b9 ba 8a 3b 59 68 08 3c 16 aa 60 3b
       -0.056275308 0.004233685 0.00832566 0.0034281067
0000f0 ed bb 70 3d 51 fe 99 3b 2a f0 9a bb b8 eb ba bb
       0.05877297 0.0046995063 -0.004728337 -0.0057043694
000100 66 33 bf 3d 99 a3 40 3d c6 1d 77 3d af f2 9a 3d
       0.09335975 0.04703102 0.06033113 0.075658195
000110 dc 4b 16 be 96 f0 4e 3d f4 76 67 3d e9 48 12 3d
       -0.14677376 0.05052241 0.056509927 0.035714064
000120 71 ad 9a bc cc cd e7 3d ef 6d ad bd bb 19 7b bd
       -0.018881531 0.113185495 -0.08468234 -0.061303835
000130 d2 e9 20 bd 5b 88 ce ba 36 dc 15 3b ad 55 fa 3c
       -0.03928549 -0.001575719 0.0022866852 0.030558432
000140 39 52 30 bd 47 20 b9 3d e2 38 95 bc 89 25 85 3a
       -0.043047164 0.090393595 -0.0182156 0.0010158281
000150 54 81 6f 3b c5 fa de 3d b3 05 ab bd 67 34 a2 3d
       0.0036545591 0.10887674 -0.083506964 0.07920151
000160 78 2e e5 bb d0 15 1e bc 38 f6 38 bb ab 4a b8 bd
       -0.006994065 -0.009648755 -0.002822293 -0.08998617
000170 71 b6 ae 3b 54 e0 a4 bd 6b bf 3c 3d 46 d1 91 bd
       0.0053318073 -0.080506 0.046080988 -0.07119994
000180 1c 65 ef 3b 33 4b bc bc d3 3c 1d be dc 76 80 bc
       0.0073057543 -0.022985077 -0.15355234 -0.015681677
000190 f5 fc 11 be 0a d4 34 3d de 38 07 3d 72 e3 4b 3d
       -0.14256652 0.04414753 0.033013217 0.049777456
0001a0 b7 b0 85 bd 02 ff 1f be 8a b7 43 bb d4 da 96 3d
       -0.06527846 -0.15624622 -0.0029864036 0.07365957
0001b0 fb 02 57 bd 95 a0 eb bc af 87 2d bd 48 d9 a8 bd
       -0.052493077 -0.028763095 -0.042365726 -0.08244568
0001c0 9b 47 80 3c 13 53 fd 3d b1 bc f6 3b 6d bb 50 3d
       0.015659144 0.12369361 0.007529818 0.050959993
0001d0 2f 2d a9 3d 2f df ea 3d 64 f9 0a be f4 d7 e1 3c
       0.08260571 0.1146835 -0.13571697 0.027568795
0001e0 ed 1d 07 3b 2d 7d 16 bc c8 f5 3b bd d1 96 d7 39
       0.0020617202 -0.009185118 -0.045888692 0.00041120363
0001f0 58 13 3d 3d af 44 a3 bc 5d 0e ec bb 9c 22 8f ba
       0.046161026 -0.019930212 -0.0072038607 -0.0010920349
000200 7d f5 c9 b9 ec d0 bd bc 87 15 51 bd 3d 65 8b bd
       -0.0003852061 -0.02317091 -0.05104592 -0.06806419
000210 93 b7 9f bd 81 c8 ce bc 3f 52 3e bd 4c c9 4d bc
       -0.07798686 -0.025242092 -0.046465155 -0.0125602
000220 d8 1c 55 bc 6f 5d af bb f9 64 77 3d e1 c3 86 3d
       -0.013007365 -0.0053517143 0.06039903 0.0658033
000230 6c 8d 1c bd 5d 07 5b bc c1 e4 7d 3d 7a 12 2b 3c
       -0.038220808 -0.013368455 0.061985735 0.010441417
000240 8b 45 84 3d 80 83 52 3d 1d c3 ab bd b8 20 72 3d
       0.06458577 0.05139494 -0.08386824 0.059113234
000250 14 e0 58 bd 69 6f d0 bc 46 e0 e8 bc 16 88 17 3d
       -0.052948073 -0.02544375 -0.028427254 0.036995016
000260 7e 39 91 3d 38 b4 07 3d 21 d5 15 bd 6d ef b0 3d
       0.07091044 0.033130854 -0.03658021 0.08639417
000270 25 64 c4 3c e1 01 c6 bd ba e4 a8 bc c7 ca 72 bc
       0.023973534 -0.09668327 -0.020616878 -0.014818854
000280 39 94 8e 3c 2c c5 6a 3a 62 b9 b0 3c 37 f0 be 3a
       0.017404662 0.00089557725 0.021572772 0.0014567439
000290 9a df 83 bd 38 4b 7a bc e2 9b 7e bc 64 17 13 bc
       -0.06439133 -0.015276723 -0.015540095 -0.008977745
0002a0 1e 45 a9 bb 55 47 a4 bc 73 83 12 3d f2 19 56 bd
       -0.00516571 -0.020053545 0.03576989 -0.052270837
0002b0 b1 08 45 3b 94 6a 98 bc e8 0e fd bb cd dd a7 3c
       0.0030064995 -0.018605508 -0.007722724 0.020491505
0002c0 ff 53 82 3c b3 1b a4 3d 51 53 5a bc 42 6c 76 3d
       0.015909193 0.08013096 -0.013325528 0.060161836
0002d0 4a ef 1e 3e 57 37 f7 bd d5 1d a3 3a a2 19 fc 3d
       0.15520969 -0.12071102 0.0012444804 0.123095766
0002e0 58 84 c4 39 94 3c 7e bd 0d a3 32 3c 14 79 f7 3d
       0.00037482637 -0.06206949 0.010903132 0.12083641
0002f0 cf 27 0e 3b 9e a7 9e 3d f9 68 c6 bc 2a 78 fa 3c
       0.0021691208 0.07746814 -0.024219977 0.030574877
000300 8d 07 dd 3b 31 61 2b bb 1d 7d 8e 3d 07 b7 c7 ba
       0.006745285 -0.002615046 0.06957457 -0.0015237042
000310 18 2c ec 3c 28 01 79 bd 80 a9 0e bb 5f 8d 29 3d
       0.02882962 -0.06079212 -0.002176851 0.041394588
000320 e7 3d 01 bc 59 f5 9d 3c 52 c3 b1 3a 73 df c8 bd
       -0.007888294 0.01928203 0.0013562238 -0.098082446
000330 f4 a8 1d bd 18 75 6c bd 45 dd 22 3c d6 a0 df 3b
       -0.038491204 -0.057728857 0.00994045 0.006824593
000340 a4 ba b2 bd 8a 10 1b 3d 7c 42 24 3d 65 f4 b8 bb
       -0.08727005 0.03785757 0.040102467 -0.0056443685
000350 eb 5d 91 3b 4e 88 ca 3b d2 4a 93 3d ad 7b 47 bd
       0.0044362447 0.0061807996 0.07192005 -0.04870193
000360 5b cd 97 bd 51 ca 87 3d c6 23 2f 3b 96 18 39 3d
       -0.07412215 0.06630386 0.0026724203 0.045189463
000370 25 77 8b 3d 9f b3 ab ba 4f 62 87 3d 59 4e 71 3d
       0.068098344 -0.0013099796 0.06610548 0.05891261
000380 5f ff 52 3b d0 42 76 bd fb a2 23 3c f4 f5 00 ba
       0.003219567 -0.06012231 0.009987588 -0.00049194624
000390 5b 60 8a bb 26 23 0e 3c b0 21 4e 3c 2f af 83 3d
       -0.0042229122 0.008675372 0.012581274 0.06429898
0003a0 1e e7 31 3a d5 22 bd bb f1 db 66 bb 35 d2 85 bc
       0.00067864533 -0.0057719746 -0.003522631 -0.016335586
0003b0 fe 8f 62 3d 22 e4 0a bd 31 f5 34 bd 47 53 74 3d
       0.055313103 -0.03390897 -0.044179145 0.059649732
0003c0 23 4f c1 bc 45 3f 92 bd fc 60 e4 bc ee a2 1b 3c
       -0.023597306 -0.07140974 -0.027878277 0.009499295
0003d0 94 ad e9 bc 8f 9f f1 bc 5f 61 b2 3a 2a 23 24 bc
       -0.028525151 -0.029495029 0.0013609341 -0.010018149
0003e0 51 77 b6 3c a1 86 98 bb aa 02 90 3b cc ad 33 bc
       0.022273691 -0.004654721 0.004394849 -0.010966729
0003f0 7d 3f 70 bc 42 1c 54 bc ed 0d 8f ba 94 78 e5 bc
       -0.014663574 -0.01294619 -0.0010914184 -0.028011598

module.bi_lstm1.bias_ih_l0 f4 [64]
000000 da ad 07 3e 99 46 56 3c e9 fa 84 3d da 93 c5 bd
       0.13249913 0.013078355 0.0649317 -0.09647341
000010 ca e5 c9 bd 45 23 48 3e 5c d7 f4 bd 3e 4b 49 3d
       -0.09858282 0.19544704 -0.11955139 0.049144022
000020 b4 fb 26 3d 95 ea 62 bd 93 7e 57 3d 7c 25 0d 3d
       0.040767387 -0.055399496 0.052610945 0.034459576
000030 45 6c 1f 3e 74 40 40 3e 6c fc 83 3d be a4 3d 3d
       0.15568645 0.18774587 0.0644463 0.04629969
000040 c1 b1 3c 3d 5c 6c ed 3d 3a f4 98 bd 83 95 44 3d
       0.046067957 0.115929335 -0.074684575 0.047994148
000050 0e a6 86 3d cd 87 be 3d 91 0b 53 3d b4 26 f4 3d
       0.06574641 0.09303246 0.051524702 0.119214445
000060 42 ba ab 3d 22 11 9a bd 64 2f 52 3d 31 40 a2 bd
       0.08385135 -0.07522799 0.051314726 -0.079224
000070 a8 d6 d0 bc 41 8b 60 bd 92 a6 3a 3c 79 ca 8d 3d
       -0.025492981 -0.054820303 0.0113922525 0.06923384
000080 4f 37 76 3c 3c c0 5c be 3d 33 73 3e 21 ca 2c 3c
       0.015027835 -0.21557707 0.23750015 0.010546238
000090 cb a6 16 3e 72 08 59 3e c0 94 f6 3d ce c0 42 3c
       0.14712064 0.21194628 0.120400906 0.0118867885
0000a0 47 07 31 3e 03 35 77 3e 77 70 49 be 0b d3 7b 3e
       0.17287932 0.24141316 -0.19671808 0.24592225
0000b0 89 88 e6 bc ef d7 56 3e e4 1b cd 3d 54 e2 5d be
       -0.028141277 0.2098081 0.10015085 -0.21668369
0000c0 83 11 c0 bd 8c d0 3b be c9 19 f3 bd 04 b5 9a 3d
       -0.0937834 -0.18341273 -0.118701525 0.07554057
0000d0 9c 21 fa 3d 92 4a 91 3d 10 1e 07 3d 55 fa 8f bc
       0.12213442 0.07094301 0.032987654 -0.017575422
0000e0 bc 5c 16 3d 0c 1b e9 3d 93 f8 d0 bd 34 9e b1 3d
       0.036709532 0.11382112 -0.10203662 0.08672753
0000f0 79 41 3d bb 4d 85 08 be 98 30 0b be ec 91 89 38
       -0.0028878136 -0.133321 -0.13592756 6.559849e-05

module.bi_lstm1.bias_hh_l0 f4 [64]
000000 91 80 3b be 7b 37 1e 3e 8f 62 2b 3e 8e 92 2e 3e
       -0.18310763 0.15450852 0.16736816 0.17048094
000010 55 32 01 be a7 77 e7 3d 82 e0 45 3c 45 7f 2e be
       -0.12616856 0.11302119 0.012077453 -0.17040737
000020 d7 36 e7 3b ce df d4 3d fd 7e 4b be cb de a6 3d
       0.007056098 0.1039425 -0.19872661 0.08147963
000030 07 00 2f 3e a0 b1 26 3d 64 84 84 3c d1 23 5a 3d
       0.17089854 0.04069674 0.01617641 0.053256813
000040 10 9c 46 be e1 40 16 be 8e 03 24 be f3 6d bd bd
       -0.1939547 -0.14673187 -0.16016981 -0.09249487
000050 24 8b 23 be 03 57 58 bd 4f e5 c8 bc 2e 75 2f 3e
       -0.15971047 -0.052817356 -0.024523405 0.17134544
000060 23 df bd 3d 8f 35 02 bd 0d 09 ea bc d4 44 3b 3e
       0.092710756 -0.03178936 -0.028568769 0.18287975
000070 85 80 39 bd 00 04 dd 3d e0 9e d3 bd 6d 7e 02 be
       -0.04528858 0.107917786 -0.103330374 -0.1274354
000080 90 b4 4c be 73 5b 99 bd 61 85 d4 3c a8 6a da 3c
       -0.19990754 -0.07488146 0.025942506 0.026662186
000090 4d b1 41 3c 37 9d df bc 6e 82 50 3e 11 00 54 3e
       0.011822057 -0.027296646 0.20362255 0.2070315
0000a0 69 bb 0e 3e 03 0d 1c be 70 4e 64 3e 94 64 83 3e
       0.13938679 -0.15239339 0.22295547 0.25662673
0000b0 21 44 67 be 14 3a 2e 3d c4 f5 7e 3d ca bd d2 bd
       -0.22584583 0.042535856 0.0622461 -0.10290106
0000c0 58 f4 38 be ec cb d6 bd 11 fa 8a 3b 1f 59 8f 3d
       -0.1806196 -0.10488114 0.004241236 0.069994204
0000d0 49 1a 04 be b4 f1 20 3d 93 2a bb 3d c8 ad 18 bd
       -0.12900652 0.039293006 0.0913898 -0.037275106
0000e0 2a 1e fd 3b 0c 82 34 be 08 b8 16 3e 4f d6 c8 3c
       0.007724543 -0.17627734 0.1471864 0.024516253
0000f0 af 79 63 3e ff d8 0e 3d 12 dd 9e bc 4b fb 49 be
       0.22214387 0.034874912 -0.019392524 -0.19724767

module.bi_lstm1.weight_ih_l0_reverse f4 [64, 14]
000000 ad 85 99 3c 31 fe 69 be 46 f8 54 3e ff ac f4 3c
       0.0187405 -0.22850873 0.20797834 0.029867647
000010 1d ca 45 be 99 be 6d be 98 40 2c be 48 04 0b bd
       -0.19315381 -0.23217238 -0.16821516 -0.03393963
000020 0e 55 f2 bd 43 e7 c5 3d e6 24 37 be fe ff 34 bc
       -0.11832629 0.0966325 -0.1788517 -0.011047361
000030 84 be 00 be 08 e8 fd bc c8 a8 42 3e 32 f3 31 3e
       -0.12572676 -0.03099443 0.19009697 0.17377928
000040 e8 86 be bd 7e dc 50 be 3f fd 22 3e 54 07 d9 bd
       -0.09303075 -0.20396611 0.15916918 -0.10597101
000050 e0 5c 03 be c3 6b 18 3e 7a c3 a9 3d 10 7e 16 be
       -0.12828398 0.14884858 0.08289237 -0.14696527
000060 13 ae 92 3d 30 0f 43 3e ff e7 4e 3e 49 94 62 3e
       0.07162108 0.19048762 0.20205687 0.22126879
000070 b8 21 cb bc a9 e5 20 be fa 9d c6 3d 3d 4d 2b be
       -0.024796352 -0.15712608 0.096981004 -0.16728683
000080 ec 7f fe bd 10 0a 1d be 44 7d 0b 3e 6a 27 14 3d
       -0.12426743 -0.1533587 0.13622004 0.0361704
000090 c2 39 34 be 4d d5 d5 3d 6c 1b 3d be 76 ab f8 bd
       -0.17600158 0.104410745 -0.18467492 -0.121420786
0000a0 c7 38 02 3e 08 7e c8 3d 7b b8 0d be 05 84 58 3e
       0.12716971 0.097896636 -0.13839905 0.21144111
0000b0 05 10 c7 3d f2 5c e3 3d e4 e2 30 3e 97 8c 41 bc
       0.09719852 0.11101712 0.17274052 -0.011813304
0000c0 c7 e7 44 be 63 19 56 be 54 04 05 3e f3 6a df 3d
       -0.19229041 -0.20908122 0.12989932 0.10909071
0000d0 ff ab 90 bc 77 d2 eb bc 62 99 36 be f3 c7 38 bd
       -0.01766014 -0.02878688 -0.17831948 -0.04511256
0000e0 dc d7 cf 3c 22 ed 90 bb 21 a3 16 be 82 42 58 be
       0.025371484 -0.0044227997 -0.14710666 -0.2111912
0000f0 af 3d 04 be 0b fc 9b 3d a1 98 0d 3e 77 ec 04 3c
       -0.12914155 0.07616433 0.13827755 0.008113018
000100 ec 56 5b 3e 78 02 9d bc ae 38 5e 3d 7d 12 ad 3d
       0.21419877 -0.019166216 0.054253273 0.08450792
000110 0e 6c ca 3c b1 0a 66 3e 5d cd 15 3e 68 be 3f 3d
       0.024709728 0.22465016 0.14629121 0.046812445
000120 44 e2 31 3e 4b cd 04 be 7c 4d 33 3e 2b 8c 39 3d
       0.1737147 -0.12968938 0.17510027 0.04529969
000130 0c ae 41 3e 8d 55 73 bb fe 15 3c be 15 96 f1 3d
       0.1891405 -0.003712985 -0.18367764 0.11796204
000140 99 34 fb 3d 19 88 3e 3e 5d b4 17 be c6 b0 5c be
       0.122658916 0.18606605 -0.14814897 -0.21551809
000150 0d ad 24 be 35 c3 5e 3b c6 ee c8 bc 2a 23 27 3e
       -0.16081639 0.0033990864 -0.024527919 0.16322008
000160 72 92 66 3e ec 93 c5 3d 58 41 e9 3d 72 77 3c 3c
       0.22516802 0.096473545 0.113894165 0.011503087
000170 bb 50 6b 3e ac 34 77 3e 40 a8 99 3c 9b 73 c2 bd
       0.22980015 0.24141186 0.018756986 -0.09494706
000180 76 93 70 bd 97 39 3e be 34 89 9c 3e a8 68 55 3e
       -0.05873438 -0.18576656 0.30573428 0.20840704
000190 0f a0 5a bd 73 24 f5 3d 46 72 9b 3d 4e d5 a5 3d
       -0.0533753 0.11969843 0.07590155 0.08097325
0001a0 11 79 9b bd df 45 16 3e 08 0f 89 3e 83 78 ee 3b
       -0.07591451 0.14675091 0.2676928 0.0072775497
0001b0 17 b1 14 be f0 45 50 bd 10 7f 59 3e 50 97 30 be
       -0.1452068 -0.050847948 0.21239877 -0.17245221
0001c0 ca 18 5e 3e e3 27 14 be b4 73 f2 3d 22 95 6b 3e
       0.21689144 -0.1446834 0.11838475 0.23006108
0001d0 16 07 06 be e4 9b c1 3c db ee 3f bc 69 eb 2a be
       -0.1308864 0.023633905 -0.011714662 -0.16691364
0001e0 ef f9 73 3d 45 9c 98 3d d2 08 84 3c 05 b1 49 be
       0.059564527 0.07451681 0.016117487 -0.19696434
0001f0 80 c5 13 be fe 8a bf bd 76 13 67 3d 94 c8 17 3e
       -0.14430809 -0.093526825 0.056415044 0.14822608
000200 52 90 be 3d b3 f0 b9 3d f6 2f 4e be 35 8b c8 3d
       0.09304871 0.09079113 -0.20135483 0.09792177
000210 85 fa b9 bd 99 73 43 be 8b 0d d7 3d 07 fe 97 bd
       -0.09080986 -0.19087066 0.1050063 -0.07421499
000220 2a 07 30 be 3f f4 89 3d 3d 65 70 be 38 64 68 be
       -0.17190233 0.06736039 -0.2347612 -0.2269448
000230 79 12 4c be b1 03 9f 3d 41 58 6e 3e 91 35 22 3e
       -0.19928922 0.07764376 0.23275854 0.15840746
000240 c9 24 b1 3d 2c 1d 9d bd 00 b0 1f be c3 99 0b 3b
       0.08649594 -0.0767158 -0.15594482 0.0021301366
000250 5b 57 0a bd b9 5f d1 bc 20 5a 32 3e ad 47 ff bd
       -0.033774715 -0.02555834 0.17417192 -0.12464843
000260 cf a7 2f 3e d3 b9 51 be 4f cf 28 be 4c 04 25 be
       0.17153858 -0.20481043 -0.16485332 -0.1611492
000270 b1 9b 9c 3d 83 41 22 bd 46 b9 51 bd bf 2e a8 bd
       0.07646883 -0.039613258 -0.05120208 -0.08212041
000280 e5 06 cb bd 02 ee f5 3d 9a 8d 32 3e 95 05 3d be
       -0.099134244 0.12008287 0.17436829 -0.1845916
000290 93 bc 12 3e ee a6 22 bc ba 8b a8 3d fd f2 13 be
       0.14329748 -0.009927494 0.08229776 -0.14448161
0002a0 28 45 d6 3d 99 f7 17 be 5d 3d 27 be 8a 05 0c be
       0.10462409 -0.14840545 -0.16332002 -0.13673988
0002b0 f4 90 c8 bc 6a 88 89 bc 8d 79 56 be 3a 93 b0 3d
       -0.024483182 -0.01678868 -0.20944805 0.08621831
0002c0 36 67 e1 bd 9a ee be bd 07 38 5e 3d bc 87 f8 3d
       -0.11006014 -0.093228534 0.05425265 0.12135264
0002d0 f8 36 ce bd d4 db 31 3d 3d 85 5d 3b 89 9d 15 3e
       -0.10069078 0.043422535 0.003380134 0.14610876
0002e0 99 88 0c 3e f7 02 d9 bb fd 67 ec bb d3 21 59 3d
       0.13723983 -0.006622668 -0.007214545 0.053010773
0002f0 3b d0 ce bd 7f 48 1a be 71 d7 da bc 55 a6 dc bd
       -0.100983106 -0.15066718 -0.026714059 -0.10773913
000300 bf 6c f7 bd 0b c9 a2 3d 2a 22 77 be a7 20 31 be
       -0.120812885 0.07948502 -0.24134126 -0.17297612
000310 e6 ad f8 bd 03 f4 16 3e b6 63 59 be 98 b8 1a bd
       -0.121425435 0.1474152 -0.21229443 -0.0377737
000320 39 32 5c be 0f fe 56 be c0 3b 3c be 80 53 dd bc
       -0.21503533 -0.20995353 -0.18382168 -0.027017355
000330 b4 61 01 be 08 b4 17 3d 0e 25 b1 bb fb d4 15 3e
       -0.12634927 0.037036926 -0.0054060286 0.14632027
000340 82 d0 d3 bd cc b0 36 3e 2c b9 7b 3e b4 ff 18 be
       -0.10342504 0.1784088 0.24582356 -0.14941293
000350 20 e2 a0 3d 29 b9 be bd 9d cf 02 3d 66 3d b2 3b
       0.0785563 -0.0931266 0.031936277 0.005439448
000360 b9 b6 31 be 78 9f 8f 3c 92 23 73 3e f5 02 0f 3e
       -0.1735486 0.017532095 0.23744038 0.13965972
000370 f5 b6 68 3e 35 f0 ff bc c8 bb 09 be ca f1 07 3e
       0.22726043 -0.03124247 -0.13450539 0.13275829
000380 6b e8 08 be 28 4e 0a 3e a4 b2 46 3e d9 99 43 3e
       -0.1336991 0.13506377 0.19404083 0.19101657
000390 ee d6 43 3e 53 11 9a bd 63 38 53 3c 83 91 d6 bc
       0.19124958 -0.075228356 0.012891862 -0.026192432
0003a0 15 7a 00 3e 18 e3 12 bd 71 53 21 be 00 6c 70 3e
       0.1254657 -0.035861105 -0.15754487 0.23478699
0003b0 c2 19 52 be 47 37 7f bd 64 af 4d 3e 26 ed 13 be
       -0.20517638 -0.062308576 0.20086437 -0.14445934
0003c0 d5 a1 a9 bd d5 43 71 3d c5 f8 13 be 33 85 53 be
       -0.0828282 0.05890258 -0.14450367 -0.2065628
0003d0 12 1a 37 be 93 b5 8f 3c e6 a3 5f 3d f8 7a 50 3e
       -0.17881039 0.017542636 0.054599665 0.20359409
0003e0 42 d8 4a 3e 6b ce 2e 3e 8e 11 09 3e 3a 4b c0 3b
       0.19809058 0.1707093 0.13385603 0.0058683427
0003f0 c2 43 1c 3e c3 58 08 3e 48 97 3e 3e bb 10 22 3e
       0.15260223 0.1331511 0.18612397 0.15826695

module.bi_lstm1.weight_hh_l0_reverse f4 [64, 16]
000000 32 83 c3 bd f8 f9 32 be 31 d9 f2 3c 1b 51 4f be
       -0.09546508 -0.17478168 0.02964458 -0.20245783
000010 9d 28 15 3e 19 1f aa 3d 38 a6 45 3e 92 b1 03 3d
       0.14566274 0.08306713 0.19301689 0.032151766
000020 07 65 50 be 56 7d 2c 3e b1 5d 18 3e e1 50 d1 bd
       -0.20351039 0.16844687 0.1487949 -0.102205046
000030 44 c4 05 be 78 2b 24 3e 01 e5 66 bc 03 8f ba 3d
       -0.1306315 0.16032207 -0.014092685 0.091093086
000040 a3 77 14 be a4 b4 4a 3e cd ff 29 be e7 64 28 3d
       -0.14498763 0.19795471 -0.16601487 0.041111853
000050 ae 24 a9 3d d0 b5 9c bc 32 d9 fd 3d 42 39 8d bd
       0.08258949 -0.019129664 0.12394942 -0.06895687
000060 ce 27 12 3e d1 c5 e2 bd cb cc 76 3d 69 01 76 3d
       0.14272997 -0.11072887 0.0602539 0.06005994
000070 c9 1e 82 bd af 4f ec bd de af 35 3e 5e bb d5 3d
       -0.06353528 -0.11538636 0.1774287 0.10436128
000080 b0 55 29 3e a4 65 0b be 08 8f 0d 3e ab f7 15 3e
       0.16536593 -0.13612992 0.13824093 0.14645259
000090 9e 3f 33 be c0 8a 28 3d 50 f9 56 3e 16 b3 05 3d
       -0.17504737 0.041147947 0.20993543 0.032641493
0000a0 0c fe 97 bd 3a 23 29 be f1 04 5c 3c b0 a2 d1 3c
       -0.074215025 -0.16517344 0.0134289125 0.02559027
0000b0 44 35 24 3b a4 43 1a 3e 27 ab 89 bd 96 8c 9f bc
       0.0025056163 0.15064865 -0.06722098 -0.019476216
0000c0 b3 f4 d8 3c e9 6d 04 bd 66 55 09 be 18 a8 43 3c
       0.02648387 -0.03233138 -0.13411483 0.011941932
0000d0 3a 89 ff 3c 62 cf 00 be 0b 4e 63 3e 1d ca b5 bc
       0.031193364 -0.1257911 0.2219774 -0.022191102
0000e0 17 46 e0 3d 50 95 de bd 15 fa f7 bc 84 ac 85 3c
       0.109508686 -0.10868323 -0.030270616 0.016317613
0000f0 33 b4 f7 3d d0 fd 5e bc 8c 8c 1e bd aa 63 09 3d
       0.12094917 -0.013610318 -0.038708255 0.033542313
000100 b9 9e d2 bd 84 27 65 be 46 a6 ec bd b5 01 b2 bd
       -0.1028418 -0.22378355 -0.11555152 -0.08691732
000110 6e c9 05 3e d6 8a 23 be 02 1e f9 bd 04 4e a3 bb
       0.1306512 -0.1597093 -0.12163927 -0.0049836654
000120 61 c5 0c 3e 03 d5 f4 bc de 73 6c 3e f5 8b b9 3d
       0.13747169 -0.029886728 0.23091075 0.09059898
000130 ee 2a 15 3d 52 e0 fe 3d 99 2c 4a 3d 0c 11 c6 3d
       0.036417894 0.124451295 0.049358938 0.0967122
000140 70 bc bb bd 9c ad c9 bc 22 df e5 3d e0 74 c7 3d
       -0.09166801 -0.024618916 0.112242 0.09739089
000150 04 bf ae 3d e1 5c 0b be 30 0c 05 3d 9d 46 58 3d
       0.08532527 -0.13609649 0.032482326 0.052801717
000160 20 42 63 be 23 86 17 be cd d1 4f be 7e 2d fa 3c
       -0.22193193 -0.14797263 -0.20294876 0.03053927
000170 e8 28 f5 bd 15 81 04 3e 22 ce 04 3e ce d2 0e 3e
       -0.11970693 0.12939866 0.12969258 0.13947603
000180 36 4b 3c 3c d7 0d eb bb 5e 7b 8f 3c 0d 54 3c 3c
       0.011492541 -0.0071732807 0.01751488 0.011494649
000190 43 18 38 3e d2 d3 50 3e 7c 78 97 3d ef 7f 4b 3d
       0.17978005 0.20393303 0.073960274 0.049682554
0001a0 78 d5 22 be bd 96 e4 3d 4f 5c 6a 3e 75 2c fb 3d
       -0.15901744 0.111615635 0.22886775 0.12264339
0001b0 be 70 90 bc b4 f2 77 be ec 15 04 3d 43 9c a4 bd
       -0.017631885 -0.24213678 0.03224747 -0.08037617
0001c0 3b 7b 4a 3d 0f 51 5d bd 71 3a 13 be 5d 95 2f be
       0.049433928 -0.05403238 -0.14377762 -0.17146821
0001d0 41 97 89 3b 28 0e 3c 3e 93 1b d8 3d 84 af 76 3d
       0.004198939 0.18364775 0.10552134 0.06022598
0001e0 1f d8 1e 3e 7a 71 00 be f7 92 8e 3d 5c 1f e4 bd
       0.15512131 -0.12543288 0.06961625 -0.11138794
0001f0 de 79 b6 3d 0d b1 17 be 53 75 d3 bd 94 75 e7 bd
       0.08909963 -0.14813633 -0.10325112 -0.11301723
000200 b4 29 f3 3d 44 7e ae 3d 29 6a ff bd 94 77 8c bc
       0.118731886 0.08520177 -0.1247142 -0.017146863
000210 7b 76 1c bd b3 35 89 bd 99 a4 dd bc 21 b1 79 be
       -0.03819893 -0.066996954 -0.027056025 -0.24383976
000220 55 59 b2 b9 2c e9 55 3e c5 4a 1d be d8 04 40 3d
       -0.00034017363 0.2088973 -0.15360554 0.04687962
000230 0b 6e 19 bd 59 d6 12 be 4f e7 69 bd d5 10 8b 3b
       -0.03745846 -0.1433958 -0.05710536 0.00424395
000240 34 fa dc 3d ce 73 0b 3e 7c 09 83 bd 9d bc 5c 3e
       0.1078991 0.13618395 -0.063982934 0.21556325
000250 a9 4f fd bd 1a 80 82 bc f0 70 0c bd af 40 01 3d
       -0.123687096 -0.015930224 -0.034287393 0.031555828
000260 a8 b7 e1 bd 87 9f 11 3e 17 17 29 3e 0b a8 04 be
       -0.11021358 0.14221011 0.16512714 -0.12954728
000270 28 54 03 be 00 28 d6 bd 40 7c 19 3e 51 a7 d4 bd
       -0.12825072 -0.10456848 0.14988804 -0.103834756
000280 27 49 29 be 4c ca 2a 3e b2 62 f5 3c fb 6e 2a 3c
       -0.16531812 0.16678733 0.029954288 0.010402436
000290 51 b6 e0 3d a5 b4 1c 3d bd 24 78 bc bd 6d da 3d
       0.10972274 0.038258214 -0.015145478 0.10665462
0002a0 9a b5 01 be db 50 21 3d d1 e0 02 bd 45 ee ac bd
       -0.12666932 0.03938375 -0.031952683 -0.08443884
0002b0 98 0e 89 3b 01 aa 86 bd d3 28 2f 3d 0f ef 1d 3e
       0.004182648 -0.065753944 0.042763542 0.15423225
0002c0 31 f4 d5 bd d5 86 c7 3d e8 c8 26 3e 3d 67 12 3e
       -0.104469664 0.09742514 0.16287577 0.14297195
0002d0 b7 26 0e 3e f9 24 a6 bd 4a 3a 13 be 39 c1 22 be
       0.13881956 -0.08112521 -0.14377704 -0.15894021
0002e0 05 68 c7 bc b1 74 82 3d 0f 16 33 3e 99 2d 92 bd
       -0.024341593 0.06369913 0.17488883 -0.07137603
0002f0 f0 23 32 3d d0 59 c8 3d b3 46 e0 bd cb b7 a4 bd
       0.043491304 0.097827554 -0.10950985 -0.08042868
000300 18 6e 6f 3c bd cb 65 bd 45 a6 25 be 0e bb 37 3e
       0.014613651 -0.056102503 -0.16176708 0.1794245
000310 da e8 b9 3d 3c 4d 00 be 2c a6 7b be e1 61 56 bd
       0.09077616 -0.12529463 -0.24575108 -0.05233944
000320 5c 6c 36 be f8 f7 7c 3c 8b 95 b0 3c 95 8f a9 3c
       -0.17814773 0.01543998 0.021555683 0.020698348
000330 ec df bf 3d 49 0e 04 3b a4 a6 95 3d 1f 7e 87 3d
       0.093688816 0.0020150116 0.07307175 0.066158526
000340 f6 81 f7 bc a3 ab a8 3d bc 0a 84 3d 54 7b 19 be
       -0.030213337 0.08235862 0.0644736 -0.14988452
000350 94 76 87 bd 69 da 81 3b 21 1e cb bc 6f ad 27 be
       -0.06614414 0.003962804 -0.02479464 -0.16374753
000360 9c a0 b0 3d 46 54 a4 bd 51 31 08 be cd d8 20 39
       0.08624384 -0.080238864 -0.13300063 0.00015339554
000370 19 00 cc bc 03 3b db bd 50 01 c4 bb 80 62 04 bd
       -0.02490239 -0.10704615 -0.005981602 -0.0323205
000380 fa 7e 49 be 4e b5 f6 3d 47 ac 90 bd 7b 53 2c 3d
       -0.19677344 0.120463 -0.07064109 0.0420718
000390 2b 3d a9 3d fb 2c 62 3d 2a 60 00 3e 1c f5 8f 3b
       0.0826362 0.055218678 0.12536684 0.004393233
0003a0 5d f2 11 3e d4 ad 22 bc d6 a0 e6 3c 9d 0f 80 bd
       0.1425261 -0.009929139 0.028152864 -0.06252978
0003b0 58 7f 84 3d b1 f1 23 3e ce 08 0c be 74 8c c2 bd
       0.064696014 0.16010167 -0.13675234 -0.094994456
0003c0 77 f3 03 3e 6e 90 04 3d 69 95 ad 3d 41 a7 3d bd
       0.12885843 0.0323643 0.08475763 -0.046302084
0003d0 b3 4f e4 bd b1 19 63 3d a8 98 0f be 1d d6 44 be
       -0.11148014 0.055444423 -0.14023077 -0.19222303
0003e0 87 3b 90 bd ae 38 f1 bb 4c a9 34 be 09 67 6e 3d
       -0.07042604 -0.007361493 -0.17642707 0.05820373
0003f0 b6 8c 05 3e 8b 68 5e be 7e 1d 31 3d 99 af 9a bd
       0.13041958 -0.21719567 0.043241017 -0.07553024

module.bi_lstm1.bias_ih_l0_reverse f4 [64]
000000 9a ed 89 bd 18 c6 4c 3e 39 15 0e 3e 70 fa 02 be
       -0.06734772 0.19997442 0.13875283 -0.12790847
000010 fb d6 2a be c6 0c 86 bd f2 0b 52 3e 9f f9 83 3d
       -0.16683571 -0.06545405 0.2051237 0.06444096
000020 f5 df 5c 3e 51 ac 5d bd aa b6 0b 3e 4c b3 2a bd
       0.21569808 -0.05411941 0.136439 -0.041674897
000030 43 e9 20 3e 07 0f 48 bd 40 1b 3c bd 96 8a 30 be
       0.15713982 -0.048842456 -0.045924425 -0.17240366
000040 48 94 07 3e e7 36 9f bd 57 71 ae 3d 1f ed e8 3c
       0.13240159 -0.07774144 0.085177116 0.02843338
000050 78 b9 6b 3e 82 2b d1 bc ca 90 be bd d0 eb f6 bd
       0.2301997 -0.025533441 -0.0930496 -0.120566964
000060 2b 5a 84 3e 12 5c 15 be e4 62 f6 3d 92 b9 6e bd
       0.25850043 -0.14585903 0.12030581 -0.058282442
000070 d5 29 c2 bd 0c 77 53 be 1e 38 5a 3e 99 aa 10 3e
       -0.09480635 -0.20650882 0.2131047 0.14127578
000080 d8 07 a8 3d f6 4c 53 be 55 b6 da bd b9 94 82 bd
       0.08204621 -0.20634827 -0.10679308 -0.06376023
000090 c8 55 d3 3c 8f 98 d3 bc 0b f7 6b 3d e6 2a 49 3e
       0.02579774 -0.025829582 0.057608645 0.1964527
0000a0 71 c7 0b bd c8 a3 64 be c8 4e 3e 3e fe 4c ad 3d
       -0.03412575 -0.22328103 0.1858474 0.08461951
0000b0 dd c1 02 3e 11 d1 2c be f2 63 1e bd 91 9c 55 3e
       0.12769265 -0.16876628 -0.038669534 0.20860507
0000c0 aa dc bd 3d 8e b3 e8 3d 2e 47 16 3e c1 d8 3f 3d
       0.09270604 0.11362372 0.1467559 0.046837572
0000d0 4b ba 69 3e 2d d3 38 3d 49 12 15 3d f0 1d 19 3e
       0.22824971 0.045123268 0.03639439 0.14952826
0000e0 41 27 cd 3d 63 f2 01 bd bf aa 94 3d 83 66 76 bc
       0.10017253 -0.0317253 0.0725913 -0.015039089
0000f0 8d e2 89 3d f7 3f 16 be 9d 20 bb bc 96 fd e7 bd
       0.06732664 -0.14672838 -0.0228427 -0.113276646

module.bi_lstm1.bias_hh_l0_reverse f4 [64]
000000 2b b5 cc bd 29 3f 38 be 5b 6d 60 3e b6 06 29 3a
       -0.099954925 -0.17992844 0.21916716 0.00064478384
000010 58 2c 5f 3e 57 9f 19 be 5c a3 06 bd b0 43 5b 3d
       0.2179426 -0.1500219 -0.032870635 0.05353135
000020 73 e6 0f 3e 8e c3 19 be 9f 95 07 be 81 44 50 be
       0.14052753 -0.15016004 -0.1324067 -0.20338632
000030 db 90 6b be 60 25 3c be 45 a1 2f be a1 51 8c 3d
       -0.23004477 -0.18373632 -0.17151363 0.06851507
000040 df bf 0a be 7d de 5e bd 7a 09 51 be f1 29 ce bb
       -0.13549756 -0.0544114 -0.20413771 -0.006291621
000050 eb e5 4d 3e fa c1 fc 3d 33 ed a6 3e 3e 75 85 3e
       0.20107238 0.123416856 0.32602844 0.2606601
000060 9d ab b6 3c 4c ed 5b be dd d2 0a 3e 20 cc 1e bd
       0.022298628 -0.2147724 0.13557 -0.038768888
000070 4b 5e 2c bd ec eb 33 3e 54 52 db 3d 78 45 1f be
       -0.042082112 0.17570466 0.10709062 -0.15553844
000080 45 83 15 3d b8 db b7 3d c4 df 72 be e8 ff 51 be
       0.03650214 0.08977455 -0.23718172 -0.20507777
000090 5e d9 06 bd 78 ac e1 3d bd 0e 82 3e 63 ee 66 3c
       -0.03292214 0.11019224 0.2540187 0.014094922
0000a0 d3 87 f4 3d 99 37 9e 3c da 9d bb 3d 5f c5 96 bc
       0.11939969 0.01931362 0.09160967 -0.01840466
0000b0 3b bf ed 3c 56 2d 87 3e 60 d7 68 be bf aa d9 bd
       0.02902185 0.26401776 -0.22738409 -0.1062827
0000c0 e4 83 1c be d7 12 b5 3c 9a 57 64 3e c2 1e 0d 3e
       -0.15284687 0.02210371 0.22299042 0.13781264
0000d0 89 46 1c bd f2 35 4b 3d fd 19 27 3e 11 f2 0c be
       -0.038153205 0.049611993 0.16318507 -0.13764216
0000e0 ca 6f 63 3e 22 91 59 3e 35 82 29 3d b1 5a 36 3d
       0.22210613 0.2124677 0.04138394 0.044520084
0000f0 8b 82 72 be 17 af a7 bd b2 70 e9 bd 79 c8 8d bd
       -0.2368261 -0.081876926 -0.11398448 -0.06923003

module.bi_lstm2.weight_ih_l0 f4 [128, 16]
000000 43 e2 58 3d 33 f7 01 be 0a ed 74 bd 5a 08 e6 bd
       0.052950155 -0.12691955 -0.05979637 -0.11232062
000010 44 cc 94 bc 3c 42 da bd 15 ed 8c bd fd b7 f4 bd
       -0.018163808 -0.106571645 -0.06881157 -0.119491555
000020 32 20 2a 3e 46 47 8f 3d 0c 35 80 bd d2 7e ef 3d
       0.16613844 0.06996016 -0.06260118 0.11694111
000030 95 54 19 bc 95 60 24 bc eb 80 a2 bd 35 44 a0 3d
       -0.009358545 -0.010032793 -0.079347454 0.078255095
000040 83 81 80 3c 0d c4 e3 bc 8c 84 ed 3b c9 9f 02 bc
       0.015686756 -0.027803445 0.007248467 -0.007972666
000050 6c 63 8d bc dd fc 46 3d b5 29 92 bc fd 3a c1 3b
       -0.017259322 0.048580993 -0.017842153 0.0058969245
000060 10 60 b8 3c a2 97 2c bc e9 c0 31 3b 5c 26 d8 3b
       0.022506744 -0.010534199 0.002712304 0.0065963697
000070 60 a8 ca bc 31 f0 b4 3c 28 eb b5 3c ba 50 90 bc
       -0.02473849 0.022087188 0.022206858 -0.017616618
000080 4f 5c 01 3c f7 3c bd bd 41 ac 1d bd fc 61 1b bb
       0.007895543 -0.09240144 -0.038494352 -0.0023709526
000090 66 d7 6b 3b 50 15 26 3d ca 6b 1b 3d 1e 90 64 bc
       0.0035986542 0.04054767 0.037944593 -0.013950376
0000a0 0c 3d 9e bd 9c 44 2f bb fd 1e 64 bd a0 e0 d9 bb
       -0.077264875 -0.0026743775 -0.055693615 -0.006649092
0000b0 80 ad 54 3b bd d9 0a bc 8e 89 54 3c db 89 42 bc
       0.0032452047 -0.008474764 0.012972249 -0.011873688
0000c0 29 a6 8d 3b 44 2f 29 3d 71 b0 0b bb 39 98 89 3d
       0.0043227863 0.04130484 -0.0021314884 0.06718487
0000d0 d1 a2 33 bd a5 88 6f bb 4f c1 08 bd 41 40 13 3d
       -0.043856446 -0.0036549952 -0.03338748 0.03594995
0000e0 0a 0a 9d 3d df d5 f4 3a 9c 8f 50 3d 35 a3 93 3c
       0.076679304 0.0018679461 0.050918207 0.01802216
0000f0 23 f3 6f 3c 25 27 44 ba c7 d3 da bc 90 7c 95 bc
       0.014645371 -0.00074826396 -0.026712311 -0.018247873
000100 b0 2e 34 bd 49 42 6a 3c c3 be 59 3d a3 b5 88 3d
       -0.043989837 0.01429803 0.05316044 0.066752695
000110 5e f6 92 3d e0 3c 4d 3d c3 01 37 bc 7e ac 5a bd
       0.07175897 0.050106883 -0.011169854 -0.053387158
000120 3a cb 02 be 19 a9 ef bc 9f 06 7d bd d0 ab bc bd
       -0.12772837 -0.029255437 -0.061773892 -0.09212458
000130 d3 1f 26 3c 0c 4a 60 3c ca 04 f2 3c fa 96 8e bd
       0.010139423 0.013689529 0.0295433 -0.0696239
000140 f7 3a ee 3c 4c f6 2e 3d 7d 87 53 bd 05 65 0a bd
       0.029080851 0.042715356 -0.051642884 -0.033787746
000150 dd 99 14 3d c5 a0 49 3d 66 10 be bc 9d 0a 35 3c
       0.036279548 0.049225587 -0.023201179 0.011049894
000160 d2 8f 28 3c f3 75 e8 3b cd b2 f3 bb fb 84 0f bd
       0.010288196 0.007094139 -0.007437086 -0.03503893
000170 cc 3f c2 3c 74 23 52 bb 47 88 31 bc e8 7f 2c bb
       0.023712061 -0.0032064589 -0.010835714 -0.0026321355
000180 ad 01 e2 3b ef e3 16 bd 62 da 3b 3d cc 47 ce bc
       0.0068971724 -0.03683847 0.045862563 -0.02518072
000190 bf d8 83 bc 0d 1d 57 bd 4c ca ff 3c 46 71 90 bc
       -0.016094564 -0.05251794 0.031224392 -0.017632138
0001a0 7f f8 14 bd d7 6e 16 bc 6e e3 8b bd ec c3 df bc
       -0.036369797 -0.0091817 -0.06830488 -0.027315103
0001b0 c2 ec 87 bb e1 90 e4 3c 70 d8 02 3d 87 ae f2 3c
       -0.004148097 0.027901115 0.031944692 0.029624237
0001c0 e9 66 d6 3b 8b 66 d6 bb a6 d2 49 ba 2b 3c d8 b9
       0.0065430296 -0.006542986 -0.00076989306 -0.0004124356
0001d0 a9 ef 04 bd 4e b3 08 3a 5b 6a 4b 3c 79 2a 1f 3c
       -0.03245512 0.0005214707 0.012415494 0.009714716
0001e0 4f ac ea 3c 8c 85 a3 bb fd 94 a8 bb 82 46 e7 3c
       0.028646616 -0.0049902853 -0.005144714 0.028231863
0001f0 21 07 b5 3a 6f f3 43 ba 38 f9 b6 bc 3c d3 9c bc
       0.0013811329 -0.0007474934 -0.022335634 -0.019143693
000200 87 53 1c bc 8e 7c 3f 3d 36 33 39 3d 68 2e 9c bd
       -0.009541399 0.046749644 0.045214854 -0.07626039
000210 26 a9 4e 3d 8d a0 b0 3d 14 72 e3 3d a8 04 10 bd
       0.05045428 0.08624373 0.11105743 -0.03516069
000220 ec 19 c4 bd 0f 89 25 bc 34 20 a0 3d 27 17 b4 3d
       -0.09575257 -0.010103478 0.07818642 0.087934785
000230 a5 08 61 bd 9e 68 45 3d 61 09 a4 bd 1d 06 b3 3c
       -0.054939885 0.048195474 -0.080096014 0.021853501
000240 2f 20 9d 3d 29 3e f4 3d bb b0 34 3d d3 dc 02 bd
       0.07672154 0.119259186 0.044113856 -0.031948876
000250 36 51 d1 bd c5 8d ba 3c 48 f5 9a 3d 2d 28 16 3d
       -0.10220568 0.02277268 0.07566315 0.03665941
000260 8c d5 ab 3d 32 b2 31 3d ee 37 eb bd 74 86 50 bc
       0.0839034 0.04338283 -0.11485277 -0.012727369
000270 40 14 04 3d e5 bb 35 bc 72 75 a1 3d a3 e6 99 3d
       0.032245874 -0.011092161 0.07883729 0.075146936
000280 6e ea 23 bd b7 5e 41 bd 70 6e 10 bd a9 31 9f bb
       -0.04001849 -0.047209468 -0.03526157 -0.004858215
000290 51 80 92 bd 97 d3 9f bd 38 d7 8e 3d 61 d1 80 bc
       -0.07153381 -0.078040294 0.069746435 -0.01572484
0002a0 89 c7 1c bd 7d 7f cd 3c ab 10 14 3c 70 60 41 bd
       -0.03827623 0.025085205 0.009037177 -0.04721111
0002b0 6b 7d 2b bb 0c 65 56 3a 4e 8b 74 bc 69 3b e1 3c
       -0.0026167284 0.00081785093 -0.014925791 0.02749415
0002c0 97 9e d3 bb c5 7b 95 3b 82 8a 7c bd 22 63 88 bd
       -0.0064581144 0.0045618736 -0.06165553 -0.06659533
0002d0 c8 54 a8 bb 4b 7b 14 3d 40 f4 b7 ba a4 91 13 bc
       -0.00513706 0.036250394 -0.0014034584 -0.009006891
0002e0 d1 c6 72 bd 7d 69 1e 3d 9d 67 73 bc 97 d0 92 bc
       -0.059271637 0.03867482 -0.014856246 -0.017921729
0002f0 3d ec 5e 3b 22 4e 75 3a 35 be ad bc 47 a4 3b bd
       0.003401532 0.0009357651 -0.021208862 -0.045810964
000300 08 7c 80 3b 27 ab 73 bd 52 45 d3 bc 4f 73 81 bd
       0.0039210357 -0.059489395 -0.02578989 -0.063208215
000310 5f 45 80 bd 8e be 26 3d a4 a5 d0 3c e8 f5 0d bd
       -0.062632315 0.04070907 0.025469609 -0.034658343
000320 d9 43 22 bd 79 ff fe bc c4 8b 4f b9 fc d9 2b bd
       -0.039615486 -0.031127678 -0.00019793125 -0.041955933
000330 42 07 2a bc 25 f4 d9 3b 09 f9 02 bd bc 76 95 bd
       -0.010377707 0.0066514187 -0.03197578 -0.072980374
000340 51 34 2c ba b6 c9 5e 3d 55 ed 65 bb e4 3e d3 bc
       -0.0006569075 0.054391585 -0.0035084088 -0.025786825
000350 4c 94 e8 3c f6 a3 14 3d eb 97 cf 3b 30 33 5f 3c
       0.028391026 0.036289178 0.0063352487 0.013623044
000360 e5 00 20 3d 28 ea 4f b8 35 b4 a3 bc 8a 09 12 3d
       0.039063353 -4.957072e-05 -0.01998339 0.03565363
000370 06 c6 e1 39 d5 43 be 3a fa 73 c3 3c 71 b8 69 3c
       0.00043062883 0.0014516065 0.023859013 0.014265166
000380 5b fe b7 bc 9a 77 71 bc 0d cf 4c 3d b5 f9 82 3c
       -0.022460153 -0.014737988 0.050002147 0.01598821
000390 40 3a 09 bb 44 21 0c 3d 8e 6f c6 3d f9 aa 19 bd
       -0.002093926 0.034211412 0.09689246 -0.037516568
0003a0 fd 0a c5 bd 78 e3 0a bd 45 4a 8c bd df 82 a7 3c
       -0.096212365 -0.033908337 -0.06850103 0.020448146
0003b0 b4 ea 31 bb 9d 65 98 bc b9 af b3 3c 3f 80 1f 3d
       -0.002714795 -0.01860314 0.021934377 0.038940664
0003c0 3d 31 05 bc 6b 35 2a 3d 0e d5 52 3b 4d fd eb 3c
       -0.008129415 0.04155485 0.0032170448 0.028807307
0003d0 0b 56 f4 3b 20 d1 03 ba 4f 95 78 bc a6 0b 52 3c
       0.007456546 -0.00050284155 -0.015172317 0.01282016
0003e0 28 4f 37 bd 8c 3a 38 bc cf 32 8b bb 3b c1 fe 3c
       -0.044753224 -0.011244427 -0.004248 0.031097999
0003f0 fc 63 c5 3c 32 1d 3c bc 2e a8 aa 3a 3d ba b5 3c
       0.024095528 -0.01148157 0.0013020092 0.022183532

module.bi_lstm2.weight_hh_l0 f4 [128, 32]
000000 61 6e cc 3c ba d5 13 35 11 80 19 34 00 a6 03 bc
       0.024954977 5.507278e-07 1.4295826e-07 -0.008035183
000010 97 ea 16 b3 3f 56 25 3c 1d 6b b8 b8 aa fa 6c ba
       -3.5137955e-08 0.010091363 -8.793755e-05 -0.00090400374
000020 07 38 e0 35 81 ee c2 bc 9e e1 06 b6 15 2f 63 3c
       1.6705607e-06 -0.023795368 -2.0098882e-06 0.013866206
000030 d1 44 ac b3 1e 83 09 bb 3c 13 f8 3b 47 63 1d b4
       -8.021892e-08 -0.0020982693 0.0075706523 -1.4657881e-07
000040 6f 1d 9b 3b 75 42 21 3b c0 f8 19 bc 3a 84 c9 3c
       0.0047337334 0.0024606262 -0.0093976855 0.024599183
000050 0e bb a1 3c b6 08 80 35 1e 39 ad ba d9 cf 1f b4
       0.019742515 9.539278e-07 -0.0013215875 -1.4883643e-07
000060 17 15 19 39 76 95 15 33 db ae 68 3b 7f b7 36 b4
       0.00014599074 3.48277e-08 0.0035504613 -1.7016826e-07
000070 31 3f bc 38 58 15 01 3c 58 29 46 b3 7f b8 03 b3
       8.976309e-05 0.007878624 -4.613807e-08 -3.0668613e-08
000080 88 a0 0d 37 49 6b 90 bc 5d 30 d1 bc 16 3e c7 35
       8.4416315e-06 -0.017629283 -0.025535757 1.4844725e-06
000090 09 e5 31 b3 68 4d 06 3c fb a7 57 b4 71 df 40 34
       -4.141933e-08 0.008197166 -2.0084546e-07 1.7962681e-07
0000a0 4d 6d 38 3b 5e 46 3d 37 71 1a 39 ba 2c 02 02 bc
       0.002814132 1.12816615e-05 -0.000706113 -0.007935088
0000b0 e9 c1 a3 b4 ca 66 7c 3c 47 72 65 bb 30 da b3 36
       -3.0502204e-07 0.015405366 -0.0035010742 5.360016e-06
0000c0 f8 9e 20 b5 5b fd a5 3c 21 ce ad b9 ed 88 48 bb
       -5.9835975e-07 0.02026241 -0.0003315071 -0.0030599192
0000d0 0d de 58 3c 5b 0a 2e b7 06 3b 6a b1 e0 67 a2 36
       0.013236535 -1.0373619e-05 -3.4085033e-09 4.840069e-06
0000e0 7e 7b a3 b3 90 df 02 32 d2 5a 4d ba 6a b1 0d 33
       -7.612742e-08 7.617828e-09 -0.00078336627 3.2990478e-08
0000f0 9c 2c 44 3b ce 42 f5 33 f2 08 04 b7 84 6e 37 b6
       0.0029933816 1.1420853e-07 -7.869896e-06 -2.7333454e-06
000100 88 d8 58 3c ac 3c 18 35 16 df 8d bb 3c de 43 bc
       0.013235219 5.67127e-07 -0.0043295724 -0.01195484
000110 9e 9f 90 39 58 ca 9f 3c 06 27 3a 3c 8d 93 f7 b5
       0.00027584744 0.019505665 0.011361843 -1.8445877e-06
000120 de 36 ab 3b ed 20 0b 32 90 38 2d b7 9c 2f 8d 32
       0.0052250465 8.098351e-09 -1.0324773e-05 1.643621e-08
000130 4a a3 fe b8 52 c9 d2 ba d7 d4 91 b5 ff 90 84 34
       -0.00012142079 -0.0016081727 -1.0865286e-06 2.4692415e-07
000140 20 36 4b b5 64 e9 87 3a 83 31 e1 b3 dc 3a 8d bb
       -7.5702155e-07 0.0010369238 -1.0486385e-07 -0.004309995
000150 e3 a0 c0 38 1f 18 5b bc 3c 5b 96 bc 7f b5 77 3c
       9.185241e-05 -0.01337245 -0.01835405 0.015118956
000160 5a 1e c0 3c 30 d2 48 34 06 e9 39 bc 1b 52 1d 37
       0.023451973 1.8702917e-07 -0.011347061 9.377046e-06
000170 39 4f f6 bb be 7e 8b 32 8e 67 0b bb bb 26 b0 bc
       -0.0075167683 1.6239365e-08 -0.002127144 -0.021502843
000180 9f d1 97 34 f3 03 a0 32 a5 f0 0c b2 81 41 6d 3b
       2.827846e-07 1.8628247e-08 -8.203789e-09 0.0036202373
000190 2c 8a e9 b2 32 15 e5 ba 36 a5 b9 37 9d f7 56 b6
       -2.7187603e-08 -0.001747763 2.213065e-05 -3.2032615e-06
0001a0 4c 9d 16 b8 49 20 86 b3 67 53 18 ba c3 14 e1 36
       -3.590928e-05 -6.245734e-08 -0.0005810768 6.7079395e-06
0001b0 50 77 64 3c 93 f9 2c 34 20 a1 6a 3c 3e ca 5c 3c
       0.013944462 1.6109543e-07 0.014320642 0.013475953
0001c0 b1 27 0b bc c5 85 c1 34 8e 12 82 b1 61 53 0b 34
       -0.00849335 3.6046382e-07 -3.7856074e-09 1.2975717e-07
0001d0 78 c9 66 3c ac 01 fe b8 7a 64 75 bc 9b 19 05 3c
       0.01408612 -0.00012111975 -0.014977569 0.008123781
0001e0 42 b0 c6 3b 0c d5 03 ba f3 ee 68 bc a5 39 cd 3a
       0.006063492 -0.0005029 -0.014217126 0.0015657438
0001f0 27 bb 25 36 d7 20 1c b7 8c 45 78 3b e0 e8 4e 3c
       2.4695853e-06 -9.305971e-06 0.003788325 0.012628764
000200 fa 6b 48 bc 59 b8 7e b4 5d 26 9a bc 94 fc f7 35
       -0.012232775 -2.3722659e-07 -0.018817121 1.8476444e-06
000210 43 5b c3 bc 69 7f 55 bc 18 8d d2 b2 be 94 96 3b
       -0.023847228 -0.013030865 -2.451138e-08 0.004595368
000220 bf f9 ff 38 4b ae 23 3c d7 41 9e bc 10 ef 1b b4
       0.000122058664 0.009990285 -0.019318504 -1.452247e-07
000230 73 87 c6 ba 74 99 08 3c 58 41 31 33 ba d1 b0 33
       -0.0015146568 0.008337367 4.1270454e-08 8.233788e-08
000240 33 ab 9c 3c c2 cf b5 34 2e fe 02 3b 5b 7f b8 3a
       0.019124603 3.386504e-07 0.0019987929 0.0014076041
000250 63 e7 4d 3b cb 76 68 38 46 50 c6 3a 0d 41 1c 3b
       0.0031418435 5.5423745e-05 0.0015130125 0.0023842484
000260 d6 76 8c 3c 44 87 d9 36 4d ce 0e bc a6 1a 96 bc
       0.01714651 6.482851e-06 -0.008716178 -0.018323254
000270 27 5c 6e bb 98 6a 9e bb c6 47 de ba 6f 39 2c 3b
       -0.0036370845 -0.0048344843 -0.0016958646 0.002627935
000280 04 0e e9 37 3d 5d 11 b8 27 a1 b6 3b 33 50 86 31
       2.7782291e-05 -3.465753e-05 0.00557341 3.909031e-09
000290 f6 10 a9 bb e1 d5 a2 bc 06 f7 7a 36 1f 91 9d 33
       -0.0051594926 -0.019877376 3.739669e-06 7.3372796e-08
0002a0 31 b7 5d 3c 67 76 b9 bc 13 c0 91 35 96 6e e8 bb
       0.013532446 -0.022639466 1.0859243e-06 -0.007093261
0002b0 f8 f0 74 3c a2 22 21 32 78 52 72 bb 57 1a 58 3b
       0.01495003 9.379308e-09 -0.0036975425 0.0032974684
0002c0 29 e3 e3 b4 e9 f5 82 bb 86 43 49 b8 4e ca 98 3c
       -4.2447326e-07 -0.0039966 -4.798502e-05 0.018651154
0002d0 d1 c7 2c bc 86 49 69 3c 62 48 88 33 07 3e cd 3c
       -0.010545687 0.014238721 6.34616e-08 0.025053991
0002e0 4b b8 e6 b5 61 23 62 b5 77 b4 d3 37 54 7a fb b3
       -1.7189972e-06 -8.4243044e-07 2.5237196e-05 -1.171035e-07
0002f0 84 4e 46 37 79 8b ab 3b de 6c 85 3c 59 00 27 b5
       1.18200005e-05 0.0052351323 0.016287263 -6.2212854e-07
000300 c1 1f 40 b2 88 b7 83 bc 31 c9 44 b7 62 97 87 3b
       -1.1183091e-08 -0.016078725 -1.1729354e-05 0.0041379193
000310 b6 2a dd 33 ba a2 2a b5 53 10 10 b3 8b 7b 5f b5
       1.02988835e-07 -6.3566733e-07 -3.354246e-08 -8.325375e-07
000320 9f 2c 9c b3 6f b3 67 bb 23 78 bf b8 a4 01 31 b7
       -7.2724326e-08 -0.0035354753 -9.129967e-05 -1.0550404e-05
000330 f9 e7 89 35 ce ab 78 b4 a6 07 85 3b 54 81 e9 32
       1.0274808e-06 -2.3159302e-07 0.0040597497 2.7183582e-08
000340 ce 5e a1 b2 32 f4 93 b9 da ca 52 b3 6d 8a 15 36
       -1.8785979e-08 -0.00028219965 -4.9078928e-08 2.2283305e-06
000350 7b a3 f4 b6 82 1c f0 b3 ac 3f cf bc 8a c6 b5 b7
       -7.2907983e-06 -1.11810564e-07 -0.025298916 -2.1669333e-05
000360 4f fd d8 b8 8d 45 84 bc fe e1 cd 33 01 ba 31 3c
       -0.00010346865 -0.016146446 9.587164e-08 0.010847569
000370 93 99 88 3b 38 49 8c 3c c7 f4 b2 36 67 63 84 34
       0.004168698 0.017124757 5.333309e-06 2.465924e-07
000380 0a e5 a1 b0 67 42 ce b4 c1 09 73 35 34 8f 68 33
       -1.1779389e-09 -3.8418804e-07 9.053875e-07 5.4146952e-08
000390 cd 24 ba 3c 37 76 43 bc f7 09 9e 3c 6a cd 3c bc
       0.022722626 -0.01193004 0.019291861 -0.011523584
0003a0 ce 58 55 b3 95 48 aa b1 9d 62 43 b7 1d 02 7e b4
       -4.9673694e-08 -4.955903e-09 -1.1645866e-05 -2.3656362e-07
0003b0 76 80 63 b3 e9 11 a9 34 3f 0f b4 bc a4 d1 c8 3c
       -5.296939e-08 3.1491734e-07 -0.021979926 0.024514027
0003c0 df d0 6c b3 c3 b9 31 3c ef 2d 72 b5 15 0f 0d 3b
       -5.5138e-08 0.010847512 -9.021887e-07 0.0021523882
0003d0 b2 e8 86 33 29 f9 d2 3c 85 39 2c 34 a8 4c fe 30
       6.282188e-08 0.025753574 1.6039674e-07 1.8502719e-09
0003e0 84 bb b7 34 7f c0 4a 3a 07 ac 58 34 fa 18 43 37
       3.4222842e-07 0.00077343726 2.0179151e-07 1.1628721e-05
0003f0 2a c0 e4 b4 83 a0 6d b3 c2 ac ae b4 7a 76 0b 3c
       -4.2608127e-07 -5.5326847e-08 -3.2535723e-07 0.008512134
