output/clip/FD001/exp_202411012108_bilstm_clip_ep-0083.pth (torch, 289762 bytes, 66 tensors)

module.bi_lstm1.weight_ih_l0 f4 [64, 14]
0	0x3e65ece9	0.22453655
1	0x3e0da9f3	0.13834362
2	0x3e735a27	0.23764859
3	0xbcc2e086	-0.023788702
4	0x3d8a7b2d	0.06761775
5	0x3e205643	0.15657906
6	0x3e0556e1	0.13021423
7	0x3d42c7e9	0.04755393
8	0x3e05f5fc	0.13082117
9	0x3e24d459	0.16096629
10	0x3e0a80f3	0.13525753
11	0x3e24cdbb	0.16094105
12	0x3dc039b1	0.09386004
13	0x3dbea6d3	0.09309163
14	0xbcf1a917	-0.029499574
15	0x3ce5f828	0.028072432
16	0xbc1ff38c	-0.009762656
17	0x3e8b4403	0.27200326
18	0x3de5f3e9	0.11228163
19	0x3e0fa9dc	0.1402964
20	0x3d5f9fe4	0.054595843
21	0x3e3683f9	0.17823781
22	0x3e1f9688	0.15584767
23	0x3e4688a4	0.19388062
24	0x3de502b6	0.11182158
25	0x3d97dc1c	0.074150294
26	0x3d8ab87d	0.067734696
27	0x3e76e3a4	0.24110276
28	0x3d10659d	0.035253156
29	0xbb72deb3	-0.0037059009
30	0x3e27dfe6	0.16394004
31	0x3e058561	0.13039161
32	0x3de21a8f	0.11040222
33	0x3e2e2d61	0.17009498
34	0x3da5ad8d	0.08089743
35	0x3cf7d2d0	0.03025189
36	0x3d855f5d	0.0651233
37	0xbca51108	-0.020149723
38	0xbcc5c1f0	-0.024140328
39	0x3e8b54ff	0.27213284
40	0x3db2bd9a	0.0872757
41	0xbde7fd3b	-0.11327597
42	0x387cc3bf	6.0263785e-05
43	0x3d09e430	0.033664882
44	0x3cf76243	0.030198222
45	0x3ab81a6b	0.0014045959
46	0x3d7959bd	0.060876597
47	0xbd4879c1	-0.04894424
48	0x3dc283bb	0.09497782
49	0x3d1d9bab	0.038478535
50	0x3db7f971	0.08983124
51	0xbd60159a	-0.0547081
52	0x3d784036	0.06060811
53	0x3e08a0ea	0.13342634
54	0x3df0e827	0.117630295
55	0x3dc276c1	0.09495307
56	0x3e26bff1	0.16284157
57	0x3e4f15b7	0.20223127
58	0x3da4b304	0.08041957
59	0xbce654b9	-0.02811657
60	0x3da6a77b	0.08137413
61	0xbd56622b	-0.052339714
62	0x3e63e91a	0.2225689
63	0xbdb1ae2d	-0.086757995
64	0x3e6f0199	0.23340453
65	0xbd1332a7	-0.035936978
66	0x3e4b4d0a	0.19853607
67	0x3dd19d0a	0.10235031
68	0x3db966cf	0.09052812
69	0x3e52c06d	0.20581217
70	0x3cae6543	0.02128852
71	0xbd1bae9c	-0.038008317
72	0x3dee87f6	0.11647026
73	0x3ba6074e	0.0050667888
74	0x3c4cba15	0.012495537
75	0x3da64c0e	0.08119975
76	0x3e308c44	0.17241007
77	0x3c8b8490	0.017030984
78	0x3d954ca6	0.0729001
79	0xbc23a4e8	-0.009988047
80	0x3d7109a3	0.05884708
81	0x3d9cca96	0.07655828
82	0xbd35271d	-0.044226754
83	0xbe008ab6	-0.12552914
84	0xbe244775	-0.16042884
85	0xbdbe5765	-0.09294013
86	0xbe08978a	-0.13339058
87	0x3cfaa64d	0.030596877
88	0xbdc20c0b	-0.09474953
89	0xbdd7c447	-0.10535484
90	0x3c203459	0.009778106
91	0xbb98df0e	-0.004665262
92	0x3d1c8ab3	0.03821821
93	0xbd924603	-0.0714226
94	0x3dd04b7c	0.101706475
95	0xbda56437	-0.08075755
96	0x3d5f3c05	0.0545006
97	0x3dae4f81	0.08511258
98	0xbdc677f0	-0.09690845
99	0xbce26fd5	-0.027641216
100	0xbdf15dbc	-0.117854565
101	0xbe850ec7	-0.25987837
102	0xbd19b341	-0.037524465
103	0xbe313a22	-0.17307332
104	0xbe22f1e5	-0.15912588
105	0x3cdd0ace	0.026982691
106	0xbe23fdae	-0.1601474
107	0xbe0a2aad	-0.13492842
108	0xbe3e1f3b	-0.18566601
109	0x3de9c894	0.1141521
110	0xbe671e76	-0.22570214
111	0xbe5a93f9	-0.2134551
112	0x3d9b8c9d	0.07595179
113	0x3ddaa03c	0.106750935
114	0x3e384190	0.1799376
115	0x3dba8ff4	0.09109488
116	0x3dd84d13	0.10561576
117	0x3d5500ae	0.0520026
118	0x3e1435dd	0.14473672
119	0x3c99fa81	0.018796207
120	0x3dc4f9ad	0.096179344
121	0x3d6b147f	0.057392593
122	0x3d4511e1	0.048112754
123	0x3cdd7a3a	0.027035821
124	0x3daed6fb	0.08537098
125	0x3db2c438	0.08728832
126	0x3e251b67	0.16123734
127	0x3e1ed9d7	0.15512787
128	0xbd279288	-0.040911227
129	0x3dc00d25	0.09377507
130	0x3bac0383	0.005249442
131	0xbd33a898	-0.043861955
132	0x3d696a62	0.05698622
133	0x3d8404d9	0.06446237
134	0xbcf6d058	-0.030128643
135	0xbd8804c2	-0.066415325
136	0x3e065d98	0.1312164
137	0xbb7c0249	-0.003845351
138	0x3e1b5c9c	0.15172046
139	0x3be8c195	0.007103155
140	0xbd1a0266	-0.037599944
141	0x3dd08715	0.10182015
142	0x3d630330	0.05542296
143	0x3d44c263	0.048036944
144	0xbcb9b367	-0.022668554
145	0x3e4bbf7e	0.19897267
146	0x3dddfd28	0.10839301
147	0x3db396d4	0.087690026
148	0x3c16c5b5	0.0092024105
149	0x3e6483c8	0.22315896
150	0x3d2483a9	0.040164623
151	0x3e076e80	0.13225746
152	0x3cf010ae	0.029304828
153	0x3d6c283c	0.057655558
154	0xbd9b8e48	-0.07595497
155	0x3dd510d0	0.10403597
156	0xbd80791d	-0.062731005
157	0xbc791cd8	-0.015204631
158	0x3e00d66a	0.12581792
159	0xbd377651	-0.04479057
160	0xbd8cf718	-0.06883067
161	0xbe73091c	-0.23733944
162	0xbcb61bad	-0.022229994
163	0x3c1b2057	0.00946816
164	0x3a2e78fc	0.00066556013
165	0x3ddce70c	0.10786256
166	0xbe0cd08a	-0.13751426
167	0xbd937102	-0.07199289
168	0xbd1a1262	-0.037615187
169	0x3df24182	0.11828901
170	0x3d9d3366	0.07675819
171	0x3dee9125	0.11648778
172	0x3bb51f42	0.005527408
173	0xbd123572	-0.0356955
174	0x3dff7876	0.12474148
175	0x3d515972	0.051110692
176	0x3e4bab73	0.19889621
177	0xbd05049e	-0.032475106
178	0x3e5f9405	0.21833809
179	0x3e80f00c	0.2518314
180	0x3d04e767	0.032447245
181	0xbd24ded5	-0.04025157
182	0xbc306867	-0.010767079
183	0x3d9484e4	0.072519094
184	0x3cc87b76	0.024472933
185	0x3d984cb3	0.07436504
186	0x3dad02d5	0.08447806
187	0x3cd6ff72	0.026244853
188	0x3d89285c	0.06697151
189	0x3debb8c4	0.115098506
190	0x3d8aabd8	0.06771058
191	0xbbfafe83	-0.0076597347
192	0x3d6ad964	0.057336226
193	0x3d82aa86	0.06380181
194	0x3da76722	0.08173968
195	0x3df2733b	0.11838385
196	0x3d438898	0.047737688
197	0x3d7190e5	0.058976073
198	0x3d7c32ab	0.06157176
199	0x3dbac9ec	0.09120545
200	0xbd72d9b4	-0.05928965
201	0x3e94ebaa	0.29086047
202	0x3dc5f56f	0.09665953
203	0xbd1fc977	-0.03901049
204	0x3c85e31f	0.016343651
205	0x3e936896	0.2879073
206	0x3a6ea004	0.00091028237
207	0x3d6b09db	0.057382446
208	0x3dab1aa9	0.083546944
209	0x3d5ca48b	0.053867858
210	0xbd6794aa	-0.05653826
211	0xbc86448b	-0.016390106
212	0xbcfbf806	-0.030757915
213	0x3d1f86da	0.038946964
214	0x3cfbbc6e	0.030729499
215	0x3b340b7c	0.0027472666
216	0xbd0b0267	-0.033937838
217	0x3dbb79f0	0.09154117
218	0xbbbe09cf	-0.005799509
219	0x3be47563	0.0069720014
220	0x3dbd5fb0	0.092467666
221	0x3d623742	0.05522848
222	0xbdd9d5d8	-0.106364906
223	0x3db674b0	0.08908975
224	0x3da00719	0.07813854
225	0xbbe31297	-0.0069297063
226	0x3e25118b	0.16119973
227	0xbcb2f642	-0.02184594
228	0x3e4dc9c9	0.20096506
229	0x3e48ef6a	0.19622579
230	0x3dabeedd	0.08395169
231	0x3d9ba9c3	0.07600739
232	0x3ea4a649	0.32158116
233	0x3e2ac24c	0.16675681
234	0x3e3fc2a1	0.18726589
235	0x3cc13e15	0.023589173
236	0x3e1c2085	0.1524678
237	0x3df65a7f	0.120289795
238	0x3e6d7638	0.23189628
239	0xbc063c36	-0.008193066
240	0x3df40d44	0.11916593
241	0x3e193333	0.14960937
242	0x3e4129ae	0.18863556
243	0x3daf2815	0.08552567
244	0x3e61b66c	0.22042245
245	0x3e907807	0.28216574
246	0x3e3c2657	0.18374
247	0x3e1016b7	0.14071165
248	0x3d5962e2	0.053072818
249	0x3ea12b16	0.31478184
250	0x3c005e8b	0.007835041
251	0x3d41a546	0.047276758
252	0x3e0cb3ef	0.13740514
253	0x3d41c3b6	0.047305785
254	0x3e374362	0.17896798
255	0x3df36340	0.11884165

module.bi_lstm1.weight_hh_l0 f4 [64, 16]
0	0xbdbe2dad	-0.09286056
1	0x3bb842a2	0.0056231776
2	0x3d80d061	0.06289745
3	0xbc12f030	-0.008968398
4	0x3d697d97	0.057004537
5	0x3c96c6b3	0.018405294
6	0x3d30090d	0.04297738
7	0x3aaa02cf	0.0012970808
8	0xbd2209c7	-0.039560106
9	0xbcb1181f	-0.021617947
10	0x3dc5826f	0.09644019
11	0x3d556fa1	0.05210841
12	0x3d471b19	0.048609827
13	0xbd123df3	-0.03570361
14	0xbb5f0c91	-0.003403459
15	0xbd7df7d7	-0.062003937
16	0x3d40b016	0.04704293
17	0xbdafe972	-0.08589448
18	0xbd4be587	-0.04977944
19	0x3dd75410	0.105140805
20	0x3ca18abd	0.019719476
21	0x3d84a636	0.06477015
22	0x3da8b567	0.08237725
23	0x3cbd349e	0.023096379
24	0xbd6dcd73	-0.05805726
25	0xbcc9cd30	-0.024633974
26	0xbc5160de	-0.012779443
27	0x3d0d74f9	0.034535382
28	0x3db6a55e	0.0891826
29	0x3ca4c17a	0.020111788
30	0xbc91cb29	-0.01779707
31	0xbd947658	-0.07249135
32	0xbdb79cbb	-0.08965441
33	0x3d68705f	0.05674779
34	0x3d4fdadd	0.050745834
35	0xbdef4584	-0.11683181
36	0x3c52cf04	0.012866739
37	0xbc0c7b59	-0.00857433
38	0xbb61e569	-0.0034469014
39	0xbb1e2982	-0.0024133627
40	0xbd761d32	-0.060086437
41	0x3bcfbbaf	0.0063395123
42	0x3dbeb8d3	0.09312596
43	0x3c64836c	0.013947349
44	0xbc966281	-0.018357517
45	0x3b1fc087	0.002437623
46	0x3c5b5335	0.013386537
47	0xbe101485	-0.14070328
48	0xbda264bd	-0.079293706
49	0x3d1170ed	0.035508085
50	0x3d178094	0.036987856
51	0x3d51e149	0.05124024
52	0x3d9402f7	0.07227128
53	0x3cca8bf1	0.024724932
54	0xbc120759	-0.008912885
55	0xbd0f856b	-0.035039347
56	0x3e0b458d	0.1360075
57	0xbba1d884	-0.0049391408
58	0x3db4d805	0.08830265
59	0x3c7a8168	0.015289642
60	0x3cf493d9	0.029855656
61	0x3d393570	0.045216978
62	0x3e1a63af	0.15077089
63	0xbdbeafc6	-0.0931087
64	0x3ce68b95	0.02814273
65	0x3d194a8d	0.037424613
66	0x3d9a7fd4	0.075439125
67	0x3d0f326a	0.034960188
68	0xbdb9d3d4	-0.09073606
69	0x3d4ab68e	0.049490504
70	0x3d43cac7	0.047800805
71	0x3cd6cd46	0.026220929
72	0xbd5cd1d2	-0.053911038
73	0x3cbd19f1	0.023083659
74	0x3d5182b0	0.051150024
75	0xbce57940	-0.028011918
76	0xbcfac627	-0.030612065
77	0xbda485bc	-0.0803332
78	0xbd83dccf	-0.064386
79	0xbd495283	-0.049150955
80	0xbddbc85b	-0.10731574
81	0x3e255103	0.16144185
82	0x3c24d9f8	0.010061733
83	0xbd4e3e06	-0.05035212
84	0x3c9eed52	0.019400273
85	0x3d2dd90b	0.042443316
86	0xbcf6fc8d	-0.030149722
87	0xbc760728	-0.015016355
88	0xbddee1ba	-0.10882898
89	0xbde4bd34	-0.111689
90	0x3dd1b5f7	0.10239785
91	0xbd77faa3	-0.06054176
92	0x3e246982	0.16055873
93	0xbd3c5a45	-0.045984525
94	0xbd15071c	-0.036383733
95	0xbd142243	-0.036165487
96	0x3b3b0d22	0.0028541763
97	0x3ca0e1f6	0.019638997
98	0xbdd56640	-0.10419893
99	0xbb0c5941	-0.0021415504
100	0xbd8c9878	-0.068650186
101	0x3c153881	0.00910771
102	0x3c319562	0.010838838
103	0x3aff095c	0.0019457745
104	0xbd975bdf	-0.0739057
105	0xbd88b870	-0.06675804
106	0xbd894ce5	-0.067041196
107	0x3ca853ee	0.020547833
108	0x3d7a7cfe	0.061154358
109	0x3b8ad1ae	0.0042364215
110	0xbcc9754b	-0.024592062
111	0x3d88d1f7	0.066806726
112	0xbaa2612b	-0.0012388577
113	0x3d976c61	0.073937185
114	0xbce0e899	-0.027454661
115	0xbdbd112e	-0.092317924
116	0x3d137de5	0.036008734
117	0x3d2d8893	0.042366575
118	0xbdb0c067	-0.08630448
119	0xbbffb342	-0.0078033516
120	0xbdcf38cd	-0.10118256
121	0xbdaeb824	-0.08531216
122	0xbd221a9f	-0.03957617
123	0xbd0d369c	-0.034475908
124	0x3db489a4	0.08815315
125	0xbc5ac6c1	-0.013353051
126	0xbd616a64	-0.055033103
127	0x3d1400a5	0.036133427
128	0xbde170f6	-0.11007874
129	0x3e0e60ec	0.1390416
130	0x3d916e11	0.071010716
131	0x3d9912f8	0.07474321
132	0x3dbb6749	0.091505595
133	0x3dab2181	0.08356
134	0x3d6c7516	0.05772885
135	0x3d3568d7	0.044289436
136	0xbb17eeac	-0.002318303
137	0xbc74c004	-0.014938358
138	0xbdddac11	-0.10823835
139	0x3da915f9	0.08256144
140	0x3e0e2527	0.1388136
141	0xbda96e56	-0.08272998
142	0xbd8ee8b0	-0.06977975
143	0x3e1c76c1	0.15279676
144	0xbd55f78d	-0.052238036
145	0xbd8f563d	-0.069988705
146	0xbd00a25e	-0.031404845
147	0x3d922d14	0.07137504
148	0x3d2c5a6d	0.042078424
149	0x3dd6ec96	0.10494344
150	0x3d2e4443	0.04254557
151	0x3ccac07e	0.02474999
152	0xbd95c373	-0.073126696
153	0xbd06ed75	-0.0329413
154	0xbe2c9ce2	-0.16856721
155	0x3d84e487	0.06488901
156	0x3df7a6ed	0.120923854
157	0x3ccb05c9	0.024783032
158	0xbe1429fc	-0.14469141
159	0x3df078c2	0.11741783
160	0xbd8aa3a7	-0.067694955
161	0x3d0476be	0.032339804
162	0x3dcf5380	0.10123348
163	0x3e041677	0.12899195
164	0x3de93a3e	0.11388062
165	0x3dc02479	0.093819566
166	0x3e09db96	0.13462672
167	0x3d980290	0.07422364
168	0xbc37940d	-0.011204732
169	0x3d59a14a	0.053132333
170	0xbe94c32c	-0.29055154
171	0x3d664877	0.05622145
172	0x3e1a6675	0.15078147
173	0xbccb3c7c	-0.024809115
174	0xbc23ce4c	-0.0099979155
175	0x3e20f311	0.15717722
176	0xbb9cd6a8	-0.004786331
177	0x3ddaa12b	0.106752716
178	0xbc9f6f89	-0.019462364
179	0xbc95ea4a	-0.018300194
180	0x3d56cae6	0.052439593
181	0xbd8411c1	-0.06448699
182	0xbc2a33d9	-0.010388338
183	0xbb2d7e2e	-0.0026472914
184	0xbd507ed9	-0.05090222
185	0xbd9e2c94	-0.07723346
186	0xbd21303f	-0.03935265
187	0x3c948693	0.018130576
188	0x3cea3ad3	0.028592503
189	0xbcf5d77b	-0.030009976
190	0xbd29f871	-0.041496698
191	0x3cf729e3	0.03017134
192	0x3d566ea0	0.052351594
193	0xbdfa59df	-0.12224173
194	0xbd23bb5f	-0.039973613
195	0x3da20482	0.07911016
196	0xbcad0112	-0.021118674
197	0xbd163624	-0.036672726
198	0x3c5c98bc	0.013464149
199	0x3c0cc9f2	0.008593069
200	0xbe1e1686	-0.1543828
201	0xbe05fb85	-0.13084228
202	0xbda5e524	-0.08100346
203	0xbdc059ab	-0.09392103
204	0x3dc0e57e	0.09418772
205	0x3d6f9239	0.05848906
206	0xbe3bf7e4	-0.18356282
207	0xbc2a744e	-0.010403706
208	0xbbf53338	-0.0074829124
209	0x3d0c7aee	0.034296922
210	0x3a2abfb3	0.0006513551
211	0x3dba6a49	0.091023035
212	0x3be63fa6	0.0070266305
213	0x3c6fb856	0.014631351
214	0x3cd58e3b	0.026068797
215	0xbc0969a8	-0.008387007
216	0xbc9a9272	-0.018868659
217	0xbcb4fc74	-0.022093035
218	0xbdeff398	-0.11716384
219	0xbc4314f4	-0.011906851
220	0x3dd52b42	0.104086414
221	0x3b4fab41	0.0031687769
222	0xbd9df680	-0.07713032
223	0x3c35c273	0.011093724
224	0xbd5bf6e1	-0.05370224
225	0x3be8294f	0.0070850025
226	0x3d4d9d58	0.050198883
227	0x3e88c841	0.26715282
228	0x3cd12088	0.025528207
229	0x3d76c24d	0.060243893
230	0x3d8303b1	0.063971885
231	0x3cc4907a	0.023994673
232	0x3e36cc92	0.17851475
233	0x3d62c298	0.05536136
234	0x3d611795	0.05495413
235	0x3a1e9d7c	0.00060506887
236	0x3d369046	0.044571184
237	0x3d095356	0.03352674
238	0x3dfd8f58	0.12380856
239	0x3d86be4f	0.06579267
240	0x3e05d3f3	0.13069133
241	0xbe281811	-0.1641543
242	0xbdc572e1	-0.09641052
243	0x3d9cc940	0.07655573
244	0xbd85f4ef	-0.06540858
245	0xbc76397f	-0.015028357
246	0x3d374280	0.044741154
247	0xbb40a283	-0.002939374
248	0x3c3d6a34	0.011560965
249	0x3be1a8c9	0.006886576
250	0xbe32a8af	-0.1744716
251	0xbd3ec3e6	-0.046573542
252	0xbdeee4c6	-0.11664729
253	0x3e1c7b27	0.15281354
254	0xbb3f096d	-0.0029149905
255	0x3d0ba8bb	0.03409646

module.bi_lstm1.bias_ih_l0 f4 [64]
0	0x3e6f2d45	0.23357113
1	0x3e4331be	0.19061944
2	0x3dacc12a	0.084352806
3	0x3c9e9895	0.019359866
4	0xbd844e6b	-0.064602695
5	0x3e0a9f19	0.13537253
6	0xbdc931ad	-0.09823928
7	0xbc886a7e	-0.016652342
8	0x3dde4857	0.108536415
9	0x3b9c6454	0.004772702
10	0x3e03feee	0.12890217
11	0xbcb42214	-0.021988906
12	0x3e4fd67d	0.20296665
13	0x3e2ad5bc	0.16683096
14	0x3db7105b	0.089386664
15	0x3d88278a	0.066481665
16	0x3e0386c6	0.1284438
17	0x3e888742	0.26665694
18	0xbce48455	-0.027895132
19	0x3e8c69e3	0.27424535
20	0x3d7bc92d	0.061471153
21	0x3da794ab	0.08182653
22	0x3d21a79c	0.039466485
23	0x3d9dd76c	0.07707104
24	0x3dccf998	0.10008544
25	0xbb148bb1	-0.002266627
26	0x3e2ea4a2	0.1705499
27	0xbdc4d99b	-0.096118174
28	0x3ded995b	0.11601516
29	0xbbb670e6	-0.0055676578
30	0x3ddbef69	0.10739023
31	0x3ea5bec4	0.32372105
32	0x3d4bac8a	0.049725093
33	0xbe347421	-0.17622425
34	0x3e49ea8a	0.19718376
35	0x3d072abe	0.032999747
36	0x3e221b24	0.15830666
37	0x3e362b16	0.17789873
38	0x3db55146	0.08853392
39	0xbc62f768	-0.013852932
40	0x3e3b8d2c	0.18315572
41	0x3e72c98b	0.23709695
42	0xbe68677a	-0.22695723
43	0x3e350441	0.17677404
44	0xbd063808	-0.03276828
45	0x3e318109	0.1733438
46	0x3d898e55	0.06716601
47	0xbe4c4d05	-0.19951256
48	0x3d7e409a	0.062073328
49	0x3d9792aa	0.07401021
50	0xbdf7ecbd	-0.12105701
51	0x3e0f875e	0.14016482
52	0x3e10291c	0.14078182
53	0x3d7bc3f1	0.06146616
54	0x3c929095	0.017891208
55	0xbd8bb4af	-0.06821572
56	0x3dd91fc2	0.106017604
57	0x3e068147	0.13135253
58	0x3d30474f	0.043036755
59	0x3cdd7278	0.027032122
60	0x3e1aab3e	0.15104386
61	0xbcce9158	-0.02521579
62	0xbcf6fabe	-0.03014886
63	0x3d7f3a4b	0.062311452

module.bi_lstm1.bias_hh_l0 f4 [64]
0	0xbce7933c	-0.028268449
1	0x3e9ec8cc	0.3101257
2	0x3e367da5	0.17821367
3	0x3e4cb010	0.19989038
4	0xbdb4b534	-0.08823624
5	0x3d8f37f4	0.06993094
6	0x3c0a830e	0.008454097
7	0xbe51b2be	-0.20478341
8	0x3dba8159	0.09106702
9	0x3e05a624	0.13051659
10	0xbccbe13c	-0.024887674
11	0x3c9d9bf9	0.019239413
12	0x3e5d1bb1	0.21592595
13	0x3db93905	0.09044079
14	0x3d5ddfab	0.054168385
15	0x3d9357f7	0.07194512
16	0xbda42240	-0.08014345
17	0x3d1fe8ca	0.039040364
18	0xbdd8e939	-0.10591359
19	0x3e3554e6	0.17708167
20	0xbe0ebec1	-0.13939954
21	0xbd096565	-0.033543963
22	0xbcbd801a	-0.023132373
23	0x3df362e0	0.11884093
24	0x3dd6957b	0.1047773
25	0x3d0716d1	0.032980744
26	0x3dfde1d4	0.12396589
27	0x3df7a3fe	0.12091826
28	0x3dc8abbd	0.097983815
29	0x3dc7e333	0.09760132
30	0x3cd712cc	0.02625408
31	0x3e260d51	0.16216017
32	0xbe24c3fb	-0.16090386
33	0xbd1a5fba	-0.03768895
34	0xbc22b4f4	-0.009930838
35	0x3d467693	0.048452925
36	0x3cf37e21	0.029723229
37	0xbd621b19	-0.055201624
38	0x3e2c71e5	0.16840322
39	0x3e3549ac	0.17703885
40	0x3e1a5ac2	0.15073684
41	0xbe11ef5a	-0.14251462
42	0x3e3e423b	0.18579952
43	0x3e3f49dd	0.1868052
44	0xbe6b526c	-0.2298066
45	0x3c1e692d	0.009668631
46	0x3cf86b80	0.030324697
47	0xbdb242be	-0.08704136
48	0xbc570661	-0.013124079
49	0x3e111e5f	0.14171742
50	0xbb845856	-0.004038851
51	0x3e0be07d	0.13659854
52	0xbda9bd00	-0.08288002
53	0x3d0ce111	0.034394328
54	0x3d8ba9a9	0.068194695
55	0xbdae22a5	-0.08502702
56	0x3db8baad	0.090199806
57	0xbddff5ae	-0.109355316
58	0x3e4af657	0.19820534
59	0xbcf2de40	-0.029646993
60	0x3eb43d12	0.35202843
61	0x3dab959f	0.08378147
62	0x3d6a409a	0.057190515
63	0xbdd946a4	-0.10609177

module.bi_lstm1.weight_ih_l0_reverse f4 [64, 14]
0	0xbbea9069	-0.0071583283
1	0xbe5da362	-0.21644357
2	0x3e4ee75a	0.20205441
3	0x3d30ce10	0.043165267
4	0xbe500f7e	-0.2031841
5	0xbea5efb8	-0.32409453
6	0xbe3474af	-0.17622636
7	0x3c36d944	0.011160199
8	0xbe12b72e	-0.1432769
9	0xbd554778	-0.05207011
10	0xbe462bd7	-0.19352661
11	0xbcab6486	-0.020921957
12	0xbd7bd933	-0.061486434
13	0xbc4a14a8	-0.012334026
14	0x3e222cfd	0.15837474
15	0x3e69a310	0.2281611
16	0x3bbc7656	0.0057514114
17	0x3df73d5c	0.1207225
18	0x3bfa30d4	0.0076352153
19	0x3e517c3f	0.20457552
20	0xbe254d6a	-0.16142812
21	0x3ed5e9d8	0.4177997
22	0xbcfedf62	-0.031112377
23	0x3e97e52e	0.29667038
24	0x3de7c133	0.11316147
25	0x3e7197a3	0.23593001
26	0x3ecf4c76	0.40488023
27	0x3e9c25a9	0.30497482
28	0xbda27c22	-0.07933833
29	0xbe17adae	-0.14812347
30	0x3d9f81ba	0.07788415
31	0xbd997ecf	-0.0749489
32	0xbe751660	-0.23934317
33	0xbe603e55	-0.21898778
34	0xbd86642c	-0.06562075
35	0x3e1779e0	0.14792585
36	0xbe88a142	-0.2668553
37	0x3d0ac975	0.03388353
38	0xbe4eaeb0	-0.20183825
39	0xbe1d8841	-0.15384008
40	0x3e404d96	0.18779597
41	0x3debd5b9	0.11515374
42	0xbd9deadd	-0.07710812
43	0x3e429b2a	0.19004503
44	0x3debe398	0.115180194
45	0x3e183b19	0.14866294
46	0x3d1090fe	0.035294525
47	0x3db3ee70	0.08785713
48	0xbe8e1ca3	-0.27756223
49	0xbc45fea9	-0.0120846415
50	0x3de4f589	0.111796446
51	0x3e42c7cc	0.19021529
52	0xbca086ec	-0.019595586
53	0x3cc6aac5	0.024251351
54	0xbd9e109a	-0.0771801
55	0x3dc15143	0.094393276
56	0xbc6ac59c	-0.01432934
57	0x3cb43d09	0.02200176
58	0xbd9573a5	-0.07297448
59	0xbe5e850a	-0.21730438
60	0xbe144c3b	-0.14482205
61	0xbd089ee7	-0.033354666
62	0x3dd95240	0.10611391
63	0x3d97ba23	0.0740855
64	0x3e4d9eaf	0.20080064
65	0xbdb81067	-0.089875035
66	0x3da5ddfb	0.0809898
67	0x3deae1a5	0.114688195
68	0x3cf1b6aa	0.029506046
69	0x3e28001f	0.16406296
70	0x3e2e9f57	0.17052971
71	0x3e4dac6a	0.20085302
72	0x3e82f218	0.25575328
73	0x3ddc35bd	0.10752437
74	0x3eb9157c	0.36149204
75	0xbe135db9	-0.14391221
76	0x3ebb07cf	0.36529395
77	0x3da42771	0.08015335
78	0xbc23d9b6	-0.010000637
79	0xbe06c7c6	-0.13162145
80	0x3e497301	0.19672777
81	0x3e6d3792	0.2316573
82	0x3e2f5c59	0.17125072
83	0x3c5f2aff	0.013621091
84	0xbe36b762	-0.17843392
85	0xbcc141b4	-0.0235909
86	0xbdcde214	-0.100528866
87	0x3d8cc070	0.06872642
88	0x3e623ce9	0.22093548
89	0xbd254521	-0.04034913
90	0x3d7d0ddb	0.06178079
91	0xbdcdfdf9	-0.10058207
92	0x3e3d4f5a	0.18487301
93	0x3d9f8438	0.077888906
94	0xbd1c5993	-0.038171362
95	0xbe45644d	-0.19276543
96	0xbe3e7832	-0.18600538
97	0xbe6d5fee	-0.23181126
98	0x3e64087f	0.22268866
99	0x3dcf6cc3	0.101281665
100	0xbe2ac093	-0.16675024
101	0xbcdbf11f	-0.026848374
102	0x3cd03bcf	0.025419144
103	0x3d960ffd	0.07327268
104	0xbe3c3432	-0.18379286
105	0x3d82ee06	0.063930556
106	0x3de8024f	0.11328565
107	0xbca8ddc4	-0.020613559
108	0xbe947760	-0.28997326
109	0xbe086c50	-0.13322568
110	0x3e1abfed	0.15112276
111	0xbe785082	-0.24249461
112	0x3e9a95c6	0.30192393
113	0xbdc176f3	-0.09446516
114	0x3e08d253	0.13361482
115	0x3e6c163b	0.23055355
116	0xbcf6111d	-0.030037457
117	0x3dae1ddf	0.08501791
118	0x3d118335	0.03552552
119	0xbe0523a4	-0.13001877
120	0x3e375f55	0.1790746
121	0x3d9937d8	0.074813545
122	0x3d937b42	0.07201244
123	0xbe10045b	-0.14064161
124	0xbe277c5a	-0.1635603
125	0xbc13e009	-0.009025582
126	0x3c729af8	0.014807455
127	0x3e00d38a	0.12580696
128	0x3decbdf8	0.11559671
129	0x3db0e90f	0.086382024
130	0xbe3252f9	-0.17414464
131	0x3e33bb55	0.1755193
132	0xbd14a061	-0.03628576
133	0xbe2a6312	-0.16639355
134	0x3d3e9352	0.046527214
135	0x3d0f2bf2	0.03495402
136	0xbe412249	-0.18860735
137	0x3d81d755	0.063398995
138	0xbe210e99	-0.15728225
139	0xbe486c57	-0.19572578
140	0xbdab289a	-0.083573535
141	0x3db45ede	0.08807157
142	0x3e91cb3e	0.28475374
143	0x3e6512c0	0.22370434
144	0x3d9d3dd9	0.07677812
145	0xbda83989	-0.08214099
146	0xbe2f33e9	-0.17109646
147	0x3d4b801d	0.049682725
148	0x3d135f29	0.035979424
149	0x3a8f3769	0.0010926548
150	0x3e56f4a8	0.20991766
151	0xbd615487	-0.055012252
152	0x3e5de2d4	0.2166856
153	0xbdbab947	-0.0911737
154	0xbc4f4b9d	-0.012652305
155	0xbd25b05e	-0.0404514
156	0x3e4e6082	0.20154002
157	0x3dfdb8db	0.12388774
158	0x3e745263	0.23859553
159	0xbe2e6bea	-0.17033353
160	0x3e4a1a47	0.19736587
161	0x3da29b92	0.07939829
162	0x3e9699fc	0.29414356
163	0xbea52e0c	-0.32261693
164	0x3e854cac	0.26035058
165	0x3d6c6750	0.057715714
166	0x3e719909	0.23593535
167	0xbd08087a	-0.03321121
168	0x3cc70655	0.024295012
169	0xbd980249	-0.07422311
170	0xbe1206a6	-0.14260349
171	0x3e0c0743	0.13674645
172	0xbcf37f0a	-0.029723663
173	0x3d4fcc0a	0.050731696
174	0xbd2abe81	-0.041685585
175	0x3e5273b8	0.20551956
176	0xbdca73fc	-0.098854035
177	0x3c8fcdcb	0.017554184
178	0xbe1d42d8	-0.1535753
179	0x3c965acc	0.018353842
180	0x3e33500a	0.17511001
181	0x3e845432	0.25845486
182	0x3d9947fb	0.07484432
183	0x3e8d7fab	0.27636465
184	0x3e985f2c	0.2976011
185	0xbca6530b	-0.02030327
186	0x3ea08a8a	0.31355697
187	0x3d5f330e	0.05449205
188	0x3e7136c5	0.23556049
189	0xbe349041	-0.17633153
190	0x3e660ee6	0.22466621
191	0xbd8ba4ac	-0.06818518
192	0x3d8a88c1	0.06764365
193	0x3e71e308	0.23621762
194	0xbe0b82b5	-0.1362408
195	0xbe2ac4d9	-0.16676654
196	0xbdc537c5	-0.09629778
197	0x3db8ac10	0.09017193
198	0xbe4f702d	-0.20257635
199	0xbcc3b07c	-0.023887865
200	0xbe9ab450	-0.30215693
201	0xbe818bfd	-0.25302115
202	0xbea35d29	-0.31907013
203	0xbd26e7d3	-0.04074843
204	0xbe1802b0	-0.14844775
205	0x3d3bf2e8	0.04588595
206	0x3b9ec610	0.0048453882
207	0x3db88684	0.09010032
208	0xbe2d80e2	-0.16943696
209	0x3e1d36b0	0.15352893
210	0x3e8298e0	0.2550726
211	0xbdc3d792	-0.09562601
212	0x3dda8258	0.10669392
213	0x3bc35cc9	0.0059619886
214	0x3dd15880	0.10221958
215	0x3cbb1a60	0.022839725
216	0xbdc01e3d	-0.093807675
217	0x3d39e098	0.045380205
218	0x3e82e9c7	0.25568983
219	0x3de930f7	0.113862924
220	0x3e6a2ddc	0.22869056
221	0xbb8c794c	-0.0042869207
222	0xbcc1f345	-0.02367557
223	0x3e32e3f3	0.17469768
224	0xbdf07746	-0.117414996
225	0x3e2d3b32	0.16917112
226	0x3e6bc3ed	0.23023959
227	0x3e4ec4ea	0.20192304
228	0x3e448ec0	0.1919508
229	0xbe068522	-0.13136724
230	0x3d3484b5	0.04407187
231	0x3cbf1801	0.023326876
232	0x3def9828	0.116989434
233	0xbdfa9cd1	-0.122369416
234	0xbe192c5f	-0.14958332
235	0x3e80ad91	0.2513242
236	0xbdffc72e	-0.124891624
237	0xbcc856f3	-0.024455523
238	0x3e0270d8	0.12738359
239	0x3b9625e0	0.004582152
240	0xbd04f252	-0.032457657
241	0x3e6f67f1	0.23379494
242	0xbe101356	-0.14069876
243	0xbe06e85a	-0.13174573
244	0xbe4611ca	-0.19342723
245	0x3e124734	0.14284974
246	0xbdd3c51a	-0.103403285
247	0x3e99f621	0.30070594
248	0x3e599d2b	0.21251361
249	0x3e239e73	0.15978412
250	0x3e9824f6	0.297157
251	0x3dab515b	0.08365127
252	0xbae38305	-0.0017357772
253	0x3dea5306	0.11441617
254	0x3e0c69e6	0.13712272
255	0x3de3b5fe	0.11118697

module.bi_lstm1.weight_hh_l0_reverse f4 [64, 16]
0	0xbd822793	-0.063552044
1	0xbe693a61	-0.22776176
2	0xbba22d6e	-0.0049492633
3	0xbe38da7a	-0.18052092
4	0x3d976ab0	0.07393396
5	0x3d933a0e	0.071888074
6	0x3e6fddc7	0.23424445
7	0x3d34f1d8	0.044175953
8	0xbe7c49c1	-0.2463751
9	0x3de45e2e	0.11150776
10	0x3e3aac93	0.18229894
11	0xbccd28ba	-0.025043834
12	0xbe4b0abc	-0.19828314
13	0x3e575b5b	0.21030943
14	0xbd30c709	-0.043158565
15	0x3de780cc	0.11303863
16	0xbdcce5a9	-0.10004742
17	0x3da5a009	0.08087165
18	0xbe6f16d5	-0.23348553
19	0xbd687a8c	-0.056757495
20	0x3d01aa35	0.031656463
21	0xbdadf1f9	-0.08493418
22	0xbdecd6f8	-0.115644395
23	0xbe3c0ca5	-0.18364199
24	0x3e4d5eb9	0.20055665
25	0xbe02af41	-0.12762167
26	0x3e6cf56d	0.23140498
27	0x3d449315	0.04799183
28	0xbda3700b	-0.07980355
29	0x3d67c9e3	0.05658902
30	0xbd84a022	-0.064758554
31	0x3c19bc6b	0.009383301
32	0x3d6f9275	0.05848928
33	0xbe24463f	-0.16042422
34	0x3d793a74	0.06084676
35	0x3db2cfa8	0.087310135
36	0xbcea8e75	-0.028632382
37	0xbddd9d0b	-0.10820969
38	0x3d9108ed	0.070817806
39	0xbca9b5e5	-0.020716617
40	0xbd935036	-0.071930334
41	0x3d7c1c91	0.06155068
42	0x3da151fb	0.07876965
43	0x3cb1fc3e	0.021726724
44	0xbe3d0501	-0.1845894
45	0x3e4704af	0.1943538
46	0xbc99fd0b	-0.018797418
47	0xbd255ee6	-0.040373705
48	0xbd35323b	-0.044237357
49	0x3ce51df0	0.027968377
50	0xbdbd37b8	-0.09239143
51	0xbd58e2dd	-0.05295073
52	0x3e43ecdd	0.19133325
53	0x3dbb0639	0.09132046
54	0x3e5ca03f	0.21545504
55	0x3d828266	0.06372528
56	0x3e4514e8	0.19246256
57	0xbda08e6b	-0.07839664
58	0xbd1f5fd5	-0.038909752
59	0x3ebb308d	0.3656048
60	0x3eb441a0	0.35206318
61	0xbe221300	-0.1582756
62	0xbd04da64	-0.032434836
63	0x3d8b39f8	0.06798166
64	0xbdebb6f1	-0.11509503
65	0xbe424776	-0.18972573
66	0xbd9c7263	-0.07639005
67	0x3c2e4d0c	0.010638487
68	0x3e037167	0.12836228
69	0x3dd824c1	0.10553885
70	0x3d53ccf9	0.05170915
71	0x3e61209d	0.21985097
72	0xbb6ff990	-0.0036617257
73	0xbd42025b	-0.047365528
74	0x3dbbaee4	0.09164217
75	0x3cd74fb2	0.026283119
76	0xbd23fd6b	-0.0400366
77	0xbdacf60b	-0.084453665
78	0x3de69fe9	0.11260969
79	0x3e7a46eb	0.24441116
80	0xbbb45913	-0.0055037825
81	0xbe66cc5c	-0.22538894
82	0x3b4b97a4	0.0031065727
83	0x3d612d55	0.054974873
84	0xbbd7e7d1	-0.006588914
85	0xbd8d8616	-0.069103405
86	0xbcc91874	-0.024547793
87	0x3c8d2cf2	0.017233346
88	0xbe69eebb	-0.22844975
89	0xbda18e65	-0.07888488
90	0xbd81b1db	-0.06332751
91	0xbd22c9c8	-0.039743215
92	0xbe6abc7a	-0.2292346
93	0x3e438c30	0.19096446
94	0x3cd8c6b9	0.026461946
95	0x3cd39d4a	0.025831837
96	0xbe9e47de	-0.30914205
97	0x3e75778f	0.23971389
98	0x3e5ebb19	0.2175106
99	0x3d05e2cc	0.032686993
100	0x3f0a3263	0.53983134
101	0x3f018c1b	0.5060441
102	0x3e4dea41	0.20108892
103	0x3d9fd6df	0.07804655
104	0xbc039267	-0.0080305105
105	0x3e863318	0.26210856
106	0x3de13aef	0.10997569
107	0x3ef67d86	0.48142642
108	0x3e850451	0.25979856
109	0xbf0ddb5d	-0.55412847
110	0x3e3ac3ba	0.18238726
111	0x3e02f4d7	0.12788711
112	0xbe2400fd	-0.16016002
113	0x3e1cc29c	0.15308613
114	0x3d164a99	0.036692236
115	0xbe26095d	-0.1621451
116	0x3e99665b	0.29960904
117	0x3eb54469	0.35403755
118	0x3e54f2f2	0.20795801
119	0x3dd5166b	0.104046665
120	0x3e66eed8	0.22552049
121	0x3c03014f	0.007995917
122	0x3cd8d310	0.02646783
123	0x3e9b2a98	0.30305934
124	0x3ecd7da9	0.40134934
125	0xbeb2f246	-0.34950465
126	0x3bf03582	0.0073305974
127	0x3da49aa5	0.080373086
128	0x3c89ec90	0.016836435
129	0x3e295cb5	0.16539271
130	0xbd8fd747	-0.07023483
131	0x3b8ca031	0.0042915572
132	0x3e067716	0.13131365
133	0x3e32ebbb	0.17472737
134	0x3dab2223	0.083561204
135	0xbdff6656	-0.12470691
136	0x3d614f27	0.055007126
137	0x3e308c4a	0.17241016
138	0xbe714f6b	-0.23565452
139	0x3e84bb21	0.25924018
140	0x3e65be92	0.22435978
141	0xbedf552f	-0.43619677
142	0xbb43da78	-0.0029884856
143	0x3da37b47	0.07982498
144	0x3dbad72c	0.09123072
145	0x3e13c120	0.1442914
146	0xbcf104d4	-0.029421248
147	0x3de112ba	0.109899
148	0xbde77a26	-0.11302595
149	0x3e047775	0.12936194
150	0x3e13775f	0.14401005
151	0x3e40e889	0.18838705
152	0xbdbfa5c1	-0.09357787
153	0x3d4749fe	0.04865455
154	0x3dfa8031	0.12231482
155	0x3da6ed0d	0.081506826
156	0x3ddf2a76	0.10896771
157	0xbd4944bb	-0.049137812
158	0x3dc84371	0.097784884
159	0x3d2ec132	0.042664714
160	0xbe0922f2	-0.13392237
161	0x3db310be	0.08743428
162	0xbc9b8249	-0.018983023
163	0xbdfe25fb	-0.12409588
164	0x3dd0e341	0.10199595
165	0xbcbb3356	-0.022851627
166	0xbda9c817	-0.08290117
167	0xbcbf9710	-0.023387462
168	0x3d9356a7	0.07194262
169	0x3ce74105	0.028229246
170	0x3da3a6e5	0.07990817
171	0x3daf7dd2	0.0856892
172	0xbcec3edf	-0.028838573
173	0x3d223e4e	0.0396102
174	0xbd8ba0bd	-0.06817768
175	0x3d009b8f	0.031398352
176	0xbda5d017	-0.080963306
177	0x3d0fe789	0.03513292
178	0x3d8600a6	0.065430924
179	0x3db5f57f	0.08884715
180	0x3e2133a8	0.15742362
181	0x3e287e94	0.16454536
182	0xbd940e3d	-0.07229278
183	0xbd812b9f	-0.06307148
184	0xbdef2bab	-0.11678251
185	0xbc9f1cdd	-0.019422943
186	0x3d4e0c09	0.050304446
187	0x3d1436a4	0.03618492
188	0x3d8c198a	0.06840809
189	0xbe4592dc	-0.19294304
190	0xbc94e0ae	-0.018173542
191	0xbd1b5028	-0.03791824
192	0x3dca85a1	0.09888769
193	0xbda1883a	-0.07887311
194	0xbe1f585e	-0.15561053
195	0xba8cee27	-0.0010752127
196	0xbdbf78dc	-0.09349224
197	0x3c9b2ab9	0.01894127
198	0xbe0dc4b3	-0.13844566
199	0xbd7d6953	-0.061868023
200	0xbd6f5d7c	-0.058438763
201	0xbdd3ce83	-0.10342123
202	0x3e383dae	0.17992279
203	0x3e4a4e96	0.1975654
204	0x3c23dfab	0.010002057
205	0x3d8d4031	0.06897009
206	0xbd3d2fc7	-0.046188142
207	0x3d3de0f7	0.04635712
208	0x3c567ae5	0.013090824
209	0xbdc0e874	-0.09419337
210	0x3d7fb8c7	0.062432077
211	0x3ca76226	0.020432543
212	0xbc576a50	-0.0131479055
213	0xbd33ad1a	-0.043866254
214	0x3d9f3cf6	0.07775299
215	0x3ce557f8	0.027996048
216	0xbd2aea03	-0.041727077
217	0x3c10b826	0.008832967
218	0xbe300979	-0.17191114
219	0xbe6cdb6a	-0.23130575
220	0xbd82dc0c	-0.06389627
221	0x3cbff887	0.023433937
222	0x3e7ea340	0.24866962
223	0xbb6aa016	-0.0035800985
224	0xbe1f4488	-0.15553486
225	0x3dcb90a4	0.099396974
226	0xbd4ce41e	-0.050022237
227	0xbd86224d	-0.06549511
228	0x3d135f00	0.03597927
229	0x3c5e516b	0.013569216
230	0x3d9aaec0	0.07552862
231	0xbd7a4398	-0.06109962
232	0x3e743daa	0.23851648
233	0x3c1791e8	0.009251095
234	0x3dcbff55	0.0996081
235	0x3cd04096	0.025421422
236	0x3d7f5ed6	0.062346302
237	0x3e02672b	0.12734668
238	0xbdb63004	-0.08895877
239	0xbdc691ef	-0.096958034
240	0x3db9b33d	0.0906739
241	0xbc3afd8d	-0.01141299
242	0x3d36b397	0.044604864
243	0xbd7990e8	-0.06092921
244	0xbd4fb19e	-0.0507065
245	0xbc4fe9e5	-0.012690042
246	0xbe0c4228	-0.13697112
247	0xbe4dddf6	-0.20104203
248	0xbc942fb6	-0.018089157
249	0xbd2f9656	-0.04286798
250	0xbd3d66a2	-0.046240456
251	0xbcaa7c6c	-0.020811282
252	0x3be6fea7	0.0070494
253	0xbdf30d4c	-0.118677706
254	0x3c123a42	0.008925023
255	0xbd372584	-0.044713512

module.bi_lstm1.bias_ih_l0_reverse f4 [64]
0	0xbd4ff789	-0.050773177
1	0x3eb294d9	0.34879187
2	0x3e23b6e9	0.15987743
3	0xbce41280	-0.027840853
4	0xbdf92796	-0.121657535
5	0x3d943c51	0.07238067
6	0x3de1beed	0.11022744
7	0xbd193737	-0.037406173
8	0x3e7b1b71	0.24522187
9	0xbd63818a	-0.05554346
10	0x3e5d9a5b	0.21640913
11	0x3d5efaf6	0.054438554
12	0x3e4c679c	0.19961399
13	0x3d4e98c0	0.050438643
14	0xbd1749c0	-0.036935568
15	0xbe007869	-0.12545933
16	0x3e2b5789	0.16732611
17	0x3d0ebf4f	0.034850415
18	0x3d853279	0.065037675
19	0x3df830fb	0.12118717
20	0x3ed6a098	0.41919398
21	0x3d6fd739	0.05855486
22	0xbc9dfcb4	-0.019285537
23	0xbca637c3	-0.020290261
24	0x3eb193f0	0.3468318
25	0xbdc2cab5	-0.095113195
26	0x3e6138a9	0.2199427
27	0x3cfd5e09	0.030928629
28	0x3d4e71d6	0.05040153
29	0xbcc843c2	-0.024446372
30	0x3e645142	0.22296622
31	0x3e4c8f75	0.199766
32	0x3db433f6	0.08798973
33	0xbe905a34	-0.2819382
34	0xbe3decea	-0.18547407
35	0xbda95f92	-0.08270182
36	0xbc710f41	-0.0147131095
37	0xbdd7f9a7	-0.10545664
38	0x3d5db63b	0.054128867
39	0x3e3f826b	0.18702094
40	0xbd6243d2	-0.05524046
41	0xbe51e812	-0.20498684
42	0x3e70722d	0.23481055
43	0x3d853be4	0.06505564
44	0x3dc30f91	0.095244534
45	0xbe06be3e	-0.13158509
46	0xbde68cde	-0.11257337
47	0x3e6883b8	0.22706497
48	0x3de087dc	0.10963413
49	0x3e1012cb	0.14069669
50	0x3e583882	0.21115306
51	0x3e41fdbd	0.1894445
52	0x3e9313be	0.28726
53	0x3e4d93e1	0.20075943
54	0x3d2666fe	0.040625565
55	0x3e1dbb36	0.15403447
56	0x3e4344c9	0.19069208
57	0xbd019328	-0.03163448
58	0x3e3dd634	0.18538743
59	0x3db53133	0.08847275
60	0x3e3f3d3e	0.18675706
61	0x3d8c1486	0.06839852
62	0xbc282332	-0.0102622975
63	0xbdf48253	-0.1193892

module.bi_lstm1.bias_hh_l0_reverse f4 [64]
0	0xbda887a2	-0.08228995
1	0x3c5b8f68	0.01340089
2	0x3e6d9b4a	0.2320377
3	0x3dae0125	0.08496312
4	0x3e7fad5c	0.24968475
5	0x3a1fa9fd	0.0006090699
6	0xbdfce697	-0.12348669
7	0xbd43a4ac	-0.047764465
8	0x3e3114bb	0.17293064
9	0xbe1083b6	-0.14112744
10	0xbd04bbaf	-0.03240555
11	0xbda07554	-0.078348786
12	0xbdd55dcc	-0.10418281
13	0xbd7bc2db	-0.061465126
14	0xbe1c9f01	-0.1529503
15	0x3dcf2f2a	0.10116418
16	0xbdb7836a	-0.08960612
17	0x3d6493fd	0.055805195
18	0xbe372039	-0.17883386
19	0x3db6a852	0.08918823
20	0x3ec9450a	0.39310485
21	0x3e49254b	0.19643132
22	0x3ec932b6	0.39296502
23	0x3eb4ef79	0.35338953
24	0x3deddeee	0.11614786
25	0xbe1f6330	-0.15565181
26	0x3e6fcd47	0.23418151
27	0x3d428ff9	0.047500584
28	0x3dc17e58	0.09447926
29	0x3e9759ed	0.29560795
30	0x3e00cf64	0.12579113
31	0xbdad5883	-0.08464148
32	0x3d2fd62d	0.042928863
33	0x3c1a5571	0.009419785
34	0xbe9f2ec5	-0.3109037
35	0xbe61b2d1	-0.2204087
36	0xbd962d97	-0.07332914
37	0x3ce9adb0	0.028525203
38	0x3e801b91	0.25021031
39	0x3ba9e8bf	0.005185216
40	0x3dc83783	0.09776213
41	0x3cf17d62	0.029478732
42	0x3e11f5a9	0.14253868
43	0xbd18d52f	-0.037312683
44	0xbb0f57c0	-0.0021872371
45	0x3e98a5d2	0.2981401
46	0xbe9696b6	-0.29411858
47	0xbdaef9c5	-0.085437335
48	0xbe0086d0	-0.12551427
49	0x3d5dbb8c	0.054133937
50	0x3e8fb358	0.28066516
51	0x3e895570	0.26822996
52	0x3cf383ff	0.029726027
53	0x3e51a728	0.20473921
54	0x3e286130	0.16443324
55	0xbdfd2643	-0.123608135
56	0x3e9c57b0	0.3053565
57	0x3e386765	0.18008192
58	0x3e209cab	0.15684764
59	0x3e0ca749	0.13735689
60	0xbd74dd20	-0.059781194
61	0x3df626c3	0.12019112
62	0xbdc3c40e	-0.09558879
63	0xbd9d7f41	-0.076902874

module.bi_lstm2.weight_ih_l0 f4 [128, 16]
0	0x3cd46409	0.025926607
1	0xbd43e4f0	-0.047825754
2	0xbc8f66e4	-0.017505117
3	0x3cef81aa	0.029236633
4	0x3bf24686	0.007393661
5	0xbcefed65	-0.029288003
6	0x3d32a89c	0.04361783
7	0x3c9d94e2	0.019236032
8	0xbd1f8964	-0.038949385
9	0x3b5c5c6d	0.0033624426
10	0x3bbf565b	0.005839152
11	0x3c8f9556	0.017527264
12	0x3bfcbf0d	0.0077132047
13	0xbca65c29	-0.020307617
14	0x38233d27	3.891918e-05
15	0xbb2143de	-0.0024607102
16	0x3d5a414a	0.05328492
17	0x3c890bac	0.016729198
18	0xbc2b7536	-0.010464957
19	0x3c181367	0.00928197
20	0xbd243413	-0.040088724
21	0x3ba4b17f	0.005026042
22	0x3ce04077	0.02737449
23	0x3d57be90	0.05267197
24	0xbc83d0cc	-0.016090773
25	0x3b52b0af	0.0032148769
26	0xbd146214	-0.036226347
27	0xbc4da417	-0.012551329
28	0x3cf6d223	0.030129498
29	0xbcd8b36a	-0.026452739
30	0xbc1df7ec	-0.009641629
31	0xbbba2cf2	-0.0056816274
32	0x3cac0f43	0.021003371
33	0x3a8add52	0.0010594523
34	0x3a15ffed	0.0005722035
35	0x3c4485cd	0.011994791
36	0xbc8c2723	-0.017108506
37	0xbb585541	-0.00330098
38	0xbb983ca1	-0.0046458994
39	0x3b8bc16b	0.0042650006
40	0xbb17a6af	-0.0023140123
41	0xbc1725b0	-0.009225294
42	0x3b5cbe4f	0.0033682769
43	0xbaa2f90d	-0.0012433842
44	0xbc1eb715	-0.009687205
45	0x3c21057e	0.00982797
46	0xba56414d	-0.0008173183
47	0x3c368731	0.011140631
48	0xbb014e10	-0.0019730367
49	0xbd361f7d	-0.044463623
50	0xbbfb9f02	-0.0076788673
51	0xbd2dab16	-0.04239949
52	0x3b8c654c	0.0042845365
53	0xbcc581be	-0.024109717
54	0xbd13a65b	-0.03604732
55	0xbcf445d6	-0.029818457
56	0xbca3b488	-0.019983545
57	0x3c77d7a1	0.0151270935
58	0x3bf079f4	0.0073387567
59	0xbcf24fe8	-0.029579118
60	0xbd08b72b	-0.033377808
61	0x3cc16675	0.023608426
62	0xb9075039	-0.00012904489
63	0xbd0409a6	-0.032235764
64	0x3c83ed97	0.016104503
65	0xbc3c757f	-0.011502623
66	0xbcaa64fa	-0.020800103
67	0x3c0deadd	0.008661953
68	0xbd200ea0	-0.039076447
69	0x3d0fb736	0.035086833
70	0xbdb018ea	-0.08598502
71	0x3c279062	0.010227295
72	0x3c5455dd	0.0129599245
73	0x3ba8aac9	0.0051473123
74	0xbd4460e1	-0.047943953
75	0x3cb9396d	0.02261039
76	0x3d138e18	0.036024183
77	0xbcd3f0bc	-0.025871627
78	0xbc6c1688	-0.014409669
79	0xbd4dc1ff	-0.050233837
80	0x3b6431cc	0.003481972
81	0x3bff120d	0.0077841342
82	0xba8df6b2	-0.0010830967
83	0xbccda0e6	-0.025101136
84	0xbd0105f7	-0.03149983
85	0xbd020cf2	-0.031750627
86	0xbd370621	-0.04468358
87	0xbd43523c	-0.047685847
88	0xbc502e4d	-0.0127063515
89	0x3b33e0d7	0.0027447247
90	0x3d36ee2e	0.04466074
91	0xbce7ed75	-0.02831147
92	0xbd9bcae7	-0.0760706
93	0x3dcd48d8	0.100236595
94	0x398bf3b0	0.00026693707
95	0xbd25787d	-0.04039811
96	0x3bc05331	0.005869292
97	0x3c8f9082	0.017524961
98	0x3c5c2df5	0.013438691
99	0xbcca84c9	-0.02472152
100	0x3ca49790	0.020091802
101	0x3c304be8	0.010760285
102	0x3c7ded42	0.015498461
103	0x3c2a1f41	0.010383428
104	0xbc6e05e6	-0.0145277735
105	0xba77a939	-0.00094475184
106	0xbb1c6e22	-0.0023869355
107	0xbbe7decb	-0.0070761195
108	0x3c8bd214	0.017067946
109	0xbccbed25	-0.024893353
110	0x3bbac623	0.0056998893
111	0xbb0a835b	-0.0021135423
112	0xbd1b45bb	-0.037908297
113	0x3d023642	0.031790026
114	0x3cfc2459	0.03077905
115	0xbca3db1f	-0.020001946
116	0x3ce551c0	0.027993083
117	0x3ce42e91	0.027854236
118	0xbc1c2f2a	-0.009532729
119	0xb81e9b47	-3.781475e-05
120	0x3d2f1327	0.042742874
121	0x3bdbc3c1	0.0067066853
122	0x3c8011fa	0.015633572
123	0x3d01b55c	0.0316671
124	0x3cc9bb19	0.024625348
125	0xbca10ec6	-0.019660365
126	0xbad43b75	-0.0016192036
127	0x3aec255f	0.0018016509
128	0x3da889c4	0.08229402
129	0xbdaa183c	-0.083054036
130	0xbd5af908	-0.05346015
131	0x3d3a8ba9	0.045543347
132	0xbd88f9dc	-0.06688282
133	0xbde6a0f5	-0.11261169
134	0x3d2f807c	0.04284714
135	0x3d29ec0d	0.04148488
136	0xbd29d80d	-0.041465808
137	0xbd5650ec	-0.052323267
138	0x3d9c9604	0.07645801
139	0xbd6710e9	-0.05641261
140	0xbbeb02a2	-0.0071719447
141	0x3dd7a0a1	0.105286844
142	0xbccaa568	-0.024737075
143	0x3d41e81d	0.0473405
144	0xba448110	-0.00074960385
145	0x3c463595	0.012097736
146	0xb93c8645	-0.00017979096
147	0xbcfd28bf	-0.030903218
148	0x3d43182e	0.04763048
149	0x3d0cd0dc	0.03437887
150	0x3db46e34	0.08810082
151	0x3d6cacbb	0.057781916
152	0x3d1d1610	0.03835112
153	0x3be98ace	0.0071271425
154	0xbb7430e0	-0.0037260577
155	0xbc4251ca	-0.01186032
156	0x3d195b11	0.037440363
157	0xbd065954	-0.032800034
158	0x3c2940f0	0.010330424
159	0x3d464ca0	0.04841292
160	0xba541b47	-0.0008091223
161	0xbc4856aa	-0.012227694
162	0x3c1f7486	0.009732371
163	0xbb42281c	-0.0029625958
164	0x3bdd5f3d	0.006755738
165	0x3bf837f0	0.0075750276
166	0xbc1e6432	-0.009667443
167	0xbc83f4b2	-0.01610789
168	0xbc866d1c	-0.01640945
169	0xbb9000ee	-0.004394642
170	0xbd16faad	-0.036860157
171	0xbc584348	-0.013199635
172	0xbc856764	-0.016284652
173	0x3c405cd1	0.011740879
174	0x3c4610d2	0.012088971
175	0x3b77c6ea	0.003780777
176	0x3b3e23bd	0.0029013
177	0x3d38d7bf	0.045127627
178	0x3aad6ea4	0.0013231826
179	0x3a637c2a	0.00086778647
180	0x3cb9115c	0.022591285
181	0xbbe14f84	-0.006875934
182	0x3aa9c277	0.0012951632
183	0x3c0d184f	0.008611753
184	0x3d0c4c5e	0.034252517
185	0x3ca64f07	0.020301355
186	0x3cb936fc	0.022609226
187	0xb988fb4c	-0.00026127172
188	0x3bdc772f	0.006728075
189	0x3c0ffa03	0.008787635
190	0x3c5a00fc	0.013305899
191	0xbb01c109	-0.0019798896
192	0xbb73a816	-0.0037179044
193	0x3c160aae	0.00915782
194	0xbc1d5abe	-0.009604154
195	0x3b92a4a7	0.0044751945
196	0xbaa87a03	-0.0012853745
197	0xbbd0bf31	-0.006370448
198	0xbc54a645	-0.012979095
199	0xbb96b170	-0.004598789
200	0x3b4ddc65	0.0031411883
201	0x3b6215a2	0.0034497757
202	0x3c5d693b	0.013513858
203	0x3b2183a5	0.0024645117
204	0x3b45d36b	0.003018583
205	0x3c03af63	0.008037421
206	0xbbc59ed6	-0.0060308976
207	0x3b30db17	0.0026986056
208	0xbb65a40f	-0.0035040413
209	0x3c4dc96c	0.01256023
210	0xbafbdae5	-0.0019215016
211	0xbc6736a9	-0.014112153
212	0xbbb1c0a9	-0.005424578
213	0x3c098fd5	0.008396109
214	0xbd09f2f3	-0.03367896
215	0xbc898b34	-0.01679001
216	0x3c8885c3	0.016665345
217	0x3bf9b846	0.007620844
218	0x3d02aacb	0.031901162
219	0x3c0002ed	0.007813198
220	0xbcc60f29	-0.02417715
221	0x3c7d5dcf	0.01546426
222	0x3bcdfddc	0.006286366
223	0xbc3e4c52	-0.011614876
224	0x3cb2ccd7	0.02182619
225	0xbc1f4c8e	-0.009722842
226	0xba22ce31	-0.00062105345
227	0x3c28bc2d	0.010298771
228	0xbd10e636	-0.035375796
229	0x3cbcc761	0.02304429
230	0xbc9914a0	-0.018686593
231	0x3ba306a9	0.004975159
232	0xbcccc89e	-0.024998005
233	0xbcc740de	-0.024322923
234	0xbd3457cb	-0.04402904
235	0x3c952a24	0.01820857
236	0xbcb506dd	-0.022098
237	0x3c6f5882	0.014608504
238	0xbc33a1ac	-0.010963839
239	0x3b4f5269	0.0031634814
240	0x3bc6b54b	0.0060640923
241	0x3c50f632	0.01275401
242	0xbc684e57	-0.014178834
243	0x3c729866	0.014806842
244	0xbb89e071	-0.0042076637
245	0xbce031a2	-0.027367417
246	0xbcb1befe	-0.021697517
247	0xbb57e6a7	-0.0032943876
248	0xbca27d7b	-0.019835224
249	0x3bd49861	0.0064878915
250	0xba0723c2	-0.00051551696
251	0xbcb59755	-0.022166887
252	0xbd276175	-0.040864427
253	0x3d25e028	0.040496975
254	0x3c854515	0.016268292
255	0xbc5adf9e	-0.013358979

module.bi_lstm2.weight_hh_l0 f4 [128, 32]
0	0x80008964	-4.9286e-41
1	0x80008dae	-5.0825e-41
2	0x80009b49	-5.5706e-41
3	0x00008b62	5.0001e-41
4	0x000092bb	5.2637e-41
5	0x00008917	4.9179e-41
6	0x80008dc6	-5.0859e-41
7	0x80008b85	-5.005e-41
8	0x00009b71	5.5762e-41
9	0x80008b4d	-4.9972e-41
10	0x00008b53	4.998e-41
11	0x00008a12	4.953e-41
12	0x800088cd	-4.9075e-41
13	0x00008c4e	5.0332e-41
14	0x80008bc2	-5.0136e-41
15	0x0000975a	5.4295e-41
16	0x00008991	4.935e-41
17	0x00008911	4.917e-41
18	0x80008a61	-4.9641e-41
19	0x80008951	-4.926e-41
20	0x80008930	-4.9214e-41
21	0x800090f3	-5.1998e-41
22	0x00008b6e	5.0018e-41
23	0x8000a2c3	-5.8388e-41
24	0x80008b08	-4.9875e-41
25	0x80009f17	-5.707e-41
26	0x80008ae8	-4.983e-41
27	0x000094d0	5.3384e-41
28	0x00008b5b	4.9991e-41
29	0x80008a2a	-4.9564e-41
30	0x80008cde	-5.0534e-41
31	0x000088dd	4.9097e-41
32	0x80008d0a	-5.0595e-41
33	0x000089af	4.9392e-41
34	0x000088ec	4.9118e-41
35	0x000091b0	5.2263e-41
36	0x00009ab8	5.5503e-41
37	0x80008a8e	-4.9704e-41
38	0x800099df	-5.5199e-41
39	0x800094c9	-5.3374e-41
40	0x00008c0c	5.024e-41
41	0x80008993	-4.9352e-41
42	0x00008ba5	5.0095e-41
43	0x00008afd	4.986e-41
44	0x8000925e	-5.2507e-41
45	0x00008937	4.9223e-41
46	0x00008ae8	4.983e-41
47	0x0000a07b	5.757e-41
48	0x80009112	-5.2041e-41
49	0x00008adb	4.9812e-41
50	0x00008b0d	4.9882e-41
51	0x00008ac9	4.9787e-41
52	0x80008926	-4.92e-41
53	0x80008c00	-5.0223e-41
54	0x800088cd	-4.9075e-41
55	0x00008c7a	5.0393e-41
56	0x8000947f	-5.327e-41
57	0x80009cc6	-5.624e-41
58	0x8000896f	-4.9302e-41
59	0x80008e4c	-5.1047e-41
60	0x80008976	-4.9312e-41
61	0x0000aa6c	6.1136e-41
62	0x00008983	4.933e-41
63	0x800089dc	-4.9455e-41
64	0x800088ce	-4.9076e-41
65	0x00008ae5	4.9826e-41
66	0x8000890f	-4.9167e-41
67	0x00008a51	4.9619e-41
68	0x80008c85	-5.0409e-41
69	0x800088e1	-4.9103e-41
70	0x80008978	-4.9314e-41
71	0x00009006	5.1666e-41
72	0x80008918	-4.918e-41
73	0x0001c92e	1.64005e-40
74	0x00008ac6	4.9783e-41
75	0x0000a7f5	6.0252e-41
76	0x00008a34	4.9578e-41
77	0x80008a73	-4.9666e-41
78	0x800090a6	-5.189e-41
79	0x8000a2df	-5.8427e-41
80	0x80008b8f	-5.0064e-41
81	0x80008a5b	-4.9633e-41
82	0x0000a0c0	5.7666e-41
83	0x80008b14	-4.9892e-41
84	0x00008bef	5.0199e-41
85	0x00008951	4.926e-41
86	0x00008abc	4.9769e-41
87	0x00008a32	4.9575e-41
88	0x000088be	4.9054e-41
89	0x00008c82	5.0405e-41
90	0x00008a87	4.9694e-41
91	0x80008e4a	-5.1044e-41
92	0x00008baa	5.0102e-41
93	0x00008ce1	5.0538e-41
94	0x00008b3b	4.9946e-41
95	0x800089cc	-4.9432e-41
96	0x800095e3	-5.3769e-41
97	0x8000a400	-5.8832e-41
98	0x0000a2a4	5.8344e-41
99	0x80008b4b	-4.9969e-41
100	0x80009d63	-5.646e-41
101	0x80008948	-4.9247e-41
102	0x00008d57	5.0703e-41
103	0x00008a59	4.963e-41
104	0x00008bf4	5.0206e-41
105	0x8000a365	-5.8615e-41
106	0x000088c3	4.9061e-41
107	0x80008f88	-5.149e-41
108	0x00008b3e	4.995e-41
109	0x00009900	5.4886e-41
110	0x00008b41	4.9955e-41
111	0x80008a98	-4.9718e-41
112	0x000089b3	4.9397e-41
113	0x8000913b	-5.2099e-41
114	0x0000a802	6.027e-41
115	0x80009691	-5.4013e-41
116	0x000089c9	4.9428e-41
117	0x00008905	4.9153e-41
118	0x80008b32	-4.9934e-41
119	0x80008ae4	-4.9825e-41
120	0x00008bbc	5.0127e-41
121	0x80008b86	-5.0052e-41
122	0x800089ab	-4.9386e-41
123	0x00008a46	4.9603e-41
124	0x80008c0e	-5.0242e-41
125	0x80008c21	-5.0269e-41
126	0x00008c06	5.0231e-41
127	0x800088eb	-4.9117e-41
128	0x00008a6e	4.9659e-41
129	0x0000914c	5.2123e-41
130	0x00008a15	4.9534e-41
131	0x000088d8	4.909e-41
132	0x800089f4	-4.9488e-41
133	0x00008983	4.933e-41
134	0x800088d9	-4.9092e-41
135	0x00008a61	4.9641e-41
136	0x80008ab3	-4.9756e-41
137	0x00008a05	4.9512e-41
138	0x00008add	4.9815e-41
139	0x0000a75a	6.0034e-41
140	0x80008c41	-5.0314e-41
141	0x80008ba4	-5.0094e-41
142	0x800093cb	-5.3018e-41
143	0x0000a703	5.9913e-41
144	0x800088bf	-4.9055e-41
145	0x80009570	-5.3608e-41
146	0x80008b77	-5.003e-41
147	0x00008a59	4.963e-41
148	0x8000898d	-4.9344e-41
149	0x00009fae	5.7282e-41
150	0x00008a04	4.951e-41
151	0x00008c25	5.0274e-41
152	0x80008aa9	-4.9742e-41
153	0x80008b7a	-5.0035e-41
154	0x00008ae2	4.9822e-41
155	0x00008a91	4.9708e-41
156	0x00008add	4.9815e-41
157	0x000089cc	4.9432e-41
158	0x80008a9c	-4.9724e-41
159	0x00008bcc	5.015e-41
160	0x8000895a	-4.9272e-41
161	0x00008cc4	5.0497e-41
162	0x80008b62	-5.0001e-41
163	0x800088c0	-4.9057e-41
164	0x00008b3d	4.9949e-41
165	0x00008a25	4.9557e-41
166	0x0000895b	4.9274e-41
167	0x8000ab51	-6.1457e-41
168	0x80008ac5	-4.9781e-41
169	0x80008a15	-4.9534e-41
170	0x80008b16	-4.9895e-41
171	0x800088f0	-4.9124e-41
172	0x00008b25	4.9916e-41
173	0x8000a88b	-6.0462e-41
174	0x00008930	4.9214e-41
175	0x80008b53	-4.998e-41
176	0x00009f5f	5.7172e-41
177	0x80008af4	-4.9847e-41
178	0x00008c40	5.0312e-41
179	0x80008a77	-4.9672e-41
180	0x80008bac	-5.0105e-41
181	0x00008aa0	4.9729e-41
182	0x80008acc	-4.9791e-41
183	0x80008971	-4.9305e-41
184	0x80008d8e	-5.078e-41
185	0x000091a2	5.2243e-41
186	0x80008a77	-4.9672e-41
187	0x8000a747	-6.0008e-41
188	0x00008edd	5.125e-41
189	0x80008ad7	-4.9806e-41
190	0x000088c1	4.9058e-41
191	0x000089d3	4.9442e-41
192	0x000088bc	4.9051e-41
193	0x80008b3b	-4.9946e-41
194	0x00008dc4	5.0856e-41
195	0x000088fd	4.9142e-41
196	0x80008a04	-4.951e-41
197	0x80008b44	-4.9959e-41
198	0x80009c4d	-5.607e-41
199	0x00008ca4	5.0452e-41
200	0x000098c2	5.4799e-41
201	0x000088ff	4.9145e-41
202	0x80008b28	-4.992e-41
203	0x80008cc6	-5.05e-41
204	0x000090a0	5.1882e-41
205	0x800094b6	-5.3347e-41
206	0x00008ba6	5.0096e-41
207	0x8000a952	-6.074e-41
208	0x80008b3d	-4.9949e-41
209	0x00008c24	5.0273e-41
210	0x00009eb0	5.6926e-41
211	0x00008e6c	5.1091e-41
212	0x00008fb9	5.1558e-41
213	0x00009ee7	5.7003e-41
214	0x00008a35	4.958e-41
215	0x80008b7c	-5.0038e-41
216	0x00008c22	5.027e-41
217	0x80008928	-4.9202e-41
218	0x0000afbd	6.3043e-41
219	0x00008a02	4.9508e-41
220	0x00008bcf	5.0154e-41
221	0x800089d3	-4.9442e-41
222	0x00008cbe	5.0489e-41
223	0x0000a02d	5.746e-41
224	0x00008ad4	4.9802e-41
225	0x80008e7c	-5.1114e-41
226	0x0000a248	5.8216e-41
227	0x00008bc1	5.0134e-41
228	0x00008990	4.9348e-41
229	0x00008aa0	4.9729e-41
230	0x8000890f	-4.9167e-41
231	0x00008adb	4.9812e-41
232	0x00008a6b	4.9655e-41
233	0x80009cf4	-5.6304e-41
234	0x00008b15	4.9893e-41
235	0x800097a4	-5.4398e-41
236	0x000098b3	5.4778e-41
237	0x00008931	4.9215e-41
238	0x80008a85	-4.9691e-41
239	0x80008ac9	-4.9787e-41
240	0x800088de	-4.9099e-41
241	0x00008ae9	4.9832e-41
242	0x80008bed	-5.0196e-41
243	0x8000890c	-4.9163e-41
244	0x00009902	5.4889e-41
245	0x800089e4	-4.9466e-41
246	0x00008e36	5.1016e-41
247	0x80016f15	-1.31684e-40
248	0x0000919a	5.2232e-41
249	0x00008b44	4.9959e-41
250	0x00008ed6	5.124e-41
251	0x80008bc4	-5.0138e-41
252	0x00008d8b	5.0776e-41
253	0x80009d24	-5.6371e-41
254	0x80008b93	-5.007e-41
255	0x80008a1a	-4.9542e-41
