output/clip/FD001/exp_202411012108_bilstm_clip_ep-0009.pth (torch, 289762 bytes, 66 tensors)

module.bi_lstm1.weight_ih_l0 f4 [64, 14]
0	0x3e2a6243	0.16639046
1	0x3e13af0b	0.14422242
2	0x3e5c1092	0.21490696
3	0xbe23d1fd	-0.15998073
4	0xbda018d5	-0.07817236
5	0xbc9c070a	-0.019046325
6	0x3c22c0ac	0.009933632
7	0xbd6772f4	-0.056506112
8	0xbd1071ab	-0.035264652
9	0x3cb2a16f	0.021805493
10	0xbc69b854	-0.014265139
11	0xbca11390	-0.019662648
12	0x3d273e7d	0.040831078
13	0x3d826737	0.06367343
14	0xbe0a73d6	-0.1352075
15	0xbd20983a	-0.039207675
16	0xbd9f2de4	-0.07772425
17	0x3e4bb188	0.19891942
18	0xbd6e7009	-0.058212314
19	0xbd61e598	-0.0551506
20	0xbdc70c60	-0.09719157
21	0xbc8fb3f8	-0.01754187
22	0x3ce4725a	0.027886558
23	0x3db13ad8	0.08653802
24	0xbbd25133	-0.006418371
25	0xbe0cc24e	-0.13745996
26	0xbcda0cc8	-0.026617423
27	0x3e4e6316	0.20154986
28	0x3d17bd9a	0.037046053
29	0xbcfbe13c	-0.030747049
30	0x3dfbf8b2	0.12303294
31	0x3e133ad1	0.14377905
32	0x3d8750ad	0.066071846
33	0x3e043188	0.1290952
34	0x3ba3cccb	0.0049987785
35	0x3d7dc034	0.061950877
36	0xbcc54059	-0.024078535
37	0xbd5568e5	-0.05210199
38	0xbdd1159d	-0.102092005
39	0x3e5b2cd8	0.21403825
40	0x3dd89d90	0.10576928
41	0xbda86da7	-0.082240395
42	0xbd78cb14	-0.060740545
43	0xbbc408c6	-0.005982491
44	0xbd0ed2b4	-0.03486891
45	0xbd967170	-0.07345855
46	0x3d178201	0.036989216
47	0xbd96d340	-0.073645115
48	0x3ce6618d	0.028122688
49	0xbd351ccd	-0.04421692
50	0x3be2a6c3	0.006916852
51	0xbda67d31	-0.08129347
52	0xbd652f83	-0.055953514
53	0x3d23742f	0.039905723
54	0x3dc779f3	0.09740057
55	0x3d2adaf7	0.041712727
56	0x3e1cab97	0.15299831
57	0x3e3cf234	0.18451768
58	0x3d828343	0.063726924
59	0xbde8ad99	-0.11361236
60	0x3da20a50	0.07912123
61	0xbe06ae00	-0.13152313
62	0x3e3476c6	0.17623433
63	0xbdca0377	-0.09863942
64	0x3e60f52c	0.21968526
65	0xbd9a1af8	-0.07524675
66	0x3e403442	0.18769935
67	0x3dd82c0e	0.10555278
68	0xbcc89baa	-0.024488289
69	0x3e0af6dd	0.13570733
70	0x3cd79084	0.026314028
71	0xbd055ac2	-0.032557257
72	0x3dc9c0cf	0.098512284
73	0x3d7e67ad	0.06211059
74	0xbcefd939	-0.029278385
75	0x3cf81710	0.030284435
76	0x3e0011b5	0.12506755
77	0x3d8f39be	0.06993435
78	0xbbd7df8f	-0.0065879296
79	0xbcc22dbf	-0.023703454
80	0xbbe79535	-0.0070673474
81	0x3ca7decc	0.02049198
82	0x3ca6e3ee	0.020372357
83	0xbd4f1461	-0.050556544
84	0xbe4b1b3c	-0.19834608
85	0xbdf405cb	-0.119151674
86	0xbe2343f3	-0.1594389
87	0x3dcbcef6	0.09951584
88	0xbe45e4a1	-0.19325496
89	0xbe0cef11	-0.13763072
90	0x3c8e0d82	0.017340425
91	0x3d238ff8	0.03993222
92	0x3db24598	0.0870468
93	0xbcd87374	-0.02642224
94	0x3e452e12	0.19255856
95	0xbe0ae633	-0.13564377
96	0x3de25608	0.110515654
97	0x3e21d0c2	0.15802291
98	0xbd822380	-0.06354427
99	0x3ccdb87e	0.025112387
100	0xbdcfaafe	-0.10140036
101	0xbe70aecb	-0.23504178
102	0xbc9280c5	-0.017883668
103	0xbe5b2dda	-0.2140421
104	0xbe45ad9e	-0.19304511
105	0x3e04e691	0.12978579
106	0xbe760dae	-0.24028656
107	0xbdc4f1c2	-0.09616424
108	0xbe73d899	-0.23813094
109	0x3e42d324	0.19025856
110	0xbe5207de	-0.20510814
111	0xbe35157f	-0.17683981
112	0xbd57f5f9	-0.052724812
113	0x3d4b4588	0.049626857
114	0x3d884405	0.06653599
115	0x3c9180df	0.017761646
116	0x3af54e33	0.0018715322
117	0xbd04b8fa	-0.03240297
118	0xba91ec54	-0.0011133053
119	0xbd71a3ff	-0.05899429
120	0x3ca0f9f0	0.01965043
121	0xbd2decd9	-0.042462204
122	0x3d375b37	0.044764724
123	0xbd6a222a	-0.057161488
124	0xbd5ec1a1	-0.054383878
125	0xbcf39bb2	-0.029737327
126	0x3c82e5e5	0.015978763
127	0x3dc10d10	0.094263196
128	0xbe116c60	-0.14201498
129	0x3de270ce	0.11056672
130	0x3bb66d00	0.005567193
131	0xbcf69886	-0.030102026
132	0x3d00f524	0.031483784
133	0x3d544743	0.051825773
134	0xbde2c4f7	-0.11072724
135	0xbdf94ac0	-0.121724606
136	0x3ca6a4aa	0.02034219
137	0xbabca8d9	-0.0014393582
138	0x3e4454f3	0.1917303
139	0xbd1e8815	-0.038703997
140	0xbd4020c4	-0.046906248
141	0x3d974e26	0.073879525
142	0x3d443849	0.04790524
143	0x3c716e19	0.014735722
144	0xbc6a8857	-0.0143147325
145	0x3dfe8039	0.124268
146	0x3d0c03ed	0.03418343
147	0x3d5164ae	0.051121406
148	0xbd1f6720	-0.038916707
149	0x3de9ddda	0.11419268
150	0x3d484f24	0.0489036
151	0x3daee8e2	0.085405126
152	0xbcec4a9c	-0.02884417
153	0xbd0cfe5d	-0.034422267
154	0xbbe401d9	-0.006958228
155	0x3e3f4dd4	0.18682033
156	0xbd526f41	-0.05137563
157	0x3d5335bb	0.051564913
158	0x3e2cc87a	0.1687335
159	0xbc5718cb	-0.01312847
160	0xbde017a6	-0.109420106
161	0xbe37bb32	-0.17942503
162	0xbd47d752	-0.04878933
163	0x3dfe9a26	0.12431745
164	0x3d0bbba5	0.0341145
165	0x3e00e860	0.12588644
166	0xbded5bdd	-0.11589787
167	0xbb71f5c9	-0.003692018
168	0xbc28440a	-0.010270128
169	0x3e574870	0.21023726
170	0x3e39f3a0	0.18159342
171	0x3e83a942	0.2571507
172	0x3b14dc34	0.002271426
173	0x3e120534	0.14259797
174	0x3e236e31	0.15960003
175	0x3de2e1f4	0.110782534
176	0x3e3c864b	0.18410604
177	0x3e13b225	0.14423425
178	0x3e3889ab	0.18021266
179	0x3e87ba84	0.26509488
180	0x3e2cc0c6	0.16870412
181	0x3dbebf1c	0.09313795
182	0xbe181ddf	-0.14855145
183	0x3e02dfe2	0.12780717
184	0x3d848d33	0.06472244
185	0x3dd3fab4	0.10350552
186	0x3ddf88e8	0.10914785
187	0xbdd2eac6	-0.10298686
188	0xbce93c14	-0.02847103
189	0x3c0ca613	0.008584517
190	0x3d08b254	0.033373192
191	0x3cd80dfc	0.026373856
192	0x3db4110c	0.08792314
193	0xbe1fc33d	-0.15601821
194	0xbb22912d	-0.002480577
195	0x3de00eb3	0.10940304
196	0x3d68df8f	0.056853827
197	0xbb2a7e84	-0.002601535
198	0x3d12f64e	0.035879426
199	0x3d85df15	0.0653669
200	0xbd1f2865	-0.038856883
201	0x3e29a645	0.16567333
202	0x3da3c991	0.0799743
203	0xbd094feb	-0.03352348
204	0x3ca8e5c5	0.020617375
205	0x3e0ea50a	0.13930145
206	0xbd4f1318	-0.05055532
207	0x3d173b25	0.03692164
208	0x3db520eb	0.08844169
209	0x3d5e38df	0.054253455
210	0xbcbd080c	-0.023075126
211	0xbc998c14	-0.018743552
212	0x3cf2af97	0.029624743
213	0x3dbb6b04	0.09151271
214	0xbd8a8d63	-0.067652486
215	0x3ddbe190	0.10736382
216	0xbd353f84	-0.044250026
217	0x3da0351f	0.07822632
218	0xbd68d5e3	-0.056844603
219	0x3dbe6397	0.09296339
220	0x3d5d0f61	0.053969745
221	0xbcea40ad	-0.028595293
222	0xbca4d0e5	-0.02011914
223	0x3e21d7a2	0.15804914
224	0xbd75cd09	-0.06000999
225	0xbda08f0d	-0.07839785
226	0x3de5c7e1	0.112197645
227	0xbe1f229b	-0.15540545
228	0x3e0f8231	0.14014508
229	0x3d0ee567	0.034886744
230	0xbd4e2c67	-0.050335314
231	0xbd29197f	-0.04128408
232	0x3e24efc9	0.16107096
233	0x3ca352ab	0.01993688
234	0x3db477d8	0.08811921
235	0xbe11d837	-0.14242636
236	0x3e0d2c76	0.13786492
237	0x3bbe0cc8	0.0057998635
238	0x3dfe8e09	0.12429435
239	0xbdb75b16	-0.0895292
240	0x3d1b6f36	0.037947856
241	0x3d1c7699	0.03819904
242	0xbb40be2a	-0.0029410222
243	0xbd767d45	-0.06017806
244	0x3e054f0b	0.13018434
245	0x3df5a085	0.11993507
246	0xbc079438	-0.008275084
247	0xbabb9c35	-0.0014313521
248	0xbda2a2bd	-0.07941196
249	0x3e07bae9	0.13254894
250	0xbdb0f734	-0.086409
251	0xbd8ea1bd	-0.06964443
252	0x3e0c6a2b	0.13712375
253	0x3d996f59	0.07491941
254	0x3e3a7832	0.18209913
255	0x3e116880	0.1420002

module.bi_lstm1.weight_hh_l0 f4 [64, 16]
0	0xbdb0d829	-0.08634979
1	0xbd4290a2	-0.047501214
2	0x3d5eb0b3	0.054367732
3	0xbc762e48	-0.015025683
4	0x3d836368	0.064154446
5	0xbde2e7d0	-0.11079371
6	0x3c99a16a	0.018753726
7	0xba73377d	-0.0009277983
8	0xbd803982	-0.06260969
9	0xbcbee1e5	-0.023301074
10	0x3d221827	0.039573815
11	0x3e06de0c	0.13170642
12	0x3cab1655	0.020884672
13	0x3dbd7362	0.09250523
14	0x3d4ea321	0.05044854
15	0x3b10712a	0.0022040107
16	0x3c462540	0.012093842
17	0xbd53dc80	-0.051723957
18	0xbd5127ba	-0.051063277
19	0xbcc12a22	-0.02357966
20	0x3c398031	0.011322067
21	0x3c88f647	0.016718997
22	0x3cb195e4	0.021677919
23	0x3c881a4a	0.016614098
24	0xbd2af93e	-0.041741602
25	0x3b79c39d	0.003811098
26	0xbcc8bfbf	-0.024505494
27	0x3da37ab3	0.079823874
28	0x3b8ee04d	0.004360235
29	0x3d7833fc	0.06059645
30	0x3c539220	0.012913257
31	0xbc3272a8	-0.010891594
32	0xbdc1d031	-0.094635375
33	0xbb7a50e3	-0.0038195185
34	0x3d90921e	0.0705912
35	0xbd422ac8	-0.04740408
36	0x3d42ecd6	0.047589146
37	0xbad55002	-0.0016274455
38	0x3d0c510a	0.034256972
39	0x3c03ff9a	0.008056546
40	0xbc8a7eb2	-0.016906116
41	0x3d64f69b	0.055899244
42	0x3d2a6b4e	0.04160624
43	0x3d96ff8b	0.0737296
44	0x3cf976e6	0.030452203
45	0x3ca1c5c9	0.019747632
46	0x3d183028	0.0371553
47	0x3bfb188d	0.007662839
48	0x3bbb40c6	0.0057145087
49	0xbc041e4b	-0.008063863
50	0x3bf87acb	0.0075829974
51	0xbc6f5c9a	-0.01460948
52	0x3ca4f154	0.020134605
53	0xbca06f06	-0.01958419
54	0x3bfd89eb	0.0077373884
55	0xbbea1baf	-0.0071444134
56	0xbc2f4e0a	-0.010699758
57	0xbb8e6c05	-0.004346373
58	0x3ae87783	0.0017735813
59	0x3c67deaa	0.014152208
60	0x3c931a94	0.01795701
61	0x3a794cc5	0.0009510036
62	0xbcfa15c1	-0.030527951
63	0x3bfe34b9	0.00775775
64	0x3dd4f21e	0.10397743
65	0xbc00ea41	-0.0078683505
66	0x3d6499d6	0.055810772
67	0x3d4a022a	0.04931847
68	0xbe0cecda	-0.13762227
69	0x3ca3300b	0.01992037
70	0x3d5bece0	0.0536927
71	0x3d179954	0.03701146
72	0xbd013741	-0.031546835
73	0x3dd183cc	0.102302164
74	0x3d20ef23	0.03929056
75	0xbd6bb91e	-0.05754959
76	0xbd5e1b91	-0.054225508
77	0xbc0f3092	-0.008739607
78	0xbb13f1c4	-0.0022574523
79	0xbda8ae25	-0.082363404
80	0xbd5a6be9	-0.053325567
81	0x3d8971ed	0.06711183
82	0x3adfc0dd	0.0017071028
83	0xbd01ebc5	-0.031718988
84	0x3cd29c49	0.025709288
85	0x3cc77bf1	0.024351092
86	0xbcf3f4cb	-0.029779812
87	0x3c51ec0d	0.012812627
88	0xbc856fe8	-0.016288713
89	0xbc4e3f50	-0.012588337
90	0x3c71d7f9	0.014760965
91	0xbd394f65	-0.045241732
92	0x3dae8164	0.08520773
93	0xbcaa2fd1	-0.020774754
94	0x3b02d097	0.0019960755
95	0x3d457a32	0.048212238
96	0xbd17578b	-0.03694872
97	0xbc311a64	-0.010809515
98	0xbe03d2c1	-0.12873365
99	0xbcb53223	-0.022118634
100	0xbdcd9a32	-0.10039176
101	0x3d7f3369	0.062304888
102	0x3d30ce06	0.04316523
103	0x3d5c12b9	0.053728793
104	0xbd83f77f	-0.064436905
105	0xbe02b004	-0.12762457
106	0xbd23215d	-0.03982674
107	0x3db05935	0.08610765
108	0x3d1adadb	0.037806373
109	0xbc2ae6b5	-0.010430981
110	0xbc99c453	-0.018770372
111	0xbcc2fd99	-0.023802565
112	0xbc1a234e	-0.009407831
113	0x3e089d52	0.13341263
114	0xb8a4b093	-7.853019e-05
115	0x3d3a69bf	0.045511004
116	0x3dac4a71	0.08412636
117	0x3dc1c05f	0.0946052
118	0xbe0b3977	-0.1359614
119	0x3bc39a7a	0.005969343
120	0x3bcabf97	0.00618739
121	0xbc8e3520	-0.017359316
122	0xbd04cdcf	-0.032422837
123	0xbc0fff61	-0.008788914
124	0x3db42e89	0.087979384
125	0xbca0f20b	-0.019646665
126	0xbcb56981	-0.022145035
127	0x3d8e21eb	0.06940063
128	0xbc2ba651	-0.010476665
129	0x3d0faca5	0.035076756
130	0xbcd7d96b	-0.02634879
131	0xbbd4145b	-0.006472153
132	0xbc97856f	-0.018496243
133	0xbcba2a57	-0.022725267
134	0xbcbd8cf1	-0.023138495
135	0xbc3045d0	-0.010758832
136	0x3cf188d4	0.02948419
137	0xbc958c78	-0.018255457
138	0xbbdf03de	-0.006805881
139	0x3ca10580	0.019655943
140	0x3da9a727	0.08283835
141	0xbc1b8da0	-0.009494215
142	0xbce828a4	-0.028339691
143	0x3d194c45	0.037426252
144	0x3d8fd184	0.07022384
145	0xbc698e90	-0.014255181
146	0xbda09fe2	-0.07842995
147	0x3d2dead9	0.042460296
148	0xbd0a6b9d	-0.033794034
149	0xbc9dc9ad	-0.019261206
150	0xbc10df04	-0.008842234
151	0x3c2540bf	0.010086237
152	0x3b1f5b55	0.0024315913
153	0x3c6dcc63	0.014514062
154	0xbc75bed2	-0.014999108
155	0x3d82e36a	0.06391032
156	0xbceeb64e	-0.029139664
157	0xbd2f9112	-0.04286296
158	0xbc45746e	-0.012051685
159	0xbccf3bbd	-0.02529704
160	0xbd694b62	-0.056956656
161	0x3d2695ba	0.040670134
162	0x3d8e3ff5	0.069457926
163	0xbba36972	-0.0049869353
164	0x3d04cc70	0.03242153
165	0x3d8f666e	0.07001959
166	0x3d41f8ed	0.047356535
167	0x3d2c1f52	0.042022057
168	0xbcd1b2bc	-0.025597923
169	0x3d36d2a4	0.044634476
170	0xbd690667	-0.05689087
171	0x3d162f3e	0.036666147
172	0x3da2335c	0.07919952
173	0x3ce68e06	0.028143894
174	0x3d4611ee	0.048356943
175	0x3d8e9871	0.0696267
176	0xbd01974a	-0.03163842
177	0x3dd6ee73	0.10494699
178	0xbbe91de1	-0.0071141575
179	0x3d17af90	0.037032664
180	0x3e0f2268	0.13977969
181	0xbdccc834	-0.09999123
182	0xbc5173d1	-0.01278396
183	0x3da411af	0.080111854
184	0xb9bedd58	-0.00036404538
185	0xbd67a737	-0.056555953
186	0x3ccd1255	0.025033155
187	0x3dd18f4c	0.1023241
188	0x3da24e7e	0.079251274
189	0x3d58ed42	0.05296064
190	0xbc833519	-0.01601653
191	0x3d9f3e4b	0.07775553
192	0xbd01c960	-0.031686187
193	0xbceb01f8	-0.028687462
194	0x3dbf2aa9	0.09334309
195	0x3b83949c	0.0040155184
196	0x3d470700	0.04859066
197	0x3c3db608	0.011579044
198	0x3d1f0ad3	0.038828682
199	0x3d4520b6	0.0481269
200	0xbcdd51b5	-0.0270165
201	0x3d2ccdf5	0.042188603
202	0x3d2e776a	0.04259435
203	0xbc4af995	-0.012388607
204	0x3c9474c0	0.018122077
205	0x3cd2be91	0.025725635
206	0x3d829cfe	0.063776
207	0x3d273a21	0.04082692
208	0xbd0023a2	-0.031283982
209	0x3d226694	0.039648607
210	0x3b78b94c	0.0037952242
211	0x3cab7582	0.020930056
212	0xbc2995b8	-0.010350637
213	0xbb8c30b3	-0.0042782663
214	0x3c9f3202	0.019433025
215	0xbd1ff6fa	-0.039053895
216	0xbc94b2d2	-0.018151674
217	0x3c1ca93a	0.009561831
218	0xbc5c9e5e	-0.013465492
219	0x3c36bf6d	0.011154038
220	0x3da86de6	0.082240865
221	0xbc7c98b0	-0.015417263
222	0xbb7d166a	-0.0038618096
223	0x3d8c4238	0.06848568
224	0xbc8ee672	-0.01744387
225	0xbbf2fb43	-0.0074152066
226	0x3d2b9a55	0.04189523
227	0x3bf764f4	0.0075498763
228	0x3b556ebc	0.0032567224
229	0x3d040db1	0.03223962
230	0x3ce0ca92	0.027440343
231	0x3d3be9e1	0.04587734
232	0x399d1d0e	0.0002996702
233	0x3d045633	0.03230877
234	0x3be3d616	0.0069530113
235	0x3c607a65	0.013701056
236	0x3ce2a455	0.02766625
237	0x3b6600a8	0.0035095606
238	0x3d0b2e1a	0.033979513
239	0xbd29251b	-0.041295152
240	0x3cd375cc	0.025813006
241	0xbd0ad89d	-0.033897985
242	0xbcc50136	-0.024048429
243	0x3d4a27e5	0.049354453
244	0xbd6f3eae	-0.058409385
245	0x3c62280d	0.013803494
246	0x39db235f	0.0004179729
247	0xbb1d3ea2	-0.002399363
248	0x3c79d59b	0.015248681
249	0x399626cf	0.00028639144
250	0xbc8f7ca8	-0.017515495
251	0xbbd1fcad	-0.006408295
252	0xbdd6bd0d	-0.10485277
253	0x3a19edb5	0.0005871908
254	0x3cb5daf9	0.02219914
255	0xbcffa11e	-0.031204756

module.bi_lstm1.bias_ih_l0 f4 [64]
0	0x3e115f51	0.14196517
1	0x3d43306c	0.0476536
2	0x3d94333a	0.07236333
3	0xbd95a6be	-0.07307194
4	0xbdc3f2c9	-0.09567792
5	0x3e1655e4	0.14681202
6	0xbdcd3b9c	-0.10021135
7	0x3d20c7b2	0.039252944
8	0x3c73e4cc	0.014886092
9	0xbd4c2c75	-0.049847085
10	0x3da0cfec	0.07852158
11	0x3ca18a77	0.019719345
12	0x3e834f86	0.2564661
13	0x3e1fa086	0.15588579
14	0x3d95a6cc	0.073072046
15	0x3d858d27	0.06521063
16	0x3d27a101	0.04092503
17	0x3e08f86b	0.13376014
18	0xbd101281	-0.035173897
19	0x3d815bb6	0.063163206
20	0x3d8024a4	0.06256989
21	0x3d9a2d65	0.075281896
22	0x3d8429e6	0.06453304
23	0x3def6a3d	0.11690185
24	0x3d53ac97	0.051678266
25	0xbd88bda7	-0.06676798
26	0x3db80384	0.089850456
27	0xbd9f1cb3	-0.07769146
28	0x3dc827b1	0.097731955
29	0xbda1cd43	-0.07900479
30	0x3d0b38be	0.03398966
31	0x3df693d1	0.120399125
32	0x3c18ab0b	0.009318124
33	0xbe3b6903	-0.18301778
34	0x3e698852	0.22805908
35	0x3ca779a3	0.020443743
36	0x3e251d8e	0.16124555
37	0x3e4776d3	0.19478922
38	0x3e09ccc8	0.13457024
39	0x3c3448b9	0.011003667
40	0x3e19b88a	0.15011802
41	0x3e791a09	0.24326338
42	0xbe5505b5	-0.20802958
43	0x3e63b504	0.2223702
44	0xbcd7b52a	-0.026331503
45	0x3e33d3c6	0.17561254
46	0x3defe7b9	0.117141195
47	0xbe536266	-0.20643005
48	0xbda4a548	-0.080393374
49	0xbe09bef2	-0.13451746
50	0xbde0659a	-0.10956879
51	0x3d884407	0.066536
52	0x3dfebfc0	0.12438917
53	0x3d29f0f8	0.04148957
54	0x3d452142	0.04812742
55	0xbcc8030a	-0.024415512
56	0x3c4a5b21	0.012350828
57	0x3ddf6a0a	0.10908897
58	0xbcedf379	-0.02904676
59	0x3d9906db	0.07472011
60	0x3ddcb348	0.10776383
61	0xbe17ab13	-0.14811353
62	0xbdc65403	-0.09683993
63	0x3ccab28a	0.024743337

module.bi_lstm1.bias_hh_l0 f4 [64]
0	0xbe27f21e	-0.16400954
1	0x3e385864	0.18002468
2	0x3e2e219d	0.1700501
3	0x3e14ea8e	0.145426
4	0xbdfb6704	-0.12275508
5	0x3d9d33a5	0.07675866
6	0x3cf355f6	0.029704075
7	0xbe34c8a4	-0.17654663
8	0xbc2aaffa	-0.010417933
9	0x3dc6ca15	0.09706513
10	0xbdc92727	-0.09821921
11	0x3d85c0ab	0.06530889
12	0x3e8a5a10	0.27021837
13	0x3c989a87	0.018628372
14	0x3d00c71b	0.03143988
15	0x3d9215c4	0.07133058
16	0xbe446067	-0.191774
17	0xbddee150	-0.10882819
18	0xbdf02065	-0.11724929
19	0xbd4d5325	-0.05012812
20	0xbe22ad29	-0.15886368
21	0xbd4522af	-0.04812878
22	0xbc2a3a1d	-0.010389832
23	0x3e2bd824	0.1678167
24	0x3d6f50bd	0.058426607
25	0xbcde5e06	-0.027144443
26	0x3d20e61c	0.03928195
27	0x3e34aa5e	0.17643115
28	0x3da24c7c	0.079247445
29	0x3d962fc7	0.073333316
30	0xbd82913b	-0.06375357
31	0xbd5c85b0	-0.05383843
32	0xbe512708	-0.20425045
33	0xbd3458d4	-0.044030026
34	0x3c9f2ef4	0.019431569
35	0x3d1477f5	0.036247212
36	0x3cd7d6c1	0.02634752
37	0xbd23df4e	-0.04000788
38	0x3e5e986a	0.21737829
39	0x3e523229	0.20526947
40	0x3def91d1	0.11697734
41	0xbe135b26	-0.14390239
42	0x3e562b6b	0.20915
43	0x3e6e6ab8	0.23282897
44	0xbe64ff10	-0.22362924
45	0x3c1eb345	0.009686296
46	0x3da2fc58	0.07958287
47	0xbdbf3003	-0.093353294
48	0xbe292d72	-0.16521242
49	0xbd7647c4	-0.060127035
50	0x3c24a8f2	0.010050045
51	0x3d7eaed2	0.06217844
52	0xbdfbb56b	-0.12290462
53	0x3c56320c	0.013073456
54	0x3dd8de9b	0.105893336
55	0xbd33360c	-0.043752715
56	0xbc2336db	-0.009961809
57	0xbe26567c	-0.16243929
58	0x3e14a0ab	0.14514415
59	0x3c5da50a	0.013528118
60	0x3ea34590	0.3188901
61	0x3c626140	0.0138171315
62	0x3bae103f	0.0053119953
63	0xbe1e8c34	-0.15483171

module.bi_lstm1.weight_ih_l0_reverse f4 [64, 14]
0	0x3cf263c6	0.029588591
1	0xbe537f54	-0.2065404
2	0x3e69daa5	0.22837313
3	0x3d7bc877	0.061470475
4	0xbe3c4bf3	-0.18388347
5	0xbe8bdb7a	-0.27315885
6	0xbe1d0d61	-0.15337135
7	0x3c270154	0.010193188
8	0xbde569f7	-0.11201852
9	0x3d4eedc1	0.05051971
10	0xbe21c385	-0.15797241
11	0x3bf1a2ef	0.0073741595
12	0xbdad41bc	-0.084598035
13	0x3b1919fb	0.0023361433
14	0x3e532954	0.20621234
15	0x3e3be6ed	0.1834981
16	0xbd9aea34	-0.07564202
17	0xbdf92a7c	-0.121663064
18	0x3df87435	0.1213154
19	0xbd394129	-0.045228157
20	0xbe02d3ed	-0.12776156
21	0x3e5ca04d	0.21545525
22	0x3d5e9c87	0.054348495
23	0xbd8bc6c5	-0.06825022
24	0x3dab7d9b	0.08373567
25	0x3e4a6e9a	0.19768754
26	0x3e75a48a	0.23988548
27	0x3e821b1e	0.25411314
28	0xbcfd13de	-0.030893262
29	0xbe1cd65b	-0.15316145
30	0x3dae1096	0.08499257
31	0xbdea32f4	-0.114355
32	0xbe226f39	-0.1586274
33	0xbded875e	-0.11598085
34	0x3dcdc9be	0.10048245
35	0x3db0bcbd	0.08629749
36	0xbe536222	-0.20642903
37	0x3df2b375	0.11850635
38	0xbe42c35f	-0.1901984
39	0xbdf8b754	-0.12144342
40	0x3e261ac9	0.16221155
41	0x3df2a236	0.118473455
42	0xbde10996	-0.109881565
43	0x3e4d8b3b	0.20072643
44	0x3dcf3fcf	0.101195924
45	0x3de69a9a	0.11259957
46	0x3e3728ef	0.17886709
47	0xbcd7e9a3	-0.026356524
48	0xbe2b0c1c	-0.16703838
49	0xbe489512	-0.19588116
50	0x3e0e29d0	0.13883138
51	0x3da36267	0.07977753
52	0xbc568295	-0.013092657
53	0xbcc036b8	-0.023463592
54	0xbe1d0047	-0.15332137
55	0xbd127a15	-0.035760958
56	0x3d8aae5b	0.06771537
57	0x3d5a42dc	0.05328642
58	0xbdab38fb	-0.083604775
59	0xbe2a8480	-0.16652107
60	0xbdd11a44	-0.10210088
61	0x3e0c05bd	0.13674064
62	0x3e3bba97	0.18332897
63	0x3d844898	0.06459159
64	0x3e6c3058	0.23065317
65	0x3d41449e	0.04718458
66	0x3de4da86	0.111744925
67	0x3e104dff	0.14092253
68	0x3d83d0ae	0.06436287
69	0x3e7e633f	0.24842547
70	0x3e1ff06e	0.1561906
71	0x3d967979	0.07347388
72	0x3e4258fb	0.18979256
73	0xbdbc1d24	-0.09185246
74	0x3e4a8f19	0.1978115
75	0x3d50b36b	0.050952356
76	0x3e5442e8	0.20728648
77	0x3cd9a00b	0.026565572
78	0xbe0aa465	-0.13539274
79	0x3de629c9	0.11238439
80	0x3e0d9e53	0.13829927
81	0x3e4cf265	0.20014341
82	0xbdcaf9e2	-0.099109426
83	0xbe2a9260	-0.166574
84	0xbe257cc4	-0.16160876
85	0xbc35af30	-0.011089131
86	0xbd1d2bb2	-0.03837175
87	0x3dcf32d1	0.10117114
88	0x3e838dd4	0.25694144
89	0xbb9dd2d1	-0.004816391
90	0x3dead303	0.114660285
91	0xbd81f43d	-0.06345413
92	0x3e84ef2b	0.2596372
93	0x3e092024	0.13391167
94	0x3bf6f73b	0.0075367964
95	0xbdf123c7	-0.11774402
96	0xbdee9cc8	-0.116509974
97	0xbe6a7f93	-0.22900228
98	0x3ea7f5fa	0.32804853
99	0x3e628161	0.22119667
100	0xbd1cf823	-0.03832258
101	0x3e02a3d4	0.12757808
102	0x3df9eb32	0.12203063
103	0x3d960c60	0.07326579
104	0xbd52bd6e	-0.051450185
105	0x3e15bd04	0.14622885
106	0x3e9c34cc	0.3050903
107	0x3a81eee7	0.0009913117
108	0xbe01d258	-0.12677896
109	0xbd23a33b	-0.03995059
110	0x3e6d7d40	0.2319231
111	0xbe1bb23e	-0.15204713
112	0x3e827f38	0.25487685
113	0xbddab1c5	-0.10678438
114	0x3e1d01b1	0.15332676
115	0x3e5dbdf3	0.21654491
116	0xbd422495	-0.04739817
117	0x3b30c8f2	0.0026975241
118	0x3d2bcbb5	0.041942317
119	0xbe3e7cfc	-0.18602365
120	0x3e0a80f7	0.13525759
121	0x3d33b752	0.043876
122	0x3d6aa1ea	0.05728332
123	0xbe253d61	-0.16136695
124	0xbe12c054	-0.1433118
125	0xbdb1e037	-0.08685344
126	0x3d495e7f	0.049162384
127	0x3e1bcfa1	0.15215923
128	0x3de50414	0.111824185
129	0x3dbc0df9	0.091823526
130	0xbe40373f	-0.18771075
131	0x3dd4bf50	0.103880525
132	0xbd8c3248	-0.06845528
133	0xbe25726e	-0.16156933
134	0x3dae9686	0.08524804
135	0xbd25ed12	-0.04050929
136	0xbe1c089e	-0.15237662
137	0x3da2a145	0.07940916
138	0xbe4f0bc0	-0.20219326
139	0xbe53e88f	-0.20694183
140	0xbe2ca3d1	-0.16859366
141	0x3d89e5ef	0.067333095
142	0x3e5a3e8a	0.2131292
143	0x3e3b7fe6	0.18310508
144	0x3d9ee4ee	0.077585086
145	0xbdb6323e	-0.08896302
146	0xbe290e64	-0.16509396
147	0x3cc986a1	0.024600329
148	0xbcfa22f0	-0.030534238
149	0xbd0a1250	-0.03370887
150	0x3e27769e	0.16353843
151	0xbe03c7dd	-0.1286921
152	0x3e38f97b	0.18063919
153	0xbe2b02c3	-0.16700272
154	0xbde5a6fb	-0.112134896
155	0xbde5da80	-0.11223316
156	0x3ddc8089	0.10766704
157	0xbd58140b	-0.05275349
158	0x3d49d670	0.04927677
159	0xbe0c5e9b	-0.13707964
160	0xbd148f0a	-0.036269225
161	0x3d99ffee	0.07519518
162	0x3e7fe6c2	0.24990371
163	0xbe6b7b81	-0.22996332
164	0x3e363fb7	0.17797743
165	0x3cbd8127	0.023132874
166	0x3d7a9fa3	0.061187398
167	0xbe0417f6	-0.12899765
168	0x3e02c824	0.1277166
169	0xbd9b367e	-0.07578753
170	0xbdc0f4b2	-0.09421672
171	0x3d2c854d	0.042119313
172	0x3c9f77a2	0.019466225
173	0x3c3a9b0a	0.011389503
174	0xbe1ef642	-0.15523627
175	0x3e66fb75	0.2255686
176	0xbd371b6f	-0.044703897
177	0xbc5c4126	-0.013443267
178	0x3d953407	0.07285314
179	0x3e040b8f	0.12895034
180	0x3db258c6	0.087083384
181	0x3e2dcbf0	0.16972327
182	0x3e0ba715	0.13637955
183	0x3e919669	0.28435066
184	0x3e85f03a	0.2615984
185	0x3c2b0a8b	0.010439525
186	0x3e371636	0.17879567
187	0x3e454c1a	0.19267312
188	0x3dcf79ba	0.101306394
189	0xbdb685ac	-0.08912215
190	0x3e1a6de8	0.15080988
191	0x3d8d6a90	0.06905091
192	0x3d7cd716	0.06172856
193	0x3e5b4c1f	0.21415757
194	0xbe28d228	-0.16486418
195	0xbdcc9e3c	-0.09991118
196	0xbdb2e615	-0.08735291
197	0x3e18cfc1	0.14923002
198	0xbe3df47b	-0.18550293
199	0xbc433af1	-0.011915908
200	0xbe510402	-0.20411685
201	0xbe517362	-0.20454171
202	0xbe2ec9d0	-0.17069173
203	0xb8e05a2c	-0.00010697948
204	0xbde660bc	-0.11248919
205	0x3cd4f1ec	0.025994264
206	0x3c8e038c	0.017335676
207	0x3e1dd495	0.15413125
208	0xbdc92dc6	-0.09823184
209	0x3e4097ec	0.18807954
210	0x3e820579	0.253948
211	0xbe0ef5e2	-0.13960984
212	0x3d9b3cc6	0.07579951
213	0xbdb2ebd9	-0.087363906
214	0x3d873666	0.066021726
215	0xbb503f4a	-0.0031776004
216	0xbe241749	-0.16024508
217	0x3c3ae2a0	0.011406571
218	0x3e885cc6	0.2663328
219	0x3dfa3823	0.122177385
220	0x3e6cb206	0.23114786
221	0xbceed848	-0.029155865
222	0xbdfc9331	-0.12332762
223	0x3e0f5851	0.13998534
224	0xbdb795e3	-0.089641355
225	0x3e3a0126	0.181645
226	0x3e7c45c6	0.24635991
227	0x3e68cb78	0.22733867
228	0x3e63db56	0.22251639
229	0xbdb8dc45	-0.09026388
230	0x3d73d789	0.059531722
231	0x3ce4618e	0.027878549
232	0x3e1fc6ef	0.15603231
233	0xbd3e6dbc	-0.04649137
234	0xbdd79c7f	-0.10527896
235	0x3e8ed0f5	0.27893797
236	0xbe19e7e0	-0.1502986
237	0xbc884693	-0.016635215
238	0x3e71cba5	0.2361284
239	0xbdc55b2c	-0.0963653
240	0xbd5e0671	-0.05420536
241	0x3e041512	0.12898663
242	0xbe0d5044	-0.1380015
243	0xbde5fc4d	-0.11229763
244	0xbe23e78e	-0.160063
245	0x3dbc5a9d	0.091969706
246	0x3d41d624	0.04732336
247	0x3e88ffc7	0.26757643
248	0x3e644705	0.22292717
249	0x3e4861e2	0.1956859
250	0x3e3a8deb	0.182182
251	0x3d803248	0.062595904
252	0x3e11dffd	0.14245601
253	0x3e0676cf	0.1313126
254	0x3e34612f	0.17615198
255	0x3e2fc31f	0.17164277

module.bi_lstm1.weight_hh_l0_reverse f4 [64, 16]
0	0xbd22ed59	-0.039777134
1	0xbe5daf48	-0.21648896
2	0xbc0c9786	-0.008581048
3	0xbe586b81	-0.2113476
4	0x3d7fcc4c	0.062450692
5	0x3da43c4e	0.08019315
6	0x3e4ea7db	0.2018122
7	0x3d6b2832	0.05741138
8	0xbe4e1bb8	-0.20127761
9	0x3dcbbff1	0.09948719
10	0x3e2b3005	0.16717537
11	0xbdc00098	-0.09375113
12	0xbdc81202	-0.0976906
13	0x3e47acb6	0.19499478
14	0xbd3e7fb6	-0.046508513
15	0x3da960c9	0.082704134
16	0xbdb30221	-0.087406404
17	0x3e0bcbde	0.13651988
18	0xbe32e28b	-0.17469232
19	0xbb07cc8e	-0.002072129
20	0x3c99103f	0.018684505
21	0xbce7c8fc	-0.028294079
22	0x3d6dc195	0.058045942
23	0xbe01ff0c	-0.12694949
24	0x3e32bcfe	0.17454907
25	0xbdbdbdce	-0.09264718
26	0x3dd29585	0.10282425
27	0x3db476ea	0.088117436
28	0xbd42705b	-0.04747043
29	0xbbcad6c5	-0.0061901533
30	0x3dbcb934	0.09215012
31	0x3d3f8f34	0.04676743
32	0x3e1c40a7	0.15259038
33	0xbe031c56	-0.12803778
34	0x3dde94eb	0.108682476
35	0x3df67a30	0.12035024
36	0xbe1783c0	-0.14796352
37	0x3c013155	0.007885297
38	0x3e346422	0.17616323
39	0x3d114be3	0.03547276
40	0xbd836b6f	-0.06416976
41	0xbdf5fea2	-0.12011458
42	0x3cf976c0	0.030452132
43	0x3d483488	0.048878223
44	0xbc68488f	-0.014177456
45	0x3e1dc0db	0.154056
46	0xbd879203	-0.066196464
47	0xbc7ad7b4	-0.015310217
48	0xbc13a5e3	-0.009011718
49	0xbcbd178d	-0.023082519
50	0xbde3cf34	-0.11123505
51	0xbcaa38cf	-0.020779042
52	0x3dc0ebc2	0.09419967
53	0xbd818797	-0.0632469
54	0x3e2eb501	0.17061235
55	0xbd846279	-0.06464095
56	0x3e242303	0.16028981
57	0xbd9f9477	-0.07791989
58	0xbbcf85d1	-0.006333091
59	0x3dfbe9a9	0.123004265
60	0x3e03c678	0.12868679
61	0xbc915fc7	-0.017745866
62	0xbd3f6b48	-0.04673317
63	0x3bd5b685	0.006522002
64	0xbd4c0dcb	-0.04981784
65	0xbe60da92	-0.21958378
66	0xbe0af185	-0.13568695
67	0xbdce6633	-0.10078087
68	0x3de5c525	0.11219243
69	0xbda97812	-0.08274855
70	0xbdcaa2b9	-0.09894318
71	0x3d274b56	0.04084333
72	0x3e0a12b5	0.13483699
73	0xbd70afb0	-0.0587613
74	0x3e7179b7	0.23581587
75	0x3d78e5a2	0.06076587
76	0x3d87af64	0.0662525
77	0xbbf474e7	-0.007460225
78	0x3cef239d	0.029191786
79	0x3dc495c9	0.09598882
80	0xbc9a9f86	-0.018874895
81	0xbd905374	-0.070471674
82	0x3d6352e4	0.055498973
83	0x3d953313	0.07285132
84	0x3ccbb899	0.024868296
85	0xbdd8160c	-0.1055108
86	0x3cf909fb	0.030400267
87	0x3d3790d1	0.044815842
88	0xbe518c64	-0.20463711
89	0xbe1463f2	-0.14491251
90	0xbe16ad83	-0.14714627
91	0x3ca90420	0.02063185
92	0xbdd92a11	-0.10603727
93	0x3e00c1bf	0.12573908
94	0x3d50e186	0.050996326
95	0x3dd2be3b	0.1029019
96	0xbe1a3308	-0.1505853
97	0x3dbf47ef	0.09339892
98	0x3dd0ab5c	0.10188934
99	0x3cddf1cc	0.027092837
100	0x3ec5be5a	0.3862179
101	0x3e89dfe1	0.2692862
102	0x3dea1a10	0.11430752
103	0x3d1a46ac	0.037665054
104	0xbdef72ee	-0.11691843
105	0x3e44a214	0.19202453
106	0x3e2fa8a8	0.17154181
107	0x3e216626	0.15761623
108	0xbd224062	-0.03961218
109	0xbeca3fc5	-0.39501777
110	0x3dd168b3	0.10225048
111	0xbc8a8a00	-0.016911507
112	0xbbe3b4da	-0.0069490494
113	0xbce169f3	-0.02751634
114	0xbdf779c2	-0.1208377
115	0xbe399c8d	-0.18126126
116	0x3de051cd	0.10953102
117	0x3e599ad4	0.21250468
118	0x3dd2daea	0.10295661
119	0x3d1b80da	0.03796468
120	0x3e4611aa	0.19342676
121	0xbdd13247	-0.10214668
122	0x3d917ac2	0.07103492
123	0xbd006ae8	-0.031351954
124	0x3e0b18a0	0.13583612
125	0xbe47cc31	-0.19511487
126	0xbdbc487d	-0.091935135
127	0xbdce22ee	-0.10065256
128	0x3d89b9d3	0.06724896
129	0x3db0feef	0.08642375
130	0xbdfc7491	-0.12326921
131	0xbd426d5a	-0.047467567
132	0x3ccbd959	0.024883913
133	0xbc8bf11b	-0.017082741
134	0xbd5788ae	-0.052620582
135	0xbe917402	-0.2840882
136	0x3d3a85a2	0.0455376
137	0x3e3f1a54	0.18662387
138	0xbe0c169f	-0.13680504
139	0x3da6c196	0.08142392
140	0x3b8e2eee	0.0043390905
141	0xbe5e9e67	-0.21740113
142	0xbd86c701	-0.06580926
143	0xbc58de79	-0.013236635
144	0x3e048d85	0.1294461
145	0x3de16d98	0.110072315
146	0xbd8d2bec	-0.06893143
147	0x3e401319	0.18757285
148	0xbe062a06	-0.13101968
149	0xbc4449bd	-0.011980471
150	0x3d3f766d	0.0467438
151	0x3e06a72c	0.13149709
152	0xbe194170	-0.14966369
153	0x3dae2807	0.08503728
154	0x3e17b9ee	0.1481702
155	0xbdd15132	-0.10220565
156	0x3c5fe596	0.013665577
157	0xbcf65f4e	-0.030074742
158	0x3de231e9	0.11044676
159	0xbd81c998	-0.06337279
160	0xbe23ec35	-0.16008075
161	0x3e0ec79e	0.13943335
162	0x3cd41ca5	0.025892565
163	0xbcace630	-0.021105856
164	0x3df8095b	0.121111594
165	0x3c72a679	0.014810198
166	0xbd846303	-0.064641975
167	0x3ce0869e	0.02740794
168	0xbd327cee	-0.043576173
169	0x3d0c6d5d	0.034283984
170	0xbbd2a8b6	-0.0064288033
171	0x3d2b6b58	0.041850418
172	0xbc5da01f	-0.013526945
173	0x3d2db6a9	0.042410526
174	0x3c415003	0.011798861
175	0x3de71fc3	0.11285355
176	0xbdfd7b4d	-0.123770334
177	0x3da72b32	0.08162536
178	0x3dfeda84	0.12444022
179	0x3d9d46b9	0.07679505
180	0x3e23b0f0	0.15985465
181	0x3cfe6dab	0.031058153
182	0xbe06739d	-0.1313004
183	0xbe1a4004	-0.15063483
184	0x3ce3f699	0.027827548
185	0x3cda1e7b	0.026625862
186	0x3e12cd9a	0.14336243
187	0x3bc56f4d	0.006025231
188	0x3cf470fe	0.029839035
189	0xbddf9605	-0.10917286
190	0xbd9608b0	-0.07325876
191	0xbd94356a	-0.072367504
192	0x3e14b895	0.14523537
193	0xbe3738e9	-0.17892803
194	0xbe4f8643	-0.2026606
195	0x3d8051a4	0.06265572
196	0xbe07a687	-0.13247119
197	0xbdc85ac7	-0.097829394
198	0xbe8176a0	-0.25285816
199	0xbd9f5c67	-0.07781296
200	0xbe09ea80	-0.13468361
201	0xbe038b02	-0.12845996
202	0x3ddf9484	0.10916999
203	0x3d179c55	0.037014324
204	0xbd59f3fd	-0.0532112
205	0x3e013170	0.12616515
206	0xbdbea8c8	-0.09309536
207	0xbd0aa3dc	-0.033847675
208	0x3c789168	0.015171386
209	0x3db21d19	0.08696956
210	0xbaf39671	-0.0018584264
211	0xbdd98270	-0.10620582
212	0x3d73c4e8	0.059513956
213	0x3d472f29	0.04862896
214	0xbc91e660	-0.017810047
215	0xbd8ff016	-0.07028215
216	0x3dc3f749	0.0956865
217	0xbd817062	-0.063202634
218	0xbd8d5296	-0.06900518
219	0xbc17735d	-0.009243813
220	0x3dac543f	0.08414506
221	0xbe0bbfe6	-0.13647422
222	0xba9f4efc	-0.0012154276
223	0xbd0d69d7	-0.034524765
224	0xbdf741ad	-0.120730735
225	0x3d4c0781	0.049811844
226	0xbdd01b33	-0.10161438
227	0x3a7b81d7	0.0009594238
228	0xbcbefee4	-0.0233149
229	0x3ca658f3	0.020306086
230	0x3d9e1fea	0.07720931
231	0xbd1743a2	-0.036929734
232	0x3e2fb3ac	0.17158383
233	0xbd25a58d	-0.040441085
234	0x3d577823	0.052604806
235	0xbc92e7d4	-0.01793281
236	0x3d180639	0.03711531
237	0x3e1b42a2	0.15162137
238	0xbe16f977	-0.14743601
239	0xbe0c78d1	-0.13717963
240	0x3da0724a	0.07834299
241	0x3d390ebb	0.045180064
242	0x3dc1a9c0	0.09456205
243	0xbd3fd643	-0.046835195
244	0xbd133c44	-0.035946146
245	0x3d9c2ec0	0.07626104
246	0xbe0ca2c6	-0.13733968
247	0xbe50cfe7	-0.20391808
248	0xbd4d0f0f	-0.05006319
249	0x3b8b3609	0.004248385
250	0xbe30f170	-0.17279601
251	0x3da93476	0.08261959
252	0x3dab7b74	0.08373156
253	0xbe63fb3c	-0.22263807
254	0x3d393966	0.045220755
255	0xbd85e0af	-0.065369956

module.bi_lstm1.bias_ih_l0_reverse f4 [64]
0	0xbd1e05a8	-0.038579613
1	0x3e68601c	0.22692913
2	0x3e16bb65	0.14719923
3	0xbde962ca	-0.11395796
4	0xbded8cef	-0.115991466
5	0xbd08ab5c	-0.033366546
6	0x3e31761d	0.17330213
7	0x3da3d40d	0.0799943
8	0x3e701dc6	0.23448858
9	0xbd1f36ca	-0.03887061
10	0x3e1210a6	0.14264163
11	0xbcb4823f	-0.022034762
12	0x3e6e0f22	0.2324796
13	0x3d80354d	0.06260166
14	0xbcdba534	-0.026812173
15	0xbe2a7608	-0.16646588
16	0x3e38f980	0.18063927
17	0xbcf2c481	-0.029634716
18	0x3dbfa2ba	0.093572095
19	0x3d3f8bff	0.04676437
20	0x3ea98be5	0.33114544
21	0x3bd3cd87	0.0064637098
22	0xbd7f1653	-0.06227715
23	0xbd9e5f20	-0.077329874
24	0x3e8fe94d	0.28107682
25	0xbdeaacd2	-0.11458744
26	0x3e0bf387	0.13667117
27	0xbd028412	-0.031864233
28	0x3cf8fb5b	0.030393293
29	0xbd5bb304	-0.05363752
30	0x3e7ff236	0.2499474
31	0x3e1a08cd	0.1504242
32	0x3da62498	0.081124485
33	0xbe5ea724	-0.21743447
34	0xbe0a305b	-0.13495009
35	0xbd1fd37d	-0.03902005
36	0x3c9ee229	0.019394951
37	0xbd6c0fa1	-0.057632092
38	0x3d401842	0.046898134
39	0x3e48fb1e	0.19627044
40	0xbd4f9763	-0.050681483
41	0xbe7314af	-0.23738359
42	0x3e38cffd	0.18048091
43	0x3dab8a75	0.08376018
44	0x3dfbc164	0.12292746
45	0xbe1c4dfd	-0.15264125
46	0xbd6fe355	-0.05856641
47	0x3e513fdb	0.20434515
48	0x3dfc48a8	0.123185456
49	0x3e05a808	0.1305238
50	0x3e21d2e5	0.15803106
51	0x3d67edb6	0.056623183
52	0x3e905184	0.2818719
53	0x3d9bd77e	0.07609461
54	0x3cedabc7	0.029012574
55	0x3e2c9513	0.16853742
56	0x3dedc95d	0.116106726
57	0xbc6ccade	-0.014452664
58	0x3da833fe	0.08213042
59	0x3c255037	0.0100899255
60	0x3e22fdb1	0.15917088
61	0xbc97e37c	-0.01854109
62	0xbb381f7a	-0.0028094933
63	0xbdf37cc3	-0.11889031

module.bi_lstm1.bias_hh_l0_reverse f4 [64]
0	0xbd90fae3	-0.07079103
1	0xbe114840	-0.14187717
2	0x3e666464	0.22499233
3	0x3c251132	0.0100749
4	0x3e8725e3	0.26396093
5	0xbdeb072f	-0.114759795
6	0xbd829099	-0.06375236
7	0x3d8db5db	0.06919452
8	0x3e23cb9e	0.15995643
9	0xbe06d6d4	-0.13167888
10	0xbdf38247	-0.11890083
11	0xbe34b717	-0.17647968
12	0xbdd951ef	-0.10611331
13	0xbd617528	-0.05504337
14	0xbe1885ec	-0.14894837
15	0x3d940f38	0.07229465
16	0xbda9f1ae	-0.0829805
17	0xbbe31c15	-0.006930838
18	0xbe3e5b9f	-0.18589638
19	0x3c5b16ac	0.013372105
20	0x3e9acd85	0.30234924
21	0x3e18f621	0.1493764
22	0x3eb5e639	0.35527208
23	0x3e9a635b	0.30153927
24	0x3d3f25b8	0.04666683
25	0xbe3879fd	-0.18015285
26	0x3e1b217d	0.15149494
27	0xbc5f0776	-0.013612619
28	0x3d9aa1a9	0.075503655
29	0x3e8b4736	0.27202767
30	0x3e172361	0.1475959
31	0xbe139b19	-0.14414634
32	0x3d1232ed	0.035693098
33	0x3d9dfbdd	0.07714055
34	0xbe874c3d	-0.26425353
35	0xbe36ec13	-0.17863493
36	0xbd20f5dd	-0.039296973
37	0x3d9ec473	0.077523135
38	0x3e791910	0.24325967
39	0x3c65c76f	0.014024599
40	0x3dd2252c	0.10260996
41	0x3b53553f	0.0032246856
42	0x3db28c0b	0.08718117
43	0xbc9bb1e9	-0.019005733
44	0x3ccb50c4	0.024818785
45	0x3e8e489f	0.2778978
46	0xbe7b5c9e	-0.2454705
47	0xbde14c99	-0.11000938
48	0xbdf13803	-0.117782615
49	0x3d266a45	0.04062869
50	0x3e6e172d	0.23251028
51	0x3e1450b8	0.14483917
52	0x3c963d02	0.018339638
53	0x3da4becb	0.08044203
54	0x3e1ec71d	0.15505643
55	0xbdee8885	-0.11647133
56	0x3e727c49	0.23680224
57	0x3e6019e5	0.21884878
58	0x3d54c306	0.0519438
59	0x3d8845ba	0.06653924
60	0xbde0e281	-0.10980702
61	0x3d16db85	0.036830444
62	0xbdbbe860	-0.091751814
63	0xbd99f9e4	-0.07518366

module.bi_lstm2.weight_ih_l0 f4 [128, 16]
0	0x3cfdb878	0.03097175
1	0xbd880b42	-0.06642772
2	0xbb6e91f4	-0.0036402913
3	0xbcc234b1	-0.023706766
4	0x3cfda0fb	0.03096055
5	0xbd141683	-0.03615428
6	0x3c9d6944	0.019215234
7	0xbc87640a	-0.016527195
8	0x3d87ef08	0.066373885
9	0xbc913d0c	-0.017729305
10	0xbdb37f27	-0.08764487
11	0x3d05af2f	0.03263777
12	0x3d0b35c4	0.03398682
13	0xbd522c1f	-0.05131161
14	0xbba38992	-0.004990765
15	0x3db1c7be	0.08680676
16	0x3cf667bf	0.030078767
17	0xbcdfc7ae	-0.027316894
18	0xbbbac7eb	-0.0057001016
19	0x3c8b6cab	0.01701959
20	0xbcdf164a	-0.027232308
21	0xbb82ae00	-0.0039880276
22	0x3d67d819	0.05660257
23	0x3d4364c5	0.047703523
24	0xbd05d889	-0.032677207
25	0xbc87c7b2	-0.016574714
26	0xbbea6645	-0.0071533048
27	0xbb9bcd32	-0.004754686
28	0x3c2861c5	0.010277216
29	0xbc0fcb81	-0.008776546
30	0x3a009a0c	0.0004905767
31	0x3c885987	0.016644252
32	0x3be8ae89	0.0071008843
33	0x3c70b256	0.014690956
34	0x3afbd518	0.0019213287
35	0xbc4bb7a2	-0.012433918
36	0x3c934df3	0.017981505
37	0x3b32a050	0.0027256198
38	0x3ca4987f	0.020092247
39	0x3b238a3c	0.002495422
40	0xb9b7e3b1	-0.00035074123
41	0x3af68007	0.0018806466
42	0xbae11928	-0.0017173635
43	0xba723e73	-0.0009240873
44	0xbce81702	-0.028331283
45	0xbbc7ba4d	-0.006095207
46	0x3bd5bbb6	0.006522621
47	0x3acd4a3b	0.0015662381
48	0xbc72b3a3	-0.014813337
49	0x3d00fb13	0.031489443
50	0xbb6d2a4a	-0.0036188536
51	0x3ca2aee4	0.019858785
52	0x3cdd961d	0.027049119
53	0xba667284	-0.0008790868
54	0xbbb7f25f	-0.0056136097
55	0x3ce41254	0.02784077
56	0xbcca52d3	-0.024697697
57	0xbc030b78	-0.00799834
58	0xbb7bf046	-0.0038442775
59	0xbbef5465	-0.007303762
60	0x3caa879e	0.02081662
61	0x3ad33b8e	0.0016115771
62	0x3be316e6	0.00693022
63	0x3ccd3d70	0.02505371
64	0x3d397550	0.045277894
65	0xbd60fbaa	-0.054927506
66	0xbce79425	-0.028268883
67	0xbc75a76c	-0.01499353
68	0xbd19b12f	-0.03752249
69	0xbc11495b	-0.008867587
70	0xbc99851c	-0.01874023
71	0xbd99dd3d	-0.07512901
72	0xbcb06e54	-0.021536984
73	0xbc8b97dd	-0.017040187
74	0x3cf8fc04	0.030393608
75	0x3ceafa7e	0.028683897
76	0xbd4ecdf9	-0.0504894
77	0x3db6acae	0.08919655
78	0xbd5e6524	-0.054295674
79	0xbd95b96f	-0.07310759
80	0x3c578e8e	0.013156546
81	0xbd4849af	-0.048898395
82	0xbc4cdff6	-0.012504568
83	0xbbe45a00	-0.0069687366
84	0xbd6ea60b	-0.05826382
85	0xbc5ad786	-0.013357049
86	0xbdab3516	-0.08359735
87	0xbd86c152	-0.06579842
88	0x3ca139d1	0.01968089
89	0xbb514a3a	-0.0031935112
90	0x3d756663	0.059912097
91	0x3ca38a12	0.019963298
92	0xbd126127	-0.035737183
93	0x3d300285	0.042971153
94	0xbd19fc7c	-0.037594303
95	0xbd3fe7a2	-0.04685176
96	0x3c236187	0.009971983
97	0x3ceaf448	0.028680936
98	0xbbfa08f0	-0.00763046
99	0x3d06f948	0.032952577
100	0x3d02ea35	0.03196164
101	0xbb10bbc1	-0.0022084566
102	0x3c88d40f	0.01670268
103	0x3d4c09e5	0.049814124
104	0xbd7f4aec	-0.06232731
105	0x3985cb5e	0.00025519257
106	0xbccf7057	-0.025322122
107	0xbc11bb75	-0.008894791
108	0x3cc2341a	0.023706485
109	0xbb6e0ea1	-0.0036324637
110	0x3a4472fc	0.00074939406
111	0x3d1cfabd	0.03832506
112	0xbca84ca4	-0.020544358
113	0x3cd6c31a	0.026216079
114	0x3c2193c1	0.009861887
115	0xbb0570a4	-0.0020361328
116	0x3c1a98de	0.00943586
117	0x3b146452	0.0022642803
118	0xba404a54	-0.00073352945
119	0xbc8b7cda	-0.017027307
120	0x3c8d3564	0.017237373
121	0x3c53532b	0.012898247
122	0xbb60c167	-0.0034294964
123	0xbb67041b	-0.003525025
124	0xbc10a412	-0.00882818
125	0xbc8df51d	-0.017328793
126	0x3ca3b730	0.019984812
127	0x3be219a7	0.0069000307
128	0x3d9fc8b7	0.07801955
129	0xbc2e47e9	-0.010637262
130	0xbd3d239e	-0.046176545
131	0x3cf33ef9	0.029693114
132	0x3c480fce	0.012210799
133	0x3c1a7e75	0.009429564
134	0x3e39a8cc	0.18130797
135	0x3e11a714	0.14223891
136	0xbe1fd233	-0.15607528
137	0xbd753bd7	-0.05987152
138	0x3d36d19b	0.04463349
139	0x3cc5206a	0.024063308
140	0xbbd2ce88	-0.006433312
141	0x3d0dfa14	0.03466232
142	0xbcff66fb	-0.031177035
143	0x3d369028	0.044571072
144	0x3bb848c9	0.005623911
145	0x3da077ef	0.078353755
146	0x3c8b5836	0.017009836
147	0x3b5fba10	0.0034138002
148	0xbd6f7128	-0.058457524
149	0xbb8de866	-0.0043306826
150	0x3d50a5b1	0.050939266
151	0x3d018bd7	0.031627502
152	0x3d11d9ab	0.035607975
153	0x3c4a6c09	0.012354859
154	0xbd4a94fd	-0.049458493
155	0xbca564c3	-0.020189648
156	0x3cb109a4	0.021611042
157	0x3cb50c3e	0.022100564
158	0x3c5ed54f	0.013600661
159	0x3d57fd4d	0.0527318
160	0x3d6ff58a	0.058583774
161	0xbd47dc53	-0.048794102
162	0xbd08d6eb	-0.033408087
163	0x3d3964f8	0.045262307
164	0xbd38ce0d	-0.04511838
165	0xbca5f21e	-0.020257052
166	0x3d40a83b	0.047035437
167	0x3d9b55f9	0.07584757
168	0xbdcab51e	-0.098978266
169	0xbd170d5f	-0.036877986
170	0x3c919fc5	0.01777638
171	0xbbffa5a2	-0.0078017274
172	0xbc86ba5d	-0.016446287
173	0x3ca692fd	0.020333761
174	0xbc04b845	-0.008100574
175	0x3c7ad3a3	0.015309247
176	0xbc88d49f	-0.016702948
177	0xbb647e3e	-0.0034865285
178	0xbbc6d566	-0.0060679195
179	0xbd9dee3e	-0.07711457
180	0xbc463ec4	-0.012099925
181	0x3cb77d98	0.022398755
182	0xbc8ad800	-0.0169487
183	0xbd92e860	-0.07173228
184	0x3d6bcb85	0.05756714
185	0x3c2056ca	0.009786317
186	0x3c06afd7	0.008220634
187	0x3b8b6cb2	0.004254901
188	0xbd2a4dcc	-0.0415781
189	0x3a9cff90	0.0011978019
190	0xbc8ec3f7	-0.017427428
191	0xbd562266	-0.0522789
192	0xbd031892	-0.032005854
193	0x3b01072f	0.001968812
194	0x3c1d60ae	0.00960557
195	0xbc6ff4c0	-0.014645755
196	0x3c89177c	0.016734831
197	0x3bf81327	0.0075706425
198	0x3c68eeeb	0.014217119
199	0xbc6308ee	-0.0138571095
200	0x3ba494fb	0.0050226427
201	0x3c023424	0.007947002
202	0xbc95166e	-0.018199172
203	0xbc70ce07	-0.014697558
204	0x3b7c8d08	0.003853621
205	0xbce79133	-0.028267479
206	0xbb448631	-0.002998721
207	0xbcc06fba	-0.023490775
208	0xbcb6eff4	-0.022331215
209	0x3d471600	0.048604965
210	0x3c4e48f6	0.012590637
211	0xbc02202a	-0.007942239
212	0x3d0561d4	0.032564
213	0x3b2978f3	0.0025859445
214	0x3d1839f1	0.037164632
215	0xbc0e4132	-0.008682536
216	0x3c9435de	0.018092092
217	0x3b82df16	0.003993879
218	0xbd13c839	-0.03607962
219	0xbc9a164d	-0.018809462
220	0xbbe3e0d9	-0.006954294
221	0xbd2d4a5b	-0.04230724
222	0x3cd0db71	0.025495263
223	0x3d04c8ac	0.032417938
224	0xbd0fce9e	-0.035109155
225	0xbc58981d	-0.01321986
226	0x3c9da6c2	0.019244555
227	0x3bdea27d	0.0067942725
228	0x3ca61a40	0.020276189
229	0x3b9d4b0b	0.0048002056
230	0x3d89cf8f	0.06729042
231	0x3c16f699	0.009214067
232	0xbd136113	-0.03598125
233	0x3c56ee58	0.013118349
234	0xbd39c075	-0.045349557
235	0xbc09678c	-0.008386504
236	0x3ceec07e	0.029144522
237	0xbc5b6f02	-0.013393166
238	0x3bea9a80	0.007159531
239	0x3cc901e8	0.024537042
240	0x3caea238	0.021317586
241	0xbd68474a	-0.05670861
242	0xbc4ec8fa	-0.012621159
243	0x3bdeb39e	0.0067963144
244	0xbb85f075	-0.0040875026
245	0xbbaf84a2	-0.0053563872
246	0x3c584740	0.013200581
247	0x3c545ccb	0.012961577
248	0xbcaf5e2a	-0.021407206
249	0xbce461ef	-0.02787873
250	0x3931b5ba	0.00016947734
251	0x3c259d39	0.010108286
252	0xbc0fe5d9	-0.008782827
253	0x3c99063c	0.01867973
254	0xbc934a22	-0.017979685
255	0xbbcfbdad	-0.00633975

module.bi_lstm2.weight_hh_l0 f4 [128, 32]
0	0x2d744e7c	1.3887221e-11
1	0x979016db	-9.311551e-25
2	0x16ba1d2a	3.0068326e-25
3	0xa334fa18	-9.810779e-18
4	0x1590e379	5.8520025e-26
5	0xa505226f	-1.1547578e-16
6	0x9ae38887	-9.410557e-23
7	0x9d123c28	-1.935404e-21
8	0x18567082	2.7715654e-24
9	0xaccca836	-5.816704e-12
10	0x98a99f26	-4.3846175e-24
11	0x272411fd	2.2769323e-15
12	0x9613e241	-1.1945959e-25
13	0x9ea1e6ab	-1.714194e-20
14	0x234cfaa9	1.11119415e-17
15	0x150bfa95	2.82685e-26
16	0x9fd75f89	-9.121409e-20
17	0x9dfb7766	-6.65626e-21
18	0x248cfa05	6.113887e-17
19	0x2d3db27e	1.0783039e-11
20	0xa9d1e418	-9.3210324e-14
21	0x17c52617	1.2740442e-24
22	0x1dad8699	4.593189e-21
23	0x14bab947	1.885428e-26
24	0x9b076a0c	-1.1201204e-22
25	0x1637e415	1.4854592e-25
26	0x1f965613	6.366987e-20
27	0x12d30acb	1.3318633e-27
28	0x1adec46d	9.213439e-23
29	0x234dc6b9	1.11551534e-17
30	0x94eefec8	-2.4132352e-26
31	0x1552dd2f	4.2583645e-26
32	0x18fc4ccd	6.5218022e-24
33	0x2986764a	5.971315e-14
34	0xadb4a015	-2.0534721e-11
35	0x97485dcb	-6.474187e-25
36	0x16443658	1.5849902e-25
37	0x23045c04	7.175219e-18
38	0x962b65fe	-1.3845453e-25
39	0x16cf37d7	3.3477894e-25
40	0x9f7b5aff	-5.3226588e-20
41	0x998bd1cc	-1.4457e-23
42	0x1a5d72ea	4.5794556e-23
43	0xa3471ecf	-1.0794336e-17
44	0x1791f1ed	9.431476e-25
45	0xa762ecae	-3.1492105e-15
46	0x9f4ac00c	-4.293402e-20
47	0x19aee23b	1.8082552e-23
48	0x96ae7c7e	-2.8189782e-25
49	0xa90b95d1	-3.0994145e-14
50	0x9bdb17d9	-3.6245922e-22
51	0x1f913370	6.1494985e-20
52	0x2700d17a	1.7877126e-15
53	0x1903444c	6.786334e-24
54	0x94e3bfe3	-2.2996828e-26
55	0x99d5476a	-2.2052528e-23
56	0x957cdb71	-5.1064103e-26
57	0x94509645	-1.0530952e-26
58	0x9c8665f0	-8.893726e-22
59	0x1781e1d3	8.393436e-25
60	0x9f9517f7	-6.31436e-20
61	0x16b64b15	2.945107e-25
62	0x99469c5b	-1.0267936e-23
63	0x1a158594	3.092038e-23
64	0x2700b64b	1.786239e-15
65	0x17a356aa	1.0555505e-24
66	0xa096e611	-2.5563234e-19
67	0xa5e48946	-3.9644715e-16
68	0x1b61500b	1.8637427e-22
69	0xa9ec889e	-1.05042047e-13
70	0x24525168	4.5605445e-17
71	0x98944bb0	-3.833353e-24
72	0xa18e48c6	-9.641557e-19
73	0x1427511f	8.447344e-27
74	0x99c83b3e	-2.0703443e-23
75	0x1447c3cb	1.0085546e-26
76	0x19244d94	8.494268e-24
77	0x1d1f808d	2.1109934e-21
78	0x183a58b9	2.408473e-24
79	0x97037b1c	-4.248377e-25
80	0x17549cda	6.869887e-25
81	0x1cbe4d43	1.2593117e-21
82	0x955a378b	-4.4068565e-26
83	0xa09a7e1e	-2.6172072e-19
84	0x1ad7afeb	8.9206127e-23
85	0xa70b68b1	-1.9346878e-15
86	0x29ca72fe	8.99055e-14
87	0xa6757324	-8.5157495e-16
88	0x2c998e71	4.3643357e-12
89	0x16efcc41	3.8741435e-25
90	0xa437121a	-3.9697132e-17
91	0x198dfd34	1.4681326e-23
92	0xa347b9f6	-1.082719e-17
93	0x181f7b86	2.0612632e-24
94	0x9ea042d8	-1.6968305e-20
95	0xab0ec8f0	-5.072739e-13
96	0x974b8cda	-6.5770617e-25
97	0x157696d4	4.9798287e-26
98	0x95c4176e	-7.9200735e-26
99	0x1fdfbce0	9.475664e-20
100	0x14437b33	9.869281e-27
101	0x9d9e41ca	-4.1890276e-21
102	0x9a76e4f5	-5.1056558e-23
103	0x190efdf2	7.392512e-24
104	0x1a4c2e20	4.222347e-23
105	0x96ddc008	-3.5825664e-25
106	0x1c746883	8.0867906e-22
107	0x190d5a66	7.307785e-24
108	0x2724d13b	2.2872996e-15
109	0x164335f5	1.5769e-25
110	0x2714ee5a	2.0668337e-15
111	0x2712b207	2.035808e-15
112	0x21dfcdeb	1.5165574e-18
113	0x15a9d1f0	6.858978e-26
114	0x154cea89	4.1382488e-26
115	0x16e69b18	3.7256382e-25
116	0x2722ff62	2.262046e-15
117	0x190afbc4	7.1852764e-24
118	0x2214daf3	2.017365e-18
119	0x231d80c5	8.538255e-18
120	0xa1a0894e	-1.0878366e-18
121	0x1c218297	5.3439215e-22
122	0xa71d0a29	-2.1793635e-15
123	0x9d82c3a4	-3.4613e-21
124	0x97be0aa5	-1.2281149e-24
125	0x989ec8b9	-4.104472e-24
126	0x204b7ee4	1.7236753e-19
127	0x26995bf3	1.0641431e-15
128	0xa638829e	-6.4014843e-16
129	0x161dabcd	1.273657e-25
130	0x29ecbbda	1.05130924e-13
131	0x9a1e79bc	-3.277197e-23
132	0xacd56f23	-6.0661628e-12
133	0xa6dee0e7	-1.5465304e-15
134	0x94ad08b6	-1.7471972e-26
135	0x1fb3744d	7.600185e-20
136	0x995a414c	-1.12835224e-23
137	0xa4fc9355	-1.0953717e-16
138	0x29f60003	1.09245966e-13
139	0x9685a971	-2.1594241e-25
140	0x1daf1cf1	4.635204e-21
141	0x22896bad	3.724793e-18
142	0x15f2d486	9.8078324e-26
143	0x16a00e87	2.5858562e-25
144	0xa9f768b8	-1.0987169e-13
145	0x16c84f78	3.2361895e-25
146	0x1e94c966	1.5753406e-20
147	0x9dccfaa8	-5.4257523e-21
148	0x9f80ed35	-5.4602535e-20
149	0x1a239467	3.3827488e-23
150	0x9db038a8	-4.6645393e-21
151	0x1d1c9e46	2.0728254e-21
152	0xa939075a	-4.108463e-14
153	0x994f223c	-1.0708563e-23
154	0x235853ba	1.1727113e-17
155	0x29c7b8d0	8.869435e-14
156	0x9ff1f4c2	-1.0247239e-19
157	0x208ef167	2.4215482e-19
158	0x9cf00c3c	-1.588503e-21
159	0x9f0b70c1	-2.9527663e-20
160	0x9a85668d	-5.517319e-23
161	0x1a5baf9e	4.543e-23
162	0xa1dbde59	-1.4898872e-18
163	0x15585235	4.3685703e-26
164	0x21776c41	8.383013e-19
165	0x29b9b819	8.247586e-14
166	0x990d475d	-7.303941e-24
167	0x167e72a1	2.0554127e-25
168	0x27164ec2	2.0859376e-15
169	0xac0ff076	-2.0455005e-12
170	0x97b5aa42	-1.173983e-24
171	0xa301d0a0	-7.037282e-18
172	0x25257f2f	1.435456e-16
173	0x959839fc	-6.1483794e-26
174	0xa01a1f16	-1.3054593e-19
175	0x9ef0b2bc	-2.5484911e-20
176	0x970d210c	-4.560127e-25
177	0xa094f315	-2.5233033e-19
178	0x983145d0	-2.291196e-24
179	0xa9e24889	-1.0048999e-13
180	0x250ab911	1.2032295e-16
181	0x271b9c3d	2.1595268e-15
182	0x1631dfc1	1.436855e-25
183	0x2d82d02b	1.4871734e-11
184	0x1a1f5b95	3.295441e-23
185	0x9651bc74	-1.6942351e-25
186	0x9a847e2e	-5.4797775e-23
187	0x942d8dcb	-8.762232e-27
188	0x19018c49	6.697474e-24
189	0xa19118ce	-9.832148e-19
190	0xa894da57	-1.652599e-14
191	0x17860616	8.661083e-25
192	0x95809d65	-5.194711e-26
193	0x285ed255	1.2369084e-14
194	0x195ffddb	1.15800955e-23
195	0x20a48f36	2.787745e-19
196	0x95d872e9	-8.7423e-26
197	0x18ad39af	4.4777697e-24
198	0x96f7385e	-3.9940575e-25
199	0x97eeda55	-1.5435504e-24
200	0x14c087e9	1.9440653e-26
201	0x9f872eaf	-5.7251955e-20
202	0x9ad9b9dd	-9.0049375e-23
203	0x19287fef	8.7112324e-24
204	0x983b0f54	-2.4176922e-24
205	0x9710150a	-4.6555464e-25
206	0x209e1e5b	2.6786329e-19
207	0x95c36a90	-7.8928e-26
208	0x949ba652	-1.5716602e-26
209	0x9b83448e	-2.1716434e-22
210	0x160330c2	1.0597481e-25
211	0x1831f827	2.3001999e-24
212	0x99383205	-9.5226784e-24
213	0x13565879	2.7054218e-27
214	0xad9a76cb	-1.7560528e-11
215	0x1a72afab	5.018633e-23
216	0x9a942318	-6.126806e-23
217	0x2875cfd1	1.3645295e-14
218	0x95b8fb6a	-7.471367e-26
219	0xa4d52844	-9.244224e-17
220	0x20a56080	2.8015946e-19
221	0xa93591f5	-4.031667e-14
222	0x976e3542	-7.696917e-25
223	0x16dda529	3.5808706e-25
224	0x16007eaf	1.0379732e-25
225	0x9701cf7c	-4.194403e-25
226	0x982be394	-2.221613e-24
227	0x96ad303e	-2.7980103e-25
228	0x2c1c844d	2.2242375e-12
229	0xa5d966af	-3.771308e-16
230	0xa9f6a640	-1.09534343e-13
231	0xa5092264	-1.1894508e-16
232	0x95bc66c7	-7.609475e-26
233	0x1596b784	6.0874054e-26
234	0x197d15d1	1.3084199e-23
235	0x970864ab	-4.407103e-25
236	0x15cd5c65	8.2944613e-26
237	0x9716e885	-4.8761095e-25
238	0xab89bb98	-9.786503e-13
239	0x2d323e71	1.0131993e-11
240	0x15a01c32	6.466797e-26
241	0xa4d52e29	-9.2452223e-17
242	0x1a229d6d	3.3627982e-23
243	0x1e9c96d2	1.657952e-20
244	0x96e6b535	-3.7272862e-25
245	0x2dcfddf6	2.3631746e-11
246	0x17219f38	5.222287e-25
247	0x94829abd	-1.3187679e-26
248	0x966ba750	-1.9035943e-25
249	0x1c67e2e4	7.672474e-22
250	0x17ff18d4	1.6485256e-24
251	0x9980b101	-1.3306381e-23
252	0x17335c0e	5.795421e-25
253	0x15a8d5f7	6.8192237e-26
254	0x1778299e	8.018565e-25
255	0xa226247d	-2.2516512e-18
