output/clip/FD001/exp_202411012252_bilstm_clip_ep-0005.pth (torch, 288916 bytes, 66 tensors)

module.bi_lstm1.weight_ih_l0 f4 [64, 14]
000000 31 1e e0 3d 61 25 ce 3d 7a 9a 1a 3e 51 f6 d5 bd
       0.109432586 0.10065723 0.1509799 -0.10447372
000010 45 32 10 be 7e d3 0d 3d c3 c9 cf bc 2d c0 72 3c
       -0.14081676 0.034625523 -0.025364762 0.014816326
000020 8b 33 bb bd b1 14 a6 3d b1 fd ac bc 99 77 cc bc
       -0.091406904 0.08109415 -0.021117063 -0.024959372
000030 1f 4c 57 3d 24 fa a0 3d 93 1e 0d be 0f 54 83 bd
       0.05256283 0.078602105 -0.13781194 -0.06412517
000040 d2 63 9a bd a7 1e e4 3d c6 35 63 bd d5 84 78 bd
       -0.075385705 0.11138659 -0.055471204 -0.060673553
000050 be 2d bf bd 5e a2 83 bd 27 2f 8b bb fd 7c 72 3c
       -0.093348965 -0.064274535 -0.0042475644 0.014800307
000060 68 7c 10 bd 2e b3 11 be 23 c5 6c bd 8a 69 f1 3d
       -0.035274893 -0.14228508 -0.05780519 0.11787708
000070 c8 8c 19 3d ce 03 7e bb bd f8 96 3d 97 b8 d7 3d
       0.037487775 -0.0038759592 0.07371662 0.105332546
000080 e6 6c 82 3d 79 38 2b 3d 83 c6 15 3c 23 ba 1d 3d
       0.06368427 0.041801903 0.009141567 0.038507592
000090 ed 82 f7 3a bb 26 59 bd 19 3c a0 bd 12 e6 16 3e
       0.0018883623 -0.053015452 -0.07823963 0.14736202
0000a0 ce ba 96 3d 41 cc 46 bd 0a ce e3 bd 9c 2a 42 bd
       0.07359849 -0.048534635 -0.11123283 -0.047403917
0000b0 67 c3 af bd bf 1d e5 bd 68 fc 42 bd cf d5 d7 3b
       -0.08582192 -0.11187314 -0.047603995 0.0065867673
0000c0 fa 24 da bc 81 5c 81 bd 1e d9 90 bd 15 4c 0f bc
       -0.02662896 -0.06316472 -0.07072662 -0.008746167
0000d0 7d 33 c3 bd c9 c9 a7 3c 87 2d 93 3d a0 23 38 bc
       -0.09531305 0.02048196 0.07186418 -0.011238962
0000e0 65 64 20 3e e6 59 54 3e 70 61 7e 3d 72 30 24 bd
       0.15663297 0.20737419 0.062104642 -0.040085264
0000f0 fe 43 bf 3c 1b ca 94 bc d9 50 24 3e 66 13 04 bc
       0.02334785 -0.018162778 0.16046466 -0.008061266
000100 f6 61 35 3e 7d 7e 73 3d 3e 0c 54 3e c6 f5 01 3e
       0.1771315 0.0594468 0.20707795 0.12691411
000110 28 8f 88 3c 3c 65 37 3e 9a 62 bb 3c 3c 03 c2 bc
       0.016669825 0.17909712 0.022874165 -0.023683183
000120 96 52 37 3d 9f 36 30 3e 0c e9 df bd b6 e6 2f 3e
       0.044756494 0.17208336 -0.10933122 0.17177853
000130 f2 03 91 3d e4 4b 46 3e c7 8f 8f bd 73 eb d4 3d
       0.07080831 0.19364887 -0.07009845 0.10396471
000140 1f af 75 bc 04 85 d5 3b 51 b0 d7 3d 1c fd db 3c
       -0.014995365 0.006516101 0.105316766 0.02685409
000150 5f 23 55 be a1 9e 10 be 9d 27 32 be 17 d1 37 3d
       -0.20814274 -0.14123012 -0.17397924 0.044877138
000160 01 68 2f be 75 8c 51 be c8 10 1c bc 4c 62 15 bc
       -0.17129518 -0.20463736 -0.009525485 -0.009117674
000170 bc 05 a0 3d 25 0e d5 bd 01 ed 13 3e a0 00 20 be
       0.07813594 -0.104030885 0.14445879 -0.15625238
000180 4a 03 72 3d c6 32 d7 3d 37 bc 66 bd ad bb b4 bb
       0.059085168 0.10507731 -0.05633184 -0.0055155368
000190 b6 66 a7 bd a5 b4 39 be fd 70 e6 bb a0 9c 1d be
       -0.081738874 -0.18135317 -0.007032512 -0.15391779
0001a0 fe 84 10 be 44 fe ae 3d 59 b5 19 be 27 6b ae bd
       -0.14113232 0.08544591 -0.15010585 -0.085165314
0001b0 4f ef 3e be cd b6 02 3e f4 c5 19 be 19 44 01 be
       -0.18645976 0.12765045 -0.1501692 -0.12623633
0001c0 29 51 07 be d4 73 ba 3d ce 6a aa 3d a9 18 d1 3d
       -0.13214554 0.09104124 0.083211526 0.10209782
0001d0 d9 dd b2 bd e3 1d c1 3c 99 4e a0 bd f8 8e 53 bc
       -0.0873372 0.023573821 -0.07827491 -0.012912504
0001e0 37 45 d9 bc c3 bf a0 3c 49 8a 7d 3d c2 99 02 be
       -0.026522262 0.01962269 0.061899457 -0.12753966
0001f0 31 af 73 bd e7 3f 93 3b a8 b4 9b 3d 90 41 d3 3d
       -0.059493247 0.0044937017 0.07602817 0.103152394
000200 3e 2e 01 3d 8b 8d 62 3c 33 24 c5 3d 53 3e 37 3b
       0.03153824 0.013827692 0.09626045 0.0027960732
000210 a0 7c dd 3d b1 7f 9d bc ff 80 2a 3d 07 04 03 bd
       0.10814786 -0.019225927 0.041626927 -0.031986263
000220 d8 92 b7 3d 8a 00 70 3d ef 9b 8a 3d 04 66 2a bd
       0.08963555 0.058594264 0.06768023 -0.041601196
000230 d6 87 28 be 8d 04 b0 3d d0 f3 a0 3c 0d 2a 00 bc
       -0.16458067 0.08594618 0.019647509 -0.007822526
000240 2a 6b ae bc 9a 62 af 3d 4a 43 a7 3c 3c 83 63 3c
       -0.021291334 0.08563729 0.020417828 0.013886269
000250 19 48 ef bd 6e 61 62 3c 39 59 a0 3c f2 62 e8 3d
       -0.116836734 0.013817174 0.019573795 0.11346997
000260 80 9f e8 bd 4a 4d 0e be f9 04 10 bd fa 98 f4 3d
       -0.11358547 -0.13896671 -0.035160992 0.119432405
000270 1d 95 f8 bd 53 3a 81 3d c8 8c 9d 3d a3 52 46 3c
       -0.12137816 0.063099526 0.076928675 0.012104663
000280 eb 66 28 be 23 72 05 be 4e 54 a7 bd 12 f5 da 3d
       -0.1644551 -0.13031821 -0.08170377 0.10691275
000290 17 a0 5f bc c2 39 36 3d 4d b2 ac bd 94 a3 2f 3c
       -0.013649008 0.044488676 -0.08432446 0.010720152
0002a0 b3 d0 a3 bd ee d9 6b 3b f6 f7 09 3a 25 93 81 3d
       -0.079987906 0.003598805 0.00052630843 0.06326894
0002b0 4e d0 a0 bd 17 02 04 3d e0 68 81 bc 86 97 77 bb
       -0.07852231 0.032228556 -0.015797079 -0.0037779524
0002c0 69 6a 38 bb e0 58 03 3d f8 af c9 bb d1 7b 6d 3d
       -0.0028139597 0.03206718 -0.0061550103 0.05797941
0002d0 fb fe 13 3c 10 f2 3c bc 36 a4 ae bc 45 7d 9c 3c
       0.00903296 -0.011532322 -0.021318536 0.019102702
0002e0 a2 da 01 bc 9c 57 89 3c e1 90 ec 3c 4c d5 5c bc
       -0.007925661 0.016765408 0.028877677 -0.013478588
0002f0 5e fa 81 bc 2d 9c 3f bc db 2f d5 3b 7c fc 4a bc
       -0.015866455 -0.01169495 0.006505949 -0.0123892985
000300 a7 5d 25 3c 42 1f 1f bd 87 a2 75 bb b3 8e b8 3c
       0.010093129 -0.03884817 -0.0037480907 0.022528982
000310 e6 11 47 b8 70 48 29 bc f6 48 8f bc 4d d0 2b 3d
       -4.7461966e-05 -0.010332212 -0.017490845 0.041946698
000320 10 0f 19 bd ad 13 19 3d fb 21 b8 3a 9c ec a8 ba
       -0.03736788 0.03737228 0.0014048213 -0.0012887898
000330 ae 65 4f bc 86 ba 08 3d b0 7c 20 bd 42 5c 8b 3a
       -0.01265852 0.033381008 -0.03918141 0.0010632353
000340 b4 ac 25 3d 15 56 05 3d 9f 04 a1 3c a4 14 49 3b
       0.040447906 0.032552797 0.019655524 0.0030682469
000350 5f 0e 07 3e 2a 91 d0 3d a6 c2 91 bd 03 1d 12 3e
       0.13189076 0.10183938 -0.07117204 0.1426888
000360 18 02 8f 3b db dc a3 3d a8 17 36 bd 23 7b de 3d
       0.0043642633 0.08001109 -0.044456154 0.1086333
000370 28 9d fa 3d 5e 21 45 bb 4f 18 ed bb 8d 29 59 3e
       0.122370064 -0.0030079703 -0.007235564 0.21207257
000380 a3 d3 8b bd 61 a6 9b bd 2d 7c 97 3d 34 94 c6 bd
       -0.06827476 -0.07600094 0.073967315 -0.09696236
000390 62 e9 83 3d cd a4 c0 3d da f3 a1 bd 4d b9 bb 3c
       0.064409986 0.09406433 -0.07907839 0.022915507
0003a0 78 06 c6 3d f0 b9 a9 3d ea 53 7a 3d ea e1 0e be
       0.096692026 0.08287418 0.061115183 -0.13953367
0003b0 5a 6a 33 3e 8d 00 17 3d 53 cf 81 3d 8e 99 c5 bd
       0.17521039 0.03686576 0.06338372 -0.09648429
0003c0 a9 89 a5 3b b4 cf 98 ba fd dd 19 bc bf a5 31 bd
       0.0050518108 -0.001165858 -0.009391305 -0.04337096
0003d0 43 be 9c 3d fc a6 54 3d 70 5c 83 bc ee 8c 88 bc
       0.07653477 0.05191706 -0.016035289 -0.016668763
0003e0 2f ac a5 bd 3d dc 89 3d 4b b8 c6 bd 59 39 ac bd
       -0.08089482 0.0673146 -0.0970312 -0.08409376
0003f0 3d 28 cd 3d 19 66 24 3d 32 fd fc 3d 59 c2 aa 3d
       0.100174405 0.04013643 0.12352981 0.0833785

module.bi_lstm1.weight_hh_l0 f4 [64, 16]
000000 75 36 be bd d8 0d b8 bd 7f 2e 5d 3d 2f 06 c4 3b
       -0.092877306 -0.089870155 0.05399942 0.0059821825
000010 8c 8b be 3d b2 63 78 bd 31 3c a1 3c ba 4d ad bb
       0.0930396 -0.06064195 0.019682022 -0.0052888067
000020 d9 50 14 bd 31 fd 15 3c 1d 47 88 3d 2f 72 fe 3d
       -0.036209915 0.009154604 0.06654189 0.124241225
000030 65 47 28 ba 37 e1 37 3d b8 32 60 3c 13 b8 1b 3c
       -0.000641933 0.044892516 0.013683967 0.009504336
000040 1e 54 2e 3c 63 68 2e bc cf 7a 2f bd 22 96 38 bb
       0.010640172 -0.010645005 -0.04284173 -0.0028165658
000050 ae 4e e6 bb 5d 38 d2 bb dd 8f 3d bb 84 2b 9f ba
       -0.0070284223 -0.0064154104 -0.002892486 -0.0012143706
000060 c5 36 d4 bb 4c 00 ef bb d2 94 78 ba 28 54 bb 3c
       -0.0064762556 -0.0072937366 -0.0009482625 0.022867277
000070 fa 93 06 3b 7b 09 5a 3b 58 2e 39 3a 1f 99 ac bc
       0.0020534978 0.003326981 0.00070640957 -0.021069108
000080 48 4a 07 bd a0 b8 fb ba 4b 40 fc 3c 05 2b 3a bc
       -0.033029824 -0.0019204803 0.030792376 -0.011362796
000090 3a 17 77 3c d5 54 b4 bc b6 a5 41 3c 56 3a 02 3c
       0.015081221 -0.022013107 0.011819294 0.007948479
0000a0 a7 f1 84 3b dc a0 05 3d cf 7c f6 3a f7 33 0e 3d
       0.0040571275 0.03262411 0.0018805506 0.034717526
0000b0 74 71 9c 3c 00 a7 af 3c db 13 b9 3c 8c 2c 29 3c
       0.019097067 0.021441936 0.022592476 0.010325562
0000c0 ab d8 d4 3c 0d aa 8a 3b d6 9e b6 bc bb 02 02 3c
       0.025982222 0.0042316974 -0.022292536 0.007935221
0000d0 8e 0e 38 bd 74 a2 d1 ba f1 d2 ad bc 08 e7 9b bc
       -0.044935755 -0.0015993849 -0.021218749 -0.019031063
0000e0 28 ab 94 bc fc 47 9b bc 84 87 e8 b9 6e 2f c6 bc
       -0.01814802 -0.018955223 -0.00044351455 -0.024192538
0000f0 53 1d 50 3c cd c0 30 bc 2e 4d 99 bb 88 5e 3d bc
       0.012702304 -0.010788155 -0.00467839 -0.011558183
000100 60 bd c5 3d 26 b0 c9 3c 9c ba da 3d 22 4c 96 3d
       0.09655261 0.024620127 0.10680124 0.0733874
000110 5c 29 25 be e5 c3 f7 3d b1 37 c8 3d 4b ee 85 3d
       -0.16129059 0.12097911 0.09776247 0.065395914
000120 bb f4 9b bb 23 d2 1d 3e 3e fd bc bd b0 f5 37 bd
       -0.0047593988 0.15412192 -0.092279896 -0.04491204
000130 9b 68 33 bd 39 d7 27 3c 43 8f f8 ba 1c 88 51 bd
       -0.04380093 0.010244184 -0.0018963594 -0.051155195
000140 d6 20 52 bd 1b 9f 39 3d 19 4c 13 3c 42 a2 2c 3c
       -0.051300846 0.04531775 0.008990311 0.010536732
000150 df eb ae 3c 3d 3a 1c 3e d4 ca 79 bd d3 e3 5d 3d
       0.021352706 0.15256591 -0.060984448 0.05417235
000160 38 d5 13 3c f1 08 99 3c fd d5 cd 3c e2 1f 8a bd
       0.009023003 0.018681021 0.025126452 -0.067443624
000170 fd f0 e8 3b e7 ce d7 bc 2a 87 17 3c 3f 77 21 be
       0.007108806 -0.026343776 0.009248534 -0.15768145
000180 de bc c7 3c 01 c7 73 3c 97 82 41 be 9d 3b 4e bc
       0.024382051 0.014878989 -0.18897472 -0.012587455
000190 77 ea 40 be 58 f9 62 bc e7 8d e9 3a c2 5d c8 3c
       -0.18839441 -0.0138533935 0.001781878 0.02445877
0001a0 21 39 89 bd ec e9 3a be 09 8e 6c bd 47 3c 2f 3d
       -0.067003496 -0.18253297 -0.057752643 0.042782094
0001b0 fb 92 31 bd 6b a9 c3 bc 16 49 50 3b 57 e8 56 bd
       -0.043353062 -0.023884496 0.0031781844 -0.05246767
0001c0 bd a3 2c 3c 29 86 84 3d 5b c8 a2 bc 4e 06 28 3b
       0.010537085 0.064709015 -0.019870928 0.0025638524
0001d0 7c 2b 3f 3d c4 59 cc 3c f8 58 a2 bd 10 9f 7c ba
       0.04667233 0.024945147 -0.07927126 -0.0009636739
0001e0 9f ca 98 3a c4 52 ab bc 4e 9d 20 bd 57 85 8b bc
       0.0011657065 -0.02091349 -0.039212517 -0.017031355
0001f0 41 cf 87 3b ff ee 92 bb 5a c2 6d 3b 7c de 07 3d
       0.0041445796 -0.004484057 0.0036279173 0.033171162
000200 73 ef 7d 3c 68 96 82 bb 64 76 5a bd 91 80 b8 3a
       0.015498984 -0.003985215 -0.053335562 0.0014076402
000210 dc 46 b3 bd ce 6d 3a 3c 4c 39 04 bd 73 7b 0a bc
       -0.0875375 0.011378719 -0.032281205 -0.008452284
000220 3f 91 9e 39 f9 cb 41 bc 26 98 b4 3c 7c e7 19 3d
       0.00030244325 -0.011828416 0.022045206 0.037574276
000230 81 09 34 3b 35 9c 82 bc d3 30 13 3c c2 dc 39 bd
       0.0027471485 -0.015943626 0.008983809 -0.045376547
000240 f0 4b 1b bd 64 0b 08 3d 55 e7 e3 3c 5a 72 a5 bb
       -0.037914217 0.033213988 0.027820269 -0.005049032
000250 f1 72 b6 3c 7c 85 ef bb 1a ec 03 3c 38 4f 8c 3c
       0.022271605 -0.0073096137 0.0080518965 0.017127618
000260 0c 52 0a bc 48 ea 3c 3d ef 4d 84 bc a6 83 06 3d
       -0.008442413 0.046121866 -0.016150443 0.032840393
000270 8d df a9 3c 23 db 5c 3c e2 40 e6 3c 6c b6 8f 3d
       0.02073648 0.013479981 0.02810711 0.07017216
000280 9e e7 4c 3c bb 0f 41 bd 32 63 97 3d 21 17 d9 3c
       0.012506394 -0.047134142 0.07391967 0.026500287
000290 c1 d1 e9 bd 80 7d b6 3c 97 ea 13 3b 27 b9 35 b9
       -0.114169605 0.02227664 0.0022570246 -0.0001733048
0002a0 e9 40 97 bc 66 c3 0a 3c fa 71 8a 3d ec 6c 96 bd
       -0.018463569 0.008469438 0.067600206 -0.07344994
0002b0 95 4b 5d bc 77 51 44 bc cc 18 c9 3b 35 78 84 3c
       -0.01350679 -0.011982313 0.006136989 0.0161706
0002c0 09 13 21 3d 2b 1f a2 3b d7 1e 0c bc 1f 7e ac 3c
       0.039324794 0.004947563 -0.008552275 0.021056233
0002d0 6d f3 bc 3d 70 f4 0b bd 84 52 96 3b 72 e0 02 3d
       0.09226117 -0.03416866 0.0045874733 0.03195233
0002e0 af 05 f8 bb 98 cf 04 bd 34 b9 cf 3b fe b7 39 3d
       -0.007569037 -0.03242454 0.0063392166 0.045341484
0002f0 fc 2f 5f ba 4c 5e 98 bc bd 78 b1 bc c7 87 e6 bc
       -0.0008513925 -0.018599652 -0.021664018 -0.028140916
000300 b3 e9 a9 3b ea fc a6 b8 3e 12 72 3c 85 5f ac b9
       0.00518533 -7.962606e-05 0.014774857 -0.00032877564
000310 12 b6 79 bb be e9 4d bc 2e 7e d4 ba e4 5b e7 3a
       -0.0038102907 -0.0125679355 -0.0016211921 0.0017651287
000320 42 f2 bf 39 9f bc 7a 3b a6 cf 7e ba f4 7a 37 bd
       0.00036610855 0.00382594 -0.0009720273 -0.04479499
000330 d7 ad a2 bb f0 16 6f 3a 95 60 6a 39 01 0d c1 bb
       -0.004964571 0.00091205444 0.00022351959 -0.0058914428
000340 e7 1c c7 3a d7 63 a7 bb 75 f8 e0 b9 58 35 4a 38
       0.0015191109 -0.0051083374 -0.00042909724 4.8210233e-05
000350 2d 07 65 3b 11 b7 df 3b 42 32 2e 3b 92 e9 44 3a
       0.0034946904 0.006827243 0.002658025 0.00075116113
000360 04 88 af bb 4b 69 a9 ba d3 1d ca 3b 85 b1 0a 3b
       -0.0053567905 -0.0012925057 0.006168106 0.0021162939
000370 35 4f c2 3b b7 8c 88 bb 57 3c d0 ba 14 91 10 bc
       0.0059298524 -0.004167165 -0.0015887123 -0.008823652
000380 01 bb 1b bc 36 52 92 bb 7c 93 2d 3c 0f 16 14 bb
       -0.009505034 -0.0044653667 0.010594245 -0.0022596156
000390 72 82 28 3c 6a 35 c8 3c 9f ed 8e 3b 0a 1e 42 3b
       0.010285007 0.024439532 0.0043618227 0.0029619955
0003a0 26 ad d4 3b 31 b8 39 3c 12 6c 05 3c 0c 4e 00 3c
       0.0064903675 0.011335419 0.008143442 0.007831108
0003b0 2b a2 f1 3b 66 8a 46 3b 94 a5 f5 3a 5c 15 97 bc
       0.0073740683 0.0030294894 0.0018741363 -0.018442802
0003c0 a5 ed a1 bd b4 45 e8 bd fd 21 a1 bb c6 84 16 3c
       -0.07906655 -0.1134142 -0.004917382 0.009186929
0003d0 d6 e9 65 bc db e4 86 3c 38 e0 e7 3c 5e 1b 80 39
       -0.014032802 0.016466549 0.028305158 0.00024434453
0003e0 e7 26 e6 3c ed 43 34 3d 16 f2 3b 3d c1 76 8f 3c
       0.028094722 0.04401009 0.045885168 0.017512681
0003f0 23 ea c5 3c b8 84 38 3c ce db 60 3d d0 f5 d7 bd
       0.024159497 0.011262111 0.054897122 -0.10544932

module.bi_lstm1.bias_ih_l0 f4 [64]
000000 71 0a fb 3d 5a 1f 8c 3b cd 11 4b 3d 48 7f ed bd
       0.12257851 0.0042761983 0.049577523 -0.115965426
000010 cc d2 31 bd d5 65 39 3e f4 91 04 be af 98 58 3c
       -0.043413922 0.18105252 -0.12946302 0.013219996
000020 47 3b 9b 3c 4a 67 d7 bb 39 65 b2 3d 62 4c 6c bc
       0.018949164 -0.0065735923 0.08710713 -0.014422508
000030 94 f6 39 3d f2 23 39 3d a7 22 09 3d 17 42 c7 3d
       0.04540117 0.045200296 0.033480313 0.097294025
000040 0c 52 2b 3d 96 a4 98 3d cb 3e 33 bd 54 a6 6e 3c
       0.041826293 0.07453267 -0.043761056 0.014566023
000050 c7 2a b7 3d 0d 8c e8 3d 41 a1 68 3c ce ef 99 3d
       0.08943706 0.113548376 0.014198602 0.07516442
000060 40 36 cc 3d 32 f1 b8 bc a6 0d c4 3d 69 21 87 bd
       0.09971285 -0.022575948 0.09572916 -0.06598169
000070 ca 44 06 bd db 63 a9 bc e2 a4 b1 bb 05 38 0a 3e
       -0.032780446 -0.020677498 -0.005421267 0.13497932
000080 fe f4 78 ba 55 9b 2b be f9 f4 61 3e 39 c6 bd 3c
       -0.0009496956 -0.16758473 0.22066106 0.023165809
000090 95 cf 32 3e 01 6f 3f 3e 92 0e d1 3d 1d 8e 90 bb
       0.17461999 0.18694688 0.10207857 -0.0044114725
0000a0 3a 98 27 3e a4 63 60 3e cc 33 3c be ec d5 37 3e
       0.16366664 0.2191301 -0.18379134 0.17952698
0000b0 9d 13 9c 3b 45 19 20 3e e2 de b8 3d 56 59 57 be
       0.0047630803 0.1563464 0.090268865 -0.21030173
0000c0 dd 33 6c bd d7 53 1d be 94 6f c5 bd c4 c2 03 3c
       -0.05766665 -0.15364014 -0.096404225 0.008042041
0000d0 7f eb 0d 3e 90 49 a9 3d 55 31 10 3c e2 e1 1f bd
       0.13859366 0.08265984 0.008800824 -0.039033778
0000e0 b5 0b 2c 3c df 85 b0 3d e4 7d 52 bd 4d db 12 3d
       0.010500838 0.08619284 -0.05138959 0.035853673
0000f0 de fe dc bc 36 61 be bd a5 af a9 bd e7 de 4e 3d
       -0.026976999 -0.09295885 -0.08285455 0.050505545

module.bi_lstm1.bias_hh_l0 f4 [64]
000000 d8 e2 13 be 87 6f ee 3d 5a 29 03 3e d5 c1 c4 3d
       -0.14442003 0.11642366 0.12808743 0.09607283
000010 af 5b 8f bd 18 59 d5 3d 0b 94 2c bc 45 3a 1d be
       -0.06999909 0.10417384 -0.010533343 -0.1535426
000020 f0 de a1 bc 60 16 95 3d 4f 57 25 be 21 70 d5 3c
       -0.019759625 0.07279658 -0.16146587 0.026054444
000030 75 65 62 3d 87 e2 58 bc 47 6a 61 3c 03 b0 d7 3d
       0.05527254 -0.013237602 0.013758249 0.105316184
000040 6b 55 2c be bf ca e0 bd 87 d0 ff bd 55 45 0c be
       -0.1682946 -0.10976171 -0.12490945 -0.13698323
000050 24 37 05 be 5c 09 6c bb b2 77 41 bd 92 80 fa 3d
       -0.13009316 -0.003601632 -0.04723329 0.12231554
000060 ab eb df 3d 6d b2 fe 3b a8 48 97 ba 21 d6 f7 3d
       0.10933622 0.007772735 -0.0011542039 0.12101389
000070 82 bf 2a bd ae ce 5d 3c 12 4c a4 bd 6d f7 c6 bd
       -0.041686542 0.013538046 -0.08022322 -0.097151615
000080 6f 5e 54 be f3 af 0f bd 81 75 ae 3c 32 cf 1f 3d
       -0.20739149 -0.035079908 0.021296265 0.039015956
000090 e9 e9 2f 3d f1 a7 1b bd c4 11 39 3e c4 19 37 3e
       0.042947683 -0.03800196 0.18073183 0.17880923
0000a0 6a 7c 05 3e 9a 34 0c be 1e d2 67 3e 82 31 42 3e
       0.13035741 -0.13691941 0.22638747 0.18964198
0000b0 1d 8e 3e be 2b d1 8e 39 49 f2 58 3d 97 a2 cf bd
       -0.186089 0.00027240193 0.052965436 -0.101384334
0000c0 66 7c 11 be 4a 6c b2 bd 74 9b c9 39 36 9c 20 3b
       -0.1420761 -0.08712061 0.0003845353 0.0024507171
0000d0 fd 94 a0 bd 9e 6a 61 3d 54 37 7e 3d 39 45 5a bd
       -0.07840917 0.05503332 0.062064484 -0.053288672
0000e0 94 c5 b4 bc e6 dd ab bd c5 bd 40 3e 4a 72 9f bc
       -0.022066869 -0.08391933 0.18822391 -0.019463677
0000f0 90 42 c5 3d 7f ea 6d bc 1c 22 84 bb 64 de 03 be
       0.096318364 -0.01452124 -0.0040323865 -0.12877804

module.bi_lstm1.weight_ih_l0_reverse f4 [64, 14]
000000 5e 4c b2 3c 7b ff 44 be d3 ff 58 3e fd 1d 71 3d
       0.02176493 -0.19238083 0.21191339 0.05886649
000010 fb e1 28 be fe 84 59 be fc 64 09 be 9d 0b 10 3b
       -0.16492455 -0.21242139 -0.13417429 0.0021979578
000020 05 93 b5 bd 49 41 b2 3d 16 1c 10 be 3b de 1b 3c
       -0.088659324 0.087038584 -0.14073214 0.009513433
000030 5e de b3 bd 07 62 b2 39 4c f5 4d 3e 4c 89 41 3e
       -0.087826476 0.00034023842 0.20113105 0.18900031
000040 60 89 7c bd 59 eb 1b be 6b bc 29 3e 94 d6 9f bd
       -0.06165445 -0.15226497 0.16575782 -0.078045994
000050 03 dc d3 bd 8d ac 47 3e 9c 69 bc 3d 37 97 e9 bd
       -0.10344698 0.19499417 0.09199831 -0.11405795
000060 39 d2 b8 3d 6f 4f 56 3e 73 91 76 3e 1e da 83 3e
       0.09024472 0.20928739 0.24078922 0.25752348
000070 f4 91 eb bc 60 85 14 be c4 58 a4 3d 9f 0f e7 bd
       -0.02875612 -0.14504004 0.08024743 -0.11282276
000080 52 65 fa bd da 7c 18 be 84 9f da 3d eb 2b 94 3d
       -0.122263566 -0.14891377 0.106749564 0.07234939
000090 3c 0a 2e be 11 1b a5 3d c8 36 30 be 05 a5 db bd
       -0.16996092 0.08061803 -0.17208397 -0.10724834
0000a0 ab 56 14 3e 8a b2 e7 3d b5 2c d6 bd 88 e0 3f 3e
       0.14486186 0.113133505 -0.10457746 0.18737996
0000b0 5c 68 a3 3d f3 a4 d3 3d e9 1d 02 3e fc d7 fb 3c
       0.07978889 0.10334196 0.12706722 0.030742638
0000c0 db c6 29 be 51 fb 28 be 98 29 be 3d b6 a7 da 3d
       -0.16579764 -0.1650212 0.09285277 0.106765196
0000d0 fc 43 e5 3b c6 fe c2 bb b8 4e 0f be a8 d6 e2 bc
       0.0069966298 -0.0059507815 -0.13994873 -0.027690247
0000e0 8b cf 8e 3d ea 2d 3c 3d 44 e1 b2 bd 3d d9 1f be
       0.069731794 0.045942225 -0.08734372 -0.15610214
0000f0 8a 34 b5 bd 3d aa fd 3d 3f 3d 2a 3e 88 6d 85 3d
       -0.08847912 0.12385986 0.16624926 0.06515032
000100 29 07 6e 3e 94 02 63 3d 1f e0 c5 3d 2d f4 02 3e
       0.23244919 0.05542238 0.09661888 0.12788458
000110 d9 e6 9b 3d dd 1f 83 3e b6 64 e1 3d 88 f8 07 3d
       0.0761239 0.25610247 0.11005537 0.033196002
000120 1a 0b 12 3e fe e1 04 be 64 87 19 3e ea ee 1d bd
       0.14262047 -0.12976834 0.14993054 -0.038557924
000130 96 e6 24 3e d3 8e 54 bd b4 f8 a4 bd 5e 0a f7 ba
       0.16103587 -0.05189402 -0.08055249 -0.0018847694
000140 f6 7d bc 3d af f5 0c 3e 42 84 08 be 07 a6 3e be
       0.09203713 0.13765596 -0.13331702 -0.18618022
000150 8d 48 ec bd 7a 5b 34 3d 49 0c ab 3c e3 d4 5b 3e
       -0.115372755 0.04403255 0.020879881 0.21467929
000160 c7 c3 8a 3e cb 74 bf 3d 28 dd 28 3e 5a c8 8c 3d
       0.2710249 0.09348448 0.16490614 0.068741515
000170 74 bd 8d 3e 8d e8 65 3e 9c f0 5c 3d 13 62 67 bd
       0.27683604 0.22451992 0.0539404 -0.056490015
000180 43 e0 8a 3b 2e 48 e3 bd 40 3a 94 3e d8 61 3d 3e
       0.00423816 -0.110977516 0.2895069 0.18494356
000190 ec be 8c bc d4 1c d9 3d d5 d8 f6 3d 28 d4 63 3c
       -0.017180882 0.10601202 0.12053076 0.013905562
0001a0 b3 ba 0f bd 34 16 0c 3e 40 72 8e 3e 86 93 ad bc
       -0.03509016 0.13680345 0.2782154 -0.021188509
0001b0 e3 11 fc bd 39 11 e4 bc 8d a8 61 3e 06 f9 15 be
       -0.12308099 -0.027840244 0.22036953 -0.14645776
0001c0 9a c2 90 3e a0 78 a5 bd 80 77 45 3e ab 17 7d 3e
       0.2827347 -0.08079648 0.19283867 0.2471606
0001d0 e3 33 1b bd 6b dc 47 3d 6c 23 97 3d 7d 5c 10 be
       -0.03789128 0.04879419 0.07379803 -0.14097781
0001e0 17 14 17 3e d5 43 be 3d 09 f6 ad 3d 74 88 06 be
       0.14753757 0.09290282 0.08494193 -0.1313799
0001f0 ac e9 de bd d4 91 70 bd 78 6f a9 3d eb d3 24 3e
       -0.10884413 -0.058732823 0.08273214 0.16096465
000200 5b e3 fb 3d b5 b2 07 3e 4a 28 20 be db e3 19 3e
       0.12299224 0.13251765 -0.15640369 0.15028326
000210 60 df ee bc 91 71 c7 bd f4 1d c9 3d 22 ea 18 3d
       -0.029159248 -0.09738458 0.09820166 0.03733266
000220 50 78 ca bd 8f 15 d2 3d 42 32 14 be 46 ab 15 be
       -0.09886229 0.10258018 -0.14472297 -0.14616117
000230 3b 69 2c be 48 35 cf 3d 6b 38 6a 3e 4c 1d 66 3e
       -0.16837017 0.101175845 0.22873084 0.22472113
000240 88 c9 84 3d ed a1 a6 bb 78 ec 10 be 04 3d b2 3d
       0.064837515 -0.005085221 -0.14152706 0.08703044
000250 55 41 05 bd c8 50 60 3d 0f c1 3d 3e 3e 65 b4 bd
       -0.03253301 0.05476454 0.18530677 -0.08808373
000260 37 7e 68 3e 82 e4 06 be 2b 68 d7 bd c6 98 d4 bd
       0.22704397 -0.13173106 -0.10517915 -0.10380702
000270 4f d3 00 3e b6 d4 f6 bb 29 1f 5d 3c e1 87 92 bc
       0.12580608 -0.0075326813 0.013496199 -0.017887058
000280 9b aa 09 bd 3d e4 0f 3e bc a1 67 3e 69 ba 11 be
       -0.033609968 0.1405191 0.2262029 -0.14231266
000290 d0 92 42 3e fe 89 3a 3d a3 31 d8 3d f8 61 cd bd
       0.19001317 0.045541756 0.105563425 -0.10028452
0002a0 dc 27 c1 3d f0 41 b5 bd fe 84 eb bd 45 ad 32 bd
       0.09431431 -0.08850467 -0.114999756 -0.043622274
0002b0 57 19 1e bd 12 8f 9d 3d eb 26 27 be 3f 88 09 3e
       -0.038598385 0.07693304 -0.1632344 0.1343088
0002c0 98 57 b7 bd 71 fd db 3c 9e b8 83 3d fc 12 e8 3d
       -0.08952254 0.026854249 0.06431697 0.11331746
0002d0 5b 11 bd bc 0e b4 b4 3d f1 62 ee 3b f8 27 0f 3e
       -0.023079565 0.08823405 0.0072749783 0.1398009
0002e0 60 28 13 3e 08 eb ed 3c f8 47 26 bc 1d 4c 66 3d
       0.1437087 0.029042736 -0.010148995 0.05622493
0002f0 c7 a6 95 bd 98 6f bc bd 65 fe ab bc b1 c0 95 bd
       -0.07307201 -0.09200972 -0.020995328 -0.073121436
000300 3d 36 c2 bd 55 8c b7 3d 12 5c 40 be 6f a7 01 be
       -0.094830014 0.08962313 -0.18785122 -0.12661527
000310 86 a6 a4 bd 52 c9 f8 3d 47 79 09 be 80 5f 99 bc
       -0.08039574 0.12147774 -0.1342517 -0.018722296
000320 49 d7 ec bd af af 21 be 46 9c f0 bd 98 04 70 bb
       -0.115645 -0.15789674 -0.11748557 -0.0036623832
000330 65 a8 66 bd 2a 69 ad bc 78 a9 e3 b9 27 4b 00 3e
       -0.056312937 -0.02116831 -0.00043423078 0.12528668
000340 26 03 7c bd 10 ba 18 3e ac aa 52 3e b7 36 11 be
       -0.06152644 0.14914727 0.20572919 -0.14181028
000350 72 c1 80 3d 0c a9 2e bd ed 7c 58 3c ab c3 86 3d
       0.06286897 -0.042641684 0.013213378 0.065802895
000360 dc 24 37 be 7a d8 5a 3d 0a 24 34 3e 3e 68 20 3e
       -0.17885154 0.053429104 0.17591873 0.15664765
000370 ae 3e 42 3e 22 b3 f9 bc c0 89 b0 bd c2 5e 0f 3e
       0.18969223 -0.030480925 -0.08620024 0.14000991
000380 ed ef be bd ee a2 0e 3e ea 1d 54 3e 02 8a 48 3e
       -0.09323106 0.1392934 0.20714536 0.19583896
000390 83 1e 4b 3e 53 cc 4e bd 8a ff 07 3d e8 a3 53 3b
       0.19835858 -0.050487828 0.033202685 0.003229374
0003a0 ce 3c 01 3e 0a cb b6 bc c6 9c e3 bd e5 5c 7d 3e
       0.12620851 -0.022313613 -0.111138865 0.24742468
0003b0 48 96 31 be 1c 4a 05 bd 3a 96 6b 3e e4 92 be bd
       -0.17342484 -0.03254138 0.23006526 -0.09305361
0003c0 66 fe 17 bd 6f cb e5 3d 6c b3 cb bd ef a1 2e be
       -0.037107848 0.112204425 -0.099463314 -0.1705396
0003d0 23 10 0a be 49 8e 97 3d c7 f9 af 3d 27 d0 6b 3e
       -0.13482718 0.074001856 0.08592563 0.23028623
0003e0 a5 19 6e 3e 5c ec 54 3e 3d 98 3b 3e c3 7f 75 3d
       0.2325197 0.20793289 0.18319793 0.059936296
0003f0 83 b8 1d 3e 7c f9 11 3e 1c f2 42 3e 22 68 48 3e
       0.15402417 0.14255327 0.1903767 0.19570974

module.bi_lstm1.weight_hh_l0_reverse f4 [64, 16]
000000 04 2a 68 bd a8 ff 45 be 08 0f a0 bc c8 fc 4b be
       -0.056680694 -0.19335806 -0.019538417 -0.19920647
000010 e9 34 b8 3d 3e 97 7e 3d f4 1d 10 3e 04 48 bd 3c
       0.08994467 0.062155955 0.14073926 0.023105629
000020 d2 c5 5a be 87 ff 20 3e 4f 1e 26 3e bf da fa bd
       -0.21364525 0.15722476 0.162225 -0.12248754
000030 b6 7a f6 bd 98 31 22 3e ad a3 4f bd 6c 09 1d 3d
       -0.12035124 0.15839231 -0.050693203 0.038339064
000040 fc 8e e6 bd f4 1f 0d 3e 7b cb 5a be 24 3b a8 3c
       -0.11257741 0.1378172 -0.21366684 0.020536013
000050 5b 6f 97 bc 7c d0 a0 bc 3b 64 af 3d 86 03 a0 bd
       -0.018485716 -0.019630663 0.08564039 -0.07813172
000060 40 45 ce 3d 69 f9 1f be 7e e4 d9 3d 7a 53 cb 3d
       0.10071802 -0.15622486 0.106392846 0.09928031
000070 67 80 99 bc 4b 3b 2b be cd 63 02 3e 64 32 77 3d
       -0.018737985 -0.16721837 0.12733383 0.06035079
000080 95 04 4c 3e d8 90 2b be 63 17 a5 3d 18 da fe 3d
       0.19923623 -0.16754472 0.08061101 0.12443942
000090 12 4f 8f be 01 87 64 3c df 85 67 3e ec cb 9c 3d
       -0.27990013 0.013948203 0.22609662 0.076560825
0000a0 a8 99 d6 bd eb 8c 4d be 96 da 1c 3d 6b be 8a 3c
       -0.10478526 -0.20073287 0.038294397 0.016936501
0000b0 00 d8 11 3d 93 d1 0d 3e e7 b4 97 bd ea 7b 88 bc
       0.035606384 0.13849477 -0.07407551 -0.01666065
0000c0 7a 2b 6f 3c 1d cc 10 bd 58 b2 fe bd cd c2 a2 bc
       0.014597768 -0.035350908 -0.1243636 -0.019868279
0000d0 10 78 85 3a a7 d6 a6 bd 18 e8 ea 3d 4b bc 60 bd
       0.0010182876 -0.081464104 0.114700496 -0.05486707
0000e0 e3 26 eb 3d b9 f9 e2 bd 72 8c 89 ba 5c 89 39 3d
       0.114820264 -0.11082787 -0.0010494126 0.04529701
0000f0 00 10 f1 3d 49 38 0c bb 6f 04 ae bc 03 3f dd bc
       0.1177063 -0.0021395853 -0.021242348 -0.027007585
000100 3b da 8e bd 03 55 83 be 72 79 1f be 38 72 d8 bd
       -0.06975218 -0.25650796 -0.15573671 -0.105686605
000110 57 b2 be 3d 67 b2 19 be ce 81 24 be e5 aa 07 3c
       0.093113594 -0.15009461 -0.16065142 0.0082804905
000120 dc d6 fa 3d eb 6a 94 bd c9 8a 8c 3e 89 a3 1b 3e
       0.122480124 -0.072469555 0.27449635 0.15199102
000130 81 c3 bb 3d 59 a1 f2 3d fd 8b 3a 3c a5 00 42 3d
       0.09168149 0.11847181 0.011385915 0.047363896
000140 3a 5a cd bd 04 f9 1e 3d e9 e5 bf 3d 3b 7a 41 3d
       -0.10026975 0.0388117 0.09370024 0.04723571
000150 7f 84 26 3e ba 6e f1 bc ed 01 7c bc 1d 71 3d bd
       0.16261481 -0.029471744 -0.0153813185 -0.04625045
000160 28 21 9a bd d0 9b 82 bd 6d ee 2f be f0 ef a9 3c
       -0.07525855 -0.06377375 -0.17180796 0.020744294
000170 79 35 ab bd 39 54 92 3d df 0a 38 3d a1 2d c3 3d
       -0.083598085 0.071449704 0.044932242 0.095301874
000180 d5 4d b8 3c cf d9 6f bc ca 4c 68 3c a5 9b 0d bc
       0.02249805 -0.014639332 0.014178464 -0.008643066
000190 55 bc 2c 3e 66 af 58 3e dd 02 a3 3d ac 25 8e 3c
       0.16868718 0.21160659 0.079595305 0.017351948
0001a0 19 71 a2 bd bb 55 8a 3d 8a 3b 64 3e 2f 64 18 3e
       -0.07931728 0.06754633 0.22288337 0.14881967
0001b0 71 c7 d5 bc 3e e3 3c be 86 b5 6d 3b a6 ab 5c bd
       -0.026096078 -0.18446061 0.0036271526 -0.053874634
0001c0 a9 d0 19 3d 54 fa 33 bd 18 3d e6 bd d7 19 14 be
       0.03755251 -0.043939903 -0.112421215 -0.14462982
0001d0 46 a4 07 3d 31 66 16 3e c8 d0 12 3e 5d ad a5 3d
       0.033115648 0.1468742 0.14337456 0.08089707
0001e0 97 0c 02 3e f5 f8 42 be 57 bc 89 3d 97 6e d4 bd
       0.12700115 -0.19040282 0.06725376 -0.10372656
0001f0 8c c1 ba 3d d9 81 09 be 2a 1f a2 bd 8b cc 50 bd
       0.091189474 -0.13428439 -0.079161 -0.050976317
000200 93 1d 1f 3e a9 b6 78 3d da f2 16 be 6b 29 76 bd
       0.15538625 0.060721073 -0.14741078 -0.060098093
000210 3e 9e 1f 3d 31 3c 20 bd 2d 6f 0f bd 04 ef 80 be
       0.03896927 -0.039119903 -0.035018135 -0.25182354
000220 eb 14 2f 3d 89 66 27 3e 18 0d fb bd 2a 78 9b 3d
       0.04274456 0.16347708 -0.12258357 0.07591279
000230 b5 68 83 3b 74 98 3f be ac 09 c4 bd 1d ae 26 bc
       0.004010285 -0.187105 -0.09572157 -0.010173348
000240 b3 52 20 3e 15 8e 21 3d 51 c8 e5 bd 27 6c 00 3e
       0.15656547 0.03944214 -0.11219848 0.12541257
000250 be b8 3a be f7 35 bb 3a e4 aa 9e bd af cf cb 3c
       -0.18234536 0.001428305 -0.077474385 0.024879305
000260 3d a8 a7 bd 31 61 91 3d 3a c8 5a 3e 6f 08 b8 bd
       -0.08186386 0.07098616 0.21365443 -0.089859836
000270 fd 25 53 bd 90 c3 f2 bd ad ea 37 3d fe f3 22 be
       -0.0515499 -0.11853707 0.04490154 -0.15913388
000280 25 b7 f7 bd 0a ab c5 3d 17 ca 1a bd 0d c2 01 bd
       -0.12095479 0.09651764 -0.037790384 -0.031679202
000290 c3 79 1d bd b3 20 36 3d ee 0a 34 bc 1d 0e ec 3d
       -0.0384462 0.04446478 -0.010988934 0.115261294
0002a0 05 63 c7 bd de 1f 1c bd cb 17 21 3d 3f 53 8c bd
       -0.09735683 -0.03811633 0.03932933 -0.068518154
0002b0 85 f6 a4 3d f3 da 60 bd e0 5e 5e bc f9 92 df 3d
       0.08054832 -0.054896306 -0.013572425 0.10916705
0002c0 7e 95 c1 bd de 6b 93 3d 28 e3 15 3e b2 48 d5 3d
       -0.094523415 0.071983084 0.14637434 0.10414256
0002d0 3e c5 43 3e b8 3c 77 bd 65 7d 4e be 9e c0 56 be
       0.1911821 -0.06036064 -0.20165022 -0.20971915
0002e0 e5 91 5f 3d a2 d3 12 3d 1a 96 5f 3e ad b1 ad bd
       0.054582495 0.03584636 0.21834603 -0.084811546
0002f0 12 34 c1 3d 92 ff f2 3d 81 40 07 be 9b 4f fb bd
       0.0943376 0.118651524 -0.132082 -0.12271043
000300 68 8e 5c 3d 52 0d a7 bd 75 77 26 be 3e b8 a3 3d
       0.053846747 -0.081568375 -0.16256507 0.07994126
000310 e5 93 11 bc f9 00 5d bd 22 34 55 be 66 b6 b7 bc
       -0.008885358 -0.053956006 -0.20820668 -0.022425842
000320 65 38 dd bd 58 26 24 bd 47 9e 75 3d fd cc 29 3d
       -0.10801772 -0.04007563 0.0599654 0.041455258
000330 0e c4 e8 3d 16 3d 18 bb f2 c0 0d 3c ae 37 bd bb
       0.113655195 -0.002322977 0.008651959 -0.00577446
000340 54 60 4f 3d d6 7f 35 3b cb 92 84 3b 26 d1 23 be
       0.050628975 0.0027694604 0.0040458194 -0.15997753
000350 c1 a3 3f be c2 c8 48 bc f4 c9 69 3d da 4d 95 bd
       -0.18714811 -0.012254896 0.057077363 -0.0729024
000360 9a 39 a2 bc 43 b1 2d be 98 eb aa bd 50 88 fd bc
       -0.019802857 -0.16962151 -0.08345717 -0.030948788
000370 b1 97 b5 3c 6e 1c 1b be 47 ef 1d bd 75 77 ce bc
       0.022167059 -0.15147564 -0.03855827 -0.025203446
000380 bc dc eb bd 5b 91 65 3d 6e fd 69 bd 8d 6d 99 3c
       -0.11516711 0.056046825 -0.057126455 0.018728996
000390 6a 8c 86 3c 81 6e 85 3c 14 8d 35 3e 30 47 27 3d
       0.016424377 0.016288044 0.17729598 0.040839374
0003a0 06 06 91 3d 94 a0 fa bc 6f 94 fa 3c e1 1b a7 bc
       0.07081227 -0.030594148 0.030588357 -0.020399036
0003b0 83 ee 32 3d 97 93 8f 3d 1f 97 8c bd f8 e2 60 bd
       0.043684494 0.070105724 -0.068647616 -0.054903954
0003c0 2e f6 03 3e 37 dc 82 3c 37 14 9d 3d 21 36 4f bd
       0.12886879 0.015974147 0.07669871 -0.05058873
0003d0 c1 18 d2 bd 33 22 5f 3d cf 16 0f be f5 f0 2b be
       -0.10258628 0.054475974 -0.13973545 -0.16791137
0003e0 33 db f4 bb 55 c9 19 bd db f0 24 be 93 1f 98 3d
       -0.0074724196 -0.03754552 -0.16107504 0.07427897
0003f0 f2 14 f6 3d 95 b9 1a be 42 bb ca 3c f6 55 6b bd
       0.12015714 -0.15109856 0.024747495 -0.057455026

module.bi_lstm1.bias_ih_l0_reverse f4 [64]
000000 75 6d 04 bd 27 b1 71 3e 66 85 15 3e 38 7e d2 bd
       -0.03233095 0.23602735 0.14601669 -0.102779806
000010 44 49 e4 bd 78 15 7f bd 83 8b 81 3e 1f a0 ba 3d
       -0.11146787 -0.062276334 0.25301751 0.09112572
000020 31 63 89 3e 62 94 b2 3b 64 a4 3a 3e 79 be 8d 3b
       0.2683349 0.0054498175 0.18226773 0.0043256846
000030 f5 02 34 3e 8c 4b 70 bc 29 21 ad bc 5c dc 17 be
       0.17579253 -0.014666449 -0.021133976 -0.14830154
000040 73 78 1c 3e 7b 33 a3 bc ee 06 00 3e 4e 79 6f 3d
       0.15280323 -0.019922009 0.12502643 0.058465295
000050 0a bd 98 3e 97 2c 99 bc f1 e8 8a bd be 81 b6 bd
       0.29831725 -0.01869802 -0.06782711 -0.08911465
000060 88 6d a2 3e af cb 69 bd a2 4d 3c 3e a4 d5 2e bc
       0.3172419 -0.057079013 0.1838899 -0.010671053
000070 a5 10 db bc 6d 09 22 be 37 80 50 3e 72 35 0e 3e
       -0.026741335 -0.15823908 0.2036141 0.13887575
000080 64 e3 bf 3d 9d 35 5c be 57 f5 08 be 07 c2 80 bd
       0.09369543 -0.21504827 -0.1337484 -0.06287008
000090 a9 1b df 3c 91 ec 88 bd 2b 7e 4b 3d 9c 4b 4f 3e
       0.02723487 -0.066857465 0.04968087 0.20243686
0000a0 21 e2 79 bd 3a 35 87 be b7 14 61 3e 77 21 95 3d
       -0.06100667 -0.26407796 0.21980558 0.072817735
0000b0 4c 88 24 3e 7d a5 44 be 42 16 4c bd 9f 41 3c 3e
       0.16067618 -0.19203754 -0.049825914 0.18384407
0000c0 77 56 e2 3d ef 51 20 3e 31 f9 3c 3e 51 78 79 3d
       0.11051648 0.15656255 0.18454434 0.06090576
0000d0 1a f1 8a 3e 11 29 02 3d ce 74 6f 3d 4c 05 14 3e
       0.2713707 0.031777445 0.058461003 0.14455146
0000e0 e2 e0 1e 3e 62 49 22 3d 06 66 00 3e 75 67 0f 3d
       0.15515473 0.039620765 0.12538919 0.035010774
0000f0 2a 7d db 3d e6 b2 cd bd ad b3 96 3a 87 18 d2 bd
       0.107172325 -0.10043888 0.0011497639 -0.102585845

module.bi_lstm1.bias_hh_l0_reverse f4 [64]
000000 28 30 81 bd e8 93 06 be 69 93 62 3e 06 44 53 3c
       -0.06308013 -0.1314236 0.22126545 0.012894636
000010 26 8a 83 3e 5b 30 04 be f5 44 a9 3c de bb a5 3d
       0.25691336 -0.12909071 0.020662764 0.080924734
000020 ff 1a 47 3e fe de a3 bd 7d 6d 9e bd c3 42 19 be
       0.19443892 -0.08001517 -0.07735727 -0.14966874
000030 6c a1 24 be 0f 14 10 be e0 63 04 be 86 fa a4 3d
       -0.16077203 -0.14070152 -0.12928724 0.08055596
000040 d9 56 be bd 22 33 3f 3b 72 ed 16 be f0 6d dd 3c
       -0.092939086 0.0029174765 -0.14739016 0.027029961
000050 4e 69 8a 3e 02 f4 c3 3d f4 96 b1 3e 48 0d 83 3e
       0.27033466 0.09568025 0.3468548 0.2559607
000060 45 a4 ab 3d ae 3d f6 bd 65 45 4b 3e 8d f8 f0 3b
       0.08380941 -0.12023483 0.1985069 0.0073538483
000070 56 70 93 3c 1d e2 3f 3e 1b 7e ea 3d a5 44 0e be
       0.017997902 0.18738599 0.11449834 -0.13893373
000080 f4 5f 49 3d c9 f1 a0 3d ad c7 85 be 17 7b 4d be
       0.049163774 0.07858617 -0.26128903 -0.20066486
000090 a7 80 fd bc b1 29 7c 3d fd 69 7b 3e dc e2 c5 3c
       -0.030945135 0.061563198 0.2455215 0.024156027
0000a0 08 47 c1 3d 89 cb 1f bd be f9 01 3e 5f 03 f0 bc
       0.09437376 -0.039012466 0.12692925 -0.029298482
0000b0 af 45 86 3d f1 62 6e 3e c7 aa 6b be 1d 9d fe bd
       0.0655626 0.2327993 -0.23014365 -0.12432311
0000c0 7f b0 e1 bd cd 4c 8a 3d 66 a4 82 3e d9 a3 12 3e
       -0.11019992 0.0675293 0.2551605 0.14320315
0000d0 e6 08 9a 3c 65 99 10 3d 80 c7 3a 3e 65 c6 f9 bd
       0.018803071 0.03530254 0.18240166 -0.12196044
0000e0 08 5a 8c 3e 21 5f 83 3e 43 b4 c3 3d be 83 b9 3d
       0.27412438 0.25658515 0.095558666 0.09058331
0000f0 28 56 28 be 44 e2 24 bd 66 16 a2 bd 88 71 74 bd
       -0.16439116 -0.040254846 -0.079144284 -0.059678584

module.bi_lstm2.weight_ih_l0 f4 [128, 16]
000000 7c 36 79 3c c5 c5 80 bd f9 de d1 bc 12 f7 2c bd
       0.015210744 -0.062877215 -0.025619017 -0.042227812
000010 4f 0b e3 3c 35 ea f0 bc 8d 19 87 bd 8b b0 40 bc
       0.027715353 -0.029408554 -0.0659667 -0.011760841
000020 65 83 64 3d 34 75 56 3d db 24 48 bd ff 28 27 3d
       0.05578937 0.052357867 -0.048863273 0.04081058
000030 32 46 d7 3b a2 f7 53 3b 8d a5 e8 bb b7 5c 4d 3d
       0.006569647 0.0032343646 -0.0070998133 0.050137248
000040 0b 43 01 bc b5 03 61 3c 75 3b 30 3c d4 89 69 3a
       -0.007889519 0.013733794 0.010756363 0.00089087826
000050 ef a1 38 3c 25 0e d9 39 47 87 d3 bc fe f0 28 bc
       0.011269077 0.00041400004 -0.025821341 -0.010311363
000060 4b e1 fc 3b 40 dc bc 3b 9a d5 08 bc da 21 a6 3a
       0.0077172867 0.0057635605 -0.008351708 0.0012674883
000070 a6 a7 06 3a e9 db a9 3b 10 fa 40 3b dd 11 e1 3b
       0.0005136676 0.005183686 0.0029445924 0.0068685845
000080 ac 61 73 bc 71 b5 80 bc 95 98 9d 3b a0 82 20 bb
       -0.01485483 -0.015711518 0.004809449 -0.002449192
000090 93 4d 3f 3c ae 02 95 3b e0 a1 13 3c 2f f4 a4 bc
       0.01167621 0.0045474386 0.009010762 -0.020135967
0000a0 4c 7d 21 bc d4 b5 a8 3c c6 09 14 bd 2a d9 92 3b
       -0.009856533 0.020594515 -0.036142133 0.0044814544
0000b0 87 56 7e bc e0 20 58 3c 05 8e 41 3c 4b f4 cb 3b
       -0.015523559 0.013191432 0.011813645 0.0062241904
0000c0 e5 55 e0 bb 12 64 8b 3c 2b 3a c0 3b e6 53 0b 3b
       -0.006846177 0.01701549 0.005866309 0.0021259724
0000d0 98 81 92 bb 5a 9e 71 ba ba 83 ab bc 23 4e 87 bb
       -0.004471015 -0.00092170166 -0.020936836 -0.0041291877
0000e0 62 f0 99 3c 2b 7a 04 3c 07 1a c4 39 a0 7a b4 ba
       0.018791381 0.008085768 0.00037403425 -0.0013769455
0000f0 9f ac 5c ba 88 c5 9a 3b 0e d4 f1 b9 94 1a 6a 3b
       -0.00084180565 0.0047232546 -0.00046125095 0.0035721408
000100 a2 a9 b4 bc 1b ad bd bb 81 79 af 3a c2 1c ca bb
       -0.022053543 -0.005788458 0.0013387651 -0.006167979
000110 00 e5 9b bc a8 23 1e bc 82 72 95 b8 2b df 1d bc
       -0.019030094 -0.009652056 -7.1262024e-05 -0.009635727
000120 96 d2 d0 bc 34 38 8e bc fa 55 73 bc 12 56 92 bc
       -0.02549104 -0.017360784 -0.014852041 -0.017863307
000130 64 9a b6 39 e8 3b 29 bc bf f2 8f ba d9 98 13 bd
       0.00034828775 -0.010329224 -0.0010982378 -0.03603444
000140 33 46 12 3d 8f d0 b1 3b 3d a0 3a bd 1f 14 28 3c
       0.03571148 0.0054264734 -0.04556297 0.0102587035
000150 fb 7f 01 bc f4 3a 12 3c 2e 23 cf 3c 32 f9 a3 3c
       -0.007904048 0.008925188 0.02528533 0.020016287
000160 28 8c e4 bb 17 b7 f3 3b a2 db 48 3c 5a b5 ab bb
       -0.0069747157 0.0074375975 0.012259396 -0.0052401247
000170 9f b0 6d 3b b4 90 9b 3b 4d 5d 4b bb 41 66 02 3c
       0.0036268604 0.0047474746 -0.0031030953 0.00795895
000180 f0 20 66 bc 49 92 b9 3b b2 de 96 3c 17 e0 a8 bc
       -0.014045939 0.0056631905 0.018416736 -0.020614667
000190 0d 0f ca 3c 77 59 92 bb 46 6f c3 bb 09 8c 59 bc
       0.02466538 -0.0044662314 -0.0059641926 -0.013278016
0001a0 53 a8 45 bb 3c c8 fb bb f7 88 c4 bc 1c d5 59 3b
       -0.0030160144 -0.007683782 -0.023991091 0.0033238595
0001b0 52 d2 b6 3b a0 c7 f4 bb 77 f9 a4 3b b8 04 1c bc
       0.0055792714 -0.007470086 0.0050346213 -0.009522609
0001c0 7d a1 86 39 6a 00 b8 bc 86 d7 79 bc 6b 8c 4c bc
       0.0002567879 -0.022461135 -0.015249139 -0.01248465
0001d0 6b 66 48 bc ea 96 f8 bb 52 46 be b9 f9 62 45 3b
       -0.01223145 -0.0075863497 -0.00036292017 0.0030118807
0001e0 ef 49 34 3c 9a ac 02 bc 56 29 7f ba b5 3d 70 ba
       0.011003955 -0.007975722 -0.00097336376 -0.00091644685
0001f0 12 ab a8 3a 67 28 a4 bb 8d a8 ea 3a e0 20 52 bc
       0.0012868366 -0.005009699 0.0017903015 -0.012825221
000200 90 7a fa 39 3a 00 73 3c c7 0d 19 3c 6c 54 18 bd
       0.00047775032 0.014831597 0.009341664 -0.037189886
000210 82 b7 45 3c 2c 4e b2 bb 18 2c 19 3d 83 6c 10 3b
       0.012067677 -0.0054414477 0.037395567 0.0022037334
000220 b7 d5 33 bd d4 73 cc bc 12 27 02 3d 31 07 4e 3c
       -0.043904986 -0.024957575 0.03177554 0.012574957
000230 ad f0 c0 3a 74 32 2d bc 9c 88 e0 bb db d3 17 ba
       0.0014720164 -0.010571111 -0.0068522226 -0.0005791762
000240 11 b4 5c 3b f7 96 8b 3d 60 a8 9e 3c 26 be 4c 3c
       0.0033676664 0.06815904 0.019367397 0.012496507
000250 70 c2 7a 39 49 ae 88 3c 26 58 bf 3c 56 18 01 bc
       0.00023914292 0.016684668 0.023357462 -0.007879337
000260 7d fa 87 3d 67 3d 95 3d f3 a7 65 bd 4a 0c 54 bb
       0.06639574 0.07287102 -0.056068372 -0.0032355958
000270 92 9f 74 bc b4 84 d5 3c 43 3a 65 3c c6 15 07 3d
       -0.014930623 0.026064254 0.013990941 0.03297975
000280 1d ad a7 bc fb f7 2c bd c9 80 36 bd ae 15 a1 3c
       -0.020468289 -0.04222868 -0.044556413 0.019663658
000290 89 29 80 bd f7 3c 56 39 8f e3 82 3d 94 5c df bb
       -0.06257922 0.00020431342 0.063910596 -0.006816456
0002a0 c2 e5 95 ba b8 5c 0c 3d b7 94 b6 3c 53 0e f4 39
       -0.0011436271 0.03426811 0.02228771 0.0004654998
0002b0 a7 3d b3 3b aa 15 ac 3b cc 0d a0 bb 9b 4f 11 bb
       0.005469996 0.005251606 -0.004884457 -0.0022172693
0002c0 b5 05 79 bb e4 e3 70 3c f3 a0 66 bc 7c a0 7c 3b
       -0.0037997786 0.014702771 -0.014076459 0.0038547805
0002d0 4e 23 5b 3c f3 3d 4d 3b 7e fd 80 39 9d 64 36 bc
       0.0133751165 0.0031317442 0.0002460293 -0.0111323865
0002e0 87 7f 5e bb 1a db a7 3c 51 08 4a bc 14 93 3f 3a
       -0.0033950524 0.020490218 -0.012331084 0.0007307988
0002f0 6e 62 c8 bb 75 a8 d2 3b 22 4c 7c 3b 03 c9 56 3b
       -0.0061152494 0.006428773 0.0038497527 0.003277362
000300 0b e6 36 bc f5 88 ef bc 42 2f 87 bc 88 c1 2c bd
       -0.011163245 -0.02924011 -0.016502026 -0.042176753
000310 da 5c da 3b 50 2b e7 ba 9b 3d 51 bc 06 ac 36 bd
       0.006663901 -0.001763681 -0.012771036 -0.044597648
000320 78 1f b3 3c 41 2e 28 bd 84 90 1e 3c 0f 8d 21 3c
       0.021865591 -0.041059736 0.00967801 0.009860291
000330 6c 9e 40 bc 2a 21 31 3a 23 fd 9b 3c c1 5a 5a bd
       -0.011756521 0.0006756956 0.019041603 -0.053309206
000340 0c 6c 92 ba 90 77 17 3c a9 9a da 3b 84 2d 39 bb
       -0.0011171116 0.0092448145 0.006671269 -0.002825589
000350 1e 23 48 3c 2b d6 4c bb 14 84 81 3c e4 d1 11 3c
       0.012215404 -0.0031255584 0.01581005 0.0089001395
000360 c9 73 72 bb 10 92 e0 3a ae 90 bc ba 77 66 13 bb
       -0.0036995283 0.0017133374 -0.001438638 -0.0022491494
000370 13 35 26 3b 30 ce 11 bc d9 82 f9 3a 97 4f 27 3b
       0.0025361225 -0.008899257 0.0019036188 0.0025529617
000380 5d b6 bc 3b 77 fa 65 bc 61 da a3 b9 d9 27 61 b9
       0.005759044 -0.014036766 -0.00031252488 -0.00021472517
000390 91 7b 1f 3c 8d b7 88 3b ce cd d5 38 02 81 06 3c
       0.00973405 0.0041722716 0.000101949656 0.008209469
0003a0 48 d8 79 bc f9 c6 1f bc a0 40 4a bb 79 1b 94 b8
       -0.015249319 -0.009752029 -0.0030861273 -7.062307e-05
0003b0 3a aa a8 39 5e a5 4d 3b b6 ba d7 b8 6e 36 9c bb
       0.00032170286 0.0031379084 -0.000102867765 -0.0047672307
0003c0 b6 e5 93 bc 7e 82 8d 3c 24 96 17 3c 97 33 9a 3b
       -0.01805387 0.017274138 0.009252105 0.004705857
0003d0 16 37 b1 3c 2f 22 88 3b 24 46 68 bc 98 c6 25 bc
       0.021632712 0.0041544656 -0.014176879 -0.010118149
0003e0 cf cf 2c 3c 79 2d 53 3c 05 0b ba bb 75 00 92 3a
       0.010547592 0.0128892595 -0.005677583 0.0011139052
0003f0 d8 b2 fc bb 9c 22 35 3c 84 c9 d0 3b ca 1b 3d 3c
       -0.0077117495 0.011055615 0.006371679 0.01154227
