output/clip/FD001/exp_202411012252_bilstm_clip_ep-0064.pth (torch, 288916 bytes, 66 tensors)

module.bi_lstm1.weight_ih_l0 f4 [64, 14]
00000000: 15cb 073e 04a7 053e 98be 513e 4f2a 57bd
00000010: dea6 613d 5df0 183e 52b4 eb3d a9a4 5d3d
00000020: 246f b13d df06 1f3e fdf7 c83d 2e95 243e
00000030: 6575 d33d 98a1 ae3d 50ab b2bc 7f91 da3c
00000040: a289 303d 9310 c13d f4d1 073e 5666 9a3d
00000050: 7d61 b73d 2c7b a43d 9153 f13d cc66 953d
00000060: 2d75 c03d f50c 013e efbc 5c3d 053d f03d
00000070: 9ac8 533d ecbe 123d a7e5 d83d 4eac c03d
00000080: 95b7 c03d 31b2 da3d 70c3 a03d 950e d4bc
00000090: 3035 d13d e03c 243d d002 a0b9 0bf1 203e
000000a0: f488 b33d 69be 5dbd f1ca 623d 316e e73d
000000b0: 6022 7b3d e7c0 b2bc 9010 133e eece 0cbd
000000c0: ef85 df3d c1b0 c73d 02e9 9a3d b7d5 27bd
000000d0: 6ec7 b53d 5375 003e 14a3 883d 1fba 9a3d
000000e0: 574c eb3d b28e 093e 8b35 8b3d fe89 debc
000000f0: f42c a83d 8721 eb3c 379c 293e 3f75 d1bd
00000100: 39e9 533e 1424 243d bd5c 273e 8d8f e33d
00000110: 4561 c73c 97c1 ad3d 59fa 1a3e cfa3 6e3d
00000120: d6a0 b03d f707 703e e32c 7c3b 9287 533d
00000130: 5123 ae3d 42c5 013e f8fe ef3c d27e 5c3d
00000140: 1fbe 563d af7f a13c 6004 bc3d 0022 843d
00000150: 49a8 82bd 215e 79bc 4efe 1ebd 0193 4cba
00000160: 8314 57bc be7e 09bd 3273 4b3d 891a 9e3c
00000170: 6040 453d bfb3 01bd a97b 133e 9379 e6bc
00000180: aea2 a93c 288f 403d d7a0 b5b9 11a2 7a3d
00000190: 0354 803d e93b a3bd d93b ea3d 94d8 8c3c
000001a0: 26a4 033e e504 0abd 3a24 e73d d18d 863c
000001b0: 4e4e 9c3c f91d 0f3e 13d7 6fbd 4819 e5bc
000001c0: 8d41 553c a0c0 183d 403d 3b3d b258 063d
000001d0: dc5c 503d 0f19 c13c 5314 883d b2e4 883c
000001e0: 5539 573d 68de f13c 564c 2e3d cb38 553d
000001f0: 2d3d 8a3c 0873 d43c c333 283d 5fab a13d
00000200: 37bc 793d 0af6 87bd ce7b fb3d d682 b13d
00000210: c97a 123e 30df bebd bf69 c33d 3e62 0f3d
00000220: 4f1e f83d 9dd1 0c3e 616f d73c c31a d4bd
00000230: 12c1 18bd f9b3 bb3d 504e 813d c1cd 9ebd
00000240: ffee 683d 157c d13c 9aeb a63d 3f2e 05bd
00000250: df05 913c 9c15 e23b 75e6 c53d ec8b 003e
00000260: 18d3 d7bd d9b7 d3bd 6263 203d 50cf 4f3d
00000270: a5d5 84bc 3fd0 a33c 9526 963d c517 e9bc
00000280: b44b d4ba 47a3 0abe 1137 773d cb8a 85bc
00000290: f912 ad3c c9e9 173d c6e0 8fbd 07f7 e7bc
000002a0: 8938 c53c d5de b43d a573 c23c 7bb9 5b3d
000002b0: fa33 903d 3ef6 fabb c5c7 893d 4e52 293e
000002c0: 5150 093c 39c8 ef3a 5e3a 843d 35f4 743d
000002d0: 4ec6 7d3d 68b0 db3d 96fb d0bc 3f33 d2bc
000002e0: 346e f2bc c369 a5bc 9afa 7ebb 1d3e 89bc
000002f0: b73d 3dbc 4dc9 45bd f9b3 19bc 0dee 89bc
00000300: 8e28 fbbc b119 b0bc 4f81 abbc 28a5 eebc
00000310: 9eae 483d 8f35 813d 19a2 e53d 4d31 06bd
00000320: 0f66 6b3d 1645 183d fe9a 153e a543 2fbc
00000330: 231a 113e 6b7c c83c 8c49 203e 98cd e63d
00000340: 9cd5 f43b 923a ddbc 68e3 4fbc fe51 a43b
00000350: 3a3a d53d ea11 203a 2e84 ae3b 3fe6 e43c
00000360: e42b 423d 0e26 483d dd95 bbbb 1eb0 8f3c
00000370: 3706 2b3e 1bc7 903d a290 9ebd 2978 c03d
00000380: 263b 353d 47c7 593d a34e 3e3e f92a 1cbd
00000390: 6b59 2d3e 3aa9 493e c905 eb3d 2815 b93d
000003a0: e4a1 623e 0e42 3f3e 9975 223e f13e f53d
000003b0: 17f9 4a3e 4771 b93d d5d4 7d3e a97e 183e
000003c0: dead 793e 9697 483e 41a7 a33e d45f 183e
000003d0: ef98 823e a801 ad3e f2b5 443e ab72 3c3e
000003e0: e1ca 6d3e a4fd da3e ba99 243e 0609 483e
000003f0: a088 133e d6ae cb3d 7b60 353e c0c8 0d3e
0.13261063 0.13051993 0.20482862 -0.052530583 0.055090778 0.14935441 0.11509003 0.05411211
0.086637765 0.15529965 0.09812925 0.16072533 0.103251256 0.08526915 -0.021810204 0.026680706
0.043100007 0.094269894 0.13263685 0.0753905 0.08954141 0.08031306 0.11783517 0.072949976
0.093973495 0.12602599 0.05389112 0.117303886 0.05170498 0.03582661 0.10590678 0.094078645
0.094100155 0.106785186 0.07849777 -0.02588586 0.10215223 0.040097117 -0.00030519674 0.1571695
0.08766356 -0.054136667 0.05536932 0.11300314 0.06131208 -0.021820499 0.14361787 -0.03437703
0.10914218 0.0975051 0.07563974 -0.0409753 0.08875929 0.12544756 0.0667173 0.07555031
0.1148917 0.1343334 0.06797322 -0.02716541 0.08211699 0.02870251 0.16563497 -0.10227441
0.20694436 0.04007347 0.1634397 0.111113645 0.024338374 0.0848419 0.15134563 0.05826169
0.08624427 0.23440538 0.0038478903 0.05164296 0.0850283 0.12672904 0.029296383 0.053831883
0.052427407 0.019714205 0.09180522 0.064517975 -0.06379754 -0.015220196 -0.038816743 -0.0007803888
-0.013127449 -0.033568136 0.049670406 0.019299762 0.048157096 -0.03166556 0.14402641 -0.028134143
0.020707455 0.047011524 -0.00034642845 0.061189715 0.06266024 -0.07970411 0.11437196 0.017193116
0.12855586 -0.033696074 0.112862065 0.016425045 0.019080307 0.13976277 -0.05855472 -0.027966157
0.013016117 0.037293077 0.04571271 0.03279943 0.050869808 0.02357152 0.066445015 0.016710613
0.05254491 0.029524997 0.04255327 0.052056115 0.016874874 0.025933757 0.04106499 0.078940146
0.06097051 -0.06638725 0.12279473 0.08667533 0.14304651 -0.093199134 0.09541654 0.0350058
0.12115156 0.13751836 0.026298227 -0.10356667 -0.0372935 0.091651864 0.06313765 -0.07754088
0.05686855 0.025571862 0.08150406 -0.032514807 0.017702995 0.0068995487 0.09663097 0.12553376
-0.1053831 -0.103378005 0.03915728 0.050734818 -0.016215155 0.01999676 0.07331578 -0.028453717
-0.0016196878 -0.13538848 0.06035525 -0.016301533 0.02112721 0.03708819 -0.07025294 -0.028316034
0.02407481 0.08831564 0.023736784 0.053643685 0.07041164 -0.007658749 0.06727556 0.16535303
0.008380965 0.0018293924 0.06456445 0.059803206 0.061956696 0.10727006 -0.02551059 -0.025659202
-0.029593565 -0.020192033 -0.0038906694 -0.01675325 -0.0115503585 -0.04828768 -0.009381288 -0.016837144
-0.030658986 -0.021496626 -0.020935683 -0.029131487 0.048994653 0.063090436 0.11212558 -0.03276186
0.057470378 0.03717526 0.14609906 -0.01069728 0.14170127 0.02447339 0.15653056 0.11269683
0.0074717533 -0.027005468 -0.012688495 0.005014657 0.104114965 0.0006106185 0.0053258156 0.027941821
0.04740514 0.048864417 -0.005724652 0.017540034 0.1670159 0.07069226 -0.0774243 0.09397919
0.04424586 0.05316856 0.18584685 -0.03812692 0.16928641 0.19693461 0.11475713 0.09037238
0.22132069 0.18677542 0.15865172 0.11974896 0.19821583 0.09054809 0.2478822 0.14892067
0.24382731 0.19589075 0.31963542 0.14880306 0.25507304 0.33790326 0.19210032 0.18403117
0.23221923 0.42771637 0.16074267 0.19534692 0.14407587 0.09945457 0.17712586 0.13846111

module.bi_lstm1.weight_hh_l0 f4 [64, 16]
00000000: 99fd 04be 836e 043e 2ffc 083e af1f 4b3d
00000010: 5142 0f3e a6c7 6e3d 2d63 693c a00e dcbd
00000020: e3dd 473d f95b ca3d f27e 423d 06ed 5e3d
00000030: 2dae 06bd 73ec 913c b382 90bb 2198 6abd
00000040: 486b f13c 978c 8dbc 5ef3 6ebc cd2c 323e
00000050: e624 bbbc 0406 8dbd 5583 c73c 86d3 013e
00000060: 6473 c3bd dfc9 343d ba4a 063b f711 39bd
00000070: cea5 c6bd c443 eebc a092 763e 7aa8 a13d
00000080: 63d3 4ebd 22bc 19bc 63fa 973d 90ee 10be
00000090: 8e5d 293d 86fb b13c decf 2fbd 54d3 1dbc
000000a0: 7c92 1f3b a2a9 fd3c e679 35bc d089 273d
000000b0: 05e2 943d 7eb5 0e3c 0474 25ba 3dce f7bc
000000c0: 709c 2fbd 2409 983b 26a1 ac3d 57c5 9c39
000000d0: 2fcf 723d a8b4 4f3c ec4b 3e3d 9ce4 103c
000000e0: 2daf 5ebd 1c91 373d a60f f7bc d384 cc3c
000000f0: c85a 93bc 006f cf3b 7663 313d 3c70 513c
00000100: 19a5 05bd fdf2 683c cde1 c53d 103e 233b
00000110: df77 9abc 751a 403d b5ca ad3c 93ec 103b
00000120: 5589 8ebb 8e9c e03d 25d2 81bd 9d66 fc39
00000130: a8d7 b33b f02b 413b de62 3a3c c6fa b9bc
00000140: 745d 19be db43 02bb f3b5 d33d 94fe 52bd
00000150: 8c80 a63d 2b3e bc3d 01c2 acba 8849 49bd
00000160: 914c 163d cce9 c23d 3abf 37bd 5ac8 ed3c
00000170: e3d4 443c 696b 043d 2129 463d 7500 f5bc
00000180: 6041 48bd c1a9 083e b6e4 80bd aa6b 873d
00000190: fcbe a1bd cf68 a8bd 14cf 423d a9ca 9abb
000001a0: 8d7c 5dbc e421 c7bc fafa 78bd e60e 86bc
000001b0: fb82 80bd c650 873b 923c ee3d 5880 c83d
000001c0: 76c4 eabd dcc0 8c3d 89bc 883d 7177 cc3b
000001d0: 3fd8 2a3d 169b 69bc ec91 1c3d e35d 18bb
000001e0: 04e0 833c 06e8 b53d 3e28 6bbd 0e21 a1bc
000001f0: 9a61 1e3c 6d6e b33b 8eec 4e3d 7f22 3c3d
00000200: 9fd8 2dbd b76e f43d 958e 4b3d 5d6a 873d
00000210: 725d 4a3d 1c2d 663d e7d5 003d 3a3e f8bb
00000220: 9f31 ba3b 3ba4 703d 09bd 6cbc a86e 003c
00000230: 0c28 41bd 76df 5cbb d481 c83c 8a0c 933c
00000240: bba9 93bd fa5c d23d cab9 ba3c 33e8 58bc
00000250: d054 c1bb 1d75 36bd 9586 71bc bac6 dfbc
00000260: c58e 153d 436d 753d fc11 b53a 9791 09bd
00000270: 2b71 0d3d 745a 7939 51e1 d73d 0fdf 813d
00000280: 98b7 ecbd 369c b43d 9985 9f3d 502e 213d
00000290: 169a c7bc a5ac ccbd 3755 333d 7a4c 30bd
000002a0: a0fd e63c f32a b63d c823 88bd 9536 30bd
000002b0: a5f6 cebc d572 c13c 61ee 0f3e f99f fa3d
000002c0: a6d7 90bd ad0d 75bd 961b 2c3c aae3 24bc
000002d0: 4656 e23c dc63 a6bd b9fa df3c 8ad1 f23c
000002e0: 052b 10bc 7f15 043d 5bcf 9dbd 4dd0 97bc
000002f0: 3045 c3bb 1cdc 453c 25ca 693d 7efe 423d
00000300: 74d3 97bc afef 143c 5750 6a3d 66f7 b4ba
00000310: 2e48 5f3d 3688 3b3d 859f e63c 888d ab3c
00000320: 6a04 a8bc b733 c33c ddd5 a9bb 8b0a 853c
00000330: ecf5 f0bb 10b0 6fbc 3069 463c d266 87bc
00000340: 4809 e33c 1085 47bc 7538 b8bc 4dd7 37bc
00000350: b9bb 92bc 374a 923c 0116 82bc 1e85 8eba
00000360: e06b 5739 ea04 94bc e38d 873c f750 5f3a
00000370: 0a9e 823c 395e a0bb 08ce fbbc 3273 66bc
00000380: 30ae 91bd a171 973d 57f9 533d f83b 8ebd
00000390: 017a 233c c784 18be 3b9e b8bc f6d8 98bd
000003a0: c41c 153d 773e 913d a83a e9b9 8635 24bd
000003b0: 4068 213d 0b10 2a3d da1e de3d 359f 0c3e
000003c0: 6366 9abd b47e 13be 64b2 b3bc 65df c7bd
000003d0: 7362 4bbd a519 9cbd 9523 c9bb cfeb 8cbd
000003e0: 2610 fd3c 5c97 a83c e154 333d 328b 3cbd
000003f0: 9937 3d3d c922 1a3d a9d8 2a3e 443e f6bc
-0.12987365 0.12932782 0.1337745 0.049590763 0.13990141 0.05829587 0.014244837 -0.10744977
0.048795592 0.09880824 0.047484346 0.054425262 -0.03288095 0.017812943 -0.004410112 -0.057273988
0.029470101 -0.017278953 -0.01458439 0.17399903 -0.022844743 -0.06885913 0.024354616 0.12678346
-0.095434934 0.04413783 0.0020491318 -0.04518315 -0.096995935 -0.029085048 0.2407937 0.078934625
-0.050494563 -0.009383233 0.07420804 -0.14153504 0.041348986 0.021726381 -0.042922847 -0.009632904
0.0024348786 0.030964676 -0.011076426 0.040902913 0.07269672 0.008710263 -0.0006311538 -0.03024971
-0.0428738 0.0046397615 0.08429174 0.00029901668 0.059279617 0.012677349 0.046459123 0.008843567
-0.05436628 0.04481612 -0.030158829 0.02496568 -0.017987624 0.006330371 0.043307744 0.012783106
-0.032628153 0.014218089 0.09662209 0.0024908818 -0.018855987 0.04690023 0.021214822 0.0022113665
-0.0043498673 0.109673604 -0.0633891 0.00048141638 0.0054883547 0.0029475652 0.011376111 -0.022702586
-0.14977056 -0.001987687 0.103374384 -0.051512316 0.08129987 0.09191545 -0.0013180376 -0.04914239
0.036694113 0.095172495 -0.044860102 0.0290262 0.012013647 0.032328997 0.048379067 -0.029907444
-0.04889047 0.13346006 -0.06293623 0.06612332 -0.078977555 -0.08223116 0.047560766 -0.004723866
-0.013518465 -0.024308152 -0.060786225 -0.016364526 -0.062749825 0.004129502 0.116326466 0.09790105
-0.11463253 0.068727225 0.06676585 0.0062398245 0.041710135 -0.014258167 0.0382251 -0.002324932
0.01609803 0.088821456 -0.057411425 -0.019669082 0.009666825 0.0054758103 0.050518565 0.045931336
-0.042442914 0.1193518 0.049696524 0.06612084 0.049405523 0.056195363 0.031453993 -0.0075757774
0.005682185 0.058750372 -0.014449366 0.0078388825 -0.047157332 -0.003370253 0.02447597 0.017950315
-0.07210108 0.1027164 0.02279367 -0.013238954 -0.005900003 -0.04454528 -0.0147415595 -0.02731644
0.03651311 0.059918653 0.0013814564 -0.03358611 0.034531754 0.00023780187 0.105410226 0.06341373
-0.11558455 0.08818857 0.077891536 0.039350808 -0.024365466 -0.09993867 0.04378244 -0.043041684
0.02819711 0.08894911 -0.0664745 -0.043020803 -0.025264094 0.023614326 0.14055778 0.122375436
-0.07072382 -0.059827495 0.010504624 -0.010064045 0.027629029 -0.081245154 0.027341234 0.029640932
-0.008799319 0.032247063 -0.077055655 -0.018531943 -0.0059591755 0.012076404 0.057077546 0.047605984
-0.018533446 0.009090348 0.057205524 -0.0013806641 0.054512195 0.045784198 0.028152237 0.02094151
-0.020509917 0.02382837 -0.005182965 0.016240379 -0.007353535 -0.014629379 0.01211004 -0.01652852
0.027714387 -0.012177721 -0.022487858 -0.011220765 -0.017911779 0.017857654 -0.015879633 -0.0010873412
0.00020544184 -0.01806875 0.016547149 0.00085188396 0.0159445 -0.0048940447 -0.030737892 -0.014065551
-0.07113302 0.0739472 0.05175146 -0.06945032 0.0099778185 -0.148944 -0.022536388 -0.07463257
0.036404386 0.07091992 -0.00044484925 -0.040090106 0.03940606 0.041519206 0.10845728 0.13732608
-0.0753906 -0.14403802 -0.02193565 -0.09759406 -0.049654435 -0.07622079 -0.006138275 -0.068809144
0.03089149 0.020579986 0.04378212 -0.046031184 0.0461956 0.03763083 0.16684212 -0.030058987

module.bi_lstm1.bias_ih_l0 f4 [64]
00000000: 956e 4d3e 8e82 0e3e 1e77 913d f470 783d
00000010: e668 9fbc dd39 483e f14f 63bd b51b 453d
00000020: e5d6 8e3d 34b6 40bb 9917 913d 47b4 11bc
00000030: 222a 133e e599 cbbc 13a8 c73d 3508 a63d
00000040: 3d3c 223e 7e59 b83e d6c4 193d 8adb 2a3e
00000050: 36ba 0c3e c486 5c3e 8c84 5e3d 3a23 903d
00000060: 7520 b43d 7542 87bb 5601 de3d 36c7 cdbc
00000070: a504 d13d 5936 1cbd f7cd 293e b360 493e
00000080: be9a fd3c 00a4 1ebe e23b 4a3e 2992 693d
00000090: f79a 353e 903b 4b3e 59e2 a93d 087d 5bbc
000000a0: d37a f23d 62e7 3c3e 4913 3dbe bf68 173e
000000b0: 762d 23bd 72f0 e53d 4f71 953d 13e7 5ebe
000000c0: 30e5 bc3d 1fb7 683d 990a 36bd ca14 1f3e
000000d0: 3f5c 073e a33c c93d 69b8 693d 24d3 bb3c
000000e0: c3dd 803d e2c7 f03d 7377 bb3c a7c6 d03c
000000f0: 664e 073e 4439 89bd 0a71 da3c 9bc3 973d
0.20061715 0.1391699 0.07102798 0.060654595 -0.0194592 0.19553323 -0.05549616 0.048122127
0.06974582 -0.0029405477 0.07084579 -0.008893079 0.14371541 -0.024853656 0.097488545 0.08107034
0.15843292 0.36005777 0.037541233 0.1668531 0.13742909 0.21535784 0.054325625 0.07037969
0.08795253 -0.0041277953 0.108400986 -0.025119405 0.10205964 -0.038137767 0.16582476 0.19665794
0.030957576 -0.15492249 0.19749406 0.057024155 0.17734896 0.1984694 0.082951255 -0.013396509
0.11839833 0.1844764 -0.18464388 0.14786051 -0.039838277 0.11227502 0.072970025 -0.21767835
0.092234015 0.056815263 -0.0444437 0.15535274 0.13218783 0.09826019 0.057060633 0.022927828
0.06292298 0.117568746 0.022884106 0.02548535 0.132135 -0.06700376 0.02666523 0.07410356

module.bi_lstm1.bias_hh_l0 f4 [64]
00000000: 1ca0 0abc e437 6c3e a159 0d3e a5c2 403e
00000010: d139 26bd d6e3 0e3e a047 d63c 64b8 c6bc
00000020: feb4 653d 44a9 863d ad42 a7bd 5083 853c
00000030: b705 163e 7f35 20bd 39c3 ac3d 0084 b43d
00000040: 7d74 31bc 7291 5a3e 2c00 f3bc ca38 943d
00000050: 1daf e5bc c6d6 dc3d e97c 573c 3304 b43d
00000060: 7dff ba3d adbf b53c 9272 473d a4eb d23d
00000070: 15ad ca3d acd1 00bd af55 e33d 49ee a8bc
00000080: dae0 2dbe ac12 c1bc acbc bc3b d2e9 933d
00000090: cbc6 613d 29fe c7bc ab43 1f3e 1648 1c3e
000000a0: 4a71 b33d 4b59 28be 289a 533e 1625 213e
000000b0: 9515 59be 178d 6ebc 5050 133d c696 dfbd
000000c0: 8c16 c63c 2740 ea3d 9e0c 313d 099f 1b3e
000000d0: 9a05 59bd 53c9 993d 9e89 c33d 2fdd 893c
000000e0: 657e 4f3d 0d94 04bd 76e4 2b3e 3e56 51bc
000000f0: 42fd 353e fbbf 34bd 52e9 a63d 524f babd
-0.008461025 0.23068196 0.13803722 0.18824251 -0.04058248 0.139541 0.0261572 -0.024257846
0.05608081 0.065752536 -0.08167014 0.016297966 0.14650618 -0.039113518 0.08435673 0.088142395
-0.010830996 0.21344545 -0.029663168 0.07237394 -0.028037602 0.10783152 0.0131523395 0.087898634
0.09130762 0.022186125 0.048693247 0.10298851 0.09896294 -0.03144996 0.11100327 -0.020621436
-0.16980305 -0.023568474 0.005759796 0.07222332 0.055121224 -0.024413185 0.15553157 0.15261874
0.087618425 -0.16440313 0.20664275 0.15736803 -0.21199639 -0.014560006 0.035965264 -0.109174296
0.024180673 0.11438017 0.043224923 0.15197386 -0.052983858 0.07509103 0.09547733 0.016829101
0.05065765 -0.032367755 0.1678637 -0.012776909 0.17772391 -0.0441284 0.08149971 -0.090971604

module.bi_lstm1.weight_ih_l0_reverse f4 [64, 14]
00000000: cfc4 883c 2f76 5dbe 415f 413e 7014 e93c
00000010: 00eb 68be 1e1c 97be 5bde 50be 553f 213c
00000020: 38f7 1bbe 63a6 00bd df55 12be edc5 5abd
00000030: aa64 c1bd 5583 9bbc f749 4d3e 6d3d 263e
00000040: 6e49 00bd 5835 04be 8679 873d a171 08bd
00000050: 3f29 08be 0297 683e 95b3 673c 0638 1cbd
00000060: d887 cb3d 8706 233e 9d8d 5a3e f7b4 643e
00000070: e0bf 05bd 455b 35be 7f27 7e3d 0912 fcbd
00000080: 1238 48be 254c 47be ca52 91bb 8353 ca3d
00000090: 8768 68be 1e6f a137 58da 28be 1a13 1dbe
000000a0: d20d cd3d 88c6 993d 532a 2dbd 2442 853d
000000b0: 65a4 8c3d f65b 4c3e 5756 ddbc 95ee 003c
000000c0: 5318 36be 0a2e 60bc 41ee 3a3c 3970 7a3d
000000d0: b6ee fe3a a4a7 1bbd d4af 04bd 213f 9c3d
000000e0: 4075 6d3d 1ac8 a43c 382c 6dbd 1969 30be
000000f0: 578f 26be 52ff ad3d df7f c63d 366d ac3d
00000100: 8c82 e53d 59c0 303d f451 c03d 300a 833d
00000110: f9ba af3d cc20 513e ed57 1c3e c45b e83d
00000120: 4ca3 593e 89c0 b0bd 4f99 303e 2d36 85bc
00000130: 1e8d 743e 4917 7abd 2c36 a4bb 6457 8abd
00000140: 1814 f73d 7aff 223e 57b0 bfbd b6bf 14be
00000150: aae6 1ebe 094c 4a3d 6ff1 59bd 7676 243d
00000160: d7fe 403e 0d5f 773e 8db1 173e ce6c 4dbc
00000170: 98eb 773e 4587 933e 6f5d c93c 3751 063d
00000180: 271b ffbd 9c6e 12be 2898 7c3e 8031 103e
00000190: 4255 d8bb ed24 37bd f623 d23d 8611 31be
000001a0: fa2f 25bd 17e4 623d 6470 333e 82df 4dbe
000001b0: ad70 c1bd 88c0 62bd a281 803e 6cab 6ebe
000001c0: cf52 463e 7790 67bd f85d 083e dbcf d83d
000001d0: b84c b33d 0fa9 7b3d dab5 5f3e ad86 a5be
000001e0: 878b 4a3e e9cc 9bba c9bd aa3d 32e9 91bd
000001f0: 264f 27be 6250 a2bd f108 a23d b9ca ba3d
00000200: aca1 c43d 15e7 9b3d bea6 37be 5ce3 b9bc
00000210: 2ff2 00be 4778 52bc bd10 b0bb b246 f6bc
00000220: 12dc 80bd f36e 1d3c 9b61 0bbe 83fc f9bd
00000230: ad72 afbd 7f9b ab3d 508c 613e 54dd 263e
00000240: ec32 723d d854 f5bd bf3e 0abe 901b 803d
00000250: 64a6 93bc e49a 8ebd 0f73 213e 780b b6bd
00000260: d074 243e 32a4 24be a487 b2bd eaf2 eabc
00000270: c302 ab3d fee6 17be fad4 e13c 6682 563e
00000280: 62fa c13d 2c49 59bc 01df c63d 851f bf3d
00000290: cbc6 4c3e 8bb7 143e efb3 25b8 6c3b 02be
000002a0: 0df4 b43d 7de9 c9bd dbdb 93bd bb38 15bd
000002b0: dfc5 a7bd 79bf a0bc 3b83 41be 9024 043e
000002c0: 488c c3bd ea66 70bc 42b0 8a3d 04b3 893d
000002d0: a7f0 94bd 1d37 603d 1a30 7e3d baec 2d3e
000002e0: daee 333e 0fd2 4fbd 63ad fa3c dd5d 0f3e
000002f0: 1795 2e3d 6742 71bd 9878 093d 2f60 623d
00000300: 978f 58bc 46d6 143e dba0 40be 79e2 30be
00000310: 4aac 10bd d233 f93b 8f2c eabd 5311 b03c
00000320: 1793 c6bd 65d7 adbd f9db 1abe fde7 673d
00000330: 177d d5bc 4648 92bb 26e6 2cbc 46ef 073d
00000340: 4a8f 81bd 4474 ba3d e9bf bf3d cdc6 57bd
00000350: c949 193d a514 053e 343a 0fbd 333a bf3d
00000360: d600 93bd ca93 963d eedb 863d dfe7 f53d
00000370: e5e3 c63c 8976 633c eb83 d83c b6ab 6b3e
00000380: b51e 92bd 8dda fb3d 5e04 483e c2d3 2c3e
00000390: 857a f73d 1592 dfbd cf8f 203b d692 833c
000003a0: e0c0 783d de6f a7bd 2ae7 a4bd 5c48 363e
000003b0: 4e57 25be d718 e6bc 6903 733e 106d d8bc
000003c0: 97bc 3a3c 43be 043e c07f e2bd 6208 5e39
000003d0: 1ba8 d4bd fc1f 013e b64f 0e3d 304e 843e
000003e0: 6133 733e de55 383e b087 073e 42d7 923d
000003f0: 3163 103e ea6e f13d f26b 2f3e 90df 183e
0.016695408 -0.21627115 0.18883993 0.028452128 -0.22745895 -0.2951364 -0.20397322 0.00984176
-0.15231025 -0.03140868 -0.1429057 -0.053411413 -0.09443028 -0.018983522 0.20047747 0.1623437
-0.031320028 -0.12910974 0.06614976 -0.03331149 -0.13296984 0.22713855 0.014141937 -0.038139366
0.099380195 0.15920459 0.21343084 0.22334658 -0.03265369 -0.17710598 0.062049385 -0.123081274
-0.19552639 -0.1946264 -0.004434918 0.0987921 -0.22696124 1.9244439e-05 -0.16489542 -0.15339318
0.10012402 0.0750857 -0.04227669 0.06506756 0.06867293 0.19956955 -0.02701871 0.007869382
-0.17782716 -0.013682852 0.011409343 0.06114218 0.0019449804 -0.03800167 -0.032394245 0.076292284
0.057973146 0.020114947 -0.0579035 -0.17227592 -0.16265617 0.08495964 0.09692358 0.08419268
0.112065405 0.043152187 0.09390631 0.063984275 0.08580584 0.20422667 0.15267916 0.11345628
0.21253699 -0.08630473 0.17245983 -0.016261185 0.23881957 -0.061057363 -0.0050113406 -0.0675495
0.120643795 0.15917769 -0.09359806 -0.14526257 -0.15517679 0.04938892 -0.053208765 0.040152036
0.18847214 0.24157353 0.14813824 -0.012538148 0.24210966 0.2881414 0.024580685 0.032792296
-0.12456351 -0.14300007 0.24667418 0.14081383 -0.0066019604 -0.04471295 0.10260765 -0.17291841
-0.040328957 0.055393305 0.17523342 -0.20104793 -0.09445319 -0.055359393 0.25098902 -0.2330758
0.19367526 -0.056534257 0.13317096 0.1058652 0.08754867 0.061440524 0.21846715 -0.32329312
0.19779788 -0.001188663 0.0833698 -0.071245566 -0.16338786 -0.07925488 0.07911862 0.091206975
0.09601149 0.07612435 -0.17934701 -0.022691421 -0.12592386 -0.012846059 -0.005373089 -0.030063007
-0.06291975 0.009608972 -0.13611452 -0.12206366 -0.085667945 0.08379268 0.22026181 0.16295367
0.059130594 -0.11979073 -0.13500498 0.06255257 -0.018023677 -0.06963137 0.15766548 -0.08888906
0.16060185 -0.1607826 -0.08717278 -0.028680284 0.08350136 -0.1483421 0.027567375 0.2094818
0.09471585 -0.013262074 0.09710503 0.09332184 0.19997708 0.14523141 -3.950664e-05 -0.1271798
0.088356115 -0.098589875 -0.072196685 -0.036431056 -0.08192038 -0.019622551 -0.18897717 0.12904572
-0.09548241 -0.014672974 0.067719 0.06723598 -0.07272463 0.05474006 0.062057592 0.16984835
0.17571583 -0.050737437 0.030600255 0.1400065 0.042622652 -0.058901217 0.033562273 0.05526751
-0.013217828 0.14534864 -0.18811361 -0.17273892 -0.035320558 0.0076050544 -0.1143428 0.021492636
-0.09696024 -0.08488349 -0.15122975 0.056617726 -0.026060624 -0.004464182 -0.010552919 0.033187173
-0.06326158 0.09104207 0.09362776 -0.052679826 0.037423883 0.12996157 -0.034967616 0.093372725
-0.07177894 0.07352407 0.06584917 0.120071165 0.02427859 0.013883241 0.02643009 0.23014721
-0.07134763 0.12297545 0.19532916 0.16877654 0.120839156 -0.10916535 0.002449978 0.016061228
0.060730815 -0.08175634 -0.080519035 0.1780104 -0.16146585 -0.028088016 0.2373177 -0.026419193
0.011397502 0.12963204 -0.11059523 0.00021174693 -0.10383626 0.12609857 0.034743987 0.25840902
0.23750068 0.18001506 0.13235354 0.071699634 0.14100339 0.11788733 0.17131022 0.14929032

module.bi_lstm1.weight_hh_l0_reverse f4 [64, 16]
00000000: 894a 6abd 086c 20be c31e 8dbb eb54 3bbe
00000010: db75 983d f49f b2bc 3ac6 bf3d 7653 95bc
00000020: 2e12 21be 4514 fa3d ca0e 183e c540 24bd
00000030: 9caf a2bd 28c4 393e fa05 4ebd 7bf5 10bd
00000040: 3c38 61bd 71ee a73d db2d 39be 32dc 68bd
00000050: 6af6 dcba 0ab8 15bd 9c3b 89bc fbad bcbd
00000060: b256 203e 7bde 19be 3f5e 173e 53da 193e
00000070: 2e3e 363d 1b55 ad3d dbaa 173d 2db6 3cbd
00000080: 09f4 e53d 1605 05be d9d9 413d a61f 1d3d
00000090: edc1 12be 1a40 60bd 7699 033e 9e52 1c3c
000000a0: 2f3d 4ebd 562e 29be 9f3e b53d 9f75 8a3d
000000b0: 63a6 6a3d 23c1 313e 3621 76bd ec35 b7bd
000000c0: 899d eb3c 45e2 09bd 44b7 aabd 79db 0d3d
000000d0: 8bcb c43c 1270 113c 9b78 44ba 1050 1bbd
000000e0: 43d0 723e 84c2 9cbd 160a cf3d e665 7f3e
000000f0: 910a c73d 0d4b 6c3e 0fd4 ddbd d917 1a3d
00000100: 0a02 a7bd 38cc 23be da06 cbbd 3246 c8bd
00000110: ffb4 f93d 5370 37bd 5b6a 31be a3e4 943c
00000120: 87dc d33d 7642 1bbd bb0c 7b3e 4dbc fd3d
00000130: 4cc7 a63d 4009 093e 40c7 833c f3c9 123d
00000140: 1164 d0bd bfa0 5b3d 2006 c73d f001 8d3d
00000150: 4049 083e b9b5 e43a cabd ea3c 3b16 f63b
00000160: 2de1 87bd a932 c9bc 7495 2ebe 3d51 4dbc
00000170: 0eaf babd dd33 36bc f224 213d 6dfe f23d
00000180: e8cf 8ebe 4a5c 623e 5857 753e 5115 5b3e
00000190: a97e b53e 50ac ae3e 8404 273e 34dd b9bd
000001a0: 1847 743c c6b9 803e 4d3d f23d 18cb 493e
000001b0: 1ff5 51be ef7a 9dbd 19ce 493c 0d20 523e
000001c0: 6b97 15be 65ef d03d 6af3 943d 6dac 85bd
000001d0: e22e 693e 85e4 653e e814 693e 4ae7 ac3a
000001e0: 4fa2 083e ab8c 243d b663 b9bd 9071 72bd
000001f0: adc4 b9bd edcb 8cbd b00c aebc 267f c43c
00000200: b29c 9e3d 2601 953d 1b09 85bd 927c 1bbd
00000210: d4ce 8a3d 59b6 623d cc85 973d 8543 5dbe
00000220: 177f 253c e0fc 433e 65fc 21be 9e97 e73b
00000230: 2380 92bd 2220 52be bdda 4e3d b003 10bb
00000240: f236 a13d e5fb 353d 77cf 6dbd 3227 99bc
00000250: 5d1f bfbd 1878 9ebd 110c 30be 081a d8bc
00000260: 2782 24bd d3d7 883b 465d 1d3e 0df7 9839
00000270: 642c 3e3d 840b 1c3d 6367 403c 09e7 56be
00000280: d10f 81bd 7f14 e73c d233 1bbd d079 4dbd
00000290: 3677 0bbc cfe9 54bd 5621 92bd a68b 743c
000002a0: c160 17bd dfc7 2ebd 0d0d 7f3d bb73 213c
000002b0: 0df1 3c3d 18ce 213d 3f7d 9cbb dc5b f7bb
000002c0: 5527 3abd 000c 7d3c fc5b 963d 89f0 b43a
000002d0: 0afd 0c3e eb5d 6abc d4e8 dfbb ec1d 10be
000002e0: 147a d73b 3d97 5fbb 6892 1e3e 6ddc d8bd
000002f0: 68b7 a63d e55e 32bc 127c d4bc 0596 05be
00000300: 2ebc 113d c9a2 41bd 8faa b4bd 1a8e 42ba
00000310: 70de 433c fa0c 59bd cbed 6bbe 99f2 d6bc
00000320: 5656 f4bc 8a2a 82bd 2bb8 a63d 1fd0 be3d
00000330: a99e a63d 7662 863d 41e9 f7bb f5fb 86bd
00000340: 1973 373d 2ea9 e1bc c3ef 68bc c1e3 07be
00000350: a615 1abe ad7c c7bc c6b4 643d 1556 d5bd
00000360: 9780 dbbc 2bc1 1bbe d373 3bbd c6dc 1f3a
00000370: 7f90 083d 70ef bfbd f861 0abd ba14 75bd
00000380: 9166 e4bc 2d86 27bc d715 64bd 03ce 86bd
00000390: a60e f53c 2a92 e93b 9912 203d a842 93bd
000003a0: c8ab 0d3e 534a 88bd 6e3c a13d ad7c 683d
000003b0: 42a5 663d 3345 843d ef76 60bd a8e0 d2bd
000003c0: 7138 fe3d a0b7 efbc f13b 07bb 1be8 323b
000003d0: da1d 02be df15 0dbd de79 0fbe 1624 99bd
000003e0: 3e17 b33b 697c a6bd b94e b2bc 3435 b63d
000003f0: f409 ed3d 8f3d 24bc 3a2b 3ebd 8ea3 6539
-0.05719999 -0.1566621 -0.0043066456 -0.18294112 0.07444354 -0.021804787 0.093639806 -0.018228274
-0.15729591 0.12210897 0.14849392 -0.04010083 -0.07943651 0.18141234 -0.05029867 -0.03539036
-0.05498527 0.08199776 -0.18083899 -0.05685062 -0.0016858105 -0.036552466 -0.016752057 -0.09212872
0.15658072 -0.15026276 0.14782046 0.1502469 0.044492893 0.08463498 0.037028175 -0.046072174
0.11228187 -0.12990221 0.047326896 0.03836026 -0.1433179 -0.054748632 0.1285151 0.009541182
-0.050351318 -0.16521582 0.08849835 0.06760716 0.057287585 0.17358832 -0.060090266 -0.08945832
0.028761642 -0.033663053 -0.083357364 0.034633134 0.024022838 0.008876817 -0.0007494778 -0.03791815
0.23712258 -0.076542884 0.101093456 0.24941215 0.09718812 0.23075505 -0.108314626 0.0376204
-0.08154686 -0.15995872 -0.09913416 -0.09779014 0.121927254 -0.044784855 -0.17325728 0.018175429
0.10344797 -0.03790518 0.24516575 0.12389431 0.081434816 0.13382435 0.01608622 0.035837125
-0.10175336 0.053620096 0.09717965 0.06885135 0.13309193 0.0017449177 0.028654952 0.0075099743
-0.06634746 -0.02456029 -0.170492 -0.012531576 -0.0911542 -0.011120764 0.039341874 0.11864934
-0.27892995 0.22105518 0.239591 0.2139485 0.35448197 0.3411584 0.16310316 -0.09075394
0.014909528 0.25141734 0.118280984 0.1970638 -0.20503663 -0.07689463 0.012317204 0.20520039
-0.14608543 0.10201911 0.0727299 -0.06527028 0.2277179 0.22450455 0.22761881 0.0013191488
0.13343166 0.040173214 -0.090522215 -0.059190333 -0.09070716 -0.06874833 -0.021246284 0.02398641
0.07744731 0.0727561 -0.06495877 -0.037960596 0.067777306 0.05534968 0.073985666 -0.21607788
0.010101101 0.19139433 -0.15818937 0.0070676347 -0.071533464 -0.2052007 0.050501574 -0.0021974854
0.07871808 0.04442968 -0.058059182 -0.018695448 -0.09332154 -0.0773775 -0.17192103 -0.0263796
-0.040163185 0.004176119 0.15367612 0.00029175766 0.046429053 0.03809692 0.011743399 -0.2098657
-0.06301845 0.028208015 -0.037891217 -0.050164998 -0.008512309 -0.05198079 -0.071352646 0.014925873
-0.036957506 -0.04267108 0.062268306 0.009854252 0.04612832 0.039503187 -0.0047756727 -0.0075487923
-0.045447666 0.015444756 0.073417634 0.0013804595 0.13768402 -0.014304618 -0.006833175 -0.14073914
0.006575832 -0.0034117245 0.15485537 -0.10588918 0.08140451 -0.010886882 -0.025938068 -0.13045509
0.035579853 -0.047274385 -0.08821594 -0.00074216875 0.011954889 -0.05299089 -0.2303993 -0.026238726
-0.029826324 -0.0635577 0.08140596 0.0931704 0.08135731 0.06561749 -0.007565648 -0.06591026
0.0447875 -0.027546491 -0.01421732 -0.13270475 -0.1504732 -0.024351442 0.05583646 -0.104168095
-0.026794715 -0.15210406 -0.045764755 0.00060982665 0.033340927 -0.09371841 -0.033784837 -0.05983422
-0.027880939 -0.010224861 -0.05568489 -0.06582262 0.029914211 0.00712802 0.039080236 -0.07190448
0.1383506 -0.06654801 0.07872854 0.056759525 0.056309946 0.06458511 -0.054800924 -0.10296756
0.12413109 -0.029262364 -0.0020635093 0.002729899 -0.127067 -0.034444686 -0.14011332 -0.07477586
0.005465417 -0.08129198 -0.021766054 0.088968664 0.11574164 -0.010024442 -0.046427943 0.0002190007

module.bi_lstm1.bias_ih_l0_reverse f4 [64]
00000000: 2a75 4dbd b0c3 703e 05d0 f83d fac1 bbbc
00000010: e244 eabd ea66 c2bc 4fe4 3d3e b11b 233d
00000020: dc2a 3a3e 12de d6bb d61a 273e e0f2 8dbc
00000030: 8313 203e 9ee7 083c 6dd2 a338 2530 89bd
00000040: 84b4 103e e01e 863c dd2e fc3d 1ad5 053e
00000050: e05b 883e 1acc 833d 76c4 3abd b054 b2bc
00000060: 0e3d a63e abcb e5bc 833c 5d3e ef5b 473d
00000070: 1c05 593d 21ad ccbc 7e87 3f3e 9d32 253e
00000080: 9de9 cf3d dc46 61be ab48 1bbe 301e babc
00000090: 1b8f 5a3c 578b 8cbd 1b40 2a3d 1502 533e
000000a0: 1697 82bd c502 5fbe 5b0b 293e e095 943d
000000b0: 5811 0a3e 1a03 0bbe 4033 57bd 3efc 4e3e
000000c0: f4c7 a93d e4ac 213e 6860 413e 7fb9 023e
000000d0: 9c35 903e ea12 803d 9ac7 903d fcf4 fe3d
000000e0: d9cb ac3d f17b 913d e342 183e ce32 b53d
000000f0: a865 f83d d122 8cbc c38e 8d3d 32e1 35bd
-0.050160564 0.23512149 0.121490516 -0.022919644 -0.114389196 -0.023730714 0.18544124 0.03982133
0.18180412 -0.0065572346 0.16318831 -0.017327726 0.15632443 0.008356003 7.8116405e-05 -0.06698636
0.14131361 0.016372144 0.12313626 0.13069573 0.26632595 0.06435414 -0.045597516 -0.021768898
0.32468456 -0.028051218 0.21605115 0.04867166 0.05298339 -0.024984898 0.1870403 0.16132589
0.1015198 -0.21999687 -0.1516444 -0.022719473 0.013339783 -0.068625145 0.041565042 0.20606263
-0.063764736 -0.217784 0.16508238 0.07255149 0.13483179 -0.13575402 -0.05253911 0.2021341
0.08290091 0.15788609 0.18884432 0.12766074 0.281659 0.062536076 0.07069321 0.12449071
0.08437318 0.07103718 0.14869265 0.08847581 0.121287644 -0.017106446 0.06911995 -0.044404216

module.bi_lstm1.bias_hh_l0_reverse f4 [64]
00000000: 34e0 a2bd d4ed e0bd 0b1a 443e 08a5 853d
00000010: 5c5f 723e 3bc5 a2bd 2d98 f6bc 1776 fe3c
00000020: 016d ed3d 9ddc a1bd fad2 8cbd 51d2 f3bd
00000030: 4b04 08be a746 c2bd d649 9abd 2d0d de3d
00000040: e9c1 a8bd 5ccc 173d a547 eabd 657a d53d
00000050: cdcd 773e 6180 213e e27e b73e 2189 933e
00000060: 8047 c93d b39a a0bd dcc1 693e 567b 843d
00000070: 4f37 b43d 5f51 463e 35bd 003e 12b1 a9bd
00000080: 595d 6c3d f6e9 913d 1c31 8dbe fb34 1fbe
00000090: 4518 37bd 55fa 703d 37a1 723e 1b52 e93c
000000a0: 10e6 ba3d 0953 5abb ec3e 983d 0e7f eebc
000000b0: 54f2 303d 46e1 8e3e 3733 5dbe 2a38 bfbd
000000c0: 8a67 fdbd f710 933d 86c4 823e 8f41 423e
000000d0: 6c3a 173d 105a 863d 53b2 3e3e 97be edbd
000000e0: 5f3d 3e3e c5d1 653e d3bf fa3d cfb9 f73d
000000f0: a958 efbd 62e8 013d dcf0 743c 73fb 08bc
-0.079529196 -0.10982862 0.1915056 0.06525618 0.23669189 -0.07947775 -0.03010186 0.031062169
0.115930565 -0.07903407 -0.06876178 -0.11905349 -0.13282888 -0.09486132 -0.07533614 0.10842357
-0.082401104 0.037060127 -0.11439446 0.104237355 0.241996 0.15771629 0.3583899 0.2881556
0.09828091 -0.078420065 0.22827858 0.06468837 0.08799612 0.19366978 0.12572177 -0.082857266
0.05770621 0.07124703 -0.2757653 -0.15547554 -0.04470088 0.058832485 0.23694311 0.028481534
0.09125912 -0.0033313653 0.074338764 -0.029113319 0.043199852 0.27906245 -0.21601568 -0.09336884
-0.12373264 0.0718097 0.2554056 0.18970321 0.03692095 0.06560147 0.18622713 -0.11608618
0.18578099 0.22443302 0.12243619 0.12095987 -0.116868325 0.03171576 0.0149500035 -0.008360731

module.bi_lstm2.weight_ih_l0 f4 [128, 16]
00000000: 435b 3a3c 6583 96bc 177c e1bb 80bb 9ebb
00000010: 992e 82bb 62f3 bf3a 2ce6 2b3b 1562 c43b
00000020: e97a 6dbc 146e 15bc 9995 b93c fc34 f8b8
00000030: 2cf9 213b 2cd5 e43a c7ac 7bbc c855 57bc
00000040: 34e0 5a3c 629a 72bc 8f7c 50bc ff81 0f3c
00000050: a566 2dbc 6c28 98ba 12b9 2f3c d468 563b
00000060: af77 47bc 7c3c a7bb 646b 853a cb58 afbb
00000070: e56e 673a b4b2 00bc 5b50 a9bb b6d8 dd3a
00000080: 1751 573c cb50 abbc 02ff 82bc 7955 41bc
00000090: 66cb aabc e666 89bb 830a 69bc 2252 52ba
000000a0: bea2 67bc 900e 4abc 2c5f f63c 597e eebb
000000b0: bba8 673c a8ed 59bb 5956 87bb 7f9b b0bc
000000c0: 4c36 feb9 df8f 14bc 6deb cbbb 2f9c 55ba
000000d0: 1826 afbb ecee 4a3b 509b cabb 65e7 e639
000000e0: 1a6d e5bb 1373 d6bb 5129 793c 3666 2f3a
000000f0: 877c c13b 80df 603b f96d b6bb bddb 21bc
00000100: 6a7b 39bb 7b6e 70bb dd6f 353a fede 6bbb
00000110: beb7 5bbb 7808 83ba 33da 28bc aca3 82bb
00000120: 1b12 6a3a 451b b4bb 3187 fe3b e213 2d3b
00000130: 7e2b 143c c788 b3ba ebf4 34bb d281 32bc
00000140: b7cd e1b9 c5f6 8fb9 84be 2cbb 30da 473b
00000150: 8b84 ec3a c105 283b 98a3 0e3b 25c2 e03a
00000160: 2c90 92ba 71d2 adb9 3e98 923b c439 083b
00000170: dde2 873b 1013 9f3a d7ba 22bb ff4b 2ebb
00000180: ddf6 8039 d6c7 a9ba 669f 5dba ba3e 27bb
00000190: b1b6 34bb ceca 3aba c9e5 70bb 842b 4fbb
000001a0: 2fd0 a7ba cd4a 37bb 0998 293b b0cb ebba
000001b0: 6df2 2c3b 289e 35bb 5de7 39ba a183 f2bb
000001c0: 71bc b93a c8f2 ccba 0aaa f1b9 78c0 ec3b
000001d0: 7940 23bb 836a 3b39 8602 f1bb 237d a8bb
000001e0: 707c c839 d0d6 63bb fce5 2f3c a676 4aba
000001f0: 0ed6 353b 1a94 953b b289 cdbb 8d73 91b9
00000200: b7fa e83b 6279 0fbc e6ec 4bbb 01b4 c63b
00000210: 8002 d4ba 7a8e b3ba e3f8 f339 ca19 723a
00000220: fd62 24ba bd4b 74bb 493c 8b3b b0c9 5dba
00000230: e3a2 763b 69fb cebb 6957 71bb 27c3 55bb
00000240: f936 563c df3b 8dbc c20c 1abc 5831 493b
00000250: d03a 2dbc 8718 b0bb b584 25bc cc2e cd3b
00000260: 2267 23bb 56ca 5abc 4bee 503c 5c75 273a
00000270: 54ee 883c 3698 75bb c423 1fbc bda9 48bc
00000280: a44e 213c c45d 6ebc 8cb5 fbbb c369 013b
00000290: 930a c1bb 5bc4 b5bb 22ef 9bb9 c5e7 983b
000002a0: 8a27 5bbb 1d5f d1bb 7387 a63b 0fd0 c6bb
000002b0: 63c6 853b 9840 7eba 5c42 8aba 0ac8 b1ba
000002c0: ea96 053c 4882 fcbb 2f0a 833a 5d85 44bb
000002d0: 7d0b 823a 71b2 283b d3f3 da3a 2d40 b93b
000002e0: 4a4d 02bc dcdc 413b 9591 cabb 27d7 1dbb
000002f0: f1cf e6bb 2816 4bbb 31ed b13b bb3e 763b
00000300: 09d3 223c fa48 59bc dc32 91bb 7961 f7ba
00000310: 3de0 c5ba a8f1 243a 4846 ce3b 78f4 253c
00000320: 8071 66bc 9638 f13a 5b93 a9bb ed45 3ebc
00000330: 3040 22bc fb09 ecbb f8e9 343c 179f 1f3c
00000340: bc44 923a f6e6 e1ba f718 e7ba 6267 80ba
00000350: 1c06 b63a 46a6 b039 204c a6ba 93f4 8738
00000360: 5109 9fbb 879e 42ba f727 ce3b 0cbf 9bba
00000370: 59ff f33a 9961 20ba 8cb0 01bb 39e4 efbb
00000380: 9d05 09bb 03af 033b d241 523b 99c7 afba
00000390: 6f21 973b a918 923a 51ae 05bc 36ca 24bb
000003a0: 003d a03a 6504 8f3a 6eb3 ec3a 0fe1 ae39
000003b0: 8e6f 943a 3be3 883b fd26 ab39 96ab f8ba
000003c0: e763 3fbb 0151 c93a 5f02 e23a 3d17 adba
000003d0: 3f8f 913b 7de1 4a39 9067 c43b 4793 25bb
000003e0: f4c4 e03a 3053 563b 6d60 2e3a dfd1 893b
000003f0: 1586 c4bb 24e9 1f3b 41e4 e1ba 1f1a 733b
0.011374298 -0.0183732 -0.0068812477 -0.004844129 -0.00397284 0.0014644677 0.0026229722 0.0059931376
-0.014494636 -0.009120483 0.022654342 -0.000118354306 0.0024715168 0.001745855 -0.015361018 -0.01314301
0.013359118 -0.014807316 -0.01272501 0.008759021 -0.010583554 -0.0011608726 0.010725277 0.003271629
-0.012174531 -0.005103646 0.00101791 -0.005351161 0.0008828475 -0.007855106 -0.00516705 0.0016925547
0.013141892 -0.020912549 -0.015990738 -0.011800163 -0.020848941 -0.0041931747 -0.014223698 -0.0008023103
-0.014137922 -0.0123325735 0.030074678 -0.0072782454 0.01413935 -0.0033253226 -0.0041301665 -0.021558521
-0.0004848711 -0.009067505 -0.0062231333 -0.00081485783 -0.0053451173 0.0030965162 -0.0061830655 0.0004404142
-0.0070015313 -0.0065444796 0.0152076045 0.0006690951 0.0059047374 0.0034312904 -0.005567309 -0.00987905
-0.002830232 -0.0036686945 0.0006921271 -0.0035991068 -0.0033526267 -0.0009997031 -0.010305929 -0.0039867964
0.00089290895 -0.005496415 0.007767581 0.0026409556 0.0090435725 -0.0013697379 -0.0027611803 -0.010895209
-0.00043068614 -0.00027458943 -0.0026358673 0.003049504 0.0018044872 0.0025638195 0.002176499 0.0017147703
-0.0011181883 -0.00033153922 0.004473715 0.0020786384 0.0041469173 0.0012136418 -0.0024830604 -0.002659559
0.0002459799 -0.0012953233 -0.0008454233 -0.0025519566 -0.0027574713 -0.0007125557 -0.0036758056 -0.003161163
-0.0012803132 -0.0027968169 0.0025877974 -0.0017989781 0.0026389614 -0.0027712677 -0.0007091666 -0.0074009453
0.001417054 -0.0015636319 -0.0004609379 0.0072250925 -0.0024910255 0.00017873388 -0.007355037 -0.0051418706
0.00038239686 -0.003476549 0.010735985 -0.00077233685 0.0027745995 0.004564774 -0.006272518 -0.00027742647
0.0071099657 -0.008756967 -0.0031116544 0.0060639386 -0.0016175061 -0.0013699078 0.00046534007 0.000923541
-0.0006270854 -0.003727659 0.00424913 -0.0008460535 0.003763371 -0.0063165915 -0.0036825782 -0.003261754
0.01307463 -0.017240463 -0.009402456 0.0030699577 -0.010573104 -0.0053740176 -0.010102441 0.006261682
-0.0024933298 -0.013353905 0.012752126 0.00063880323 0.016715206 -0.0037474758 -0.009713117 -0.0122475
0.00984541 -0.014548723 -0.007681554 0.0019746877 -0.005891153 -0.005547089 -0.00029742072 0.004666301
-0.0033440315 -0.006389512 0.005082065 -0.006067283 0.0040824874 -0.0009698956 -0.0010548341 -0.0013563645
0.0081536565 -0.0077059604 0.0009997542 -0.0029986717 0.0009921637 0.0025741125 0.0016704745 0.0056534023
-0.007952997 0.0029581105 -0.0061819055 -0.002408454 -0.0070438315 -0.0030988548 0.0054298867 0.0037574011
0.00993801 -0.013262028 -0.0044311117 -0.0018873654 -0.0015096735 0.0006292113 0.0062949993 0.010129087
-0.014065146 0.0018403705 -0.005175037 -0.011613351 -0.009902999 -0.007203338 0.011042111 0.00974252
0.00111594 -0.001723497 -0.0017631341 -0.0009796435 0.0013887319 0.0003369322 -0.0012687482 6.482857e-05
-0.0048534055 -0.0007424135 0.0062913853 -0.0011882498 0.0018615528 -0.0006118059 -0.0019789068 -0.0073209074
-0.0020907887 0.0020093329 0.003208269 -0.0013410925 0.00461214 0.0011146265 -0.008159236 -0.0025144941
0.0012225211 0.0010911344 0.0018058845 0.00033355548 0.001132475 0.0041774786 0.0003264471 -0.0018972035
-0.0029203834 0.0015359224 0.0017243138 -0.0013205778 0.004442125 0.00019348222 0.005993791 -0.0025264786
0.001714854 0.0032703392 0.0006651942 0.004205927 -0.005997429 0.0024400437 -0.0017234163 0.0037094427

module.bi_lstm2.weight_hh_l0 f4 [128, 32]
00000000: 6489 0080 ae8d 0080 499b 0080 628b 0000
00000010: bb92 0000 1789 0000 c68d 0080 858b 0080
00000020: 719b 0000 4d8b 0080 538b 0000 128a 0000
00000030: cd88 0080 4e8c 0000 c28b 0080 5a97 0000
00000040: 9189 0000 1189 0000 618a 0080 5189 0080
00000050: 3089 0080 f390 0080 6e8b 0000 c3a2 0080
00000060: 088b 0080 179f 0080 e88a 0080 d094 0000
00000070: 5b8b 0000 2a8a 0080 de8c 0080 dd88 0000
00000080: 0a8d 0080 af89 0000 ec88 0000 b091 0000
00000090: b89a 0000 8e8a 0080 df99 0080 c994 0080
000000a0: 0c8c 0000 9389 0080 a58b 0000 fd8a 0000
000000b0: 5e92 0080 3789 0000 e88a 0000 7ba0 0000
000000c0: 1291 0080 db8a 0000 0d8b 0000 c98a 0000
000000d0: 2689 0080 008c 0080 cd88 0080 7a8c 0000
000000e0: 7f94 0080 c69c 0080 6f89 0080 4c8e 0080
000000f0: 7689 0080 6caa 0000 8389 0000 dc89 0080
00000100: ce88 0080 e58a 0000 0f89 0080 518a 0000
00000110: 858c 0080 e188 0080 7889 0080 0690 0000
00000120: 1889 0080 dab7 0280 c68a 0000 f5a7 0000
00000130: 348a 0000 738a 0080 a690 0080 dfa2 0080
00000140: 8f8b 0080 5b8a 0080 c0a0 0000 148b 0080
00000150: ef8b 0000 5189 0000 bc8a 0000 328a 0000
00000160: be88 0000 828c 0000 878a 0000 4a8e 0080
00000170: aa8b 0000 e18c 0000 3b8b 0000 cc89 0080
00000180: e395 0080 00a4 0080 a4a2 0000 4b8b 0080
00000190: 639d 0080 4889 0080 578d 0000 598a 0000
000001a0: f48b 0000 65a3 0080 c388 0000 888f 0080
000001b0: 3e8b 0000 0099 0000 418b 0000 988a 0080
000001c0: b389 0000 3b91 0080 02a8 0000 9196 0080
000001d0: c989 0000 0589 0000 328b 0080 e48a 0080
000001e0: bc8b 0000 868b 0080 ab89 0080 468a 0000
000001f0: 0e8c 0080 218c 0080 068c 0000 eb88 0080
00000200: 6e8a 0000 4c91 0000 158a 0000 d888 0000
00000210: f489 0080 8389 0000 d988 0080 618a 0000
00000220: b38a 0080 058a 0000 dd8a 0000 5aa7 0000
00000230: 418c 0080 a48b 0080 cb93 0080 03a7 0000
00000240: bf88 0080 7095 0080 778b 0080 598a 0000
00000250: 8d89 0080 ae9f 0000 048a 0000 258c 0000
00000260: a98a 0080 7a8b 0080 e28a 0000 918a 0000
00000270: dd8a 0000 cc89 0000 9c8a 0080 cc8b 0000
00000280: 5a89 0080 c48c 0000 628b 0080 c088 0080
00000290: 3d8b 0000 258a 0000 5b89 0000 51ab 0080
000002a0: c58a 0080 158a 0080 168b 0080 f088 0080
000002b0: 258b 0000 8ba8 0080 3089 0000 538b 0080
000002c0: 5f9f 0000 f48a 0080 408c 0000 778a 0080
000002d0: ac8b 0080 a08a 0000 cc8a 0080 7189 0080
000002e0: 8e8d 0080 a291 0000 778a 0080 47a7 0080
000002f0: dd8e 0000 d78a 0080 c188 0000 d389 0000
00000300: bc88 0000 3b8b 0080 c48d 0000 fd88 0000
00000310: 048a 0080 448b 0080 4d9c 0080 a48c 0000
00000320: c298 0000 ff88 0000 288b 0080 c68c 0080
00000330: a090 0000 b694 0080 a68b 0000 52a9 0080
00000340: 3d8b 0080 248c 0000 b09e 0000 6c8e 0000
00000350: b98f 0000 e79e 0000 358a 0000 7c8b 0080
00000360: 228c 0000 2889 0080 bdaf 0000 028a 0000
00000370: cf8b 0000 d389 0080 be8c 0000 2da0 0000
00000380: d48a 0000 7c8e 0080 48a2 0000 c18b 0000
00000390: 9089 0000 a08a 0000 0f89 0080 db8a 0000
000003a0: 6b8a 0000 f49c 0080 158b 0000 a497 0080
000003b0: b398 0000 3189 0000 858a 0080 c98a 0080
000003c0: de88 0080 e98a 0000 ed8b 0080 0c89 0080
000003d0: 0299 0000 e489 0080 368e 0000 0c69 0180
000003e0: 9a91 0000 448b 0000 d68e 0000 c48b 0080
000003f0: 8b8d 0000 249d 0080 938b 0080 1a8a 0080
-4.9286e-41 -5.0825e-41 -5.5706e-41 5.0001e-41 5.2637e-41 4.9179e-41 -5.0859e-41 -5.005e-41
5.5762e-41 -4.9972e-41 4.998e-41 4.953e-41 -4.9075e-41 5.0332e-41 -5.0136e-41 5.4295e-41
4.935e-41 4.917e-41 -4.9641e-41 -4.926e-41 -4.9214e-41 -5.1998e-41 5.0018e-41 -5.8388e-41
-4.9875e-41 -5.707e-41 -4.983e-41 5.3384e-41 4.9991e-41 -4.9564e-41 -5.0534e-41 4.9097e-41
-5.0595e-41 4.9392e-41 4.9118e-41 5.2263e-41 5.5503e-41 -4.9704e-41 -5.5199e-41 -5.3374e-41
5.024e-41 -4.9352e-41 5.0095e-41 4.986e-41 -5.2507e-41 4.9223e-41 4.983e-41 5.757e-41
-5.2041e-41 4.9812e-41 4.9882e-41 4.9787e-41 -4.92e-41 -5.0223e-41 -4.9075e-41 5.0393e-41
-5.327e-41 -5.624e-41 -4.9302e-41 -5.1047e-41 -4.9312e-41 6.1136e-41 4.933e-41 -4.9455e-41
-4.9076e-41 4.9826e-41 -4.9167e-41 4.9619e-41 -5.0409e-41 -4.9103e-41 -4.9314e-41 5.1666e-41
-4.918e-41 -2.49625e-40 4.9783e-41 6.0252e-41 4.9578e-41 -4.9666e-41 -5.189e-41 -5.8427e-41
-5.0064e-41 -4.9633e-41 5.7666e-41 -4.9892e-41 5.0199e-41 4.926e-41 4.9769e-41 4.9575e-41
4.9054e-41 5.0405e-41 4.9694e-41 -5.1044e-41 5.0102e-41 5.0538e-41 4.9946e-41 -4.9432e-41
-5.3769e-41 -5.8832e-41 5.8344e-41 -4.9969e-41 -5.646e-41 -4.9247e-41 5.0703e-41 4.963e-41
5.0206e-41 -5.8615e-41 4.9061e-41 -5.149e-41 4.995e-41 5.4886e-41 4.9955e-41 -4.9718e-41
4.9397e-41 -5.2099e-41 6.027e-41 -5.4013e-41 4.9428e-41 4.9153e-41 -4.9934e-41 -4.9825e-41
5.0127e-41 -5.0052e-41 -4.9386e-41 4.9603e-41 -5.0242e-41 -5.0269e-41 5.0231e-41 -4.9117e-41
4.9659e-41 5.2123e-41 4.9534e-41 4.909e-41 -4.9488e-41 4.933e-41 -4.9092e-41 4.9641e-41
-4.9756e-41 4.9512e-41 4.9815e-41 6.0034e-41 -5.0314e-41 -5.0094e-41 -5.3018e-41 5.9913e-41
-4.9055e-41 -5.3608e-41 -5.003e-41 4.963e-41 -4.9344e-41 5.7282e-41 4.951e-41 5.0274e-41
-4.9742e-41 -5.0035e-41 4.9822e-41 4.9708e-41 4.9815e-41 4.9432e-41 -4.9724e-41 5.015e-41
-4.9272e-41 5.0497e-41 -5.0001e-41 -4.9057e-41 4.9949e-41 4.9557e-41 4.9274e-41 -6.1457e-41
-4.9781e-41 -4.9534e-41 -4.9895e-41 -4.9124e-41 4.9916e-41 -6.0462e-41 4.9214e-41 -4.998e-41
5.7172e-41 -4.9847e-41 5.0312e-41 -4.9672e-41 -5.0105e-41 4.9729e-41 -4.9791e-41 -4.9305e-41
-5.078e-41 5.2243e-41 -4.9672e-41 -6.0008e-41 5.125e-41 -4.9806e-41 4.9058e-41 4.9442e-41
4.9051e-41 -4.9946e-41 5.0856e-41 4.9142e-41 -4.951e-41 -4.9959e-41 -5.607e-41 5.0452e-41
5.4799e-41 4.9145e-41 -4.992e-41 -5.05e-41 5.1882e-41 -5.3347e-41 5.0096e-41 -6.074e-41
-4.9949e-41 5.0273e-41 5.6926e-41 5.1091e-41 5.1558e-41 5.7003e-41 4.958e-41 -5.0038e-41
5.027e-41 -4.9202e-41 6.3043e-41 4.9508e-41 5.0154e-41 -4.9442e-41 5.0489e-41 5.746e-41
4.9802e-41 -5.1114e-41 5.8216e-41 5.0134e-41 4.9348e-41 4.9729e-41 -4.9167e-41 4.9812e-41
4.9655e-41 -5.6304e-41 4.9893e-41 -5.4398e-41 5.4778e-41 4.9215e-41 -4.9691e-41 -4.9787e-41
-4.9099e-41 4.9832e-41 -5.0196e-41 -4.9163e-41 5.4889e-41 -4.9466e-41 5.1016e-41 -1.29519e-40
5.2232e-41 4.9959e-41 5.124e-41 -5.0138e-41 5.0776e-41 -5.6371e-41 -5.007e-41 -4.9542e-41

module.bi_lstm2.bias_ih_l0 f4 [128]
00000000: 5ae5 233c d5aa 143c 18e0 6f3c a167 e03b
00000010: de18 3fbc d41e a3bb d4f1 1abc 7ef4 b6bb
00000020: 657e 95bb 6c9f 9c3b cd9f 3e3b e602 27ba
00000030: b5af 033c 6c2c 8e3b 73ae 5dbc e04e 38bc
00000040: 8b27 bfbb 1fdb 77bc ef5b 44bc dae2 2bbb
00000050: 8bca c83b b92e 903a 2ee2 e93b 4473 f4bb
00000060: 5923 7f3c 8000 4bba d6cd ebba c50c f03b
00000070: 7cb9 643c 0037 29bc 2fd2 b639 477d 083c
00000080: fa89 0080 478b 0000 8696 0080 268a 0080
00000090: 35ad 0000 2f94 0080 d08f 0000 fe96 0080
000000a0: bf8b 0080 ef8a 0080 988b 0080 8a89 0080
000000b0: 2a8b 0080 618c 0080 e289 0080 acab 0080
000000c0: 2f8e 0000 d48a 0080 6789 0080 e288 0080
000000d0: 3e8c 0080 84a1 0000 fb8e 0000 238a 0080
000000e0: 378b 0080 0c89 0000 298d 0000 108a 0080
000000f0: c68f 0000 8d97 0080 5a8a 0000 3a91 0080
00000100: 7b56 81bd b211 293d 735d d83c ad01 4ebc
00000110: 0de2 053d f71e 7fbd 3a79 683d 068e b43c
00000120: 990b 503d da04 dc3d e19d 51bc a611 bebb
00000130: 178e 483d dce7 e43d 5182 823d 6c60 a03c
00000140: 64ad 753d 3fc9 80bd 3691 aa3d d397 843c
00000150: c34f 5fbc d6cc b03c 03e8 823d a793 873d
00000160: 4be7 2fbd 66c9 8bbc 5a9a 593d 50e8 31bd
00000170: 2868 a9bd 7ffa 83bd a771 aabd 2173 3abc
00000180: d6eb 0d3c 00eb 143c 12e5 7a3c 927b e63b
00000190: ea13 3ebc 1a01 a4bb 2876 1bbc 5199 b6bb
000001a0: c6d3 95bb b3a4 533b 6bf7 773b 2b8f 28ba
000001b0: 1812 033c 49ce 8d3b 04fd 5dbc fb6b 38bc
000001c0: 0c15 bfbb 4d29 78bc 1615 42bc 7f1a 2ebb
000001d0: bdd7 c83b cd4c 8f3a 6ead e73b bf29 fbbb
000001e0: e6e4 813c 9035 49ba dd89 ebba a972 f33b
000001f0: def7 643c 5327 2abc 7b1a 9e39 004e 053c
0.010003412 0.009073933 0.01464083 0.006848291 -0.011663644 -0.0049780402 -0.00945707 -0.005583345
-0.0045621865 0.0047797468 0.0029086948 -0.00063709763 0.008037497 0.0043387916 -0.0135303615 -0.011249274
-0.0058335713 -0.015127926 -0.011984809 -0.0026227743 0.0061276606 0.0011000253 0.0071375584 -0.00746003
0.015572392 -0.000774391 -0.0017990421 0.007325741 0.013960239 -0.010328054 0.00034870344 0.00833065
-4.9497e-41 4.9963e-41 -5.3998e-41 -4.9558e-41 6.2135e-41 -5.3158e-41 5.159e-41 -5.4166e-41
-5.0131e-41 -4.984e-41 -5.0077e-41 -4.934e-41 -4.9923e-41 -5.0358e-41 -4.9463e-41 -6.1584e-41
5.1006e-41 -4.9802e-41 -4.929e-41 -4.9104e-41 -5.031e-41 5.7941e-41 5.1292e-41 -4.9554e-41
-4.9941e-41 4.9163e-41 5.0639e-41 -4.9527e-41 5.1576e-41 -5.4366e-41 4.9631e-41 -5.2097e-41
-0.06315323 0.04127664 0.026411748 -0.012573642 0.032686282 -0.06228539 0.056756236 0.022040378
0.05079231 0.10743113 -0.012793989 -0.0058004437 0.048963632 0.11177036 0.06372512 0.019577228
0.05997981 -0.06288385 0.08328478 0.016185677 -0.0136298565 0.021582048 0.06391909 0.06619959
-0.042945188 -0.017063808 0.053125717 -0.04343444 -0.08271819 -0.06444263 -0.08322459 -0.011379988
0.008662185 0.0090892315 0.015313404 0.0070337737 -0.011601428 -0.005005014 -0.00948862 -0.005572476
-0.0045723645 0.0032294213 0.0037836682 -0.0006430025 0.007999919 0.0043275696 -0.013549093 -0.011256213
-0.0058313664 -0.015146566 -0.011845848 -0.0026566086 0.0061292336 0.0010932923 0.007070235 -0.0076648886
0.015856218 -0.0007675523 -0.0017970164 0.00742944 0.013975112 -0.010385352 0.00030155838 0.008136272
