output/clip/FD001/exp_202411012045_bilstm_clip_ep-0119.pth (torch, 289762 bytes, 66 tensors)

module.bi_lstm1.weight_ih_l0 f4 [64, 14]
000000 08 ef 52 3e 15 28 a0 3d 02 ae 61 3e 06 97 01 bd
       0.20598996 0.07820145 0.22039035 -0.031638168
000010 fc 9c bf 3d dd 25 1b 3e d3 0d 01 3e cb 31 73 3d
       0.09356114 0.15151162 0.1260293 0.05937366
000020 17 a4 10 3e 78 ce 26 3e fc 43 2d 3e 47 39 24 3e
       0.14125095 0.16289699 0.16920465 0.16037475
000030 b9 c1 c2 3d 1c aa 87 3d 5b 90 29 bd 63 26 a0 bc
       0.09509606 0.06624243 -0.041397434 -0.019549554
000040 bd 3b 65 bc cf d4 7c 3e 90 6d 0f 3e ed b5 23 3e
       -0.0139912935 0.24690555 0.14006639 0.15987368
000050 17 6c 68 3d a5 4c 4f 3e e1 06 28 3e 6a dd 54 3e
       0.056743708 0.20244081 0.16408874 0.20787588
000060 be 49 d1 3d 5e 02 be 3d e7 1b 78 3d 49 00 59 3e
       0.10219143 0.09277795 0.060573485 0.21191515
000070 3b 54 01 3d 49 38 89 3c fc 0d 2c 3e d0 65 07 3e
       0.03157447 0.016750472 0.1680221 0.13222432
000080 70 b6 05 3e 57 86 3a 3e 35 98 c8 3d bf ef 3a 3d
       0.13057876 0.18215309 0.09794656 0.045638796
000090 f2 b4 ca 3d 33 be 25 3a 57 f7 e0 3c 99 a7 95 3e
       0.09897794 0.00063225924 0.02746169 0.2922943
0000a0 b8 9c ab 3d 43 38 e8 bd 67 df 3b bd e4 de e1 39
       0.08379501 -0.11338856 -0.04586735 0.0004308141
0000b0 a2 d6 3c bb a9 a9 a6 3c f1 83 b2 bc 04 e0 7a bd
       -0.0028814455 0.020344572 -0.02179143 -0.061248794
0000c0 d7 0c 88 3d 35 56 97 3d a4 83 25 3d a6 85 a6 bd
       0.06643074 0.073894896 0.040408745 -0.0813096
0000d0 bf 0f 71 3d 2f f1 d8 3d b7 fe 09 3e b2 c5 0c 3e
       0.058852907 0.10592877 0.13476072 0.1374729
0000e0 de f8 21 3e d9 43 61 3e 18 33 a4 3d e4 65 22 bc
       0.15817592 0.21998538 0.08017558 -0.009911988
0000f0 2a 4e da 3c b7 fd d2 bc 2c d8 50 3e b2 8e cd bd
       0.0266486 -0.025755746 0.20394963 -0.100369826
000100 bd db 5a 3e 28 bf 1c bd 63 5c 65 3e 74 31 ac 3d
       0.21372886 -0.03826824 0.22398524 0.0840787
000110 e9 e4 c6 3d 3a 55 63 3e 0d 43 95 3c 5f 15 8e bd
       0.0971163 0.2220048 0.018220449 -0.0693767
000120 31 2e e3 3d fe 1e 6d bc 45 63 b0 3c 99 92 9f 3d
       0.11092795 -0.014472721 0.02153171 0.07791633
000130 51 ce 1f 3e ce 37 3f 3c 8a 5d b4 3d 39 c7 ef bb
       0.15606047 0.01167102 0.08806904 -0.0073174504
000140 a4 16 b1 3d a5 7c 9d 3d 2b 70 84 bd 9f d8 1b be
       0.086468965 0.0768979 -0.06466707 -0.15219353
000150 e8 50 22 be 82 25 d3 bd 99 69 05 be c5 e2 5c bc
       -0.15851176 -0.103098884 -0.13028564 -0.0134818
000160 74 20 6f bd 11 be 8e bd 19 c8 8d 3b b3 c0 21 bd
       -0.05838056 -0.06969846 0.004326832 -0.039490413
000170 11 02 6c 3b e1 69 80 bd 27 3b 89 3d bf b7 85 bd
       0.0036011974 -0.06270195 0.067007355 -0.065291874
000180 59 84 0e 3c e1 bc f7 3c 13 6c d8 bd 3a 68 88 bd
       0.008698546 0.030241432 -0.105674885 -0.06660505
000190 6f a6 fb bd bd 52 64 be f2 f3 36 bd 0d ec d0 bd
       -0.12287604 -0.22297187 -0.044666238 -0.10201273
0001a0 6c ce f5 bd 13 6e 49 bd a0 1d bd bd a5 05 e1 bd
       -0.120022625 -0.04917724 -0.09234166 -0.10987405
0001b0 5e ac fe bd ef 11 6b 3c 12 fe 3f be 6a 28 37 be
       -0.1243522 0.014347537 -0.18749264 -0.1788651
0001c0 57 5d 92 3d f4 45 a8 3d ec 7a 26 3e 86 a1 92 3d
       0.071467094 0.082164675 0.16257828 0.071597144
0001d0 46 05 c1 3d 02 59 9f 3c b1 96 15 3e fd 4f 1c 3d
       0.09424834 0.019451622 0.14608265 0.03816222
0001e0 40 ae 98 3d f3 79 1f 3d 4a 2f 25 3c e9 12 8a 3c
       0.074551105 0.03893466 0.010082075 0.01685472
0001f0 8e a2 b4 3d 94 40 c9 3d 9b 6f 77 3e cd cd 29 3e
       0.08820067 0.098267704 0.24163668 0.16582413
000200 71 24 95 bc 23 e3 b8 3d 32 71 e1 bc a2 c4 03 bd
       -0.018205853 0.09027698 -0.027519796 -0.032169946
000210 62 6e 53 3d a4 ba 51 3d 3f 6b 36 3c b6 60 47 bd
       0.05161894 0.051203385 0.011133968 -0.048676215
000220 fb d3 3a 3e ef 53 ae 3b 48 61 0b 3e ad 06 1c 3c
       0.18244927 0.0053200643 0.13611329 0.009523076
000230 3a 9a 12 bd 37 b7 2f 3d 7a 99 6e 3c 8b 91 fa 3c
       -0.035791613 0.042899337 0.014562959 0.030586978
000240 1d a8 8a bb 67 9a 5e 3e fa c8 20 3e c9 cf c1 3d
       -0.0042314664 0.21738587 0.15701666 0.0946346
000250 c4 43 0a 3b 34 cd 83 3e 6f 7d 23 3d ee ab 6d 3d
       0.002109752 0.25742495 0.039914545 0.058025293
000260 22 5a 64 3d 73 a8 7e 3d 54 df ec bd 16 2f 88 3d
       0.05575002 0.062172364 -0.11566034 0.06649606
000270 79 3f a0 bd a5 ba 29 bd 4e 04 c3 3d 79 3a 76 bd
       -0.078246064 -0.041437764 0.095223054 -0.060114358
000280 4a e3 80 bd c0 b5 6b be cf 24 b2 bc 70 74 2b bd
       -0.06293352 -0.23018551 -0.021746067 -0.04185909
000290 33 24 28 bc 5b 45 97 3d cc 46 04 be 03 e7 9b bd
       -0.010262537 0.073862754 -0.12917632 -0.07612421
0002a0 23 cb d4 bc 91 65 47 3d a7 ae 64 3d 84 22 96 3d
       -0.02597577 0.048680846 0.055830624 0.07330802
0002b0 65 0a f5 bb 3a 46 6d bd 10 81 d3 3d 49 0d bd 3c
       -0.0074780458 -0.0579283 0.10327351 0.023077624
0002c0 c6 3c 4c 3e 03 c0 30 bd 97 e5 62 3e e1 09 88 3e
       0.19945058 -0.043151867 0.22157894 0.26570037
0002d0 04 78 8f 3c 2d 7e b9 bd 21 0d 7d bc 42 f7 0d 3d
       0.017513283 -0.09057269 -0.015445025 0.03465963
0002e0 0e 23 47 3b ce 83 10 3d f5 22 8f 3d 49 2d 48 bc
       0.0030385884 0.03528195 0.069890894 -0.012217828
0002f0 63 a9 63 3d dd 28 f1 3d 27 bb b5 3d d2 8c 53 bd
       0.05558146 0.11775372 0.08873587 -0.05164797
000300 cb 93 17 3d 0a bd a0 3d ce 7c 84 3d b4 ad cd 3d
       0.03700618 0.07848556 0.06469117 0.10042897
000310 65 27 23 3d 81 bf 2d 3d 98 25 dc 3c 66 02 bb 3d
       0.03983249 0.04241896 0.026873395 0.09131317
000320 08 c5 6f bd 43 5d 87 3e f6 29 cf 3d f9 0f 87 bc
       -0.058537513 0.2643834 0.10115425 -0.016487109
000330 81 2f 42 3c d5 e1 8a 3e 90 da d8 3c 4c 94 13 3d
       0.011852146 0.2712542 0.026471406 0.0360301
000340 b2 e7 c4 3d ee 6c 1d 3d 9e 2b 0a be db 70 a6 bd
       0.09614505 0.03843396 -0.13493201 -0.08126994
000350 be 90 c1 bd 03 c2 cd 3b 81 b9 f3 ba e2 c5 88 3c
       -0.094514355 0.0062792315 -0.0018594713 0.01669592
000360 e5 5c cb bd 11 3b a5 3d 13 ba 98 bd 56 80 d3 3c
       -0.099298276 0.08067907 -0.07457366 0.025818031
000370 1d bb 50 3d c8 7d 2f 3d 0a 50 45 be 0c bd f9 3c
       0.050959695 0.042844564 -0.19268814 0.030485652
000380 94 9b ae 3d 57 1c 58 bc f4 1c 32 3e 5b a2 bc bc
       0.08525768 -0.0131903505 0.17393857 -0.023026636
000390 5b c9 48 3e d2 07 37 3e 04 73 bf 3d 7c a5 ad 3d
       0.19608061 0.17874077 0.09348109 0.08478829
0003a0 87 8a b3 3e 3c 45 31 3e 52 da 4e 3e 2f 16 2c 3d
       0.35066625 0.17311567 0.2020047 0.042013343
0003b0 2d 8a 0c 3e a7 54 ff 3d ba 03 68 3e 09 e9 26 bd
       0.13724585 0.12467318 0.22657672 -0.040749583
0003c0 ed 89 0e 3e 0a 3b 0e 3e b4 28 5d 3e c0 8a 9b 3d
       0.13919802 0.13889709 0.21597558 0.07594824
0003d0 2b a1 4b 3e d8 6d 90 3e d5 15 5b 3e ac 32 1d 3e
       0.198857 0.28208804 0.21395047 0.15351361
0003e0 af 15 16 3d af 85 ad 3e 2c 30 5b bc db 98 fa 3c
       0.036641773 0.33891055 -0.013378184 0.030590465
0003f0 f8 13 23 3e 3b df f8 3c 23 e5 2e 3e 7c 47 fe 3d
       0.15925586 0.030379882 0.17079596 0.12415978

module.bi_lstm1.weight_hh_l0 f4 [64, 16]
000000 35 25 e1 bd bd f6 34 3d cd 2b 67 3d b2 f3 41 3c
       -0.10993425 0.04418062 0.056438256 0.011837887
000010 69 a0 67 3d ea d3 7a 3d 51 e3 bc 3c 31 ec 5c bc
       0.056549463 0.061237253 0.023057612 -0.013484047
000020 59 09 90 bc da 3a 54 bd 74 28 02 3e f2 7f ea 3c
       -0.017582582 -0.051813938 0.12710744 0.028625462
000030 34 97 87 3d e4 23 63 bd 98 2d a1 bd 8b 2e 46 bd
       0.066206366 -0.05545415 -0.078700244 -0.04838423
000040 4f ca 31 3d a0 2e 6e bd 8b 7e 69 bd 29 61 f5 3d
       0.043405827 -0.058149934 -0.057005446 0.119814225
000050 4d 94 3d 3b 62 95 89 3d 78 e5 30 3d 61 a9 9f ba
       0.0028927505 0.06717946 0.04318759 -0.0012181216
000060 b2 0c b0 bd 07 15 4a bd 15 5b af 3c 4e 48 87 3c
       -0.085961714 -0.04933646 0.021405736 0.01651397
000070 72 8a e4 3d 0b 7b 49 bc e3 ee d4 bd 13 e2 90 bd
       0.11159219 -0.012297402 -0.103971265 -0.0707437
000080 d7 bb b9 bd dd 46 75 3d 2f 64 2d 3d cc 4b b1 bd
       -0.09069031 0.059882034 0.04233187 -0.08657035
000090 62 07 10 bc 68 8a 98 3c 2c e5 dc 3a 46 ed ba 3b
       -0.008790823 0.018620685 0.0016852967 0.0057045547
0000a0 39 42 94 bd e5 6a 9b bc bf b3 b2 3d 29 d1 21 bc
       -0.072391935 -0.01897187 0.0872569 -0.009876528
0000b0 3c d5 9e bb 65 35 c0 3b 69 e7 8d 3c 97 e3 2b be
       -0.004847197 0.00586574 0.017322259 -0.16786037
0000c0 69 44 4e bd be fa 5c bb 79 bf ec 3b ae 67 30 3d
       -0.05035821 -0.003371879 0.0072249738 0.043067627
0000d0 ad f8 52 3d bf 69 7e 3c db 42 95 bd 72 8b a9 bd
       0.051506687 0.0155281415 -0.07288142 -0.0827855
0000e0 0a 22 a0 3d e6 38 39 3a c2 cf ec 3d 75 76 0f bd
       0.078189924 0.00070656685 0.11563064 -0.03502508
0000f0 a6 c7 17 bd 29 7e 44 3d b7 11 1d 3e bc 85 7c be
       -0.037055634 0.04797188 0.15338789 -0.2466039
000100 cb e9 84 bc 5b d3 12 3d 18 8c 69 3d 62 29 8b 3d
       -0.016224762 0.035846096 0.05701837 0.067950025
000110 56 b0 91 bd 57 79 62 3d 3f 67 0f 3d 4e cd 45 3c
       -0.071137115 0.0552915 0.035010573 0.012072874
000120 22 a2 4a bb b2 5c 44 3c 39 98 1f 3d f6 74 d1 bc
       -0.0030919393 0.011984991 0.03896353 -0.025568467
000130 d2 73 7e bc 09 09 26 bd d0 b2 25 bd 6a 85 26 bc
       -0.015530543 -0.04053596 -0.040453732 -0.010163644
000140 9c d6 f7 bd fb f6 21 3e f3 e0 0a 3c 84 cb 2a bd
       -0.1210148 0.15816872 0.008476484 -0.041697994
000150 fa 3a 7a 3c 1f cc 65 3d 27 ae 27 bc 02 10 43 bc
       0.01527285 0.05610287 -0.010234392 -0.011905672
000160 ee 66 fc bd 63 78 1a be 41 58 ec 3d f6 03 4d bd
       -0.1232432 -0.15084986 0.115402706 -0.050052606
000170 9d 6b 0e 3e e4 bc 23 bd a5 66 ab bd cc a8 8a bd
       0.13908239 -0.039975062 -0.08369187 -0.06770477
000180 03 c0 76 bb 6b 92 11 3c a2 ef ad bd 5f ce 2a 3c
       -0.003765107 0.008885006 -0.08492972 0.010425179
000190 3a 91 80 bd 50 fd 00 bc 65 3c fe bb d8 f3 f0 bb
       -0.062777 -0.007872894 -0.0077586644 -0.007353287
0001a0 7c a4 01 bd 82 c6 0b bd 10 e9 66 bc 7e 7a 9c bb
       -0.031651005 -0.03412486 -0.014093652 -0.0047753444
0001b0 1e 2a 88 3c 9d b8 3d 3c 44 e7 02 3b 2e 8d b3 3c
       0.016621646 0.01157966 0.001997427 0.021917906
0001c0 74 42 6b 3c d5 68 e3 3b 75 17 3a bd d3 0e 7b bd
       0.014359105 0.006939987 -0.045432527 -0.061293434
0001d0 b6 9c e1 bb 76 26 1c b9 5a 9f 20 bc d9 ae 1f b9
       -0.0068851365 -0.00014891647 -0.009803617 -0.00015228557
0001e0 5f b2 97 bd 5a ab e2 bc 41 d2 2d bd 2c 00 b6 bc
       -0.074070685 -0.027669597 -0.042436842 -0.022216879
0001f0 26 91 fb 3c 55 48 04 3c 53 a5 34 bd e1 18 df 3c
       0.03070886 0.008073886 -0.044102978 0.027233543
000200 10 bf 80 bd 85 99 01 3e 2e 19 6e 3d 94 6f 12 3e
       -0.06286442 0.1265622 0.058129482 0.14300376
000210 b3 11 cd 3d e5 01 50 3d ff 7c 10 3d a7 91 aa 3c
       0.100131415 0.050783057 0.035275456 0.020821406
000220 e3 cf 2b bd e9 f1 50 bd 3b a4 1d be 4a 01 4b 3d
       -0.041946303 -0.051011954 -0.1539468 0.049561776
000230 9a 98 12 3e 7b 96 0f bd 0a de b5 bd c7 be f7 3d
       0.14316025 -0.03505562 -0.08880241 0.12096935
000240 8f 95 8e bd d4 be e7 bd 99 7d 9b bc e0 28 2b 3d
       -0.0696212 -0.113156945 -0.018980788 0.04178703
000250 e0 a8 66 3d b5 12 a8 3d 4a 04 c0 3c 76 a1 5d 3c
       0.056313396 0.08206693 0.023439545 0.013527265
000260 1a f3 ae bd 67 95 aa bc 81 ca 3c be 31 17 37 3d
       -0.08542462 -0.020823194 -0.18436624 0.04469985
000270 17 1c 86 3d 8a b1 b1 3c 03 e1 62 be 49 ab 52 3d
       0.065483265 0.021691103 -0.22156148 0.05143288
000280 8b de 6b bd 43 c2 a6 3b 31 92 a5 3d d9 b9 41 3e
       -0.05758528 0.005089076 0.080845244 0.18918552
000290 00 a3 05 3e 07 04 1d 3d c1 91 eb 3d 01 e7 2f 3d
       0.13050461 0.03833392 0.1150241 0.042944912
0002a0 1a e6 c8 3d 58 b8 56 3d 28 08 82 be 0f 24 18 3d
       0.098095134 0.052421898 -0.25396848 0.037143763
0002b0 38 52 13 3e a0 3f 9e 3c d6 98 f2 3c 40 bc fd 3d
       0.14386833 0.019317448 0.029613893 0.123894215
0002c0 36 d1 29 3b 67 51 c1 3d d7 8f 08 bd 47 91 96 3d
       0.0025912053 0.094393544 -0.0333403 0.07351928
0002d0 78 9d ee 3c ef d7 3c bd 9f 87 85 3a e8 a1 cc bb
       0.029127821 -0.046104368 0.0010187513 -0.0062448867
0002e0 c5 00 44 bb 42 31 b7 bd c3 94 50 bd af 3f 27 bc
       -0.0029907685 -0.08944942 -0.05092312 -0.010208054
0002f0 81 72 65 3d e6 a7 2e bb a5 02 19 bc e0 62 b2 bb
       0.056017403 -0.0026650368 -0.009339009 -0.0054439157
000300 9e c5 71 3d c9 62 1b be 71 56 66 bd b0 7b 43 3d
       0.059026353 -0.15174402 -0.05623478 0.04772538
000310 46 6f 0c bd 73 30 5f bd 3e f4 0c 3d 2f bc 28 3c
       -0.034285806 -0.054489564 0.034412615 0.010298773
000320 7d 14 34 be 5a 74 1b be 1f 6a 1e be bb 26 ae bd
       -0.1758594 -0.15181103 -0.1547017 -0.08503481
000330 ed 33 9f 3d 1d 11 5b 3d 4a dd 90 be 73 92 9d bc
       0.07773576 0.053483117 -0.2829383 -0.019234871
000340 19 04 10 3d 44 27 42 bc 4b 09 07 bd bb 95 9d 3d
       0.035160158 -0.011850182 -0.032967847 0.076945744
000350 0a 09 8e bc 3f d5 d1 bc ad 13 f2 3a a9 a1 3e 39
       -0.017338295 -0.025614379 0.0018468999 0.00018180035
000360 32 91 53 bd 2e 61 1f bd ba 80 ad bd f6 0e ee bc
       -0.05165214 -0.038911037 -0.08471818 -0.029059868
000370 d3 4f 86 3d 4c a6 74 3c a1 36 98 bd bd 02 48 bd
       0.06558194 0.014932226 -0.07432295 -0.048830736
000380 68 59 67 bd 9b 4a d7 b8 4b 3c df 3c ea 59 d6 3e
       -0.05648175 -0.00010265895 0.02725043 0.41865474
000390 cf a4 19 3d e1 f0 e0 3c 92 08 1f 3d ba 8d 15 3a
       0.03751069 0.02745861 0.038826533 0.0005705018
0003a0 0b 69 7b 3e 5b ad 2d 3c a5 42 e1 3d 54 fd 85 bc
       0.2455179 0.010600413 0.109990396 -0.016356148
0003b0 1c 43 a3 3d bc 86 8e 3d 9b 04 0b 3e 9c 71 10 3d
       0.079717845 0.06959292 0.13575976 0.035264596
0003c0 dd 9a 27 3e 46 1b 50 be 59 fd 15 be 1e 35 4d 3e
       0.1636767 -0.20322904 -0.14647426 0.20039794
0003d0 c0 dc f6 bd bd 08 8a 3a 12 63 9c 3d 4b a2 2f 3c
       -0.120538235 0.0010531169 0.07636084 0.010719846
0003e0 9c 21 a0 3d 87 ee 9e bc e6 4e f9 bd b4 b0 a4 bd
       0.078189105 -0.019400848 -0.12173252 -0.08041516
0003f0 16 dd 92 bd 21 b4 79 3e f6 4a 4d 3d c3 4f b8 3d
       -0.07171075 0.2438512 0.050120316 0.08999588

module.bi_lstm1.bias_ih_l0 f4 [64]
000000 4b 87 79 3e 93 66 54 3e 34 d4 c2 3d af b7 43 3c
       0.24368016 0.20742254 0.09513131 0.011945649
000010 b1 46 88 bd 3d 21 08 3e 9d 81 d2 bd cd 34 7f bd
       -0.06654108 0.1329393 -0.10278628 -0.062306214
000020 d8 47 d5 3d 2e 99 89 3c 6c ad 05 3e c2 6a 1e bd
       0.10414094 0.016796675 0.13054436 -0.03867603
000030 0e 05 43 3e b6 84 1e 3e 10 33 aa 3d c0 ca be 3c
       0.19044897 0.15480313 0.08310521 0.023290038
000040 87 26 12 3e d0 0a 8c 3e 94 02 6f bb 31 47 9d 3e
       0.1427251 0.27352 -0.0036470043 0.30718377
000050 da 00 48 3d 61 02 cb 3d 85 12 5c 3c c1 67 7d 3c
       0.048828937 0.09912563 0.01343215 0.015466631
000060 1e 48 a9 3d 5d 32 76 3b 29 23 3d 3e c2 bf d5 bd
       0.082657084 0.003756664 0.18470444 -0.104369655
000070 76 dc 07 3e 39 04 59 3b 63 38 db 3d 5a ee c2 3e
       0.13267693 0.003311409 0.10704114 0.38072473
000080 5a 62 6e 3d 44 a7 37 be 03 69 3d 3e f8 8e 37 3d
       0.058199264 -0.179349 0.1849709 0.04481408
000090 b9 05 03 3e 4b 30 2b 3e ac a8 b3 3d 0c 99 33 bc
       0.12795152 0.16717641 0.08772406 -0.010961782
0000a0 ad fa 38 3e e6 73 61 3e 3c 8c 73 be 48 5d 1e 3e
       0.18064375 0.22016868 -0.23783964 0.15465271
0000b0 30 b8 fc bc b9 40 38 3e e1 e2 77 3d 2f 02 53 be
       -0.030849546 0.1799344 0.060519103 -0.20606302
0000c0 20 d8 bf 3d 10 51 c8 3d 00 a4 02 be d4 14 37 3e
       0.093673944 0.097810864 -0.12757874 0.17879039
0000d0 52 87 06 3e 0a 8b 90 3d 2d cf 0a bc 7e fa d3 bd
       0.13137558 0.070577696 -0.008472246 -0.10350512
0000e0 fa 2b fe 3d 73 5e 15 3e 11 2a 71 3d fb 0a da 3b
       0.124107316 0.14586811 0.05887801 0.006654141
0000f0 e7 41 12 3e a0 a4 a0 bc 44 05 41 bc 3a 9f 9d 3d
       0.14282952 -0.01960975 -0.011781041 0.07696386

module.bi_lstm1.bias_hh_l0 f4 [64]
000000 cc f4 83 bb d2 77 a5 3e 85 8b 3e 3e 23 ea 3d 3e
       -0.004026985 0.32317978 0.1860791 0.18546347
000010 c8 7d b4 bd e5 57 8f 3d 4e b5 6f bc d0 1b 56 be
       -0.08813053 0.069991864 -0.014630629 -0.20909047
000020 e3 ae b5 3d 01 77 08 3e 3c 1f 79 bc 2f 4b fb b9
       0.088712476 0.13326646 -0.015205201 -0.00047930467
000030 4b e7 4f 3e db 2a b4 3d 00 eb 4d 3d 4b f8 e9 3c
       0.20303075 0.087972365 0.05027294 0.028560778
000040 34 ff 74 bd 84 3d 48 3d df 8e 9f bd 45 e1 58 3e
       -0.059813693 0.04888679 -0.077909224 0.21179684
000050 32 75 0e be 5a 01 41 bc 31 24 14 bd 6c a3 2f 3d
       -0.13911894 -0.011780107 -0.036167327 0.04288046
000060 78 3a b2 3d d8 4e 1a 3d e3 b4 0e 3e 8e db ad 3d
       0.08702558 0.037672848 0.1393619 0.08489142
000070 12 4b eb 3d b2 aa c9 3d 93 12 05 3d 38 1b 65 3e
       0.11488928 0.09847011 0.032488417 0.22373664
000080 36 f0 1a be 98 eb 27 bd 35 58 ae bc e4 bc 76 3d
       -0.15130696 -0.040996164 -0.021282295 0.060238734
000090 ad c1 2a 3b 24 16 85 bd 9e 03 29 3e 99 2e 34 3e
       0.0026055381 -0.064983636 0.16505286 0.175959
0000a0 ff ef 17 3e e7 d7 20 be 9a 5c 31 3e 89 61 28 3e
       0.14837645 -0.1570736 0.17320481 0.16443457
0000b0 c0 1c 69 be d6 8f 8c 3c 5f ca c3 3c 64 27 c0 bd
       -0.22764874 0.01715843 0.023900209 -0.09382513
0000c0 de 11 b7 3c 0e 38 27 3e 8a 79 4a bc 7f 8c 33 3e
       0.022347387 0.16329977 -0.012358079 0.17534064
0000d0 49 aa 9e bd 01 ca 35 3d fd 1f 0d 3d ce b1 ee bd
       -0.07747323 0.0443821 0.034454335 -0.11655007
0000e0 a7 44 e1 3d da 47 a7 bd ba a0 55 3e 83 10 3f bd
       0.109994225 -0.081680015 0.20862094 -0.046646606
0000f0 4c e2 ac 3e 17 8e a1 3d 5b 73 8e 3d 83 15 b6 bd
       0.337664 0.078884296 0.06955596 -0.08890822

module.bi_lstm1.weight_ih_l0_reverse f4 [64, 14]
000000 9f a8 98 bc 1c a4 62 be c9 ec 3a 3e 0d 9d 1b 3d
       -0.018635092 -0.22132915 0.18254389 0.037991572
000010 ab 44 4f be f0 66 9f be 54 1f 36 be cf 42 fe 3b
       -0.20241039 -0.31133223 -0.17785388 0.007759429
000020 65 eb 1e be 14 36 a9 bd 0f 48 54 be b8 78 d8 bc
       -0.15519483 -0.08262268 -0.20730613 -0.02642475
000030 05 13 82 bd e0 97 9a bc 97 52 07 3e 30 8e 85 3e
       -0.06351284 -0.018871248 0.132151 0.26085043
000040 4c 70 05 3d 61 b0 5c 3e 8b 5b 8a bb bc 46 ac 3e
       0.032577798 0.21551658 -0.0042223386 0.33647716
000050 2b 7c ae bd 81 19 f2 3e 80 e7 d3 bc a2 52 d7 3e
       -0.08519777 0.47285083 -0.025867224 0.4205523
000060 1b bb ec 3d 6d 35 77 3e 85 89 e7 3e 49 7f b5 3e
       0.11559125 0.24141474 0.45222107 0.35448673
000070 f3 64 ca bd 66 b5 0c be 40 d5 6d 3d 4f 55 65 bd
       -0.09882536 -0.13741073 0.0580647 -0.05598956
000080 b3 38 80 be 0a 91 62 be 3b c0 cc bd 98 d3 24 3e
       -0.25043258 -0.2212564 -0.099976026 0.16096342
000090 e3 b6 93 be 19 4b b0 3c 8d 23 62 be 43 a4 33 be
       -0.2885047 0.021520184 -0.22083874 -0.1754313
0000a0 04 8f 31 3e 1b d2 f6 3d 12 83 98 bd f9 33 38 3e
       0.17339712 0.12051793 -0.07446875 0.17988576
0000b0 6a 10 e6 3d 1b 92 fd 3d 65 f6 8c 3c 0b 47 c1 3d
       0.112335995 0.12381383 0.017207334 0.094373785
0000c0 4b 71 95 be 3c cd 1d 3c 35 06 f1 3d 1d d7 3d 3e
       -0.29187998 0.009631451 0.11768762 0.1853909
0000d0 9b db 8d bc 28 60 16 3d ce 11 a6 bd dc 03 c2 3d
       -0.01731663 0.036712795 -0.08108865 0.09473392
0000e0 08 d0 0c bd 49 d0 9d 3b 25 5f 90 bd 19 71 76 be
       -0.03437808 0.0048160893 -0.070493974 -0.24066581
0000f0 fd ec 20 be b1 ab 23 bd c2 94 bb 3d b7 8f a3 3d
       -0.15715404 -0.03995866 0.09159233 0.07986396
000100 5c 5c 44 3e 2f 5c cd bd 16 8c 8c 3d b4 02 de 3d
       0.19175857 -0.10027348 0.06862657 0.10840359
000110 69 f7 86 3c dc ca 19 3e fe 2e 21 3e 7f c6 50 3e
       0.016475396 0.15018791 0.15740582 0.2038822
000120 2e 29 82 3e 56 db f6 3d 60 98 bb 3e bd 73 34 be
       0.25422043 0.12053554 0.3663969 -0.17622276
000130 00 cd bc 3e 2f e5 c9 3c 0b d5 97 bc 10 a6 45 be
       0.36875153 0.024645416 -0.018534204 -0.19301629
000140 6f b1 38 3e 02 b9 3f 3e 50 e1 46 3e b6 e2 17 bc
       0.18036436 0.18722919 0.19421887 -0.009270361
000150 20 71 41 be 67 34 1a 3c 2b 98 e7 bd 71 1f 14 3d
       -0.1889081 0.009411908 -0.113083206 0.036162797
000160 a5 00 5d 3e 07 d1 a1 bd 1b 17 0c 3d f0 a3 f1 bd
       0.21582277 -0.07901197 0.034201723 -0.11798847
000170 7e 36 14 3e b6 c9 c2 3c c2 cc 8f bd 0c 2d 56 be
       0.14473912 0.023777824 -0.07021476 -0.20915622
000180 07 77 4c be b9 cc 81 be 7a 22 3f 3e 5e 1d 95 3d
       -0.1996728 -0.25351503 0.18665496 0.07280992
000190 00 ab 53 be 5d e5 c3 bd 38 05 66 3b d2 0f 1c 3d
       -0.206707 -0.09565232 0.0035098325 0.038101025
0001a0 b3 45 6b be bc 48 16 3d e2 c4 79 3d d0 2a 80 bd
       -0.22975807 0.03669046 0.060978778 -0.06258166
0001b0 ae d0 ab be f9 d2 0f be 8c 8a ea 3d bb a7 8f be
       -0.33557647 -0.14045323 0.11452207 -0.28057656
0001c0 5e 3b 9a 3e 96 0f d8 bd 68 e7 03 3e 9a 62 66 3e
       0.3012342 -0.10549848 0.12881243 0.22498551
0001d0 22 dd 18 bd 7e fc be 3d 50 2e ce 3c 2e bc f4 bd
       -0.037320264 0.09325503 0.025168568 -0.11949955
0001e0 bd 83 36 3e bb 33 86 3d da a0 8f 3d b4 21 0d be
       0.17823692 0.065528356 0.07013102 -0.13782388
0001f0 0d a2 43 be 77 3d 69 bc 3d 22 de 3b b9 e5 23 3e
       -0.19104786 -0.014235846 0.006778984 0.16005601
000200 6b 31 04 3e 9b 69 d6 3d d6 26 02 be b3 10 34 3e
       0.12909476 0.104693614 -0.12710127 0.17584495
000210 c0 e4 fc 3c 0f 33 25 be 67 40 7b 3d 4a 1a 8b 3d
       0.030870795 -0.16132759 0.061340716 0.067921236
000220 59 e3 2c be 42 f1 b9 3d 1b 3e b3 bd 0d 96 17 be
       -0.16883601 0.090792194 -0.0875208 -0.14803334
000230 73 3b 7c bd dc eb ac 3d 49 95 94 3e 98 97 5b 3e
       -0.061580133 0.08443424 0.29020146 0.21444547
000240 20 b1 be 3d ef f2 a3 bd 27 9d 18 be e8 15 3f 3d
       0.09311128 -0.0800532 -0.14903699 0.04665175
000250 cc 33 9a 3d b1 04 97 bc 23 96 62 3e d9 38 0b bd
       0.07529411 -0.018434854 0.22127585 -0.03398976
000260 7e e0 4f 3e cc 55 8e bd e3 3a 91 3c 4b 9a 62 bd
       0.2030048 -0.06949958 0.017728275 -0.055322926
000270 af 04 78 3e 86 a1 44 3e dc 1b 88 3e de 71 35 be
       0.24220537 0.19202241 0.26583755 -0.17719218
000280 d9 03 61 3e 00 0e 43 3d ac f4 80 3e 4c 3d a5 be
       0.21974124 0.047620773 0.2518667 -0.32273328
000290 82 56 8d 3e 87 dd 0c 3d 82 c3 5b 3e f4 1e d5 bd
       0.27605063 0.034390952 0.21461299 -0.104062945
0002a0 f5 2b 34 bd 5c b0 fd bc 94 7e 3d be 28 2a 37 3e
       -0.043987233 -0.030967884 -0.18505317 0.17887175
0002b0 76 43 2c bd e6 5e 2e bb 21 7f d4 bc f2 c4 34 3e
       -0.042056523 -0.0026606857 -0.025939526 0.17653254
0002c0 9d d4 f2 bd a3 49 91 bb 2c aa 61 be f1 52 3d bd
       -0.11856959 -0.004433827 -0.22037572 -0.046221677
0002d0 fb b8 01 3e 19 69 9f 3e 96 5f 36 3d b5 fc 75 3e
       0.1266822 0.3113487 0.04452475 0.24022181
0002e0 3e 49 97 3e 0a 5f 2f bd 39 4b ac 3e c2 97 ef 3b
       0.29548067 -0.042815246 0.3365114 0.007311792
0002f0 11 24 7a 3e a6 25 7c be 60 e9 83 3e a8 62 f4 bd
       0.2442782 -0.24623737 0.25763988 -0.1193288
000300 85 f0 19 3d 2d d2 6a 3e 22 5e 0e be cf 18 32 be
       0.037582893 0.22931738 -0.13903096 -0.17392276
000310 52 3a e4 bd 92 a6 90 3d 8e de 65 be c9 7b 31 bd
       -0.11143936 0.07063021 -0.22448179 -0.04333094
000320 5e 50 a3 be 8d 12 8b be 33 88 b2 be 6c 9a 69 bd
       -0.31897253 -0.2716259 -0.34869537 -0.057032034
000330 b7 ea 20 be 30 8c 03 3d 53 28 99 bc ea df 56 3d
       -0.15714537 0.032116115 -0.018695986 0.052459635
000340 5d 69 38 be 95 e8 11 3e 3c 93 82 3e 06 3b 55 bd
       -0.18008943 0.14248879 0.25502956 -0.052058242
000350 0a 17 11 3e 2d 1e 89 3d c9 78 d3 3d 80 de 71 3d
       0.14168945 0.06695209 0.10325772 0.059050083
000360 91 9f 7f bd ee 57 39 3d e6 2a 7e 3e 76 ec ee 3d
       -0.062408034 0.045249872 0.24821052 0.11666195
000370 2f 3a 68 3e 24 d5 d0 3c ef 93 9c 3c 3f c5 49 3e
       0.22678445 0.025492258 0.019113509 0.1970415
000380 47 06 00 be 04 f2 20 3e 87 47 58 3e a4 f7 41 3e
       -0.12502395 0.15717322 0.21121036 0.18942124
000390 23 64 34 3e 98 e8 07 be 48 8f 10 3d df fc 62 3c
       0.17616324 -0.13272321 0.035292894 0.0138542345
0003a0 58 1d c6 3d ce 3b 18 be 35 a5 2d be b7 b7 76 3e
       0.096735656 -0.14866564 -0.16957553 0.24093519
0003b0 5b e1 03 be b5 d0 ec bc 63 f6 f7 3d 8b a8 36 3d
       -0.12878935 -0.028908113 0.121075414 0.04459433
0003c0 bf 9c 05 bd bb 01 90 3e 10 73 f1 bd 22 39 cf bd
       -0.032620188 0.2812632 -0.117895246 -0.10118319
0003d0 3f 8b 21 be 14 58 2a 3e ba 92 d0 bd 7b de ac 3e
       -0.15775774 0.16635162 -0.10184236 0.3376349
0003e0 9d dd 59 3e 39 51 18 3e b1 c4 ab 3e c3 e2 06 3e
       0.21275945 0.14874734 0.335485 0.1317244
0003f0 65 f4 00 bd 8d 0b 03 3e 1c 9e f6 3d 55 ba f1 3d
       -0.031483073 0.12797375 0.12041876 0.11803118

module.bi_lstm1.weight_hh_l0_reverse f4 [64, 16]
000000 ac 23 8f bd 7d 85 6c be 33 53 e0 bb e0 f0 31 be
       -0.06989226 -0.23097797 -0.0068458556 -0.17377043
000010 6d be b3 3d 12 6a 4f 3d 7d 98 62 3e f1 de e1 3c
       0.08776555 0.050638266 0.22128482 0.027572127
000020 93 7a 71 be 5f ee e0 3d e3 fa 46 3e 09 fd b4 bc
       -0.23581915 0.10982966 0.19431643 -0.022093313
000030 d1 e8 57 be a3 15 65 3e 2c 6b 22 bd 39 84 dd 3d
       -0.21084906 0.22371535 -0.03965299 0.10816235
000040 c2 97 81 bd 11 81 95 3d 55 14 69 be 2e 08 8b bd
       -0.06327774 0.07300008 -0.22761662 -0.067886695
000050 f0 97 3d ba 83 13 a8 bd 39 a3 2e be b2 6a 1c be
       -0.0007232418 -0.082068466 -0.17054452 -0.15275076
000060 a5 64 54 3e 9a 7b f3 bd 96 c4 83 3e ef ab 47 3d
       0.20741518 -0.118888095 0.2573592 0.048747953
000070 81 12 6e bd cc c9 5f 3d c8 df b4 bd e0 a6 28 bb
       -0.058123115 0.054635808 -0.088317454 -0.002573423
000080 7e ff 61 3d 9a 4f 38 be e5 05 55 3d 31 08 c9 3d
       0.055175297 -0.17999116 0.052007575 0.098160155
000090 f5 d6 42 3b d9 4d 05 be be 6a b4 3c dc bd e9 bc
       0.0029730175 -0.13017978 0.022023555 -0.028532915
0000a0 5c ba a4 bd 92 63 00 3e 25 65 6b 3d 98 ef ca 3c
       -0.08043358 0.12537983 0.057469506 0.02477245
0000b0 51 53 52 be 27 cc 44 3e dc 17 15 3c 58 9f 7c bd
       -0.20539595 0.19218503 0.009099927 -0.0616754
0000c0 82 60 71 bd 11 42 23 3d bd 1a b9 bd d0 11 69 bd
       -0.058929928 0.039857928 -0.09038303 -0.056901753
0000d0 ec b8 4a 3e 10 5d a7 3d 2e ea 51 3e 65 ae 8a 3d
       0.19797105 0.08172047 0.20499489 0.06771544
0000e0 2b 78 4b 3e 18 6d c2 bc db 56 25 bd e0 d9 b7 3e
       0.19870059 -0.02373366 -0.040366035 0.35908413
0000f0 5a c9 a8 3e 68 7b 11 be 26 0b 3e bd 8f ec a0 3d
       0.3296612 -0.14207232 -0.04639735 0.0785762
000100 96 f2 c5 bd f2 71 4b be a1 4e 6c bd dc ad 23 3d
       -0.0966541 -0.19867685 -0.057692174 0.039960727
000110 42 08 16 3e 5c 01 fb 3d 88 c3 b7 3d 35 25 82 3e
       0.14651588 0.12256119 0.089728415 0.25419012
000120 68 69 22 bd 99 0b 27 bd 76 e1 53 3d b7 79 df ba
       -0.039651304 -0.040782545 0.05172869 -0.0017049824
000130 8d 2a 57 bd 73 6d d3 bd 2e aa 11 3e ed 85 8c 3e
       -0.052530814 -0.1032361 0.14225075 0.27445927
000140 5e 85 7b bc d3 6e 8d be 08 95 b0 3c c8 da 86 3d
       -0.015351621 -0.27623615 0.021555439 0.06584698
000150 c3 82 7f 3c 2b cf d6 bd 35 2f 94 bc bd 50 c1 3c
       0.015595141 -0.10488733 -0.018088916 0.02359807
000160 6e 55 82 be c8 4b 20 bb aa 90 9e bd 25 90 c0 bd
       -0.25455803 -0.0024459232 -0.07742436 -0.094024934
000170 26 2c 96 be 35 de 48 3e d8 ad 5c 3d 66 db 38 bc
       -0.29330558 0.19616015 0.053876728 -0.011282777
000180 6f fd b2 be ea f3 97 3e 05 40 82 3e 22 61 0e 3d
       -0.3495898 0.2967828 0.25439468 0.0347606
000190 b1 b5 14 3f 4d 7a 0f 3f cf 9c 63 3e ef 24 c0 3d
       0.5808974 0.5604599 0.22227786 0.093820445
0001a0 43 cf da ba bc 35 75 3e 7c cf d3 3d 9c 29 07 3f
       -0.0016693849 0.2394628 0.10342309 0.52797866
0001b0 a8 21 a1 3e e2 8c 17 bf 4c 34 45 3e 02 c3 60 3e
       0.3147099 -0.59199345 0.19258231 0.2194939
0001c0 be 1c 46 be d7 fe 70 3e 48 5e a0 3d d9 81 1b be
       -0.19346902 0.23534714 0.07830483 -0.15186252
0001d0 dd 1a af 3e d1 90 be 3e d4 ac 6c 3e 66 a2 f2 3d
       0.34200183 0.3721986 0.23112804 0.11847381
0001e0 a7 f1 68 3e 97 ac 8d 3c 18 cf 99 3c 11 8f b3 3e
       0.22748433 0.017294211 0.018775508 0.35070089
0001f0 f4 1b d8 3e 97 cf b6 be a4 89 a8 3c c4 3e 28 3e
       0.42208827 -0.35705253 0.020573445 0.16430193
000200 66 ac dc 3b c2 92 2a 3e ea 24 93 bd 3e bb d0 3d
       0.0067344187 0.16657546 -0.07184775 0.101919636
000210 b6 90 0d 3e dc 8e 36 3e 25 62 cb 3d 20 f3 da bd
       0.13824734 0.17827934 0.09930829 -0.10690904
000220 92 77 11 3d 89 19 2a 3e 00 44 70 be e7 e9 85 3e
       0.03551442 0.16611303 -0.2346344 0.26155016
000230 e4 07 6a 3e 50 79 dc be f5 84 a1 bb 51 c8 b1 3d
       0.22854573 -0.43061304 -0.00492918 0.086807854
000240 cd 5b 9c 3d c9 d1 ea 3d a0 b9 36 bc 25 b9 a3 3d
       0.07634697 0.114657946 -0.011152655 0.07994298
000250 ad 74 f0 bd 1a e5 7e 3e 94 ea 26 3e fb c5 42 3e
       -0.11741004 0.24892083 0.16300422 0.19020836
000260 60 4b aa bd ed 20 34 3c 03 3b ba 3d f6 cd 3d 3e
       -0.08315158 0.010994178 0.09093287 0.18535599
000270 d4 50 1c 3e 0b 52 d5 bd 00 bf 6d 3d 43 f0 5d 3d
       0.15265208 -0.10416039 0.05804348 0.05418421
000280 fa 91 06 be aa 5e d3 3d f2 e5 cf bb ca 06 c4 bd
       -0.13141623 0.1032079 -0.0063445503 -0.095716074
000290 d9 8c c6 3d e3 8c cf bc c4 ae 78 bd 1c f5 9b bb
       0.09694833 -0.025335735 -0.060713544 -0.004759444
0002a0 af 5c 1a 3d 73 54 66 3d f5 71 c3 3c 3a 6c 92 3d
       0.037686046 0.05623288 0.02385805 0.07149549
0002b0 10 2f 3f bd 9b a7 f2 3c fd 20 4f bd 69 a5 b4 3c
       -0.04667574 0.029620936 -0.05056857 0.02205153
0002c0 5b 02 81 bd b2 61 0d bd 69 32 1a 3d 14 83 b3 3d
       -0.062992774 -0.034516998 0.03764573 0.087652355
0002d0 71 42 2b 3e 7b b5 26 3e fb 47 a3 bd 87 c2 46 bd
       0.16724564 0.16280167 -0.079727136 -0.04852536
0002e0 7d 27 1f be 0a 02 2d 3d fd 7a b5 3c 8b 9b 13 3d
       -0.15542407 0.042238273 0.022153372 0.03603701
0002f0 56 25 cc 3c 54 e3 47 be c1 83 44 3c 06 e0 af bd
       0.024920147 -0.19520313 0.011994303 -0.08587651
000300 6a a8 a7 3d e0 d2 ab bc 21 e8 11 be a0 80 9f 3c
       0.08186419 -0.020974576 -0.14248706 0.019470513
000310 71 9e b8 bd 8a e3 cd 3b 63 14 23 be e0 b2 a0 bd
       -0.09014595 0.0062832283 -0.15925746 -0.07846618
000320 aa 7e 6b bd 79 38 79 bd d6 41 3b 3e 26 c9 51 3e
       -0.057493843 -0.060844872 0.18286833 0.20486888
000330 58 69 e1 bc 43 59 82 3d 7c 73 2d bd 8f 74 b5 bc
       -0.027516052 0.063646816 -0.042346463 -0.022150306
000340 75 25 a8 3a e6 ee 1b be 90 e4 03 3e 26 36 92 3d
       0.0012828546 -0.15227851 0.12880158 0.07139234
000350 5c a7 4e 3c cd 10 83 bd 2f 50 da 3d 6c 06 2c 3d
       0.012613144 -0.06399689 0.10659825 0.041998312
000360 d5 3f dc bd d2 6c c5 3d 02 a8 7a be e0 c1 87 be
       -0.107543625 0.096398965 -0.24478152 -0.26515102
000370 ed 63 e6 bd d1 27 24 3d e4 ee a5 3e 99 92 04 bd
       -0.11249528 0.040077034 0.32408822 -0.03236637
000380 f8 08 27 be 1c 08 04 3e 5a 6a a8 bc d9 a7 83 bd
       -0.16312015 0.12893718 -0.020558525 -0.06428499
000390 ba 67 52 3d 42 c0 83 3c f5 07 96 3d f6 44 59 bd
       0.051368453 0.016082887 0.073257364 -0.053044282
0003a0 fe c4 78 3e fc 17 f4 3c 55 3d b0 3d 59 69 1d 3d
       0.24293897 0.029796593 0.08605448 0.038430545
0003b0 d0 1d 8d 3d b0 e0 f5 3d f0 6a 6e bd 91 92 90 bd
       0.06890452 0.12005746 -0.058207452 -0.07059205
0003c0 f2 4f c3 3d cf 07 91 bc 84 af 67 3c 67 ff b2 bd
       0.09536733 -0.017703919 0.014140967 -0.087401204
0003d0 25 c9 bf bd 27 16 80 bc c5 ea 01 be 3f 97 2a be
       -0.09364537 -0.015635563 -0.12687214 -0.16659258
0003e0 b5 05 84 3c 95 38 8e bd d4 4e 3d 3d a1 4a c5 bc
       0.016116003 -0.06944386 0.046217754 -0.024083437
0003f0 ee f8 63 3c 79 75 a5 bd a5 07 fa bc 24 ec 37 bd
       0.01391433 -0.08079047 -0.030521223 -0.044902936

module.bi_lstm1.bias_ih_l0_reverse f4 [64]
000000 4a 16 6f bd c3 92 cb 3e 86 9f 22 3e b5 c8 be bc
       -0.058370866 0.39760408 0.15881166 -0.023289064
000010 93 67 f8 bd ba 60 74 3d 16 eb a4 3d ed e8 aa bd
       -0.1212913 0.05966256 0.080526516 -0.08345208
000020 06 fb 79 3e 98 1e 16 bd 19 b5 69 3e ea 71 88 3d
       0.24412164 -0.03665027 0.2282299 0.066623524
000030 13 c8 24 3e 0b d4 af 3c 90 54 4f bd e0 bf bd bd
       0.16091947 0.021463415 -0.050617754 -0.09265113
000040 a4 a3 1f 3e ba bd 79 3d fc b6 76 3d 76 b0 11 3e
       0.15589768 0.060971953 0.0602331 0.14227471
000050 7e 10 e2 3e 6c f5 85 3d 29 bb b5 bb 5d a2 11 bc
       0.44153208 0.06540951 -0.005545993 -0.008888808
000060 5b 90 b4 3e f6 c2 88 bd 53 21 5c 3e f8 d1 22 3d
       0.35266384 -0.06677811 0.21497087 0.039751023
000070 e8 86 4a 3d 12 07 d2 bc da 6b 4f 3e 4e 4c 50 3e
       0.049445063 -0.025638137 0.20255986 0.20341608
000080 7f ed a0 3d 38 74 a1 be 46 c5 4d be a1 84 d3 bd
       0.07857799 -0.3153398 -0.20094785 -0.10328031
000090 14 c8 e5 bc 5f cd df bd 08 30 75 3d 6f a3 3e 3e
       -0.028049506 -0.10927843 0.05986026 0.18617032
0000a0 8f 7e 65 bd e7 ec 3c be 54 42 83 3e 0f 10 7e 3d
       -0.0560289 -0.18449746 0.25636542 0.062027033
0000b0 bd a1 9d 3d c7 1b f4 bd 09 6f f7 bd dd 9d 69 3e
       0.07696865 -0.119193606 -0.12081725 0.22814126
0000c0 19 54 d0 3d 88 5f 04 3e 61 34 6b 3e 26 f4 43 3e
       0.1017229 0.12927067 0.229692 0.19136104
0000d0 fc 4c 90 3e 2e a2 5a 3e d5 b7 42 3d f0 ac 10 3e
       0.28183734 0.21350929 0.047538597 0.1412847
0000e0 21 27 46 3e 16 44 7e bc 42 07 54 3e 8e 0b d0 3d
       0.19350864 -0.015519163 0.20705894 0.10158454
0000f0 8a dd 3b 3e a3 79 a9 3d 2b 6b b3 bc c2 59 e8 bd
       0.18346229 0.082751535 -0.021901688 -0.11345245

module.bi_lstm1.bias_hh_l0_reverse f4 [64]
000000 b1 0b b7 bd bb d8 b7 3d 64 d3 68 3e ba f0 b2 3d
       -0.08937777 0.08976885 0.22736889 0.08737321
000010 a9 3b 7c 3e 08 b1 0e bc b3 69 1a be 22 ad bf bd
       0.24632134 -0.0087092 -0.15079384 -0.09359194
000020 87 70 30 3e 5b ae ee bd 36 e9 7f bc 4c a6 6f bd
       0.17230426 -0.116543494 -0.015619567 -0.058508202
000030 33 20 f6 bd 69 5d b4 bd 27 21 27 be 83 a3 f4 3d
       -0.1201786 -0.08806879 -0.1632124 0.1194525
000040 a8 fe c5 bd 68 6a a7 3d 61 20 31 be be 0c e3 3d
       -0.096677125 0.08174592 -0.17297508 0.11086415
000050 98 eb d5 3e 4f fa 4e 3e 30 0e cf 3e ee 7e b9 3e
       0.41781306 0.20212673 0.40440512 0.36229652
000060 4d b6 fc 3d 6d c0 fd bd 0a 7e 6a 3e 2b e0 65 3d
       0.123394586 -0.12390218 0.22899643 0.056121986
000070 e8 a5 be 3d e9 d2 95 3e 9e 2b de 3d 66 2f 95 bd
       0.09308988 0.29262474 0.10848163 -0.07284431
000080 cb de 0a 3d ed 05 cf bc 04 91 a5 be 97 cb 75 be
       0.03390388 -0.02527138 -0.323372 -0.24003445
000090 0b 64 b1 bd e2 98 c7 3c a3 f4 82 3e 48 52 9b 3b
       -0.0866166 0.024364892 0.25577268 0.0047400333
0000a0 b1 53 c6 3d bb 2b 3c 3d 89 78 28 3e e2 62 24 bd
       0.096839316 0.045940142 0.1645223 -0.040133364
0000b0 6f 46 a2 bc 24 bb 9e 3e 57 c5 98 be f6 59 a9 bd
       -0.019808976 0.31002152 -0.29838058 -0.08269112
0000c0 ae a0 04 be cd 46 34 3d 26 69 97 3e 8b 40 89 3e
       -0.1295192 0.044012833 0.2957241 0.26807055
0000d0 c6 e0 eb 3c ef 8b 5e 3e b3 db 2d 3e 86 8e 06 be
       0.028793704 0.21733068 0.1697834 -0.13140306
0000e0 3f f7 9c 3e 98 ef 38 3e 80 91 37 3e c4 f8 16 3e
       0.30657384 0.18060148 0.17926598 0.14743334
0000f0 f3 4d 31 bd 5c d4 07 3e e0 1c d7 bd b8 98 93 bd
       -0.04328723 0.13264602 -0.10503554 -0.07206863

module.bi_lstm2.weight_ih_l0 f4 [128, 16]
000000 59 42 36 3d 88 99 48 b9 df cd 37 bd 8e f0 83 3d
       0.044496868 -0.00019130681 -0.04487407 0.064423665
000010 16 4e ba 3b 72 4b 84 bc 02 61 03 3d 70 18 8d 3d
       0.005685578 -0.016149256 0.032074936 0.06889427
000020 31 82 37 bd d6 a2 c2 3c de 1e 1f bd 87 3c 0a 3b
       -0.044801895 0.023759287 -0.038847797 0.0021093206
000030 d3 e9 03 bd 73 f2 93 bd 4d ef bd ba 72 78 80 bb
       -0.032205414 -0.07223978 -0.0014490873 -0.003920608
000040 75 56 06 3c 41 1f e7 39 50 47 3c 3c 33 2e 02 bc
       0.008199324 0.0004408304 0.011491612 -0.007945585
000050 3a 49 9b bb cc 17 14 bc b4 01 94 3c 25 a2 0f 3c
       -0.004738954 -0.009038877 0.018067218 0.008766686
000060 4c 42 ed ba da ae a5 bc fd 79 9d bb 2c 50 f3 bb
       -0.0018101423 -0.020224977 -0.004805802 -0.0074253287
000070 a5 ac 79 3c 40 5d c5 3a 9b af 8c 3b 0e 9d 00 3c
       0.015238916 0.0015057698 0.0042933947 0.007849945
000080 b8 41 ae 3b a8 fb 23 3c 49 87 17 bc 96 db 72 3c
       0.005317893 0.01000873 -0.009248563 0.014822861
000090 09 00 4d bc ea 99 48 bc d9 0e 50 3c 9d ef 4e 3c
       -0.012512215 -0.012243727 0.012698852 0.01263037
0000a0 49 38 7a 3c 0a c2 2a bd 37 04 a9 3c 0a a3 20 bc
       0.0152722085 -0.041688956 0.020631893 -0.009804497
0000b0 fe a2 39 3c a2 0d 57 3c 16 62 56 bc 6e fd 00 3d
       0.011330364 0.013125809 -0.013084909 0.03149169
0000c0 6f f8 3c 3c dc 6e 39 3c 1b df c6 bb 93 d5 fa bc
       0.011533841 0.011317935 -0.0060690767 -0.030619418
0000d0 90 dd 88 bb ee a6 83 bd e7 7a 59 bd 8f 2a 4a bd
       -0.004176803 -0.06428324 -0.053095724 -0.049356993
0000e0 e5 34 21 3c 4d f0 17 3c 59 0e 1d 3d 6e 04 28 bd
       0.009839271 0.009273601 0.03834376 -0.04101985
0000f0 13 fc a4 bc 7a 93 8d 3d 0d d3 e9 3b b7 76 e0 bc
       -0.02013973 0.069128945 0.007135755 -0.027400358
000100 64 6d a6 3b d7 13 9d bc 97 98 7f bc 1f b5 cd 3a
       0.0050789583 -0.0191745 -0.015600345 0.0015694237
000110 fa 93 9e bc 34 1f 0e 3c 08 56 26 bd e9 03 13 3c
       -0.01935767 0.008674432 -0.04060939 0.0089731
000120 53 0f 07 bc 30 7a 11 3d b3 15 38 bd 36 26 91 3c
       -0.0082434 0.035516918 -0.04494257 0.017718416
000130 5b 11 fd 3c de 19 21 bd 58 10 66 bb 4d 01 cd bc
       0.030892065 -0.03933131 -0.0035104956 -0.025025034
000140 1c 37 3f bc d4 ff 3f bd 02 21 f0 bc 51 94 2b ba
       -0.011670854 -0.046874836 -0.029312614 -0.0006545233
000150 21 2c 20 bd 25 a4 96 bd 0e 97 63 bd f7 40 6a bd
       -0.039104585 -0.07355527 -0.05556398 -0.05719086
000160 16 a5 d6 bc 50 2f 0d 3a 1e 36 01 3c 3d 43 4d bd
       -0.026201766 0.0005385773 0.007886438 -0.05011295
000170 0c 6e 84 bd df ce a9 3d 42 b3 1a 3c 48 45 2c bd
       -0.06466302 0.08291411 0.009442152 -0.04205826
000180 95 f4 6e 3b 75 45 51 3d 11 1f 95 3c 37 62 9f bc
       0.00364617 0.05109163 0.01820329 -0.019456012
000190 09 fc f3 3c e9 a4 e5 bc 0a 6a a4 3c 58 0e 17 bc
       0.029783266 -0.028032737 0.020070095 -0.009219728
0001a0 b6 eb 95 3c c2 7c 17 bc b5 3b d8 3c df e3 1d 3b
       0.018300872 -0.009246053 0.026395658 0.002409212
0001b0 43 b5 0f 3c b9 3b 07 3d 09 7e 50 3c 44 89 17 3b
       0.0087712435 0.03301594 0.012725362 0.0023122588
0001c0 23 30 c2 bc 02 01 02 3d 6f 40 19 3c a7 60 41 bc
       -0.023704594 0.031739242 0.009353741 -0.011802829
0001d0 d8 44 a8 3c 83 59 27 3d 6a e3 64 bc 84 69 94 3c
       0.02054064 0.04085685 -0.013970235 0.01811672
0001e0 f5 94 3e 3d 9a 50 d4 3c 6a ca 34 bd 36 00 f8 3c
       0.046528775 0.02591734 -0.04413835 0.030273538
0001f0 bb 8f 3d 3c 02 22 80 bd b0 75 a6 bb 9e a8 7f ba
       0.011569913 -0.062564865 -0.0050799474 -0.0009752604
000200 6f 0f 88 3d d1 96 b3 bd 7d 38 91 bd fb 38 2a 3d
       0.06643569 -0.08769 -0.070908524 0.041558247
000210 2f ae 9c bd 65 1c fb bd 2f 4c 29 3d 43 d0 b4 3c
       -0.076504104 -0.12261275 0.04133242 0.022071963
000220 95 a3 d2 bb 5f 8c a6 bd 4e 0d b9 3d 91 d1 35 bd
       -0.006428192 -0.081322424 0.09035741 -0.04438931
000230 98 1f ab bc 03 13 1d 3e 9d 7e f0 bc e0 61 49 3c
       -0.020889089 0.15339284 -0.029357249 0.012291402
000240 47 b6 af bb 33 d7 f7 3c 53 ef c2 3c 5c 7d a4 bc
       -0.0053623053 0.030253982 0.02379576 -0.020079307
000250 01 a6 70 3d 71 66 96 bb 86 db 80 3d 23 6a 27 3c
       0.058752064 -0.0045898487 0.06291871 0.010218176
000260 45 3e 12 3d c2 05 9c bb a5 18 0e 3d 87 49 1c bd
       0.035703916 -0.0047614286 0.03469147 -0.03815606
000270 02 0e 09 3d 1f a3 9e 3c 48 70 e5 3c 42 e6 6a 3d
       0.033460625 0.019364892 0.028007641 0.057348497
000280 95 e3 0a 3c 91 2e 45 bc a4 da 0c bc d8 c1 b6 3b
       0.008477111 -0.012035028 -0.00859705 0.005577307
000290 17 d6 09 ba 65 0f aa bb 9a 1a fc 3c 2a 85 86 3c
       -0.0005258037 -0.0051898235 0.030774403 0.01642092
0002a0 3f 14 80 bc c0 4e 01 bd a4 1b da bc 37 26 30 3c
       -0.015634654 -0.031569242 -0.026624508 0.010751299
0002b0 67 c6 34 bc 83 8b f6 ba 44 57 a6 bb 21 99 81 3c
       -0.011033631 -0.0018809888 -0.005076321 0.015820088
0002c0 b8 1a c4 3b 9b c0 98 3c c0 34 2c 3c cd 10 2b bc
       0.0059846304 0.018646529 0.010510623 -0.010441017
0002d0 bf 0d 60 3c ac 93 86 bb 2f b6 11 3c 07 cb 75 bc
       0.013675152 -0.0041069593 0.008893534 -0.015002019
0002e0 ce 7e 07 3d da 7b a0 3b c8 b8 0c 3d 8c dd c7 3c
       0.033079915 0.0048975768 0.03435591 0.024397634
0002f0 7e 06 2c 3d 1a b7 95 3c ad 19 f3 39 e1 9e 4e 3c
       0.04199838 0.018275786 0.00046367702 0.012611122
000300 5f 6f 21 3c c9 a9 7f 3c 3d 80 23 ba 01 a4 ba 3c
       0.009853213 0.015604445 -0.00062370655 0.022783281
000310 ff 60 66 3b 32 e9 96 3a 80 89 a8 ba bb 12 65 3b
       0.003515303 0.0011513589 -0.0012858361 0.0034953791
000320 ef 75 01 bc 64 90 eb 3b 83 bd fd 3c d9 28 53 3c
       -0.007901653 0.0071888436 0.030974155 0.012888157
000330 85 72 97 ba 9e de 9f 3c 92 68 ae 3a f8 6a b4 3c
       -0.0011554515 0.019515332 0.0013306311 0.022023663
000340 bb 58 51 bc 33 b3 89 bd 08 2e 8c b9 2e 00 7a bd
       -0.012777503 -0.06723633 -0.00026737177 -0.061035328
000350 03 0b 0b bd ec 27 e6 bb 5a 0e 05 be e1 e6 4e bd
       -0.03394605 -0.007023802 -0.12993756 -0.050513152
000360 76 c7 8a 3c b9 aa 72 3d 57 9b 8c bc 68 01 63 3d
       0.016940814 0.059244845 -0.017163916 0.055421263
000370 70 35 87 bc f4 46 1c bd 3a 36 4a bb 6c 95 f3 bd
       -0.016504973 -0.038153604 -0.0030855075 -0.11893734
000380 f3 b8 a3 bc 68 aa 96 3c c4 e2 ce 3b da a5 b1 bb
       -0.019985652 0.018391803 0.0063136537 -0.0054213824
000390 c3 5f ba bb 0b 02 4b bc 08 bd 00 3c 27 8a 15 3c
       -0.005687685 -0.012390624 0.007857569 0.009127176
0003a0 57 b9 b5 bb d9 bc 5a bd 28 25 c2 bc e4 47 c8 3b
       -0.005545776 -0.053402755 -0.023699358 0.0061120857
0003b0 49 83 e2 bc 1d b0 8c bc 4b 0e 6f 3b 79 b2 e2 3b
       -0.027650492 -0.017173821 0.0036477025 0.0069182483
0003c0 65 d2 0f 3c d8 4d 6e 3c 1f c1 b4 b8 09 53 4f 3c
       0.008778189 0.014544927 -8.6190405e-05 0.0126540745
0003d0 c1 b5 10 3c 4a 1b a7 bc c0 16 3c bc fa 7d 9a bc
       0.008832396 -0.020398755 -0.011480033 -0.018858898
0003e0 44 4b 34 bd 09 35 1c bc 62 66 18 3c 04 85 46 bd
       -0.04401709 -0.009534129 0.009301754 -0.048466697
0003f0 cf f9 3e bd 81 9b 0a 3d 39 0e 7e 3c 90 08 23 bc
       -0.046624955 0.033839706 0.015506321 -0.009950772

module.bi_lstm2.weight_hh_l0 f4 [128, 32]
000000 64 89 00 80 ae 8d 00 80 49 9b 00 80 62 8b 00 00
       -4.9286e-41 -5.0825e-41 -5.5706e-41 5.0001e-41
000010 bb 92 00 00 17 89 00 00 c6 8d 00 80 85 8b 00 80
       5.2637e-41 4.9179e-41 -5.0859e-41 -5.005e-41
000020 71 9b 00 00 4d 8b 00 80 53 8b 00 00 12 8a 00 00
       5.5762e-41 -4.9972e-41 4.998e-41 4.953e-41
000030 cd 88 00 80 4e 8c 00 00 c2 8b 00 80 5a 97 00 00
       -4.9075e-41 5.0332e-41 -5.0136e-41 5.4295e-41
000040 91 89 00 00 11 89 00 00 61 8a 00 80 51 89 00 80
       4.935e-41 4.917e-41 -4.9641e-41 -4.926e-41
000050 30 89 00 80 f3 90 00 80 6e 8b 00 00 c3 a2 00 80
       -4.9214e-41 -5.1998e-41 5.0018e-41 -5.8388e-41
000060 08 8b 00 80 17 9f 00 80 e8 8a 00 80 d0 94 00 00
       -4.9875e-41 -5.707e-41 -4.983e-41 5.3384e-41
000070 5b 8b 00 00 2a 8a 00 80 de 8c 00 80 dd 88 00 00
       4.9991e-41 -4.9564e-41 -5.0534e-41 4.9097e-41
000080 0a 8d 00 80 af 89 00 00 ec 88 00 00 b0 91 00 00
       -5.0595e-41 4.9392e-41 4.9118e-41 5.2263e-41
000090 b8 9a 00 00 8e 8a 00 80 df 99 00 80 c9 94 00 80
       5.5503e-41 -4.9704e-41 -5.5199e-41 -5.3374e-41
0000a0 0c 8c 00 00 93 89 00 80 a5 8b 00 00 fd 8a 00 00
       5.024e-41 -4.9352e-41 5.0095e-41 4.986e-41
0000b0 5e 92 00 80 37 89 00 00 e8 8a 00 00 7b a0 00 00
       -5.2507e-41 4.9223e-41 4.983e-41 5.757e-41
0000c0 12 91 00 80 db 8a 00 00 0d 8b 00 00 c9 8a 00 00
       -5.2041e-41 4.9812e-41 4.9882e-41 4.9787e-41
0000d0 26 89 00 80 00 8c 00 80 cd 88 00 80 7a 8c 00 00
       -4.92e-41 -5.0223e-41 -4.9075e-41 5.0393e-41
0000e0 7f 94 00 80 c6 9c 00 80 6f 89 00 80 4c 8e 00 80
       -5.327e-41 -5.624e-41 -4.9302e-41 -5.1047e-41
0000f0 76 89 00 80 6c aa 00 00 83 89 00 00 dc 89 00 80
       -4.9312e-41 6.1136e-41 4.933e-41 -4.9455e-41
000100 ce 88 00 80 e5 8a 00 00 0f 89 00 80 51 8a 00 00
       -4.9076e-41 4.9826e-41 -4.9167e-41 4.9619e-41
000110 85 8c 00 80 e1 88 00 80 78 89 00 80 06 90 00 00
       -5.0409e-41 -4.9103e-41 -4.9314e-41 5.1666e-41
000120 18 89 00 80 a0 cb 01 00 c6 8a 00 00 f5 a7 00 00
       -4.918e-41 1.64882e-40 4.9783e-41 6.0252e-41
000130 34 8a 00 00 73 8a 00 80 a6 90 00 80 df a2 00 80
       4.9578e-41 -4.9666e-41 -5.189e-41 -5.8427e-41
000140 8f 8b 00 80 5b 8a 00 80 c0 a0 00 00 14 8b 00 80
       -5.0064e-41 -4.9633e-41 5.7666e-41 -4.9892e-41
000150 ef 8b 00 00 51 89 00 00 bc 8a 00 00 32 8a 00 00
       5.0199e-41 4.926e-41 4.9769e-41 4.9575e-41
000160 be 88 00 00 82 8c 00 00 87 8a 00 00 4a 8e 00 80
       4.9054e-41 5.0405e-41 4.9694e-41 -5.1044e-41
000170 aa 8b 00 00 e1 8c 00 00 3b 8b 00 00 cc 89 00 80
       5.0102e-41 5.0538e-41 4.9946e-41 -4.9432e-41
000180 e3 95 00 80 00 a4 00 80 a4 a2 00 00 4b 8b 00 80
       -5.3769e-41 -5.8832e-41 5.8344e-41 -4.9969e-41
000190 63 9d 00 80 48 89 00 80 57 8d 00 00 59 8a 00 00
       -5.646e-41 -4.9247e-41 5.0703e-41 4.963e-41
0001a0 f4 8b 00 00 65 a3 00 80 c3 88 00 00 88 8f 00 80
       5.0206e-41 -5.8615e-41 4.9061e-41 -5.149e-41
0001b0 3e 8b 00 00 00 99 00 00 41 8b 00 00 98 8a 00 80
       4.995e-41 5.4886e-41 4.9955e-41 -4.9718e-41
0001c0 b3 89 00 00 3b 91 00 80 02 a8 00 00 91 96 00 80
       4.9397e-41 -5.2099e-41 6.027e-41 -5.4013e-41
0001d0 c9 89 00 00 05 89 00 00 32 8b 00 80 e4 8a 00 80
       4.9428e-41 4.9153e-41 -4.9934e-41 -4.9825e-41
0001e0 bc 8b 00 00 86 8b 00 80 ab 89 00 80 46 8a 00 00
       5.0127e-41 -5.0052e-41 -4.9386e-41 4.9603e-41
0001f0 0e 8c 00 80 21 8c 00 80 06 8c 00 00 eb 88 00 80
       -5.0242e-41 -5.0269e-41 5.0231e-41 -4.9117e-41
000200 6e 8a 00 00 4c 91 00 00 15 8a 00 00 d8 88 00 00
       4.9659e-41 5.2123e-41 4.9534e-41 4.909e-41
000210 f4 89 00 80 83 89 00 00 d9 88 00 80 61 8a 00 00
       -4.9488e-41 4.933e-41 -4.9092e-41 4.9641e-41
000220 b3 8a 00 80 05 8a 00 00 dd 8a 00 00 5a a7 00 00
       -4.9756e-41 4.9512e-41 4.9815e-41 6.0034e-41
000230 41 8c 00 80 a4 8b 00 80 cb 93 00 80 03 a7 00 00
       -5.0314e-41 -5.0094e-41 -5.3018e-41 5.9913e-41
000240 bf 88 00 80 70 95 00 80 77 8b 00 80 59 8a 00 00
       -4.9055e-41 -5.3608e-41 -5.003e-41 4.963e-41
000250 8d 89 00 80 ae 9f 00 00 04 8a 00 00 25 8c 00 00
       -4.9344e-41 5.7282e-41 4.951e-41 5.0274e-41
000260 a9 8a 00 80 7a 8b 00 80 e2 8a 00 00 91 8a 00 00
       -4.9742e-41 -5.0035e-41 4.9822e-41 4.9708e-41
000270 dd 8a 00 00 cc 89 00 00 9c 8a 00 80 cc 8b 00 00
       4.9815e-41 4.9432e-41 -4.9724e-41 5.015e-41
000280 5a 89 00 80 c4 8c 00 00 62 8b 00 80 c0 88 00 80
       -4.9272e-41 5.0497e-41 -5.0001e-41 -4.9057e-41
000290 3d 8b 00 00 25 8a 00 00 5b 89 00 00 51 ab 00 80
       4.9949e-41 4.9557e-41 4.9274e-41 -6.1457e-41
0002a0 c5 8a 00 80 15 8a 00 80 16 8b 00 80 f0 88 00 80
       -4.9781e-41 -4.9534e-41 -4.9895e-41 -4.9124e-41
0002b0 25 8b 00 00 8b a8 00 80 30 89 00 00 53 8b 00 80
       4.9916e-41 -6.0462e-41 4.9214e-41 -4.998e-41
0002c0 5f 9f 00 00 f4 8a 00 80 40 8c 00 00 77 8a 00 80
       5.7172e-41 -4.9847e-41 5.0312e-41 -4.9672e-41
0002d0 ac 8b 00 80 a0 8a 00 00 cc 8a 00 80 71 89 00 80
       -5.0105e-41 4.9729e-41 -4.9791e-41 -4.9305e-41
0002e0 8e 8d 00 80 a2 91 00 00 77 8a 00 80 47 a7 00 80
       -5.078e-41 5.2243e-41 -4.9672e-41 -6.0008e-41
0002f0 dd 8e 00 00 d7 8a 00 80 c1 88 00 00 d3 89 00 00
       5.125e-41 -4.9806e-41 4.9058e-41 4.9442e-41
000300 bc 88 00 00 3b 8b 00 80 c4 8d 00 00 fd 88 00 00
       4.9051e-41 -4.9946e-41 5.0856e-41 4.9142e-41
000310 04 8a 00 80 44 8b 00 80 4d 9c 00 80 a4 8c 00 00
       -4.951e-41 -4.9959e-41 -5.607e-41 5.0452e-41
000320 c2 98 00 00 ff 88 00 00 28 8b 00 80 c6 8c 00 80
       5.4799e-41 4.9145e-41 -4.992e-41 -5.05e-41
000330 a0 90 00 00 b6 94 00 80 a6 8b 00 00 52 a9 00 80
       5.1882e-41 -5.3347e-41 5.0096e-41 -6.074e-41
000340 3d 8b 00 80 24 8c 00 00 b0 9e 00 00 6c 8e 00 00
       -4.9949e-41 5.0273e-41 5.6926e-41 5.1091e-41
000350 b9 8f 00 00 e7 9e 00 00 35 8a 00 00 7c 8b 00 80
       5.1558e-41 5.7003e-41 4.958e-41 -5.0038e-41
000360 22 8c 00 00 28 89 00 80 bd af 00 00 02 8a 00 00
       5.027e-41 -4.9202e-41 6.3043e-41 4.9508e-41
000370 cf 8b 00 00 d3 89 00 80 be 8c 00 00 2d a0 00 00
       5.0154e-41 -4.9442e-41 5.0489e-41 5.746e-41
000380 d4 8a 00 00 7c 8e 00 80 48 a2 00 00 c1 8b 00 00
       4.9802e-41 -5.1114e-41 5.8216e-41 5.0134e-41
000390 90 89 00 00 a0 8a 00 00 0f 89 00 80 db 8a 00 00
       4.9348e-41 4.9729e-41 -4.9167e-41 4.9812e-41
0003a0 6b 8a 00 00 f4 9c 00 80 15 8b 00 00 a4 97 00 80
       4.9655e-41 -5.6304e-41 4.9893e-41 -5.4398e-41
0003b0 b3 98 00 00 31 89 00 00 85 8a 00 80 c9 8a 00 80
       5.4778e-41 4.9215e-41 -4.9691e-41 -4.9787e-41
0003c0 de 88 00 80 e9 8a 00 00 ed 8b 00 80 0c 89 00 80
       -4.9099e-41 4.9832e-41 -5.0196e-41 -4.9163e-41
0003d0 02 99 00 00 e4 89 00 80 36 8e 00 00 e7 71 01 80
       5.4889e-41 -4.9466e-41 5.1016e-41 -1.32696e-40
0003e0 9a 91 00 00 44 8b 00 00 d6 8e 00 00 c4 8b 00 80
       5.2232e-41 4.9959e-41 5.124e-41 -5.0138e-41
0003f0 8b 8d 00 00 24 9d 00 80 93 8b 00 80 1a 8a 00 80
       5.0776e-41 -5.6371e-41 -5.007e-41 -4.9542e-41
