output/basic/FD001/exp_202411012057_bilstm_ep-0019.pth (torch, 238894 bytes, 63 tensors)

module.bi_lstm1.weight_ih_l0 f4 [64, 14]
000000 be d1 a5 3d 1e 6a 73 3d 4d 8c a1 3d 66 74 ef 3c
       0.08096646 0.059427373 0.078880884 0.029230308
000010 22 13 ac 3d 22 ab 6b 3d f5 06 87 3d 6b f1 37 3d
       0.08402087 0.05753625 0.06593124 0.04490797
000020 45 ad a0 3d b9 9c 55 3d 9d b4 49 3d a5 64 68 3d
       0.078455485 0.052151415 0.049244512 0.056736607
000030 7a 0d 79 3d 31 09 88 3d 1d 67 e5 bc d2 16 ac 3c
       0.060803868 0.06642378 -0.02800327 0.021006975
000040 91 80 55 3b 7e b3 27 3e 26 df 83 3c 67 a0 b2 bc
       0.0032577852 0.16377065 0.016097616 -0.021805001
000050 b1 9b 88 bb 15 3a 00 3d 1b ae 44 3d 05 d7 a7 3c
       -0.0041689505 0.03130539 0.048017602 0.020488271
000060 00 db ee 3c fe 20 83 bc b0 e3 1a 3d ac 29 15 3e
       0.029157162 -0.016006943 0.037814796 0.14566678
000070 fe dd 8d 3d 04 c4 c0 3c 32 18 bc 3d d6 36 72 3d
       0.06927107 0.023530968 0.091843024 0.059134327
000080 96 96 ce 3d 11 ec 94 3d ad bd 66 3d 73 41 d0 3b
       0.10087316 0.072715886 0.056333233 0.0063554584
000090 d3 4c 57 3d d0 4d b6 3c 8f b4 66 3a 6c 6f f1 3d
       0.0525635 0.0222539 0.0008800709 0.1178883
0000a0 6b 14 1c 3d 6f b8 53 bd a2 aa 9c bc 00 f6 70 3b
       0.03810541 -0.05168956 -0.019124333 0.0036767721
0000b0 60 dd b2 bb 2b 1a 28 bd f9 64 b2 3c 38 26 87 3b
       -0.005458519 -0.04104058 0.021776663 0.004124429
0000c0 e0 6d bc 3c a5 25 9e bc d9 8e e2 3b 24 c9 84 3b
       0.023001611 -0.01930506 0.0069140014 0.004052298
0000d0 e7 09 c1 bb 20 b5 f2 3c eb 77 12 3d aa d8 22 3c
       -0.005891073 0.029627383 0.035758894 0.009939352
0000e0 59 f9 05 3d 47 b7 3a 3d a9 b7 01 3d 13 dc e8 bc
       0.0327085 0.045584943 0.031669293 -0.028425252
0000f0 d5 b4 21 3d d6 89 3b 3c 0a 55 4d 3d 49 cc 81 bc
       0.039479095 0.011446437 0.050129928 -0.015844481
000100 a3 5b 19 3d 50 76 c4 3b d4 25 53 3d 5c 2d 12 3d
       0.037440907 0.0059955493 0.051549748 0.03568779
000110 48 8f 46 bb 59 39 04 3d 8c 92 2a 3d 87 6c 29 3d
       -0.0030297805 0.032281253 0.041643664 0.041363265
000120 06 01 6a 3d d2 2c ad 3d 50 bc 5c 3d 37 4a 77 3b
       0.057129882 0.084558144 0.053890526 0.0037733444
000130 ec cc 8d 3d 41 e9 ac 3d ae aa 0e 3d 62 84 bd 3b
       0.06923851 0.08442927 0.03483074 0.0057836035
000140 10 00 74 3d a9 1e 86 3d e0 e2 62 3d f8 8e e0 3c
       0.059570372 0.06548817 0.055392146 0.027411923
000150 3e 9b 14 be 45 8a a6 bd 50 5f f2 bd 9e 39 94 3d
       -0.14512345 -0.081318416 -0.11834586 0.07237552
000160 85 b8 09 be 4b 87 7a bd 9b 5f e9 bb 06 4d fd 3c
       -0.13449295 -0.06116418 -0.0071219928 0.030920517
000170 f3 f3 bc 3c fd 86 8c bc f7 39 01 3e 1e ce bf bd
       0.023065543 -0.017154211 0.12619768 -0.093654856
000180 c3 09 99 3d 6c cb e1 3d 00 30 43 bd 62 f1 1d 3c
       0.07472565 0.11025128 -0.0476532 0.00964007
000190 5e bd 8b bd 0b 2d 22 be ac af ba bc 69 e5 26 bd
       -0.06823228 -0.15837495 -0.022788845 -0.040746126
0001a0 28 93 fe bd 12 04 d4 3d eb 00 11 be e7 23 47 bc
       -0.124304116 0.10352339 -0.14160506 -0.012154556
0001b0 f4 16 14 be 98 0d e7 3d 44 42 05 be 99 a0 d7 bd
       -0.14461881 0.1128189 -0.1301356 -0.105286784
0001c0 10 c9 21 bd d9 f3 14 3d e8 99 9b 3c b5 73 5a 3d
       -0.03949839 0.036365364 0.018994287 0.053333003
0001d0 6e 92 07 3a d3 5c 70 3c c9 f5 6d bb f9 ed 64 bb
       0.0005171661 0.0146705685 -0.003630983 -0.0034931882
0001e0 c8 21 2f 3b e8 80 97 3c b2 da bb 3c eb 0b 59 bc
       0.0026723016 0.018494084 0.02293143 -0.01324747
0001f0 de d3 ee bc 0e 1e 7c bb 6c 6e 1c 3c f4 ce dc 3b
       -0.02915376 -0.0038470062 0.009547811 0.006738538
000200 11 42 c9 bc f8 54 b8 3c 31 ba 94 3a c2 a6 73 3c
       -0.024567636 0.022501454 0.0011346993 0.014871301
000210 f8 78 5a bb 9d f4 f0 3b bc 64 06 bb 7b 94 78 3c
       -0.0033336263 0.007353379 -0.002050682 0.015172119
000220 50 7d 4a bc d0 49 2c bc 9a ed fe 3c 58 61 14 bb
       -0.012358978 -0.010515645 0.031119157 -0.002264103
000230 6b 07 81 3d d3 6b 12 3e 29 b6 18 3e b3 40 3e 3d
       0.06300243 0.14298944 0.14913239 0.04644842
000240 b7 7e 19 3e 5e f8 0d 3e 35 24 2e 3e 06 71 99 3d
       0.14989744 0.13864276 0.17006 0.07492261
000250 32 71 c4 3d 7a 2b f6 3d 61 4a 2f 3e 41 b2 27 3e
       0.09591903 0.12020011 0.17118217 0.16376592
000260 e4 fd 84 bb b1 39 83 bc a7 3a 10 bc 94 a4 ab 3d
       -0.0040585864 -0.01601872 -0.008803046 0.08381
000270 65 4c 04 bd b7 c9 2a 3c 0f a0 89 3d c1 94 fb 3c
       -0.032299418 0.010424069 0.06719982 0.03071058
000280 36 57 30 bd e0 eb 08 be 8a b4 96 bc c3 e3 5a 3d
       -0.04305192 -0.13371229 -0.018396635 0.053439867
000290 a9 55 b5 3c 63 fb 7b 3d 1f 5d c3 bd 14 87 97 bc
       0.022135573 0.061519038 -0.09539246 -0.018497027
0002a0 13 62 a8 3c e9 35 f3 3d fa 37 b8 3d 2f d0 3a 3e
       0.020554578 0.11875517 0.08995052 0.18243478
0002b0 68 76 4b 3d f6 3d 53 3d e9 88 cf 3d 02 5e a4 3d
       0.049673468 0.051572762 0.101335354 0.08025743
0002c0 b3 89 9e 3d 80 30 9b 3d f9 e3 e0 3d 29 4e 26 3e
       0.07741108 0.0757761 0.10980982 0.16240753
0002d0 a6 1a f2 3d 6c 59 68 3d b6 16 60 bb 0e 5b ad 3d
       0.11821489 0.056725904 -0.0034193224 0.08464633
0002e0 73 42 3e 3d 03 30 0c 3e 0f 31 33 3d ac ec 4f 3c
       0.04645009 0.1369019 0.043747958 0.012690704
0002f0 1d 64 f2 3c 59 6d bd 3d e3 75 1d 3d 55 d3 21 3d
       0.029588753 0.09249372 0.038442504 0.039508183
000300 39 3e 63 3d 65 f5 a0 3c f0 58 ad 3d d0 58 ee 3d
       0.055479262 0.019648263 0.08464229 0.116380334
000310 e6 32 9d 3d 61 b4 f8 3c 36 d6 74 3d 1c 90 79 3d
       0.07675724 0.030359449 0.0597746 0.06092845
000320 d4 e9 96 3c e0 77 73 3d 7e a7 cb 3d a8 b3 e9 bb
       0.018422045 0.059440494 0.09944056 -0.0071320124
000330 7c 93 43 3d 3a a7 73 3d 9d 42 26 3c a4 2f 80 3d
       0.047748074 0.05948565 0.010147718 0.06259087
000340 1c 61 98 3d d7 cb 80 3d be d5 49 bc 80 5e 2d bc
       0.07440397 0.06288879 -0.0123190265 -0.010581613
000350 17 1e e5 3a 88 f5 49 3c 54 c4 82 bb 2b 25 a6 bc
       0.0017480281 0.012326606 -0.0039906893 -0.020281395
000360 0d bb 6c bb 1e 60 bd 39 e3 13 bc bb 5c 4b a0 bc
       -0.0036122233 0.00036120502 -0.0057396754 -0.019567184
000370 06 f1 55 3c c6 9e eb bb ce 95 e7 bc c1 3e f3 3c
       0.013057953 -0.007190558 -0.028269675 0.02969301
000380 4f 47 77 3d 35 06 39 3d ab 57 66 3d 63 62 37 3d
       0.06037074 0.045171935 0.05623595 0.044771563
000390 d4 4b ab 3d c7 e0 50 3d 8d 4a 87 3d 69 9d 30 3d
       0.083640724 0.050995614 0.06606016 0.043118868
0003a0 5a 5f 93 3d 40 9e 41 3d 98 c4 61 3d 8f b1 4a 3d
       0.07195921 0.04727006 0.055119127 0.04948574
0003b0 dd 5f 4a 3d 95 a1 5f 3d b3 28 9b 3d 89 4c bb 3c
       0.04940783 0.054597456 0.07576122 0.022863643
0003c0 37 d7 5f 3d bf 16 af 3d 5c 34 37 3d 7c 42 72 bc
       0.054648604 0.0854926 0.04472767 -0.014786359
0003d0 b5 9d 9d 3d c6 78 e2 3d 1a e3 57 3d 8b 7a ec 3b
       0.07696096 0.11058192 0.052706815 0.0072167567
0003e0 fe 2e 7e 3c e8 d6 b9 3d 62 ac 1e 3d 91 74 df 3c
       0.0155141335 0.09074193 0.038738616 0.027277263
0003f0 f8 df e2 3d 2c 2e 8a 3d 5c 6f e9 3d dd 68 88 3c
       0.11077875 0.06747088 0.11398193 0.016651565

module.bi_lstm1.weight_hh_l0 f4 [64, 16]
000000 97 23 da 3b 87 44 d2 bc be 7a 13 3c 20 1a 76 bc
       0.0066570747 -0.025667442 0.009001432 -0.015020877
000010 28 2d 0a 3c 94 df ef 3c 13 87 ba 3c 11 e3 90 3b
       0.008433618 0.029281415 0.022769487 0.0044215997
000020 38 23 c8 3c 9d 00 cf 3c f0 3a 02 3d 6f d7 81 3c
       0.024430856 0.025268847 0.03179449 0.015849797
000030 eb 9f 0d bd c2 84 3b 3d 6f 82 ea 3c 6f 46 7a bc
       -0.034576338 0.045780905 0.028626649 -0.015275582
000040 e8 23 80 bb b4 30 38 bd d6 d3 22 3d 07 49 9f 3c
       -0.0039105304 -0.044968322 0.039752804 0.019444002
000050 48 ed ba bc ee af c4 bc 40 e6 3f 3d 93 ca e7 3c
       -0.022818223 -0.024009671 0.046850443 0.028294837
000060 10 47 23 bc 85 7a d0 3c af 1f 42 bd 4c e4 3a 3d
       -0.009965673 0.025449047 -0.047393497 0.045627877
000070 32 fe 0f bc 74 a1 03 3d b1 d9 e0 3b fb ae 13 ba
       -0.008788632 0.032136396 0.0068618883 -0.0005633679
000080 05 63 ee bc b2 67 13 3d 33 ad fe 3c 45 f0 30 bc
       -0.02909995 0.035987563 0.031088447 -0.010799472
000090 f2 b1 76 3b e0 32 a6 bc 7b 4b 54 3c 90 e6 08 3c
       0.0037642685 -0.020287931 0.012957449 0.008355752
0000a0 f5 57 39 3c 86 19 71 3b 62 4a 08 bd e6 de 96 3c
       0.0113124745 0.0036788895 -0.033274062 0.018416833
0000b0 b1 6b 37 3d 83 04 4d bc 9f 2e f9 3c 56 5f 84 3b
       0.044780437 -0.012513283 0.030417738 0.0040396852
0000c0 fc 72 80 bb b2 ac 05 bb 88 cc aa 3b 55 02 06 bb
       -0.003919957 -0.0020397124 0.0052123703 -0.0020448167
0000d0 fd 73 62 bb 8b 9f 06 3c 21 1b 3a 3b f9 a3 20 3b
       -0.0034553998 0.008216749 0.0028397518 0.0024511798
0000e0 3f 14 6e b9 7d b3 58 3b bd d4 a6 3c 65 0d 88 3b
       -0.00022704991 0.0033065968 0.020365113 0.0041519874
0000f0 2d 5e 93 bc d8 05 e6 3b dc a3 da 3b 84 3e 7c 3a
       -0.017989242 0.0070197396 0.0066723656 0.00096223527
000100 9c 06 30 bd 59 98 13 3c c3 24 22 3d 96 f2 be 3c
       -0.042975053 0.0090084905 0.03958584 0.023309033
000110 7f 49 da bc b2 ec 84 bd 03 f6 a0 3c 28 15 c9 3c
       -0.026646374 -0.064904585 0.019648558 0.02454622
000120 e8 f2 92 bc 91 31 7b 3c a0 b3 b6 bd 71 0a 95 3c
       -0.017938092 0.015331642 -0.089209795 0.018193455
000130 a1 bb 9e 3d 59 84 ca bc 60 33 77 bc b1 6e 41 3c
       0.07750631 -0.024721311 -0.015087932 0.011806176
000140 ee 98 32 3b 04 b0 c1 ba f0 a1 31 3c d0 e2 eb ba
       0.0027251798 -0.0014777188 0.010841832 -0.0017996673
000150 0c 04 b0 bb 4c 92 82 3b 65 36 21 3c fc f5 2f 3b
       -0.005371576 0.003984725 0.009839629 0.00268495
000160 bb 6c 68 3a 6b 13 bb 3b 25 c8 e3 3c e6 f4 0f 3c
       0.00088663 0.005709102 0.027805397 0.008786416
000170 01 bd 4b 3c 83 f7 2b bb 55 d6 80 3c 85 50 46 3a
       0.012435199 -0.0026240058 0.015727201 0.0007565099
000180 56 00 05 bc 31 fd 76 bb bb b9 90 bc 69 7b 4c 3c
       -0.008117756 -0.0037687535 -0.017666688 0.012480595
000190 24 d1 29 ba c5 2b eb b9 33 ea 9a 3c de 57 cb 3b
       -0.0006478003 -0.00044855304 0.018910503 0.006205543
0001a0 eb aa 47 bc 72 ac 2d bb 48 8e 0e bd e1 99 26 3d
       -0.012186746 -0.002650049 -0.03480366 0.040674094
0001b0 40 07 91 3c ab fd ea bc 1d 96 3f bd 2f 5e 48 bb
       0.017703652 -0.028685411 -0.04677402 -0.0030573716
0001c0 08 96 b0 bc 55 b2 02 3d 34 d4 1f 3c ae fd cd 3b
       -0.021555915 0.031908352 0.009755183 0.0062863445
0001d0 35 d5 0a 3c 75 cb 2b bc e1 be 85 bd c4 95 96 bb
       0.008473684 -0.01048552 -0.06530548 -0.00459549
0001e0 42 60 99 3b fc 33 86 3b 86 5a 41 bd b0 0d cb bb
       0.0046806643 0.0040955525 -0.04720547 -0.0061967
0001f0 ad b7 84 3d e7 42 f4 bc 9f 92 bb bc 9c 38 b4 bb
       0.06480346 -0.029817058 -0.022897063 -0.0054999124
000200 90 3d 30 bc 6c e9 e8 bb e4 14 16 3c 6d 13 07 3b
       -0.010756865 -0.007107904 0.009160254 0.0020610944
000210 70 ac 76 bc b0 0d 99 3c 88 dd b9 ba 7b b5 26 3c
       -0.015055761 0.018683285 -0.0014180401 0.010175104
000220 24 5d 43 3a f0 77 21 3c 66 04 05 3d f5 6e 39 3c
       0.00074525387 0.0098552555 0.032474898 0.011317958
000230 15 0d bd bc d5 50 61 3b fa 5a 41 3c df 3f 2a ba
       -0.023077527 0.0034380455 0.011801476 -0.0006494503
000240 44 58 9f 3b 71 dd e8 ba 2d 0e a1 bb 46 39 63 3b
       0.004862817 -0.001776619 -0.00491502 0.0034671589
000250 2a 14 1c bb 6c 97 a9 3c 2e 12 34 3b 43 62 4b 3b
       -0.002381573 0.020702086 0.0027476656 0.003103391
000260 31 7c 77 bb 49 f0 bd bb de 2a a7 3b c2 85 03 39
       -0.0037763233 -0.0057964665 0.0051015457 0.00012542962
000270 fb aa e3 bc 96 b1 45 3c c7 a9 64 ba 15 1a 06 3b
       -0.02779149 0.012066266 -0.00087228086 0.0020462323
000280 67 4d 74 bd 3d 70 56 bc 63 13 a6 3d 86 75 c5 bc
       -0.05964413 -0.013088283 0.081091665 -0.024103891
000290 a7 c2 cb bb 34 45 11 3d 2c 7b 6e 3d 6e 99 11 3d
       -0.0062182727 0.035466388 0.058222935 0.035546713
0002a0 c0 9c 21 3d 57 aa 4e 3d 30 d7 48 bd 7d 25 30 3d
       0.03945613 0.050455417 -0.049033344 0.0430045
0002b0 c8 4f 99 ba ca f0 3a 3d 45 ce 86 3d 44 12 a9 bc
       -0.001169675 0.04563979 0.065823115 -0.020638593
0002c0 82 93 a1 bb aa 58 08 3d b6 6e a1 bb 8b 7a 54 bc
       -0.0049309144 0.03328768 -0.004926528 -0.01296867
0002d0 78 2b 34 3c d6 75 29 3c 3b a0 ad bc 63 c9 06 bc
       0.010996692 0.010343036 -0.021194568 -0.008226725
0002e0 f4 b2 3f 3c d2 91 d1 bb 63 36 e6 3c b5 d9 10 3c
       0.011700381 -0.006395557 0.028102105 0.008840968
0002f0 4d 06 18 ba 48 0e 97 bc a7 58 b6 3b cc 12 42 bb
       -0.0005799279 -0.018439427 0.0055647674 -0.0029613255
000300 36 05 96 3c 67 2a f4 bc 98 dc 50 3d 27 b9 4e 3b
       0.018313032 -0.029805375 0.050991625 0.0031543465
000310 80 a8 37 3c 45 f2 fb 3b ce a4 4b 3d 0e b3 b4 3c
       0.011209607 0.007688793 0.049717717 0.022058036
000320 d3 e8 b3 bb de 16 fd 3c 37 8e f7 3b ec 9b 10 3d
       -0.0054904013 0.030894693 0.007554795 0.03530495
000330 c9 6d 3e 3c 61 33 74 3c 55 c5 0b 3d 99 5f 61 bc
       0.0116228545 0.014904828 0.034123737 -0.013755702
000340 f6 50 aa bc 6b 06 20 bd 7d 02 3c 3d db 83 d1 3c
       -0.020790558 -0.03906862 0.04590081 0.025575569
000350 87 48 0c bd c3 7f c4 bc ba 9d 47 3d fa e2 13 3d
       -0.034248855 -0.023986703 0.048734404 0.036105134
000360 88 50 07 bc cb 31 ec 3c 7c b5 a5 bd 0a 22 29 3d
       -0.008258946 0.028832337 -0.08091256 0.041292228
000370 b8 fc 1a bc 51 e5 d1 3c 78 f2 79 3c 9f a2 be ba
       -0.009459667 0.025622042 0.015255563 -0.0014544314
000380 d9 86 a6 bc b5 18 1f bc 15 2a b4 3c 98 78 ca 3b
       -0.020327972 -0.00971048 0.021992723 0.0061789267
000390 56 79 b0 bc ff 03 c8 3a d7 8b d7 3c e3 76 85 3c
       -0.021542232 0.001525998 0.026311798 0.016292041
0003a0 87 12 b3 3b 18 0c ad 3c 55 32 a3 bb 15 93 29 3c
       0.005464855 0.02112393 -0.0049803653 0.0103500085
0003b0 63 68 50 3a f8 b5 35 3c 9b c2 a0 3b f8 e3 90 ba
       0.0007950125 0.011090748 0.0049060113 -0.0011054268
0003c0 61 4f 56 3b 1e b1 5c 39 8f 67 90 bb 4c 91 2b ba
       0.0032701122 0.00021046816 -0.0044068764 -0.0006544783
0003d0 22 bc ed b9 2b 11 56 3b d0 3c 63 bb b5 36 31 bb
       -0.00045344332 0.0032664042 -0.0034673698 -0.0027040665
0003e0 e2 b9 2f bb c6 14 53 bb f6 d2 ce 3c 4a e4 54 bb
       -0.0026813676 -0.0032208427 0.025247078 -0.0032484704
0003f0 2e 2b f4 ba e7 91 8a bb 4b 30 ad b9 3b 6e 81 3a
       -0.0018628591 -0.0042288187 -0.00033033112 0.000987477

module.bi_lstm1.bias_ih_l0 f4 [64]
000000 cf 4f db 3d 57 d4 a1 3d d2 2f 55 3d a4 49 40 bd
       0.10708582 0.07901829 0.052047558 -0.04694523
000010 0f cb 2a bd e8 9e 17 3e ae 8d ae bd 33 f2 14 3d
       -0.041697558 0.14806712 -0.08523117 0.03636379
000020 a1 75 0e 3c 30 7b f6 bc da b2 3a 3e 34 bb 85 3a
       0.008695037 -0.030088037 0.18232289 0.0010202886
000030 7b b2 34 3e 99 46 23 3e 87 55 d5 3d 32 bc f4 3c
       0.1764621 0.159449 0.10416704 0.029874895
000040 88 d1 84 3d 2e 65 08 3e 7e 7f 8a bc d3 89 3f 3d
       0.064852774 0.13319847 -0.016906496 0.0467623
000050 c6 38 1e 3d c7 68 26 3e 61 29 73 3d 73 60 a1 3d
       0.038628362 0.16250907 0.059365634 0.07879724
000060 40 96 6d 3d 72 8d ee bc c9 0e 8d 3e 7c b1 9f bd
       0.058004618 -0.02912018 0.27550343 -0.07797524
000070 59 6a 05 3e 73 45 34 3d 86 66 57 3d 71 ed de 3c
       0.1302885 0.044011544 0.05258801 0.02721283
000080 0f 9f d6 3c 75 f7 35 be 27 07 38 3e 7a 2e 39 3c
       0.026198892 -0.17770179 0.17971478 0.011302585
000090 aa 68 d2 3d 6c a5 3f 3e ce 78 f6 3d 67 0d 23 3c
       0.10273869 0.18715447 0.120347604 0.009951926
0000a0 47 f4 2a 3e cc e7 58 3e 23 25 48 be 17 46 1b 3e
       0.16694747 0.21182173 -0.19545417 0.15163456
0000b0 a3 4c de bc cb 05 45 3e 28 c5 b2 3d 90 2a 50 be
       -0.027136153 0.19240491 0.08729011 -0.20328736
0000c0 f3 94 f7 3c 41 41 57 bd d7 f3 c2 bd 2c 29 27 3d
       0.030222392 -0.052552465 -0.09519165 0.04081075
0000d0 7a af 3d 3d 2e 22 cb 3d be 17 29 3d c3 d0 98 bc
       0.046309926 0.09918629 0.041282408 -0.018654233
0000e0 27 dd 0d 3b b9 18 f0 3c a7 09 78 3d 1c 63 54 3d
       0.002164671 0.029308664 0.06055608 0.05185233
0000f0 cd 54 88 3d 4b 31 2f bd 7b 17 55 bd e7 fc 30 3c
       0.066567995 -0.04277162 -0.052024346 0.010802484

module.bi_lstm1.bias_hh_l0 f4 [64]
000000 b8 e6 c1 3b dc 74 30 3e 18 cd fa 3d b6 fe c6 3d
       0.0059173964 0.17232078 0.1224615 0.09716551
000010 06 f6 56 bd 3a 5f e3 3d 00 03 ae 3c f3 8d 0d be
       -0.05248072 0.111021474 0.021241665 -0.1382368
000020 2b 7b 86 bc fa 23 c3 3c 72 b0 ba 3b 3f 80 11 3d
       -0.016416153 0.023820866 0.0056973035 0.035522696
000030 18 bc 3e 3e 02 1e a6 3d 37 40 87 3d a8 0e 09 3d
       0.1862644 0.08111192 0.06604045 0.033461243
000040 3a 75 e4 3c a7 66 b0 bb bc 76 80 bd e6 1b 19 bd
       0.02788793 -0.005383331 -0.06272647 -0.03738012
000050 79 21 6a bc 1e bc 9b 3d b2 d5 4a bb 45 87 ea 3d
       -0.014290207 0.0760424 -0.0030950126 0.11451582
000060 b4 48 80 3d 68 fc b2 bc 75 95 7c 3e 95 74 ba 3d
       0.06263867 -0.021848872 0.24666388 0.091042675
000070 28 55 f5 3d 49 17 0a 3e 48 f7 4b bd 74 da 75 bd
       0.11979133 0.13485445 -0.049796373 -0.060022786
000080 05 0b 34 be ce 25 3f bd 6c 61 cf bc 15 b1 dd 3c
       -0.17582329 -0.046666913 -0.025315009 0.027061978
000090 4b c5 de bc 68 73 1d bd 63 15 48 3e 69 ae 44 3e
       -0.027193686 -0.038440138 0.19539408 0.19207157
0000a0 90 a9 09 3e 07 95 16 be 0d 6c 55 3e 6e 4a 24 3e
       0.13443589 -0.14705287 0.20842 0.16044018
0000b0 7f 06 5e be 26 54 1e 3d 4b 2a 52 3d 6b cd c6 bd
       -0.21682166 0.03865447 0.051309865 -0.09707149
0000c0 f5 c2 b7 ba 0c 8a 95 3b db 43 6b bb ea 6d 1d 3d
       -0.0014019894 0.0045635756 -0.00358986 0.0384349
0000d0 fb ba 6b bd 5d 7a a3 3d ce d1 bc 3d 05 ae 0b bd
       -0.057551365 0.07982323 0.092197046 -0.034101505
0000e0 85 1e a1 bc e3 c4 a3 bd 83 6c 6d 3e 2e ec 81 3a
       -0.019667873 -0.079965375 0.23185925 0.0009912306
0000f0 b0 d6 69 3e 85 5e 99 3d 0e ab 28 3d d5 bd f5 bd
       0.22835803 0.07488731 0.041178755 -0.11999098

module.bi_lstm1.weight_ih_l0_reverse f4 [64, 14]
000000 fd 98 05 3d fc 1a 53 be 51 bd 53 3e cd 5c 3d 3d
       0.032616604 -0.20615762 0.20677687 0.04623108
000010 81 92 41 be ee 5b 42 be 40 0d 2d be 95 52 b0 bb
       -0.18903543 -0.18980381 -0.16899586 -0.0053809383
000020 10 10 0a be b3 61 c0 3d 8b 6d 1c be 2b b0 6c bc
       -0.1348269 0.09393635 -0.15276162 -0.014446299
000030 1d 6f ad bd 72 e0 27 3b 8a e4 14 3e cd 1b f9 3d
       -0.08468459 0.0025615958 0.14540306 0.12163506
000040 5d ec b9 bd a2 df 28 be 0e 9a b2 3d 74 4a 96 bd
       -0.09078286 -0.16491559 0.0872079 -0.073384196
000050 9e 35 13 be f1 99 13 3e fa 54 ce 3c a5 3b d9 bd
       -0.14375922 0.14414193 0.025187004 -0.106070794
000060 c2 35 2e 3d 50 a0 fa 3d 2c c1 43 3e 50 0d 5b 3e
       0.042531736 0.122376084 0.19116658 0.21391797
000070 10 51 28 bd f5 cb 07 be 51 96 8d 3d 1f 45 c0 bd
       -0.041092932 -0.13261397 0.06913436 -0.09388184
000080 d1 3b 1c be b3 a4 90 bd de de a6 3d d9 16 d5 3d
       -0.15257193 -0.07062664 0.08147977 0.104047485
000090 15 c1 4f be 2d 05 de 3d 3c d9 2a be 5d 01 e5 bd
       -0.20288499 0.10840831 -0.16684431 -0.11181901
0000a0 80 d7 41 3e 88 0e 10 3e a5 57 a3 bd 9d 93 24 3e
       0.18929863 0.14068043 -0.07975701 0.16071935
0000b0 09 f4 c5 3d 75 28 c8 3d ce 02 1c 3e 07 3e 55 bd
       0.09665687 0.097733416 0.15235445 -0.052061107
0000c0 05 03 df bd 2b b4 1f be 91 3b 05 3e cf 4c 31 3c
       -0.10889248 -0.15596072 0.13011004 0.010821535
0000d0 0b d0 2b 3b 5f 95 4b 39 c2 66 06 be 68 a8 c7 bc
       0.0026216533 0.00019415234 -0.13125136 -0.024372295
0000e0 00 59 ac 3c 5c eb 88 bc df 82 16 be cc 82 2a be
       0.021038532 -0.01671379 -0.14698361 -0.16651458
0000f0 62 2e 89 bd 43 a3 39 bd 1c 7f cc 3d 5a a6 56 3c
       -0.066983 -0.045321714 0.09985182 0.013101185
000100 0b dc 75 3e d7 86 d3 bd ab 95 02 3d a3 86 36 3d
       0.24009721 -0.10328453 0.031881016 0.044561993
000110 64 5a 1b 3d 0e ef 6e 3e 57 1e c7 3d 16 a5 81 3d
       0.037928 0.2333338 0.09722584 0.06330316
000120 57 36 06 3e 81 f3 68 bd 81 a1 d6 3d 08 6a 69 3d
       0.13106667 -0.05687285 0.10480023 0.056985885
000130 9c d3 23 3e 66 e2 60 3d fe e1 f4 bd e1 0d e0 3d
       0.15998691 0.05490341 -0.11957167 0.10940147
000140 46 f3 cd 3d 7b a4 38 3e 2c 7a 5a bd 6c d8 0a be
       0.10056166 0.18031494 -0.05333917 -0.13559121
000150 29 6c 05 be 33 f8 ee bb 01 55 ed bc 57 c7 f1 3d
       -0.13029541 -0.0072927712 -0.028971197 0.11805599
000160 f8 c7 4c 3e e4 d1 4b 3c dc 45 a6 3d cf d5 8d bc
       0.19998157 0.012440179 0.08118793 -0.017313866
000170 99 b0 3f 3e ca b5 fc 3d 71 6b 25 3c 05 4e 00 be
       0.1871971 0.12339361 0.010096417 -0.12529762
000180 c2 39 9a bd 35 ab 29 be dd 9c 88 3e d4 ed 28 3e
       -0.07530548 -0.16569217 0.26682177 0.16496974
000190 ac 84 b2 bb d6 81 cb 3d cd 80 cb 3d db 52 55 bd
       -0.0054479446 0.099368736 0.09936676 -0.05208097
0001a0 6c a9 02 bd 8b e0 11 3e 49 38 4e 3e 9b 77 8a bd
       -0.031899855 0.14245813 0.20138659 -0.06761094
0001b0 cb 6d 82 bd 4f d2 04 bd 55 57 70 3e 76 5e cc bd
       -0.063685976 -0.03242713 0.23470815 -0.099789545
0001c0 5a 54 86 3e 17 51 ca bd 12 c9 2b 3e 98 22 58 3e
       0.2623623 -0.09878748 0.16775921 0.21106946
0001d0 1c b5 cd ba 1a a2 fd bc 9f 17 72 3d 56 7e 46 be
       -0.0015694234 -0.030961085 0.059104558 -0.19384131
0001e0 65 95 35 3e b5 53 92 3b 3d ba 96 3d 21 66 10 be
       0.1773277 0.004465545 0.07359741 -0.14101459
0001f0 84 8a 3c be 1c 43 bc bd 90 96 b2 3d d5 78 44 3e
       -0.18412215 -0.091924876 0.08720124 0.19186719
000200 2b a4 05 3e 08 d4 18 3e 71 d7 19 be 7c 95 28 3e
       0.13050906 0.14924634 -0.1502359 0.16463274
000210 1a 9c 08 bd 5d 0a a2 bd 76 86 a6 3d ef d4 6b 3d
       -0.033351995 -0.07912133 0.08131115 0.057576116
000220 53 35 ac bd 8b bb ed 3d 4f 20 cf bd f6 fa f9 bd
       -0.08408608 0.116080366 -0.10113584 -0.1220607
000230 26 4c 29 be a2 4a 42 3d fc a3 3b 3e b3 3e 2f 3e
       -0.16532955 0.047434457 0.18324274 0.17113762
000240 c3 26 3e 3d 26 2b c9 bd ad af 2d be 38 96 23 3d
       0.046423685 -0.09822683 -0.16961546 0.03993818
000250 9c 00 7d bd ca c6 71 bd 00 c0 0a 3e 9d a8 0e be
       -0.06176816 -0.05902747 0.13549805 -0.13931508
000260 cd ca 42 3e 88 12 11 be 3f 2e 17 be 95 c8 16 be
       0.19022675 -0.14167225 -0.14763735 -0.14724953
000270 1b 00 a4 3d f0 5f 8c bc 0f fa c5 bc e7 2f 86 bd
       0.080078326 -0.01713559 -0.024167089 -0.065521054
000280 b7 9c a5 bd 9f dd 04 3e ad 1c 4f 3e 5d b7 23 be
       -0.080865316 0.12975167 0.20225783 -0.15987916
000290 91 46 1a 3e b8 93 01 3c 34 31 ab 3d e1 1f 04 be
       0.15065981 0.007908754 0.08358994 -0.12902786
0002a0 30 32 01 3e bc 0f 02 bd 3b e0 42 bd 94 59 c3 bc
       0.12616801 -0.031753287 -0.047577124 -0.023846425
0002b0 8e dd 28 3d 1a bc cd 3c 72 ff aa bd ca 08 09 3e
       0.041226916 0.025114108 -0.083495036 0.13382259
0002c0 7f 9f 53 3b eb b3 98 bb 34 d2 a2 3d 45 e3 a5 3d
       0.0032291112 -0.00466012 0.07950249 0.08099989
0002d0 7e 48 cf 3b 57 4d f8 3d aa 5c 4a 3d 6f 50 31 3e
       0.0063257804 0.121241264 0.049404778 0.17315839
0002e0 af d9 37 3e 5e 24 89 3c 68 3b 54 3d 98 6b 94 3d
       0.17954133 0.016740974 0.051814467 0.072470844
0002f0 c9 30 8c bc 9b 22 d9 bd 6c bc a4 3c 78 ec 26 bd
       -0.017113106 -0.106023036 0.020109378 -0.040752858
000300 03 36 2a bd 61 96 e6 3d 73 a7 31 be 6b 84 fb bd
       -0.041555416 0.11259151 -0.17349033 -0.12281116
000310 a8 ff 0b 3c 9d 5e b7 3c 6a dd 90 bc f3 fb 83 3b
       0.00854484 0.022383982 -0.017683703 0.0040278374
000320 c5 f8 87 3b a5 6c 1e bb 60 b1 54 bc 8a f3 81 3b
       0.0041495287 -0.0024173644 -0.012981743 0.0039657997
000330 33 14 88 3b 7b 99 d1 3a bd 0c f2 3b 03 f5 56 3c
       0.0041527986 0.0015991175 0.0073867724 0.013119939
000340 b8 a7 07 bb b9 6d 36 3d 57 4d 0c 3e 06 9c 12 bd
       -0.0020699333 0.044538233 0.13701378 -0.035793327
000350 48 6b 86 3d da f6 38 bd db 3d a2 3d 56 d4 5a bc
       0.06563431 -0.04515729 0.07921954 -0.013356289
000360 04 e2 f2 bc 39 ef d3 3c 2b c7 0f 3e c1 dd 8f 3c
       -0.029648788 0.025870906 0.1404082 0.017561795
000370 15 ab 19 3e 82 fb ab 3c 3c b4 5f bd 43 91 bf 3d
       0.15006669 0.020993952 -0.054615244 0.09353878
000380 7b c6 cd bd a5 c7 1b 3e 39 9a 5a 3e 10 af 51 3e
       -0.10047623 0.15212877 0.21347894 0.20476937
000390 cc ea 43 3e 6f 25 2a bd 50 a2 c7 3c 62 8d aa 39
       0.19132537 -0.041539606 0.024369389 0.00032530265
0003a0 fc 8c f0 3d c6 57 61 bc ef 79 f0 bd d0 d0 70 3e
       0.11745641 -0.013753837 -0.11742007 0.23517156
0003b0 09 2f 28 be e0 d6 d9 bc bd 42 27 3e 13 f5 09 be
       -0.16424192 -0.026591718 0.16334052 -0.13472395
0003c0 04 ad 9c bd 25 b1 72 3d 93 1f 00 be 5a 62 1c be
       -0.076501876 0.05925097 -0.12512045 -0.15271893
0003d0 04 64 33 be 20 52 b4 3c b6 b5 b4 3c 08 12 f1 3d
       -0.17518622 0.022011817 0.022059303 0.11771017
0003e0 eb ac 21 3e df 37 f0 3d 76 1a 02 3e b4 19 bd 3c
       0.15788619 0.117294066 0.12705407 0.023083545
0003f0 9e 03 17 3e a9 da 17 3e fb 2b 43 3e 05 1a 4a 3e
       0.14747474 0.14829506 0.19059746 0.19736488

module.bi_lstm1.weight_hh_l0_reverse f4 [64, 16]
000000 a4 0f 98 bd 03 0f 33 be 30 e6 85 3b f4 17 53 be
       -0.07424858 -0.17486195 0.0040862784 -0.20614606
000010 68 db 66 3d 4f 96 c6 3d b1 35 41 3e 69 92 00 3d
       0.056361586 0.09696638 0.18868138 0.031389628
000020 82 87 81 be 9a b6 33 3e 47 99 21 3e 01 55 e8 bd
       -0.25298697 0.17550126 0.15781127 -0.11344338
000030 37 62 d5 bd a1 1e 41 3e 0e b6 b5 bb 46 8a 7a 3d
       -0.104191236 0.1885934 -0.0055453843 0.061167024
000040 c1 8a 04 be 5f a3 05 3e 77 14 10 be d6 e5 54 3d
       -0.12943555 0.13050602 -0.14070307 0.051977
000050 d1 b2 e4 bc e3 68 da bc 92 90 01 3e 7a f6 c6 bc
       -0.027917298 -0.026661342 0.12652805 -0.024287451
000060 5a 9b 12 3d e6 8e b5 bd fb 81 45 3d 26 21 79 3d
       0.035792686 -0.08865146 0.048219662 0.06082263
000070 6f 8a 40 bd 7a 59 8c bd 2b 9f 24 ba 37 5a d9 3d
       -0.04700702 -0.06853004 -0.00062798214 0.1061291
000080 0a 31 12 3e c5 95 ae bd 0c 5b 88 3d 8b c2 ca 3d
       0.1427652 -0.0852466 0.06657991 0.099003874
000090 d5 c7 e7 bd ba 74 3a 3d 95 e6 24 3e cd c4 5e 3d
       -0.11317412 0.045521475 0.16103585 0.054386903
0000a0 1d 7a b4 bd ad 16 36 be 9a d8 3d 3d a7 5d 23 3d
       -0.08812354 -0.17782088 0.046349145 0.039884236
0000b0 4b be c6 3b 14 dc 10 3e 37 a0 15 bc 75 ef a5 bc
       0.006065165 0.14146453 -0.0091324365 -0.020255784
0000c0 49 33 b0 3b a5 64 02 bd 5b 44 d2 bd 42 c7 3b bc
       0.0053772074 -0.031834263 -0.10266944 -0.011461081
0000d0 98 e1 cd 39 07 99 81 bd 0a b8 d9 3d 62 61 12 bc
       0.00039268727 -0.06328016 0.10630806 -0.008934351
0000e0 06 5a 93 3d 8b b1 b7 bd 8c b8 bc bb 11 9c 61 3c
       0.07194905 -0.089694105 -0.0057593044 0.013770119
0000f0 8f 9d e2 3c 5d 0f db bc b6 d7 0d 3c 45 22 ba 3b
       0.02766302 -0.026740724 0.0086573865 0.005680355
000100 15 07 16 be e9 29 37 be 80 5d 8e bd 16 6a 0e bd
       -0.14651139 -0.17887081 -0.069514275 -0.03476914
000110 27 d7 ac 3c 8c b3 47 be d1 51 50 be 86 ed ad bd
       0.021098686 -0.19502085 -0.2034371 -0.084925696
000120 5c d8 ab 3d 67 72 ef 3c c7 1f 3d 3e f9 3b cf 3d
       0.08390877 0.029229356 0.18469153 0.10118861
000130 70 30 9f bd 3b 21 39 3e dd 3e 54 ba 9b 67 03 3e
       -0.077729106 0.18079083 -0.00080965256 0.12832491
000140 38 9e 3f bd c4 6b ef bc 33 56 08 3d fd dd 16 3c
       -0.04678175 -0.029226191 0.03328533 0.0092082
000150 1a 26 36 3e e6 4d 26 bd a5 cc fc 3c 80 c5 52 3d
       0.17787972 -0.040601633 0.0308593 0.051457882
000160 81 63 98 bd 9e 06 2a be 20 49 b7 bd e5 53 44 3d
       -0.07440854 -0.16604087 -0.08949494 0.04793157
000170 06 7b 31 bd e6 8a 60 3d 72 0c 85 3a ba a5 3a 3d
       -0.043330215 0.054819964 0.0010150804 0.045568205
000180 c8 b5 60 bc 26 80 22 3c 12 93 93 3d f8 18 bc 3d
       -0.013715215 0.009918248 0.07205786 0.0918445
000190 ca 6a 09 bd 94 52 9f 3d d2 6b da 3d db df 49 3d
       -0.033549108 0.077794224 0.10665096 0.04928575
0001a0 18 b8 46 be 62 ea 14 3e f8 a3 03 3e bf 9e 2f 3d
       -0.19406164 0.14542535 0.12855518 0.042876
0001b0 fe f5 5e bc f2 14 c0 bd 74 b7 44 bd bf c9 1b 3d
       -0.013608454 -0.09378995 -0.048026517 0.038034197
0001c0 6c ef 15 3d 55 0a d1 bc e9 7c b2 bd c3 00 c8 bd
       0.036605284 -0.025517622 -0.08715231 -0.0976577
0001d0 53 41 8d bd a4 d0 cb 3d 3f cc 14 3e 28 6f 6a 3d
       -0.06897225 0.099519044 0.14531039 0.057234913
0001e0 ed 93 8a 3d da e9 fc bd a4 66 85 3c b1 2b 58 bd
       0.06766496 -0.12349291 0.016284294 -0.052776042
0001f0 1e 1d 12 3d 4a 29 c1 bd 51 16 9d bc 72 b6 cc bc
       0.0356723 -0.094317034 -0.01917568 -0.02498934
000200 e2 24 e9 3d 49 1a 36 3d 44 4a c0 bd bb ab a7 bb
       0.11383988 0.04445866 -0.09389165 -0.0051169074
000210 d6 66 53 be 06 1e 90 bd 67 aa a1 bd 17 d3 68 be
       -0.20644698 -0.070369765 -0.0789383 -0.22736774
000220 d7 a2 fc 3c 8c bd 45 3e b3 6c 15 be 90 ec 63 3d
       0.030839367 0.19310588 -0.14592247 0.055645525
000230 21 90 1d bd c5 e0 0a be 1a c4 3b 3d 50 bc 59 3b
       -0.03846753 -0.13562305 0.045841314 0.0033223815
000240 1c 4e 1a 3e 2e 95 3e 3d 57 fb 0c be dd ca e0 3d
       0.15068859 0.046528988 -0.13767754 0.10976193
000250 b7 2d d3 bd 56 2a 68 3d 83 51 e8 bc 34 ad 5e 3d
       -0.10311454 0.056681 -0.02835918 0.054364398
000260 e4 c8 62 bd 5f fb 59 3d ad 0b 50 3e 9b 9b 96 bd
       -0.055367365 0.05321824 0.20316954 -0.07353898
000270 74 78 d7 bc 43 9f 0f be a4 cf 19 3c 21 93 2f be
       -0.026302554 -0.14025597 0.009387884 -0.17145969
000280 f0 ee 25 be d3 67 01 3e 1a 9d f5 3c 3f bb c2 3c
       -0.16204429 0.12637262 0.029982138 0.023770927
000290 1f ee 63 3d 19 82 47 3c d6 0f e3 3c 2d 45 8d 3d
       0.05564701 0.012177014 0.027717512 0.0689796
0002a0 e0 a2 d9 bd af a2 2c 3d 34 46 c5 bc 76 a4 8d bd
       -0.10626769 0.042147335 -0.024081327 -0.06916134
0002b0 4c 99 f3 bc 55 c4 39 bc e4 3b df 3c f0 71 28 3e
       -0.029736184 -0.011338313 0.027250238 0.16449714
0002c0 a0 a5 f1 bd 64 97 99 3d 41 41 32 3e 3d ea 15 3e
       -0.117991686 0.074995786 0.17407705 0.14640136
0002d0 b6 91 d4 3d 62 92 d4 bd 67 55 24 be 56 1c 36 be
       0.10379355 -0.10379483 -0.16048203 -0.17784247
0002e0 87 9e a8 bc 7b 6a a9 3d 84 a7 38 3e 5c af dd bd
       -0.020583404 0.08272263 0.18032652 -0.10824463
0002f0 ca 66 37 3d a7 39 06 3e cf b1 9f 3b b2 5b cd bd
       0.04477576 0.1310793 0.0048734914 -0.10027255
000300 66 2b a9 3d 78 8b cb bd 61 ce 23 be f7 c7 bb 3d
       0.08260231 -0.09938711 -0.15996696 0.09169
000310 b5 27 67 bd 8a cb 14 bd 32 b3 c8 bd 6e 51 b8 3c
       -0.056434352 -0.036326922 -0.09799804 0.022499766
000320 0e 4e 31 be 49 ef 48 bd e7 83 6f 3d 6c 31 5c 3d
       -0.17314932 -0.049056325 0.0584754 0.05375807
000330 8d 2f 89 3d df d2 b8 bb 7e 89 83 3c 76 68 3e 3c
       0.06698523 -0.005640372 0.016056772 0.011621585
000340 04 35 de 3c c1 74 5b 3c 1f 86 a9 b9 73 8e 39 be
       0.02712489 0.0133945355 -0.0003233412 -0.18120746
000350 2e 7b c4 bd 69 c9 85 3d 5b 98 81 3d aa e3 6b 3c
       -0.09593807 0.065325566 0.063278876 0.014397541
000360 af ec 94 3d f5 4d 2e be c3 e5 94 bd 95 32 d5 3b
       0.07271706 -0.17021926 -0.07270386 0.006506274
000370 e2 88 8f 3c 65 43 15 be d2 87 ae 3c 2f 98 52 bd
       0.017521325 -0.1457649 0.021304999 -0.051414665
000380 0c 37 74 bc bc 24 30 3c 7a fa 67 3c 24 c7 18 3c
       -0.014905702 0.010750946 0.014158839 0.009324823
000390 07 6d ac bb 89 aa 6d bc 52 d1 f0 bc b7 17 23 bd
       -0.0052620205 -0.014505991 -0.029396687 -0.039817538
0003a0 9e b2 c8 3c 92 0b 2a 3d d1 1d df bb 59 46 f1 3a
       0.024499234 0.04151494 -0.0068089743 0.0018407806
0003b0 fc 15 47 bc 2c ae 8d 3b e6 9d ca 3a ed 9b 04 3c
       -0.012151238 0.0043237414 0.0015458434 0.008093816
0003c0 f5 bb a9 3d 4a 89 5a bc f7 c3 94 3c be 72 4b bd
       0.08287803 -0.013338396 0.01815985 -0.049669974
0003d0 66 3a c9 bc b9 1f 40 3d f0 cc a8 3c b9 63 34 bb
       -0.02456398 0.046905253 0.020605534 -0.002752526
0003e0 ff d7 b2 bb c5 ce 6d bd 65 37 80 bd 06 67 62 3c
       -0.0054578776 -0.05805852 -0.06260566 0.013818508
0003f0 23 fa 13 3d 6a 7b ef bd 0b e0 35 ba 41 bd 52 bd
       0.03612722 -0.11693461 -0.0006937987 -0.051450018

module.bi_lstm1.bias_ih_l0_reverse f4 [64]
000000 8c fd 4e bd e8 e1 3b 3e e3 1b 22 3e 1e 59 b3 bd
       -0.05053477 0.18347895 0.1583095 -0.08757232
000010 26 cd 1f be b8 16 84 bc 67 65 34 3e 15 7f 8f 3d
       -0.15605602 -0.016124114 0.17616807 0.07006661
000020 21 50 6a 3e 94 51 c9 3c b3 a8 0b 3e 7c 25 d4 bc
       0.22882129 0.024575032 0.13638572 -0.02589678
000030 85 39 3d 3e f0 51 0b 3b 8a dc 21 bc 74 a9 c9 bd
       0.18478973 0.0021258555 -0.009879241 -0.09846774
000040 e4 fe 1d 3e 85 a2 92 bd 58 40 0a 3e 3b 98 37 3d
       0.15429264 -0.071599044 0.13501108 0.044822913
000050 bf cc a7 3e e2 0f 0e 3d d8 55 2d bd bd d6 91 bc
       0.32773396 0.034683116 -0.042318195 -0.01780259
000060 20 08 ac 3e 5c 4b d9 bc a1 f1 fb 3d 47 ba 46 bd
       0.3359995 -0.026525192 0.123019464 -0.04851749
000070 b1 ad dd 3a ff 5b 0d be b3 b6 ba 3d 0e 7a 1c 3e
       0.0016912726 -0.13804625 0.09116878 0.15280935
000080 08 8b bc 3d d9 d4 4b be 48 85 1c be ed a1 8e bd
       0.092062056 -0.19905414 -0.15285218 -0.06964479
000090 c4 25 5c 3d 11 14 aa 3b ff 99 76 3d bd e5 55 3e
       0.053746954 0.0051903804 0.060205456 0.2088842
0000a0 74 0d 47 bd 8f cc 70 be 48 8f 4e 3e 23 01 ce 3d
       -0.048596814 -0.23515533 0.20171845 0.100588106
0000b0 3e 4c ea 3d f3 41 4a be 24 7c 30 bb d3 a0 24 3e
       0.11440323 -0.1975172 -0.0026929462 0.16076975
0000c0 9d 13 e8 3d b0 e5 ea 3d 83 38 3e 3e 22 62 74 3d
       0.11331866 0.11469591 0.18576245 0.0596639
0000d0 bc de 86 3e 8e 48 89 3d da 41 49 3d 7c 26 2c 3e
       0.26341808 0.06703292 0.049135067 0.16811556
0000e0 99 a0 16 3e 34 ca 3e 3d 0b 90 ab 3d f3 f7 d2 39
       0.147097 0.046579555 0.083770834 0.00040239058
0000f0 13 af f9 3d c9 47 a7 bd a4 8c 2c bb e2 5f 94 bd
       0.12191596 -0.08167989 -0.0026328946 -0.07244851

module.bi_lstm1.bias_hh_l0_reverse f4 [64]
000000 c1 96 a8 bd 07 5f 29 be e1 48 6e 3e 1d ac c6 3c
       -0.08231879 -0.16540156 0.23269989 0.024251992
000010 98 78 53 3e c7 dd b7 bd cf f5 41 bd 22 81 78 3d
       0.20651472 -0.089778475 -0.047353562 0.060670026
000020 a6 67 20 3e 2e a4 83 bd 0a de eb bd 77 d9 3e be
       0.15664539 -0.06427799 -0.1151696 -0.18637644
000030 a0 50 fb bd 41 db fa bd 20 f9 70 bd 6e d3 a8 3d
       -0.122712374 -0.122488506 -0.058831334 0.08243452
000040 d5 e2 da bd 4e 84 4c bd 46 c4 08 be 14 74 64 3c
       -0.10687796 -0.049930863 -0.13356122 0.013943691
000050 c5 97 99 3e 38 69 29 3e bb 23 b4 3e 17 bb a5 3e
       0.29998603 0.16544044 0.3518351 0.323693
000060 24 3f d8 3d 38 57 b9 bd 56 8c 0c 3e af 73 f1 bc
       0.10558918 -0.09049839 0.13725409 -0.029474108
000070 61 a3 33 3d 9c 1b 55 3e 9f bf 5a 3d ca a5 a4 bd
       0.043856982 0.20811313 0.0534054 -0.08039434
000080 c8 04 41 3d 82 be bf 3d e0 fb 8e be 6f 91 4d be
       0.0471237 0.09362508 -0.2792654 -0.2007501
000090 16 f3 9e bb cb 87 07 3e 08 48 83 3e 3d fc de 3c
       -0.0048507554 0.13235395 0.25640893 0.027219886
0000a0 07 19 db 3d 1b 4a a2 b9 f9 c6 e2 3d 73 f7 ae b9
       0.10698133 -0.0003095426 0.11073107 -0.0003337223
0000b0 d1 e9 af 3c 33 c8 63 3e 28 47 32 be c4 47 00 be
       0.021473797 0.22244339 -0.17409956 -0.12527376
0000c0 46 76 f9 bd a8 9e e4 3c 40 c1 84 3e 3b 4d 15 3e
       -0.12180762 0.027907684 0.25928688 0.14580242
0000d0 e4 ce 2b 3c 59 c6 91 3d c5 9e 29 3e 4e 2a c8 bd
       0.010486338 0.0711791 0.16564472 -0.09773694
0000e0 a2 68 86 3e 73 76 8a 3e b5 63 60 3d e2 09 74 3d
       0.26251704 0.27043495 0.054782588 0.059579737
0000f0 b8 bc 09 be fb 3e b3 bc 87 2f 34 bd fa 62 13 bd
       -0.13450897 -0.021880617 -0.043990638 -0.035983063

module.bi_lstm2.weight_ih_l0 f4 [128, 16]
000000 4a 59 77 3c 25 6a ed bc e9 a9 ab bc e7 67 e2 bc
       0.015096972 -0.028981278 -0.020955043 -0.027637435
000010 7d 25 a5 3c 00 55 c4 bb 61 2e 3e bb 9c 19 20 3c
       0.020159477 -0.005991578 -0.0029019343 0.009771731
000020 aa aa 80 3c 63 98 83 3b 8b 07 2f bc b9 75 c6 3c
       0.015706379 0.0040159686 -0.010682951 0.024226056
000030 89 9e 79 3c b3 c2 b2 bb 54 5c 99 ba c1 3e 93 3b
       0.015235552 -0.005455339 -0.001170049 0.004493565
000040 0a 03 00 3b 61 44 ab ba ef 9f 4f 3b cc 23 6b 3b
       0.0019533061 -0.0013066643 0.0031681021 0.003587949
000050 c0 fc 91 3b 7c ff 18 bb 65 13 2d 3b e0 26 18 3b
       0.004455179 -0.002334564 0.0026409265 0.002321653
000060 13 20 0d 3b 37 6e 44 3b e1 bd 8b 3a f1 b8 75 ba
       0.002153401 0.002997292 0.0010661447 -0.0009373567
000070 e6 d8 8c 3b d5 b2 1f bb 95 0b b8 b9 b7 60 3e 38
       0.0042983172 -0.0024368067 -0.00035103844 4.5389603e-05
000080 57 46 bc ba 33 22 00 bd a0 66 47 bc 99 68 62 3b
       -0.0014364225 -0.031282615 -0.012170464 0.0034547208
000090 27 e1 f4 bb 6f 97 84 3b b0 17 a2 3c 6d 49 be bc
       -0.0074731293 0.0040463726 0.019786686 -0.023228372
0000a0 d2 73 11 bc e2 fc bc 3c 0d 0c e5 bc 88 0c f9 bb
       -0.008877711 0.023069803 -0.027959848 -0.007600371
0000b0 f1 72 ba bb a5 65 94 3b c4 33 6c 39 e3 ca eb 3b
       -0.0056899716 0.0045287185 0.00022525998 0.007195817
0000c0 3b 07 d3 bb 5c 56 04 3c 08 67 9e 3b 5f f7 0f 3c
       -0.006440071 0.00807723 0.0048340596 0.008787005
0000d0 ba cd c5 ba 05 3e 2d bb 31 21 d5 bc a7 df ca bb
       -0.0015091219 -0.0026434672 -0.026016803 -0.006191212
0000e0 ad 98 f7 3a af 4b b3 3b 42 37 3d b8 bc f9 97 ba
       0.0018890105 0.0054716687 -4.5112574e-05 -0.0011594812
0000f0 dd a4 6d bb 1f d4 b9 3a 0e 98 db 39 a5 d3 8e 3b
       -0.0036261596 0.0014177597 0.00041884225 0.004358726
000100 87 cb 48 bb 4d 18 83 3b b4 b4 e1 3a fe 4b d5 bb
       -0.003063889 0.0040006996 0.0017219991 -0.006509303
000110 13 1f 82 3c ce 6f 03 3c 7d ce 83 bb 56 a3 fd ba
       0.015883958 0.008022262 -0.004022418 -0.0019351046
000120 95 2f 3e 3c 3f 4c 3b 3a 8e 37 9b 38 48 a6 82 3b
       0.011608024 0.00071448454 7.401324e-05 0.0039871074
000130 73 a2 02 bc f6 60 8f ba 06 80 80 3b 93 cb cb bb
       -0.007973301 -0.0010938931 0.0039215116 -0.0062193363
000140 60 65 f3 3c 42 98 96 3c ee 6b fc bc 9c 9a ce bc
       0.029711425 0.018383149 -0.030813184 -0.025220208
000150 69 bd 88 3b dd 6c d7 3c b6 9a 58 3d ea b8 53 3c
       0.00417297 0.026297027 0.05288192 0.012922505
000160 f8 95 ad 3a 3a 70 da 3c d9 f8 c0 bb 58 b9 c6 bc
       0.0013243547 0.026664842 -0.00588904 -0.0242583
000170 4a a7 53 bc 79 89 08 3c 46 aa 34 3b 2b 1f a9 3c
       -0.012918303 0.008333557 0.0027567311 0.020644745
000180 78 61 34 ba 88 7d 42 3a a9 8d f8 3a 17 2f 67 39
       -0.0006880979 0.00074192183 0.0018963116 0.00022047419
000190 49 7c 87 ba 65 26 81 ba ed c1 ea ba 7b 6d b7 bb
       -0.0010336722 -0.0009853361 -0.0017910578 -0.005597768
0001a0 f5 33 52 3a d2 8e b8 3a 17 a3 d8 ba f1 d3 83 b9
       0.00080186065 0.001408065 -0.0016528097 -0.00025144176
0001b0 30 b1 83 bb 7a af d9 3a 91 6d 18 3b 63 f7 bd 3a
       -0.004018925 0.0016608082 0.0023258666 0.0014493283
0001c0 2f ef e1 ba a8 24 1f bb 0f 6c 65 39 31 3d bd 39
       -0.001723742 -0.0024283323 0.00021879397 0.0003609448
0001d0 6f ea 05 3c 66 42 57 ba 00 31 1a bb 17 b6 60 3a
       0.008173569 -0.0008211493 -0.0023527741 0.00085720554
0001e0 5e 09 a1 3b 21 e7 92 ba 38 d4 4b 3b 80 8e c8 39
       0.0049144467 -0.0011207798 0.0031101834 0.00038253143
0001f0 af b5 5f 3b 33 95 e5 39 68 cf 04 ba 0b d1 99 39
       0.0034135391 0.00043789446 -0.00050663063 0.00029338183
000200 a4 43 b1 3b 62 a7 08 3b 38 29 8e bb e8 f3 5d bc
       0.0054096747 0.002085172 -0.0043384098 -0.013546921
000210 98 68 96 3c 4f ff 0f 3b dd 68 9d 3b 45 32 51 3a
       0.018360421 0.0021972244 0.0048037604 0.0007980208
000220 42 5e 7d 3c fb ea d4 bb da 6a 9e 3c 9b 3c 63 3c
       0.015464367 -0.0064977384 0.01933806 0.01386943
000230 44 04 18 3c 5a ca a3 3b 26 d7 be ba 59 71 80 bb
       0.009278361 0.0049984874 -0.0014559969 -0.003919762
000240 8b 18 67 3c 55 9d 05 3d 66 b2 91 3c b6 7e 1f bb
       0.014104973 0.032620747 0.017785262 -0.0024337
000250 23 29 90 bc c9 06 93 bb cf 36 ec 3c ab 6d 6c bc
       -0.01759774 -0.004486893 0.028834729 -0.014430444
000260 4e 2d 82 3c 21 a4 21 3d e4 4c 04 bd 14 8b 18 bc
       0.015890744 0.039463166 -0.03229989 -0.009310503
000270 29 54 9c bc 83 f7 d7 3b 00 10 18 3b 3c 26 bd 3c
       -0.0190831 0.006590785 0.0023202896 0.02308952
000280 0a 72 8b bb d3 9a 7c 3b 82 3f b1 3b 06 31 8f ba
       -0.004255538 0.003854443 0.005409182 -0.0010924644
000290 18 5b f2 3b c7 58 77 ba 31 c2 c2 bb b1 e4 92 bb
       0.007396113 -0.0009435531 -0.0059435596 -0.0044828285
0002a0 1a a8 ae 3b 8c ce b4 3a 7c 70 17 bb c8 98 d0 37
       0.005330098 0.0013794466 -0.0023107817 2.4866677e-05
0002b0 5b 3b 34 bb 85 12 99 3a 2e 9f b5 39 eb 20 a0 3b
       -0.00275012 0.0011678493 0.00034641608 0.0048867366
0002c0 60 6c e0 bb f1 0c 53 3b 71 c2 bc b9 50 be b2 bb
       -0.006848857 0.0032203759 -0.00036003024 -0.005454816
0002d0 bf e3 6b bb bc 4d a0 ba dc 4d 7c 3b 66 17 03 bc
       -0.0035993902 -0.0012230198 0.0038498556 -0.008001184
0002e0 62 35 53 3a f2 4b 6b 3c 40 1d e3 bb f5 aa 50 bb
       0.0008056966 0.0143613685 -0.006930977 -0.003184018
0002f0 48 33 a9 bb 64 d8 2a 3b 03 d1 4c 3a a6 92 bd ba
       -0.005163584 0.002606892 0.00078131276 -0.001446326
000300 c8 c1 9d bb d0 4e 0f 3b c8 0c 95 3a ef 16 a9 bb
       -0.0048143603 0.0021867044 0.0011371607 -0.0051602046
000310 9e 18 68 3c c2 9b e6 3b 30 6b ae bb d5 5f ea bb
       0.014166025 0.0070376107 -0.0053228363 -0.0071525373
000320 f3 33 47 3c 44 b3 03 3b bf c3 1b bb 5f 7e 3a 3b
       0.012158382 0.0020095864 -0.0023767797 0.002845667
000330 a5 46 a6 bb 8b 10 86 ba 49 cb 31 3b 20 a3 30 bb
       -0.0050743395 -0.0010228319 0.0027129224 -0.0026952699
000340 2b 0e 7b bb b2 66 9b 3c 31 cf 1a b9 d9 6b 56 b8
       -0.0038308005 0.018969867 -0.0001476377 -5.1122017e-05
000350 c2 ea 03 3c d2 82 30 3b 08 ae 77 3b d3 46 e7 3b
       0.008051576 0.0026933444 0.003779294 0.0070580035
000360 2f f7 fa bb b2 a1 06 3b 1f e5 46 bc 2e 16 55 3b
       -0.007658861 0.0020543155 -0.012139588 0.003251444
000370 be ed 14 3c 78 9a 7e bb e2 a2 b7 bb 77 bf b9 3b
       0.009089885 -0.0038849395 -0.005604134 0.0056685763
000380 ed b6 cc bb 5c 9b 9c 3b 89 67 09 3c fc 8c cd 3b
       -0.0062473924 0.0047792625 0.008386501 0.00627291
000390 ce f9 ba b9 58 52 88 bb bc 25 bd 3a 48 5f fc b9
       -0.00035662804 -0.0041602068 0.0014430801 -0.00048136176
0003a0 9d 79 6c bb d9 dc 6e 3b 26 ff 1b bc 80 ea 3e bb
       -0.003608323 0.0036447553 -0.009521281 -0.0029131472
0003b0 7c 6a c2 bb 6f 72 01 ba aa 9a 60 3a 0d 14 c8 3b
       -0.005933104 -0.00049380114 0.00085679686 0.006105906
0003c0 9e b2 58 bc 2b f0 65 3c 90 80 ef 3b 0f 33 a2 3c
       -0.013226179 0.014034311 0.007309027 0.019799737
0003d0 48 fb d9 bb 35 da bb bb d0 e7 53 bc 63 05 71 bb
       -0.0066522695 -0.0057327994 -0.012933686 -0.0036776892
0003e0 15 3b a2 bb 66 70 f8 bb 4d e7 25 bb 72 d0 f3 3b
       -0.004950891 -0.0075817583 -0.0025314868 0.00744062
0003f0 97 80 25 bb 4a dc 00 3b 4d dd 96 ba d2 5b 7a 3c
       -0.0025253647 0.0019662553 -0.0011510045 0.015280681

module.bi_lstm2.weight_hh_l0 f4 [128, 32]
000000 3d b2 2e 02 ae 8d 00 80 49 9b 00 80 62 8b 00 00
       1.2834653e-37 -5.0825e-41 -5.5706e-41 5.0001e-41
000010 bb 92 00 00 17 89 00 00 c6 8d 00 80 85 8b 00 80
       5.2637e-41 4.9179e-41 -5.0859e-41 -5.005e-41
000020 71 9b 00 00 e2 a6 f2 81 53 8b 00 00 fe 2b 00 00
       5.5762e-41 -8.9136225e-38 4.998e-41 1.5781e-41
000030 1b c6 00 80 4e 8c 00 00 c2 8b 00 80 5a 97 00 00
       -7.1067e-41 5.0332e-41 -5.0136e-41 5.4295e-41
000040 91 89 00 00 11 89 00 00 61 8a 00 80 53 1e 5d 02
       4.935e-41 4.917e-41 -4.9641e-41 1.6245218e-37
000050 67 5f 3a 00 f3 90 00 80 6e 8b 00 00 c3 a2 00 80
       5.360683e-39 -5.1998e-41 5.0018e-41 -5.8388e-41
000060 08 8b 00 80 17 9f 00 80 e8 8a 00 80 d0 94 00 00
       -4.9875e-41 -5.707e-41 -4.983e-41 5.3384e-41
000070 5b 8b 00 00 2a 8a 00 80 de 8c 00 80 49 f5 01 00
       4.9991e-41 -4.9564e-41 -5.0534e-41 1.79827e-40
000080 0a 8d 00 80 ba 92 07 00 36 2a c9 01 b0 91 00 00
       -5.0595e-41 6.95484e-40 7.389631e-38 5.2263e-41
000090 b8 9a 00 00 8e 8a 00 80 df 99 00 80 c9 94 00 80
       5.5503e-41 -4.9704e-41 -5.5199e-41 -5.3374e-41
0000a0 0c 8c 00 00 93 89 00 80 a5 8b 00 00 fd 8a 00 00
       5.024e-41 -4.9352e-41 5.0095e-41 4.986e-41
0000b0 5e 92 00 80 af 32 01 80 e8 8a 00 00 7b a0 00 00
       -5.2507e-41 -1.10017e-40 4.983e-41 5.757e-41
0000c0 12 91 00 80 ab 90 59 00 0d 8b 00 00 c9 8a 00 00
       -5.2041e-41 8.225256e-39 4.9882e-41 4.9787e-41
0000d0 5b 92 00 00 00 8c 00 80 cd 88 00 80 7a 8c 00 00
       5.2502e-41 -5.0223e-41 -4.9075e-41 5.0393e-41
0000e0 7f 94 00 80 c6 9c 00 80 6f 89 00 80 4c 8e 00 80
       -5.327e-41 -5.624e-41 -4.9302e-41 -5.1047e-41
0000f0 76 89 00 80 6c aa 00 00 83 89 00 00 dc 89 00 80
       -4.9312e-41 6.1136e-41 4.933e-41 -4.9455e-41
000100 53 94 00 00 e5 8a 00 00 0f 89 00 80 51 8a 00 00
       5.3209e-41 4.9826e-41 -4.9167e-41 4.9619e-41
000110 85 8c 00 80 06 90 23 00 78 89 00 80 06 90 00 00
       -5.0409e-41 3.265908e-39 -4.9314e-41 5.1666e-41
000120 18 89 00 80 60 1e 02 80 c6 8a 00 00 f5 a7 00 00
       -4.918e-41 -1.94567e-40 4.9783e-41 6.0252e-41
000130 34 8a 00 00 73 8a 00 80 a6 90 00 80 df a2 00 80
       4.9578e-41 -4.9666e-41 -5.189e-41 -5.8427e-41
000140 8f 8b 00 80 5b 8a 00 80 c0 a0 00 00 14 8b 00 80
       -5.0064e-41 -4.9633e-41 5.7666e-41 -4.9892e-41
000150 ef 8b 00 00 d4 b0 00 80 69 88 16 00 66 bb 01 80
       5.0199e-41 -6.3434e-41 2.069316e-39 -1.59061e-40
000160 d8 a3 59 01 82 8c 00 00 87 8a 00 00 4a 8e 00 80
       3.9974157e-38 5.0405e-41 4.9694e-41 -5.1044e-41
000170 aa 8b 00 00 e1 8c 00 00 3b 8b 00 00 c3 78 9f 00
       5.0102e-41 5.0538e-41 4.9946e-41 1.4645165e-38
000180 e3 95 00 80 00 a4 00 80 a4 a2 00 00 4b 8b 00 80
       -5.3769e-41 -5.8832e-41 5.8344e-41 -4.9969e-41
000190 63 9d 00 80 48 89 00 80 57 8d 00 00 59 8a 00 00
       -5.646e-41 -4.9247e-41 5.0703e-41 4.963e-41
0001a0 f4 8b 00 00 65 a3 00 80 c3 88 00 00 88 8f 00 80
       5.0206e-41 -5.8615e-41 4.9061e-41 -5.149e-41
0001b0 fb 19 00 00 00 99 00 00 78 60 00 80 f3 c3 00 00
       9.32e-42 5.4886e-41 -3.4606e-41 7.0293e-41
0001c0 b3 89 00 00 3b 91 00 80 f2 4c 01 00 91 96 00 80
       4.9397e-41 -5.2099e-41 1.19438e-40 -5.4013e-41
0001d0 78 10 00 80 05 89 00 00 69 d3 01 00 e4 8a 00 80
       -5.908e-42 4.9153e-41 1.67675e-40 -4.9825e-41
0001e0 bc 8b 00 00 86 8b 00 80 18 3c 00 00 46 8a 00 00
       5.0127e-41 -5.0052e-41 2.1558e-41 4.9603e-41
0001f0 0e 8c 00 80 21 8c 00 80 06 8c 00 00 ab 41 00 80
       -5.0242e-41 -5.0269e-41 5.0231e-41 -2.3557e-41
000200 54 76 00 00 4c 91 00 00 6b 3a 0f 00 d8 88 00 00
       4.2448e-41 5.2123e-41 1.398489e-39 4.909e-41
000210 c8 9c 03 82 c6 8a 00 80 d9 88 00 80 61 8a 00 00
       -9.669354e-38 -4.9783e-41 -4.9092e-41 4.9641e-41
000220 b3 8a 00 80 05 8a 00 00 17 05 12 80 5a a7 00 00
       -4.9756e-41 4.9512e-41 -1.654865e-39 6.0034e-41
000230 41 8c 00 80 a4 8b 00 80 cb 93 00 80 03 a7 00 00
       -5.0314e-41 -5.0094e-41 -5.3018e-41 5.9913e-41
000240 0e 3d 02 00 70 95 00 80 77 8b 00 80 59 8a 00 00
       2.05573e-40 -5.3608e-41 -5.003e-41 4.963e-41
000250 8d 89 00 80 ae 9f 00 00 04 8a 00 00 25 8c 00 00
       -4.9344e-41 5.7282e-41 4.951e-41 5.0274e-41
000260 f3 eb 02 00 7a 8b 00 80 e2 8a 00 00 0e 62 16 00
       2.68314e-40 -5.0035e-41 4.9822e-41 2.055556e-39
000270 dd 8a 00 00 cc 89 00 00 9c 8a 00 80 cc 8b 00 00
       4.9815e-41 4.9432e-41 -4.9724e-41 5.015e-41
000280 5a 89 00 80 c4 8c 00 00 62 8b 00 80 d4 1c 01 80
       -4.9272e-41 5.0497e-41 -5.0001e-41 -1.02177e-40
000290 3d 8b 00 00 46 23 46 80 5b 89 00 00 51 ab 00 80
       4.9949e-41 -6.441138e-39 4.9274e-41 -6.1457e-41
0002a0 fc b5 00 00 c7 e9 24 01 16 8b 00 80 f0 88 00 80
       6.5284e-41 3.028977e-38 -4.9895e-41 -4.9124e-41
0002b0 d1 c5 01 80 8b a8 00 80 30 89 00 00 53 8b 00 80
       -1.62799e-40 -6.0462e-41 4.9214e-41 -4.998e-41
0002c0 5f 9f 00 00 f4 8a 00 80 40 8c 00 00 10 2d 14 80
       5.7172e-41 -4.9847e-41 5.0312e-41 -1.852875e-39
0002d0 ac 8b 00 80 10 46 00 80 cc 8a 00 80 16 3b 12 02
       -5.0105e-41 -2.5134e-41 -4.9791e-41 1.0743343e-37
0002e0 8e 8d 00 80 a2 91 00 00 77 8a 00 80 47 a7 00 80
       -5.078e-41 5.2243e-41 -4.9672e-41 -6.0008e-41
0002f0 dd 8e 00 00 d7 8a 00 80 d2 8d 04 00 d3 89 00 00
       5.125e-41 -4.9806e-41 4.18218e-40 4.9442e-41
000300 bc 88 00 00 af 07 03 80 c4 8d 00 00 fd 88 00 00
       4.9051e-41 -2.78263e-40 5.0856e-41 4.9142e-41
000310 04 8a 00 80 44 8b 00 80 4d 9c 00 80 a4 8c 00 00
       -4.951e-41 -4.9959e-41 -5.607e-41 5.0452e-41
000320 c2 98 00 00 ff 88 00 00 28 8b 00 80 c6 8c 00 80
       5.4799e-41 4.9145e-41 -4.992e-41 -5.05e-41
000330 a0 90 00 00 b6 94 00 80 a6 8b 00 00 52 a9 00 80
       5.1882e-41 -5.3347e-41 5.0096e-41 -6.074e-41
000340 3d 8b 00 80 24 8c 00 00 b0 9e 00 00 6c 8e 00 00
       -4.9949e-41 5.0273e-41 5.6926e-41 5.1091e-41
000350 b9 8f 00 00 e7 9e 00 00 34 08 2d 81 7c 8b 00 80
       5.1558e-41 5.7003e-41 -3.1780967e-38 -5.0038e-41
000360 22 8c 00 00 b0 80 03 80 bd af 00 00 59 36 00 00
       5.027e-41 -3.21671e-40 6.3043e-41 1.9496e-41
000370 cf 8b 00 00 2a 25 03 00 be 8c 00 00 2d a0 00 00
       5.0154e-41 2.88838e-40 5.0489e-41 5.746e-41
000380 d4 8a 00 00 7c 8e 00 80 48 a2 00 00 c1 8b 00 00
       4.9802e-41 -5.1114e-41 5.8216e-41 5.0134e-41
000390 1f 74 13 81 a0 8a 00 00 8b a0 0f 00 db 8a 00 00
       -2.708295e-38 4.9729e-41 1.435124e-39 4.9812e-41
0003a0 6b 8a 00 00 f4 9c 00 80 15 8b 00 00 a4 97 00 80
       4.9655e-41 -5.6304e-41 4.9893e-41 -5.4398e-41
0003b0 b3 98 00 00 31 89 00 00 16 2a 23 01 8f 09 5d 02
       5.4778e-41 4.9215e-41 2.9968567e-38 1.6239259e-37
0003c0 de 88 00 80 3a 40 00 00 ed 8b 00 80 0c 89 00 80
       -4.9099e-41 2.304e-41 -5.0196e-41 -4.9163e-41
0003d0 02 99 00 00 f5 b1 85 82 36 8e 00 00 1b 12 01 80
       5.4889e-41 -1.9644736e-37 5.1016e-41 -9.833e-41
0003e0 9a 91 00 00 44 8b 00 00 d6 8e 00 00 c4 8b 00 80
       5.2232e-41 4.9959e-41 5.124e-41 -5.0138e-41
0003f0 8b 8d 00 00 24 9d 00 80 93 8b 00 80 1a 8a 00 80
       5.0776e-41 -5.6371e-41 -5.007e-41 -4.9542e-41
