output/basic/FD001/exp_202411011129_bilstm_ep-0014.pth (torch, 238894 bytes, 63 tensors)

module.bi_lstm1.weight_ih_l0 f4 [64, 14]
0.07047637 0.04862579 0.0651883 0.0023163753 0.06337586 0.04663693 0.045507383 0.019854145
0.058802724 0.040718608 0.03540384 0.031880174 0.036483474 0.048629437 -0.045761958 0.006980371
-0.004592616 0.15375222 0.015486516 -0.021015983 -0.011213639 0.017859992 0.049644582 0.022018021
0.02037192 -0.032103814 0.02331516 0.14339349 0.073817365 0.024851162 0.09122013 0.06816
0.09460335 0.070738524 0.046431404 0.0091928765 0.045091186 0.016261548 -0.0060070683 0.123254634
0.043373536 -0.05347526 -0.05038707 -0.006038966 -0.02762618 -0.07048487 0.007933937 0.00864914
0.02596745 -0.034780636 -0.012310346 0.002701405 -0.039293367 0.04401126 0.07377132 0.022729957
0.021742903 0.030529015 0.0118805 -0.047976326 0.020289164 0.0010085101 0.03325546 -0.036782194
0.027649164 -0.0039129555 0.033403095 0.020496443 -0.0209893 0.021153906 0.04259748 0.030812439
0.056590766 0.077071615 0.054332864 -0.01701087 0.07419082 0.08200095 0.04271906 -0.01570322
0.04436852 0.052182462 0.050720923 0.017817302 -0.15844251 -0.09170971 -0.12903742 0.08692297
-0.14781591 -0.069882795 0.0054897703 0.035516594 0.048899878 -0.007668602 0.15329875 -0.103646114
0.090507135 0.13320757 -0.045237854 0.014431875 -0.07355055 -0.16302876 -0.02466784 -0.05064713
-0.13691305 0.11303276 -0.1572425 -0.011422012 -0.15714343 0.12567471 -0.13796994 -0.11133577
-0.06663846 0.016574671 0.005256283 0.050735284 -0.027722511 0.000782459 -0.034300234 -0.016256137
-0.015512451 0.0045179417 0.00088865036 -0.04912807 -0.04568801 -0.013904995 0.009344484 0.014690165
-0.028483622 0.032179262 0.0066505973 0.023502039 0.00060665765 0.014204233 -0.0022062042 0.021130558
-0.004801157 -0.0059835645 0.04800153 -0.00080824294 0.070529595 0.15384504 0.15357672 0.052970383
0.14668019 0.14319167 0.17028446 0.07725393 0.09455605 0.12410941 0.1725741 0.16887954
0.0005920729 -0.012619024 -0.0040046517 0.10402277 -0.040144186 0.023074726 0.07361981 0.031184066
-0.059744213 -0.14348038 -0.029335208 0.070737444 0.023035705 0.070585646 -0.10212147 -0.013328266
0.027068231 0.12106601 0.10224004 0.17753637 0.06163313 0.07827075 0.11377865 0.07810976
0.09430815 0.09535212 0.1117341 0.16598102 0.114391714 0.056242045 -0.01822978 0.07288601
0.040491175 0.12773432 0.047171716 0.016668757 0.02321209 0.08325251 0.036191963 0.0402175
0.04922528 0.0054585314 0.07432704 0.111683555 0.08599106 0.013359308 0.052266996 0.059474006
-0.0108463345 0.06767301 0.11075457 -0.04116005 0.04493944 0.064506255 -0.025633352 0.05534812
0.078177154 0.061251145 -0.008428517 -0.013556477 0.018018551 0.016520616 0.00049950095 -0.029626055
0.0028774983 0.0046992623 0.0012029563 -0.02979663 0.02040427 -0.010713626 -0.03474677 0.04808045
0.047234587 0.02967521 0.03882814 0.015225442 0.063917324 0.0355391 0.044084273 0.01268487
0.056118775 0.029935138 0.038189866 0.026114557 0.02372568 0.029228574 0.068708226 0.010456375
0.050260592 0.07101241 0.046654064 -0.011778634 0.07725994 0.102013886 0.05020588 0.0056947987
0.005068885 0.08574887 0.024426496 0.015997915 0.12032547 0.076238476 0.118042134 0.024241164
00000000: ea55 903d d62b 473d 7281 853d 54ce 173b
00000010: 34cb 813d 5e06 3f3d f365 3a3d 29a5 a23c
00000020: 20db 703d 8ec8 263d 9e03 113d c994 023d
00000030: b26f 153d a92f 473d e470 3bbd 99bb e43b
00000040: a87d 96bb 3971 1d3e 28bb 7d3c b629 acbc
00000050: 69b9 37bc 1e4f 923c 1e58 4b3d 235f b43c
00000060: 03e3 a63c 4a7f 03bd 6fff be3c bed5 123e
00000070: 8f2d 973d aa94 cb3c 9fd1 ba3d 7897 8b3d
00000080: 67bf c13d 5cdf 903d db2e 3e3d b89d 163c
00000090: 89b1 383d f036 853c f1d6 c4bb ed6c fc3d
000000a0: 73a8 313d e008 5bbd ac62 4ebd 85e2 c5bb
000000b0: 4c50 e2bc 5f5a 90bd 58fd 013c 1fb5 0d3c
000000c0: b1b9 d43c 2476 0ebd 55b1 49bc 0e0a 313b
000000d0: 15f2 20bd 2745 343d 6b15 973d 2d34 ba3c
000000e0: 2c1e b23c fc17 fa3c 6ea6 423c d382 44bd
000000f0: 7635 a63c fc2f 843a e136 083d eda8 16bd
00000100: 8080 e23c 4038 80bb afd1 083d 28e8 a73c
00000110: c1f1 abbc f54a ad3c b27a 2e3d 5e6a fc3c
00000120: b8cb 673d b9d7 9d3d 238c 5e3d 615a 8bbc
00000130: 5bf1 973d 1df0 a73d 2efa 2e3d 0aa4 80bc
00000140: c4bb 353d 47bd 553d bec0 4f3d 97f5 913c
00000150: c13e 22be 4dd2 bbbd 6322 04be ac04 b23d
00000160: 0e5d 17be b61e 8fbd 88e3 b33b d979 113d
00000170: 3d4b 483d e548 fbbb 59fa 1c3e 6a44 d4bd
00000180: ce5b b93d 9167 083e 544b 39bd ac73 6c3c
00000190: aca1 96bd 03f1 26be 3614 cabc 5d73 4fbd
000001a0: ef32 0cbe b87d e73d 2e04 21be 6423 3bbc
000001b0: 35ea 20be dfb0 003e fe47 0dbe 0204 e4bd
000001c0: bf79 88bd 9bc7 873c e63c ac3b cdcf 4f3d
000001d0: 521a e3bc ef1d 4d3a 677e 0cbd 972b 85bc
000001e0: ef27 7ebc 3e0b 943b 51f4 683a 843a 49bd
000001f0: 5a23 3bbd c7d1 63bc 9b19 193c 05af 703c
00000200: 7c56 e9bc 67ce 033d 41ed d93b 5987 c03c
00000210: 1b08 1f3a dfb8 683c f795 10bb fe19 ad3c
00000220: 0653 9dbb c711 c4bb 419d 443d 44e0 53ba
00000230: d271 903d 8e89 1d3e 3743 1d3e 79f7 583d
00000240: 5533 163e d6a0 123e 0d5f 2e3e 4f37 9e3d
00000250: 9aa6 c13d 132d fe3d 44b7 303e c2ee 2c3e
00000260: 5735 1b3a 06c0 4ebc 7439 83bb e409 d53d
00000270: 3b6e 24bd 3507 bd3c fcc5 963d ba75 ff3c
00000280: 59b6 74bd 85ec 12be 6450 f0bc cbde 903d
00000290: 60b5 bc3c 358f 903d 1025 d1bd cd5e 5abc
000002a0: 32be dd3c 75f1 f73d 3a63 d13d 18cc 353e
000002b0: 0573 7c3d 6a4c a03d c804 e93d 03f8 9f3d
000002c0: a224 c13d f947 c33d d9d4 e43d eef6 293e
000002d0: 3446 ea3d 0f5e 663d 9f56 95bc 4345 953d
000002e0: 13da 253d c9cc 023e 2137 413d eb8c 883c
000002f0: 4827 be3c 4b80 aa3d 063e 143d 1bbb 243d
00000300: 72a0 493d 7bdd b23b c638 983d 59ba e43d
00000310: 151c b03d 00e1 5a3c eb15 563d 049b 733d
00000320: d3b4 31bc 2698 8a3d 4bd3 e23d 7197 28bd
00000330: 6b12 383d db1b 843d 09fd d1bc b6b4 623d
00000340: 581b a03d 7be2 7a3d c317 0abc fc1b 5ebc
00000350: a49b 933c 3e56 873c f1f0 023a 57b2 f2bc
00000360: 6994 3c3b 45fc 993b 84ac 9d3a 1018 f4bc
00000370: db26 a73c 3488 2fbc a152 0ebd 02f0 443d
00000380: 0e79 413d 6d19 f33c 410a 1f3d 2274 793c
00000390: 16e7 823d 7391 113d b691 343d 33d4 4f3c
000003a0: cddc 653d 893a f53c fa6c 1c3d 32ee d53c
000003b0: 5b5c c23c c370 ef3c e6b6 8c3d 3751 2b3c
000003c0: 0dde 4d3d f46e 913d 5518 3f3d 2cfb 40bc
000003d0: 763a 9e3d a8ec d03d aea4 4d3d 6f9b ba3b
000003e0: e418 a63b 1b9d af3d 131a c83c 0f0e 833c
000003f0: 336d f63d eb22 9c3d 13c0 f13d 6895 c63c

module.bi_lstm1.weight_hh_l0 f4 [64, 16]
-0.0046333773 -0.017485095 0.014618047 -0.014757454 0.0019102998 0.014906391 0.023029435 0.01069312
0.019777907 0.022403248 0.009752546 0.016704392 -0.013935359 0.035095777 0.029412583 -0.01122368
-0.009868017 -0.043228976 0.038983986 0.016310487 -0.012757355 -0.019930897 0.044342246 0.03131297
-0.0003961002 0.027499985 -0.036347672 0.049088422 -0.016274273 0.03267379 0.013719822 -0.012296655
-0.03228192 0.03180927 0.03864923 -0.004333864 -0.0036365835 -0.028579729 0.019275304 0.013902154
0.009116872 0.005852255 -0.047616474 0.024617782 0.04966507 -0.010413024 0.03598879 0.0138944015
-0.0010994109 -0.004864546 0.0024024567 -0.0035425304 -0.0010896188 0.014600215 -0.0053389277 0.0006506568
0.0008583877 0.0037969628 0.025850527 0.004844173 -0.02481493 0.008804279 0.00325312 -0.0003685359
-0.028550439 0.008094675 0.024934445 0.014834714 -0.012701255 -0.04379889 0.007624188 0.015120341
-0.0017643793 0.010953687 -0.064263344 0.0043946635 0.053433023 -0.014799895 -0.002379993 0.0030557627
0.008404805 0.008325303 0.008705989 -0.0032594148 0.0018630405 -0.010650824 0.0030054697 -0.001141612
-0.009213767 -0.0064596217 0.016871449 0.003103001 0.018982159 -0.011970491 0.013356984 0.008340713
-0.013358008 -0.010343364 -0.022856778 0.014996814 0.0022480092 0.011004252 0.029452074 0.012467142
-0.0035262431 -0.0006869605 -0.036634244 0.059019532 0.0023064313 -0.011558347 -0.05540839 -0.016200697
-0.025591686 0.03784711 0.0130784195 0.018798098 0.0028331846 -0.006029883 -0.0747654 -0.0023796356
0.008266335 0.0073579997 -0.054956425 -0.004907554 0.06358093 -0.021343488 -0.026059154 -0.0015367005
0.0048999265 0.0024829863 -0.015250442 -0.0031326083 -0.0034297637 0.018498754 -0.018376263 -0.0022351001
-0.008309738 -0.0052581145 0.04530413 0.0038035426 -0.018063186 -0.008316356 0.0011385047 0.0022749589
0.004344637 -0.011560095 -0.0037660939 0.0023446055 -0.00500373 0.031921122 0.0075923484 0.006868833
0.0042895726 0.0017209285 0.013172721 0.0042803246 -0.035231717 0.020003099 0.00542144 -0.0034167184
-0.06730779 -0.023620587 0.09460739 -0.02464856 -0.0109426435 0.043345958 0.06676703 0.046508655
0.052478004 0.05962491 -0.06725423 0.051890932 -0.0027423839 0.05285954 0.082027934 -0.027939236
-0.011562694 0.048170563 -0.00036187802 -0.0048462297 0.0039522136 -0.014869184 -0.02280957 -0.005539105
0.0035088537 -0.010119462 0.0033248079 0.02101997 0.02912438 -0.024534527 -0.008638913 0.011110164
-0.025814805 -0.030849276 0.07197444 0.0088710785 0.0058703776 0.010383101 0.05635889 0.0410624
0.003913523 0.0404084 -0.022293106 0.04323907 0.006356126 0.02201816 0.048363145 -0.019379552
-0.01897126 -0.037178878 0.03540986 0.01626719 -0.01707848 -0.001173976 0.042641267 0.033752203
0.0008132879 0.027538795 -0.0641838 0.037251376 -0.021225715 0.025231522 0.019373627 -0.0141600855
-0.009426322 0.00039198433 0.0037204674 0.00043804428 -0.008277542 0.016486987 0.025876168 0.011326274
0.0051062377 0.009148922 0.011237083 -0.003742885 0.00022664727 0.0038108642 -0.01041874 0.00036388365
0.008638396 0.0010053717 -0.005631144 -0.002197956 0.0026321127 -0.00550216 -0.0044019134 -0.003676687
-0.004947127 -0.0041525406 0.034281142 -0.0048989793 0.0009078063 -0.006255458 -0.0014136151 0.002449285
00000000: 96d3 97bb e73c 8fbc 8880 6f3c 40c9 71bc
00000010: 0663 fa3a ef39 743c 3aa8 bc3c 3232 2f3c
00000020: 4705 a23c 0487 b73c 25c9 1f3c a6d7 883c
00000030: 2251 64bc 97c0 0f3d a8f2 f03c 87e3 37bc
00000040: 77ad 21bc de10 31bd acad 1f3d 929d 853c
00000050: 3a04 51bc 1f46 a3bc 37a0 353d 0742 003d
00000060: abab cfb9 a647 e13c 4ce1 14bd f110 493d
00000070: a051 85bc f4d4 053d 1bc9 603c e977 49bc
00000080: 0c3a 04bd 704a 023d a84e 1e3d 1603 8ebb
00000090: bf53 6ebb 0920 eabc 3ee7 9d3c dcc5 633c
000000a0: ef5e 153c 46c4 bf3b 7e09 43bd 3bab c93c
000000b0: 9a6d 4b3d 639b 2abc fb68 133d 58a5 633c
000000c0: 1c1a 90ba c566 9fbb 8972 1d3b cc29 68bb
000000d0: 8ad1 8eba bd35 6f3c 2cf2 aebb d790 2a3a
000000e0: 6c05 613a 77d6 783b 7cc4 d33c debb 9e3b
000000f0: ae48 cbbc d33f 103c 4c32 553b 0d38 c1b9
00000100: 9ce2 e9bc 879f 043c 5243 cc3c 4d0d 733c
00000110: ed18 50bc 7766 33bd 53d4 f93b 4fbb 773c
00000120: bf42 e7ba 1877 333c 809c 83bd 1c01 903b
00000130: 96dc 5a3d 427b 72bc a8f9 1bbb 3143 483b
00000140: 4fb4 093c da66 083c 91a3 0e3c e89b 55bb
00000150: 4431 f43a cb80 2ebc 6af7 443b 24a2 95ba
00000160: 57f5 16bc 3cab d3bb fe35 8a3c b85b 4b3b
00000170: 7980 9b3c e11f 44bc 40d7 5a3c 7ca7 083c
00000180: 8cdb 5abc 3777 29bc 233e bbbc 32b5 753c
00000190: 5653 133b 2e4b 343c 7a45 f13c fc42 4c3c
000001a0: 8b18 67bb 2415 34ba ca0d 16bd 77be 713d
000001b0: 7f27 173b 395f 3dbc e8f3 62bd 53b7 84bc
000001c0: a8a5 d1bc 9205 1b3d de46 563c 78fe 993c
000001d0: f3ac 393b 5396 c5bb 9a1e 99bd a9f3 1bbb
000001e0: 866f 073c 601b f13b fd19 61bd 8ccf a0bb
000001f0: b836 823d 8ad8 aebc 027a d5bc 1d6b c9ba
00000200: 908f a03b 99b9 223b fddc 79bc 724c 4dbb
00000210: e3c5 60bb b38a 973c d189 96bc c27a 12bb
00000220: 9125 08bc 434c acbb d390 393d db44 793b
00000230: 3ff9 93bc 5341 08bc e139 953a 7a17 153b
00000240: 755d 8e3b 8d66 3dbc 92d0 76bb f4a7 193b
00000250: 54f6 a3bb b9bf 023d 3cc9 f83b f313 e13b
00000260: 8b8f 8c3b c790 e13a 65d2 573c f741 8c3b
00000270: 224f 10bd 8add a33c 56a6 b13b 06eb 5fbb
00000280: abd8 89bd f67f c1bc 85c1 c13d c7eb c9bc
00000290: c648 33bc 888b 313d 27bd 883d dc7f 3e3d
000002a0: 2df3 563d 4039 743d 96bc 89bd 968b 543d
000002b0: 91b9 33bb 3f83 583d 43fe a73d d3e0 e4bc
000002c0: 7471 3dbc 7f4e 453d 72ba bdb9 1fcd 9ebb
000002d0: 9281 813b e19d 73bc 23db babc 6181 b5bb
000002e0: ccf4 653b 1acc 25bc 05e5 593b 1232 ac3c
000002f0: 4096 ee3c a2fc c8bc 3a8a 0dbc 6807 363c
00000300: 9279 d3bc 9fb7 fcbc 5667 933d 0058 113c
00000310: 4c5c c03b e21d 2a3c 94d8 663d 0c31 283d
00000320: 033d 803b 4783 253d 08a0 b6bc 731b 313d
00000330: 0d47 d03b 6e5f b43c 6f18 463d dec1 9ebc
00000340: 9e69 9bbc e148 18bd ee09 113d c542 853c
00000350: 2be8 8bbc 19e0 99ba 9ca8 2e3d c03f 0a3d
00000360: d432 553a 0a99 e13c cc72 83bd e694 183d
00000370: 8de1 adbc 56b2 ce3c 71b5 9e3c b4ff 67bc
00000380: dc70 1abc 3f83 cd39 16d3 733b 4fa9 e539
00000390: 879e 07bc b80f 873c 42fa d33c d691 393c
000003a0: 3a52 a73b 5ce5 153c be1b 383c 314b 75bb
000003b0: 2aa8 6d39 b1bf 793b 5db3 2abc a3c7 be39
000003c0: 0f88 0d3c adc6 833a 7685 b8bb 950b 10bb
000003d0: 867f 2c3b 774b b4bb ed3d 90bb 92f4 70bb
000003e0: 821b a2bb 0912 88bb 626a 0c3d 9e87 a0bb
000003f0: d9f9 6d3a 96fa ccbb 0d49 b9ba 2f84 203b

module.bi_lstm1.bias_ih_l0 f4 [64]
0.08350132 0.06858941 0.05089452 -0.074283786 -0.06827513 0.14514427 -0.08682394 0.039701916
-0.0061148363 -0.031747367 0.18475734 0.003591777 0.1766011 0.15188114 0.09493139 0.040481232
0.035539947 0.12470666 -0.017575208 0.05750062 0.014062886 0.15535279 0.06708277 0.08435514
0.04859484 -0.02799297 0.26967046 -0.080735974 0.123317644 0.028053457 0.03710911 0.035315335
0.022845287 -0.1813237 0.18248816 0.013074641 0.10883098 0.19112423 0.13236697 0.014627831
0.16931008 0.2161457 -0.19497958 0.15799004 -0.026542753 0.19392265 0.09155967 -0.20893586
-0.0018759894 -0.070258684 -0.10020516 0.053824894 0.03127614 0.08724052 0.04762561 -0.017209083
-0.012752367 0.039197937 0.060772587 0.05701781 0.05880579 -0.05499121 -0.088220395 0.01705629
00000000: bd02 ab3d 9b78 8c3d c676 503d 1922 98bd
00000010: d5d3 8bbd b3a0 143e c0d0 b1bd 7a9e 223d
00000020: f75e c8bb 8709 02bd 0731 3d3e 0564 6b3b
00000030: ebd6 343e bb86 1b3e 636b c23d a6cf 253d
00000040: 5692 113d 3566 ff3d e2f9 8fbc c585 6b3d
00000050: 0568 663c cd14 1f3e b162 893d 63c2 ac3d
00000060: 620b 473d 8351 e5bc 3f12 8a3e e758 a5bd
00000070: f68d fc3d 5dd0 e53c b9ff 173d d0a6 103d
00000080: 0a26 bb3c ecac 39be 2dde 3a3e 0537 563c
00000090: c7e2 de3d 12b6 433e 358b 073e 92a9 6f3c
000000a0: 9f5f 2d3e 4c55 5d3e baa8 47be 24c8 213e
000000b0: 3070 d9bc a993 463e a383 bb3d 48f3 55be
000000c0: c2e3 f5ba c9e3 8fbd 5d38 cdbd 7e77 5c3d
000000d0: 691b 003d 28ab b23d 1213 433d 10fa 8cbc
000000e0: 4eef 50bc 048e 203d adec 783d 828b 693d
000000f0: 57de 703d 773e 61bd e5ac b4bd a2b9 8b3c

module.bi_lstm1.bias_hh_l0 f4 [64]
-0.028711127 0.16589214 0.12398286 0.13004898 -0.080424346 0.10434291 0.028997095 -0.14193949
-0.033937942 0.032652512 0.0037643637 0.040726572 0.18664128 0.070134096 0.049113035 0.04476442
-0.006113464 -0.01921651 -0.065080516 -0.07505749 -0.045918956 0.06307959 -0.0007865286 0.12205053
0.053756554 -0.01908649 0.24007002 0.1064445 0.11268442 0.12168444 -0.08410467 -0.07170781
-0.17991522 -0.049751412 -0.02330106 0.028960109 -0.021972619 -0.035159662 0.21016869 0.1984222
0.13655429 -0.15106125 0.20915073 0.16696782 -0.21636751 0.039552283 0.05504471 -0.10167812
-0.036752902 -0.01123202 -0.005969119 0.0500915 -0.085465774 0.0665208 0.10168285 -0.03329793
-0.0368037 -0.08948032 0.23471756 0.0030500123 0.22262579 0.06576561 0.020575434 -0.13410014
00000000: 9933 ebbc a1df 293e baea fd3d 8f2b 053e
00000010: 85b5 a4bd bcb1 d53d 518b ed3c 9658 11be
00000020: 8302 0bbd a4be 053d 8bb3 763b e8d0 263d
00000030: e41e 3f3e 77a2 8f3d c02a 493d e55a 373d
00000040: 7453 c8bb f16b 9dbc ef48 85bd beb7 99bd
00000050: 8415 3cbd df2f 813d 0a2f 4eba a1f5 f93d
00000060: d52f 5c3d 455b 9cbc ead4 753e 93ff d93d
00000070: 17c7 e63d b135 f93d 123f acbd 8bdb 92bd
00000080: b23b 38be 23c8 4bbd dde1 bebc c03d ed3c
00000090: ecff b3bc 9403 10bd 7636 573e 302f 4b3e
000000a0: e3d4 0b3e cdaf 1abe 9c2b 563e 9df9 2a3e
000000b0: 728f 5dbe 9301 223d 9076 613d 9e3c d0bd
000000c0: 368a 16bd 8206 38bc 9998 c3bb bf2c 4d3d
000000d0: ae08 afbd 0f3c 883d 193f d03d 6963 08bd
000000e0: 7abf 16bd 7541 b7bd cd59 703e b7e2 473b
000000f0: 04f8 633e 1fb0 863d d08d a83c 8c51 09be

module.bi_lstm1.weight_ih_l0_reverse f4 [64, 14]
0.02929787 -0.21095215 0.2140587 0.044807848 -0.18965718 -0.1924762 -0.16552755 -0.010477262
-0.13038613 0.10656324 -0.15697841 -0.008855245 -0.09540799 -0.0045561744 0.1525934 0.13575059
-0.09612638 -0.17802253 0.11184068 -0.09006569 -0.14366257 0.1458721 0.042828586 -0.12481383
0.047922064 0.14129904 0.19607602 0.21730334 -0.040868632 -0.14275828 0.07898531 -0.09992185
-0.14799875 -0.07640641 0.0984755 0.10178409 -0.19925837 0.1252207 -0.1752627 -0.11156345
0.18406212 0.1414418 -0.09285896 0.18981554 0.111731045 0.11745806 0.17325974 -0.042882986
-0.12858991 -0.16342627 0.14293341 0.040916797 0.0048175748 6.0029164e-05 -0.13414544 -0.017480776
0.020722765 -0.01659177 -0.15355988 -0.17280306 -0.07248482 -0.050278913 0.095206104 0.013858654
0.2340971 -0.11242139 0.035685208 0.04267685 0.038798925 0.23843345 0.115804784 0.058466174
0.15016323 -0.054735586 0.12011261 0.07472631 0.17204288 0.062074937 -0.13523734 0.12971386
0.1079183 0.18907662 -0.05925001 -0.13600093 -0.13433848 -0.001180965 -0.026612537 0.11960202
0.22129442 -0.000101976875 0.09529001 -0.018757798 0.21229362 0.121764496 0.016602116 -0.11539323
-0.07676615 -0.17440431 0.28403154 0.18493256 0.0059979176 0.109186284 0.12083588 -0.026927829
-0.012683472 0.14883596 0.23639843 -0.047314886 -0.05622104 -0.015457601 0.2360332 -0.10293997
0.26839915 -0.09186834 0.1671627 0.22112939 -0.014928984 -0.033340167 0.050844964 -0.18118304
0.16401783 0.006210557 0.07816996 -0.1464108 -0.16069695 -0.081257164 0.08945433 0.18761192
0.13295373 0.15108044 -0.15840057 0.17549615 -0.037649393 -0.09105704 0.09141244 0.054051884
-0.09674733 0.11688488 -0.12513101 -0.1356094 -0.18744838 0.054360256 0.19941884 0.17868252
0.061668523 -0.1044989 -0.16948774 0.039220136 -0.05345692 -0.058464505 0.14536972 -0.13999945
0.19738251 -0.15453532 -0.15189002 -0.15305056 0.08262483 -0.014001072 -0.035824258 -0.07345701
-0.092591085 0.14131929 0.20270026 -0.1755617 0.15802297 0.0038155855 0.09739253 -0.12588407
0.10949517 -0.05795743 -0.07462532 -0.044895113 0.017907044 0.01751927 -0.11657703 0.123557374
-0.027620338 -0.019339265 0.07078158 0.08389113 -0.014296905 0.10594865 0.04824127 0.17654403
0.18393373 0.016027156 0.048872307 0.07372977 -0.022851877 -0.11244749 0.019032413 -0.048502795
-0.04922953 0.11631535 -0.18564838 -0.1309956 -0.012773245 0.03693053 -0.04218634 -0.0015584657
-0.012317727 0.0029910572 -0.030577946 0.0013783221 -0.008457264 0.012330341 0.0035175914 0.030203216
-0.019489981 0.071505725 0.16489983 -0.06721769 0.0727332 -0.053746723 0.070053115 -0.026690573
-0.062353082 0.02798733 0.1604304 0.019644402 0.16547069 0.0050174003 -0.069713175 0.107017815
-0.10809829 0.15560043 0.21761474 0.20566306 0.20112796 -0.041206975 0.027767165 -0.004310339
0.12621298 -0.010070628 -0.12337674 0.24504752 -0.17514867 -0.03384039 0.1737453 -0.13922086
-0.079726964 0.060923476 -0.12809499 -0.1799207 -0.1790306 0.022358337 0.03660228 0.13677748
0.17311361 0.1352821 0.1333135 0.020840025 0.1573919 0.15268952 0.20219406 0.20359823
00000000: 1602 f03c d703 58be 3432 5b3e 6f88 373d
00000010: 7e35 42be 7b18 45be 0e80 29be d2a8 2bbc
00000020: f183 05be d43d da3d f3be 20be 9715 11bc
00000030: 4465 c3bd f64b 95bb 7241 1c3e 3402 0b3e
00000040: e8dd c4bd 8a4b 36be ba0c e53d 5c74 b8bd
00000050: 481c 13be 7f5f 153e 076d 2f3d 659e ffbd
00000060: ed49 443d b2b0 103e 27c8 483e c484 5e3e
00000070: de65 27bd 3a2f 12be 0dc3 a13d d4a3 ccbd
00000080: fc8c 17be f77a 9cbd 86ad c93d 2d74 d03d
00000090: 630a 4cbe db39 003e 1178 33be 617b e4bd
000000a0: c87a 3c3e 1fd6 103e d72c bebd 015f 423e
000000b0: 3fd3 e43d da8d f03d 006b 313e 12a6 2fbd
000000c0: 13ad 03be 3759 27be 235d 123e 5f98 273d
000000d0: bfdc 9d3b d3c7 7b38 6c5d 09be d833 8fbc
000000e0: cac2 a93c 77eb 87bc cd3e 1dbe 49f3 30be
000000f0: ec72 94bd 43f1 4dbd 6bfb c23d 680f 633c
00000100: 26b7 6f3e 303d e6bd a72a 123d eccd 2e3d
00000110: 9feb 1e3d e627 743e 0f2b ed3d 3a7a 6f3d
00000120: 64c4 193e 6c32 60bd 9afd f53d 1c0a 993d
00000130: 022c 303e 4a42 7e3d a87b 0abe b6d3 043e
00000140: 4504 dd3d 4d9d 413e 23b0 72bd d443 0bbe
00000150: 0790 09be 9cca 9aba 8902 dabc e7f1 f43d
00000160: 019b 623e 6bdc d5b8 6927 c33d f4a9 99bc
00000170: 8063 593e aa5f f93d 2901 883c 4953 ecbd
00000180: 9237 9dbd 0b97 32be 956c 913e f65e 3d3e
00000190: 2e8a c43b 0f9d df3d cd78 f73d c097 dcbc
000001a0: 56ce 4fbc 7468 183e 6e12 723e 41cd 41bd
000001b0: 0948 66bd e141 7dbc b0b2 713e 31d2 d2bd
000001c0: 9d6b 893e 7825 bcbd b32c 2b3e be6f 623e
000001d0: b398 74bc b38f 08bd cf42 503d 0c88 39be
000001e0: 4af4 273e ee81 cb3b 9217 a03d b6ec 15be
000001f0: be8d 24be 286a a6bd d533 b73d 571d 403e
00000200: 0625 083e d5b4 1a3e c233 22be 43b5 333e
00000210: 4036 1abd 1d7c babd 7236 bb3d 8265 5d3d
00000220: 7723 c6bd 5761 ef3d 5822 00be 31dd 0abe
00000230: 78f2 3fbe dca8 5e3d 7434 4c3e 8df8 363e
00000240: 2298 7c3d 8503 d6bd 328e 2dbe 4ba5 203d
00000250: a5f5 5abd 7a78 6fbd cddb 143e 045c 0fbe
00000260: a41e 4a3e 823e 1ebe 0f89 1bbe 49b9 1cbe
00000270: 3537 a93d c164 65bc 75bc 12bd a170 96bd
00000280: 65a0 bdbd 01b6 103e a890 4f3e 72c6 33be
00000290: c6d0 213e e70e 7a3b bc75 c73d c1e7 00be
000002a0: 013f e03d c564 6dbd 29d5 98bd f0e3 37bd
000002b0: cbb1 923c 9284 8f3c f0bf eebd a60b fd3d
000002c0: 0c44 e2bc 616d 9ebc eff5 903d 1dcf ab3d
000002d0: 913d 6abc 9bfb d83d a398 453d f5c7 343e
000002e0: 2059 3c3e 624b 833c 542e 483d a2ff 963d
000002f0: dc33 bbbc df4a e6bd dde9 9b3c deaa 46bd
00000300: e7a4 49bd be36 ee3d 9c1a 3ebe b623 06be
00000310: df46 51bc 7844 173d 95cb 2cbd 6e45 ccba
00000320: 4bd0 49bc 9d05 443b 9a7e fabc d1a8 b43a
00000330: 5690 0abc 3305 4a3c 6487 663b bc6c f73c
00000340: 74a9 9fbc 9871 923d 80db 283e 6ea9 89bd
00000350: 25f5 943d 8625 5cbd 0278 8f3d 30a6 dabc
00000360: f265 7fbd af45 e53c de47 243e 4ced a03c
00000370: 2671 293e 0169 a43b c8c5 8ebd 282c db3d
00000380: a362 ddbd b855 1f3e 66d6 5e3e 5699 523e
00000390: 7df4 4d3e a5c8 28bd f777 e33c bf3d 8dbb
000003a0: fa3d 013e 46ff 24bc f2ac fcbd bded 7a3e
000003b0: 2c5a 33be 399c 0abd 4aea 313e ea8f 0ebe
000003c0: e447 a3bd e58a 793d 552b 03be 223d 38be
000003d0: cc53 37be d528 b73c 46ec 153d 650f 0c3e
000003e0: b244 313e 6487 0a3e 5683 083e b3b8 aa3c
000003f0: 582b 213e a45a 1c3e f60b 4f3e 0e7c 503e

module.bi_lstm1.weight_hh_l0_reverse f4 [64, 16]
-0.07894114 -0.1830396 0.0044726464 -0.21419406 0.07778718 0.10179415 0.18960269 0.034599055
-0.26474112 0.17961052 0.1650006 -0.12666045 -0.11974407 0.19338535 -0.010815767 0.061897364
-0.1449546 0.15077534 -0.15563823 0.05318305 -0.0121624 -0.024985658 0.1428319 -0.021502571
0.03824565 -0.10027097 0.055260185 0.076301634 -0.053829078 -0.092995256 -0.0025038354 0.110480666
0.17224619 -0.111412525 0.077794485 0.11160778 -0.13359375 0.051563717 0.21500081 0.091137506
-0.09571648 -0.19869867 0.05006962 0.051166058 0.017135844 0.15623398 -0.012267732 -0.025553867
0.026820997 -0.050155837 -0.1316897 -0.014086253 -0.0101361 -0.0748679 0.16519478 0.0041934047
0.0734336 -0.11452225 -0.0026831846 0.02320645 0.08076221 -0.033377632 -0.002453186 0.007816099
-0.14226353 -0.20304258 -0.07954525 -0.038586635 0.033454545 -0.1912333 -0.17053932 -0.061194427
0.06700248 0.019960873 0.19384249 0.1099433 -0.037608434 0.1833711 0.0031670183 0.124333166
-0.050240166 -0.032545023 0.039378017 0.016658112 0.17341404 -0.04944728 0.039801773 0.062496897
-0.11801924 -0.17555785 -0.10481312 0.06312774 -0.052877937 0.069036976 0.011931109 0.05594788
-0.01671912 0.007810318 0.069202885 0.08621723 -0.0053758346 0.09032742 0.1050107 0.04778675
-0.18277924 0.1422243 0.14152147 0.053850614 -0.030278854 -0.111983284 -0.04459422 0.02721831
0.044794045 -0.025664287 -0.10117209 -0.11377817 -0.044737134 0.11917538 0.14389645 0.06520276
0.097208045 -0.14242405 0.025377057 -0.055245146 0.047773853 -0.12094219 -0.017858226 -0.040679615
0.14233875 0.030866038 -0.11398644 -0.014438789 -0.20018958 -0.059869714 -0.063410364 -0.22275773
0.02615367 0.1852885 -0.1410526 0.062373776 -0.019892946 -0.14868313 0.032153152 -0.002971513
0.1608224 0.07129647 -0.13439049 0.13105975 -0.12148289 0.04844043 -0.04323319 0.0635583
-0.06379082 0.07045219 0.21249181 -0.096062094 -0.06617667 -0.14876716 0.017233042 -0.17413503
-0.16889952 0.1352248 0.025363121 0.023930695 0.04018232 0.018157613 0.048923075 0.0956404
-0.14999563 0.032527175 -0.02284712 -0.09775331 0.0025734128 -0.031124571 0.017595012 0.17798467
-0.12697673 0.083697684 0.1827842 0.1561899 0.110129274 -0.11087257 -0.1718018 -0.19434884
-0.025653703 0.085695 0.19710545 -0.12600166 0.064627334 0.15093051 0.006720115 -0.10768729
0.08082443 -0.09790337 -0.1634084 0.12037791 -0.04699875 -0.054344956 -0.10781756 0.022972023
-0.19056317 -0.043681853 0.054496914 0.04801631 0.076652184 0.0021438634 0.013651419 0.031265862
0.022242635 0.023837926 0.0050580343 -0.1874352 -0.09219461 0.06350419 0.056327693 0.009468522
0.09632451 -0.17285357 -0.079944625 0.00394013 0.008311284 -0.15077387 0.027826332 -0.04684432
-0.017131599 0.017644534 0.003040474 0.013125498 0.0075072036 -0.007980227 -0.008922319 -0.030146236
0.026961599 0.022511143 -0.0034790738 0.0023760085 -0.0037716753 0.0019607567 -0.0013112482 0.0012963681
0.10171022 -0.00090621796 0.035883218 -0.04822543 -0.059888203 0.04399033 0.012529685 -0.012570316
-0.012625394 -0.056400266 -0.09252141 0.021517776 0.047981776 -0.13844001 0.0035523772 -0.046198472
00000000: e4ab a1bd bc6e 3bbe 478f 923b b055 5bbe
00000010: e34e 9f3d 7479 d03d 3527 423e bdb7 0d3d
00000020: 268c 87be d2eb 373e ebf5 283e 47b3 01be
00000030: 613c f5bd cf06 463e 9d34 31bc 1788 7d3d
00000040: fb6e 14be da64 1a3e a15f 1fbe 78d6 593d
00000050: ce44 47bc b9ae ccbc 8742 123e 2926 b0bc
00000060: 78a7 1c3d de5a cdbd 8158 623d 0844 9c3d
00000070: e17b 5cbd 4c74 bebd 6317 24bb b043 e23d
00000080: 4e61 303e 402c e4bd b752 9f3d 9f92 e43d
00000090: cdcc 08be 7a34 533d 2c29 5c3e 4da6 ba3d
000000a0: 0007 c4bd aa77 4bbe cd15 4d3d 8093 513d
000000b0: 7860 8c3c cdfb 1f3e 99fe 48bc 5856 d1bc
000000c0: b5b7 db3c 3570 4dbd aad9 06be 07ca 66bc
000000d0: e311 26bc 5754 99bd d228 293e d468 893b
000000e0: 5b64 963d a48a eabd 5ed8 2fbb 741b be3c
000000f0: a866 a53d fcb6 08bd a2c5 20bb 180f 003c
00000100: 88ad 11be 65ea 4fbe 9fe8 a2bd 050d 1ebd
00000110: a207 093d aad2 43be dca1 2ebe 02a7 7abd
00000120: 9938 893d fc84 a33c a57e 463e f429 e13d
00000130: 4d0b 1abd a2c5 3b3e c08d 4f3b 63a2 fe3d
00000140: a2c8 4dbd ee4d 05bd d84a 213d 9876 883c
00000150: 7393 313e 3b89 4abd 2f07 233d bffc 7f3d
00000160: 12b4 f1bd 70c5 33be 43a8 d6bd 1e49 813d
00000170: 8996 58bd 4263 8d3d b37a 433c 9b29 653d
00000180: 89f6 88bc b2ed ff3b 3eba 8d3d a992 b03d
00000190: c527 b0bb 95fd b83d da0f d73d 0abc 433d
000001a0: 7b2a 3bbe 3fa3 113e 01eb 103e 7692 5c3d
000001b0: 5c0b f8bc 7e57 e5bd 6ea8 36bd eff8 de3c
000001c0: f679 373d e93d d2bc 5033 cfbd 8704 e9bd
000001d0: 493e 37bd 3912 f43d 9759 133e 0689 853d
000001e0: 0315 c73d 9cd7 11be 8ce3 cf3c bc48 62bd
000001f0: 84ae 433d 8ab0 f7bd 6a4b 92bc ab9f 26bd
00000200: 40c1 113e c6da fc3c b971 e9bd ac90 6cbc
00000210: 7ffe 4cbe f239 75bd 4bdd 81bd 9a1a 64be
00000220: 3940 d63c 45bc 3d3e 1870 10be a57b 7f3d
00000230: 88f6 a2bc 6440 18be 06b3 033d b7bd 42bb
00000240: a1ae 243e e203 923d a99d 09be 8734 063e
00000250: 05cc f8bd 7969 463d 4915 31bd db2a 823d
00000260: c3a4 82bd 3d49 903d 7497 593e 34bc c4bd
00000270: a287 87bd 6b56 18be 4f2c 8d3c 7450 32be
00000280: fff3 2cbe 5f78 0a3e 52c6 cf3c 4e0a c43c
00000290: 3796 243d 46bf 943c 9063 483d 1ddf c33d
000002a0: 7498 19be 373b 053d e229 bbbc e332 c8bd
000002b0: b4a6 283b f5f8 febc 6a23 903c 9d41 363e
000002c0: 3006 02be b169 ab3d c82b 3b3e 3ff0 1f3e
000002d0: 758b e13d 2811 e3bd d0ec 2fbe 6203 47be
000002e0: b727 d2bc dc80 af3d 03d6 493e 9406 01be
000002f0: 565b 843d 878d 1a3e 6934 dc3b 278b dcbd
00000300: 4787 a53d 9081 c8bd 8854 27be b288 f63d
00000310: c381 40bd d198 5ebd 74cf dcbd d32f bc3c
00000320: fe22 43be beeb 32bd 2838 5f3d c0ac 443d
00000330: d2fb 9c3d 0f80 0c3b 34aa 5f3c a210 003d
00000340: 3036 b63c c147 c33c debd a53b 03ef 3fbe
00000350: 87d0 bcbd 7c0e 823d deb7 663d dc21 1b3c
00000360: c945 c53d 8700 31be 02ba a3bd 351c 813b
00000370: 0d2c 083c 7764 1abe 0cf4 e33c d4df 3fbd
00000380: 9157 8cbc 458b 903c b042 473b 540c 573c
00000390: fdfe f53b 7fbf 02bc eb2e 12bc 3df5 f6bc
000003a0: 92de dc3c 4a69 b83c 2c01 64bb cfb6 1b3b
000003b0: 362e 77bb 0a80 003b 30de abba e5ea a93a
000003c0: 734d d03d 428f 6dba 48fa 123d 0788 45bd
000003d0: 554d 75bd 342f 343d 4f49 4d3c baf3 4dbc
000003e0: beda 4ebc f703 67bd dd7b bdbd 0c46 b03c
000003f0: 8a88 443d 38c3 0dbe 00cf 683b 9c3a 3dbd

module.bi_lstm1.bias_ih_l0_reverse f4 [64]
-0.052229848 0.18866087 0.16262236 -0.08790859 -0.15953442 -0.014914156 0.18081243 0.078967005
0.23547451 0.018265616 0.14201888 -0.024401624 0.17459457 -0.0013274708 -0.019612018 -0.114882305
0.15317869 -0.071876794 0.13537149 0.05087802 0.3167607 0.029428821 -0.046885792 -0.016377259
0.3334648 -0.045996603 0.13075857 -0.048218403 -0.02325589 -0.14492638 0.11729354 0.14346455
0.09243202 -0.1980785 -0.15212099 -0.08829769 0.054985877 0.011447289 0.060949318 0.20774865
-0.04677866 -0.23915188 0.20546746 0.105476506 0.11495737 -0.20315814 -0.0035403788 0.15782452
0.11318542 0.11777431 0.18790117 0.06471656 0.2574202 0.0688237 0.04655019 0.16958807
0.14918141 0.03917261 0.08666681 0.0013597783 0.107349224 -0.08794566 -0.008971584 -0.085825
00000000: f7ee 55bd 5130 413e 7a86 263e 6b09 b4bd
00000010: fe5c 23be 815a 74bc e526 393e 74b9 a13d
00000020: 3b20 713e c6a1 953c 666d 113e eae5 c7bc
00000030: ebc8 323e 87fe adba 62a9 a0bc 6a47 ebbd
00000040: e0da 1c3e 2434 93bd d39e 0a3e 7865 503d
00000050: 752e a23e b614 f13c 510b 40bd 9a29 86bc
00000060: e6bb aa3e ef66 3cbd 93e5 053e a980 45bd
00000070: 2383 bebc 9567 14be 9837 f03d 5fe8 123e
00000080: 004d bd3d 17d5 4abe 9bc5 1bbe 6bd5 b4bd
00000090: df38 613d 698d 3b3c fea5 793d 10bc 543e
000000a0: fb9a 3fbd 3be4 74be 1066 523e 1104 d83d
000000b0: c56e eb3d b008 50be b305 68bb c09c 213e
000000c0: c2cd e73d a833 f13d 2a69 403e 1e8a 843d
000000d0: 95cc 833e 71f3 8c3d 69ab 3e3d 7fa8 2d3e
000000e0: 03c3 183e 7573 203d 5e7e b13d 973a b23a
000000f0: e9d9 db3d db1c b4bd 8dfd 12bc 05c5 afbd

module.bi_lstm1.bias_hh_l0_reverse f4 [64]
-0.084350325 -0.17107488 0.23894775 0.030754106 0.20705031 -0.09113661 -0.045821466 0.069388084
0.16262268 -0.072528325 -0.1171577 -0.18810923 -0.14819191 -0.12843023 -0.08593559 0.08081011
-0.1113956 -0.049570568 -0.14106606 0.018275455 0.28874823 0.16378766 0.35567802 0.33167708
0.10152467 -0.11162011 0.1454915 -0.028484251 0.020779131 0.20835069 0.06421242 -0.1066178
0.04738288 0.09587327 -0.2796983 -0.2231406 -0.0036500082 0.14111623 0.25725117 0.025972541
0.108888574 -0.0032203405 0.11349673 0.004005253 0.021630464 0.21880724 -0.17683221 -0.13355276
-0.12590337 0.029066425 0.26257992 0.15377958 0.0014394944 0.07303312 0.16523314 -0.09881716
0.26596752 0.26894164 0.056717407 0.061918743 -0.15914227 -0.026871754 -0.06315961 -0.047041886
00000000: ddbf acbd 412e 2fbe b8ae 743e 09f0 fb3c
00000010: ff04 543e d5a5 babd 4aaf 3bbd 571b 8e3d
00000020: 8f86 263e bb89 94bd 60f0 efbd b59f 40be
00000030: 9fbf 17be 3783 03be 00ff afbd c57f a53d
00000040: 6023 e4bd 820a 4bbd 9f73 10be 68b6 953c
00000050: cfd6 933e f4b7 273e 6e1b b63e 94d1 a93e
00000060: 2bec cf3d 1699 e4bd b9fb 143e ce57 e9bc
00000070: ff38 aa3c e259 553e cd81 833d 6f5a dabd
00000080: 8d14 423d 3459 c43d 9e34 8fbe f87e 64be
00000090: fa34 6fbb c680 103e 6db6 833e 5ec4 d43c
000000a0: f900 df3d 590c 53bb f970 e83d 7f3e 833b
000000b0: 5f32 b13c 010f 603e 8113 35be 0ec2 08be
000000c0: d0ec 00be b61c ee3c e070 863e 6578 1d3e
000000d0: 6bad bc3a 6392 953d e032 293e a760 cabd
000000e0: e52c 883e b8b2 893e 8350 683d 829e 7d3d
000000f0: 31f6 22be 2722 dcbc d359 81bd feae 40bd

module.bi_lstm2.weight_ih_l0 f4 [128, 16]
0.025904017 -0.04418258 -0.025699895 -0.05350441 0.015713818 -0.026624901 -0.012571191 0.002018105
0.03470155 0.02260382 -0.032524884 0.043841824 0.012561742 -0.008479496 -0.0026123445 0.018824665
0.007433437 -0.0024174447 -0.0052503506 -0.005998436 -0.010577974 0.0021248485 0.0101153 0.010609698
-0.0059601595 -0.007990014 0.0060697235 0.0016211119 0.010529982 -0.009299518 -0.0040082484 -0.0049011977
-0.002331654 -0.06408186 -0.03660542 0.005240862 -0.0039275317 0.017674241 0.04096126 -0.03364279
-0.022102542 0.041429188 -0.051416278 -0.015365195 -0.0032169379 0.010274919 0.0014334053 0.008951083
-0.01661975 0.017215278 0.0061887866 0.030317094 -0.005110454 -0.004528177 -0.040296704 -0.0044746893
0.0039609806 0.0038380579 0.004928349 -0.0030467561 -0.0053370157 0.006090272 0.0032343557 0.0044643953
-0.0016413437 0.0007974536 -0.00295103 -0.008681105 0.026844457 0.010549056 -0.019603172 -0.008891378
0.028402604 -0.008253587 0.0073767053 0.0065286 -0.0031213772 -0.007363604 0.0056172186 -0.011626772
0.05189551 0.021855198 -0.06009543 -0.042145487 0.01643315 0.057140622 0.06298049 0.02829923
-0.0032844553 0.028720668 -0.006930565 -0.036742706 0.005415599 0.007332722 0.0033721472 0.02681056
-0.0027773061 0.0017141019 -0.0017452012 0.0010995723 -0.00037441845 -0.00085139583 -0.0020923263 -0.0014256007
0.00066026393 -0.00020584954 -0.0024796135 -0.00025953163 -0.001524014 0.0010716384 0.0011729557 0.0035241055
0.00016191021 0.0058369962 0.0045408932 0.0026408038 -0.0010795398 -0.005667936 0.00069315056 0.00067195663
-0.0018437065 2.8773382e-05 -0.002724895 -0.0019427378 0.0007199683 -0.0008139577 -0.003932848 0.003904852
0.009669555 0.008689541 0.0014335595 -0.03145075 0.020936018 0.015665814 0.024461294 0.0059147594
0.018478759 -0.018172141 0.032194063 0.02562879 0.00313489 0.0042153597 -0.0010607522 -0.00780568
0.03736962 0.049092162 0.021902869 -0.01026159 -0.04391087 0.005393953 0.047643166 -0.016494263
0.02049117 0.0597342 -0.05478397 -0.01044176 -0.010189964 0.009723821 -0.00014201755 0.035842706
-0.008600208 0.008541305 0.008265165 0.007836612 0.0039929124 -0.005558389 -0.008248458 -0.0040936787
-0.0019347941 0.0067711705 -0.0043825125 -0.005474591 -0.0034237923 0.0013550954 0.00065668876 0.010436653
-0.013224226 -0.0013687956 -0.013189619 -0.017249735 -0.0017047463 0.011249248 0.015407554 -0.008379575
-0.011909506 0.029899925 -0.014347014 -0.005588068 -0.0054966183 0.0046119625 0.0025137337 -0.011840999
-0.013703024 0.002440288 0.006422972 -0.0048349164 0.026800193 0.0041740565 -0.0035030632 -0.02447842
0.009747539 0.0077810166 -0.010049849 -0.001253535 -0.008441379 0.00077944004 0.006280354 0.00043822522
-0.007619531 0.0482935 -0.004088527 -0.0097478805 0.036151495 0.0029698082 0.0222131 0.0036531454
-0.0028349457 0.015865868 -0.03423276 0.012868991 -0.00066390535 -7.328321e-05 -0.001358809 0.022471868
-0.02073027 0.004793392 0.021955136 0.014214496 0.0058964943 -0.0054320227 0.005852324 -0.011229573
-0.0107516665 0.0013816298 -0.024469713 -0.004970003 -6.627176e-05 -0.0032513964 -0.00221495 0.017294738
-0.026156614 0.029577263 0.009367123 0.04158494 -0.00500346 0.00030409277 -0.023970455 0.0062781055
-0.009612608 -0.029473213 -0.00045588065 0.028177204 0.007708308 0.0045547364 -0.0010035313 0.031672463
00000000: a934 d43c cbf8 34bd 9688 d2bc 7127 5bbd
00000010: 44ba 803c 771c dabc 66f7 4dbc 2f42 043b
00000020: 3623 0e3d a52b b93c d038 05bd 7c93 333d
00000030: c4cf 4d3c 96ed 0abc de33 2bbb 2f36 9a3c
00000040: 3094 f33b fe6d 1ebb 220b acbb 878e c4bb
00000050: 3d4f 2dbc 0b41 0b3b a5ba 253c 4cd4 2d3c
00000060: 714d c3bb 8ce8 02bc 88e4 c63b 7d7b d43a
00000070: f285 2c3c 015d 18bc a057 83bb 3a9a a0bb
00000080: aace 18bb 5a3d 83bd 91ef 15bd 89bb ab3b
00000090: 86b2 80bb 92c9 903c ffc6 273d 06cd 09bd
000000a0: 6410 b5bc a7b1 293d e099 52bd 4dbe 7bbc
000000b0: 43d3 52bb 2258 283c 1ae1 bb3a 90a7 123c
000000c0: 2426 88bc 0e07 8d3c 4ecb ca3b 8e5b f83c
000000d0: 9875 a7bb 1a61 94bb 280e 25bd 6aa0 92bb
000000e0: 1dcb 813b ed87 7b3b fd7d a13b 16ac 47bb
000000f0: 22e2 aebb e890 c73b 7cf7 533b 104a 923b
00000100: 5b22 d7ba 350c 513a 1166 41bb 323b 0ebc
00000110: e8e8 db3c f3d5 2c3c d596 a0bc 24ad 11bc
00000120: 94ac e83c 0e3a 07bc 4ab8 f13b deed d53b
00000130: 0590 4cbb 634a f1bb a510 b83b 377e 3ebc
00000140: 6390 543d ac09 b33c a026 76bd bfa0 2cbd
00000150: d09e 863c 490c 6a3d eafb 803d c9d3 e73c
00000160: 0440 57bb 9b47 eb3c cb19 e3bb 857f 16bd
00000170: 5675 b13b 5547 f03b 3eff 5c3b d2a1 db3c
00000180: 7703 36bb b7ab e03a 3cbf e4ba 861f 903a
00000190: 984d c4b9 3530 5fba 691f 09bb 39db baba
000001a0: 9015 2d3a 51d9 57b9 0381 22bb bf11 88b9
000001b0: 6dc1 c7ba 3876 8c3a ddbd 993a aef4 663b
000001c0: 71c6 2939 4644 bf3b c6cb 943b 5611 2d3b
000001d0: 587f 8dba 18ba b9bb 8cb4 353a 3f26 303a
000001e0: 86a8 f1ba 5e5e f137 2794 32bb 77a3 feba
000001f0: 41bc 3c3a c75f 55ba 1fdf 80bb 8ce8 7f3b
00000200: 0e6d 1e3c 945e 0e3c 46e6 bb3a 80d2 00bd
00000210: 0382 ab3c 9855 803c 0d63 c83c 99d0 c13b
00000220: c460 973c bedd 94bc ecdd 033d 78f3 d13c
00000230: ba72 4d3b 0021 8a3b f008 8bba cac6 ffbb
00000240: e310 193d dd14 493d a56d b33c 3a20 28bc
00000250: e2db 33bd c2bf b03b 7b25 433d fa1e 87bc
00000260: 19dd a73c d9ab 743d 2865 60bd ea13 2bbc
00000270: cff3 26bc a950 1f3c 8cea 14b9 cdcf 123d
00000280: e3e7 0cbc d4f0 0b3c 9d6a 073c 2265 003c
00000290: fad6 823b 2523 b6bb 8a24 07bc 4424 86bb
000002a0: eb98 fdba b2e0 dd3b 2e9b 8fbb 3364 b3bb
000002b0: b461 60bb 759d b13a a325 2c3a 7ffe 2a3c
000002c0: 6daa 58bc 2969 b3ba 4619 58bc 514f 8dbc
000002d0: cb71 dfba c44e 383c f76f 7c3c 7c4a 09bc
000002e0: 1720 43bc b0f0 f43c bd0f 6bbc 1d1c b7bb
000002f0: fa1c b4bb f21f 973b 74bd 243b c000 42bc
00000300: a682 60bc 3ded 1f3b cb77 d23b 386e 9ebb
00000310: 148c db3c 86c6 883b a693 65bb f886 c8bc
00000320: 24b4 1f3c e6f7 fe3b 1fa8 24bc a84d a4ba
00000330: b64d 0abc 5653 4c3a 6ecb cd3b 98c1 e539
00000340: 42ad f9bb 68cf 453d 0df9 85bb 93b5 1fbc
00000350: 9713 143d 1da1 423b 3ff8 b53c 9c69 6f3b
00000360: 7fca 39bb 23f9 813c a737 0cbd 76d8 523c
00000370: ef09 2eba a0af 99b8 101a b2ba ec16 b83c
00000380: 87d2 a9bc e311 9d3b 42db b33c ebe3 683c
00000390: 6137 c13b 1cff b1bb dac4 bf3b 3efc 37bc
000003a0: c227 30bc ce17 b53a b574 c8bc 68db a2bb
000003b0: 61fb 8ab8 6115 55bb b228 11bb b2ad 8d3c
000003c0: 6546 d6bc 044c f23c 9078 193c f854 2a3d
000003d0: 11f4 a3bb a46e 9f39 b05d c4bc 91b8 cd3b
000003e0: 337e 1dbc cf71 f1bc 4403 efb9 e1d3 e63c
000003f0: f995 fc3b e63f 953b ec88 83ba fcba 013d

module.bi_lstm2.weight_hh_l0 f4 [128, 32]
-1.5707704e-24 1.4160947e-37 5.679984e-38 3.3871665e-31 -1.8964846e-38 -1.7085758e-29 1.2606278e-36 3.0727468e-34
-1.2740136e-37 2.957143e-25 7.367851e-37 -4.3266994e-28 1.0874799e-38 -1.0529193e-33 -1.7217428e-30 -2.907554e-38
2.2999386e-32 -4.7928854e-33 -2.2952686e-30 -1.1302786e-24 -1.8586803e-26 1.6771542e-37 -2.227182e-34 5.681576e-38
5.5411332e-36 -6.186869e-39 -2.1813801e-32 -3.772214e-39 -3.3449924e-36 -1.1571897e-30 4.374777e-38 6.886374e-39
-4.2086798e-36 1.6239782e-27 2.1689314e-24 -7.2248516e-38 -2.1975434e-38 8.519358e-31 -1.2559869e-38 -5.628627e-38
6.1333464e-33 -1.1330755e-36 -1.8982206e-34 9.032827e-31 4.4022924e-38 6.5955493e-28 1.862733e-32 1.5381854e-36
-5.052028e-38 4.0575777e-27 -2.8578687e-35 -1.0411121e-32 -1.0605521e-28 -1.967337e-36 -2.881832e-39 1.6327797e-36
1.7411879e-38 1.410896e-39 -6.151028e-35 1.7248356e-37 1.0759844e-32 5.2403877e-38 1.683169e-36 -4.775294e-36
-1.0544813e-28 3.0559142e-37 -5.8019903e-32 -9.120487e-29 -4.2322724e-35 -2.2614593e-26 2.2479522e-29 5.3218527e-37
-1.6229922e-31 1.640039e-39 6.9971707e-37 -7.229813e-39 1.8325967e-35 1.0019894e-33 -3.9592435e-37 3.660083e-38
1.7268879e-37 -6.48417e-35 -5.4831296e-38 -5.573826e-32 -5.7042747e-36 1.7292826e-28 1.2342479e-26 7.250346e-29
-6.3701874e-26 -7.094275e-38 -2.086587e-29 -3.4147566e-36 1.6928328e-30 2.9746647e-37 -5.2478357e-34 -1.3701366e-25
8.8062853e-38 -1.02902e-40 -1.7291332e-38 -2.4843253e-32 5.921251e-39 -3.9089793e-34 -9.265312e-37 8.147347e-37
9.8500156e-36 4.7521237e-38 4.665739e-35 -5.9491685e-37 -4.678939e-28 1.4247434e-38 -5.598787e-28 -2.2736174e-28
-3.5239376e-30 -3.9212706e-38 5.029267e-39 7.044295e-38 -5.2027563e-28 1.8465314e-35 1.4653791e-28 2.746575e-31
3.257876e-31 1.0399655e-34 5.5103624e-28 -1.13646665e-33 -1.7133908e-37 -8.157409e-37 -2.2277103e-32 8.5662024e-29
-1.0870166e-28 5.928132e-38 1.9845345e-26 5.3664843e-36 3.3781785e-25 1.9448817e-29 5.219367e-39 5.487734e-32
-1.8011984e-35 -1.4016688e-29 2.3624273e-26 1.607846e-38 1.0900565e-33 2.0824494e-30 -9.339818e-39 7.664912e-39
-2.3073801e-26 -1.5125037e-37 2.1823828e-33 -4.3945957e-34 8.0396e-33 8.175621e-36 -1.0850301e-33 -4.560614e-33
2.1981875e-27 -1.765756e-36 -5.312046e-30 1.1814105e-26 2.5259437e-32 1.1975638e-32 2.5633525e-34 -1.4864054e-33
-7.2065344e-36 1.00393144e-35 -1.2532304e-31 -6.062192e-39 1.4355975e-31 1.4675016e-26 -4.729648e-38 1.1218678e-38
-2.5782826e-28 -1.9106867e-25 -1.4134783e-37 7.1226165e-31 -1.8342115e-28 -1.1484088e-38 2.5582895e-32 -1.8089361e-33
-9.433528e-38 -2.423523e-33 -4.8672555e-38 -1.7349851e-26 2.441604e-29 -5.54114e-28 1.930018e-39 -1.6902098e-24
-5.414227e-36 1.8853087e-37 -4.665357e-36 7.6327e-41 1.7901549e-36 -1.6465018e-31 2.9417045e-27 3.1113756e-37
-5.161115e-39 -2.4608165e-27 2.5647197e-36 2.7842985e-32 -2.3252621e-38 -4.982159e-37 6.457111e-38 2.6224157e-37
-3.8816e-39 2.0925322e-32 5.0848625e-36 -1.6879813e-36 3.4866954e-37 2.8436544e-38 1.3420168e-32 4.979032e-39
-9.693154e-39 3.8437098e-35 -3.157137e-39 4.8931558e-37 1.44745324e-36 -1.213029e-37 1.9622984e-24 3.4651972e-37
1.6523482e-35 -2.6298575e-27 1.4593646e-38 -1.7817872e-29 3.3481247e-32 2.3020319e-27 1.35126695e-36 -3.2642438e-38
2.72909e-39 1.0714577e-37 1.6995044e-37 -1.4262291e-37 1.8087344e-25 -8.87952e-29 -2.36357e-26 -4.128187e-29
1.166036e-39 -4.2695e-41 2.553121e-36 1.0600443e-38 5.19371e-39 1.0627113e-37 -1.895149e-25 -1.0270415e-24
1.2958541e-38 -1.7820287e-29 -5.500299e-36 8.5090236e-36 5.212232e-38 -2.2799547e-24 7.6527925e-38 2.21951e-39
3.6113353e-38 9.075845e-35 5.36829e-40 -2.5242217e-36 1.0120593e-37 6.154696e-39 -1.9364e-40 3.6935887e-30
00000000: a010 f397 b3bf 4002 b69f 9a01 f5d6 db0c
00000010: 4682 ce80 2a45 ad8f 167c d603 1438 cc07
00000020: e568 2d82 cd09 b716 09b7 7a03 5b1e 0992
00000030: 846a 7600 3cf2 ae88 33af 0b8e 634d 1e81
00000040: dbd6 ee0a b316 c789 dd36 3a8e f3e6 ae97
00000050: 2513 b894 4b48 6402 8a05 9487 ceaa 9a01
00000060: 99b1 eb04 795e 4380 0887 e28a 6613 2980
00000070: be47 8e84 c8c3 bb8d 7e2f 6e01 69fc 4a00
00000080: 7704 b384 31aa 0013 1dd0 2718 dead c481
00000090: 924a ef80 073c 8a0d cec3 8880 ce39 9981
000000a0: edc4 fe09 66c8 c083 1a51 7c87 e590 920d
000000b0: 00af 6f01 7405 5112 f06f c10a b6da 0204
000000c0: 7f87 8981 babc a013 4bf3 1786 043b 588a
000000d0: e270 0691 ce5c 2784 6061 1f80 cbe6 0a04
000000e0: 3c99 bd00 015d 0f00 ba85 a386 c0c5 6a02
000000f0: 2579 5f0a 2ca8 8e01 2d30 0f04 591e cb84
00000100: e0ab 0591 89f9 cf02 d7a0 968b 583b e790
00000110: b506 6186 cef6 df94 2df8 e30f e017 3503
00000120: 2bad 528c c3db 1100 f419 6e03 c7b9 4e80
00000130: 07e0 c205 ea7b a608 e0b9 0683 1d46 4701
00000140: 430d 6b02 f960 ac86 d643 9581 6eb4 908b
00000150: 0da2 f284 6e36 5b11 ce77 7414 70d1 b710
00000160: dcb7 9d95 e21f c181 e59a d38f 683f 9184
00000170: c356 090e f871 ca02 a663 2e88 5d9d 2996
00000180: daba ef01 d91e 0180 3349 bc80 59fe 008b
00000190: 0a7a 4000 ebe5 0188 20a4 9d83 b39e 8a03
000001a0: 967c 5105 785d 8101 c012 7806 9170 4a83
000001b0: 1048 1492 0d24 9b00 c26e 3192 8d1b 9091
000001c0: a9f2 8e8e 897e 5581 8dc3 3600 92c3 bf01
000001d0: c6e1 2492 5e5b c405 45c2 3911 4e43 b20c
000001e0: c072 d30c 313c 0a07 5fa1 2e12 f2d3 bc88
000001f0: f536 6982 87ca 8a83 b356 e78a d52d d910
00000200: b5cb 0991 0d61 a101 ed89 c414 d743 e404
00000210: 6019 d116 043c c50f 79d5 3800 4078 8e0b
00000220: 4989 bf85 6725 8e8f a6f6 e914 3414 af00
00000230: e01d b508 c8f2 280e 9db3 6580 a876 5300
00000240: 0983 e494 10df 4d82 264e 3509 1609 1288
00000250: d8f9 260a 51e0 2d05 1448 b488 c470 bd89
00000260: 8a28 2e13 c336 1684 717b d78e a100 6a14
00000270: 8d27 030b 6ab9 780a 2f5d aa07 b2f8 f688
00000280: 1b44 1985 3a83 5505 b9ad 228c ed02 4280
00000290: e959 3a0c 9655 9114 d6c0 8081 1c29 7a00
000002a0: 076b a391 1488 6c96 8864 4082 6224 670d
000002b0: 9183 6891 f70c 7d80 80d5 040b d147 1689
000002c0: 0c67 0082 a256 4989 d27f 8481 19d3 ab94
000002d0: aa9b f70f 129b 2f92 1b04 1500 0ec6 0298
000002e0: b64b e684 b64e 8002 3d71 c684 c5d4 0000
000002f0: 1f4a 1804 68ba 558c db10 6913 cfbf d302
00000300: 1733 3880 4af7 4293 a62e 5a04 ad91 100b
00000310: d932 fd80 ba88 2983 7fc7 af01 ed78 b202
00000320: 5244 2a80 0c4d d90a 4049 d804 fa98 0f84
00000330: cd4a ed02 c2d2 1a01 ed5c 8b0a 8437 3600
00000340: 928c 6980 de5d 4c06 d060 2280 6681 2603
00000350: 7b45 f603 e41b 2582 53d3 1718 40d4 eb02
00000360: 32b5 af05 d95b 5093 26e9 9e00 d7b1 b48f
00000370: 36d8 2d0b c162 3613 fae7 e503 ebb8 3181
00000380: 98b7 1d00 dad6 1102 1653 6702 d520 4282
00000390: 15e9 5f16 611f e190 9e13 ea94 ee52 5190
000003a0: 6fb2 0c00 0477 0080 0d32 5904 b96d 7300
000003b0: f38d 3800 16a6 1002 ab9b 6a96 4eed 9e97
000003c0: 241b 8d00 1cb8 b48f f4f4 e984 88f7 3405
000003d0: f5e3 8d01 2867 3098 2e54 d001 172b 1800
000003e0: ab9e 4401 0047 f106 76d8 0500 aebc 5684
000003f0: 1fc1 0902 ca04 4300 ca1b 0280 6bd4 950e

module.bi_lstm2.bias_ih_l0 f4 [128]
0.1062444 0.006577084 0.08434591 0.01739748 0.026573818 0.053562414 0.0007100742 -0.008061192
-0.0719267 0.08712931 -0.023987154 -0.052028436 0.029669417 -0.06632877 -0.05595518 0.03761289
0.04764764 0.0038072662 0.013262355 0.044567302 0.05452684 -0.037120953 -0.00889923 0.026383359
0.0045262952 -0.0070863157 -0.016443258 -0.018404894 -0.0068103047 0.02304312 -0.054619957 0.013552736
-6.312585e-32 -1.471563e-25 3.835481e-38 4.4199633e-30 -3.3725297e-38 -5.2114097e-37 1.3085905e-36 -9.919499e-38
4.2834384e-38 -1.9035651e-25 2.2376825e-38 -4.985967e-37 -6.663887e-29 5.6563094e-34 1.7890992e-37 -1.8887923e-38
3.072738e-36 1.4805134e-32 1.3797853e-25 -3.01412e-39 1.0758652e-33 4.3616928e-38 -2.3908387e-37 1.3451978e-29
3.0968617e-31 -4.75547e-25 3.184971e-36 -2.3687798e-37 5.293006e-39 1.984106e-38 2.1031862e-26 -2.903623e-37
-0.07286601 0.1295754 0.009957083 0.08832147 -0.038936656 -0.10924374 0.040466316 0.110961065
0.1596806 0.16024631 -0.049448844 -0.04862655 0.08095546 0.14341204 0.1342934 0.0019914464
0.076257326 -0.1600632 0.12376866 0.009711857 -0.124069706 0.1478075 0.025969116 0.1696295
0.007990178 -0.05229503 0.11481161 0.00046951507 -0.0007673855 -0.13816626 -0.12549397 -5.0848525e-05
-0.021011733 0.0019633707 -0.044706002 -0.026544398 0.032857046 0.01511593 -0.005645861 -0.010494284
-0.03413955 -0.0025948968 -0.0196766 0.013203571 0.049363106 -0.0429061 -0.067599736 -0.028283762
-0.0096059935 -0.009798997 0.020304108 -0.08595912 -0.0191166 0.040609866 -0.019705728 0.012359086
0.014739211 -0.018508539 0.058501553 -0.058637038 0.03278804 -0.010212502 0.03486371 -0.0066338223
00000000: aa96 d93d 9484 d73b 8cbd ac3d 2985 8e3c
00000010: 56b1 d93c 4364 5b3d 4624 3a3a 1713 04bc
00000020: 4e4e 93bd da70 b23d b580 c4bc c51b 55bd
00000030: 470d f33c 61d7 87bd 4231 65bd f90f 1a3d
00000040: 2c2a 433d 5483 793b 594a 593c 348c 363d
00000050: 8957 5f3d 240c 18bd 13ce 11bc ea21 d83c
00000060: 5151 943b 5334 e8bb 03b4 86bc dcc5 96bc
00000070: fa28 dfbb edc4 bc3c 2db9 5fbd 4b0c 5e3c
00000080: 53e2 a38b b12b 3696 ced2 5001 864b b30e
00000090: 349e 3781 c855 3183 28a5 de03 6904 0782
000000a0: 6b36 6901 63a6 6b96 7ca9 f300 e6a9 2983
000000b0: 19f3 a890 8ff6 3b08 0285 7302 d8ab cd80
000000c0: 27b3 8204 ccbe 990a 24cf 2a16 24d2 2080
000000d0: 3fc2 b208 2079 6d01 49b6 a282 556b 880f
000000e0: 71ff c80c b72c 1397 4379 8704 f735 a182
000000f0: bfa2 3900 ce0c d800 1b4a d014 3f9c c582
00000100: c63a 95bd 6aaf 043e 0823 233c e3e1 b43d
00000110: 0b7c 1fbd 2fbb dfbd 02c0 253d 8e3f e33d
00000120: 5083 233e 9c17 243e df8a 4abd a22c 47bd
00000130: facb a53d 9bda 123e 3684 093e ed82 023b
00000140: cd2c 9c3d 9ce7 23be 6c7a fd3d 7b1e 1f3c
00000150: 4218 febd d95a 173e 2fbd d43c 5bb3 2d3e
00000160: 3ce9 023c 5033 56bd 5922 eb3d 3f29 f639
00000170: 5f2a 49ba 757b 0dbe 7e81 00be 3046 55b8
00000180: cc20 acbc e5ab 003b a41d 37bd a373 d9bc
00000190: 1c95 063d cea8 773c ea00 b9bb 38f0 2bbc
000001a0: ead5 0bbd 250f 2abb d230 a1bc ca53 583c
000001b0: f830 4a3d 4fbe 2fbd bb71 8abd 59b3 e7bc
000001c0: 7562 1dbc f98b 20bc cd54 a63c 560b b0bd
000001d0: 6a9a 9cbc 8856 263d e86d a1bc c47d 4a3c
000001e0: bb7c 713c 389f 97bc 539f 6f3d 642d 70bd
000001f0: c04c 063d 5752 27bc 40cd 0e3d 8960 d9bb
