output/basic/FD001/exp_202411012057_bilstm_ep-0067.pth (torch, 238894 bytes, 63 tensors)

module.bi_lstm1.weight_ih_l0 f4 [64, 14]
0	0x3d5d7285	0.054064292
1	0x3cbeb6b5	0.02328048
2	0x3d6fa82e	0.058509998
3	0x3d912317	0.07086771
4	0x3d94c23f	0.07263612
5	0x3d0d91e6	0.034562968
6	0x3d5ab312	0.05339343
7	0x3da4e0fc	0.08050725
8	0x3d917d60	0.071039915
9	0x3cf66afe	0.030080315
10	0x3d1e11d5	0.038591225
11	0x3dd29cb6	0.102837965
12	0x3da896f9	0.08231921
13	0x3d7563ee	0.059909754
14	0x3d0b63b9	0.03403065
15	0x3d286b63	0.041118037
16	0x3d591f92	0.053008623
17	0x3e2a0808	0.16604626
18	0x3d5b9ebe	0.053618185
19	0xbc47ef12	-0.012202995
20	0x3d534327	0.051577713
21	0x3d866612	0.06562437
22	0x3d01be32	0.031675525
23	0x3c63288a	0.013864646
24	0x3d8eaffb	0.06967159
25	0x3d7f1d25	0.062283654
26	0x3d95cfb5	0.073150076
27	0x3e031a32	0.12802961
28	0x3d0cc5d9	0.03436837
29	0x3c980f03	0.018561846
30	0x3d735640	0.059408426
31	0x3d164b13	0.03669269
32	0x3da52f82	0.08065702
33	0x3d4c46f4	0.049872354
34	0x3d76e394	0.06027563
35	0x3b34e913	0.0027604743
36	0x3d6961c1	0.05697799
37	0x3ca296e4	0.01984734
38	0x3ca36f23	0.019950455
39	0x3dba8b1d	0.09108565
40	0x3cbf5159	0.02335422
41	0xbd190e81	-0.037367348
42	0x3b653db5	0.0034979407
43	0x3caff452	0.021478806
44	0x3c12986d	0.008947474
45	0x3c3f2ec5	0.011668866
46	0x3c8f4fc6	0.017494094
47	0x3ae2e65b	0.0017311083
48	0x3be221e4	0.0069010127
49	0x3cd8d42c	0.026468359
50	0x3c34329d	0.010998395
51	0x3b9a5c15	0.004710684
52	0x3cd123d8	0.025529787
53	0x3ca3f62b	0.020014843
54	0x3c6a8fd6	0.01431652
55	0x3caa2ea2	0.02077419
56	0x3d75c1a2	0.059999116
57	0x3dd2c60a	0.10291679
58	0x3d9c49ed	0.07631288
59	0x3d7704d4	0.06030734
60	0x3dc476cd	0.09592972
61	0x3d44e4f0	0.048069894
62	0x3dbc89d7	0.09205978
63	0x3d94c8ed	0.07264886
64	0x3d7dd4dd	0.06197058
65	0x3d3eff81	0.046630386
66	0x3dcb23e3	0.09918954
67	0x3df4233c	0.11920783
68	0x3d16ef60	0.03684938
69	0x3db9a2f1	0.09064282
70	0x3c05c531	0.00816469
71	0x3d3936ae	0.045218162
72	0x3d1c58fa	0.038170792
73	0x3da3c193	0.07995906
74	0x3d63fa43	0.05565859
75	0x3d0977bd	0.033561457
76	0x3d01bca5	0.031674046
77	0x3daaa4f4	0.083322436
78	0x3c0ded4c	0.008662533
79	0x3d124526	0.035710476
80	0x3d94804d	0.07251034
81	0x3dcd9f01	0.10040093
82	0x3d3155e5	0.043294806
83	0x3d80cae1	0.06288696
84	0xbc0f0857	-0.008730016
85	0x39068131	0.00012827363
86	0xbb995e6a	-0.0046804445
87	0x3a81df26	0.0009908422
88	0xbc5ce67b	-0.013482685
89	0x3b0a31d6	0.0021086833
90	0xbb574be0	-0.0032851622
91	0x3bcae895	0.0061922767
92	0xbc12c8c9	-0.008959004
93	0x3b59f4a8	0.0033257399
94	0x3c07606b	0.008262734
95	0xbb5243a2	-0.003208377
96	0xba94ced1	-0.001135314
97	0x3b7a6cdb	0.0038211856
98	0xbccea34b	-0.025224349
99	0xbb300827	-0.0026860328
100	0xbcd9e1a4	-0.026596852
101	0xbd566242	-0.0523398
102	0xbc370864	-0.011171434
103	0xbab5b382	-0.0013862702
104	0xbd101f35	-0.03518601
105	0x3d22c8ef	0.039742406
106	0xbcfdae12	-0.030966792
107	0xbb500142	-0.003173903
108	0xbd1b9f54	-0.037993744
109	0x3d050f06	0.03248503
110	0xbd27bd1c	-0.040951833
111	0xbd082f8e	-0.033248477
112	0x3c588678	0.013215654
113	0x3db3698d	0.087603666
114	0x3d525015	0.051345903
115	0x3d214b4e	0.039378457
116	0x3d862af5	0.06551162
117	0x3c1f0b13	0.00970723
118	0x3d7496db	0.05971418
119	0x3d7f97f9	0.06240079
120	0x3d533841	0.05156732
121	0x3c748252	0.014923649
122	0x3dc63e34	0.09679833
123	0x3d8f1cbf	0.06987905
124	0x3d2cfcc2	0.042233236
125	0x3d512acc	0.051066205
126	0xbbc4a911	-0.0060015996
127	0xbbfed6f9	-0.0077770916
128	0xbc0fd4c4	-0.008778755
129	0xbb68db6c	-0.0035531176
130	0xbc15ff0d	-0.009155047
131	0xba6d5700	-0.00090537965
132	0xbc1fa47b	-0.009743805
133	0xbb6acf72	-0.0035829213
134	0xbc039a80	-0.008032441
135	0xbacbb5e5	-0.001554188
136	0xbc3ec306	-0.011643177
137	0xbc34ea2a	-0.011042157
138	0xbb67ac14	-0.003535037
139	0xbb8a4851	-0.0042200466
140	0x3c3ffa2d	0.011717361
141	0x3dc364f3	0.09540739
142	0x3dab82a6	0.083745286
143	0x3cc7e41f	0.024400769
144	0x3e01e818	0.12686193
145	0x3d99ec74	0.07515803
146	0x3df9fd28	0.12206489
147	0x3d6f2319	0.05838308
148	0x3da20724	0.07911518
149	0x3d7f0e94	0.062269762
150	0x3e03be66	0.128656
151	0x3e0dbcd4	0.13841563
152	0xbcdedf63	-0.027206128
153	0xbd12b439	-0.035816405
154	0xbbc72f31	-0.0060786237
155	0xba7ac7cd	-0.0009566516
156	0xbb6cf3fd	-0.003615617
157	0xbbfda761	-0.0077409004
158	0x3ba7f7b0	0.005125962
159	0x3ab166f3	0.001353471
160	0xb9ad5a33	-0.00033064335
161	0xbcd270fc	-0.02568864
162	0x3afc046d	0.0019227393
163	0xba5ec3c4	-0.0008497799
164	0x3b5ff3af	0.0034172346
165	0x3c030592	0.007996934
166	0xbc837ba2	-0.016050164
167	0xbc5b865b	-0.013398732
168	0xbc58baf7	-0.01322817
169	0x3d8b42b4	0.06799832
170	0x3d7ebdf5	0.062192876
171	0x3e3543c1	0.17701627
172	0x3c86e3e2	0.016466085
173	0xbc35b9f7	-0.011091701
174	0x3d83b898	0.06431693
175	0x3d98bf73	0.07458391
176	0xb99f777c	-0.00030415866
177	0x3cd57624	0.02605731
178	0x3ddc0119	0.10742397
179	0x3e106038	0.14099205
180	0x3ddce373	0.1078557
181	0x3d4552ad	0.04817455
182	0x3c9173e6	0.01775546
183	0x3d92fbad	0.071769096
184	0x3d7d2bce	0.061809354
185	0x3e06f5e4	0.13179737
186	0x3c362b07	0.011118657
187	0xbbd22178	-0.006412681
188	0x3d1bc48a	0.03802923
189	0x3dbfc5e9	0.0936392
190	0x3a46af61	0.0007579234
191	0x3cd61e78	0.026137576
192	0x3d6f1f2b	0.058379333
193	0x3d308a3d	0.043100584
194	0x3daa9d99	0.083308406
195	0x3dd0bbbf	0.1019206
196	0x3d45809b	0.04821835
197	0x3d96ee69	0.07369692
198	0x3d651027	0.055923607
199	0x3d4b0805	0.049568195
200	0x3d4b3c39	0.04961798
201	0x3d24d3bb	0.040240984
202	0x3d89ded3	0.067319535
203	0x3d7e8f76	0.062148534
204	0x3d5568a9	0.052101765
205	0x3d2cb5e0	0.042165637
206	0x3da50160	0.08056903
207	0x3d887e13	0.06664672
208	0x3d886fa5	0.066619195
209	0x3d61d688	0.055136234
210	0xbb552ca2	-0.0032527824
211	0x3b266af9	0.002539335
212	0xbb2ae297	-0.0026075
213	0xba95a338	-0.0011416441
214	0x3ba2bb39	0.0049661663
215	0xbad97654	-0.0016591051
216	0xb92b2aa6	-0.00016323719
217	0x3b77ff87	0.0037841515
218	0x3a9771fe	0.0011554358
219	0xba2ad909	-0.0006517326
220	0x3bbcd3bc	0.0057625454
221	0x3bcb3568	0.006201435
222	0xbb2511bd	-0.0025187575
223	0x3a30c63e	0.00067434076
224	0x3d4036ba	0.04692719
225	0x3d846e0f	0.064663045
226	0x3d85ae57	0.06527393
227	0x3de39560	0.111124754
228	0x3dcf56cf	0.10123979
229	0x3d469d12	0.048489638
230	0x3dc54700	0.09632683
231	0x3ddc44dd	0.10755322
232	0x3d9bb567	0.07602959
233	0x3d3ec12b	0.046570938
234	0x3d8bc96e	0.06825529
235	0x3debe737	0.1151871
236	0x3db4b379	0.08823294
237	0x3dba8671	0.09107674
238	0x3d9f1da9	0.07769329
239	0x3d456eed	0.04820149
240	0x3db3e930	0.08784711
241	0x3debf690	0.115216374
242	0x3d8f8af0	0.07008922
243	0xbce1871f	-0.027530251
244	0x3da915cd	0.08256111
245	0x3dee2105	0.11627392
246	0x3d5c9960	0.053857207
247	0xbaab5577	-0.0013071735
248	0x3db09779	0.08622641
249	0x3de9d82d	0.114181854
250	0x3d87b68c	0.06626615
251	0x3d722223	0.059114587
252	0x3d6fc844	0.058540598
253	0x3d0dea3c	0.03464721
254	0x3d999146	0.07498412
255	0x3c45bb95	0.012068649

module.bi_lstm1.weight_hh_l0 f4 [64, 16]
0	0x3ca35544	0.019938119
1	0xbbb6e5b3	-0.0055815815
2	0xbb0ed672	-0.00217953
3	0xbbaa65f8	-0.005200144
4	0x3c13dd55	0.009024938
5	0x3cc4df88	0.02403237
6	0xb78b08ff	-1.657428e-05
7	0xbbc870bf	-0.006116956
8	0x3c71900e	0.014743818
9	0x3bad9ff1	0.0052986075
10	0x3d0b68a0	0.034035325
11	0xbb81906a	-0.003953983
12	0xbcd3aebb	-0.025840154
13	0x3c74119f	0.014896779
14	0x3bf9d58c	0.0076243337
15	0xbc08aebd	-0.008342442
16	0x3b1efb4b	0.002425867
17	0xbc5694d4	-0.013097007
18	0x3c20bd5f	0.009810775
19	0xbb93d315	-0.004511247
20	0xbcf782d4	-0.03021375
21	0xbb89f4e1	-0.0042101
22	0x3bd016ca	0.006350373
23	0x38e1dc25	0.00010769841
24	0xbc5b0125	-0.013366972
25	0x3b8110ff	0.0039387937
26	0xbceaf6e6	-0.028682183
27	0x3c0b9a0a	0.0085206125
28	0x3aad9836	0.0013244215
29	0x3c1e3e97	0.009658477
30	0x3bb6c6aa	0.005577882
31	0x39c8a70c	0.00038271432
32	0xbbaa4004	-0.0051956195
33	0x3caeab20	0.021321833
34	0x3bed4c51	0.0072417636
35	0xba3593bd	-0.0006926617
36	0x3c102fb7	0.008800439
37	0xbb83e3ea	-0.004024972
38	0x3a13d4e0	0.0005639326
39	0xba12cdac	-0.00056001055
40	0xbb797579	-0.0038064404
41	0xb9ed2011	-0.00045228054
42	0x3aaa511c	0.0012994143
43	0xba219675	-0.00061640824
44	0x3c9b1f9b	0.01893597
45	0xbcb40bc8	-0.021978274
46	0x3c355361	0.011067242
47	0xbb1030aa	-0.0022001662
48	0x3ae19709	0.001721115
49	0xbace4152	-0.001573602
50	0x3b2913d4	0.0025799172
51	0xbba84331	-0.005134963
52	0x3b1cfc1f	0.0023953987
53	0x3c215d33	0.009848881
54	0x3a5cfd33	0.00084300636
55	0xbad9f81f	-0.0016629732
56	0x3bb555be	0.005533903
57	0x3b1164d9	0.0022185354
58	0x3c19203d	0.009346065
59	0x3a900544	0.0010987897
60	0xbbe5168e	-0.006991214
61	0x3b742029	0.0037250614
62	0x3b8eb353	0.004354873
63	0xbae00d87	-0.0017093875
64	0xbd032c63	-0.032024752
65	0xbb3e38ca	-0.0029025548
66	0x3d0753a3	0.033038747
67	0xbb033c5e	-0.0020024995
68	0xbdb011e6	-0.08597164
69	0xbd40586c	-0.046959326
70	0x3c9f83cb	0.019472023
71	0x3c4c6257	0.012474618
72	0x3b20a80b	0.0024514224
73	0x3bf52a32	0.0074818367
74	0xbde499cf	-0.11162149
75	0x3bca40af	0.0061722617
76	0xbbb38a71	-0.00547915
77	0x3d06d0ff	0.032914158
78	0x3d02e8d0	0.03196031
79	0x3b6f8eb3	0.0036553561
80	0x3c4fee9a	0.012691164
81	0xbc3635e1	-0.011121244
82	0xb98a926a	-0.00026430498
83	0xbbdf9dbd	-0.006824224
84	0xbb16f387	-0.0023033337
85	0x3d19abec	0.037517473
86	0x3b617f0b	0.0034408
87	0xbba714d7	-0.00509892
88	0x3c7f77bf	0.015592515
89	0x3bdc7893	0.0067282408
90	0x3cae8d05	0.021307478
91	0xbab64933	-0.0013907313
92	0xbc93046d	-0.017946446
93	0x3c79e863	0.015253159
94	0x3c4e6475	0.012597193
95	0xbb6ebc0d	-0.0036428005
96	0xbbb61549	-0.0055567366
97	0xba81d13b	-0.0009904274
98	0x3b4735fc	0.0030397167
99	0x3aff5951	0.0019481574
100	0xbc130750	-0.008973911
101	0xbbc3ec5e	-0.005979105
102	0x3a659de5	0.0008759185
103	0x3a54eef0	0.00081227627
104	0xbc0cc055	-0.008590777
105	0x3a275d24	0.00063844235
106	0xbc4a9e4c	-0.0123668425
107	0x3a0214bd	0.00049621967
108	0x3c740724	0.014894281
109	0xbc548e50	-0.012973383
110	0xbb973dcc	-0.004615521
111	0x393e1cfa	0.00018130607
112	0x3a40514f	0.00073363347
113	0xbc07b944	-0.008283917
114	0xbb41e1dd	-0.0029584088
115	0xbb2171ca	-0.0024634474
116	0x3bd95f12	0.0066336477
117	0x3b840a24	0.004029529
118	0xbb2d6ac8	-0.0026461352
119	0xbb845083	-0.004037918
120	0x3b6eaeeb	0.0036420177
121	0x3b2eb60b	0.00266588
122	0xbbcad646	-0.006190094
123	0xbae7656e	-0.001765413
124	0x3c089806	0.008337026
125	0xbbef3862	-0.0073004225
126	0xbbdd973a	-0.0067624124
127	0xbb597bb3	-0.0033185303
128	0xbcbcab61	-0.023030939
129	0xbbc918db	-0.006136996
130	0x3ce2096e	0.027592387
131	0x3a9cbf79	0.0011958919
132	0xbd3cfaaa	-0.04613749
133	0xbbc1bd0e	-0.0059124297
134	0x3c4d8f56	0.012546381
135	0x3bfca411	0.007709988
136	0xbc8c7637	-0.017146213
137	0x3bc9be5c	0.006156726
138	0xbce50dc0	-0.027960658
139	0x3bd9aca9	0.006642897
140	0x3c0a4e7f	0.0084415665
141	0xbc2053ac	-0.009785574
142	0xbaf65543	-0.001879372
143	0x3b2a5434	0.002599013
144	0x3b52637e	0.003210276
145	0xbb1bc7fe	-0.0023770328
146	0xbb6fd174	-0.003659335
147	0xba3f702e	-0.0007302788
148	0x3be81d39	0.0070835617
149	0x3b97f3c0	0.0046372116
150	0xba747ca7	-0.0009326436
151	0xba87dfab	-0.0010366341
152	0x3b939892	0.004504272
153	0x398b745b	0.00026598838
154	0x3bef4c7e	0.0073028198
155	0xba2cbaca	-0.0006589113
156	0xbb74f6e5	-0.0037378606
157	0x3b2b1ee5	0.0026110944
158	0xba82892c	-0.0009959093
159	0xba3f7a83	-0.00073043274
160	0xb9ae3a53	-0.0003323132
161	0x3c9a5f58	0.018844292
162	0x3c9349bd	0.017979497
163	0xbb564ee7	-0.0032700838
164	0xbb52bf5c	-0.0032157516
165	0x3a82dc40	0.0009983853
166	0x3c1f8ec4	0.009738628
167	0xba5b5e18	-0.0008368208
168	0xbc2a2df4	-0.010386933
169	0x3b3b9841	0.0028624686
170	0xbc06c778	-0.008226268
171	0xbb4bab3e	-0.003107741
172	0x3ce1f48f	0.027582435
173	0xbb941e7f	-0.004520237
174	0x3c602b2a	0.013682166
175	0xbbe320d8	-0.0069314055
176	0xba04a4a9	-0.00050599367
177	0x3b7e0f84	0.0038766572
178	0x396fc1eb	0.00022865056
179	0xb92f06ff	-0.00016691907
180	0x3b88b573	0.004172021
181	0x3a89a3f8	0.0010501137
182	0xb9ceecee	-0.00039467908
183	0xb9d4bde2	-0.00040577265
184	0x37fe2b3e	3.0299296e-05
185	0xb9e3c395	-0.00043442534
186	0x3badbd36	0.0053020967
187	0x395d1e30	0.00021087448
188	0x3b4d5d88	0.0031336267
189	0xbbb8f53a	-0.0056444677
190	0x3ac1855b	0.0014764474
191	0xb9f18251	-0.00046064195
192	0x3a3e16dc	0.0007251331
193	0xbc210c18	-0.0098295435
194	0x3c2194fa	0.009862179
195	0x3c212f91	0.009838001
196	0x3bcaec46	0.006192717
197	0x3c4752a2	0.012165697
198	0x3c1a67a0	0.00942412
199	0x39b6ceae	0.00034867733
200	0xbc965f0a	-0.018355865
201	0x3b9578c7	0.004561517
202	0x3ce285e6	0.027651738
203	0x3c6b7872	0.014371978
204	0x3cc14559	0.023592638
205	0xbc85ade4	-0.01631827
206	0xbb23ebd1	-0.0025012384
207	0xbbbdda36	-0.005793835
208	0xbd007dad	-0.031369854
209	0xbb89bcc1	-0.0042034094
210	0x3ccad7b2	0.024761055
211	0x3c583b96	0.0131978
212	0xbd6b08b3	-0.057381343
213	0xbcfb9cd1	-0.030714424
214	0x3c469aa6	0.012121832
215	0x3c4e713a	0.0126002375
216	0xbcbacbc8	-0.022802249
217	0x3a5d70f1	0.00084473105
218	0xbd89ee5c	-0.067349166
219	0x3c609037	0.0137062585
220	0x3cb6f7e9	0.02233501
221	0x3a937be3	0.0011252131
222	0xbadadee3	-0.0016698505
223	0x3b64250d	0.0034812123
224	0xbc9c6693	-0.01909188
225	0x3c50d1de	0.012745349
226	0x3cc90e2c	0.02454289
227	0xbba0dc8c	-0.0049091037
228	0xbcc1190f	-0.02357152
229	0xbb873671	-0.004126363
230	0x3bff909f	0.0077992226
231	0x3b96d330	0.004602812
232	0x3a34837a	0.00068860466
233	0x3ba4ddf0	0.00503134
234	0xbc6d9992	-0.014501946
235	0x3baebaa8	0.0053323098
236	0xbafb569f	-0.0019175595
237	0xbac53de2	-0.001504835
238	0x3ca254d4	0.01981584
239	0x3a60d948	0.00085772993
240	0x3aba06f9	0.0014192752
241	0xbab60a93	-0.0013888649
242	0xba2ed88d	-0.0006669842
243	0xbaa1df63	-0.00123499
244	0x3ade4929	0.0016959059
245	0x3b93bb51	0.004508414
246	0x3972dd88	0.00023161445
247	0xb9f4e3e4	-0.00046709098
248	0x3a23913b	0.00062395976
249	0x3a320c7f	0.0006792023
250	0x3b8b7741	0.0042561595
251	0x38f15ff0	0.00011509645
252	0xbb00196e	-0.0019546407
253	0x3a953940	0.001138486
254	0x3a0c81a5	0.0005359895
255	0xb9ecd57e	-0.00045172492

module.bi_lstm1.bias_ih_l0 f4 [64]
0	0x3e0f38e4	0.13986546
1	0x3e03fdd7	0.12889801
2	0x3d567db9	0.052365992
3	0x3d0da32d	0.034579445
4	0x3d960d45	0.0732675
5	0x3e0d15c3	0.13777833
6	0xbc379072	-0.011203872
7	0x3cb0d7d8	0.021587297
8	0x3dc93f69	0.09826548
9	0xbc87c28f	-0.016572265
10	0x3e1abee6	0.15111884
11	0xbbf473ef	-0.0074601094
12	0x3e31b8c1	0.17355634
13	0x3e2977ef	0.16549657
14	0x3e04a7fd	0.12954707
15	0x3acb92a8	0.0015531378
16	0x3e0a81f5	0.13526137
17	0x3e29ee17	0.1659473
18	0xbaa98207	-0.0012932428
19	0x3d2330a0	0.039841294
20	0x3e0d21e0	0.13782454
21	0x3e3d5c73	0.18492298
22	0x3c9bb597	0.019007487
23	0x3d1de92f	0.03855246
24	0x3e228f56	0.15874991
25	0xbc6ec29c	-0.014572766
26	0x3e7826f2	0.24233606
27	0xbcc12f25	-0.02358205
28	0x3e1ac53f	0.15114306
29	0x3db2e4d0	0.08735049
30	0x3dd06f89	0.10177524
31	0x3b918f2e	0.004442117
32	0x3d0faf97	0.035079565
33	0xbe26f868	-0.16305697
34	0x3e296174	0.16541082
35	0x3c05ddcf	0.008170559
36	0x3db3cabd	0.08778904
37	0x3e33a2fa	0.1754264
38	0x3d8e3520	0.069437265
39	0xbc357f50	-0.011077717
40	0x3e0c98f7	0.13730226
41	0x3e12a496	0.14320597
42	0xbe41f6b2	-0.18941763
43	0x3dbe0106	0.09277539
44	0xbcffc651	-0.031222494
45	0x3e3ebdfe	0.18627164
46	0x3d6a6eb0	0.057234466
47	0xbe30579c	-0.1722092
48	0x3dc109a3	0.09425666
49	0x3d2637fc	0.040580735
50	0xbd83d709	-0.06437499
51	0x3d20cee0	0.03925979
52	0x3decd47b	0.11563965
53	0x3e02b555	0.12764485
54	0x3c550ec2	0.013004007
55	0xbc2fcfc0	-0.010730684
56	0x3dcbe03a	0.09954877
57	0xbc5c4d6f	-0.013446196
58	0x3d59940d	0.053119708
59	0x3c0f2156	0.008735975
60	0x3da3aa4a	0.079914644
61	0xbc43506e	-0.011921031
62	0x3da8903d	0.08230636
63	0x3a5a0e9e	0.0008318218

module.bi_lstm1.bias_hh_l0 f4 [64]
0	0x3da45e57	0.080258064
1	0x3e475de6	0.19469413
2	0x3dd7c7c6	0.10536151
3	0x3d22665c	0.0396484
4	0x3d885137	0.066561155
5	0x3df56d5f	0.119837515
6	0x3bebeeca	0.0072000967
7	0xbd965a25	-0.073414125
8	0x3db60ed4	0.08889547
9	0xbc6014a0	-0.013676792
10	0x3b303ce7	0.002689177
11	0x3b0a4dea	0.002110357
12	0x3e3a426e	0.18189403
13	0x3dd740ac	0.10510382
14	0x3deed92c	0.11662516
15	0x3ad8b4be	0.0016533358
16	0x3de5acfc	0.11214635
17	0x3d80fd4d	0.06298313
18	0xbd133f13	-0.035948824
19	0x3d140761	0.03613985
20	0x3dca9da7	0.09893351
21	0x3e0907c7	0.13381873
22	0x3bf7d44c	0.0075631496
23	0x3d5fdc76	0.054653607
24	0x3e24e989	0.16104712
25	0xbc6ab9d1	-0.014326529
26	0x3e5f7656	0.21822485
27	0x3b7e894f	0.0038839167
28	0x3e1107ea	0.14163175
29	0x3e27d112	0.16388348
30	0x3d701c3d	0.05862068
31	0x3b3a781a	0.0028452934
32	0xbe287d46	-0.16454038
33	0xbd0c5761	-0.03426302
34	0xbd0ca349	-0.03433541
35	0x3cb0c06d	0.02157613
36	0xbd19287f	-0.037392136
37	0xbd3b19dc	-0.04567896
38	0x3dfab94d	0.122423746
39	0x3e20f05b	0.15716688
40	0x3ddcd4fd	0.10782812
41	0xbe083006	-0.1329957
42	0x3e58cdcc	0.21172255
43	0x3dccf1ce	0.10007058
44	0xbe610e6a	-0.21978155
45	0x3d11088f	0.035408553
46	0x3cbe1f4d	0.023208285
47	0xbd9cbcf9	-0.07653231
48	0x3d9996aa	0.0749944
49	0x3daac4ec	0.08338341
50	0x3c1316e0	0.008977622
51	0x3d2079ba	0.039178587
52	0x3d21cdad	0.03950279
53	0x3deefa82	0.11668874
54	0x3cc51cd4	0.024061598
55	0xbc9ce186	-0.019150507
56	0x3db6fa1a	0.08934422
57	0xbca609d4	-0.020268358
58	0x3e54cc79	0.20781125
59	0xbbe38502	-0.006943346
60	0x3e691eac	0.22765607
61	0x3db75a76	0.08952801
62	0x3dedb5d0	0.116069436
63	0xbb8bff4d	-0.0042723776

module.bi_lstm1.weight_ih_l0_reverse f4 [64, 14]
0	0x3d57ff2f	0.052733596
1	0xbe2cf8ae	-0.16891739
2	0x3e14d20b	0.1453325
3	0x3d24a7fc	0.040199265
4	0xbe0e50d2	-0.13898018
5	0xbe2b87dd	-0.16751046
6	0xbe21b2a3	-0.15790801
7	0xb92494a2	-0.00015695629
8	0xbe021e4d	-0.12706871
9	0xbc119652	-0.008885937
10	0xbdf21487	-0.118203215
11	0xbcffc79a	-0.031223107
12	0xbd52e036	-0.051483355
13	0x3c29e362	0.010369154
14	0x3df1c6a8	0.11805469
15	0x3d828772	0.063734904
16	0xbcabbe2d	-0.020964706
17	0xbd81ba1b	-0.06334325
18	0x3b45d434	0.0030186297
19	0x3c80776c	0.015681945
20	0xbd9ba49c	-0.07599756
21	0x3dfec984	0.1244078
22	0xbcaf5350	-0.021402031
23	0x3aeeee41	0.0018228964
24	0x3d235c5e	0.03988301
25	0x3d5244e0	0.051335216
26	0x3e158be6	0.14604148
27	0x3e2786b4	0.16359979
28	0xbc98f6d9	-0.018672394
29	0xbd8b9934	-0.068163306
30	0x3d0155bf	0.031575914
31	0xbd7a19d4	-0.061059788
32	0xbde1946b	-0.110146366
33	0xbd4cccca	-0.04999999
34	0x3c5511bf	0.013004719
35	0x3db150ec	0.08658013
36	0xbe1f9739	-0.1558503
37	0x3be4f575	0.0069872686
38	0xbdbf7343	-0.09348156
39	0xbda1bd19	-0.07897396
40	0x3e22fead	0.15917464
41	0x3dc45bfc	0.09587857
42	0x3d98e8b5	0.0746626
43	0x3d917bf3	0.071037196
44	0x3d8b77e1	0.068099745
45	0x3db2c56d	0.08729062
46	0x3d45f861	0.048332576
47	0x3d2af9b7	0.041742053
48	0x3d4a70a4	0.04942383
49	0x3d86d100	0.06582832
50	0x3d433a3c	0.04766296
51	0x3d42105d	0.047378886
52	0x3d7845a9	0.060613308
53	0x3d83bc33	0.064323805
54	0x3d99a189	0.075015135
55	0x3d9577a6	0.07298212
56	0x3c208e22	0.009799512
57	0xbd0a79fb	-0.033807736
58	0xbded2194	-0.1157867
59	0xbe19870d	-0.14992924
60	0xbda7c7b0	-0.08192384
61	0xbd01c0a1	-0.031677846
62	0x3dcd92fc	0.10037801
63	0xbb6ca1e5	-0.003610724
64	0x3e7e7a67	0.2485138
65	0xbd83e9d2	-0.06441082
66	0x3b71579c	0.00368259
67	0x3c714ed8	0.0147282705
68	0x3d16daae	0.036829643
69	0x3e4d8e19	0.20073737
70	0x3ca7c2cc	0.020478629
71	0x3d95997c	0.073046654
72	0x3d6e6af0	0.058207452
73	0xbd7ed70d	-0.062216807
74	0x3d84954a	0.06473787
75	0xba249345	-0.00062780484
76	0x3dcabae9	0.098989315
77	0x3d053429	0.032520447
78	0xbcbe3234	-0.023217298
79	0x3d1ade93	0.03780992
80	0x3d9152b3	0.07095852
81	0x3e0129f8	0.12613666
82	0xbcb5a074	-0.022171237
83	0xbdcd6acd	-0.10030136
84	0xbdd19a7a	-0.10234542
85	0xbc0c6bb6	-0.008570602
86	0xbcbf7456	-0.023370903
87	0x3df508d3	0.11964574
88	0x3dec86b7	0.11549132
89	0x3dfed8bd	0.12443683
90	0x3cf1e768	0.029529288
91	0xbc3d89bd	-0.011568484
92	0x3d446531	0.047948066
93	0x3e28bb79	0.16477765
94	0xbb405d3f	-0.0029352454
95	0xbe0d3eec	-0.13793534
96	0xbd92c5a6	-0.07166605
97	0xbdf80335	-0.12109987
98	0x3e584ba9	0.21122612
99	0x3de552a8	0.11197406
100	0xbb8d6f7a	-0.0043162676
101	0x3d9be57a	0.076121286
102	0x3d959b2f	0.073049895
103	0xbdede331	-0.11615599
104	0xbd6b2d75	-0.057416398
105	0x3df280f4	0.11841002
106	0x3dc78a54	0.09743181
107	0xbdff2ef4	-0.124601275
108	0xbd40f105	-0.047104854
109	0xbd469e0a	-0.04849056
110	0x3e6bc560	0.23024511
111	0xbdaa14d8	-0.08304757
112	0x3e5e0f96	0.21685633
113	0xbe0c30d5	-0.13690503
114	0x3e113fdf	0.14184521
115	0x3e2c5243	0.16828255
116	0x3cba0d5b	0.022711447
117	0x3c51ad09	0.012797602
118	0x3d9aec1c	0.075645655
119	0xbe7605e2	-0.24025682
120	0x3e4e89df	0.20169781
121	0x3c969fdd	0.018386776
122	0x3d2c3652	0.04204399
123	0xbe0a3ad9	-0.13499011
124	0xbe8cb9c8	-0.2748549
125	0xbde6d2f4	-0.11270705
126	0x3d655248	0.055986673
127	0x3e394765	0.18093641
128	0x3dd0fd5e	0.10204576
129	0x3dc662a8	0.09686786
130	0xbd33e34a	-0.04391793
131	0x3da2fd5d	0.079584815
132	0x3c439a06	0.0119385775
133	0xbd162036	-0.036651812
134	0x3d5fe152	0.05465824
135	0x3d5c6a56	0.053812347
136	0xba297949	-0.0006464911
137	0x3de142c1	0.109990604
138	0xbc300981	-0.010744453
139	0xbd4a2d1f	-0.049359437
140	0xbc2b5566	-0.010457372
141	0x3cdc94d4	0.026926436
142	0x3ddacd08	0.10683638
143	0x3e132770	0.14370513
144	0xbb9410a0	-0.0045185834
145	0xbd7fd0d4	-0.062455013
146	0xbdebabfd	-0.115074135
147	0x3d997297	0.074925594
148	0xbd8f5b68	-0.06999856
149	0xbd32f969	-0.043694887
150	0x3db9275b	0.090407096
151	0xbdb7a546	-0.0896707
152	0x3e2cd113	0.1687663
153	0xbd6640d8	-0.056214184
154	0xbdc2003f	-0.09472703
155	0xbdafb41a	-0.085792735
156	0x3d38b7bf	0.04509711
157	0xbcaba1d8	-0.020951197
158	0x3c25d292	0.010121005
159	0xbc000183	-0.00781286
160	0xbce1aa44	-0.02754701
161	0x3d7f5827	0.062339928
162	0x3e07a2aa	0.13245645
163	0xbd2848df	-0.04108512
164	0x3daceea7	0.08443957
165	0x3c0c0c69	0.008547881
166	0x3cc0f564	0.023554511
167	0xbdcdf95d	-0.10057328
168	0x3dfec685	0.12440208
169	0x3d0b99d5	0.034082253
170	0xbbdfcfaf	-0.0068301777
171	0x3cace9ff	0.021107672
172	0x3d987208	0.07443625
173	0x3c184e0f	0.009295954
174	0xba8e875e	-0.0010874083
175	0x3dccde57	0.100033455
176	0x3d64873e	0.05579304
177	0xbb8f2cad	-0.0043693394
178	0x3d3c37c3	0.045951616
179	0x3c834362	0.016023342
180	0x3ce8d30a	0.028420944
181	0x3debbf37	0.11511081
182	0x3dac8307	0.08423429
183	0x3e31a80e	0.17349264
184	0x3e00f24a	0.12592426
185	0x3dbf3efe	0.09338187
186	0x3dfa170b	0.12211426
187	0x3dad4c9a	0.08461876
188	0x3d74cbc5	0.059764642
189	0x3c54e05f	0.012992947
190	0x3dba0943	0.09083798
191	0x3d6904a1	0.05688918
192	0x3d4b7e1f	0.049680825
193	0x3dde26d5	0.1084725
194	0xbc75c2ca	-0.015000055
195	0x3ccd3173	0.025047993
196	0x3cb15b79	0.021650063
197	0xbbe27a0f	-0.006911523
198	0x3c4d85cd	0.012544108
199	0x3bc10fdd	0.0058917836
200	0x3c0ff789	0.008787044
201	0xbc5b05d1	-0.013368086
202	0x3b9dbaa1	0.0048135077
203	0xbbe2d041	-0.0069217985
204	0x3c2b1909	0.010442981
205	0xbc73c1d5	-0.014877756
206	0x3bd4db1b	0.006495846
207	0xbc0b78ec	-0.008512717
208	0x3c0cdc47	0.00859744
209	0xbbe10d1b	-0.0068680174
210	0x3d195935	0.03743859
211	0x3d4e23b1	0.050327007
212	0x3d37c07d	0.044861306
213	0xbbf3f037	-0.0074444073
214	0x3dcdb5eb	0.10044464
215	0x3cdd2dc2	0.026999358
216	0x3d2c89fd	0.042123783
217	0x3d0d376f	0.034476694
218	0x3dcf2ba5	0.101157464
219	0x3d1907a3	0.0373608
220	0x3dcfb9c2	0.10142852
221	0x3d792d0a	0.06083397
222	0x3bab9448	0.0052361824
223	0x3da648b8	0.08119339
224	0xbd5d1330	-0.053973377
225	0x3ddd3c97	0.10802572
226	0x3e1eb72f	0.15499566
227	0x3e325337	0.17414556
228	0x3dfc6b56	0.1232516
229	0xbd73f487	-0.05955937
230	0x3b8d822f	0.0043184976
231	0x3b0df167	0.002165878
232	0x3d70a9c5	0.058755655
233	0xbd69e89f	-0.05710661
234	0xbdb0a649	-0.086254664
235	0x3e2522c8	0.16126549
236	0xbdf90499	-0.1215908
237	0xbc7e5b7f	-0.015524744
238	0x3dfb1326	0.12259512
239	0xbd49fa12	-0.04931075
240	0xbc7ce703	-0.015435937
241	0x3d90805a	0.07055731
242	0xbd4be6cb	-0.04978065
243	0xbbbd7494	-0.0057817195
244	0xbd9eb5e5	-0.077495374
245	0x3d1a3d9c	0.03765641
246	0xbc5cf81d	-0.013486889
247	0x3d3344a0	0.043766618
248	0x3db9f1c4	0.09079316
249	0x3d4f1241	0.050554518
250	0x3dc84515	0.09778801
251	0x3d20a82e	0.03922289
252	0x3da605fa	0.08106609
253	0x3dc72170	0.097231746
254	0x3ddbc4af	0.10730874
255	0x3dfbf244	0.12302068

module.bi_lstm1.weight_hh_l0_reverse f4 [64, 16]
0	0xbd602e8d	-0.054731894
1	0xbdb5fa5f	-0.08885645
2	0x3c6e70a0	0.014553219
3	0xbdd89156	-0.10574596
4	0xbd49ab22	-0.04923547
5	0x3d3d7965	0.04625835
6	0x3e126ae5	0.1429859
7	0x3a80ee19	0.0009836584
8	0xbddefc72	-0.10887994
9	0x3e1d2ab8	0.15348327
10	0x3d90dd94	0.07073513
11	0xbd043948	-0.03228119
12	0xbd695745	-0.056967992
13	0x3e047a22	0.12937215
14	0x3b202ed2	0.002444197
15	0x3d81f436	0.06345408
16	0xbcd3c151	-0.025849016
17	0x3c937d91	0.01800421
18	0xbd8cfc85	-0.06884102
19	0x3ba969ef	0.005170099
20	0x3bf59160	0.0074941367
21	0x3ab72911	0.0013974031
22	0x3d0cf26e	0.034410886
23	0xbbaa2089	-0.005191867
24	0x3d14baf8	0.03631112
25	0xbd44eabd	-0.048075426
26	0x3d02d765	0.031943697
27	0x3c2f0b1c	0.010683801
28	0xbca974e3	-0.020685619
29	0x3cc1a495	0.02363805
30	0xba68bcad	-0.00088782125
31	0x3d2891e3	0.041154753
32	0x3c33620f	0.010948672
33	0xbc5b493b	-0.013384159
34	0x3c8ef8fb	0.017452708
35	0xbb921433	-0.0044579743
36	0xbd310f7b	-0.043227654
37	0x3c62f6ee	0.013852818
38	0xbbef458c	-0.007301992
39	0xbc1ba37c	-0.009499427
40	0xbcead6f3	-0.028666949
41	0xbd918b04	-0.07106593
42	0x3cd35197	0.025795741
43	0xbb670ff3	-0.003525731
44	0xbcc2872d	-0.023746097
45	0x3d78c719	0.06073675
46	0xba96eb9e	-0.0011514311
47	0x3bd924c6	0.006626698
48	0x3cdf966f	0.027293412
49	0x3b25e3d4	0.0025312798
50	0xbd449190	-0.04799038
51	0xbc5827da	-0.013193095
52	0x3d833a79	0.06407637
53	0x3d2725e8	0.040807635
54	0x3ceacf7e	0.028663393
55	0x3d151d1a	0.036404707
56	0x3d1258df	0.035729285
57	0xbd435235	-0.04768582
58	0x3d1b989b	0.037987333
59	0x3c2f5eb5	0.010703732
60	0x3c3d4ce1	0.011553974
61	0xbce6599d	-0.028118903
62	0xbb349f5f	-0.0027560813
63	0xbd2b57fe	-0.041831963
64	0xbe1d7a82	-0.15378764
65	0xbdcc1873	-0.09965601
66	0xbcb5a1a4	-0.022171803
67	0xbd8938d0	-0.06700289
68	0xbcd10ab8	-0.025517806
69	0xbe5ccdf9	-0.21562947
70	0xbea80e9d	-0.3282365
71	0xbe2fd0ef	-0.17169546
72	0x3e524f1a	0.20537987
73	0x3db148eb	0.08656486
74	0x3e2c1fbf	0.16808985
75	0x3d461ff5	0.04837032
76	0xbe65d650	-0.22445035
77	0x3e524465	0.20533903
78	0x3d39ce72	0.045362897
79	0x3e3857f4	0.18002301
80	0xbcc255ef	-0.023722617
81	0xbcec0395	-0.028810302
82	0x36f977e2	7.4347345e-06
83	0xbd60de2f	-0.05489939
84	0x3dfeb7ab	0.12437376
85	0x3a9af60d	0.0011822596
86	0x3b9f3b96	0.004859398
87	0x3c79f7ef	0.015256866
88	0x3d494883	0.04914142
89	0xbdefff71	-0.117186435
90	0x3b9cf8d4	0.004790405
91	0xbb0aa082	-0.00211528
92	0xbcfbf389	-0.030755775
93	0xbb5df4ec	-0.0033867909
94	0x3a49caac	0.0007697742
95	0xbb925077	-0.0044651586
96	0x3ca77a26	0.020443987
97	0x3d0b7e91	0.03405625
98	0x3d709b97	0.058742132
99	0x3df6416e	0.120241985
100	0xbde29f5a	-0.1106555
101	0x3d0ad2ff	0.033892628
102	0x3d80bc5e	0.06285928
103	0x3d7dc233	0.06195278
104	0xbe39cc88	-0.18144429
105	0x3e11d491	0.14241244
106	0x3d439dec	0.047758028
107	0x3c051283	0.008122089
108	0x3d9a7b67	0.075430684
109	0xbd3adf1a	-0.045622922
110	0xbcda0e7d	-0.026618237
111	0x3d6f83bf	0.058475252
112	0x3c3c828c	0.011505734
113	0xbd21c46c	-0.039493963
114	0xbd48c7a8	-0.049018532
115	0xbd73d007	-0.059524562
116	0xbdd45fa0	-0.103698015
117	0x3d403fda	0.046935894
118	0x3e0484a8	0.1294123
119	0x3d1d3aa9	0.03838602
120	0xbca440a3	-0.020050352
121	0xbd88c690	-0.06678498
122	0xbb322d3d	-0.0027187609
123	0xbcacc6d6	-0.021090906
124	0x3d10ec99	0.035381887
125	0xbcbc72e9	-0.023004012
126	0xbc786524	-0.015160833
127	0x3c0b0fdc	0.008487668
128	0x3ced771d	0.028987462
129	0x3d80c0ba	0.0628676
130	0xbbb2ff2f	-0.005462549
131	0x3d368dd2	0.044568844
132	0xbe7f5221	-0.24933673
133	0xbdf14bf7	-0.11782067
134	0xbe08459e	-0.13307807
135	0xbe74ea36	-0.2391747
136	0x3d3f2dd5	0.04667457
137	0x3e65d579	0.22444715
138	0xbe22c7e4	-0.15896565
139	0x3ce7b3a1	0.028283896
140	0xbd855690	-0.06510651
141	0xbd422956	-0.047402702
142	0x3d40d1f7	0.047075238
143	0x3d68d66e	0.05684512
144	0x3d40d234	0.047075465
145	0xbc022e9f	-0.007945686
146	0xbdc5ea8b	-0.09663876
147	0xbbc38e8b	-0.00596792
148	0xbcdc4d54	-0.026892342
149	0x3d788dae	0.06068199
150	0x3b55a5f8	0.0032600146
151	0x3c9cc5e5	0.019137332
152	0xbb18a610	-0.002329234
153	0xbc29222f	-0.010323091
154	0x3db8a6a9	0.09016163
155	0xbb15c041	-0.0022850188
156	0x3cd16ee5	0.025565574
157	0xbda1d838	-0.079025686
158	0x3b3c9f3b	0.0028781432
159	0xbdfb9332	-0.12283935
160	0xbd36d22a	-0.04463402
161	0x3c0839ec	0.008314591
162	0xbb41c323	-0.0029565773
163	0xbbfb5bd8	-0.0076708607
164	0x3d3603e5	0.044437308
165	0x3c7290af	0.014805003
166	0xbc455ffe	-0.012046812
167	0x3c8b3fdd	0.016998226
168	0x3bd29831	0.006426834
169	0x3cf63f08	0.030059353
170	0x3c9dc088	0.019256845
171	0x3aba3db4	0.0014209063
172	0xbd185631	-0.037191574
173	0x3d26314f	0.040574368
174	0xbb96ac73	-0.0045981943
175	0x3d26ad47	0.040692594
176	0xbd1971ff	-0.03746223
177	0x3c677d7a	0.014129037
178	0x3dbdbaff	0.09264182
179	0x3d34199c	0.043969736
180	0x3d18b4c6	0.037281774
181	0xbd65ee5b	-0.056135517
182	0xbda71b9b	-0.08159562
183	0xbdc23251	-0.09482253
184	0x3c44ce32	0.012012051
185	0x3d9bf4bd	0.076150395
186	0x3d4c277d	0.049842346
187	0xbba13474	-0.004919583
188	0xbc37b1d4	-0.011211831
189	0x3c93dc1b	0.01804929
190	0x3b8114d6	0.0039392514
191	0xbcec3390	-0.02883318
192	0x3cacb5c9	0.021082776
193	0xbd2c152b	-0.042012375
194	0xbd89f903	-0.06736948
195	0xbc938d19	-0.018011617
196	0xbdaa4f9f	-0.08315968
197	0xbc9dc031	-0.019256683
198	0xbdc16585	-0.094431914
199	0xbcd8d11c	-0.026466899
200	0xbd55f173	-0.052232217
201	0x3a7e2bbd	0.00096958486
202	0x3c85848b	0.016298553
203	0x3ca880c7	0.020569218
204	0xbbca5187	-0.0061742696
205	0x3b8e978e	0.004351563
206	0x3cef920c	0.029244445
207	0xbbd00b7f	-0.0063490267
208	0x3d025fb9	0.03182957
209	0xbd2a0add	-0.041514266
210	0xbd171c54	-0.03689225
211	0xbd8a4a63	-0.067524694
212	0xbda7ec2b	-0.08199342
213	0x3d6d68a1	0.05796111
214	0x3d4de8d0	0.050270855
215	0x3c86cdf9	0.016455637
216	0x3d3f64c5	0.04672696
217	0xbe042ce1	-0.12907745
218	0xbaabf3de	-0.0013118943
219	0x3c9e3a92	0.019315038
220	0x3c5a5153	0.013325053
221	0xbdb8dbfc	-0.09026334
222	0x3c4b24e0	0.012398928
223	0xbd9478ee	-0.07249628
224	0xbc1c384f	-0.009534909
225	0x3b37d6b5	0.002805156
226	0x3c82d425	0.015970299
227	0xb784f5ba	-1.5850052e-05
228	0xbc90b950	-0.017666489
229	0xbc7dd474	-0.015492547
230	0xbcfec58d	-0.031100059
231	0xbd0a0c0a	-0.033702888
232	0x3c46aa41	0.012125553
233	0x3d5c9e1c	0.053861722
234	0xbbd4a670	-0.0064895675
235	0x3aa6cbfd	0.0012725588
236	0xbc047f24	-0.008086953
237	0x3ba9ee07	0.005185846
238	0x3b5bba23	0.0033527694
239	0x3cb00567	0.021486951
240	0x3d0636bd	0.032767046
241	0xbd070d2d	-0.03297155
242	0xbca568a0	-0.02019149
243	0xbcd8646a	-0.026415069
244	0xbb4c1d9f	-0.0031145585
245	0x3d072077	0.032989945
246	0x3c49c131	0.012314127
247	0xba7cc007	-0.00096416514
248	0x3cb27e57	0.02178876
249	0xbd38c74c	-0.04511194
250	0x3c311f03	0.010810616
251	0xba29b7b5	-0.0006474213
252	0x3c89ce5b	0.01682203
253	0xbd7f05a8	-0.062261254
254	0xbb173196	-0.0023070327
255	0xbd499c8e	-0.049221568

module.bi_lstm1.bias_ih_l0_reverse f4 [64]
0	0xbd45ddd1	-0.048307244
1	0x3e212cd2	0.15739754
2	0x3e03a1e1	0.1285472
3	0x3d89dbb7	0.067313604
4	0xbe200a55	-0.15628941
5	0xbbf9ae95	-0.0076196888
6	0x3e1ec6a3	0.15505461
7	0x3d7abaf1	0.061213437
8	0x3e36c01b	0.1784672
9	0x3d6e3052	0.05815155
10	0x3dff3d96	0.124629185
11	0xbd005255	-0.031328518
12	0x3e1a4041	0.15063573
13	0x3dae8a90	0.085225224
14	0x3984c246	0.00025321747
15	0xbcdbf8bc	-0.026852004
16	0x3e0dfa5d	0.13865037
17	0xbd0ba150	-0.034089386
18	0x3de63296	0.11240117
19	0x3df13af0	0.117788196
20	0x3eb9d579	0.3629568
21	0x3d80d6dc	0.06290981
22	0x3cb7eab6	0.022450786
23	0x3c4aec1e	0.012385396
24	0x3eaf249c	0.34207618
25	0x3da3fa18	0.08006686
26	0x3df86ac1	0.12129737
27	0xbd2d62f9	-0.042330716
28	0x3d56a9d9	0.052408073
29	0xbd38e121	-0.045136575
30	0x3cc99035	0.024604896
31	0x3e45bf5f	0.19311284
32	0x3dbc6263	0.09198453
33	0xbe46eae4	-0.19425541
34	0xbe190f8d	-0.14947338
35	0xbd06887e	-0.032845013
36	0x3d3a6ec8	0.045515805
37	0xbc22bf10	-0.009933248
38	0x3d88dfef	0.06683337
39	0x3e5f0be7	0.21781884
40	0xbd729bdd	-0.059230674
41	0xbe6969d2	-0.22794273
42	0x3e3be064	0.18347317
43	0x3d8c31cc	0.068454355
44	0x3de13021	0.10995508
45	0xbe347544	-0.17622858
46	0xbbbccda1	-0.0057618176
47	0x3e293ce9	0.16527142
48	0x3dc9259b	0.09821626
49	0x3ddeef06	0.10885434
50	0x3e246da9	0.16057457
51	0x3de10a9c	0.10988352
52	0x3e8fc5ea	0.28080684
53	0x3d8bcde8	0.06826383
54	0x3d80fbb1	0.06298006
55	0x3e2a719d	0.16644903
56	0x3e035816	0.12826571
57	0x3d9e118f	0.07718193
58	0x3dc7d53d	0.09757469
59	0xbbeeb965	-0.0072852843
60	0x3e0538a3	0.13009886
61	0x3d05cdfe	0.032667153
62	0x3b23a23a	0.002496852
63	0xbc9bad01	-0.019003393

module.bi_lstm1.bias_hh_l0_reverse f4 [64]
0	0xbd9d5790	-0.07682717
1	0xbdcd8808	-0.100357115
2	0x3e3f8a4c	0.187051
3	0x3dd219f7	0.10258859
4	0x3e3b1faf	0.18273805
5	0xbd8709c0	-0.065936565
6	0xbd34d155	-0.044144947
7	0x3d58c8c8	0.052925855
8	0x3de550fe	0.11197089
9	0xbc3cfac6	-0.011534398
10	0xbd88bf17	-0.066770725
11	0xbe204080	-0.15649605
12	0xbd780678	-0.060553044
13	0xbb64c76d	-0.0034908906
14	0xbc22112a	-0.009891788
15	0x3dca9484	0.09891608
16	0xbdba17b6	-0.09086554
17	0xbc939e4f	-0.018019823
18	0xbdbd0031	-0.09228552
19	0x3dd3dcc6	0.103448436
20	0x3eacb75b	0.3373364
21	0x3e2ec498	0.17067182
22	0x3eb4ab11	0.35286763
23	0x3ea12dfd	0.314804
24	0x3e013b42	0.12620261
25	0x3cf0755d	0.029352838
26	0x3e06aa9a	0.13151017
27	0xbcf5358f	-0.029932765
28	0x3daee5f2	0.08539952
29	0x3e6de9d4	0.2323373
30	0x3c945063	0.018104738
31	0x3cd66155	0.026169458
32	0x3d44f1fa	0.04808233
33	0x3db52e9a	0.08846779
34	0xbe877598	-0.26456904
35	0xbe1273b3	-0.14301948
36	0xbc51fbd7	-0.012816391
37	0x3dd9d937	0.106371336
38	0x3e862bb1	0.2620521
39	0x3d19316e	0.037400655
40	0x3dc3bf14	0.0955793
41	0xbaabcb6d	-0.001310689
42	0x3dc897ec	0.09794602
43	0xbce858d0	-0.028362662
44	0x3c9efb9d	0.019407088
45	0x3e6bbcf7	0.23021303
46	0xbe2b106c	-0.16705483
47	0xbdd8044a	-0.10547693
48	0xbdd1799e	-0.10228275
49	0x3d2735ed	0.040822912
50	0x3e65a469	0.22425999
51	0x3e132f46	0.14373502
52	0x3d3ef90b	0.046624225
53	0x3d934585	0.07190994
54	0x3e2633e7	0.16230737
55	0xbda6cd21	-0.08144594
56	0x3e6d9894	0.23202735
57	0x3e827e5d	0.25487033
58	0x3d9bc16d	0.076052524
59	0x3d183896	0.03716334
60	0xbd8b1fcf	-0.067931764
61	0x3d98953a	0.07450338
62	0xbbdcc600	-0.0067374706
63	0x3c0515c5	0.008122866

module.bi_lstm2.weight_ih_l0 f4 [128, 16]
0	0x3ad19573	0.0015989974
1	0xbbcf3032	-0.006322884
2	0xbc1a81d2	-0.009430366
3	0xbbe1d11b	-0.0068913824
4	0x3c839d97	0.016066356
5	0x3c2f7660	0.010709375
6	0x3bd2cadb	0.0064328737
7	0x3c210f28	0.009830274
8	0x3c3c4d97	0.011493108
9	0xbc57c05d	-0.013168422
10	0x3b9b873f	0.004746347
11	0x3a4c3b49	0.00077908166
12	0xbbd012c4	-0.0063498933
13	0x3bb0e8ca	0.0053988444
14	0xba84a796	-0.0010120745
15	0xbc1eec7f	-0.00969994
16	0x3ae9abcd	0.001782769
17	0xb877d7e5	-5.9090456e-05
18	0xb88bd04c	-6.666835e-05
19	0x3b3b3aeb	0.0028569053
20	0xbb864054	-0.004097024
21	0xb8b15a96	-8.456891e-05
22	0xbb4310c3	-0.002976463
23	0x3a9b9e0f	0.0011872667
24	0x399d3b86	0.00029989722
25	0xbabb93d1	-0.001431102
26	0xba37c458	-0.00070101535
27	0x3a53dddd	0.00080820714
28	0x3a3cd9c8	0.0007204083
29	0xbad76468	-0.0016433122
30	0x3a20005c	0.0006103569
31	0x386cafa2	5.6430355e-05
32	0xbbc66b34	-0.00605526
33	0xbb3877e1	-0.0028147625
34	0x3a7139d5	0.0009202038
35	0xbba15f80	-0.0049247146
36	0xba8cc7f3	-0.0010740742
37	0xbae4aebc	-0.0017447094
38	0xbb0ccce6	-0.0021484434
39	0x39f78b27	0.00047215188
40	0x3b51384e	0.003192443
41	0x3a041b29	0.00050394476
42	0xbb0caecc	-0.0021466492
43	0xba473724	-0.0007599464
44	0xbc0f8253	-0.008759099
45	0x3b96dcfa	0.004603979
46	0x3af16c14	0.0018419051
47	0x3aefa222	0.0018282572
48	0x3af7a86e	0.00188948
49	0x3a867d89	0.0010260801
50	0x3b1226eb	0.002230103
51	0x3a679711	0.00088344613
52	0xbb855ee0	-0.004070148
53	0xbb894fe3	-0.0041904314
54	0xbad89115	-0.001652273
55	0x3a7f4433	0.00097376405
56	0xbb7a90d5	-0.00382333
57	0x3b60b9f2	0.003429052
58	0xb991eca5	-0.0002783287
59	0xbac36050	-0.0014906023
60	0x3b7102c7	0.0036775337
61	0x39918700	0.00027757138
62	0xbb08a39e	-0.0020849477
63	0x3b90c144	0.0044175703
64	0xb94fcf05	-0.00019818179
65	0x3a73fc8b	0.0009307346
66	0x3a1c14f3	0.00059540494
67	0xbb07674f	-0.0020660942
68	0xba814106	-0.0009861297
69	0xbaf93fa0	-0.0019016154
70	0xba12a255	-0.00055936474
71	0xba4e4765	-0.0007868915
72	0xbab2716c	-0.0013614125
73	0x3a83f6e9	0.0010068092
74	0x39e17b33	0.00043007135
75	0xba9ddb25	-0.001204346
76	0xbacde822	-0.001570944
77	0x3abf3b9f	0.0014589912
78	0x38e51780	0.00010923948
79	0x3b38d6ae	0.002820413
80	0xbb030e2b	-0.0019997458
81	0x3ac0aa38	0.0014699167
82	0x3ab08edb	0.0013470309
83	0xb9696eb8	-0.00022261858
84	0x39ed9d32	0.00045321282
85	0xbab6cde5	-0.0013946859
86	0xbb3f39a7	-0.002917865
87	0xbb694aa3	-0.0035597465
88	0x39ce6419	0.0003936596
89	0x3b63926a	0.003472472
90	0xba4b1554	-0.00077470136
91	0xb9cc96fd	-0.00039022407
92	0xba12daac	-0.00056020427
93	0x3aeb08f0	0.0017931741
94	0xba1dfad7	-0.0006026453
95	0x3b4aa835	0.0030923013
96	0xbb8f6227	-0.0043757143
97	0x3b257089	0.0025244078
98	0x3b0995dd	0.0020993866
99	0xba463714	-0.0007561308
100	0x3a7848a7	0.0009471275
101	0xbaa5657d	-0.0012618747
102	0xbb0a6d86	-0.002112241
103	0xbbab2034	-0.005222345
104	0x3b5757ac	0.0032858653
105	0x3bccc146	0.006248626
106	0xbaf5b1b1	-0.0018744973
107	0x39a30699	0.00031094698
108	0xbb3a4da3	-0.0028427623
109	0x3bd1c2f8	0.006401416
110	0x3a661e38	0.00087783067
111	0x3a2b8817	0.00065434113
112	0xbaf68b4a	-0.0018809822
113	0xbb1ee9d8	-0.0024248268
114	0x39b15c3d	0.00033828794
115	0x3abc88d6	0.0014384042
116	0xbb0c0a0c	-0.0021368293
117	0xba7e23b5	-0.0009694652
118	0xbb0d69dd	-0.0021577992
119	0xbb21203c	-0.0024585864
120	0x388abee7	6.615911e-05
121	0x3bddb3ff	0.006765842
122	0xbb6ae999	-0.0035844801
123	0xbac4a340	-0.0015002266
124	0xbb3d19fc	-0.00288546
125	0xb9deaaeb	-0.00042470483
126	0xb9f463e4	-0.0004661373
127	0x3b98ff58	0.004669111
128	0xb8b528f5	-8.6383814e-05
129	0xbb8a29eb	-0.004216423
130	0xb9d209ac	-0.00040061527
131	0xbb9825d3	-0.004643181
132	0x3beefcfe	0.0072933426
133	0xbaa4d19f	-0.0012574679
134	0xbb65fc91	-0.0035093168
135	0x3a6ad5f5	0.00089582737
136	0x3ba6854d	0.0050818087
137	0x3aa6a3c0	0.0012713596
138	0x3a846e21	0.0010103622
139	0xba8bfb40	-0.0010679737
140	0xbbbc68cd	-0.005749798
141	0x3bab890f	0.0052348445
142	0x3b1dfbe6	0.0024106442
143	0x3b3e2b29	0.0029017425
144	0xbb556171	-0.00325593
145	0x3aa9e3a7	0.0012961522
146	0x39aba736	0.00032740243
147	0xbb13da9d	-0.0022560724
148	0xbab1ac3a	-0.0013555356
149	0xbb71c96c	-0.0036893738
150	0xbb702e87	-0.0036648826
151	0x39154868	0.00014236721
152	0x39bfce37	0.00036584
153	0x3afc8282	0.0019264969
154	0x3ab92837	0.0014126365
155	0xbacdcfa9	-0.0015702146
156	0x39f7eba6	0.00047287083
157	0x3b912d50	0.0044304505
158	0xb9c0829f	-0.00036718414
159	0x3b107576	0.0022042668
160	0xbb0d97a3	-0.0021605275
161	0x38e46d73	0.00010892274
162	0x39eb941b	0.0004493304
163	0x3aa647a9	0.0012686151
164	0xba44e767	-0.0007511288
165	0xbab3d123	-0.0013718944
166	0xbb72a9e8	-0.0037027542
167	0xbb09a4d4	-0.0021002786
168	0x3a12cfa6	0.00056004
169	0x3b42dae7	0.0029732527
170	0xbab8ab81	-0.0014089198
171	0xb8bb19ed	-8.921684e-05
172	0xbb026cef	-0.0019901355
173	0x3a0a6bb1	0.00052803295
174	0xba1dd5d5	-0.0006020938
175	0x3a17aa44	0.00057855644
176	0x3bb1fba0	0.0054316074
177	0x379dabb8	1.8795821e-05
178	0xba21fb66	-0.0006179124
179	0x3aa6ec28	0.0012735175
180	0xbc157d14	-0.009124059
181	0xbb93d22d	-0.004511139
182	0xba67b814	-0.00088393805
183	0x3ab9f9d0	0.001418883
184	0xbbe189e7	-0.0068828943
185	0xb9c4dcca	-0.00037548534
186	0xbb1e65fb	-0.0024169672
187	0xbb218834	-0.0024647834
188	0x3b922c81	0.0044608717
189	0xbbef08d8	-0.0072947554
190	0xbae9e3a2	-0.0017844329
191	0x38c20f9f	9.2535505e-05
192	0xba4d75ef	-0.0007837703
193	0xb9a6b23e	-0.00031794788
194	0xbadb364f	-0.0016724559
195	0x39ffef4a	0.00048815674
196	0x3ba81ec5	0.005130621
197	0x3b01a919	0.0019784628
198	0x3a5bdadc	0.00083867996
199	0x3a8d6a06	0.0010789044
200	0x3aeb6673	0.0017959609
201	0xb92d0000	-0.00016498566
202	0x3ac2b099	0.0014853656
203	0x3a6e7689	0.00090966426
204	0xbb483542	-0.0030549322
205	0x3b100b6f	0.0021979471
206	0x39531e3c	0.00020133791
207	0xbb51cff0	-0.003201481
208	0x3b21be63	0.002468013
209	0x3a4dedfa	0.00078555907
210	0x3a825705	0.0009944147
211	0x3b85af6e	0.0040797507
212	0x3b39ff3e	0.0028380896
213	0x3a57133c	0.0008204465
214	0x3b115883	0.0022178001
215	0x3a871c2b	0.0010308077
216	0xbb4cdb44	-0.0031258622
217	0xba4a8c17	-0.00077265635
218	0xbb6052a9	-0.0034228957
219	0xb97d8d67	-0.00024180637
220	0x3aa24355	0.0012379686
221	0xbabcc645	-0.0014402351
222	0xb9d2568a	-0.00040118798
223	0xbad3566b	-0.0016123777
224	0xbb018dfe	-0.0019768472
225	0xb93f8aac	-0.00018266839
226	0x3a82ce3f	0.0009979679
227	0xba925c5b	-0.001116644
228	0x39f45041	0.000465991
229	0xba65b4df	-0.00087626086
230	0xbb1de1cf	-0.0024090891
231	0xbb83fd26	-0.0040279804
232	0x3b371144	0.0027933875
233	0x3b7803ef	0.0037844141
234	0xb8a4e475	-7.862683e-05
235	0xb74de229	-1.2271609e-05
236	0xbb885841	-0.0041609113
237	0x3b491478	0.0030682366
238	0xb9d8e780	-0.0004137121
239	0x39250b67	0.00015739874
240	0xb9aef69f	-0.00033371613
241	0x39133263	0.00014037783
242	0xb9be863d	-0.0003633964
243	0xba43250d	-0.00074441807
244	0x3a6f247d	0.00091225636
245	0xba812934	-0.0009854198
246	0xba8859b4	-0.001040271
247	0x3a0ca421	0.0005365033
248	0x3a02a823	0.0004984161
249	0x3ad7ceb0	0.0016464796
250	0xb9421ca4	-0.00018511951
251	0xb95eb038	-0.00021237216
252	0xbad4e23a	-0.0016241737
253	0x3a61a18b	0.00086071406
254	0x396917f6	0.00022229538
255	0x39a5d324	0.00031628564

module.bi_lstm2.weight_hh_l0 f4 [128, 32]
0	0x80008964	-4.9286e-41
1	0x80008dae	-5.0825e-41
2	0x80009b49	-5.5706e-41
3	0x00008b62	5.0001e-41
4	0x000092bb	5.2637e-41
5	0x00008917	4.9179e-41
6	0x80008dc6	-5.0859e-41
7	0x80008b85	-5.005e-41
8	0x00009b71	5.5762e-41
9	0x80008b4d	-4.9972e-41
10	0x00008b53	4.998e-41
11	0x00008a12	4.953e-41
12	0x800088cd	-4.9075e-41
13	0x00008c4e	5.0332e-41
14	0x80008bc2	-5.0136e-41
15	0x0000975a	5.4295e-41
16	0x00008991	4.935e-41
17	0x00008911	4.917e-41
18	0x80008a61	-4.9641e-41
19	0x80008951	-4.926e-41
20	0x80008930	-4.9214e-41
21	0x800090f3	-5.1998e-41
22	0x00008b6e	5.0018e-41
23	0x8000a2c3	-5.8388e-41
24	0x80008b08	-4.9875e-41
25	0x80009f17	-5.707e-41
26	0x80008ae8	-4.983e-41
27	0x000094d0	5.3384e-41
28	0x00008b5b	4.9991e-41
29	0x80008a2a	-4.9564e-41
30	0x80008cde	-5.0534e-41
31	0x000088dd	4.9097e-41
32	0x80008d0a	-5.0595e-41
33	0x000089af	4.9392e-41
34	0x000088ec	4.9118e-41
35	0x000091b0	5.2263e-41
36	0x00009ab8	5.5503e-41
37	0x80008a8e	-4.9704e-41
38	0x800099df	-5.5199e-41
39	0x800094c9	-5.3374e-41
40	0x00008c0c	5.024e-41
41	0x80008993	-4.9352e-41
42	0x00008ba5	5.0095e-41
43	0x00008afd	4.986e-41
44	0x8000925e	-5.2507e-41
45	0x00008937	4.9223e-41
46	0x00008ae8	4.983e-41
47	0x0000a07b	5.757e-41
48	0x80009112	-5.2041e-41
49	0x00008adb	4.9812e-41
50	0x00008b0d	4.9882e-41
51	0x00008ac9	4.9787e-41
52	0x80008926	-4.92e-41
53	0x80008c00	-5.0223e-41
54	0x800088cd	-4.9075e-41
55	0x00008c7a	5.0393e-41
56	0x8000947f	-5.327e-41
57	0x80009cc6	-5.624e-41
58	0x8000896f	-4.9302e-41
59	0x80008e4c	-5.1047e-41
60	0x80008976	-4.9312e-41
61	0x0000aa6c	6.1136e-41
62	0x00008983	4.933e-41
63	0x800089dc	-4.9455e-41
64	0x800088ce	-4.9076e-41
65	0x00008ae5	4.9826e-41
66	0x8000890f	-4.9167e-41
67	0x00008a51	4.9619e-41
68	0x80008c85	-5.0409e-41
69	0x800088e1	-4.9103e-41
70	0x80008978	-4.9314e-41
71	0x00009006	5.1666e-41
72	0x80008918	-4.918e-41
73	0x8002ba4d	-2.50503e-40
74	0x00008ac6	4.9783e-41
75	0x0000a7f5	6.0252e-41
76	0x00008a34	4.9578e-41
77	0x80008a73	-4.9666e-41
78	0x800090a6	-5.189e-41
79	0x8000a2df	-5.8427e-41
80	0x80008b8f	-5.0064e-41
81	0x80008a5b	-4.9633e-41
82	0x0000a0c0	5.7666e-41
83	0x80008b14	-4.9892e-41
84	0x00008bef	5.0199e-41
85	0x00008951	4.926e-41
86	0x00008abc	4.9769e-41
87	0x00008a32	4.9575e-41
88	0x000088be	4.9054e-41
89	0x00008c82	5.0405e-41
90	0x00008a87	4.9694e-41
91	0x80008e4a	-5.1044e-41
92	0x00008baa	5.0102e-41
93	0x00008ce1	5.0538e-41
94	0x00008b3b	4.9946e-41
95	0x800089cc	-4.9432e-41
96	0x800095e3	-5.3769e-41
97	0x8000a400	-5.8832e-41
98	0x0000a2a4	5.8344e-41
99	0x80008b4b	-4.9969e-41
100	0x80009d63	-5.646e-41
101	0x80008948	-4.9247e-41
102	0x00008d57	5.0703e-41
103	0x00008a59	4.963e-41
104	0x00008bf4	5.0206e-41
105	0x8000a365	-5.8615e-41
106	0x000088c3	4.9061e-41
107	0x80008f88	-5.149e-41
108	0x00008b3e	4.995e-41
109	0x00009900	5.4886e-41
110	0x00008b41	4.9955e-41
111	0x80008a98	-4.9718e-41
112	0x000089b3	4.9397e-41
113	0x8000913b	-5.2099e-41
114	0x0000a802	6.027e-41
115	0x80009691	-5.4013e-41
116	0x000089c9	4.9428e-41
117	0x00008905	4.9153e-41
118	0x80008b32	-4.9934e-41
119	0x80008ae4	-4.9825e-41
120	0x00008bbc	5.0127e-41
121	0x80008b86	-5.0052e-41
122	0x800089ab	-4.9386e-41
123	0x00008a46	4.9603e-41
124	0x80008c0e	-5.0242e-41
125	0x80008c21	-5.0269e-41
126	0x00008c06	5.0231e-41
127	0x800088eb	-4.9117e-41
128	0x00008a6e	4.9659e-41
129	0x0000914c	5.2123e-41
130	0x00008a15	4.9534e-41
131	0x000088d8	4.909e-41
132	0x800089f4	-4.9488e-41
133	0x00008983	4.933e-41
134	0x800088d9	-4.9092e-41
135	0x00008a61	4.9641e-41
136	0x80008ab3	-4.9756e-41
137	0x00008a05	4.9512e-41
138	0x00008add	4.9815e-41
139	0x0000a75a	6.0034e-41
140	0x80008c41	-5.0314e-41
141	0x80008ba4	-5.0094e-41
142	0x800093cb	-5.3018e-41
143	0x0000a703	5.9913e-41
144	0x800088bf	-4.9055e-41
145	0x80009570	-5.3608e-41
146	0x80008b77	-5.003e-41
147	0x00008a59	4.963e-41
148	0x8000898d	-4.9344e-41
149	0x00009fae	5.7282e-41
150	0x00008a04	4.951e-41
151	0x00008c25	5.0274e-41
152	0x80008aa9	-4.9742e-41
153	0x80008b7a	-5.0035e-41
154	0x00008ae2	4.9822e-41
155	0x00008a91	4.9708e-41
156	0x00008add	4.9815e-41
157	0x000089cc	4.9432e-41
158	0x80008a9c	-4.9724e-41
159	0x00008bcc	5.015e-41
160	0x8000895a	-4.9272e-41
161	0x00008cc4	5.0497e-41
162	0x80008b62	-5.0001e-41
163	0x800088c0	-4.9057e-41
164	0x00008b3d	4.9949e-41
165	0x00008a25	4.9557e-41
166	0x0000895b	4.9274e-41
167	0x8000ab51	-6.1457e-41
168	0x80008ac5	-4.9781e-41
169	0x80008a15	-4.9534e-41
170	0x80008b16	-4.9895e-41
171	0x800088f0	-4.9124e-41
172	0x00008b25	4.9916e-41
173	0x8000a88b	-6.0462e-41
174	0x00008930	4.9214e-41
175	0x80008b53	-4.998e-41
176	0x00009f5f	5.7172e-41
177	0x80008af4	-4.9847e-41
178	0x00008c40	5.0312e-41
179	0x80008a77	-4.9672e-41
180	0x80008bac	-5.0105e-41
181	0x00008aa0	4.9729e-41
182	0x80008acc	-4.9791e-41
183	0x80008971	-4.9305e-41
184	0x80008d8e	-5.078e-41
185	0x000091a2	5.2243e-41
186	0x80008a77	-4.9672e-41
187	0x8000a747	-6.0008e-41
188	0x00008edd	5.125e-41
189	0x80008ad7	-4.9806e-41
190	0x000088c1	4.9058e-41
191	0x000089d3	4.9442e-41
192	0x000088bc	4.9051e-41
193	0x80008b3b	-4.9946e-41
194	0x00008dc4	5.0856e-41
195	0x000088fd	4.9142e-41
196	0x80008a04	-4.951e-41
197	0x80008b44	-4.9959e-41
198	0x80009c4d	-5.607e-41
199	0x00008ca4	5.0452e-41
200	0x000098c2	5.4799e-41
201	0x000088ff	4.9145e-41
202	0x80008b28	-4.992e-41
203	0x80008cc6	-5.05e-41
204	0x000090a0	5.1882e-41
205	0x800094b6	-5.3347e-41
206	0x00008ba6	5.0096e-41
207	0x8000a952	-6.074e-41
208	0x80008b3d	-4.9949e-41
209	0x00008c24	5.0273e-41
210	0x00009eb0	5.6926e-41
211	0x00008e6c	5.1091e-41
212	0x00008fb9	5.1558e-41
213	0x00009ee7	5.7003e-41
214	0x00008a35	4.958e-41
215	0x80008b7c	-5.0038e-41
216	0x00008c22	5.027e-41
217	0x80008928	-4.9202e-41
218	0x0000afbd	6.3043e-41
219	0x00008a02	4.9508e-41
220	0x00008bcf	5.0154e-41
221	0x800089d3	-4.9442e-41
222	0x00008cbe	5.0489e-41
223	0x0000a02d	5.746e-41
224	0x00008ad4	4.9802e-41
225	0x80008e7c	-5.1114e-41
226	0x0000a248	5.8216e-41
227	0x00008bc1	5.0134e-41
228	0x00008990	4.9348e-41
229	0x00008aa0	4.9729e-41
230	0x8000890f	-4.9167e-41
231	0x00008adb	4.9812e-41
232	0x00008a6b	4.9655e-41
233	0x80009cf4	-5.6304e-41
234	0x00008b15	4.9893e-41
235	0x800097a4	-5.4398e-41
236	0x000098b3	5.4778e-41
237	0x00008931	4.9215e-41
238	0x80008a85	-4.9691e-41
239	0x80008ac9	-4.9787e-41
240	0x800088de	-4.9099e-41
241	0x00008ae9	4.9832e-41
242	0x80008bed	-5.0196e-41
243	0x8000890c	-4.9163e-41
244	0x00009902	5.4889e-41
245	0x800089e4	-4.9466e-41
246	0x00008e36	5.1016e-41
247	0x80016a7e	-1.30038e-40
248	0x0000919a	5.2232e-41
249	0x00008b44	4.9959e-41
250	0x00008ed6	5.124e-41
251	0x80008bc4	-5.0138e-41
252	0x00008d8b	5.0776e-41
253	0x80009d24	-5.6371e-41
254	0x80008b93	-5.007e-41
255	0x80008a1a	-4.9542e-41
